model/model_20200907110543/model_final_hcp_4_0300_sm.pth (torch_old, 960817 bytes, 59 tensors)

module.net_sm.conv1.weight f4 [32, 1, 7, 7, 7]
00000000: bfdc 9cbb 49e5 35bd 192e 29bc 82d1 773c
00000010: 6ee3 f2bc 9c68 49bd 8282 21bd d1fb 6bba
00000020: 8aba 99bc 0590 81bc 4c92 85bb e032 46bc
00000030: 9bb3 94bc 3223 5ebc c08e 76bc f3e8 cd3b
00000040: ed0f 3cbc b590 953b fa8a 573a cbf6 a73b
00000050: 2f92 213b c8e6 2cbc 0608 3cbd ffb6 07bd
00000060: 8f19 81bb ce49 cbbb 3d95 e3ba fafb a23b
00000070: 103f 52bc 1139 f5bc 2e9d dfbc de39 2c3c
00000080: 8bd0 f8bb ab0b 6dbc d736 3a3a d7a2 4abc
00000090: 1885 3ebc 8e6b 5fbc fc75 7cbc e522 d8bc
000000a0: 282a 6fbc 041c 823c 54ba 53bc 6f1c c9bc
000000b0: f570 733c b45e 593c f0b1 6d3c c9d9 c83c
000000c0: 72a0 afbc 08e8 f1bc fd20 12bc 0942 00bb
000000d0: f407 17bb 35aa 253c 0517 ff3b a73c 13bb
000000e0: 1f8c 0a3c fb1d 873b a99c 963c e4cd 03bb
000000f0: 628a c6bb 5ca6 e6b9 81e7 72bc 50b1 2abd
00000100: 7326 bebc 648b 863c 6795 54bc 9c63 01bd
00000110: 6aef a53c 6f73 eabb d78a 35bd dbf8 2bbd
00000120: d9ce 25bd f997 1fbc a50d 903b 849d 51bb
00000130: a72c 62bc d17b 13bb e815 12bc 81b3 83bc
00000140: 477d 143c cfe1 833c 71a5 26bc bcaf 043c
00000150: e36a bebc a046 05bd f2b4 9abc f4e3 2f3b
00000160: 0adc 08bd 56b8 14bd 61ad 303c 541f 9abc
00000170: 7cfe 86bd ed8a 22bd e17d 1d3d 1684 743c
00000180: e462 a7bc f753 9d3b 53ba c3bc abe9 cfbc
00000190: 994f f5ba 70af 193c 733c 3e3c d995 5bbc
000001a0: 9bda 243d f8d2 7cbc 2093 e0b9 6064 e2bc
000001b0: 1632 683c 2ab5 603c 5a4e 29bc 391d 24bb
000001c0: d4e2 e6bc c3f2 40bc 1031 fb3a 1358 7bbc
000001d0: 4493 bfbc 7f7d 19bb 1070 6dbb e001 08bd
000001e0: f932 45bd 938f 80bd f021 c3bc 0e93 743b
000001f0: 14a1 35bc 03c0 cabb 174f 02bc 000d 2d3a
00000200: 0472 7cbc a7d4 ea3b b369 b5bc 6db1 26bd
00000210: 4d57 5a3c 860d a4bc eaab aebc 1a31 31bc
00000220: b1da 673b 5849 dabc d898 5cbd 155d 723b
00000230: a230 84bc 1796 07bd 67cd 34bd f5f1 8ebc
00000240: afd1 913c 752d 163c 25cc 2f3d cf9c 7d3c
00000250: 68c6 753c 5fae d3bc e4f2 5bbc 66aa fa3a
00000260: 02bd 20bc cc5d 39bc 77df c1bc 34e6 62ba
00000270: f9a4 3fbb bc6f 9dbb 0b77 aabc 9c08 eebb
00000280: 924f be3b 057f 0abc 7c89 093d dbbc 363d
00000290: a129 473c 4276 ccbc 223e 6bbd 1b89 76bc
000002a0: 0b04 a43b dc6d d2bb d39c a63c 2e3d bd3c
000002b0: 1ba0 60ba 3c5d c5bc d0bc 9fbc e27f 5d3b
000002c0: ef76 3ebc e67c 553c d589 4d3d 7f9a 9c3b
000002d0: 4a97 11bd 4296 00bd 37d3 ebbc 0813 5b3c
000002e0: 1d80 393d 9897 353d 6e90 4cbc 9c7c 84bc
000002f0: fd35 343c 21a8 25bd 3072 5c3b 6057 213d
00000300: 79dd af3a 460e 883b fc9f 163d 9c0f be3c
00000310: be23 5dbc 78cc 43bc 6b54 6ebc 5080 febb
00000320: 3ef5 963b 6678 47bd ef4d a0bc 2940 023d
00000330: 30e7 13bc 1653 20bd 633e 823b 8eb1 143c
00000340: e64f 3abc c774 77ba 7539 7739 306e b23c
00000350: dfa9 c23c 959e 75bc ee28 01bd ac17 19bd
00000360: 4bba 8a3b 1081 9c3c 5ee1 ab3c 554b 033d
00000370: 0f18 b53c f8be c4bc ffce 34bd c685 99bc
00000380: 7e2c e03c 07d8 00bd 02b9 03bc d746 563d
00000390: 6127 06bd e5b2 33bd 23fe 90bb c2eb 893c
000003a0: adc6 c6bc 0398 8c3c fba2 193c 10ae babc
000003b0: af24 bebb d62a 8fbc ddf4 44bd 0679 48bc
000003c0: 8164 643c 6e20 ffbc 6831 0fbd 5bee 063d
000003d0: b6a1 493c 7e1b 04bb 54c9 68bc d66e 303a
000003e0: 6aaa fa3b 19a3 233c 4be9 153c cfd5 043d
000003f0: 372b 453c a041 8e3b fb89 48bb 5796 263b
-0.004787057 -0.044408116 -0.010325932 0.015125634 -0.029649463 -0.04917203 -0.039431103 -0.0009002062
-0.018765707 -0.015815744 -0.004076278 -0.0120970905 -0.018152049 -0.013558196 -0.015048683 0.006283873
-0.011478406 0.0045643696 0.0008222308 0.0051258556 0.0024653783 -0.010553069 -0.04590609 -0.033133503
-0.0039398144 -0.0062038666 -0.0017363202 0.0049738856 -0.012832418 -0.029934438 -0.027296629 0.0105118435
-0.0075932196 -0.014468114 0.00071035087 -0.012367926 -0.011628412 -0.013636483 -0.015408989 -0.026383827
-0.014597453 0.0158825 -0.012922842 -0.024549691 0.014858474 0.013267208 0.014507756 0.02451791
-0.021438811 -0.029529586 -0.008918998 -0.001957061 -0.0023045512 0.010111381 0.0077847266 -0.0022466572
0.008456259 0.004123447 0.018385248 -0.0020111734 -0.006058977 -0.00043992966 -0.014825703 -0.041673005
-0.023211693 0.016423889 -0.012975073 -0.031589136 0.020255763 -0.007154874 -0.04432186 -0.041985374
-0.04048047 -0.009740823 0.004396158 -0.0031984756 -0.013804591 -0.002250422 -0.008916356 -0.016076805
0.009063072 0.016098885 -0.01017128 0.008098539 -0.023244327 -0.032538056 -0.01888511 0.0026838752
-0.03341297 -0.03630861 0.010783524 -0.018813767 -0.06591508 -0.03968327 0.038450126 0.01492407
-0.020432897 0.004801269 -0.023892557 -0.025379976 -0.0018715739 0.0093802065 0.011611092 -0.013402426
0.04024754 -0.015431158 -0.00042834226 -0.027635753 0.014172098 0.013715068 -0.010333622 -0.0025041832
-0.028184332 -0.011776629 0.0019164402 -0.015340823 -0.023385651 -0.0023420749 -0.0036230125 -0.033204913
-0.048144314 -0.062773846 -0.023819894 0.0037319097 -0.011085767 -0.0061874404 -0.007953427 0.00066013634
-0.015408043 0.0071664634 -0.022145128 -0.04069655 0.013326478 -0.02002598 -0.02132221 -0.010814929
0.0035378153 -0.026646301 -0.0538567 0.003698175 -0.016136471 -0.03310212 -0.0441412 -0.017449358
0.01780018 0.009166111 0.042919297 0.015479281 0.015000917 -0.025839983 -0.013424609 0.0019124269
-0.009810688 -0.011313867 -0.023666127 -0.0008655519 -0.0029242618 -0.0048045795 -0.020808717 -0.00726421
0.0058078254 -0.008453135 0.03357838 0.0446137 0.012155921 -0.024958733 -0.0574323 -0.015047337
0.005005365 -0.0064217877 0.020338451 0.023100462 -0.00085687794 -0.02409231 -0.019499213 0.0033798148
-0.011625036 0.013030266 0.050180275 0.0047791596 -0.03554467 -0.031393297 -0.028787239 0.013371237
0.045288194 0.044334024 -0.012485607 -0.0161727 0.0109992 -0.040443543 0.0033637397 0.039389968
0.0013417444 0.004152092 0.036773667 0.023200803 -0.013497291 -0.011950605 -0.014546494 -0.007766761
0.004606872 -0.048698805 -0.019568412 0.03179947 -0.009027287 -0.039141737 0.003974722 0.009075535
-0.011371588 -0.00094397034 0.0002357716 0.021781057 0.023762641 -0.014991422 -0.031533174 -0.03737609
0.0042336336 0.01910451 0.020981487 0.032054264 0.022106199 -0.024016842 -0.04414272 -0.018740546
0.027364966 -0.03145602 -0.008039715 0.052313652 -0.0327524 -0.04387178 -0.0044248267 0.01683605
-0.024264658 0.017162329 0.0093772365 -0.022788078 -0.005802713 -0.01747648 -0.048085082 -0.0122358855
0.013939978 -0.031143393 -0.034959227 0.032942157 0.012306621 -0.0020157988 -0.014208157 0.0006730383
0.0076497095 0.009987616 0.00914986 0.032430466 0.012034229 0.004341319 -0.003059982 0.00254192

module.net_sm.bn1.weight f4 [32]
00000000: 4dd8 053f 769d 0b3f 77c6 e93e 7ab6 0d3f
00000010: 6049 123f 7867 0c3f 1a92 0a3f 9e5f 173f
00000020: 16e4 113f 21b6 103f d84a 0a3f b7c4 f63e
00000030: 1679 133f 323e 0e3f 4b51 123f 0455 063f
00000040: 02d3 fa3e 82a5 083f 3f36 043f 85fa 093f
00000050: f7a4 fe3e acc0 113f c2c3 e53e bfdd 0e3f
00000060: f73b 0d3f 6232 113f bb61 e33e 3563 103f
00000070: 7d8a 0d3f 4d71 1f3f 92f9 053f 8709 0b3f
0.52283174 0.5453714 0.4565923 0.5535656 0.5714321 0.5484538 0.54129183 0.59130275
0.56988657 0.56527907 0.5402045 0.48196957 0.5760664 0.5556365 0.57155293 0.52473474
0.4898911 0.53377545 0.5164527 0.5389789 0.49735233 0.5693462 0.44875914 0.5580711
0.55169624 0.56717503 0.444105 0.5640138 0.5528944 0.6228226 0.5233394 0.5431141

module.net_sm.bn1.bias f4 [32]
00000000: 7be2 8bba f571 7f3d 03a9 77bb a41d 9a3c
00000010: 2909 b53b 5f48 383b 8f02 f13a 2484 6e3d
00000020: d01d c13a 34ee 213c 4505 9e3b fb82 363c
00000030: 4f87 3b3b 53b8 953c ff0c 723b e340 8a39
00000040: 3816 3c3d e0f3 0e3a 1c15 c73b 8e8d 28bc
00000050: 3781 48bd 6bcf b03b 6772 7a3b 937d 1f3d
00000060: a51c de3a da59 3f3d 1eb5 cf3a 5c61 163c
00000070: d8a9 b03a 4f6b c5bc e234 84bb 38c7 4bbb
-0.0010672355 0.062364537 -0.0037789948 0.018812962 0.0055247736 0.0028119308 0.0018387603 0.058231488
0.0014733616 0.009883452 0.0048224055 0.011139627 0.0028614586 0.01827637 0.0036934016 0.00026369756
0.045919627 0.00054532103 0.0060755145 -0.0102876555 -0.048951354 0.00539582 0.0038215162 0.038938116
0.0016945793 0.04671655 0.0015846824 0.009178486 0.0013478352 -0.02409902 -0.0040346244 -0.0031094085

module.net_sm.bn1.running_mean f4 [32]
00000000: a537 edb5 d039 0bb7 6871 e236 a828 d1b6
00000010: c04c f6b5 6f14 0836 d1d2 86b6 b6dc aeb6
00000020: 373d 50b5 8c1e c0b6 df64 88b5 53fc ae34
00000030: eb25 0b36 cc7a 09b6 bcc6 0036 fd51 bfb6
00000040: 2bae e5b5 a27e 9d35 f96c a936 da7e 0fb6
00000050: 05c7 cc36 669c 5936 0532 48b6 0f41 6cb6
00000060: b450 e2b6 0655 0fb5 3ea3 7236 28d0 1f36
00000070: a251 8db5 079e 0637 c42f bab6 ae4a 16b4
-1.7674071e-06 -8.298506e-06 6.748527e-06 -6.2334184e-06 -1.8350765e-06 2.0277473e-06 -4.0180535e-06 -5.2112982e-06
-7.757512e-07 -5.725602e-06 -1.0162147e-06 3.2593616e-07 2.0734685e-06 -2.0486068e-06 1.9189165e-06 -5.7017883e-06
-1.7112519e-06 1.1734267e-06 5.0492786e-06 -2.1382498e-06 6.1028427e-06 3.2426556e-06 -2.9831438e-06 -3.520461e-06
-6.74472e-06 -5.3395377e-07 3.615583e-06 2.381401e-06 -1.0529077e-06 8.023816e-06 -5.5487926e-06 -1.3997007e-07

module.net_sm.bn1.running_var f4 [32]
00000000: a5d1 223b 3df9 873b 6767 323b db51 ae3b
00000010: 584f 853b b16e b53b 9d52 2b3b d4d7 703b
00000020: 7ad5 9c3b dcdf cc3b 6f0c 513b 83ca 843b
00000030: 4f84 8a3b 74d3 603b 5b66 733b a5a9 783b
00000040: e11d 743b 9674 4b3b 2bb5 443b b4c0 953b
00000050: b1de ab3b b89f 663b dadc 6b3b 5be2 483b
00000060: 37c4 3f3b 7584 823b 951a 6b3b d487 ae3b
00000070: 2e5c 873b a44d b83b 9ffe 7a3b c948 ab3b
0.0024844196 0.0041495846 0.0027222277 0.0053198165 0.0040682964 0.005536877 0.002614177 0.0036749737
0.0047861906 0.006252272 0.003189828 0.0040524616 0.004227198 0.0034305723 0.0037139866 0.0037942913
0.0037249255 0.0031044832 0.003001521 0.004570091 0.0052450527 0.0035190415 0.0035989792 0.0030652496
0.002926124 0.0039830753 0.0035873998 0.0053262506 0.0041308617 0.00562449 0.0038298739 0.0052271825

module.net_sm.layer1.0.conv1.weight f4 [32, 32, 3, 3, 3]
00000000: ec65 54bb eb24 e2bc 249c 4d3c 28f8 e23c
00000010: 1a48 9fbb ee7a 01bd 58f1 a13c c2ee ee3c
00000020: 6a06 143d f308 bdbb 6a32 d0bc f298 b8bb
00000030: 66f8 18bd ab90 d0bc 69bb 6cbc a950 4dba
00000040: 9b0c 82bc b61b 81bc f9ca 93bc fba4 aa3c
00000050: 218a aabc 863a ffbb c5af 24bc 8b1f 5f3b
00000060: b1e6 a53c 1b62 023c 2b72 133c 61eb 863d
00000070: 4cea 99bc 2ee5 863c 8067 41bc dfb3 20bd
00000080: d182 42bc 6b57 b13c 8d16 7c3c 82c4 7c3d
00000090: e4ae c7bc ff35 323d 3f9f 9a3a e15c 24bd
000000a0: af42 5a3b 7e27 48bd b0c1 1e3c 6450 8b3b
000000b0: b112 013d e27c cf3c 06da d03b 4c4b af3a
000000c0: fddd 1b3c 5ceb f33c d8aa 3abc 661a 353d
000000d0: 1f62 acbc ed12 e1ba fd5f e8bc cddc 8bbc
000000e0: 2960 5a3c 19fc 29bd 4a8c a5bb a3a9 9bba
000000f0: 3916 17bd dbfa c3bc 2964 9e3c 6f52 b23c
00000100: 6526 283d d61d a1bb 2618 94bb 58f2 53bc
00000110: ed40 493c eb8c 43bc acd7 b2bc 4bc7 29bd
00000120: ca8e 513b f709 f4bc 648a c0bb effb 593c
00000130: 94c4 093d c300 f3bc b6fb c23c c48b 0c3c
00000140: 870b 7b3c c598 6fbb 7b0c 92bb fc62 873c
00000150: 4dfb 25bd 3b1b c03c 98ec 03bb ccc2 ca3c
00000160: 356d 843d 36b8 d93c 45cc b63c f010 9ebb
00000170: 090a a8bb 29b9 50bc 6180 843c 9f00 10bd
00000180: 8138 083c 137e ceb9 1906 1c3c 6d07 9ebc
00000190: 8e46 063d f573 85bc f230 57bc 16ca 383d
000001a0: 3ab9 753b 134f 6f3b 8dec 923b 0463 0c3c
000001b0: b0f8 e93c 9bef 06bc a878 693c ba9e cc3b
000001c0: f90e 173d 309d dcbb b2c4 72bc c225 4a3c
000001d0: d978 823c 74b9 2c3d 0d18 bebc cea8 0cbd
000001e0: e391 a4bc 86dc 97bc d041 f63c e10d 22bc
000001f0: 75b0 0cbd 6a3a e33c 621c 1bbd dd5e cabc
00000200: 7ead 7fbd 211d 8b3b 7363 203d 4e89 b63c
00000210: af6e 783a d279 5e3d e06a 5f3b 4c42 ab3c
00000220: 8796 a1bc 6422 143d 3a11 48bd a104 febb
00000230: a402 f23c d6f7 8c3c 276c b73c acee e33c
00000240: 9bf4 9c3c 4142 53bb 9805 08bb caff 87bc
00000250: 1a2f 823c bb24 0dbc 51eb d33c 1d8b bc3c
00000260: bb4f 65bd 8a8c 943c 6d9f f1bc 5800 4b3b
00000270: 794c 6d3d e1a2 2fbb f295 a23c 4934 32bb
00000280: 5e2f b8bc c036 533d 6724 9cbb fec9 0d3d
00000290: 24b6 073c 0b24 c83b 5173 7fbc e708 05bc
000002a0: 09b1 4ebc b58f 59bd 5349 e1bb 0b6d bebc
000002b0: bc53 79bb 1a9f 113d df33 b4ba 04fc d8bb
000002c0: 518c 8abc cc6a 27bd 015b 743b 92c3 6abc
000002d0: 3462 ae39 a2ad 12bd 8cff 3fba e15d 11bc
000002e0: 618f 8f3a 5fe9 66bc 9fc7 f9bb 0367 ae3c
000002f0: ebe0 e3bc 9bea 50bb 9eba 403b 1c70 813c
00000300: 6472 acba cf31 5d3c 0bb9 b43c 1016 e23c
00000310: 731b 103d 4f18 5d3d ded4 8d3c 8156 af3c
00000320: a42c c43c b049 bf3b 20d2 003d cb16 c43c
00000330: 3f7c 9c3b 6430 50bb c2bb 053c 4cf6 e53b
00000340: 1422 cebc 6a3d 4a3c 2a2c 343b ce1f 86bc
00000350: 4681 04bd f7df 6a3c f813 b13c 2050 093c
00000360: 1727 c73c 1ada b63c a13f ba3a e45f 9c3b
00000370: 48dd de3b a42f b3bc 41ec 7cbb 7151 e53c
00000380: c677 0f3d 7f2c 0e3c 9bd1 4f3c 39a6 9d3a
00000390: 36be 81bd 6154 363d 5577 c73b 5424 0c3d
000003a0: 2e1f 17bd 1ba3 dc3c db01 17bc 7a28 bbbb
000003b0: 9388 13bc 4de8 133c ef49 e9ba 9a4f 92bc
000003c0: 6cd0 c13b df00 dfb8 75b6 d33c b0d9 503d
000003d0: c481 e9bb 0007 ee3c 3758 d4bb 1f61 813b
000003e0: a05b 463c 1d33 ba3c 73b5 493a 139f 31bd
000003f0: 3c5a 22bd 24ad b5bc 6ba3 0d3d 73b6 843c
-0.0032409383 -0.027605494 0.012549434 0.02770622 -0.00486089 -0.031611376 0.019768402 0.029166583
0.03613893 -0.005768889 -0.025414664 -0.005633467 -0.037346266 -0.025459608 -0.014448979 -0.00078321487
-0.015875151 -0.015760284 -0.01804112 0.020830622 -0.020817818 -0.007788959 -0.010051672 0.00340459
0.020251604 0.0079579605 0.008999388 0.06587864 -0.01878848 0.016466703 -0.0118044615 -0.03923404
-0.011872009 0.02164813 0.015386236 0.061710842 -0.024375387 0.043508526 0.0011796727 -0.04012764
0.0033303907 -0.048865788 0.009689733 0.0042515267 0.031511966 0.025328103 0.0063736467 0.0013373881
0.009513375 0.029775314 -0.011393271 0.04421463 -0.021042882 -0.0017171778 -0.028366083 -0.01707306
0.01332859 -0.041500185 -0.005052124 -0.0011876117 -0.036886428 -0.023923328 0.01933487 0.021767823
0.04105224 -0.004916887 -0.0045194803 -0.012936197 0.012283546 -0.011935453 -0.021831356 -0.041449826
0.0031975978 -0.029789908 -0.0058758724 0.013304695 0.033634737 -0.02966345 0.023801666 0.008578245
0.015322573 -0.0036559564 -0.004457054 0.016526692 -0.040522862 0.023450484 -0.0020130035 0.02475109
0.06466142 0.026577096 0.0223142 -0.0048237965 -0.0051281494 -0.012739458 0.016174497 -0.035156842
0.008314253 -0.00039385314 0.009522938 -0.01929065 0.03278213 -0.016290644 -0.013134228 0.0451146
0.0037494437 0.0036515638 0.0044837655 0.008568529 0.028560966 -0.008235837 0.014249958 0.0062445076
0.036879513 -0.0067326054 -0.014817404 0.012338104 0.015926765 0.04216905 -0.023204828 -0.034340672
-0.020089095 -0.018537771 0.030060679 -0.009891004 -0.03434797 0.027737815 -0.037868865 -0.024703437
-0.062421314 0.004245416 0.039157342 0.022282269 0.00094769424 0.054315396 0.0034090802 0.020905636
-0.019725097 0.03616561 -0.048844554 -0.0077520167 0.029542275 0.017208021 0.022390438 0.027823769
0.019159606 -0.0032235535 -0.0020755287 -0.016601462 0.0158916 -0.008614714 0.025869044 0.023015553
-0.05598424 0.01813342 -0.029494965 0.0030975547 0.057934258 -0.0026799964 0.01984689 -0.002719181
-0.022483524 0.051565886 -0.0047650817 0.034616463 0.008283172 0.0061078123 -0.015591458 -0.008119798
-0.012615451 -0.053115565 -0.006875196 -0.023245355 -0.0038044294 0.03555212 -0.0013748369 -0.0066218395
-0.016912611 -0.040873334 0.0037285688 -0.014328854 0.00033261033 -0.03581012 -0.0007324151 -0.00887248
0.0010952764 -0.014093726 -0.0076226736 0.021289354 -0.02781721 -0.0031878117 0.0029408108 0.015800528
-0.001315665 0.013500645 0.022060892 0.02759841 0.035182428 0.05397826 0.017313417 0.021403553
0.023947068 0.0058376417 0.03145039 0.02393665 0.0047755535 -0.0031767124 0.008162441 0.0070178863
-0.025162734 0.012343744 0.0027492144 -0.016372588 -0.032349847 0.014335624 0.021615967 0.00838092
0.024310632 0.022320796 0.0014209637 0.0047721732 0.006801281 -0.021873303 -0.0038592967 0.027992936
0.035026334 0.008677601 0.012684251 0.0012027688 -0.06335108 0.044514064 0.0060872235 0.034214333
-0.03689497 0.026933243 -0.009216751 -0.0057116123 -0.00900473 0.009027553 -0.0017798523 -0.017860223
0.0059147384 -0.00010633631 0.025843838 0.050988853 -0.007126065 0.029056072 -0.0064802426 0.0039483453
0.012106806 0.02272945 0.00076945795 -0.043364596 -0.039636835 -0.022177286 0.034579676 0.01620028

module.net_sm.layer1.0.bn1.weight f4 [32]
00000000: 7f26 053f 9e4d 013f be81 033f e082 fd3e
00000010: 908e 013f a62c e93e ef11 073f 77d9 033f
00000020: 0819 073f ef69 013f 4520 f93e bb03 033f
00000030: 6737 073f d62f 083f d5ae 113f 01ed fa3e
00000040: f888 023f 4c95 033f 7d9c 023f 9f2c 023f
00000050: 3227 063f f8f6 f73e e733 f53e 5d00 033f
00000060: a432 013f 9e57 fd3e 9406 fe3e d454 f63e
00000070: 184b ef3e 32a7 fa3e 6f29 f23e 9a82 0e3f
0.52011865 0.5050906 0.51369846 0.49513912 0.5060816 0.45541877 0.5276174 0.515037
0.5277257 0.50552267 0.48657432 0.5117757 0.5281891 0.5319799 0.569074 0.49008945
0.5099025 0.51399684 0.5102003 0.50849336 0.5240356 0.4843061 0.4789116 0.5117243
0.50467896 0.4948091 0.49614394 0.48111594 0.4673698 0.48955685 0.47297236 0.5566803

module.net_sm.layer1.0.bn1.bias f4 [32]
00000000: 48e4 e43c 3981 e23d 665a 1d3c cabf fc3b
00000010: e880 eabc e872 93bd 9858 973d 7013 b5ba
00000020: 1300 3d3d 9230 2dbd 0e83 413d 8e52 8a3d
00000030: 3b12 513d b6ed bfbb e3b0 093e 329a 54bb
00000040: 7d8d 5b3c 33c0 debc de14 07bd 12f0 d53d
00000050: 689a c33d 1c32 343b 97fd 25bd db31 9f3c
00000060: e6dd 9fbc fd7c b4bc 0e9a 4f3c c0a5 2cbd
00000070: e5a4 c7bb 1a08 0a3d 8fbb 003d 567d 813d
0.027940884 0.110598035 0.009604072 0.0077132927 -0.02862592 -0.07199651 0.07389945 -0.0013814997
0.04614265 -0.04228265 0.047244124 0.06754027 0.051042777 -0.005857195 0.13446383 -0.003244054
0.013400433 -0.027191257 -0.032978885 0.104461804 0.09550935 0.0027495688 -0.040525045 0.019432953
-0.01951499 -0.022032255 0.012671007 -0.04215026 -0.006092655 0.033699133 0.03142887 0.06322734

module.net_sm.layer1.0.bn1.running_mean f4 [32]
00000000: b227 5c3f 41fc de3f ec75 dc3e b40b b8bf
00000010: 3c9a aabf 4c8a 4b3f fc04 c93f 547f 9cbf
00000020: e6bf 4e3f 9a3f 6bbf fdcf 4d3f 66f1 ce3f
00000030: 81b3 8abf 04b2 973f 1c95 5540 feec a1bf
00000040: 963f c63f e9d6 dfbd 198f cebf 6e68 9f3f
00000050: 75d0 0340 baba 413f 2fea acbf 50a6 0ebf
00000060: 4d33 68c0 ed29 8d3e 37ed 8140 f3d9 57bf
00000070: 1797 b53f 1624 12be 2ec4 2b40 c665 acbf
0.8599807 1.7420732 0.43058717 -1.4378572 -1.3328319 0.795079 1.5704646 -1.2226357
0.80761564 -0.91893923 0.8039549 1.6167419 -1.083603 1.1851201 3.337226 -1.2650449
1.5488155 -0.10929663 -1.613742 1.2453744 2.0595982 0.7567555 -1.3508967 -0.5572252
-3.6281312 0.2757105 4.060207 -0.8431694 1.4186734 -0.14271578 2.6838489 -1.3468559

module.net_sm.layer1.0.bn1.running_var f4 [32]
00000000: a3b6 a23f aa4b 7340 339e 863f 857e 3a40
00000010: 933d 3340 42b4 fa3f bfe3 4240 0ce9 2740
00000020: 6589 a23f 1431 dd3f 0c54 773f f5cb 5140
00000030: a83c e43f 032b 0840 4905 5741 0212 fa3f
00000040: e524 5040 e423 b63f 6391 8f40 49b1 0240
00000050: 3240 a540 3c1a b03f 9609 2d40 6c75 c93f
00000060: 4e06 8b41 9483 243f ee15 ad41 0a8a 8c3f
00000070: 59fa 3f40 519b 343e dd32 1341 8426 3140
1.2711986 3.8014932 1.0517029 2.9139721 2.8006332 1.958626 3.0451505 2.623599
1.269818 1.7280602 0.9661262 3.2780735 1.7831011 2.1276252 13.43879 1.9536746
3.2522519 1.4229703 4.4864974 2.0420706 5.1640863 1.3758006 2.70371 1.5738959
17.378078 0.6426327 21.635708 1.0979626 2.999655 0.17637374 9.199918 2.7679758

module.net_sm.layer1.0.conv2.weight f4 [32, 32, 3, 3, 3]
00000000: 4ac4 f2bc 48e1 11bc deed ddbc f594 333a
00000010: dc17 083d 545a 653a 1275 9cbb 1c03 d03b
00000020: 118b 14bb 6c22 363c 9d42 e13a d801 bebb
00000030: 4d59 88bc 19df c3bc 19ac 633d 8832 0dbd
00000040: ad78 f8bb 4a6e c03c 08ac b1bc c139 6b3c
00000050: da01 8b3c adea d1bb 791e 07bd f63a 2dbd
00000060: aedf bb3c 3e50 31bd 169a fb3c 311e 0e3c
00000070: 08ce 093c ced6 543b 0e73 40bc 21bf f9bc
00000080: bcc3 f1bc 0c74 773d 71a1 4ebd 9150 e53c
00000090: 5f29 633c 27e7 07bd ccbd c6bc 7739 913c
000000a0: 0236 38bb c845 e43b da8e 12bb 6e9a 9dbc
000000b0: a8c3 28bd 3116 323b a220 3ebd b19c c7bc
000000c0: 651c a23b 0875 18bd 815e 973c 53b0 2cbc
000000d0: af70 f839 49a9 03bc d0f3 693c b549 b7bb
000000e0: 059b 713d fef9 bfbc dbbd e53c d8cf 38bc
000000f0: 27da e6bb 0805 cd3c b9fd 42bc 6a83 afbc
00000100: cf97 51bc 5e9e 8cbb b975 babc 583d 42bc
00000110: 9943 8ebd 1b71 ad3c fe7e 08bd 24ad 5e3c
00000120: 11e9 d8bc 520f cf3c e321 fb3c 2945 783a
00000130: 49fe 8f3c 9154 eabc 7325 d83b c537 fcbc
00000140: 24bf cbbc b923 063c d8fd 153d c74f 7abc
00000150: 7d78 9cbc d98f f2bc ff5f cbbb 0a3a 3dbd
00000160: 4f3d 273a eb2a f0bc 3bc4 57bc b413 37bc
00000170: d46e 353c 95ad d13c 1798 9abc d424 3e3c
00000180: f0f1 603c 4b2d b83a 03b4 d43b 93a2 0d3c
00000190: 7def 043d 7cf5 4dbd 99a5 e8bc 63df 97bc
000001a0: 3e8b ccbb 0e8d c83c 2d8c d23c 6414 913d
000001b0: 9041 1a3c e486 e3bc 8987 a33d dfe0 2b3c
000001c0: d3ca 86bb bc30 88bc 1496 113d 1646 10bd
000001d0: 2a3d 57bb a96c 2e3d 0b79 e8bb a22c 38bc
000001e0: 58f0 a7bc 7b75 d1bb 9a28 e13b 420e dc3c
000001f0: eaaf ac3b 1095 7ebb 62f4 8f3c e147 823c
00000200: 9413 7bbc a6bd 52bc d14e 14bc 3c9d bbbb
00000210: bbfe 113d ec1c 42bd b58e 4cba 5fc3 193d
00000220: 6e7d 143d 50be 90bc 3ed6 e23a 3a77 dbbc
00000230: d7a6 d2bc 3321 eabc 2b36 39bd ef41 dc3b
00000240: 2ece 61bc 54d3 4bbc b854 c03b 50a8 77bc
00000250: b6bc 44bd e35f aa3c 17b5 7bbc bee6 52bd
00000260: ea13 15bc 3a07 97bc f3f9 603c 7167 5439
00000270: c574 9abc 9ff4 ffbc cbed 77ba de03 50bc
00000280: 2812 cdbc 58ee 143c 2780 2f3d c2e3 81bc
00000290: 6bd8 fcbc daad b83c e1e8 07bd f311 a53c
000002a0: dc61 c2bc b1ac 073d e6c0 353c 682b a5bd
000002b0: efdf d83c 40a5 8dbb 8d60 2ebc f220 eabc
000002c0: 523d 6a3c 8a37 5cbc 18c8 37bc 7f07 a43c
000002d0: 7e83 83bd 9a4b 24bd dd43 65bc a72c d0bc
000002e0: 14dd dabc 0a55 be3c 8c0d 503d 61cf 2c3c
000002f0: 916d a6bb f625 77bc de37 4bbc 1cf0 f63c
00000300: 818c ddb7 22d0 ef3c 4a4f 38bc aa06 9dbd
00000310: 9094 98bb 3e88 19bb d110 373c e2a0 46bd
00000320: f889 a43b 569c 623c 2e87 cdbc c224 4cbc
00000330: 88af 953c b71a 9b3b 800f 94bd f8ff 56bc
00000340: 6dd4 3abb 48e2 493c 1348 1abc 8cf8 2c3d
00000350: 44b8 1ebd 45bb 30bc 5c60 4bbd 33e5 d23b
00000360: a877 4dbd 85c0 713b 5f8f babc 8c11 3739
00000370: 4237 a3bc 28b4 35bb fe22 913c 83f6 8ebc
00000380: 0991 3c3c e308 c0b9 2331 c83c 68da 05bd
00000390: ebe4 b6bc b915 e8bb 4f47 b73a 8ad3 31bc
000003a0: f383 3c3c 9a3c 37bd 1c50 b0bc 75bd aebc
000003b0: d74b 263c 4641 eebc bafc 0dbd 2802 133c
000003c0: 5458 9f3c d3c5 58bd 2f8b 72bb f5bb 803b
000003d0: 9781 35bc f677 d83c addc 01bc af9a 633c
000003e0: 9179 7d3b 6d71 c6bc e942 943c 5025 113d
000003f0: 3f0d db3c 032e c6bb f435 26bd 8fe1 16bd
-0.029634614 -0.008903809 -0.027090963 0.00068505044 0.03322588 0.00087491167 -0.004774698 0.006348027
-0.0022665898 0.011116605 0.001718599 -0.0057985596 -0.016644144 -0.023910092 0.055584047 -0.03447202
-0.007582745 0.02349009 -0.021688476 0.014357031 0.016968656 -0.0064061494 -0.032988045 -0.042292558
0.022933807 -0.043289416 0.030713122 0.00867419 0.008410938 0.0032476666 -0.011746181 -0.030486645
-0.029512279 0.060413405 -0.05044693 0.027992519 0.013864844 -0.03317943 -0.024260424 0.017727597
-0.0028108363 0.0069663264 -0.0022362978 -0.019238677 -0.041202217 0.0027173872 -0.04641784 -0.024366708
0.0049472325 -0.037220985 0.01847768 -0.010540086 0.00047386202 -0.008035966 0.014279321 -0.0055935034
0.05898573 -0.023434635 0.028044632 -0.011280023 -0.0070450488 0.025026813 -0.0119013125 -0.021424968
-0.012792542 -0.00429134 -0.022761213 -0.011855446 -0.06946487 0.021172097 -0.033324234 0.013591085
-0.026478322 0.02527586 0.030655807 0.0009470755 0.017577307 -0.028604778 0.006596261 -0.030788312
-0.024871416 0.008187228 0.036619037 -0.015277809 -0.019100422 -0.029609608 -0.006206512 -0.04619793
0.000637968 -0.02931734 -0.013169344 -0.011174131 0.011073787 0.025595466 -0.01887135 0.01160546
0.013729557 0.0014051584 0.0064911856 0.008644718 0.032454956 -0.05028294 -0.028399276 -0.018539136
-0.006242185 0.024481323 0.025701607 0.07083967 0.009415045 -0.027774282 0.07984836 0.010490625
-0.004113534 -0.0166248 0.035543516 -0.03522309 -0.0032842853 0.042584095 -0.0070945076 -0.01124111
-0.020500347 -0.0063921786 0.006871295 0.026862267 0.005269994 -0.0038846172 0.017572585 0.015903415
-0.015324492 -0.0128625985 -0.009051994 -0.005725531 0.03564332 -0.047390863 -0.00078032474 0.037539836
0.03625243 -0.017668873 0.0017306281 -0.02679025 -0.025714321 -0.028580284 -0.045217674 0.006721727
-0.013782067 -0.012440521 0.0058694743 -0.015115812 -0.04803153 0.020797675 -0.015362999 -0.051489584
-0.009098986 -0.018436063 0.013731468 0.0002025643 -0.018854508 -0.031244574 -0.0009457736 -0.0126962345
-0.025033072 0.009090029 0.042846825 -0.015855674 -0.030864915 0.022543836 -0.033181075 0.02015016
-0.023728304 0.033123676 0.011093354 -0.0806492 0.026473967 -0.004322678 -0.010643137 -0.028580163
0.014296846 -0.013440976 -0.01121714 0.020023106 -0.064215645 -0.04011116 -0.013993231 -0.025411917
-0.026716746 0.02323391 0.05079417 0.01054749 -0.0050789793 -0.015084734 -0.0124034565 0.03014379
-2.641068e-05 0.02927405 -0.011249373 -0.07667287 -0.004656382 -0.0023427154 0.011173443 -0.048493274
0.00502133 0.013831219 -0.025088873 -0.012459936 0.018272176 0.0047334093 -0.07229519 -0.013122551
-0.0028507963 0.012322016 -0.009416598 0.04222922 -0.03874995 -0.010786836 -0.049652442 0.006436014
-0.05016294 0.0036888432 -0.022773443 0.00017458777 -0.01992381 -0.002772579 0.01771688 -0.01745153
0.011509188 -0.00036627715 0.024437493 -0.03267899 -0.022325953 -0.0070826677 0.0013983044 -0.0108536575
0.0115060685 -0.04473553 -0.021522574 -0.021330575 0.010149918 -0.02908386 -0.034664847 0.008972682
0.019451298 -0.052923035 -0.003700923 0.003928656 -0.01107826 0.02642439 -0.007926148 0.01389186
0.0038677196 -0.024224008 0.018098311 0.035435975 0.026739715 -0.0060479655 -0.040578797 -0.036836203

module.net_sm.layer1.0.bn2.weight f4 [32]
00000000: de8c 003f dc96 f83e c971 d23e 0350 fd3e
00000010: 6dcd f83e 4cfb 053f b5d1 003f eae6 ee3e
00000020: c14a fd3e a8b3 083f b337 fc3e 2028 d13e
00000030: a05b fb3e d007 043f 9cbe fd3e 7c71 0d3f
00000040: bd96 c93e 4f6c fe3e db88 023f bf53 043f
00000050: 31a9 e53e 1b46 fe3e dc18 be3e c52f c13e
00000060: efcb 003f 4188 d13e 3115 bd3e 26cb 003f
00000070: 88f2 003f 77f7 fb3e b885 043f 7ed2 033f
0.50214946 0.48552597 0.41102436 0.49475107 0.48594227 0.52336574 0.5031999 0.46660548
0.49471095 0.53399134 0.49261245 0.40850925 0.49093342 0.5157442 0.49559486 0.5525129
0.39372817 0.49692008 0.50990075 0.51690286 0.44855645 0.4966286 0.3712834 0.37731758
0.5031118 0.40924266 0.3693023 0.5030998 0.50370073 0.49212238 0.5176654 0.5149306

module.net_sm.layer1.0.bn2.bias f4 [32]
00000000: c48a 51bc 1d30 1e3d 4177 9dbc 83a6 2ebc
00000010: deca 593b 74a0 31bc 6c81 bb37 9840 943c
00000020: 51f4 8bbc d7b8 5f3b a7cd 74bc 4c26 153c
00000030: 67a5 bcb9 ecdb 013b 7a17 db3a bddb 80bc
00000040: 9a36 fd3c 8e07 16bc 2fcf 59bb 6778 bdbc
00000050: 76be 42bd 6a0f 5fbc b5ba d6bb 9c1c 6f3c
00000060: f722 9ebc 6d2d b63c d363 5abc 38a7 7fba
00000070: 6cca 27bc 3093 263b 4999 5dbc 20a2 d8bc
-0.012789432 0.038620103 -0.019221904 -0.010659817 0.003323249 -0.010841478 2.2352404e-05 0.018097207
-0.017084273 0.0034137273 -0.014941609 0.009103369 -0.0003598139 0.0019814922 0.0016715371 -0.01572978
0.030909825 -0.009157075 -0.0033235063 -0.023128701 -0.04754492 -0.013614515 -0.006553019 0.014594223
-0.019303782 0.022238458 -0.013329464 -0.00097523956 -0.010241132 0.002541732 -0.013525316 -0.026444495

module.net_sm.layer1.0.bn2.running_mean f4 [32]
00000000: 5cec 16bf 682c 0abf dd84 d93d 1b60 01bf
00000010: 9f22 88be 28ae 01bf 36fa 17bf 3823 4dbf
00000020: 9fca c8be 86e5 b3be b1c6 5e3d e298 993d
00000030: 5cea f1be a27c c1bd 4886 3fbf 1402 d8bd
00000040: f25b 843e 3999 d7be 4265 91be 16fe a2be
00000050: a6ae 883f 5284 86be d2bd df3e 80c7 81be
00000060: 4851 23bf 56ef b53e 4ed0 6a3f d64d 18bf
00000070: 63bb 23bf 1ef2 19bf 6ef3 0abf 793a e4be
-0.58954406 -0.5397401 0.10621045 -0.5053727 -0.26588914 -0.50656366 -0.59366167 -0.80131865
-0.39217088 -0.3513605 0.054388706 0.07499863 -0.47249115 -0.094476 -0.7481427 -0.10547271
0.258514 -0.42109087 -0.28397566 -0.31834477 1.0678298 -0.26272827 0.4369951 -0.2534752
-0.637959 0.3553416 0.917241 -0.5949377 -0.63957804 -0.60135067 -0.54277694 -0.4457586

module.net_sm.layer1.0.bn2.running_var f4 [32]
00000000: 6106 733f 0b73 cf3f 7900 c23e 2ac7 af3f
00000010: aa91 833f 97f4 a93f 5c83 8d3f e4a6 fa3f
00000020: 8f4f a63f 278e f83f 81ca 833f ca84 de3e
00000030: bc9c 7c3f 7a3d 163f 2eb8 bf3f fb95 743f
00000040: 23f2 5e3f 8804 783f 7d59 6f3f 888c 933f
00000050: ef59 6e3f 11c0 403f b3ba 133f 4c2a 0a3f
00000060: 19c8 963f badd 973e 7fa6 b93f 1453 ae3f
00000070: d76c d03f fa77 d73f fc51 953f 1dc5 d73f
0.9493161 1.6206983 0.37890986 1.3732655 1.0278828 1.3277768 1.1055713 1.9582181
1.2993029 1.9418381 1.0296174 0.43460685 0.9867666 0.58687556 1.4978082 0.9554135
0.8708822 0.96881914 0.93495923 1.1527262 0.9310598 0.7529307 0.57706755 0.5397079
1.1779815 0.2966135 1.4503936 1.3619103 1.6283215 1.6833489 1.1665645 1.6857029

module.net_sm.layer2.0.conv1.weight f4 [32, 32, 3, 3, 3]
00000000: cb78 9bba 49f9 8d3b 32c6 32bd d849 1dbc
00000010: fd18 b5bc be4b b3bc 798e 05bc df11 ce3c
00000020: d5b8 af3c 35f6 9aba 26ca 5fba d07e 603d
00000030: 3555 3d3b eab7 ea3a 26c3 64bb e2d8 70bc
00000040: 2e97 103d 950c 133d 6642 adba ab2f 9dbc
00000050: 4a0c ac3c a881 76bc e972 d4bc 8eaa 8fbb
00000060: 5c5e 9c3b c856 b939 12e0 c83c e3d9 03bd
00000070: 11cd b73c 102f babb 9158 a9bc ac68 183d
00000080: 2852 153d cb3f 11bd 617e 9ebc 4821 e23c
00000090: 67b6 c23c 613b f3bb 7b62 5a3d 0e98 e5bb
000000a0: b7bf 773c 78b6 cb3c bbd2 16bd e258 db3c
000000b0: e892 fcbb 3de1 b33b 1bd9 173d 46ae bcbc
000000c0: 2aac 143c 5217 c43b e85e 4e3c cc4d 79bc
000000d0: 8cd6 1a3d a625 44bc 9520 573a 4743 f33c
000000e0: 28eb dfbc 1a98 683d 1728 c8bc 36a5 0c3c
000000f0: 9fce bb3c 00ec 87bc dd95 43bc 4a4c cd3c
00000100: 6ab6 8b3c 1261 af3c 0d7a cabc 423e e93c
00000110: 47fd f8bb 2f4f 6bbd 4dae d6bb 93f3 82bd
00000120: 1773 9fbc 92db 6dbd 9e15 243d 3af4 dc3b
00000130: ab3b 3bbb 9525 943c eb7a 3d3d 681e 273d
00000140: d899 6a3c cc23 abbd 0683 58bb 0d6d c4bc
00000150: 26a7 09bc 9a73 babb beed 553d b4ac 44bd
00000160: 15af 5ebc 5742 4ebc 9586 793b 47e5 0cbc
00000170: 5c08 db3b c7a1 33bd 5a2f 7f3c 439a 32bc
00000180: be0b 00bd d534 243d 22ee 0b3d 300a e8bc
00000190: 4dc8 873c 33eb 63bb b677 62bc e5d5 153d
000001a0: 4986 b63c a513 8a3d 8992 89ba 53fe a0bc
000001b0: fedf cebc e7d9 323c dbd0 b6bc 5368 a43c
000001c0: ae98 7abb ebd6 183d bbc1 0b3a 6440 3fbb
000001d0: 8c7e 1dbd 8678 cb3c 7088 843c bcda 173d
000001e0: be00 bebc 65d5 ad3b d284 a53c 7018 0abc
000001f0: d538 743d 2fac e33c de4a 8cbb 968e e43c
00000200: dfa6 db3c 4c83 173d 363f d73c 9876 943b
00000210: f730 b2ba 08fe 56bd 245e 0ebd ca3b 26bc
00000220: 043e b23c a250 8bbc 4d51 a8bb 8e3d f63b
00000230: c107 5dbd de47 aebc 8ca0 27bd 8af9 2cbd
00000240: bbcd 2fbb f4ad 0d3d 3783 0e3c ec8b 2fbc
00000250: 2a44 243d 1ca2 da3b cc3c aa3c 8b2a 2c3b
00000260: 6abf 30bc 8d66 b93c a786 c33c d9ee 3cbd
00000270: 2781 20bd b669 803b d9fb 4abd 0786 a63a
00000280: 87df faba 4ed4 083d 6e8a 5fbc 0d32 15bd
00000290: 164e 303c 2d04 6c3c 4611 b5bc 02ff 82bc
000002a0: a066 b7bc 50fb 5bbc d397 1b3c df64 8fbd
000002b0: 5956 d43c 1ce8 bf3c 8e7b d2bb f7f5 2ebd
000002c0: 7bb1 9ebb aba2 85bc 572b c8bb 0c7d a9bc
000002d0: 8663 1d3c c78f 0dbc abd3 4bbd fc2d ca3b
000002e0: a709 833c f7a3 0ebd 053c 19bd 36e7 923c
000002f0: d591 1ebd d35a 37bd 6797 1e3d c886 a53c
00000300: c740 833c 5928 d6bc 79cf c23c ac2c 713c
00000310: 46f0 95bc 1169 d5bc b535 bc3c 28c5 943c
00000320: 9eb1 003d fafc 9f3c 5ada 003d ed3b 0b3a
00000330: 9b88 0ebc b47c a1bb 702c 90ba f445 0ebc
00000340: a945 c93c 2675 a63c afb7 da3b bf04 e93c
00000350: c9d3 063d 7e94 51bc 30bb 763c f96a 54bc
00000360: 31a9 033d 8870 043d f9ff f33c fa1a 3fbc
00000370: 49fb 1e3d 4b00 10bc e831 b13c 6be6 203d
00000380: 0889 9e3c 5863 153c 87b4 f9bb c693 4a3d
00000390: 7727 a73d be5a b4bc fd0b 203c 2336 2f3d
000003a0: 1b9b c53c 8088 573c 3348 a83c 1779 a73c
000003b0: 4845 4a3d be5f 633c 9f33 4abc 3022 7bbc
000003c0: 3456 adbc 3816 d93c 474e 73bc 5652 19bd
000003d0: 2142 cebc bbe6 b7bc 1d7b 08bd 31fd 90bc
000003e0: 911a 20bd a9d0 07bc fd6e 0abc 1d9d 8cbc
000003f0: 1176 823d ea18 2dbc 30c6 483d a217 11bc
-0.0011861561 0.0043326956 -0.043646045 -0.009600125 -0.022106642 -0.021886703 -0.008151644 0.025155006
0.02145044 -0.0011822643 -0.00085368974 0.054808438 0.0028889899 0.0017907594 -0.0034906357 -0.014700146
0.035300426 0.03590067 -0.0013218641 -0.019187769 0.021001954 -0.015045561 -0.0259337 -0.0043843454
0.0047719907 0.00035350607 0.024520908 -0.032190215 0.02243665 -0.00568188 -0.020672115 0.037209198
0.036455303 -0.03546123 -0.019347372 0.02760376 0.023768617 -0.00742285 0.053316575 -0.0070066517
0.015121392 0.024867281 -0.036822062 0.026775781 -0.0077079423 0.005489497 0.037072282 -0.023032319
0.00907425 0.0059842253 0.01259587 -0.015216302 0.037802264 -0.011971867 0.0008206454 0.029695166
-0.02733381 0.05678568 -0.024433179 0.008584311 0.022925673 -0.016592026 -0.011937586 0.025060792
0.017054755 0.021408591 -0.024716401 0.02847207 -0.0075985524 -0.057448562 -0.00655154 -0.06394114
-0.019464059 -0.058070727 0.04005968 0.0067429813 -0.00285695 0.018084327 0.0462598 0.040800482
0.014318906 -0.08356437 -0.003303708 -0.02397778 -0.008401668 -0.0056900503 0.05222868 -0.048016265
-0.0135915475 -0.012589059 0.0038074602 -0.008599586 0.006684346 -0.043855455 0.015575254 -0.010901037
-0.0312612 0.040089447 0.034162648 -0.02832517 0.016575003 -0.003477764 -0.013822487 0.03658094
0.022280829 0.06742028 -0.0010495941 -0.019652521 -0.025253292 0.01091621 -0.022316387 0.020069277
-0.0038237977 0.037314337 0.0005331297 -0.0029182667 -0.038450763 0.024837743 0.01617834 0.037073836
-0.023193713 0.0053049796 0.020204935 -0.008428678 0.05962451 0.027792064 -0.004281386 0.027900022
0.026812969 0.03699045 0.026275259 0.004530739 -0.0013594915 -0.052488357 -0.03475775 -0.010146091
0.021758087 -0.017006222 -0.005136645 0.007514662 -0.053962473 -0.021274503 -0.040924594 -0.042230166
-0.0026825506 0.034589723 0.008698276 -0.010714512 0.04010407 0.006672157 0.020780943 0.0026270475
-0.010787824 0.022631908 0.023867918 -0.04612622 -0.03918567 0.0039188517 -0.049556587 0.0012704738
-0.0019140103 0.033405595 -0.013643844 -0.036424685 0.010760805 0.014405292 -0.022102963 -0.015990738
-0.022387803 -0.013426617 0.009496647 -0.070016615 0.02592008 0.023426108 -0.0064234203 -0.04271504
-0.0048429347 -0.016312918 -0.006108682 -0.02068951 0.009606248 -0.008640236 -0.04976241 0.0061700325
0.015995814 -0.034824338 -0.037410755 0.017932516 -0.038713295 -0.04476435 0.038718607 0.02020587
0.0160221 -0.026142286 0.023780571 0.014720123 -0.018303048 -0.026051076 0.022974828 0.018160418
0.03141939 0.019529808 0.031458236 0.0005311359 -0.0086995615 -0.004928196 -0.0010999572 -0.00868367
0.02456935 0.020319533 0.006674729 0.028444646 0.032916818 -0.012791751 0.015059277 -0.012964957
0.032143775 0.03233388 0.029785143 -0.011664147 0.038813863 -0.008789132 0.021630242 0.039282244
0.019352451 0.009117924 -0.0076203975 0.049457334 0.08161824 -0.022015925 0.009768483 0.04277624
0.024121812 0.013155103 0.02054224 0.020443482 0.049382478 0.013877807 -0.012341409 -0.015327975
-0.021159269 0.026499853 -0.014850206 -0.037432037 -0.025178017 -0.022448888 -0.033320535 -0.017698856
-0.039087836 -0.008289495 -0.008449313 -0.017164761 0.06370176 -0.010565022 0.04901713 -0.008855732

module.net_sm.layer2.0.bn1.weight f4 [32]
00000000: c1d1 093f 3a02 fb3e 1537 073f dcc8 033f
00000010: 5040 063f d49c fb3e 3ccb f93e 6a80 f93e
00000020: 43e9 f73e e2d0 ed3e c633 f83e 61f0 013f
00000030: 757a 033f defd 063f b8cf 103f ebf6 003f
00000040: 7838 043f 96c2 ff3e 6d42 073f 3519 f93e
00000050: f604 093f 65dd 033f a54f 033f 63e9 fd3e
00000060: e95c eb3e 7334 f53e b6a4 0c3f 8a41 fd3e
00000070: af23 f33e 0814 0b3f 99ff 013f e717 003f
0.53835684 0.49025136 0.52818424 0.5147836 0.52441883 0.49143088 0.48787868 0.48730785
0.48420152 0.46448427 0.48477 0.50757414 0.5135873 0.5273112 0.56566954 0.50376767
0.51648664 0.49953145 0.5283573 0.48652044 0.53523195 0.51509696 0.512934 0.49592122
0.45969322 0.47891578 0.5493883 0.49464065 0.47488162 0.5432744 0.50780636 0.5003647

module.net_sm.layer2.0.bn1.bias f4 [32]
00000000: 6c60 94bd ac4d f9bc e875 5abc f677 f93c
00000010: b8be d3ba 578f fcbc 4a47 10bd 9c67 3abd
00000020: 2966 1abd faa6 0dbd 7faf 71bc 6448 b8bc
00000030: f9cf 36bd 6ac6 24bc c208 72bd 9551 d43a
00000040: 4d5b a1bd 5c85 05bc f5f4 b3bc 251d bebb
00000050: c0b7 30bd 7b28 8abc a3a0 3d3d a22e af3c
00000060: d3bc cabc ef19 3ebd e7ba 4ebc 00fd 123c
00000070: d9a2 7ebd b0ea dd3b 81ad 05bd ee5b 973a
-0.072449535 -0.030432545 -0.013333775 0.03045271 -0.0016154861 -0.030830069 -0.035224237 -0.045508966
-0.037695084 -0.03458307 -0.014751314 -0.022495456 -0.044631932 -0.010057071 -0.059090383 0.001619863
-0.07878742 -0.008149471 -0.02196739 -0.005801814 -0.043143988 -0.016865006 0.046295773 0.021384541
-0.024748242 -0.04641145 -0.012617803 0.008971453 -0.062167022 0.0067723617 -0.03263617 0.0011547783

module.net_sm.layer2.0.bn1.running_mean f4 [32]
00000000: 7e6e 093f 4c6b 5fbf a99c cabe ac58 473f
00000010: b952 2b3f 65eb 58be 7446 b7be 8ab9 15c0
00000020: f9e9 a93c f60f 303f 7473 af3f 0239 0dc0
00000030: 3240 88bf a79e 023f 5b17 363e 3e8f 0ac0
00000040: 805b 243f 9f72 b1bf eaa8 7bbf a819 febe
00000050: 0337 8c3f c73d 09be a4a3 a83f b54b cd3f
00000060: 67aa 3e3e 3db2 94bf c7af 003f acb2 a5bf
00000070: 9c06 93bf 35aa 0c3d 211c acbd b117 cabe
0.5368422 -0.872731 -0.39572647 0.7786968 0.669231 -0.21183546 -0.3579594 -2.3394494
0.02074145 0.68774354 1.3707108 -2.2066045 -1.0644591 0.51023334 0.17782347 -2.1649928
0.6420212 -1.3863105 -0.9830462 -0.4962895 1.0954288 -0.13402472 1.3174939 1.6038729
0.18619691 -1.1616894 0.50268215 -1.2945151 -1.1486392 0.03434201 -0.08403803 -0.394712

module.net_sm.layer2.0.bn1.running_var f4 [32]
00000000: d499 da3f 92e9 013f c0d0 733f 0fe2 103f
00000010: aa83 ab3e 4a79 ae3f 9210 033f eb75 2a40
00000020: c27a 3c3f a06b 4a3f adc2 0840 093b 5f40
00000030: b13f 7b3f b313 503f 032e 8e3f f799 6c40
00000040: ab04 b13f 60ae 7b3f 3771 3f3f fca4 2a3f
00000050: a55e 933f 03a3 4c3f 59e0 ca3f 90b4 f93f
00000060: 4d3d 4c3f 1d27 893f 44c5 be3e 2f62 0f40
00000070: 1286 3c3f d498 2f3f 7c0e 0c3f 5361 8e3f
1.7078195 0.50747025 0.952404 0.5659494 0.3349889 1.3630764 0.5119716 2.6634471
0.73624814 0.7907047 2.136882 3.4879782 0.9814406 0.8128006 1.1107792 3.6968973
1.382955 0.9831295 0.7478213 0.66657996 1.1513258 0.79936236 1.5849715 1.9508228
0.7978104 1.0715061 0.37259877 2.2403677 0.73642075 0.6859257 0.547096 1.1123451

module.net_sm.layer2.0.conv2.weight f4 [32, 32, 3, 3, 3]
00000000: 68f7 813c f323 323a af8c f63b 3f64 f83c
00000010: b6cc ffbc 8a7a 8f3c baf5 21bd c8f3 2ebd
00000020: bc8f 6dbd 0670 12bc 6bfa 71bc 0e68 0b3d
00000030: 9060 86bb 169a 13bc 5e92 683d 8a55 103d
00000040: 7d6b 79bd ad77 13bd 660e a1bd 0221 0dbc
00000050: e622 1c3c aa43 dcbc 4ffc 5a3c bbdf b23b
00000060: 618a 223d 3de7 983c c186 003d 98e2 963c
00000070: 4f13 1dbc 6180 c63c 6385 043d e9c7 c8bb
00000080: 3a65 4d3c d402 3c3c 7ba5 09bb b408 90bb
00000090: 6d82 5c3b e44d 103c 5af2 293a ab5a ef39
000000a0: fc2c 4abd 8662 b83a 42ad ffbc 03f4 443c
000000b0: 40c1 a63d e865 40bc dc4a f73c 5f03 003d
000000c0: baea cbbc 56da fd3c c40a 873c dec1 a8bc
000000d0: e05e 48bc 6106 1b3d c240 2f3c 826e 123c
000000e0: 7ee0 b13a 523c 8fbc 8e4c 40bb 84ad 20bc
000000f0: 17e7 0fbd 9fa1 ca3b e9f5 133d cc0f 84bd
00000100: 2ee4 3a3c 68e6 0d3d 73a8 58bd f3b0 af3c
00000110: 9418 aebd f51c 0f3b d432 ea3c b924 08bd
00000120: 05cb 8fba 0bcc 03ba 29b5 973b 33e0 e63b
00000130: 3038 943b 0f2a 7dbd 1bb3 a2bc 3b94 c53c
00000140: 6747 7a3c 2bed c53b 9b58 df3c 2876 42bc
00000150: 49c8 51bd 8747 4f3d 841b 813c 3be6 45bd
00000160: 8e46 08bd 1ccb 90bc f559 723b 3f66 913c
00000170: dbae 82bc 16a5 34bd 320c 2dbb e7e3 d2bc
00000180: 61b1 053b 3372 d8bc df41 443c 1be9 d0bc
00000190: c89f 43bd a31e 27bd 7bb6 95bc 5f0f 07bc
000001a0: 104d 4f3c 8f3c cf3c 086a 19bc 88bb 213c
000001b0: 7c96 293d 6328 b83a 7d02 093d d698 003a
000001c0: 4885 ebbc bf64 4b3d 87cc 023c 1459 bdbc
000001d0: 2ad2 3ebd 4d43 48bc 3d58 a6bc 28f0 38bc
000001e0: e6b4 b4bc 3052 4abd 2dc1 babc 3b95 933b
000001f0: 3ad5 d0bc 4bb1 60ba c5d2 2d3d f6cf aabc
00000200: 60f1 28bc 79eb b23b b440 a2bc 9098 083d
00000210: 1de5 6b3c f462 babc e981 3a3c 12f0 df3b
00000220: d558 423a 5cbb 21ba 0d83 a5bc daec aa3c
00000230: 6e6b 30bd d497 febc 7f3d 9cbd 7562 ebbb
00000240: 2697 b9bc ff49 20bc 0f49 29bd 9303 473d
00000250: b4c5 c63a b774 0c3d 7dc0 22bd 64c1 13bd
00000260: 3ab7 843c fe8c 17bd b2d6 ce3b 1663 b13b
00000270: 4b95 583d 9783 16bd 33d3 2c3d 2e38 023d
00000280: 7e27 b3bb 78d7 9f3c d976 b4bc 5c32 ea3b
00000290: cc39 38bd c6fb 803c 4369 05bd 2f13 1ebd
000002a0: 2946 0ebd ded8 f9bc 4b14 813c 1e9c c93c
000002b0: 0fe7 003c 090a 153c 4755 cbbc 1739 30bc
000002c0: 892c ecbc 07dc 1cbd 3582 263d 940e 96bc
000002d0: 5484 00bd da71 fb3c 37d6 023c 2515 ecba
000002e0: d5e5 193d 8d02 0d3d 73fa 0abc 01ed b8bc
000002f0: 3481 f63b 5acf 04bd 044d e7bc 59bf 963c
00000300: 45c1 883d 244a 0b3d 76a9 b0bb b025 b8bb
00000310: be36 97bb ae40 183d 1782 b43b 47fe 283c
00000320: 43d2 013d 531b b8bc 2ddb b0bc 5ab4 b6bc
00000330: 68dc dabb 33cd 333b a87b 513c 92eb a63c
00000340: a28b edbb 0f3e e33b 5a69 c5bc 2e9f ea3c
00000350: 2a0b 1abc ed1b 40bd b872 e0ba 73a3 0fbd
00000360: 2660 bc3b 536b d1bc ad43 3f3a ec38 9c3c
00000370: 3643 1c3d 3a03 92bb 9232 403d aba2 8b3b
00000380: 79af d63c ace9 09bd dc6e 913c 6b0b 6b3c
00000390: 9ffa fe3b 0682 0c3d 647c c83b 11ae 19bc
000003a0: 3116 743b 61cd 053c 57b2 49bc 87ba 19bc
000003b0: 8e8e 16bd 0577 303d 5329 fd3c eaef ab3b
000003c0: 8b37 063c 33cb 8039 be48 223d c84f e7bb
000003d0: db61 893c 55b8 423c d19f d1bc c7c4 e6bb
000003e0: 2534 cabb c600 08bd 28dd e2bc 4e30 8f3c
000003f0: e763 fd3c 747f 013c 0a79 44bb 7081 cc3c
0.015865043 0.0006795518 0.007524095 0.030321239 -0.031225543 0.017514486 -0.039540984 -0.042712957
-0.057998404 -0.008937841 -0.014769177 0.03403478 -0.0041008666 -0.009008905 0.05678021 0.035237826
-0.060893524 -0.036002804 -0.078640744 -0.008613827 0.009529805 -0.026887733 0.013365819 0.0054587997
0.03968275 0.01866495 0.03137851 0.018418595 -0.009587123 0.024231138 0.03235377 -0.006127347
0.012536341 0.011475284 -0.0021003175 -0.0043955687 0.0033647076 0.008807633 0.00064829516 0.00045653185
-0.049359307 0.0014067448 -0.031210545 0.012021068 0.08142328 -0.011743046 0.030187063 0.031253215
-0.0248922 0.0309879 0.016484626 -0.020600256 -0.012229651 0.03784788 0.010696592 0.00893748
0.0013570932 -0.017484818 -0.0029342505 -0.009806994 -0.035132494 0.0061838175 0.03612319 -0.064483255
0.011406941 0.03464356 -0.05289502 0.02144668 -0.08500782 0.0021837328 0.02858869 -0.033238146
-0.0010970539 -0.0005027658 0.0046297503 0.0070457696 0.0045232996 -0.06180769 -0.019860795 0.024118533
0.015275813 0.0060402355 0.02726393 -0.011868991 -0.051216397 0.050605323 0.01576019 -0.048315268
-0.03327041 -0.017674975 0.0036979888 0.01774895 -0.015952518 -0.04410275 -0.0026404974 -0.025743438
0.0020399916 -0.026421642 0.0119785955 -0.025501778 -0.0477598 -0.0408007 -0.01827549 -0.008243411
0.0126526505 0.025297431 -0.009363659 0.009871371 0.04140328 0.0014050122 0.03344964 0.0004905587
-0.028750077 0.049656626 0.007983333 -0.023113765 -0.046587147 -0.012223077 -0.020305747 -0.011287726
-0.022058915 -0.049394786 -0.022797192 0.0045038736 -0.0254923 -0.00085713406 0.042437334 -0.020851117
-0.010311455 0.0054601994 -0.019806243 0.03334862 0.014397887 -0.022752263 0.011383512 0.0068340385
0.00074137497 -0.00061695813 -0.020204091 0.020864893 -0.043071203 -0.031078257 -0.07628917 -0.007183368
-0.022655081 -0.009783267 -0.04132944 0.048587393 0.0015165121 0.034290995 -0.039734352 -0.036073104
0.01620065 -0.036999695 0.006312215 0.0054134233 0.052876752 -0.036746588 0.042193603 0.03179186
-0.0054673543 0.019511923 -0.022029327 0.0071471166 -0.044976994 0.015745055 -0.03257109 -0.038592514
-0.03473488 -0.030498918 0.015756747 0.024610575 0.007867589 0.009096631 -0.024820937 -0.010755799
-0.02882983 -0.038295772 0.04065152 -0.018317498 -0.031376198 0.030693937 0.007985643 -0.0018011673
0.0375727 0.03442626 -0.008482563 -0.02257395 0.0075227264 -0.03242431 -0.028234966 0.018401789
0.06677488 0.034006253 -0.005391295 -0.005619727 -0.00461468 0.03717106 0.005508672 0.010314531
0.03169466 -0.022473967 -0.021588886 -0.022302795 -0.0066791065 0.002743554 0.01278583 0.020376
-0.0072493115 0.006934888 -0.024098087 0.028640356 -0.009402076 -0.046901632 -0.0017124033 -0.035067987
0.0057487665 -0.025563871 0.0007296156 0.019070111 0.038150035 -0.004455951 0.046923228 0.004261335
0.026206719 -0.033670112 0.017753057 0.014345984 0.007781341 0.034303688 0.006118344 -0.00937988
0.0037244672 0.008166642 -0.012310586 -0.0093828505 -0.036757044 0.043082256 0.030903494 0.005247106
0.008191953 0.00024565458 0.039620154 -0.007059071 0.016770294 0.0118847685 -0.025588902 -0.0070425007
-0.006170767 -0.033203863 -0.027693346 0.017479088 0.030931426 0.007903922 -0.0029979371 0.024964064

module.net_sm.layer2.0.bn2.weight f4 [32]
00000000: 4774 063f 947a fe3e 9d1a ff3e a63a 0b3f
00000010: 0635 083f 813c 013f 5113 e93e 0177 f63e
00000020: 9b6a cf3e f887 e33e f48e ef3e 06e9 f93e
00000030: c664 fa3e 7075 053f bf69 f23e a58c fd3e
00000040: 3a47 f43e eb2d f53e d72b ee3e 36ab 053f
00000050: 6c4a f93e 01d1 ed3e bccc df3e 397c ea3e
00000060: 7a1d fa3e 46a8 fc3e 77ee c13e 2822 ff3e
00000070: b83c 013f 641f 073f a803 eb3e 1745 e83e
0.52521175 0.49702895 0.49824992 0.54386365 0.5320591 0.50482947 0.4552255 0.48137668
0.4051102 0.44439673 0.46788752 0.48810595 0.4890501 0.5213232 0.47346303 0.49521366
0.47710592 0.47886595 0.46517822 0.5221437 0.48689592 0.4644852 0.43710887 0.457979
0.48850614 0.49347132 0.37877247 0.49830747 0.50483274 0.52782273 0.45901227 0.4536521

module.net_sm.layer2.0.bn2.bias f4 [32]
00000000: cc07 0fbd e90c cbbc 0d87 12bd 88bb 9ebc
00000010: d79c d4ba a8b4 d9bc 0dc5 cabc 707d 13bd
00000020: 8bb5 36bd 1b67 c1bc 24d8 69bc 413a b1bc
00000030: 4ce6 95bd a4da 91bc 3b50 02bd 2e14 003c
00000040: 11b6 92bc 5e9a aebc af47 e3bc f1bd 85b8
00000050: 9e25 30bd ea21 3dbd 1fdd 37bd b416 7dbd
00000060: f264 f5bc 8a1f fbbc fbc1 94bd b536 d9bc
00000070: db52 28bd 9780 29bd 14be a1bc 3ee4 9c3c
-0.034919545 -0.02478643 -0.035773326 -0.019376531 -0.0016221058 -0.026575401 -0.024752164 -0.0360083
-0.044606727 -0.023608735 -0.014272723 -0.021634223 -0.07319316 -0.017804451 -0.031814795 0.007817311
-0.017909082 -0.021313842 -0.027744142 -6.3773135e-05 -0.043004625 -0.04617492 -0.044888612 -0.06178923
-0.029955361 -0.030654687 -0.07263561 -0.026515344 -0.041094642 -0.0413824 -0.019743957 0.019151803

module.net_sm.layer2.0.bn2.running_mean f4 [32]
00000000: 14d3 31be d238 10be 725e dcbe 7522 54be
00000010: 4cce 0bbe 4b21 fcbd 1ac0 4f3c 8b97 e2be
00000020: 3c3d 0e3f 26f6 523e 727e 34be d10e 113d
00000030: 6edb 9bbe 4db3 51be 19eb bf3e b611 93be
00000040: 4758 9abe 7d3c 91be 13fc d53e 899a 45be
00000050: 32c4 afbe 9283 84be 7249 e83e dafe c4be
00000060: f709 09bd 3d8e 9dbe bbd9 ab3d 0b34 0fbc
00000070: 11a7 b0be cbe4 61bc b833 8a3e bb2b 883e
-0.17365676 -0.14084175 -0.43040806 -0.2071627 -0.13652915 -0.12311038 0.012680078 -0.44256243
0.55562186 0.2060171 -0.1762636 0.03541452 -0.3044085 -0.20478554 0.37484053 -0.2872445
-0.30145475 -0.2836646 0.4179388 -0.19297232 -0.34329373 -0.2588163 0.45368534 -0.38475686
-0.03345677 -0.30772582 0.08391138 -0.008740435 -0.34502462 -0.013787459 0.26992583 0.26595864

module.net_sm.layer2.0.bn2.running_var f4 [32]
00000000: 6697 703e a048 ae3e dd12 8f3e 010c 0b3e
00000010: f614 373e ff60 fe3e 5dcd 6a3e 3d2a d23e
00000020: b1f9 f73e b653 ca3e 445c ab3d 6cd3 bf3d
00000030: f4dd da3e c776 083f b074 543e 6112 9e3e
00000040: 6f71 1b3f b7e1 c63e 94d2 913e 51b1 183e
00000050: 7d63 463f ddc6 2f3e 5fd3 a03e c154 2c3f
00000060: 4711 9d3d 7649 ac3e 4013 d33d f5dd 873e
00000070: 486f 9a3e fe90 443e 4375 423e fcbf ae3e
0.23495254 0.34039783 0.2794408 0.13578798 0.1787909 0.49683377 0.22929902 0.4104785
0.48432687 0.3951699 0.08367208 0.093664974 0.42747462 0.5330624 0.20747638 0.30873397
0.6071996 0.38844082 0.2848097 0.14911391 0.7749556 0.17165704 0.31411263 0.67316824
0.07669311 0.33649796 0.10306406 0.26536527 0.30163026 0.19195935 0.18990044 0.34130847
