model/model_20200907110543/model_final_hcp_3_0300_ts.pth (torch_old, 131256 bytes, 59 tensors)

module.net_ts.conv1.weight f4 [32, 1, 7]
0	0x3dc66016	0.09686296
1	0xbe593580	-0.21211815
2	0x3e2c9075	0.16851981
3	0x3ea911a5	0.33021274
4	0x3de9ecab	0.11422094
5	0x3e0c4f48	0.13702118
6	0xbe3efb22	-0.18650487
7	0xbe5d638c	-0.21620005
8	0x3e8131cf	0.25233313
9	0x3d88eee8	0.06686193
10	0xbe1eca8f	-0.15506957
11	0x3f04944b	0.5178878
12	0xbeb54017	-0.3540046
13	0xbf421076	-0.7580637
14	0x3d9ff1a4	0.07809761
15	0x3ea81909	0.328316
16	0x3e86b7be	0.2631206
17	0xbc69475f	-0.014238208
18	0x3d9d66b7	0.07685607
19	0x3dda91f2	0.10672368
20	0x3e599572	0.21248415
21	0xbdb54df1	-0.08852757
22	0xbda6ecdb	-0.08150645
23	0xbeafb083	-0.34314355
24	0x3e94c098	0.29053187
25	0x3e8ab8b2	0.27094036
26	0xbef7145e	-0.48257726
27	0xbe47d895	-0.19516213
28	0x3f242fca	0.6413542
29	0xbe8545fa	-0.2602995
30	0xbea13729	-0.31487396
31	0xbdb43f0b	-0.08801087
32	0x3e8d977a	0.2765463
33	0xbe069b16	-0.13145098
34	0x3e872598	0.2639587
35	0x3d961cac	0.073296875
36	0x3c401688	0.011724122
37	0xbe16230a	-0.14661804
38	0x3efa89f7	0.48933384
39	0x3e48a65a	0.19594708
40	0xbe5c717b	-0.21527664
41	0x3ea2e484	0.3181497
42	0xbf2e2c58	-0.68036413
43	0xbead4752	-0.33843476
44	0x3ddfda6f	0.10930335
45	0x3f07e13c	0.53078055
46	0x3df09b56	0.11748378
47	0x3ea90b02	0.3301621
48	0x3dba1c10	0.09087384
49	0x3eee665d	0.46562472
50	0x3e5f15a9	0.21785606
51	0xbe8d827f	-0.27638623
52	0x3e6b91cc	0.23004836
53	0x3dccb23a	0.099949315
54	0x3d89972d	0.067182876
55	0x3d8ddec8	0.06927258
56	0xbeec4659	-0.4614742
57	0x3f1acb56	0.60466516
58	0x3ea79661	0.32731918
59	0xbf687f5e	-0.90819347
60	0xbc02215f	-0.007942527
61	0x3f17daaf	0.5931806
62	0xbe322267	-0.17395936
63	0xbe68cbb6	-0.2273396
64	0xbe8d67eb	-0.27618346
65	0xbeca1be9	-0.3947442
66	0xbe60027e	-0.2187595
67	0xb9028f9e	-0.00012451268
68	0x3f507449	0.8142744
69	0xbd6ba53f	-0.057530638
70	0xbec89a53	-0.3918024
71	0x3f1d6801	0.6148682
72	0x3ed46744	0.41485035
73	0xbd54a9e6	-0.05191984
74	0x3e4a3bbe	0.19749352
75	0xbea8f177	-0.32996723
76	0xbe5e14fe	-0.21687695
77	0xbcc79ce9	-0.024366813
78	0xbebdfc3a	-0.37106496
79	0xbdb67160	-0.08908343
80	0xbe4506f5	-0.19240935
81	0x3e985033	0.29748687
82	0xbe1d9beb	-0.15391509
83	0xbef1fb6f	-0.4726214
84	0xbda41de5	-0.080135144
85	0xbe113aa2	-0.14182523
86	0x3dc895c8	0.097941935
87	0x3e6a08ef	0.2285497
88	0xbeb1b6b1	-0.34709695
89	0x3eae1af3	0.34004936
90	0x3f0d956b	0.5530612
91	0xbe562c72	-0.20915392
92	0xbe13c789	-0.14431585
93	0xbe28db6e	-0.16489956
94	0xbe013091	-0.12616183
95	0x3e31d12b	0.17364947
96	0xbd112580	-0.035436153
97	0xbeaae158	-0.3337505
98	0x3ed2216a	0.41041118
99	0xbd6edb0f	-0.05831438
100	0x3f090769	0.5352693
101	0x3e2fecb8	0.17180145
102	0xbea3cb65	-0.31991115
103	0x3e494d86	0.19658479
104	0xbf103c98	-0.5634246
105	0xbf0bd36a	-0.5461947
106	0xbe2e82d9	-0.17042102
107	0xbb908c49	-0.0044112545
108	0xbe00953f	-0.12556933
109	0xbe5e5268	-0.21711123
110	0x3e608f7d	0.21929736
111	0x3f3850b4	0.71998143
112	0x3f2466f2	0.6421958
113	0x3e9949be	0.29939073
114	0xbe049ef2	-0.12951258
115	0xbf1d5b96	-0.61467874
116	0x3c3a156e	0.011357648
117	0xbe4bd166	-0.19904098
118	0xbe3ced92	-0.18450001
119	0x3ea37bd1	0.31930402
120	0xbd689a29	-0.056787644
121	0x3e8c005c	0.27344024
122	0xbdfa7190	-0.122286916
123	0x3e6d2644	0.23159128
124	0xbdab5d70	-0.08367431
125	0x3df26355	0.11835352
126	0x3f30bd2a	0.6903864
127	0x3e654e11	0.22393061
128	0x3e7cb1b0	0.24677157
129	0xbe32caff	-0.1746025
130	0xbf366330	-0.712451
131	0xbef63976	-0.48090714
132	0xbe21cbb0	-0.15800357
133	0xbeab9969	-0.3351548
134	0xbebfcf88	-0.3746302
135	0x3e93dab5	0.28877798
136	0x3f4ecf90	0.80785465
137	0xbcde7a3a	-0.027157892
138	0xbf173ce0	-0.5907726
139	0xbe13892d	-0.14407797
140	0x3df3bb8c	0.11901006
141	0xbe9eba6b	-0.310016
142	0x3ec36474	0.38162577
143	0xbf02e438	-0.51129484
144	0x3d1e24aa	0.038609184
145	0xbebcb927	-0.3686001
146	0xbd71d2e1	-0.059039
147	0xbe9ac295	-0.3022658
148	0x3e31fbb2	0.1738117
149	0xbe9d25ee	-0.30693
150	0x3dad7ed9	0.0847146
151	0xbeb6b3bc	-0.35684
152	0xbe55b9b5	-0.20871623
153	0xbd54795f	-0.05187356
154	0x3efbe0c9	0.49194935
155	0x3d5daf6c	0.054122373
156	0xbe5b4ca8	-0.21415961
157	0xbed19029	-0.40930298
158	0xbc820c45	-0.015874991
159	0x3f5726c3	0.8404352
160	0x3daf95fa	0.08573528
161	0x3e011124	0.12604195
162	0xbebce494	-0.3689314
163	0x3ecf8c86	0.40536898
164	0x3ed55d6e	0.41672844
165	0xbe5759aa	-0.21030298
166	0xbe89f436	-0.2694413
167	0x3eb902cd	0.3613495
168	0x3dd605fe	0.10450362
169	0x3e85cc76	0.26132554
170	0x3e78cc89	0.24296774
171	0x3e2999cb	0.16562574
172	0x3df08563	0.117441915
173	0x3dd63f5c	0.104613036
174	0xbe4e2989	-0.20133032
175	0x3e4914c5	0.19636829
176	0x3ee00d0c	0.43759954
177	0xbee4d987	-0.4469721
178	0xbf215792	-0.63024247
179	0x3d8addc9	0.067805834
180	0xbe60b4a0	-0.21943903
181	0x3e104564	0.1408897
182	0xbeca1fe7	-0.39477465
183	0xbe9604a0	-0.29300404
184	0xbe206c5b	-0.15666334
185	0x3d4ae909	0.049538646
186	0x3dd6e252	0.10492386
187	0x3f3f12f6	0.7463831
188	0x3e185ccf	0.14879154
189	0x3eb2922a	0.3487714
190	0x3ea4f146	0.32215327
191	0xbe24c174	-0.16089422
192	0xbe881457	-0.26578018
193	0x3e94f676	0.29094285
194	0xbeec7a92	-0.46187264
195	0x3f1925b4	0.59823155
196	0xbef34c63	-0.47519216
197	0x3e63e213	0.22254209
198	0x3f037495	0.51349765
199	0x3dcbdb0b	0.099538885
200	0x3e239d0a	0.15977874
201	0x3d98d569	0.0746258
202	0x3e9090dd	0.28235522
203	0xbe944653	-0.28959903
204	0xbe38a1d9	-0.1803049
205	0x3e9c34a8	0.30508924
206	0x3e7669c2	0.24063781
207	0xbe68665b	-0.22695296
208	0x3ca8d048	0.020607129
209	0xbeff9403	-0.4991761
210	0xbde2b4e0	-0.110696554
211	0xbde5fd47	-0.112299494
212	0xbe2ea644	-0.17055613
213	0xbe97ad9c	-0.2962464
214	0xbe38a391	-0.18031146
215	0xbde6b720	-0.11265397
216	0xbd5e1e21	-0.054227952
217	0xbe34282c	-0.1759345
218	0xbe828968	-0.25495458
219	0x3f1a353c	0.6023748
220	0x3ec8e517	0.39237282
221	0xbf2a8cc9	-0.6662107
222	0xbcdd6b8f	-0.027028827
223	0x3e3a80e0	0.18213224

module.net_ts.bn1.weight f4 [32]
0	0x3eb00e83	0.34386072
1	0x3f319c32	0.6937896
2	0x3ebc9562	0.3683272
3	0x3f06b1c3	0.5261499
4	0x3efe3a45	0.4965383
5	0x3f230b8a	0.6368948
6	0x3f1cae92	0.61203873
7	0x3f09d16e	0.5383519
8	0x3f38ed40	0.72237015
9	0x3f3201ca	0.6953398
10	0x3f220e02	0.63302624
11	0x3f1eabaf	0.6198072
12	0x3f00500d	0.5012215
13	0x3efd1dea	0.49436885
14	0x3f19f3d4	0.6013768
15	0x3f360333	0.7109863
16	0x3f287762	0.65807164
17	0x3ee580a9	0.44824722
18	0x3f443cb6	0.7665514
19	0x3f39db92	0.7260066
20	0x3f13f530	0.57796
21	0x3f1ad886	0.6048664
22	0x3f562f1d	0.8366564
23	0x3ee6cf90	0.45080233
24	0x3ef2a395	0.47390428
25	0x3f1b5537	0.606769
26	0x3f0c8093	0.5488369
27	0x3f1c5cf6	0.6107935
28	0x3f0904f7	0.535232
29	0x3f045397	0.5169005
30	0x3efb293e	0.49054903
31	0x3f145f25	0.5795768

module.net_ts.bn1.bias f4 [32]
0	0xbddcc5fa	-0.107799485
1	0x3ddd57cd	0.10807762
2	0xbc6195a8	-0.013768591
3	0xbd51164a	-0.051046647
4	0xbd25d140	-0.04048276
5	0xbd9f5fea	-0.07781966
6	0x3e77ae41	0.24187566
7	0xbe2dc0a4	-0.16968018
8	0xbbbbf8e7	-0.0057364586
9	0xba33a3bb	-0.0006852706
10	0x3d16ac6a	0.03678552
11	0x3d552f28	0.052046925
12	0x3d7bdf71	0.061492387
13	0x3cc69777	0.024242146
14	0x3e0d1727	0.13778363
15	0x3d06b132	0.03288383
16	0xbcb3b4d0	-0.021936804
17	0xbd3c700e	-0.0460053
18	0x3e28457d	0.16432758
19	0x3c56bcb7	0.013106517
20	0x3dcd7a04	0.10033038
21	0x3c36f17d	0.011165974
22	0xbdeb152b	-0.11478647
23	0xbd751cb4	-0.059841827
24	0xbe4cc663	-0.19997554
25	0x3e250bcb	0.1611778
26	0x3da5a8e3	0.08088853
27	0xbdb2d9d5	-0.087329544
28	0x3d2e9805	0.042625446
29	0x3c961bd1	0.01832381
30	0xbd85ced6	-0.065335914
31	0xbcdc926c	-0.026925288

module.net_ts.bn1.running_mean f4 [32]
0	0x366ee776	3.5599492e-06
1	0x38431a77	4.651627e-05
2	0xb3242ef4	-3.822693e-08
3	0x37b41e51	2.147179e-05
4	0xb85e28bb	-5.2966858e-05
5	0xb632914b	-2.6608639e-06
6	0xb7b7921c	-2.1883337e-05
7	0x37eacfd6	2.7991755e-05
8	0x36335e50	2.6727976e-06
9	0xb7fff9e4	-3.0514733e-05
10	0x384e97ea	4.925571e-05
11	0xb7979ca7	-1.807355e-05
12	0xb8001865	-3.0540297e-05
13	0x3585ed31	9.978304e-07
14	0x386365be	5.4215772e-05
15	0xb895226f	-7.1112874e-05
16	0x3761f8fb	1.3469015e-05
17	0xb81fcdd3	-3.8100243e-05
18	0x3883213e	6.2527586e-05
19	0x37b9f4ab	2.2167651e-05
20	0xb870f424	-5.7447833e-05
21	0x3856c17c	5.1201772e-05
22	0xb7ce2bb8	-2.4577472e-05
23	0xb80a6fc9	-3.3005872e-05
24	0x3814540d	3.5364228e-05
25	0x35c45c48	1.4629995e-06
26	0xb83c4366	-4.4885463e-05
27	0xb82c4b37	-4.1078045e-05
28	0xb7ac2292	-2.0520096e-05
29	0x382e1d54	4.1512147e-05
30	0xb6f69bdb	-7.3495153e-06
31	0x36eb14cd	7.0059673e-06

module.net_ts.bn1.running_var f4 [32]
0	0x3c9f7078	0.019462809
1	0x3d83856a	0.06421931
2	0x3d2d2b51	0.042277638
3	0x3d15df70	0.03659004
4	0x3d16199a	0.03664551
5	0x3d06755c	0.032826766
6	0x3d87d3c4	0.06632188
7	0x3d1f6c38	0.038921565
8	0x3da02133	0.07818832
9	0x3d80acfc	0.06282994
10	0x3d45b9ce	0.0482729
11	0x3d51ed3b	0.05125163
12	0x3d2fbecd	0.04290657
13	0x3cf8446f	0.03030607
14	0x3d562a07	0.052286174
15	0x3d7a7231	0.061144058
16	0x3d79ccc5	0.0609863
17	0x3cb474e3	0.022028392
18	0x3dce7e81	0.100827225
19	0x3da59030	0.08084142
20	0x3d1eb88f	0.038750228
21	0x3d29573e	0.041342966
22	0x3da63d06	0.08117108
23	0x3d16b371	0.036792222
24	0x3d012f61	0.031539325
25	0x3d5d82e0	0.05407989
26	0x3d6fdabc	0.05855821
27	0x3d4ea7fe	0.05045318
28	0x3d68805d	0.05676304
29	0x3d1bf46c	0.038074896
30	0x3d232e48	0.03983906
31	0x3d5112a0	0.051043153

module.net_ts.layer1.0.conv1.weight f4 [32, 32, 3]
0	0x3e0d3db5	0.1379307
1	0xbdceeeec	-0.101041645
2	0xbcf971ea	-0.030449826
3	0xbc530b27	-0.012881077
4	0xbe1c431f	-0.1525998
5	0xbe179f7f	-0.14806937
6	0x3e0315cf	0.12801288
7	0x3d8b903d	0.06814621
8	0xbdd6ea80	-0.10493946
9	0x3ce7c0a6	0.028290104
10	0xbe0a57c2	-0.1351004
11	0xbe206e00	-0.15666962
12	0x3cf8bed4	0.030364431
13	0xbc4dabca	-0.012553165
14	0xbe190852	-0.1494458
15	0x3e26d124	0.16290718
16	0xbb05a710	-0.0020393766
17	0xbe3ad293	-0.1824439
18	0x3e154b51	0.14579512
19	0xbecde49a	-0.40213472
20	0x3da84b34	0.08217469
21	0x3e53fad5	0.20701154
22	0xbd07ff67	-0.033202555
23	0xbc383c16	-0.011244794
24	0x3e3be722	0.18349889
25	0xbe4270c0	-0.18988323
26	0x3dea7fc6	0.11450152
27	0xbe5aade5	-0.21355398
28	0xbe28ed8e	-0.1649687
29	0x3e0f3023	0.13983206
30	0x3dbac986	0.09120469
31	0xbe3262e7	-0.17420541
32	0x3d0d0fb2	0.034438796
33	0xbd3e2609	-0.046422992
34	0xbdb68436	-0.08911936
35	0xbcb39983	-0.021923786
36	0x3df3745d	0.11887429
37	0x3c1d9cd4	0.00961991
38	0x3e6eea06	0.2333146
39	0xbd841b4c	-0.06450519
40	0xbc382d28	-0.011241235
41	0xbe84f008	-0.2596438
42	0x3cad846e	0.021181311
43	0x3e860783	0.26177606
44	0x3da8fb08	0.082510054
45	0x3cfe2836	0.031025033
46	0xbe62f7e4	-0.22164875
47	0x3d1e9a1a	0.03872118
48	0x3d8dfd46	0.06933074
49	0xbd1e7a08	-0.038690597
50	0xbde6f3a8	-0.112769425
51	0x3e7427ab	0.23843257
52	0xbd003aed	-0.031306196
53	0xbe89150e	-0.26773876
54	0x3c752466	0.014962291
55	0xbe033207	-0.12812053
56	0x3d03b577	0.03215548
57	0x3e8a1bc5	0.2697431
58	0xbd7a3815	-0.06108864
59	0xbb1e3f29	-0.0024146533
60	0xbdd73483	-0.10508063
61	0xbe4ff857	-0.20309578
62	0xbc807da6	-0.015684914
63	0xbca779bf	-0.020443795
64	0xbddbdc31	-0.107353576
65	0x3e095351	0.13410689
66	0xbe9581a6	-0.29200476
67	0xbe5c4c6c	-0.21513528
68	0x3e2dcd07	0.16972743
69	0x3e176cd9	0.14787616
70	0xbdf33af1	-0.118764766
71	0x3c1cc846	0.009569233
72	0x3d6c208c	0.057648227
73	0xbda7a96a	-0.0818661
74	0xbe8555f8	-0.2604215
75	0xbd3b3af0	-0.045710504
76	0xbe24c2ae	-0.1608989
77	0x3be347ad	0.0069360347
78	0xbe15d327	-0.1463133
79	0xbe758d39	-0.23979653
80	0xbcd2031e	-0.025636252
81	0x3cd18379	0.025575386
82	0xba9cdba4	-0.0011967313
83	0x3d12a79d	0.03580438
84	0x3eb6a010	0.35668993
85	0xbd8cb65c	-0.0687072
86	0xbe0da832	-0.13833693
87	0x3e70863f	0.23488711
88	0xbca0cb27	-0.01962812
89	0x3e2b4e8f	0.16729186
90	0xbdcfb712	-0.1014234
91	0xbd42b5ad	-0.04753654
92	0x3ce95822	0.028484408
93	0x3dd2620f	0.102726094
94	0xbe15fa12	-0.14646176
95	0x3e47336c	0.1945321
96	0x3d157ff8	0.036498994
97	0x3d195d84	0.0374427
98	0xbdb271ba	-0.08713098
99	0x3d1e8f7d	0.03871106
100	0x3db047b4	0.08607426
101	0xbe4843b3	-0.19557075
102	0xbd959409	-0.07303626
103	0xbd5ff92b	-0.054680984
104	0x3c053c44	0.008132044
105	0xbd40aae6	-0.04703798
106	0xbde05e30	-0.10955465
107	0xbdae71b1	-0.08517779
108	0xbd6aa4e8	-0.057286173
109	0x3d206745	0.039160985
110	0xbc802b35	-0.015645603
111	0x3d850635	0.064953245
112	0x3d3ff896	0.04686793
113	0x3ca1ae99	0.019736575
114	0x3e19b95f	0.1501212
115	0xbdb2c6f5	-0.08729354
116	0xb910c222	-0.0001380523
117	0xbe05a74e	-0.13052103
118	0x3ce1018d	0.02746656
119	0x3ba8e0b5	0.0051537403
120	0x3e1526ef	0.14565633
121	0x3e11d759	0.14242305
122	0xbd30b730	-0.04314345
123	0x3d41477b	0.04718731
124	0x3e830136	0.2558686
125	0x3dcc74ad	0.09983192
126	0xbdf6205e	-0.12017892
127	0x3e410e81	0.18853189
128	0x3df56512	0.11982168
129	0xbde86a6a	-0.11348422
130	0x3a3ac118	0.000712411
131	0xbe0169cd	-0.12638016
132	0xbda0038a	-0.07813175
133	0x3db1c993	0.08681025
134	0x3d00edf3	0.031476926
135	0xbd759f31	-0.05996627
136	0xbd04e30b	-0.032443088
137	0xbcf4317b	-0.02980875
138	0xbe3874a7	-0.1801325
139	0x3dc488ef	0.095964305
140	0xbdd0fe13	-0.10204711
141	0xbdd2a782	-0.10285856
142	0x3d4c198d	0.049829055
143	0xbe27061e	-0.16310927
144	0x3e561819	0.2090763
145	0x3db47360	0.088110685
146	0x3e847ae4	0.25875008
147	0xbd8267ce	-0.063674554
148	0x3cc564b3	0.024095869
149	0x3da0b38c	0.07846746
150	0x3d498e75	0.049208123
151	0x3e52f47d	0.20601077
152	0xbdab7639	-0.083721586
153	0x3df2a7cf	0.11848413
154	0x3e04dc79	0.12974729
155	0x3e26feb0	0.16308093
156	0x3d6b6a41	0.05747438
157	0x3e24e28d	0.16102047
158	0x3ce41886	0.027843725
159	0x3c9cd303	0.019143587
160	0xbcde39b8	-0.027127132
161	0x3e2edd2c	0.17076558
162	0xbe00b8cc	-0.12570494
163	0x3e0fe564	0.1405235
164	0x3e966ded	0.29380742
165	0xbe1c4dea	-0.15264097
166	0xbe17a80d	-0.148102
167	0xbcf3f980	-0.029782057
168	0xbd05f9b2	-0.03270883
169	0x3e607546	0.21919736
170	0x3e0edeed	0.13952227
171	0x3dc66029	0.0968631
172	0x3ddf0103	0.10888865
173	0x3e30132f	0.17194818
174	0x3e14fd81	0.14549829
175	0x3e39c25b	0.18140547
176	0xbd0d67ca	-0.03452281
177	0x3e3a110a	0.18170562
178	0xbdbe942b	-0.093056045
179	0x3e7957d0	0.24349904
180	0xbdd43ce5	-0.10363177
181	0xbdaf9636	-0.08573572
182	0xbd49dc35	-0.04928227
183	0x3d8eead5	0.069783844
184	0x3c3df6de	0.011594502
185	0xbd0df2d1	-0.034655396
186	0x3e279ccb	0.16368406
187	0x3e91ae6f	0.28453395
188	0x3e539c50	0.20665097
189	0xbd16e2f0	-0.03683752
190	0xbdced66f	-0.10099494
191	0xbe5cd56f	-0.21565793
192	0xbe25a60a	-0.1617662
193	0xbc2c3877	-0.010511509
194	0x3c6d16e9	0.014470794
195	0x3d7f405e	0.062317245
196	0x3c63e1ba	0.013908798
197	0x3db66f15	0.08907906
198	0xbded25d0	-0.11579478
199	0xbe3382e0	-0.17530394
200	0xbe05dcfe	-0.13072583
201	0xbd039f1c	-0.03213416
202	0x3de314b9	0.11087937
203	0xbdda47a9	-0.10658199
204	0x3b83fd25	0.00402798
205	0x3df9263a	0.12165494
206	0xbda03d7e	-0.07824229
207	0xbd497b05	-0.049189586
208	0xbe581c07	-0.21104442
209	0xbdda3140	-0.10653925
210	0x3d92e247	0.07172065
211	0x3c10dcd6	0.008841714
212	0x3b48a668	0.0030616764
213	0xbe79dc61	-0.24400474
214	0xbe359cd2	-0.17735603
215	0xbdec6b89	-0.11543948
216	0x3d0c1001	0.03419495
217	0x3e4111d2	0.18854454
218	0xbdda4f51	-0.1065966
219	0x3e03c540	0.12868214
220	0x3a684cf7	0.00088615663
221	0xbd2450dc	-0.040116176
222	0x3e9f5d5c	0.31125915
223	0xbd11b7d0	-0.035575688
224	0x3d0e8a5a	0.03479991
225	0xbdd954db	-0.10611888
226	0xbb4be82b	-0.0031113725
227	0x3d3bf25b	0.045885425
228	0xbe010fa7	-0.12603627
229	0xbd916ce9	-0.07100851
230	0xbe6a0d03	-0.22856526
231	0xbd9c5a87	-0.07634454
232	0x3dbdcbd0	0.0926739
233	0x3de8a3c4	0.11359361
234	0x3c8e3f81	0.017364265
235	0xbdeabefb	-0.11462208
236	0x3d89aa50	0.06721938
237	0xbd8cd2d2	-0.06876148
238	0x3d35c8eb	0.044381063
239	0xbe07d0cc	-0.13263243
240	0xbe2162d9	-0.15760364
241	0x3d1d462d	0.038397003
242	0x3ea701b6	0.32618493
243	0xbe6ab60e	-0.22921011
244	0xbd282c75	-0.041058023
245	0xbdde47c6	-0.108535334
246	0x3e602db3	0.21892433
247	0xbd0561b3	-0.032563876
248	0x3de7cd7d	0.11318491
249	0xbda0ea94	-0.07857242
250	0x3de158a7	0.11003237
251	0x3d6f2e5c	0.05839382
252	0xbd92966e	-0.071575984
253	0xbd5decf5	-0.054181058
254	0x3cddeac7	0.02708949
255	0x3c34237b	0.010994787

module.net_ts.layer1.0.bn1.weight f4 [32]
0	0x3f27919d	0.65456563
1	0x3efa58fd	0.48896018
2	0x3f19866c	0.59970737
3	0x3f0cd7a4	0.5501654
4	0x3f100ccd	0.5626953
5	0x3f159f46	0.58446157
6	0x3eda5b6b	0.4264787
7	0x3f1bc8ef	0.60853475
8	0x3f3ea237	0.7446627
9	0x3ecec35d	0.40383425
10	0x3f3469f0	0.7047415
11	0x3f022869	0.5084291
12	0x3f2c08f4	0.6720116
13	0x3f102154	0.56300855
14	0x3ed40a82	0.41414267
15	0x3f5bb922	0.85829365
16	0x3f16066a	0.5860354
17	0x3f34eccb	0.7067382
18	0x3f10607d	0.5639723
19	0x3f278ac4	0.65446115
20	0x3f36d781	0.7142258
21	0x3f0c39c6	0.54775655
22	0x3f13695b	0.57582635
23	0x3f2234c6	0.63361776
24	0x3f12a18b	0.57277745
25	0x3f119f88	0.5688405
26	0x3f197b1a	0.59953463
27	0x3f02de66	0.51120603
28	0x3f366633	0.71249694
29	0x3edd7a80	0.43257523
30	0x3f0e9e54	0.5571034
31	0x3f10e892	0.56604874

module.net_ts.layer1.0.bn1.bias f4 [32]
0	0xbd887078	-0.06662077
1	0xba439f46	-0.0007462393
2	0xbddcb2e4	-0.10776308
3	0xbcf1532b	-0.029458603
4	0xbe0ce67b	-0.13759796
5	0xbe119165	-0.1421562
6	0xbe3748c1	-0.17898847
7	0xbe23d4c2	-0.1599913
8	0xbe79af20	-0.24383211
9	0xbdd60827	-0.10450774
10	0xbe43bb37	-0.19114386
11	0xbdc55680	-0.09635639
12	0xbda66843	-0.08125355
13	0xbd1cafc4	-0.03825356
14	0xbe0d5238	-0.13800895
15	0xbe54ce20	-0.20781755
16	0xbd885812	-0.06657423
17	0xbe44b34b	-0.1920902
18	0xbda39216	-0.07986848
19	0xbd453990	-0.0481506
20	0xbe4a6980	-0.19766808
21	0xbe2fd8b9	-0.17172517
22	0xbe149691	-0.14510562
23	0xbc457e1e	-0.012053994
24	0xbd924cbb	-0.071435414
25	0xbe5647f6	-0.20925888
26	0xbdfe8584	-0.1242781
27	0xbe1e8845	-0.1548167
28	0xbe38781f	-0.18014573
29	0xbdf51ad3	-0.11968007
30	0xbe04e714	-0.12978774
31	0xbdcd6f28	-0.10030967

module.net_ts.layer1.0.bn1.running_mean f4 [32]
0	0xbf54e24a	-0.8315779
1	0x3fb36a24	1.4016767
2	0xbdf7b23b	-0.12094542
3	0xbfb6433f	-1.4239272
4	0xbf5a0c6a	-0.8517519
5	0x3ea84c4e	0.32870716
6	0xbea091b2	-0.31361157
7	0xbf2506e4	-0.6446364
8	0xbefdbd2c	-0.4955839
9	0x3f5909c8	0.8478055
10	0xbf82b3a7	-1.0211076
11	0xbf2653ff	-0.6497192
12	0xbe14045d	-0.1445479
13	0xbf157393	-0.5837948
14	0x3e722ba9	0.23649468
15	0xbfc9805a	-1.5742295
16	0xbf40ef71	-0.7536536
17	0xbee06561	-0.43827346
18	0xba571138	-0.0008204165
19	0xbf4a2b30	-0.7897215
20	0xbf60de40	-0.87839127
21	0x3ef4cc2c	0.4781202
22	0xbf00a67d	-0.5025404
23	0xbebbc555	-0.3667399
24	0xbe9f3ce1	-0.31101134
25	0x3e08b4da	0.1335024
26	0xbf4ab73a	-0.7918583
27	0x3f54ef12	0.8317729
28	0xbfa83983	-1.3142551
29	0x3e9b9c9c	0.3039292
30	0xbf128fe1	-0.5725079
31	0xbf6338bd	-0.8875845

module.net_ts.layer1.0.bn1.running_var f4 [32]
0	0x3f51000f	0.81640714
1	0x3f46def0	0.77683926
2	0x3f300e40	0.68771744
3	0x3f5128a7	0.81702656
4	0x3f10a408	0.5650029
5	0x3f2985fa	0.66220057
6	0x3e8aac37	0.27084514
7	0x3f028847	0.5098919
8	0x3f91de31	1.1395932
9	0x3f24693d	0.6422308
10	0x3f712e8f	0.9421167
11	0x3f079d45	0.5297435
12	0x3f2b1d25	0.66841346
13	0x3eea6b00	0.4578476
14	0x3ed1c827	0.40973017
15	0x3fb42121	1.407261
16	0x3f01a646	0.5064434
17	0x3f77cfbe	0.96801364
18	0x3f195049	0.5988813
19	0x3f27106b	0.65259427
20	0x3f5fc89c	0.8741548
21	0x3eab6a60	0.33479595
22	0x3f0825d7	0.5318274
23	0x3f0c91b7	0.54909843
24	0x3f301574	0.68782735
25	0x3ee4726d	0.4461855
26	0x3f6f910e	0.9358071
27	0x3f5984f9	0.84968525
28	0x3f6ae5cf	0.9175691
29	0x3eb855a2	0.36002833
30	0x3e961124	0.29309952
31	0x3ee78180	0.45215988

module.net_ts.layer1.0.conv2.weight f4 [32, 32, 3]
0	0xbd057875	-0.03258558
1	0x3d5ca738	0.05387041
2	0x3c9c551f	0.019083558
3	0x3cdd2921	0.02699715
4	0xbe3ab632	-0.18233564
5	0xbe52275c	-0.20522827
6	0xbde3bfbc	-0.11120555
7	0xbe6d234e	-0.23157999
8	0xbe6a727f	-0.2289524
9	0x3c5c2777	0.0134371435
10	0xba04c799	-0.0005065143
11	0x3db79077	0.08963101
12	0x3e4e6234	0.20154649
13	0xbd512e4e	-0.05106955
14	0xbbecc8d3	-0.0072260885
15	0xbd71bbee	-0.059017114
16	0xbd270184	-0.04077293
17	0x3c9ed311	0.019387754
18	0xbe0c4ef5	-0.13701995
19	0xbbaaad9a	-0.005208683
20	0x3c9bc263	0.01901359
21	0x3ddc7a7a	0.10765548
22	0xbd68cd4f	-0.056836423
23	0xbe1f57c4	-0.15560824
24	0x3d287fcd	0.041137505
25	0xbe18b8a9	-0.14914192
26	0xbd1c53cf	-0.038165864
27	0xbac60a10	-0.00151092
28	0x3cd3a265	0.025834272
29	0xbe19343a	-0.14961329
30	0x3dc7db3c	0.097586125
31	0x3dea9282	0.114537254
32	0x3e441587	0.19148837
33	0x3de15892	0.110032216
34	0x3dbb2d8a	0.09139545
35	0x3d7f264c	0.062292382
36	0xbe4b8a30	-0.19876933
37	0xbc5273a7	-0.0128449565
38	0xbe175b9c	-0.1478104
39	0xbe670597	-0.22560726
40	0xbdcebbd0	-0.10094416
41	0xbe32e3a1	-0.17469646
42	0xbe643725	-0.22286661
43	0x3e17c35a	0.14820614
44	0xbd94c47c	-0.07264039
45	0xbe1580e5	-0.1459995
46	0x3cf21f9b	0.029556086
47	0xbcb38a0b	-0.02191641
48	0xbd159705	-0.036520977
49	0xbd1676e7	-0.036734488
50	0xb998a413	-0.00029113944
51	0xbd40fb85	-0.047114868
52	0x3e0321cb	0.1280586
53	0x3e1c41f4	0.15259534
54	0xbe299af1	-0.16563012
55	0x3d1d4d25	0.03840365
56	0x3e1c8cfd	0.15288158
57	0x3e348f3a	0.17632762
58	0xbd27a606	-0.040929817
59	0xbdc4670a	-0.09589966
60	0xbdad6e16	-0.08468263
61	0x3e69cef7	0.22832857
62	0x3d19e8bf	0.03757548
63	0x3cecdb50	0.02891317
64	0x3cdb2958	0.026753113
65	0x3d70beb4	0.05877562
66	0x3d859842	0.065231815
67	0x3d69fdf2	0.057126947
68	0xbd365fb7	-0.044524875
69	0x3ded8a24	0.11598614
70	0xbc775452	-0.015095787
71	0x3db70403	0.08936312
72	0xbe893e17	-0.26805183
73	0xbc1dde27	-0.009635485
74	0x3e5cb445	0.21553142
75	0xbe902767	-0.28155062
76	0x3d11e95f	0.03562295
77	0xbe592a2a	-0.2120749
78	0x3de68fd4	0.11257902
79	0xbd1eeaec	-0.038798258
80	0x3c77cd31	0.015124605
81	0x3d490c28	0.04908386
82	0xbdeea8d1	-0.11653293
83	0xbe0314b0	-0.1280086
84	0xbd2b61bb	-0.04184125
85	0xbdad827c	-0.084721535
86	0xbcc587b5	-0.024112562
87	0xbd0085f8	-0.031377763
88	0x3cab6490	0.020921975
89	0xbcea164f	-0.02857509
90	0x3dc6fb4b	0.09715899
91	0xbda4e79a	-0.08051987
92	0x3ced3577	0.028956158
93	0x3d0f41b7	0.03497478
94	0xbccf4a7b	-0.02530407
95	0xbe381aee	-0.17979023
96	0x3d283861	0.041069392
97	0xbe2b409f	-0.1672387
98	0x3e092fc9	0.13397135
99	0xbeee1c3c	-0.46505916
100	0xbdcd0eca	-0.100125864
101	0xbe01ea6f	-0.12687086
102	0xbe36a11c	-0.17834896
103	0xbd49fdf8	-0.04931447
104	0x3e4120b0	0.18860126
105	0xbe0cd208	-0.13751996
106	0xbd98a4e5	-0.07453326
107	0xbda596d4	-0.08085409
108	0xbe05338a	-0.13007942
109	0x3e4c1d06	0.19932947
110	0x3ca91c32	0.020643327
111	0xbd9c4799	-0.07630844
112	0xbe9732b2	-0.29530865
113	0x3da3f941	0.08006526
114	0x3d8c7218	0.06857699
115	0x3d884277	0.06653302
116	0xbdb02fa0	-0.08602834
117	0x3d1bb592	0.038014956
118	0x3e41a966	0.18912277
119	0x3deed3b5	0.11661474
120	0xbdde4db8	-0.108546674
121	0xbe149007	-0.14508067
122	0x3e0819b1	0.1329105
123	0xbd736c1e	-0.05942928
124	0xbcb1b672	-0.021693442
125	0x3de9d1eb	0.11416992
126	0x3c61e35b	0.013787116
127	0xbe20c139	-0.15698709
128	0x3e327033	0.17425613
129	0xbea13a3d	-0.31489745
130	0x3b530b23	0.0032202683
131	0xbbc093ec	-0.0058770087
132	0xbe00523f	-0.12531374
133	0x3e3f8219	0.18701972
134	0x3e15175d	0.14559694
135	0xbc794d9d	-0.015216258
136	0xbd661409	-0.05617145
137	0xbc3b54c6	-0.011433786
138	0xbe59010a	-0.21191803
139	0xbd85d967	-0.06535607
140	0x3e1bb5f7	0.15206133
141	0x3ed0c519	0.40775374
142	0x3db29ee1	0.0872171
143	0xbe1190fa	-0.1421546
144	0x3e442fb6	0.19158825
145	0x3e6b47e9	0.2297665
146	0x3e055da9	0.1302401
147	0x3e1ef120	0.1552167
148	0xbc9e25eb	-0.01930519
149	0xbdc7236a	-0.097235516
150	0x3d932098	0.07183951
151	0x3e008a56	0.12552771
152	0x3d41eff7	0.04734799
153	0x3e1f6a2d	0.15567847
154	0x3e273b71	0.16331269
155	0xbe16b9f2	-0.1471937
156	0x3e8125ba	0.25224096
157	0xbe09af08	-0.13445675
158	0x3cd878f8	0.02642487
159	0xbe7be376	-0.24598488
160	0x3e03eb8d	0.12882824
161	0xbd5e3563	-0.054250132
162	0xbc517c65	-0.012786006
163	0xbd163ea9	-0.03668085
164	0x3c459cd4	0.0120613165
165	0xbcb87227	-0.02251537
166	0x3cae0d34	0.02124653
167	0xbd5879f8	-0.052850693
168	0xbd871613	-0.06596007
169	0xbe220e78	-0.15825832
170	0x3b5e0e9c	0.003388322
171	0xbe00a693	-0.12563543
172	0x3e094001	0.13403322
173	0x3db33677	0.08750623
174	0xbb949a75	-0.0045350143
175	0x3c5840f5	0.013199081
176	0xbeba1d28	-0.3635037
177	0xbdf8f761	-0.12156559
178	0xbdcde79a	-0.1005394
179	0x3d0a58f5	0.033776242
180	0x3d7e8b0a	0.062144317
181	0xbdfabe40	-0.122433186
182	0x3e31e99e	0.17374274
183	0x3e087045	0.13324077
184	0xbd9f5808	-0.077804625
185	0x3de97592	0.11399378
186	0xbc93626a	-0.017991263
187	0x3d9bdf1b	0.07610913
188	0xbe4fb2dd	-0.20283075
189	0x3ca265ef	0.019823996
190	0xbd8194ba	-0.063271955
191	0xbdca8ab5	-0.098897375
192	0xbb96bc6e	-0.0046000993
193	0xbdee4eb5	-0.11636106
194	0x3de26d56	0.110560104
195	0x3e0f24db	0.13978903
196	0xbd5e3118	-0.05424604
197	0xbe1bc9fd	-0.15213771
198	0xbe01d237	-0.12677847
199	0x3b6f8d5c	0.0036552763
200	0xbdda61af	-0.10663163
201	0xbca7ae24	-0.020468779
202	0x3bbcfb9b	0.0057672984
203	0x3d99353d	0.074808575
204	0x3c320f34	0.0108678825
205	0xbcc62931	-0.024189563
206	0x3dbbb6ae	0.09165703
207	0xbd0f45b0	-0.03497857
208	0x3c4b69cc	0.012415361
209	0xbd0b0074	-0.03393598
210	0xbda35fce	-0.07977258
211	0xbdcebd39	-0.10094685
212	0x3d302bd7	0.04301056
213	0x3dbe53b3	0.09293308
214	0x3e7d08f7	0.24710451
215	0x3d8c26f4	0.06843367
216	0x3cc8b6f9	0.02450131
217	0xbda9658e	-0.08271323
218	0xbd830b09	-0.06398589
219	0x3d95f178	0.07321447
220	0x3b8f76d1	0.0043781777
221	0xbe02ca76	-0.12772545
222	0xbdf042b1	-0.117314704
223	0xbceb77fe	-0.02874374
224	0x3e9145e7	0.28373644
225	0xbdcddd83	-0.10052016
226	0xbe321d8c	-0.17394084
227	0x3e94b18a	0.29041702
228	0xbbfd2455	-0.0077252784
229	0xbdfd9da4	-0.12383583
230	0x3e9f570b	0.31121096
231	0x3e175c3f	0.14781283
232	0x3ba4ab5e	0.0050253114
233	0x3d7e929c	0.062151536
234	0xbc7e6f0e	-0.015529407
235	0xbd343cd9	-0.04400334
236	0x3e2b7e04	0.1674729
237	0x3e9d7623	0.30754194
238	0x3da32718	0.07966441
239	0x3ddf094c	0.10890445
240	0x3c717638	0.014737658
241	0xbc089b54	-0.008337814
242	0x3d92359b	0.07139131
243	0xbd58050d	-0.05273919
244	0x3e4149e7	0.18875848
245	0x3d953478	0.07285398
246	0xbbc038f0	-0.0058661625
247	0xbd6de674	-0.058081105
248	0x3d7d373a	0.061820246
249	0x3e6e670e	0.232815
250	0xbd80386a	-0.0626076
251	0xbeadcf13	-0.33947048
252	0x3e289a64	0.16465145
253	0xbc9eb105	-0.019371519
254	0xbc372c44	-0.011179987
255	0x3c467872	0.012113677

module.net_ts.layer1.0.bn2.weight f4 [32]
0	0x3f29ca35	0.6632417
1	0x3f4456f8	0.76695204
2	0x3f28034a	0.6563002
3	0x3f253603	0.6453554
4	0x3f1d0f06	0.6135105
5	0x3f05a856	0.52209985
6	0x3f0c215e	0.54738414
7	0x3f1375bb	0.5760152
8	0x3f2f0162	0.68361485
9	0x3f184665	0.59482414
10	0x3f350bb5	0.7072099
11	0x3f283a71	0.65714175
12	0x3f08c03d	0.5341833
13	0x3f189feb	0.59619015
14	0x3f156006	0.58349645
15	0x3f0acab5	0.54215556
16	0x3f18f93f	0.5975532
17	0x3f1a37ba	0.6024128
18	0x3f0b5de9	0.5444017
19	0x3f119a48	0.5687604
20	0x3f09cc19	0.53827053
21	0x3f1bb01b	0.6081559
22	0x3f301d66	0.6879486
23	0x3f1af9ba	0.605373
24	0x3f21856a	0.630942
25	0x3f0eb022	0.5573751
26	0x3efdbc54	0.49557745
27	0x3f2554db	0.64582604
28	0x3f2df52a	0.67952216
29	0x3ec3bb6c	0.3822893
30	0x3f215e20	0.6303425
31	0x3f22630e	0.63432395

module.net_ts.layer1.0.bn2.bias f4 [32]
0	0xbd9f88c0	-0.07789755
1	0x3c91b0b7	0.01778446
2	0xbe817526	-0.2528469
3	0xbd37e72b	-0.044898193
4	0xbbb0cf8d	-0.0053958357
5	0xbd616b1c	-0.055033788
6	0xbe032135	-0.12805636
7	0xbdeb5c2c	-0.1149219
8	0xbcf58484	-0.029970415
9	0x3cceec0c	0.02525904
10	0xbead9057	-0.33899185
11	0xbdcf942b	-0.10135683
12	0xbd1e989c	-0.03871976
13	0xbdaeb431	-0.085304625
14	0xbd059958	-0.032616943
15	0xbe4f0e20	-0.20220232
16	0xbe2fd022	-0.1716924
17	0x3d99e282	0.07513906
18	0xbd1a0ce0	-0.037609935
19	0xb8e213a6	-0.000107801796
20	0xbd608d38	-0.054822177
21	0x3db35505	0.087564506
22	0xbe3a35f5	-0.18184645
23	0xbdaceb1b	-0.0844328
24	0x3d5a7c00	0.053340912
25	0xbe0ff9e0	-0.14060163
26	0xbe5ce9f4	-0.21573621
27	0xbe30c2e1	-0.1726184
28	0xbe34801e	-0.17626998
29	0xbe1b0697	-0.15139233
30	0xbe379cf7	-0.17930971
31	0xbe4ff58d	-0.20308514

module.net_ts.layer1.0.bn2.running_mean f4 [32]
0	0xbe940db2	-0.289167
1	0xbd939d24	-0.072077066
2	0x3ee3f491	0.44522527
3	0xbd87b3fb	-0.066261254
4	0xbe5e1344	-0.21687037
5	0x3ea809f4	0.32820094
6	0xbe328326	-0.17432842
7	0xbecb16e2	-0.39665896
8	0xbf13b086	-0.5769123
9	0x3e01b027	0.12664853
10	0x3d44051e	0.047856443
11	0xbe2b89ad	-0.16751738
12	0xbd8caf1e	-0.068693385
13	0xbdd9521b	-0.106113635
14	0xbe7f1101	-0.2490883
15	0xbe8b3495	-0.27188554
16	0x3ead705c	0.33874786
17	0xbe9312e0	-0.28725338
18	0xbe97935b	-0.2960461
19	0xbf14442e	-0.57916534
20	0xbd8f505e	-0.06997751
21	0xbed08daf	-0.40733096
22	0x3d897959	0.06712598
23	0xbe04e29d	-0.12977071
24	0x3d8625c1	0.0655017
25	0xbd090372	-0.03345055
26	0xbee99f70	-0.45629454
27	0xbe9573e9	-0.29189995
28	0xbc7e5690	-0.015523568
29	0x3b3cbad8	0.002879789
30	0xbe8e8186	-0.27833194
31	0xbe2482ac	-0.16065472

module.net_ts.layer1.0.bn2.running_var f4 [32]
0	0x3e400188	0.18750584
1	0x3ed29343	0.41127977
2	0x3e80e0e4	0.25171578
3	0x3e341c55	0.17588933
4	0x3e51beb3	0.20482902
5	0x3e6a54cb	0.22883908
6	0x3e9d90cc	0.30774534
7	0x3e46533e	0.19367692
8	0x3e9002f8	0.28127265
9	0x3e1c4880	0.15262032
10	0x3e6e200d	0.23254414
11	0x3e2af92c	0.16696614
12	0x3e9920a9	0.2990773
13	0x3e6c61f0	0.23084235
14	0x3e2b3065	0.1671768
15	0x3e3a5b81	0.18198968
16	0x3e8cc159	0.27491263
17	0x3e387964	0.18015057
18	0x3ece7d22	0.40329844
19	0x3e70f28d	0.23530026
20	0x3e64870b	0.2231714
21	0x3e801291	0.25014165
22	0x3e524755	0.20535024
23	0x3e522c0b	0.20524614
24	0x3e2662bd	0.16248603
25	0x3e39cd8f	0.1814482
26	0x3e333b97	0.175032
27	0x3e5b613a	0.21423808
28	0x3e2c66c3	0.16836075
29	0x3e01c7ca	0.1267387
30	0x3e8f20a6	0.27954596
31	0x3e792e73	0.24334125

module.net_ts.layer2.0.conv1.weight f4 [32, 32, 3]
0	0xbe0005ec	-0.12502259
1	0xbd9ea252	-0.07745804
2	0x3c4385e9	0.011933782
3	0x3e4bb27d	0.19892307
4	0xbe309b75	-0.17246802
5	0xbdd87d09	-0.105707236
6	0xbd05d5f0	-0.03267473
7	0xbd743147	-0.059617307
8	0x3c58078e	0.013185395
9	0xbcadf0e3	-0.021233028
10	0xbe2a889b	-0.16653673
11	0x3cf42875	0.029804448
12	0x3e3e7c47	0.18602096
13	0xbd03a79d	-0.03214227
14	0xbc4ba20b	-0.012428771
15	0xbd2f16c9	-0.04274634
16	0xbe02537e	-0.12727162
17	0xbd061a59	-0.03273997
18	0xbe27f09e	-0.16400382
19	0x3d99b6f1	0.075055964
20	0xbe2819fe	-0.16416165
21	0xbcb642c1	-0.022248628
22	0x3bddcfb9	0.0067691472
23	0xbddbc98b	-0.10731801
24	0xbcd37cfa	-0.02581643
25	0xbdcca0ad	-0.09991584
26	0xbbc94402	-0.0061421404
27	0x3d39ecbb	0.04539178
28	0x3df1a448	0.11798912
29	0xbe2d9912	-0.16952923
30	0xbcc4687f	-0.023975609
31	0x3c84a63f	0.016192554
32	0xbdf9e5c3	-0.12202027
33	0xbdb72a98	-0.08943671
34	0x3da4cc4e	0.080467805
35	0xbe71cd9d	-0.23613591
36	0xbcb5acd6	-0.022177141
37	0xbd8752a0	-0.06607556
38	0xbe0a16ba	-0.13485232
39	0x3e0e2af8	0.13883579
40	0x3e0c885d	0.13723893
41	0xbe842344	-0.25808156
42	0x3d50f0b2	0.051010795
43	0x3cfc634e	0.03080907
44	0x3c9f14fa	0.019419182
45	0x3d2a4ccb	0.04157714
46	0x3e69488b	0.22781579
47	0xbd3ccee8	-0.04609576
48	0x3e238f05	0.15972526
49	0xbd749cd6	-0.059719883
50	0x3b59e9ad	0.0033250854
51	0xbda5e3cc	-0.081000894
52	0x3d3a9bbd	0.04555868
53	0xbdb2fbd2	-0.08739437
54	0xbe896e02	-0.26841742
55	0xbe1e64cc	-0.15468138
56	0xbe0f350b	-0.13985078
57	0xbdfb7c79	-0.12279601
58	0x3d7bffe2	0.061523326
59	0x3dae14f5	0.08500091
60	0x3d11df55	0.035613377
61	0xbe0aafc5	-0.13543613
62	0x3b88dc0e	0.004176623
63	0x3daf091e	0.08546661
64	0x3e066f53	0.13128404
65	0xbe434652	-0.19069794
66	0xbde912fc	-0.11380574
67	0xbcc668c9	-0.024219887
68	0x3def3f3b	0.11681982
69	0x3c3e32e4	0.011608813
70	0xbc917020	-0.01775366
71	0xbd288d67	-0.041150477
72	0xbd4386a7	-0.047735836
73	0xbdfdbce3	-0.12389543
74	0xbd8c8070	-0.06860435
75	0x3e7b247e	0.2452564
76	0x3d56257e	0.05228185
77	0xbde24558	-0.110483825
78	0xbe08abd7	-0.13346802
79	0xbdbf5114	-0.09341636
80	0x3e75ba6b	0.23996894
81	0xbb6e30d0	-0.0036345012
82	0x3e3ec500	0.18629837
83	0xbe0e3ef5	-0.13891204
84	0xbe148d65	-0.14507063
85	0x3d52d126	0.05146899
86	0x3ba7b8c0	0.0051184595
87	0xbe1dcfca	-0.15411296
88	0x3e2c5a20	0.16831255
89	0xbd175386	-0.03694489
90	0x3dd743fc	0.10511014
91	0xbdfb93fd	-0.12284086
92	0xbd128017	-0.035766687
93	0xbe2fbf2b	-0.17162769
94	0xbcc9ee94	-0.024649896
95	0x3d90b3c4	0.070655376
96	0x3d120cfe	0.03565692
97	0xbd9d0182	-0.07666303
98	0x3d546be5	0.05186071
99	0x3da9703e	0.082733616
100	0xbd5d26a4	-0.05399193
101	0xbd62a285	-0.055330772
102	0xbda443b2	-0.08020724
103	0x3bf0df6d	0.007350853
104	0x3e4972af	0.19672655
105	0x3db0a681	0.08625508
106	0x3cd4d694	0.025981225
107	0x3d5e6f90	0.054305613
108	0x3cd9e4c5	0.026598344
109	0xbc8c900d	-0.017158533
110	0x3ca63def	0.020293204
111	0xbe7eac61	-0.24870445
112	0x3de36fc4	0.11105302
113	0x3e293efb	0.16527931
114	0xbdbc39c8	-0.091907084
115	0xbca0a8bb	-0.019611707
116	0x3dc71a08	0.09721762
117	0xbd939603	-0.07206347
118	0x3d8b6586	0.068064734
119	0x3e1f26bc	0.1554212
120	0xbd75abc0	-0.059978247
121	0xbc0ca8b2	-0.008585142
122	0x3e01a56c	0.1266076
123	0xbe393b43	-0.18089013
124	0xbdc238b8	-0.094834745
125	0x3c9f33f4	0.019433953
126	0xbd0fa333	-0.03506775
127	0xbdf3b2b3	-0.118993185
128	0x3dfcb745	0.123396434
129	0x3de82b04	0.113363296
130	0x3dccc175	0.099978365
131	0xba7943ce	-0.00095087
132	0xbd6715a3	-0.05641712
133	0xbce584f8	-0.028017506
134	0x3e14f25f	0.14545582
135	0xbd761325	-0.06007685
136	0xbb388823	-0.0028157316
137	0xbcd12ec3	-0.025534993
138	0xbd5ec858	-0.05439028
139	0x3e264982	0.16238979
140	0xbe053f77	-0.13012491
141	0xbe47b7fa	-0.19503775
142	0x3e187be0	0.14891005
143	0x3e6db36f	0.2321298
144	0xbcc0b64e	-0.02352443
145	0x3e18bc80	0.14915657
146	0x3db5d071	0.08877648
147	0x3ca0b9af	0.01961979
148	0xbe545c35	-0.20738299
149	0x3d5fdf5a	0.054656364
150	0x3e1f18e1	0.15536834
151	0x3dd209b1	0.10255755
152	0xbe891f4e	-0.26781696
153	0xbc1f1768	-0.00971017
154	0xbe7c69ce	-0.24649736
155	0x3d79335f	0.060840007
156	0x3d3301a2	0.04370273
157	0x3df90da9	0.121608086
158	0xbe6c3dec	-0.23070496
159	0xbe020e24	-0.12700707
160	0xbb9aa727	-0.004719633
161	0x3dfab860	0.12242198
162	0xbe345bef	-0.17613195
163	0x3e124916	0.14285693
164	0x3d2d4f93	0.042312216
165	0xbbd42830	-0.0064745173
166	0xbd46119c	-0.048356637
167	0x3cb15d79	0.021651017
168	0xbe11daee	-0.14243671
169	0xbd8b0735	-0.06788484
170	0x3d35ea2b	0.044412773
171	0xbdd6ca0f	-0.10487758
172	0x3e330223	0.17481284
173	0xbe06d314	-0.13166457
174	0xbd4f8997	-0.050668325
175	0xbda8a9d7	-0.082355194
176	0x3e031231	0.12799908
177	0xbbd3e712	-0.0064667547
178	0x3de730ec	0.11288628
179	0xbbf0309d	-0.007330014
180	0xbd59b7a7	-0.05315366
181	0xbbe14d9e	-0.006875708
182	0xbe01c5e7	-0.1267315
183	0x3d1a9d5c	0.037747726
184	0xbd727693	-0.059195112
185	0xbdd769a0	-0.10518193
186	0x3c3c9a6d	0.011511427
187	0xbd2911b9	-0.041276667
188	0xbc7ad9c6	-0.01531071
189	0xbd712056	-0.05886873
190	0xbc83013e	-0.015991803
191	0x3da198cc	0.07890472
192	0x3d4cc215	0.04998978
193	0xbd90a29d	-0.07062266
194	0x3e26edb8	0.1630162
195	0x3d4fe479	0.050754998
196	0xbe1e88ac	-0.15481824
197	0xbe2ebcfc	-0.1706428
198	0xbd931403	-0.07181551
199	0x3e0b004b	0.1357433
200	0x3e6c38a4	0.23068482
201	0x3e25d7e6	0.1619564
202	0xbdf9d986	-0.121996924
203	0x3da59cf5	0.08086578
204	0xbd83f759	-0.06443662
205	0xbcddaa9d	-0.027058894
206	0xbd84b07f	-0.064789765
207	0xbc9d2e3e	-0.019187089
208	0x3d667f53	0.05627377
209	0x3d07c5cd	0.033147622
210	0x3dd375a0	0.103251696
211	0x3e0004f6	0.12501892
212	0xbcbaa43d	-0.022783393
213	0xbd2dea06	-0.04245951
214	0xbc287b3d	-0.010283289
215	0xbc822b79	-0.01588987
216	0x3d31e316	0.043429457
217	0xbdf712d6	-0.120641395
218	0xbdd24046	-0.102661654
219	0xbe538ddc	-0.20659584
220	0x3e2c145a	0.16804639
221	0x3dcdfb0b	0.10057648
222	0x3d8bab23	0.06819751
223	0xbe97cede	-0.29650015
224	0xbd83c5ad	-0.06434188
225	0x3dd6d4f4	0.10489836
226	0x3d9d53e4	0.076820165
227	0xbcff6c02	-0.031179432
228	0xbe259f42	-0.16174033
229	0xbcb5cea9	-0.02219327
230	0x3da3fb9e	0.080069765
231	0xbdcf108f	-0.1011058
232	0xbe21cbf7	-0.15800463
233	0xbd6272ee	-0.055285387
234	0x3e3ef752	0.18649033
235	0xbd4512de	-0.048113696
236	0xbbd8ce4f	-0.006616391
237	0x3cab083b	0.020877948
238	0x3dc33799	0.09532089
239	0x3e1cfebc	0.15331548
240	0xbe091971	-0.13388611
241	0xbdfbcc22	-0.122947946
242	0xbd7c06a8	-0.061529785
243	0xbdee20ad	-0.11627326
244	0xbd994ca7	-0.074853234
245	0xbbd5a66d	-0.0065200836
246	0xbe1dd94a	-0.1541492
247	0xbe2f3d0a	-0.17113128
248	0x3cda9ebe	0.026687022
249	0x3c0eacb7	0.008708171
250	0xbe4bdd5f	-0.19908665
251	0xbc101398	-0.008793734
252	0x3daf07e3	0.08546426
253	0x3cab6164	0.020920463
254	0x3cf4b6aa	0.029872257
255	0x3e527929	0.20554031

module.net_ts.layer2.0.bn1.weight f4 [32]
0	0x3f0e8b63	0.5568144
1	0x3ef03519	0.4691551
2	0x3f242d3f	0.6413154
3	0x3f02fa40	0.511631
4	0x3f2560fc	0.6460111
5	0x3f32d1c4	0.69851327
6	0x3f16e3e6	0.58941495
7	0x3f0d52de	0.5520457
8	0x3f12e5d5	0.57381946
9	0x3f052140	0.5200386
10	0x3eea1294	0.457173
11	0x3f2bb32d	0.67070276
12	0x3f068375	0.5254434
13	0x3f11f4b3	0.57014006
14	0x3eeceff2	0.46276814
15	0x3f1a66e6	0.6031326
16	0x3f2106ac	0.62900805
17	0x3f11557c	0.56771064
18	0x3f1cc289	0.6123434
19	0x3f0ad67c	0.5423353
20	0x3f0cd22d	0.550082
21	0x3f0dd089	0.55396324
22	0x3f214774	0.62999654
23	0x3f0031b9	0.5007587
24	0x3efda5ff	0.49540707
25	0x3f2d01c5	0.67580825
26	0x3f20a74f	0.6275529
27	0x3f0e1900	0.55506897
28	0x3f0a80b7	0.54102653
29	0x3ef744ed	0.48294774
30	0x3f15b4a1	0.5847874
31	0x3f129c1b	0.5726945

module.net_ts.layer2.0.bn1.bias f4 [32]
0	0xbe28a089	-0.1646749
1	0x3b295233	0.0025836348
2	0xbe28e10c	-0.16492099
3	0x3cf3441e	0.029695567
4	0xbe2bd73d	-0.16781326
5	0xbdafb346	-0.085791156
6	0xbdc920d5	-0.09820715
7	0xbe206131	-0.15662076
8	0xbeb657ce	-0.35613865
9	0xbe1ac54c	-0.15114325
10	0x3cb50bc0	0.02210033
11	0xbe1a032c	-0.15040272
12	0xbc4989ae	-0.012300892
13	0xbe8523cc	-0.26003873
14	0xbdc47644	-0.0959287
15	0xbd26c74c	-0.040717408
16	0xbd7679d0	-0.060174763
17	0x3c612c94	0.013743538
18	0xbc618aaf	-0.013765975
19	0xbd741a3c	-0.05959533
20	0xbd5f5199	-0.054521177
21	0xbe2c7d37	-0.1684464
22	0xbe049dc4	-0.12950808
23	0xbd28e835	-0.041237075
24	0xbe5f9f0b	-0.21838014
25	0xbe4e87cd	-0.20168991
26	0xbe137bc3	-0.1440268
27	0xbdad89d2	-0.08473553
28	0xbdb73c8b	-0.089470945
29	0xbd2f0808	-0.04273227
30	0xbe1fd103	-0.15607075
31	0xbe23cdd9	-0.15996493

module.net_ts.layer2.0.bn1.running_mean f4 [32]
0	0xbf974441	-1.1817704
1	0xbdfac794	-0.12245098
2	0xbf81d3c3	-1.014275
3	0xbf07e873	-0.53089064
4	0xbde6f7b4	-0.11277714
5	0xbcf6b735	-0.030116657
6	0xbed9e49e	-0.42557234
7	0xbf840537	-1.0314091
8	0xbef0e210	-0.47047472
9	0xbf48a2fa	-0.7837368
10	0xbf80cb54	-1.0062051
11	0xbf7bb1a1	-0.98317915
12	0xbd87008f	-0.065919034
13	0xbf40d29b	-0.7532136
14	0xbe8cc02c	-0.27490366
15	0xbf21dd9a	-0.6322876
16	0xbee5dc0e	-0.4489445
17	0x3ee9cb8f	0.45663115
18	0x3f61cd74	0.8820412
19	0xbe80e5b9	-0.25175264
20	0xbdfe3b92	-0.12413706
21	0x3fa23d59	1.2674972
22	0xbf4b979a	-0.795282
23	0xbc3714ea	-0.01117442
24	0x3ee73076	0.4515416
25	0x3ede954d	0.43473282
26	0xbf9c1701	-1.219452
27	0xbec6cefa	-0.38829786
28	0xbea6f5fa	-0.3260954
29	0x3e969854	0.29413092
30	0x3ef9a1f9	0.48756388
31	0x3f13ce4d	0.57736665

module.net_ts.layer2.0.bn1.running_var f4 [32]
0	0x3f1dda47	0.6166119
1	0x3f2c4592	0.67293656
2	0x3f56fb7d	0.8397749
3	0x3f4b7237	0.79471153
4	0x3f128ad3	0.5724308
5	0x3f64c614	0.89364743
6	0x3f4d188a	0.8011557
7	0x3f167771	0.58776003
8	0x3f3403f5	0.7031854
9	0x3f127a85	0.572182
10	0x3f28feb9	0.66013676
11	0x3f17ae79	0.592506
12	0x3f599192	0.8498775
13	0x3f8e36ed	1.1110512
14	0x3f2322c3	0.6372492
15	0x3f4dcdac	0.80391955
16	0x3f5bad50	0.8581133
17	0x3f7c070c	0.9844825
18	0x3f69e5e5	0.91366416
19	0x3f3c774a	0.7361952
20	0x3f477ca0	0.7792454
21	0x3f399c14	0.7250378
22	0x3f432217	0.7622389
23	0x3ecd14a3	0.40054807
24	0x3f0cbd12	0.54976
25	0x3f7391c9	0.95144325
26	0x3f3673f8	0.71270704
27	0x3f2e6439	0.6812168
28	0x3f1bdaf8	0.60880995
29	0x3f328be4	0.69744706
30	0x3f67e4a8	0.90583277
31	0x3f0428be	0.5162467

module.net_ts.layer2.0.conv2.weight f4 [32, 32, 3]
0	0x3d39c143	0.045350324
1	0x3dda8b66	0.106711194
2	0xbcc0f11c	-0.02355247
3	0x3dbfcac5	0.09364847
4	0x3da3b17e	0.07992838
5	0xbe36942b	-0.17829959
6	0x3da5dd7b	0.08098885
7	0x3e35ea10	0.17765069
8	0xbd817a6b	-0.063221775
9	0xbe1bd7b6	-0.15219006
10	0x3e07771d	0.13229032
11	0x3d278ec3	0.040907633
12	0x3e1601a1	0.14649059
13	0xbdf88cb2	-0.121362105
14	0xbd6d83e8	-0.057987124
15	0xbe19cd78	-0.15019786
16	0x3d8bde31	0.06829489
17	0xbe3cbe7e	-0.18432042
18	0x3c82d605	0.015971193
19	0x3e377130	0.17914271
20	0x3d80a036	0.06280558
21	0x3def0bf9	0.116722055
22	0x3d9726f9	0.0738048
23	0xbdabf928	-0.08397132
24	0xbd32a21c	-0.04361163
25	0xbdd9440c	-0.10608682
26	0x3ca46684	0.020068415
27	0x3eb1727d	0.3465766
28	0x3c9afd06	0.01891948
29	0x3ca51c32	0.020155046
30	0xbd9102c9	-0.07080609
31	0x3dc4f75a	0.09617491
32	0x3e11e9ff	0.14249419
33	0xbc12e328	-0.008965291
34	0xbd90fdd7	-0.07079666
35	0x3e383de9	0.17992367
36	0x3d926af5	0.07149307
37	0x3d7008f5	0.058602292
38	0xbda6745e	-0.08127664
39	0x3cb2ada3	0.021811312
40	0x3e0c0c1a	0.13676491
41	0x3def28ec	0.11677727
42	0xbe079ff2	-0.13244608
43	0xbe105936	-0.14096531
44	0x3d2aa9d5	0.04166587
45	0x3e169985	0.14707
46	0xbdc1832f	-0.094488494
47	0x3d2f37a1	0.04277766
48	0xbe895b31	-0.26827386
49	0xbe2e273c	-0.17007154
50	0x3e2a4884	0.16629225
51	0x3c9d53c5	0.019204983
52	0x3c646379	0.013939732
53	0x3ea3f0d6	0.3201968
54	0xbd599064	-0.053116217
55	0x3e22ca55	0.15897496
56	0x3e3615b7	0.17781721
57	0xbde2db60	-0.11076999
58	0x3dd79949	0.10527284
59	0xbc19965f	-0.00937423
60	0x3d80df94	0.06292644
61	0x3d38c78e	0.045112185
62	0xbd934e6e	-0.07192694
63	0xbaa70f14	-0.0012745582
64	0xbcc2340f	-0.023706464
65	0xbd886f2a	-0.06661828
66	0x3d9f883d	0.07789657
67	0x3d9f90f2	0.07791318
68	0x3cb9a4b1	0.022661539
69	0x3d56bf56	0.052428566
70	0x3d14a030	0.03628558
71	0xbd76989b	-0.06020413
72	0x3bbde4e0	0.0057951063
73	0xbd9fe5fa	-0.078075364
74	0xbe0429b4	-0.12906533
75	0xbd210944	-0.039315477
76	0xbcc9bb75	-0.02462552
77	0xbba3b54b	-0.004995977
78	0x3be40ee9	0.0069597852
79	0x3c273454	0.010205347
80	0x3d5c8e2d	0.053846527
81	0x3dfe4990	0.12416375
82	0x3d8c9294	0.06863895
83	0xbccf0898	-0.025272653
84	0x3dfed324	0.12442616
85	0x3daf4b8d	0.08559332
86	0x3e4a9b7f	0.1978588
87	0xbc813401	-0.015771868
88	0xbe4e9d46	-0.20177183
89	0x3d62609d	0.05526792
90	0xbdbf2919	-0.09334011
91	0xbe0b5801	-0.1360779
92	0xbde99b75	-0.11406604
93	0x3e0aabaa	0.13542047
94	0xbdd91777	-0.10600179
95	0x3e0057c3	0.12533478
96	0x3e0964ee	0.13417408
97	0xbd5c0ef0	-0.053725183
98	0xbe27ca7a	-0.16385832
99	0xbe9c4795	-0.30523363
100	0x3d29ae3c	0.04142593
101	0x3dbdbe95	0.09264866
102	0x3d447972	0.04796738
103	0x3cd619d0	0.026135355
104	0x3dd6a5ea	0.10480864
105	0x38f322d5	0.00011593631
106	0x3c88e590	0.016711026
107	0x3e224fde	0.1585078
108	0x3e07c713	0.13259535
109	0xbdb17e60	-0.08666682
110	0x3d615a40	0.05501771
111	0x3d4ba663	0.049719226
112	0x3db7604c	0.08953914
113	0xbea9657d	-0.33085242
114	0x3defa372	0.117010966
115	0x3e0b146b	0.13582008
116	0xbdc05107	-0.09390455
117	0x3bc92ce6	0.0061393855
118	0x3d8f6d82	0.07003309
119	0xbdb689ca	-0.08913
120	0xbd04824b	-0.03235082
121	0x3c2b10e0	0.010441035
122	0xbdbd34bb	-0.09238573
123	0xbdc1d3e8	-0.09464246
124	0xbeadcbf2	-0.3394466
125	0x3dd64bae	0.104636535
126	0x3c45938f	0.0120591065
127	0x3cf58ca5	0.029974291
128	0xbe4f15f7	-0.20223223
129	0xbd96b00a	-0.073577955
130	0xbd513804	-0.05107881
131	0x3e20fc96	0.15721354
132	0xbd53802d	-0.05163591
133	0xbd35f04d	-0.04441862
134	0xbc9ad864	-0.018902011
135	0x3d1c44f2	0.03815169
136	0x3deb96d9	0.11503381
137	0xbd403dc1	-0.046933893
138	0xbdac6793	-0.08418193
139	0xbd4915c8	-0.049093038
140	0xbb403fe0	-0.0029334947
141	0xbdbb3a3e	-0.09141968
142	0x3d41f40a	0.047351874
143	0xbdd907ef	-0.10597216
144	0x3e1c18e1	0.15243866
145	0xbd6290d3	-0.055313896
146	0x3e455264	0.19269711
147	0xbd059688	-0.03261426
148	0x3e1e58cd	0.15463562
149	0x3e8f2062	0.27954394
150	0x3e22b909	0.15890898
151	0xbdb34871	-0.087540515
152	0xbe2dde46	-0.16979322
153	0x3e698f11	0.22808482
154	0xbdab8a19	-0.083759494
155	0xbe2bc941	-0.16775991
156	0x3b68db52	0.0035531116
157	0x3d9b38c6	0.07579188
158	0xbd88b748	-0.06675583
159	0xbdf072c9	-0.117406435
160	0xbe1ebebd	-0.15502448
161	0xbdc95db8	-0.098323286
162	0x3ddaa18a	0.106753424
163	0x3e01a1fa	0.12659445
164	0xbcc188d5	-0.023624817
165	0xbe080cbd	-0.1328611
166	0xbdc702c2	-0.09717323
167	0xbbf6d41d	-0.00753261
168	0x3e487e72	0.19579485
169	0xbde576cb	-0.112042986
170	0xbde4a0b8	-0.11163467
171	0x3da9e857	0.082962684
172	0xbe5cdbaa	-0.2156817
173	0x3bb8edf1	0.005643599
174	0x3e053f5f	0.13012455
175	0xbd7a6596	-0.061132036
176	0xbc9cf50c	-0.019159816
177	0xbdd43a52	-0.10362686
178	0x3e19d2b6	0.15021786
179	0xbd5b9f9e	-0.05361902
180	0xbdc65366	-0.09683876
181	0x3d30b8a4	0.043144837
182	0x3cc6e02f	0.024276821
183	0xbe242078	-0.16028011
184	0xbde3d76b	-0.11125072
185	0x3ea9860b	0.3311008
186	0xbd8c614e	-0.06854497
187	0xbda6f3d2	-0.08151974
188	0x3e1723ac	0.14759701
189	0x3ddc7706	0.107648894
190	0x3da21b67	0.07915383
191	0xbcc725bb	-0.024309983
192	0xbd00d9c8	-0.031457692
193	0xbd4566f3	-0.048193883
194	0xbe725763	-0.23666148
195	0xbe4c1245	-0.19928844
196	0xbc0d656b	-0.008630137
197	0xbe40bcbb	-0.18821995
198	0xbe605fd1	-0.21911551
199	0xbd364b8d	-0.044505645
200	0xbe08e330	-0.13367915
201	0x3eb30bc6	0.3496992
202	0xbd95847d	-0.07300661
203	0x3cea04b3	0.028566694
204	0x3e02a6b1	0.127589
205	0x3da83b66	0.08214454
206	0x3e2b3312	0.167187
207	0x3d0fc676	0.035101376
208	0x3e07a280	0.13245583
209	0xbd04d447	-0.032429006
210	0xbd5c8ba2	-0.0538441
211	0xbda0f1d3	-0.07858624
212	0xbb2fd46f	-0.00268295
213	0xbc6573f2	-0.014004694
214	0xbe09b1c8	-0.13446724
215	0xbdbddb86	-0.092703864
216	0x3c9139f9	0.017727839
217	0xbe0494d0	-0.12947392
218	0xbb57e4c5	-0.0032942754
219	0x3d733e40	0.059385538
220	0xbe3641cb	-0.17798536
221	0xbe9b0b25	-0.3028194
222	0x3dc539f3	0.096301936
223	0xbdd73643	-0.105083965
224	0x3d300609	0.042974506
225	0xba6192ce	-0.00086049445
226	0x3d870baa	0.065940216
227	0xbe957b35	-0.29195562
228	0xbdda9e1e	-0.1067469
229	0xbde70330	-0.11279905
230	0xbdfd14dc	-0.12357494
231	0xbdc4d181	-0.09610272
232	0xbd145329	-0.03621212
233	0xbca2382a	-0.019802172
234	0xbba2220f	-0.0049479078
235	0xbd6947af	-0.05695313
236	0x3d1109f7	0.035409894
237	0x3d716e01	0.0589428
238	0x3e0e211e	0.1387982
239	0x3cc459e2	0.02396864
240	0xbd9161f7	-0.070987634
241	0x3e039236	0.12848744
242	0x3cf32531	0.02968082
243	0x3e474f59	0.19463862
244	0xbdd5e1b7	-0.10443442
245	0xbe8ae8b6	-0.2713067
246	0x3e57c583	0.21071438
247	0x3e62fbbf	0.22166346
248	0xbe107434	-0.14106828
249	0x3d9046e5	0.07044772
250	0xbe6ba85e	-0.23013446
251	0x3d7b3277	0.061327424
252	0xbc918f23	-0.017768448
253	0xbd7941e8	-0.06085387
254	0xbd1d122f	-0.03834742
255	0xbde9ed91	-0.11422265

module.net_ts.layer2.0.bn2.weight f4 [32]
0	0x3f0c48e2	0.5479871
1	0x3f0920ed	0.53565866
2	0x3f1643e6	0.58697355
3	0x3f234504	0.63777184
4	0x3f1f99da	0.62344134
5	0x3f08eaa8	0.5348306
6	0x3f18414e	0.5947465
7	0x3f3ca5dc	0.7369058
8	0x3f291c82	0.66059124
9	0x3f1b054d	0.60554963
10	0x3f132283	0.57474536
11	0x3f1b6be5	0.6071151
12	0x3ef69893	0.4816328
13	0x3f01c7fa	0.50695765
14	0x3f4eb0cd	0.80738527
15	0x3f106576	0.5640482
16	0x3f0f9fa5	0.56102973
17	0x3f16d9ab	0.58925885
18	0x3f299e52	0.662572
19	0x3f1673cd	0.5877045
20	0x3f02ee61	0.5114499
21	0x3f0583ea	0.5215441
22	0x3eff9e8c	0.4992565
23	0x3f49a413	0.7876598
24	0x3f1b67b7	0.6070513
25	0x3f153a74	0.5829232
26	0x3f374b2b	0.7159907
27	0x3f187da2	0.595667
28	0x3f1c20f7	0.609878
29	0x3f0e43f6	0.5557245
30	0x3ee6939c	0.45034492
31	0x3f2c2f31	0.6725951

module.net_ts.layer2.0.bn2.bias f4 [32]
0	0xbe044091	-0.12915255
1	0x3dd74350	0.10510886
2	0xbe0a5b19	-0.13511313
3	0xbd3b8464	-0.045780554
4	0xbdb3f7d4	-0.08787504
5	0x3d025d69	0.031827364
6	0xbcbab8c5	-0.022793183
7	0xbdfc44f2	-0.12317838
8	0xbbe942ed	-0.007118574
9	0xbdf549d1	-0.1197697
10	0xbd9c9b5e	-0.076468214
11	0xbd8e3a22	-0.06944682
12	0xbb6ba094	-0.0035953866
13	0xbd0d6af3	-0.034525823
14	0xbd20cd24	-0.039258137
15	0xbe1292ef	-0.14313863
16	0xbe17ce74	-0.1482485
17	0xbe652ab9	-0.22379579
18	0xbdd71b14	-0.105032116
19	0x3d62fc3a	0.055416323
20	0xbe006101	-0.12537004
21	0xbdc8a2dc	-0.09796688
22	0xbe34bb6e	-0.17649624
23	0xbe537d72	-0.20653322
24	0xbe629fa5	-0.22131212
25	0xbdf0c54d	-0.11756382
26	0xbcaf8eb5	-0.021430353
27	0xbdaf5205	-0.08560566
28	0x3c8034ec	0.015650235
29	0x3c7d57df	0.015462845
30	0xbd2cdb22	-0.04220117
31	0xbdde2312	-0.10846533

module.net_ts.layer2.0.bn2.running_mean f4 [32]
0	0x3e9d7bba	0.30758458
1	0xbd009376	-0.03139063
2	0xbda2f148	-0.07956177
3	0x3dfea99f	0.124346964
4	0x3db0fa9c	0.0864155
5	0xbecbaaf1	-0.39778855
6	0xbeb1c6d5	-0.3472201
7	0xbec626e8	-0.38701558
8	0x3dd9b2db	0.10629817
9	0xbe8686d7	-0.2627475
10	0xbc966c7e	-0.01836228
11	0xbd4398d3	-0.047753166
12	0xbd9bcdc6	-0.076076075
13	0xbeae690a	-0.34064513
14	0xbed0add7	-0.4075763
15	0xbe975b15	-0.29561678
16	0xbdcfb7d4	-0.10142484
17	0xbe1bc722	-0.15212682
18	0xbcf5dd38	-0.030012712
19	0xbd3c4f46	-0.04597404
20	0xbe3777de	-0.1791682
21	0xbf067e1b	-0.5253617
22	0x3daf7561	0.0856731
23	0xbf2cdc62	-0.6752378
24	0xbf3b329b	-0.7312409
25	0xbe731878	-0.23739803
26	0xbe4e2a98	-0.20133436
27	0x3eb44d53	0.35215244
28	0xbe354818	-0.17703283
29	0xbe53d864	-0.20688015
30	0xbe933529	-0.28751495
31	0xbe1285ed	-0.14308901

module.net_ts.layer2.0.bn2.running_var f4 [32]
0	0x3e1276e7	0.1430317
1	0x3e36e4d1	0.17860724
2	0x3e784466	0.24244842
3	0x3e30282e	0.17202827
4	0x3e4eb0c2	0.20184615
5	0x3e61a385	0.22035034
6	0x3e92905f	0.2862577
7	0x3e67bb9e	0.22630164
8	0x3e60db1b	0.21958582
9	0x3e3473ef	0.1762235
10	0x3e2a3163	0.16620402
11	0x3e572f44	0.21014124
12	0x3e472594	0.19447929
13	0x3e5ac98c	0.21365947
14	0x3e9241f1	0.28565934
15	0x3e1f91de	0.15582988
16	0x3e67565d	0.22591539
17	0x3e0ff4f1	0.14058281
18	0x3e2d0e63	0.1690002
19	0x3e4ef3d9	0.20210208
20	0x3e166032	0.14685133
21	0x3e608b46	0.21928129
22	0x3dfaeee5	0.12252597
23	0x3e492ca2	0.19645932
24	0x3e78a6c9	0.24282373
25	0x3e31b9fb	0.17356102
26	0x3e12400d	0.14282246
27	0x3e5a72e1	0.21332885
28	0x3e70b7ef	0.23507665
29	0x3e2b61f0	0.16736579
30	0x3e030570	0.12795043
31	0x3e6f3980	0.23361778
