model/model_20200907110543/model_final_hcp_5_0300_ts.pth (torch_old, 131256 bytes, 59 tensors)

module.net_ts.conv1.weight f4 [32, 1, 7]
00000000: b7ac 0dbe fc97 1fbf ed25 ae3d bcc7 4b3f
00000010: 4303 0ebe 5990 11be 7c54 88bd 33f6 273e
00000020: 40a0 a83d 91e2 9c3e 0ff7 f23e 79d3 223e
00000030: 9fe5 0e3e 937a e7be 7ea0 443d 8b4b 84be
00000040: 83ea 313f 7744 8e3d aff0 523e 592f 093d
00000050: 6f1a a6bc e0be 073f 0762 cd3d aff4 36be
00000060: bdbe f1be d506 92be 8d77 9f3e a98e 9cbe
00000070: f8f9 b6be a6c3 65be 307d 843e 3712 103f
00000080: f39c f53d 0308 4fbf a0af 073e 8ca5 1ebf
00000090: be63 6bbd 695d 243f 806f cd3e d687 febe
000000a0: c490 74be cb6e f3bc e2b6 7fbe 2a09 70be
000000b0: 8e00 403d e471 aabe 8fe6 cf3d 269e ffbe
000000c0: 7e01 723d 074f 313d 8432 afbe 022f 13be
000000d0: 2623 32bd e2d9 c83d 0e35 d6be 7184 46bd
000000e0: f3a4 b13e 9ddf 66bc 303c e73d c918 033f
000000f0: e679 543e fea2 76bc 2fb9 e7bc 4fa2 85be
00000100: 60ff 2b3e 8ea1 e8be d4ad ec3c 3d64 65be
00000110: 18fa f5be e877 ee3d c419 813e 4a38 77be
00000120: 7ff8 ad3d 0522 433e 315c 70be 5c77 67be
00000130: f983 06bf fbc4 d83e ca7b f2bc be8e b03e
00000140: 7ffe 99bd a797 c5be 0209 80be b40e 92be
00000150: 2f21 9d3d bb97 683e 2e19 99be b980 6a3f
00000160: 006e 44be d6e7 1b3d 2e63 6c3d b9ea 193f
00000170: 1da3 b5be 6f7d 09bf 78fe eb3e 2f67 ae3d
00000180: 11bf d2be 410d b13e 43a2 d3bd 28cb 8c3d
00000190: ed07 913e f63b 153f cf9f babd 336b 603e
000001a0: e37e 8cbe 69d9 003f ece9 c0be d5d0 61be
000001b0: eac1 23bc 8bd7 5e3d 51f6 7bbd 77a0 96be
000001c0: d74d 70be 47aa 823e 7664 d73e d88c 3cbf
000001d0: eff3 23be d45c 663f a108 67be 6405 1d3e
000001e0: 01c4 813e 8b11 c63e 3c0c a2be 4497 efbe
000001f0: f9bb 833c ac8d b5be c3c1 ec3e 2a24 383e
00000200: f788 87bd 7a8b 55bf 7aa5 5e3e b9fe f23e
00000210: cdbe a83d 21e9 713e 3bb7 4a3d 990d 3d3e
00000220: 5930 acbe fdd9 8a3e d238 01be c36a bf3e
00000230: 276d 203c e175 90bd eacf a33e 3b98 da3e
00000240: ce6c b5bd f366 45bf 257a 303d 4360 ed3e
00000250: d1d1 ea3e 62ff ebbd ee47 563e a2b4 1d3e
00000260: 1dfd 93be 52bd 3ebf eb9d 413c 72e8 083f
00000270: 9630 ae3e 4c20 a5be 38c1 d7be bf67 bebd
00000280: ea06 213f 3e69 c5be f678 fe3d 59fe e73e
00000290: 0002 fbbd bfe9 c9bc 7aa5 a13e 2f6c eb3e
000002a0: dac7 873e ad8a b33d 1aa0 1b3d a0ba 7bbe
000002b0: 2de5 b2be f029 1dbf 4e45 323f 601b a2be
000002c0: 5c13 d23e 15f3 a23d 4f44 f0be 6ca8 8a3e
000002d0: fb2b 1d3e 4304 5abf 10c3 ab3c 886d 04bf
000002e0: a8fb f3bd 7f2d b2be f2d1 f6bc 5590 89bd
000002f0: 6c44 a63d af58 bf3e 31e5 14bf 2003 f8be
00000300: e540 5f3d c126 343f cb7c f53d bf1c 1e3e
00000310: 2a2a 233e 548c a3be 3bdf 2e3f 437b 5a3d
00000320: ae7f 5e3e 0e2a dcbd 63bf 4dbc 1481 72bf
00000330: 5881 8d3d 2a09 e7bc 9adc 8c3e 3551 9e3e
00000340: 44a3 c33e a200 463e 5315 243d 3b05 a63e
00000350: 660d 103f 80a5 cdbd 1ae0 02be 1b60 3c3c
00000360: 0747 9ebe 34ea 3abf 50c8 a9bc d510 6b3e
00000370: 1090 d33e 69c1 243e c527 2abe df8d b9be
-0.13835417 -0.62341285 0.085033275 0.79601645 -0.13868432 -0.1421522 -0.06656739 0.16402511
0.0823369 0.30641606 0.47454116 0.15900983 0.13954781 -0.45210704 0.04800462 -0.25838885
0.6949846 0.069466524 0.20599626 0.03349242 -0.020276276 0.5302563 0.10028463 -0.17866777
-0.47215834 -0.28520837 0.31145898 -0.3057759 -0.35737586 -0.22437915 0.2587676 0.56277794
0.11992826 -0.808716 0.1325059 -0.61971354 -0.05746817 0.6420503 0.4012413 -0.4971301
-0.23883349 -0.029715916 -0.24972108 -0.23440996 0.04687553 -0.33290017 0.101513974 -0.49925345
0.059083454 0.043288257 -0.34218228 -0.14373401 -0.04349055 0.09807183 -0.41837353 -0.04846615
0.3469616 -0.0140913995 0.11290777 0.51209694 0.20749626 -0.015053509 -0.028286545 -0.26100394
0.16796637 -0.45435756 0.028891481 -0.22401519 -0.4804237 0.11643964 0.2521497 -0.24142566
0.084946625 0.19055946 -0.23472668 -0.22604126 -0.52545124 0.42337784 -0.029600043 0.34483904
-0.075192444 -0.38592264 -0.25006872 -0.28526843 0.07672345 0.2271413 -0.29902023 0.91602665
-0.19182587 0.038062893 0.057711773 0.60123783 -0.35476008 -0.5370702 0.46092582 0.085157745
-0.41161397 0.34580424 -0.10333683 0.068746865 0.2832636 0.5829462 -0.09112512 0.21915893
-0.27440557 0.5033174 -0.37678468 -0.2205232 -0.009994963 0.054404777 -0.061514203 -0.294193
-0.23467194 0.25520536 0.42068833 -0.7365241 -0.16011022 0.89985394 -0.22561885 0.15334088
0.25344852 0.3868526 -0.3164996 -0.46795094 0.016080843 -0.3545965 0.46241578 0.17982545
-0.06617921 -0.8341595 0.21742812 0.47459963 0.08239517 0.23624088 0.04949115 0.18462218
-0.33630636 0.27119437 -0.12619331 0.3738614 0.009791649 -0.070537336 0.31994563 0.42694268
-0.088586435 -0.77110213 0.043085236 0.46362504 0.45863202 -0.1152332 0.20925876 0.15400937
-0.28904048 -0.7450763 0.011817436 0.53479683 0.34021443 -0.32251203 -0.42139602 -0.09297132
0.62901175 -0.38556856 0.12425415 0.4531124 -0.12256241 -0.024647592 0.3157156 0.45980975
0.26519662 0.08766685 0.03799448 -0.2458291 -0.34940472 -0.61392117 0.69637 -0.3166151
0.41030395 0.079565205 -0.46927115 0.2708162 0.15348808 -0.8516275 0.020967036 -0.5172963
-0.11913234 -0.34800336 -0.030129407 -0.06716982 0.08118519 0.37372348 -0.5816222 -0.48439884
0.054505248 0.70371634 0.11986693 0.15440653 0.15934053 -0.31943 0.6830937 0.053340208
0.21728393 -0.10750209 -0.012557837 -0.9472821 0.06909436 -0.028202612 0.27512056 0.3092133
0.382105 0.19336179 0.0400594 0.32425866 0.56270444 -0.10041332 -0.127808 0.011497523
-0.30913565 -0.73013616 -0.0207254 0.2295564 0.41320848 0.16089405 -0.16616733 -0.36241052

module.net_ts.bn1.weight f4 [32]
00000000: 212d 163f 5494 0e3f fd86 173f 233d 123f
00000010: 1483 1d3f aef1 323f dba7 363f b078 ca3e
00000020: 4478 0b3f 69e1 1d3f 195d 1b3f be95 063f
00000030: 4d83 373f 79f8 433f 3f68 f53e 27d2 073f
00000040: f69c 473f e10e 1e3f d838 223f 9d83 ec3e
00000050: 87d7 203f 6919 2a3f ac53 223f 3610 fd3e
00000060: 53b6 353f 2056 423f 7fde 2b3f a7ee 333f
00000070: b35d fd3e ceec 393f edf1 003f 4ada 283f
0.5866261 0.5569508 0.5919035 0.5712454 0.61528134 0.69900024 0.7134988 0.39545202
0.54480386 0.61672074 0.6068893 0.5257224 0.71684724 0.76551014 0.47931096 0.5305504
0.7797388 0.61741453 0.63367987 0.46194163 0.6282887 0.6644502 0.63408923 0.4942643
0.7098133 0.75912666 0.6713638 0.7028603 0.4948555 0.7262696 0.5036915 0.6595808

module.net_ts.bn1.bias f4 [32]
00000000: c6b4 8d3c 9127 e23d e21b a13d eb2a 9c3d
00000010: b94b 0d3e adf3 513d 5021 4c3c 3014 9e3d
00000020: 5723 1d3e 0e4e f33c 4c77 343e c7fc 9b3c
00000030: 5e99 533e a615 363d 5619 113e 3e29 093e
00000040: 5d92 59bb 392d 22be eb2c 9a3b ee69 bf3c
00000050: b07c 24bc 6127 3f3e 3300 d23d cf0c 733d
00000060: cad4 ffbc c15a 833c 3399 2dbe 5dd1 ca3c
00000070: 9402 573d 35c5 683e 901e 873e 7dc0 aa3d
0.017298114 0.11042703 0.07866646 0.076253735 0.13798417 0.051257778 0.012459114 0.07718694
0.15345512 0.029700305 0.17623633 0.019041432 0.20663974 0.04445424 0.14169821 0.13394639
-0.0033198812 -0.15837564 0.0047050617 0.02336594 -0.010039493 0.18667366 0.10253944 0.059338387
-0.031229395 0.016034486 -0.16952972 0.024758035 0.052492693 0.22731479 0.26390505 0.083374955

module.net_ts.bn1.running_mean f4 [32]
00000000: 9f72 6ab7 4f75 8138 6cfe 9cb8 0b94 2238
00000010: 5296 dcb7 03e0 d237 f4ff 8ab8 6078 2db8
00000020: 61c8 5b37 49f7 4c38 61e5 3e38 e833 d337
00000030: 8362 e638 18b8 0cb8 58e7 8e38 eef5 5ab7
00000040: ab61 0a35 cca1 7238 a121 5eb8 648b afb8
00000050: 755c e035 416e 1339 abd9 20b7 1d7b 74b8
00000060: 024b 7cb8 3ab8 bc38 ac58 b9b8 370c e4b8
00000070: a69e b3b8 2359 a6b6 717e 3f38 1fcd 3838
-1.3974174e-05 6.17305e-05 -7.4860494e-05 3.8761686e-05 -2.6296042e-05 2.5138264e-05 -6.628028e-05 -4.1358522e-05
1.3100072e-05 4.8867692e-05 4.5513156e-05 2.517733e-05 0.00010985604 -3.355005e-05 6.814179e-05 -1.30510725e-05
5.155113e-07 5.784798e-05 -5.2960244e-05 -8.370614e-05 1.6716209e-06 0.00014060085 -9.587423e-06 -5.828879e-05
-6.015134e-05 8.9988534e-05 -8.838004e-05 -0.000108741624 -8.564936e-05 -4.9575624e-06 4.5655706e-05 4.4060052e-05

module.net_ts.bn1.running_var f4 [32]
00000000: 4ade 6e3d 5c2d 623d 2272 2c3d ac2b 4b3d
00000010: 2821 8d3d 326e 953d c9de 4d3d 1e25 053d
00000020: fffb 583d 4948 643d 10af 2e3d 95cc 233d
00000030: bf41 6b3d ef00 5c3d 53f6 2b3d 3002 fb3c
00000040: 326a 9b3d 420c 343d c453 933d 88cc d93c
00000050: 0777 4e3d 76ae 963d 7c86 913d 8173 5a3d
00000060: b423 683d 7919 8a3d fdde 383d e977 943d
00000070: 7453 213d 319b 9f3d df29 173d d20a 6f3d
0.05831746 0.05521904 0.042101033 0.049602196 0.0689109 0.07296409 0.050261293 0.0325061
0.052974697 0.055733 0.04264742 0.039990027 0.057435747 0.053711828 0.04198296 0.030640692
0.075886145 0.043957002 0.071937114 0.026586786 0.050406482 0.073574945 0.07105729 0.05333281
0.056674674 0.0674314 0.045134533 0.072494335 0.039386228 0.07793272 0.036905166 0.05835993

module.net_ts.layer1.0.conv1.weight f4 [32, 32, 3]
00000000: 6f81 aa3d 3721 cdbc c11e a6be facf 65be
00000010: 02b8 843e 3ba4 b2bc 6fc5 92bd b9b9 f5bc
00000020: 7a2a 33bd 95fa df3d ece9 e5bd fb9a 95be
00000030: 72ef 903c 1050 04be 5d68 75bb 6b9e 053e
00000040: 9256 6fbe d983 97bd c377 973d c77c 623d
00000050: 71d9 34bb c869 093e 7180 a0bb aa83 0b3c
00000060: 6f57 c8bb 295b 2b3d de56 1d3e 4f71 7ebd
00000070: 723e 1fbd b6ef 963d a56d 193d 52b8 e6bd
00000080: a3ca cdbc d4a2 0f3e e2ef e7bd b871 05be
00000090: e02e 40be ffa7 073e 81e4 233e 71db 10be
000000a0: 5f64 7bbd af4b 27be b5c8 04be d0ec 3b3e
000000b0: 29ea bbbd 0d56 863e 8108 03be 91ac babd
000000c0: 1082 39bb 1764 b5bd 1757 ec3d ca66 173e
000000d0: b3d3 fa3b dab0 2cbe 826f 183e 3186 ba3c
000000e0: 2da5 eabd e254 893d bcea 12be 7060 a13d
000000f0: 322c c6bd 0786 cdbd 3d56 efbb f411 bbbd
00000100: 4eca d8bd bae3 11bd 8133 d8bc 79e8 f5bd
00000110: 48e4 06be 9175 f83d e18a fc3d 7ec1 173e
00000120: 4c2f 3fbd 75e0 dd3b 9f1b b3bc 6535 3d3e
00000130: b782 09be 8054 69bc 6b47 113e 2a21 48bc
00000140: fb17 723d 7431 583e d7b2 e9b9 f2b2 a8be
00000150: bdc1 823c 3954 1d3c f406 8abc 754a d93d
00000160: a21f b5bc e03f 103e 03d6 cbbc df92 5abc
00000170: 83a4 3d3e a9b2 0f3e ce00 ebbd afef 2abe
00000180: c567 5abe 6a13 a4be 14f0 683d 423b 283c
00000190: 2663 02be d65f b93e 0120 e9bd 5da0 50be
000001a0: a701 6b3e 3df3 94bd 9da1 353d 9561 033c
000001b0: f363 0cbe 877f edbd c5cc 923e 27f9 17be
000001c0: ff54 cfbd eda7 a23e ed23 19be 940e abbd
000001d0: 6435 39bd f09c 15be 53c2 003d 6f7e 9ebd
000001e0: fd8d adbd 4561 87be 6cae 5a3e 8295 8cbe
000001f0: 3210 d5bd 683b 91bd 9b27 403e 495a eb3a
00000200: c967 4bbe 6db0 4bbd 8543 243d edd5 a43d
00000210: 71d7 c2bd dc66 c23c 07a2 673e 1fd5 40be
00000220: d479 40bc b13e 353e 4d6e 41bd 618b b6bd
00000230: dd20 b33e b317 5dbc 7dfc 60bc a4df a53d
00000240: 00de 53bd b629 983d 90d9 103e de2c 6bbe
00000250: 8b6c 48bc 78b9 ca3d 7044 32bd 1a37 23bc
00000260: 3e96 0b3e fa89 85bd bc62 723c 6c0d 883c
00000270: 2793 f8bd a661 bebe cd62 463e 00d8 283e
00000280: b443 bebd 6f07 58bd 8c4b b1be 9864 d53d
00000290: 8b78 573e 37eb b13d 0318 febd 247f 6e3e
000002a0: 411e 91be 6969 ff3d a3b7 0c3e b885 25be
000002b0: 41ca 803d 7ba5 a1bc b15c 4b3d 25da 2c3e
000002c0: 69d3 973d 4c85 c4be 5f2d e4bd 2ee9 903e
000002d0: d201 c2bc 0972 38be 340f 3b3e 3ec3 36be
000002e0: 9ef9 55bd 9123 9d3e 56f7 2c3b 2246 453d
000002f0: 56a5 cdbc c576 c6bd ea75 c3bc 7a01 133e
00000300: 4689 1d3e 9a1b f0bd 4721 4abd 9427 093d
00000310: d9f4 9fbe dff9 1dba 6d83 adbd bae3 66bd
00000320: f376 213e 25bb a33e 9f84 b53b 47c2 0cbe
00000330: 3bc2 bf3e f3be 0e3e 5dc5 c9bd 18a0 203d
00000340: 0082 2fbe f830 10bd 7017 143e 9e28 cc3d
00000350: 9856 d33d 5016 043d 4103 cf3c 0681 e63d
00000360: 92b1 4d3d b097 c6bd 37e0 4d3d f080 ab3b
00000370: 4ac1 013e e0ab a33d edab f8bd c6a6 65bc
00000380: caed 1dbe 3c43 8abd a618 c3bd fb2e e7bc
00000390: f8f2 063e fd4d 71bc 5ca6 1bbd 1915 18bd
000003a0: b2ef 42bb f90d 8fbd e4ea 423d dfee 33be
000003b0: 90b7 2d3e 5ff5 8ebd 18eb c43d 1933 24bd
000003c0: e43b 313e 1d36 033e 51fa 50be 2edf 253d
000003d0: 59ae 17bc ca25 243b d1a1 613e 4241 1a3e
000003e0: 0392 5bbb 34ce aabd eeb7 153e 60e7 9f3d
000003f0: 8390 2d3e b135 8cbd 17cb 0abd e877 8b3d
0.08325469 -0.025040252 -0.32445338 -0.22442618 0.25921637 -0.021806827 -0.07166564 -0.029995786
-0.04374168 0.109364666 -0.11226258 -0.29219803 0.017692301 -0.12921166 -0.0037446239 0.13048713
-0.23372868 -0.07398195 0.073958896 0.05529478 -0.0027595425 0.13419259 -0.004898124 0.008515278
-0.0061139385 0.041834984 0.15365168 -0.06211978 -0.038877912 0.0736994 0.03745808 -0.11265625
-0.025121039 0.14026958 -0.11325051 -0.13031662 -0.18767881 0.13247679 0.16005136 -0.1414621
-0.06137502 -0.16337465 -0.12967189 0.18352056 -0.09175522 0.26237527 -0.12796213 -0.09114946
-0.0028306283 -0.08856981 0.115400486 0.14785305 0.007654631 -0.16864339 0.14886287 0.022769066
-0.11457286 0.06705643 -0.14347357 0.07879722 -0.09676398 -0.10035329 -0.0073039816 -0.09134284
-0.105854616 -0.035617568 -0.026391746 -0.12007231 -0.1317302 0.12131799 0.123311765 0.14819905
-0.046675965 0.006771142 -0.021863757 0.184774 -0.1342877 -0.014241338 0.141874 -0.012214938
0.0591049 0.21112615 -0.0004457447 -0.32949024 0.015961522 0.0096026 -0.016849019 0.10609905
-0.02210981 0.14086866 -0.024882322 -0.013340681 0.18519787 0.14032997 -0.11474763 -0.16692995
-0.21328647 -0.32046062 0.05686958 0.010268034 -0.12733135 0.3620593 -0.113830574 -0.20373674
0.22949849 -0.072729565 0.04434358 0.008018871 -0.13710003 -0.115965895 0.28671852 -0.14841138
-0.101236336 0.31768742 -0.14955111 -0.0835239 -0.045216933 -0.14610648 0.031435322 -0.07738959
-0.08474348 -0.26441398 0.21355599 -0.27457815 -0.1040348 -0.07091409 0.18765108 0.0017955984
-0.1986381 -0.0497288 0.040103454 0.080486156 -0.095137484 0.023730688 0.22620402 -0.18831299
-0.011747796 0.17699696 -0.04722433 -0.08913303 0.3498601 -0.01349442 -0.013732073 0.08099297
-0.051725388 0.07429831 0.14145494 -0.22966334 -0.01223291 0.098986566 -0.0435223 -0.009961868
0.13631532 -0.065204576 0.014794048 0.016607963 -0.12137442 -0.37183875 0.19373627 0.16488647
-0.09290257 -0.052741464 -0.3462795 0.10419577 0.21042077 0.08687442 -0.124069236 0.23290688
-0.28343394 0.12471277 0.13741927 -0.16164291 0.06288577 -0.019732228 0.049648944 0.1688009
0.0741337 -0.38382947 -0.11141466 0.28302902 -0.023682509 -0.18012251 0.18267518 -0.17847916
-0.052240007 0.30691198 0.002639254 0.048162587 -0.025103252 -0.09690622 -0.023859937 0.14356032
0.15384397 -0.117240146 -0.049348142 0.03348501 -0.3124149 -0.00060263084 -0.08472333 -0.05636952
0.15768032 0.31978717 0.0055394913 -0.13745986 0.37452874 0.13940029 -0.09852097 0.039215177
-0.17139435 -0.03520295 0.14462066 0.099686846 0.10319251 0.03224784 0.025270106 0.11255078
0.050218172 -0.09696901 0.050262656 0.0052338764 0.1267139 0.07991767 -0.12142167 -0.014016813
-0.1542274 -0.06751105 -0.09526186 -0.028220644 0.13178623 -0.0147280665 -0.03800045 -0.037129495
-0.002974492 -0.06985087 0.04758729 -0.17571591 0.16964555 -0.069803946 0.09615153 -0.040087793
0.17308003 0.12813611 -0.20407988 0.040496044 -0.009257876 0.0025046938 0.22034384 0.15063956
-0.0033503778 -0.083401114 0.14620945 0.07807803 0.16949658 -0.06846178 -0.033885088 0.0680998

module.net_ts.layer1.0.bn1.weight f4 [32]
00000000: 880c 0a3f 7535 253f 88c2 093f b299 cc3e
00000010: 9f2c 133f 3ea3 073f 7bc1 063f 9f59 fd3e
00000020: 6f52 423f c94f 333f 8a1d 223f 4b30 283f
00000030: c789 0f3f 8b7d 0f3f e099 1c3f 8725 073f
00000040: 8047 0e3f 55c3 063f ddcb 583f 8011 163f
00000050: 8f98 073f 2481 1f3f 69fe e53e 2c12 1f3f
00000060: 9dd6 3d3f c027 313f 7da0 243f 2b3d 3c3f
00000070: 8684 173f 95a4 233f 4d24 1a3f 9e7b eb3e
0.5392537 0.64534694 0.53812456 0.3996101 0.5748996 0.5298346 0.5263898 0.49482438
0.75907034 0.7004362 0.63326323 0.6569869 0.56069607 0.5605094 0.61172295 0.5279164
0.5557785 0.52641803 0.8468607 0.5862045 0.5296716 0.6230643 0.44920662 0.62137103
0.741556 0.6920128 0.64307386 0.73530835 0.5918659 0.6392301 0.6021164 0.4599275

module.net_ts.layer1.0.bn1.bias f4 [32]
00000000: f6a6 23be 0a0c a0bc 9d21 e3bd 16e9 6ebe
00000010: dfe2 20bd 0137 07be 1a12 efbd 186e 0ebe
00000020: 5ed8 68be 6c53 8d3d 326e cfbd 892b 35be
00000030: 98d5 26be e31c 94be a9f8 5ebe e77a 90be
00000040: ee73 e7bc c52c 9f3a 6761 6cbe 2ce2 c8bd
00000050: 6b90 ccbd 44e4 e9bd 7d61 b8bd 1eae 9fbd
00000060: e04d 1fbe 3262 30be 654f 2bbe 51a5 57be
00000070: 8ac2 c6bd 4e02 81be 2a8f 94be dcc6 27be
-0.1598166 -0.01953699 -0.110903956 -0.23331103 -0.03927886 -0.13204576 -0.116733745 -0.13909185
-0.22738788 0.06900677 -0.1012844 -0.17692389 -0.16292417 -0.2892829 -0.21774544 -0.28218767
-0.028253522 0.001214408 -0.23084031 -0.09808764 -0.09988483 -0.11420491 -0.090029694 -0.07796882
-0.1555705 -0.17224959 -0.16729505 -0.21059157 -0.09705074 -0.2519707 -0.29015476 -0.16384453

module.net_ts.layer1.0.bn1.running_mean f4 [32]
00000000: ed20 40bf 9ec1 b6be 8589 5e3e 06ef 083f
00000010: 2226 f1be 2913 023e 06ea 17bf d71a 0ebf
00000020: 2d8d 1e40 664c f4bf 579f 95bf 8627 23bf
00000030: 7564 39bf 0da7 443d 90f0 b1bf 5198 c83f
00000040: ca49 4f3f 8f64 7cbf b0a3 91bf efe2 a1bf
00000050: f7ea d1bd faca 8ebf affa 0f3f af9c 95bf
00000060: b870 a0be cf04 bb3f ca65 8ebf f2af 3fbf
00000070: 91dd ec3e d424 903f 1a68 59bf 06da 9bbf
-0.7505024 -0.35694593 0.21732147 0.5348972 -0.47099406 0.12702622 -0.59341466 -0.55509704
2.4773667 -1.9085815 -1.1689252 -0.6373218 -0.7241891 0.048010875 -1.3901539 1.5671483
0.8097197 -0.9859094 -1.1378078 -1.264738 -0.10249894 -1.1155694 0.5624189 -1.1688441
-0.31335998 1.4610842 -1.1124814 -0.74877846 0.46262792 1.1261239 -0.8492447 -1.217591

module.net_ts.layer1.0.bn1.running_var f4 [32]
00000000: 4467 333f cc02 b23f a341 df3e 0188 833e
00000010: 361f 2e3f b0f5 0b3f 3b75 063f 892c 2c3f
00000020: d7e1 0340 c2dd ad3f 3ba7 293f f0b3 923f
00000030: b45a 423f 8764 7f3f 0f8a 873f 6723 3f3f
00000040: 84b5 e03e 185d 6a3f 5ddd 913f 874d 623f
00000050: 2504 313f 8bf7 3f3f 80a7 eb3e 9d89 903f
00000060: ba24 823f 4b63 383f 7bd7 933f 1caa 9f3f
00000070: a18a 5a3f e190 253f b0f9 513f c420 103f
0.70079446 1.3907104 0.43604764 0.256897 0.68016374 0.54671764 0.5252263 0.67255455
2.0606592 1.35833 0.662708 1.1461163 0.7591965 0.9976277 1.0589007 0.74663395
0.43888485 0.915483 1.139568 0.8839955 0.6914695 0.74987096 0.4602623 1.1291996
1.0167458 0.7202651 1.1550134 1.2473788 0.8536778 0.6467419 0.8202162 0.56299996

module.net_ts.layer1.0.conv2.weight f4 [32, 32, 3]
00000000: db3a 4bbd 4342 a3bd 8913 2b3d f58e edbd
00000010: 4b87 1f3e 635f b8ba cb09 03bd 0e07 353e
00000020: 2ef4 a2bc d093 87bd e933 01bc c02b 81bd
00000030: 2f3f 1e3e 131f 13be b17f 3cbc f510 403e
00000040: 8e8e 37be 2eab 65be 68ba 37be 8c96 e4bd
00000050: 44e6 963e 5952 bb3d 5910 3c3d cc83 10be
00000060: c66a a7be e44c 5a3d e32b 6bbd 7021 9d3e
00000070: f385 e0bd 2a4f 94be 0146 ba3e 3db6 a83b
00000080: da7d 83be cb08 3dbe 2767 a23d 99b6 30bc
00000090: e1ac 8fbe c8a7 273e 025c 113d a229 8cbd
000000a0: f617 033e 7c15 833d 380c 88be bca4 16be
000000b0: cb15 8d3e 12ff 90bc 453c 143c 19cf 30be
000000c0: a0de 2abd ad07 973d d777 85be 6e5c 01bd
000000d0: a7cc 1c3c 8017 4c3e 6f12 00be 4cab 9c3e
000000e0: 6e0c 98bd 59ce 663e 74e5 56bd bdab 723d
000000f0: 9753 0c3e eb3c 16be 36e6 633d a748 c13d
00000100: 0222 89be 2577 003e 16e0 583d f16c 18be
00000110: cf59 6f3d b999 91bb de75 9b3d beec 013e
00000120: 82b7 803c b982 f9bc e4e0 e03d 0cfd de3d
00000130: e063 93bd e4af 923d 407b 5ebe 44bb b0bc
00000140: 7b7b 383e 47ff 9ebb f4a9 0d3e bd80 813d
00000150: f842 5abe 4f82 9bbd 53ab ce3d 45a2 3e3e
00000160: 03ca 4abd 9c13 2cbe 25f3 193e 5925 e1bd
00000170: e989 fdbd 2e67 a53d 1f7d 5d3e 789f 2d3e
00000180: 0f56 9abe dfb1 123e d9c6 91bd ff82 f23d
00000190: 676d 09be fd2c f83d 4519 083e 7796 0fbe
000001a0: 964d adbd 68fe e3bd 0d49 613d 3e90 20be
000001b0: 5197 bc3d 2784 f53d d941 c8bc 6355 2ebd
000001c0: a50e 28bd cefd 933d 4402 c93d ae1e cfbb
000001d0: ebba 35be 903b d9bd 1c93 ad3d 0a5f 03bb
000001e0: af9b b03c eb52 2e3d f2ac 20be 6c5d 8ebd
000001f0: 2bfd 30be 4329 723e f71d 5a3e 851c 7cbd
00000200: 92dd af3d d622 83be aa7b e33b fabf 67be
00000210: a4ea a53b 0071 e53d dc60 7e3d f5d7 32be
00000220: 1244 7d3d af3f 65be dc56 9cbc dc8c 443d
00000230: 5c90 4fbd 4a21 84bd 61b7 f4bd 160e 08be
00000240: 6804 ca3c 3958 13be 56bd 783d db6f 583d
00000250: 947c 7aba 460b c9bd 1a40 e63d 0f59 003c
00000260: 43d0 babd f14f 4dbe 6c89 45be 0ffd 9f3d
00000270: 985e 1c3e 318c 90bd be16 8f3d d1b9 533e
00000280: 5324 03bd c54b 3d3e e4d3 b63d fbd5 833a
00000290: 4d84 c43d 1c8b 363e 46e1 073d b5ed cd3d
000002a0: c29b 3d3e b2e4 e43d f1b6 0b3e ff9a 36bd
000002b0: 5d11 f0bb c8e6 be3d 2783 633d e9fc 4d3e
000002c0: 24a2 513d 7900 83bd eaef 8f3e bd7e 94bd
000002d0: 7b9c 79be d556 0cbd 3200 5dbe 4d82 73bd
000002e0: 8a60 b7bc 2c7c 143e 36fa 143e aa83 c5bd
000002f0: b993 2b3d 85f6 333d 7f91 a53d 1cd3 043e
00000300: 6bc5 b1bd d61a d53d 2569 10bd 4394 073d
00000310: 624d 6bbd f109 253e 97e1 963d a4a1 b4bd
00000320: f923 db3d 9465 dabc 3e64 dc3d a79b 16be
00000330: 0cf3 20bd 5df7 7cbc ce07 cebd 3cb3 46bd
00000340: a738 f83a 74b8 0fbe 25d7 3cbd 3542 b9bc
00000350: 4816 c5bc fc8b 93bd cad4 3d3e 27db 17be
00000360: 81a4 c8bd 52b0 95be 22c1 fdbd e98a 5a3d
00000370: 80c7 fb3d d05a b93d 1aab 743c 8c28 1fbe
00000380: 909d 4f3e 16d1 bcbc dd1a 003e cffd 623c
00000390: 100e 86bd 98a2 0f3e 3d62 bdbd 8ee3 933c
000003a0: 41be 58bc cd83 92be 4151 cd3d fadf 193d
000003b0: df8d c03d b738 943c 37ec f5bc dc41 a9bd
000003c0: 4cad 58be 3e51 c43d 0e4e 8abe 5046 2b3e
000003d0: 8f28 cb3b 9e8d b83c 4565 ccbd 8319 a7bd
000003e0: 3220 1fbd d1ba a03d 8304 c7bc 8219 c9bb
000003f0: cfe9 8fbc b9e3 3cbe 7b76 42bd aee5 943c
-0.049616676 -0.07971623 0.041766677 -0.115995325 0.15578954 -0.0014066513 -0.03199176 0.17678472
-0.019891825 -0.0661999 -0.0078859115 -0.06307173 0.1545379 -0.14367323 -0.011505053 0.18756469
-0.17925474 -0.22428581 -0.17942202 -0.11161527 0.29472554 0.09146566 0.045914028 -0.14112777
-0.3269865 0.053295985 -0.0574149 0.30689573 -0.10963049 -0.28966647 0.36381534 0.0051486776
-0.25681955 -0.18460386 0.07929831 -0.010785722 -0.28061584 0.16372597 0.035488136 -0.06843878
0.12802109 0.06400582 -0.26571822 -0.14711279 0.2755569 -0.017699752 0.0090475725 -0.17266501
-0.041716218 0.07374511 -0.26067993 -0.03158229 0.009570277 0.1993084 -0.12507032 0.3059944
-0.07424246 0.22539653 -0.052464917 0.059245814 0.13703762 -0.14671676 0.055639468 0.094376855
-0.26783758 0.1254545 0.05294808 -0.14885308 0.058435258 -0.004443374 0.07590841 0.12687966
0.015712503 -0.030457841 0.109803945 0.108881086 -0.07196784 0.07162455 -0.21726704 -0.02157367
0.18015854 -0.004852209 0.13834363 0.06323383 -0.21314609 -0.07593214 0.10091271 0.18616588
-0.04950906 -0.16804355 0.15034159 -0.109934516 -0.1237982 0.080763206 0.21629761 0.16955364
-0.30143782 0.14325665 -0.07118005 0.11841392 -0.1342064 0.12117956 0.1329089 -0.14022242
-0.08462064 -0.111325085 0.055001307 -0.15680024 0.09208549 0.11988097 -0.024445461 -0.0425619
-0.04102959 0.07226144 0.09814885 -0.006320796 -0.17747085 -0.10607064 0.084753245 -0.0020045661
0.02155861 0.042559545 -0.15690973 -0.069514126 -0.17284076 0.23648553 0.21300493 -0.061550636
0.08587183 -0.25612515 0.006942232 -0.22631827 0.0050633717 0.11203194 0.06210409 -0.17465194
0.061832495 -0.22387575 -0.019084387 0.047985896 -0.05067478 -0.06451662 -0.11949039 -0.13286623
0.024660304 -0.14389123 0.06072744 0.05284105 -0.0009555307 -0.09816603 0.11242695 0.007833733
-0.09121754 -0.20050026 -0.19290704 0.07811939 0.1527046 -0.070579894 0.069867596 0.20676352
-0.032017063 0.18485935 0.08927134 0.0010058278 0.09595547 0.17826504 0.033173822 0.10055105
0.18516448 0.11176433 0.13644005 -0.04458141 -0.0073262886 0.09321362 0.055545 0.20116009
0.05118002 -0.063965745 0.28112727 -0.07250736 -0.24376099 -0.034262497 -0.21582106 -0.059450436
-0.0223849 0.14500493 0.14548573 -0.096442536 0.041888926 0.04393627 0.08084392 0.12971157
-0.086802326 0.10405509 -0.035256524 0.033100378 -0.057446845 0.16117074 0.073672466 -0.08819893
0.107002206 -0.026659764 0.10761307 -0.14707814 -0.039294288 -0.015439835 -0.100600824 -0.048510775
0.0018937782 -0.14035207 -0.046103615 -0.022614578 -0.024058476 -0.07204434 0.18538204 -0.14829694
-0.09797002 -0.29236084 -0.12390353 0.05335513 0.12293911 0.09050524 0.014933372 -0.15542811
0.20274949 -0.023048919 0.12510248 0.013854458 -0.06545651 0.14026868 -0.09247253 0.018052842
-0.013228954 -0.2861618 0.100252636 0.037567116 0.0940206 0.01809345 -0.030019863 -0.08264515
-0.21159858 0.09585808 -0.27012676 0.16726041 0.0061999033 0.022528466 -0.09980253 -0.08159163
-0.038849063 0.078481324 -0.024294144 -0.006137074 -0.017567543 -0.18446244 -0.047476273 0.018175926

module.net_ts.layer1.0.bn2.weight f4 [32]
00000000: 4568 363f c72e f13e 8d39 113f aedb 2d3f
00000010: e6a6 283f 2a51 f93e 2092 0b3f b9a0 1f3f
00000020: d3e9 1e3f 2564 d43e fc0a c83e 727d e83e
00000030: 00fc ee3e 7894 e63e 7879 ef3e 65c6 2a3f
00000040: ff59 123f 97a2 ff3e a3fa 163f b2b8 d43e
00000050: a6fa 323f aac3 053f e5a9 1b3f bef8 033f
00000060: 9a64 263f 2f92 c43e 4efc 263f a9af 1d3f
00000070: cfb6 383f 91b5 433f 1675 323f 09d0 153f
0.7125285 0.47106 0.5672844 0.6791333 0.65879667 0.48694736 0.54519844 0.6235462
0.6207554 0.41482654 0.3907088 0.45408207 0.46676636 0.45035148 0.4677236 0.66708976
0.57168573 0.49928734 0.5897619 0.4154716 0.6991371 0.52251685 0.60806113 0.51551425
0.64997256 0.3839278 0.65228736 0.6159616 0.72153944 0.76448923 0.6970991 0.5852056

module.net_ts.layer1.0.bn2.bias f4 [32]
00000000: 3012 57bd b256 afbd 3dac 3c3d 04d8 74be
00000010: a4ce 5abe fe49 01be 3254 31be f277 f9bd
00000020: c62b 44be 5d02 2dbe c9fe b73c 2ea2 42be
00000030: 6f67 73bd d8a6 d0bd a931 89be 1c83 60be
00000040: 7b5f 38be 8512 9ebe b9b7 cbbd 6a89 bdbd
00000050: 1c55 dabd 340d 3cbe 9d83 1abe b6d0 18be
00000060: f511 24be bf20 303d f24b 94be f25d babd
00000070: 984f 34bd 6ac2 73be 5572 14be b335 47bd
-0.05250758 -0.08561458 0.046062697 -0.23910528 -0.2136789 -0.12625882 -0.17317274 -0.12181081
-0.19157323 -0.16895433 0.022460358 -0.19007179 -0.059424814 -0.10188073 -0.267957 -0.21925014
-0.18005173 -0.30873504 -0.09947152 -0.09254725 -0.106607646 -0.18364412 -0.15089269 -0.14923367
-0.16022475 0.04299998 -0.28964192 -0.0909995 -0.04402122 -0.23804632 -0.14496739 -0.048635196

module.net_ts.layer1.0.bn2.running_mean f4 [32]
00000000: 048e 01bc c0ae ca3d 7860 babd ab2a c8bd
00000010: 73f4 48be 3d52 2dbe f0e3 4c3e 2ecc b6be
00000020: bee6 ec3e 7965 bfbd fed0 c4bd 5944 5cbe
00000030: 5a49 4ebe 1824 643e 3064 c23c aa08 d6be
00000040: adc2 afbe 85c4 9b3e ef51 e4bd a09c d33e
00000050: b677 4cbe 86a3 6abf 9e7f d13c 64a9 82bc
00000060: f768 11bf 8d58 a5be cd47 8d3d bc08 343e
00000070: 5541 3bbe 5337 16bf b57c d9be d92b 29bf
-0.007907394 0.09896612 -0.09100431 -0.09773763 -0.196245 -0.16925903 0.20008826 -0.35702652
0.46269792 -0.09345526 -0.096101746 -0.21510448 -0.20145169 0.22279394 0.023729414 -0.41803485
-0.34328213 0.3042337 -0.1114844 0.41330433 -0.19967541 -0.91655767 0.025573548 -0.015949912
-0.5680079 -0.3229412 0.068984605 0.17581457 -0.18286641 -0.5867817 -0.42477956 -0.6608253

module.net_ts.layer1.0.bn2.running_var f4 [32]
00000000: 69dd 8c3e 390d 673e 2790 813e 9cfd 983e
00000010: 8fb4 953e 0ca3 9d3e fd89 8c3e e561 873e
00000020: 9399 923e f377 5e3e dee1 783e 9df0 0e3e
00000030: 16ce 843e be52 9a3e e6da 413e 64b4 803e
00000040: bcbe c03e c35c 0a3e 3ca2 c23e 536f 373e
00000050: e4c2 b23e cab7 ba3e ae55 883e cefd 8b3e
00000060: 05e4 943e 270a 8c3e ef94 293e 83b3 6a3e
00000070: 95f4 bd3e ea20 b93e ff65 7f3e 8fec 933e
0.27512673 0.22563638 0.25305292 0.2988099 0.29239318 0.30788457 0.27449027 0.26441875
0.28632793 0.21725444 0.24304911 0.13958974 0.2593848 0.30141252 0.1893116 0.25137627
0.3764552 0.13511948 0.380144 0.1791356 0.34914315 0.36468345 0.26627868 0.27342075
0.29080215 0.27351496 0.1656072 0.22920041 0.37100664 0.36157924 0.24941252 0.28891417

module.net_ts.layer2.0.conv1.weight f4 [32, 32, 3]
00000000: 219a a33d 8830 29be 2df9 163e 93f0 b73c
00000010: fbe2 113e a339 853c a6fc 6a3b 1707 0abe
00000020: 0af0 af3d 5fe5 f7bd 36c9 67bd f2a9 8e3d
00000030: 4efc 5f3e cae5 343e 6305 2dbd 2d88 b2ba
00000040: cde7 763b fdec 8d3d 19d1 9a3e 5587 353c
00000050: 6234 4b3e c308 28bd 9ad7 573e fc51 9e3d
00000060: e556 debd bd47 453d 6905 4a3d 2574 0d3c
00000070: 0753 cf3e 7181 143e ac8b e7bb 6685 a93d
00000080: 01cf 9c3d 9b76 abbc 9e8c 12bd 7894 d33d
00000090: 27eb 963d 6be2 bbbd 0f86 db3d c4f5 6fbe
000000a0: 8c06 7c3d 3fbb 273e 98ce febd 9468 1ebe
000000b0: 8049 683d 6e10 0cbe e88f 2fbe f344 0b3e
000000c0: 82aa 3cbe bf59 1cbe f337 3ebd 0320 23be
000000d0: 9cd1 6e3c 762e 9a3e a685 96bd 6de7 22bd
000000e0: 6fbd 1a3d a32a dd3d cba8 cdbc 5304 a8bc
000000f0: a25f 0cbe 3557 90bd c0db 24be 65f2 78bb
00000100: 03f8 31bc f614 143d ee3b 543d dd85 adbd
00000110: e61c f23d 8230 34be 3e34 533e cd9b 263e
00000120: 960f eabc cf8e 9c3d 9dd7 9ebd ce8c 00bd
00000130: bbde 453e 5a65 953e ba20 80be 36a4 92bd
00000140: a3a7 6c3d cf6d c23d 4ec8 f9bd 9036 213e
00000150: 8c19 1bbe ef04 85bd dd5b 80bc eeb2 003e
00000160: 3ece 9ebd c12a aabd ac11 2cbd 67f0 19be
00000170: 1e07 ca3a cc48 f93c 1946 ffbd 3543 dabc
00000180: d541 be3d 026e 0ebc 9c48 8cbd b390 a9bc
00000190: b32f 843e 6d14 12be c7cd 1dbe 2663 8fbd
000001a0: 8f32 243e 8455 e2bd 1aea b0bd 45ac 4b3e
000001b0: b3f4 87be 7e67 abbd 3246 82bc 58b6 283d
000001c0: afb4 253d 5b4a a5bd 1cd8 f7bd 0e00 92bd
000001d0: ec59 ebbd adf8 70be 7d32 efbd 6287 fdbd
000001e0: 70f1 0abe 1435 1fbe 69e0 65be c7a6 f33d
000001f0: 7101 5fbd ab4d 5bbd 42cc aabd 1a5f 9fbc
00000200: 17e1 6abc 66a6 15be 9436 983c 72b5 1abe
00000210: 510d 9a3e 7bea 0c3d 84bb 36be dab4 20bd
00000220: 71d0 5fbd c9ca de3a 93ba 383e 37ea 083d
00000230: 9a1a f13b f905 5bbd f19c 98bd 92f3 1b3d
00000240: 4119 1c3e 792c 38be a1f2 dc3b d124 dbbd
00000250: 83e4 b0bd 5f2a 51bd 970a 5cbd e247 46bd
00000260: 3bd3 c7bc fc27 5c3d 88a9 d5bd 8787 efbd
00000270: f85e ff3c 6446 3a3e 6ef3 8f3d 96dd 113d
00000280: 7f5e e93d 11f3 51bc 65e3 acbd 7661 f03d
00000290: 0172 9dbe dece 0e3e f06e eabd 8d9d bcbc
000002a0: b506 713d 41d5 09be abf4 6dbd c396 dabd
000002b0: a9f5 44be 7371 55be 64d5 32bd c7e8 833c
000002c0: 7475 afbc ad40 66bb 3afa 51be 4a21 5abe
000002d0: 9c1a 62bb cab5 c43c 498d e3bd 296e 8d3d
000002e0: 4d56 06bd 76a6 553e 0e8f 193d 6003 003e
000002f0: 29ee 2ebe 85bb 483d 6fda 6e3d 86fa b2bd
00000300: be74 20bd b370 a3bd edf3 debd 597b 483d
00000310: a953 47bd 9ed6 163e e811 853a ad95 26be
00000320: f655 6f3e 5034 083b e90e ccbd f2c3 f73c
00000330: 9b48 783d 2488 2ebe 807e 08be dff8 25bc
00000340: 1756 a1be acc4 343d 85bd cbbd d8fe f03d
00000350: ac85 b5bd b20b 513e 2591 173e 1a3c cb3c
00000360: 633b 0bbe 1fa0 83bd f619 12be fa81 423e
00000370: a77f 6cbd 01a3 2dbe 7a89 573e 9289 973d
00000380: 31b7 29be 5e3f 8fbd 9902 0bbd 4748 eebd
00000390: 8562 18be 5d0b 17be 28db 6d3e 297a 4a3d
000003a0: 9f68 5e3d 8b8f 81ba 3c69 04be 1546 bfbd
000003b0: 12d3 cdbd 2f5b 373d 74c3 813e 25ab abbd
000003c0: cee4 18bd c1ee 9ebd 88b0 82bd 269d 81be
000003d0: 77b3 853d c4a4 0c3d 297f 823c 017f ef3d
000003e0: f1c4 eabd 97d5 65bd 0dcd 2ebb b460 07be
000003f0: dc93 443d c009 60be 2f90 243e 5159 8e3d
0.07988382 -0.1652242 0.1474349 0.022453582 0.14246742 0.016262835 0.0035856157 -0.13479267
0.08590706 -0.12104296 -0.056588374 0.06966008 0.2187359 0.17665783 -0.042241465 -0.0013620906
0.0037674785 0.069299676 0.30237654 0.011079629 0.19844201 -0.04102398 0.21078339 0.07730481
-0.108564176 0.048164118 0.049321566 0.008633648 0.40493032 0.14502503 -0.0070662107 0.08277397
0.0765667 -0.020930579 -0.035778634 0.103310525 0.073690705 -0.09174045 0.10718929 -0.23433596
0.06152968 0.16380022 -0.124417484 -0.15469581 0.05671072 -0.13678142 -0.1714474 0.13600521
-0.18424419 -0.1526861 -0.046440076 -0.1593018 0.014576342 0.30113572 -0.0734971 -0.039771486
0.037778314 0.10799148 -0.0251049 -0.020509874 -0.13708356 -0.070478834 -0.16099453 -0.0037986275
-0.010862353 0.036152802 0.051814966 -0.08472798 0.11821918 -0.1759663 0.20625398 0.16270371
-0.028571885 0.07644426 -0.07755969 -0.03138428 0.19323246 0.29178888 -0.25024968 -0.07160227
0.05777706 0.094936006 -0.12196408 0.1574347 -0.15146464 -0.06495082 -0.015668804 0.12568256
-0.07754181 -0.08308936 -0.04200904 -0.15033112 0.0015413498 0.03043022 -0.12464542 -0.026643375
0.092899 -0.00869322 -0.06849787 -0.02069888 0.25817642 -0.14265604 -0.15410529 -0.07001333
0.16034912 -0.11051467 -0.08638401 0.19889934 -0.26553878 -0.08369349 -0.015902612 0.04118952
0.040455516 -0.08070823 -0.121017665 -0.07128917 -0.114917606 -0.23532362 -0.11679552 -0.12379338
-0.13568664 -0.15547591 -0.22448887 0.11897045 -0.054444734 -0.053540867 -0.0833974 -0.019454528
-0.014335892 -0.14614257 0.018580712 -0.15108278 0.30088285 0.034403306 -0.17844969 -0.039234973
-0.054642145 0.001699769 0.18039922 0.03342649 0.0073579075 -0.053472493 -0.07451809 0.038074084
0.15244009 -0.17985715 0.006742791 -0.107003815 -0.08637335 -0.0510658 -0.053721037 -0.048408397
-0.024392715 0.05374907 -0.10432726 -0.11695772 0.031173214 0.18190914 0.070288524 0.03561171
0.11394977 -0.012814299 -0.084418096 0.11737339 -0.3075104 0.13946101 -0.11446941 -0.023024345
0.058844287 -0.13460256 -0.05809466 -0.10673287 -0.19234337 -0.20844059 -0.043660536 0.016102208
-0.02141831 -0.0035133765 -0.2050561 -0.21301761 -0.0034500724 0.024012465 -0.111109324 0.06905777
-0.032797147 0.20864281 0.037489943 0.12501287 -0.17083038 0.049006958 0.058313783 -0.0873919
-0.039173834 -0.0798048 -0.10886369 0.04894576 -0.04866377 0.14730307 0.0010152431 -0.16268034
0.23372635 0.0020783134 -0.099637814 0.030244801 0.060616117 -0.17044121 -0.13329506 -0.010130136
-0.31510994 0.044132873 -0.09948257 0.117673576 -0.088633865 0.20414618 0.14801462 0.024808932
-0.13596873 -0.06427025 -0.14267716 0.18994895 -0.057738926 -0.16956712 0.21048537 0.07399286
-0.16573788 -0.06994508 -0.033938024 -0.116348796 -0.14881332 -0.14750428 0.23228133 0.049432907
0.054298993 -0.0009884698 -0.12930769 -0.09339539 -0.10050024 0.044764694 0.2534443 -0.083822526
-0.03732758 -0.077603824 -0.06381327 -0.25315207 0.06528371 0.03433682 0.015929775 0.11694146
-0.11463345 -0.0561119 -0.0026672513 -0.13220483 0.047992572 -0.2187872 0.16070627 0.069506295

module.net_ts.layer2.0.bn1.weight f4 [32]
00000000: 9a5a 0d3f b70d 113f 0034 023f f0b3 f93e
00000010: 0eeb fc3e 057b 123f 54f4 0f3f eebc 053f
00000020: 749b 2c3f 2fa9 0a3f 8945 143f 9426 113f
00000030: 4821 f03e 0535 0b3f fe3f 143f 0759 0e3f
00000040: 5324 0e3f 5b17 0b3f 20e9 043f df24 233f
00000050: d164 283f 5c57 263f 4336 103f 4057 173f
00000060: 5a46 123f 52e1 083f 9d2b 2c3f 3109 183f
00000070: aa96 283f 2b83 213f f332 123f e8ef f83e
0.5521637 0.5666155 0.50860596 0.48770094 0.49398082 0.5721896 0.5623219 0.5224141
0.674247 0.54164404 0.579186 0.5669949 0.46900392 0.54377776 0.57910144 0.55604595
0.55524176 0.5433251 0.5191822 0.63728136 0.65778834 0.6497705 0.56332797 0.5911751
0.571386 0.5346881 0.6725405 0.59389025 0.65854895 0.6309077 0.5710899 0.48620534

module.net_ts.layer2.0.bn1.bias f4 [32]
00000000: 762e 52be 04a2 c6bd 278e febd dfc4 e6bd
00000010: 505d 18be 0847 d0bd d958 00be 829a 29be
00000020: 0df5 83be e2df 15be 1fd6 d0bd 79ae b3be
00000030: 1d02 1abe 5905 3dbd 666f 113c 96f4 22be
00000040: 289a 8abd 884a 08be 1566 6dbd 6ba0 21be
00000050: c5e7 06be 29b7 f83c 5ee4 01be b21a d8bd
00000060: 9bf4 babe 5445 25be d4f6 87be 5f2b 1ebe
00000070: 4d2e 3abe 4fda 4cbe f15a d1bc e85f f3bd
-0.20525536 -0.09698871 -0.12429457 -0.11268019 -0.14879346 -0.10169798 -0.12533893 -0.16562846
-0.25772896 -0.14636186 -0.1019709 -0.3509405 -0.15039869 -0.046147678 0.008876657 -0.15913615
-0.06767684 -0.13309681 -0.05795868 -0.15783851 -0.1317435 0.030360775 -0.12684771 -0.10551967
-0.36514744 -0.16139728 -0.26555502 -0.15446232 -0.18181725 -0.20005153 -0.02555606 -0.11883527

module.net_ts.layer2.0.bn1.running_mean f4 [32]
00000000: b884 0b3f ba5b c6bf 1db5 b3bf 4197 6cbf
00000010: c720 f6be f0f7 8a3e 75f3 573c 391e 66bf
00000020: 400b 02bf d317 de3e b6bc 94bf 2d5e 2e3e
00000030: 3786 8fbf 033c a4be cb50 88bd 383b c03e
00000040: 73c9 a53e f1d0 52bf dd6f 26bf fb25 5fbe
00000050: 129b 28bf 942a d7bd e732 b33e 7aeb 7b3e
00000060: fbd7 fc3f 3445 cbbe ebff 9cbf 88fb a6be
00000070: ca4f debf 0c75 b43d 790a e6be 335e 393e
0.5449939 -1.5496743 -1.4039646 -0.92418295 -0.48071882 0.27142286 0.013180603 -0.89889866
-0.50798416 0.4337755 -1.162009 0.17028113 -1.1212834 -0.32077035 -0.06656035 0.3754518
0.32380256 -0.8235007 -0.6501444 -0.21791832 -0.6586162 -0.10506168 0.34999773 0.24601546
1.9753412 -0.39701235 -1.22656 -0.32613778 -1.73681 0.088113874 -0.44929865 0.1810234

module.net_ts.layer2.0.bn1.running_var f4 [32]
00000000: 9eda 783f 5d9e 473f edff 513f 12e3 013f
00000010: 0a66 083f ed1c 303f 0b9b 793f 6fa3 0d3f
00000020: ccaa 6f3f c9d4 203f 3d9a 853f 98c5 043f
00000030: 42a6 233f f22d 0f3f 8939 383f 4c7c 2f3f
00000040: 2c2c 433f 65e2 2b3f 5a9c 263f 6a7b 313f
00000050: 9477 213f afff 8e3f cb10 0d3f d973 5d3f
00000060: 08dc 783f fa61 383f 3e7d 823f 4382 443f
00000070: 715f 5a3f bdb2 4c3f f769 893f d58e 183f
0.97208583 0.7797602 0.82031137 0.50737107 0.532807 0.6879414 0.975022 0.55327505
0.9361999 0.62824684 1.0437695 0.51864004 0.63925564 0.5592948 0.7196279 0.68549037
0.76239276 0.67142326 0.65082324 0.6932894 0.63073087 1.1171778 0.5510375 0.86504894
0.9721074 0.720245 1.0194471 0.76761264 0.8530188 0.7996023 1.0735463 0.59592944

module.net_ts.layer2.0.conv2.weight f4 [32, 32, 3]
00000000: 0791 133e 430e 21be 9e97 3a3e 7c53 c6bd
00000010: 3cd8 e8bd 826d 4e3b dba5 083e 9a60 da3c
00000020: 26d9 a33d 3b5f 20bd 7def 0abe 038e b03d
00000030: 6159 863d 5fd7 88bd f902 c7bd 1291 263e
00000040: ef53 f93d df8e 5c3e ce45 de3d 705b babd
00000050: 6922 13be c7d7 903d 5dcb 673d fd32 733d
00000060: 0556 0ebe f465 753e 7d8f f3bd 17ad dd3c
00000070: 3a11 c1bc 23e0 1dbd 9cf6 cbbd e6a6 673c
00000080: ebb7 11be 16c2 64bd a3eb 1abd d8b3 ff3d
00000090: a71c 053e 00f6 87bb 2bab 4a3d fcc2 ad3d
000000a0: 63ec a13b 6b2d a1bc 4b13 4dbc 9deb 82be
000000b0: 2c38 69be 3b89 ed3c 077c d3bd 8ef2 e93d
000000c0: 8565 fc3d 9128 a0bd 0202 10be 5796 853d
000000d0: ae98 08bd 376c 9f3c fc7b ecbc ce4b cfbd
000000e0: 355e d5bc 2059 053e 06a8 cbbd 84e8 d5bd
000000f0: 7ef5 b23d 8c04 a53d 6a7e e73d 5ed7 303e
00000100: 90c7 f83d b214 623c 54c2 8abe 2082 0dbe
00000110: f9e0 d23d 24b8 0a3d 5aaa ff3d 1381 1cbd
00000120: e2b7 86bd aba5 88bd 3651 14be 0941 0dbd
00000130: fe7b 773c d094 c03c 875b 2cbe 39a9 30be
00000140: f4f1 c43d af29 febd 7c85 27be c2b6 0ebd
00000150: bbe5 5ebc 6da3 b63b 092f b63c 6304 34bc
00000160: fb1c 45be edd4 d03d 630c ccbc e697 5cbd
00000170: 2af4 c23d 985d 38be cce8 2d3e b9b5 bf3d
00000180: ef69 6ebe 68d1 253d 2d91 a2bc a7cb 073d
00000190: d1db 833d ce80 a8bd e14b a8bd 55cd 73be
000001a0: 309a 1d3e cbda a2bc 1826 303e 1c16 87bd
000001b0: 1453 8b3e cdbd edbd 2142 a5bd e74a dabd
000001c0: 4fc9 bf3d 9286 95bd d516 0abd 8a21 aa3d
000001d0: 7b22 fb3d 7868 093e 67cc 8bbd 45e2 193e
000001e0: 3088 213d 77f3 16bc 1302 0dbd 1d26 6a3e
000001f0: 2dbc 043e 20e7 ac3d 6017 563e 9986 58be
00000200: 7dac 4cbd 572b 9bbe 9bbc 7dbd 6bb2 3c3e
00000210: b844 973d 6dd0 0cbd c473 a6bd 5e0c 993d
00000220: 52df 6fbe ee8e 9b3d ff92 e0bc a4bb 22be
00000230: 9aea c339 4951 9abd cbe9 a7bc 9935 8a3c
00000240: 99e6 693c 22f4 3b3e 3260 bdbd 8e0b 213e
00000250: d321 313e 665d a33e 5f77 1f3d 6bc3 803d
00000260: 99a1 26be 07d4 90bd c9ec 933c f571 8a3d
00000270: 0a71 cdbd 58b6 d7bd 3438 9bbe c084 dfbc
00000280: fdfb 70bd 1d14 d03c 1a4e 863d 695a a7bb
00000290: 68f5 40be f02f 6bbe ec93 63be 8fee c7bd
000002a0: 6080 373d bdb6 29bd 8fbf 0b3c 222b 17be
000002b0: 5b30 23be b3b6 b5bd d9e2 7bbe eb2e 023e
000002c0: a4c5 c73d 20bf 41be c390 a53d 2e56 c03d
000002d0: 4f36 e23d bb08 17bd 5b3a 4bbd 3c33 4f3e
000002e0: 84f7 acbd 8f8b 0abe f3b3 26bd 1878 183e
000002f0: 5f04 113e 5b94 923d 2e19 9cbd a28e 583d
00000300: 3c7b b4bd 2a40 35bd df11 51be b904 043b
00000310: 5ba9 023e 9bf5 6bbd 8e19 8dbc a2bb 3fbd
00000320: ff88 97bd d85c d7bd a9e7 e4bd 7d25 b8bd
00000330: 763c 41bb aecb 02be a980 e0bd 1640 523e
00000340: 1e2b 213e 1426 08be 4253 bf3c 1669 5abd
00000350: 43dd f7bb 4d37 b23d b121 d7bd 72fa 29be
00000360: ba88 2b3d 087b e5bc bac1 563e 8407 283d
00000370: 4030 02be 1995 b4bd ec61 0bbe 359b 7b3d
00000380: c7e8 f1bd 917a 84bc ad05 1c3e 4c10 aebd
00000390: 96bc 483e 16db be3c ad82 503d 7eca 7ebe
000003a0: 5db6 efbd 8425 96bd 2346 13bd 3d3e 62bd
000003b0: 9512 06be e4df 30bd 219b 973c 096e 933d
000003c0: 2e1c b33d e5d2 2abd b33d c0bb 60ed 293d
000003d0: ed42 133e dd0f 0dbe 8310 00be a367 8abd
000003e0: 4791 2c3e 8267 d03c 8f88 443e 26cb f0bd
000003f0: 74a9 1a3e 1684 053e 24d1 9e3b 40aa 6bbd
0.14410792 -0.15728097 0.182219 -0.09683892 -0.113693684 0.0031498377 0.13344519 0.026657391
0.08000402 -0.03915332 -0.1356792 0.086208366 0.065600164 -0.06681704 -0.09717364 0.16266277
0.12174212 0.21538876 0.10853158 -0.090994716 -0.14368595 0.07072406 0.056590427 0.059374798
-0.13900001 0.23964673 -0.118926026 0.027060075 -0.023567785 -0.03854383 -0.099591464 0.014138913
-0.14230315 -0.055849157 -0.037822377 0.12485474 0.12999211 -0.0041491985 0.049479645 0.08484456
0.0049415096 -0.019674977 -0.012516807 -0.25570384 -0.22775334 0.0289961 -0.10326391 0.11423217
0.12324051 -0.078202374 -0.14063266 0.06522816 -0.03334873 0.01946078 -0.028867714 -0.101218805
-0.026045898 0.1302228 -0.09944157 -0.104447395 0.0873823 0.08057508 0.113034084 0.17269656
0.121474385 0.013798879 -0.27101386 -0.1381917 0.102968164 0.033867016 0.12483664 -0.038209032
-0.065780416 -0.06672224 -0.14484105 -0.03448585 0.015105246 0.02350846 -0.1683179 -0.17252053
0.096164614 -0.12410294 -0.16359514 -0.03484226 -0.013604577 0.005573681 0.022239225 -0.010987374
-0.19249336 0.10196862 -0.02490825 -0.0538558 0.09519227 -0.18004453 0.16983336 0.09360833
-0.23282598 0.04048291 -0.019844616 0.033153202 0.06438411 -0.082276925 -0.08217598 -0.23808797
0.15390849 -0.01987972 0.17202032 -0.06596014 0.2721182 -0.11608467 -0.08069254 -0.10658818
0.093645684 -0.07301058 -0.03371318 0.08307178 0.12262436 0.13418758 -0.06826096 0.15027721
0.03943652 -0.00921332 -0.034425806 0.22866102 0.12962408 0.08442521 0.20907354 -0.21145095
-0.049969185 -0.30306503 -0.061947446 0.18427436 0.07386154 -0.034378458 -0.08127549 0.07473062
-0.23425034 0.07595621 -0.027413843 -0.15891892 0.0003736809 -0.07535035 -0.020497223 0.01687126
0.01427617 0.18354848 -0.092468634 0.15727064 0.17298059 0.31907195 0.0389322 0.06287273
-0.16272582 -0.07071691 0.018057244 0.06760017 -0.10031326 -0.10532826 -0.30316317 -0.02728498
-0.058834065 0.025400216 0.065578654 -0.0051072133 -0.18843615 -0.22967505 -0.22224396 -0.09762298
0.044800162 -0.04143404 0.008529558 -0.14762548 -0.15936415 -0.08872738 -0.24598254 0.1271321
0.09754494 -0.18920565 0.08084252 0.093914375 0.11045515 -0.03687356 -0.0496162 0.20234388
-0.08445647 -0.135298 -0.040698957 0.14889562 0.14161824 0.07157203 -0.0762199 0.0528704
-0.088125676 -0.044250645 -0.20416974 0.0020144416 0.12759916 -0.057607275 -0.0172241 -0.0468098
-0.07399177 -0.105157554 -0.11176998 -0.08991525 -0.00294855 -0.1277301 -0.1096204 0.2053226
0.15739104 -0.13295776 0.02335513 -0.053322874 -0.0075642182 0.08701954 -0.10504473 -0.16599444
0.04187844 -0.028012767 0.20972338 0.041022792 -0.12713718 -0.088175006 -0.13611573 0.061427314
-0.11811977 -0.016171725 0.1523654 -0.08499202 0.1960319 0.023297828 0.050905872 -0.24881932
-0.11704705 -0.07331374 -0.03595556 -0.055235136 -0.13093026 -0.04318227 0.018506588 0.07198722
0.08745609 -0.04170503 -0.00586673 0.041486144 0.14380999 -0.13775583 -0.12506299 -0.067580484
0.16852294 0.025439981 0.19192718 -0.117574975 0.15103704 0.13038668 0.004846709 -0.05753541

module.net_ts.layer2.0.bn2.weight f4 [32]
00000000: 0479 d53e b075 293f 64f9 ff3e cfbf 173f
00000010: 17ee 153f 53da 013f fd3c fd3e f18e c93e
00000020: f937 113f 2db3 3a3f 42ac 283f 4271 033f
00000030: 96dc 0b3f 29ca ee3e 3d38 0f3f 5ad0 003f
00000040: b73e 103f f6e2 f33e 9400 f63e b68d 063f
00000050: ff59 283f 323f 2c3f cbf0 f93e 3434 243f
00000060: eca6 e73e 9c13 1f3f 5224 1e3f 7f9f 0c3f
00000070: a6f1 263f 7548 ed3e 963c 333f 399d 3d3f
0.4169389 0.661952 0.49994957 0.5927705 0.5856642 0.5072376 0.49460593 0.39366868
0.5672603 0.7292965 0.65887845 0.5134469 0.5463346 0.4663861 0.5594519 0.5031792
0.56345695 0.47634095 0.48047316 0.52559984 0.65762323 0.6728393 0.48816523 0.64142156
0.4524454 0.62139297 0.6177417 0.5493087 0.65212476 0.46344343 0.7001432 0.7406803

module.net_ts.layer2.0.bn2.bias f4 [32]
00000000: 87a8 d23d ef76 afbd 7e83 98bd 4b7c 223d
00000010: 5f20 46bc 02bf d9bd 1366 c3bd 17c5 c6bd
00000020: dd86 d6bd b4ab 5ebe 3439 aebd 56a3 c2bd
00000030: 387d c4bd e3d7 d739 e05e 98bc 3b29 683d
00000040: 23b0 1ebd 1e4e 33bd 2105 b9bd 2218 34be
00000050: 8ecf 2abd 52ef 07be cdda 2fbd 4034 b53c
00000060: 76ac e4ba cfa9 f6bc b5c0 13be 8ebc 60be
00000070: 56e6 fdbd 280c 15bd 0a47 1abe 2d37 0bbe
0.1028605 -0.08567607 -0.07446955 0.039669316 -0.012092679 -0.10632135 -0.095409535 -0.09705561
-0.10474942 -0.21745187 -0.085070044 -0.0950381 -0.09594196 0.00041168844 -0.018599927 0.056679945
-0.038742196 -0.04377567 -0.090341814 -0.17587331 -0.041701846 -0.13274887 -0.042933274 0.022119641
-0.0017446417 -0.030110268 -0.1442898 -0.21946928 -0.12397449 -0.036388546 -0.15066162 -0.13595267

module.net_ts.layer2.0.bn2.running_mean f4 [32]
00000000: 6917 b2bd 8ed6 15be fa0b f2be b1fe 82be
00000010: 407c a8be 106f 303e 2511 6dbc 93ff 133e
00000020: b622 4ebe d4c7 6abe fd13 c5be 209d 69be
00000030: a17e d63d 97e2 69be 47b8 c8be 81d2 babe
00000040: 5a3e 2cbd 17a2 93be f372 84be eccb 23be
00000050: c551 85be c46b f13d e36f debe 26d1 8cbb
00000060: bb3e 45be aa52 393d 5574 9cbe a58e 43be
00000070: b0ab 473d 5ded bf3d b598 a4bd 6e57 e3bd
-0.086958714 -0.14632627 -0.47274762 -0.2558494 -0.32907295 0.17229867 -0.01446942 0.14452963
-0.20130429 -0.22927791 -0.38491812 -0.22813845 0.10473371 -0.22840343 -0.39203092 -0.36488727
-0.04205165 -0.28834602 -0.2586895 -0.15995759 -0.26038948 0.11788133 -0.43444738 -0.0042973934
-0.19262211 0.04524485 -0.30557504 -0.19097383 0.04874772 0.09371445 -0.08036939 -0.1110066

module.net_ts.layer2.0.bn2.running_var f4 [32]
00000000: 2ca2 123e 68f5 163e 6d1c 213e 425f 753e
00000010: 8ddd 343e 93d1 413e 5f4e 143e a06b d93d
00000020: 9be3 543e 3e1a 723e bb27 343e fd0b 263e
00000030: 0f78 553e a6e7 3f3e ef6f 663e a31a 5d3e
00000040: 537b 303e 456b 303e a067 2a3e d102 cd3d
00000050: 881b 563e 822a 653e 28ef 763e 4854 3d3e
00000060: 92b5 103e 95b5 453e 113c ab3e 2a8a 2c3e
00000070: 8ed0 163e 8ca1 203e 140f c63e 2056 4d3e
0.14319676 0.14742053 0.157335 0.23962119 0.1766264 0.18927602 0.14483021 0.10616231
0.2078995 0.23642823 0.17593281 0.1621551 0.2084658 0.1874071 0.22503637 0.21592192
0.17234544 0.1722842 0.16641092 0.10010303 0.2090894 0.22379497 0.24114668 0.18489182
0.14131764 0.1930755 0.33444265 0.1684958 0.14727995 0.15686625 0.3868338 0.20052385
