model/model_20200929150300/model_final_hcp_4_0300_ts.pth (torch_old, 136367 bytes, 68 tensors)

module.net_ts.conv1.weight f4 [32, 1, 7]
0.91391176 0.2851338 -0.05015577 -0.336904 -0.37691742 -0.4055845 -0.08694306 -0.011214709
-0.462279 -0.58135515 0.24249752 0.07351038 0.5002193 0.4615946 -0.10827817 -0.0049205185
-0.32608253 -0.010284998 -0.3511999 0.13408142 -0.3044997 -0.735056 -0.49097854 0.23249368
0.07673833 -0.16257268 0.34390703 0.8849564 -0.0033582796 -0.24857351 0.22331473 -0.13754049
0.038489226 -0.64620835 0.11120862 0.52510947 0.4502284 0.05259472 -0.87998223 -0.19700974
0.32190445 0.559614 0.3383955 -0.06707974 -0.5581712 0.51271 -0.061351232 0.20022139
-0.45897022 -0.43407103 -0.30986196 0.07361145 0.92758024 -0.061111465 -0.6771262 -0.15115404
-0.14800921 -0.6327686 0.3071786 -0.40599057 -0.16407764 -0.006235837 0.57515013 0.5263879
0.39507177 -0.3169897 0.22035235 0.2412577 0.3039723 -0.16070975 -0.018320374 -0.50679415
0.22250022 -0.23577553 -0.12225389 -0.15932213 -0.3213329 -0.33124685 -0.59678715 -0.33568192
0.25313014 0.35723644 0.2640719 -0.3921632 0.3256069 0.08583718 -0.018275497 0.3700137
-0.25536987 0.04984578 0.31484511 0.7181927 -0.95351845 0.3860366 0.24873868 -0.5339994
0.06549132 0.30359998 -0.15704754 0.6304142 0.11861062 0.17314176 -0.22890688 0.24935375
-0.16407736 -0.33183163 -0.4919931 -0.51015526 0.060832966 0.4564884 0.67732036 0.22507969
-0.10699035 -0.39408076 -0.16622609 0.13310264 -0.4618485 0.057677507 0.0012039939 0.10231839
-0.026700905 -0.14506496 -0.15152605 0.21251057 -0.21449281 -0.8673199 -0.6332115 -0.38431096
0.5587012 -0.13023642 0.35475612 0.1732793 0.3549478 0.51518613 -0.28434935 -0.6756801
-0.20127349 0.7144416 0.24261993 -0.44895715 -0.65772015 -0.018546632 -0.009850678 -0.09433794
0.32767168 0.3089459 -0.42035574 -0.86682713 0.118923165 -0.28293133 0.4690382 0.07073234
0.058195636 0.55148304 0.3161222 0.5917362 0.4503947 -0.356912 -0.40255153 -0.60232836
-0.082427315 0.23999457 -0.36654508 -0.01314603 0.8142446 0.14662948 -0.18689176 -0.05949101
0.5830804 0.7664921 -0.29583195 -0.27492526 0.17984097 -0.26334494 -0.88452405 0.18953817
-0.08137952 0.003702466 0.12298288 0.04840988 -0.4401633 -0.2288659 0.54301083 0.13092741
-0.27124935 -0.80327886 0.10138323 0.5822096 0.19425032 -0.28765422 0.25033185 0.06738764
0.03516894 0.50191724 0.19637987 -0.17777528 0.20995195 0.12799813 -0.8839742 -0.073955745
0.62450355 0.6523006 -0.8161344 0.14880806 0.38957235 -0.12771323 -0.31642398 0.12567894
0.5792047 0.18118007 0.2868002 0.26717937 0.11986778 0.41333893 -0.5363347 -0.15206365
-0.60174125 -0.50399613 0.1436078 0.20330243 -0.4660313 0.41593567 0.6027024 -0.99148303
00000000: 1ff6 693f 0ffd 913e 2370 4dbd ae7e acbe
00000010: 52fb c0be c6a8 cfbe 340f b2bd e6bd 37bc
00000020: d5af ecbe b1d3 14bf 4551 783e 9c8c 963d
00000030: 5f0e 003f 2156 ec3e f2c0 ddbd 4d3c a1bb
00000040: 4af4 a6be 6982 28bc 79d0 b3be a44c 093e
00000050: 62e7 9bbe a12c 3cbf 8a61 fbbe d312 6e3e
00000060: fc28 9d3d 7479 26be 9514 b03e 818c 623f
00000070: 9516 5cbb 0e8a 7ebe 9eac 643e 6ad7 0cbe
00000080: e1a6 1d3d e96d 25bf 58c1 e33d 936d 063f
00000090: 5684 e63e 906d 573d 8446 61bf ecbc 49be
000000a0: a9d0 a43e dd42 0f3f 2d42 ad3e 1a61 89bd
000000b0: 4fe4 0ebf f640 033f 6e4b 7bbd d606 4d3e
000000c0: 25fe eabe 8f3e debe 3aa6 9ebe 9ac1 963d
000000d0: e675 6d3f 0450 7abd 2558 2dbf 20c8 1abe
000000e0: ba8f 17be 1ffd 21bf 8346 9d3e ffdd cfbe
000000f0: f803 28be fe55 ccbb 0a3d 133f 5bc1 063f
00000100: d946 ca3e 794c a2be 0ca4 613e 420c 773e
00000110: 42a2 9b3e 1991 24be 9c14 96bc 43bd 01bf
00000120: 19d7 633e 246f 71be 3f60 fabd 5725 23be
00000130: bf85 a4be 3099 a9be 0bc7 18bf 80de abbe
00000140: 469a 813e b2e7 b63e 6f34 873e 9dc9 c8be
00000150: f3b5 a63e 67cb af3d 7fb6 95bc 7072 bd3e
00000160: d7bf 82be 172b 4c3d 6133 a13e 7adb 373f
00000170: c919 74bf 97a6 c53e 5ab5 7e3e 2fb4 08bf
00000180: 5020 863d 7571 9b3e 12d1 20be d362 213f
00000190: 20ea f23d 134c 313e 9166 6abe 9756 7f3e
000001a0: e503 28be d6e5 a9be 85e6 fbbe 8999 02bf
000001b0: fd2b 793d d9b8 e93e de64 2d3f 4a7b 663e
000001c0: c21d dbbd f4c4 c9be 2c37 2abe 0f4c 083e
000001d0: 6877 ecbe 403f 6c3d 55cf 9d3a 4e8c d13d
000001e0: dbbb dabc e98b 14be a529 1bbe 5f9c 593e
000001f0: 01a4 5bbe ad08 5ebf 261a 22bf 68c4 c4be
00000200: 0b07 0f3f b25c 05be 98a2 b53e 2170 313e
00000210: b8bb b53e 3de3 033f 3d96 91be 5ff9 2cbf
00000220: a31a 4ebe a5e5 363f 5c71 783e b6dd e5be
00000230: 5960 28bf 1bef 97bc bd64 21bc 4034 c1bd
00000240: 95c4 a73e 282e 9e3e de38 d7be 62e8 5dbf
00000250: fd8d f33d 60dc 90be c625 f03e 1edc 903d
00000260: 8c5e 6e3d fe2d 0d3f c5da a13e 067c 173f
00000270: 229a e63e 2bbd b6be 3c1b cebe 3132 1abf
00000280: a7cf a8bd 23c1 753e ccab bbbe 7262 57bc
00000290: 5672 503f 0a26 163e 8e60 3fbe d8ac 73bd
000002a0: c244 153f d438 443f 4977 97be 01c3 8cbe
000002b0: 3b28 383e 26d5 86be 2b70 62bf 4b16 423e
000002c0: 4eaa a6bd 12a5 723b 73de fb3d 7049 463d
000002d0: 165d e1be d35b 6abe c202 0b3f d611 063e
000002e0: 32e1 8abe afa3 4dbf 03a2 cf3d b00b 153f
000002f0: 8ee9 463e 6a47 93be 7f2b 803e 8802 8a3d
00000300: 4e0d 103d a67d 003f ce17 493e b90a 36be
00000310: a5fd 563e f111 033e 224c 62bf 1c76 97bd
00000320: 77df 1f3f 2cfd 263f 2fee 50bf 2461 183e
00000330: 0776 c73e 42c7 02be 5302 a2be fbb1 003e
00000340: c246 143f 4587 393e 7ad7 923e bccb 883e
00000350: 3d7d f53d 29a1 d33e 3b4d 09bf 93b6 1bbe
00000360: b70b 1abf e405 01bf ec0d 133e 832e 503e
00000370: a89b eebe 85f5 d43e b44a 1a3f d5d1 7dbf

module.net_ts.bn1.weight f4 [32]
0.6663865 0.7233761 0.49172083 0.8934312 0.6096645 0.8406198 0.5961567 0.87073773
0.6792113 0.6930778 0.58081764 0.8524397 0.5639441 0.8510753 0.57088786 0.74784327
0.59007657 0.8685556 0.757416 0.68404204 0.42171144 0.76463103 0.82129335 0.75562733
0.7957593 0.39012754 0.6162108 0.4549062 0.80956465 0.6409912 0.7129834 0.78710496
00000000: 4e98 2a3f 2d2f 393f d5c2 fb3e e8b7 643f
00000010: f912 1c3f dc32 573f ba9d 183f abe8 5e3f
00000020: cbe0 2d3f 8c6d 313f 77b0 143f 7d39 5a3f
00000030: a45e 103f 12e0 593f b525 123f a872 3f3f
00000040: 420f 173f a959 5e3f 04e6 413f 611d 2f3f
00000050: 90ea d73e dcbe 433f 4840 523f cb70 413f
00000060: e2b6 4b3f ccbe c73e febf 1d3f 77e9 e83e
00000070: a13f 4f3f 0018 243f 1586 363f b67f 493f

module.net_ts.bn1.bias f4 [32]
-0.016632715 0.105313934 0.046456236 -0.028298816 -0.019568425 0.10393417 0.18427534 0.16330348
0.11559879 -0.12032047 -0.16394003 -0.10383716 -0.002505996 -0.22312437 -0.025213072 0.21778513
-0.08331208 -0.19605944 -0.027581396 0.2586931 -0.04751112 0.15931714 -0.07293959 0.13671492
0.007990146 -0.041269965 0.055242896 0.04455833 -0.00507641 -0.079845145 -0.041002158 0.11575739
00000000: 5541 88bc d5ae d73d e548 3e3d ebd2 e7bc
00000010: f64d a0bc 70db d43d adb2 3c3e 0739 273e
00000020: 0fbf ec3d 946a f6bd e5df 27be 94a8 d4bd
00000030: a33b 24bb b77a 64be a58b cebc 1103 5f3e
00000040: 869f aabd cec3 48be 61f2 e1bc 6c73 843e
00000050: 059b 42bd 0824 233e 5a61 95bd fffe 0b3e
00000060: 1ae9 023c b20a 29bd 6046 623d cc82 363d
00000070: 0358 a6bb da85 a3bd e1f1 27bd 3612 ed3d

module.net_ts.bn1.running_mean f4 [32]
6.9290734e-05 -6.970406e-05 -6.287187e-05 -2.716026e-05 0.00013903981 -2.4559764e-05 -7.154496e-05 6.378288e-05
8.896956e-05 -7.6145e-05 8.6895445e-05 -1.7028991e-05 -2.6747975e-05 0.00010725387 -0.00011498546 -7.919863e-05
-1.388821e-05 3.8627735e-05 4.193888e-05 1.1960762e-05 -5.883525e-05 -9.347775e-05 7.1461305e-05 4.14182e-05
-1.2090505e-05 7.486372e-05 -4.4185363e-05 -4.1426552e-05 -0.00012662001 -9.922156e-05 -3.0021643e-05 -7.857847e-05
00000000: 2e50 9138 152e 92b8 14da 83b8 37d6 e3b7
00000010: 37cb 1139 b105 ceb7 680a 96b8 2cc3 8538
00000020: 2b95 ba38 09b0 9fb8 a33b b638 7bd9 8eb7
00000030: d760 e0b7 7ced e038 5924 f1b8 7117 a6b8
00000040: 6801 69b7 3704 2238 88e7 2f38 15ab 4837
00000050: dec5 76b8 7c09 c4b8 7fdd 9538 74b8 2d38
00000060: 53d8 4ab7 2700 9d38 ac53 39b8 6cc1 2db8
00000070: 4dc5 04b9 2b15 d0b8 fdd6 fbb7 7fca a4b8

module.net_ts.bn1.running_var f4 [32]
0.09476775 0.07524693 0.037767116 0.115959145 0.03502754 0.122600086 0.04077658 0.103923656
0.05729491 0.07593818 0.05483528 0.08031369 0.035809673 0.07174002 0.037525393 0.104628175
0.042156097 0.07866442 0.068475395 0.09063417 0.047359664 0.07617932 0.09825476 0.055204805
0.12310935 0.022087397 0.09235167 0.03345681 0.11866486 0.06219579 0.06398802 0.088729255
00000000: 9815 c23d 101b 9a3d b1b1 1a3d fd7b ed3d
00000010: 0a79 0f3d c115 fb3d 5805 273d edd5 d43d
00000020: 11ae 6a3d 7a85 9b3d f59a 603d 817b a43d
00000030: 2aad 123d 6eec 923d 3ab4 193d 4c47 d63d
00000040: dfab 2c3d d01a a13d d43c 8c3d 689e b93d
00000050: 35fc 413d e703 9c3d cb39 c93d 6f1e 623d
00000060: c120 fc3d a1f0 b43c df22 bd3d 020a 093d
00000070: 9006 f33d 03c1 7e3d 270c 833d afb7 b53d

module.net_ts.layer1.0.conv1.weight f4 [32, 32, 3]
-0.14908248 0.18831252 -0.008069487 0.02657043 -0.09259721 0.047384605 0.018657153 0.086422056
-0.09424462 0.107046686 -0.016010186 0.233968 -0.019374346 -0.20415647 -0.065369494 -0.14338672
0.18493782 0.034607604 0.116848364 -0.0036152806 0.119124375 -0.0006296157 -0.07152081 0.26755288
0.05423587 0.07477142 -0.055275742 0.00019513223 -0.11415787 -0.060804527 -0.12531282 0.037586387
-0.16725922 0.029848104 0.11942662 0.1445967 -0.08581335 0.03569649 -0.011171014 -0.21127227
-0.09459881 -0.06333075 0.10087804 0.11895695 -0.021328118 0.06711277 -0.08271929 0.08400708
0.001837733 0.1827981 0.021336878 -0.0949276 0.04124908 0.01168436 0.013307794 -0.0028363385
0.006363268 -0.16869941 -0.0670274 0.18191113 0.08514642 -0.07717213 0.13915949 0.14680016
-0.1221511 0.114715874 -0.034427032 -0.0032419953 -0.16088255 -0.115476586 -0.20623311 0.14053898
-0.052841075 0.16462095 -0.06064838 -0.0073493407 -0.0159885 0.05528805 -0.1809267 0.032865964
-0.11103197 0.0043595335 -0.13373044 0.2595783 -0.066307746 0.0077299615 0.4004383 -0.017708026
-0.084311776 -0.17356607 0.11116276 0.116018005 -0.0661853 -0.04045681 0.09088339 0.2644198
0.0024735648 -0.038729075 -0.06222159 0.13531812 0.16944955 -0.21581069 -0.053865183 -0.15371814
-0.14390169 0.24360712 0.054095156 0.13011414 -0.098423466 -0.028106352 0.070428 -0.12439296
-0.03884513 -0.07286921 0.041501805 -0.27658322 -0.116777144 -0.007651182 -0.038254566 -0.047853295
-0.009231198 -0.039276693 0.16790468 -0.20898789 0.15050615 0.0075285174 -0.09811805 -0.079109654
0.09768616 0.08137857 0.016230104 -0.104737796 -0.12155152 0.20358667 0.11398583 -0.07174759
0.22079338 0.3024178 -0.060855884 0.09787002 -0.088202804 0.27715284 0.17518356 -0.30759686
-0.059511848 0.10428527 -0.08963424 -0.10560253 -0.07258158 0.118133426 0.18776962 0.015699562
0.02512988 -0.0076442882 -0.043443613 -0.09703382 0.10388288 0.23060599 -0.055569287 0.27932027
0.15449189 -0.18280879 -0.08969119 -0.21526791 -0.024915302 0.2006726 0.14919497 -0.025891364
-0.13205726 -0.22111881 -0.012661434 0.010405858 -0.17156465 -0.002877415 -0.17869768 0.05013442
0.04544537 0.14533603 0.08809503 -0.14918159 0.16273932 0.015514331 -0.04685083 -0.031834863
0.13655192 0.0089084525 -0.0506845 -0.1991802 -0.21948335 0.16534932 0.25197986 -0.13291214
0.019567007 -0.05375168 -0.2777227 0.35251924 -0.15699515 -0.34578776 -0.025477866 0.023919176
0.024835104 -0.05622291 0.03199684 -0.30956265 -0.018030375 -0.02000556 -0.15169914 0.06140881
0.010848701 -0.13528803 0.05729644 0.09438552 0.031289306 0.344076 -0.007017747 0.0060245898
0.00024937277 -0.027633466 -0.3787982 -0.2599919 0.00048584942 -0.082744524 -0.041460115 0.08751733
-0.16698508 -0.06499148 0.021088319 -0.024007928 -0.019747535 -0.1770067 -0.025806576 0.17320397
0.23748562 0.051969387 -0.054828394 0.02296451 -0.21395089 0.17742278 -0.07661608 -0.16242774
0.16281077 -0.054866515 -0.18285087 0.11124763 -0.09479952 -0.3414298 -0.09044389 0.22222164
-0.2431316 0.21764709 0.045778286 -0.14508572 -0.2651217 -0.062798716 -0.04459774 0.14101091
00000000: 14a9 18be ffd4 403e e235 04bc 3baa d93c
00000010: 9ba3 bdbd 5c16 423d e3d6 983c 0cfe b03d
00000020: 5303 c1bd 4b3b db3d cb27 83bc 4f95 6f3e
00000030: f3b6 9ebc 650e 51be 71e0 85bd f8d3 12be
00000040: 5760 3d3e b4c0 0d3d 324e ef3d 58ee 6cbb
00000050: 7bf7 f33d cb0c 25ba 8179 92bd b1fc 883e
00000060: 6e26 5e3d c221 993d d168 62bd 699c 4c39
00000070: 9acb e9bd 2b0e 79bd 0152 00be 2ff4 193d
00000080: 0046 2bbe 0384 f43c f295 f43d 2811 143e
00000090: e9be afbd 7c36 123d a106 37bc c257 58be
000000a0: 05bd c1bd 8db3 81bd 2599 ce3d b49f f33d
000000b0: 4eb8 aebc 6c72 893d bb68 a9bd e70b ac3d
000000c0: 16e0 f03a 6d2f 3b3e adca ae3c 6769 c2bd
000000d0: ccf4 283d c26f 3f3c ef08 5a3c dde1 39bb
000000e0: f682 d03b 8abf 2cbe a945 89bd e946 3a3e
000000f0: 3f61 ae3d 6c0c 9ebd d37f 0e3e c852 163e
00000100: 5b2a fabd 28f0 ea3d 5c03 0dbd a877 54bb
00000110: 65be 24be fd7e ecbd c62e 53be 73e9 0f3e
00000120: e26f 58bd 6592 283e 706a 78bd bdd2 f0bb
00000130: 51fa 82bc b975 623d d944 39be 769e 063d
00000140: bb64 e3bd 6bda 8e3b a2f0 08be 72e7 843e
00000150: 5bcc 87bd 9e4b fd3b 4006 cd3e 6c10 91bc
00000160: a7ab acbd 4ebb 31be 4da9 e33d d99a ed3d
00000170: 298c 87bd 0ab6 25bd 1221 ba3d 0862 873e
00000180: 881b 223b 61a2 1ebd 11dc 7ebd d590 0a3e
00000190: 2f84 2d3e 7afd 5cbe bda1 5cbd 4a68 1dbe
000001a0: f75a 13be 2574 793e e292 5d3d a43c 053e
000001b0: 3e92 c9bd 4b3f e6bc 8e3c 903d bcc1 febd
000001c0: 121c 1fbd 743c 95bd ccfd 293d 519c 8dbe
000001d0: db28 efbd c4b6 fabb d2b0 1cbd d101 44bd
000001e0: 733e 17bc 99e0 20bd 34ef 2b3e ec00 56be
000001f0: 491e 1a3e c8b1 f63b 1ef2 c8bd 3e04 a2bd
00000200: ae0f c83d cfa9 a63d fff4 843c c580 d6bd
00000210: 01f0 f8bd 0679 503e 6771 e93d 67f0 92bd
00000220: a917 623e 82d6 9a3e 0544 79bd 1470 c83d
00000230: aca3 b4bd fae6 8d3e 5263 333e 567d 9dbe
00000240: b2c2 73bd 8493 d53d 2892 b7bd 2446 d8bd
00000250: a7a5 94bd f0ef f13d ae46 403e 5e9c 803c
00000260: 2edd cd3c f07c fabb eef1 31bd abb9 c6bd
00000270: 8cc0 d43d fa23 6c3e 9f9c 63bd 1103 8f3e
00000280: 1f33 1e3e 3a32 3bbe 04b0 b7bd 316f 5cbe
00000290: 2d1b ccbc 1e7d 4d3e 91c6 183e 201a d4bc
000002a0: 053a 07be f86c 62be e771 4fbc 557d 2a3c
000002b0: a5ae 2fbe 0393 3cbb 86fc 36be c059 4d3d
000002c0: ed24 3a3d f8d2 143e 2b6b b43d 0fc3 18be
000002d0: 23a5 263e d22f 7e3c a8e6 3fbd 4665 02bd
000002e0: 44d4 0b3e c2f4 113c 8d9a 4fbd e5f5 4bbe
000002f0: 3ec0 60be 5551 293e 8103 813e 1f1a 08be
00000300: fd4a a03c b92a 5cbd ab31 8ebe 677d b43e
00000310: 56c3 20be 180b b1be f5b6 d0bc 26f2 c33c
00000320: fd72 cb3c fe49 66bd 1e0f 033d ff7e 9ebe
00000330: 70b4 93bc b3e2 a3bc 0557 1bbe ce87 7b3d
00000340: c0be 313c f288 0abe acaf 6a3d 324d c13d
00000350: 3729 003d bb2a b03e 21f5 e5bb ec69 c53b
00000360: 3fbe 8239 945f e2bc d6f1 c1be a91d 85be
00000370: 9bb9 fe39 f675 a9bd 15d2 29bd 493c b33d
00000380: 23fe 2abe 411a 85bd 69c1 ac3c 46ac c4bc
00000390: 95c5 a1bc 3f41 35be 5068 d3bc 625c 313e
000003a0: 6e2f 733e dadd 543d bd93 60bd 1120 bc3c
000003b0: f115 5bbe 51ae 353e e4e8 9cbd 7553 26be
000003c0: deb7 263e b6bb 60bd 423d 3bbe ccd5 e33d
000003d0: 4026 c2bd e3cf aebe a53a b9bd 128e 633e
000003e0: 7df7 78be e1de 5e3e 0382 3b3d 5a91 14be
000003f0: 08be 87be 9d9c 80bd 1fac 36bd 2a65 103e

module.net_ts.layer1.0.bn1.weight f4 [32]
0.5191999 0.7077401 0.73522705 0.4316796 0.5490533 0.4959085 0.5352637 0.6899497
0.6393388 0.5455945 0.5765501 0.5607366 0.58540523 0.55377793 0.5980778 0.557567
0.71460533 0.4959678 0.44751427 0.6667566 0.51407593 0.7538536 0.531164 0.7280815
0.912872 0.7773136 0.72626764 0.51926076 0.63573194 0.6180872 0.5590571 0.7548501
00000000: 49ea 043f 752e 353f d737 3c3f 1c05 dd3e
00000010: c28e 0c3f b8e7 fd3e 0b07 093f 8ba0 303f
00000020: b5ab 233f 15ac 0b3f ca98 133f 6f8c 0f3f
00000030: 1edd 153f 64c4 0d3f a01b 193f b6bc 0e3f
00000040: 60f0 363f 7eef fd3e 9720 e53e 8fb0 2a3f
00000050: 7b9a 033f 8dfc 403f 5dfa 073f 8d63 3a3f
00000060: fbb1 693f 06fe 463f adec 393f 46ee 043f
00000070: 54bf 223f f63a 1e3f 5e1e 0f3f db3d 413f

module.net_ts.layer1.0.bn1.bias f4 [32]
0.0073455186 -0.29067072 -0.29082537 -0.16494757 0.004245211 -0.20086111 -0.19281559 -0.053962383
-0.0504829 0.03788434 -0.09778153 0.06453528 0.041739162 -0.21098596 -0.14423339 -0.1586771
-0.061696775 -0.06757604 -0.118274964 -0.005652827 -0.2760454 -0.16116644 -0.11075195 -0.189578
-0.4473142 -0.1770088 -0.10007768 -0.005964311 -0.08220065 -0.11146858 -0.13777214 -0.15740511
00000000: adb2 f03b cbd2 94be 10e7 94be 04e8 28be
00000010: 691b 8b3b 89ae 4dbe 7371 45be a907 5dbd
00000020: 28c7 4ebd 9c2c 1b3d af41 c8bd 132b 843d
00000030: aff6 2a3d b40c 58be ebb1 13be 407c 22be
00000040: c2b5 7cbd 4f65 8abd 253a f2bd 5a3b b9bb
00000050: d355 8dbe d108 25be ebd1 e2bd bc20 42be
00000060: 5e06 e5be cb41 35be 87f5 ccbd 4470 c3bb
00000070: d058 a8bd a449 e4bd 2414 0dbe ce2e 21be

module.net_ts.layer1.0.bn1.running_mean f4 [32]
0.77021474 0.19165754 -0.97745776 0.3650602 -1.1107384 -1.0962695 -0.7039364 -1.8840741
-0.39545143 -0.6346565 -1.4547479 -0.54580367 -0.8335321 -0.6764982 -0.18137136 0.29846522
-0.7908375 -0.18379706 0.56573564 -1.1765188 0.28785878 -0.15751415 0.48767892 -1.5157561
-0.18585588 -1.0202278 0.2625375 0.15165402 -0.4483616 -1.5020875 0.33316356 -1.01133
00000000: cb2c 453f e041 443e ac3a 7abf 2ce9 ba3e
00000010: ad2c 8ebf 8f52 8cbf 2d35 34bf 5729 f1bf
00000020: 9c78 cabe d978 22bf 2e35 babf cab9 0bbf
00000030: 5c62 55bf fc2e 2dbf 6ab9 39be 6fd0 983e
00000040: 5474 4abf 4c35 3cbe 0dd4 103f 2b98 96bf
00000050: 3a62 933e 644b 21be 0db1 f93e 4c04 c2bf
00000060: 0151 3ebe d396 82bf 516b 863e 314b 1b3e
00000070: a78f e5be 6744 c0bf 6a94 aa3e 4373 81bf

module.net_ts.layer1.0.bn1.running_var f4 [32]
0.7724373 1.3851105 1.4656551 0.5891541 1.9242465 0.9338848 0.7811969 2.9135258
1.5266972 0.96979654 1.7707137 1.2920628 1.2884259 0.9958064 0.9365401 1.1095252
1.6983441 0.77165335 0.64842427 1.6132784 0.32932004 0.8306028 0.82115763 1.2135372
1.8126774 1.5477289 1.3821186 1.0049275 0.6565287 1.3984151 0.8303996 1.0922602
00000000: 73be 453f 4d4b b13f 969a bb3f ced2 163f
00000010: b64d f63f 1313 6f3f 85fc 473f 3577 3a40
00000020: d06a c33f 9644 783f bfa6 e23f 5062 a53f
00000030: 24eb a43f 2bed 7e3f 18c1 6f3f ec04 8e3f
00000040: 5763 d93f 138b 453f 22ff 253f e87f ce3f
00000050: a39c a83e 63a2 543f 6337 523f 3055 9b3f
00000060: d005 e83f fb1b c63f 43e9 b03f 77a1 803f
00000070: 4412 283f 44ff b23f 1195 543f 2fcf 8b3f

module.net_ts.layer1.0.conv2.weight f4 [32, 32, 3]
0.09541579 0.035590682 -0.14004691 0.13327992 0.141275 -0.06740521 0.025059776 -0.11110375
-0.004428214 -0.054351 0.061114307 0.14208317 -0.2309106 -0.19188319 -0.14123279 -0.10370222
-0.15794282 -0.23158887 -0.062066384 -0.09636425 -0.19172075 -0.14224349 0.007996537 0.0002771294
0.054449733 0.08458541 -0.0003764556 0.21252334 0.03767305 0.0875836 -0.19447143 -0.05670411
-0.044131342 0.16184944 -0.14552982 0.28654665 0.067967 0.054607064 -0.044690054 0.24520227
-0.12810239 0.13934922 -0.017387398 -0.011677481 0.06641835 0.088460565 0.26948753 -0.092749566
-0.20213507 -0.15736504 -0.114319205 0.09478605 0.03560636 -0.11358539 -0.13772771 -0.19680214
-0.048046682 -0.12649612 -0.16890512 -6.444566e-05 -0.13555196 -0.060562436 0.046618998 -0.024572395
-0.15545028 -0.06865227 -0.03885823 0.13743609 0.22038876 -0.041429225 0.30262113 0.077480756
-0.12152684 0.008931006 0.2076778 -0.18489699 -0.15082428 -0.043069765 0.34164202 0.16928829
0.17737596 -0.10005987 0.044744786 -0.09488114 0.019604158 -0.15911068 0.084269404 -0.07329004
-0.0901987 -0.2240748 0.04640784 -0.17102197 -0.398166 -0.025328744 0.014262055 -0.055756744
0.18320346 -0.069864675 0.08983406 0.04557472 -0.14518866 0.24130921 0.20762 0.085924335
0.20817661 0.2144928 0.1805554 0.045896646 0.09432092 0.11688247 0.06503064 -0.03266741
-0.080418415 -0.032391936 -0.1606289 -0.10161049 0.28271174 -0.17078926 0.093940616 -0.46438837
0.030571358 0.087915264 0.090340205 -0.015088223 -0.018771 0.083126135 0.12020082 0.26876104
0.141718 0.07261605 -0.07038386 0.14399888 -0.24829161 0.054064993 -0.079588875 0.00027196077
0.0016054077 -0.28638896 -0.05461167 0.01939551 0.006101269 0.1129034 -0.06974796 -0.14708197
0.22257134 -0.065514155 -0.16601393 0.035886846 0.03852149 -0.18021043 0.069984086 0.018520596
0.033724163 -0.22918336 0.21961492 0.34715328 -0.031282876 -0.16324733 0.11665965 -0.28751066
-0.09079953 0.08916069 -0.07417146 0.051010355 -0.2022585 -0.10985026 -0.21699469 0.087016895
0.13202573 -0.07376327 0.24151888 -0.015948383 0.034046493 -0.23488262 -0.40615743 -0.11431422
0.06812805 -0.10822046 0.082461454 -0.005528148 -0.022867605 0.02116425 0.029884608 -0.03587533
-0.09191756 0.22647856 -0.1572512 0.056795534 -0.04670268 -0.012483723 -0.35767856 0.30548155
-0.16307795 -0.0947789 0.24604566 -0.08769688 -0.090723984 -0.090386964 -0.022824831 -0.2784101
-0.046054065 -0.21610638 0.11596648 0.13198373 -0.13278882 -0.009631187 -0.23969355 -0.14775082
0.03794432 0.12779127 -0.13340703 -0.13484222 0.024145126 0.012374119 0.0063263797 0.09780499
-0.036475983 0.19873038 -0.24883798 -0.0636459 -0.030367766 0.05323871 0.14230032 0.018853946
-0.1847698 -0.28356674 0.09850993 0.082744986 -0.004271348 -0.097247005 0.023273064 -0.11157577
0.014295111 0.17281635 -0.025974426 -0.07261586 0.31595376 0.21936308 0.035848577 -0.07082923
-0.34079966 -0.12965482 -0.2068171 0.15102947 0.10485224 0.097359315 -0.26110235 -0.03929059
0.049211223 -0.100755155 -0.084799916 0.18315427 -0.09379287 -0.255645 0.07166938 -0.14263743
00000000: 5b69 c33d 89c7 113d 7568 0fbe 887a 083e
00000010: 65aa 103e be0b 8abd 294a cd3c 5d8a e3bd
00000020: 8d1a 91bb 279f 5ebd ff52 7a3d 407e 113e
00000030: d473 6cbe 077d 44be 549f 10be d461 d4bd
00000040: c3bb 21be a225 6dbe 5239 7ebd 9f5a c5bd
00000050: 7252 44be 47a8 11be e803 033c ae4b 9139
00000060: af06 5f3d 1e3b ad3d 045f c5b9 b89f 593e
00000070: 0e4f 1a3d 085f b33d 8523 47be 9242 68bd
00000080: 11c3 34bd dcbb 253e c505 15be 3eb6 923e
00000090: 4832 8b3d a8ab 5f3d eb0c 37bd 4e16 7b3e
000000a0: 462d 03be 90b1 0e3e 0470 8ebc e852 3fbc
000000b0: 5806 883d d02a b53d 45fa 893e 7cf3 bdbd
000000c0: 7ffc 4ebe 4d24 21be 3020 eabd 301f c23d
000000d0: f9d7 113d 759f e8bd 7e08 0dbe 8086 49be
000000e0: 99cc 44bd 3388 01be 77f5 2cbe 0027 87b8
000000f0: 22ce 0abe 5110 78bd 90f3 3e3d 0c4c c9bc
00000100: 5c2e 1fbe 9099 8cbd cf29 1fbd 0cbc 0c3e
00000110: 97ad 613e b1b1 29bd 28f1 9a3e 3bae 9e3d
00000120: 10e3 f8bd 5b53 123c 7da9 543e a355 3dbe
00000130: ae71 1abe ec69 30bd b4eb ae3e e959 2d3e
00000140: 0ba2 353e 30ec ccbd 4f46 373d 0b51 c2bd
00000150: e698 a03c e9ed 22be 7095 ac3d 1719 96bd
00000160: 19ba b8bd dd73 65be 2616 3e3d 6220 2fbe
00000170: 6adc cbbe 3a7e cfbc 65ab 693c 2f61 64bd
00000180: b099 3b3e 3615 8fbd ebfa b73d 8fac 3a3d
00000190: 56ac 14be c319 773e 569a 543e 19f9 af3d
000001a0: 402c 553e 00a4 5b3e 84e3 383e 1ffe 3b3d
000001b0: 542b c13d 1460 ef3d c92e 853d 43ce 05bd
000001c0: 69b2 a4bd 68ad 04bd e77b 24be 2919 d0bd
000001d0: 98bf 903e 61e3 2ebe f063 c03d 50c4 edbe
000001e0: c970 fa3c eb0c b43d 4904 b93d 9834 77bc
000001f0: a4c5 99bc 093e aa3d d92b f63d 0c9b 893e
00000200: 861e 113e b9b7 943d 6a25 90bd 7174 133e
00000210: 2840 7ebe 4173 5d3d 7eff a2bd f595 8e39
00000220: 8b6c d23a 93a1 92be 7db0 5fbd 55e3 9e3c
00000230: 27ed c73b e639 e73d 05d8 8ebd a89c 16be
00000240: bee9 633e 492c 86bd 8eff 29be 16fe 123d
00000250: b6c8 1d3d 1589 38be d153 8f3d 81b8 973c
00000260: 5922 0a3d 0baf 6abe bce2 603e 13be b13e
00000270: 7922 00bd 4f2a 27be 41eb ee3d 9934 93be
00000280: 1bf5 b9bd e199 b63d 35e7 97bd 3cf0 503d
00000290: da1c 4fbe 2cf9 e0bd db33 5ebe ea35 b23d
000002a0: c131 073e 3311 97bd ba50 773e 2fa6 82bc
000002b0: 5674 0b3d 1285 70be def3 cfbe 931d eabd
000002c0: b886 8b3d b0a2 ddbd 8de1 a83d 7725 b5bb
000002d0: d854 bbbc a660 ad3c 91d0 f43c 03f2 12bd
000002e0: 463f bcbd ffe9 673e 7506 21be 6fa2 683d
000002f0: 4f4b 3fbd 8888 4cbc a521 b7be 1468 9c3e
00000300: e8fd 26be 711b c2bd 65f3 7b3e 6c9a b3bd
00000310: 7fcd b9bd cd1c b9bd 24fb babc c58b 8ebe
00000320: 30a3 3cbd fe4a 5dbe d57f ed3d be26 073e
00000330: cbf9 07be 20cc 1dbc 3a72 75be fe4b 17be
00000340: 816b 1b3d b7db 023e da9b 08be 1414 0abe
00000350: 00cc c53c d1bc 4a3c 854d cf3b fc4d c83d
00000360: d767 15bd fa7f 4b3e 62cf 7ebe c858 82bd
00000370: d2c5 f8bc d510 5a3d 2db7 113e 9773 9a3c
00000380: 4b34 3dbe a92f 91be 93bf c93d 3476 a93d
00000390: aaf6 8bbb 7029 c7bd 27a7 be3c d681 e4bd
000003a0: 0b36 6a3c c5f6 303e 52c8 d4bc a0b7 94bd
000003b0: b1c4 a13e b7a0 603e f5d5 123d ea0e 91bd
000003c0: 4b7d aebe 3cc4 04be ddc7 53be 78a7 1a3e
000003d0: c5bc d63d 5264 c73d 35af 85be 2bef 20bd
000003e0: b591 493d b858 cebd 94ab adbd cb8c 3b3e
000003f0: 7a16 c0bd e7e3 82be 65c7 923d 8c0f 12be

module.net_ts.layer1.0.bn2.weight f4 [32]
0.3965179 0.6352245 0.76909995 0.4512706 0.47785053 0.3799215 0.62196916 0.39474458
0.5164464 0.26820937 0.61479384 0.635162 0.6230762 0.77389544 0.39486492 0.48843205
0.4452016 0.52129656 0.48678848 0.62814605 0.63155794 0.44966272 0.53125924 0.5290299
0.6487573 0.6579094 0.7124744 0.6596925 0.461079 0.7008983 0.5491219 0.7072771
00000000: 6504 cb3e 139e 223f bce3 443f f10c e73e
00000010: d3a8 f43e 1285 c23e 5f39 1f3f f61b ca3e
00000020: d535 043f bd52 893e 2163 1d3f fa99 223f
00000030: ec81 1f3f 031e 463f bc2b ca3e c413 fa3e
00000040: 77f1 e33e b173 053f 573c f93e 2ece 203f
00000050: c8ad 213f 313a e63e 9b00 083f 816e 073f
00000060: f514 263f c06c 283f b964 363f 9ce1 283f
00000070: 8c12 ec3e 126e 333f 4193 0c3f 1d10 353f

module.net_ts.layer1.0.bn2.bias f4 [32]
-0.24162693 -0.33357733 -0.15163735 -0.10122042 -0.15288867 -0.061502177 0.02659815 0.008879687
-0.13616703 -0.07972661 -0.038657695 -0.180469 -0.19867991 -0.13418974 0.051675137 -0.13963546
0.04167646 -0.009738397 -0.12082169 0.027054338 -0.18352807 -0.06728921 0.034069546 -0.2018029
-0.020251 0.019258123 -0.2846909 0.012123867 -0.054000404 -0.0689423 -0.09114094 -0.20333117
00000000: 0d6d 77be a6ca aabe d246 1bbe a74c cfbd
00000010: d98e 1cbe b5e9 7bbd 5de4 d93c 1b7c 113c
00000020: 5f6f 0bbe b447 a3bd 8857 1ebd decc 38be
00000030: bf72 4bbe 0969 09be 4fa9 533d 99fc 0ebe
00000040: f0b4 2a3d cc8d 1fbc 5d71 f7bd 0fa1 dd3c
00000050: c8ee 3bbe edce 89bd 828c 0b3d 6ba5 4ebe
00000060: 6de5 a5bc 36c3 9d3c 01c3 91be 2fa3 463c
00000070: 872f 5dbd 9f31 8dbd 1aa8 babd 0c36 50be

module.net_ts.layer1.0.bn2.running_mean f4 [32]
-0.2672098 -0.028512299 -0.46231714 -0.3455451 0.40360442 -0.41309768 -0.13128045 -0.34248352
-0.5286089 0.09531142 -0.217455 0.13320059 -0.35701057 -0.46257934 0.03263475 -0.13268363
0.26793978 -0.5627019 -0.07198944 0.115707025 -0.19838661 0.038735844 -0.51496357 -0.38783383
0.23569067 -0.38231334 0.12627019 0.467018 0.08079046 -0.43489635 0.29095128 0.06327888
00000000: b9cf 88be a092 e9bc d5b4 ecbe 4aeb b0be
00000010: 3da5 ce3e 8a81 d3be 626e 06be 005a afbe
00000020: ea52 07bf a232 c33d 86ac 5ebe bc65 083e
00000030: 17ca b6be 33d7 ecbe 04ac 053d 38de 07be
00000040: 672f 893e 3b0d 10bf 336f 93bd cef7 ec3d
00000050: dc25 4bbe 7aa9 1e3d a7d4 03bf 2892 c6be
00000060: e558 713e 93be c3be f94c 013e fc1c ef3e
00000070: 7875 a53d bcaa debe 91f7 943e 5c98 813d

module.net_ts.layer1.0.bn2.running_var f4 [32]
0.372128 0.20957461 0.2688613 0.18985611 0.21390672 0.2009763 0.27519795 0.20157172
0.31483763 0.1343914 0.33821377 0.26655254 0.36993882 0.41874194 0.20799194 0.24822184
0.27703848 0.20180538 0.30253717 0.2930383 0.30873773 0.26154783 0.32619515 0.29460773
0.43663654 0.26592034 0.26823148 0.28253856 0.410485 0.26926923 0.30143636 0.4057981
00000000: 9087 be3e ba9a 563e 30a8 893e a469 423e
00000010: 5d0a 5b3e bbcc 4d3e bfe6 8c3e d168 4e3e
00000020: 6632 a13e e69d 093e 5b2a ad3e 9379 883e
00000030: 9f68 bd3e 5865 d63e d7fb 543e de2d 7e3e
00000040: fdd7 8d3e 12a6 4e3e 27e6 9a3e 1e09 963e
00000050: df12 9e3e 99e9 853e 0d03 a73e d3d6 963e
00000060: d38e df3e b626 883e a355 893e e5a8 903e
00000070: 172b d23e a8dd 893e de55 9a3e c5c4 cf3e

module.net_ts.layer2.0.conv1.weight f4 [32, 32, 3]
-0.14563952 -0.13888133 -0.14999981 -0.06874435 0.2185459 0.048423722 -0.13006744 -0.20495461
-0.019982014 -0.04354517 -0.044071794 0.12590164 0.037977576 -0.18636972 -0.08228216 -0.07190829
-0.09160976 0.16630688 0.0970518 0.025876576 0.12215141 0.013426015 -0.1948047 0.11589166
0.06243183 0.06927451 0.20363146 -0.13997129 -0.11175656 -0.045276225 -0.009705748 -0.05504545
0.13415954 0.099371076 0.12821996 -0.1846532 -0.15244773 -0.10841045 -0.07401429 0.038406264
0.017353809 0.045407493 -0.21416019 0.003499249 -0.020089012 0.15115534 0.056181237 -0.19648345
-0.1318334 -0.054783948 0.0045950064 -0.057113457 0.02634735 -0.04235637 0.072692044 -0.11400742
-0.1241634 0.09817566 0.08917456 -0.22097039 -0.09773758 0.17723843 0.085008785 0.05946308
-0.09951657 0.024210287 0.14013536 -0.10191242 -0.047336627 0.044488274 -0.103907704 -0.06138185
-0.011360622 -0.10958989 0.035403267 0.024871096 0.048526566 -0.09962395 -0.09199969 -0.10618305
-0.023432355 0.08893622 0.0027676935 -0.086827785 -0.08567752 0.08443682 -0.066735975 0.033827823
-0.14106657 0.07483486 -0.14925271 -0.18566829 -0.06930244 0.0136189135 0.14646825 0.014532571
-0.062126894 0.041714694 0.025054691 -0.09642187 -0.10891521 0.07002231 -0.13964008 -0.0701791
0.04907741 -0.027077952 0.044648778 0.20814711 0.1419996 -0.11884699 -0.05779606 -0.023879983
0.23189275 -0.15843716 0.14011563 -0.17200018 -0.18228428 0.08226043 0.05059578 0.13061427
0.08488114 -0.06313244 0.16965926 -0.082442 -0.094352394 -0.26070955 0.020659035 -0.06266795
0.035968337 0.038311124 -0.012358008 -0.06220276 -0.16423263 0.10696471 -0.049713597 0.0062914826
-0.19386676 -0.011484842 -0.07160988 -0.1267824 -0.0029099712 -0.26026988 0.04377465 0.08485684
0.012012053 0.12691142 -0.210375 0.12088695 -0.2584882 0.044278737 -0.16685258 -0.12860337
-0.087722726 -0.018259207 -0.14215137 0.007927845 -0.023124209 -0.04088954 0.0238873 -0.12766603
-0.1011065 -0.09821357 0.0156115955 0.07150888 0.053974494 0.08719395 0.118401445 0.067651466
0.06687621 -0.17057693 0.18770988 0.21315822 -0.18132804 0.07788551 0.30717254 -0.03989627
-0.089234136 0.10397332 -0.097817264 -0.008819514 -0.042800035 0.116624035 0.018973555 0.16362938
-0.07985752 -0.15602435 -0.095201105 -0.13481842 0.0029000312 -0.17972906 -0.101690985 -0.005000305
-0.047356486 -0.032232054 -0.34319177 0.23451073 -0.16368835 0.08842673 -0.046263255 -0.084608525
-0.14193423 0.29276463 0.03434057 0.051671654 0.011289188 0.1336189 0.20429145 -0.08164191
-0.05167374 0.07211411 0.09545816 -0.048994258 0.13725993 0.14336608 0.025044898 0.077985145
0.20586464 -0.0043159607 0.021469943 0.11311222 0.24094976 0.08143469 -0.0100090485 0.026767323
0.0867301 0.07083104 -0.064283356 0.011354501 0.3951792 0.27534774 0.0581753 -0.09479002
-0.020663774 -0.15730332 -0.048828267 -0.029485848 -0.062312905 0.05956463 0.06463372 -0.1475513
-0.025202712 0.01218577 -0.027572164 0.12044453 0.095536925 0.056015257 0.10292822 -0.07864646
0.009859021 -0.028623503 0.12080207 -0.13107057 0.08739167 -0.021113567 0.014551965 0.19386584
00000000: 8722 15be e836 0ebe 8d99 19be d6c9 8cbd
00000010: 7fca 5f3e f457 463d 6630 05be 9fdf 51be
00000020: 52b1 a3bc 6c5c 32bd a084 34bd 5cec 003e
00000030: 608e 1b3d b4d7 3ebe 8d83 a8bd a744 93bd
00000040: e69d bbbd 5a4c 2a3e 18c3 c63d 1dfb d33c
00000050: 852a fa3d caf8 5b3c e27a 47be 9b58 ed3d
00000060: 85b8 7f3d cbdf 8d3d c484 503e a254 0fbe
00000070: a0e0 e4bd 9073 39bd dc04 1fbc 5677 61bd
00000080: 1e61 093e 1083 cb3d 184c 033e ba15 3dbe
00000090: 421b 1cbe 4c06 debd ce94 97bd e34f 1d3d
000000a0: 9329 8e3c 35fd 393d cf4c 5bbe a853 653b
000000b0: b691 a4bc 77c8 1a3e 4c1e 663d f532 49be
000000c0: 56ff 06be 2265 60bd b591 963b cdef 69bd
000000d0: 66d6 d73c df7d 2dbd 91df 943d b97c e9bd
000000e0: 6149 febd 5210 c93d 27a1 b63d 1046 62be
000000f0: a42a c8bd fe7d 353e 1619 ae3d 8f8f 733d
00000100: 58cf cbbd a754 c63c a57f 0f3e 75b7 d0bd
00000110: 0de4 41bd 5639 363d 90cd d4bd 896b 7bbd
00000120: e721 3abc aa70 e0bd 0403 113d 78be cb3c
00000130: cbc3 463d a407 ccbd 556a bcbd 8076 d9bd
00000140: 36f5 bfbc 3124 b63d 3162 353b c4d2 b1bd
00000150: b277 afbd 36ed ac3d dfac 88bd 0b8f 0a3d
00000160: c173 10be 0543 993d b4d5 18be d41f 3ebe
00000170: 70ee 8dbd dd21 5f3c c6fb 153e 051a 6e3c
00000180: c578 7ebd 07dd 2a3d 7f3f cd3c d478 c5bd
00000190: f00e dfbd db67 8f3d cffd 0ebe 0fba 8fbd
000001a0: 6505 493d 95d2 ddbc a3e1 363d 8424 553e
000001b0: 5868 113e 0d66 f3bd 90bb 6cbd f49f c3bc
000001c0: 4b75 6d3e 5a3d 22be 797a 0f3e d120 30be
000001d0: bba8 3abe 2878 a83d 853d 4f3d bfbf 053e
000001e0: 2ad6 ad3d 954b 81bd 28bb 2d3e 5ad7 a8bd
000001f0: d43b c1bd b97b 85be 233d a93c 0e58 80bd
00000200: 8953 133d 20ec 1c3d 3e79 4abc 52c8 7ebd
00000210: 992c 28be 5010 db3d 7ca0 4bbd c828 ce3b
00000220: 0285 46be eb2a 3cbc 33a8 92bd 3fd3 01be
00000230: 37b5 3ebb 1842 85be 0c4d 333d 6cc9 ad3d
00000240: 34ce 443c 11f5 013e 8b6c 57be 9493 f73d
00000250: 9158 84be 9f5d 353d 67db 2abe 9ab0 03be
00000260: f9a7 b3bd 5594 95bc 2190 11be cbe3 013c
00000270: fb6e bdbc ca7b 27bd 4daf c33c e2ba 02be
00000280: ed10 cfbd 3224 c9bd c7c7 7f3c 3f73 923d
00000290: 5c14 5d3d be92 b23d 757c f23d da8c 8a3d
000002a0: 65f6 883d b8ab 2ebe 0537 403e 2646 5a3e
000002b0: 0fae 39be 7082 9f3d b845 9d3e 456a 23bd
000002c0: 63c0 b6bd f7ef d43d 6b54 c8bd b97f 10bc
000002d0: 174f 2fbd 95d8 ee3d 6e6e 9b3c 768e 273e
000002e0: 578c a3bd d9c4 1fbe ccf8 c2bd d70d 0abe
000002f0: 730e 3e3b e50a 38be 5d43 d0bd 99d9 a3bb
00000300: e0f8 41bd c205 04bd d5b6 afbe 9523 703e
00000310: eb9d 27be 1319 b53d 8a7e 3dbd 3c47 adbd
00000320: 3557 11be 3fe5 953e b3a8 0c3d a8a5 533d
00000330: 49f6 383c 65d3 083e c731 513e e033 a7bd
00000340: d8a7 53bd 90b0 933d 917f c33d 34ae 48bd
00000350: de8d 0c3e 8fce 123e f52a cd3c adb6 9f3d
00000360: 2ece 523e e76c 8dbb bce1 af3c 61a7 e73d
00000370: 89bb 763e 3bc7 a63d fefc 23bc 2547 db3c
00000380: 8d9f b13d dd0f 913d fea6 83bd 3b08 3a3c
00000390: ee54 ca3e 61fa 8c3e 3949 6e3d 4521 c2bd
000003a0: 1347 a9bc 1f14 21be 2600 48bd 4e8c f1bc
000003b0: d13b 7fbd 0bfa 733d af5e 843d b017 17be
000003c0: eb75 cebc d3a6 473c 05df e1bc 9fab f63d
000003d0: dda8 c33d 4170 653d 08cc d23d 6511 a1bd
000003e0: bb87 213c d67b eabc 1367 f73d 5d37 06be
000003f0: 67fa b23d 5cf6 acbc 5d6b 6e3c c484 463e

module.net_ts.layer2.0.bn1.weight f4 [32]
0.51752305 0.62708783 0.42316282 0.6196279 0.6098178 0.5286353 0.6140373 0.49235862
0.6252486 0.65970576 0.65285903 0.61637443 0.473493 0.4546104 0.5487164 0.4230027
0.4466314 0.6442148 0.62876636 0.54249394 0.48869127 0.496667 0.6377236 0.56041425
0.36213103 0.6364487 0.5648949 0.66745454 0.44974315 0.59836346 0.64504415 0.58204824
00000000: 647c 043f d488 203f cca8 d83e ef9f 1e3f
00000010: 051d 1c3f a554 073f 8c31 1d3f 6e16 fc3e
00000020: 4b10 203f 7ae2 283f c521 273f b7ca 1d3f
00000030: ad6d f23e b2c2 e83e ae78 0c3f cf93 d83e
00000040: dfac e43e 43eb 243f d5f6 203f e2e0 0a3f
00000050: be35 fa3e 234b fe3e db41 233f 4f77 0f3f
00000060: 3d69 b93e 4dee 223f f49c 103f 4dde 2a3f
00000070: bc44 e63e 592e 193f 9d21 253f 1d01 153f

module.net_ts.layer2.0.bn1.bias f4 [32]
-0.071456045 -0.07779825 -0.04372489 -0.15234694 0.0015007829 0.09650522 -0.15174206 -0.1232624
-0.15576224 -0.16437694 -0.08087591 -0.07580209 0.0005676732 -0.22779292 -0.19842595 -0.056531265
0.12000504 -0.103004605 -0.22752652 -0.2667267 -0.16634916 -0.013471548 -0.18542981 -0.12598762
0.0326449 -0.26470587 -0.036241606 0.010145322 -0.20977204 -0.03376664 -0.05319817 -0.047122106
00000000: 8c57 92bd b054 9fbd df18 33bd d600 1cbe
00000010: ebb5 c43a 87a4 c53d 4562 1bbe ff70 fcbd
00000020: 2380 1fbe 6e52 28be 45a2 a5bd 203e 9bbd
00000030: e7cf 143a 8c42 69be 2c30 4bbe 548d 67bd
00000040: 34c5 f53d 14f4 d2bd b6fc 68be 6790 88be
00000050: 6f57 2abe c5b7 5cbc 50e1 3dbe e602 01be
00000060: a9b6 053d 8787 87be 1472 14bd 9138 263c
00000070: 7bce 56be e34e 0abd 53e6 59bd 1c03 41bd

module.net_ts.layer2.0.bn1.running_mean f4 [32]
-0.838808 -0.8170939 1.5748074 -0.91484964 -1.2334417 -2.2545998 -0.40693617 0.259802
1.7116599 -0.2601042 -0.97321683 -0.83036655 -1.4370991 -0.39911652 0.6336083 0.41886222
-0.17838793 -0.6138883 0.34255692 1.3050393 0.44472978 -1.4881153 -0.39879104 -0.9136784
0.25184748 0.13169496 0.64065975 -0.52339643 -0.38703278 -1.0270202 -1.3791178 -0.72336024
00000000: 1fbc 56bf 112d 51bf 4a93 c93f 9633 6abf
00000010: 6be1 9dbf 5d4b 10c0 f059 d0be c504 853e
00000020: ac17 db3f 612c 85be bd24 79bf e792 54bf
00000030: ddf2 b7bf 0059 ccbe 2734 223f 1c75 d63e
00000040: 53ab 36be c927 1dbf 9f63 af3e 870b a73f
00000050: 9fb3 e33e 907a bebf 572e ccbe d4e6 69bf
00000060: 27f2 803e 0bdb 063e 4702 243f 4ffd 05bf
00000070: 2929 c6be 6675 83bf ef86 b0bf 232e 39bf

module.net_ts.layer2.0.bn1.running_var f4 [32]
0.614112 0.74147654 1.4270904 1.0476639 1.0175713 1.4130448 1.0572356 0.6045148
1.1533507 1.0691421 1.3321049 0.89252436 0.89722157 0.61469793 1.0337597 0.7160653
0.92336625 0.8688645 0.8461013 1.052072 1.0812461 1.2307198 1.0744426 0.75103235
0.7628729 1.177009 0.7983074 1.1625798 0.9301314 0.9397063 1.275641 0.7785324
00000000: 7236 1d3f 68d1 3d3f e6aa b63f da19 863f
00000010: c73f 823f a7de b43f 7f53 873f 7bc1 1a3f
00000020: ffa0 933f a6d9 883f 6a82 aa3f 7a7c 643f
00000030: 50b0 653f d85c 1d3f 3d52 843f 0e50 373f
00000040: bb61 6c3f e76d 5e3f 189a 583f 4caa 863f
00000050: 4666 8a3f 3a88 9d3f 5687 893f a843 403f
00000060: a34b 433f 3ba8 963f e05d 4c3f 6acf 943f
00000070: 171d 6e3f 9890 703f 3448 a33f e64d 473f

module.net_ts.layer2.0.conv2.weight f4 [32, 32, 3]
-0.033068243 0.050637763 -0.040807597 0.06473904 -0.1539916 -0.03173584 0.06318896 0.15240322
0.13018875 -0.2429729 -0.051301375 0.058359005 -0.08160344 -0.002834582 0.028089 -0.013974256
0.0066611264 0.01159534 -0.09395654 0.15776776 0.1161637 0.021788735 0.12833457 0.13742702
0.062437054 0.0655627 0.034956187 0.1358162 -0.011366445 -0.09554322 -0.15706265 0.109220564
-0.050750744 0.192654 0.05729278 0.09149997 -0.14348707 -0.13192454 -0.11402911 0.032358147
-0.11717972 0.05579955 -0.12863384 0.005081654 0.088166386 -0.11630985 -0.019196576 0.14774823
-0.069404125 0.049122393 0.09505594 -0.037038893 -0.122848734 -0.02779905 -0.095119946 -0.0138898725
0.019762445 0.11913665 0.021243237 0.093099594 -0.0071713524 0.2831096 0.15586992 -0.04953689
-0.102965705 -0.10212602 0.08670826 0.05898344 -0.12699804 0.12870292 0.0120212985 -0.13106
-0.049560428 -0.12643215 0.08904459 -0.010864029 0.046262514 -0.016282149 -0.04456076 -0.04660168
0.11391754 0.07875604 0.06007906 0.19533423 -0.044299148 -0.17696747 0.02153736 0.02222749
-0.059734087 0.16669936 0.0183805 0.088412344 -0.11135225 -0.048904806 -0.048521284 -0.014171103
0.029827172 -0.027362855 0.13689326 0.06061412 -0.031966243 -0.025285741 -0.07268841 -0.007541272
0.036520075 0.032198295 -0.13986349 -0.015650783 0.15632758 -0.09639186 -0.087812394 -0.111020535
-0.09616537 0.12148139 0.15197459 -0.04472337 0.0047523803 -0.24079116 0.0058700945 0.011866587
-0.07357179 0.12295738 -0.14089239 0.028263755 0.17320159 -0.103802346 -0.32644308 0.0034781683
-0.15093008 -0.087647766 0.015530784 0.17721176 -0.096105956 0.09510975 0.09568039 -0.21383646
0.05535807 0.06887485 -0.11628332 0.21368417 -0.05710675 0.06433943 -0.052119225 -0.08017709
-0.13312025 0.13764046 -0.0054388237 0.055974178 0.038402542 -0.087780945 -0.16886206 -0.26732573
0.078925684 0.011711052 0.019059561 0.0051212665 0.033222806 -0.045788422 -0.09676298 0.017802235
-0.023642639 0.13940372 -0.0008635032 -0.10118651 -0.034095243 -0.102076374 0.0035360341 -0.055220798
0.0067544896 0.170111 -0.01574604 -0.18374527 -0.14293106 -0.016736278 -0.06783897 -0.057999253
0.06736996 0.04795149 -0.0025226478 -0.13311599 -0.06973492 -0.29895553 -0.1094861 -0.10944054
-0.044030644 -0.07739901 -0.2185323 0.08526167 0.09619252 -0.18060343 0.24212442 0.10326151
0.0077718464 0.108529806 0.10534246 -0.010800979 0.14587803 0.17466927 -0.10644225 0.028601902
0.0020881614 -0.09857406 -0.1702845 -0.17561883 -0.031204391 -0.05189499 0.058813628 -0.042630594
-0.029784778 -0.15637161 -0.2376179 -0.08431559 0.14480957 -0.07001192 -0.14475985 0.13734785
-0.2871336 -0.042438515 0.057189167 0.108670495 0.0443682 0.28659433 0.09684251 0.007820927
-0.03000792 0.07728967 0.05273509 0.34525242 0.069333516 -0.2971451 -0.24148291 -0.039490502
-0.17696066 -0.12582341 0.19105719 0.09791015 0.20795526 0.011946996 -0.1394789 -0.07756616
0.008507763 0.1029815 0.048910838 0.043535955 0.07062479 -0.14375113 -0.04729441 -0.07109438
-0.14587352 0.0008024961 0.0314789 0.041472405 0.08202374 0.07242062 0.21009624 0.073542364
00000000: 9172 07bd 8b69 4f3d de25 27bd e795 843d
00000010: f9af 1dbe 71fd 01bd 3769 813d 970f 1c3e
00000020: 3350 053e e3cd 78be 6421 52bd da09 6f3d
00000030: b41f a7bd 65c4 39bb e71a e63c 47f4 64bc
00000040: 9445 da3b 62fa 3d3c 496c c0bd df8d 213e
00000050: 3ce7 ed3d 4a7e b23c 236a 033e abb9 0c3e
00000060: ffbd 7f3d bd45 863d 382e 0f3d 6713 0b3e
00000070: 533a 3abc 2aac c3bd 08d5 20be 08af df3d
00000080: 03e0 4fbd 1747 453e d6ab 6a3d 5664 bb3d
00000090: 46ee 12be 3a17 07be 1888 e9bd fa89 043d
000000a0: ecfb efbd 128e 643d 97b8 03be 0184 a63b
000000b0: 9490 b43d dc33 eebd 2342 9dbc 504b 173e
000000c0: c023 8ebd 9034 493d b0ac c23d 18b6 17bd
000000d0: 1e98 fbbd d5ba e3bc 3fce c2bd 5992 63bc
000000e0: dae4 a13c eafd f33d 4c06 ae3c 00ab be3d
000000f0: aafd eabb bef3 903e 5d9c 1f3e 32e7 4abd
00000100: afdf d2bd 7227 d1bd 1a94 b13d 9f98 713d
00000110: c60b 02be b3ca 033e fbf4 443c 9834 06be
00000120: e0ff 4abd 6e77 01be 035d b63d 0aff 31bc
00000130: c37d 3d3d 2462 85bc 5885 36bd 67e1 3ebd
00000140: 994d e93d d94a a13d 7615 763d b205 483e
00000150: 0673 35bd f636 35be 1e6f b03c 6d16 b63c
00000160: bbab 74bd 3db3 2a3e b492 963c 8811 b53d
00000170: a60c e4bd 6850 48bd 41be 46bd ea2d 68bc
00000180: 1d58 f43c 1128 e0bc bf2d 0c3e 8346 783d
00000190: 09ef 02bd 0b24 cfbc a9dd 94bd c61c f7bb
000001a0: 1396 153d 5ce2 033d 6038 0fbe 1236 80bc
000001b0: 5614 203e 1869 c5bd fcd6 b3bd bc5e e3bd
000001c0: 59f2 c4bd 3ccb f83d 3a9f 1b3e da2f 37bd
000001d0: dbb9 9b3b f591 76be ec59 c03b 136c 423c
000001e0: ceac 96bd 14d1 fb3d 1846 10be 6489 e73c
000001f0: c25b 313e 5396 d4bd 8c23 a7be fbf1 633b
00000200: 6a8d 1abe ac80 b3bd d474 7e3c 0077 353e
00000210: 33d3 c4bd e7c8 c23d 15f4 c33d f2f7 5abe
00000220: 25bf 623d 420e 8d3d f325 eebd 06d0 5a3e
00000230: c4e8 69bd 64c4 833d f87a 55bd e333 a4bd
00000240: ad50 08be 9ff1 0c3e 2938 b2bb 2e45 653d
00000250: fc4b 1d3d 7fc6 b3bd 2dea 2cbe ebde 88be
00000260: caa3 a13d b6df 3f3c cc22 9c3c 4cd0 a73b
00000270: a314 083d a48c 3bbd ab2b c6bd fed5 913c
00000280: 35ae c1bc d9bf 0e3e b85c 62ba df3a cfbd
00000290: 74a7 0bbd 6b0d d1bd cfbc 673b 342f 62bd
000002a0: c454 dd3b 9431 2e3e d7fd 80bc b827 3cbe
000002b0: 855c 12be 851a 89bc 28ef 8abd a090 6dbd
000002c0: 43f9 893d c868 443d 0253 25bb 8f4f 08be
000002d0: 2fd1 8ebd b310 99be 403a e0bd 5d22 e0bd
000002e0: 7a59 34bd 5f83 9ebd eec6 5fbe ac9d ae3d
000002f0: 9500 c53d 1bf0 38be 77ef 773e c57a d33d
00000300: f9aa fe3b e044 de3d cabd d73d 97f6 30bc
00000310: 0d61 153e 80dc 323e 65fe d9bd 894e ea3c
00000320: 89d9 083b 32e1 c9bd 0f5f 2ebe 6cd5 33be
00000330: 5aa0 ffbc d78f 54bd 8fe6 703d 6b9d 2ebd
00000340: 35ff f3bc e11f 20be 1b52 73be a7ad acbd
00000350: f648 143e 6962 8fbd ed3b 14be eaa4 0c3e
00000360: 2d03 93be 02d4 2dbd 303f 6a3d a38e de3d
00000370: 6ebb 353d 7ebc 923e 5e55 c63d 5823 003c
00000380: 2bd3 f5bc 0c4a 9e3d c000 583d edc4 b03e
00000390: bbfe 8d3d 6723 98be 4c47 77be cbc0 21bd
000003a0: 2d35 35be dad7 00be 7fa4 433e 1e85 c83d
000003b0: 39f2 543e 55bd 433c 8fd3 0ebe 02db 9ebd
000003c0: 2564 0b3c f7e7 d23d bb56 483d c252 323d
000003d0: bba3 903d 7f33 13be c9b7 41bd ee99 91bd
000003e0: de5f 15be 9a5e 523a 05f0 003d f8de 293d
000003f0: 10fc a73d 4351 943d 7823 573e 619d 963d

module.net_ts.layer2.0.bn2.weight f4 [32]
0.5858035 0.652638 0.87414384 0.55088717 0.6195902 0.8081561 0.5916634 0.8981615
0.6129138 0.58968705 0.7451696 0.7044065 0.66763175 0.8181702 0.7634509 0.531069
0.59658587 0.59684044 0.6869996 0.6126409 0.6301528 0.64336747 0.7070163 0.64134306
0.8231034 0.59495896 0.5487827 0.5187461 0.93464553 0.85892326 0.6915164 0.68984205
00000000: 38f7 153f 4913 273f e4c7 5f3f f106 0d3f
00000010: 779d 1e3f 51e3 4e3f 4177 173f e9ed 653f
00000020: ebe7 1c3f bbf5 163f 6fc3 3e3f fc53 343f
00000030: eae9 2a3f 9a73 513f 8571 433f 23f4 073f
00000040: dab9 183f 89ca 183f 35df 2f3f 09d6 1c3f
00000050: b251 213f bbb3 243f 05ff 343f 0f2f 243f
00000060: e8b6 523f 3b4f 183f 067d 0c3f 8bcc 043f
00000070: ee44 6f3f 65e2 5b3f 3807 313f 7d99 303f

module.net_ts.layer2.0.bn2.bias f4 [32]
0.043897707 -0.06545142 0.053474266 0.2160372 -0.05817388 0.09857684 -0.20885418 0.0071861697
-0.04322078 0.41117516 0.22633506 0.10940095 0.18165849 -0.19609927 -0.16231233 -0.27154225
-0.1368393 0.23531969 0.12631114 -0.09508642 0.03711626 -0.09652948 -0.36735567 0.024187233
-0.008075417 -0.17178315 -0.15434808 0.010756378 0.07123722 0.29720968 -0.11067185 0.2466649
00000000: 15ce 333d 650b 86bd d507 5b3d db38 5d3e
00000010: bc47 6ebd a7e2 c93d dfdd 55be f679 eb3b
00000020: 4608 31bd 8d85 d23e 61c4 673e 9b0d e03d
00000030: af04 3a3e 3fce 48be 3435 26be 9607 8bbe
00000040: 9a1f 0cbe a5f7 703e b557 013e abbc c2bd
00000050: 3807 183d 3fb1 c5bd 0b16 bcbe 4e24 c63c
00000060: c14e 04bc ece7 2fbe 6c0d 1ebe 853b 303c
00000070: d2e4 913d de2b 983e eca7 e2bd b995 7c3e

module.net_ts.layer2.0.bn2.running_mean f4 [32]
0.11290982 -0.3195052 -0.08903804 0.111723214 -0.0070781154 -0.13565297 -0.17183314 -0.0023380206
-0.43607044 -0.35114643 -0.48211053 0.20034519 -0.14135008 -0.024466842 -0.09372996 -0.40763587
-0.042412404 -0.3237406 -0.24959473 -0.3632336 -0.05865696 -0.022246907 -0.32715836 -0.43449056
-0.106730506 -0.17934045 -0.05720556 0.09561574 -0.14314893 -0.119859554 0.023757882 -0.036663797
00000000: 443d e73d 3096 a3be 9359 b6bd 24cf e43d
00000010: 89ef e7bb 9de8 0abe 07f5 2fbe 7a39 19bb
00000020: a044 dfbe 77c9 b3be 31d7 f6be 4a27 4d3e
00000030: 13be 10be b06e c8bc 7ef5 bfbd a6b5 d0be
00000040: a1b8 2dbd 54c1 a5be c395 7fbe c1f9 b9be
00000050: 4842 70bd 253f b6bc 4d81 a7be 8c75 debe
00000060: 8695 dabd 06a5 37be 6150 6abd 2fd2 c33d
00000070: a295 12be ed78 f5bd e49f c23c c72c 16bd

module.net_ts.layer2.0.bn2.running_var f4 [32]
0.12545162 0.13798559 0.20087902 0.10391408 0.2650783 0.16057447 0.11501008 0.16120583
0.18411483 0.21472362 0.20457289 0.21118642 0.21749583 0.21945924 0.1937683 0.111913644
0.12035415 0.16692148 0.10406535 0.100826666 0.18434526 0.15301311 0.19804528 0.17310052
0.14508152 0.2006472 0.15862574 0.11186473 0.17872173 0.20922829 0.13920596 0.20120734
00000000: 6476 003e 184c 0d3e 3bb3 4d3e e8d0 d43d
00000010: 58b8 873e a26d 243e 688a eb3d 2413 253e
00000020: 9988 3c3e 82e0 5b3e 8e7b 513e 4141 583e
00000030: 3ab7 5e3e ecb9 603e 326b 463e fb32 e53d
00000040: 3d7c f63d 77ed 2a3e 3720 d53d 367e ce3d
00000050: 01c5 3c3e 78af 1c3e 62cc 4a3e 4341 313e
00000060: 4090 143e 7676 4d3e c96e 223e 5619 e53d
00000070: d402 373e f13f 563e 028c 0e3e 4c09 4e3e

module.net_ts.layer2.0.ca.fc1.weight f4 [2, 32, 1]
0.39991024 -0.18215366 0.50267583 0.09952213 -0.049678583 -0.051422216 -0.8426828 0.13654615
-0.12049113 0.4360597 -0.053118974 0.37100348 -0.42351443 -1.2623636 -1.0823271 -0.7419221
-0.27680779 0.7292745 0.6451181 -0.16118258 -0.2596011 -0.80817837 -0.91056424 -0.20367455
-0.41986346 -0.4408956 -0.24831687 0.23387083 0.35016933 -0.46540636 -0.31017798 0.021398986
-0.6918826 -0.2342922 1.3216972 0.123877384 0.5588244 -0.8920888 0.3394026 0.13504227
-0.17072727 0.23231354 -0.34619525 -0.71853083 -0.12094054 0.33700845 -0.33923054 -0.42860633
-0.93266624 0.8500892 0.5186669 0.051836126 -0.35677052 -0.33975735 0.9090446 0.40100378
-0.5037281 0.08563512 0.32040712 -0.17993893 -0.5903007 -0.72253466 0.14105257 -0.90164167
00000000: 09c1 cc3e 7d86 3abe 5daf 003f 42d2 cb3d
00000010: c57b 4bbd 1aa0 52bd 0fba 57bf c1d2 0b3e
00000020: 0ec4 f6bd 3843 df3e 4893 59bd 2bf4 bd3e
00000030: e2d6 d8be 2195 a1bf b289 8abf 9bee 3dbf
00000040: c0b9 8dbe bcb1 3a3f 7626 253f 0c0d 25be
00000050: 6fea 84be c7e4 4ebf bd1a 69bf 1090 50be
00000060: 58f8 d6be 11bd e1be c746 7ebe d67b 6f3e
00000070: 6549 b33e be49 eebe a6cf 9ebe ed4c af3c
00000080: 381f 31bf 4bea 6fbe 602d a93f 6db3 fd3d
00000090: 1e0f 0f3f ee5f 64bf 2dc6 ad3e 8548 0a3e
000000a0: 21d3 2ebe 9ae3 6d3e 8140 b1be a3f1 37bf
000000b0: adaf f7bd 5f8c ac3e a0af adbe 4a72 dbbe
000000c0: 37c3 6ebf 729f 593f 5bc7 043f 1e52 543d
000000d0: a0aa b6be adf4 adbe 26b7 683f 5e50 cd3e
000000e0: 53f4 00bf 7761 af3d 670c a43e e941 38be
000000f0: f21d 17bf 08f8 38bf 1670 103e fdd1 66bf

module.net_ts.layer2.0.ca.fc2.weight f4 [32, 2, 1]
-0.20223418 0.13516936 -0.29371783 -0.34747142 -0.13839623 0.4155495 -0.29400694 0.19796029
0.353734 0.21147974 -0.25423923 0.18023972 -0.3443636 -0.16092998 -0.051399067 0.4290313
-0.16143814 0.041296426 0.3769592 -0.3540283 0.3823887 -0.10033865 0.12475167 -0.055751033
0.44676635 -0.10213079 0.3977717 0.14228083 0.2556244 -0.0687853 -0.02766422 -0.030739209
-0.2693002 0.0809723 0.21049698 -0.0363585 -0.29237694 0.03862952 -0.029213691 -0.18652073
0.22998028 -0.021098524 -0.24000183 0.017953172 0.05239681 0.08577333 0.3145557 -0.03782242
-0.20242186 -0.036005545 0.23090683 0.17223343 -0.060117595 0.13021481 -0.07784451 -0.035564728
-0.1824867 0.029720537 -0.36420453 0.6759777 0.22925702 0.2154779 0.18341257 -0.12060523
00000000: 7a16 4fbe d669 0a3e 2f62 96be c6e7 b1be
00000010: beb7 0dbe e7c2 d43e 1488 96be 1ab6 4a3e
00000020: 9f1c b53e 258e 583e a52b 82be c390 383e
00000030: 6d50 b0be d4ca 24be d487 52bd fea9 db3e
00000040: 0a50 25be 7126 293d cc00 c13e 3343 b5be
00000050: 74c8 c33e 5a7e cdbd ce7d ff3d 325b 64bd
00000060: 8fbe e43e f329 d1bd bba8 cb3e 11b2 113e
00000070: 34e1 823e 4fdf 8cbd 13a0 e2bc cbd0 fbbc
00000080: b7e1 89be ced4 a53d 858c 573e a7ec 14bd
00000090: 6eb2 95be fd39 1e3d 8d51 efbc 4aff 3ebe
000000a0: f37f 6b3e d0d6 acbc 0ac3 75be 8812 933c
000000b0: 0a9e 563d eda9 af3d 720d a13e afeb 1abd
000000c0: ad47 4fbe 8d7a 13bd d772 6c3e f65d 303e
000000d0: de3d 76bd 0857 053e f16c 9fbd 52ac 11bd
000000e0: cbdd 3abe 7c78 f33c 0479 babe e00c 2d3f
000000f0: 5ac2 6a3e 3da6 5c3e 81d0 3b3e e0ff f6bd

module.net_ts.layer2.0.sa.conv1.weight f4 [1, 2, 7]
0.038846143 -0.28844103 -0.31432274 0.26983267 0.1527606 0.47027427 0.6880396 0.32786414
0.6029114 0.13679887 -0.07578522 0.23218678 -0.09427873 0.512787
00000000: 221d 1f3d 8bae 93be e9ee a0be 8227 8a3e
00000010: 466d 1c3e cac7 f03e 5d23 303f cfdd a73e
00000020: 6758 1a3f 0115 0c3e 4835 9bbd 5fc2 6d3e
00000030: 3515 c1bd 0246 033f
