model/model_20200929150300/model_final_hcp_3_0300_sm.pth (torch_old, 974091 bytes, 68 tensors)

module.net_sm.conv1.weight f4 [32, 1, 7, 7, 7]
000000 ce 97 ac 3c 65 85 f5 bb a2 44 a2 bc 01 14 e1 39
       0.02106848 -0.0074927085 -0.019808117 0.00042930248
000010 a4 7c de 3b 93 4f fa bb 1f 52 3a 3c 90 d1 ba ba
       0.0067897607 -0.0076388805 0.011372118 -0.0014253128
000020 30 8c 75 bd d4 bd 98 bd 2e d0 95 bc 59 76 87 bc
       -0.059948146 -0.07458082 -0.018287744 -0.016535925
000030 b1 5d 96 3c 4c 27 8f 3c 55 fa 90 3c c3 73 4b bd
       0.018355222 0.017474793 0.017697493 -0.049670946
000040 64 1c 6c bd af 54 96 3c 97 51 49 3c 50 1e 7a 3b
       -0.057644263 0.018350927 0.012287519 0.003816504
000050 e2 8d 85 3d 70 84 97 3b 08 3f ef 3c 69 d5 8c 3c
       0.065212026 0.004623942 0.02920486 0.017191606
000060 01 cb 50 3d 5b 72 4c 3c 63 63 08 bd 45 1c 82 3b
       0.05097485 0.012478436 -0.033297908 0.003970655
000070 13 14 08 3d 53 c5 d6 bc 1a 68 2b bd ad cd b9 bc
       0.03322227 -0.026217138 -0.041847326 -0.022681082
000080 d8 d3 2a bb 6d 49 d9 3b a0 5d ff 3b b9 ba 72 3d
       -0.002606621 0.0066310675 0.0077931434 0.059260104
000090 85 cc 0b 3d 22 f9 13 bd f7 29 10 bd 15 86 31 3c
       0.034130592 -0.036126263 -0.03519627 0.01083519
0000a0 04 c7 25 3d 2e 29 2b bc da 75 1b 3c 77 40 8c bc
       0.040473 -0.01044683 0.009488547 -0.017120583
0000b0 aa af 80 bd 8a 9b c1 bb 11 9e 27 3d 25 da 46 3d
       -0.06283505 -0.0059084343 0.04092223 0.048547883
0000c0 fc 7e 98 bb 44 69 36 bd 72 ca f6 bc 4c d5 76 bd
       -0.0046538096 -0.044533983 -0.03012583 -0.06026201
0000d0 a1 f0 0f bc aa dc 92 3b b8 d7 1e bd 74 bf 8c bb
       -0.008785398 0.0044818716 -0.038779944 -0.004295284
0000e0 b9 db a8 bd d7 da 8c bd 96 dd 88 bd 9a a0 1f bd
       -0.08245034 -0.06877678 -0.06682889 -0.03897152
0000f0 d0 a0 74 bb 76 82 b6 3c 0d 08 95 bb bf dc 80 3c
       -0.0037327297 0.022279005 -0.004548079 0.01573026
000100 9c 49 db bc dc 57 2a bd 57 00 89 bd 70 ee 00 bb
       -0.026768498 -0.041587695 -0.06689518 -0.001967337
000110 1b b0 cb 3c 0b 56 90 3c 67 28 91 3c 13 0d ef bb
       0.024864247 0.017619153 0.01771946 -0.0072952597
000120 47 55 a3 bc 32 f9 05 bd be df b1 bc e9 9c 8c bc
       -0.019938124 -0.032708354 -0.021713134 -0.017164664
000130 0f 8a 49 bd 10 5a a0 39 61 33 8b bc 3b d1 fc bc
       -0.04920393 0.0003058468 -0.016992273 -0.030861488
000140 07 7f 71 bd 47 f5 1d bd 33 f7 a0 bc 32 af de bc
       -0.058959033 -0.038563993 -0.019649124 -0.027183149
000150 18 36 50 bd d6 bf 72 bc 31 a4 e2 bd c7 a6 95 bd
       -0.050832838 -0.014816245 -0.11066473 -0.07307201
000160 5f dd a2 ba 38 87 2e 3d 87 c4 0c bd a0 2e 1c bd
       -0.0012425593 0.042609423 -0.03436711 -0.038130403
000170 fa 7b 32 bd c1 a0 2a bd 03 51 9e 3c 9c 02 4d 3d
       -0.043575265 -0.041657213 0.019325739 0.050051317
000180 5f 13 77 3d 09 52 9e bc f0 a7 dd bd 0e 69 d4 bc
       0.060321208 -0.019326227 -0.10823047 -0.025929
000190 72 da 3f bd 12 d7 04 bd 26 69 4d 3b 56 29 81 bc
       -0.046839185 -0.03243167 0.003134319 -0.01576678
0001a0 f8 a0 c6 bc 11 5a 97 bd 9b 46 60 3b c1 b4 f5 bc
       -0.024246678 -0.07390226 0.0034221772 -0.029993417
0001b0 58 10 90 bd bc 61 2d bd a0 ea 10 bc db 98 eb 3c
       -0.07034367 -0.042329535 -0.008845001 0.02875941
0001c0 a9 97 04 3d e8 3b 80 bd d4 b7 f8 bd 37 fe 97 bd
       0.032371197 -0.06261426 -0.121444374 -0.074215345
0001d0 8b e6 d7 bc b2 d4 1d 3c 05 78 82 3c 73 01 75 3c
       -0.026355049 0.00963323 0.01592637 0.014953959
0001e0 35 6e 8e bd 1f a2 a7 bd 86 c3 66 bd 22 75 f0 bb
       -0.06954614 -0.08185219 -0.05633881 -0.007338182
0001f0 23 e7 ba bc 30 62 0b bd 61 8f df bc 3b 19 13 bd
       -0.022815293 -0.034029186 -0.027290048 -0.035912734
000200 dd a3 9a bd fa 6f 7c bd de 7f 32 bd aa 4e e8 bc
       -0.07550786 -0.061630227 -0.043578975 -0.028357822
000210 3d b1 3d 3b 58 d4 af bd 43 eb 77 bd ad fb e1 bd
       0.0028944754 -0.08585423 -0.060527097 -0.110343315
000220 97 96 f0 bd 97 6b 83 bd 0b 47 ef bc 22 45 31 bd
       -0.11747473 -0.064170055 -0.02920868 -0.04327882
000230 3a 33 19 3d b6 7b a9 bb 5f fa 37 3c 03 5f dc 3c
       0.03740237 -0.005172218 0.011229127 0.026900774
000240 80 15 98 3c 1a 9c ea 3c d0 d4 db bb e4 53 83 bd
       0.01856494 0.028638888 -0.006708719 -0.06412485
000250 03 99 5c bd df cb 7d 3b 4c b1 2d ba 77 ac e8 bc
       -0.05385686 0.0038726253 -0.00066258456 -0.02840255
000260 cb cf 73 bb c7 f9 aa bd 68 a7 87 3c 6d 9b 93 bb
       -0.0037202712 -0.083484225 0.016559318 -0.004504612
000270 7c c7 05 bd aa 55 b3 3a 06 07 15 bc 04 80 e0 ba
       -0.032660946 0.0013682146 -0.009095913 -0.0017127995
000280 70 78 1b bd a4 15 67 3c ac 61 14 bd 87 74 8a bd
       -0.037956655 0.014104281 -0.03622596 -0.06760507
000290 78 c8 38 bb 68 b5 00 bc c0 e8 c3 bc 31 98 40 bd
       -0.002819566 -0.007855751 -0.023914695 -0.04702014
0002a0 bd 0f ca bc 10 3f ad bb 6a c5 49 3c db e0 30 3c
       -0.024665708 -0.0052870587 0.012315134 0.010795797
0002b0 06 c0 5e 3d a3 7d a5 3c d3 4e bc bc e7 17 4d bc
       0.054382347 0.02020151 -0.022986805 -0.012517906
0002c0 a7 b9 94 bd 54 64 ac 3c 60 b9 a9 3c 94 21 81 3c
       -0.07261973 0.021043934 0.020718277 0.015763082
0002d0 3d 0a ad b9 56 7c 04 bd 61 b7 f5 bb 02 05 52 bd
       -0.0003300476 -0.03234514 -0.007498667 -0.051274307
0002e0 16 cc 56 bc fd 24 32 3a c9 7a 47 3d 73 bb ce bb
       -0.013110181 0.0006795673 0.04870108 -0.006308967
0002f0 cf ab b0 bc 8e 4b 4f 3d 6f 99 cf bc f0 ed 64 3c
       -0.0215663 0.050609164 -0.025341718 0.013972744
000300 15 71 34 bc 32 c8 1b 3d 30 d3 9d 3c a6 dd 4c bc
       -0.011013289 0.038032718 0.019265741 -0.012504017
000310 57 18 ad bc 0f 93 e6 bb c9 12 15 3d 0f 24 38 3d
       -0.02112977 -0.0070365737 0.036394868 0.044956263
000320 45 69 02 3d f2 c6 02 3d df ab 37 bd b3 82 c4 bc
       0.031838674 0.03192801 -0.044841643 -0.023988103
000330 51 4e b9 3c 27 09 1a 3d f2 dd 7d bb 51 52 69 3d
       0.022620352 0.037606385 -0.0038737026 0.05696327
000340 fd 6a 26 3d 03 17 1d bd 60 cc a9 3c b8 31 b5 3d
       0.040629376 -0.038352024 0.020727336 0.08847374
000350 f1 5e 36 3d 93 f5 f3 3c 3e b9 7c 3d d4 31 bd bc
       0.044524137 0.029780185 0.0617001 -0.023095049
000360 81 6e 94 bd a5 c7 17 3d ee 2e 2d 3d 98 7f b9 3d
       -0.072476394 0.03705563 0.042281084 0.0905754
000370 e0 9a 70 3d 74 68 d3 3c 7e 59 f1 bc 1b c3 57 bc
       0.05874145 0.025806643 -0.029461619 -0.013169075
000380 12 fd a2 3c 26 74 09 bd f5 4e 18 3d 7a c1 c8 3d
       0.019896064 -0.033558033 0.037184674 0.09802528
000390 2d c3 3a 3d 4d 5e b5 3b 76 ab 32 bd d8 a2 a5 3a
       0.04559629 0.005534923 -0.04362055 0.0012637032
0003a0 7e 1e 01 bd ce ab 26 bb 60 b0 16 bd 12 31 0a 3d
       -0.03152322 -0.0025431993 -0.036789298 0.033738203
0003b0 f1 31 c7 bc 8e 38 c8 bb 99 bd 68 bb 1a b9 16 bd
       -0.024315806 -0.0061102575 -0.00355134 -0.03679762
0003c0 85 2e 25 3d 2e 75 13 bd e1 a4 b1 bb f3 3c 69 3b
       0.040327568 -0.036000423 -0.0054212664 0.0035589307
0003d0 af c7 1b bd dc 2e 39 3d 10 e2 a0 3d c3 af ac 3d
       -0.03803223 0.045210704 0.07855618 0.084319614
0003e0 e1 4e 30 3d 6e 21 dc 3c 3a 69 b1 bc 55 38 29 bc
       0.043043975 0.02687141 -0.021656621 -0.010328372
0003f0 aa 2d c6 3b 70 cd 91 3d ab 19 9c 3d 4b 3f 6f 3d
       0.006047924 0.07119262 0.07622083 0.05840997

module.net_sm.bn1.weight f4 [32]
000000 8f 39 13 3f 29 06 1e 3f 3f c8 23 3f 65 20 14 3f
       0.575097 0.6172815 0.63977426 0.5786193
000010 72 cb fd 3e 27 4f 35 3f 69 57 22 3f b2 d5 0f 3f
       0.4956928 0.708239 0.6341463 0.5618545
000020 7c 40 08 3f 33 35 14 3f a2 74 ec 3e 60 cb 11 3f
       0.53223395 0.57893676 0.46182734 0.5695095
000030 4c 4a 1d 3f 78 b8 18 3f 09 db 0e 3f c1 d3 0f 3f
       0.61441493 0.59656477 0.5580297 0.56182486
000040 9a 86 0c 3f fe ac 1b 3f b5 ad 26 3f 02 bc 25 3f
       0.54892886 0.6081084 0.65108806 0.6474
000050 cb 05 04 3f 21 8e 10 3f 8a 4e 22 3f ee cf 1f 3f
       0.5157134 0.5646687 0.6340109 0.6242665
000060 ed 1e 1d 3f 34 ae d0 3e ed 9f 0b 3f 1a 56 da 3e
       0.61375314 0.40757906 0.545409 0.42643815
000070 2f c2 1c 3f 0f 6a f9 3e 9c 3c 1c 3f 34 36 09 3f
       0.612338 0.4871373 0.6102998 0.5359833

module.net_sm.bn1.bias f4 [32]
000000 80 61 25 3b 89 ba 4d 3b f7 0b 8a 3d 42 b2 28 bc
       0.0025235116 0.0031391701 0.06740563 -0.010296406
000010 a1 35 86 bc d5 a8 91 3d 7d 8f ea 3b fc e6 3d bd
       -0.016382994 0.0711228 0.0071582184 -0.046362862
000020 13 c6 74 3c 88 80 07 3b 63 fc 4f 3b d5 5e dc 3b
       0.014939803 0.0020675976 0.0031736128 0.006725172
000030 65 56 d9 3c e0 fc 8b 3c e1 d1 76 3c 0c d8 62 3b
       0.026530454 0.017088354 0.0150646875 0.0034613637
000040 1e 40 cd 3c 37 33 31 3b d5 63 25 3d de 2a 03 3d
       0.025054988 0.0027038583 0.04037841 0.032023303
000050 49 4f d6 3b 2b f2 20 bd d2 9a 18 3c 54 d3 0a 3c
       0.0065402132 -0.03929345 0.009314256 0.008473236
000060 74 f5 ab 3b 24 d4 1f bd 83 a8 03 bd 30 2c 3f 3c
       0.005247766 -0.039020672 -0.032143127 0.01166825
000070 47 e2 48 3a 3e 1c 41 3c c4 79 1b 3d 68 28 8c 39
       0.00076631125 0.011786519 0.03795792 0.00026732986

module.net_sm.bn1.running_mean f4 [32]
000000 7b d5 f3 b6 e0 75 4c b6 88 f8 35 b7 82 74 23 36
       -7.2668167e-06 -3.046698e-06 -1.0846306e-05 2.435671e-06
000010 d7 f2 f5 b5 36 70 bf b6 94 ce 1f b6 43 07 14 b6
       -1.8324598e-06 -5.7053066e-06 -2.381309e-06 -2.2057945e-06
000020 fb 09 6c 36 3b cf 86 37 24 2b 4a 34 f2 db a0 b6
       3.517255e-06 1.6070544e-05 1.882841e-07 -4.7939766e-06
000030 c6 57 df b6 ff ca 69 b6 6f e2 8c b6 be ca a8 b6
       -6.656136e-06 -3.4837865e-06 -4.1986855e-06 -5.0303925e-06
000040 ad c0 dc 36 0a 21 05 b6 81 0c 0e 37 e0 ed c5 36
       6.5789413e-06 -1.9837776e-06 8.466771e-06 5.89875e-06
000050 d2 74 92 b6 19 99 92 36 6c 52 48 b7 0f 77 1c b6
       -4.3647387e-06 4.368962e-06 -1.1940119e-05 -2.3315113e-06
000060 2d c1 9b 36 4f fa b7 36 09 ed 8f b5 2a e6 00 37
       4.6418486e-06 5.4829648e-06 -1.0723317e-06 7.682984e-06
000070 53 91 8a b4 e6 b0 83 37 87 a7 25 35 39 e9 9c b6
       -2.581024e-07 1.5698792e-05 6.1711074e-07 -4.676313e-06

module.net_sm.bn1.running_var f4 [32]
000000 47 cf 22 3c fb 5a 21 3c d4 47 81 3c 5a 74 4b 3c
       0.009937114 0.009848352 0.01578132 0.012417877
000010 6c 66 18 3c b0 e7 6c 3c 29 cd 1f 3c e0 c4 28 3c
       0.009301763 0.0144595355 0.009753504 0.010300845
000020 d9 54 13 3c a0 f4 2e 3c c2 8c f5 3b ef bc 0d 3c
       0.008992397 0.01067844 0.0074935863 0.008651002
000030 6b 5d 3c 3c f3 4a 25 3c 5f 5c 0c 3c c5 c3 11 3c
       0.011496882 0.01008867 0.008566945 0.008896773
000040 e8 f7 1c 3c ce b1 2b 3c 51 5c e9 3c 0a a0 1c 3c
       0.00958059 0.010479404 0.028486403 0.009559641
000050 76 88 f6 3b 87 32 12 3c 5d b4 53 3c 29 ee 3f 3c
       0.0075235916 0.0089231795 0.01292142 0.011714497
000060 09 41 72 3c 45 95 bd 3b 87 48 2b 3c 2f 76 00 3c
       0.014786013 0.0057856166 0.010454304 0.007840677
000070 db 06 2f 3c 75 c7 44 3c 51 85 0a 3c c5 bf 01 3c
       0.010682787 0.012010445 0.008454637 0.007919257

module.net_sm.layer1.0.conv1.weight f4 [32, 32, 3, 3, 3]
000000 83 94 24 bc 2a 16 92 3c 43 c4 2b bc 03 15 d6 3b
       -0.010045174 0.017832834 -0.010483804 0.0065332665
000010 53 1c 4c bb 59 1c 4b ba 5b 32 2b 3d f3 eb d5 bc
       -0.0031144812 -0.00077480596 0.04179607 -0.026113486
000020 71 17 e9 bb 76 bf aa 3c ca 28 35 bc 6c a3 55 3b
       -0.00711339 0.020843249 -0.011057088 0.0032598628
000030 09 b6 e3 3c 00 62 6c 3c c8 62 9a bc aa 3b 98 ba
       0.027796762 0.014427662 -0.01884593 -0.0011614461
000040 82 06 62 3b 58 f8 9a bc bc 26 51 bc e2 72 b6 3b
       0.0034488742 -0.018917248 -0.012765583 0.0055678943
000050 5e 7d ff bb 3c e9 d1 bc 71 60 d7 3b 44 ea 80 bc
       -0.0077969274 -0.02562391 0.006572776 -0.015736707
000060 11 39 bb bc 80 6c 93 bc bc 5d 73 39 ba 4f af bc
       -0.02285436 -0.017996073 0.00023209205 -0.021400321
000070 5f c4 3c bb 44 92 d9 bc 74 99 97 3c 8c 4a 9a 3c
       -0.002880357 -0.026559003 0.01850579 0.018834375
000080 ad 1d d6 bc 27 fa 2e 3c 23 4c 13 bd f3 a9 22 bc
       -0.026137197 0.010679758 -0.03596128 -0.009928214
000090 88 7d 86 bd db 4b 13 3d 5b b8 dc 3c 2b 8b 2f bc
       -0.06566912 0.035961013 0.026943376 -0.010714333
0000a0 a5 d7 b1 bc 81 3f 43 bc 75 a8 39 3c 1a a7 c5 bc
       -0.021709273 -0.011916996 0.011331667 -0.024127532
0000b0 93 e7 10 bc aa c5 ba bc c3 e6 d1 bc e3 a3 f0 bc
       -0.008844274 -0.022799332 -0.025622731 -0.029375022
0000c0 0d 54 2b bc b1 9a 0c bd 01 cb b4 3c 1b 8f e7 bb
       -0.010457051 -0.034327213 0.022069456 -0.00706662
0000d0 32 f4 91 bc 55 10 38 bc f8 d0 f6 3b 2a 57 06 bd
       -0.017816637 -0.011234363 0.0075322352 -0.03279797
0000e0 31 89 c3 bb 1d be a1 bc 24 9d 83 bc 8c c3 0f bc
       -0.005967282 -0.019743973 -0.016066141 -0.008774649
0000f0 d0 09 b0 bc 56 19 db b9 d1 94 0c bd 2b 04 20 3c
       -0.021489054 -0.00041789812 -0.03432161 0.009766619
000100 8f de 45 3b e3 ae 69 3c ad ca a9 bb 1e 33 cf 3c
       0.003019247 0.014262888 -0.0051816315 0.02529293
000110 5c 03 f2 bb fc 6d 61 bc d5 d2 5c 3c 95 ea 16 bd
       -0.0073856544 -0.0137591325 0.013478001 -0.03684481
000120 61 eb f4 3b 13 9f 61 bc 26 60 e5 3a 36 47 99 bc
       0.0074743484 -0.013770836 0.0017499968 -0.018710714
000130 81 52 00 bc dc 2c c1 bc 00 ba a5 bc 69 d2 e4 bc
       -0.00783217 -0.02358096 -0.020230293 -0.027932363
000140 ea 4a 9e 3c f0 6f eb bc 21 a9 e4 3b b7 c5 92 3c
       0.019322831 -0.0287399 0.0069781695 0.017916543
000150 6f ac b8 bc 44 4b 1c 3d dd 0e dc bb 09 50 1e bd
       -0.02254316 0.038157716 -0.006715639 -0.038650546
000160 95 f0 f0 3a 22 d2 21 bd 8d 06 23 3c 6c 99 ff 3b
       0.0018382246 -0.03950704 0.009950292 0.0078002717
000170 8d 5b f9 3c c0 6c 84 3c fc 53 15 3d 3f de b7 3c
       0.030439163 0.016165137 0.036457047 0.022444842
000180 3a 80 e6 3c cc 57 06 3d 0d a4 b9 bb 4e 73 da 3b
       0.028137315 0.032798573 -0.0056653083 0.0066665774
000190 84 fe a5 bc 58 46 49 bc 56 16 9a 3c e5 37 88 bc
       -0.020262964 -0.012284838 0.018809479 -0.016628215
0001a0 6c 73 0a bc 0d 8d 3e ba 59 51 12 bd 91 3a af bc
       -0.00845037 -0.0007268943 -0.03572211 -0.021390231
0001b0 94 c3 d3 3c a8 04 2c bc 2a e9 14 3c 7a 81 53 3c
       0.025850095 -0.010499157 0.009088794 0.012909288
0001c0 a4 4b 9d bc 15 c6 3a bd a5 be 47 bc d9 ae 96 bc
       -0.019201107 -0.045599062 -0.012191449 -0.01839392
0001d0 d6 c2 cc bc f1 ab 6a bc 8c 59 20 bd 1e a3 f2 bc
       -0.024995249 -0.014323221 -0.0391479 -0.029618796
0001e0 ed fd 05 3d 66 22 1f bb 36 4f 2d bd b3 f7 c2 3c
       0.032712866 -0.0024281978 -0.04231187 0.023799753
0001f0 62 6e b5 bc a1 17 58 bd 75 0a f7 b9 5d d0 43 bc
       -0.022147361 -0.05275691 -0.00047119302 -0.011951533
000200 0b 56 ac bc b7 81 20 bd e3 0e 82 3c 03 e3 06 bc
       -0.021037122 -0.039186206 0.01587624 -0.008232835
000210 f5 71 0e bd 5c 90 13 bc 8d 93 2a 3d e8 ab 1c bd
       -0.034776647 -0.009006586 0.04164462 -0.03824988
000220 ba 20 49 bd ef d3 8f bc d0 50 e1 bc 60 c8 2d bd
       -0.049103476 -0.017557113 -0.027504355 -0.04242742
000230 1e 16 cc bc e8 3b c9 3c 51 85 4f bd 30 71 4a bc
       -0.02491289 0.024564698 -0.05066425 -0.012356088
000240 82 d7 37 bc 7c de db bb ee 4c 24 bd 60 40 91 bb
       -0.011220815 -0.006709872 -0.04011243 -0.004432723
000250 8b 68 0a 3b 50 ef 58 3c 64 33 12 bd 56 a3 42 ba
       0.0021119441 0.01324065 -0.03569354 -0.00074248516
000260 35 fa a7 bc a6 f6 73 bc 96 ae 10 bd 1d f5 c2 bc
       -0.02050505 -0.014890349 -0.035322748 -0.02379852
000270 14 b7 96 bc f9 cd 06 bb 31 6b 11 bd 62 74 2a bb
       -0.018397845 -0.0020569547 -0.035502616 -0.002600931
000280 9b df 48 bd 7d b2 83 bd c7 64 5d bd a8 29 8c bb
       -0.04904137 -0.06430528 -0.054051187 -0.0042774267
000290 1a 42 e0 bc bb 00 fb bc 11 1b 55 bd 0c 2b 2e 3d
       -0.02737527 -0.030639997 -0.052027766 0.04252152
0002a0 bc 6c a2 3c c0 07 7e 3c 70 2b f2 bc f5 ea 87 bc
       0.01982724 0.015504777 -0.029561728 -0.016591528
0002b0 89 b1 86 bb de 44 c3 ba 8f 71 66 3d 6c 43 1c 3c
       -0.0041105193 -0.0014897843 0.05626064 0.009537559
0002c0 fb d3 fd bb 8c 48 4d 3c d8 64 11 3a 67 1d 0a bc
       -0.0077462173 0.012529504 0.0005546338 -0.008429862
0002d0 8d b9 21 bc d9 fa 40 3c ea e5 28 3c a1 18 1b 3c
       -0.009870899 0.011778557 0.010308722 0.009466321
0002e0 bd 73 e3 bc c2 39 de 3c 42 0b 1b bd a9 f6 a4 bc
       -0.02776515 0.02712715 -0.037852533 -0.020137148
0002f0 8f 97 eb bc 30 1c 06 3d ba 6a 1a 3d ef 8e a1 bb
       -0.028758792 0.032741725 0.03769944 -0.004930369
000300 5e a8 0e 3c ca f5 2d 3b fa cc 97 3c 9d 4c 10 bc
       0.008707134 0.0026544207 0.018530358 -0.0088073285
000310 2b 1f 48 3d 7d 52 90 3b 44 a9 07 bd d3 ef 05 3c
       0.04885785 0.0044043646 -0.03312041 0.008174854
000320 00 56 7f bc f9 0c a6 3d bf 5f 23 bc 66 af 81 bc
       -0.015584469 0.08107943 -0.009971558 -0.015830707
000330 fb 6b 94 3d 59 c2 6d ba c9 39 ff bb df 9f 5b bb
       0.07247158 -0.00090697926 -0.007788871 -0.0033512039
000340 6d a3 ec 3b 15 0e 84 3c 15 17 fe bc 10 17 b9 bc
       0.0072216303 0.016119996 -0.031016866 -0.022594005
000350 61 b6 a3 bb aa 49 81 3c ec 98 98 ba 90 35 4c 3c
       -0.0049961065 0.015782196 -0.0011642254 0.012463942
000360 43 6d 06 3b 4d 95 ee bc 6f 28 00 bd 5a 6a c7 3c
       0.0020511902 -0.029123927 -0.03128856 0.024342705
000370 2c e3 20 3d 99 54 be 3c 17 9b 90 3c a5 d8 e5 3c
       0.039279148 0.023233699 0.017652078 0.028057406
000380 9c 23 5a bb 0c 4e d8 3c 16 c6 c1 3a cd 6b dd bc
       -0.0033285385 0.026404403 0.0014783766 -0.027028942
000390 df f5 19 bb ed 03 65 38 14 ed 29 bc 14 06 65 bc
       -0.0023492498 5.460151e-05 -0.010371465 -0.0139785
0003a0 6f cd e7 bc 02 c9 e9 3b 59 3a d1 bc e1 fc 02 3c
       -0.0282962 0.0071345577 -0.025540518 0.007994861
0003b0 49 f4 d9 3c f2 b5 d3 3c 71 78 a3 3c 9a f8 3e 3c
       0.026605742 0.025843594 0.019954892 0.011655951
0003c0 54 7b 98 3c 7b 46 d4 bc 49 f2 a6 3c f8 21 3a 3b
       0.018613495 -0.025912514 0.020379202 0.0028401595
0003d0 ec 00 45 bc b5 20 4d ba 19 a5 2d bd ba e4 18 bd
       -0.012024146 -0.0007825003 -0.042393778 -0.037327506
0003e0 30 37 83 bc 25 05 b8 bc f1 a5 67 bd f1 37 d9 bc
       -0.016017526 -0.02246339 -0.05655474 -0.026515933
0003f0 bc 02 c0 3c eb 33 99 3c 95 9f 3a bc d7 e2 09 3d
       0.023438804 0.018701514 -0.011390586 0.033663597

module.net_sm.layer1.0.bn1.weight f4 [32]
000000 e9 ac 06 3f 3c d0 01 3f f7 73 01 3f 22 5c 09 3f
       0.5260759 0.50708365 0.50567573 0.5365621
000010 5f dd 21 3f 11 96 06 3f be cd f2 3e f1 15 fd 3e
       0.6322841 0.52572733 0.47422594 0.49430802
000020 60 c8 fc 3e 4d 29 0b 3f c2 cc 0c 3f 6a 67 f6 3e
       0.49371624 0.54359895 0.54999936 0.48125774
000030 ff 84 08 3f 2e 21 f9 3e a8 4d fb 3e 82 b2 f8 3e
       0.53327936 0.48658127 0.49082685 0.4857369
000040 64 62 0b 3f f0 27 03 3f 24 6f fa 3e 14 ec fd 3e
       0.5444701 0.51232815 0.4891292 0.49594176
000050 8a 30 05 3f f7 35 0b 3f 5e 02 e9 3e 88 1e 0a 3f
       0.5202719 0.5437922 0.4550962 0.53952837
000060 41 e6 05 3f 13 ce f2 3e 75 43 03 3f 20 d0 fc 3e
       0.52304465 0.47422847 0.51274806 0.49377537
000070 b7 1f 21 3f 1a ac 0a 3f 74 a0 f9 3e 86 92 fc 3e
       0.6293902 0.54168856 0.4875523 0.4933054

module.net_sm.layer1.0.bn1.bias f4 [32]
000000 7a 82 da bb e4 7e b3 bc 47 48 61 bc 5c 17 48 3d
       -0.006668386 -0.021911092 -0.013750142 0.048850402
000010 d3 5d 1f 3d 54 89 5d 3c 23 cb 14 bd 5c b5 86 3c
       0.038907837 0.013521511 -0.03632654 0.0164439
000020 bc b3 fc 3c a9 74 ce bc 0e 49 ee 3d 26 99 6c 3d
       0.030847423 -0.025202112 0.11635028 0.05776324
000030 ea 9a 54 3d 53 8d 19 bd 3b 5c d6 bc 1e c9 5f bc
       0.05190555 -0.037488293 -0.026167026 -0.01365879
000040 1e 78 ce 3c 09 be 51 3d 53 8e 8f bd 67 2e 22 bd
       0.02520376 0.051206622 -0.07009568 -0.039595034
000050 45 bc d7 bc d7 6e 70 3d 93 f4 71 3c e0 67 8b 3d
       -0.026334891 0.058699455 0.014767784 0.06806922
000060 fc ff 78 3c 72 be 52 bd a9 2a c9 3d 51 9d 15 bd
       0.01519775 -0.051451154 0.0982259 -0.03652698
000070 19 ff 16 3d 83 38 fc 3c f5 7d eb 3b c3 08 9f bc
       0.036864374 0.030788666 0.007186646 -0.019413358

module.net_sm.layer1.0.bn1.running_mean f4 [32]
000000 c8 66 17 c0 9b 46 e4 bf 6c 78 6a 3f 9f f5 20 bf
       -2.3656483 -1.7834047 0.9159 -0.6287479
000010 64 76 73 40 e7 57 cc 3e 40 84 ec bf 0e 6d 5a be
       3.804101 0.39910814 -1.847786 -0.21330664
000020 c5 10 11 bf 8c 75 e9 bf 17 c8 c7 3f a0 e4 2b c0
       -0.56666213 -1.8238997 1.5607938 -2.6858292
000030 f4 c7 fc 3f e0 9c f0 bf e1 98 0e c0 95 6f 98 bf
       1.9748521 -1.8797874 -2.228081 -1.1909052
000040 db 7a dd 3f d6 16 64 3f 17 43 ee bf a1 48 03 c0
       1.7303118 0.89097345 -1.8614224 -2.051308
000050 b5 b9 f8 bf 0f 64 0a 40 9e 84 30 3f 5b 7b 00 c0
       -1.9431673 2.162357 0.6895236 -2.007529
000060 dd 4a b5 3f f3 f5 bc bf 6d 55 d2 3f 4a 19 97 bf
       1.4163471 -1.4762558 1.643232 -1.1804593
000070 7a 04 72 40 99 a1 29 40 0f 21 62 3f f3 54 74 3f
       3.7815232 2.6504881 0.88331693 0.9544212

module.net_sm.layer1.0.bn1.running_var f4 [32]
000000 d9 d0 d9 40 72 77 91 40 73 b9 5f 40 4a 84 4a 40
       6.806744 4.5458307 3.495694 3.1643243
000010 82 19 83 41 9a 6b b8 3f 19 04 94 40 3b 72 09 40
       16.387455 1.4407837 4.6255 2.147597
000020 c4 5b 22 40 14 51 90 40 c2 5e 68 40 db 62 1e 41
       2.536851 4.509897 3.6307836 9.899135
000030 4b 80 a5 40 79 e8 98 40 9a 7e d1 40 8d 03 05 40
       5.171911 4.778378 6.5467043 2.0783417
000040 fc 45 8b 40 7e 05 0a 40 f9 92 8c 40 1c a7 ad 40
       4.352293 2.1565852 4.392941 5.426649
000050 45 83 b8 40 42 05 ba 40 a9 74 fc 3f c8 4a bc 40
       5.766024 5.813142 1.9723102 5.8841286
000060 fc 96 4d 40 a2 a5 4d 40 2b 56 67 40 e9 12 0d 40
       3.2123404 3.2132344 3.6146343 2.2042792
000070 ec 1b 83 41 f5 8c 02 41 e7 8b d6 3f dd 90 61 40
       16.388634 8.159413 1.6761445 3.5244668

module.net_sm.layer1.0.conv2.weight f4 [32, 32, 3, 3, 3]
000000 8a d9 52 3c 9f 6f b2 3c 44 bd 60 3c 47 2d cc bc
       0.012869248 0.02178174 0.013716999 -0.024923934
000010 43 56 79 bc 41 c5 de bc ec 93 b4 3c b0 73 c2 3c
       -0.01521832 -0.027193667 0.02204319 0.023736805
000020 6b 69 5e bc c4 72 57 bb 83 46 5a 3d ca 9f db bc
       -0.013574938 -0.0032874802 0.0532899 -0.026809592
000030 7a 85 b8 3c 8a 08 75 3c b2 f9 39 3c fc 38 ea 3b
       0.022524584 0.014955649 0.011351036 0.0071479063
000040 bb 9f 2a bc a4 91 27 bc 6d aa 94 bc 25 8e 0b bd
       -0.010414059 -0.0102275945 -0.018147672 -0.034071106
000050 70 4b 10 3c 00 02 eb bb f4 5d 4d 3c a0 a6 5b 3c
       0.008807048 -0.0071718693 0.012534607 0.013406426
000060 34 1f 57 bd d9 74 2a 3c 27 09 c8 3c 02 86 41 3c
       -0.052519992 0.010403835 0.024418427 0.011811735
000070 da c7 23 3c d1 a1 b8 3c 40 56 5f 3b d3 ba 67 39
       0.009996379 0.022538098 0.0034078509 0.00022099474
000080 a5 5b 2d 3d 62 a3 fe bb 85 4a 2c 3d 3c 96 cc bc
       0.042323727 -0.0077709416 0.042063255 -0.024973981
000090 a8 22 f4 3b a4 22 12 3d 0c c0 27 bb cd bb a1 3b
       0.0074504204 0.035677567 -0.0025596647 0.0049357177
0000a0 a4 39 e0 bb bf 96 aa 3c f1 e4 2b 3d f8 8e fb bb
       -0.006842809 0.020823834 0.041966382 -0.0076769553
0000b0 ed 05 69 3b bc f1 84 3b 1c 96 02 bd 1e 52 c1 bc
       0.003555651 0.0040571373 -0.031881437 -0.023598727
0000c0 4a 5c d2 3c c4 a9 f5 bb 7d c1 2b 3d ff af d6 3b
       0.025678772 -0.0074970443 0.04193257 0.006551742
0000d0 f0 f7 f6 3c 09 fa f9 3c b7 ed 6c bc ae 51 16 3d
       0.030147523 0.030514734 -0.0144609725 0.03669899
0000e0 49 33 ec 3c c9 4e 45 bd 0c bc b9 bc 77 4e a5 3a
       0.028833048 -0.04817084 -0.022672676 0.0012611885
0000f0 d5 4a 70 3c 05 00 12 3d 3d a7 4a 3a 67 03 0e bd
       0.014666279 0.03564455 0.0007730609 -0.034671213
000100 34 98 d1 bb c3 fa 36 bd be 82 2b 3c 62 54 40 bc
       -0.006396318 -0.04467274 0.010468183 -0.011738868
000110 84 4f 64 3c a0 6e 16 3d 27 73 f4 3c 6b 61 67 3d
       0.013934974 0.036726594 0.029840065 0.05648939
000120 f0 a8 56 3c d7 e3 2c bd 77 56 5a bc fc 10 2c bb
       0.013101801 -0.042209473 -0.013326279 -0.002625524
000130 5c 58 cc 3c bc 2a 2b bd 48 ca e8 3b 58 2c d5 3c
       0.024944477 -0.0417888 0.007104192 0.026022121
000140 a9 09 a7 3b 97 54 3f bc 46 0b 9c bc 94 fa b2 3c
       0.005097587 -0.011677883 -0.019048344 0.021848
000150 73 30 94 bb 4b 5b 68 3c 0b df d0 3a ea d0 d2 3c
       -0.004522377 0.014181922 0.0015935613 0.025734384
000160 a7 24 01 bd 9a d0 04 3d 92 a3 cb bc b6 86 a8 bb
       -0.031529095 0.0324255 -0.02485827 -0.005143012
000170 01 8c 51 3d 87 26 33 3d 7d 4a a4 bb ae d3 f9 3b
       0.05115891 0.043737914 -0.0050137625 0.007624111
000180 66 26 81 3d 2b d0 45 bc d1 12 da bb 8d 2b ce bb
       0.06306152 -0.012073557 -0.006655075 -0.0062918128
000190 54 e9 76 3c 37 8b 8c 3c 15 4c 35 3c 15 67 42 3d
       0.015070278 0.017156227 0.011065503 0.047461588
0001a0 4d 0d 88 3c d2 a0 e9 bb f5 3a 05 bb 6a 75 cd bb
       0.016607905 -0.007129767 -0.002032933 -0.0062701004
0001b0 9a c6 0d 3c eb b9 72 3c 04 d6 66 3b f6 53 2b bd
       0.008653307 0.014814834 0.0035222778 -0.04182812
0001c0 3d 70 71 bc 06 6b 37 bd 0b 4e ce bc 26 dd 8d bb
       -0.014736232 -0.0447798 -0.025183698 -0.0043293415
0001d0 32 72 40 bd 76 be 1f 3b dd 13 21 bc 92 e1 c4 bb
       -0.046983905 0.0024374998 -0.009831396 -0.0060083354
0001e0 71 d2 fd bc ed 24 d2 bc e2 48 f4 bc 7c 21 4b 3b
       -0.030984135 -0.025652373 -0.02981991 0.00309953
0001f0 a2 00 c3 3c 31 a9 08 3d 3e db 91 bc 3a d4 86 bc
       0.023804013 0.03336448 -0.017804738 -0.01645862
000200 e6 f1 9b bc 12 18 6d bd 33 11 dd bc 8b 7d 43 bd
       -0.019036245 -0.057884283 -0.02698574 -0.04772715
000210 95 ed 4b bc ef 9a df bc 6c 7f 1b bb 9c 74 00 bd
       -0.012446781 -0.027295558 -0.0023727072 -0.031361207
000220 2f e1 24 3c ba e7 72 bd 3a 64 e5 bc 3c b3 91 bc
       0.010063454 -0.059303023 -0.028001893 -0.01778566
000230 a7 55 98 ba d2 81 4a bc fe 2d c6 3c 44 c6 23 3c
       -0.0011622206 -0.012360053 0.024191853 0.009996001
000240 0e 5d 2f bd f2 98 25 3d e6 bb 79 bc 61 08 50 bc
       -0.042813353 0.040429063 -0.015242552 -0.01269731
000250 2d 53 29 3a 43 87 74 bd d2 a3 85 3c ad f8 0e bd
       0.00064592325 -0.059699308 0.016313467 -0.034905124
000260 60 2a 08 bd a7 b4 43 bc 4f 87 0a bc 99 b3 df 3c
       -0.033243537 -0.011944926 -0.008455112 0.027307319
000270 1a fe f1 3c 83 08 31 bc 76 25 09 3d 6c c5 1a 3c
       0.02954011 -0.010805252 0.03348299 0.009446483
000280 fd b3 b4 3c c1 2a 2b 3d d8 44 2a bb e4 12 90 3c
       0.022058481 0.04178882 -0.0025980975 0.017587133
000290 c4 71 08 3d 5f 47 65 3c c4 47 ec 3c db 9c ca 3c
       0.03331162 0.013994067 0.028842814 0.024732998
0002a0 f4 cc 1f 3a c3 f1 b3 3c ff 97 2f bd d1 4c 51 3c
       0.0006095909 0.021965867 -0.042869564 0.012774662
0002b0 8e 8d 0a 3b 56 ca e6 bc a6 24 04 bd a0 4e 0c bc
       0.0021141502 -0.028172653 -0.032261513 -0.008563668
0002c0 af b6 d1 3c d7 2c c1 bc 4a ab ff 3a f1 40 11 3c
       0.025599806 -0.023580952 0.0019506004 0.008865581
0002d0 77 0c d4 bc 56 75 c9 bb e9 a2 4a 3d 51 3a a8 3c
       -0.02588485 -0.0061480207 0.04947177 0.02053562
0002e0 62 0e 41 3d 5b 12 37 bd bc 16 02 3d ea 0b dd 3c
       0.047132857 -0.04469524 0.031759962 0.02698322
0002f0 a4 8a 69 3d 48 d8 f2 3b 51 28 1f bd c2 8a a0 3c
       0.057016984 0.0074110366 -0.038856808 0.019597415
000300 55 50 c4 bc 74 de 80 bc 16 58 f5 3c 62 c0 00 3d
       -0.023964087 -0.015731074 0.02994923 0.03143347
000310 90 19 44 3c 34 b9 db b9 9b 49 cf bc 3b 64 b9 3b
       0.011968985 -0.00041908922 -0.025303653 0.0056577004
000320 c4 63 9f 3c 60 61 17 3d a7 b1 ba 3c 64 90 da bc
       0.019456752 0.0369581 0.02278979 -0.026680179
000330 16 c8 30 3d ce de c6 3b 3e 49 f4 3b 8b 27 31 bd
       0.043159567 0.006069041 0.00745502 -0.0432506
000340 9f c5 37 3c e2 b0 e5 bb ea 1e 8e bc cd bf 63 3c
       0.01121655 -0.0070096115 -0.017348725 0.013900709
000350 d5 d0 d4 bc 3f fe bd 3c 52 a9 c5 3c be 30 75 bb
       -0.025978485 0.023192523 0.02412859 -0.0037413086
000360 fb e9 89 3b 80 3e e0 3c 4e 75 18 bd 3b 0d c6 bc
       0.004208801 0.027373552 -0.037221245 -0.02417623
000370 ea 9e df bc 1b 7f 17 3d a2 52 c4 bc 1d 70 cd 3b
       -0.027297456 0.03698645 -0.023965184 0.0062694685
000380 cb a6 39 bd 82 c0 0c 3d de f1 ff b9 c4 c2 0f bb
       -0.04532508 0.034363277 -0.00048817595 -0.0021936158
000390 f0 c0 cf bc c2 02 9f bc fd 96 e8 bc b6 0c 35 bd
       -0.025360554 -0.019410495 -0.02839231 -0.044201575
0003a0 c0 88 31 3c b2 53 08 bd be d0 f8 bc 64 46 39 3c
       0.010835826 -0.033282943 -0.030372974 0.011308286
0003b0 a8 78 8b bd 11 b7 88 bb 9e 7f 61 3c 92 83 ff bc
       -0.06810123 -0.004172214 0.013763336 -0.031190667
0003c0 cf 33 c0 3c 25 cf 0c bd 8b 22 4d bd b2 5a 97 b7
       0.023462204 -0.034377236 -0.05008177 -1.8042836e-05
0003d0 c1 76 31 ba 03 8d 9d 3d 52 19 cf 3c 15 e4 07 3d
       -0.000676971 0.076929115 0.025280628 0.0331765
0003e0 ce 6d 6a 3d 9f 2e 36 3d 6d 9a 70 3c 55 67 04 bd
       0.057233624 0.044478055 0.0146852555 -0.032325108
0003f0 73 fa b2 3c 3c 27 90 3c e2 77 2f bd 7c 69 e5 3a
       0.02184794 0.017596833 -0.04283894 0.001750275

module.net_sm.layer1.0.bn2.weight f4 [32]
000000 c4 b5 07 3f 93 6a 0b 3f 09 3e f9 3e e6 03 a3 3e
       0.5301173 0.54459494 0.48680142 0.31838912
000010 eb b5 b8 3e 8f 1f 10 3f 01 6d 06 3f 94 23 08 3f
       0.36076292 0.56298155 0.52510077 0.5317929
000020 07 88 dc 3e 12 b5 ff 3e 67 cc a3 3e 72 68 09 3f
       0.4307253 0.49942833 0.31991884 0.53674996
000030 72 16 05 3f b3 80 03 3f b1 b3 00 3f cb 6f 0b 3f
       0.51987374 0.51368254 0.5027419 0.5446746
000040 29 11 f1 3e 63 8d 0b 3f 65 0f cf 3e ed c4 b9 3e
       0.47083405 0.54512614 0.40441433 0.36283055
000050 dd b7 f9 3e fe 73 08 3f 76 bb 0e 3f 94 5b fe 3e
       0.4877309 0.5330199 0.5575479 0.49679244
000060 b7 e8 1a 3f 5b 89 be 3e 8b 50 02 3f 6e 47 a0 3e
       0.60511345 0.3721417 0.5090415 0.31304497
000070 d4 51 17 3f fa 4b 92 3e bb 1c f7 3e 91 c8 04 3f
       0.59109235 0.2857359 0.48264107 0.5186854

module.net_sm.layer1.0.bn2.bias f4 [32]
000000 05 99 ab 3b 98 cd 31 bc cb 60 14 3c 33 35 fc bc
       0.005236747 -0.01085224 0.00905628 -0.030787086
000010 7d 44 36 bd 78 7e 92 3b 3a e8 5c bb b1 55 49 bd
       -0.04449891 0.0044706427 -0.0033707754 -0.049153987
000020 f2 39 18 bc b8 5d d4 bc d4 f3 7a bc 8a 5c 69 3a
       -0.009291159 -0.025923595 -0.015316922 0.0008902034
000030 3b d5 ba 3b 55 d1 01 3c b2 e1 ff 3b 34 e2 08 bc
       0.0057016886 0.007923444 0.0078088874 -0.008354712
000040 ec 96 39 3c 2f 60 8c bc 5e 63 39 bc de 3c 5e 3c
       0.0113274865 -0.017135708 -0.011315195 0.013564317
000050 83 c5 d0 3a 3e e3 21 bd 5a a7 d9 3b be 57 4c 3a
       0.0015928004 -0.039523356 0.0066422643 0.0007795057
000060 b5 75 28 bc ef bf 2c bd cb 5e cb 3b 64 05 46 3b
       -0.01028197 -0.04217523 0.0062063686 0.0030215615
000070 ab 03 8a bc 60 48 91 3c 38 c2 aa bb 90 44 71 bc
       -0.016847452 0.017734706 -0.005211141 -0.014725819

module.net_sm.layer1.0.bn2.running_mean f4 [32]
000000 5f cf 17 bf d0 99 27 bf 83 be 82 bf a4 af 1e 3f
       -0.593008 -0.65469074 -1.021439 0.61986756
000010 08 24 0d 3f fb 14 9b be 2c 3a 35 bf 16 e9 d0 be
       0.55133104 -0.30289444 -0.7079189 -0.4080283
000020 93 27 58 bf fe 46 27 bf b3 03 02 3c db 79 2b bd
       -0.84435385 -0.653427 0.007935452 -0.041864257
000030 f1 41 09 bf 5e 57 82 be 99 02 c4 be b5 03 79 be
       -0.53616244 -0.2545728 -0.38283232 -0.2431782
000040 26 34 21 bf 79 0e c1 3c ae 14 9b 3e 0e 2d 6d be
       -0.629702 0.023566471 0.30289215 -0.23161718
000050 f2 a7 08 bf 95 6f 65 bf fd a4 d8 be 43 10 3a bf
       -0.53381264 -0.89623386 -0.42313376 -0.72681063
000060 ff 73 dc be 36 fd 28 3e bb 0b 79 be 50 01 27 bd
       -0.43057248 0.16502842 -0.24320881 -0.040772736
000070 89 58 b2 be 1c a0 9b bb 31 c5 2b bf 3d 4d 1b bf
       -0.34833172 -0.004749311 -0.67097765 -0.6066473

module.net_sm.layer1.0.bn2.running_var f4 [32]
000000 e3 4f f3 3f 26 2f 9c 3f fa 64 2a 40 19 90 02 40
       1.9008754 1.2201889 2.6624131 2.040045
000010 ee 7d 96 3f cc 30 be 3f a7 c4 02 40 5f 1b 5d 3f
       1.1757181 1.4858642 2.0432527 0.8636989
000020 e5 d5 da 3f 95 37 22 40 70 4e ff 3e de 17 76 3f
       1.7096525 2.5346425 0.4986453 0.9613017
000030 78 9f ca 3f a2 be cd 3f 12 55 ba 3f 77 69 83 3f
       1.5829916 1.6073802 1.4557211 1.026656
000040 21 a8 a9 3f 8f aa f5 3f cb 2e 09 40 6f ef 50 3f
       1.3254434 1.9192675 2.143481 0.81615347
000050 98 27 b8 3f 69 74 87 3f 3b b7 ee 3f 0a 14 df 3f
       1.4387083 1.05824 1.8649668 1.742799
000060 69 8a 34 40 42 f8 a1 3e 3a 17 b0 3f 05 1f 86 3f
       2.820948 0.31634718 1.3757088 1.0478216
000070 a7 b7 d5 3f e5 df 6c 3f df b8 70 3f 54 bc b7 3f
       1.6696671 0.92529136 0.9403209 1.4354348

module.net_sm.layer2.0.conv1.weight f4 [32, 32, 3, 3, 3]
000000 25 92 f5 3c cc 08 3c bd b1 99 c3 bc 4c be 26 3c
       0.029976914 -0.045906827 -0.023876997 0.010177206
000010 b5 2a fa bc d0 37 5a 3c 80 58 88 3b e3 3d 77 bd
       -0.030537942 0.013318971 0.0041609406 -0.060361754
000020 66 e1 ba bc 6c c3 6b bc b8 b6 32 3d 52 0b 2c bc
       -0.022812556 -0.014389854 0.043631285 -0.010500746
000030 c9 bd 2c 3c 18 31 fa 3c ff 1c 26 3b bc 5c 49 bb
       0.010543295 0.030540988 0.0025346873 -0.003072544
000040 35 d0 ac bc 0c 7b c9 3c 79 1f 2d 3d af 99 ae 3d
       -0.021095375 0.024594806 0.042266343 0.085254066
000050 c0 f7 15 3c 1f 2c 94 3c b3 03 8f 3d 98 c0 af 3c
       0.0091533065 0.018087445 0.069831274 0.02145414
000060 97 72 1a 3d b1 64 e3 3c 8b 8f 6d 3d b3 5a bf bc
       0.037706938 0.027757974 0.05799822 -0.023358678
000070 b7 aa 91 bc c3 38 77 3c e7 98 d8 bc 6f a8 d0 bc
       -0.017781598 0.015089217 -0.026440097 -0.02547094
000080 a8 83 55 bc 3a f8 12 bd bc c8 ae ba 87 a3 67 3c
       -0.013031878 -0.03588126 -0.001333497 0.014138109
000090 28 6b ac bc 5a c8 c1 bb 4e e9 16 bd 72 bb 16 bd
       -0.02104719 -0.0059137763 -0.03684359 -0.036799856
0000a0 cf f1 94 3c c7 86 2d 3c be 3a 31 bc 93 6b fd bc
       0.01818171 0.010591215 -0.010817228 -0.030935084
0000b0 0a dd 17 3d b0 51 3c bd b4 29 dd bc 76 b3 21 3c
       0.037076034 -0.04597634 -0.026997425 0.009869447
0000c0 34 aa d7 3b 79 f4 8d 3b e0 1a 0a 3b c1 d6 19 bc
       0.006581569 0.004332122 0.0021073148 -0.00938958
0000d0 02 d2 10 bc d2 8a f3 bc a1 f3 01 bd 70 7d 1c bc
       -0.008839132 -0.02972928 -0.031726483 -0.009551391
0000e0 22 34 08 3c cb 14 5b bc 7e 4f 55 3b df 4d 11 bd
       0.008313211 -0.013371657 0.0032548602 -0.035474654
0000f0 e5 df d4 bc dc b5 33 3c bd d0 15 bc 67 6e d3 3b
       -0.025985667 0.010968652 -0.009144005 0.00645237
000100 93 b9 84 3c 79 65 4f 3c 2b 51 48 bd fc e5 0d bd
       0.01620177 0.01265847 -0.048905533 -0.03464316
000110 45 28 84 3c 1c a7 af bc 43 84 14 bc 0d 0e 01 3d
       0.016132483 -0.021441989 -0.009064737 0.03150754
000120 08 9c 16 3d ed c2 e9 3b 45 63 c5 3c 42 59 66 3b
       0.036769897 0.0071338327 0.024095187 0.0035148417
000130 70 43 47 bc 58 ed b2 3c 5d 71 04 3d 8d 5b 57 bd
       -0.012162074 0.02184169 0.032334674 -0.052577544
000140 da 12 29 3d b7 ca 6c bc 25 fe 80 3b 19 05 0a 3b
       0.041277744 -0.014452628 0.0039365464 0.0021060167
000150 c5 3b a3 3b a8 d6 82 3c 3b 77 0b bc ea 4a 22 3d
       0.0049814903 0.015971497 -0.0085123135 0.039622225
000160 3e 19 d4 3c 75 85 1a bc f7 8e 29 bc fe a6 39 3c
       0.025890943 -0.009431233 -0.010349027 0.011331318
000170 b9 a6 e1 3c 0f 00 06 bc 4e 44 28 bb f1 40 6a 3a
       0.02754532 -0.008178725 -0.0025675478 0.00089360686
000180 5b 4d 37 3c 8b 8f f2 3b bf 9c a9 3c f5 06 28 bd
       0.011187877 0.0074023656 0.020704625 -0.04102226
000190 d3 70 01 bd 33 4d 2d bc 3f 83 6f bc 43 9c c4 3c
       -0.03160174 -0.010577488 -0.014618694 0.024000293
0001a0 3a bd 14 3d 1c 69 6c bc 95 7e e1 3c ca a8 e1 bc
       0.036313273 -0.014429357 0.02752618 -0.027546305
0001b0 42 18 41 3b 56 33 09 3b 61 47 72 3c d9 34 c8 bc
       0.0029463922 0.002093514 0.014787526 -0.024439262
0001c0 a7 c2 7d bb 61 6e 2e 3c 0c 32 0a bd ec c4 40 bd
       -0.0038720758 0.010646434 -0.033739135 -0.0470628
0001d0 f9 37 bd bb 06 f4 7d bc 3d 84 05 bd d6 7e 87 bc
       -0.0057744947 -0.015500074 -0.032596815 -0.016539972
0001e0 fd 2e 9e bd 7c 3d 10 bd 9e 9f 99 bc 98 ef 7c bd
       -0.07723806 -0.035214886 -0.01875287 -0.061751932
0001f0 e8 62 c9 3c 3d 38 4d bc 55 67 f3 bc 95 f9 a0 bd
       0.024583295 -0.012525615 -0.029712358 -0.07860104
000200 50 aa 2c bd 5a a8 97 bd d2 18 74 bd c4 97 82 bd
       -0.04215461 -0.074051574 -0.059593983 -0.06376603
000210 0d 93 3c bd 04 7b 22 bd 7f 23 47 bd 12 f9 1a 3c
       -0.046038676 -0.039668098 -0.048617836 0.009458797
000220 99 24 87 bc 98 24 3b bd 23 2f af 3b 65 39 6e bb
       -0.016496943 -0.045689195 0.0053461953 -0.0036350128
000230 fc c5 8c bb e8 4f 0d bd 49 b7 c1 bc 85 c7 d4 3c
       -0.0042960625 -0.034500033 -0.023646967 0.025974045
000240 e6 5d f9 bc 40 c8 9f bc 7d f4 8c bb e1 7c 59 bd
       -0.030440282 -0.019504666 -0.004301606 -0.05309761
000250 10 b3 c5 bc 39 c3 49 3c d4 8b 7c bd 1d 43 4a bd
       -0.024133235 0.012314611 -0.061656788 -0.04938041
000260 5f 90 65 bd b4 71 66 39 88 a7 63 bc 88 32 66 bc
       -0.056045886 0.00021976867 -0.013894923 -0.0140501335
000270 00 64 2c bd fa 1a 56 bc fc 1d db 3a c1 8a 82 bc
       -0.042087555 -0.013067955 0.001671731 -0.015935304
000280 9e 06 06 bd d9 cf 6b 3b a6 34 97 3b 53 24 15 ba
       -0.032721154 0.003598204 0.0046144305 -0.00056893117
000290 69 01 17 bb ff 55 40 bc 47 27 ca bc c2 62 21 3b
       -0.0023041612 -0.011739253 -0.024676932 0.0024625515
0002a0 0c 12 ed 3c fe 90 f2 3b 62 f5 d1 3c 0a a4 3a 3c
       0.02893927 0.0074025383 0.025629703 0.011391649
0002b0 6c a5 c8 3c 1a 5a 25 3d 5b ec 93 3d d6 44 4d 3d
       0.024492942 0.04036913 0.072228156 0.050114475
0002c0 ea 9d df 3c b5 7a 3f bc 6c e6 a2 3c fd ec 40 3d
       0.027296979 -0.0116869705 0.019885264 0.04710101
0002d0 40 b8 35 3d 4c a9 cc 38 ae 22 2d 3d c3 49 3e 3d
       0.044365168 9.759012e-05 0.0422694 0.046457063
0002e0 6b e3 e6 3c 11 7f fe bb 9c 48 97 3c 89 fd c2 3c
       0.028184613 -0.0077666123 0.01846724 0.023802536
0002f0 c4 14 9d 3c f6 bd f4 bc f7 9c a6 3c 2e 9e db 3c
       0.01917494 -0.029875737 0.020338519 0.026808824
000300 43 6d 37 3c fe d1 9c 3c 1c 10 02 3d ce 92 37 bc
       0.011195484 0.0191431 0.031753644 -0.011204435
000310 62 a8 9c 3b 68 03 96 bc 34 e7 62 bb 6c 80 95 bc
       0.004780815 -0.018312171 -0.003462267 -0.018249713
000320 4a b3 50 3c 6f 17 9d bd ca 2d a0 bc 86 df 68 3c
       0.012738058 -0.07670485 -0.019553084 0.014213448
000330 31 2c 7f bd 2c 6d 2c bd 0c 57 6f bd 94 f0 25 bb
       -0.062298004 -0.042096302 -0.058432624 -0.0025320398
000340 af 68 14 3c d8 f9 66 3c b1 aa f2 3b 41 b6 29 bd
       0.009058162 0.014097653 0.007405602 -0.041433576
000350 fc 99 0d bc e5 21 1a bc 94 e4 5f bd 88 12 f1 3c
       -0.00864267 -0.009407495 -0.05466135 0.029427782
000360 47 43 bd bc 59 98 35 3c dc 32 49 bd a7 43 a6 3c
       -0.02310337 0.011083686 -0.04912077 0.020295931
000370 a4 f2 9e 3c f7 d1 61 3c 0d 51 2a 3d c8 cc 9f 3b
       0.01940281 0.01378297 0.041581202 0.0048767067
000380 cc d4 41 3c 90 9b 85 3a ee 1a 63 3d 46 cf e1 bb
       0.01183052 0.0010193456 0.055445604 -0.006891164
000390 7c 6b cf bc ef e4 05 3b d4 ec b5 bb 8e 24 14 3d
       -0.025319807 0.0020430645 -0.0055519138 0.036167674
0003a0 2f ca 9f 3c d7 07 ae 3c d5 e6 d9 bc e6 f9 16 bc
       0.019505588 0.021243973 -0.026599327 -0.009214854
0003b0 13 6d b9 3c 2a 6d 70 3d 93 a2 8d 3c 04 9e cc ba
       0.022635018 0.058697857 0.017289435 -0.0015611057
0003c0 3b 2a 02 3c 61 9a 3a 3d cc 10 14 bc 83 0f 76 3c
       0.007944639 0.045557383 -0.009037208 0.015018347
0003d0 a5 78 06 3c d2 02 14 3b 2a 2c c9 bc 80 ab 3c bc
       0.008207475 0.002258469 -0.024557192 -0.011515498
0003e0 f0 19 bb bc 4d e5 14 3d 7d 59 74 3c a0 66 ee bc
       -0.022839516 0.03635149 0.014913914 -0.02910167
0003f0 00 36 75 3b b7 f7 fb bc 14 b1 9f bc f7 65 1b 3d
       0.003741622 -0.030757768 -0.019493617 0.037939038

module.net_sm.layer2.0.bn1.weight f4 [32]
000000 c5 e4 19 3f 0c 08 0b 3f ca 2d 0c 3f 6d ca 02 3f
       0.601147 0.54309154 0.5475737 0.5109013
000010 f1 54 fb 3e a3 90 01 3f ea 64 0b 3f 99 43 16 3f
       0.49088243 0.50611323 0.5445086 0.58696896
000020 c1 e2 01 3f 83 7d fc 3e 31 9e fe 3e 43 13 05 3f
       0.50736624 0.49314508 0.49730065 0.51982516
000030 92 af 06 3f e0 d3 02 3f 43 f2 e4 3e 37 bf 02 3f
       0.5261165 0.51104546 0.4471608 0.5107302
000040 11 58 d9 3e dd a3 f2 3e c5 bd 01 3f 74 f8 03 3f
       0.42450002 0.47390643 0.5068019 0.51550984
000050 6b 50 f9 3e e1 39 0e 3f f0 48 0a 3f 9d 80 02 3f
       0.48694167 0.55557066 0.54017544 0.509775
000060 8e 25 04 3f ff 63 e1 3e 1e 5a 0d 3f 30 3e 05 3f
       0.51619804 0.44021603 0.5521563 0.52048016
000070 d5 0e 02 3f 3a 29 08 3f ce c8 0c 3f 3c 78 0e 3f
       0.5080388 0.53187907 0.54993904 0.55652213

module.net_sm.layer2.0.bn1.bias f4 [32]
000000 7e cf b4 3d 9d 6a 12 3d dd 16 3a 3d b2 1e d0 3c
       0.088286385 0.035746206 0.04543196 0.025405262
000010 09 bf 2d bb a5 7b 3a bc 01 50 85 3b b4 6c 65 39
       -0.002651157 -0.011382018 0.004068375 0.00021879637
000020 36 a9 95 3c e6 18 94 3c e5 64 a5 3c 59 38 0a bd
       0.018269163 0.018078279 0.020189712 -0.033745144
000030 8d 7a d8 3b eb a9 e4 bc 52 eb 6a bc 78 0f ac bc
       0.006606406 -0.027913054 -0.014338331 -0.02100347
000040 be bb 72 bd e6 b8 d9 3c d5 9d 03 3d bf 31 29 3c
       -0.059261076 0.026577424 0.032132942 0.010326802
000050 00 ed 07 bd 10 04 5c 3c 02 52 a9 bb 5b 03 1a 3c
       -0.033185005 0.013428703 -0.005167247 0.009400214
000060 75 89 d7 3c a5 db 9c bc a0 78 10 bc 16 2e cd 3c
       0.026310662 -0.019147703 -0.008817822 0.02504639
000070 4c 7d 2a bc 23 61 d1 bb 95 5f 5b 3d 1d 57 71 3d
       -0.01040585 -0.0063897534 0.05355795 0.05892097

module.net_sm.layer2.0.bn1.running_mean f4 [32]
000000 84 9f c8 3f 0b 85 5c c0 ee 05 f4 3f dd db 21 c0
       1.567368 -3.4456203 1.906431 -2.5290444
000010 12 08 90 3f 2f 50 0d c0 ed 9b 48 40 20 eb fa 3f
       1.1252463 -2.208019 3.134517 1.9603004
000020 c9 4f 33 c0 fe eb e6 3e 1a d1 15 40 6b 13 c7 3f
       -2.8017447 0.45101923 2.3408875 1.5552801
000030 e6 c7 3f c0 26 53 86 be 33 a3 df 3f a9 c3 37 3f
       -2.9965758 -0.26235312 1.747168 0.7178293
000040 3a 70 a9 bf 82 aa 31 40 e0 7c 81 bf a1 02 9f bf
       -1.3237374 2.776032 -1.0116234 -1.2422677
000050 4c de ff bf 05 46 c5 bf bf fd af be 17 33 8a c0
       -1.9989715 -1.5411993 -0.3437328 -4.3187366
000060 61 63 ed 3f f6 6c 18 40 95 46 f8 bf 86 59 e2 bf
       1.8545953 2.3816504 -1.939654 -1.768357
000070 77 fd 64 be 34 c7 9d 3f c8 5c d6 bf e1 42 b5 3f
       -0.22362314 1.2326417 -1.6747065 1.4161035

module.net_sm.layer2.0.bn1.running_var f4 [32]
000000 d0 4d 09 40 02 d3 cc 40 06 92 e4 3f 32 f4 a3 40
       2.1453743 6.400758 1.7857063 5.123559
000010 5c 75 9d 40 07 e8 19 40 5f ef f1 40 bb 1e 76 40
       4.920576 2.4047868 7.56047 3.8456256
000020 eb 9f 8b 40 f2 39 b6 3f 9b 83 87 40 89 09 a1 3f
       4.363271 1.4236434 4.234815 1.2581035
000030 df 70 a7 40 ac 74 09 40 f7 cf 5f 40 44 2d 8f 3f
       5.232528 2.147746 3.4970682 1.1185689
000040 7d ed aa 3f 9a 7b a3 40 70 6b ed 3f 71 b6 b6 3f
       1.3353726 5.108838 1.8548412 1.4274427
000050 43 98 39 40 a8 da 96 3f 4a 31 f9 3f 1c 73 09 41
       2.8999183 1.1785479 1.9468167 8.590603
000060 06 79 f8 3f 02 fb 90 40 d7 53 c1 3f e2 d9 23 40
       1.9411933 4.5306406 1.5103711 2.5601735
000070 4a 70 84 3f 4d af e6 3f 60 32 ea 3f 7d 30 cf 3f
       1.0346768 1.8022248 1.8296623 1.6186672

module.net_sm.layer2.0.conv2.weight f4 [32, 32, 3, 3, 3]
000000 4f b4 bd 3c 5e 23 a8 3c 17 f8 5e bd 62 ad 2e bd
       0.023157267 0.020524677 -0.054435816 -0.04264582
000010 6e e6 ca 3b 7d fc 8d bc af a4 1d bd eb fe 03 bd
       0.00619202 -0.01733231 -0.038487133 -0.03222553
000020 f7 31 55 bc 98 6e 2c bb e2 74 2c bd b9 e1 9d bb
       -0.013012401 -0.0026311036 -0.042103656 -0.004818168
000030 0e 83 0b 3d 22 78 ab bd 6d a4 8a 3b 50 8d 26 3b
       0.03406053 -0.08372523 0.004231027 0.0025413819
000040 8e b0 fc bb 13 9b 50 bd 5f 16 76 bc f9 af e4 3b
       -0.0077114766 -0.05092914 -0.015019982 0.0069789854
000050 e4 c7 69 bc 70 72 30 bd 1b b1 03 bd 44 ce cd bc
       -0.014268849 -0.043077886 -0.032151323 -0.02512277
000060 a6 df 3c bb fd 3c 15 3d 33 3c 48 bd 25 df 9d bc
       -0.0028819828 0.036435116 -0.048885535 -0.019271443
000070 14 61 0f bd 37 56 fd b9 a2 5c 45 bc 25 29 bb bb
       -0.03500469 -0.00048320155 -0.012046011 -0.005711692
000080 f5 c6 a3 bb fd a7 43 3c cf ac 80 bd de e3 38 bc
       -0.0049980828 0.011941907 -0.062829606 -0.0112847965
000090 a0 b8 9e 3c f9 7d d2 3a e6 7b 34 3d 36 92 12 3d
       0.019375145 0.0016059271 0.04406347 0.03578397
0000a0 6f 0c 42 3c cd 0d 63 3d 71 06 57 3d 2c 2c 84 bc
       0.011843785 0.055433083 0.052496377 -0.016134344
0000b0 64 b7 25 3c e4 a1 55 bc b3 cd db bc 01 6d 78 3b
       0.0101145245 -0.013039086 -0.026831483 0.0037906768
0000c0 a9 f1 7b 3c 43 98 98 3c 38 ea d4 3c 67 17 04 bd
       0.0153774405 0.018627292 0.02599059 -0.03224888
0000d0 1e bc d7 bc 06 64 c0 3c 60 40 84 bd d8 0e 02 bd
       -0.026334818 0.023485195 -0.06457591 -0.031752437
0000e0 dc 84 1a bd 6f 54 68 bd 73 76 38 3d ab d6 21 bd
       -0.03772436 -0.056721147 0.045034837 -0.039511364
0000f0 28 5c d7 3b 90 1b e5 3c 23 f5 35 bd f1 52 89 39
       0.006572265 0.027967244 -0.044423234 0.00026192472
000100 ab 34 33 bd ad e3 45 bd 01 59 8a bc 7f a9 48 bd
       -0.0437514 -0.04831283 -0.016888143 -0.04898977
000110 14 24 e8 bc 23 f8 a7 3d 4a 1a 86 3d 54 04 d9 3c
       -0.028337516 0.08201625 0.06547983 0.026491322
000120 b1 9e a6 3b bc ce 4e bc ca eb 41 bd dc 85 f1 3a
       0.0050848355 -0.0126225315 -0.047344007 0.0018426734
000130 20 d4 45 bd fd 56 49 bd b8 4c b4 bc ab 11 aa bb
       -0.048298 -0.049155224 -0.022009239 -0.0051900945
000140 56 98 83 bc 33 18 0f bb 0d 35 b3 bc c3 b5 9f bc
       -0.01606385 -0.0021834492 -0.021875883 -0.01949585
000150 80 0a 12 3b 89 c4 28 bb e9 41 6d bd f8 bf 05 3d
       0.002228409 -0.002575191 -0.057924185 0.03265378
000160 3e e8 08 bd 73 72 19 3c f9 2d e9 3b d8 15 41 bc
       -0.03342461 0.009365666 0.007116076 -0.011784993
000170 e3 bd 12 ba 5c 77 99 3d bb e9 b2 3b e6 02 f2 bc
       -0.00055977533 0.07493469 0.0054599917 -0.029542398
000180 15 a3 cf 3d f4 97 c1 bb d7 f2 c3 bb 6f 48 e7 3c
       0.10138527 -0.005908007 -0.0059798765 0.028232781
000190 08 1b ca bc 20 57 66 bc 40 84 04 3c 53 17 83 3d
       -0.024671093 -0.014058858 0.0080881715 0.06400933
0001a0 e3 49 ff bc 6b 99 f6 3c 52 67 85 bd d0 82 3d bd
       -0.031163162 0.030102452 -0.065138474 -0.04626733
0001b0 7f 0b 20 bd 68 01 37 3c a1 91 96 bc 67 26 ce bc
       -0.039073464 0.011169769 -0.018379988 -0.025164796
0001c0 96 ad 98 bc 9e 12 4a bd 25 22 64 3b dd 29 f3 bb
       -0.01863746 -0.04933416 0.003481039 -0.007420762
0001d0 ce a7 32 3d f4 bd 1f 3c e8 fd 67 bc 5a 1b 07 bd
       0.043617062 0.009749878 -0.014159657 -0.03298507
0001e0 dd b2 31 3d 54 4b 47 bd 0e fb 34 bd e2 45 cb 3d
       0.043383468 -0.048655823 -0.044184737 0.099254385
0001f0 a3 51 47 bc 0c 4f 89 bc 4a 56 6c 3c a9 09 c2 bc
       -0.01216546 -0.016761325 0.01442487 -0.023686247
000200 fb e2 3d bd 41 14 72 bd 52 4a a6 3a a4 20 c0 bc
       -0.046359044 -0.059101347 0.0012686944 -0.023453064
000210 8e 76 82 bd ae f8 09 3c 08 8f 4f bd e8 73 27 3d
       -0.06370269 0.008421106 -0.050673515 0.04088202
000220 22 11 da bc 77 57 d1 3c a8 f2 ab bc 6b 71 41 bb
       -0.026619498 0.025554402 -0.020989731 -0.0029517065
000230 69 f4 66 3d 9a 53 31 ba 94 cc 0c bd 08 2d 29 bd
       0.05638543 -0.0006764472 -0.03437479 -0.04130271
000240 63 33 cf 3b 43 04 27 b8 3a a7 93 3c 76 fa 80 bb
       0.0063232644 -3.981987e-05 0.018024076 -0.0039361073
000250 13 9d 16 bd a8 e0 19 3c 91 95 2a bd 27 06 c1 bb
       -0.03677089 0.009391941 -0.041646544 -0.005890626
000260 f0 f8 39 3b 42 87 fc 3c 29 7e 55 3c 76 9c 23 3b
       0.0028377138 0.030826215 0.013030567 0.0024965084
000270 d0 70 da 3c 0e 2b 56 bc e7 42 a6 3c 8f e6 71 3c
       0.026665121 -0.0130717885 0.020295573 0.014764442
000280 1b 14 78 bc a6 e4 5e ba 43 a5 1a bc 45 02 26 bd
       -0.015141512 -0.0008502699 -0.0094388155 -0.04052951
000290 d2 9d 80 bc 7a 34 6f bc d5 fd 05 b8 43 29 72 3c
       -0.015700255 -0.014599914 -3.194607e-05 0.014780345
0002a0 4d e8 26 3d 8c 8e d3 3b 0a f4 cf 3c 5a a4 21 bd
       0.040748883 0.006456202 0.025384922 -0.03946338
0002b0 f3 04 6c bd 5f ca be 3b 64 ec 78 bc 34 68 1c 3c
       -0.057621907 0.0058224644 -0.015193079 0.009546328
0002c0 34 5d 5f bc 34 2c a3 3d b9 bd 58 3c 18 5f 59 3c
       -0.013633061 0.079674155 0.013228827 0.013267301
0002d0 2e e3 01 bc db 7d 96 3b 5d 9e ac bd 8c 3f e1 bc
       -0.007927699 0.00459264 -0.08428643 -0.027496122
0002e0 68 fa 67 bd 41 4f c2 bc 9f 12 13 3d 74 8a 3b bd
       -0.05663529 -0.023719432 0.03590643 -0.045786336
0002f0 30 b7 7a bd 7e 9d 1b bd 5c aa 8b bd 35 a1 f3 3b
       -0.061209857 -0.037991993 -0.06819603 0.007434989
000300 10 3c 83 bc f1 1e 5f 3c 68 0e 27 bd 49 4f 43 bd
       -0.016019851 0.013618217 -0.040785223 -0.047683034
000310 92 4e 72 3d f1 b4 cc bd 53 7d 9d bc 05 b3 58 bd
       0.05915696 -0.09995449 -0.019224798 -0.0529051
000320 dd b1 c7 b9 86 19 2a 3d f9 c0 11 3d b0 3b 34 bc
       -0.00038088756 0.041528247 0.035584424 -0.011000559
000330 c2 96 8a 3d 49 bb 3c 3d 60 28 94 bc 08 df f8 bb
       0.06767036 0.046077047 -0.018085659 -0.007594947
000340 7a 55 9a bd 57 f2 2a bd 5a a6 04 3d ad 17 c4 3c
       -0.075358346 -0.04173502 0.032385208 0.02393707
000350 87 84 2f bd 46 40 a4 bd 7a ba 5e bd 94 c5 4a bd
       -0.042850997 -0.08020072 -0.054377057 -0.04950483
000360 b4 1a 0e bd c0 29 00 3d e6 a7 61 3d 1f ee ae bc
       -0.034693435 0.031289816 0.05509176 -0.02135378
000370 3e b1 ad bc 57 f4 81 bb d5 cf 02 3d a2 2e 4a bd
       -0.02120268 -0.003965895 0.031936485 -0.04936088
000380 c1 cc 5b bc 1d 51 17 3d 57 92 29 bd 75 51 dc ba
       -0.013415516 0.03694259 -0.041399326 -0.0016808944
000390 be b9 c5 3c 58 d6 59 3c 30 41 04 ba 44 ee c8 3c
       0.02413642 0.013295732 -0.0005045114 0.024527676
0003a0 87 f3 e1 3c d6 85 e7 3c e0 e6 22 bd e9 c8 22 bc
       0.027581943 0.02826206 -0.03977096 -0.009935596
0003b0 96 50 fe bc fe 7f 0d bc 49 94 e8 bc 7e 02 15 bd
       -0.031044286 -0.008636473 -0.02839102 -0.03637933
0003c0 71 bf a3 3b 89 e4 59 3d 33 a9 90 bc e1 90 34 3d
       0.004997187 0.053196464 -0.017658805 0.04408348
0003d0 17 d5 e5 3c f2 34 40 3d af d7 18 bd cd 11 65 bd
       0.02805571 0.046925493 -0.037315067 -0.05592518
0003e0 27 62 bc 3d 60 11 a1 bc 66 9e 9b bc a8 98 06 3d
       0.091984086 -0.019661605 -0.018996429 0.032860428
0003f0 37 3c 7a bd e1 61 a6 bc b3 19 60 3c 0e 33 13 bc
       -0.06109258 -0.020310344 0.013678002 -0.00898434
