model/model_20200929150300/model_final_hcp_5_0300_sm.pth (torch_old, 974091 bytes, 68 tensors)

module.net_sm.conv1.weight f4 [32, 1, 7, 7, 7]
00000000: 3906 70bc 3089 abbc 3195 9ebc 006b 053d
00000010: 7d36 133d 46ad 97bc 6883 9e3c efba 913b
00000020: f9da bebb fc28 0f3d e286 873d 7df5 b73d
00000030: 5b46 9f3d a6ef 1a3d 33c3 aa38 28c2 303d
00000040: 2cb9 4f3d eb22 733c bcd1 803b a149 723d
00000050: 6ea6 353d f0d5 0a3c 7dbb 4d3d a111 ee3d
00000060: 3ebe d73b dc7f cc3b a779 a33d b183 933c
00000070: b5cc aa3d 4748 573d c0d4 813c 8762 f4bb
00000080: 93f9 c43c 8dbc 343d 347c be3a acbf 9d3d
00000090: 547d 9a3d 6289 713c 1e03 5dbc 9e9b be3c
000000a0: 1edd 003b 3574 19bd 0b32 363d 8aa5 b6bc
000000b0: d214 69bc 3155 a1bc e1b3 b83b db99 f63c
000000c0: d4ac 5dbd 15d3 cc3b 6b70 e13c 8e62 c03b
000000d0: a84b 0bbc 0536 09bd 3f51 c7b8 05c0 d93c
000000e0: 3ebf 95bb 6d7c abbb 9571 543c 77d0 1f3d
000000f0: 0513 cdb9 9ae6 dc3c e42c 323d 0a92 ed3c
00000100: 50b9 c2bc 2275 99bc 8026 fb3c b927 f33c
00000110: 86a3 0d3d 9e77 033d 61e7 243d 3b8b 0fbd
00000120: c345 0fbd 2c6f dcbc 7678 8abc 523f 933d
00000130: bad7 213d bf84 693d 5dbe 5dbb d9fc 823b
00000140: 0c10 3b3c 570c 553c 56e0 433d d04b 973c
00000150: 4ea8 043d 3e6d 123d 0b5a e93c 8d13 09bc
00000160: 9f74 76bc d092 2f3d deeb dd3b 552d 913c
00000170: 81f9 763b 6348 b13c eb9a 84bc d4fc b13c
00000180: b44f 4c3d 3f83 263b 71ee 8e3c 3317 2e3d
00000190: 9062 f43c b7ba 073d f4af 993d 80a5 e13c
000001a0: cb2e 053c 4cb1 d2bc 908a b33c 2e50 da3a
000001b0: 8ef8 f8bc 9b23 853d be72 4c3d 6644 393d
000001c0: ea5f 2a3c bb37 8b3c 1828 eebc 235b 6b3c
000001d0: f250 4d3d c385 c23d 4e81 5b3d 8173 9c3c
000001e0: ed47 3c3d d4a4 ccbc 9525 6bbd 6e88 dcbc
000001f0: 88c0 a13b c138 4e3c 3e2c a43c 6bb0 913d
00000200: 3388 983c a9f6 543c 4b9f 813d 48e4 0e3d
00000210: 3c1d 7fbc 89f1 a83c 4bd3 9d3c 4f31 c23c
00000220: 2528 b13b 6885 ab3c 4cd4 373d c3b3 22bb
00000230: 452d c93c 9c84 4a3c d637 8f3b bbc9 8ebb
00000240: b02a 8f3c d011 f53c 4911 21bd 3d80 003d
00000250: 1a08 d83b edfc 0b3c e8a7 493c 11cc 123d
00000260: 2c60 e43a 8356 233c 7edb e83c 9810 233d
00000270: d1ab 89ba 0faa 1fbd b1db b53b f752 003d
00000280: 12ed 413d 322e 203d cc90 9e3d b90c 5c3c
00000290: e11d 26bd 037a 61bc 47da c53d 3e47 8b3d
000002a0: c30b b53c bc5d 6c3d 5c54 5a3d ac1d aebc
000002b0: 5965 0ebc 556e 043d 73a8 f8bb 9f8a 783c
000002c0: b778 6d3d 48fd 343d 087e 43bd b7aa 5bbc
000002d0: be7d 083b dc96 3cbd b003 7bbc e713 f63c
000002e0: 2ef3 5a3c f228 13bc 9279 953c 68ff 223d
000002f0: 47a3 75bb b4ff eabc 68be 633c e940 1f3d
00000300: 8112 69bb fb80 0ebd 5c19 ed3b 4e3c 343d
00000310: cfa4 1abc 2fb7 64bd e39d 39bd 6e04 e43c
00000320: 7fa5 f63c fb07 a23c acbf ff3b b3ac 43bd
00000330: d2cf 17bd 8bc0 9a39 c16d e3bc 9795 433d
00000340: 5b47 a13d 9a03 643d 0490 de3b 4cd9 e83c
00000350: f241 ff3c 3bcc 773c aae7 b63c 5402 c83d
00000360: deaa 3d3d 5654 2a3d 1213 c53c 11b2 493d
00000370: 7fe5 4b3c 0362 11bc 937c 9b3d c2f1 5b3d
00000380: 07ee a63c 5bf4 fabc cbe5 493d 6ff8 c13c
00000390: ec89 ae3a f0a6 8c3d a188 323d a4d3 f5bc
000003a0: fae9 d0bb cf3b 7c3d 6d76 343d e39e 07bd
000003b0: 4035 253c d5b0 febb afca 5bbc fdc9 413d
000003c0: 59fa 513d b9c0 6c3d a194 44bd a125 55bd
000003d0: 9dcf 15bc 00fb 7eba d514 bebc e99f e03b
000003e0: fb63 b63d ae7c c03d 9c9d a63d 4f2e 1b3d
000003f0: 5cae d13c 188c a73b a48f 64bc 8c29 9ebb
-0.014649921 -0.02093944 -0.01935825 0.032572746 0.035940636 -0.01851524 0.019349769 0.004447333
-0.0058244434 0.034951195 0.06617524 0.0898237 0.07777091 0.037826203 8.1425904e-05 0.04315391
0.050713703 0.014839868 0.0039312523 0.05915225 0.044348173 0.008473858 0.05022763 0.11624456
0.006583958 0.006240828 0.07982188 0.018007131 0.08339826 0.052559163 0.015848517 -0.0074580344
0.024044788 0.04412513 0.0014532865 0.07702574 0.07543436 0.014742227 -0.013489513 0.023267563
0.0019663046 -0.03746434 0.04448132 -0.022295732 -0.014226155 -0.019693943 0.0056366776 0.03010266
-0.0541199 0.006250749 0.027519425 0.0058711236 -0.008501925 -0.033498783 -9.504193e-05 0.02658082
-0.004569917 -0.0052333386 0.012966533 0.039017167 -0.00039114818 0.026965428 0.043499842 0.0290003
-0.023770005 -0.018732611 0.030658007 0.029682027 0.034579776 0.032096498 0.040259723 -0.03504489
-0.03497864 -0.02690848 -0.016903143 0.07189812 0.039512374 0.057011362 -0.003383539 0.003997427
0.0114174 0.01300343 0.047821365 0.018468767 0.03238707 0.035748713 0.028485319 -0.008366478
-0.015042453 0.04286462 0.0067725023 0.017721811 0.0037685337 0.021640962 -0.016187152 0.021727003
0.0498807 0.0025407819 0.017447682 0.042502593 0.029832155 0.03313705 0.075042635 0.027544737
0.008128832 -0.025719307 0.021916658 0.0016655975 -0.030391958 0.06500932 0.049914114 0.045231245
0.010398844 0.016994348 -0.029071853 0.01436499 0.050126024 0.09498169 0.05359011 0.019098045
0.04596703 -0.02498094 -0.057408888 -0.026920523 0.0049362816 0.012586773 0.020040628 0.07113727
0.018619632 0.0129982615 0.06329211 0.034885675 -0.015570935 0.020622985 0.019265791 0.023705153
0.005406397 0.020937636 0.044880196 -0.0024826385 0.024557719 0.012360718 0.00437067 -0.0043575442
0.01747641 0.02991572 -0.039323125 0.031372298 0.0065927627 0.008544189 0.012308098 0.035839144
0.0017423681 0.0099693565 0.028424975 0.039810747 -0.0010503476 -0.03898054 0.005549871 0.03132912
0.04734523 0.039106555 0.077424616 0.013430768 -0.04055584 -0.013762 0.09660774 0.06800698
0.022100335 0.05770658 0.053303108 -0.021254383 -0.008691155 0.032331783 -0.00758844 0.015169769
0.05797645 0.04418686 -0.047727615 -0.013407401 0.0020826901 -0.04604231 -0.015320703 0.030038787
0.013363643 -0.00898193 0.018246446 0.039794356 -0.0037481354 -0.028686382 0.013900377 0.038880263
-0.0035564008 -0.034790974 0.007235689 0.044002824 -0.0094387075 -0.05583876 -0.045316588 0.027834143
0.030108212 0.019779196 0.0078048315 -0.04777212 -0.037063427 0.00029516625 -0.027762296 0.047750082
0.07874938 0.055667497 0.0067920703 0.028423928 0.031159375 0.015124376 0.022327263 0.09766069
0.04630553 0.041584335 0.024056945 0.049242083 0.012444853 -0.0088734655 0.0759212 0.053697355
0.020377172 -0.030634096 0.049291413 0.023678033 0.001331625 0.06867778 0.04358733 -0.030008145
-0.0063755484 0.061580475 0.044058252 -0.03311051 0.010083497 -0.007772545 -0.013415023 0.04731177
0.05126414 0.057800982 -0.047993306 -0.05203784 -0.009143737 -0.0009726733 -0.023203293 0.0068550003
0.089057885 0.09398781 0.0813553 0.03788596 0.025595836 0.005113136 -0.013950262 -0.00482673

module.net_sm.bn1.weight f4 [32]
00000000: 39c1 e73e e238 223f 2b40 123f 15d9 1d3f
00000010: 3a32 083f bcbf 073f 93a7 f53e 3bd5 1e3f
00000020: a437 ef3e bc75 103f 549a eb3e 590d 103f
00000030: 21fe 153f 7975 0d3f 754a 143f 5419 223f
00000040: d087 273f 3e97 1f3f c147 be3e 602c 053f
00000050: 1ff4 043f 0e74 203f 5a17 1f3f d0e7 fe3e
00000060: b931 163f 2699 0f3f f9fb c93e c887 203f
00000070: 2f13 053f c776 113f c77d 1a3f 06ba 203f
0.45264605 0.63368046 0.5712916 0.61659366 0.5320164 0.5302694 0.4797941 0.62044114
0.46722138 0.5642965 0.4601618 0.56270367 0.58590895 0.55257374 0.5792611 0.633199
0.6544161 0.6234015 0.3716412 0.52020836 0.51935 0.62677085 0.62145007 0.49786234
0.5866962 0.5609306 0.39450052 0.62707186 0.51982397 0.56821865 0.6034817 0.6278385

module.net_sm.bn1.bias f4 [32]
00000000: b7e8 89bd 3a1a 3a3d e63b 2bbd 83ec 373c
00000010: 6469 103c e65f 023c ccab 8d3b 1d06 8fb9
00000020: f59e f7bd 9aaf 613c 2c24 9dbd 767d 96bd
00000030: 9d78 0fbd df52 6e3c 8844 423c 5422 843c
00000040: 06c9 1c3c 567f b83a 944c 64bd e729 3d3c
00000050: 6585 993c a043 c93c 3db6 0bbe f175 633b
00000060: 91a1 e93c ce4b 8e3d 8dfc 0f3d c57b be3c
00000070: 30e8 d0bd dff4 123c d890 c83c 594b 743c
-0.0673384 0.045435168 -0.04180517 0.011225822 0.00881419 0.007957434 0.0043234583 -0.0002727964
-0.120908655 0.013774777 -0.07672915 -0.073481485 -0.035027135 0.014546125 0.011857159 0.01612965
0.009569412 0.0014076035 -0.055737093 0.011545635 0.018740365 0.024568379 -0.13643737 0.003470775
0.028519424 0.06948052 0.03515296 0.023252377 -0.10200536 0.008969515 0.02448313 0.014910542

module.net_sm.bn1.running_mean f4 [32]
00000000: 1bd2 b037 4fb5 39b5 017e 9ab6 3e7e 2736
00000010: 5168 5937 4134 80b7 0d9a 96b6 4adc b6b7
00000020: 4dec c636 e025 d136 4c9a 63b7 0111 5b37
00000030: 0051 bc36 e578 3f34 aae6 a037 5420 4ab7
00000040: 6c32 15b7 a97b 72b7 e642 7eb6 1e62 92b5
00000050: 4627 2937 ca6f cfb6 3645 8537 9d47 1ab5
00000060: 0136 fbb6 3ba5 8db7 3e35 1d37 3193 90b7
00000070: 5f85 4636 0f7f ed36 06c8 00b7 6da9 0fb6
2.1078673e-05 -6.918171e-07 -4.6042264e-06 2.4958422e-06 1.2958496e-05 -1.5283122e-05 -4.4882822e-06 -2.179867e-05
5.928369e-06 6.2330946e-06 -1.3566179e-05 1.3057376e-05 5.6122662e-06 1.7832242e-07 1.9180898e-05 -1.2047665e-05
-8.892832e-06 -1.4453116e-05 -3.788789e-06 -1.0906404e-06 1.0082329e-05 -6.1820947e-06 1.5887064e-05 -5.747368e-07
-7.48667e-06 -1.6885451e-05 9.370326e-06 -1.7234679e-05 2.9581931e-06 7.077942e-06 -7.675966e-06 -2.140728e-06

module.net_sm.bn1.running_var f4 [32]
00000000: 9645 573c db93 a63c 3972 793c a136 6c3c
00000010: f7e8 323c e977 a83c 80ad 0d3c 8908 ae3c
00000020: 3bd3 6e3c d0c1 323c d821 1b3c cc7c 8b3c
00000030: 5e57 5f3c 78b5 123c c895 3d3c 7a65 7f3c
00000040: 2735 853c 5a61 8e3c 74d9 0b3c c188 313c
00000050: 57d7 4d3c 42c5 b83c 9b74 633c 206d 043c
00000060: 1786 623c b11b 873c f9cf 293c 64b1 4f3c
00000070: c14a 753c 3616 643c ea5c 803c 7095 633c
0.013139149 0.020334175 0.015224987 0.014417321 0.010919801 0.02056499 0.008647323 0.021244304
0.014576728 0.010910466 0.009468518 0.017027281 0.01363167 0.008954398 0.011571355 0.015588159
0.016260697 0.017380405 0.008535732 0.010835827 0.012563548 0.022554997 0.013882781 0.008082658
0.013825915 0.016492696 0.010364526 0.012676571 0.014971436 0.013921311 0.015669305 0.013890609

module.net_sm.layer1.0.conv1.weight f4 [32, 32, 3, 3, 3]
00000000: da04 883c 4da7 903c 5d44 ba3b 0376 8b3b
00000010: 1f04 eabc d2b8 83bc 8c77 89bb 46a6 ae3c
00000020: 738e 66bd 5b53 e33c 9d67 803c fe63 09bc
00000030: 8dd6 abbb afb3 863c 513e bb3c 7691 4d3c
00000040: 3e3e 02bd 3b51 223c 044b 883c 41e6 af3b
00000050: d94a 153c c452 0bbd 43e6 fa3b b25e 1ebc
00000060: 0a7a ccbc 9228 5cbc 8c3b 8fbc 3d40 153d
00000070: 72ba 903b 0d6a efbb 3257 af3c b43a f13c
00000080: 3cad 79bc 9dae 8bbc f567 35bc a920 83bb
00000090: 7e47 8c3c 8a48 ebbc dff6 9839 b147 113d
000000a0: 6b62 e2bb f861 143d c758 5e3c 28d3 35bc
000000b0: fa64 c9bc cab6 33bd f4ef 2ebd 18eb d53a
000000c0: 350d 68bd dba8 31bd 56ed 0dbd 4a24 70bd
000000d0: ea72 22bd 8bf4 853c 0714 ba3b 8c76 303d
000000e0: 1759 21bc 3002 bdbb e2e0 3ebd 57eb 05bd
000000f0: 62fe d23c 9e55 3c3c 14e0 c53c 8c6f c13c
00000100: ea67 1d3d faf8 963c 2908 f2ba a672 153d
00000110: a43f b3bc d096 6b3c 05e6 d23a 1884 303d
00000120: d8c6 193c a7c6 41bc bb95 173c 78f9 c03c
00000130: 7cae b83c 71cb 54bd d3b6 07bc c7aa 00bd
00000140: 6416 e3bc c9fc 483c 07a5 8a3b b896 f3bc
00000150: 3a7e c93c 2129 72bd 9417 1c3d 8834 15bd
00000160: 156a f5bc 40a9 2cbd f009 f03c 9054 563c
00000170: 85d7 7e3d 043a b9bb 8537 863c d387 cfbc
00000180: 37c8 fc3b 6bc6 ea3c f80b a63a 49ed a0bc
00000190: db0f 89bc 881b 913c f633 15bb 3f1a 66bc
000001a0: a3a5 0fbd 64fd 883b 67d5 75bd a0b8 69bc
000001b0: b4b5 2bbc 4f01 193d f974 553c aeb6 113d
000001c0: d758 ec3b 3cc6 ab3b 581b 2f3d f593 33bc
000001d0: 0da9 0a3c b077 05bb 248e a6bb 5353 43bc
000001e0: cf6d c5bc 79a9 873b 8bf2 3abd 70d3 023d
000001f0: abf5 efbc cfcf 81bd 7a79 2bbc 57a9 9abc
00000200: 7bdd c83a 3052 7dbd 55c7 8bbd 37a2 9fbc
00000210: d638 9fbc ee20 193b fe24 313c 14c0 bfba
00000220: b63a fabc 2035 ea39 76b3 513d ef98 b7bc
00000230: a95a d43c b3c8 a03c 3b81 123c 598f 2ebd
00000240: f022 6b3c 38b1 9c3c 491b dc3c ac24 0bbc
00000250: c508 bcbc 8d19 2c3d 561e 92bc 9d6f 6eba
00000260: 0949 63bb e914 49bc 5f42 8e3c b2cf b43c
00000270: 4699 9bbc c70b f43c d9a9 89bc 4ac5 0fbc
00000280: d8d2 55bd 5a0a bebc bc82 4c3d e57e 6b3c
00000290: 9dbc e739 c43c 45bc c768 a4bb 0ded 52bb
000002a0: 896c cd3c b55f f63c a979 11bd 4ffa ab3d
000002b0: bd70 2d3d 4f81 1abd f236 12bc 3d4b 213c
000002c0: ca51 4dbc 192d a5bc 9eed 813b e9f9 60bc
000002d0: e85f 85bc 9a73 823c 2faa 06bd 1b75 11bd
000002e0: de52 11bc f2ad 093a 8325 8fbc ad03 b2bc
000002f0: 8462 e03b 4a5d 79bb aa71 8fbd 513d 033d
00000300: ca9e 59bc 63d7 393c c79b 5f3c b972 10bd
00000310: af0e 29bc a1f7 083d ee3b c7bc b5ab 233d
00000320: 91d8 713b f9c6 b13c 7df6 bbba 4a4f 71bd
00000330: b8ac 35bc cca6 c3bc 3c84 58bc 40f7 b63c
00000340: e0a9 d2ba 194a febb 5471 1e3b d34d 593a
00000350: 3bcd 933a e712 0fbc a21e d23c bd71 063d
00000360: 8e8f f43c 68f5 e33c 7bd5 3d3b 967a 49bd
00000370: 007f 98bc 81a0 13bd 0f40 20bd 2b01 4abd
00000380: 2a2d 8ebd ab53 963c 3b67 30bb 8ba9 be3c
00000390: 4b4f 9a3a 9a0a 7fbd 6aa7 01bd a23f 1dbc
000003a0: 516c 0fbb 6aa4 bbbc 9930 18bd 9c7d debb
000003b0: dd44 983c bde0 48bd 1477 2fbc 3c6a 0bbd
000003c0: 2d3b 2bbd 702c 883b 5ad0 76bd e1f2 10bd
000003d0: 2e14 babc a100 563c f4d0 4e3c 1426 7e3d
000003e0: 175f a6b9 55c1 ce3c 2cb0 6fbc 1e45 373c
000003f0: 3972 353d 6df5 5d3c 88bf 003d 27f9 e1bc
0.016603876 0.0176579 0.005684419 0.0042560115 -0.028566418 -0.01607934 -0.0041951593 0.02131952
-0.056288194 0.027749708 0.015674407 -0.008385656 -0.0052440823 0.016443102 0.022856863 0.012546888
-0.03179764 0.009907062 0.016637333 0.0053680246 0.009112083 -0.03401448 0.007656844 -0.009666132
-0.024960537 -0.013437407 -0.017484449 0.036438216 0.0044167573 -0.0073063434 0.021403883 0.029446937
-0.015239056 -0.017051036 -0.011072149 -0.004001696 0.017123934 -0.028721113 0.00029175633 0.03546876
-0.006908705 0.036226243 0.013570971 -0.011097707 -0.024584282 -0.043875493 -0.042709306 0.0016320674
-0.05665322 -0.043373924 -0.03465017 -0.058628358 -0.03966037 0.016351959 0.005678657 0.043081805
-0.009847901 -0.005768083 -0.046601184 -0.03269514 0.025756065 0.011495022 0.0241547 0.02361276
0.03842918 0.018429268 -0.0018465567 0.03648629 -0.021880932 0.014379218 0.001609028 0.043094724
0.009385787 -0.011827148 0.009252007 0.023556456 0.022544138 -0.05195183 -0.008283335 -0.031412866
-0.027720638 0.0122673 0.0042310986 -0.029734954 0.024596322 -0.059121255 0.038108423 -0.03642705
-0.02995781 -0.042153597 0.029301614 0.013081685 0.062217254 -0.005652668 0.016383896 -0.02533332
0.007714297 0.028659066 0.0012668362 -0.019644396 -0.016731193 0.017713323 -0.0022766567 -0.0140443435
-0.035070073 0.004180597 -0.06001797 -0.014265209 -0.010480333 0.037354764 0.013028377 0.035574608
0.007212739 0.0052421372 0.042750686 -0.010960569 0.008463156 -0.0020365529 -0.0050828625 -0.0119217215
-0.024100212 0.0041400758 -0.045641463 0.031939924 -0.029291948 -0.063384645 -0.010465974 -0.018879576
0.0015324795 -0.06184596 -0.06825129 -0.01948653 -0.019436281 0.0023365575 0.010812042 -0.0014629387
-0.030545574 0.0004467154 0.051196538 -0.022411792 0.025922136 0.01962695 0.008941944 -0.042617176
0.0143515915 0.019127473 0.02686848 -0.00849263 -0.0229534 0.042016555 -0.01783673 -0.0009095611
-0.0034680984 -0.012273052 0.017365633 0.022071693 -0.018993985 0.029790772 -0.016804622 -0.008775065
-0.05220303 -0.023198295 0.049929366 0.014373516 0.0004420028 -0.012038413 -0.0050173732 -0.003218475
0.025076168 0.030074934 -0.035516415 0.08397352 0.042343844 -0.037720975 -0.008924233 0.009844598
-0.012531707 -0.020163106 0.0039650938 -0.013731458 -0.016281083 0.015924264 -0.032877143 -0.03551207
-0.008869855 0.0005252055 -0.017473942 -0.021730268 0.0068476815 -0.003804999 -0.070041016 0.032040898
-0.013282487 0.011342856 0.01364798 -0.035265658 -0.010318442 0.033439282 -0.024320569 0.039958674
0.0036902765 0.021701323 -0.0014340427 -0.058913507 -0.011088543 -0.023883246 -0.013215121 0.022334695
-0.0016072355 -0.007760298 0.0024176436 0.000828949 0.0011276373 -0.008732534 0.025649372 0.032823313
0.029853608 0.02782698 0.0028966356 -0.049189173 -0.018615246 -0.03604174 -0.03912359 -0.04931752
-0.06942208 0.018350443 -0.0026917 0.023274204 0.0011772899 -0.06226597 -0.0316538 -0.009597691
-0.002188463 -0.022905547 -0.03715572 -0.006789876 0.018587524 -0.049042452 -0.010709543 -0.03403686
-0.04180448 0.004155688 -0.060257293 -0.035387877 -0.0227147 0.013061673 0.0126230605 0.062048033
-0.00031732835 0.025238672 -0.014629405 0.011185912 0.044298384 0.013547284 0.03143266 -0.027584625

module.net_sm.layer1.0.bn1.weight f4 [32]
00000000: b8e6 f13e 585d e93e ec4d f43e 231d 163f
00000010: 10f2 003f b3fd e83e eabb fe3e a6d5 fa3e
00000020: 726d fb3e 4b93 e63e 955a fd3e 2936 063f
00000030: b38e fd3e 0366 ed3e 1499 0a3f 46d4 fa3e
00000040: a99d 023f b20c 003f 89f9 133f a764 f83e
00000050: d9b6 133f 86a7 143f 23b3 e93e a46d fe3e
00000060: b0ee ef3e a336 0a3f b754 eb3e 294f e53e
00000070: 5bee f63e ccfb 0f3f 08fb ef3e 3674 ed3e
0.47246337 0.45579028 0.477157 0.5863821 0.5036936 0.45506057 0.49752742 0.48991126
0.49106938 0.4503425 0.4948317 0.5242639 0.49522933 0.4636689 0.5413983 0.48990077
0.5102182 0.5001937 0.57802635 0.48514292 0.5770088 0.5806812 0.45644483 0.49693024
0.46861792 0.5398962 0.4596307 0.44786957 0.48228726 0.56243587 0.4687121 0.46377724

module.net_sm.layer1.0.bn1.bias f4 [32]
00000000: d122 61bc e0c2 c03c 8937 86bd 9bf1 7fbc
00000010: 2920 8f3d 4d58 89bd 2e0e e9b9 2448 823d
00000020: c06e 55bd 9486 d73b e62b 103d 312b f63d
00000030: 99b3 85bb e331 013b c900 5d3d 2e1b 9abc
00000040: 231d b53d 0d47 033c ffff aa3d 6e8f c4bc
00000050: b3f2 0a3e 0f10 583d b7ab c0bc 58c4 aa3d
00000060: 1cf7 0ebd 2b29 543e e146 94bd 0b72 23bc
00000070: 879e bb3d 5d07 1d3e 9ee9 19bd 5c5a 63bd
-0.013741211 0.023530424 -0.06553561 -0.015621568 0.06988556 -0.06706295 -0.00044451788 0.06361416
-0.052107573 0.0065773223 0.035198115 0.12019957 -0.0040802476 0.0019713573 0.053955827 -0.018811788
0.08843448 0.008012545 0.08349609 -0.023994174 0.13569145 0.05274969 -0.02351938 0.08338231
-0.03490363 0.2071883 -0.072400816 -0.00997592 0.09161096 0.1533484 -0.03757631 -0.055506095

module.net_sm.layer1.0.bn1.running_mean f4 [32]
00000000: 38d6 7bbf abd2 49bf 09ab d1bf 062d d9be
00000010: e012 e43f 1339 58bf 862b 1040 15aa ddbf
00000020: 11f6 05c0 cfd1 0a40 4eef cc3f ec8f fa3f
00000030: db68 18c0 3b38 b5bf 682e 6640 c670 f3bf
00000040: 501a 1340 ee90 8740 97f5 8c3e 7025 833e
00000050: 72dc 3c40 5b16 793e d89a 0840 43f2 9f3f
00000060: 1d0e bfbf f84e 2140 5cfb aebf d1dc bc3f
00000070: 3139 0240 f1f9 6c40 743a e0bf f821 4bbf
-0.98373747 -0.7883708 -1.6380321 -0.42417163 1.781826 -0.8446209 2.2526565 -1.731753
-2.0931437 2.1690557 1.601053 1.9575171 -2.3813999 -1.4157785 3.5965824 -1.9018791
2.298481 4.2364416 0.2753112 0.256145 2.950955 0.24324934 2.134451 1.2495807
-1.4926182 2.5204449 -1.3670459 1.4754888 2.0347407 3.7027552 -1.7517838 -0.7934871

module.net_sm.layer1.0.bn1.running_var f4 [32]
00000000: 2656 0b40 f7aa 1b40 d62a 8840 40e9 5c40
00000010: 0c03 a140 0b74 a33f 0a4a dd40 6f5a 8840
00000020: b962 be40 21ef fa40 156c 7040 4014 b140
00000030: 3f12 0141 eb72 3640 2d00 8741 ae5a 9e40
00000040: 05af ef40 3739 ba41 dfde 4140 1c75 823f
00000050: b257 3e41 44a8 bb3f f177 ce40 5dc6 4740
00000060: 5d9b 4f40 af06 0a41 a67b 2040 59d3 8740
00000070: 71b7 b140 bd98 8e41 afef 8740 3fb2 e93f
2.177133 2.4323099 4.255229 3.4517365 5.031622 1.2769789 6.915288 4.2610393
5.949551 7.8416905 3.7565968 5.533722 8.066955 2.850764 16.875086 4.9485693
7.4901147 23.277937 3.029228 1.0191989 11.89641 1.4660726 6.4521413 3.1214821
3.2438576 8.626632 2.507547 4.2445493 5.5536427 17.82458 4.2480083 1.8257521

module.net_sm.layer1.0.conv2.weight f4 [32, 32, 3, 3, 3]
00000000: 67b4 a0bc f26d 6e3c ca40 8e3c b880 803c
00000010: e912 b23a c425 95bc 1d67 513c 9386 9aba
00000020: a5f1 37bd 34be cd3c cd14 113c f69a f9bb
00000030: afa6 84bd e82e bd3c b1c0 87bd 7fb4 47bc
00000040: 2f94 de3c de15 913c 683d 833c bc27 60bc
00000050: 2561 1cbd 79f7 1bbd 4f17 07bd 8360 8abc
00000060: 50fc 30bc aa62 77bc fc30 303c e15b f73c
00000070: b270 05bd 1656 8abc 338b 7cbc d8b6 f6bb
00000080: 61d4 983c 3c20 9abc e191 1f3c 9f2f 26bd
00000090: f9a3 cdbc d400 14bc eecb 05bd 0032 bd3c
000000a0: c4cb 113c acfe 233b 0b94 94bc 6b20 e23c
000000b0: fdc4 03bd 875e 07bd 3c3b ddba 3bc5 163d
000000c0: c9a6 de3c 3206 343c 8e3b 05bb e4dd 843c
000000d0: fc1b 4a3b be60 95bc f45e d8bb 2651 d8bc
000000e0: 1b89 29bb 3865 663c a8eb fcbc 1ed7 ccbc
000000f0: 146f 6b3c f88b 3dbc 7587 f7bb 79a4 0bbd
00000100: 35be e0bc d94d 3ebc 6c72 48bc 96ff 2c3d
00000110: 9096 153b 10ba cebc dc4c 663b a1cc 7dbc
00000120: bd06 d13c 40dc a4bb 553e 91bc 2d09 0bbc
00000130: f069 b03a 4209 fabc 1777 2c3c cf2c 5e3c
00000140: eb03 12bc 9ba4 523d 2a64 203d cae5 74bd
00000150: 5171 3bbc ca02 d2b9 13cb 2c3d 7664 803c
00000160: 23ed 073c 9b9b cebc 1748 953c 2d6b 083d
00000170: d9c3 41bc d214 1bbd faa0 a3bc 833f 0bbb
00000180: 63cd bbbc 2c35 31bd 292f 0ebd 4c4a f33c
00000190: d7d3 963b d70e ee3c 555a b3bb ca07 0dbd
000001a0: 8108 fa3a 547b 183d 7cf1 20bd 2f36 07bd
000001b0: 989f a93b 1d44 06ba 82dd 283c a795 193d
000001c0: fe07 92bc bc8e 263d 4ad5 063d cf9c 513d
000001d0: 6ba6 153d 762d edbb bca9 8b3c d469 2a3d
000001e0: 3495 1cbb 48a5 32bd e38b c93c db73 2f3d
000001f0: 7fb3 72bc 4193 b13d 6412 86bb 6019 ffba
00000200: 8935 dd3c 3442 63bc 3b14 1cbd 1c11 d5bb
00000210: 145b 4abc e6c4 cfbc 1b03 083d abcf 4cbc
00000220: c29b 03bd 16d4 f6bc 1242 c5bc f7fe 663b
00000230: 8426 07bc 556b 6a3c 7fbe 453d 424e 913c
00000240: 21e8 4dbd c4e4 033c c1df ea3c 09ba e5bc
00000250: aa17 df3c 3419 ed3b 5509 e13c d91f 133d
00000260: 65a1 f9bc 783c 143c 67a2 c83c fde8 a73c
00000270: 9fc7 97bc 0106 003d fabb 20bc d397 baba
00000280: 1c2d 64bb 9b1a d1bc 9a7d babc e46e 1f3d
00000290: 54a1 dd3a 6a62 19bd 03d0 583c 521a 21bc
000002a0: 8ceb 18bd 0dd3 89bb 109c 2e3d c7ea f43c
000002b0: 5c7c 423d 4ef0 6b3c 1beb 9ebb a13b ddbb
000002c0: 0769 763d c31c e2bc c8e5 103d 9556 243d
000002d0: 116c 0c3d 51be 463c 1721 de3c 753a debc
000002e0: 42cc 9c3c 9eca 413c 45e1 813c 6d9f 6ab9
000002f0: 8a30 9dbc 8b29 0f3d 8ae3 13bd 668a 5c3c
00000300: 233d 2b3d a229 f03c 5599 49ba f2d0 e53b
00000310: 8d33 a5bc e6d8 c13c f5bc 663c 7520 9b3c
00000320: 2c26 e03c fd81 983c 9398 463b e311 83bd
00000330: 4d83 ba3c d4bb d63c 9fcb 79bc 6aa1 133d
00000340: 17e8 b5bc cd36 853b 6110 853c c0af 6cbb
00000350: 5461 e63c 0f83 0dbc 21b9 50bc 3482 65bc
00000360: b801 e3bc 6a1b 10bc b3ed 50bc 837c e43b
00000370: b6b6 413d b190 b23c 2442 ca3c c8a3 1b3c
00000380: 6d8a 70bc df4b aebc f2e9 d6bb 9225 2abd
00000390: 5c67 91bc 49e7 61bc 1864 5ebc b654 e83c
000003a0: dd30 87bb ba69 de3b dc45 483c 7ad8 97bc
000003b0: d7b5 133c 6d9c 5cbb 3e25 92bc 8d45 f4bb
000003c0: ba1c 31bd 328c a23c 4002 54bc 3a8c 35bd
000003d0: 0c50 d93c 5a80 0bbd ab03 3e3c c99a a4bc
000003e0: 5330 a6bb 930d 943c e116 88bc b42a 163c
000003f0: bb13 1a3d 5d09 d53c 942f 9b3b 8337 f33c
-0.019617273 0.01455258 0.017364878 0.015686378 0.0013585958 -0.018206485 0.012780932 -0.0011789374
-0.044908185 0.02511511 0.008855057 -0.0076173497 -0.06477105 0.023093656 -0.0662855 -0.01218903
0.027170269 0.017710622 0.016020492 -0.013681348 -0.03817858 -0.038077805 -0.032981213 -0.016891723
-0.0108023435 -0.015099207 0.010753866 0.030195178 -0.032578178 -0.016886752 -0.015414047 -0.007529121
0.018655958 -0.018814199 0.00973937 -0.04057276 -0.025102602 -0.009033401 -0.032665186 0.02309513
0.008898679 0.0025023622 -0.018136999 0.027603349 -0.032170285 -0.033049133 -0.0016878615 0.036809187
0.027179139 0.010987805 -0.0020329687 0.016219087 0.0030839434 -0.018234607 -0.006603116 -0.026405882
-0.0025869075 0.014062218 -0.030874088 -0.02500492 0.014369745 -0.011569016 -0.0075539895 -0.0340924
-0.027434448 -0.01161524 -0.012234312 0.042235933 0.0022825338 -0.025235206 0.0035141027 -0.015490682
0.025515908 -0.0050311387 -0.017729918 -0.008486074 0.0013459306 -0.030521993 0.01052644 0.013560488
-0.008912067 0.05142651 0.039158024 -0.059789456 -0.011440591 -0.000400564 0.042185854 0.015672904
0.008296284 -0.025220683 0.018222852 0.033305336 -0.011826479 -0.037861653 -0.01997422 -0.0021247573
-0.022925084 -0.0432636 -0.034712944 0.029698513 0.00460289 0.02905981 -0.005473415 -0.034431256
0.0019076021 0.03722699 -0.039292797 -0.033010658 0.0051764958 -0.0005121844 0.010306718 0.037496235
-0.017826077 0.040663466 0.032918252 0.051174935 0.03653566 -0.0072380854 0.01704871 0.04160483
-0.0023892643 -0.043614656 0.024602836 0.042835098 -0.014813303 0.086706646 -0.004091548 -0.0019462518
0.027003067 -0.0138707645 -0.03810523 -0.0065022837 -0.012350816 -0.025362443 0.033206087 -0.012500684
-0.032130964 -0.030130427 -0.024079356 0.0035247186 -0.008248929 0.0143078165 0.048277374 0.017737512
-0.050270204 0.008050147 0.028671147 -0.02804281 0.027232964 0.0072356705 0.02747027 0.035919044
-0.030472467 0.00904762 0.024491502 0.02049684 -0.018527804 0.031255726 -0.009810442 -0.0014235921
-0.0034816926 -0.025525382 -0.02276497 0.038924113 0.0016909041 -0.03744737 0.013233188 -0.009832935
-0.03733401 -0.0042060674 0.0426293 0.029897107 0.04748188 0.014400555 -0.004849804 -0.006751493
0.060158756 -0.027601605 0.035375386 0.040121634 0.034282748 0.012130336 0.027115388 -0.027127484
0.019140366 0.011828093 0.015854487 -0.0002237537 -0.019188184 0.034951728 -0.03610567 0.013460731
0.04180635 0.029316727 -0.000769039 0.0070134336 -0.020166183 0.023662996 0.014083137 0.018936375
0.027361952 0.01861667 0.0030303344 -0.06399896 0.022767687 0.02621261 -0.015246301 0.03604261
-0.022205396 0.0040653707 0.016243162 -0.0036115497 0.028122582 -0.008637204 -0.012739451 -0.014008094
-0.02771078 -0.0087955985 -0.012751984 0.0069728508 0.047293387 0.02179751 0.024689741 0.009499498
-0.014681441 -0.021276413 -0.00655865 -0.041539736 -0.01774948 -0.013788053 -0.013573669 0.028360706
-0.004125698 0.006787506 0.012223687 -0.018535841 0.009015522 -0.0033662573 -0.017840024 -0.00745458
-0.043240286 0.019842241 -0.01293999 -0.044323184 0.026527427 -0.034057952 0.011597554 -0.020093339
-0.0050716787 0.018072879 -0.016612472 0.009165455 0.037616473 0.026005441 0.0047358964 0.029689556

module.net_sm.layer1.0.bn2.weight f4 [32]
00000000: e4ae 9a3e 48ab 133f 4c2c 0c3f 0dfb 023f
00000010: 5441 fe3e 1572 7f3e 0dcf a93e 3128 9d3e
00000020: 10e3 ca3e 3520 0b3f 31d7 a23e dc27 0a3f
00000030: 6b2d ea3e c658 153f 9477 f23e cb85 0b3f
00000040: f45a 193f d9a5 043f 2788 843e 52bf 1c3f
00000050: fbab 163f da5b 043f abe5 ff3e 3ff1 1a3f
00000060: 4af2 fe3e 9818 593e 8565 573e e927 0d3f
00000070: 610d 143f 594f 083f c619 033f 040f 173f
0.30211556 0.5768323 0.5475509 0.51164323 0.49659216 0.24945863 0.3316578 0.30694726
0.3962636 0.5434602 0.31804803 0.5396707 0.45737776 0.5833858 0.47356856 0.54501027
0.5990441 0.51815563 0.25885126 0.6122943 0.5885617 0.51702654 0.4997991 0.6052436
0.49794227 0.21200788 0.2103482 0.55139023 0.57832915 0.53246075 0.512112 0.5900729

module.net_sm.layer1.0.bn2.bias f4 [32]
00000000: b312 86bd e0fc 283d 1abd d9bc 8b9a 353c
00000010: 8e76 a1bc 5ed9 fb3a 05e3 9ebc 8059 4dbc
00000020: 7cea 0cbe d2ef c93b 175a acbd 1f64 95bc
00000030: bd21 6dbd fbdf 273c 63aa b7bc 17d7 913c
00000040: b6e3 043c 0872 64bc d840 9cbd 3c06 1fbc
00000050: bd8b 943c ef4f c63b fef6 1dbd 4e41 19bc
00000060: 38b7 4e3a a6aa 743d dcef fb3c 7198 4b3c
00000070: f957 ba3a 89ea 703b d8a0 f13a 4527 8f3c
-0.06546535 0.041256785 -0.026579428 0.011084209 -0.019709852 0.0019214561 -0.01939536 -0.0125335455
-0.13761324 0.006162622 -0.08415621 -0.018236218 -0.057893503 0.010246272 -0.022420114 0.017802758
0.008110931 -0.013943203 -0.076295555 -0.009706076 0.018133039 0.0060520093 -0.03856563 -0.009353949
0.0007885578 0.059733056 0.030754022 0.012426482 0.0014216892 0.0036760888 0.0018434776 0.01747478

module.net_sm.layer1.0.bn2.running_mean f4 [32]
00000000: 7314 2c3f 401e 89bf 61b1 08bf 2cf1 44bf
00000010: 7bc3 58be 7ae7 c33e a53c e9be ee35 d53e
00000020: bc12 813f 4303 0bbf 8aa3 e5be 5470 fabe
00000030: badc fabe cebf d7be 19d8 6bbc db3f 36bf
00000040: b683 85bf af69 fcbe c090 bc3e 0575 08bf
00000050: d4af 3dbf 55e5 15bf 77e2 16bf 2bee 4dbf
00000060: ccf3 8bbf 6c46 7a3e 40cb fc3e 73a2 88bf
00000070: 3286 2bbf 35ea 30bf 7595 4bbf 32fb 24bf
0.67218703 -1.0712357 -0.5339566 -0.769305 -0.2116832 0.3826254 -0.4555408 0.41642708
1.0083842 -0.5430185 -0.44851333 -0.48913825 -0.48996526 -0.42138523 -0.014394783 -0.71191186
-1.043082 -0.4929938 0.36829185 -0.5330356 -0.7409642 -0.5855306 -0.5893931 -0.8044154
-1.0933776 0.24440926 0.49373817 -1.0674576 -0.6700164 -0.6910737 -0.7952493 -0.64445794

module.net_sm.layer1.0.bn2.running_var f4 [32]
00000000: 3319 a43f 51dd 7640 fff6 1840 3239 0740
00000010: 4d35 c03f 747e 2a3f e86b ab3f f3db ad3f
00000020: 8845 c53f ab37 d33f ba18 163f b28b fb3f
00000030: ecd2 7e3f 3c8e ae3f 7b2e 963f 9a61 3840
00000040: 9ab1 8a40 c01d b73f ad8d 953f 2c32 e43f
00000050: ec07 1640 b94d 3d40 317e 0340 a222 f83f
00000060: 4a54 3940 efd0 933f 98a5 4d3f a242 fb3f
00000070: c1e4 3140 3707 2640 7afd 4040 3eb7 2c40
1.282019 3.857258 2.3900754 2.112866 1.5016266 0.665992 1.3392305 1.3582748
1.5411844 1.6501364 0.5863148 1.9652007 0.9954059 1.3637156 1.1732935 2.8809571
4.33418 1.4305954 1.1683861 1.7827811 2.3442335 2.9578688 2.054577 1.9385569
2.8957696 1.1548136 0.803308 1.962971 2.779587 2.5941904 3.015471 2.6986842

module.net_sm.layer2.0.conv1.weight f4 [32, 32, 3, 3, 3]
00000000: b3ae 273d db50 8d3a 1c76 9a3b ffbf 62bc
00000010: e57a 7dbc a4f0 dbbc 5012 8fbc 9d37 3bbc
00000020: 75dd b0bc c673 f739 56dd b0b9 5cc8 ff3a
00000030: c062 17bd 6bcb fcbc 7864 bd3b 10fb 10bd
00000040: 2db8 073c 2acf 0ebc 96d9 583c eeb1 14bb
00000050: 7c5f dfbb 63d4 793c 8833 f63c 52f6 443d
00000060: bfc2 bebc 118b 043d c846 993b 28de 6b3c
00000070: 87d2 03bc 834e 223d 53f0 45bc 23fa d0bb
00000080: 3eea 43bd ae03 633c 690f bfbc 91be fabc
00000090: 43ea 553c a4cf 00bc ed80 bebb dfed 4ebc
000000a0: f33c 89bc 11ca 8cbc 192c 28bd 24e8 b3bc
000000b0: f4e6 503c c2df a33c d270 a1b8 2a38 56ba
000000c0: eed5 7c3d 196a 64bd 5df4 bab9 732d 86bd
000000d0: 57d0 5c3c 01c3 9abc 77ca 27bd c6d5 89bc
000000e0: 54ab e73c 333d 8cbc 0610 0bbc 6b42 793c
000000f0: dc24 63bc 95cb 8fbc a9e7 133c a6b3 13bc
00000100: 81eb 823c 1c02 1f3d ffdd d43c 4c6a f63c
00000110: 642a 883c 0b5c 78bb 1851 263d 8a06 e73b
00000120: 1d56 773c 4eaa 993a a6b0 8c3c 3d1f 83bb
00000130: fae7 433d e3e3 023c 59f0 1abd 2bcd d1bc
00000140: 4eac 3ebd a3ef 953d 3455 b33b 7e8c 0f3c
00000150: 24b3 0ebd 1249 7bbc 592d 303d af60 cfbc
00000160: e8f7 55bb 8ba3 15bd 60ba c2bc 7a19 5c3b
00000170: a9b9 8b3c 59ce 57bd e336 863d b007 023c
00000180: eea6 41bb 994a cdbc da96 e1bb 9bd6 84bc
00000190: 12d1 0b3d 30ca ce3c b352 babc bdc5 e0bc
000001a0: 5145 c23b 589e 01bd b530 babc 8519 ba3c
000001b0: e4aa 18bd bdd7 e53c 8baa 4abc e225 8f3c
000001c0: db4c cfbb 4fb8 24bd 3f00 f8bc a88b 693d
000001d0: c0c3 00bc 0fbb eebc 8936 6b3c 649b 8c3c
000001e0: 7fab f63b d5f0 1cbc 4008 ab3b 5909 b1bc
000001f0: 898a e8b9 83c7 39bc 6422 3fbb bd95 fcbc
00000200: f402 6e3d 7f9c b7bc 9cf0 54bc adc8 80bb
00000210: 50a2 4fbd b02c a3bb b522 b9bc 8ad9 b5bb
00000220: 29f0 d43c 38e7 c83c 7aa3 27bc 373a f63c
00000230: 8bf5 583c fe8d 07bd 0acb 883c 1dbe 9a3b
00000240: 52a5 da3c c9f0 b63a 9bb0 3f3d 9884 263d
00000250: a45b 59bc 2f81 523c b290 30bc bd6c 92ba
00000260: 784b cbbc d292 713c 881f 363d e683 bb3c
00000270: 06da 13bd 1453 11bc 68fd 023d 8afa c8bc
00000280: 4106 a73c 2c3c 33bc 7bd5 c9bc c5d2 4e3d
00000290: bf6a 153d 15a1 04bd 3aca 1dbd 93a6 003c
000002a0: 5e67 743c 4c8b 0bbc d7d7 26bd cb5c 8d3a
000002b0: c29f a73c c06b 6d3c 6f15 3abd 8171 ccbb
000002c0: f19c 573d ddfc 3f3c 0b69 a1bc 01ba 693c
000002d0: 1d95 953c 9221 94bc 5cde 88bb 2911 9ebc
000002e0: 926a 0dbb 437e bfbb ca4f 3bbc 32ba adbb
000002f0: a8d0 0bbd 7a2d 6bbc bb45 263a c0be 623c
00000300: 7533 273a 7f0b e7bc 1bb1 1ebd d182 b93c
00000310: a1ac 25bc 420a 80bb be47 103c 458b f73c
00000320: 9984 fc3c af7f d2bc a5c2 f0bb 9b40 5f3c
00000330: 2c04 a7bb 28f4 b5bc 8b63 793a c115 ebba
00000340: d39b cf3c 8b3d 943c 3964 8abc 3457 883c
00000350: 7c1f 873c 37be 1abd eedb 133c 2298 8a3c
00000360: a28d a8bc 0b91 c1ba b54a 4d3c 3f22 9cbc
00000370: 5fe2 383a cf2b 923d 405f c5bc 1c1f 733b
00000380: d84a 3abc e265 52bd e2b6 7a3a a5b9 c5bb
00000390: adc0 ca3b 70fd 583c 695c babc 8153 5cbc
000003a0: 7336 cd39 aeff 56bb c3ab 28bd 20d9 0a3d
000003b0: 2756 253d 6ead 5cbd 91ad d83b a91b 8c3b
000003c0: f2a1 d3bc c9ba 09ba 1ff7 983d 2d5f 7fbb
000003d0: 368f ffbb 64cb 023d e9ae a03b 018a 72bc
000003e0: af01 9eba 8fc4 c13c c27d ff3c 8d96 ec3b
000003f0: ba2b c0bc e743 da3c 2c1e c83c cc61 49bd
0.04093809 0.0010781543 0.0047137868 -0.013839721 -0.015471195 -0.026848145 -0.017464787 -0.011426833
-0.021589974 0.0004719777 -0.00033734244 0.0019514668 -0.03695941 -0.030858716 0.005779799 -0.03539568
0.008283657 -0.008716384 0.01323547 -0.0022689062 -0.0068168025 0.015248391 0.030053869 0.04808647
-0.023286222 0.032359187 0.0046776272 0.014396228 -0.008045799 0.039625656 -0.012081224 -0.006377475
-0.047830813 0.013855858 -0.023322778 -0.030608447 0.013056341 -0.007862005 -0.005813709 -0.012629955
-0.016752696 -0.017186197 -0.04105768 -0.02196128 0.012750376 0.020004157 -7.698093e-05 -0.0008171821
0.061727457 -0.055765245 -0.0003565875 -0.065516375 0.013477406 -0.018891813 -0.04096457 -0.016825568
0.028279938 -0.017119026 -0.008487707 0.015213589 -0.013863768 -0.01755313 0.0090274 -0.0090149995
0.015981438 0.03882037 0.025984762 0.030079983 0.016621776 -0.0037896659 0.04060468 0.00705034
0.015096215 0.0011723728 0.017174076 -0.0040015266 0.047828652 0.007988903 -0.03782687 -0.025610527
-0.04655104 0.07321098 0.0054728035 0.008761523 -0.03483881 -0.015337246 0.043011997 -0.025314657
-0.0032648984 -0.03653292 -0.023770511 0.003358452 0.017056303 -0.052687023 0.065534376 0.007936403
-0.002954896 -0.025059985 -0.006884438 -0.016215613 0.03413493 0.025242895 -0.022744512 -0.027438039
0.0059286733 -0.03164515 -0.022728303 0.022717247 -0.03727235 0.028056974 -0.012369762 0.017474119
-0.0063263006 -0.040214833 -0.030273555 0.057017952 -0.00785917 -0.02914193 0.014356264 0.01716394
0.007527768 -0.009578903 0.0052194893 -0.021610903 -0.00044353705 -0.011339071 -0.0029164786 -0.03083312
0.058108285 -0.02241349 -0.012996819 -0.0039301724 -0.050691903 -0.0049796924 -0.022599557 -0.0055496143
0.025993424 0.024524316 -0.010231847 0.030057056 0.013242136 -0.0330944 0.01669838 0.0047223703
0.026690159 0.0013957258 0.046799283 0.040653795 -0.013266478 0.012848183 -0.010776686 -0.0011171323
-0.02481626 0.014744477 0.044463664 0.022890043 -0.036096595 -0.008869905 0.03197995 -0.024533529
0.020388724 -0.010939639 -0.024637928 0.050493974 0.036478754 -0.032380182 -0.038522936 0.007852214
0.014917223 -0.008517098 -0.040733185 0.0010785101 0.02046192 0.014491022 -0.045430597 -0.0062391167
0.052639905 0.011718002 -0.019703409 0.014265538 0.01825958 -0.018082414 -0.004176898 -0.019295292
-0.0021578413 -0.005843909 -0.011432597 -0.005301737 -0.034134537 -0.014354104 0.0006342788 0.013839424
0.0006378212 -0.028203724 -0.03874312 0.022645386 -0.010111959 -0.003907473 0.008806167 0.030217776
0.030824946 -0.02569565 -0.007347422 0.013626243 -0.005096933 -0.02221115 0.0009513429 -0.001793556
0.025342857 0.018095752 -0.016893493 0.016643144 0.016494505 -0.03777906 0.009024603 0.016918246
-0.020575348 -0.0014767958 0.012530019 -0.019059299 0.0007052775 0.07137262 -0.02409327 0.00370974
-0.011370383 -0.051366694 0.0009563995 -0.0060340934 0.0061875195 0.013244018 -0.022749143 -0.013447643
0.00039141215 -0.0032806206 -0.04117943 0.033898473 0.040365364 -0.053876333 0.0066124876 0.0042757583
-0.025834057 -0.00052539684 0.074690096 -0.0038966641 -0.0077990545 0.03193225 0.0049036634 -0.0148034105
-0.0012054945 0.023653297 0.031187896 0.0072200955 -0.02345835 0.026643706 0.02442845 -0.049165532

module.net_sm.layer2.0.bn1.weight f4 [32]
00000000: 8a17 0a3f 9080 dc3e 38ea 083f 4edd fd3e
00000010: c02d 013f 50c5 d63e 644d 1e3f f77d f93e
00000020: b843 0a3f 82a3 0c3f 976c f73e 37c3 d13e
00000030: 1eed 093f 3738 ed3e 1eb1 f93e 9b1a ff3e
00000040: 7197 083f febd fd3e 8bf2 f73e 7a1c f73e
00000050: 38b2 013f a3cb f83e 1b2c 043f 9178 f23e
00000060: 7527 d43e 2d36 113f 8523 033f 9fcd 053f
00000070: 9bfa 073f a7e5 e03e 1742 d53e 5191 0f3f
0.5394217 0.43066835 0.5348239 0.49582905 0.50460434 0.41947412 0.6183684 0.48728916
0.5400958 0.54936993 0.48325035 0.4096925 0.5387744 0.4633195 0.48767942 0.49824986
0.5335608 0.49559015 0.48427233 0.48263913 0.50662565 0.48592862 0.516298 0.4735761
0.41436353 0.5672329 0.51226074 0.5226688 0.5311677 0.4392521 0.41651985 0.5608111

module.net_sm.layer2.0.bn1.bias f4 [32]
00000000: dac0 1c3d d6c3 1ebd 81a7 903b d02c aebc
00000010: 090e d9bb ec5d c8bc c5a9 fc3c 399b 533c
00000020: 29c5 963b b053 f6bb 0cbd 6abc afde 42bd
00000030: df8f 34bd 7897 24bc 5140 c53c 9dba 76bc
00000040: 3d18 1e3b cc01 f7ba e6ee 9abd 21c3 8dbc
00000050: 60ca bc3c 131c 23bd 0cab 203d db95 9bbc
00000060: a4a1 6dbd bb8d 7b3c 0277 efbb cb82 803c
00000070: 0284 95bc 0114 45bd 7784 a5bd bcb6 e1bc
0.038269855 -0.038760982 0.0044144993 -0.021261603 -0.0066239876 -0.024458848 0.030842671 0.012915426
0.00460114 -0.0075173005 -0.014327299 -0.04757565 -0.04408252 -0.010045879 0.02407852 -0.0150591405
0.0024123334 -0.001884514 -0.075650975 -0.017304959 0.023045719 -0.039821696 0.039225623 -0.018992355
-0.05801548 0.015353615 -0.007307888 0.015687367 -0.018251423 -0.04811478 -0.08081906 -0.027552955

module.net_sm.layer2.0.bn1.running_mean f4 [32]
00000000: 3983 53bf d84e 2f3f ad1d 063f 023e 1840
00000010: 991b efbf 8e00 89bf 6080 0d3f 6c8b 14bf
00000020: b5a9 48c0 def3 4ac0 c536 e6bf 9263 383f
00000030: 0849 3fc0 2c56 c7bf 59b5 b73f b22c 0940
00000040: 69ff f33f 359c f3be ba60 13bf 7c08 713f
00000050: 894b 343f db41 32be 30a2 9bbf 5971 2dbf
00000060: f127 aa3e ef61 393f 63f3 2fbf 0f47 58bf
00000070: 04fd 4cbe c96f 04be 2abd 473f 7eaf 59be
-0.82622105 0.6847968 0.5238903 2.3787847 -1.8680297 -1.0703294 0.5527401 -0.5802524
-3.135358 -3.1711345 -1.7985464 0.7202693 -2.9888325 -1.5573173 1.4352218 2.143353
1.906232 -0.47580114 -0.5756947 0.9415357 0.7042776 -0.17407934 -1.2158871 -0.6775108
0.33233598 0.7241506 -0.68730754 -0.84483427 -0.20018393 -0.12933268 0.78023016 -0.21258351

module.net_sm.layer2.0.bn1.running_var f4 [32]
00000000: 2d90 993f a72a d93e 8959 5a3f 041d 0240
00000010: 2269 a13f 4e46 163f 30fe c33f 8c7e 2c3f
00000020: 2bb6 7d40 2c7f 7740 04a9 a13f ac6d 633f
00000030: dc1d 6d40 dddf bd3f 269b 783f 558f 0840
00000040: e630 2840 39df aa3f 29ac ea3f 8645 1d3f
00000050: 1305 e73e 8229 263f cb50 f63f 58c5 3540
00000060: beb7 6c3f aea6 793f 7c85 153f e3ed 833f
00000070: 6775 763f 598a 9f3f 7315 fc3f e8e8 5b40
1.1997124 0.42415354 0.8529287 2.033021 1.2610209 0.58701026 1.5311947 0.67380595
3.9642437 3.867137 1.2629704 0.8883922 3.7049475 1.4833943 0.9711174 2.1337483
2.6279845 1.3349372 1.8333789 0.6143421 0.4512106 0.64907086 1.9243406 2.84017
0.9246787 0.9751996 0.58406806 1.0306972 0.9627289 1.2464095 1.9694046 3.4360905

module.net_sm.layer2.0.conv2.weight f4 [32, 32, 3, 3, 3]
00000000: f236 f7bc ab46 333c 194f f83c 80fa 4f3c
00000010: 3d81 263b 0117 d9bb 4dd4 fb3c 3075 323d
00000020: eaf3 143d f7a0 e73b 38a3 b73c 9311 00bb
00000030: 892d 92bc 058b 013c 8fbe c03c d40e 953c
00000040: e29a ac3c 6ffe c33b ae78 27bd 3f08 d73c
00000050: 7ca8 083d fb31 39bd b1db f33c f1b7 b53c
00000060: c616 243d 23a4 3fbb 6882 bcbc 1c67 253c
00000070: 093f b53c 713f 393c 1482 ab3c 3871 1cbc
00000080: 4a97 5cbc 0eac 3cba 5a0e c23b 1296 19bd
00000090: 57f2 35bd 4a79 433c c1ba 89b9 9400 a63d
000000a0: b37d bf3b 1967 d13c ab10 f13c 16c9 323c
000000b0: a90f d73b bc58 a8bb 8144 e2bb fd36 743d
000000c0: fa1e 2bbc be25 be3c 16fc 763d 69bc c2bb
000000d0: 6725 ee3c f98e 16bd 3cc6 833c e9a4 24bd
000000e0: 2776 0ebd ed81 15bc ffa7 93bc 4042 c6bb
000000f0: 45da 913c d55f aebb 95e1 023d f980 0bbb
00000100: 8d18 143d 5e50 773d 96d4 913c 33a7 f23c
00000110: 8508 b23c bf64 f5bb 27f9 61bb 7c37 a73d
00000120: 6298 603c b9c9 b03c c216 b1bc 13ca c03c
00000130: 73c4 063d 03d8 a63b 8e7e 843b 264b 83bc
00000140: 6d99 76bd 3135 2cbd 9fce 8f3c 9f1a fdbc
00000150: 0aa1 60bd 6c34 b63c 8f0a 153d 3c13 093c
00000160: 56cd dfbc 7d1c 9a3c b09c e8bc 2c40 783d
00000170: e2ab b83d de42 1e3b b9a9 293d a576 063d
00000180: fcc2 28bc 9c70 dc3c 407f 073d 94b3 8ebc
00000190: d598 1a3c 4cee e53c a0df 1dbd f025 c7bb
000001a0: d548 e73c e82e 28bc e92d 25bc 375d df3c
000001b0: 164f 12bc b391 c83b 8fa6 493d 56e7 383b
000001c0: 3e08 0b3d 1cd7 12bc 471b 16bd 7de2 a93b
000001d0: 9477 c8bc 2cff 9e3c d444 543c cbe7 4fbc
000001e0: 88b6 75bc e749 633c d3e9 0dbd 7773 1b3d
000001f0: 817d b93c b2ec 95ba f484 94bc 18cd 9e3c
00000200: 1029 1e3d 21ad 9abc 9ad1 513b 1539 a7bb
00000210: bb61 32bc 0c06 cf3c 85f2 3d3c 7e1d 323c
00000220: 8f23 debc c074 fabb 48a8 bdbc 265c 18bd
00000230: 6a02 f6bb ac99 61bd de47 afbc d5a9 ad3c
00000240: 46cc 9fbb 13f7 8e3c e15f a9bc 66c9 34bd
00000250: e1ea b1bc f5b0 74bc 3718 b83b 9327 71bd
00000260: 8475 24ba d4fc febb c2c3 e23c 4c6a 4b3c
00000270: b4cc 6d3c 0e99 66bc 34a6 61bd 68e1 823b
00000280: 0a2a b23b 8643 5e3c a29e 0e3d 4f77 333c
00000290: 57bc 4f3c ce0a 81bc 8f6b a7bc c3a0 8ebc
000002a0: 2b24 e23c 0879 473d 53d6 b13d eac7 54bc
000002b0: 6b11 3f3c 2e7e 91bc 74eb 663c f513 853c
000002c0: 5128 68bc b158 85bc 683a 533d 2ea0 35bc
000002d0: 627b 803d 399d e33c 66b4 76bc 699d 06bd
000002e0: bc13 43bc 5c5d 293d d1a1 b93b 7ae1 ad3d
000002f0: af56 3d3d 642d 443c 6005 8dbc bea3 99bc
00000300: 3323 b23c 607a a6bb 55cc 16bd 1f10 d73c
00000310: 98ea 183d 2a05 b33c 9d87 3d3c 6d2b bc3c
00000320: 7154 283c 0b25 393d 204f 42bc d2cd 1939
00000330: 3d01 3b3c 6aaa 30bd ec0b c5bc 9192 e53b
00000340: f204 013c 2d87 a23c 8c22 80bb 7dad 0ebd
00000350: 1482 7b3c 6a83 473c cfc1 a63c 7b0c 083d
00000360: 940d a53c c637 823c 0521 aa3c da10 cd3c
00000370: 8db3 b93b 537a e0bc 68f6 fc3c 60e4 4b3c
00000380: 110c 283d 871a 85bc a2ec 9cbb 0f02 a13c
00000390: 042d 67bc 6ddf 3f38 6a96 283b ad0b 5ebb
000003a0: 0e54 44bd 5f18 59bd 94d6 f93c ac70 d8bc
000003b0: 23ab 5abd be5d efbb 09ab 43bd 40c6 2abd
000003c0: 0735 a33b 17f2 273d 0180 cf3c 8d7f 28b8
000003d0: c4f0 f93b c904 babc dafc 9bbc 3b8a 5fbd
000003e0: 5de9 d13c 7e99 61bc e068 ab3c 2805 0c3d
000003f0: a160 41bd 4144 fabb 1727 9d3b 5b44 b2bc
-0.030177567 0.0109421415 0.030311154 0.012694001 0.0025406622 -0.0066250567 0.030740881 0.04356879
0.036365427 0.007068749 0.022416696 -0.0019541725 -0.017843978 0.00790668 0.023528365 0.018195547
0.021069948 0.0059812586 -0.040886573 0.02624905 0.033363804 -0.04521368 0.029767843 0.022182437
0.04006078 -0.002924212 -0.023011401 0.010095384 0.022124784 0.0113066295 0.02093605 -0.009548478
-0.0134638045 -0.0007197269 0.005922121 -0.037496634 -0.044420566 0.011930773 -0.0002626982 0.08105579
0.005843842 0.025561856 0.029426893 0.0109122 0.006563146 -0.005137531 -0.006905139 0.059622753
-0.010444397 0.023211356 0.060299 -0.0059428704 0.02907057 -0.036757443 0.016085736 -0.040196333
-0.034780648 -0.009125215 -0.018024443 -0.006050378 0.017804274 -0.0053214827 0.031953413 -0.002128659
0.036156226 0.06037938 0.017801564 0.029620742 0.021732578 -0.0074888165 -0.0034480782 0.0816488
0.013708206 0.021580564 -0.021617297 0.023533856 0.032902192 0.0050916686 0.004043407 -0.016027045
-0.060204912 -0.042042915 0.01755458 -0.030896483 -0.05484108 0.022241794 0.036387023 0.008366402
-0.027319591 0.018812412 -0.028395027 0.060608074 0.09017159 0.0024148743 0.041421626 0.032827992
-0.010300394 0.026909165 0.03308034 -0.017419614 0.009435852 0.02806773 -0.038543344 -0.0060775205
0.028232971 -0.01026509 -0.010081747 0.027266128 -0.008929988 0.0061208843 0.04923111 0.002821406
0.033943407 -0.008962419 -0.036647107 0.00518447 -0.024471082 0.019408785 0.012955863 -0.012689541
-0.014997132 0.0138726 -0.03464682 0.037951913 0.022642853 -0.0011438339 -0.018129803 0.019384906
0.03861338 -0.018881382 0.0032015801 -0.0051032403 -0.010887559 0.025271438 0.011593466 0.010871289
-0.027116565 -0.007643312 -0.023151532 -0.037197255 -0.007507612 -0.055078194 -0.021396574 0.021199146
-0.004876646 0.017451799 -0.020675601 -0.04413738 -0.021718444 -0.014934768 0.005618121 -0.05887563
-0.00062736147 -0.0077816043 0.027681235 0.01241548 0.014514137 -0.014074577 -0.055090144 0.0039941557
0.0054371404 0.0135659035 0.034819253 0.010953738 0.012679181 -0.015752222 -0.02043703 -0.017410642
0.027605137 0.04869941 0.08683457 -0.012987116 0.011661868 -0.017760362 0.014094222 0.016244868
-0.014169768 -0.016277643 0.051569372 -0.011085553 0.062735334 0.02778493 -0.015057659 -0.03286496
-0.0119065605 0.0413488 0.005665042 0.08490272 0.046225246 0.011973713 -0.017214477 -0.018754836
0.0217453 -0.005080506 -0.03681596 0.026252804 0.0373331 0.021853048 0.011567977 0.022969926
0.010274039 0.045201343 -0.011859685 0.00014667891 0.011413869 -0.04313127 -0.024053536 0.0070059975
0.007874714 0.019839847 -0.0039103683 -0.03483342 0.015350837 0.012177328 0.020356087 0.033215027
0.020148076 0.015895735 0.020767698 0.02503245 0.005667156 -0.027402079 0.030879214 0.012444586
0.041027132 -0.016248 -0.004788951 0.019654302 -0.014109854 4.574603e-05 0.002572442 -0.003388147
-0.047931723 -0.053001758 0.030497827 -0.026420914 -0.053385865 -0.007304876 -0.047770534 -0.041692972
0.0049806866 0.04100236 0.025329592 -4.0173112e-05 0.0076275785 -0.02270736 -0.019041467 -0.054575186
0.025623972 -0.013769506 0.020924032 0.034184605 -0.047211293 -0.007637531 0.0047959196 -0.02176111

module.net_sm.layer2.0.bn2.weight f4 [32]
00000000: 91b5 ff3e f13b f63e 3a0a ef3e e59a d43e
00000010: 7e8a 093f 93e0 ee3e addd 073f 63e8 f63e
00000020: 7660 f33e 2583 f73e d4d2 0b3f cfe1 033f
00000030: 94d4 f93e a6e0 db3e b1e8 fa3e c9ea 033f
00000040: fc35 e53e d839 043f 8dd9 173f ef97 273f
00000050: 7f3f 083f 6557 eb3e 4d8c f33e 27fe f73e
00000060: 4e7b 0d3f 66ad ff3e a684 093f 326e f83e
00000070: 4114 063f 74ee 2d3f 1187 023f 65d7 093f
0.49943212 0.48092607 0.4668749 0.41524425 0.5372695 0.46655712 0.53072625 0.48224172
0.4753453 0.48342243 0.54618573 0.5151643 0.48794997 0.4294483 0.49005654 0.5153013
0.4476775 0.5165076 0.5931633 0.6546621 0.5322189 0.45965114 0.47567979 0.4843609
0.55266273 0.4993698 0.5371803 0.48521572 0.52374655 0.67941976 0.50987345 0.5384429

module.net_sm.layer2.0.bn2.bias f4 [32]
00000000: f7cb 61bd c55d ea3c a6c3 b6bd 5ec1 e03c
00000010: c195 ee3c d371 003e 33a6 8abd eef4 acbc
00000020: 7e71 073e 3fa2 163d 2bcc b5bd 6205 3ebd
00000030: 1ca8 5dbd 7125 02be 39a5 88bd b72b 8bbc
00000040: 5849 6dbd 1991 26bc 40f1 bebd cc2c ff3b
00000050: a39c 92bd a243 853b 59c6 2e3c df32 11bd
00000060: 7821 f6bc 9fe0 d53c 0a94 e6bd 848f 09bc
00000070: 820a b7bc cfdc 26be c535 353d 7a20 063c
-0.055126157 0.028609166 -0.08924036 0.027435955 0.029124143 0.1254342 -0.06769981 -0.021112885
0.13226888 0.036775824 -0.088768326 -0.046391852 -0.0541154 -0.12709595 -0.06672139 -0.016988618
-0.057931274 -0.01016643 -0.093233585 0.0077873226 -0.07158782 0.0040669004 0.010667407 -0.035448905
-0.030045256 0.026108084 -0.11258705 -0.008396033 -0.022343878 -0.1629517 0.04424073 0.008186454

module.net_sm.layer2.0.bn2.running_mean f4 [32]
00000000: 7812 243e fcf7 acbe 199b a93e d083 1d3e
00000010: 16dc 08be 8bd6 f2be 0a37 83be a176 563e
00000020: 639c eebe ffbf 09bf 8e4b 953d 70c7 68bd
00000030: 19c2 2fbe 753f 4d3e c9b7 133f ecb0 a5bd
00000040: 4400 553d 452e 983e 4ee6 2a3e 3b97 ae3e
00000050: 1d12 073e d956 363e 3ca7 eebe 2fb7 593e
00000060: 60d6 a1be ad64 e9be 9a9c 9f3e bf6f ec3e
00000070: 830f 453c 25ee 933e 43b1 19bf 9783 023f
0.1602267 -0.33782947 0.33126143 0.15382314 -0.13365206 -0.47429308 -0.2562793 0.20943691
-0.4660369 -0.5380859 0.072898015 -0.056830823 -0.17163886 0.20043738 0.5770231 -0.08090386
0.052002206 0.297228 0.16689417 0.34099755 0.13190503 0.17806567 -0.46611965 0.21261285
-0.31608868 -0.45584622 0.31174165 0.46179006 0.012027624 0.28892627 -0.60036105 0.5098204

module.net_sm.layer2.0.bn2.running_var f4 [32]
00000000: a7a9 623e fa25 8f3e 44ec 933e e8b9 ae3e
00000010: a2c0 423e 94b5 513f a412 413e 417e 443e
00000020: 8a7c 473f 8e31 a33e 8f9a 923e b0c6 943e
00000030: de82 4d3e 452f 063f 336a 243f 0e96 9c3d
00000040: 7464 0c3e 0cb3 103e 00f1 9c3e 2cea 5b3e
00000050: 7295 9c3e 4fbb 433e 7cc7 c03e e493 c33e
00000060: ecbf 6b3e e3da c63e f4b3 b93e e57d 9e3e
00000070: 7718 623e f734 243f c2f0 533e 7bd4 8a3e
0.2213503 0.2795866 0.28891194 0.3412621 0.19018796 0.8191769 0.18854767 0.19188787
0.77924407 0.31873745 0.28633544 0.29057837 0.20069453 0.5241588 0.6422455 0.07645808
0.13710195 0.14130801 0.30652618 0.21476048 0.30582768 0.19114421 0.37652194 0.3819877
0.23022431 0.38838872 0.36270106 0.30955425 0.22079645 0.6414332 0.2069731 0.27115235

module.net_sm.layer2.0.ca.fc1.weight f4 [2, 32, 1, 1, 1]
00000000: 011d 053f d83b f5be c125 283f 06ec 3fbf
00000010: ac49 66be 198f bc3e da73 003e 25c3 6cbe
00000020: 23c4 373f 2128 edbe a4bd f03e 52ea 0b3f
00000030: e18c 9a3e 2fe7 783f 8dbc 09bf 6ebb 6c3e
00000040: 0e12 2b3f acc9 ab3c 6fd9 9cbd 9c08 f6bd
00000050: e34a 6f3f 05e5 07be ec62 a2be fded 763f
00000060: 9f7d ed3e 87d3 063f 1410 983e 00d0 18bf
00000070: b301 143f 225d 7fbe 84d8 5a3c 6efd a0be
00000080: 9769 813e 86c8 70bf 7d9b 27bf 49d7 81be
00000090: bd5a 05bf 092f c63e 9164 34bf 8dad 3fbf
000000a0: 7f49 debd 6f39 f9be 338f 093f 9fa8 3b3f
000000b0: 17f8 b5be 5699 fa3d 7cab efbe 2a58 1f3e
000000c0: d9a2 df3c 3cf7 aa3e c396 af3b 4fc6 f1bd
000000d0: 3926 42be 3ebb 0abf 5849 883e ab41 0cbf
000000e0: f6d0 623e 12e8 44bf db8c 7dbe f601 3d3f
000000f0: 2105 0abe 7786 c4bd 8341 e13e 5ecd 15bf
0.5199738 -0.4789722 0.6568261 -0.7496952 -0.22489041 0.36827925 0.12544194 -0.23121317
0.71783656 -0.46319678 0.47019684 0.5465442 0.30185607 0.9722776 -0.5380333 0.23118374
0.66824424 0.020970188 -0.0765866 -0.12013361 0.93473643 -0.13270958 -0.31716096 0.9645689
0.46384904 0.52666515 0.29699767 -0.5969238 0.5781509 -0.24937871 0.013357285 -0.31443352
0.2527587 -0.94055974 -0.6547163 -0.25359562 -0.5209158 0.3870776 -0.7046595 -0.7487419
-0.10853862 -0.4867663 0.5373413 0.7330417 -0.3554084 0.12236278 -0.4681052 0.15560976
0.027299332 0.3339175 0.0053585484 -0.118054025 -0.18959893 -0.5419196 0.26618457 -0.547877
0.22150025 -0.7691661 -0.24760763 0.7383112 -0.13478519 -0.0959596 0.43995294 -0.5851649
