model/model_20200929150300/model_final_hcp_2_0300_sm.pth (torch_old, 974091 bytes, 68 tensors)

module.net_sm.conv1.weight f4 [32, 1, 7, 7, 7]
00000000: fbbc 80bc c3f9 e3bc 0a72 f6bc 404e a0bd
00000010: 7c85 4ebc f283 f43b 1e28 a23c 731f b03b
00000020: 7245 bbbc 4cfe a0bc 9d49 d7bc c629 3d3c
00000030: 2a64 873c df4d d63c 0f46 373b 5de2 8abc
00000040: cb46 17bd 12f0 9fbc 0a4e d6bc af55 c13c
00000050: e95a 403d 2188 79bd eb2d 58bc 6230 6439
00000060: 6615 913c f2ed 813d c60e 4e3d bb00 223d
00000070: 3449 33bd ab0c fbbb 6b25 1b3b 1afe 01bd
00000080: 93cb ab3b 388a 743d 36cb b33c 121e 83bd
00000090: 144c 04bd 59b2 edbb 31fe 23bd 09da 3d3c
000000a0: 0586 693d 067c 9f3c 9f35 bd3c d32c c43c
000000b0: cafa 71bb 54a9 993b f682 123c ee1b e738
000000c0: 8ea8 9cbc 5ee7 0b3c 4b29 21bd 951b 41bc
000000d0: 3ce1 b9bc b5e9 8ebc 770f 233d a7a1 4cbc
000000e0: 3826 87bc d818 80bd 0a6c 023d 6c41 883c
000000f0: b30e 17bc 3ff4 183c c82e fdba bbb7 31bd
00000100: 6073 50bd 736e 80bc f4a7 a2bc be6e 88bd
00000110: 0915 2cbd 28e0 d33b 685d 443d 00c0 5c3c
00000120: aeaa 9e3b 4ffd 103d a7c1 49bd d2f8 5fbc
00000130: d3c0 d43c 3560 633d 1e9a 9b3c a074 95bb
00000140: 0ff1 6c3c 6288 53bd fdf0 82b9 c83a 4d3d
00000150: cb5b 83bd d3ca bfbd ce75 55bd 03da f2bb
00000160: bcc5 dcb9 949e dfbc f80b 923c debb fe3c
00000170: fe12 ca3c 92aa db3c 525f f2bb 013d e8bb
00000180: 5918 6a3c dfa2 973d 205e 2f3c 2c77 13bd
00000190: 5ff4 003c f5e8 23bd 413f 15bc 7fdc 9839
000001a0: 91f8 be3a df38 bdbc c0f4 79bd d098 b63c
000001b0: 731e 59bd 68ea 36bc fe5b 283c 2b29 c8bc
000001c0: 079b f0bc def1 dcbc 501b 7e3a 1d21 77bc
000001d0: bcb0 7fbd fb3a 71bc 0570 59bc 3404 9c3c
000001e0: d8ea 6bbc 4399 c33c d9be 863c 19c5 90bd
000001f0: 86d7 b8bc fbff 01bb a695 5e3b 12ee 71bc
00000200: b8b7 eebc 416a 9dbd 07ba 04be 90ca 91bc
00000210: 9e92 003d 572e 6f3c 85e1 1fbd b23a 09bd
00000220: af09 263b 52ff 1dbb 04e7 d53a f048 b43c
00000230: 7a8e 603d f4f3 863b cc67 47bb f226 983d
00000240: 8d99 f6bb d66f 0bbd 3b9d b23d 2b6b 2b3d
00000250: ec48 a2bd eaee a0bd d281 62bd 844d 8abc
00000260: c66c 4f3b 519b 8cbc e5ac db3c a8c7 4cbd
00000270: e45a 71bc c5c2 d4bc c5b5 3fbd fcf1 41bd
00000280: 63ad 8bbd e386 1a3d 3a9d 48bd 4e93 48bd
00000290: 8c27 37bd 6050 61bd 2d20 863c 7986 263d
000002a0: ad85 4c3d 52ee 2cbd 49d6 8cbd d744 9bbd
000002b0: a420 adbd 7892 bcbc bbab 8abc 40a9 8a3c
000002c0: 483b 27bd f4fd d0bc 5c24 9fbc 5719 73bd
000002d0: 797a 3dbd bd4b 89ba 6bfb 743d 15f3 ffbb
000002e0: 231c 5bbd c7b4 b33c 7bbc 9739 37a3 b9bd
000002f0: 717b cabc 0dc7 913d a1c7 703c a937 66bd
00000300: 5d30 a63c d664 ca3b 1501 7cbd f96a 6a3d
00000310: c54c 8c3d 2ec1 9e3c 20f5 043c 92c2 54bd
00000320: 4c32 71bd 9ae3 883a 0e47 853c 196b 603d
00000330: efde ed3c 6a09 7cba 7e41 cabc 1dc4 b3ba
00000340: 5e48 933c d817 503c e365 553c 97f9 273c
00000350: 4809 ef3b b8a7 77bb f90c 30bd 76fa c93c
00000360: 63be 233d 5813 9d3d 162c 893c a5ce a43c
00000370: 4baa 683c 743f 53bd bb97 e3bb 35ad 4d3d
00000380: 2a91 183d e46e 1abb 2b95 173d 62ea 1e3d
00000390: a595 ca3a 763a 5cb9 4e1e b43d eedb 633d
000003a0: c1b7 56bc 6104 8cba 2148 8e3d 1b0f 6f3c
000003b0: ff22 1cbd f5c9 183d faf3 ea3c 410e 963c
000003c0: 77fd 24bd 32ad f3bb ca14 d9bc e387 9abd
000003d0: af8c 133d 6098 c93c ac21 3c3b 5864 803d
000003e0: d176 41b9 2059 57bc b0ed d43c 865f a23c
000003f0: f125 53bc 6475 7fbd aa62 adbc dadd 3ebc
-0.015715113 -0.027829057 -0.030083675 -0.07827425 -0.012605067 0.007462018 0.01979452 0.005374843
-0.022860263 -0.019652508 -0.026280219 0.011545604 0.016527254 0.026160179 0.0027965342 -0.016953642
-0.036932748 -0.019523654 -0.026160259 0.023600427 0.0469617 -0.06092084 -0.013194541 0.00021761798
0.017710399 0.063442126 0.050307058 0.039551478 -0.043770984 -0.0076614222 0.0023673426 -0.03173647
0.005242774 0.05970213 0.021947484 -0.0640222 -0.032299116 -0.0072539267 -0.040037338 0.011587628
0.057012577 0.019468319 0.023096858 0.023947155 -0.0036923164 0.004689375 0.008942356 0.00011020141
-0.019123342 0.008539049 -0.03934602 -0.011786361 -0.022690408 -0.017445425 0.03980967 -0.012489713
-0.016497716 -0.062547386 0.031841315 0.016632758 -0.009219813 0.009335577 -0.001931631 -0.04338811
-0.05089128 -0.015677666 -0.019855477 -0.066617474 -0.04201225 0.0064659305 0.04794064 0.013473511
0.004842124 0.035397824 -0.049256947 -0.013670163 0.025970852 0.055511672 0.018994387 -0.004561022
0.01446177 -0.051643737 -0.00024975082 0.050104886 -0.064139925 -0.093648575 -0.0521143 -0.007411243
-0.00042108994 -0.027297296 0.017827973 0.031095441 0.02466726 0.026814733 -0.007396617 -0.0070873504
0.0142880315 0.07404112 0.0107035935 -0.036002323 0.007870763 -0.040017087 -0.009109319 0.00029155982
0.0014569928 -0.023098407 -0.061024427 0.022289664 -0.053007554 -0.011164285 0.010275839 -0.024433693
-0.029370798 -0.0269708 0.0009693401 -0.015083578 -0.062424406 -0.014723535 -0.013271336 0.019044973
-0.014399253 0.023876792 0.016448425 -0.070688434 -0.022563707 -0.0019836414 0.003396371 -0.014766233
-0.029140338 -0.07686282 -0.12961589 -0.017796785 0.031389825 0.014598451 -0.03903343 -0.03350324
0.0025335362 -0.0024108482 0.0016319458 0.022007436 0.054823376 0.004118437 -0.0030426858 0.07429303
-0.007525629 -0.034042202 0.087213956 0.04185025 -0.07924065 -0.07858069 -0.055299588 -0.016882665
0.0031650527 -0.017163904 0.026815841 -0.049995095 -0.014731143 -0.02597178 -0.04680421 -0.047349915
-0.0682018 0.037726294 -0.048978068 -0.048968606 -0.04471545 -0.055008292 0.016372764 0.040655587
0.04993217 -0.042219467 -0.06876809 -0.075814895 -0.08453491 -0.02301906 -0.01692759 0.016926408
-0.04082802 -0.02551172 -0.019426517 -0.059350338 -0.046259377 -0.0010474842 0.059810083 -0.00781096
-0.05349363 0.021936787 0.00028941393 -0.09064334 -0.024717065 0.07118044 0.014696033 -0.056205425
0.020286733 0.0061765714 -0.06152447 0.057230923 0.0685058 0.019379225 0.008115083 -0.05194337
-0.058885857 0.0010443807 0.016269233 0.054789636 0.029036967 -0.000961444 -0.024689432 -0.0013715063
0.017978843 0.012700997 0.01302478 0.010252378 0.0072948076 -0.0037789177 -0.04298112 0.024655562
0.03997649 0.07669705 0.016744655 0.020118067 0.014200757 -0.051574185 -0.006945578 0.05021401
0.037247814 -0.002356463 0.037007492 0.038797744 0.0015455974 -0.00021002613 0.08794843 0.055629663
-0.013105334 -0.0010682457 0.06947351 0.014591004 -0.038119312 0.037301976 0.02868079 0.018317344
-0.040280785 -0.007436418 -0.02649917 -0.075454496 0.03602284 0.02460879 0.0028706593 0.06269139
-0.00018450177 -0.013143808 0.025992244 0.01982094 -0.012887464 -0.06236781 -0.02116521 -0.011649573

module.net_sm.bn1.weight f4 [32]
00000000: b332 133f 2f14 193f 527c 1a3f 2c85 113f
00000010: c6da f93e 4fe5 143f a7b2 db3e bc35 043f
00000020: 4e7a 0f3f 5a44 0e3f b2d0 033f efac 103f
00000030: 8058 0c3f fbdd db3e 8175 033f 388a f63e
00000040: 7616 0f3f 3252 f03e a01b 033f ab19 003f
00000050: 1340 113f 3c79 113f 30f3 093f a27e fe3e
00000060: 0fc6 163f 7e7b 203f b737 103f 5d0a f53e
00000070: 8f54 f73e 8e26 073f c4d2 063f fd4e 073f
0.57499236 0.5979642 0.6034595 0.5684383 0.48799723 0.581624 0.42909738 0.5164449
0.56046 0.55573046 0.5149032 0.56513876 0.5482254 0.42942795 0.5135117 0.48152328
0.5589365 0.4693771 0.5121403 0.50039166 0.56738394 0.56825614 0.538867 0.49705988
0.58895963 0.62688434 0.56335014 0.4785947 0.483067 0.52793205 0.5266535 0.528549

module.net_sm.bn1.bias f4 [32]
00000000: 227b 613b e278 1c3b af45 953a de10 2dbd
00000010: c2eb 8bbd 8afe 8739 780a 6c3c 0e86 953b
00000020: fde1 0a3c 9862 e839 e4ef 54bc 8ebf f239
00000030: 52cb 62bc ba4d 9abc 6b0e ebbc 5cf7 5dbd
00000040: c460 a43b c3b1 bb39 4775 593c f8a1 4fbd
00000050: 6436 ffbc 9b0d 88bc 27d3 06bd d8da f2bc
00000060: 31a3 553c 8c05 8c3c ea91 9cbc 52ff 8d3b
00000070: 9d9e 82bb 4668 04bd 1c21 983a 368a edbb
0.0034405668 0.0023875763 0.0011388565 -0.042252414 -0.068320766 0.00025938853 0.014406793 0.0045630997
0.008476731 0.00044323946 -0.0129966475 0.00046300556 -0.013842421 -0.018835891 -0.028693398 -0.05419098
0.005016418 0.00035799862 0.01327259 -0.050691575 -0.031153865 -0.01660805 -0.032916214 -0.029645368
0.013039396 0.017092489 -0.019112546 0.004333415 -0.0039861933 -0.032326005 0.0011606547 -0.007249142

module.net_sm.bn1.running_mean f4 [32]
00000000: b246 7c35 b8ab bbb6 ff6d d1b6 358a 4337
00000010: 423b e2b6 23fa 0eb7 4ccf 18b7 f685 fd36
00000020: c4a5 3c36 ba28 db36 40c6 19b7 a4cd dcb6
00000030: 1f74 9ab6 f978 66b6 c6e7 2a36 d8d7 0e34
00000040: ed1e 0eb7 23cb 7cb6 dc66 d0b7 a37b f036
00000050: 3dd2 14b6 e24a 4f35 dc07 08b7 7cf6 0cb7
00000060: decc 09b7 c723 73b5 015e 3db6 e0e1 dab5
00000070: 1b50 37b7 788c 11b7 b891 d636 29fb 4736
9.398019e-07 -5.593025e-06 -6.2414906e-06 1.1655085e-05 -6.7422234e-06 -8.522099e-06 -9.108171e-06 7.5555827e-06
2.8110671e-06 6.53145e-06 -9.165669e-06 -6.5804506e-06 -4.603076e-06 -3.4343086e-06 2.5466884e-06 1.3303304e-07
-8.47106e-06 -3.7669167e-06 -2.484343e-05 7.1669506e-06 -2.2176093e-06 7.722248e-07 -8.108062e-06 -8.402039e-06
-8.213536e-06 -9.0576617e-07 -2.8217912e-06 -1.6308004e-06 -1.0926301e-05 -8.675379e-06 6.394661e-06 2.9799505e-06

module.net_sm.bn1.running_var f4 [32]
00000000: beaf cd3b 92f8 b43b d169 8f3b 0400 b83b
00000010: 8f9a b13b 8b9e 9a3b 3c29 a03b 3a17 a83b
00000020: 6f69 953b 8cc6 c93b eb8b aa3b 97dd bd3b
00000030: dbc1 b03b a226 b33b edbe 9b3b 5533 9b3b
00000040: 4a6a b43b 8a22 933b 7d6f b23b 0b5a f13b
00000050: 901b 953b 4c58 953b 25b9 bd3b 372d a23b
00000060: 3a20 c03b e16f c23b 3874 aa3b 3be7 603b
00000070: 3049 a33b 0a7b ce3b 542c 0d3c 79ef cf3b
0.0062770536 0.005522796 0.004376628 0.0056152362 0.005420036 0.004718607 0.004887728 0.005129722
0.004559688 0.006157702 0.005204668 0.005794238 0.005394203 0.005467252 0.0047529847 0.004736344
0.0055058347 0.0044902014 0.0054454193 0.0073654703 0.004550405 0.004557645 0.005789893 0.0049492377
0.0058632167 0.005933747 0.0052018426 0.0034317512 0.00498309 0.0063012885 0.008616526 0.006345686

module.net_sm.layer1.0.conv1.weight f4 [32, 32, 3, 3, 3]
00000000: 2b62 f2bb 57d3 8bba 606c 98bc dc1c 7ebc
00000010: 9b78 213c 072b abbb 863e 1fbd a00f a33c
00000020: c0e5 f53b 16df cdbc aeab 00bc c8eb bbbc
00000030: cfbd dabc 665c e23c ba71 7b3a 9955 5a3c
00000040: c47a 88bc 5a2c 643c 8173 5f3c 35d9 c13b
00000050: 0f27 8b3d 59a5 af3b 3a13 05bc f3e5 e63c
00000060: ab66 14bd 37b1 df3c 639b 10bc 69b3 3d3d
00000070: a838 793c a745 07bd 424c b33c f9c7 4abc
00000080: dabb 363c d489 a2bc e924 653c 6fc1 0ebb
00000090: 4a60 35bc da0c b1bb f7c3 ba3c 462c ee3c
000000a0: 50e8 423d cf1a 24bd a99d bfbc 8c5c 623c
000000b0: 09c4 f1bc 0161 bc3c 55d4 803d 33a4 97bc
000000c0: fa3f 283d 1934 34bd 76af 163d e1cf 1cbd
000000d0: 0213 803c 7b5e 113b f189 f93b 981f 1cbc
000000e0: 2ed6 3c3c d8dc d6bc 8b7f 3a3d 0c0a 693c
000000f0: b547 b93c dca7 2d3d b59e 213d 7a29 80bb
00000100: 996a a03c d8cb 41bc 5c06 38bb eb5e b63c
00000110: f08a 41bb bc37 97bc 317c 943c 93db 663d
00000120: 6a21 08bd 58a1 a5bc c459 58bd c7c2 1ebb
00000130: 3bf9 973c 587d 363c ac33 d8bc 4769 faba
00000140: 0f5c e53b a738 103d 6aa7 543a e9a3 fb3c
00000150: 0c44 41bb 17c6 9abc c61b 553d 774f b33c
00000160: 59d1 e93b d1f0 d8bc 8764 ec3c 263e 2f3b
00000170: 3771 0f3d 2b52 aabc ed60 8bbc 2d77 27bc
00000180: 5d13 963d 9117 06bc 58de 073d 730b 01bd
00000190: 2b8f abbc ba3e 1c3c 27e4 0ebd 78c0 213d
000001a0: bc4f 4f3c 3594 8e3c 83ab 5b3d 2eec 4e3d
000001b0: ddd6 9f3c ab63 7e3c cbd0 1f3c ac5a f9bc
000001c0: 6d8a e73c f79d cd3c d14b 543d 74c4 54bc
000001d0: a4ee 873c 4137 17bc e949 3ebc fed7 c9bb
000001e0: 8f5e cabc 55f5 2ebc 2361 fabc 8227 d13c
000001f0: 3f70 9d3b 82ba bf3b 51ba 4f3c fe5a 73bc
00000200: 8e58 3a3c 10e2 0b3d eaf8 743c 29c1 21bd
00000210: 8550 a43c 49fb 0cbc 8fc8 d8bc c658 7fbc
00000220: 2e93 4abc c025 ad3b 4dd2 55bd 6aaa 543c
00000230: 1a93 943c 0ae3 053d 14df 5ebd 93da fe3c
00000240: 0759 02bd 9d89 96bb fbde d6bc 6f7c 443a
00000250: 09bc 42bb 9660 25bc 69d6 e2ba 0e57 0cbd
00000260: b9d2 cbbc 642e 423c 4de3 d8bc 1958 25bd
00000270: 819a 363d 2066 81bc 64f2 26bc 5a2a c63c
00000280: d418 593c b4ff db3c a3ef 193c b958 31bd
00000290: 88e9 6f3c 82e5 54bc 5582 033d c3db d93b
000002a0: ce77 ccbb e6bc 2ebd f79a d63c de99 5a3d
000002b0: dc2b 493d a8bb cabc 4772 e93b de5f 38bc
000002c0: f405 ed3c b22f aabc f6a6 da3c 5d09 05bb
000002d0: 72db a0bc aa9f 3cbc f52a b6bb 0847 3d3c
000002e0: 8da8 a7bc a106 8a3c bb5b 0b3d fbcd 323d
000002f0: dae3 b7ba 7ae2 74bc 57fc 75bc d173 893c
00000300: ba8b 523c 34a6 46bd 109a a83d ab08 1a3b
00000310: f872 843d 8416 603b ec8e 6f3b d204 eabb
00000320: bac1 17bc d6cc c33c fe3d 863c 41ef 0cbd
00000330: f82e 3a3c 94c8 6bbc 74f8 d1bc 2897 a9bc
00000340: 92de 70bb 3aa9 333c fcff b83b 4b32 993c
00000350: 7a60 8837 ad8f a3ba b507 cd3c ad17 2038
00000360: af46 823c b048 5f3c 8999 14bc e8f0 783c
00000370: b5eb d83c 408f 863c 6f59 d4bc cbc4 bfbc
00000380: 60ff adbc 32db 37bd 090e b4bc eb28 543c
00000390: 4184 65bc 30a9 fc3c 0b85 b23c ce4c c83b
000003a0: f53b 503c c898 623d 0e47 7bbb 5b5b 463d
000003b0: ad72 42bb 1bf7 893c b610 c73c ff2d 043d
000003c0: e657 5e3d 9b68 233b e320 f03c efef 033d
000003d0: 14b3 1c3d 0542 2abd c39e 103d d1c3 143d
000003e0: 377d 603b c629 d1bc d1eb 1f3d 65d8 833b
000003f0: 6977 b63c 2ca7 b8bb 10c9 9dbb c7c2 c1bc
-0.0073969564 -0.0010667843 -0.018606365 -0.01550981 0.009855415 -0.005223635 -0.038877986 0.019904912
0.007504195 -0.02513079 -0.007853432 -0.022939578 -0.026701836 0.02763195 0.0009591837 0.013326072
-0.016660102 0.01392659 0.013638378 0.0059157857 0.06794559 0.005360287 -0.00812226 0.02818582
-0.036230724 0.027306182 -0.00882611 0.046313677 0.015211262 -0.03302541 0.021886948 -0.012376779
0.011153186 -0.019841112 0.013985851 -0.0021782776 -0.01107032 -0.0054031434 0.022798521 0.029073846
0.04758483 -0.04006463 -0.023390608 0.01381601 -0.029512422 0.022995474 0.06290499 -0.018510913
0.041076638 -0.043994997 0.036788426 -0.038284186 0.015634064 0.002218156 0.007615321 -0.009529017
0.011525674 -0.026228353 0.04553179 0.014223587 0.0226172 0.04239641 0.039457995 -0.0039111944
0.01958208 -0.011828385 -0.0028079962 0.022262057 -0.0029532276 -0.018459193 0.018125625 0.056361746
-0.03323499 -0.020218536 -0.052819982 -0.0024224983 0.01855146 0.011138283 -0.026391827 -0.0019104861
0.0069994996 0.035210278 0.0008112105 0.030717807 -0.0029490022 -0.018893285 0.05202844 0.021888478
0.007135552 -0.026482018 0.028856529 0.0026739924 0.03502008 -0.020791134 -0.017013991 -0.010221285
0.07327912 -0.00818433 0.033171028 -0.03150506 -0.020942291 0.00953644 -0.03488555 0.039490193
0.0126532875 0.017404655 0.053630363 0.050518207 0.019511634 0.015526692 0.00975437 -0.030438744
0.028264249 0.025099738 0.051830117 -0.012986291 0.016593285 -0.009229482 -0.011614301 -0.0061597815
-0.024703292 -0.010678609 -0.030563897 0.025531534 0.0048046405 0.005851091 0.012678699 -0.014853237
0.011373652 0.034151137 0.014951924 -0.039490853 0.020057926 -0.008604833 -0.026462821 -0.01558513
-0.012364192 0.005284041 -0.05220251 0.012980083 0.01813655 0.032687224 -0.054411963 0.031110084
-0.031823184 -0.0045940415 -0.026229372 0.00074953487 -0.0029714128 -0.010093829 -0.0017306331 -0.03426271
-0.024880754 0.011851881 -0.026475573 -0.04036722 0.04458094 -0.015795767 -0.010189626 0.024190117
0.013250548 0.026855327 0.009395513 -0.043297503 0.0146430805 -0.012994172 0.032106716 0.006648512
-0.006239868 -0.042660616 0.02619694 0.053369395 0.049114093 -0.024747685 0.0071242186 -0.011253325
0.028933503 -0.020774696 0.026690941 -0.002029977 -0.01963589 -0.011512676 -0.00555932 0.01155258
-0.020466113 0.016848864 0.034023028 0.04365347 -0.0014029697 -0.014946574 -0.015013776 0.016778858
0.012850696 -0.048498347 0.0823251 0.0023503702 0.06467241 0.0034193108 0.0036553694 -0.007141688
-0.009262497 0.023901384 0.016386982 -0.034407858 0.011363737 -0.014391083 -0.025631167 -0.02070196
-0.0036753756 0.01096564 0.00564575 0.01870074 1.6257389e-05 -0.0012478732 0.025028089 3.8169022e-05
0.015902845 0.01362817 -0.009069809 0.015194155 0.026479581 0.016425729 -0.025921552 -0.023409268
-0.021239936 -0.044886775 -0.021979349 0.012949209 -0.014008583 0.030842394 0.021791955 0.0061126715
0.012709607 0.055321485 -0.0038341912 0.048426967 -0.0029670403 0.016841462 0.02429996 0.032270428
0.054283045 0.0024934176 0.029312557 0.03221124 0.03825672 -0.041566867 0.035307657 0.036319558
0.0034254321 -0.025532614 0.03904325 0.004023599 0.022273736 -0.005635163 -0.0048152283 -0.023652447

module.net_sm.layer1.0.bn1.weight f4 [32]
00000000: 7f27 f13e a9df 023f 7b53 033f e306 023f
00000010: 46a8 f63e c17e 053f 5aa2 fb3e b8d8 f73e
00000020: f8cb fb3e 4f6e f63e 00bb fb3e 7120 043f
00000030: cdf7 083f ee1a f13e b540 043f 4b7c ef3e
00000040: adfb 003f 0bfb 093f 161b 083f 2214 033f
00000050: 360b f93e c0db 083f 07ef f03e 16b3 073f
00000060: 64e3 093f 21a9 043f c8b0 f93e 6463 f93e
00000070: c9d7 f73e 9577 023f 5456 0b3f be15 ee3e
0.47100446 0.5112253 0.51299256 0.5079176 0.48175257 0.52146536 0.49147302 0.4840753
0.49179053 0.48131034 0.49166107 0.51612 0.53503114 0.47090858 0.51661235 0.46774516
0.50384027 0.53898686 0.5316633 0.51202595 0.48641366 0.5346031 0.47057363 0.5300764
0.53862596 0.5182057 0.48767686 0.48708642 0.48406819 0.5096372 0.544286 0.46500963

module.net_sm.layer1.0.bn1.bias f4 [32]
00000000: 4669 09bd 5738 16bc 5fc6 c13c 64c6 b4bb
00000010: 238f 6c3b 85cd 433d 2f56 ca3a 6a65 033d
00000020: f363 5cbb db92 103c 7cbd 823d 0af2 1c3d
00000030: c1af ac3d 0c7d 34bd 9a40 d73c 57fa 573c
00000040: f72f 883c c736 863c 803f b03c b4e0 093d
00000050: 16f8 233d a8fc 943d c8a4 5ebd b315 e83c
00000060: 8c02 c03c 26e0 083c 72bd 2e3c bd6c 843c
00000070: b3fa dcbc 76e4 b53d 9126 4b3d be4a 18bd
-0.033547662 -0.009168706 0.023654161 -0.005516814 0.0036096058 0.04780342 0.0015437062 0.032079138
-0.003362891 0.008824076 0.063837975 0.038316764 0.0843196 -0.044064566 0.026275922 0.013182244
0.016624434 0.016383542 0.021514654 0.03366156 0.040031515 0.07274753 -0.054356366 0.02833066
0.023438714 0.008354222 0.0106652845 0.016165132 -0.026975011 0.08881466 0.049597327 -0.037180655

module.net_sm.layer1.0.bn1.running_mean f4 [32]
00000000: 95a8 fc3f 0ad8 823e 3ebd d23f 65d6 0e40
00000010: a3ce 333f 64be 1f40 2ec0 afbf 7c9a bbbf
00000020: d490 aebf 9070 bc3f 9758 143f e01f 8f3f
00000030: d1aa 92bf ecbf c23f 2eaa dbbf 289b 5ebe
00000040: 4e0e 3f3f 18a8 a63f 00b9 7f3f f6ea d73f
00000050: 82ff 3a3f 37f9 1340 e62f 09c0 0f5e 843f
00000060: 0960 77bf b0be 1c3f 1fbb c9bf 5a64 0ec0
00000070: efd9 e1bf 106b 1840 dbdf d23f 1296 00c0
1.9738947 0.2555545 1.6464002 2.2318356 0.7023718 2.4959955 -1.3730524 -1.465652
-1.3637948 1.4721851 0.5794768 1.1181602 -1.1458379 1.521482 -1.716131 -0.21738875
0.746312 1.3020048 0.9989166 1.6868579 0.73046124 2.3120859 -2.1435485 1.0341204
-0.96630913 0.61228466 -1.576023 -2.224875 -1.7644633 2.3815346 1.6474565 -2.0091596

module.net_sm.layer1.0.bn1.running_var f4 [32]
00000000: cf04 ac40 d6b9 8d3f 1876 7840 cbd3 d440
00000010: c024 533f ab62 0041 dbfc 3840 38c3 3e40
00000020: 9d22 1b40 b437 3e40 7714 663f 28f4 e83f
00000030: 0dc0 6c40 e2aa 4d40 02f9 8240 7338 203f
00000040: ca93 d93f 8603 4440 ffa7 0140 dc8d 7840
00000050: 8338 1040 79e7 d940 b4ef c340 97e8 2340
00000060: d883 3140 3cdf d13f 0963 8340 8778 d440
00000070: 5a04 8440 b3c4 ed40 9d5b 6d40 c03e a640
5.375587 1.1072338 3.8822079 6.6508536 0.8247795 8.024089 2.890433 2.9806652
2.4239876 2.9721498 0.89874977 1.819951 3.6992218 3.2135549 4.0928965 0.62586135
1.6998227 3.062715 2.0258787 3.8836584 2.2534492 6.809506 6.1230106 2.5610712
2.773672 1.6396251 4.1058393 6.639713 4.125531 7.430261 3.7087166 5.19516

module.net_sm.layer1.0.conv2.weight f4 [32, 32, 3, 3, 3]
00000000: 8c11 cebc a07f c4bb 77e7 22bc 54d6 45ba
00000010: f3b4 f83b 5c8d f83b 1159 cabc eed5 5a3d
00000020: b12a c2bc 7b1e 5ebb 1f2b 033d d3ee 17bd
00000030: 25a0 053d 60f4 3cbd 19c9 0a3d ebd1 91bc
00000040: 79fb ffbc ac3b 71bc 5a9d 203c dafa c63c
00000050: eee1 09bd 8fdf 4fbc 88e6 f63b b39f d7bb
00000060: 0a52 4e3c 12aa 2b3c 988d 7dbc 71a7 f7bb
00000070: 52d4 8b3c f6e0 09bc 17e6 0ebc 56c7 40bc
00000080: 1f80 43bc ebe3 f53c f6c8 06bd 778a a1bc
00000090: ad49 873c 7193 4dbc 7f4e 1cbd ee83 3b3d
000000a0: ba07 0d3c 5bf2 52bb ab17 31bc cc33 b4bb
000000b0: 8ea9 663d 575c edbc 29a4 523c a439 473c
000000c0: 5176 b6bc 4625 48bd 90e8 c13c aeac e43c
000000d0: 06d9 9a3c cbc7 f13c bee4 df3a ddf1 f0bb
000000e0: 4ff1 cdbc 2ed9 403c 93b1 e0bb 70b9 2a3d
000000f0: eec6 4ebd 6a1e b73c ddde fb3b 15fd 6abc
00000100: d105 14bc 0fdf 313b 15d2 7fbb 5161 ef3c
00000110: 0fe9 063b 3e3f 193d 1268 943c 7b99 bcbb
00000120: 1943 1c3d e7d6 35bd b7f2 f1bc 9a79 923c
00000130: f55c dbbc 5797 7c3c b3e2 3dbd 26ab 363c
00000140: 555e 0abc cf28 73bc 0925 8dbc 6578 493b
00000150: 81f0 68bd d6a5 60bb 2552 08bc fec9 99bc
00000160: 11c1 123d e257 273d 448c 4c3b ef89 50bc
00000170: e2e0 5cbd 17d6 e83c 92a8 18bc e3bf 7c3c
00000180: 2bb5 5ebd d772 aebc 8f1c 06bd f74f 0c39
00000190: 0266 793c 3273 9aba 4c64 3b3c 0e15 fab7
000001a0: 8c5b 513c 63cb 49bc 398e 54bc d921 ffbc
000001b0: 90cc 12bd fd4a 0e3d c0f5 f2bb cc17 98bc
000001c0: a592 b7bc 0587 873c 0a30 293d 9004 a63b
000001d0: 2f29 2cbc 29d8 cfbc aab3 32bc 022e 443c
000001e0: 0682 d9ba eb07 553c c644 8bbc 78d3 903b
000001f0: 7ec3 25bd 8a5a 20bc d51c 7d3c 4107 6ebc
00000200: 6be1 8b3c 0d3f 783b a404 36ba 01a4 ba3c
00000210: 3878 0f3c 84f5 533d 8437 88bc d4ee b0bc
00000220: c847 f9bc cf77 203d 1907 cfbc 4a36 823c
00000230: 9134 83bc aa20 2dbd 5b22 0dbc b9a2 42bc
00000240: 92dd 1abd 4339 afbc e7f5 903c 0bc5 f73b
00000250: 9862 623c 71b9 533a 266f 5fbc 4877 21bc
00000260: b8b7 ba3b 78c0 82bb 078c 6c3c 75c8 41bc
00000270: 2fa4 b33c 1fbe e4ba 38e9 1fbd a47f 13bc
00000280: 3ac9 49bb 4e91 c8bc ac7f 593d 5987 61bd
00000290: dc26 ccbc 2a2f 203c ac4a de3c 4bad 7b3c
000002a0: 4aa4 ef3c d6a5 d53b 3596 c53c 3288 1cbb
000002b0: a373 e43c 874e cbbc a14e aa3c 18c3 cdbc
000002c0: cfbc 05bc 103e 8b3b 2463 3ab9 31d4 fcbc
000002d0: c89d 8f3c 852d ee3b 4897 d53c fa54 e13b
000002e0: 1551 cb3b 6957 e7bb 3667 82bc cd35 d13c
000002f0: ba74 fb3c e3f4 003c f546 81bc b02b 39bd
00000300: e6d8 283b 1242 bfbc 446b bb3c 4e52 863c
00000310: 47c9 19bd a2c7 ae3c bd26 8abc 2f0c 48bd
00000320: aae0 ffbc 690d 4ebb 35ed 12bd dc01 13bd
00000330: 8706 323c 928c 37bb f0fe c0bb 6ac5 073d
00000340: 53d9 34bc 43fb c7bc 19af 9bbc 0f5c e63b
00000350: d63f 0fbd 20d1 e2bb ede7 c8bb d14b 37bb
00000360: 6ddd efbb e0c2 433d b58c e4ba 6dbc 05bd
00000370: 6aa9 9a3c ea62 49bd 6ef6 253b 8f3b 423d
00000380: 33c0 443d af94 e13c a821 673c 9173 fa3c
00000390: 62bf 823a d2ec a8bb 1247 e7bc 3057 b83a
000003a0: b495 1ebd 9dc8 aabc b856 543c 8be7 243c
000003b0: 6965 8f3c 6ba6 f93c f70b 6f3b af9c 1c3d
000003c0: ffe2 1e3d c806 fa3c d8e6 863c ea58 c6bb
000003d0: 7973 dc3b a85a 3abb 984c 41bd da3f ecbc
000003e0: 3750 8ebc 5e8a c0bc 3ad7 d5bc 0a8d 15bd
000003f0: 15bd 0d3d 9eb3 1f3b 6edd f3ba 0fb5 1d3d
-0.025154851 -0.0059966594 -0.009942881 -0.0007546891 0.00758993 0.0075852107 -0.024700673 0.053426675
-0.023701997 -0.003389268 0.032023545 -0.037092995 0.03262343 -0.04613149 0.033883188 -0.017800292
-0.031247841 -0.0147237 0.009803141 0.024289537 -0.03366273 -0.012687578 0.0075348057 -0.006580317
0.012592802 0.01047756 -0.015475653 -0.0075578024 0.017069016 -0.008415451 -0.00872185 -0.011766275
-0.011932402 0.030015906 -0.032906495 -0.019719345 0.016514624 -0.01254736 -0.038160797 0.045780115
0.008607799 -0.0032187912 -0.010808866 -0.0054993387 0.056314044 -0.028974695 0.012856522 0.012159739
-0.022273215 -0.04886367 0.023670465 0.027914371 0.018902313 0.029514214 0.001708172 -0.007353051
-0.025139479 0.01177053 -0.006857106 0.041680753 -0.050482683 0.02235337 0.0076864795 -0.014342566
-0.00903459 0.002714101 -0.003903513 0.029221209 0.002058569 0.037413828 0.01811603 -0.005755601
0.038149927 -0.0443944 -0.02953468 0.01788025 -0.026777724 0.015416942 -0.046358775 0.011149203
-0.008445342 -0.0148412725 -0.017229574 0.0030741927 -0.056869987 -0.0034278533 -0.008320366 -0.018773075
0.035828654 0.040855296 0.0031211535 -0.012728198 -0.053925402 0.028422398 -0.009317534 0.015426609
-0.054371994 -0.021294994 -0.03274208 0.0001338123 0.015222074 -0.0011783598 0.011437487 -2.9812127e-05
0.012778174 -0.012316558 -0.012973362 -0.03114407 -0.035839617 0.034739483 -0.0074145496 -0.018566035
-0.022408793 0.016543875 0.04130558 0.005066462 -0.010507866 -0.025371628 -0.010907093 0.01197386
-0.0016594536 0.013002376 -0.017000567 0.0044197403 -0.04046964 -0.009787211 0.015448769 -0.014528097
0.017075261 0.0037879378 -0.00069434405 0.022783281 0.00875669 0.051747814 -0.016628034 -0.021598257
-0.030429736 0.03917676 -0.02527194 0.015895028 -0.016016277 -0.04226748 -0.008614148 -0.011879616
-0.037808962 -0.02138961 0.01769538 0.007561331 0.013817452 0.0008076644 -0.01363734 -0.009855099
0.0056981705 -0.003990229 0.014437682 -0.011827578 0.021928875 -0.001745168 -0.039040774 -0.0090026
-0.0030790106 -0.02448335 0.053100273 -0.05506072 -0.024920873 0.00977687 0.027135216 0.0153611405
0.029253144 0.0065200133 0.024119476 -0.002388489 0.027887171 -0.024817718 0.020789446 -0.025117442
-0.008162691 0.004249342 -0.00017775275 -0.0308629 0.01753129 0.00726861 0.026073113 0.006876585
0.006204734 -0.0070599806 -0.015918355 0.02553835 0.030695308 0.007870886 -0.015780905 -0.04520768
0.0025764047 -0.023346934 0.022878297 0.016396668 -0.03754547 0.021335427 -0.016864175 -0.048839744
-0.031235058 -0.0031441099 -0.03587075 -0.035890445 0.010865814 -0.002800737 -0.005889766 0.033147253
-0.011038142 -0.024411803 -0.019004392 0.007030017 -0.034972988 -0.0069219023 -0.0061311633 -0.0027968774
-0.007320097 0.04779327 -0.0017436953 -0.0326504 0.018879611 -0.049166597 0.0025323885 0.04742008
0.048034858 0.027536718 0.014107145 0.030572684 0.0009975249 -0.0051551843 -0.028232131 0.001406407
-0.038716987 -0.020847613 0.0129601285 0.01006497 0.01750441 0.030474862 0.0036475637 0.038235363
0.0387907 0.030520812 0.016467497 -0.00605308 0.0067276326 -0.0028435383 -0.047192186 -0.02883904
-0.017372234 -0.023503479 -0.026103605 -0.03651146 0.03460415 0.0024368535 -0.001860542 0.03850275

module.net_sm.layer1.0.bn2.weight f4 [32]
00000000: 1e1c 083f 3668 f43e b779 ff3e 0526 f93e
00000010: f789 ad3e b2b9 f93e 247f a23e 8d25 0d3f
00000020: ca88 e43e 61c2 0d3f 5fe7 053f f927 023f
00000030: f0d6 e33e 9a92 b03e 1280 103f 6e55 fd3e
00000040: f990 033f 2ac5 f63e cfe4 103f 2417 e03e
00000050: baad ff3e 5b41 bd3e 9496 fa3e de7b dd3e
00000060: c557 0b3f 91a8 0c3f 0245 d23e 82f7 ef3e
00000070: 6034 163f ea2e 043f c517 b73e 0242 093f
0.53167903 0.47735757 0.4989755 0.4866182 0.3389432 0.48774487 0.31737626 0.5513542
0.44635612 0.55374724 0.5230617 0.50842243 0.44499922 0.34486848 0.5644542 0.4947924
0.51393086 0.481973 0.56599134 0.43767655 0.4993723 0.36963925 0.48943007 0.43258566
0.544308 0.5494471 0.41068274 0.4686852 0.5867367 0.51634085 0.35760322 0.53616345

module.net_sm.layer1.0.bn2.bias f4 [32]
00000000: 1ade 79bc ef70 32bc 1285 1bbc 1a1c a0bc
00000010: 33eb 7ebd bb89 71bc e3b6 30bb b88e 23bb
00000020: 9f86 603b 8781 a4bc fe1c 32bc e3c6 8ebc
00000030: 2c16 c0bc adb6 ebbc 4be1 3bbc c098 f9bc
00000040: c031 9bbb 4cc3 73bc 6d1c 013c e4b0 1bbd
00000050: f939 d6bc 7adf dcbc d83f e2bc 352d 2bbd
00000060: 2876 e93b 067c ba3b 2c11 af3b a210 473a
00000070: 440d 3abc 599e 0fbd 15de ebbc f512 c1bc
-0.015250707 -0.010891183 -0.009492176 -0.01954465 -0.062236022 -0.01474231 -0.0026964478 -0.0024956893
0.0034259928 -0.020081295 -0.01087117 -0.017428821 -0.023448072 -0.02877363 -0.011467288 -0.030468345
-0.0047361553 -0.014878105 0.007880312 -0.038010493 -0.02615069 -0.02696203 -0.027618334 -0.04179116
0.007124681 0.0056910543 0.005342623 0.0007593726 -0.011355702 -0.03506312 -0.02879242 -0.02356861

module.net_sm.layer1.0.bn2.running_mean f4 [32]
00000000: 98ca e8be 7a5e 37bf 9e9b f8be d8e0 2cbf
00000010: f173 8f3f 7d51 d1be 2db4 9d3e f9ba 33bf
00000020: 0d70 3cbf 0f00 3ebf f0d2 2bbf 0673 5ebf
00000030: a90e e0be cc12 713e 6af3 dbbe 1a39 e9be
00000040: bf79 6cbf 88c4 87bf 5583 44bf dafc 03bf
00000050: 0e5b 0bbf b200 10bf 9c85 68bf 1f4e 90be
00000060: 6f68 3ebf ea41 0ebf 50f4 45be 9995 83bf
00000070: b2d7 0cbf 2400 48bf 3b68 933c 4692 febe
-0.45467067 -0.71628535 -0.48556226 -0.67530584 1.1207258 -0.40882483 0.30801526 -0.7020717
-0.73608476 -0.7421884 -0.6711874 -0.8689426 -0.43761185 0.23542327 -0.42959148 -0.45551378
-0.9237327 -1.0606852 -0.76762897 -0.51557696 -0.54435813 -0.5625106 -0.9082887 -0.28184602
-0.74378103 -0.55569327 -0.19331479 -1.0280029 -0.55016625 -0.78125215 0.017994037 -0.49720973

module.net_sm.layer1.0.bn2.running_var f4 [32]
00000000: 1f8b b83f d9a6 0040 bae2 8d3f 77db 8d3f
00000010: 7ffe 0240 3b15 b03f dc30 263f 3cdd bf3f
00000020: 8612 b33f 82d6 e73f 15c9 ca3f a5c4 fd3f
00000030: 382e 6e3f e261 183f e923 d83f 5bb5 7c3f
00000040: a408 cb3f 94e3 923f 1f55 9d3f 2c70 b83f
00000050: f8fb 783f 0673 3e3f 645e 8a3f 0cbd d53e
00000060: 5f9a dc3f e941 d03f a43d 863f fe78 ba3f
00000070: 0a6b df3f 1145 d53f fc6b 913f cd3c bd3f
1.4417456 2.0101836 1.1084816 1.10826 2.0467832 1.3756479 0.64918303 1.498939
1.3990028 1.8112338 1.5842615 1.9825636 0.93039274 0.5952436 1.6885959 0.98714226
1.5862012 1.1475701 1.2291602 1.4409232 0.97259474 0.7439426 1.0810056 0.41745794
1.723461 1.6270114 1.0487561 1.4568174 1.7454541 1.6661702 1.1361079 1.478418

module.net_sm.layer2.0.conv1.weight f4 [32, 32, 3, 3, 3]
00000000: 76ed 26ba 929a a5bc f55a 333d 4f68 633c
00000010: e97f 02bc b4f2 8cbc 5571 c3bc ef8c fa3a
00000020: 9450 d9bc e000 03bb 9f3e 21bc 876e 153c
00000030: 9418 97bc f2a5 77bc b01f 8bbc dd4c 473c
00000040: 1ac0 53bc 9972 993a 3b32 db3b 0cf4 69ba
00000050: 3df1 48bc 5c8c 793c 85fc 053d 9cbf 0bbd
00000060: 89ba f13c 1988 15bc e9c8 e6bc a4b6 c9bb
00000070: 0439 c93b 42f5 9dba 32d2 a43a f9d9 dc3c
00000080: b870 2a3b 15cf cd3c 829a 23bc 746c febc
00000090: 8062 e43c 89c0 d63c b1af 6f3c 4dc2 fe3c
000000a0: 8064 393d cc24 e2ba c5ca 213c 0070 b93d
000000b0: 30c0 473d f14d a8bc 65ae c538 b268 e93c
000000c0: 8d60 c63b e9f7 2d3d f77a 2d3c 258b 893d
000000d0: 0bd7 69bc ee68 e03b ba57 f03c 96c7 22bc
000000e0: 860f 8cbc 453a 8dbc cbbf 6fbc fa76 6bbc
000000f0: e8d5 3abd 3333 c73c 78b2 09bc b2af 06bd
00000100: 1d9c 9338 5d85 b4bc 877a 0bbc b5fa 0a3a
00000110: 7f22 503c 4044 cabc 1eea 2d3d 9a0a 033c
00000120: 6ccc e5ba 9f13 13bd 4ae4 27bc a715 a6bc
00000130: f30e 863c 5309 90ba ac58 e63c a72c d1bc
00000140: 9cbc 763c 8e11 b7bb e34e c73c b39e 643b
00000150: eff1 9e3c cac4 cd3c 3853 9d3c cc46 e23c
00000160: 3c9d 483c 5854 dd3c 2b5e 25bd a54c 2cbc
00000170: 91fc afbc db12 3ebc 672b b23c 9557 3e3a
00000180: 4fad 8bbc fe86 4e3d 799d 613b 1d82 6d3b
00000190: fd2f 85bb baa4 313d 68d9 6cbc 8b1a 073d
000001a0: fab7 3d3b 7351 f43c 56af 373d 71a8 b7bc
000001b0: 3b9c f73c 2905 89ba f461 143c b5db ea3c
000001c0: 4fc0 d43c 45bc 9fbc 675b 83bc a094 26bc
000001d0: 7ec6 4dbb 7315 ae3b 96d3 ddbc ba82 103b
000001e0: 313f 43bd 1873 08bd 8d07 e6bc e2b2 d8bc
000001f0: 9b52 5a3b cf8a 22bd 525c 3ebd 4891 b9bc
00000200: 6fa4 68bd ab86 26bc 12b3 8abc db4e 023c
00000210: 23b7 88bc 2603 3c3d dab6 acbb ea67 22bd
00000220: ba0d 4abd b4f3 0dbd 3a70 063d dc7c 42bc
00000230: 1e96 24bd a2e1 19bd 49f6 cc3c ee68 fb3b
00000240: e9cf 01bd 6862 a13c fd5f 143d d2b6 63bc
00000250: 8270 d6bc ae44 0ebd 2bca 1f3c 8a67 4cbc
00000260: c218 91ba e557 03bd 0694 86bb c79c 05bd
00000270: d363 fdbc 2e01 983b c608 2bbd 76ce 17bc
00000280: f56d e5ba 2c2e 07bc 8d60 b4bc 1fca 6cbd
00000290: 7e7f d4bb a258 1dbd 5391 acbc 90c2 d4ba
000002a0: 98e3 a83c ffc4 2fbd e771 823c 70f0 18bd
000002b0: 0732 80bc f85e 94bd 26a2 6f3c b629 fabc
000002c0: 2ba9 483c 4fef 723c 747a 6fbc a11d 0cbd
000002d0: cb29 11bd a0a8 aebb 8d2e 3b3c 6bd9 2cbd
000002e0: 2211 99bc 9af7 07bd c232 cf3c 49b7 4e3b
000002f0: 2ceb 11bd dea5 313c 07ea 8b3c 0afc 2ebd
00000300: 8ff2 09bc 3712 413c 7e76 693c b9b7 7d3a
00000310: e12e 813b 7d3e 023d 473a a2bb 4aa2 10bc
00000320: 16c2 e5bc 2bf8 afbc 8f0a 213d a594 b2bc
00000330: 681d bebb 3f57 b2bc 89b8 93bb 8d52 01bc
00000340: 9e60 a0bc 0ec6 a23a 890b d03c 14bd d7bc
00000350: 0725 16bb 7c01 c33c 62cd 2abc c652 3dbb
00000360: b72e fa3a 2ad5 5dbc 17ae 00bd 1b22 bb3c
00000370: eb15 d73c 55cf b63b d785 9abc 94c8 1dbc
00000380: df52 383c d36e 56bc 9978 39bc 33bc 63bb
00000390: b172 abba 72de 70bb 551b fcbc 99a8 8e3a
000003a0: 681f e7bc 785e 54bd de48 c5bb a016 993c
000003b0: 8ef3 1d3d 47eb 413b bd05 87bc 0968 573a
000003c0: 5f8d 053d 896c c2bc 6f8f b0bc e0fb 9bbb
000003d0: 0519 eebc 3b28 3c3d 18c8 8fbc 8fbf 383a
000003e0: ca73 b6bc 4db3 3bbc ed5c 7e3d e487 85bc
000003f0: 045a 26bc 7221 37bb 72e7 36bc f4f8 86b9
-0.0006367782 -0.020215306 0.043787915 0.01387985 -0.0079650665 -0.017205574 -0.023857752 0.0019115488
-0.02652768 -0.0019989535 -0.00984159 0.00912059 -0.018444337 -0.015115248 -0.016982883 0.012164322
-0.012924219 0.0011707126 0.0066893375 -0.00089246104 -0.012264547 0.015231218 0.032711525 -0.03411828
0.029507892 -0.0091266865 -0.028171973 -0.0061558057 0.00614083 -0.0012051242 0.001257485 0.026959406
0.0026007127 0.025123158 -0.009985568 -0.031057574 0.027879 0.026214855 0.01462929 0.03109851
0.04526186 -0.0017253398 0.009875004 0.090545654 0.04876727 -0.020544978 9.4261755e-05 0.028492305
0.00605399 0.042472754 0.010588399 0.06715993 -0.014272462 0.006848446 0.029338706 -0.00993528
-0.017097246 -0.0172397 -0.014633129 -0.014371628 -0.045614153 0.024316406 -0.008404367 -0.0328824
7.0385846e-05 -0.022036249 -0.0085130995 0.00053016405 0.012703537 -0.024690747 0.0424596 0.007998133
-0.0017532236 -0.035907384 -0.010247299 -0.020273997 0.01636455 -0.0010989107 0.028118454 -0.025533987
0.015059616 -0.0055868095 0.024329608 0.0034884631 0.019402472 0.02511825 0.01920472 0.02762165
0.012244519 0.027017757 -0.04037301 -0.01051632 -0.021482738 -0.011601175 0.021749211 0.00072609755
-0.017050413 0.050421707 0.0034426136 0.0036240884 -0.0040645585 0.043369986 -0.014456131 0.032984298
0.002894877 0.029823994 0.044844948 -0.022419186 0.030225864 -0.0010453808 0.009056557 0.028669218
0.025970606 -0.019498954 -0.016034795 -0.010167271 -0.0031398828 0.0053126155 -0.027078431 0.0022050575
-0.047667686 -0.033312887 -0.028079772 -0.026452485 0.0033313397 -0.03968316 -0.046474762 -0.022652283
-0.05679744 -0.010163943 -0.01693109 0.007953371 -0.016688889 0.04590144 -0.005270821 -0.03964988
-0.049329497 -0.03465624 0.03282187 -0.011870589 -0.040182225 -0.037568696 0.025019782 0.0076724207
-0.03169242 0.019700244 0.036224354 -0.013898568 -0.026176695 -0.034733467 0.00975279 -0.0124758575
-0.001107 -0.032066245 -0.0041070012 -0.032620218 -0.030931389 0.0046388125 -0.041756414 -0.009265533
-0.0017504083 -0.008250754 -0.022018695 -0.057809945 -0.006484925 -0.038414605 -0.02106539 -0.00162323
0.020616338 -0.04291248 0.015923453 -0.037338674 -0.015648855 -0.07244676 0.014626062 -0.030537467
0.012247364 0.014827563 -0.014616597 -0.034207944 -0.035440248 -0.0053301603 0.011424673 -0.042199533
-0.018684927 -0.033195116 0.025292758 0.0031542352 -0.035624668 0.0108427685 0.017079366 -0.042720832
-0.008419647 0.011784128 0.014249442 0.0009678561 0.003942356 0.031797875 -0.004950795 -0.008827755
-0.028046649 -0.02148064 0.03931671 -0.021799395 -0.0058018453 -0.021770118 -0.0045080823 -0.007893217
-0.01957732 0.0012418644 0.025396125 -0.026335277 -0.0022910254 0.023804419 -0.010424944 -0.0028888448
0.0019087408 -0.013539592 -0.031416025 0.022843411 0.026255568 0.005578915 -0.018862648 -0.009630341
0.011250227 -0.013087946 -0.011320257 -0.0034749627 -0.0013080445 -0.0036753681 -0.030774752 0.0010883986
-0.028213218 -0.051847905 -0.0060206493 0.018687546 0.03856235 0.00295897 -0.016482228 0.00082171016
0.032605525 -0.023733394 -0.02155277 -0.0047602504 -0.029064665 0.045936804 -0.017551467 0.00070475874
-0.02227201 -0.011456323 0.06210034 -0.01630015 -0.010153297 -0.002794352 -0.011163579 -0.00025743956

module.net_sm.layer2.0.bn1.weight f4 [32]
00000000: b3c4 f43e 41ff 013f 140e 003f e5f6 f93e
00000010: c23c 0e3f 2b7e 003f 0c45 043f fd8c ff3e
00000020: f3e2 f53e d2f6 033f a707 123f 162a 0e3f
00000030: 1791 083f 1bcd 003f 7985 023f 436e 073f
00000040: 60b4 ff3e aee6 073f c1e3 ba3e ef0e 063f
00000050: 8932 103f 541a 053f 6abc d13e fd75 033f
00000060: 07a3 033f 6ccc fd3e 0b2d db3e fe61 173f
00000070: 21f2 f63e 2fa0 fb3e 8c87 dc3e 5554 023f
0.4780632 0.5078011 0.5002148 0.48821178 0.5556146 0.5019252 0.5166786 0.49912253
0.4802471 0.5154849 0.57042927 0.5553297 0.5334639 0.50312966 0.50984913 0.5290262
0.49942303 0.53086364 0.36501887 0.52366537 0.5632711 0.519933 0.4096406 0.5135191
0.51420635 0.49570024 0.42807803 0.591339 0.48231605 0.49145648 0.43072164 0.5090993

module.net_sm.layer2.0.bn1.bias f4 [32]
00000000: 4306 833b 8a30 cebc 715a d0bb 0998 f0bc
00000010: 7dac 6abc ca75 1ebb 1f2e 5f3b 782a 3cbc
00000020: 5745 9fbc 09c0 823c 1a39 8f3c 82fa 38bc
00000030: 386d 003d 90ee b0bc 07cf 9fba d555 233d
00000040: d176 91bb f608 743c d75f 94bd 7da9 16bb
00000050: e1c8 4d3c 0ab3 263b 15ac 35bd 3c7a 28bc
00000060: 1148 6bbb 4d67 f6ba e6d8 0bbd ba4e 213d
00000070: ceb3 bcbc 5cd5 10bd 9300 3bbc 7cf7 55b9
0.003998549 -0.02516963 -0.0063584377 -0.029369371 -0.014323351 -0.0024179094 0.003405459 -0.011484735
-0.019442244 0.01596071 0.017483283 -0.0112901945 0.03135416 -0.02159813 -0.0012192436 0.039876778
-0.004439213 0.014894715 -0.072448425 -0.0022989206 0.0125601 0.0025436305 -0.044353563 -0.010283049
-0.003590111 -0.0018799097 -0.034142397 0.03938172 -0.023034956 -0.035359725 -0.011413711 -0.00020405458

module.net_sm.layer2.0.bn1.running_mean f4 [32]
00000000: d449 b0bf b506 473f 36b9 05c0 649a b6bf
00000010: 9a89 643f cc14 18be 497c 8b3f dbf5 0cc0
00000020: 64da 603e 1a7a 97bf 586c 673f a576 a0bd
00000030: 6316 44bf 02ed 413f 32e1 c3bd d4c1 aabf
00000040: f48d 55bc 5b1e 0ac0 2dba b73f 0809 4b3f
00000050: c44c 0040 c866 5f3f d995 1e40 53a2 08c0
00000060: 3f4e 1dc0 2c24 1fc0 71ad e13d 8cd8 8f3f
00000070: 2a53 f83f db90 303f e18a 2040 081d 3f3f
-1.377253 0.7774461 -2.0894294 -1.4265866 0.89272463 -0.14851683 1.0897304 -2.2025058
0.2195831 -1.1834137 0.90399694 -0.0783513 -0.7659666 0.7575227 -0.09564437 -1.3340402
-0.013034333 -2.1581028 1.4353691 0.79310656 2.0046854 0.87266207 2.477896 -2.1349075
-2.4579008 -2.4865828 0.110194094 1.123796 1.940038 0.6897103 2.5084765 0.74653673

module.net_sm.layer2.0.bn1.running_var f4 [32]
00000000: 1275 2740 97b7 433f fa60 d43f 80b5 823f
00000010: 8be6 4a3f 540e 463f c57f 893f d016 ee3f
00000020: 4a8a 003f 6cc4 a83f ca8c ca3f 7e0e b13f
00000030: 2dd9 cb3f 9364 ba3f 7043 493f 0031 e73f
00000040: 1117 913f 011e 1440 2840 d53f 187f 4f3f
00000050: 44a7 d73f e42d 4f3f 9a99 6840 9263 0940
00000060: 6725 0440 6d6a 2a40 7271 273f 0360 8e3f
00000070: 7f7b d43f c2bf 843f a829 4e40 04b8 063f
2.6165204 0.7645201 1.6592095 1.021164 0.7925803 0.77365613 1.0742117 1.8600712
0.5021101 1.3184943 1.5824215 1.3832548 1.5925652 1.4561943 0.78618526 1.8061829
1.1335164 2.3143313 1.6660204 0.81053305 1.684792 0.809294 3.634375 2.1467023
2.0647829 2.6627457 0.6540748 1.112305 1.6600188 1.037102 3.2212925 0.52624536

module.net_sm.layer2.0.conv2.weight f4 [32, 32, 3, 3, 3]
00000000: 79a1 0cbb bf43 a63c e525 e4bc b249 01bb
00000010: af6d a83c 3d64 383d 23ec d63c cabd f93b
00000020: c56e 853c e5d3 c0bc 4829 75bb 9558 85bc
00000030: 2fc7 eabb a345 6dbc 62e8 d83c e050 fcbb
00000040: 851d 0ebd 8365 6bba e1cc 913d 1fbe 813c
00000050: 2200 c5bb 8493 fb3c 58eb 093c c900 b73b
00000060: 6451 393c c782 963c 7872 1f3d a797 963d
00000070: 440b 203d 8e75 4cbd 41d2 2c3c 8a1f c4bc
00000080: 6bb2 9b3c c8bd dcbc d054 37bc c768 97bd
00000090: 9ced b73d e2e1 253d 3a7b 2a3b a1ae 623b
000000a0: e9e6 843c e5ac debb 319c 8fbc e116 083b
000000b0: 2bc3 c1bc cdae d23d 49d2 903d f77f 84bc
000000c0: 6eef 41bd e2de 2f3c 34c0 b73c dfbe d4bc
000000d0: 4e88 433c 3dcb 8a3c 33ad 31bb 4996 e43c
000000e0: b9d8 dc3c 4ef7 a43c fa8a 803c 6d3c 83bb
000000f0: bd39 a0bc 82e1 91bc 4ad6 29bc 70ff 49bc
00000100: a625 9c3d 34cf 383d 0dd9 bfbc e92b 043c
00000110: 9ef9 063c f5cc af3c a5e2 8fbc 559e 4fbd
00000120: 19d7 ed3b 4647 a63c 8fc0 fc3c 7ec7 d83a
00000130: 6fec 69bc 72fe 06bc 7233 d53c 9dd7 1dbd
00000140: 0116 66bd eff3 4abc 7baa 92bd d6ff a3bd
00000150: c667 f43b c28f 823c d694 91bd f0a1 6b3a
00000160: ec9b 8d3b 835c da3b cc3a 9c3c 643d c1bb
00000170: 04bb 443c 6b22 15bd 95d8 4d3a 8f96 0e3c
00000180: dd36 fe3b 53f4 903b 0e8d 95bc 7ea6 1b3d
00000190: 3286 a2bc 1d47 3a3b f58f bd3c df63 d5bc
000001a0: 436c 023d bcfb 1a3d 4d4e 76bd b108 943b
000001b0: 245f 163d 20c0 32bd bef4 7f3d 0835 dfbb
000001c0: b36f 80bc 8363 8fbc d124 87bc e369 803b
000001d0: 2540 f3bc 6124 b33d 688a 2cbd 002a c2bb
000001e0: 827d e7bb de51 643c 1ac7 36bd 9945 a3bb
000001f0: 65c1 4cbc 4447 3d3d 9e5b 05bd e8ce f53c
00000200: 3eed 2abd f1ff 823c 7f27 11bd bfa4 9fbd
00000210: de71 93bd b378 3cbd 5f63 4d3d b54b 02bc
00000220: 5e75 3f3c eb40 a4bc 249b 06bd 8e53 84bc
00000230: 3107 56bb b455 013d 6f54 a839 eada 22bd
00000240: 73b8 f63c bbb3 2b3d 33c3 ee3c d9eb b3bc
00000250: a001 113d 5d9a 42bc 4682 0bba a060 8a3c
00000260: 79cf 1b3d 38a4 183d f81c 9b3c 9597 b33c
00000270: f9bd dd3d 5fd8 4c3a aeb9 a0bd 59e9 ef3c
00000280: f058 e73c 1411 523d 4e08 883c 467f c73c
00000290: 5897 483c 3e91 37bd 38bf e13c 383e 7d3d
000002a0: f6bc 0e3c 89b8 e63c 8068 423d 0790 06bd
000002b0: 3c65 80bb c2f7 19bc 17b8 eebc 67bb b13c
000002c0: bbed d83d 69af fc3a c1e5 b03c 98ef ff3c
000002d0: 6534 43bb 96e0 5e3d 296b 54bc 93f4 13bd
000002e0: 2757 38bc 56a1 4c3d 6449 44bd a68f bbbc
000002f0: 2ef7 35bd ecc5 103d 0bb6 19bc 7d43 1fbd
00000300: 5d7d 7fbc cc43 1cba 49c3 d1bc 1b38 4bbc
00000310: 63cf 5e3c bd4a bf3d 7fe8 d8bc 2e4e 4fbb
00000320: 3c88 d2bc 24e7 68bc 077b 94bc 15c2 3d3d
00000330: f2b8 6fbd 5fd8 e53c 60dc 8f3d 7bc2 963c
00000340: 79e1 34bd 037e 3bbd 1530 b83c 0cdc f0bc
00000350: 2fdc 053d 80fc 11bc b9e4 c8bc 4a66 183a
00000360: 069c 593d 11d9 3c3d 6a6f 133d 9b00 693b
00000370: 5512 0cbc b081 93bb 19f1 57bd 9266 babb
00000380: 681d 213d eb50 edbb 6cae 66bd 23fe 473d
00000390: ef28 18bd 01ae 4abd 7271 f03b 6926 8fbc
000003a0: acf7 3b3d b519 7abd b060 7abc 4186 d33c
000003b0: e6eb 2a3d f140 2b3d 6b6f 493c 962f e6bb
000003c0: 42ec 9cbc a55d 453d eef7 e3bc 883f 253c
000003d0: a532 f739 2b7a 2b3d 539f e5bc 314b f83c
000003e0: 2fe1 5bbc 38bb d9bc 9e80 de3c 0127 42bc
000003f0: dd5f 743b f25f 733d e826 d53c 90e9 fe3c
-0.002145855 0.020295976 -0.0278501 -0.0019727764 0.020560114 0.04501747 0.026235646 0.0076215016
0.01628817 -0.02353854 -0.0037408639 -0.01627759 -0.007164858 -0.014481935 0.026477996 -0.0077000707
-0.03469612 -0.0008979665 0.07119156 0.015837727 -0.0060119787 0.03070999 0.008417927 0.0055848104
0.011310909 0.018372906 0.038927525 0.07353144 0.039073244 -0.049916796 0.010548175 -0.02394082
0.019005975 -0.026945964 -0.0111896545 -0.073930316 0.08980867 0.04049862 0.002601339 0.003458895
0.016223388 -0.006795513 -0.017530533 0.002076559 -0.023652634 0.10287247 0.07071359 -0.0161743
-0.04734748 0.010734292 0.022430517 -0.02596992 0.011934353 0.016942615 -0.0027111291 0.027903693
0.02695881 0.020137455 0.01569127 -0.004005006 -0.019558782 -0.017807726 -0.010366032 -0.012328967
0.07624368 0.04511948 -0.023418928 0.00806711 0.008238224 0.021460036 -0.017564127 -0.050688107
0.0072583077 0.020297658 0.030853538 0.0016538945 -0.014277562 -0.008239375 0.026025508 -0.038535703
-0.05617333 -0.01238726 -0.07161423 -0.08007781 0.00745866 0.01593769 -0.07108466 0.0008988669
0.004321566 0.0066638603 0.019071005 -0.005897211 0.012007479 -0.036409777 0.00078524026 0.008702888
0.007758005 0.004423657 -0.018255737 0.038000576 -0.01983938 0.0028423734 0.023139933 -0.026048599
0.031841528 0.03783773 -0.060133267 0.0045176377 0.036711827 -0.043640256 0.062489264 -0.0068117417
-0.015678262 -0.017503506 -0.016497048 0.0039188727 -0.029693672 0.08747173 -0.042124182 -0.005925417
-0.0070645222 0.013935534 -0.04462347 -0.004982662 -0.012497281 0.046210542 -0.032558076 0.030005887
-0.041730158 0.015991183 -0.035438057 -0.07795095 -0.07199453 -0.046013545 0.050143596 -0.00795262
0.011685697 -0.020050487 -0.032862797 -0.016153123 -0.0032658095 0.031575873 0.00032106365 -0.039759554
0.03011725 0.04191945 0.029145813 -0.021963047 0.03540194 -0.011877623 -0.00053218415 0.016891778
0.03803966 0.037265986 0.018934712 0.021922866 0.1082725 0.0007814224 -0.078479156 0.029286074
0.02824065 0.05128582 0.016605522 0.02435268 0.012243114 -0.044816248 0.027557 0.061826915
0.008712044 0.028164165 0.04746294 -0.0328522 -0.003918318 -0.009397449 -0.029140515 0.021695806
0.105922185 0.001927835 0.02159393 0.031242177 -0.0029785868 0.0544134 -0.012965002 -0.036121916
-0.0112512475 0.04995855 -0.047921553 -0.022895645 -0.044425182 0.035345003 -0.009381781 -0.03888272
-0.015593854 -0.000596103 -0.025605815 -0.012403513 0.0135992495 0.09340427 -0.02647805 -0.0031632292
-0.025699727 -0.0142152645 -0.01812507 0.04632767 -0.058525987 0.028057275 0.07024455 0.018403282
-0.04416034 -0.04577447 0.022483865 -0.029401802 0.032680687 -0.008910298 -0.024523126 0.0005813582
0.05312731 0.04610545 0.035994925 0.003555334 -0.008549293 -0.004501544 -0.052720163 -0.005688497
0.039334685 -0.007242312 -0.056318685 0.048826348 -0.037148412 -0.04948235 0.0073377425 -0.01747437
0.045890495 -0.061059672 -0.015281841 0.025820853 0.041728877 0.04180998 0.0122946305 -0.0070247157
-0.019155625 0.04818501 -0.027828183 0.010085948 0.00047149244 0.041864555 -0.028030073 0.030309292
-0.013420387 -0.02657853 0.027160939 -0.01185012 0.0037288584 0.059417672 0.026019529 0.03111723

module.net_sm.layer2.0.bn2.weight f4 [32]
00000000: c906 ef3e 7452 083f a85c 053f 8da1 033f
00000010: a851 0e3f eebc 063f d9d7 0f3f a3a7 083f
00000020: b24e f93e 1d12 0c3f 0832 e53e b0eb fc3e
00000030: f2e6 063f 8d32 003f edf0 073f 8dcd 063f
00000040: 2f07 0b3f 5a47 fb3e 9775 0b3f 3fa4 dc3e
00000050: c873 083f 2037 d83e 17a7 143f 6b5d 033f
00000060: e39c 033f aafb 0e3f 683f 003f d110 e73e
00000070: e820 0d3f 0682 023f e977 a53e 0988 e93e
0.46684864 0.53250813 0.5209451 0.5141838 0.5559335 0.52632034 0.5618873 0.53380793
0.48692852 0.5471514 0.44764733 0.49398565 0.52696145 0.50077134 0.53102 0.52657396
0.54307836 0.49077874 0.544763 0.4309406 0.5330167 0.42229557 0.5806746 0.5131442
0.51411265 0.5585276 0.5009675 0.45130017 0.55128336 0.5097965 0.32318047 0.456116

module.net_sm.layer2.0.bn2.bias f4 [32]
00000000: 3a7e eabd ffef bfbc 0148 7ebd 3f92 be3c
00000010: 278d 053e c859 54bd 6add 2e3e 6758 7fbd
00000020: 754d 96bb 3c8c d0bc e427 a4bd 7e8d b1bc
00000030: 3218 c33d bce0 0f3d 661d 08bd 477b 913d
00000040: 6fae 0e3c 54aa 34bc 40b9 0ebc 4e58 dfbc
00000050: c9b8 55bc 10c7 f5bd 1598 053d e610 b13d
00000060: 2c6f 13bd 9a28 8d3d 4b99 a2bd 543a 203c
00000070: 60c8 27be 0a7f a8bc bd70 7fbb 9228 1bb9
-0.11449857 -0.023429869 -0.062080387 0.023263095 0.13042127 -0.051843435 0.1707665 -0.062340166
-0.0045868703 -0.025457494 -0.08015421 -0.021673914 0.09526099 0.035126433 -0.03323116 0.071035914
0.00870858 -0.0110269375 -0.008711159 -0.027263787 -0.0130445445 -0.12000859 0.03261574 0.08645801
-0.035994694 0.0689251 -0.079393946 0.0097795315 -0.16385031 -0.02056839 -0.003897711 -0.00014797066

module.net_sm.layer2.0.bn2.running_mean f4 [32]
00000000: a790 6b3e e268 04bf 1ce2 d7be c693 e7be
00000010: a591 e0be 143f c83e 02a3 833e 157c 23bf
00000020: 76ae acbd 5de2 18bf 3742 18bf 5205 83be
00000030: 9db0 e5be 9e3a 26bf 0fca f13d 2857 85be
00000040: 4ec2 993e 1709 8c3e 83e3 b13e ab29 38be
00000050: 3cdf e4bd 2369 733e a486 d4bd 2898 00bf
00000060: 08a7 c1be 6322 bbbe 9ca6 76be fa93 573e
00000070: e4a3 a43e b2a1 6d3e 59ac eabd 4d05 b9be
0.23004399 -0.5172254 -0.42164695 -0.4522993 -0.43861118 0.39110625 0.25710303 -0.6386121
-0.08431713 -0.597204 -0.59476036 -0.25589997 -0.44861308 -0.6493319 0.11806118 -0.26043057
0.30031055 0.27350685 0.3474389 -0.17984645 -0.11175391 0.23770575 -0.10377243 -0.5023217
-0.37822747 -0.36549672 -0.24086994 0.21052542 0.3215629 0.23206213 -0.11458654 -0.36136857

module.net_sm.layer2.0.bn2.running_var f4 [32]
00000000: 3c8b dd3e b37b 923e e7f4 fb3e e4a6 803e
00000010: c4b8 733e b852 e53e 1de8 0d3f e67a 823e
00000020: 0ed9 8c3d d27e 8d3e 15b7 993e 2608 573e
00000030: 72a6 b73e cc3d fc3e 0fb2 943e b26d 433e
00000040: 9f3d a13e 9d44 313f 0469 6c3e 590c eb3e
00000050: 18b5 0f3e a0db 663e a80f 283e 9204 c43e
00000060: 0fe2 c53e 1bf4 873e 6bd5 ce3e 2d70 a43e
00000070: 32b6 2c3f 2390 ab3e e779 263f 46ca b53e
0.4327029 0.2861 0.49210283 0.25127327 0.23800951 0.44789672 0.554323 0.2548439
0.068773374 0.2763582 0.30022493 0.20999202 0.35869175 0.49265897 0.29042098 0.19084814
0.31492326 0.6924532 0.23086935 0.45907858 0.14033926 0.22544718 0.16412222 0.38284737
0.38649032 0.26553425 0.403972 0.32116833 0.6746551 0.33508405 0.6502976 0.35505885

module.net_sm.layer2.0.ca.fc1.weight f4 [2, 32, 1, 1, 1]
00000000: b65f 43be 3d2d 0e3f 20b3 30bc d546 1abe
00000010: 3d4c ce3d 8bdd 9a3e ec7d 9c3e 77a5 983e
00000020: 7728 3abc 5602 953e ec4e 0c3d 3264 b53e
00000030: 8815 5dbf 3218 2ebe 116a 8b3e 4cf7 973e
00000040: 9dc7 ad3e fba0 883f f4cb febd 686f b3be
00000050: 574a b03e c6a8 463e ba1a 50bd f92f 0bbe
00000060: 1b66 b6be 77e1 813f ced5 96bd 2c9b 86be
00000070: 1008 8b3f fafc d2bd 116b 8cbf 62a8 36bf
00000080: 642f 683f e34b 03bd e9de 5dbd e54b 683e
00000090: 16a5 3fbe 87c7 39be 9f98 73bf 4793 df3d
000000a0: 03dc 15bd 1223 393e 8885 ea3e c6db ca3e
000000b0: 284c aabd fd2c e6be 1dd3 163e bdbc 9eba
000000c0: 23b0 8ebe 0ba3 8e3d a3e5 ddbe 3ef6 5d3f
000000d0: d93b 20be 27ec cdbd 0aa5 5bbe 8a7f 42be
000000e0: 411f 6dbe e073 f83e 8db0 963f 980d f73e
000000f0: 756e e33d 5f86 313f 7170 6f3e ade9 efbd
-0.1907948 0.5553778 -0.010784894 -0.15066083 0.10073135 0.3024715 0.3056482 0.2981374
-0.011362187 0.29103345 0.034254953 0.35428005 -0.8636098 -0.17001417 0.2722936 0.2968086
0.33941355 1.0674127 -0.12441245 -0.35045934 0.34431717 0.1940032 -0.05080674 -0.13592519
-0.35624775 1.0146931 -0.07364999 -0.26290262 1.0861835 -0.10302158 -1.0970174 -0.7135068
0.9069731 -0.032054793 -0.05416766 0.22685201 -0.18715319 -0.1814252 -0.95154756 0.10916763
-0.036586773 0.18079785 0.45805 0.396208 -0.08315307 -0.44956198 0.14728971 -0.0012110692
-0.27868757 0.06964692 -0.4333926 0.8670386 -0.1564783 -0.10054808 -0.21449676 -0.18993965
-0.23156454 0.48525906 1.1772629 0.4825256 0.111050524 0.6934566 0.23382737 -0.11714492
