model/model_20200929150300/model_final_hcp_1_0300_ts.pth (torch_old, 136367 bytes, 68 tensors)

module.net_ts.conv1.weight f4 [32, 1, 7]
0	0xbc6c9ed8	-0.014442168
1	0xbed6a1b4	-0.41920245
2	0x3f03b06e	0.51441085
3	0x3f30bd3a	0.69038737
4	0xbd3e2f0f	-0.046431597
5	0x3e6deba6	0.23234424
6	0xbec34d67	-0.3814499
7	0xbef146fb	-0.47124466
8	0x3f0c052a	0.5469538
9	0x3c8f6605	0.017504701
10	0xbf6b734c	-0.91972804
11	0x3f19e074	0.60108113
12	0x3edefc1c	0.4355172
13	0xbef32def	-0.47495982
14	0x3e0c20de	0.13684413
15	0x3e9cf6f3	0.30657157
16	0x3efba3ac	0.4914831
17	0x3d295dfb	0.041349392
18	0x3e14a8c4	0.14517504
19	0xbe621d96	-0.22081599
20	0xbf2f836d	-0.68559915
21	0x3e10eb3d	0.14152236
22	0xbe0f1de8	-0.13976252
23	0xbef1180e	-0.47088665
24	0x3e9651c0	0.29359245
25	0x3e987add	0.29781237
26	0x3f1d0087	0.6132893
27	0x3cc21d8a	0.023695726
28	0xbd4b73e3	-0.049671065
29	0xbd827c9a	-0.06371422
30	0x3ef460e2	0.47730166
31	0x3f1a2eb0	0.6022749
32	0xbec0460d	-0.37553445
33	0x3da69b34	0.081350714
34	0x3e68f99d	0.2275147
35	0x3da7c150	0.08191168
36	0x3f04a5cb	0.5181548
37	0x3eab0d49	0.33408573
38	0xbf19d539	-0.60090977
39	0xbda214fe	-0.0791416
40	0x3eb7f1c8	0.35926652
41	0x3e3b450f	0.18288063
42	0x3b8c8fda	0.0042896094
43	0xbe940325	-0.2890865
44	0xbd0ca852	-0.03434021
45	0xbee83eb6	-0.45360345
46	0x3eb34499	0.35013273
47	0xbddae692	-0.10688509
48	0xbea9e558	-0.33182788
49	0x3ec923d1	0.39285138
50	0x3e886cba	0.26645452
51	0x3eb39b42	0.3507939
52	0xbea836a4	-0.32854187
53	0xbf0a8c84	-0.5412066
54	0xbe32957f	-0.1743984
55	0xbe72414e	-0.23657724
56	0xbeee2882	-0.4651528
57	0xbe53098c	-0.2060911
58	0xbe78b072	-0.24286059
59	0xbd2cae25	-0.042158265
60	0x3e2130ba	0.15741244
61	0x3ec8b8c9	0.3920348
62	0xbef9fa7d	-0.4882392
63	0x3d2f7186	0.042832874
64	0xbe08fea6	-0.1337839
65	0x3e85145e	0.259921
66	0x3f091be5	0.5355819
67	0xbf12c92a	-0.573382
68	0xbf0766d6	-0.5289129
69	0x3f3f5292	0.7473537
70	0x3f0a7101	0.5407868
71	0xbea6dd8c	-0.32590902
72	0x3eb723dd	0.3576955
73	0x3ddbef62	0.10739018
74	0x3e392384	0.18079954
75	0xbc8743d5	-0.016511837
76	0xbf3ec712	-0.7452251
77	0xbed8b51a	-0.4232567
78	0xbf3dd926	-0.7415947
79	0xbec07059	-0.37585714
80	0x3eef518e	0.4674191
81	0x3f03b256	0.51443994
82	0x3e5f549e	0.21809623
83	0x3ddf1e59	0.1089446
84	0xbe1cba46	-0.15305433
85	0x3e868fbf	0.26281545
86	0x3dc7ece3	0.097619794
87	0x3dc7b3ab	0.09751066
88	0x3d530f03	0.05152799
89	0x3f6fb3af	0.9363355
90	0xbef3f958	-0.47651172
91	0xbec1799d	-0.37788096
92	0x3f29ff9e	0.66405666
93	0xbd9a0495	-0.07520405
94	0x3e5c6acd	0.21525116
95	0x3e890195	0.2675902
96	0xbe07c4ca	-0.13258663
97	0x3f0b2af6	0.5436243
98	0x3ec54562	0.38529497
99	0x3de2f8fe	0.11082648
100	0x3d6f895b	0.0584806
101	0xbf14094b	-0.5782668
102	0xbea56d66	-0.32310027
103	0x3f78aec7	0.9714169
104	0xbd8c72d8	-0.06857842
105	0xbd7b3a5f	-0.061334964
106	0xbede5586	-0.43424624
107	0xbd63e102	-0.055634506
108	0xbe5ad58b	-0.21370523
109	0xbdb286bd	-0.087171055
110	0x3e5bd89f	0.21469353
111	0xbe95094d	-0.29108658
112	0x3ef24a50	0.4732232
113	0xbdcb24d4	-0.09919134
114	0xbf124704	-0.5713961
115	0xbf00dfac	-0.50341296
116	0x3b89b114	0.0042020176
117	0x3d32ba87	0.043634918
118	0x3c2026c0	0.009774864
119	0xbd9a716a	-0.07541163
120	0x3e119e15	0.1422046
121	0xbe6cf0c6	-0.23138723
122	0xbdee8755	-0.11646906
123	0xbc90e7dc	-0.017688684
124	0xbf2e216d	-0.68019754
125	0xbdd9a96f	-0.1062802
126	0x3f107277	0.5642466
127	0x3e200536	0.15626988
128	0xbe9288a6	-0.2861988
129	0xbf08f181	-0.53493506
130	0xbe41b2d3	-0.18915872
131	0x3ee6aa90	0.45052004
132	0x3f444251	0.7666369
133	0x3f44211e	0.7661303
134	0x3eff391e	0.49848264
135	0xbe9f4bfc	-0.3111266
136	0xbd84be23	-0.06481578
137	0x3e7641d6	0.24048552
138	0xbf201964	-0.62538743
139	0xbf40cb29	-0.7531
140	0x3ede298e	0.4339108
141	0xbcb9e564	-0.02269239
142	0xbe24ba1a	-0.16086617
143	0x3e851cc4	0.2599851
144	0x3e401ea7	0.18761693
145	0x3dd63604	0.104595214
146	0xbe729eb3	-0.23693351
147	0x3e808b8e	0.25106472
148	0xbdd95fcf	-0.10613977
149	0x3e7feebd	0.24993415
150	0x3e2d99aa	0.1695315
151	0xbe7589d6	-0.23978361
152	0x3ef7eaa2	0.48421198
153	0x3e24629e	0.16053244
154	0xbce9a048	-0.02851881
155	0xbf03f862	-0.5155088
156	0x3b97275b	0.004612846
157	0xbcd3e45c	-0.025865726
158	0xbd1d8d8a	-0.03846506
159	0xbe9b53cc	-0.3033737
160	0xbe154876	-0.14578423
161	0xbf459ee6	-0.77195585
162	0xbe3beba6	-0.18351611
163	0x3cf79858	0.03022401
164	0x3f61abf3	0.88153
165	0x3eb07b30	0.34468985
166	0xbf36070d	-0.7110451
167	0xbe911a77	-0.28340504
168	0xbd05d66f	-0.032675203
169	0xbecf531d	-0.40493098
170	0xbd006190	-0.031343043
171	0x3a8d9506	0.0010801859
172	0xbea31bea	-0.31857234
173	0xbec90685	-0.39262787
174	0xbd359fa2	-0.04434169
175	0xbe438f0c	-0.19097537
176	0xbe021165	-0.12701948
177	0xbee459f6	-0.44599885
178	0x3e7c9dc5	0.2466956
179	0xbcab5484	-0.020914324
180	0xbefa66c5	-0.48906532
181	0x3c84f476	0.01622985
182	0xbf10ad6b	-0.56514615
183	0xbf03a226	-0.51419294
184	0xbe275c0a	-0.16343704
185	0xbea73944	-0.32660878
186	0xbe3b4e2c	-0.18291539
187	0x3f17df3b	0.59325
188	0x3f7b8f78	0.9826579
189	0xbec7f0b7	-0.39050838
190	0xbe056519	-0.13026847
191	0xbec5d695	-0.38640276
192	0xbdc5a0f2	-0.096498385
193	0x3ec2199b	0.3791016
194	0xbe486aa5	-0.19571932
195	0xbeb87cd9	-0.3603275
196	0x3eebe47f	0.46072766
197	0xbd9b7e59	-0.07592458
198	0xbf31f775	-0.69518214
199	0xbc93ec93	-0.018057143
200	0x3f724290	0.94632816
201	0xbf4f6ea3	-0.81028193
202	0x3e37edd1	0.17961814
203	0xbd4a1e4e	-0.049345307
204	0x3f11a7bc	0.5689657
205	0x3e6808c3	0.22659592
206	0x3e7efc84	0.24901015
207	0xbe0c82ac	-0.13721722
208	0xbf02caa1	-0.5109044
209	0xbe83be93	-0.25731334
210	0xbe6cd078	-0.231264
211	0x3e98b5bd	0.29826155
212	0x3d756bf5	0.05991741
213	0xbe8d7953	-0.27631626
214	0x3e4dd171	0.20099427
215	0x3f07a509	0.529862
216	0x3db15ecf	0.086606614
217	0x3e843823	0.2582408
218	0xbe609814	-0.21933013
219	0x3c47c297	0.01219239
220	0x3f0c8576	0.54891145
221	0x3e9a498a	0.3013423
222	0x3d6b46a6	0.057440422
223	0x3de6f31d	0.11276839

module.net_ts.bn1.weight f4 [32]
0	0x3f3e34cb	0.74299306
1	0x3f543bba	0.82903636
2	0x3f3b698c	0.73207927
3	0x3f2f34f4	0.68440175
4	0x3f2855dc	0.6575601
5	0x3f3ec8b0	0.74524975
6	0x3f2e259b	0.6802613
7	0x3f162d62	0.58663
8	0x3f335694	0.7005398
9	0x3f289f5b	0.6586816
10	0x3f2536a5	0.64536506
11	0x3f4cae48	0.7995343
12	0x3f3ef7b4	0.74596715
13	0x3f4afe88	0.79294634
14	0x3f4af0f1	0.792739
15	0x3f0afc4f	0.5429124
16	0x3f350a63	0.70718974
17	0x3f1a105c	0.6018121
18	0x3f53c46c	0.8272159
19	0x3f621c84	0.8832476
20	0x3ef0123e	0.46888918
21	0x3f01e9ed	0.5074757
22	0x3efe5ae3	0.49678716
23	0x3f7f956d	0.9983738
24	0x3f31fe3c	0.69528556
25	0x3f1db9d2	0.61611664
26	0x3f7e08d7	0.9923224
27	0x3f2e320e	0.6804513
28	0x3f5c361d	0.8602007
29	0x3f0ff6fa	0.5623623
30	0x3f11ac46	0.56903493
31	0x3f0d2a67	0.55142826

module.net_ts.bn1.bias f4 [32]
0	0x3b5259d7	0.0032097006
1	0x3e50aff0	0.20379615
2	0xbd8b2947	-0.067949824
3	0xbe5f1c68	-0.2178818
4	0x3df089f2	0.11745061
5	0xbdb53cff	-0.08849525
6	0x3d91077f	0.07081508
7	0x3da73e4b	0.08166178
8	0xbde00cf8	-0.109399736
9	0x3e20385b	0.15646498
10	0x3e0e1bcc	0.13877791
11	0x3db669cd	0.08906899
12	0xbcc3976d	-0.023875916
13	0x3d357ca6	0.044308327
14	0x3d59c448	0.053165704
15	0xbe2fb7a3	-0.17159896
16	0xbdc1f25d	-0.09470055
17	0xbcc86790	-0.024463445
18	0x3daf3dfa	0.08556743
19	0x3c41d9b0	0.011831686
20	0x3d2950e8	0.041336924
21	0x3dd8b854	0.10582033
22	0x3df9c6cc	0.121961206
23	0x3e334673	0.17507343
24	0x3d16c8d1	0.036812607
25	0xbd1e51df	-0.038652297
26	0x3d581e9d	0.05276357
27	0x3c2c90eb	0.010532598
28	0xbdfe007a	-0.12402435
29	0x3df23962	0.11827351
30	0xbe86ec36	-0.2635209
31	0xbdd09d23	-0.101862215

module.net_ts.bn1.running_mean f4 [32]
0	0xb8c6a2e8	-9.4717194e-05
1	0xb9174686	-0.00014426754
2	0x3818a662	3.639458e-05
3	0xb96f8b3b	-0.00022844684
4	0xb8add20d	-8.288408e-05
5	0x37daa66a	2.6065118e-05
6	0x395f13b6	0.0002127428
7	0x38b9838a	8.8459885e-05
8	0xb9a6544e	-0.000317248
9	0x3935947e	0.00017316823
10	0x39446b58	0.00018732005
11	0xb8895e00	-6.550178e-05
12	0xb9fd3875	-0.00048297984
13	0xb8fc8fbb	-0.00012043068
14	0xb92a190e	-0.00016221797
15	0xb7c0b808	-2.297388e-05
16	0x38fac5a2	0.00011957741
17	0x38cf64f4	9.889333e-05
18	0x3919d119	0.00014669112
19	0x3901e2a6	0.00012386832
20	0xb741ab02	-1.1543512e-05
21	0xb85f8fbb	-5.3301203e-05
22	0x393ce11a	0.00018012934
23	0xb902d381	-0.00012476557
24	0x38fe0643	0.0001211283
25	0xb8263556	-3.9627157e-05
26	0xb7b0a233	-2.1056365e-05
27	0xb8a3332e	-7.781979e-05
28	0x39fe7691	0.00048534994
29	0xb8a6bb06	-7.950333e-05
30	0xb92715b9	-0.00015934453
31	0x38a1b2a0	7.71035e-05

module.net_ts.bn1.running_var f4 [32]
0	0x3d8c8cd6	0.068628
1	0x3dc36d5a	0.095423415
2	0x3d72272a	0.05911938
3	0x3d7d618a	0.0618606
4	0x3d79011f	0.060792085
5	0x3d86cfe3	0.0658262
6	0x3d2ad391	0.04170567
7	0x3d6e29b3	0.058145236
8	0x3d65f0f5	0.056137998
9	0x3d9e11ac	0.077182144
10	0x3d71f6e9	0.059073362
11	0x3dca4a71	0.0987748
12	0x3d8e4c5a	0.06948157
13	0x3d9a0674	0.07520762
14	0x3db37f69	0.08764536
15	0x3d21655d	0.03940331
16	0x3d78a20f	0.060701426
17	0x3d6db7d3	0.058036637
18	0x3dea7f05	0.11450008
19	0x3dfb3f6c	0.12267956
20	0x3ce668a1	0.028126063
21	0x3d34edfc	0.044172272
22	0x3d3e493a	0.046456553
23	0x3e0ba129	0.13635696
24	0x3d73a780	0.059485912
25	0x3d526d32	0.051373668
26	0x3e0f4aee	0.13993427
27	0x3d87f531	0.066385634
28	0x3dca7995	0.09886471
29	0x3d5257f7	0.05135342
30	0x3d23eb86	0.040019535
31	0x3d673253	0.056444477

module.net_ts.layer1.0.conv1.weight f4 [32, 32, 3]
0	0x3de1d533	0.11026993
1	0xbac4d7f8	-0.0015017977
2	0x3dbf30d1	0.09335483
3	0xbda73c91	-0.08165849
4	0xbd5ce6d1	-0.05393106
5	0x3df0f05f	0.11764597
6	0x3e02fdb3	0.12792091
7	0x3dd34efd	0.103178
8	0x3e12040b	0.14259355
9	0xbc5d390d	-0.0135023715
10	0xbd2eec70	-0.042705953
11	0x3e085dd5	0.13317044
12	0x3d85699c	0.06514284
13	0x3e5c1663	0.21492915
14	0xbdb1b782	-0.086775795
15	0x3e356208	0.17713177
16	0x3d3252eb	0.043536108
17	0x3d7f1280	0.062273502
18	0xbdee886d	-0.11647115
19	0xbe1dc0c4	-0.15405566
20	0xbd453f4c	-0.048156068
21	0xbe17a07c	-0.14807314
22	0x3dbb4a16	0.0914499
23	0x3ea07e92	0.31346565
24	0xbcf21c43	-0.029554492
25	0xbe28a283	-0.16468243
26	0x3dd012db	0.101598464
27	0x3c95e52f	0.01829776
28	0x3ec59f01	0.38597873
29	0x3e9d81f9	0.30763224
30	0x3cd5ca03	0.026097303
31	0x3e0269ae	0.12735626
32	0x3e453b00	0.19260788
33	0xbe3d3414	-0.18476897
34	0xbe0fd078	-0.14044368
35	0x3d35e06e	0.044403486
36	0xbcab648a	-0.020921964
37	0xbe0ac32a	-0.13551012
38	0xbc849cdc	-0.016188078
39	0x3c666a19	0.014063382
40	0x3dccc8a6	0.09999208
41	0xbd5664a7	-0.052342083
42	0xbe13e93b	-0.14444439
43	0xbe2caf5c	-0.1686377
44	0x3e05c9c6	0.13065252
45	0x3d87e00b	0.0663453
46	0xbd8251d7	-0.06363266
47	0xbca26468	-0.019823268
48	0xbdc63b62	-0.09679295
49	0xbeb7a9ca	-0.35871726
50	0x3e12035f	0.14259098
51	0xbd82c896	-0.06385915
52	0xbdae9e1c	-0.08526251
53	0x3da69c01	0.08135224
54	0xbd2055ba	-0.039144255
55	0x3d6ea1e5	0.058259863
56	0x3e7e41bf	0.24829768
57	0xbec3d79d	-0.38250437
58	0x3e71fe92	0.23632267
59	0x3dd4090f	0.1035329
60	0xbdd611b2	-0.10452594
61	0x3bad7294	0.0052932
62	0xbd897524	-0.06711796
63	0xbe8999de	-0.26875204
64	0x3cbced42	0.023062352
65	0xbd1564d7	-0.03647312
66	0x3c9702dd	0.018433983
67	0xbe0dfceb	-0.13866012
68	0xbbaaee37	-0.0052163857
69	0xbe3d6913	-0.18497114
70	0xbda7457b	-0.08167549
71	0x3e6b9604	0.23006445
72	0x3dd2fee9	0.103025265
73	0xbdc79916	-0.09745996
74	0xbeb34996	-0.3501708
75	0xbd4f6695	-0.05063494
76	0xbe126caf	-0.14299272
77	0xbd11edcc	-0.03562717
78	0xbeccf631	-0.4003158
79	0xbee2c161	-0.4428816
80	0x3eaf91e9	0.34291008
81	0x3c8ccd20	0.017187655
82	0xbdeae1fd	-0.11468885
83	0xbdeba89c	-0.11506769
84	0xbeb10435	-0.34573522
85	0x3cd9e5b8	0.026598796
86	0x3eaf4784	0.3423425
87	0x3d5d6068	0.05404702
88	0x3cfb571e	0.03068119
89	0x3b145b6d	0.0022637502
90	0xbd800f24	-0.06252888
91	0xbe7febb3	-0.24992256
92	0x3ca745da	0.02041905
93	0x3d40bbdc	0.047054157
94	0xbe1a28c2	-0.1505461
95	0xbe03d6a5	-0.12874849
96	0x3e4d050e	0.2002146
97	0x3b1e56c3	0.00241606
98	0xbe06ffb4	-0.1318348
99	0xbc8ed48c	-0.017435335
100	0xbd58aab4	-0.05289717
101	0xbd91a854	-0.07112184
102	0xbc324411	-0.010880486
103	0x3e1d396c	0.15353936
104	0xbd863f58	-0.065550506
105	0xbdcd658e	-0.10029136
106	0x3e438daa	0.1909701
107	0xbe346892	-0.17618015
108	0x3e4a3c6f	0.19749616
109	0x3d9a36b2	0.075299636
110	0xbd998725	-0.0749648
111	0x3cd44041	0.025909545
112	0x3d016267	0.031587984
113	0x3dfc4184	0.123171836
114	0x3e0a755f	0.13521336
115	0x3d570991	0.052499358
116	0xbc53c374	-0.012925018
117	0xbdf3a69c	-0.118970126
118	0x3dc0bc2d	0.09410892
119	0x3cc186c0	0.023623824
120	0x3e8a3e3b	0.27000603
121	0x3d9b3e5a	0.07580252
122	0x3e338e35	0.17534716
123	0x3db5172d	0.08842311
124	0xbda47d02	-0.08031656
125	0x3be3b444	0.0069489796
126	0x3c264143	0.010147396
127	0xbc94649b	-0.018114379
128	0x3e24495d	0.16043611
129	0x3d78779f	0.060660955
130	0x3d45d2c6	0.048296712
131	0xbc09f859	-0.008421027
132	0x3d1bde0f	0.03805357
133	0x3ca867a4	0.020557232
134	0xbe07d982	-0.13266566
135	0x3e2bda12	0.16782406
136	0x3e0cca47	0.13749038
137	0xbc8a06f3	-0.016849017
138	0xbd1661bc	-0.0367143
139	0xbe5d70b0	-0.21625018
140	0x3c299ef7	0.010352842
141	0x3e19af0e	0.15008184
142	0x3cf028f8	0.02931641
143	0x3cf588a6	0.029972386
144	0x3e509df2	0.20372751
145	0x3aa666af	0.0012695397
146	0xbb205221	-0.0024463015
147	0x3e3672e8	0.17817271
148	0x3d9eed07	0.07760053
149	0x3ea027ca	0.31280357
150	0x3de22626	0.110424325
151	0x3dc4805a	0.095947936
152	0xbe3fbbc7	-0.18723975
153	0xbe281633	-0.16414718
154	0x3e0b55d3	0.13606958
155	0x3e4390ce	0.19098207
156	0x3d78dcd4	0.060757473
157	0x3e0b46d4	0.13601238
158	0x3dc6a3d0	0.096992135
159	0x3dca58ff	0.09880256
160	0x3d1df65d	0.03856503
161	0xbdacfa3d	-0.08446167
162	0x3da2eb91	0.07955087
163	0x3d189396	0.037250124
164	0x3e19fbce	0.15037462
165	0x3cbdc385	0.02316452
166	0x3d4e94c8	0.050434858
167	0xbd4ef110	-0.050522864
168	0x3e4c2375	0.19935401
169	0xbc361102	-0.011112453
170	0x3daf2069	0.085511036
171	0x3e3d7549	0.18501772
172	0xbb3c8640	-0.0028766543
173	0x3e052691	0.13002993
174	0x3d1552d4	0.036455944
175	0x3b7faa25	0.0039011326
176	0xbe843013	-0.25817928
177	0x3e76a136	0.24084935
178	0xbc9a2713	-0.01881746
179	0x3d8c30ae	0.068452224
180	0x3e149cde	0.14512965
181	0xbc43d1d4	-0.011951882
182	0x3a2a9a2e	0.000650796
183	0x3c6c244e	0.014412953
184	0xbb0ccf90	-0.0021486022
185	0x3dbce9cc	0.09224281
186	0x3d686a3a	0.05674193
187	0x3dd13258	0.102146804
188	0x3c910c13	0.017705953
189	0x3e692d54	0.22771198
190	0x3dd1c5ac	0.10242781
191	0xbd990206	-0.07471089
192	0x3dddaa82	0.108235374
193	0xbe8a05cb	-0.26957545
194	0x3e07c9ce	0.13260576
195	0xbc8d8609	-0.017275827
196	0xbd85694b	-0.06514224
197	0xba023fc2	-0.0004968607
198	0xbdb51e4d	-0.0884367
199	0x3e70deb7	0.23522459
200	0x3e5d8c5f	0.21635579
201	0x3d281cdd	0.04104315
202	0xbe46d457	-0.19416939
203	0xbe97b8a5	-0.2963306
204	0x3dd5e98f	0.104449384
205	0xbda912b0	-0.082555175
206	0x3d8e5567	0.06949883
207	0xbcff0fc1	-0.031135442
208	0x3e09adc1	0.13445188
209	0xbe1641e1	-0.14673568
210	0x3d715881	0.058922295
211	0x3def8773	0.11695757
212	0xbdeb69fa	-0.11494823
213	0xbce75156	-0.028237026
214	0x3cde0bb6	0.027105194
215	0x3d755e6b	0.059904497
216	0x3d4c24c0	0.049839735
217	0xbdf2cc5a	-0.11855383
218	0xbd85ae2c	-0.06527361
219	0x3da7bafc	0.08189961
220	0xbde8ca91	-0.113667615
221	0x3e4579c8	0.19284737
222	0xbdbead32	-0.09310378
223	0x3ca79e89	0.020461338
224	0x3e0ff5aa	0.14058557
225	0xbe5077bb	-0.20358174
226	0xbdb0a813	-0.086258076
227	0xbe0da142	-0.13831046
228	0x3dc13a32	0.09434928
229	0xbe22a555	-0.15883382
230	0xbe9b0c4f	-0.30282828
231	0x3edbbc05	0.42916885
232	0x3e2bcf77	0.1677836
233	0xbe0a7559	-0.13521327
234	0xbdbcb18c	-0.09213552
235	0xbde05cde	-0.10955213
236	0x3c4db853	0.012556153
237	0x3dbf1884	0.09330848
238	0xbdcfa2d7	-0.10138481
239	0xbe2986d3	-0.16555338
240	0xbd8f33f5	-0.06992332
241	0x3dc9d5f6	0.09855263
242	0xbcfa7978	-0.030575499
243	0x3d69fe11	0.057127062
244	0xbba6624f	-0.0050776373
245	0xbe14c39d	-0.14527746
246	0xbda991a1	-0.0827973
247	0xbe3da9d9	-0.18521823
248	0xbd9f3ca9	-0.07775242
249	0xbdb3fd8b	-0.08788594
250	0x3c54b1bc	0.012981828
251	0xbd01e1ce	-0.031709485
252	0xbd296b0c	-0.041361853
253	0x3c5f4006	0.013626104
254	0xbdf09772	-0.11747636
255	0x3db4bfb8	0.0882563

module.net_ts.layer1.0.bn1.weight f4 [32]
0	0x3f47c7b7	0.78039116
1	0x3ef0005c	0.46875274
2	0x3f1030e2	0.5632459
3	0x3f0996ba	0.53745615
4	0x3f132f47	0.57494015
5	0x3f198e0d	0.5998238
6	0x3f2c7c93	0.67377585
7	0x3f29c148	0.6631055
8	0x3f388a76	0.72086275
9	0x3f2d7790	0.6776056
10	0x3f2fdd72	0.68697274
11	0x3f3339d5	0.7001012
12	0x3f0b4574	0.5440285
13	0x3ede0be8	0.4336846
14	0x3f09bbbc	0.53802085
15	0x3efaf101	0.49011996
16	0x3ef9acb9	0.4876459
17	0x3f1b1dd7	0.60592407
18	0x3f1703ab	0.5898997
19	0x3f26602f	0.64990515
20	0x3f311622	0.69174397
21	0x3f2c6589	0.6734243
22	0x3ef89962	0.48554522
23	0x3f26877e	0.65050495
24	0x3f12ab12	0.5729228
25	0x3f407e03	0.7519228
26	0x3f1c4c0d	0.61053544
27	0x3f42706f	0.7595281
28	0x3f38489a	0.7198578
29	0x3eeef1eb	0.46668944
30	0x3ef49cd8	0.47775912
31	0x3f181004	0.5939944

module.net_ts.layer1.0.bn1.bias f4 [32]
0	0xbe47fcdf	-0.19530056
1	0xbce908af	-0.028446523
2	0xbe603327	-0.21894513
3	0x3e42b448	0.19014084
4	0x3d0f934b	0.03505258
5	0xbde1a2b3	-0.110173605
6	0xbe53bce8	-0.20677531
7	0xbe5d333d	-0.21601577
8	0x3b50bfa6	0.0031852513
9	0xbe2c9b15	-0.16856034
10	0xbed8aae5	-0.42317882
11	0xbe345112	-0.17609051
12	0xbde84bc0	-0.11342573
13	0xbe109c15	-0.1412204
14	0xbd0e203b	-0.034698706
15	0xbdee1dd6	-0.116267845
16	0xbd8a38f0	-0.06749141
17	0xbcfe6d03	-0.03105784
18	0xbe317187	-0.17328463
19	0xbe5711db	-0.21002905
20	0xbe87d021	-0.26525977
21	0xbdffcbf5	-0.124900736
22	0xbe05470c	-0.13015383
23	0x3d51b2be	0.051195852
24	0xbe3b0b2e	-0.18265983
25	0xbddc33e5	-0.107520856
26	0x3c6acd7b	0.014331217
27	0xbe422291	-0.18958499
28	0xbe336145	-0.17517574
29	0xbd3df54b	-0.046376508
30	0xbdc33b33	-0.09532776
31	0xbe4e9155	-0.20172627

module.net_ts.layer1.0.bn1.running_mean f4 [32]
0	0xbe938d45	-0.28818718
1	0x3fede7fa	1.8586419
2	0xbf860a91	-1.0471975
3	0xbf54bda8	-0.8310189
4	0xbfa0926c	-1.2544684
5	0xbf7e6de6	-0.9938644
6	0x3f39421d	0.72366506
7	0xbf1dba8d	-0.6161278
8	0xbeac514b	-0.33655772
9	0xbf82d9d9	-1.0222732
10	0x3fad3e19	1.3534576
11	0xbf374034	-0.7158234
12	0xbda90425	-0.08252744
13	0x3fecdccd	1.8504883
14	0x3fab15d6	1.3366039
15	0x3de450a0	0.111481905
16	0x3eb0318e	0.34412807
17	0xbf9a67ca	-1.2062924
18	0xbf93ee17	-1.1557034
19	0x3e4b5f52	0.1986058
20	0xbfb58917	-1.4182462
21	0xbebee595	-0.37284532
22	0x3f3e1de1	0.7426434
23	0xbe1033ee	-0.1408231
24	0x3f9657eb	1.174558
25	0xbfb203ac	-1.390737
26	0xbfa68552	-1.3009436
27	0x3e23501d	0.1594853
28	0xbf15f288	-0.585732
29	0xbf8e13ed	-1.1099831
30	0x3d0eeea4	0.034895554
31	0xbd33b13e	-0.043870203

module.net_ts.layer1.0.bn1.running_var f4 [32]
0	0x3fc5cb3f	1.5452651
1	0x3fa5d340	1.2955093
2	0x3f4338f7	0.76258796
3	0x3fb8a9c9	1.4426814
4	0x3faabbc8	1.3338556
5	0x3f8c5419	1.0963165
6	0x3f7d217e	0.9887923
7	0x3f90335a	1.1265671
8	0x3fcc39e7	1.595517
9	0x3f99cf37	1.2016362
10	0x3f8bc658	1.0919905
11	0x3f6c5336	0.9231447
12	0x3f8fdc59	1.123912
13	0x3f95f5a8	1.1715593
14	0x3f82dc09	1.0223399
15	0x3f83c355	1.0293986
16	0x3f27229a	0.6528717
17	0x3f7c53a3	0.9856512
18	0x3fa1a39f	1.2628058
19	0x3f85c1e3	1.0449795
20	0x3ff29ae5	1.895352
21	0x3f68b04a	0.90893996
22	0x3f2facb0	0.68622875
23	0x3f27d980	0.65566254
24	0x3f78416e	0.9697484
25	0x3f9705f8	1.1798697
26	0x3fa7ce40	1.3109818
27	0x3fa2d75a	1.272197
28	0x3f78b017	0.9714369
29	0x3f4be072	0.7963935
30	0x3f384e4b	0.71994466
31	0x3f04bc2f	0.51849645

module.net_ts.layer1.0.conv2.weight f4 [32, 32, 3]
0	0x3e281924	0.1641584
1	0xbd56995c	-0.05239235
2	0x3e38dc31	0.18052746
3	0xbe5a5ac7	-0.21323691
4	0xbe4004de	-0.18751857
5	0xbd856b10	-0.06514561
6	0xbc2716dc	-0.010198321
7	0xbe6bccb4	-0.23027307
8	0xbc40282f	-0.0117283305
9	0x3e02bd7b	0.12767594
10	0x3e8abc03	0.27096567
11	0x3d94b199	0.072604366
12	0x3e802d70	0.25034666
13	0xbe8fcd41	-0.28086284
14	0xbdc50c94	-0.0962154
15	0x3db57ff2	0.08862294
16	0x3dccbbc3	0.0999675
17	0x3e07b00d	0.13250752
18	0xbd857eca	-0.06518324
19	0x3e42c4d8	0.19020402
20	0xbcb592fa	-0.02216481
21	0x3d8ccc41	0.06874896
22	0xbc047254	-0.008083899
23	0x3e0b8365	0.13624342
24	0x3d0c3183	0.034226906
25	0xbe8b17bf	-0.27166554
26	0x3df1979e	0.11796497
27	0xbe6bfe23	-0.23046164
28	0xbe0cfae6	-0.13767585
29	0x3d1d8ff3	0.03846736
30	0xbe3ad5b4	-0.18245584
31	0xbe24294f	-0.16031383
32	0xbe464538	-0.19362342
33	0xbd88da3d	-0.06682251
34	0xbe1e6914	-0.15469772
35	0x3e93ce38	0.2886827
36	0xbcb01d92	-0.021498475
37	0x3e3a0fd5	0.18170102
38	0xbd8a81af	-0.067630164
39	0xbe11b5ad	-0.1422946
40	0xbcdac960	-0.026707351
41	0xbb83be28	-0.004020471
42	0xbd660218	-0.05615434
43	0x3ca2b479	0.019861447
44	0xbdcf8c76	-0.10134213
45	0x3ca8ff1a	0.020629454
46	0x3dec277d	0.11530969
47	0x3d8f269c	0.06989786
48	0xbc2c0494	-0.010499138
49	0xbe0d2464	-0.13783413
50	0xbdd43493	-0.1036159
51	0xbc998d1f	-0.01874405
52	0x3e09c8eb	0.1345555
53	0x3e856da3	0.2606021
54	0xbe0de69b	-0.138575
55	0xbe2a95c6	-0.16658697
56	0xbeaf8ee2	-0.34288698
57	0xbe85820c	-0.2607578
58	0xb8ee4de0	-0.0001136323
59	0x3d8258d1	0.06364597
60	0x3ef54693	0.47905406
61	0xbda566ee	-0.08076273
62	0xbe6265c5	-0.22109134
63	0xbdf668c8	-0.12031704
64	0x3e82e756	0.2556712
65	0xbd86d3e7	-0.06583386
66	0x3e1bab76	0.15202126
67	0xbe50f364	-0.20405346
68	0xbdf79703	-0.1208935
69	0xbd915f3b	-0.07098242
70	0xb8c49812	-9.3743336e-05
71	0x3b834c8c	0.004006928
72	0xbe31b6f6	-0.1735495
73	0x3d7ba0f2	0.061432786
74	0xbe18beed	-0.14916582
75	0x3e5c6853	0.21524172
76	0x3e0bc848	0.1365062
77	0xbcc2e140	-0.023789048
78	0x3e1820d8	0.14856279
79	0xbba7cd65	-0.0051209205
80	0xbc898f19	-0.016791867
81	0x3e040fcc	0.12896651
82	0xbeaef652	-0.34172302
83	0x3e959175	0.29212537
84	0xbd399e1a	-0.045316793
85	0x3e857ae3	0.26070318
86	0x3ca6da84	0.020367868
87	0x3cc91c8f	0.02454975
88	0xbdd6f4fe	-0.10495947
89	0xbe147be2	-0.14500383
90	0xbe6fb48c	-0.23408717
91	0xbbd90f68	-0.006624151
92	0x3d41654d	0.04721575
93	0x3d21e269	0.039522562
94	0x3dc9a8d0	0.098466516
95	0xbe9c62a0	-0.30543995
96	0x3e18bfbc	0.14916891
97	0xbe4750ae	-0.1946437
98	0xbd142e2f	-0.036176857
99	0x3d740425	0.059574265
100	0xbd7bc96e	-0.061471395
101	0xbe86f3f1	-0.26357988
102	0xbca86ef7	-0.020560725
103	0x3e431326	0.19050273
104	0x3d65ad5d	0.056073535
105	0x3df8d117	0.12149256
106	0xbc1c43b8	-0.00953763
107	0xbd3fb375	-0.046802003
108	0xbdf83c47	-0.12120872
109	0xbd9dab42	-0.076986805
110	0x3dd832de	0.10556577
111	0x3dc7a683	0.097485565
112	0x3e239a2b	0.15976779
113	0x3de19f81	0.11016751
114	0x3deb7cb9	0.11498398
115	0xbe47068e	-0.19436094
116	0xbe584404	-0.21119696
117	0x3e2fa9ab	0.17154567
118	0x3d3c8971	0.04602951
119	0x3db43fc0	0.08801222
120	0xbe7fa83c	-0.2496652
121	0xbd9d54bf	-0.0768218
122	0x3d6878df	0.056755897
123	0xbd8da760	-0.0691669
124	0xbcaedacb	-0.021344563
125	0xbe892b69	-0.26790932
126	0xbe4531f9	-0.19257344
127	0xbe269048	-0.16265976
128	0xbe4cf46c	-0.20015115
129	0x3dd29b81	0.10283566
130	0xbdc86e0e	-0.09786616
131	0xbda022ac	-0.07819113
132	0x3e098170	0.13428283
133	0xbdc76136	-0.097353384
134	0xbe0a4813	-0.13504057
135	0xbebd7373	-0.37002143
136	0xbe004616	-0.12526736
137	0xbcffb84b	-0.031215807
138	0xbd7a42ff	-0.06109905
139	0xbd590b81	-0.052989487
140	0xbd237300	-0.039904594
141	0x3d8875e9	0.066631146
142	0x3df5d087	0.12002664
143	0xbe05f290	-0.13080812
144	0xbc7491a9	-0.014927306
145	0x3a49be6a	0.00076959154
146	0xbd73e1bd	-0.059541453
147	0xbdac1ffb	-0.08404537
148	0x3bbb4bd2	0.0057158256
149	0x3cb2234d	0.021745348
150	0xbdda6a9d	-0.10664866
151	0xbda612f6	-0.08109085
152	0xbe2c89d9	-0.1684946
153	0xbdf5b418	-0.11997241
154	0xbe858836	-0.26080483
155	0xbd6097a2	-0.05483211
156	0xbd897f99	-0.067137904
157	0xbe994f00	-0.29943085
158	0xbe264f69	-0.1624123
159	0x3e083ccd	0.13304444
160	0xbd78e189	-0.060761962
161	0xbe30b428	-0.17256224
162	0xbe3a28db	-0.18179648
163	0x3e2636cc	0.16231841
164	0x3dee5745	0.11637739
165	0xbe2ef469	-0.17085423
166	0xbe23efef	-0.16009496
167	0xbcb9d6e8	-0.022685483
168	0xbe0774bd	-0.13228126
169	0xbc9b5232	-0.018960092
170	0xbe9ee822	-0.31036478
171	0x3e3b9e06	0.18322
172	0xbe060db9	-0.13091172
173	0x3e4a45ae	0.19753143
174	0x3d823d80	0.063593864
175	0x3e7abc72	0.24485949
176	0xbddb84d4	-0.10718694
177	0xbe6ba561	-0.23012306
178	0x3d278ad8	0.040903896
179	0xbd0991be	-0.033586256
180	0x3df8577b	0.121260606
181	0x3d5da6c3	0.054114114
182	0x3dd17b2f	0.102285735
183	0x3d2b02e2	0.041750796
184	0xbd35c3ae	-0.044376068
185	0x3cff7873	0.031185364
186	0xbe41d84c	-0.18930167
187	0x3df5787f	0.119858734
188	0x3eb3aed1	0.35094312
189	0xbe41f1c9	-0.1893989
190	0x3e43731e	0.19086882
191	0xbb1f8de3	-0.0024346046
192	0xbcdc3c3d	-0.026884193
193	0xbd890f65	-0.066923894
194	0x3d697ee8	0.057005793
195	0xbe08e1a1	-0.1336732
196	0xbd57a4db	-0.052647453
197	0xbe77ba65	-0.24192198
198	0xbe42cd3c	-0.19023603
199	0xbdfb389a	-0.12266655
200	0xbcaa0089	-0.020752208
201	0x3dc14407	0.09436803
202	0x3d07ee6c	0.03318636
203	0x3e21d119	0.1580242
204	0x3cebebac	0.0287989
205	0x3d91e9f7	0.071247034
206	0x3d877a47	0.066151194
207	0xbda57247	-0.08078437
208	0x3e3c9477	0.1841601
209	0x3e41d0e9	0.18927349
210	0xbc35199c	-0.011053469
211	0x3db02518	0.08600825
212	0xbe45132b	-0.19245593
213	0x3d97f225	0.07419232
214	0x3ce1dc91	0.027570995
215	0xbdb41c2f	-0.08794438
216	0xbe2eef22	-0.1708341
217	0xbe0fa3ad	-0.14027281
218	0x3d595e71	0.053068582
219	0xbeb1e434	-0.34744418
220	0xbe7f791c	-0.24948543
221	0xbe431861	-0.19052269
222	0xbcb2b95c	-0.021816902
223	0xbe744427	-0.23854123
224	0x3db542c7	0.088506274
225	0x3d83ec3d	0.06441543
226	0xbe487604	-0.1957627
227	0xbd836bf6	-0.06417076
228	0x3daee4a4	0.085397035
229	0xbd007f8f	-0.03137165
230	0xbd6c9b3f	-0.05776524
231	0xbe0051d2	-0.12531212
232	0xbd802a19	-0.062580295
233	0x3d01ac7a	0.031658627
234	0xbe32e56c	-0.1747033
235	0xbdfa88b3	-0.122331046
236	0x3d53a0f6	0.051667176
237	0xbe69da71	-0.22837235
238	0x3aec5f1e	0.0018033718
239	0xbd213b65	-0.039363284
240	0x3e026931	0.1273544
241	0xbda2cdcb	-0.07949408
242	0x3c046f98	0.008083247
243	0x3e84bdc4	0.2592603
244	0x3d387e13	0.04504211
245	0xbd8fb235	-0.07016412
246	0xbe53ab8e	-0.20670912
247	0xbc4b452a	-0.012406627
248	0xbe59ebc4	-0.21281344
249	0xbe137cc7	-0.14403068
250	0x3df2b3f8	0.118507326
251	0xbe3d0341	-0.18458273
252	0x3db0cb9c	0.086325854
253	0x3e99faf7	0.30074283
254	0xbdc10f6d	-0.0942677
255	0xbe573da0	-0.21019602

module.net_ts.layer1.0.bn2.weight f4 [32]
0	0x3f2c4294	0.6728909
1	0x3f0204b5	0.5078843
2	0x3f382600	0.71932983
3	0x3f3d6266	0.7397827
4	0x3f502358	0.8130393
5	0x3eb80cc8	0.3594725
6	0x3f0b219f	0.54348177
7	0x3f0fbd68	0.56148386
8	0x3f29f2b2	0.6638595
9	0x3f2a20b2	0.6645614
10	0x3f2dc5af	0.67879766
11	0x3f2c35c2	0.6726953
12	0x3f0752ea	0.5286089
13	0x3f1ea4e3	0.6197035
14	0x3f04ee42	0.5192605
15	0x3f0e92ce	0.55692756
16	0x3f090d44	0.53535867
17	0x3f1fa344	0.623585
18	0x3f087770	0.5330725
19	0x3e9a4c1a	0.30136186
20	0x3f180c2d	0.5939358
21	0x3f0ef0ba	0.5583607
22	0x3f38fd31	0.7226134
23	0x3f0deb4f	0.5543718
24	0x3f0e4795	0.55577976
25	0x3f1fae89	0.62375695
26	0x3edb9de2	0.42893893
27	0x3f046ba0	0.5172672
28	0x3f15ad48	0.5846753
29	0x3efbba02	0.4916535
30	0x3f3b78a8	0.7323098
31	0x3ed132c5	0.40859047

module.net_ts.layer1.0.bn2.bias f4 [32]
0	0xbe002818	-0.12515295
1	0xbd3cef7b	-0.046126824
2	0xbe046e27	-0.12932645
3	0xbe3b8ae3	-0.183147
4	0xbdd40e0c	-0.10354242
5	0xbe833439	-0.2562578
6	0xbe088d69	-0.13335194
7	0xbe988d06	-0.29795092
8	0xbd3b55a4	-0.04573597
9	0x3bbf9fb5	0.005847896
10	0xbdeeec63	-0.11666181
11	0xbe23393d	-0.15939803
12	0xbd8adabe	-0.06780003
13	0xbdb5ee1c	-0.088833064
14	0xbd8cd52d	-0.068765976
15	0xbd396b1c	-0.045268163
16	0xbe9befa8	-0.3045628
17	0xbe20eda0	-0.15715647
18	0xbe4e7e0d	-0.20165272
19	0xbe717459	-0.2357954
20	0xbdf77869	-0.12083513
21	0x3cb0fd9a	0.021605302
22	0x3c2df1e4	0.010616753
23	0xbe30a436	-0.17250142
24	0xbdc6483a	-0.09681745
25	0x3d13f518	0.03612241
26	0xbd280007	-0.04101565
27	0xbe4ecac2	-0.20194533
28	0xbe5652a4	-0.20929962
29	0xbe3e1e55	-0.18566258
30	0xbd1a7cbe	-0.03771662
31	0xbdb4dd67	-0.08831292

module.net_ts.layer1.0.bn2.running_mean f4 [32]
0	0xbcb5f4c9	-0.02221145
1	0xbf081e3d	-0.5317114
2	0xbefa69e9	-0.48908928
3	0xbe466121	-0.19372989
4	0xbf07a5b2	-0.52987206
5	0xbe8e3f32	-0.2778259
6	0xbe8e96dc	-0.27849472
7	0xbd137c30	-0.036007106
8	0xbe533180	-0.20624352
9	0xbd50d675	-0.050985772
10	0xbf2ce583	-0.6753771
11	0xbf1b8f1e	-0.60765254
12	0xbe2af3bf	-0.16694544
13	0xbea3702b	-0.31921515
14	0xbecf8de4	-0.4053794
15	0x3f13360b	0.5750434
16	0xbe9e7dec	-0.30955446
17	0xbf4c8c0c	-0.79901195
18	0xbeb53792	-0.3539396
19	0x3e3d4836	0.18484578
20	0xbe7cb2a7	-0.24677525
21	0xbd9e9fc4	-0.077453166
22	0xbf143d37	-0.57905906
23	0x3ebbdc2e	0.3669142
24	0x3d6bac38	0.057537287
25	0x3d106f25	0.035262246
26	0xbcb7dd67	-0.02244444
27	0xbf4a6ffe	-0.79077137
28	0xbe54589b	-0.20736925
29	0xbe303ee2	-0.17211488
30	0xbe83ef8b	-0.25768694
31	0xbd7f4daa	-0.062329926

module.net_ts.layer1.0.bn2.running_var f4 [32]
0	0x3ef7fefe	0.4843673
1	0x3f0ab195	0.5417722
2	0x3ec51955	0.3849589
3	0x3f121d5f	0.57076067
4	0x3ec04707	0.3755419
5	0x3e067db6	0.13133892
6	0x3e894380	0.2680931
7	0x3e8ce812	0.27520806
8	0x3e6f897f	0.23392294
9	0x3ed041df	0.40675256
10	0x3ea94846	0.33062953
11	0x3ee98fb0	0.45617437
12	0x3e9dbaef	0.30806682
13	0x3ed68b19	0.41902998
14	0x3e903ce3	0.28171453
15	0x3e41bd67	0.18919908
16	0x3e57558b	0.21028726
17	0x3e7bc2bf	0.24586008
18	0x3eadb5d5	0.3392779
19	0x3e6e3df2	0.23265818
20	0x3e5ac582	0.21364406
21	0x3ea87aa5	0.3290607
22	0x3e8f17ed	0.2794794
23	0x3eac98c5	0.33710304
24	0x3e9caca1	0.30600455
25	0x3ea67dd4	0.32517874
26	0x3e94389e	0.28949445
27	0x3e944acc	0.28963315
28	0x3eeb1566	0.45914763
29	0x3e88b06e	0.26697105
30	0x3eae29e6	0.3401634
31	0x3e981979	0.29706934

module.net_ts.layer2.0.conv1.weight f4 [32, 32, 3]
0	0x3e9cde24	0.3063823
1	0xbd6ad454	-0.057331398
2	0x3dc54caa	0.09633763
3	0x3e88a27b	0.26686463
4	0x3d28af14	0.041182593
5	0x3d474c4c	0.048656747
6	0x3da4bf50	0.080443025
7	0xbdf916fd	-0.12162588
8	0x3a970442	0.0011521655
9	0xbd668980	-0.056283474
10	0x3b387051	0.0028143118
11	0xbb4346bc	-0.00297968
12	0xbe4e8ede	-0.20171687
13	0x3dc178ba	0.09446855
14	0xbdb8e437	-0.090279035
15	0x3e144e96	0.14483103
16	0xbe83b3de	-0.25723165
17	0xbd43a1ea	-0.047761835
18	0xbd969126	-0.073519036
19	0x3e8ec953	0.27887973
20	0x3e24cdba	0.16094103
21	0x3d9196d6	0.07108848
22	0x3d9146ec	0.070936054
23	0xbdfc2399	-0.12311477
24	0xbce472f3	-0.027886843
25	0x3de0e6af	0.109814994
26	0x3e712114	0.23547775
27	0xbe09d47b	-0.13459961
28	0x3e03bf2b	0.12865894
29	0xbb53c7df	-0.0032315177
30	0xbccb6d36	-0.02483235
31	0xbdd34afc	-0.103170365
32	0x3e50fd9f	0.20409249
33	0x3d0b3eb0	0.03399533
34	0xbdb40407	-0.08789831
35	0x3d2b2623	0.041784417
36	0xbc10fa5d	-0.008848754
37	0xbdf6dc9c	-0.12053797
38	0x3d5972f4	0.053088143
39	0xbe602d50	-0.21892285
40	0xbe7331aa	-0.23749414
41	0xbcb190ae	-0.021675434
42	0x3dac354a	0.084086016
43	0x3de417b1	0.11137331
44	0xbcd00db7	-0.025397165
45	0xbe039386	-0.12849244
46	0x3c02f71c	0.007993486
47	0x3c9c81a4	0.019104786
48	0x3d0972d7	0.033556785
49	0x3e237852	0.15963867
50	0x3e4ac42e	0.19801399
51	0x3dbd5baf	0.09246003
52	0x3dc0c1e6	0.09411983
53	0x3e750523	0.23927741
54	0x3e4ce018	0.2000736
55	0x3d277a7d	0.0408883
56	0xba066cfd	-0.0005127935
57	0xbdfbb39d	-0.12290118
58	0xbd96d4b0	-0.07364786
59	0x3dc9150c	0.098184675
60	0x3dfc5a0b	0.12321862
61	0xbe1843f0	-0.14869666
62	0x3ddd259e	0.107981905
63	0xbdc048e2	-0.09388901
64	0xbd6fee53	-0.058576893
65	0xbd9f306c	-0.077729076
66	0xbd3ca728	-0.04605785
67	0xbd5ab650	-0.053396523
68	0x3e27ca9e	0.16385886
69	0x3d525d5c	0.051358566
70	0x3c5796cc	0.013158511
71	0x3e528ab2	0.2056072
72	0x3bd965b3	0.006634438
73	0xbe157083	-0.14593701
74	0x3acc28c1	0.001557611
75	0xbe050544	-0.1299029
76	0x3e6572f5	0.22407134
77	0xbd188708	-0.03723815
78	0xbda5cd7c	-0.08095834
79	0xbd987473	-0.07444086
80	0xbe366a4c	-0.17813987
81	0x3e315b5e	0.1732001
82	0x3e8aee7e	0.2713508
83	0x3da8a532	0.082346335
84	0xbe0451b6	-0.12921795
85	0xbde324f9	-0.11091036
86	0x3d3c207d	0.04592942
87	0x3d28a559	0.041173313
88	0x3e2cb42a	0.16865602
89	0xbc209629	-0.009801426
90	0xbbafd26f	-0.005365662
91	0xbcc6cb74	-0.024266936
92	0xbdf7dd0a	-0.12102707
93	0x3e46799a	0.19382325
94	0x3dc883ed	0.09790788
95	0x3b66ac4a	0.0035197907
96	0xbd2a9a07	-0.0416508
97	0x3e1eb1fb	0.15497582
98	0xbc3a20ff	-0.011360406
99	0xbdfd1ae4	-0.123586446
100	0x3df98e71	0.12185372
101	0x3e7018ce	0.23446962
102	0xbe0c62cd	-0.13709565
103	0x3ccdcced	0.02512213
104	0x3de05782	0.10954191
105	0x3ea7b8bc	0.3275813
106	0xbe460def	-0.19341253
107	0xbe79b9ed	-0.24387331
108	0xbeb9a32d	-0.36257306
109	0x3dfb9114	0.12283531
110	0xbdc7eb8c	-0.09761724
111	0xbd83460f	-0.06409847
112	0x3d23b5b0	0.039968193
113	0xbd21dd09	-0.039517436
114	0x3e2cc6f2	0.16872767
115	0x3d1afc93	0.03783853
116	0xbd5b6119	-0.053559396
117	0x3d2e481e	0.042549245
118	0xbe0c4320	-0.13697481
119	0x3bb0cdda	0.005395633
120	0xbddcddff	-0.1078453
121	0x3db27692	0.08714022
122	0xbdb5eaef	-0.08882701
123	0x3dcddcb0	0.100518584
124	0x3e39b9a3	0.18137221
125	0xbcc187e6	-0.023624372
126	0x3b7b9471	0.0038388039
127	0x3e0be60f	0.13661979
128	0x3d9f8619	0.07789249
129	0x3e1b937a	0.15192977
130	0x3e27c1e2	0.16382554
131	0x3df567f2	0.119827166
132	0xbd2494fd	-0.04018115
133	0xbda360e4	-0.07977465
134	0x3d158f09	0.036513362
135	0x3db7d22e	0.089756355
136	0xbe1bf0a0	-0.1522851
137	0x3ca3aa96	0.019978803
138	0xbe36f45b	-0.17866652
139	0xbdb2107e	-0.08694552
140	0x3e7c4c8a	0.24638572
141	0x3ec441cd	0.38331452
142	0xbdacc6e8	-0.08436376
143	0x3e29aa86	0.16568956
144	0xbdbdef64	-0.09274176
145	0x3df1e3bb	0.11811014
146	0x3cdad8a6	0.026714634
147	0xbc9d485e	-0.019199546
148	0x3db169e0	0.08662772
149	0x3e8b5c20	0.27218723
150	0xbe673eb4	-0.22582513
151	0xbe256be4	-0.16154438
152	0x3e1bc4fc	0.15211862
153	0xbdbc35e4	-0.09189966
154	0x3bdf34ad	0.0068116994
155	0x3e938202	0.28810126
156	0x3e7d8c0f	0.2476046
157	0xbc84534e	-0.016153004
158	0x3cde2770	0.027118415
159	0xbae3e598	-0.001738715
160	0x3da4fb95	0.08055798
161	0xbe2a72c8	-0.16645348
162	0xbe2f3027	-0.17108212
163	0x3d5d1a71	0.053980295
164	0x3d8ea4af	0.06965005
165	0x3c8f301d	0.017478997
166	0x3dba3bcf	0.09093439
167	0x3e6879ba	0.22702685
168	0xbcc265b6	-0.02373014
169	0x3e17b9c4	0.14816958
170	0x3b3319f7	0.0027328709
171	0x3b7c6a43	0.0038515485
172	0xbde01736	-0.10941927
173	0x3e11ead5	0.14249738
174	0x3e1d62a6	0.15369663
175	0x3e530afb	0.20609657
176	0x3ddd71c2	0.10812713
177	0x3d9cfee2	0.076658025
178	0xbd9b8cdb	-0.075952254
179	0xbca37add	-0.019956047
180	0x3dc8c900	0.09803963
181	0x3e1bc23a	0.1521081
182	0x3e0136af	0.12618516
183	0xbcc27083	-0.02373529
184	0xbe553409	-0.20820631
185	0x3d872cb3	0.066003226
186	0x3e554f79	0.20831098
187	0xbe1e80d2	-0.15478829
188	0xbe729c3f	-0.23692416
189	0xbdda458c	-0.10657796
190	0xbdaad4e8	-0.0834139
191	0x3ce14d39	0.027502643
192	0x3e22dac4	0.15903765
193	0x3de2d923	0.11076572
194	0xbe27f2d0	-0.1640122
195	0x3d51b12d	0.05119436
196	0xbe804928	-0.25055814
197	0xbd599b26	-0.053126477
198	0xbeb32088	-0.34985757
199	0xbcf61f76	-0.030044299
200	0x3eb38ee4	0.35069954
201	0x3ccb3889	0.024807232
202	0xbdb93ba4	-0.09044579
203	0x3dbdaa97	0.09261053
204	0xbca9335c	-0.020654373
205	0xbdf67295	-0.120335735
206	0xbd8da4c6	-0.06916194
207	0x3cbe5709	0.023234861
208	0x3d6e04b4	0.058109954
209	0x3d08c70f	0.033392962
210	0xbb371a09	-0.0027939102
211	0xbe5918c6	-0.21200857
212	0xbdfc77b8	-0.12327522
213	0xbd8eee30	-0.069790244
214	0xbe22fe8d	-0.15917416
215	0x3df1dcfc	0.118097275
216	0xbe1115c7	-0.14168464
217	0xbdae489c	-0.08509943
218	0xbc7ef2ea	-0.015560845
219	0xbd5b89ef	-0.05359834
220	0xbe0e0de7	-0.13872491
221	0xbe353444	-0.17695719
222	0x3e47ecce	0.19523928
223	0x3e27b059	0.16375865
224	0x3e6fffd5	0.23437436
225	0xbde2d9e2	-0.11076714
226	0xbd46c9ca	-0.048532285
227	0x3d130fad	0.03590362
228	0xbdb5b7fe	-0.08872984
229	0xbc5ad2aa	-0.01335589
230	0xbda1b7c0	-0.07896376
231	0x3e4d0de9	0.20024838
232	0xbdd2cee9	-0.10293371
233	0x3d49d378	0.049273938
234	0xbd72687d	-0.05918168
235	0x3cdf05b1	0.027224394
236	0x3e24bd17	0.16087757
237	0xbc9310fd	-0.017952437
238	0xbdb0e150	-0.08636725
239	0x3d4a7bb5	0.049434382
240	0xbc863be7	-0.016385986
241	0x3d9409bb	0.072284184
242	0x3b649682	0.0034879749
243	0x3d8c177c	0.06840417
244	0xbca39ac4	-0.019971259
245	0xbcaa971d	-0.02082401
246	0x3d6aa0a9	0.057282124
247	0x3e78a322	0.2428098
248	0xbdba8aa8	-0.09108478
249	0xbdd327ed	-0.103103496
250	0x3e7f661f	0.249413
251	0x3ec11c93	0.37717113
252	0xbd451043	-0.04811121
253	0x3db779a0	0.08958745
254	0xbcbeedac	-0.02330669
255	0xbe4362e6	-0.19080696

module.net_ts.layer2.0.bn1.weight f4 [32]
0	0x3f0d4916	0.55189645
1	0x3f2013f6	0.6253046
2	0x3f293743	0.6609995
3	0x3f0ddcd8	0.55415106
4	0x3f0bdd9e	0.54635036
5	0x3f2e1184	0.67995477
6	0x3f22c40a	0.6358038
7	0x3f1f9117	0.62330765
8	0x3f158655	0.584081
9	0x3f39d47e	0.7258986
10	0x3f08f32b	0.53496045
11	0x3f1fc613	0.6241161
12	0x3f25679e	0.6461123
13	0x3f2d45bd	0.6768454
14	0x3f17e1b2	0.5932876
15	0x3f43c30e	0.76469505
16	0x3f18975f	0.59605974
17	0x3f08cf38	0.5344119
18	0x3f0da02f	0.55322546
19	0x3f23d465	0.63995963
20	0x3f2a5da6	0.66549146
21	0x3f336150	0.7007036
22	0x3f0be6e5	0.5464919
23	0x3f35e080	0.71045685
24	0x3f007c5a	0.50189745
25	0x3f0bbcbf	0.5458488
26	0x3f17fd57	0.5937094
27	0x3f10970f	0.564805
28	0x3f184086	0.59473455
29	0x3f17f60c	0.5935981
30	0x3f35d166	0.7102264
31	0x3f08ba43	0.5340921

module.net_ts.layer2.0.bn1.bias f4 [32]
0	0xbdf334e4	-0.118753225
1	0xbc52140d	-0.012822163
2	0x3e8e4b2d	0.2779173
3	0x3dcb669f	0.09931683
4	0xbe0b62ea	-0.13611951
5	0x3e58729d	0.21137471
6	0x3e02c6a2	0.12771085
7	0x3cade18a	0.02122571
8	0xbd663122	-0.0561992
9	0x3d30a685	0.043127555
10	0x3dc44c73	0.09584894
11	0xbe1eee72	-0.15520647
12	0x3ddf5d6f	0.10906493
13	0xbd4df83f	-0.050285574
14	0x3c95deb7	0.018294675
15	0xbd99b116	-0.075044796
16	0x3dc57025	0.096405305
17	0x3d46d861	0.0485462
18	0x3dfb0245	0.12256292
19	0x3d70f610	0.058828413
20	0x3d411609	0.047140155
21	0xbe301b98	-0.17198026
22	0xbd5e4bd3	-0.05427153
23	0xbd6ef4cd	-0.05833893
24	0x3e3ab0ec	0.18231553
25	0xbe14a2e1	-0.14515258
26	0xbdfb9811	-0.12284864
27	0xbe162cc9	-0.14665522
28	0xbe33fbe6	-0.1757656
29	0x3d015a06	0.031579994
30	0x3c3687a5	0.011140739
31	0xbab0e4e6	-0.0013495951

module.net_ts.layer2.0.bn1.running_mean f4 [32]
0	0x3f85544b	1.0416349
1	0x3fcd8360	1.6055717
2	0xbfd5b064	-1.6694455
3	0xbfada39f	-1.3565558
4	0x3f27ac5e	0.65497386
5	0xbf01654e	-0.50545204
6	0xbfb2a6f0	-1.3957195
7	0x3fa7c3af	1.3106593
8	0xbf95073b	-1.1642832
9	0xbef850b5	-0.48499075
10	0xbd5f2a8b	-0.05448393
11	0xbe3de6c6	-0.18545064
12	0xc01a2799	-2.4086668
13	0xbf80727c	-1.0034938
14	0x3f401625	0.7503379
15	0xbf889ad7	-1.0672253
16	0xbfc64c2c	-1.5491996
17	0xbebee1af	-0.37281558
18	0xbf747429	-0.95489746
19	0x3e35348b	0.17695825
20	0xbfd111c9	-1.6333553
21	0xbf5ad000	-0.8547363
22	0xbe9be25a	-0.3044613
23	0xbf06d436	-0.5266756
24	0x3f465ee0	0.7748852
25	0x3f1d419a	0.61428225
26	0x3f0c8c59	0.54901654
27	0x3eaed0a6	0.3414356
28	0x3ea51a77	0.32246754
29	0x3e82bbbd	0.25533858
30	0xbfdcfdd9	-1.7264968
31	0x3f2ccfac	0.6750438

module.net_ts.layer2.0.bn1.running_var f4 [32]
0	0x3f6b1ead	0.9184368
1	0x3fd281e9	1.6445895
2	0x3fe7d7d6	1.8112743
3	0x3f78c4ee	0.9717549
4	0x3f52a653	0.8228504
5	0x3ffedf08	1.9911814
6	0x3fa04515	1.2521082
7	0x3fa5b656	1.294627
8	0x3f6cf71f	0.92564577
9	0x3f7f986d	0.9984196
10	0x3f975dc1	1.1825486
11	0x3f87b8d7	1.0603284
12	0x3fa7abe3	1.3099331
13	0x3f8e030b	1.1094679
14	0x3fc2cb76	1.5218341
15	0x3fceb14e	1.6147859
16	0x3fc5f8d2	1.5466559
17	0x3f5a61e3	0.85305613
18	0x3f7db267	0.99100345
19	0x3f9b83dc	1.2149615
20	0x3f9260a2	1.143574
21	0x3fa478d9	1.284938
22	0x3f85c83a	1.0451729
23	0x3f98cacc	1.1936889
24	0x3f8b37b3	1.0876373
25	0x3f422e99	0.7585235
26	0x3f920015	1.1406275
27	0x3fafd365	1.3736387
28	0x3f71a73c	0.94395804
29	0x3fca6338	1.5811529
30	0x3f906c76	1.12831
31	0x3f85f214	1.0464501

module.net_ts.layer2.0.conv2.weight f4 [32, 32, 3]
0	0xbd16eaec	-0.036845133
1	0x3dbd2f52	0.09237541
2	0x3d13f4f6	0.036122285
3	0xbd903803	-0.070419334
4	0xbd86bd27	-0.06579047
5	0x3daa7a6a	0.0832413
6	0xbd34f475	-0.044178445
7	0x3d474fa7	0.048659947
8	0xbe400b65	-0.18754347
9	0x3e222c90	0.15837312
10	0xbdd15f01	-0.10223199
11	0x3e075913	0.13217573
12	0xbdd13096	-0.10214345
13	0xbc5b5888	-0.013387807
14	0x3e3a5e3b	0.18200009
15	0x3d52c314	0.051455572
16	0x3d1f98bd	0.038964022
17	0xbda3b9ed	-0.07994447
18	0xbe23907c	-0.15973085
19	0x3e0de790	0.13857865
20	0xbd5c8578	-0.053838223
21	0x3d825759	0.063643165
22	0xbd243ada	-0.040095188
23	0xbdc80c3f	-0.09767961
24	0x3e6463a8	0.22303641
25	0xbe1914da	-0.1494936
26	0x3d685119	0.056717966
27	0x3ee958cf	0.45575568
28	0xbcf2d49e	-0.0296424
29	0xbdeeae6f	-0.11654364
30	0x3d380686	0.044928096
31	0xbc343940	-0.010999978
32	0xbe312419	-0.17298926
33	0xbddb18e4	-0.10698107
34	0xbe2b1394	-0.16706687
35	0xbdb8e761	-0.09028507
36	0xbdf128b8	-0.117753446
37	0x3a76ba89	0.0009411951
38	0xbde7cc3e	-0.11318253
39	0x3e2be26a	0.16785589
40	0x3e72528a	0.23664299
41	0x3dad22b0	0.08453882
42	0x3c4bc36b	0.012436728
43	0x3d2195b6	0.039449416
44	0xbdea93ab	-0.11453947
45	0x3dbf5ecc	0.09344253
46	0x3e02f78b	0.12789743
47	0xbde1abc0	-0.11019087
48	0xbb5554ec	-0.0032551838
49	0xbd76eedf	-0.0602864
50	0x3e9de2db	0.3083714
51	0x3dcd0298	0.1001026
52	0xbdb816ea	-0.089887455
53	0xbd91fec2	-0.07128669
54	0xbe0a70d9	-0.1351961
55	0x3e69d1d4	0.2283395
56	0xbd8ba991	-0.068194516
57	0x3e4097b4	0.1880787
58	0xbd86648f	-0.06562149
59	0x3eade4b5	0.33963552
60	0x3d77bab2	0.06048078
61	0x3d234460	0.03986013
62	0x3d12700f	0.0357514
63	0x3cd4b00e	0.025962856
64	0x3c23c412	0.009995477
65	0x3dd504dd	0.10401318
66	0x3cd19dcc	0.025587939
67	0xbe031e39	-0.12804498
68	0xbe364a71	-0.17801835
69	0x3d400eeb	0.046889227
70	0xbcd40ff1	-0.025886508
71	0xbe0ecfd1	-0.13946463
72	0xbe25df26	-0.16198406
73	0xbde7bd81	-0.11315442
74	0xbe31199f	-0.1729493
75	0x3e599398	0.21247709
76	0xbd3af243	-0.045641195
77	0xbd364d7c	-0.04450749
78	0xbd8d081a	-0.06886311
79	0xbe1f92c7	-0.15583335
80	0x3de7bdf4	0.113155276
81	0x3d881492	0.066445485
82	0xbe343dba	-0.17601672
83	0x3c12be49	0.0089565
84	0x3d1217b6	0.035667144
85	0x3da3af11	0.07992376
86	0x3d7663f3	0.060153913
87	0xbe0bc0fa	-0.13647833
88	0x3e1a3a3b	0.15061276
89	0x3ce4fa2c	0.027951322
90	0x3e14c3f9	0.14527883
91	0x3c98a786	0.018634569
92	0xbdaf67ca	-0.08564718
93	0xbc32bec6	-0.010909742
94	0xbd5d2ecc	-0.053999707
95	0x3d96c9d2	0.07362713
96	0x3e6da9b7	0.23209272
97	0xbc8fce43	-0.017554408
98	0x3e0b95f2	0.13631418
99	0x3f088591	0.53328806
100	0xbd8f0b6d	-0.06984601
101	0xbc9c862e	-0.01910695
102	0x3da525b9	0.08063836
103	0xbe47e0dc	-0.19519371
104	0xbcd49e78	-0.02595447
105	0xbe50a15b	-0.20374052
106	0xbd6da1a2	-0.058015473
107	0x3e3ee455	0.1864179
108	0x3eb97296	0.36220235
109	0x3dbe9171	0.093050845
110	0x3d017307	0.03160384
111	0x3d06e666	0.03293457
112	0x3d84ce0d	0.064846136
113	0x3e87ea99	0.2654617
114	0xbe9cd339	-0.306299
115	0xbd70e8c0	-0.058815718
116	0x3e09012d	0.13379355
117	0xbd6a8c92	-0.057262965
118	0x3e0c25a1	0.1368623
119	0x3d7dd7fd	0.06197356
120	0x3c35b020	0.011089355
121	0x3e85d535	0.26139227
122	0x3dc7aff0	0.09750354
123	0x3d77ea61	0.060526256
124	0xbdd4142e	-0.103554115
125	0x3e87d44f	0.26529166
126	0xbdcb3ef0	-0.09924114
127	0xbdf72874	-0.12068263
128	0x3da51648	0.080608904
129	0xbd6d2835	-0.057899673
130	0x3e4e7433	0.20161514
131	0xbea201d5	-0.31642023
132	0xbe4c26d7	-0.19936691
133	0x3de31a5d	0.11089013
134	0x3cb5bc5c	0.022184543
135	0x3d4dc64c	0.05023794
136	0x3e873007	0.2640383
137	0xbe44327e	-0.19159886
138	0xbdd7e11e	-0.105409846
139	0x3eaa9ae3	0.33321294
140	0xbcebdd67	-0.028792096
141	0xbcc86f9d	-0.024467284
142	0x3dd33d31	0.10314406
143	0xbe285664	-0.16439205
144	0xbe5a8014	-0.2133792
145	0x3d41a5c6	0.047277234
146	0xbe643ee0	-0.2228961
147	0xbd746893	-0.059670042
148	0xbe1ad8bf	-0.15121745
149	0xbe298fdc	-0.16558784
150	0xbe4bbfeb	-0.1989743
151	0x3da310b9	0.07962174
152	0xbe18dd54	-0.1492818
153	0x3d88b367	0.06674843
154	0xbd885501	-0.06656838
155	0xbd2a58c0	-0.041588545
156	0xbdf1abaa	-0.118003204
157	0x3e4a240f	0.19740318
158	0x3e1f7d93	0.15575247
159	0xbdb8b56c	-0.090189785
160	0xbda70715	-0.08155648
161	0x3d1e5d50	0.03866321
162	0x3e701f86	0.23449525
163	0xbd8a42cd	-0.067510225
164	0xbd88386d	-0.06651387
165	0xbd93a9b8	-0.07210106
166	0x3e5c9949	0.21542849
167	0x3dac1d38	0.084040105
168	0x3e36f699	0.17867507
169	0x3ce8099b	0.028324893
170	0x3d978f2a	0.07400353
171	0xbdd43407	-0.10361486
172	0x3e10329c	0.14081806
173	0x3c81e538	0.01585637
174	0x3e8f3c14	0.27975523
175	0xbdaf5856	-0.085617706
176	0xbd69b4c4	-0.057057157
177	0x3ebad0e7	0.36487505
178	0xbe80298b	-0.25031695
179	0xbdb2b662	-0.08726193
180	0x3d842e3c	0.06454131
181	0xbe29fa20	-0.16599321
182	0x3d8328e5	0.064042844
183	0xbe740f0a	-0.23833862
184	0xbd8bdcf0	-0.0682925
185	0x3e495d1f	0.19664429
186	0xbdad3622	-0.08457591
187	0x3e0f70e7	0.14007913
188	0xbc2222f8	-0.0098960325
189	0x3e8771f5	0.2645413
190	0x3da6dda5	0.08147744
191	0x3d051203	0.03248788
192	0xbd49c188	-0.04925683
193	0xbd324449	-0.043522153
194	0x3d584be6	0.052806757
195	0x3d070621	0.03296483
196	0x3d3f7a10	0.046747267
197	0xbd87b028	-0.06625396
198	0x396efb11	0.00022790978
199	0xbd9105c6	-0.07081179
200	0x3d4db363	0.050219905
201	0xbdceb62a	-0.10093339
202	0xbc73d5cc	-0.014882516
203	0xbd7dc520	-0.06195557
204	0x3cd9bd4e	0.026579525
205	0x3dfb0d53	0.12258401
206	0x3e72e121	0.23718692
207	0x3e818b14	0.2530142
208	0x3e17df2b	0.14831226
209	0xbc38e42b	-0.011284868
210	0xbbd5bf01	-0.0065230136
211	0xbde50719	-0.111829944
212	0xbc2e5431	-0.01064019
213	0xbcf76ae2	-0.030202333
214	0x3da693a2	0.081336275
215	0x3d5f7944	0.054559007
216	0x3dbe9513	0.093057774
217	0xbdd44737	-0.10365146
218	0x3e08d4c9	0.13362421
219	0xbd931d7c	-0.07183358
220	0xbc499b60	-0.012305111
221	0xbd59c590	-0.053166926
222	0xbe1b4cd9	-0.15166034
223	0xbcdad068	-0.026710704
224	0xbe105a29	-0.14096893
225	0xbe8730fa	-0.26404554
226	0xbaf42a21	-0.0018628278
227	0xbd35ba99	-0.044367407
228	0xbcc786a0	-0.024356186
229	0x3ba9c2b6	0.005180682
230	0xbdaeb569	-0.08530695
231	0xbc77d454	-0.015126307
232	0xb9d8bc9c	-0.00041339255
233	0xbd85e570	-0.06537902
234	0xbe3749c9	-0.1789924
235	0xbd051196	-0.032487474
236	0x3d4eaf7c	0.050460324
237	0xbdbe0db7	-0.0927996
238	0x3d56c6f3	0.052435827
239	0x3c083ba1	0.008314998
240	0xbc8d4a3a	-0.017247308
241	0x3e6a21c1	0.22864439
242	0xbd989faf	-0.07452332
243	0xbd5f8c97	-0.054577436
244	0x3cf05141	0.02933562
245	0x3e0776cd	0.13228913
246	0x3d49f4e6	0.04930582
247	0xbdccda3d	-0.10002563
248	0xbe00a638	-0.12563407
249	0x3e467855	0.1938184
250	0xbdadf863	-0.08494642
251	0xbded6cc6	-0.115930125
252	0x3cd09670	0.02546236
253	0xbd8a8d43	-0.06765225
254	0x3e660b95	0.22465356
255	0x3dc5483c	0.09632918

module.net_ts.layer2.0.bn2.weight f4 [32]
0	0x3f27eb7b	0.6559369
1	0x3f12f216	0.57400644
2	0x3f0221c4	0.5083277
3	0x3f32ab7c	0.69792914
4	0x3f32e4b4	0.69880223
5	0x3f201743	0.62535495
6	0x3f48ad5a	0.78389513
7	0x3f397901	0.7245026
8	0x3f3c9337	0.7366213
9	0x3f335b8a	0.7006155
10	0x3f48939e	0.78350246
11	0x3f130001	0.5742188
12	0x3f16b12d	0.588641
13	0x3f3889fa	0.72085536
14	0x3f3d6cb7	0.7399401
15	0x3f1fd445	0.6243327
16	0x3f2f2ef6	0.6843103
17	0x3f2d82e2	0.67777836
18	0x3f2517a9	0.6448923
19	0x3f0ce1d3	0.5503208
20	0x3f2115e6	0.6292404
21	0x3f24189f	0.6410007
22	0x3f3d47cd	0.73937684
23	0x3f253212	0.64529526
24	0x3f35145d	0.70734197
25	0x3f385518	0.7200484
26	0x3f20a320	0.6274891
27	0x3f201c70	0.6254339
28	0x3f2f94a8	0.68586206
29	0x3f27d381	0.65557104
30	0x3f248231	0.64261156
31	0x3f37a9cf	0.7174348

module.net_ts.layer2.0.bn2.bias f4 [32]
0	0xbdbf7d03	-0.09350016
1	0xbe1de125	-0.15417917
2	0xbe915f8a	-0.28393203
3	0x3e139315	0.14411576
4	0x3cb727d8	0.022357866
5	0x3db8abc3	0.09017136
6	0xbd8bd6f5	-0.06828109
7	0x3d4a6ec0	0.049422026
8	0xbe02f160	-0.1278739
9	0x3f092872	0.5357734
10	0x3ec84f13	0.3912283
11	0xbec6ae37	-0.3880479
12	0xbe0a816d	-0.13525935
13	0x3e7e30bf	0.24823283
14	0x3dba38a2	0.09092833
15	0x3e37d28f	0.17951415
16	0xbe20fa51	-0.15720488
17	0xbd88e144	-0.06683591
18	0xbe3f987d	-0.18710513
19	0xbe793bf3	-0.24339275
20	0xbe4e2dc6	-0.20134649
21	0xbe97d590	-0.29655123
22	0x3e708796	0.23489222
23	0x3e00b771	0.12569977
24	0xbdd7359c	-0.10508272
25	0x3de07063	0.10958936
26	0x3e6e1e81	0.23253824
27	0xbd2b1f38	-0.04177782
28	0xbe936082	-0.28784567
29	0xbe15eef0	-0.14641929
30	0xbe23a57f	-0.159811
31	0x3de0820a	0.10962303

module.net_ts.layer2.0.bn2.running_mean f4 [32]
0	0x3de2ad4e	0.110682115
1	0x3ebb284b	0.3655418
2	0x3d122131	0.035676185
3	0xbee18af3	-0.44051322
4	0x3d80a37e	0.06281184
5	0x3e58fb12	0.21189526
6	0x3d61216f	0.054963525
7	0xbe238971	-0.15970398
8	0xbf3d7729	-0.7400995
9	0xbef5556c	-0.47916734
10	0xbefc095e	-0.49225897
11	0xbe522e56	-0.20525488
12	0xbde76f51	-0.11300529
13	0xbe6f4d97	-0.23369442
14	0xbedcfff8	-0.4316404
15	0x3d585c58	0.05282244
16	0xbf3c4d1f	-0.7355518
17	0xbf58c143	-0.84669894
18	0xb7a97206	-2.0199466e-05
19	0x3d566dd2	0.052350827
20	0x3f1cee16	0.6130079
21	0xbe46c6ff	-0.19411848
22	0xbee6c1f3	-0.45069847
23	0x3df44c1c	0.11928579
24	0x3b5b4248	0.0033456255
25	0x3edd3957	0.4320781
26	0x3d01d419	0.031696413
27	0xbee3177c	-0.44353855
28	0x3ea62536	0.32450265
29	0x3d0b2654	0.0339721
30	0x3d96babc	0.073598355
31	0x3d833ca5	0.064080514

module.net_ts.layer2.0.bn2.running_var f4 [32]
0	0x3e8e2a7d	0.2776679
1	0x3f3c765b	0.73618096
2	0x3e09d516	0.13460192
3	0x3eee7a4c	0.4657768
4	0x3ec0064e	0.3750481
5	0x3f130240	0.5742531
6	0x3f2c9e16	0.6742872
7	0x3ec47cb2	0.38376385
8	0x3f3732f6	0.71562135
9	0x3f1dd346	0.616505
10	0x3f0ba49e	0.5454806
11	0x3e98dd4b	0.29856333
12	0x3e87c29c	0.26515663
13	0x3f00149f	0.50031465
14	0x3f20d4b5	0.62824565
15	0x3ef4bb4a	0.4779914
16	0x3edf0c5c	0.43564117
17	0x3e991d00	0.29904938
18	0x3f573f95	0.84081393
19	0x3e7fcff1	0.24981667
20	0x3f040eda	0.5158516
21	0x3f0a6b29	0.54069763
22	0x3efc0b87	0.49227545
23	0x3ea6b35d	0.32558718
24	0x3ef99b3f	0.48751256
25	0x3f182250	0.59427357
26	0x3eb15b4c	0.34639966
27	0x3ee6d0ba	0.4508112
28	0x3f0193b4	0.50616
29	0x3e95b88b	0.29242358
30	0x3ec706af	0.38872287
31	0x3ea00076	0.31250352
