model/model_20200914182941/model_final_mb6_2_0300_ts.pth (torch_old, 131256 bytes, 59 tensors)

module.net_ts.conv1.weight f4 [32, 1, 7]
00000000: c3f7 11bf e8b2 2b3e 68e3 2ebd 9440 a7bd
00000010: 3bb9 47be b072 cbbd 25fa d33d 874f bd3e
00000020: 0775 363e 668b 533e c6d9 bfbe fa0a bc3e
00000030: 5dd9 aebc cd81 cbbd a990 9ebe dbaa b0be
00000040: 0d3f 7bbd 9f35 9cbd 44e1 b73e ce0d c03e
00000050: 7465 15be 6189 a5bd df6d 0f3e 98ae aa3e
00000060: debb 66bd 3188 ca3e d193 63be a845 953e
00000070: 53a5 c23d c033 f33e 6658 0cbd 9c2e 8e3e
00000080: 07cf b43e 09a7 4bbe 6328 d0bd 8978 02bf
00000090: cd34 3a3f 2cf3 06be 4373 05be e01e c43d
000000a0: e69f dabe 8754 183f b32c 293e f4f4 a5bd
000000b0: cda5 2abe b397 77be d631 583c 18ff a43e
000000c0: 6e31 00bf 2c0a 0abe 835f 78be 6f1e 1a3f
000000d0: 0647 8fbd dcf3 ef3e de86 7f3e 7cf1 37be
000000e0: e988 883e 478f 983d 7132 bebe 36c4 23be
000000f0: 6773 0d3f 426d 2d3e f5e4 a2be 576d 01be
00000100: 850d b9be 6b74 423e 8ff9 b0be f525 44be
00000110: a0ca ef3e b8bf fcbc eb79 a7be 3574 e8be
00000120: 91fe e4bd 1f48 a43d 018c 453d 22aa bcbe
00000130: cd71 ac3e 7570 4bbb b2f3 d3bd a5f6 43be
00000140: da23 f8be 3940 e33e 408c 0fbd 5deb ab3d
00000150: d0b3 a13e 737f dabe d2cd cabd f30d 93be
00000160: fb49 c03c 8a37 3dbe 13fe f53d 9bad 253e
00000170: aee4 3c3d 2d42 a6bd 2c8e 2d3e f6f9 f73d
00000180: 7781 10bf 03da cdbe e8e8 e3bd 7b84 c23e
00000190: 2750 b8be 6d5e 74be 276b eabc af14 d8bb
000001a0: 3384 ecbe 2f03 ee3e f374 583d 6455 dcbd
000001b0: d35d 5b3d 340c 253d 7164 813e fa97 603e
000001c0: bda0 43bd 5316 043f d153 3f3d 5e55 d83e
000001d0: bc3e 053d d12b edbe aa26 bfbe 9317 773c
000001e0: e943 b1be af7c b0be a3da 1d3f 82f0 e13d
000001f0: d3bc d33e 6303 b1be 6cda c6be bfdd 823d
00000200: 1cbe b63c 1bf6 a83d 03f7 e1bd 632e e7be
00000210: dcb2 39be 08d4 b23d bed7 9cbe 14b5 45be
00000220: b0c0 2e3f 3596 f4bd ebd3 c0be 79c2 98be
00000230: 281e a9be 6024 a53d efef 963d 04ba 9a3e
00000240: 329a 763d 52ff 2b3d daaa ca3e f2bd f7be
00000250: e327 f5be 1163 7e3e 25bc a83e 26b0 343e
00000260: b847 9d3d dde7 fd3d 071d 30bf 114f 003e
00000270: 1a69 30be bd31 23bd 9623 4b3e 5efa 133e
00000280: 391f b63e c735 413e c050 aebe cc3a 073d
00000290: 1d79 c93e 0dba b4be c436 a2be a408 cebd
000002a0: e485 23be df5c 223f 4007 0dbe 1aea 31be
000002b0: a74b 113e 2ad9 aa3e 7262 38be b700 36be
000002c0: 6bf4 16bd 5951 003f f0ba 313e 256f 623e
000002d0: 05c6 c8be 770f 9b3e 4e14 ad3e 5f96 14bf
000002e0: b224 7ebe de6b 633e 646a 3a3e 3cd9 803e
000002f0: 57c5 79bd a1c0 923e 6b47 67bd e452 d4be
00000300: def8 3cbe f75c 5d3e 5457 87be 252f 5a3d
00000310: 7a93 b1be cd9c 023f 21d3 9bbd 3c97 04bf
00000320: 8707 0b3e ce76 003f 2545 c7be 41a8 08bf
00000330: 2313 fd3d b994 dabc 7d7f b7be c7de fabc
00000340: 9e45 d13d 25ed 2e3e a3fc 0fbd 35aa 7c3e
00000350: 5755 0f3f f055 d4bd bc2b 62be e34f 8dbe
00000360: ad7a 39bd 551a 0d3f 29d5 4f3d d872 1b3e
00000370: da78 8f3d c5f0 b3be ec37 523d 989c 45be
-0.5701868 0.16767466 -0.04269734 -0.08166614 -0.19504254 -0.09933984 0.10350446 0.36974737
0.1781808 0.20658645 -0.37470835 0.36727124 -0.021343881 -0.09936867 -0.30969742 -0.34505352
-0.061339427 -0.07627415 0.35914052 0.37510532 -0.14589483 -0.080828436 0.14006756 0.3333633
-0.056331508 0.3955703 -0.22224356 0.29154706 0.09504189 0.4750042 -0.03426399 0.27769935
0.353142 -0.19887938 -0.10163953 -0.5096517 0.7273682 -0.131787 -0.1303225 0.095762014
-0.42700118 0.5950398 0.16520958 -0.08103362 -0.1666481 -0.24178962 0.013195476 0.3222587
-0.50075424 -0.13480443 -0.24255185 0.6020269 -0.069959685 0.46865737 0.24953791 -0.17963213
0.26666954 0.07449203 -0.3714786 -0.15992817 0.55254215 0.1693621 -0.31815305 -0.12639366
-0.36143127 0.18989722 -0.34565398 -0.19155104 0.46834278 -0.030853137 -0.32710204 -0.4540116
-0.11181367 0.080215685 0.04822922 -0.3684855 0.33680573 -0.0031042371 -0.103492156 -0.19137056
-0.48464853 0.44384935 -0.035045862 0.08394501 0.315825 -0.4267536 -0.09902538 -0.2872158
0.023472777 -0.18478218 0.120113514 0.16179506 0.046116523 -0.08118091 0.16948766 0.12108223
-0.5644755 -0.40205392 -0.11128408 0.379917 -0.3599865 -0.23864146 -0.028615547 -0.0065942626
-0.4619461 0.46486804 0.052845906 -0.107584745 0.053556275 0.04029484 0.25271943 0.21932974
-0.047760714 0.51596564 0.046710793 0.4225263 0.03253053 -0.46322492 -0.37334186 0.015081304
-0.34622124 -0.34470126 0.6166174 0.11032201 0.41355 -0.34572896 -0.38838518 0.06389951
0.022307448 0.08250066 -0.11033442 -0.45152578 -0.18134636 0.08731848 -0.30633348 -0.19307357
0.6826277 -0.11942712 -0.3766168 -0.2983587 -0.3303082 0.080635786 0.073699825 0.30220044
0.060205646 0.04199154 0.39583474 -0.48387104 -0.47881994 0.24842478 0.32956043 0.1764532
0.07679695 0.1239774 -0.6879429 0.12530161 -0.17227593 -0.039842356 0.19837794 0.14450976
0.35570696 0.1886817 -0.34045982 0.033015057 0.39350215 -0.35298195 -0.31682408 -0.10060242
-0.15969044 0.6342296 -0.13772297 -0.17374459 0.14189015 0.33368808 -0.18006304 -0.1777371
-0.03685419 0.50124127 0.17356467 0.22112711 -0.39213577 0.30285236 0.33804554 -0.5804195
-0.24818686 0.22209117 0.18204647 0.25165737 -0.060979214 0.2866259 -0.056464594 -0.4146949
-0.1845431 0.21617495 -0.26433814 0.053267617 -0.34682828 0.5102051 -0.07608629 -0.51793265
0.1357709 0.5018128 -0.3891994 -0.53381735 0.12357166 -0.026682245 -0.35839453 -0.030623807
0.102183565 0.17082651 -0.035153043 0.24674304 0.55989593 -0.10367954 -0.22086996 -0.2760001
-0.04528301 0.55118304 0.050740395 0.15180528 0.070054725 -0.3514463 0.051322863 -0.19298017

module.net_ts.bn1.weight f4 [32]
00000000: 1d43 613f 3ec2 643f 2bb1 5c3f 1087 633f
00000010: 5ed3 5a3f 48d8 8d3f 055e 593f d7da 763f
00000020: a6af 403f fdf0 6f3f c8d4 7b3f 6a9b 5e3f
00000030: 5653 593f a3e0 393f 31e7 623f 5855 4e3f
00000040: 9c9f 873f 962d 6d3f 3744 3a3f 8ee7 633f
00000050: e011 663f d10d 693f 23c5 523f 7d7c 413f
00000060: 34d4 5d3f 2e92 613f 0c4f 613f 9f59 493f
00000070: beff 6a3f 7c1e 453f 62fb 453f 9a8a 6c3f
0.8799303 0.8935889 0.86207837 0.88877964 0.8547877 1.1081629 0.8490909 0.96427673
0.7526802 0.93727094 0.98371553 0.86955893 0.84892786 0.72608393 0.8863402 0.80598974
1.0595584 0.92647684 0.7276034 0.890252 0.89871025 0.9103671 0.82332057 0.7558058
0.8665192 0.8811368 0.8801124 0.78652376 0.9179648 0.7699964 0.77336705 0.9239899

module.net_ts.bn1.bias f4 [32]
00000000: 349b 51be 9f0a 87bc d8a9 39be 8b5f 383c
00000010: 1348 8e3d e11e c83d b3c3 00be c2aa a13d
00000020: 078c d33c 35e7 fb3c 814d 0fbd 79b4 b5bd
00000030: 5c55 7c3c e5d2 ed3d 8602 603d e397 4f3c
00000040: 9fa4 913d 2d4f 4e3d 758e 0c3c f816 b53d
00000050: c585 ad3d 2211 c5bd e0ae b53d cd06 0d3e
00000060: 5aab 053e 58cf 1fbd 7f0d b7bd 6049 2fbe
00000070: 9fdc 3b3d f7c5 923d abf2 0a3e 7566 c3bd
-0.20469362 -0.016484557 -0.18131196 0.011253248 0.06947341 0.09771515 -0.12574653 0.078938976
0.025823606 0.030749897 -0.034986023 -0.08872313 0.015401211 0.116124906 0.054689907 0.01267049
0.07111477 0.050368477 0.008578886 0.088422716 0.0847278 -0.096224084 0.088712454 0.13772126
0.13053647 -0.039016098 -0.08938121 -0.17117834 0.045864698 0.07166665 0.13569133 -0.095410265

module.net_ts.bn1.running_mean f4 [32]
00000000: 3889 5db9 e26c c039 8d30 a2b8 b0b8 d039
00000010: b025 59b8 0ffc 6b36 d3fa 4eb9 fd0d 8939
00000020: f7ea bb35 a62f 41b8 edcb a039 7eb1 b339
00000030: a2ea f239 6be4 3b39 345a b6b9 7260 0d37
00000040: f8df 3eb9 ec7d fdb9 fc61 58b7 8cd3 c0b8
00000050: 19c7 dcb8 c283 5238 5215 5fb9 134f 9738
00000060: f63b eab9 f87b e739 ce62 8c38 a55f 8b39
00000070: 4973 f4b9 c02b e9b8 195a 4139 c7bf dbb7
-0.0002112732 0.00036702218 -7.733805e-05 0.00039810454 -5.177193e-05 3.5164446e-06 -0.0001973913 0.00026141098
1.400097e-06 -4.6059162e-05 0.00030669515 0.00034273783 0.00046332652 0.00017918802 -0.00034780952 8.42671e-06
-0.00018203247 -0.0004834974 -1.2897417e-05 -9.194677e-05 -0.00010527502 5.019061e-05 -0.0002127488 7.21497e-05
-0.00044676632 0.00044152117 6.694124e-05 0.00026583407 -0.000466252 -0.00011118455 0.00018439478 -2.6196138e-05

module.net_ts.bn1.running_var f4 [32]
00000000: 1a5e 983c 7885 a33c c6dd 963c 6cbb a93c
00000010: 279d d53c 2e9f 223d 99be 883c 4d85 f83c
00000020: c2a6 9f3c fe4e a53c 63b3 dd3c 6d91 813c
00000030: 0c64 893c 7d9c bc3c 38f5 d33c 50c7 a73c
00000040: 50d1 ea3c c323 db3c f29a b53c b36d e33c
00000050: 3524 923c ff78 c33c b05e d73c 092e a13c
00000060: cf59 b13c fc68 b43c 6463 9f3c df55 6a3c
00000070: 0e08 063d b646 9f3c c5f8 883c ec00 9d3c
0.018599559 0.019961104 0.018416297 0.020719253 0.026075913 0.039702587 0.016692447 0.030337
0.019488696 0.020179268 0.027063077 0.015816415 0.016771339 0.023023838 0.025873765 0.020480782
0.028664261 0.026750451 0.02216861 0.02776227 0.01783953 0.023861406 0.026290268 0.019675272
0.02164927 0.022022717 0.019456573 0.0143027 0.032722525 0.019442897 0.016720185 0.019165479

module.net_ts.layer1.0.conv1.weight f4 [32, 32, 3]
00000000: 6470 0b3e bc49 863d 5de1 02be 6e39 923e
00000010: 7bff d33d c339 1bbe 3c54 a43c 5849 eebc
00000020: 984f babd 5337 bc3e 4a59 e1bd 743a d4bd
00000030: b0b8 893e 49f7 323c 5506 26bd 3383 0d3e
00000040: 0833 d8bd 6f79 83be 1024 04be 7eb6 a1be
00000050: c7ef 98bd 181f 2fbd 0d2a c4bc 8eb4 1abe
00000060: cfb5 79be 576f 4e3d f4bb 26be aa47 233d
00000070: ee89 973e e086 12be 0184 813e 3442 ea3d
00000080: 7ac0 36be d3f4 663d 5029 2b3e 9e67 2fbe
00000090: 595a 8f3c bfcc af3d 2a85 f53c 5667 153e
000000a0: 0f36 a0bd 80e6 4c3e c54a 97bd 1571 c6bd
000000b0: acfc 163e a936 06ba e48f 503b 366f f43d
000000c0: 8dab 4e3e 8f04 82bc 8b2d 42be d35f ee3d
000000d0: 1387 c93b 1082 29bd 6206 a13d 8621 d3bb
000000e0: 70ce f13c 3dad b3bd 6f5e 7abd 265e a13e
000000f0: f5b2 603e d267 85bd ec3b 69be 36fe 183e
00000100: 45b5 05be c2c6 c5bd 93c0 87be 03de 94be
00000110: b01f 97bd 932a eabd bca3 8e3e e8e1 6c3e
00000120: 9066 913e 5f03 3ebe c2d0 8bbd 52d7 ed3d
00000130: b60d 61be 6d83 56b8 2ad3 97bc 4412 963e
00000140: 8fa0 163e 1d04 edbd 3c6c 283d 9201 cb3d
00000150: 00c2 0e3e b1b3 133c 2ae1 1abd 2974 443c
00000160: b685 c1bd 4f3c c0bd 4451 b63d 752b 26be
00000170: 4e76 7bbe 45a8 2e3e 5c76 ffbd 4650 f23d
00000180: ee12 e2bc a3f0 65bd 5e47 113c 1a1d c53d
00000190: c4f8 7abe 7835 4d3e ac8b 8a3b f047 36be
000001a0: 2ec6 d83d 91c3 c63c 6b8d b8bd a20e f33b
000001b0: e199 d33e 7ea6 a43e 21fa 1bbe 1523 82be
000001c0: 7826 f6bd b00d 71bd 1732 8d3d c6d6 d33d
000001d0: 6b37 72be 8f2f 8e3d fea6 3abe 785e 0e3d
000001e0: 734e a7bb 22b1 26bd 02a0 60be 5a6e 503e
000001f0: 6f2d cabc 2a5d 75bd 2c3d 183c 6cc6 d8bd
00000200: 767c c8bd 2069 92be 1961 e2bd bf30 02be
00000210: 7775 42bd 5233 313d 8374 18be 6d1c 6c3d
00000220: cba8 68bd 9f9c 0cbe 9e06 3bbe 401e 443e
00000230: 9e13 76be 77c2 6f3e 1485 d13d eeb7 88bd
00000240: 53e7 18bd 345d 423e 41be c03e 8f18 30bd
00000250: 7b1a fe3c 62c2 11bd 2f97 b8bb bdc0 493e
00000260: 0b4f a73d 1c1e 1abe c79f f43d 7546 2b3e
00000270: 4676 8f3d fa71 f63d 8294 403e c45a d4bd
00000280: a58a 8fbd 190c 913e 0804 60be 443f fbbd
00000290: b58a 96bd 256b 51be d1e8 37bd f778 773e
000002a0: 5f6d 093e 8452 153e 08fd 343c a33e 183c
000002b0: d27e 16be 8caf 7e3c 8800 09be 4dc1 f4bd
000002c0: 9dce 813e 9f78 07be be02 2abc 7ef3 51be
000002d0: fc83 ba3d 31d3 c9bd 13a7 b53e 0f06 9f3c
000002e0: bfbe d0bd 3027 253e 662c 01be 9645 553d
000002f0: 4543 363d da82 9cbd 5d0b ae3d 7fbd 67bd
00000300: 4e0e 353d ae36 553e b6de 303d 5b2e 88be
00000310: 99a8 3b3e cd46 76bc d9e8 093e df4a 8abd
00000320: 258c 823b 524c 82be 1919 f3bd e442 4cbe
00000330: 7299 48bd 5cea c5bd 1f00 05be 2ef7 e1bd
00000340: f026 9f3d 8033 1bbc 7a4a 9cbc 2bdc 503d
00000350: 69ef 13bb f1d6 29bd e4d4 003e 6acb 56bd
00000360: 762f 9f3d 1382 4e3e d848 893c 1ae2 05be
00000370: 1bd3 633d 4d1f aa3c fcbb a5be 5b14 f53c
00000380: 0130 363e a9c7 ce3d e079 4a3d 3ea8 80bd
00000390: 361a 08be df5f e1bc 82c9 f63d c094 40bd
000003a0: 2e13 12be 3359 a33d a037 00be 040a 8c3e
000003b0: 93cf f0bd 01c1 18be 7bd3 24bd 122d ad39
000003c0: 94e5 e93d a058 b43d 9348 a03e 692c 053f
000003d0: 9abb 413e 0b31 2c3e dff2 373e 730a afbd
000003e0: a66a 863e de08 91bd 4e08 173e bbac a63d
000003f0: 211b 883d 1b24 b6bc e23f 273e a4eb 52bd
0.13617092 0.065570325 -0.12781282 0.2855944 0.103514634 -0.15158753 0.020059697 -0.029087707
-0.090972126 0.3676096 -0.11003359 -0.103627115 0.26898718 0.010923215 -0.040533382 0.1381958
-0.105566084 -0.25678584 -0.12904382 -0.31584543 -0.07467609 -0.042754263 -0.023945833 -0.15107939
-0.2438576 0.05039915 -0.16282636 0.039863266 0.2959742 -0.14309263 0.25296023 0.114384085
-0.17846861 0.056385826 0.16714978 -0.1712937 0.017499136 0.08583974 0.029970724 0.14590201
-0.07822811 0.20009804 -0.07387308 -0.096895374 0.14744824 -0.00051198393 0.0031824047 0.11935274
0.20182629 -0.015871314 -0.18962686 0.11639371 0.0061501353 -0.041383803 0.078625455 -0.0064432053
0.029517382 -0.08773277 -0.061125215 0.31517142 0.21943267 -0.06513943 -0.22776765 0.14940724
-0.1305743 -0.09657051 -0.2651411 -0.29075631 -0.07379091 -0.11433902 0.27859294 0.23133051
0.2839856 -0.18555973 -0.06826927 0.11613335 -0.21977887 -5.1143976e-05 -0.018533308 0.2931081
0.14709686 -0.1157305 0.041118845 0.09912409 0.13941193 0.00901501 -0.03781239 0.011990585
-0.094493315 -0.09386503 0.08902219 -0.16227515 -0.24556848 0.17056377 -0.12473747 0.11831717
-0.027596917 -0.056137692 0.008867113 0.09624691 -0.24508959 0.20039928 0.004228076 -0.1780088
0.10584675 0.024263175 -0.09011348 0.007417516 0.41328338 0.32158273 -0.15232135 -0.2541739
-0.12019056 -0.058850944 0.068943195 0.10343699 -0.23653953 0.06942665 -0.18227765 0.03475806
-0.0051057874 -0.04069627 -0.21936038 0.20354596 -0.024679868 -0.0599033 0.009291928 -0.10584721
-0.09789364 -0.2859583 -0.11053676 -0.12713908 -0.047475304 0.043261833 -0.14888196 0.057644296
-0.0568016 -0.13731621 -0.18264243 0.19152164 -0.24030921 0.23414026 0.10230461 -0.06675707
-0.037329983 0.18980867 0.37645152 -0.04299217 0.031018486 -0.03558577 -0.005633257 0.1970243
0.08169373 -0.15050548 0.119445376 0.16726096 0.07004981 0.12033458 0.18806651 -0.10368875
-0.07008866 0.28329542 -0.21876538 -0.12267926 -0.07350675 -0.20451029 -0.044899765 0.24167238
0.13420628 0.14582258 0.0110466555 0.0092922775 -0.14696816 0.015544783 -0.13379109 -0.11950932
0.25352946 -0.13229607 -0.01037663 -0.20503041 0.09107205 -0.09854735 0.3547903 0.019412069
-0.10192632 0.1612823 -0.12614593 0.052068315 0.044497747 -0.076421455 0.08498261 -0.056577202
0.044203095 0.2082164 0.043181144 -0.26597866 0.18326034 -0.015031529 0.1346773 -0.06752562
0.0039839917 -0.25448853 -0.118700214 -0.19947392 -0.04897446 -0.09663841 -0.12988327 -0.11033474
0.077710986 -0.009472728 -0.019078482 0.05099122 -0.002257312 -0.04146475 0.12581211 -0.052440085
0.07772724 0.20166807 0.016758367 -0.13074532 0.055621248 0.020766879 -0.32369983 0.029916933
0.1779175 0.10096676 0.049432635 -0.0628209 -0.13291249 -0.027511535 0.12050153 -0.04701686
-0.14265129 0.07975998 -0.12521219 0.2735139 -0.11758342 -0.14917375 -0.040240746 0.0003303071
0.11420742 0.088059664 0.3130537 0.5202089 0.1891922 0.16815583 0.17963742 -0.08546915
0.2625324 -0.070817694 0.14749262 0.081384145 0.066457994 -0.022234013 0.16332963 -0.051494256

module.net_ts.layer1.0.bn1.weight f4 [32]
00000000: f9ef 6e3f 845b 633f aa0a 473f 83cd 5d3f
00000010: 5845 523f 67e5 583f 8d0d 493f 7c6d 583f
00000020: a970 813f c1d7 3a3f 3ef0 4e3f 84d2 5b3f
00000030: fbb2 613f b0e4 2e3f 782e 6a3f 55c4 6e3f
00000040: 3505 483f 2933 593f 8dc8 803f 7269 653f
00000050: 77f4 593f 3567 733f 8b81 543f ab0e 483f
00000060: c249 593f 0081 623f 4e31 853f bcd0 553f
00000070: 0392 6a3f 665b 833f 466c 653f b5da 603f
0.9333492 0.88811517 0.7775065 0.8664171 0.8213706 0.8472504 0.785363 0.8454206
1.0112506 0.72985464 0.8083533 0.85868096 0.8816373 0.683177 0.91477156 0.9326833
0.78132945 0.8484369 1.0061203 0.8961402 0.8513865 0.95079356 0.83010167 0.7814738
0.8487817 0.8847809 1.0405672 0.8352163 0.91629046 1.0262268 0.8961834 0.8783372

module.net_ts.layer1.0.bn1.bias f4 [32]
00000000: e1dc 83bc a237 21be 3c59 e63d d71b 30bc
00000010: c233 edbd 9ff8 513a 7a02 05be bff0 b6bc
00000020: a640 ac3c f570 6abe 26b3 083d 25bb 9cbd
00000030: 8368 cb3d cbfe 43bc 5d4f 5e3d eb8c 4cbd
00000040: 69ba 17be ac37 893b 6e38 213b 4b01 14be
00000050: 511e ec3a 0c56 733d 94d0 42bd 3cfd 2d3d
00000060: 1f11 663c 7d51 103d 34f8 7abd daae d5bd
00000070: 61ac 04be 3f4a 0d3d 456c 62bd 96a9 dcbc
-0.016096534 -0.15743878 0.11247489 -0.010748825 -0.11582138 0.0008009765 -0.12989226 -0.022331594
0.02102692 -0.22894652 0.033373974 -0.076528825 0.099320434 -0.011962603 0.054274905 -0.049939077
-0.14817204 0.004187545 0.0024600285 -0.14453618 0.0018014406 0.059408233 -0.047562197 0.04247783
0.014042168 0.035233963 -0.06127186 -0.10433741 -0.12956382 0.034494635 -0.055279035 -0.026936334

module.net_ts.layer1.0.bn1.running_mean f4 [32]
00000000: 179e 033e 4733 763d 89b9 883f 8e2b 28bf
00000010: 085b a5bf 3809 8dbf f308 843d 043d 49be
00000020: 036c aebf 5b3b a33f 7016 b63e a0f6 92be
00000030: 2696 24bf 1d46 d1bd 54cb a2be 4992 82be
00000040: 3cf2 a03f 6db9 a33e fee4 7abd 5df0 983d
00000050: 4c94 0dbf 510a 0fbe bc01 2fbf 9984 00bf
00000060: 7eef 923f 646b 15bf 9a72 a33e a137 f7be
00000070: 5f24 61bb d566 7abf f974 53bf 009c b1bf
0.12853275 0.060107496 1.0681621 -0.6569146 -1.2918406 -1.1018438 0.064470194 -0.19652182
-1.3626713 1.2752489 0.35563993 -0.28703785 -0.6429161 -0.10218451 -0.31795752 -0.25502232
1.2573924 0.31977406 -0.06125354 0.07467721 -0.5530441 -0.13968779 -0.6836202 -0.5020233
1.1479337 -0.5836699 0.31923372 -0.4828463 -0.0034353954 -0.9781316 -0.8260036 -1.3875732

module.net_ts.layer1.0.bn1.running_var f4 [32]
00000000: 2fe1 df3f d71b bf3f 290d 1b40 9f84 8b3f
00000010: bf2e 1d40 4166 0740 a3ab 533f 29a8 673f
00000020: b60f 3b40 fc5c 2040 70e4 c23f 122d 463f
00000030: 5d7f d33f f660 a53f 8783 e03f c856 b93f
00000040: 3b1a 1140 f782 b33f 1893 bf3f df3e 9f3f
00000050: 4f14 ef3f 8491 e23f d932 823f 519d c43f
00000060: abe5 0740 5ccd b83f cac8 bd3f 9d1d d83f
00000070: 1c20 ac3f 98eb dd3f d826 0040 d3b2 2240
1.7490596 1.4930371 2.4226782 1.0899848 2.4559782 2.115616 0.8268377 0.9049097
2.922834 2.5056753 1.5225964 0.7741252 1.6523243 1.2920215 1.7540139 1.4479609
2.267226 1.4024342 1.4966764 1.2441062 1.8678073 1.7700658 1.0171767 1.5360509
2.1233928 1.4437671 1.4826901 1.6884037 1.3447299 1.7337523 2.0023708 2.5421646

module.net_ts.layer1.0.conv2.weight f4 [32, 32, 3]
00000000: 20c8 883d f5f1 8cbe 7a15 a0bd 6e83 773e
00000010: f6db 29bd 1388 55bd 0bb2 9bbe 1d4c 65bc
00000020: 7068 d6bb ae51 4e3e fe44 0d3e aefd 503c
00000030: 2384 b0bc 85bf d4bc a4b8 3c3d e4e8 34bc
00000040: 5041 243c 9156 4fbd 2a71 2dbe 91a1 7a3e
00000050: 00db 46be 919c d7bc 9b9e a0bc 4413 f7bd
00000060: 0b60 ff3d b859 34bd 94b3 09bc 5688 183d
00000070: e32e 7dbe e746 21be 55c1 8d3e 3b01 8ebd
00000080: 5b41 b3bd 178f 5dbc 1e6e c3bd aa2e 6e3c
00000090: bea2 20bc 6491 d33d 9576 6a3e 3fb2 febc
000000a0: 9b61 d93d 9d25 7dbe 2451 a7bc 8b1c 333e
000000b0: 7916 1e3e 947b 333e d723 c03e f125 d63c
000000c0: c4be 28be be4f 293d 4e4c 143b fe53 413d
000000d0: a65e 18be 53bb b13c 3f1e 6ebe 9973 3a3e
000000e0: bbe2 ab3c e219 223e 4d60 bc3b 084b 3ebe
000000f0: f789 db3d 272c 5cbe 06c0 ba3d df53 c3bd
00000100: fa6c 96be 9fa3 883d b00c 2c3d f4ce 2fbe
00000110: 739a 04bc 5f15 b43c f2cd 173d 3c58 acbd
00000120: 08a6 a8bc bdde 973d c0eb 0fbd 0544 1d3e
00000130: f183 25be b403 32bd af23 c3bc 83bb 5cbe
00000140: 1f59 d1bd b5c6 933c c013 9ebd 43df c3bd
00000150: 8f97 09bc 2aa8 3ebe 9509 f0bd 1594 c53d
00000160: 8e67 aa3d 12b9 0bbd 7756 3b3d a9ef 99be
00000170: 9710 89bd 2165 02bd f426 e83e 22b0 153e
00000180: 26cc 0c3e 1f5c 293e e7d3 a1bd f34c cbbe
00000190: 26b0 ddbd e4d6 c2bd 98cc 16bd b867 e9bd
000001a0: e8ab d4be 89b3 f03d ac48 44be 0f30 703e
000001b0: c7b3 1bbd 309d a33d 6479 bebc 137f d03d
000001c0: 626a 3c3c 942c 603e c861 d4bd d2ea c63e
000001d0: 42ea 073e a6e1 9e3e 79d6 d5bd 9371 bcbc
000001e0: 5ce4 b43c a8f9 bd3d 2be7 d6bc e974 d5bc
000001f0: e1d5 44bd f0ef 03be f1a8 c53d 42c5 ef3d
00000200: 7e36 d5bd 3220 533d 0989 48bd 71d8 b93c
00000210: c736 9c3e 2dc5 f13d fd18 7e3d 9111 423e
00000220: 754a 0f3d aaa8 9dbd d18c 553e 78b8 233e
00000230: b4a6 28bd ff21 e83a ee55 003e 0bd8 7cbc
00000240: 83c7 023e c7d8 c13c c394 5a3e 0895 cfbc
00000250: 2ecb 8a3d 79c9 0bbc 0a9c b33d 9785 6abb
00000260: 8b9f 83be 68a9 ad3c ca80 7f3d 1f0a 453d
00000270: f7d9 013d 92ba e8bd f7a2 a6bd 45be f23d
00000280: 4958 4c3d 46e0 503d b77e 6abe 2552 dd3c
00000290: dc97 f93d e6f0 093d 3352 0c3e 6815 af3e
000002a0: f789 b4bd a937 32be 3181 b7bd 01ac 66bd
000002b0: 16c0 fa3b 8641 85bb 4196 ad3d 214a 89be
000002c0: e4a3 bfbc ceba 053e db67 0b3e 1e6d 12be
000002d0: 2a18 5a3d 81e6 c73d dc88 ffbd 9689 43bd
000002e0: fb8f e03c ec42 1ebd e994 ce3d 4c3f 8c3d
000002f0: d7ad b13d 9be9 b53d e0c1 503d 3d78 f7bd
00000300: 1af3 70be b6d6 a1be f791 9f3c e60d f83d
00000310: e2ae 133e 8899 6ebd 1d49 9abd 5961 833e
00000320: 7104 81bd 825c 25bd e07e b9bb e3af d6bd
00000330: 0768 643e 4f62 13be dd20 a0bd 04eb 06be
00000340: 3c79 423e fb65 cf3c 2b84 99bd f59e c0bd
00000350: b582 20be e066 163d c353 9dbc deb8 50bd
00000360: 2260 813d d049 f4bc daaa 573d 3229 babc
00000370: d740 a2be b148 303e 8eb8 62be 187b b43c
00000380: e404 473e bf6c d2bc 3dfa ae3d 332f 7b3d
00000390: 5058 12be 865f 73bd afa8 5e3e 29ae b6bd
000003a0: 5584 323e 83ae f03d b427 483e 7a9c 0bbe
000003b0: 22ea f33d f58f ed3c f3a6 283d c85c b1bd
000003c0: 0324 74bd 7e3c bbbd d755 61bd 5bd8 babe
000003d0: 70ac e3bd c7fa e83c 3cd4 edbd f500 d43d
000003e0: 0b55 0bba 1177 dc3e 8e4b 043e 7195 94be
000003f0: 48ab 7bbd 254b b5bd 136a 8a3c 707b a03c
0.06678796 -0.2752835 -0.07816596 0.2417123 -0.041469537 -0.052131724 -0.30409274 -0.013995198
-0.0065432116 0.20148346 0.1379585 0.012755794 -0.021547383 -0.02597023 0.046074525 -0.011041854
0.010025337 -0.050619666 -0.169377 0.24475695 -0.1941948 -0.026319774 -0.019606879 -0.120642215
0.124694906 -0.044030875 -0.008404631 0.037239395 -0.24724917 -0.15749703 0.27686563 -0.069338284
-0.087527 -0.013522885 -0.095424876 0.014537493 -0.009804426 0.103304654 0.22896798 -0.031090854
0.1061432 -0.2472138 -0.020424433 0.17491357 0.1543826 0.1752761 0.37527344 0.026141139
-0.16479021 0.041335814 0.002262849 0.04719924 -0.14879856 0.021695768 -0.23253725 0.1820816
0.020982137 0.15830186 0.0057487846 -0.1858331 0.10719674 -0.21501218 0.09118657 -0.095374815
-0.29380018 0.06671833 0.042004287 -0.1716879 -0.008093464 0.021982847 0.03706164 -0.08415267
-0.020586982 0.07415531 -0.035136938 0.15357979 -0.16163613 -0.043460563 -0.023820726 -0.21555905
-0.102220766 0.018039087 -0.07718611 -0.09564068 -0.008397951 -0.18618837 -0.117205776 0.09647385
0.08320533 -0.034112044 0.045736756 -0.3006566 -0.066926174 -0.031834725 0.4534222 0.1461797
0.13749751 0.16539048 -0.07901745 -0.39707145 -0.10824613 -0.095136434 -0.03681621 -0.11396736
-0.41537404 0.117529936 -0.19168347 0.23455833 -0.038013246 0.079889655 -0.023251243 0.101804875
0.011499973 0.21892005 -0.10370213 0.3885103 0.13272956 0.3103153 -0.10441298 -0.023003375
0.022081546 0.09276134 -0.026233276 -0.026056724 -0.048055533 -0.12884498 0.09651364 0.11707546
-0.10410784 0.051544376 -0.048958812 0.022686215 0.30510542 0.118051864 0.06203555 0.18952014
0.034983117 -0.07698186 0.20854498 0.15988338 -0.041174605 0.0017710327 0.1253278 -0.015432368
0.1277142 0.023662938 0.2134581 -0.025339618 0.06777035 -0.008531922 0.087699965 -0.0035785192
-0.2570766 0.021198943 0.062378682 0.048105355 0.031702008 -0.113637105 -0.08136552 0.11852697
0.049888883 0.050995134 -0.228999 0.027016709 0.12187168 0.033677004 0.13703232 0.3419602
-0.08815377 -0.17404045 -0.08960188 -0.05631638 0.007652293 -0.004066649 0.08475924 -0.26814368
-0.023393579 0.13059542 0.13613836 -0.14299437 0.0532457 0.09760762 -0.12477276 -0.047738634
0.027412405 -0.03863804 0.10086996 0.068480104 0.086757354 0.08882447 0.050966144 -0.120834805
-0.23530236 -0.31609124 0.019478781 0.12112026 0.14422181 -0.058251888 -0.075334765 0.25660208
-0.06299675 -0.040371425 -0.0056608766 -0.104827665 0.22305308 -0.1439297 -0.07818768 -0.13175589
0.1899156 0.025317183 -0.07495912 -0.09405319 -0.15674861 0.036719203 -0.01920498 -0.050957553
0.06317164 -0.029820353 0.05265317 -0.022724722 -0.31690094 0.1721523 -0.22140715 0.022031352
0.1943546 -0.02568662 0.08543823 0.06132431 -0.14291501 -0.05941727 0.21744035 -0.08919937
0.17433293 0.117520355 0.19546396 -0.1363391 0.11909892 0.028999308 0.04117484 -0.08660275
-0.059604656 -0.09142397 -0.055013504 -0.3649319 -0.11116874 0.028439892 -0.11612746 0.10351745
-0.00053151016 0.4305959 0.12919447 -0.29020265 -0.061442643 -0.08852223 0.016896283 0.01959011

module.net_ts.layer1.0.bn2.weight f4 [32]
00000000: f1c7 5e3f 692c 643f 6f6b 1f3f 712a 7b3f
00000010: c057 5d3f f0fa 5a3f 7f8f 6b3f 0fab 423f
00000020: 571e 823f 5583 6a3f df99 753f 5a07 683f
00000030: 4606 6b3f 9bee 523f 5544 633f 2a14 5d3f
00000040: 4955 5c3f 9d17 753f 91d9 413f 7b81 763f
00000050: e198 3a3f d057 603f 2e83 7d3f 4f26 823f
00000060: 8129 693f cbb7 453f 7e2a 5a3f 026f 5f3f
00000070: 2c19 433f a153 673f a4ac 463f ef4b 783f
0.87023836 0.89130265 0.62273306 0.98111635 0.8646202 0.8553915 0.9201583 0.76042265
1.0165509 0.91606647 0.95937914 0.9063622 0.9180645 0.82395333 0.8877614 0.8635889
0.86067635 0.95739156 0.75722605 0.9629132 0.72889525 0.8763399 0.9902829 1.0167941
0.91078955 0.7723357 0.8522109 0.8727876 0.76210284 0.9036198 0.7760718 0.96990865

module.net_ts.layer1.0.bn2.bias f4 [32]
00000000: c8b6 03bd 37fe ce3d 1fd4 78bd f141 aebc
00000010: 4778 e6bc 3aa6 493d cd31 eebc f048 cebc
00000020: c0c2 73bd e519 84bd d3ee 8bbd e95a 41bd
00000030: 5346 143d 4b8a ae3d 27f6 e73b abcb 1b3d
00000040: 9783 843d 34f6 1dbd b31d 6ebc cf47 bfbc
00000050: be59 53bd f7bf b1bd ea66 c23c 3fbc 6d3d
00000060: 5a61 493d 67dc 6bbd b1e2 adbd 9981 35bd
00000070: 6102 46bc 7361 68bc e910 8dbd 02d3 46bd
-0.032156736 0.101070814 -0.06074917 -0.021271678 -0.028133525 0.04923079 -0.029076481 -0.025181264
-0.0595119 -0.064502515 -0.068326615 -0.04720584 0.03619988 0.08522471 0.007078904 0.03803603
0.06470411 -0.038564876 -0.014533448 -0.02334967 -0.051599257 -0.086791925 0.023730714 0.058040854
0.049165107 -0.05758324 -0.084905036 -0.044313047 -0.012085528 -0.01418339 -0.06887991 -0.048541076

module.net_ts.layer1.0.bn2.running_mean f4 [32]
00000000: 0fe2 fcbd 7fe9 0d3f f2d4 5cbe f4b0 56bf
00000010: dd87 85bd 24d1 d2be c20b 8dbe 4351 503f
00000020: 2739 3ebf 26d8 ffbe 7137 cd3e b7a2 88be
00000030: 80d6 bcbe 5596 c6bd 1dfb bb3e be4c 18bf
00000040: a6a3 9abf 7889 a53b 0725 e23c cacb 08bf
00000050: 3875 5fbf 1e4a debd b96a 61bf 57a2 95be
00000060: d5e0 0d3e e6d3 9fbe 3a9e 033e 14ac e8bd
00000070: d5ac 6e3e c556 f7be 8bd7 e63c b02d bcbe
-0.12347805 0.5543441 -0.21565607 -0.8386376 -0.065200545 -0.41175187 -0.27548033 0.81373996
-0.7430596 -0.49969596 0.4008136 -0.26686642 -0.368824 -0.09696642 0.36715022 -0.594921
-1.2081192 0.005051788 0.027605547 -0.5343596 -0.87288237 -0.108539805 -0.8805347 -0.29225418
0.13855298 -0.31216353 0.12853327 -0.11360946 0.23308118 -0.48308387 0.02817895 -0.36753607

module.net_ts.layer1.0.bn2.running_var f4 [32]
00000000: 05ff 6b3f dfb8 453f 807b 393f 5280 233f
00000010: 63ed 253f 8c9e 8d3f 4d95 1c3f 4fc2 1b3f
00000020: b055 183f 22c1 d03e d765 0d3f fd7e 223f
00000030: 4773 533f 72f1 3a3f 747a c73e 23cb 4e3f
00000040: 6fd9 873f 3cca f13e 4fa3 3e3f 3b75 433f
00000050: ec56 183f 0f7d 423f 4cbe 5e3f 5462 273f
00000060: 0e69 ff3e 0ea1 f13e 6cb9 003f 9bbc 0e3f
00000070: fd9a 2e3f 7c95 3d3f b07b 183f 372b b13e
0.92186004 0.77235216 0.7245407 0.63867676 0.6481535 1.106401 0.61165315 0.60843366
0.5950575 0.4077235 0.5523352 0.6347502 0.82597774 0.73024666 0.38960612 0.8077871
1.061323 0.47224605 0.7446794 0.76350754 0.5950763 0.75972074 0.8700912 0.6538441
0.49884838 0.47193187 0.5028293 0.5575654 0.68205243 0.7405622 0.5956373 0.34603283

module.net_ts.layer2.0.conv1.weight f4 [32, 32, 3]
00000000: 1dc5 0b3d b209 83be 8a26 753d c752 e3bd
00000010: dcde 973e db6a ff3d 382a 693e 76b5 39bc
00000020: 0bc6 28be c7e3 263e b5a0 913d 899f c43b
00000030: 8535 f83d d687 8e3e 36de 963c 1836 a03e
00000040: ff03 363e 19ff 1cbe 66c6 02be 555f a03c
00000050: 1f5e b0bd 9b97 693d 18a1 92bd 9b5c 89be
00000060: 1b56 d8bd 2ee6 163d 11a2 78bd 47e5 f03c
00000070: 4508 91be 6f12 4abe a1c4 573d 6ba4 8abd
00000080: 89e5 6fbe 986a 163d dce3 53be 4bc5 c6bd
00000090: bfb7 7f3d 853b fd3d c58d 563d ffac 0dbe
000000a0: 3896 8bbe de23 21be 64ea 3c3c 3045 823d
000000b0: c3c5 a9bb 5477 33be 0197 dcbd de2a 49be
000000c0: 3ba7 27be 2c0a 36be af88 f83d 0c9c 84bd
000000d0: b502 68bd 985f a9bb cfd0 4abe cb3b 933d
000000e0: 004b 873d 254a 503e 7b40 00be 4596 063d
000000f0: 7099 99bc 34d6 bdbd f5d2 c8bd bb5a 7f3d
00000100: 8e44 ea3c 0dbf 443e f190 363d bc8a 4a3d
00000110: e34b 283e a8b8 773d 06f7 bb3d cfd9 593d
00000120: 3d5b 613e 531d 283e e64e 4cbd f5eb 0d3e
00000130: 32da 6a3d 49ab 143e 74f3 d83d 4a5c 29be
00000140: e178 1dbe b69b a0bd 269d 03bd 42e4 97bd
00000150: 849d 173e 05a1 3dbe 25b1 983c d94b 4ebd
00000160: 6801 213d 91ae 5dbd 70e8 84be ef62 253e
00000170: af44 48bd dfb9 c73d 8754 20be 6623 0f3d
00000180: a955 38bc cdae e83d 10e0 6abd e67e 1b3e
00000190: 6b65 473c 4780 30bc 4b52 373e 73ad 2fbd
000001a0: 9857 0d3e e8e1 263e 68b5 c93d 4d73 1a3e
000001b0: 0b22 9fbe 5a3c 1fbe 6b21 24bc a2e8 773e
000001c0: 2e19 e3bd 8f62 6b3d d991 923d c265 a5bc
000001d0: 6a2e fdbd 9f24 bcbc 91e8 c2bd 1ed6 dbbc
000001e0: 1e6e b2be ce41 153d ad38 5bbd 6940 83bd
000001f0: 6e3a 883e ebbf 34bd 3673 8ebe e64a 0cbe
00000200: 148f 99be 7f20 3f3e 204c a4bd 2cf4 0abe
00000210: 5032 823d 733d a1bd c5fc 143d 8b2e c83d
00000220: d46c 45be 84d2 0abe 7bdd ccbd 1e76 e3bd
00000230: 6823 29be 28bf 9ebd 7c79 3e3e 7d44 4c3d
00000240: 5479 fabc 6ddc 5d3d d481 a2bd 195a 5fbe
00000250: 883f d7bd 980d 983d f2fc d83d 95ce 353d
00000260: ecec b13d 3f60 a03d 950d 2ebe eec5 a1be
00000270: d7b9 2fbb eaf3 98bc be66 c63d ce67 c5bd
00000280: eb74 00bd 0a7b c13d c0e3 833e 84d5 eebd
00000290: 6531 0c3e 179a 573c 9e89 1b3e 38f1 5e3b
000002a0: 534e 19be 3e8b 60bd 9f60 04be a9b7 91be
000002b0: 6c57 843e 638c 9d3d 9312 28be 563e 063e
000002c0: 90b6 133e 554b 91bd f835 68bd 6f0b b0bd
000002d0: 7f53 15bd 21e4 80bc 6641 a33e ae91 d53c
000002e0: c99a 033e 8e97 ecbd 6246 0dbd 6eba 0a3e
000002f0: d147 b4be efe9 9e3d f501 a5be cbeb 833d
00000300: 127e c4bc 218e 623e b001 53be e5e9 873e
00000310: c20f 0d3e 17e1 573e 32cf 203d 0223 17bd
00000320: 04b2 9e3e f002 0ebe dca2 34be 081e d0bd
00000330: bf46 f1bd 6181 80bd f06e ac3c 1d99 dcbd
00000340: 843e 9dbe b69c 053d 0f13 c7bd 6b01 4cbd
00000350: e92e d0bd 4905 a5bd 0785 223e 1672 96bd
00000360: 22b9 35be 760b 943d 76b5 f43c ce24 a6bd
00000370: efe9 f4bc c9a8 8d3d 3240 4abd 55d6 83be
00000380: dd36 2f3c 314d cebd 048f 85be 4643 01be
00000390: 640d 093e 2f6f acbd 8ee7 5dbd 52f3 f3bc
000003a0: f0a7 9e3d b961 f0bd 7a35 d93d eb41 b03c
000003b0: fec3 6e3e a313 24bd 1b8a 913c 7be8 d73d
000003c0: aef0 f63d daa5 b9bd 35cc 713d 3998 06bc
000003d0: a1f4 403d ce57 573d 8bee 34be 340f 6fbe
000003e0: 8ad5 093e 98d0 d53d ba24 b33d 1553 00be
000003f0: 260e d03c 24c4 65bc 5c5d e53d 8e02 98be
0.03412353 -0.25593334 0.059851207 -0.11099773 0.29662216 0.12471553 0.22770011 -0.011334768
-0.16481797 0.16297828 0.071107306 0.0060004634 0.12119583 0.2783801 0.018416505 0.3129127
0.17774962 -0.15331687 -0.12770995 0.019576708 -0.08611702 0.057029348 -0.071596324 -0.26828465
-0.10563298 0.03684061 -0.060701434 0.029406203 -0.28326622 -0.19733594 0.052677754 -0.067696415
-0.23427404 0.03672275 -0.2069239 -0.097055994 0.062431093 0.12364868 0.052381296 -0.13835524
-0.27263045 -0.15736338 0.011530492 0.06360853 -0.0051810457 -0.17525989 -0.10770989 -0.19645259
-0.16372387 -0.17777318 0.12135445 -0.06475076 -0.056643207 -0.0051688664 -0.19806217 0.07189139
0.06606102 0.20340784 -0.12524597 0.032858152 -0.018749923 -0.09269372 -0.09805862 0.062342387
0.028597143 0.19213505 0.04457182 0.049448714 0.16435198 0.060478836 0.09177975 0.053186234
0.22007461 0.16417436 -0.04987993 0.13859542 0.057336994 0.14518465 0.1059331 -0.16539112
-0.15378143 -0.078421995 -0.03213229 -0.074165836 0.14806181 -0.18518455 0.018639157 -0.050365303
0.03930798 -0.054121558 -0.25958586 0.16151021 -0.048893627 0.09752249 -0.15657245 0.034945868
-0.011250892 0.113614656 -0.05734259 0.15185127 0.012170176 -0.010772771 0.17902486 -0.042890023
0.13802946 0.16297114 0.098490536 0.15083046 -0.3108066 -0.15550366 -0.010017733 0.24209836
-0.11088787 0.05746704 0.071567245 -0.020190123 -0.123623684 -0.022966681 -0.09517015 -0.026835497
-0.34849638 0.03643971 -0.053520847 -0.0640877 0.26607078 -0.04412834 -0.27822274 -0.13700446
-0.29991972 0.1866474 -0.08022332 -0.13569707 0.063572526 -0.07873049 0.036373872 0.09774502
-0.19279796 -0.13556868 -0.100031815 -0.111065134 -0.16517413 -0.07751304 0.1860103 0.049870003
-0.030575432 0.054165293 -0.07934919 -0.21811713 -0.105101645 0.07424468 0.105951205 0.044386465
0.086877674 0.078308575 -0.16997369 -0.3159632 -0.002681365 -0.018670995 0.09687565 -0.0963894
-0.0313615 0.09447296 0.25759697 -0.116618186 0.13690718 0.0131592965 0.15189216 0.003401829
-0.14971285 -0.05482029 -0.12927483 -0.28460434 0.25847948 0.07692792 -0.16413336 0.13109717
0.14425111 -0.070944466 -0.056692094 -0.08595931 -0.03645658 -0.01573378 0.31885833 0.026070442
0.12852015 -0.11552344 -0.03449095 0.1354768 -0.35211042 0.07759463 -0.32228056 0.06441458
-0.023985896 0.2212453 -0.20606112 0.26545635 0.13775542 0.21081959 0.039260097 -0.03689862
0.3099519 -0.13868308 -0.17640251 -0.10161978 -0.11781072 -0.06274677 0.021048993 -0.107713915
-0.30711758 0.032620154 -0.09720432 -0.04980604 -0.101651974 -0.08057649 0.15871058 -0.07345979
-0.17746404 0.072287485 0.029871684 -0.08112489 -0.029896704 0.06916959 -0.049377628 -0.2574946
0.010694233 -0.10073317 -0.26085675 -0.12623319 0.13384014 -0.08419644 -0.054175906 -0.02977911
0.07746875 -0.11737389 0.10605903 0.021515807 0.23316953 -0.04005779 0.01776605 0.10542389
0.12057625 -0.09064837 0.059032638 -0.008215004 0.047108296 0.05257397 -0.17669122 -0.23345643
0.13460365 0.10440177 0.087472394 -0.12531693 0.025397372 -0.014023814 0.111994475 -0.2968945

module.net_ts.layer2.0.bn1.weight f4 [32]
00000000: 21dc 4c3f 52f6 623f 9559 523f 30b8 5d3f
00000010: ef83 7a3f d7b4 573f 184d 5b3f f3b6 7a3f
00000020: b5f1 663f 29d0 593f 2176 563f 84c6 693f
00000030: 7148 793f b123 463f dfaf 533f d7bc 6a3f
00000040: 8ec1 523f 65d2 623f 9db6 593f 3bda 5b3f
00000050: 1aeb 593f 4a51 5a3f ab2b 573f a64b 833f
00000060: e5cc 533f a837 753f 9ddb 633f 4c70 643f
00000070: 5635 363f efdf 403f 25e9 563f 9478 713f
0.8002339 0.88657105 0.8216794 0.8660917 0.97857565 0.84260315 0.8566451 0.9793541
0.90212566 0.8508325 0.83774 0.91318536 0.9737616 0.7739821 0.82690233 0.91694397
0.8232659 0.88602287 0.8504427 0.8587987 0.8512436 0.8528029 0.8405101 1.0257461
0.8273452 0.9578805 0.8900698 0.8923385 0.71175134 0.75341696 0.839495 0.9432461

module.net_ts.layer2.0.bn1.bias f4 [32]
00000000: de07 d1bd 83f3 893d 2636 053d b990 563d
00000010: 740d 19bd bc1e 9e3b e052 8ebc 7b39 843d
00000020: 8e19 03bd 92a7 cbbc 8001 e2bc 6283 82bd
00000030: b59f c6bb 99c2 bcbd fcd9 11bd 107e 003d
00000040: 3576 ed3c fac5 cdbd 8b75 983d 38c5 cabd
00000050: c7e5 ee3c 9729 06be a86e 22bc 29e1 04bd
00000060: b633 15bc 07d5 16bd 47df 303c 2e8d 33bc
00000070: 3b62 b1bd 320b 2cbd 65c6 52bd 0a17 903c
-0.10206579 0.06735899 0.032522343 0.052384112 -0.037366346 0.004825441 -0.017373502 0.06456276
-0.032006793 -0.024860177 -0.027588606 -0.063727155 -0.006061519 -0.09216804 -0.035608277 0.031370223
0.02898703 -0.10047527 0.074442945 -0.09900898 0.0291623 -0.13101803 -0.009914078 -0.032441292
-0.009106567 -0.036824252 0.010795421 -0.010958953 -0.08661314 -0.042002864 -0.051458735 0.01758911

module.net_ts.layer2.0.bn1.running_mean f4 [32]
00000000: dfef 9ebe 3ff4 8bbf fa6c 97bf 2eaa 00c0
00000010: 2bf8 87be 3b75 cebf f5c9 38bf 7abf 133f
00000020: f6c0 233f e5ea a73f ecaa 55bf 8f18 ebbf
00000030: 49e3 bbbf 4ced 643d 3bca a7bf f219 8bbf
00000040: d9fa cfbf 7d83 1b3f 00a1 48be 5b03 5cbe
00000050: bf37 83bf 583a 8ebf ac81 94be 30c1 0dc0
00000060: c880 4dbe 5066 4ebf 5832 adbf f1ee 0fc0
00000070: 783f 6dbf af9c b83f 163f 67bf 05ea 5dbf
-0.31042382 -1.0933913 -1.1830132 -2.010387 -0.26556525 -1.6129526 -0.7218316 0.57714045
0.6396631 1.3118559 -0.8346393 -1.836687 -1.4678737 0.055890366 -1.3108591 -1.0867293
-1.6248428 0.6074751 -0.19592667 -0.21485655 -1.0251387 -1.1111555 -0.29005182 -2.2149162
-0.20068657 -0.80624866 -1.3530989 -2.2489588 -0.9267497 1.4422816 -0.90330637 -0.8668521

module.net_ts.layer2.0.bn1.running_var f4 [32]
00000000: 0fb1 d03f 4442 3740 90b5 3340 6d93 9d40
00000010: 1c79 eb3f e4a4 3f40 8a8a 0e40 2220 1940
00000020: adb5 af3f 8238 3140 1851 fd3f 4545 e13f
00000030: 3872 ff3f ab64 a93f 4d2c fd3f c100 2140
00000040: 4540 4940 ab18 f63f 4441 eb3f 601d 0340
00000050: 8509 2f40 7d1f f13f 2a95 fb3f 717e 0840
00000060: f5f0 e13f 642f 4140 2802 da3f 5857 8840
00000070: 58d2 b13f 3128 2940 994e cd3f a13e 2b40
1.6304034 2.8634195 2.8079567 4.9242463 1.8396335 2.9944391 2.2272058 2.3925862
1.3727318 2.769074 1.9790373 1.7599264 1.9956732 1.3233846 1.9779145 2.515671
3.1445477 1.9226278 1.8379292 2.048668 2.734956 1.8837734 1.9654896 2.1327174
1.7651659 3.0185175 1.7031908 4.260662 1.3892317 2.643078 1.6039611 2.6756976

module.net_ts.layer2.0.conv2.weight f4 [32, 32, 3]
00000000: 24fa 643c fd95 873d dc3a 29be 1093 50be
00000010: a480 e43d 66d2 0bbe 6b7e 00be 7006 783c
00000020: a267 083c d9bb cd3d 71d0 593e 8911 283e
00000030: 3823 413e 00dc 96bd 6a0d 4e3e 5db8 f03d
00000040: 19cb 003e de35 f13c af8e 453e 10ab 253d
00000050: 9533 5fbd 7a6a b6be 2eb8 fd3d 4615 03be
00000060: 2c08 5a3e 2415 f33d 693c 41bd b02a e33d
00000070: 6d40 2f3d ab8a 6c3c 26bd 63bd 8939 1e3e
00000080: c9fd 4bbe 26a2 883d d39c 92be 63d4 4a3e
00000090: ee5b 053e 5026 5fbe b038 0ebd 1969 03be
000000a0: 7c8b 65bd aada 0fbd 6180 37bd eaa8 01bd
000000b0: 4066 febd f818 5f3d 1e45 063e 8b88 0b3e
000000c0: 08d9 94bd 3507 4abe 6aa1 a3bd fe37 9a3e
000000d0: 30f5 313e 279a 123e 4a9e 2cbe e851 cfbc
000000e0: 8b8f 60bd 7525 21bd 41d4 c93c d3f6 90bb
000000f0: ec52 09be 129d 77bb 7415 de3d 135c 283e
00000100: 2e9c 893d 7559 46be 940f 92bd c8ab dfbc
00000110: 84e8 0d3d a3cb 1ebe 0710 0f3e 0125 bdba
00000120: f26e abbd 1661 9abd f23f acbc ad10 ff3d
00000130: 92d3 2bbd 704f 93bd 9b67 3bbe 76ce b6bd
00000140: 71f8 8cbd a5e2 423c a710 5cbd 6a7b bb3d
00000150: 565f be3d c0c5 6dbd dc96 6f3e 462f 8b3c
00000160: 6c83 ecbd 2c76 f6bc c6ed eabd 0ff3 283e
00000170: cdd8 b1bc 007c 1e3e 1f68 133e b894 52be
00000180: aa06 9a3d 23c7 ab3d facc b33d f229 293e
00000190: c91e 0c3c 4b2f d3bd 4fda 103e 7ddf 293e
000001a0: b323 d1bd 2e1d c4bc 9e2f c73c 8537 053e
000001b0: 050b b93d 3945 da3d 9e25 3bbe a6f2 8e3e
000001c0: 1ca7 09be 2754 5e3a cf2a 52bc 6860 22be
000001d0: 8e4c 84bd 0cfe 813d ba8d 6abc 4024 c3bd
000001e0: f9c9 3abd 1418 8abd 41b3 b33e 7abc 023e
000001f0: 770c dbbc dc23 e73d b1f3 3dbd de0b 14be
00000200: 53c6 bdbd c8ee 9c3e 0d62 78bd 4d17 ef3d
00000210: b6b6 e5bd 045d 18be 0135 f7bc 137b b8be
00000220: 3473 aabc e6ee e0bd 0165 1b3e 95db a5bd
00000230: 0788 00bd 45b6 a0be 3402 e0bc df05 a93b
00000240: 618c 703e 1302 e8bb 714b fdbd 07a5 163e
00000250: 3626 1dbe 09e3 23be 23fe 923e dd83 6bbe
00000260: c9c1 35bd f760 92bc f59f f8bd 5d66 3ebc
00000270: 4563 cfbc 2372 a43d 89a6 cc3d 3a90 92bc
00000280: 8f50 c9bd 796e 08be 2e7f 73be 896b 2f3e
00000290: fd51 bc3d eb31 20be 50d4 863d d69a 5f3e
000002a0: c2e8 20be 80c8 95bd 161d 13bd e5df 91be
000002b0: 2c9b a53e df82 91bc 0c4d 803d 9c19 81bd
000002c0: 759c 023e 2247 4cbd 84d7 02bc 6c25 283d
000002d0: 9b6b 27bd 5f25 adbd ee90 c0bd 0c1e 4abe
000002e0: 722c b73c 8f51 8abe 21be 4bbd 86b7 ed3b
000002f0: b3d1 873c acab fabc 8fee 09bd 1161 5c3d
00000300: 089b 06bd 40e4 46bd b597 953d 6c18 743d
00000310: 2cc0 45be 4d7a 80bd 295b 91bd f774 053e
00000320: de1b 2cbc 397e 4f3e 832f 013e 332b eb3b
00000330: a0cf 52be 92bd 07be a52a 58be 9287 01be
00000340: d118 4e3d 2853 883c b7d5 cfbd 0605 0fbe
00000350: 8c0a 2e3e 1da7 9b3b 5fb6 293c 7d40 aebe
00000360: ab71 45bd 45ae d4bd e21e 00be b81e 7c3d
00000370: 700f 86bd 48cc 5d3d 76fc a6bd 6474 63be
00000380: f944 72be 79f2 f13d 6b15 7c3c 8737 58be
00000390: eb27 77be 2f85 833e 8353 27be a314 fc3d
000003a0: 1927 6e3d 5020 313e 2959 02bd 66e2 833c
000003b0: 4d00 09be 8f18 623d 7fba 22bd e8cc 45be
000003c0: b47f 093d 174d 363e c3f4 f9bd 8c47 99bd
000003d0: ac51 023e 5f15 98bd 849c 553c 2995 cf3d
000003e0: 49ca 52be b5ec 523c aed4 1e3e aea6 efbd
000003f0: 7576 883c eb77 53bc b003 17bd 1f2d 963d
0.013975654 0.06620405 -0.1652636 -0.203686 0.11157349 -0.1365448 -0.12548225 0.015138254
0.008325489 0.10045595 0.2127092 0.16412939 0.18861091 -0.073661804 0.20122305 0.117539145
0.12577476 0.029444631 0.1929271 0.04044634 -0.05449255 -0.3562811 0.12388645 -0.12801084
0.2129218 0.11869267 -0.047176752 0.11092126 0.04278605 0.014437358 -0.055600308 0.15451635
-0.1992103 0.06671552 -0.28635272 0.19807582 0.1302335 -0.21791959 -0.03472203 -0.1283306
-0.056041226 -0.035120644 -0.044800166 -0.03165523 -0.124218464 0.05446717 0.13112304 0.13626306
-0.07267958 -0.19729312 -0.07989772 0.30120844 0.17378688 0.14316617 -0.16857257 -0.02530761
-0.054824393 -0.039342362 0.024637343 -0.004423955 -0.13410538 -0.003778283 0.108439356 0.16441374
0.06719242 -0.19370063 -0.071318775 -0.027303591 0.034645572 -0.15507369 0.13970958 -0.0014430584
-0.083707705 -0.07538049 -0.021026585 0.124543525 -0.041949816 -0.07192886 -0.18301241 -0.08926098
-0.06883324 0.011894857 -0.05372682 0.09154399 0.09295528 -0.058049917 0.23397392 0.016990315
-0.11548504 -0.030085646 -0.11471133 0.1649897 -0.021709824 0.1547699 0.14395188 -0.20564544
0.07520802 0.08387592 0.087793306 0.16519907 0.008552262 -0.10311755 0.14145778 0.1658916
-0.10211887 -0.023939695 0.024314698 0.1300946 0.09035305 0.106577344 -0.18276069 0.279195
-0.13442653 0.00084811676 -0.012827589 -0.15857089 -0.06459914 0.06347284 -0.014316017 -0.095283985
-0.045602772 -0.06742874 0.35097697 0.1276721 -0.026739342 0.112861365 -0.04637498 -0.14457652
-0.09266343 0.30650926 -0.060640384 0.11674366 -0.1121649 -0.14879233 -0.030176641 -0.36031398
-0.020806886 -0.10983066 0.15175249 -0.080985226 -0.031379726 -0.3138906 -0.0273448 0.0051581706
0.2349105 -0.0070803254 -0.12367905 0.1471139 -0.15346608 -0.16004576 0.28709516 -0.2299952
-0.04437426 -0.017868502 -0.121398844 -0.011621085 -0.02531589 0.08029582 0.099927016 -0.017891038
-0.098298185 -0.13323392 -0.23778984 0.17130865 0.091953255 -0.15644042 0.06583464 0.21836409
-0.1571379 -0.07313633 -0.03591641 -0.2849113 0.3234495 -0.0177626 0.062646955 -0.06303713
0.12754996 -0.049872525 -0.007985953 0.041051313 -0.040874105 -0.084543936 -0.09402643 -0.19738024
0.02236006 -0.2701535 -0.049741868 0.0072545437 0.016579485 -0.030599438 -0.033674773 0.053803507
-0.032862693 -0.04855752 0.073043264 0.059593603 -0.19311589 -0.06273327 -0.070974655 0.130329
-0.010504691 0.20262994 0.1261578 0.0071767806 -0.20587015 -0.13255909 -0.21110018 -0.12649372
0.050316636 0.016641214 -0.10148185 -0.1396676 0.16996211 0.004750146 0.010358422 -0.34033576
-0.048204105 -0.10384802 -0.12511781 0.061552733 -0.06545913 0.054149896 -0.08153622 -0.22212368
-0.23659123 0.11813826 0.015385966 -0.21114932 -0.24136321 0.2568755 -0.16340451 0.12308624
0.058142755 0.17297482 -0.03182331 0.016099166 -0.13379021 0.055199202 -0.039728638 -0.19316447
0.033569053 0.17802845 -0.12204888 -0.074843496 0.12726468 -0.07425951 0.0130378045 0.10135872
-0.20584978 0.012873818 0.15510818 -0.117017135 0.016658047 -0.012907009 -0.03686875 0.07332825

module.net_ts.layer2.0.bn2.weight f4 [32]
00000000: cd6a 643f acea 6c3f b153 6a3f c456 7c3f
00000010: 7a22 7b3f f6dd 533f 2b16 573f fa6f 4f3f
00000020: d0c6 653f 8bc3 623f 219d 513f 6a28 5b3f
00000030: c07a 6e3f 6c7d 433f 1199 723f 6510 533f
00000040: 59bf 673f d339 583f 5dca 683f 1a69 803f
00000050: 6f77 5a3f eb52 653f 8c2a 443f 3b47 7e3f
00000060: cf31 593f e4e7 623f 21b9 583f 5f2f 4f3f
00000070: 0d40 683f 527e 553f 5050 6f3f 28bf 683f
0.89225465 0.9254558 0.9153395 0.98569894 0.9809948 0.8276056 0.840182 0.8103024
0.8975649 0.88579625 0.81880385 0.8560854 0.9315605 0.76363254 0.9476481 0.8244689
0.9052635 0.8446323 0.9093378 1.0032074 0.8533849 0.8957965 0.7662742 0.9932744
0.84841627 0.88635087 0.84657484 0.8093166 0.90722734 0.83395875 0.9348192 0.9091668

module.net_ts.layer2.0.bn2.bias f4 [32]
00000000: 7b31 c0bc f219 babd 3b3f 4cbb 8697 683b
00000010: 5e33 66bc 01f6 c1bb 4683 b4bc 0cfe 79bd
00000020: a433 d13c de90 033d 844b 7ebc 589b 953d
00000030: ca93 11bd 9044 cf3b 6e85 debd f85f aabd
00000040: 6343 9bbd 9022 a3ba af35 8bbd 2732 8b3c
00000050: 948c c6bd 74d5 eebc 9278 48bd bc8b 06bd
00000060: 86c1 f039 5a89 0dbd 8f18 03bd e8db 263d
00000070: c7ce edbc f25d 34bc 6da6 e7bd 0fb5 d53d
-0.023461094 -0.0908698 -0.0031165618 0.0035490706 -0.014050333 -0.0059192185 -0.022035252 -0.061033294
0.02553732 0.032120578 -0.015520934 0.0730502 -0.035541333 0.006325312 -0.108652934 -0.08319086
-0.07581212 -0.0012446214 -0.06797349 0.016991688 -0.09694782 -0.029154517 -0.04894311 -0.032848105
0.00045920553 -0.034554817 -0.032005843 0.040737063 -0.029029263 -0.011008726 -0.1131104 0.10434925

module.net_ts.layer2.0.bn2.running_mean f4 [32]
00000000: bc20 a33d c2a1 4bbe a5ad 32bf f402 25bf
00000010: 247c ed3e 37cf 423e 1050 7b3e b58f 073e
00000020: e9da d23d 39b1 453f 3e3c 9cbe 2d6b e03e
00000030: b86b 703e 2281 f5be 1aa3 ee3e 025d 4abe
00000040: b1b6 9ebe 5721 57be 049e d33d fac3 58be
00000050: e409 663c 7a89 a8be b5fb 6bbe 2fb1 23bf
00000060: 09db 85be b4ac 4c39 41f1 87be 965f 81bc
00000070: f294 49be b4fa 123e 8850 533f 7275 99bd
0.07965228 -0.19885924 -0.6979621 -0.6445763 0.46383774 0.19024359 0.2454226 0.13238414
0.1029566 0.77223545 -0.3051471 0.4383177 0.23478591 -0.47950083 0.46608812 -0.19762042
-0.30998757 -0.21008812 0.103328735 -0.21168509 0.014040444 -0.32917386 -0.23045237 -0.63942236
-0.26143673 0.00019519293 -0.2655125 -0.01579265 -0.19685724 0.14353448 0.82544756 -0.07493104

module.net_ts.layer2.0.bn2.running_var f4 [32]
00000000: 840a 993e a73c dc3e ffc2 c93e d1fb 9a3e
00000010: 5ef2 103f 3ece 0e3f 37fd e83e 166d ae3e
00000020: e91c b33e fcd7 d53e 333f c33e 2493 563f
00000030: 5f4a 053f 82fc c63e 1113 043f 8dab 7f3e
00000040: eff1 d33e 0f9e d63e df34 0f3f ce84 cc3e
00000050: ee4f 0b3f 4d2f 9d3e 4419 f13e 414e 273f
00000060: 1b14 153f 8ca5 0d3f f92d e53e ae35 333f
00000070: 3d4f df3e f238 b23e dda6 153f f5b3 c73e
0.29890835 0.43015024 0.39406583 0.30270246 0.5661982 0.5578345 0.45505688 0.340676
0.34982994 0.41766346 0.38134155 0.8381827 0.52066606 0.38864523 0.51591593 0.24967785
0.41395518 0.41917464 0.5594005 0.39945072 0.5441884 0.3070015 0.4708959 0.6535378
0.58233804 0.5533073 0.44761637 0.70003784 0.43615142 0.3480907 0.5845774 0.39004484
