model/model_20200914182941/model_final_mb6_3_0300_sm.pth (torch_old, 960817 bytes, 59 tensors)

module.net_sm.conv1.weight f4 [32, 1, 7, 7, 7]
-0.0024301857 0.013568201 0.023344984 0.00077898323 -0.020985045 -0.019231323 -0.038036797 0.035969358
0.040349808 0.025456876 0.0011273832 -0.024041776 -0.02002314 -0.023963556 0.001044892 -0.011078141
0.019204462 -0.025686314 -0.018346459 0.004757009 -0.0057529435 -0.018887812 0.015815925 -0.0049376898
0.0060703573 -0.031241976 -0.015026047 0.026257401 -0.025534153 -0.021782191 -0.03332013 -0.004010569
0.010725403 -0.037067994 -0.030526476 -0.017698113 -0.0068475525 -0.026464064 -0.0327792 -0.014307123
-0.037094407 -0.029154398 -0.032432612 0.009830026 -0.0027696688 0.0018572995 0.026647946 -0.004844155
-0.013432545 0.0019443934 0.027863663 0.015132081 -0.016508218 -0.0068742535 -0.02085935 -0.004988114
0.051470216 0.024874114 0.017536942 -0.023719326 -0.011660839 -0.026315741 -0.039529778 0.0015644877
-0.052974142 0.016905753 -0.037422314 -0.03237793 -0.027307471 -0.046932958 -0.019277709 0.009583731
0.060169324 -0.017799549 -0.05776159 -0.05139605 0.0024649457 -0.045701306 0.016339185 0.0029000463
-0.023119012 0.016087633 -0.014855886 0.016456442 -0.035665423 0.00704936 -0.028130013 0.007978789
0.032986313 0.040699683 0.030288165 -0.03961715 0.036765356 -0.008036586 0.012193139 0.05092713
0.0046821996 0.0011457849 0.002010909 0.03577483 0.028570784 -0.026844654 -0.06700663 -0.042817328
-0.037359945 -0.01760986 -0.0009192105 -0.003347002 0.0006120636 -0.02028416 -0.040788565 -0.03101794
0.010354736 -0.004097244 0.003758686 -0.061370417 -0.03373523 -0.045322094 -0.018805731 -0.029251609
0.017605616 -0.00014791387 -0.062311944 -0.057541996 -0.024396049 0.031063015 -0.05513003 0.0006727593
-0.016070895 -0.02290742 0.007336885 0.010915742 0.021084927 -0.036814272 0.005684928 0.021653417
0.0077820267 0.038604286 0.039287895 0.0073545044 -0.025328372 0.016749285 -0.014316161 0.04881043
0.040777918 0.024486424 -0.021845352 -0.022538329 0.025003009 0.024844037 -0.010362664 -0.009902715
-0.011749981 -0.019329283 0.010618913 0.03911909 0.0071894294 0.007951912 0.005317975 -0.005717528
-0.0144684035 -0.022480346 -0.03152267 -0.025856152 -0.05382186 -0.0107170055 -0.01991874 -0.03443911
-0.040503684 -0.00060311385 -0.0039284145 -0.07890846 -0.017115688 -0.034158308 -0.027404675 -0.00926896
0.04065858 -0.015102167 -0.051799707 0.047018144 -0.008737567 -0.020596793 -0.011742146 0.024403872
0.03142267 -0.020731898 0.05059964 0.0396237 0.03679927 -0.022571245 0.042896423 0.04812713
-0.0016075302 0.01568137 0.00029152737 0.00656217 -0.033321712 0.011178762 0.02539035 0.014992667
-0.03966619 -0.0059001953 -0.051423926 -0.01731523 0.024030818 0.046009377 -0.00675466 -0.00015587229
-0.008655622 -0.03530066 0.006278958 -0.013711555 0.005967592 -0.039573014 0.008414299 -0.023571288
-0.0313419 -0.009420718 0.0011642687 0.041372675 -0.0037379258 0.03055692 0.009629017 -0.044238012
-0.01887461 0.000893548 0.031344347 -0.030879183 0.04750495 0.009004858 -0.00743733 -0.03370199
0.038027324 0.0012204853 -0.012666719 0.055475585 0.045798827 0.0019753582 -0.020918583 0.012825328
-0.0075442586 -0.008213591 -0.0065422743 -0.018869543 -0.037052717 -0.0053896704 0.0045963004 0.041513205
-2.9370129e-05 -0.005716284 -0.012739584 -0.016569281 -0.027236354 0.006197405 0.012859786 -0.042699654
00000000: c043 1fbb 294d 5e3c fb3d bf3c ae34 4c3a
00000010: d4e8 abbc 028b 9dbc 79cc 1bbd 9b54 133d
00000020: d745 253d f08a d03c b4c4 933a 42f3 c4bc
00000030: 9107 a4bc 384f c4bc c2f4 883a 1781 35bc
00000040: ad52 9d3c 1b6c d2bc 504b 96bc afe0 9b3b
00000050: 3083 bcbb 9dba 9abc 6690 813c 58cc a1bb
00000060: d9e9 c63b 2cef ffbc cf2f 76bc c319 d73c
00000070: 002d d1bc 9170 b2bc b07a 08bd 176b 83bb
00000080: 9ab9 2f3c 9cd4 17bd a912 fabc a2fb 90bc
00000090: 6f61 e0bb 2acb d8bc 7b43 06bd 6c68 6abc
000000a0: 4ef0 17bd 34d5 eebc 0fd8 04bd 1e0e 213c
000000b0: 5583 35bb a170 f33a cb4c da3c b8bb 9ebb
000000c0: 2d14 5cbc 04db fe3a 5642 e43c 8cec 773c
000000d0: 3e3c 87bc 6b41 e1bb 3ae1 aabc 5573 a3bb
000000e0: 6fd2 523d ccc4 cb3c a2a9 8f3c 084f c2bc
000000f0: 1b0d 3fbc 1c94 d7bc fae9 21bd 7f0f cd3a
00000100: 6afb 58bd ef7d 8a3c 2448 19bd b89e 04bd
00000110: ebb3 dfbc c63c 40bd 49ec 9dbc 1505 1d3c
00000120: 1c74 763d 5cd0 91bc 6b97 6cbd aa84 52bd
00000130: ed8a 213b 4b31 3bbd c1d9 853c b40e 3e3b
00000140: 1564 bdbc 36ca 833c 1a66 73bc a9cf 863c
00000150: e815 12bd 51fe e63b ea70 e6bc 77b9 023c
00000160: a81c 073d b6b4 263d e31e f83c 9845 22bd
00000170: 4597 163d e3ab 03bc bbc5 473c f798 503d
00000180: 236d 993b 292e 963a 74c9 033b a188 123d
00000190: 470d ea3c 52e9 dbbc c63a 89bd 3961 2fbd
000001a0: be06 19bd 8e42 90bc 2cf7 70ba 6059 5bbb
000001b0: e572 203a f72a a6bc e911 27bd 5619 febc
000001c0: e9a6 293c 2c42 86bb 4954 763b 8c5f 7bbd
000001d0: f42d 0abd a9a3 39bd 7a0e 9abc 12a1 efbc
000001e0: a739 903c 5419 1bb9 cf3a 7fbd 28b1 6bbd
000001f0: 39da c7bc dd77 fe3c 07d0 61bd 1d5c 303a
00000200: 1ca7 83bc 57a8 bbbc 416a f03b f1d7 323c
00000210: 4cba ac3c 90ca 16bd a248 ba3b 8262 b13c
00000220: 5f00 ff3b 871f 1e3d 58ec 203d 0efe f03b
00000230: 727d cfbc cc35 893c 558e 6abc 72ed 473d
00000240: bf06 273d c197 c83c 06f5 b2bc 4da2 b8bc
00000250: 1cd3 cc3c b985 cb3c 2ac8 29bc ff3e 22bc
00000260: fe82 40bc 7258 9ebc f3fa 2d3c 573b 203d
00000270: 4e95 eb3b bc48 023c 6842 ae3b 1a5a bbbb
00000280: e20c 6dbc b428 b8bc ea1d 01bd 48d0 d3bc
00000290: 5074 5cbd 6196 2fbc a02c a3bc 0610 0dbd
000002a0: 31e7 25bd 491a 1eba eeb9 80bb c29a a1bd
000002b0: 3336 8cbc 95e9 0bbd c57f e0bc d6dc 17bc
000002c0: 9c89 263d 146f 77bc ee2b 54bd 1996 403d
000002d0: 0328 0fbc 9bba a8bc 2162 40bc a1ea c73c
000002e0: 0fb5 003d f1d5 a9bc 9141 4f3d 764c 223d
000002f0: d5ba 163d 55e7 b8bc 29b4 2f3d f420 453d
00000300: c3b3 d2ba 3776 803c 24d8 9839 7907 d73b
00000310: 597c 08bd 2027 373c 6cff cf3c cea3 753c
00000320: 0479 22bd 6d56 c1bb e5a1 52bd abd8 8dbc
00000330: 47dc c43c 5474 3c3d 3256 ddbb a671 23b9
00000340: 4fd0 0dbc 6d97 10bd b8bf cd3b 6ea6 60bc
00000350: ca8b c33b 5017 22bd 21dc 093c 9318 c1bc
00000360: 5d60 00bd 5b59 1abc 609a 983a 6576 293d
00000370: fdf7 74bb 8252 fa3c 06c3 1d3c eb32 35bd
00000380: ed9e 9abc fe3c 6a3a ee62 003d 57f6 fcbc
00000390: 8d94 423d 1d89 133c d9b4 f3bb 190b 0abd
000003a0: 8ac2 1b3d b1f8 9f3a 1288 4fbc 5e3a 633d
000003b0: 8d97 3b3d 0375 013b 735d abbc 5321 523c
000003c0: d435 f7bb 4c92 06bc 9360 d6bb 4d94 9abc
000003d0: 97c4 17bd d59b b0bb 909c 963b c009 2a3d
000003e0: df5f f6b7 aa4f bbbb b0b9 50bc 4dbc 87bc
000003f0: c61e dfbc 9a13 cb3b dab1 523c d5e5 2ebd

module.net_sm.bn1.weight f4 [32]
0.85918564 0.8573578 0.88225293 0.8606543 0.88638115 0.86883116 0.88585746 0.8743295
0.8978489 0.89630395 0.9022616 0.8908082 0.8824634 0.87638044 0.87485033 0.86051524
0.9024484 0.93579096 0.8185843 0.98341185 0.91130286 0.8582176 0.87730944 0.8642885
0.8712097 0.8869345 0.85112995 0.836381 0.8576172 0.81834507 0.9125637 0.8561248
00000000: 97f3 5b3f cd7b 5b3f 54db 613f d753 5c3f
00000010: e0e9 623f b86b 5e3f 8ec7 623f 0fd4 5f3f
00000020: 6dd9 653f 2d74 653f 9efa 663f 020c 643f
00000030: 1fe9 613f 785a 603f 31f6 5f3f ba4a 5c3f
00000040: dc06 673f ff8f 6f3f be8e 513f e1c0 7b3f
00000050: 254b 693f 26b4 5b3f 5a97 603f 0342 5d3f
00000060: 9907 5f3f 240e 633f a7e3 593f 111d 563f
00000070: cd8c 5b3f 107f 513f c69d 693f ff2a 5b3f

module.net_sm.bn1.bias f4 [32]
0.010084724 0.0027884552 0.02930973 -0.01469523 0.005334942 0.016245134 0.010823774 0.0128767155
0.0019732988 -0.012400367 0.031368062 0.03527298 0.009614059 0.001662857 0.000986544 0.0069720377
0.02870207 0.038355354 0.014190693 -0.04604867 0.032467872 0.0076138373 0.015213036 0.010352911
0.006781794 0.0010817695 0.008059104 0.0037101137 0.0047470867 0.015330544 0.005952461 0.006754035
00000000: 663a 253c 84be 363b f51a f03c 43c4 70bc
00000010: bdd0 ae3b 8414 853c 3356 313c dcf8 523c
00000020: 7652 013b e92a 4bbc cc7b 003d 667a 103d
00000030: 4984 1d3c 39f4 d93a ec4e 813a b175 e43b
00000040: 9a20 eb3c 811a 1d3d 1580 683c 889d 3cbd
00000050: 08fd 043d 7f7d f93b 1940 793c 429f 293c
00000060: d039 de3b 29ca 8d3a 550a 043c 6125 733b
00000070: 738d 9b3b f62c 7b3c dd0c c33b f450 dd3b

module.net_sm.bn1.running_mean f4 [32]
-1.9759475e-05 -3.869816e-06 -5.268227e-06 -1.7301327e-05 -1.0207225e-05 -1.4738303e-05 -2.310075e-05 -2.4769082e-05
-4.0471646e-06 2.3453651e-05 -3.508257e-05 -2.1640913e-05 2.2259735e-05 -3.0100347e-05 9.861448e-06 -1.7725957e-05
-2.761438e-05 -3.350284e-05 -2.0511638e-05 1.220649e-05 -2.6497108e-05 -9.008212e-06 -1.220658e-05 3.0043345e-06
-1.7599594e-05 -2.5121442e-06 -2.6960803e-05 -9.490467e-06 7.284215e-06 5.3360163e-06 -8.00679e-06 -7.9875945e-06
00000000: 26c1 a5b7 77d9 81b6 bac5 b0b6 5122 91b7
00000010: b33f 2bb7 8844 77b7 7cc8 c1b7 33c7 cfb7
00000020: e1cc 87b6 55be c437 9f25 13b8 8289 b5b7
00000030: 6bba ba37 0180 fcb7 9972 2537 34b2 94b7
00000040: 6ea5 e7b7 6785 0cb8 6810 acb7 7aca 4c37
00000050: 1b46 deb7 fa21 17b7 ddca 4cb7 139e 4936
00000060: d7a2 93b7 4f96 28b6 e229 e2b7 3f39 1fb7
00000070: ee6a f436 080c b336 e754 06b7 7502 06b7

module.net_sm.bn1.running_var f4 [32]
0.0025907564 0.0019757177 0.002723391 0.0017701655 0.0027469483 0.0016344826 0.0019471064 0.002212589
0.0024955599 0.0030119794 0.0031194743 0.0022755852 0.0021126808 0.0021554641 0.0024949298 0.0016596306
0.0026749936 0.00364909 0.0019735792 0.0069680866 0.0019264059 0.0022497482 0.0011450395 0.0022132567
0.0016519283 0.0019041917 0.0020665582 0.002178216 0.0022227382 0.0019310873 0.003359528 0.0018826701
00000000: aec9 293b 0b7b 013b eb7a 323b e604 e83a
00000010: 2506 343b 233c d63a 0d36 ff3a 1501 113b
00000020: 8c8c 233b a164 453b 1870 4c3b fc21 153b
00000030: e774 0a3b b042 0d3b fa81 233b f687 d93a
00000040: f24e 2f3b 9225 6f3b 2a57 013b 8c54 e43b
00000050: 757f fc3a 8370 133b 2615 963a 490c 113b
00000060: 8485 d83a 1296 f93a 186f 073b 66c0 0e3b
00000070: 5cab 113b 8a1c fd3a 872b 5c3b edc3 f63a

module.net_sm.layer1.0.conv1.weight f4 [32, 32, 3, 3, 3]
0.028086979 -0.03679612 -0.0027646848 0.0370663 -0.10192731 -0.019867983 -0.034061633 0.0006900013
0.022222154 -0.014767765 -0.02069174 -0.040754203 0.07836721 0.05765559 0.044974748 0.0142001845
-0.071596734 -0.061145343 -0.01254771 0.0010483492 0.045989644 -0.079671584 -0.01057366 -0.046201624
0.06119146 0.014769758 -0.045094755 0.018773165 0.008510464 0.037692443 0.006635826 -0.051147092
-0.030622806 -0.040129073 0.0021379883 0.0039692814 0.013138957 0.07373973 -0.0149555905 -0.00400277
0.041708708 0.028182251 0.030281067 -0.08852722 0.02308298 0.05139934 0.015763346 -0.02624598
-0.01496685 0.029709343 -0.026864318 0.056171168 -0.016442662 -0.023913797 -0.00040667263 -0.10999908
0.014911182 -0.0070299045 0.018174393 0.04745837 0.0041676075 -0.073898844 -0.034681544 -0.039126333
0.023178402 -0.031204524 0.039188657 0.07298078 -0.013640105 0.018678289 0.002009179 -0.014998837
0.041285526 -0.062579475 -0.0006573266 0.06810188 0.046484772 -0.026866479 -0.026492931 0.0047830734
0.0014640756 0.005377841 -0.022725677 -0.033321574 -0.062331155 0.009065492 0.0040302114 -0.032977473
0.02540787 -0.0068328013 0.0057385345 0.0051661218 -0.021017538 -0.03143641 -0.094620675 -0.025760911
-0.0714541 -0.019242274 -0.0059746657 0.0016939264 -0.06328418 0.068938516 -0.0059441114 -0.040962134
0.024484597 -0.042502135 0.03023514 -0.021982044 0.013213102 -0.06419264 0.011359234 0.018484151
-0.049546268 0.004891395 0.0105939405 0.022365103 -0.008888382 0.026431499 0.030980047 -0.018310852
-0.029698566 -0.004544917 0.093692586 0.054789342 -0.05851269 0.061686523 0.023610733 0.0149164945
-0.00019111497 0.060693752 0.009154349 -0.0015522424 0.034810033 0.039212026 0.017866716 0.045534413
-0.03369442 -0.013949811 0.006325302 -0.05296281 -0.048648756 -0.0065880665 -0.004239526 0.06911354
-0.042054877 -0.06115701 0.03454425 -0.064119555 0.031543143 -0.02594854 0.02079171 0.0022552602
-0.012626054 0.011006204 0.020790158 0.025770199 0.005844469 0.040432107 0.010576681 -0.064134
-0.0024263228 -0.04394786 0.06708453 0.03827273 0.015927615 -0.0076687895 -0.03255723 -0.00838483
0.005214057 -0.1303778 -0.17593744 0.043075327 0.03233429 -0.04162299 -0.049047086 0.033706143
-0.05063022 -0.0023626387 -0.07607064 -0.05129395 -0.042982478 -0.013470976 0.005003526 -0.013802156
0.01958302 0.021332087 0.01216754 -0.016002625 -0.03800526 0.023538355 -0.03105345 -0.025689445
0.013907644 -0.049421918 -0.053121895 0.02164618 0.0022030056 -0.022301503 -0.023988772 0.058890454
-0.028877523 0.085334376 -0.041143566 -0.07043861 0.012170542 0.015297278 -0.013591736 0.0976068
0.0045363535 0.0045007262 0.05490224 0.0078029283 0.022046017 0.018624254 0.037584852 -0.06569675
0.023501202 -0.06169108 0.05756769 -0.01556761 0.08672924 0.0009497243 0.037704147 0.071942225
-0.019879851 0.061908297 0.025790373 0.03911315 0.0066327 0.039698012 -0.030254854 -0.037379593
0.06872511 0.006588264 0.0037707868 -0.02853154 0.004743299 0.07173894 0.014988953 0.036863465
0.05948398 -0.0111604445 0.034736853 0.022861574 -0.02640787 -0.019512108 -0.0043343417 -0.0034304238
-0.0023845367 0.060590543 -0.058611203 -0.01820499 0.069692776 0.06850176 0.082405485 0.023355441
00000000: aa16 e63c 87b7 16bd b72f 35bb d5d2 173d
00000010: 44bf d0bd 2ec2 a2bc 3684 0bbd 34e1 343a
00000020: 3c0b b63c 7ff4 71bc b981 a9bc e1ed 26bd
00000030: fd7e a03d 4528 6c3d 7137 383d e4a7 683c
00000040: 4fa1 92bd 8a73 7abd e994 4dbc c368 893a
00000050: a35f 3c3d db2a a3bd 253d 2dbc ea3d 3dbd
00000060: e5a3 7a3d dbfc 713c 47b5 38bd 2eca 993c
00000070: 796f 0b3c 6463 1a3d 5871 d93b 9d7f 51bd
00000080: aedc fabc 625e 24bd 7e1d 0c3b bf10 823b
00000090: c844 573c db04 973d 4b08 75bc ab29 83bb
000000a0: c0d6 2a3d 77de e63c 0010 f83c c24d b5bd
000000b0: 8518 bd3c 1d88 523d 2222 813c cf01 d7bc
000000c0: 8537 75bc 0261 f33c 8f12 dcbc bd13 663d
000000d0: c3b2 86bc dee6 c3bc ad36 d5b9 3347 e1bd
000000e0: 084e 743c 1d5b e6bb 77e2 943c b563 423d
000000f0: 6d90 883b 4758 97bd 3c0e 0ebd ef42 20bd
00000100: a2e0 bd3c a1a0 ffbc 4984 203d f276 953d
00000110: bf7a 5fbc 3603 993c 6eac 033b afbd 75bc
00000120: 031b 293d ab29 80bd 7150 2cba 0079 8b3d
00000130: d166 3e3d 1717 dcbc b407 d9bc 54bb 9c3b
00000140: 3ae6 bf3a 9a38 b03b 332b babc 347c 08bd
00000150: f44e 7fbd 6e87 143c dd0f 843b 6313 07bd
00000160: 2a24 d03c b1e5 dfbb 510a bc3b 9248 a93b
00000170: f92c acbc 77c3 00bd 7cc8 c1bd 8c08 d3bc
00000180: 8756 92bd f9a1 9dbc 21c7 c3bb bd06 de3a
00000190: 239b 81bd a32f 8d3d d2c6 c2bb e9c7 27bd
000001a0: ec93 c83c b816 2ebd afaf f73c b013 b4bc
000001b0: c47b 583c 6e77 83bd 151c 3a3c 136c 973c
000001c0: 07f1 4abd ff47 a03b 3592 2d3c 0537 b73c
000001d0: 94a0 11bc df86 d83c dec9 fd3c a400 96bc
000001e0: 684a f3bc 87ed 94bb e6e1 bf3d ca6a 603d
000001f0: 01ab 6fbd 02ab 7c3d 4c6b c13c 5064 743c
00000200: 0966 48b9 039a 783d 1ffc 153c 9d74 cbba
00000210: f794 0e3d ca9c 203d 385d 923c 4b82 3a3d
00000220: 2903 0abd c08d 64bc 7b44 cf3b 88ef 58bd
00000230: eb43 47bd b5e0 d7bb b9eb 8abb 668b 8d3d
00000240: bc41 2cbd c67f 7abd 467e 0d3d 1d51 83bd
00000250: 6233 013d 0892 d4bc 6053 aa3c fdcc 133b
00000260: 82dd 4ebc 5e53 343c 1f50 aa3c 061c d33c
00000270: f682 bf3b 239c 253d d149 2d3c b058 83bd
00000280: f102 1fbb ac02 34bd 9d63 893d dec3 1c3d
00000290: a17a 823c 784a fbbb bb5a 05bd 8760 09bc
000002a0: aeda aa3b c281 05be f228 34be c16f 303d
000002b0: f670 043d de7c 2abd 99e5 48bd 740f 0a3d
000002c0: a261 4fbd 80d6 1abb ecca 9bbd 9b19 52bd
000002d0: 650e 30bd 5eb5 5cbc 9ef4 a33b 7022 62bc
000002e0: 926c a03c a1c0 ae3c 5d5a 473c f017 83bc
000002f0: 67ab 1bbd 82d3 c03c ce63 febc ac72 d2bc
00000300: e3dc 633c a36e 4abd 5896 59bd 5453 b13c
00000310: 4d60 103b a4b1 b6bc 1a84 c4bc 1e37 713d
00000320: 8e90 ecbc cac3 ae3d 2886 28bd 1e42 90bd
00000330: f466 473c 6fa1 7a3c dfaf 5ebc 13e6 c73d
00000340: b1a5 943b d47a 933b 2ce1 603d b5af ff3b
00000350: d999 b43c e491 983c 93f2 193d 058c 86bd
00000360: 9885 c03c c9af 7cbd 19cc 6b3d 4a0f 7fbc
00000370: 1a9f b13d ebf6 783a aa6f 1a3d 7256 933d
00000380: 12db a2bc 8e93 7d3d 5546 d33c 1c35 203d
00000390: 1f57 d93b 629a 223d 07d9 f7bc 581b 19bd
000003a0: c0bf 8c3d 5de2 d73b 4e1f 773b faba e9bc
000003b0: ad6d 9b3b deeb 923d 3a94 753c 25fe 163d
000003c0: 79a5 733d 4cda 36bc 3b48 0e3d 3248 bb3c
000003d0: 5155 d8bc dbd7 9fbc 1807 8ebb f6d0 60bb
000003e0: e345 1cbb ca2d 783d 4d12 70bd a222 95bc
000003f0: 16bb 8e3d a74a 8c3d 35c4 a83d e953 bf3c

module.net_sm.layer1.0.bn1.weight f4 [32]
0.84724265 0.86024827 0.855549 0.8585133 0.8428562 0.88316154 0.8672833 0.8718167
0.8676721 0.84736174 0.8344023 0.87351435 0.8657298 0.86417204 0.8475961 0.8790937
0.863953 0.84848577 0.85409397 0.86847764 0.8698478 0.8451203 0.82933295 0.8587417
0.8770651 0.8572559 0.8715322 0.8641371 0.87401193 0.8420322 0.8371886 0.8683735
00000000: e5e4 583f 3b39 5c3f 4205 5b3f 87c7 5b3f
00000010: 6dc5 573f e016 623f 4706 5e3f 612f 5f3f
00000020: c21f 5e3f b3ec 583f 649b 553f a39e 5f3f
00000030: 78a0 5d3f 613a 5d3f 0ffc 583f 490c 613f
00000040: 062c 5d3f 5d36 593f e7a5 5a3f 8d54 5e3f
00000050: 58ae 5e3f ce59 583f 2a4f 543f 7fd6 5b3f
00000060: 5787 603f 1f75 5b3f bc1c 5f3f 1738 5d3f
00000070: 3fbf 5f3f 6c8f 573f fe51 563f ba4d 5e3f

module.net_sm.layer1.0.bn1.bias f4 [32]
-0.02757873 0.020007819 -5.581557e-05 0.020357009 -0.043809343 0.047110744 0.014272712 0.005369267
0.010974362 -0.029967494 -0.051633503 0.0061348337 -0.010272534 0.021664925 -0.00018321644 0.031176548
-0.00036610605 -0.026252242 0.011938746 0.007830898 -0.004268835 -0.015565555 -0.047176644 0.020362703
0.027655309 0.063598566 0.0016193086 0.022138385 0.039526846 0.010145992 -0.045798488 -0.014925738
00000000: caec e1bc 70e7 a33c 831b 6ab8 bec3 a63c
00000010: 6d71 33bd 32f7 403d 18d8 693c adf0 af3b
00000020: cfcd 333c 647e f5bc a77d 53bd b706 c93b
00000030: 214e 28bc a47a b13c ca1d 40b9 f665 ff3c
00000040: ecf1 bfb9 f10e d7bc bb9a 433c 2b4d 003c
00000050: 95e1 8bbb ab06 7fbc 4c3c 41bd afcf a63c
00000060: 638d e23c f73f 823d fb3e d43a 8f5b b53c
00000070: e7e6 213d 603b 263c 3297 3bbd 158b 74bc

module.net_sm.layer1.0.bn1.running_mean f4 [32]
-1.3409857 2.4039521 3.1134996 2.8219297 0.92072177 -0.055961803 -3.1553767 0.4543811
-0.460854 -2.3691068 -3.9463105 -0.21782857 -1.9636621 1.3604908 -0.40085885 -0.87053406
-0.24676827 -1.4370211 1.1265488 -0.22392 -1.0947719 0.60195124 -3.838337 1.5521197
-3.6756592 2.9067974 -0.062077194 0.36441788 1.4443082 1.3687829 0.75002134 0.35101125
00000000: 6ba5 abbf 5ada 1940 9443 4740 7f9a 3440
00000010: 6cb4 6b3f 3438 65bd b1f1 49c0 a4a4 e83e
00000020: 0ef5 ebbe 729f 17c0 5a90 7cc0 740e 5fbe
00000030: 4859 fbbf 9024 ae3f 5f3d cdbe 52db 5ebf
00000040: d2b0 7cbe 4ff0 b7bf c032 903f 494b 65be
00000050: 7c21 8cbf 7a19 1a3f 50a7 75c0 dcab c63f
00000060: 003e 6bc0 f808 3a40 a844 7ebd fb94 ba3e
00000070: 17df b83f 4734 af3f 6601 403f bfb7 b33e

module.net_sm.layer1.0.bn1.running_var f4 [32]
4.6099615 6.293007 12.458459 7.5756693 4.6229234 1.1028212 9.615342 1.5325788
1.2211308 5.631098 15.431354 3.4014788 5.332977 2.819746 2.2644582 4.9649243
3.5514731 2.6558099 2.855201 1.9516693 2.854866 2.6055195 14.756496 3.390957
14.637856 8.338472 1.7043047 0.8962102 3.357292 2.7898755 1.7349526 2.2192693
00000000: ce84 9340 5060 c940 d955 4741 e26b f240
00000010: fdee 9340 3f29 8d3f 71d8 1941 8b2b c43f
00000020: 044e 9c3f f431 b440 d3e6 7641 d4b1 5940
00000030: bfa7 aa40 b876 3440 e2ec 1040 a9e0 9e40
00000040: 564b 6340 caf8 2940 9dbb 3640 4dd0 f93f
00000050: 20b6 3640 d5c0 2640 9c1a 6c41 7105 5940
00000060: a834 6a41 626a 0541 a826 da3f 086e 653f
00000070: dfdd 5640 528d 3240 ed12 de3f 8208 0e40

module.net_sm.layer1.0.conv2.weight f4 [32, 32, 3, 3, 3]
-0.007921506 0.02233453 -0.0072408845 -0.0133645125 -0.06318363 0.0049298387 0.036210597 0.055342536
0.046290576 -0.074913464 -0.002658518 0.00943912 -0.027478015 0.022740552 0.02155928 -0.007743877
-0.03157668 0.04181792 0.021853486 -0.06896152 0.108837314 0.02438631 -0.06363836 0.015938815
0.012971836 -0.02534023 0.0130487345 -0.03314359 -0.009288329 0.03021134 -0.0700932 0.0093861995
0.026042482 0.0069476673 -0.0006127667 -0.06281056 0.007966902 0.029782662 -0.04279078 -0.034300506
0.031447295 -0.04520972 0.024227422 0.0017039825 -0.027150733 -0.0015029585 -0.022520024 -0.012889636
-0.030830475 0.034393497 0.03071347 -0.003572886 -0.045954388 -0.045124292 -0.01049723 0.0071725375
0.027623175 -0.047119148 -0.010098684 0.0004590517 -0.053918492 0.023511289 0.0061388444 -0.038918056
-0.009500351 0.06762205 0.0047679855 0.0063262186 0.025237031 0.0021459097 0.038557224 0.0084016
-0.043280955 -0.07849277 -0.021885278 -0.007790032 0.0049439655 0.04014674 0.041327495 -0.037939966
-0.016375069 -0.04336039 0.0010462977 -0.09797864 0.01515394 -0.005906121 0.0031882296 0.026355127
0.042051904 0.04024929 0.013698113 0.0068140184 0.027411709 0.010204249 -0.006895017 0.07552033
-0.0033302468 0.036499277 -0.07804758 0.045588445 -0.07336501 0.015319535 -0.018693347 0.052144192
-0.02381791 -0.06404348 -0.051803768 0.09337595 -0.002294233 0.05233205 -0.028923113 0.11925954
0.03023052 -0.07314379 -0.0019717426 -0.05489733 0.025953902 0.043555535 0.009757963 -0.019426333
0.027163211 0.01888893 0.013280675 -0.036381762 -0.02044769 -0.0541017 0.0331294 2.2959146e-05
-0.026810387 0.023087714 0.021568185 -0.043953493 0.033218764 0.0065452177 -0.02062071 -0.048272256
0.022382222 -0.052682403 -0.03825528 0.0007297009 0.0012312379 -0.05007183 0.07290796 0.013794039
0.054383997 -0.0010137673 0.012366684 -0.02057823 0.0066614314 -0.05584316 -0.024678392 -0.06132046
0.009471255 -0.058196146 0.028685624 -0.061694633 0.02122107 -0.03753231 0.091021225 -0.08022476
0.014398726 -0.016273905 0.0039013769 -0.084169924 0.0046259197 0.017755782 0.083153225 -0.03636466
-0.012022827 0.022176126 -0.0004725773 0.0011369614 0.016306566 0.0027576396 0.07409014 -0.010611914
-0.004238677 0.039123945 0.04660975 0.034265317 0.0058092917 0.0023647377 0.057097465 -0.015504855
0.06858099 -0.010284533 0.0048238905 -0.031285986 0.055678207 -0.011764909 0.008005665 0.060778875
-0.10566178 0.014876521 0.024937935 0.020343103 0.044737294 -0.10446595 0.018773273 -0.09480712
-0.027835725 -0.056497842 -0.05634778 0.081831984 -0.057130314 -0.0533943 0.015066971 0.036721095
-0.032324616 -0.03567417 -0.00010018343 0.001050547 0.011298444 0.012908084 -0.016108356 0.0095708575
-0.0065992577 -0.06901266 0.029319368 0.042428806 -0.057235055 -0.018607887 -0.054248467 -0.030839514
-0.027406018 -0.004561948 0.031521235 -0.077702254 -0.025977543 0.034070417 0.01465343 -0.0018663153
-0.007565039 -0.023457741 -0.070592165 -0.020175464 -0.059802476 0.07751093 0.008263796 0.013083837
0.021369558 -0.010286061 -0.03208428 0.021273674 -0.03031687 0.03233809 0.076017216 -0.0715855
-0.03810912 -0.045880124 0.054809105 -0.013443303 0.016038748 0.08618237 -0.042050377 -0.013003672
00000000: 34c9 01bc e7f6 b63c f144 edbb d4f6 5abc
00000010: 6b66 81bd 7c8a a13b 9051 143d dbae 623d
00000020: 309b 3d3d 3b6c 99bd 883a 2ebb 8aa6 1a3c
00000030: 9319 e1bc 654a ba3c 169d b03c 59c0 fdbb
00000040: 8c56 01bd 4449 2b3d 1506 b33c b33b 8dbd
00000050: 19e6 de3d ccc5 c73c d454 82bd 1e92 823c
00000060: d387 543c 5096 cfbc 5cca 553c 93c1 07bd
00000070: 132e 18bc c67d f73c 068d 8fbd 93c8 193c
00000080: 0b57 d53c 42a9 e33b 14a2 20ba d3a2 80bd
00000090: 9c87 023c c5fa f33c 6345 2fbd b07e 0cbd
000000a0: e1ce 003d d42d 39bd 9678 c63c 2a58 df3a
000000b0: 376b debc ebfe c4ba ea7b b8bc 0d2f 53bc
000000c0: 3190 fcbc 32e0 0c3d d19a fb3c 1527 6abb
000000d0: ab3a 3cbd 40d4 38bd 93fc 2bbc 9b07 eb3b
000000e0: ff49 e23c 0200 41bd f374 25bc e0ac f039
000000f0: a3d9 5cbd bf9a c03c 5c28 c93b 8a68 1fbd
00000100: 5ca7 1bbc 6e7d 8a3d c33c 9c3b 2b4c cf3b
00000110: e4bd ce3c 64a2 0c3b 2eee 1d3d dda6 093c
00000120: 5f47 31bd d1c0 a0bd c148 b3bc 8643 ffbb
00000130: fd00 a23b e870 243d 0547 293d f066 1bbd
00000140: 0225 86bc aa9a 31bd ed23 893a 06a9 c8bd
00000150: 3b48 783c 2288 c1bb 9ef1 503b b5e6 d73c
00000160: 9e3e 2c3d 71dc 243d 0d6e 603c 2148 df3b
00000170: 858e e03c b92f 273c 98ef e1bb 67aa 9a3d
00000180: 4540 5abb 4480 153d 69d7 9fbd f3ba 3a3d
00000190: 6540 96bd c9fe 7a3c ca22 99bc 2695 553d
000001a0: c71d c3bc 3a29 83bd 3030 54bd e43b bf3d
000001b0: d85a 16bb 225a 563d 2af0 ecbc 593e f43d
000001c0: ffa5 f73c 69cc 95bd 5a38 01bb 06dc 60bd
000001d0: 479d d43c 4a67 323d dddf 1f3c f923 9fbc
000001e0: 6285 de3c f5bc 9a3c 3097 593c 0b05 15bd
000001f0: ea81 a7bc bf99 5dbd b2b2 073d 6498 c037
00000200: 75a1 dbbc 7222 bd3c c3af b03c 9408 34bd
00000210: 6610 083d 4479 d63b c3ec a8bc 21b9 45bd
00000220: ec5a b73c 81c9 57bd 92b1 1cbd 6649 3f3a
00000230: 7d61 a13a 1f18 4dbd c550 953d 6500 623c
00000240: c1c1 5e3d 63e0 84ba a29d 4a3c ad93 a8bc
00000250: 2348 da3b ccbb 64bd 572a cabc 2a2b 7bbd
00000260: 532d 1b3c 155f 6ebd 1dfe ea3c 83b3 7cbd
00000270: cfd7 ad3c 7bbb 19bd 5669 ba3d e14c a4bd
00000280: a2e8 6b3c da50 85bc 3eae 7f3b 4861 acbd
00000290: 0795 973b 9374 913c 3d4c aa3d 1cf3 14bd
000002a0: 64fb 44bc b5aa b53c 40c4 f7b9 1806 953a
000002b0: 5995 853c 84b9 343b 92bc 973d 98dd 2dbc
000002c0: 9ae4 8abb 6e40 203d dde9 3e3d ca59 0c3d
000002d0: df5b be3b b7f9 1a3b 08df 693d 1308 7ebc
000002e0: 3174 8c3d 7580 28bc ba11 9e3b bc25 00bd
000002f0: d50e 643d 9bc1 40bc 312a 033c 45f3 783d
00000300: 3465 d8bd a7bc 733c a44a cc3c 94a6 a63c
00000310: 743e 373d 3ef2 d5bd 68ca 993c 3c2a c2bd
00000320: bf07 e4bc 486a 67bd eecc 66bd 8797 a73d
00000330: 7a01 6abd fbb3 5abd 75db 763c dc68 163d
00000340: d166 04bd 141f 12bd 9219 d2b8 82b2 893a
00000350: 1c1d 393c 6e7c 533c acf5 83bc 16cf 1c3c
00000360: 963e d8bb 8256 8dbd 2c2f f03c d4c9 2d3d
00000370: 4e6f 6abd 916f 98bc a433 5ebd 26a3 fcbc
00000380: 9682 e0bc 657c 95bb 691c 013d 5c22 9fbd
00000390: dbce d4bc 6c8d 0b3d f114 703c 269f f4ba
000003a0: 26e4 f7bb 732a c0bc a092 90bd 0447 a5bc
000003b0: 71f3 74bd 0dbe 9e3d df64 073c 975d 563c
000003c0: 360f af3c de86 28bc ce6a 03bd 2146 ae3c
000003d0: 165b f8bc f274 043d eaae 9b3d 6b9b 92bd
000003e0: 4f18 1cbd ccec 3bbd 837f 603d 4d41 5cbc
000003f0: b163 833c 6280 b03d 043d 2cbd 5a0d 55bc

module.net_sm.layer1.0.bn2.weight f4 [32]
0.85395116 0.8346302 0.8078571 0.83395463 0.8557934 0.8420092 0.8491787 0.8761334
0.8522353 0.852213 0.8424508 0.8105507 0.8429478 0.841206 0.86712515 0.8174334
0.80370903 0.8566692 0.8218572 0.81001747 0.84791297 0.838993 0.85679334 0.7857994
0.8558768 0.85289997 0.81755793 0.8597077 0.8806 0.8230234 0.8423217 0.85687333
00000000: 8b9c 5a3f 53aa 553f b9cf 4e3f 0d7e 553f
00000010: 4715 5b3f ea8d 573f c663 593f 474a 603f
00000020: 182c 5a3f a22a 5a3f dbaa 573f 4080 4f3f
00000030: 6dcb 573f 4759 573f eafb 5d3f 5143 513f
00000040: e0bf 4d3f ac4e 5b3f 3c65 523f 4e5d 4f3f
00000050: d310 593f 3fc8 563f cf56 5b3f 262a 493f
00000060: be1a 5b3f a757 5a3f 7a4b 513f ce15 5c3f
00000070: 006f 613f a9b1 523f 65a2 573f 0d5c 5b3f

module.net_sm.layer1.0.bn2.bias f4 [32]
0.003639573 -0.0021029217 0.02193431 0.005855102 0.0025952256 0.0066377837 0.00892233 0.007667474
-0.004198331 0.0058411225 0.007680022 0.023274243 0.007921976 -0.007977151 -0.0020006564 0.0015953946
0.0084258765 0.008567932 0.009022542 0.00026504495 0.017029256 0.0039093234 0.010620232 0.005472089
-0.0019663149 0.0012675616 -0.007923522 -0.0017033526 -0.0015898454 0.008747968 0.005902531 0.00543655
00000000: e785 6e3b 2cd1 09bb 95af b33c 28dc bf3b
00000010: a914 2a3b c481 d93b f72e 123c 6f3f fb3b
00000020: 2792 89bb e366 bf3b b2a8 fb3b a0a9 be3c
00000030: 2dcb 013c 99b2 02bc 721d 03bb 8f1c d13a
00000040: b00c 0a3c 8360 0c3c 49d3 133c bbf5 8a39
00000050: f080 8b3c c819 803b 7b00 2e3c 364f b33b
00000060: 4add 00bb 4f24 a63a a9d1 01bc 0743 dfba
00000070: 5c62 d0ba a353 0f3c 056a c13b 1625 b23b

module.net_sm.layer1.0.bn2.running_mean f4 [32]
-0.6304126 -0.6220067 0.5726453 -0.46003103 -0.67423415 -1.0282229 -0.9946061 -0.45067388
-0.23527066 -0.83416533 -1.4650279 -0.33406478 -0.93037534 0.04128742 -0.44130042 0.0678029
0.49465474 -1.4520117 0.6474379 0.45458215 -0.78657585 -0.30018908 -0.8384078 0.3065876
0.20996077 -0.31760308 -0.73039734 -0.7152296 -0.04288018 1.2455705 -1.2556472 -0.21674444
00000000: b862 21bf d53b 1fbf e298 123f 3089 ebbe
00000010: 9c9a 2cbf cf9c 83bf 819e 7ebf babe e6be
00000020: cbea 70be dc8b 55bf 0986 bbbf 8a0a abbe
00000030: 142d 6ebf ff1c 293d 21f2 e1be 3fdc 8a3d
00000040: 6343 fd3e 85db b9bf 7dbe 253f febe e83e
00000050: 095d 49bf 62b2 99be e5a1 56bf 0df9 9c3e
00000060: f5ff 563e df9c a2be 52fb 3abf 4919 37bf
00000070: 21a3 2fbd db6e 9f3f 0cb9 a0bf 41f2 5dbe

module.net_sm.layer1.0.bn2.running_var f4 [32]
1.3222716 0.7700317 0.7831835 0.51960915 3.4011157 2.1380718 2.576284 2.4591684
1.8646343 1.7550306 1.9737937 0.98743725 1.9381512 0.7856205 3.0277991 0.8960776
0.7723431 1.5627123 1.1663249 3.5738564 1.1920272 0.91114146 1.0084333 1.1452714
0.57068974 0.7442501 1.5249549 1.6296228 2.0738554 1.546352 4.0699196 1.4058434
00000000: 3240 a93f cc20 453f b77e 483f 1b05 053f
00000010: e1ab 5940 2bd6 0840 d6e1 2440 0463 1d40
00000020: 56ac ee3f d8a4 e03f 46a5 fc3f b0c8 7c3f
00000030: 5715 f83f 6d1e 493f 76c7 4140 5765 653f
00000040: 47b8 453f f506 c83f 224a 953f 10ba 6440
00000050: 5994 983f 9140 693f 5814 813f 4198 923f
00000060: b918 123f 2d87 3e3f b931 c33f 7b97 d03f
00000070: 0cba 0440 ddee c53f c83c 8240 adf2 b33f

module.net_sm.layer2.0.conv1.weight f4 [32, 32, 3, 3, 3]
-0.037202995 -0.054894205 0.010126122 0.08964966 0.075370155 0.03559148 -0.022853475 0.02677203
0.0063603437 0.028371686 0.08011304 0.02999161 0.05389445 0.008295449 0.03654407 0.10708981
-0.026451174 0.036854275 0.0013072422 -0.011512343 0.014740599 -0.0126827955 0.029675264 0.004324385
0.016851343 -0.03216163 0.04512906 -0.0731859 -0.060948234 0.0077409223 -0.042197797 -0.052515972
-0.09381567 0.031218298 -0.0049771355 -0.0010279447 0.022327779 0.014480999 0.024745751 -0.019630257
0.032559402 0.0902727 0.0028863705 -0.053417888 0.024055097 -0.028423425 0.022491682 0.06603586
-0.008940293 0.05896982 -0.0016802576 0.013678433 -0.07064263 0.10291131 0.05767866 -0.061111085
0.012232056 -0.05508365 0.024968563 -0.09201039 0.055845197 0.05170538 -0.021478653 -0.002880794
-0.01062925 -0.023339085 -0.102467775 0.0012010782 -0.007852586 -0.010530091 0.021890242 -0.03557007
0.0074130185 -0.038655166 0.009056876 -0.053390052 0.033866767 -0.00089653133 0.11029952 0.048225507
0.04896599 -0.036477197 -0.03768261 -0.056788184 -0.029852968 -0.051048804 -0.024604017 -0.015631078
0.01008972 -0.028416865 -1.2331409e-06 -0.054047436 0.0030354562 -0.034432534 0.05381244 -0.02434837
-0.019189253 -0.02113555 0.010733599 -0.09263908 0.07661955 -0.031924292 -0.00958484 0.0012649819
-0.011042187 0.0013062084 0.076430775 0.005513486 0.089619294 -0.0017461182 0.0099278055 -0.0067122695
-0.02088071 0.050750326 0.117270775 -0.036787998 0.070833854 -0.026780823 0.06202567 0.0508531
0.036335543 0.0119561935 0.017024197 0.006164833 -0.046756744 0.134056 0.012383396 -5.2578078e-05
-0.007510111 0.06782252 0.08989782 0.032080084 0.076738544 0.019478653 0.019767355 0.06729168
0.06402231 -0.015312681 -0.0017649736 0.031162826 -0.008014892 -0.013484644 -0.10992349 -0.021189198
-0.013223644 0.07230839 0.020582553 -0.040760487 -0.049325783 0.029647388 -0.03583709 -0.06295821
0.043688804 -0.006013535 -0.04338813 -0.0055101328 -0.084138274 0.04019622 -0.0060789916 0.037238788
-0.044785094 0.11406401 0.007891089 0.026085274 -0.0013748083 0.052160516 0.070163205 -0.06472327
0.06652617 -0.04136854 -0.051160205 0.07037631 0.011244868 0.0344433 0.00018982663 0.024128132
-0.028612236 -0.018470902 0.039442003 -0.0140534155 -0.012507176 -0.019528322 -0.032645006 -0.051449265
-0.0111880945 0.021898694 0.0034650862 0.020323519 -0.019358395 0.020991854 0.035535384 0.04862951
0.028536242 -0.044682283 -0.01726916 0.08341971 0.01323588 0.058413208 -0.023118433 -0.012497612
0.094957635 0.079036824 0.0037861145 0.07004468 0.03972931 0.06794215 -0.0077382727 0.04412965
-0.022418126 -0.010856546 0.054746125 0.0030060855 -0.05197363 0.09886773 0.10625013 0.042169284
0.059856977 0.0075469567 0.08773176 0.047123954 0.014651216 -0.04443926 0.050989933 -0.011617101
-0.0028376721 0.051289983 0.05093181 -0.041423865 -0.038849685 0.0098074125 0.017041758 0.035028532
0.04720881 -0.056013953 0.053211357 -0.034426417 -0.008127917 0.011149816 0.037051402 0.022126378
0.019759018 -0.0012436607 -0.049449757 -0.02449544 0.08715823 0.0795789 -0.024514092 0.048823934
-0.041746173 -0.017374456 0.045713067 0.016124727 0.010121775 -0.0516064 0.048713744 0.03378842
00000000: 2b62 18bd bfd8 60bd 09e8 253c 3e9a b73d
00000010: ab5b 9a3d 5fc8 113d 3637 bbbc 0451 db3c
00000020: 6e6a d03b bd6b e83c 4e12 a43d f7b0 f53c
00000030: 6dc0 5c3d a3e9 073c 3caf 153d e751 db3d
00000040: 22b0 d8bc 82f4 163d c557 ab3a 449e 3cbc
00000050: 8e82 713c 80cb 4fbc 8a19 f33c 92b3 8d3b
00000060: d40b 8a3c eabb 03bd 40d9 383d 7de2 95bd
00000070: dba4 79bd 90a7 fd3b 99d7 2cbd fd1a 57bd
00000080: 6e22 c0bd 84bd ff3c 3d17 a3bb 1abc 86ba
00000090: bfe8 b63c b641 6d3c 9ab7 ca3c a2cf a0bc
000000a0: 025d 053d e5e0 b83d 4329 3d3b b7cc 5abd
000000b0: 320f c53c 3ed8 e8bc 7a40 b83c cf3d 873d
000000c0: 4f7a 12bc 578a 713d 173c dcba 821b 603c
000000d0: 15ad 90bd 2ac3 d23d 7540 6c3d 9e4f 7abd
000000e0: f668 483c 659f 61bd df8a cc3c f16f bcbd
000000f0: efbd 643d 05c9 533d 00f4 afbc b4cb 3cbb
00000100: 4e26 2ebc 9c31 bfbc a0da d1bd 7f6d 9d3a
00000110: 22a8 00bc 6786 2cbc 2a53 b33c ecb1 11bd
00000120: e8e8 f23b e154 1ebd 4b63 143c 87af 5abd
00000130: e1b7 0a3d 3305 6bba b7e4 e13d 1c88 453d
00000140: 9090 483d 1d69 15bd 1559 1abd ba9a 68bd
00000150: 368e f4bc 8d18 51bd 5d8e c9bc bf0c 80bc
00000160: 5a4f 253c 7cca e8bc 6682 a5b5 d860 5dbd
00000170: 81ee 463b 2109 0dbd 6f6a 5c3d 3c76 c7bc
00000180: c832 9dbc 7624 adbc fadb 2f3c 8fb9 bdbd
00000190: b6ea 9c3d 0cc3 02bd bc09 1dbc c0cd a53a
000001a0: 4aea 34bc 1535 ab3a bd87 9c3d 79aa b43b
000001b0: 528a b73d 01de e4ba 3ca8 223c 99f2 dbbb
000001c0: 060e abbc 93df 4f3d a92b f03d 03af 16bd
000001d0: 5711 913d 7563 dbbc a10e 7e3d 574b 503d
000001e0: 94d4 143d e9e3 433c 5476 8b3c 5e02 ca3b
000001f0: 0084 3fbd fa45 093e bae3 4a3c 4887 5cb8
00000200: 6117 f6bb 89e6 8a3d 591c b83d 6866 033d
00000210: 1929 9d3d b291 9f3c 26ef a13c 38d0 893d
00000220: 211e 833d 0ae2 7abc b056 e7ba 2f49 ff3c
00000230: e550 03bc b2ee 5cbc 911f e1bd f894 adbc
00000240: fca7 58bc 6c16 943d be9c a83c 78f4 26bd
00000250: d509 4abd 14df f23c eac9 12bd 3cf0 80bd
00000260: 08f3 323d 300d c5bb c0b7 31bd 588e b4bb
00000270: b050 acbd cba4 243d 4732 c7bb b387 183d
00000280: 9370 37bd 649a e93d a049 013c c9b0 d53c
00000290: e932 b4ba 44a6 553d bab1 8f3d a28d 84bd
000002a0: df3e 883d 0f72 29bd 5d8d 51bd 7421 903d
000002b0: 653c 383c 6b14 0d3d 330c 4739 5ca8 c53c
000002c0: 3564 eabc 4a50 97bc f08d 213d 4c40 66bc
000002d0: e6ea 4cbc dcf9 9fbc c5b6 05bd 77bc 52bd
000002e0: 454e 37bc e464 b33c 8016 633b 827d a63c
000002f0: 7f95 9ebc 1cf7 ab3c 8d8d 113d bd2f 473d
00000300: d6c4 e93c c504 37bd 0e78 8dbc f4d7 aa3d
00000310: 4edb 583c b042 6f3d de62 bdbc c9c2 4cbc
00000320: 2679 c23d 0fde a13d 7620 783b 9673 8f3d
00000330: 33bb 223d 4125 8b3d 5691 fdbb 4bc1 343d
00000340: 38a6 b7bc a8df 31bc 793d 603d bf01 453b
00000350: 4de2 54bd 2a7b ca3d ab99 d93d b3b9 2c3d
00000360: 972c 753d 764c f73b b6ac b33d 0c05 413d
00000370: a70b 703c f105 36bd d2da 503d a755 3ebc
00000380: 3df8 39bb 7215 523d e09d 503d 12ac 29bd
00000390: d920 1fbd 45af 203c 289b 8b3c 147a 0f3d
000003a0: 065e 413d e36e 65bd 27f4 593d b702 0dbd
000003b0: f42a 05bc b8ad 363c 36c3 173d 6142 b53c
000003c0: aadd a13c 5402 a3ba d48b 4abd a9aa c8bc
000003d0: 0480 b23d 43fa a23d c7d1 c8bc 9bfb 473d
000003e0: 09fe 2abd e054 8ebc a03d 3b3d 0118 843c
000003f0: cdd5 253c 3c61 53bd 1088 473d ba65 0a3d

module.net_sm.layer2.0.bn1.weight f4 [32]
0.84201664 0.86987394 0.86118346 0.8613193 0.86619335 0.84259135 0.87552303 0.8594414
0.8468509 0.84865665 0.85378265 0.8567968 0.8632525 0.87180245 0.86553925 0.87627554
0.8563432 0.83993185 0.85572845 0.862109 0.8488224 0.8563626 0.8776171 0.86172694
0.8626113 0.8514783 0.851546 0.8615608 0.8681838 0.86075807 0.86458015 0.859227
00000000: 678e 573f 0fb0 5e3f 8576 5c3f 6c7f 5c3f
00000010: d9be 5d3f 11b4 573f 4722 603f 5a04 5c3f
00000020: 38cb 583f 9041 593f 8091 5a3f 0957 5b3f
00000030: 1efe 5c3f 722e 5f3f fb93 5d3f 9853 603f
00000040: 4f39 5b3f c605 573f 0511 5b3f 2db3 5c3f
00000050: 6d4c 593f 943a 5b3f 84ab 603f 239a 5c3f
00000060: 18d4 5c3f 7bfa 593f ebfe 593f 408f 5c3f
00000070: 4b41 5e3f a45a 5c3f 2055 5d3f 4df6 5b3f

module.net_sm.layer2.0.bn1.bias f4 [32]
0.011333998 -0.0161304 -0.012307408 0.029629435 -0.0117272595 -0.0082363505 -0.007422445 -0.00948164
0.002423625 -0.018006666 -0.026762933 0.0052021416 0.0038535616 0.0023366592 0.011386724 0.019880245
-0.01596466 -0.030655889 -0.009399932 0.009555111 0.009918263 0.0017636452 0.0123344585 -0.009273069
0.035556283 -0.0009896815 0.024843903 0.0053011356 -0.010221246 0.0076234164 -0.00863693 -0.02919485
00000000: 3cb2 393c e723 84bc 03a5 49bc 6eb9 f23c
00000010: b123 40bc c2f1 06bc fb37 f3bb e158 1bbc
00000020: aed5 1e3b b782 93bc f03d dbbc ba76 aa3b
00000030: 098c 7c3b a322 193b 628f 3a3c e5db a23c
00000040: 52c8 82bc 0f22 fbbc 2c02 1abc 0a8d 1c3c
00000050: 3680 223c 1d2a e73a 7816 4a3c 12ee 17bc
00000060: 77a3 113d 33b8 81ba 7185 cb3c 26b5 ad3b
00000070: 0377 27bc dacd f93b e981 0dbc 0a2a efbc

module.net_sm.layer2.0.bn1.running_mean f4 [32]
2.4089937 -3.6170127 2.1295831 4.290169 -0.63788724 -0.6316738 -0.41326258 3.9004726
3.3116658 -1.7783763 -0.39278916 -1.566161 1.3194462 1.0755087 0.39350808 0.6698314
-2.909662 -3.10689 -3.4189062 4.5443187 0.6878553 -0.01125036 0.5674624 -2.173827
3.7125807 -1.5293661 4.5269756 -2.0306222 0.2898421 2.0965908 -3.165723 -2.533254
00000000: f42c 1a40 237d 67c0 174b 0840 1049 8940
00000010: 944c 23bf 60b5 21bf 2797 d3be 58a1 7940
00000020: 55f2 5340 d6a1 e3bf a91b c9be f777 c8bf
00000030: 9de3 a83f 45aa 893f e479 c93e 127a 2b3f
00000040: e737 3ac0 49d7 46c0 5ccf 5ac0 0f6b 9140
00000050: 4917 303f 6e53 38bc 3745 113f fb1f 0bc0
00000060: ec9a 6d40 45c2 c3bf fcdc 9040 b7f5 01c0
00000070: 2f66 943e 8b2e 0640 359b 4ac0 d520 22c0

module.net_sm.layer2.0.bn1.running_var f4 [32]
2.0100794 9.6997385 9.394 9.071256 4.2139497 2.660152 2.7448008 13.137189
7.5351205 4.3417645 2.0215816 2.1419437 3.5251822 4.0786667 1.1227587 2.5720088
2.4489894 9.461105 3.8933048 9.097083 1.5252118 1.2780223 2.662595 5.1246223
9.084956 4.4608927 10.297979 3.4797091 1.3455799 3.0933838 5.709112 3.2151065
00000000: 24a5 0040 2132 1b41 d34d 1641 dd23 1141
00000010: add8 8640 ee3f 2a40 d1aa 2f40 ed31 5241
00000020: b51f f140 bcef 8a40 9861 0140 9b15 0940
00000030: 969c 6140 7084 8240 8fb6 8f3f cb9b 2440
00000040: 3ebc 1c40 b060 1741 e82b 7940 a78d 1141
00000050: 243a c33f 3c96 a33f f567 2a40 e8fc a340
00000060: fb5b 1141 a2bf 8e40 86c4 2441 8eb3 5e40
00000070: f63b ac3f 00fa 4540 0cb1 b640 4ec4 4d40

module.net_sm.layer2.0.conv2.weight f4 [32, 32, 3, 3, 3]
0.024711633 -0.062489606 -0.011578954 0.039122093 0.080359496 -0.06519778 -0.011159484 0.019696832
-0.022057502 -0.071209036 0.0023132914 -0.01648876 -0.030519098 0.0031309691 -0.007129368 0.049326267
-0.05954155 -0.07221128 0.0061176987 -0.026865622 0.041184917 0.0515932 -0.0824241 -0.015313549
0.010058413 -0.013886522 -0.04159599 0.090096585 0.08328161 0.013923922 -0.053928237 -0.055889558
0.01837902 0.0060936525 0.016357414 0.023685753 -0.022596993 -0.0061063324 0.024623599 0.06672156
-0.0068383934 0.01765587 -0.03312533 0.0014325527 0.0479196 -0.021275545 -0.039274 0.06672433
0.020663338 0.011970609 0.047747906 0.032896623 -0.00034536546 0.042402618 -0.009515528 0.055373307
-0.0020070006 0.009664039 -0.0078577 0.022026801 0.0111570135 -0.11519369 0.007861794 -0.038805593
0.043727443 -0.008574915 -0.0072445087 -0.032082856 -0.02460033 -0.008645155 -0.061712626 -0.0165147
-0.052485146 0.039963514 -0.094235785 0.016905675 0.0007017142 0.04745831 -0.016116401 -0.00025229386
0.0019451255 0.0005377452 -0.04365184 0.0423115 -0.004501749 0.048883107 0.017174575 -0.0012936279
-0.026381854 0.039115477 0.017695088 -0.013446384 -0.03432234 -0.013650486 0.039720703 0.0020040667
-0.10916821 -0.05571368 -0.04028876 0.009496251 0.008349796 -0.04433401 -0.027438924 -0.039719332
0.03188351 0.0025001909 -0.03250489 0.040937934 0.027306274 -0.06903332 -0.022959772 0.010884912
-0.017483957 -0.031990707 0.009494162 0.06847667 0.0788092 -0.08510276 0.068057396 -0.014011356
0.021600178 0.01658563 -0.028282652 0.043629985 0.015332705 0.06378455 -0.029615974 -0.03660995
0.01437395 0.08446556 0.022271568 0.08166157 -0.07506319 -0.059556127 -0.022685066 0.06156127
0.045421842 -0.0011594922 -0.006489109 -0.041926306 -0.01068637 0.039096933 0.07873877 -0.09931357
-0.02851667 0.0055588773 0.022905683 0.061240323 0.008732799 -0.024412015 0.019719943 -0.02067198
-0.0002599157 -0.04405076 0.0012929766 0.036945134 -0.046677962 -0.024291221 -0.019915743 -0.07639743
0.014759434 -0.054397672 -0.032302216 0.00013341516 0.062713966 -0.021635337 -0.036159337 0.013486959
-0.07534683 0.023824625 -0.09181361 0.012252324 0.06894959 0.025109356 0.02131824 0.010457527
-0.018747874 -0.032177772 0.01167776 0.05985413 -0.04002076 -0.06878879 -0.034394033 -0.031084307
-0.021456374 0.052560315 -0.00024907565 0.054870285 0.06205876 -0.04156602 0.009175967 -0.056353804
-0.04276835 0.040958297 -0.050386492 0.047115464 0.057591747 -0.029443579 0.016639054 0.06358266
0.004387365 0.0432962 0.04502365 0.11677499 0.05924414 -0.056573655 -0.021338848 -0.06969553
0.01393924 -0.023236664 -0.053038653 0.035158224 -0.0186347 -0.014783832 -0.053222734 -0.10627951
-0.096480526 0.004975514 -0.054309234 -0.004442908 -0.031771254 -0.010122804 -0.026741704 0.04933583
0.014894377 -0.0096068205 -0.035074927 -0.07389375 -0.03330386 -0.011348262 -0.052033067 0.016341848
0.018304007 0.015030916 -0.02249913 0.01131464 -0.1049068 -0.025583554 -0.06390878 -0.03991112
-0.017069535 -0.004655876 -0.054746702 0.012767733 0.0057120044 -0.009272427 0.0090391785 -0.0598258
0.036298238 -0.000896965 -0.027039878 0.0426626 0.023455715 0.018547952 0.007096001 -0.008060309
00000000: 0d70 ca3c 1af5 7fbd a7b5 3dbc 7d3e 203d
00000010: 8593 a43d 6a86 85bd 45d6 36bc 405b a13c
00000020: efb1 b4bc 0bd6 91bd 979a 173b 7013 87bc
00000030: 3003 fabc f230 4d3b 799d e9bb 570a 4a3d
00000040: d7e1 73bd 82e3 93bd fa76 c83b 4b15 dcbc
00000050: 84b1 283d 6453 533d f7cd a8bd aee5 7abc
00000060: 0bcc 243c 4b84 63bc 8f60 2abd 8f84 b83d
00000070: 8c8f aa3d 2921 643c dbe3 5cbd 73ec 64bd
00000080: 998f 963c 43ad c73b fcff 853c a008 c23c
00000090: 541d b9bc a117 c8bb 6eb7 c93c 50a5 883d
000000a0: 9a14 e0bb 0ba3 903c 6dae 07bd 7ec4 bb3a
000000b0: 5847 443d 0d4a aebc c6dd 20bd c4a6 883d
000000c0: 2946 a93c 6020 443c 4f93 433d 9cbe 063d
000000d0: 2b12 b5b9 5eae 2d3d 04e7 1bbc 1fcf 623d
000000e0: e287 03bb eb55 1e3c 95bd 00bc 8d71 b43c
000000f0: e8cb 363c abea ebbd c1ce 003c 9df2 1ebd
00000100: 8c1b 333d cd7d 0cbc 5863 edbb 5069 03bd
00000110: a286 c9bc 68a4 0dbc 61c6 7cbd d649 87bc
00000120: aafa 56bd c8b0 233d b1fe c0bd c57d 8a3c
00000130: 3ef3 373a a563 423d 8b06 84bc 4f46 84b9
00000140: 95f3 fe3a 78f7 0c3a 46cc 32bd d34e 2d3d
00000150: 6883 93bb a739 483d b2b1 8c3c f38e a9ba
00000160: c21e d8bc 8d37 203d 4af5 903c 394e 5cbc
00000170: 9595 0cbd 4aa6 5fbc 2db2 223d a956 033b
00000180: 9593 dfbd 0734 64bd d405 25bd 2a96 1b3c
00000190: 95cd 083c 9497 35bd 98c7 e0bc bdb0 22bd
000001a0: 4998 023d 3eda 233b d923 05bd 89ae 273d
000001b0: 68b1 df3c 5761 8dbd 2216 bcbc a156 323c
000001c0: 843a 8fbc b008 03bd 678d 1b3c 7f3d 8c3d
000001d0: b866 a13d 5b4a aebd ad61 8b3d e38f 65bc
000001e0: dbf2 b03c 96de 873c 05b1 e7bc 5bb5 323d
000001f0: 0736 7b3c 79a1 823d 339d f2bc 51f4 15bd
00000200: b780 6b3c 48fc ac3d dd72 b63c 2e3e a73d
00000210: bbba 99bd 20f1 73bd 08d6 b9bc ac27 7c3d
00000220: 410c 3a3d 1afa 97ba 97a2 d4bb ebba 2bbd
00000230: e215 2fbc 1b24 203d cb41 a13d ea64 cbbd
00000240: cb9b e9bc 3e27 b63b b3a4 bb3c 22d7 7a3d
00000250: 0414 0f3c b5fb c7bc b88b a13c 4958 a9bc
00000260: 4b45 88b9 926e 34bd 1879 a93a c853 173d
00000270: 6431 3fbd 62fe c6bc 5726 a3bc 4176 9cbd
00000280: 8ed1 713c 18d0 5ebd 544f 04bd 5ce5 0b39
00000290: 2e70 803d 973c b1bc d01b 14bd 68f8 5c3c
000002a0: 704f 9abd dc2b c33c c608 bcbd f9bd 483c
000002b0: 7135 8d3d 23b2 cd3c 97a3 ae3c 0c56 2b3c
000002c0: 2495 99bc d7cc 03bd 1354 3f3c 9b29 753d
000002d0: cfec 23bd 23e1 8cbd c2e0 0cbd 84a4 febc
000002e0: 47c5 afbc 7c49 573d 5e96 82b9 aabf 603d
000002f0: 5431 7e3d 2241 2abd cc56 163c 3fd3 66bd
00000300: de2d 2fbd e3c3 273d 1162 4ebd 25fc 403d
00000310: 53e5 6b3d a933 f1bc a04e 883c a037 823d
00000320: e3c3 8f3b 5b57 313d b86a 383d ba27 ef3d
00000330: fca9 723d c7b9 67bd cfce aebc 88bc 8ebd
00000340: 6961 643c d15a bebc 0f3f 59bd 1202 103d
00000350: cca7 98bc e337 72bc 1500 5abd 12a9 d9bd
00000360: 9597 c5bd a309 a33b 5c73 5ebd d095 91bb
00000370: 9322 02bd 1eda 25bc 6b11 dbbc 5e14 4a3d
00000380: 8c07 743c ed65 1dbc baaa 0fbd 9b55 97bd
00000390: a169 08bd 10ee 39bc a020 55bd 57df 853c
000003a0: 49f2 953c 3b44 763c 1850 b8bc 0a61 393c
000003b0: 60d9 d6bd 9a94 d1bc 9be2 82bd d879 23bd
000003c0: 69d5 8bbc 5290 98bb 143e 60bd c12f 513c
000003d0: c42b bb3b 61eb 17bc 1019 143c e60b 75bd
000003e0: 76ad 143d 4d22 6bba bc82 ddbc fabe 2e3d
000003f0: 3326 c03c e0f1 973c 9285 e83b 630f 04bc

module.net_sm.layer2.0.bn2.weight f4 [32]
0.84982264 0.8468719 0.8340291 0.8841273 0.8574311 0.82617676 0.83381826 0.8176587
0.8293956 0.8433839 0.8527214 0.82706994 0.84977186 0.8378776 0.8291789 0.8299933
0.8526003 0.8479166 0.86909556 0.8451224 0.85459405 0.8169818 0.87270534 0.8297938
0.8441283 0.83816093 0.83180654 0.8361174 0.85977125 0.83534634 0.8441711 0.8529635
00000000: fa8d 593f 99cc 583f ee82 553f 2b56 623f
00000010: 9b80 5b3f 5280 533f 1d75 553f 1552 513f
00000020: 4553 543f 02e8 573f f34b 5a3f dbba 533f
00000030: a68a 593f 257f 563f 1245 543f 717a 543f
00000040: 0344 5a3f 1011 593f 0c7d 5e3f f159 583f
00000050: adc6 5a3f b825 513f 9e69 5f3f 5e6d 543f
00000060: cb18 583f b791 563f 46f1 543f ca0b 563f
00000070: f819 5c3f 42d9 553f 991b 583f d15b 5a3f

module.net_sm.layer2.0.bn2.bias f4 [32]
0.0004760591 -0.025958573 -0.0424978 0.013393652 0.007320721 0.0010754515 0.009288641 0.013061197
-0.017975109 -0.00074271875 -0.021225275 0.0091876285 -0.008622834 -0.015504347 -0.018600438 -0.021544334
-0.015424796 -0.010737744 -0.007104342 -0.013579383 0.0061328374 -0.009830175 -0.0010662378 -0.023660105
0.0032011801 0.006980381 -0.019320562 0.007912914 0.0245255 -0.026716413 -0.009470115 -0.016926708
00000000: 9297 f939 13a7 d4bc 2c12 2ebd 0c71 5b3c
00000010: a9e2 ef3b 2af6 8c3a 622f 183c a1fe 553c
00000020: 8940 93bc 03b3 42ba a1e0 adbc b587 163c
00000030: ca46 0dbc f205 7ebc f25f 98bc be7d b0bc
00000040: 49b8 7cbc 5ded 2fbc 8acb e8bb 0f7c 5ebc
00000050: f8f5 c83b be0e 21bc 01c1 8bba d6d2 c1bc
00000060: e4ca 513b aebb e43b 2846 9ebc 2ba5 013c
00000070: b4e9 c83c 61dc dabc 8b28 1bbc e1a9 8abc

module.net_sm.layer2.0.bn2.running_mean f4 [32]
-0.72294897 -0.64851385 -0.45006615 -1.0084908 -1.1864879 0.19026032 -0.9744249 0.074336514
-0.22888808 -0.49372256 -0.36635983 0.6139244 -0.1691979 -0.7475921 -0.8124161 0.78246915
-0.45460618 -0.87416625 -0.5463559 -0.4813428 0.7156569 -0.3932703 0.21374224 0.9138027
-0.8393881 1.1033756 -0.20230813 -0.090127245 -0.31133443 -0.027855191 0.3608218 -0.75111413
00000000: 2f13 39bf 0105 26bf 126f e6be 3a16 81bf
00000010: d6de 97bf 9ad3 423e e973 79bf be3d 983d
00000020: a361 6abe 34c9 fcbe 8493 bbbe 262a 1d3f
00000030: 3742 2dbe 3262 3fbf 80fa 4fbf e64f 483f
00000040: 24c2 e8be 5cc9 5fbf fbdd 0bbf 9072 f6be
00000050: 4a35 373f ba5a c9be 3fdf 5a3e f9ee 693f
00000060: 23e2 56bf 693b 8d3f dd29 4fbe a294 b8bd
00000070: 3a67 9fbe 9230 e4bc a3bd b83e 0449 40bf

module.net_sm.layer2.0.bn2.running_var f4 [32]
2.7484195 0.82330567 0.7959605 2.04766 2.0400634 0.4222059 2.6443152 0.3770932
0.8806947 3.1666956 0.76396906 1.0656143 0.566334 1.6481329 1.068899 0.73241633
1.0341728 1.6507783 0.96286315 0.8436987 1.3361272 0.4952658 0.74570477 0.9478331
0.879337 0.8340456 0.42527944 0.6131625 0.63700426 0.7791373 0.59213614 1.3992004
00000000: 1be6 2f40 29c4 523f 11c4 4b3f dd0c 0340
00000010: 6690 0240 5f2b d83e 763c 2940 5c12 c13e
00000020: 3575 613f 24ab 4a40 7a93 433f 0d66 883f
00000030: 44fb 103f 05f6 d23f afd1 883f a37f 3b3f
00000040: c65f 843f b44c d33f 337e 763f a3fc 573f
00000050: 3706 ab3f 7b93 fd3e 82e6 3e3f 31a5 723f
00000060: 3b1c 613f 0384 553f 3abe d93e 38f8 1c3f
00000070: b612 233f 8b75 473f 3c96 173f 0019 b33f
