model/model_20200914182941/model_final_mb6_2_0300_sm.pth (torch_old, 960817 bytes, 59 tensors)

module.net_sm.conv1.weight f4 [32, 1, 7, 7, 7]
-0.006944373 0.004931301 -0.034125376 0.0070095407 -0.0026219054 -0.043306965 -0.020843292 0.020656615
-0.00675172 0.0062662894 0.023731409 0.025015745 0.014820899 0.012285759 0.008574537 0.012384565
0.011476113 0.055346783 0.038847044 0.029413667 0.0064732344 -0.008168522 -0.0025867461 0.0040482446
0.040860962 0.045974948 0.016646227 -0.010664382 0.0021361713 0.027752085 0.01412543 0.0083258655
0.018461403 0.011259511 0.008183375 0.0032129795 0.027355038 0.020226657 0.019585399 -0.03183827
-0.018427532 -0.0133425 -0.0062145838 -0.002869465 -0.0006637494 0.0011189661 -0.022299381 0.007499167
-0.026021998 -0.014450375 -0.044834573 0.009023087 0.015285231 0.012595924 -0.023026338 -0.039836593
-0.0018035518 -0.014868489 -0.029248243 0.010969765 0.005475435 -0.0007851578 0.0124948155 -0.034800984
-0.0042071543 0.01123653 0.008182703 0.0142243765 -0.004892166 -0.035195705 -0.055238742 0.019480526
0.011681912 0.017081516 0.030172408 -0.023654744 -0.027950898 -0.0038689254 0.003219146 0.02136779
0.010539312 -0.00687472 -0.03763564 -0.035377365 -0.00014962525 0.006547612 -0.0025192352 -0.022149032
-0.01605155 -0.034101468 -0.03360595 0.016027823 0.0130630415 -0.014936855 -0.024395186 -0.02994217
-0.010709283 -0.02387551 -0.0031597181 -0.003095699 -0.0046473215 0.019407764 -0.020798624 -0.013253577
-0.03428494 -0.025146341 -0.013038368 -0.007918524 -0.021284718 -0.027281623 0.0012692293 0.008208497
-0.032457862 -0.0022266954 0.02600086 -0.01694676 0.012490621 0.033215594 -0.0006820281 -0.03163999
-0.016546128 0.0025122515 0.00093450415 -0.012819427 -0.0015455411 -0.024689086 -0.015090673 0.0247771
0.039551616 -0.000707974 -0.007814595 0.0041436423 -0.04815867 -0.043146733 -0.029970793 0.036146548
-0.0076399725 -0.011393256 -0.021547295 -0.0054454105 -0.011922018 -0.0069752415 0.025158593 -0.012635442
-0.0638678 -0.03599231 -0.012623806 -0.037075806 0.017273217 -0.0077527477 -0.01373511 -0.04469401
-0.0038422039 -0.011487252 -0.040817026 0.009984182 -0.0118303355 -0.029884359 -0.06390793 0.033434905
-0.015945079 -0.028428014 0.0034233024 -0.028608482 -0.0296158 -0.0032993143 0.032825153 -0.004008692
0.019339 -0.026226971 -0.026785886 -0.008405351 -0.03180249 -0.026619164 -0.01694508 -0.00051118317
-0.00636487 -0.014062165 -0.021129418 -0.010193972 -0.007935072 -0.004624821 -0.032335505 0.0038444577
0.0020477576 -0.05430507 -0.024531234 -0.011414698 -0.011013973 -0.0051873736 -0.02319167 -0.03755185
-0.0870066 -0.044380326 -0.004770872 -0.006296023 -0.04854929 -0.03640305 -0.049326804 -0.04858734
-0.022945823 0.008442513 0.0019027469 -0.010679439 -0.004858898 -0.036793426 -0.029612767 -0.03348568
0.010863728 -0.005941168 -0.03147806 -0.056372065 -0.034396447 -0.0139919575 -0.054427695 -0.028060846
0.011966526 0.0021135996 -0.056359854 -0.040118676 0.0052753147 -0.0042119827 -0.010737384 0.040787425
-0.0011126347 -0.04432621 -0.031119246 0.0029238139 -0.0004424601 -0.0024543798 0.02981473 -0.0069549996
-0.02032613 -0.039598446 -0.032608356 -0.013458083 0.002483743 0.0035308553 0.016077146 -0.007867566
-0.04468917 -0.08342362 -0.028196933 -0.022426281 -0.0443679 -0.036924623 -0.05121983 -0.012941093
-0.019246062 0.00011868112 0.04755068 0.028436767 -0.00010810598 -0.009064367 -0.053286865 -0.052848317
00000000: 9f8d e3bb c096 a13b 0dc7 0bbd 4ab0 e53b
00000010: 46d4 2bbb a562 31bd 8dbf aabc 1038 a93c
00000020: 883d ddbb 7255 cd3b 5f68 c23c d2ed cc3c
00000030: 5bd3 723c 354a 493c 377c 0c3c a1e8 4a3c
00000040: 4f06 3c3c 4fb3 623d 141e 1f3d eef4 f03c
00000050: 6d1d d43b 44d5 05bc 6686 29bb 23a7 843b
00000060: d35d 273d 3a50 3c3d ab5d 883c a9b9 2ebc
00000070: 02ff 0b3b 5758 e33c 596e 673c 3669 083c
00000080: 5e3c 973c d079 383c 9013 063c da90 523b
00000090: ac17 e03c 60b2 a53c 8f71 a03c d968 02bd
000000a0: 56f5 96bc 809a 5abc b5a3 cbbb a20d 3cbb
000000b0: 78ff 2dba 46aa 923a 31ad b6bc 93bb f53b
000000c0: 162c d5bc 44c1 6cbc 75a4 37bd 92d5 133c
000000d0: e86e 7a3c 225f 4e3c bba1 bcbc b22b 23bd
000000e0: 2865 ecba f69a 73bc 039a efbc 87ba 333c
000000f0: 476b b33b 0cd3 4dba 0eb7 4c3c 7a8b 0ebd
00000100: 2bdc 89bb 6c19 383c be10 063c 5c0d 693c
00000110: 764e a0bb 5f29 10bd 0542 62bd a095 9f3c
00000120: 7d65 3f3c 89ee 8b3c 202c f73c 98c7 c1bc
00000130: 48f9 e4bc cc8d 7dbb 4ff8 523b 810b af3c
00000140: 14ad 2c3c 5545 e1bb d427 1abd dbe7 10bd
00000150: b9e4 1cb9 5a8d d63b c119 25bb e371 b5bc
00000160: 8a7e 83bc fbad 0bbd 65a6 09bd c84c 833c
00000170: 5e06 563c b6b9 74bc 6ad8 c7bc 4849 f5bc
00000180: fd75 2fbc 9396 c3bc 4613 4fbb 36e1 4abb
00000190: 8f48 98bb 08fd 9e3c e061 aabc 8825 59bc
000001a0: 5e6e 0cbd b3ff cdbc e19e 55bc b2bc 01bc
000001b0: 4a5d aebc b67d dfbc 455c a63a ef7c 063c
000001c0: 89f2 04bd c0ed 11bb c1ff d43c eed3 8abc
000001d0: 76a5 4c3c 130d 083d 22ca 32ba ef98 01bd
000001e0: bf8b 87bc 96a4 243b 83f9 743a 9308 52bc
000001f0: c193 caba c440 cabc df3e 77bc 58f9 ca3c
00000200: e000 223d 5597 39ba c908 00bc 64c7 873b
00000210: 0742 45bd a1ba 30bd 4f85 f5bc 670e 143d
00000220: bc58 fabb c7aa 3abc f483 b0bc 6a6f b2bb
00000230: 9154 43bc 9190 e4bb 6519 ce3c e304 4fbc
00000240: 1fcd 82bd ac6c 13bd 14d4 4ebc cddc 17bd
00000250: 9080 8d3c c30a febb 3a09 61bc 1111 37bd
00000260: 7ccd 7bbb 0735 3cbc c12f 27bd b294 233c
00000270: 06d4 41bc 0bd0 f4bc 29e2 82bd 0af3 083d
00000280: 419f 82bc dee1 e8bc 7c59 603b 565c eabc
00000290: d69c f2bc 4f39 58bb ab73 063d 595b 83bb
000002a0: d36c 9e3c f2d9 d6bc 136e dbbc 99b6 09bc
000002b0: 5443 02bd 6f10 dabc 69d0 8abc ec00 06ba
000002c0: 6690 d0bb ff64 66bc 9a17 adbc 9e04 27bc
000002d0: 1b02 02bc cf8b 97bb 3c72 04bd 4cf3 7b3b
000002e0: ac33 063b fe6e 5ebd baf5 c8bc b704 3bbc
000002f0: f373 34bc d8fa a9bb 75fc bdbc f8cf 19bd
00000300: 8430 b2bd 25c8 35bd fa54 9cbb de4e cebb
00000310: 9fdb 46bd 5d1b 15bd e70a 4abd 8503 47bd
00000320: e1f8 bbbc 7752 0a3c 9765 f93a d0f8 2ebc
00000330: 6437 9fbb b4b4 16bd 7996 f2bc 4828 09bd
00000340: c7fd 313c 21ae c2bb 23ef 00bd 65e6 66bd
00000350: 4ae3 0cbd 863e 65bc 93ef 5ebd dcdf e5bc
00000360: 3f0f 443c 5184 0a3b 97d9 66bd 7b53 24bd
00000370: 8cdc ac3b ac04 8abb daeb 2fbc b710 273d
00000380: d3d5 91ba 668f 35bd caed febc 759d 3f3b
00000390: fdf9 e7b9 a9d9 20bb 053e f43c c4e6 e3bb
000003a0: fc82 a6bc fb31 22bd 5790 05bd 4b7f 5cbc
000003b0: 4bc6 223b ec65 673b 38b4 833c f7e6 00bc
000003c0: fe0b 37bd 01da aabd 41fd e6bc 52b7 b7bc
000003d0: 1dbb 35bd 463e 17bd e2cb 51bd e106 54bc
000003e0: eba9 9dbc 71e4 f838 80c4 423d 39f4 e83c
000003f0: f5b6 e2b8 b682 14bc 5443 5abd 7a77 58bd

module.net_sm.bn1.weight f4 [32]
0.85704917 0.85733974 0.9022956 0.87571424 0.81294113 0.89450294 0.85951144 0.8538928
0.87193507 0.880197 0.855801 0.9047087 0.89638865 0.8995212 0.86039114 0.86537737
0.88110083 0.8248366 0.898323 0.8934042 0.906342 0.94289076 0.8880664 0.8756177
0.9004851 0.83518887 0.87852305 0.9232937 0.8684106 0.8959388 0.83816665 0.8852271
00000000: 9367 5b3f 9e7a 5b3f d8fc 663f cf2e 603f
00000010: e91c 503f 25fe 643f f108 5c3f b898 5a3f
00000020: 2337 5f3f 9754 613f c615 5b3f fd9a 673f
00000030: ba79 653f 0547 663f 9842 5c3f 5f89 5d3f
00000040: d38f 613f 7e28 533f 7ff8 653f 23b6 643f
00000050: 0806 683f 4a61 713f 5258 633f 7b28 603f
00000060: 3186 663f f0ce 553f e3e6 603f fa5c 6c3f
00000070: 2850 5e3f 3f5c 653f 1792 563f 3e9e 623f

module.net_sm.bn1.bias f4 [32]
0.030048477 0.0032481754 0.018050043 0.0036148354 0.00451863 0.0069707874 0.0015826696 -0.013037544
0.00020945312 0.0031526736 0.013664107 0.020160118 0.0027426528 0.0048482083 -0.016638579 0.021066148
0.0031064625 0.0018363519 -0.022812277 0.006441354 0.004007714 0.00840275 0.009743748 -0.0150037175
-0.008558678 -0.010174104 -0.011266186 0.011363546 0.0016736912 0.028315805 -0.010657748 0.009200496
00000000: 3928 f63c 57df 543b afdd 933c e0e6 6c3b
00000010: 0411 943b 346b e43b 9471 cf3a 6c9b 55bc
00000020: a5a0 5b39 169d 4e3b 6bdf 5f3c d526 a53c
00000030: 14be 333b b8dd 9e3b a14d 88bc ea92 ac3c
00000040: cb95 4b3b bfb1 f03a d0e0 babc fe11 d33b
00000050: 2453 833b b0ab 093c 3ea4 1f3c 27d2 75bc
00000060: b339 0cbc 49b1 26bc cf95 38bc 2b2e 3a3c
00000070: c25f db3a 8cf6 e73c d69d 2ebc adbd 163c

module.net_sm.bn1.running_mean f4 [32]
-2.1615877e-05 -1.5984859e-05 -2.770466e-05 -9.574684e-06 -3.299749e-06 -1.1159084e-05 -1.3313413e-05 1.0662852e-05
-1.0902744e-05 -3.2244473e-06 -1.8249015e-05 -2.5717944e-05 -1.1573375e-05 1.783409e-05 2.0249168e-05 -2.8010998e-05
-1.7192564e-05 -1.3272869e-05 2.2052795e-05 -5.62199e-06 -8.380214e-06 2.044484e-05 -2.6422196e-05 1.48196505e-05
2.395892e-05 -2.7783544e-06 4.8197685e-06 -2.7592861e-05 -1.8725852e-05 -2.1962325e-05 1.2907502e-05 -2.5257843e-05
00000000: be53 b5b7 3917 86b7 4e67 e8b7 f4a2 20b7
00000010: 4271 5db6 e737 3bb7 ac5c 5fb7 9ae4 3237
00000020: eeea 36b7 9563 58b6 7615 99b7 ddbc d7b7
00000030: 442b 42b7 6b9a 9537 c2dc a937 29f9 eab7
00000040: c038 90b7 8aae 5eb7 04fe b837 87a4 bcb6
00000050: bf98 0cb7 f680 ab37 3ca5 ddb7 eaa1 7837
00000060: 64fb c837 c473 3ab6 7fb9 a136 3877 e7b7
00000070: 7615 9db7 bc3b b8b7 4d8d 5837 cee0 d3b7

module.net_sm.bn1.running_var f4 [32]
0.0046395506 0.0022403763 0.001961128 0.0020637666 0.00158005 0.0018034589 0.0018303974 0.0016594572
0.0018835454 0.00186769 0.003025829 0.003109873 0.0026939893 0.0021882828 0.0025554914 0.0032251796
0.0030973551 0.002213119 0.002349964 0.0020776347 0.0025875932 0.004861381 0.0028646796 0.0030608992
0.003994345 0.0022986254 0.002362738 0.0031699429 0.0030376036 0.0040432615 0.0018037814 0.0018568549
00000000: 5f07 983b 47d3 123b 4586 003b 4240 073b
00000010: ae19 cf3a 0a62 ec3a f2e9 ef3a 2582 d93a
00000020: 4ce1 f63a 47cd f43a fd4c 463b 03cf 4b3b
00000030: a48d 303b 4b69 0f3b 087a 273b 895d 533b
00000040: fffc 4a3b fa09 113b db01 1a3b ed28 083b
00000050: 9c94 293b 384c 9f3b 59bd 3b3b 5e99 483b
00000060: ffe2 823b 89a4 163b 2ad8 1a3b d1be 4f3b
00000070: 8812 473b 567d 843b dc6c ec3a b661 f33a

module.net_sm.layer1.0.conv1.weight f4 [32, 32, 3, 3, 3]
-0.035648406 -0.008032444 -0.07564228 -0.019095024 0.006181942 0.056425538 0.009180427 -0.009476309
0.008151888 0.055591192 0.025778612 -0.011263598 -0.056576427 -0.016485691 0.0055991244 -0.012796245
-0.05611671 -0.03296059 -0.030216072 -0.02409921 -0.0711182 -0.017439758 0.043708805 0.032087844
-0.006016631 0.015007242 -0.05940839 0.0034087051 -0.085989565 -0.0146707855 0.04838458 -0.01916604
0.016565029 0.04982313 -0.04572208 -0.05305574 0.06092261 -0.024545671 -0.026004309 -0.04518565
-0.023882719 -0.0021859265 -0.04033844 0.04048405 0.013462578 -0.06303121 -0.082652405 -0.016258862
-0.031759225 0.017577501 -0.036810253 0.023653658 -0.00413025 0.01757544 -0.010053107 0.08222711
0.018943252 0.057300888 -0.016571265 0.0420276 0.028442321 -0.037494395 0.02569588 -0.062357284
-0.058474764 -0.019357689 -0.02322807 0.037041903 -0.02437328 -0.027597342 0.011965757 -0.041733798
0.023780955 -0.05664742 -0.085513115 -0.039601658 -0.00687643 0.012360873 -0.043932315 -0.07204366
-0.016175963 -0.02761387 -0.075896114 0.025765145 -0.05582929 0.020054627 -0.0032342367 0.025497206
0.027297521 0.033276033 0.08464833 0.01900928 -0.03776665 -0.012450113 0.06784181 0.021350821
0.018962905 0.03532054 -0.024336573 -0.004496785 0.0672383 0.05002543 -0.04609548 -0.08106972
0.06412242 -0.060007595 -0.014056668 -0.01737397 0.014435894 -0.038665812 -0.08587489 -0.020665321
0.038663972 0.011603148 0.0051388233 -0.017754937 -0.021932984 0.0045606964 0.023648066 0.0045066783
-0.0050373664 -0.008961926 -0.019357579 -0.071559675 -0.025666654 0.021222541 0.031647135 0.02557329
0.0011893827 0.04480917 -0.01884871 -0.042335063 -0.06680159 0.041679114 0.0011450825 -0.009338799
-0.008971246 0.0015253975 0.097468734 -0.04819882 -0.017954182 0.020357007 -0.022285605 -0.055449303
0.023818549 0.00868845 0.057525575 -0.048587207 -0.0071381745 -0.031230982 -0.017406968 -0.011397714
-0.0058585405 0.056764398 -0.03903409 -0.003085319 -0.05293221 -0.022763956 0.007847133 -0.015703466
0.021145936 -0.0024561472 -0.043971922 0.062063664 0.015643334 0.0034259332 0.03922569 0.025658326
0.01974199 0.010146591 -0.022364879 -0.067522086 0.05532603 0.035742417 0.039119795 -0.009110148
0.0023947344 -0.032029904 0.029207159 0.0034690718 -0.052740775 -0.076048106 0.0022899131 0.009896539
-0.0074394466 0.023038808 0.018761324 -0.050942108 -0.0092309965 -0.053165797 -0.1113549 0.004707047
0.051283687 0.0146478675 0.005144037 0.020972794 0.0829896 0.020105308 0.05429533 0.010345761
0.0006117407 0.04433806 -0.02293996 -0.030129423 0.05053159 0.06549278 -0.06715221 0.074796736
-0.09067663 0.007831745 -0.037334148 -0.05603895 -0.05013401 -0.039554175 0.02088748 -0.12913793
-0.06074266 0.011226055 0.034788746 0.08545465 -0.058999162 0.009218989 -0.030623507 0.014443433
-0.047213152 0.030983422 0.06959455 -0.08321902 0.02348067 0.023548383 -0.018670304 -0.03890046
-0.027968887 0.03473757 -0.0059225964 -0.06303312 -0.020766232 -0.0009210537 -0.036396716 0.015948696
-0.03141648 -0.037265368 -0.0018653057 0.04872925 -0.060121268 0.032987207 0.037189342 -0.009118559
-0.012821807 -0.11584562 -0.055569302 -0.060478512 0.03446797 -0.017907199 -0.0011441808 0.08269768
00000000: 1004 12bd 839a 03bc 57ea 9abd 2b6d 9cbc
00000010: e391 ca3b 771e 673d 8069 163c 8542 1bbc
00000020: 7f8f 053c 97b3 633d ab2d d33c f48a 38bc
00000030: afbc 67bd 000d 87bc dc78 b73b 57a7 51bc
00000040: a3da 65bd af01 07bd b287 f7bc b56b c5bc
00000050: 6ba6 91bd d3dd 8ebc 0108 333d 8b6e 033d
00000060: 2927 c5bb efe0 753c 3656 73bd 9564 5f3b
00000070: 4c1b b0bd bc5d 70bc e92e 463d 1902 9dbc
00000080: 62b3 873c 5713 4c3d 1347 3bbd fa50 59bd
00000090: fd89 793d 0114 c9bc fd06 d5bc 9714 39bd
000000a0: b1a5 c3bc c341 0fbb ec39 25bd 9ad2 253d
000000b0: 2592 5c3c 8216 81bd aa45 a9bd 4e31 85bc
000000c0: f615 02bd b1fe 8f3c 59c6 16bd 51c5 c13c
000000d0: 0c57 87bb 5ffa 8f3c c9b5 24bc b066 a83d
000000e0: e12e 9b3c 56b4 6a3d 76c0 87bc 2225 2c3d
000000f0: dfff e83c b993 19bd 2b80 d23c 5a6a 7fbd
00000100: 3c83 6fbd 0494 9ebc cb48 bebc 40b9 173d
00000110: 79aa c7bc d213 e2bc 060c 443c 0ff1 2abd
00000120: 47d0 c23c 2007 68bd 8021 afbd 5935 22bd
00000130: ad53 e1bb 4285 4a3c 5ff2 33bd a08b 93bd
00000140: 7483 84bc 7c36 e2bc 6c6f 9bbd 6d11 d33c
00000150: 41ad 64bd 9a49 a43c 7df5 53bb 84df d03c
00000160: 0d9f df3c 734c 083d 1b5c ad3d 59b9 9b3c
00000170: 34b1 1abd 8ffb 4bbc a6f0 8a3d ebe7 ae3c
00000180: 1858 9b3c 45ac 103d 7e5d c7bc c459 93bb
00000190: 3cb4 893d 77e7 4c3d 9dce 3cbd e207 a6bd
000001a0: 9e52 833d 86ca 75bd f04d 66bc db53 8ebc
000001b0: 8784 6c3c 0b60 1ebd 2ddf afbd 524a a9bc
000001c0: 1d5e 1e3d 211b 3e3c 9363 a83b cd72 91bc
000001d0: cdac b3bc e571 953b 97b9 c13c c2ac 933b
000001e0: 7e10 a5bb 0bd5 12bc c993 9ebc e18d 92bd
000001f0: e042 d2bc e5da ad3c 6da0 013d 147f d13c
00000200: 10e5 9b3a d289 373d 9c68 9abc 8867 2dbd
00000210: 46cf 88bd b8b7 2a3d 9816 963a c301 19bc
00000220: 22fc 12bc d9ef c73a b09d c73d 206c 45bd
00000230: a614 93bc bdc3 a63c 4d90 b6bc cf1e 63bd
00000240: 1e1f c33c 005a 0e3c f09f 6b3d 6103 47bd
00000250: 59e7 e9bb 1ed8 ffbc 0f99 8ebc 7abd 3abc
00000260: 00f9 bfbb c981 683d 36e2 1fbd 1033 4abb
00000270: 72cf 58bd 7a7b babc 4391 003c 8ea4 80bc
00000280: 3e3a ad3c 50f7 20bb e71b 34bd 7836 7e3d
00000290: 7326 803c 9f85 603b 1eab 203d 6931 d23c
000002a0: f4b9 a13c e33d 263c 8d36 b7bc 0549 8abd
000002b0: 8c9d 623d a466 123d 143c 203d bb42 15bc
000002c0: faf0 1c3b ca31 03bd da43 ef3c 5e59 633b
000002d0: b606 58bd 1cbf 9bbd 5e12 163b 1825 223c
000002e0: 9ac6 f3bb e2bb bc3c 59b1 993c aca8 50bd
000002f0: 9b3d 17bc 61c4 59bd 0a0e e4bd 923d 9a3b
00000300: d80e 523d 9cfd 6f3c 4f8f a83b 23cf ab3c
00000310: 74f6 a93d e3b3 a43c c864 5e3d 4481 293c
00000320: 395d 203a d39b 353d 95ec bbbc fbd1 f6bc
00000330: 36fa 4e3d 1421 863d 1987 89bd 082f 993d
00000340: abb4 b9bd b850 003c b1eb 18bd 1989 65bd
00000350: 5259 4dbd 8f03 22bd 381c ab3c bc3c 04be
00000360: 4ccd 78bd 7ded 373c a57e 0e3d d902 af3d
00000370: 1ba9 71bd 3e0b 173c 26de fabc 26a4 6c3c
00000380: 9462 41bd f2d0 fd3c 9687 8e3d bc6e aabd
00000390: 895a c03c 8ae8 c03c 77f2 98bc 1756 1fbd
000003a0: 021f e5bc fb48 0e3d 5712 c2bb 8217 81bd
000003b0: f21d aabc de72 71ba b914 15bd d7a6 823c
000003c0: 91ae 00bd 92a3 18bd 467d f4ba 5298 473d
000003d0: b841 76bd 981d 073d da53 183d 0266 15bc
000003e0: 8e12 52bc 7840 edbd a39c 63bd 51b8 77bd
000003f0: 492e 0d3d 1eb2 92bc 56f8 95ba 675d a93d

module.net_sm.layer1.0.bn1.weight f4 [32]
0.8740941 0.8529393 0.87701195 0.86031705 0.8583002 0.87227243 0.86340636 0.86208785
0.8649137 0.86600935 0.8585312 0.87909967 0.8609942 0.8743197 0.8742106 0.83998555
0.86840326 0.85331666 0.8630074 0.86542314 0.8648543 0.86260843 0.86086726 0.8477263
0.8675015 0.89281154 0.8691449 0.84632015 0.86682683 0.8705272 0.868666 0.8801082
00000000: a2c4 5f3f 3b5a 5a3f db83 603f bd3d 5c3f
00000010: 90b9 5b3f 3f4d 5f3f 3308 5d3f cab1 5c3f
00000020: fc6a 5d3f cab2 5d3f b3c8 5b3f ad0c 613f
00000030: 1e6a 5c3f 6ad3 5f3f 44cc 5f3f 4b09 573f
00000040: ad4f 5e3f f672 5a3f 0eee 5c3f 5f8c 5d3f
00000050: 1767 5d3f e8d3 5c3f cc61 5c3f 9704 593f
00000060: 9414 5e3f 4c8f 643f 4880 5e3f 70a8 583f
00000070: 5de8 5d3f dfda 5e3f e560 5e3f c54e 613f

module.net_sm.layer1.0.bn1.bias f4 [32]
0.01780365 -0.004104178 0.011143757 -0.0054921554 0.014995761 0.021689998 0.0072450414 0.020457126
0.02362163 0.0008384252 -0.014094203 0.025467806 -0.017773585 0.014930025 0.022875821 -0.017568348
0.017837694 0.001964602 -0.019428521 0.022712477 0.004091431 -0.011937144 -0.00552685 -0.02683313
0.008690381 0.057822164 0.001626742 -0.0048825755 0.0006655793 -0.02809939 -0.035244275 -0.026119495
00000000: f6d8 913c 577c 86bb 4e94 363c 8af7 b3bb
00000010: c8b0 753c 39af b13c d067 ed3b b495 a73c
00000020: 2682 c13c c3c9 5b3a 5feb 66bc dca1 d03c
00000030: e999 91bc 109d 743c 1366 bb3c 7feb 8fbc
00000040: 5b20 923c 8dc0 003b 9028 9fbc 840f ba3c
00000050: 6911 863b 0394 43bc 941a b5bb 27d1 dbbc
00000060: 1a62 0e3c efd6 6c3d 6738 d53a 03fe 9fbb
00000070: 457a 2e3a b130 e6bc 4d5c 10bd 8df8 d5bc

module.net_sm.layer1.0.bn1.running_mean f4 [32]
-2.6700335 1.5340766 1.2558043 1.0543808 2.2824662 0.76624906 2.7564945 0.2965301
-2.8381362 1.1824439 -1.7444518 1.9478817 -1.3891782 -3.044214 1.4920708 2.2304459
-0.32966015 -0.23125765 6.134954 1.1433212 2.9420066 1.5586302 -1.5261807 -1.6925297
-1.8746045 5.133423 0.8496457 6.952071 0.468953 4.1210513 2.6013215 -2.8366358
00000000: d4e1 2ac0 9f5c c43f 32be a03f f3f5 863f
00000010: ed13 1240 e628 443f 686a 3040 cbd2 973e
00000020: 06a4 35c0 525a 973f 324a dfbf 3054 f93f
00000030: 97d0 b1bf 67d4 42c0 2dfc be3f a0bf 0e40
00000040: 37c9 a8be cece 6cbe 8b51 c440 5958 923f
00000050: d649 3c40 3281 c73f e459 c3bf d0a4 d8bf
00000060: 0af3 efbf 0045 a440 6182 593f 5e77 de40
00000070: 9c1a f03e a7df 8340 0d7c 2640 718b 35c0

module.net_sm.layer1.0.bn1.running_var f4 [32]
9.94015 3.625747 2.8248146 2.9896648 5.8660197 1.5115864 8.545939 1.1293154
8.064899 3.2455494 3.6770742 5.5117598 3.876896 9.759997 3.0674841 6.2617607
1.9378538 1.621055 36.63696 3.866585 9.90202 4.473941 3.6954296 3.1326027
7.3212385 26.215364 2.3088682 45.49215 1.7733918 20.472668 10.873916 8.910948
00000000: db0a 1f41 3d0c 6840 c3c9 3440 ab56 3f40
00000010: 6fb6 bb40 aa7b c13f 2bbc 0841 688d 903f
00000020: d409 0141 15b7 4f40 2f55 6b40 5660 b040
00000030: 101f 7840 f328 1c41 a951 4440 5860 c840
00000040: 980b f83f bb7e cf3f 3f8c 1242 2176 7740
00000050: ad6e 1e41 862a 8f40 eb81 6c40 907c 4840
00000060: 9647 ea40 11b9 d141 7fc4 1340 f6f7 3542
00000070: 81fe e23f 06c8 a341 8ffb 2d41 3e93 0e41

module.net_sm.layer1.0.conv2.weight f4 [32, 32, 3, 3, 3]
-0.0056905886 0.042583946 -0.026745442 0.024736185 -0.052639894 0.062873974 0.012539978 -0.05184589
-0.04050415 -0.04254069 0.08040809 -0.0053969407 0.009944031 -0.029556757 0.008832144 0.07836117
-0.11740906 0.038135447 -0.07865157 -0.035554312 -0.02446163 -0.05482674 -0.019803204 -0.058535013
-0.034193877 0.03094517 0.0009797387 0.0060701948 0.14336854 -0.06573978 -0.0055747144 -0.0569464
0.026308201 -0.010449573 -0.025678216 0.03833023 0.0060532335 0.04667967 -0.011100371 0.030754361
0.007649967 0.023079054 -0.011251475 -0.023456773 -0.01082908 -0.017994767 0.01455417 -0.06331632
0.027565025 -0.016127726 -0.05344436 0.011622421 -0.018609121 -0.02351722 0.0010063852 -0.0060940534
-0.0050881696 -0.043842703 -0.00022539418 -0.06067478 0.0047757374 -0.023686599 -0.00113443 -0.062254943
0.02503318 -0.06224906 -0.0273978 0.02252071 -0.079979874 -0.02503899 -0.084619164 0.01360085
-0.04837725 -0.020562204 -0.06478497 -0.043270018 -0.08429929 0.036482558 0.027036047 -0.04430847
-0.047494456 0.05229477 -0.07674581 -0.058179785 -0.015774854 0.003066592 -0.0689492 0.013955083
0.09483459 0.041946493 -0.002212843 -0.074787006 -0.038873117 0.034538057 -0.013096683 0.049134996
0.037628267 -0.07817241 0.036262814 -0.059673496 -0.009166054 -0.034789026 -0.0029802157 -0.060777344
-0.038385294 0.0083114365 -0.04937602 0.08619915 0.0016212026 -0.028216535 0.028473185 0.028298452
0.013403321 0.0019485139 0.0692044 -0.07436763 -0.035209097 -0.0228379 -0.039906573 -0.041691974
0.00968889 -0.006952851 0.046390325 -0.090263955 -0.03084253 -0.022619223 0.008277903 0.018925432
0.026167376 -0.082753494 -0.029787127 0.04890789 -0.0008444906 0.0031019517 -0.017694196 0.06413605
-0.01396457 0.010024921 0.05933735 -0.00442695 0.019651288 -0.035861325 -0.051704273 0.013899809
-0.011901978 -0.022604713 -0.059698697 0.11689208 -0.05444811 -0.017702999 -0.0138796475 -0.011830891
-0.06291108 -0.04650135 -0.10723071 0.046852868 0.02656971 -0.06549476 -0.038385943 0.04406779
-0.020179726 0.03433015 0.030616108 0.069963396 -0.07124739 -0.05440115 -0.026275674 0.029557748
0.007861588 0.037762374 -0.027568888 -0.020532731 0.07428966 -0.039171614 -0.018830577 0.031168558
-0.081665106 0.049927313 0.053835746 -0.07051531 -0.0396932 0.022671985 0.000538627 -0.05649816
-0.020883242 0.008046427 0.06755119 -0.040004022 -0.013579748 -0.032738056 0.016111597 -0.039554074
-0.046121687 0.0066887126 -0.0344071 0.005734882 0.16569391 -0.049324248 0.031295918 -0.1356099
0.05628732 0.03604634 0.006329182 0.0038214477 -0.05467539 0.021423206 0.06525749 0.027018389
0.028416654 -0.051442422 -0.009373033 -0.083762884 -0.010020088 -0.012484956 0.013281468 -0.015134868
0.040590763 -0.011182934 0.08038009 0.0069778557 -0.006367276 -0.019815238 0.026560862 0.020888
0.022694401 0.061887395 0.051268283 -0.03828971 -0.01911195 -0.015421696 0.04792417 0.0008105245
0.038828205 0.021917973 0.020695465 0.05595244 -0.015504664 0.028723154 -0.026516907 0.06178149
0.011515307 0.0609868 -0.03461017 0.01868564 0.031642556 -0.0806653 0.031742655 -0.00015851042
-0.013206509 -0.0026954298 0.009697236 0.0052018887 0.031892184 0.017783662 0.018040653 0.039229162
00000000: 1e78 babb 816c 2e3d 4219 dbbc 8aa3 ca3c
00000010: ee9c 57bd 12c4 803d 7b74 4d3c 5b5c 54bd
00000020: aee7 25bd 263f 2ebd ffac a43d d2d8 b0bb
00000030: 4aec 223c 0321 f2bc b2b4 103c d27b a03d
00000040: 2974 f0bd ea33 1c3d 1314 a1bd 66a1 11bd
00000050: c263 c8bc 0192 60bd 543a a2bc 69c2 6fbd
00000060: e10e 0cbd ba80 fd3c 936a 803a 7ce8 c63b
00000070: 34cf 123e 94a2 86bd 18ac b6bb a140 69bd
00000080: 4c84 d73c b034 2bbc 1f5b d2bc 2900 1d3d
00000090: 345a c63b 2f33 3f3d 55de 35bc 92f0 fb3c
000000a0: 93ac fa3b 4910 bd3c 1b58 38bc 6b28 c0bc
000000b0: 746c 31bc c369 93bc 9d74 6e3c fdab 81bd
000000c0: 0cd0 e13c 4b1e 84bc 79e8 5abd f86b 3e3c
000000d0: 2872 98bc 2fa7 c0bc afe8 833a a0b0 c7bb
000000e0: a9ba a6bb 6894 33bd ca57 6cb9 1e86 78bd
000000f0: ca7d 9c3b 660a c2bc 27b1 94ba 0aff 7ebd
00000100: 6212 cd3c dff8 7ebd 5a71 e0bc 5a7d b83c
00000110: 7dcc a3bd 911e cdbc d04c adbd 19d6 5e3c
00000120: 3927 46bd 1172 a8bc fbad 84bd e73b 31bd
00000130: 1ba5 acbd bc6e 153d b37a dd3c cc7c 35bd
00000140: 8c89 42bd 0a33 563d e82c 9dbd ed4d 6ebd
00000150: 443a 81bc e0f8 483b 3d35 8dbd dca3 643c
00000160: a338 c23d 16d0 2b3d 5805 11bb ee29 99bd
00000170: 6b39 1fbd c777 0d3d 7893 56bc c741 493d
00000180: 1920 1a3d db18 a0bd 5188 143d 326c 74bd
00000190: 382d 16bc f07e 0ebd b94f 43bb aaf1 78bd
000001a0: e639 1dbd b12c 083c 823e 4abd 2e89 b03d
000001b0: 887e d43a 5d26 e7bc 9940 e93c 28d2 e73c
000001c0: 9a99 5b3c 4765 ff3a 09bb 8d3d 0e4e 98bd
000001d0: 6a37 10bd 8c16 bbbc 1375 23bd 34c5 2abd
000001e0: 26be 1e3c bed4 e3bb c803 3e3d 4fdc b8bd
000001f0: 79a9 fcbc f34b b9bc 0ba0 073c 8209 9b3c
00000200: f75c d63c aa7a a9bd 2204 f4bc a453 483d
00000210: ce60 5dba 1d4a 4b3b 6bf3 90bc c359 833d
00000220: a7cb 64bc 913f 243c b90b 733d f30f 91bb
00000230: bdfb a03c 53e3 12bd dcc7 53bd 06bc 633c
00000240: 8400 43bc 852d b9bc 9f86 74bd 1d65 ef3d
00000250: fb04 5fbd e105 91bc 7667 63bc 5ad6 41bc
00000260: 86d7 80bd 3378 3ebd c69b dbbd cbe8 3f3d
00000270: b8a8 d93c 1e22 86bd 943a 1dbd 6d80 343d
00000280: f44f a5bc c59d 0c3d a2ce fa3c f848 8f3d
00000290: 27ea 91bd bed3 5ebd 1540 d7bc 1723 f23c
000002a0: e4cd 003c b8ac 1a3d 26d8 e1bc 4234 a8bc
000002b0: 2d25 983d 6a72 20bd 9542 9abc 3455 ff3c
000002c0: 0940 a7bd 9580 4c3d df82 5c3d 556a 90bd
000002d0: 5695 22bd 99ba b93c a532 0d3a 9d6a 67bd
000002e0: 5513 abbc 29d5 033c 4758 8a3d 42db 23bd
000002f0: 977d 5ebc 5718 06bd 78fc 833c 7403 22bd
00000300: 18ea 3cbd fd2c db3b 76ee 0cbd adeb bb3b
00000310: aaab 293e 3908 4abd 2630 003d 52dd 0abe
00000320: 888d 663d 54a5 133d 0765 cf3b 4171 7a3b
00000330: 4df3 5fbd b87f af3c b8a5 853d ab55 dd3c
00000340: 0bca e83c 4ab5 52bd 5a91 19bc e08b abbd
00000350: 4c2b 24bc b38d 4cbc 849a 593c 3df8 77bc
00000360: 8042 263d a038 37bc 519e a43d 7fa6 e43b
00000370: 95a4 d0bb 9153 a2bc 2a96 d93c 501d ab3c
00000380: 9ce9 b93c a37d 7d3d b1fe 513d acd5 1cbd
00000390: aa90 9cbc 48ab 7cbc 224c 443d 6179 543a
000003a0: 530a 1f3d 528d b33c 8989 a93c 632e 653d
000003b0: 4607 7ebc d24c eb3c fc39 d9bc 960e 7d3d
000003c0: b3aa 3c3c 4bcd 793d 65c3 0dbd a112 993c
000003d0: a09b 013d d933 a5bd 9604 023d d135 26b9
000003e0: 1d60 58bc cfa5 30bb 28e1 1e3c 9b74 aa3b
000003f0: 61a1 023d 0baf 913c fec9 933c c2ae 203d

module.net_sm.layer1.0.bn2.weight f4 [32]
0.8805959 0.860699 0.84059405 0.8553052 0.8708317 0.8564423 0.8677863 0.8442
0.84599775 0.883706 0.7981864 0.8598883 0.8433717 0.8669004 0.8926018 0.8160358
0.8847214 0.8831064 0.8516512 0.8372684 0.84905875 0.80127174 0.86223924 0.87405837
0.8223838 0.80956715 0.8288648 0.8325582 0.9059717 0.8494396 0.85120213 0.85503787
00000000: bc6e 613f c556 5c3f 2c31 573f 48f5 5a3f
00000010: d4ee 5e3f cd3f 5b3f 3e27 5e3f 7e1d 583f
00000020: 4f93 583f 8e3a 623f f255 4c3f a421 5c3f
00000030: 35e7 573f 2fed 5d3f 8d81 643f b9e7 503f
00000040: 1a7d 623f 4313 623f d005 5a3f 3957 563f
00000050: ea5b 593f 2520 4d3f b6bb 5c3f 4ac2 5f3f
00000060: bf87 523f cb3f 4f3f 7c30 543f 8922 553f
00000070: c3ed 673f e074 593f 62e8 593f c3e3 5a3f

module.net_sm.layer1.0.bn2.bias f4 [32]
0.017651722 0.0018151992 0.004181924 -0.0043884125 -0.002605952 0.0047524786 -0.0023239148 -0.009589386
0.00020179685 -0.006637302 0.0074979616 0.009711059 -0.0026128 -0.0008411376 0.004722499 0.008117743
0.0030109284 -0.008816577 -0.0059163207 0.0012016823 0.0047887955 0.0009310857 -0.0043425797 -0.009509881
-0.011352031 -0.0016618073 -0.0027884257 -0.001470894 -0.0036390878 0.011711173 -0.006807021 0.004832921
00000000: 589a 903c faeb ed3a 8508 893b accc 8fbb
00000010: 9fc8 2abb aeba 9b3b d24c 18bb cd1c 1dbc
00000020: 6e99 5339 ba7d d9bb 76b1 f53b 221b 1f3c
00000030: 833b 2bbb ca7f 5cba 31bf 9a3b 4800 053c
00000040: ff52 453b 6773 10bc b2dd c1bb c481 9d3a
00000050: 54eb 9c3b 1b14 743a 334c 8ebb 55cf 1bbc
00000060: defd 39bc 00d1 d9ba 05be 36bb 03cb c0ba
00000070: c37d 6ebb 38e0 3f3c 6e0d dfbb 7b5d 9e3b

module.net_sm.layer1.0.bn2.running_mean f4 [32]
-0.67990106 -1.0896637 -0.65518844 -0.66515565 -1.3797916 -0.53289706 -0.3849778 -0.6302495
-0.9527261 -0.55106384 0.3863281 -1.5370139 -1.0948839 -0.44167364 -1.3034358 0.56986976
-0.95438385 -0.95080936 -0.8491827 -0.8223726 -0.89547545 1.3507701 -0.36145332 -0.40654424
0.13577075 -0.20350818 -0.7442624 -0.7369376 -0.26122162 -0.78598833 -0.30015513 -0.40708122
00000000: ff0d 2ebf 1a7a 8bbf 6eba 27bf a447 2abf
00000010: 039d b0bf f16b 08bf cf1b c5be 0858 21bf
00000020: dce5 73bf 8512 0dbf cccc c53e dfbc c4bf
00000030: 2825 8cbf 0c23 e2be fcd6 a6bf fce2 113f
00000040: 8052 74bf 3e68 73bf 0a64 59bf 0387 52bf
00000050: e13d 65bf 09e6 ac3f 6910 b9be 9126 d0be
00000060: 7d07 0b3e 7364 50be fb87 3ebf f1a7 3cbf
00000070: d7be 85be 8836 49bf efad 99be f36c d0be

module.net_sm.layer1.0.bn2.running_var f4 [32]
4.130083 2.8180366 1.1632679 2.0423365 4.810588 1.9434143 1.6283698 1.5630196
2.7536027 2.1650841 1.3395644 6.980895 3.7778063 1.0536301 6.5900226 1.3403772
3.7884338 2.6680548 1.3786777 1.720782 2.6936944 3.1296437 2.474066 1.6247568
0.5399231 0.39863768 2.9279456 0.56234145 1.957965 1.9762179 1.4106177 0.96260023
00000000: a429 8440 b65a 3440 f6e5 943f a4b5 0240
00000010: 56f0 9940 cdc1 f83f 6c6e d03f 0711 c83f
00000020: 073b 3040 bd90 0a40 d976 ab3f 7e63 df40
00000030: 94c7 7140 5add 863f 77e1 d240 7b91 ab3f
00000040: b375 7240 69c1 2a40 8378 b03f 9642 dc3f
00000050: 7d65 2c40 154c 4840 1957 1e40 08f8 cf3f
00000060: 6638 0a3f 3d1a cc3e 7663 3b40 9cf5 0f3f
00000070: 999e fa3f b5f4 fc3f 1f8f b43f f86c 763f

module.net_sm.layer2.0.conv1.weight f4 [32, 32, 3, 3, 3]
-0.0072348844 0.054224417 0.06908657 0.036580898 0.040107563 -0.0037088434 0.01375095 0.06067218
-0.029981757 0.05886175 -0.02186872 0.047772426 -0.06374428 -0.009965895 0.025808133 -0.014331327
0.030709278 -0.04464092 0.021042518 -0.00096817163 -0.04742497 -0.0032836688 -0.03418143 -0.03119193
0.029166885 0.05188329 0.060524635 -0.0123870205 -0.0028284753 0.026940322 0.020815073 0.044111855
0.067807294 0.023304844 0.040608153 -0.049089383 -0.035400752 -0.10053414 -0.034315564 -0.0004382049
-0.00033502572 0.0057114647 -0.03780596 -0.0315072 0.012676104 0.022824852 -0.051654886 0.049563892
-0.028748754 0.12268466 -0.0021803426 0.04358116 -0.01962325 0.03665875 -0.039656986 -0.007197175
-0.016907664 0.03991003 -0.0036933857 -3.1007276e-05 -0.016870797 -0.0023658806 -0.037655037 0.054982256
-0.077563785 -0.007276092 0.011782569 0.07609109 0.060504764 0.02089482 -0.007837598 -0.012801505
0.067827635 -0.0107092755 -0.021453314 0.03390973 -0.034849394 -0.10836887 -0.05952966 0.019376889
-0.02949764 0.07534544 0.033921354 0.043176524 -0.042954084 -0.044931296 -0.017399207 -0.06095478
0.012118433 0.042765535 -0.03246143 0.0023062844 -0.01898125 -0.041690484 -0.06191839 -0.014571971
-0.071724944 -0.008627125 -0.020313669 -0.03548614 -0.0022521287 -0.035063595 -0.025382938 0.029994063
0.022028187 -0.029354112 -0.033949267 -0.06190969 0.034171022 -0.07388834 -0.03150624 0.029404758
-0.060025048 0.061618265 0.03035252 -0.042764615 -0.03679883 -0.044874925 0.06982156 -0.08389941
-0.07862735 -0.004137105 -0.0057175807 -0.0077844537 0.016843984 0.019383384 -0.033551663 -0.017086547
-0.054967873 0.02866281 -0.03280375 0.050657198 0.023816476 -0.044815753 -0.010837337 -0.012075669
-0.0010275147 0.008855758 0.021126842 0.024495102 -0.032527268 0.0017604068 0.04097408 -0.04083255
-0.008432366 -0.007399509 -0.029526314 0.054909762 0.015688034 0.026182687 -0.03184862 0.04015054
0.010446536 -0.027150918 0.022790633 0.046900146 -0.06258549 -0.07461067 -0.008529859 0.020063298
-0.03857096 0.026383018 -0.059396937 -0.00085402944 -0.053447347 -0.0869076 -0.07904723 -0.041473966
-0.01957478 -0.052094422 0.018580254 -0.034363396 0.0095269345 0.005477141 0.007561102 0.013313264
-0.0027335717 -0.06267949 0.015219845 0.09810186 -0.015435247 -0.021828737 0.10966232 -0.00072499225
-0.025470205 -0.011959706 -0.0031409338 0.042949952 -0.04705697 -0.016345195 -0.010484559 0.006265219
-0.016617615 -0.013073501 -0.026708402 0.0780908 0.028421052 0.010217163 0.00012046988 0.11275007
0.027997332 -0.01847848 0.047819976 0.052617285 -0.003087978 0.005552362 0.0006477189 0.047039576
0.008479087 -0.04260636 -0.0138150975 -0.0058650924 0.010294455 0.020286998 -0.03919084 -0.03880634
0.03047548 -0.0069594514 -0.011865441 0.028222613 0.032396924 -0.004800717 -0.07160192 -0.085743584
0.1012839 -0.1335814 -0.015130094 -0.010004876 0.028280903 -0.005437808 -0.03545595 -0.04901338
-0.04475393 0.006007155 0.019427264 -0.015909558 -0.005399316 -0.0138766365 -0.042212494 0.005163243
0.014070343 0.039382514 -0.02610751 -0.0541605 -0.011025616 -0.06097525 -0.007666414 -0.038070895
-0.023850318 0.060107373 -0.041792933 0.037426412 -0.020087717 -0.013073453 0.037425898 0.0004907245
00000000: 9c12 edbb 6c1a 5e3d 427d 8d3d dad5 153d
00000010: d447 243d 1110 73bb aa4b 613c 6483 783d
00000020: 4d9c f5bc 0519 713d 0826 b3bc 05ad 433d
00000030: 5c8c 82bd fe47 23bc 946b d33c f1cd 6abc
00000040: 0692 fb3c 66d9 36bd 5c61 ac3c e6cc 7dba
00000050: af40 42bd d232 57bb d401 0cbd 3886 ffbc
00000060: 64ef ee3c 9383 543d aee8 773d eef2 4abc
00000070: f15d 39bb f3b1 dc3c 5f84 aa3c a2ae 343d
00000080: 8dde 8a3d cde9 be3c bc54 263d f311 49bd
00000090: 6100 11bd d8e4 cdbd 7a8e 0cbd debe e5b9
000000a0: 64a6 afb9 3d27 bb3b 6cda 1abd b20d 01bd
000000b0: 6faf 4f3c 2ffb ba3c 1394 53bd 8203 4b3d
000000c0: 8282 ebbc 1842 fb3d 14e4 0ebb 2982 323d
000000d0: f0c0 a0bc 7c27 163d 5d6f 22bd 48d6 ebbb
000000e0: f181 8abc b378 233d bb0c 72bb cf0d 02b8
000000f0: a034 8abc e40c 1bbb 2b3c 1abd 1335 613d
00000100: c3d9 9ebd 496c eebb ad0b 413c a5d5 9b3d
00000110: d8d3 773d 9d2b ab3c 4569 00bc 67bd 51bc
00000120: 37e9 8a3d f575 2fbc dcbe afbc eee4 0a3d
00000130: 3dbe 0ebd 80f0 ddbd 5fd5 73bd 48bc 9e3c
00000140: 09a5 f1bc b64e 9a3d 1ef1 0a3d ded9 303d
00000150: 9ff0 2fbd e109 38bd c888 8ebc b8ab 79bd
00000160: 648c 463c ea2a 2f3d 47f6 04bd 0825 173b
00000170: 917e 9bbc a4c3 2abd 239e 7dbd 47bf 6ebc
00000180: 87e4 92bd c958 0dbc da68 a6bc ea59 11bd
00000190: 7398 13bb d89e 0fbd e1ef cfbc 1cb6 f53c
000001a0: 7574 b43c 0978 f0bc 630e 0bbd 0495 7dbd
000001b0: eaf6 0b3d c552 97bd b00c 01bd 3fe2 f03c
000001c0: d3dc 75bd 6f63 7c3d d9a5 f83c f329 2fbd
000001d0: 5fba 16bd c5ce 37bd 9bfe 8e3d 74d3 abbd
000001e0: 6007 a1bd 8d90 87bb 8b5a bbbb bb14 ffbb
000001f0: 65fc 893c e7c9 9e3c 786d 09bd 16f9 8bbc
00000200: fe25 61bd 45ce ea3c 3a5d 06bd ec7d 4f3d
00000210: c51a c33c b990 37bd 168f 31bc 07d9 45bc
00000220: acad 86ba be17 113c 3312 ad3c f4a9 c83c
00000230: 503b 05bd 73bd e63a 70d4 273d 0840 27bd
00000240: e827 0abc 9577 f2bb 2be1 f1bc 0fe9 603d
00000250: 3184 803c 137d d63c b373 02bd e574 243d
00000260: f327 2b3c 9a6b debc 6cb3 ba3c 5e1a 403d
00000270: d22c 80bd 7bcd 98bd d2c0 0bbc c95b a43c
00000280: 95fc 1dbd 3321 d83c 344a 73bd f2e0 5fba
00000290: 9beb 5abd 9dfc b1bd 84e3 a1bd 9be0 29bd
000002a0: 4a5b a0bc f660 55bd 9e35 983c a2c0 0cbd
000002b0: dc16 1c3c 9779 b33b 1fc3 f73b e01f 5a3c
000002c0: b925 33bb 1b5e 80bd a85c 793c a1e9 c83d
000002d0: 1ee4 7cbc 2ed2 b2bc a396 e03d 680d 3eba
000002e0: e4a6 d0bc a5f2 43bc 20d8 4dbb 4aec 2f3d
000002f0: cfbe 40bd 5ce6 85bc 6ec7 2bbc 774c cd3b
00000300: aa21 88bc 3d32 56bc 94cb dabc 12ee 9f3d
00000310: 44d3 e83c e365 273c c6a4 fc38 82e9 e63d
00000320: a95a e53c 2e60 97bc e1de 433d 3985 573d
00000330: ad5f 4abb 97f0 b53b aecb 293a 92ac 403d
00000340: deeb 0a3c 0284 2ebd b858 62bc f62f c0bb
00000350: 13aa 283c eb30 a63c 9386 20bd 66f3 1ebd
00000360: b7a7 f93c 1c0c e4bb 4467 42bc 1c33 e73c
00000370: a3b2 043d 554f 9dbb 07a4 92bd 559a afbd
00000380: ef6d cf3d 90c9 08be 37e4 77bc 7eeb 23bc
00000390: 5aad e73c a42f b2bb 423a 11bd 41c2 48bd
000003a0: e64f 37bd abd7 c43b ed25 9f3c c354 82bc
000003b0: bfec b0bb d55a 63bc 02e7 2cbd 6c30 a93b
000003c0: 4c87 663c 8f4f 213d 6bdf d5bc 67d7 5dbd
000003d0: c9a4 34bc 2fc1 79bd 8b36 fbbb 3af0 1bbd
000003e0: be61 c3bc 2633 763d 112f 2bbd 704c 193d
000003f0: ff8e a4bc 0932 56bc e64b 193d f7a3 003a

module.net_sm.layer2.0.bn1.weight f4 [32]
0.87952095 0.8690222 0.8773669 0.8887017 0.8520262 0.856615 0.86180204 0.85194916
0.8717932 0.872102 0.8485411 0.86244124 0.8650999 0.8421364 0.8532149 0.86031306
0.86228776 0.8864104 0.8809605 0.87046045 0.8653956 0.8568643 0.8925131 0.8379635
0.8566212 0.8618264 0.8566866 0.84935796 0.87171084 0.8770254 0.87951696 0.86370355
00000000: 4928 613f 3d78 5e3f 1e9b 603f f481 633f
00000010: 641e 5a3f 1f4b 5b3f 0f9f 5c3f 5719 5a3f
00000020: d72d 5f3f 1442 5f3f fd39 593f f3c8 5c3f
00000030: 3077 5d3f 4096 573f 4b6c 5a3f 7a3d 5c3f
00000040: e4be 5c3f cbeb 623f a186 613f 7fd6 5e3f
00000050: 918a 5d3f 755b 5b3f bd7b 643f c784 563f
00000060: 874b 5b3f a8a0 5c3f d04f 5b3f 866f 593f
00000070: 7128 5f3f bd84 603f 0628 613f ad1b 5d3f

module.net_sm.layer2.0.bn1.bias f4 [32]
-0.00048845675 -0.00431412 0.0034808926 -0.021581259 -0.025914902 0.007764791 -0.021017123 -0.033581626
0.000117692965 -0.01942851 -0.030761816 -0.01763957 0.0061892653 -0.019112362 -0.009703625 -0.005993811
-0.015677504 0.008448008 -0.0032845084 -0.01122226 -0.01930618 -0.021743087 0.001214486 -0.011336004
-0.01834803 -0.03643428 -0.02481052 -0.0025233903 0.001526515 0.009801614 -0.0059260656 -0.002004461
00000000: c70b 00ba 765d 8dbb b01f 643b 2ecb b0bc
00000010: 7d4b d4bc ca6f fe3b 1a2c acbc e38c 09bd
00000020: eed1 f638 8a28 9fbc 3400 fcbc dc80 90bc
00000030: 52cf ca3b 8791 9cbc f4fb 1ebc bb67 c4bb
00000040: 1c6e 80bc 8469 0a3c e840 57bb 92dd 37bc
00000050: fe27 9ebc 8f1e b2bc 632f 9f3a a6ba 39bc
00000060: 9c4e 96bc 1d3c 15bd 6e3f cbbc 775f 25bb
00000070: 5815 c83a f396 203c 712f c2bb 465d 03bb

module.net_sm.layer2.0.bn1.running_mean f4 [32]
-3.7635791 -0.61989206 0.45103168 -1.8705071 1.5978982 -1.1986908 -1.1823001 -1.5861529
-3.016897 0.45122737 4.980343 -1.975212 -0.60387146 2.3519201 -1.9765898 0.6068071
-2.2387345 1.3322798 -1.0160129 1.1736948 0.13805585 -0.5386813 0.848647 1.8078318
-2.50469 -3.4818711 0.7108513 2.0873199 2.25603 -1.6623139 -0.042267125 -0.25780594
00000000: 7bde 70c0 3fb1 1ebf a0ed e63e c76c efbf
00000010: ee87 cc3f b36e 99bf 9c55 97bf 0f07 cbbf
00000020: d714 41c0 4607 e73e f85e 9f40 bfd3 fcbf
00000030: 5297 1abf dc85 1640 e500 fdbf b657 1b3f
00000040: 6d47 0fc0 2588 aa3f b60c 82bf a23b 963f
00000050: 835e 0d3e 05e7 09bf ee40 593f 0867 e73f
00000060: d74c 20c0 fad6 5ec0 5afa 353f a696 0540
00000070: cc62 1040 b4c6 d4bf 4b20 2dbd 24ff 83be

module.net_sm.layer2.0.bn1.running_var f4 [32]
3.9169936 4.4864435 1.605898 3.5774322 2.2011228 2.3323073 7.66521 3.0152926
3.7910147 2.761028 7.8957505 2.2922695 1.6144303 3.466289 5.7834473 1.6655247
2.148097 3.1505845 1.3849108 1.2071747 2.5381494 2.6590335 1.8045399 3.4075947
2.2864635 5.464969 1.8240645 2.3591495 3.5727208 2.368238 2.4534402 2.6255996
00000000: 06b0 7a40 f290 8f40 118e cd3f a6f4 6440
00000010: 32df 0c40 8644 1540 6649 f540 8efa 4040
00000020: fc9f 7240 afb4 3040 fda9 fc40 8bb4 1240
00000030: a7a5 ce3f aed7 5d40 0012 b940 ea2f d53f
00000040: 6c7a 0940 2da3 4940 c244 b13f b384 9a3f
00000050: 0a71 2240 9b2d 2a40 2afb e63f 0816 5a40
00000060: 6b55 1240 07e1 ae40 f27a e93f 4efc 1640
00000070: 75a7 6440 3691 1740 2a05 1d40 d309 2840

module.net_sm.layer2.0.conv2.weight f4 [32, 32, 3, 3, 3]
0.028453127 0.046551008 0.0050084204 -0.012508973 -0.036811847 -0.006012788 -0.03620539 0.006546362
0.059996482 -0.03281513 -0.12314442 0.08643345 0.015983416 0.00079172186 0.01427346 0.004324566
0.020319853 -0.018345218 -0.105310045 0.026120845 -0.07172011 0.025692636 0.114664756 0.014503804
-0.089056164 0.031591076 -0.018918524 -0.01205688 0.06571925 -0.05087429 -0.024898823 -0.06709305
0.0072877724 -0.029482152 -0.03033811 -0.022983199 0.04352631 -0.016371988 0.007962099 -0.01207087
-0.01212171 0.05335846 -0.0061543845 -0.033894937 0.01129533 0.00059778633 -0.007053366 0.03457744
-0.024306599 -0.04077195 -0.006853767 0.011547429 -0.015907763 -0.03658054 -0.046590947 0.031801995
0.036354177 0.018643873 -0.03182413 -0.08871698 -0.010931657 -0.023645641 0.015154796 0.0057715797
0.018612813 0.0238406 0.05907658 -0.017382825 -0.0109050665 -0.0017714784 0.0149865 0.019513125
0.04650781 0.007911102 -0.03372252 0.016008534 -0.052853595 -0.011603109 -0.009273965 0.0022611937
0.022382341 -0.029399483 -0.022385888 0.11433697 -0.030398928 -0.018248942 -0.026023952 0.07519047
-0.112344295 -0.030326294 0.0870633 0.04521362 0.03686843 -0.046051327 -0.016583042 0.023793744
0.027861103 -0.017077286 -0.03413263 0.0502304 0.012709286 -0.0314791 -0.05776168 -0.03569643
0.03705688 -0.06707063 -0.028206464 -0.030612012 0.033910368 0.030496402 -0.018169219 0.021676099
-0.049379803 -0.026386013 -0.037360366 0.090680994 0.07299329 0.018324956 0.042475935 0.01475465
0.04416832 0.06872892 0.00409537 0.022185521 0.051508114 -0.047512386 0.1897665 0.019320518
-0.076889075 -0.025179911 0.040245898 -0.049852934 -0.004267321 -0.03855873 0.028009566 0.017242556
-0.056109305 0.0008515423 0.09619748 -0.028414797 -0.053647995 0.043385074 -0.06404438 -0.026951376
0.10606189 0.10319315 0.07407143 0.0011758121 0.041130517 -0.027687807 -0.12555675 -0.021096868
0.08340007 0.032952487 0.0246137 0.01616972 0.039870635 -0.03542694 -0.0036527535 -0.034462593
0.008851002 -0.047869805 -0.04843799 0.048404247 0.030355753 0.06179406 0.06299932 -0.05587192
-0.0029842372 0.036303245 -0.036172673 -0.047075436 0.019366553 0.058489818 -0.01999498 0.02198256
0.03713639 -0.064046085 -0.049269553 0.04186147 -0.07465688 0.028850067 -0.0073417327 -0.07356613
0.04899529 -0.0054813656 -0.025967361 0.041730132 -0.0038988234 0.013925494 -0.03388195 -0.0015502073
0.016081573 0.027302727 0.037218947 -0.02457955 -0.030750597 0.04756037 -0.0067753415 0.027596831
-0.047589973 0.08868241 0.068765774 0.091811925 -0.020490117 -0.029662041 0.04349402 0.01568323
0.037691627 0.020781688 -0.018684877 0.0011544826 0.09934141 -0.0828102 0.018136563 -0.0023551928
-0.01904113 -0.00036298682 0.04498093 0.0036523049 -0.06278096 -0.040724512 -0.04359463 0.014867745
0.04142851 0.024337782 0.020543933 -0.118479684 -0.002055259 0.0043734554 0.026875813 -0.02124244
-0.09582998 0.032697294 0.06514944 -0.018636102 0.023383815 -0.05034459 -0.029112699 0.008666484
-0.042111892 -0.027504768 -0.044194933 -0.06537462 0.0064976076 -0.0046747467 -0.04315759 0.055196915
0.004930281 -0.027723748 -0.037136473 -0.055496056 0.037999947 -0.023885475 -0.04990429 0.027588686
00000000: 8816 e93c 45ac 3e3d ad1d a43b 6ff2 4cbc
00000010: 05c8 16bd ec06 c5bb 1a4c 14bd dd82 d63b
00000020: dfbe 753d 2869 06bd 2433 fcbd 0504 b13d
00000030: a7ef 823c 8e8b 4f3a 3bdb 693c 17b5 8d3b
00000040: d275 a63c b648 96bc cbac d7bd 62fb d53c
00000050: fee1 92bd 5d79 d23c 5bd5 ea3d 5da1 6d3c
00000060: 1463 b6bd a565 013d 05fb 9abc 388a 45bc
00000070: d097 863d 8f61 50bd 9ef8 cbbc 1568 89bd
00000080: 44ce ee3b 8e84 f1bc a187 f8bc 4347 bcbc
00000090: a548 323d 8c1e 86bc 7773 023c e6c4 45bc
000000a0: 239a 46bc 678e 5a3d b8aa c9bb 6bd5 0abd
000000b0: 0c10 393c c3b4 1c3a ec1f e7bb 13a1 0d3d
000000c0: a21e c7bc 7d00 27bd 9195 e0bb 6d31 3d3c
000000d0: ff50 82bc 7ad5 15bd 26d6 3ebd cf42 023d
000000e0: 1ee8 143d 09bb 983c 055a 02bd 3fb1 b5bd
000000f0: b11a 33bc 81b4 c1bc d24b 783c 851f bd3b
00000100: e679 983c 5d4d c33c 49fa 713d 6d66 8ebc
00000110: 2aab 32bc f430 e8ba f089 753c fdd9 9f3c
00000120: f97e 3e3d 919d 013c a020 0abd 5424 833c
00000130: 037d 58bd f71a 3ebc d4f1 17bc 8930 143b
00000140: 2c5b b73c 2fd7 f0bc 9c62 b7bc 8029 ea3d
00000150: 2c07 f9bc ce7e 95bc 2f30 d5bc 76fd 993d
00000160: c414 e6bd d96e f8bc 3e4e b23d eb31 393d
00000170: 5a03 173d 51a0 3cbd 29d9 87bc 19eb c23c
00000180: f83c e43c aae5 8bbc a8ce 0bbd 64be 4d3d
00000190: 9c3a 503c 3bf0 00bd 8397 6cbd 6b36 12bd
000001a0: f4c8 173d 545c 89bd 3e11 e7bc 0bc6 fabc
000001b0: 99e5 0a3d 97d3 f93c 9dd7 94bc 1392 b13c
000001c0: 7a42 4abd 7b27 d8bc 2f07 19bd f5b6 b93d
000001d0: 827d 953d 381e 963c 3ffb 2d3d 7dbd 713c
000001e0: d7e9 343d bfc1 8c3d 7432 863b 69be b53c
000001f0: 2cfa 523d 599c 42bd 2652 423e 1046 9e3c
00000200: 0578 9dbd 1a46 cebc e2d8 243d 9732 4cbd
00000210: e2d4 8bbb c2ef 1dbd 5174 e53c 4340 8d3c
00000220: dfd2 65bd 093a 5f3a 2f03 c53d 26c6 e8bc
00000230: 00be 5bbd 8cb4 313d b329 83bd 22c9 dcbc
00000240: fa36 d93d ee56 d33d c3b2 973d b51d 9a3a
00000250: 7978 283d 8ad1 e2bc f391 00be 57d3 acbc
00000260: a8cd aa3d 30f9 063d aca2 c93c 5c76 843c
00000270: 644f 233d d71b 11bd 0963 6fbb a628 0dbd
00000280: cb03 113c 2113 44bd ea66 46bd 8843 463d
00000290: a1ac f83c c51b 7d3d ca05 813d f4d9 64bd
000002a0: 3193 43bb b6b2 143d cc29 14bd 2cd2 40bd
000002b0: 9ba6 9e3c 0593 6f3d 83cc a3bc c514 b43c
000002c0: 541c 183d 982a 83bd dfce 49bd ef76 2b3d
000002d0: b5e5 98bd fa56 ec3c eb92 f0bb d7a9 96bd
000002e0: 49af 483d 079d b3bb 81b9 d4bc 37ed 2a3d
000002f0: 6783 7fbb c127 643c cdc7 0abd 5330 cbba
00000300: 81bd 833c f8a9 df3c e572 183d 0d5b c9bc
00000310: ade8 fbbc aace 423d af03 debb c012 e23c
00000320: b4ed 42bd 209f b53d 12d5 8c3d e407 bc3d
00000330: e4da a7bc cffd f2bc c926 323d 1e7a 803c
00000340: 8962 1a3d 5c3e aa3c 0711 99bc 0252 973a
00000350: 8273 cb3d 6598 a9bd 2193 943c 9459 1abb
00000360: 25fc 9bbc 444f beb9 ec3d 383d 825b 6f3b
00000370: 4e93 80bd bfce 26bd 4890 32bd d897 733c
00000380: f1b0 293d 0760 c73c c04b a83c 7aa5 f2bd
00000390: 86b1 06bb 344f 8f3b aa2a dc3c a004 aebc
000003a0: 8242 c4bd 99ed 053d 126d 853d bdaa 98bc
000003b0: 6a8f bf3c 2136 4ebd c17d eebc defd 0d3c
000003c0: 857d 2cbd ae51 e1bc bf05 35bd 21e3 85bd
000003d0: e2e9 d43b 9e2e 99bb 03c6 30bd 2916 623d
000003e0: 328e a13b ea1c e3bc 6a1c 18bd d54f 63bd
000003f0: d5a5 1b3d 79ab c3bc 7168 4cbd ab01 e23c

module.net_sm.layer2.0.bn2.weight f4 [32]
0.8133565 0.8459427 0.862347 0.8573207 0.886784 0.8606608 0.86273515 0.8476164
0.8716494 0.8312232 0.84553635 0.8676821 0.83716345 0.8718269 0.86915094 0.86808485
0.80590343 0.8498435 0.8584847 0.8755663 0.8759967 0.8121469 0.8791932 0.8376717
0.8216955 0.8602973 0.8252606 0.87182724 0.8843271 0.8402278 0.860742 0.8637008
00000000: 2238 503f b38f 583f c6c2 5c3f 5f79 5b3f
00000010: 4704 633f 4454 5c3f 36dc 5c3f 63fd 583f
00000020: 6a24 5f3f 0bcb 543f 1275 583f 6a20 5e3f
00000030: 5850 563f 0c30 5f3f ad80 5e3f cf3a 5e3f
00000040: b04f 4e3f 588f 593f a7c5 5b3f 1d25 603f
00000050: 5241 603f dce8 4f3f ce12 613f a771 563f
00000060: a35a 523f 723c 5c3f 4744 533f 1230 5f3f
00000070: 4363 623f 2b19 573f 9659 5c3f 7f1b 5d3f

module.net_sm.layer2.0.bn2.bias f4 [32]
-0.009577832 -0.017700575 -0.029826066 -0.009922959 -0.013256692 0.0023781983 0.0069766506 -0.017243704
0.019909082 -0.038572617 -0.01060943 -0.0012800057 -0.020031393 -0.0065613664 -0.016167054 0.008000539
-0.05518616 6.3215695e-05 0.0012664783 0.026217887 0.0031032325 -0.03281375 -0.0102024805 -0.037028857
0.0004572617 0.020161858 -0.014598075 0.0013512592 -0.0042263423 -0.049215727 -0.011604973 -0.0034823273
00000000: 57ec 1cbc cc00 91bc cb55 f4bc e893 22bc
00000010: 9932 59bc 8cdb 1b3b 639c e43b ab42 8dbc
00000020: 5f18 a33c 52fe 1dbd 2dd3 2dbc ddc5 a7ba
00000030: e018 a4bc bb00 d7bb c570 84bc b114 033c
00000040: e20a 62bd ab92 8438 f6ff a53a e5c6 d63c
00000050: 9a5f 4b3b b667 06bd 4e28 27bc 92ab 17bd
00000060: a0bc ef39 7b2a a53c c42c 6fbc bc1c b13a
00000070: 217d 8abb 6e96 49bd c922 3ebc c237 64bb

module.net_sm.layer2.0.bn2.running_mean f4 [32]
0.1646255 -0.23141442 0.2195599 0.33998775 -0.5424512 -0.5530927 -0.018346515 -0.09004535
-0.6893587 0.09785888 0.48999146 0.25672615 0.12271673 0.39969826 -0.42892683 0.14310305
0.7377166 0.119595245 -0.4200913 -0.8296518 -0.37966758 1.0576128 -0.8156159 0.26545465
-1.4618703 -0.8770192 1.118836 -0.17898357 -0.19441658 0.44996616 -0.42602432 -0.44118494
00000000: 9693 283e e7f7 6cbe 4fd4 603e e012 ae3e
00000010: 15de 0abf 7c97 0dbf 6e4b 96bc b269 b8bd
00000020: d079 30bf 3d6a c83d 29e0 fa3e 9c71 833e
00000030: e952 fb3d 40a5 cc3e 4c9c dbbe 9b89 123e
00000040: ffda 3c3f 5aee f43d 3516 d7be 0f64 54bf
00000050: ca63 c2be db5f 873f 34cc 50bf ace9 873e
00000060: 911e bbbf 5584 60bf 0536 8f3f 7847 37be
00000070: 2415 47be f761 e63e dc1f dabe fee2 e1be

module.net_sm.layer2.0.bn2.running_var f4 [32]
0.5387853 0.50985044 0.7947772 0.6750118 0.7782708 1.2924746 0.47425863 0.65672153
0.5354038 1.4543581 0.89120245 0.37605637 0.62224394 0.56256616 0.43019325 0.5456032
0.771281 0.6668088 0.49191883 0.7577059 0.81021935 0.8427636 1.1799152 0.7995769
3.0648558 1.3144773 1.2452598 0.57345027 0.46761087 0.77650255 0.5908317 0.57740134
00000000: d5ed 093f 8f85 023f 8576 4b3f 93cd 2c3f
00000010: c13c 473f cf6f a53f 07d2 f23e e71e 283f
00000020: 3910 093f 6828 ba3f d825 643f 768a c03e
00000030: 614b 1f3f 5604 103f 4a42 dc3e a7ac 0b3f
00000040: ac72 453f fbb3 2a3f c9dc fb3e 04f9 413f
00000050: 896a 4f3f 5bbf 573f 7607 973f 12b1 4c3f
00000060: 9926 4440 cb40 a83f ac64 9f3f a3cd 123f
00000070: b16a ef3e dfc8 463f bf40 173f 93d0 133f
