model/model_20200914182941/model_final_mb6_4_0300_ts.pth (torch_old, 131256 bytes, 59 tensors)

module.net_ts.conv1.weight f4 [32, 1, 7]
000000 29 c9 67 bc 56 89 d1 be 9f 3a 82 be 1e 7f eb 3d
       -0.014147081 -0.40925092 -0.2543535 0.11498855
000010 7b 65 78 3e 06 71 05 3e 5a 33 03 3f 7f b7 39 be
       0.24257462 0.13031396 0.5125023 -0.18136404
000020 2b 0e 10 bf 56 c5 a3 3e cc 66 51 be 3f 68 f8 3e
       -0.5627162 0.31986493 -0.2044937 0.48517033
000030 68 ff eb 3d ba 37 6d 3e 4c 90 10 3d e2 0f 08 3f
       0.11523324 0.23165789 0.035293862 0.53149235
000040 bb 6b 82 3d 01 66 95 3d 71 bf b0 3e 06 a6 15 bf
       0.06368204 0.07294846 0.34521058 -0.58456457
000050 1a a7 02 bf cc fd 27 bf bb 59 8f bc 08 de 36 be
       -0.51036227 -0.6562164 -0.017498842 -0.17858136
000060 59 77 27 be 5e a3 29 3e 27 91 03 3f 18 97 24 3e
       -0.16354121 0.16566226 0.5139336 0.16073263
000070 af ed 90 3d 74 f0 b1 3d 11 ae 03 bf b2 b9 29 be
       0.070765845 0.08688441 -0.5143748 -0.16574743
000080 00 00 6f be f9 06 0b 3f 41 d8 a9 3e 61 d6 21 be
       -0.23339844 0.54307514 0.331728 -0.15804435
000090 25 6b 27 bf 8e 5b af bc 27 92 5e 3e d4 69 3e be
       -0.65397865 -0.021405961 0.2173544 -0.18595058
0000a0 6a 7e 68 be 42 f6 95 3e 77 6f 97 3d d5 cd a9 be
       -0.22704473 0.29289442 0.07394307 -0.3316485
0000b0 78 21 68 be 6c 4c e8 bd 16 47 6a 3e 0c ad 8c be
       -0.22669017 -0.11342701 0.2287868 -0.27475774
0000c0 58 64 4f be 01 b2 9a bc 22 94 33 3e 1f 0a 16 be
       -0.20253122 -0.018883707 0.17536977 -0.14652298
0000d0 02 66 33 3f ed 03 db 3b 4a 71 41 bd 29 ce 6d 3e
       0.70077527 0.0066838176 -0.04722718 0.23223175
0000e0 d8 44 4c 3e b9 4f 6c bd 20 fc 2c 3e cd cb d6 3d
       0.19948137 -0.057693217 0.16893053 0.10488091
0000f0 f0 69 34 3a 86 a1 0f 3e dd a0 db 3e 9c fc 4c 3e
       0.0006882241 0.1402646 0.42896166 0.20018238
000100 be fc 62 bd 75 fe ca 3e 89 10 26 3d e8 de b9 3e
       -0.055416815 0.3964726 0.040543113 0.36302876
000110 1e c8 b6 be 5f ca a8 3d ef 9f a6 bc 62 7d 07 3d
       -0.35699552 0.08241724 -0.020339934 0.03307856
000120 cf 2c 7e bc fe f6 c0 be 28 a4 8c be 69 87 4f 3f
       -0.015513613 -0.3768844 -0.2746899 0.81065995
000130 f5 e6 16 3e 0b 3f 29 be 06 6a d5 be bf 3e e0 3e
       0.1473654 -0.16527955 -0.41682452 0.4379787
000140 1a 71 d9 3e d3 27 2b bf ca 9d 52 3e 33 54 39 3e
       0.42469102 -0.6685764 0.20568004 0.18098526
000150 b4 d9 81 be cc 75 c9 3e 74 9b 98 bb 54 f9 07 3f
       -0.25361407 0.39347684 -0.0046572033 0.5311482
000160 69 f3 1f 3d 58 46 e5 3d c7 48 40 be 80 a2 ed 3e
       0.039050493 0.11195058 -0.18777762 0.4641304
000170 8d dd af 3d 96 95 df 3e f5 64 d5 be 4d df 92 be
       0.08587179 0.43668813 -0.41678587 -0.2868599
000180 93 aa 25 be 55 fc 11 bd 68 fd b4 3d c2 81 04 bd
       -0.1617835 -0.035641033 0.08837396 -0.03235031
000190 aa 14 41 be ff 23 36 3e bd 1c 4d 3e 5c f6 28 bf
       -0.18855539 0.17787169 0.20030494 -0.66000915
0001a0 73 72 f7 3e e2 db f9 bd d5 5e 37 be df f9 4c be
       0.48329505 -0.122001424 -0.1790727 -0.20017193
0001b0 9c 6c 78 be b5 59 f8 3d 4b 49 8f be fe 02 74 3d
       -0.24260181 0.12126485 -0.27985606 0.059573166
0001c0 cc 5d 7f 3e 23 45 e3 3e 30 6a 95 be 7e 69 25 3e
       0.24938124 0.44388685 -0.29182577 0.16153523
0001d0 63 58 45 be b9 6d 04 3e 7a 41 ac 3e 40 ef 6e be
       -0.19271998 0.12932481 0.33643705 -0.23333454
0001e0 a5 8a 37 3e d7 c3 c8 be ee fa 8f be 3e 28 46 3d
       0.17923982 -0.39211914 -0.28121132 0.04837822
0001f0 e5 2d 7a be c1 a8 93 39 17 4b 4f 3e a9 63 18 be
       -0.2443157 0.00028163756 0.20243488 -0.14881767
000200 b3 7a 24 be d9 b7 ff 3b 88 8f fe 3e 86 56 21 bf
       -0.16062431 0.007803899 0.4971888 -0.6302265
000210 bb 2a 94 bd 2d 4c 1d bc b9 1c 55 3e 77 54 62 bd
       -0.07234713 -0.009600681 0.20811738 -0.055256333
000220 72 0b 6c 3e 36 5b c7 bd d2 f5 33 3e 9f e5 04 3f
       0.23051241 -0.09734194 0.17574242 0.51912874
000230 66 ec 84 3d cc d6 b5 bd 77 2c b4 be 80 fd 1e bd
       0.06490402 -0.0887886 -0.35190174 -0.038815975
000240 6c 23 a9 bd 4f f5 92 be b7 fa c4 bd 00 7c 8b be
       -0.08258709 -0.2870278 -0.096181326 -0.27243042
000250 77 b9 83 3e 30 f1 ce be cb a6 e3 3e fb 79 5f 3e
       0.25727436 -0.40418386 0.4446319 0.21823876
000260 18 f4 40 3e b3 a1 40 bd 77 05 49 be a9 94 8b 3d
       0.18843114 -0.04702921 -0.19630991 0.06815464
000270 18 b2 a7 be c2 44 a9 be 7c 76 4b 3f 96 fd e5 be
       -0.32753062 -0.3306027 0.7947767 -0.44920033
000280 50 61 8e be 07 cc be bd 45 c9 49 3e 02 86 2b 3d
       -0.2780862 -0.09316259 0.19705684 0.041875847
000290 62 c0 2b be cf 9f ae be b5 fd 31 3f b5 7b 81 be
       -0.16772607 -0.341063 0.6952775 -0.25289693
0002a0 63 bc f6 3e e7 af 26 bc 06 0a 20 be 76 37 88 3e
       0.48190603 -0.010173774 -0.15628824 0.26604813
0002b0 af a7 dc be 07 47 bd 3e 34 c7 34 be bc 09 d2 bd
       -0.43096682 0.36968252 -0.17654115 -0.10255763
0002c0 ce f8 87 3e e8 7c 0a bf 08 52 f7 3d 6e 30 a0 be
       0.2655701 -0.5409684 0.12076193 -0.3128695
0002d0 a2 48 f6 bd 80 32 05 3d 6f dc 4f bd 64 bf 8c 3d
       -0.12025572 0.032518864 -0.05074733 0.06872442
0002e0 41 22 05 bf c9 38 01 3e 38 2f 84 be 30 36 5e bd
       -0.5200539 0.12619318 -0.25817275 -0.054250896
0002f0 06 d1 37 be b8 42 0b 3e 98 be d8 be 74 8a 51 3e
       -0.1795083 0.1359967 -0.42332911 0.20462972
000300 3e 2f 00 be 55 6a f8 3c e7 22 b9 bd bf 9a c8 be
       -0.12518021 0.03032414 -0.0903986 -0.39180562
000310 eb 89 e1 3d cb 7d 26 be 04 8e 23 bc 89 e4 b3 be
       0.11012634 -0.16258924 -0.00998259 -0.35135296
000320 b7 af 0a bf d7 80 5e 3e 16 b6 25 3e 3e f4 d7 bd
       -0.5417437 0.21728836 0.16182742 -0.105446324
000330 7b 70 00 bf 1a 71 5d bc fd d6 ba be 37 be c9 bc
       -0.5017163 -0.013515735 -0.36492148 -0.024626834
000340 ea 23 37 3d 43 f0 87 3e 05 d2 0a 3d 27 97 c5 3d
       0.044711985 0.26550493 0.033891696 0.09647971
000350 0e 0d 04 3e b5 38 8d 3d 05 3f 98 3d 60 9e 10 3f
       0.12895605 0.06895582 0.07433895 0.5649166
000360 06 55 27 bf c0 7d dd bd 72 4f 0f be fe 19 39 3f
       -0.6536411 -0.108150005 -0.1399515 0.72305286
000370 84 bd 78 3d 3c 4d ed 3d 01 03 2a be a8 5f e5 3d
       0.06072761 0.11586997 -0.16602708 0.111998856

module.net_ts.bn1.weight f4 [32]
000000 a5 9d 4e 3f 9b e8 5c 3f d5 41 8b 3f 86 fa 79 3f
       0.80709296 0.8629243 1.0879465 0.97647893
000010 b9 15 80 3f fc a7 80 3f af 61 46 3f e0 7a 70 3f
       1.0006629 1.0051265 0.77492803 0.9393749
000020 38 f5 33 3f 5d cd 57 3f 7e 92 72 3f dc ab 6f 3f
       0.7029605 0.84297734 0.9475478 0.9362161
000030 9e 1b 5c 3f e0 12 53 3f 4e 31 71 3f e3 c3 1e 3f
       0.8597964 0.82450676 0.9421586 0.6201765
000040 62 4f 79 3f 4f 4e 60 3f 93 87 6c 3f ac 52 4b 3f
       0.97386754 0.8761949 0.9239437 0.7942302
000050 11 a3 31 3f 7a 32 52 3f 1b 84 8f 3f 33 cf 3d 3f
       0.69389445 0.8210827 1.121219 0.74144286
000060 ab f5 57 3f 36 2b 5f 3f f6 ec 35 3f 1a e4 51 3f
       0.84359235 0.8717531 0.710647 0.8198868
000070 68 ce 5e 3f f0 54 5e 3f a4 67 8e 3f 6d d7 60 3f
       0.870337 0.86848354 1.1125379 0.87828714

module.net_ts.bn1.bias f4 [32]
000000 2f 4a 31 3d 4f 57 4c 3e 7c 0f 83 be a5 64 11 bd
       0.043283638 0.1995518 -0.2559775 -0.035496373
000010 ce a5 32 be bb 38 95 bc c3 f0 f3 bd 11 34 84 bd
       -0.17446062 -0.018215528 -0.11911156 -0.064552434
000020 62 0e fa bd 9f 96 bb 3c 2a 0b 98 bd 15 a4 51 bd
       -0.122097746 0.02289897 -0.074240044 -0.05118187
000030 13 a3 62 bc a9 8f c6 3d 3a 6d f1 3d 2c e3 f3 bc
       -0.013832825 0.0969537 0.117884114 -0.02977141
000040 ca 89 b7 3d b9 fd e9 3b 4a 4b a0 3d 3f e9 29 be
       0.08961828 0.007140842 0.0782686 -0.16592883
000050 48 6f 8a bd 72 0c 17 3e 5f c7 e6 bd 30 9d 5a bd
       -0.067595065 0.14750841 -0.11268496 -0.053372562
000060 c6 27 45 3e 7d 77 48 bd 5e 13 88 3d a0 d4 a4 bd
       0.19253454 -0.048942078 0.06644319 -0.080483675
000070 02 d2 77 3d 37 1d d4 3d fe 25 6a 3d 69 3e 2b be
       0.060503013 0.10357135 0.05716514 -0.16723026

module.net_ts.bn1.running_mean f4 [32]
000000 bb 83 97 b9 96 73 14 ba 7d 7c 32 39 07 70 58 39
       -0.0002889911 -0.00056629756 0.00017021778 0.00020641099
000010 2a f8 2b 39 91 3f 40 b9 f1 e0 14 b9 b9 ca 86 39
       0.00016400279 -0.00018334227 -0.00014198177 0.00025709512
000020 a0 84 92 b9 0b 33 eb b9 8b 08 8b 38 c9 70 da 38
       -0.00027946103 -0.00044860723 6.629628e-05 0.00010416058
000030 55 f0 04 3a 10 4c bc b9 4f e5 a1 b9 60 00 1b b9
       0.00050712127 -0.00035914825 -0.0003087916 -0.00014782092
000040 9e fb 2f 39 df fb 08 39 df 49 a8 b9 4a 14 91 37
       0.00016783035 0.000130638 -0.00032098495 1.7294795e-05
000050 71 38 a5 38 2c 06 f6 39 53 81 14 b9 bf 47 c7 39
       7.878326e-05 0.00046925375 -0.00014162557 0.00038009693
000060 86 c1 88 39 8b 4a e8 39 e7 96 e3 39 c9 26 34 b9
       0.00026084128 0.00044306027 0.00043409245 -0.00017180586
000070 68 bf 74 b8 bb 15 bb b9 16 ad b9 39 9b 8f bf b9
       -5.8352394e-05 -0.0003568361 0.0003541491 -0.00036537353

module.net_ts.bn1.running_var f4 [32]
000000 33 4b e0 3c 3e 07 fc 3c 52 a0 2f 3d 4e 55 15 3d
       0.027379608 0.030765172 0.042877503 0.036458306
000010 f4 63 e0 3c b6 e2 07 3d a9 1f b3 3c 70 9e 06 3d
       0.027391411 0.033175193 0.021865683 0.03286594
000020 b6 af c2 3c cd eb b5 3c 5f b9 04 3d 8d 9c 18 3d
       0.023765426 0.022207165 0.032403346 0.037258673
000030 ca fd cd 3c ad 92 df 3c e8 f1 d2 3c cc a5 9e 3c
       0.02514543 0.02729162 0.025750116 0.019366167
000040 13 5b d9 3c fa 03 d8 3c 34 b4 d0 3c 05 2c e4 3c
       0.026532685 0.026369084 0.025476553 0.027853021
000050 e1 43 a9 3c cc db b4 3c e6 3e 3b 3d 3f c1 c0 3c
       0.02066225 0.022077464 0.04571428 0.023529647
000060 83 5a c5 3c 42 d9 bc 3c 53 8b c6 3c 41 08 a2 3c
       0.02409101 0.023052815 0.024236357 0.019779326
000070 39 7f ca 3c 86 98 db 3c 4c c9 e7 3c 17 09 d4 3c
       0.024718868 0.026806127 0.028294228 0.02588324

module.net_ts.layer1.0.conv1.weight f4 [32, 32, 3]
000000 3a 23 3d 3d b3 69 46 be 89 d6 75 3e 10 1b c1 3d
       0.046176173 -0.19376259 0.2400762 0.0942899
000010 da 5b 53 bd 3c 32 a8 3d 6f b5 d5 bd 98 be 62 bd
       -0.05160127 0.082127064 -0.10434996 -0.055357546
000020 88 db d9 3d 1a 24 1d bd 4c 4f b6 bd 57 1c c8 bc
       0.106375754 -0.038364507 -0.089018434 -0.024427576
000030 46 01 9d 3e 02 97 b9 3c 97 64 68 bd 3e 62 b8 3d
       0.30665034 0.022655014 -0.056736555 0.09003113
000040 54 5c 1b 3e 4f 20 86 3d ca 7b 88 be 79 30 87 be
       0.15171939 0.06549131 -0.26656944 -0.2640417
000050 51 bf 82 be ef 0a 03 be 8b 4e bf 3d 99 9e 4b 3e
       -0.25536588 -0.1279714 0.09341153 0.19884719
000060 e5 b0 00 3d 63 2b 3b 3d 63 8b 9b bc 84 25 20 3d
       0.0314187 0.045695674 -0.018987363 0.039098278
000070 a9 2d fd 3d 68 0a 00 3c 08 bd cd 3d 70 6f ec 3d
       0.123622246 0.007814981 0.100458205 0.115446925
000080 cf 5b b8 bd c4 fd 65 be 80 42 3d bd 3c a7 80 3e
       -0.09001886 -0.22460085 -0.046205997 0.2512759
000090 57 76 c2 bd 9c 26 10 bd 53 b2 04 3e 5a 52 aa 3c
       -0.09495228 -0.03519307 0.1295865 0.020791221
0000a0 9a 75 a0 3c 3c cc 71 3e fd 99 43 3e 92 8c 01 be
       0.019587327 0.23613065 0.1910171 -0.1265128
0000b0 9e 48 3d 3d c6 6a 6d 3e 89 40 a6 3c 9a e7 32 be
       0.04621183 0.23185262 0.020294445 -0.17471161
0000c0 44 4f 3f bd b8 68 34 be bc 2d f2 3d 72 b1 0c be
       -0.046706453 -0.17618072 0.118251294 -0.13739565
0000d0 b1 62 41 bd fc 31 2e bd b2 e0 d2 3d 94 52 bd bd
       -0.04721326 -0.042528138 0.102967635 -0.09244266
0000e0 55 3c 1f 3e 8f c1 94 3b 2b b7 1f be dc 9f 8d be
       0.15550359 0.0045396755 -0.15597217 -0.27661026
0000f0 1e 4f 3d 3e 82 b3 57 be ee 98 85 be 63 c8 37 3d
       0.18487212 -0.2106457 -0.2609324 0.044868838
000100 fc f5 99 bd 77 38 4f 3e 0b 67 40 bd 3d 46 da bd
       -0.07517621 0.20236383 -0.04697327 -0.10657928
000110 85 90 d6 3c 2b dc 4b bd 4e f7 2e 3e ed cf 7a 3d
       0.02619196 -0.049770515 0.17086527 0.06123345
000120 c0 9b a5 bc 3d f6 82 bd 14 7e b6 3e af a7 c3 bd
       -0.020215869 -0.063946225 0.35643065 -0.095534675
000130 85 a8 5f 3d 16 1b 42 be 50 02 69 3d 40 5c 8b bc
       0.054604072 -0.18955645 0.05688697 -0.017011762
000140 c3 e0 af bd 31 d1 22 be 50 14 0a be 1e de 27 3d
       -0.08587792 -0.15900113 -0.13484311 0.04098331
000150 9a 18 17 3c d5 87 3f 3d 52 44 6a be dc e9 8b 3d
       0.009222174 0.0467604 -0.22877625 0.068317145
000160 a0 61 17 3e 61 55 30 3e 11 fb 49 be b5 d9 3a 3e
       0.14783335 0.1722007 -0.1972468 0.18247111
000170 51 3f 2b be 30 bb 77 3e f3 13 f4 bb 07 4c 92 3c
       -0.16723372 0.241925 -0.007448667 0.017858518
000180 44 49 22 be 86 be e2 3c 58 63 29 3d 37 80 fd bd
       -0.15848261 0.02767874 0.041354507 -0.12377971
000190 a0 93 1f be 7f cb c3 3d c7 50 c8 be e3 70 2a be
       -0.15583658 0.09560298 -0.39124128 -0.16644625
0001a0 c7 8e 3f bb 29 ac 21 be 23 01 78 3d dc 92 b3 3d
       -0.002922939 -0.1578833 0.06054796 0.087682456
0001b0 52 22 e6 bd 55 14 58 3d ab 80 aa 3e c4 45 d8 3d
       -0.11237015 0.052753765 0.3330129 0.10560182
0001c0 dc 10 52 be 75 8b 00 3e 37 ee 00 3e 3f 29 a4 3d
       -0.20514244 0.12553199 0.12590872 0.080156796
0001d0 3b 69 c7 3e 40 b5 94 be be 5e 24 3d 5c a6 9c bd
       0.38947472 -0.29044533 0.040129416 -0.07648918
0001e0 dc 49 8c be df 94 4a be 54 9e bd bd bf 2b 32 3e
       -0.274001 -0.19783352 -0.09258714 0.173995
0001f0 ac fc 34 3e 2e 65 82 be f2 9c a8 3d 43 3b 10 3e
       0.17674512 -0.2546782 0.0823306 0.14085107
000200 6f d2 4b 3d ed d6 f7 3c 53 09 42 3d d0 2f 9c 3d
       0.049761232 0.030253852 0.047372174 0.07626307
000210 46 2f 7d 3c d8 0f a8 bd ed 35 0a be db e1 28 be
       0.015453165 -0.08206147 -0.13497134 -0.16492407
000220 85 7b 0a 3e 4a 07 1f bd 94 b6 33 3e 1b 01 ed 3c
       0.13523681 -0.03882531 0.17550117 0.028931191
000230 31 3e f4 3d 4e c1 e3 3d 05 99 f5 3d a4 13 be bd
       0.119259246 0.11120854 0.11992077 -0.0928109
000240 5a 73 68 be 13 18 47 3d 51 03 47 3d b1 c5 a4 bd
       -0.22700253 0.048606943 0.048587147 -0.08045519
000250 b6 66 00 be 1c a8 cf bc 5f fc 28 3e b5 a2 7d bb
       -0.12539181 -0.025348715 0.16502522 -0.0038701717
000260 c0 6d b0 3e 0e 19 17 be aa c0 87 3e f8 a7 d9 3d
       0.34458733 -0.14755651 0.2651418 0.106277406
000270 5b a3 7d be 51 c2 57 bd 85 72 cc 3c 9c df df bd
       -0.24769346 -0.05267555 0.02495695 -0.10931322
000280 cd fe e0 3c 6d 87 04 3e dd f8 dd bb 26 bd d7 bc
       0.027465248 0.12942286 -0.0067740516 -0.02633531
000290 01 06 1d 3e 91 e8 26 3e a3 06 d5 bc 7b 6d c2 3b
       0.15334322 0.16299655 -0.026004141 0.0059334612
0002a0 50 99 f6 be 14 b0 b5 3c 95 9e 9b be 6e 22 85 bd
       -0.48163843 0.022178687 -0.30394426 -0.065007076
0002b0 95 7c 85 3d ba ec 75 be 0e 5d 98 bd 1d 24 6c 3d
       0.06517903 -0.24016085 -0.07439624 0.057651628
0002c0 7f 79 88 be ce 84 46 3e cb ec 19 3e a9 4c 1f 3e
       -0.26655194 0.19386598 0.15031736 0.15556587
0002d0 3b 77 b5 3d d2 ef 8a bd b0 b3 08 be d6 be d4 3d
       0.08860632 -0.06784023 -0.13349795 0.103879616
0002e0 5d 85 ac 3d 3e 4d e6 bd 89 6a cb bd bc 71 7d bc
       0.084238745 -0.112452015 -0.09932429 -0.015469011
0002f0 bc 49 f0 3d f4 71 02 be b3 30 d7 bd 6e b7 aa bc
       0.11732814 -0.12738782 -0.105073355 -0.02083942
000300 1a a4 2c 3e cb 3a 0e 3d c9 f4 04 be 7d 3b 06 3e
       0.16859475 0.034724038 -0.12984003 0.1310863
000310 ce 78 39 3e df 97 ed 3d 8e d5 85 3d d2 58 fa 3c
       0.1811249 0.11601233 0.06534873 0.030559931
000320 49 24 5a be 37 56 e3 bd 7b 18 6e 3e c3 8c 2e 3d
       -0.21302904 -0.111004286 0.23251526 0.04261471
000330 76 53 ed bd 42 8f a2 3c 54 e9 11 3d 25 14 a0 bd
       -0.115881845 0.019843701 0.03562291 -0.07816342
000340 8a 10 0d 3e 2d 1c dd bc 14 a7 bd bd c2 da 0a be
       0.1377584 -0.026990974 -0.09260383 -0.13560012
000350 f6 36 6c 3d 55 ab 5e be 58 e2 9c 3e 6d a7 83 be
       0.057669602 -0.21745045 0.30641437 -0.25713673
000360 eb 16 d6 bd de 05 59 3d f8 4f 2c 3e 91 7d bc bd
       -0.1045359 0.05298411 0.1682738 -0.092036374
000370 03 4c 09 3e 8a 1f ac 3e 03 b6 05 3e b8 e5 77 3e
       0.13407902 0.33617812 0.13057713 0.24208724
000380 a6 21 5b 3d 3d 0d 99 bc d7 89 0f 3e b3 83 43 3c
       0.053498887 -0.01868307 0.14017425 0.011933255
000390 82 a5 48 bd 99 b8 0a 3d be e1 9a bd eb ba a4 3e
       -0.048985966 0.033867452 -0.07562588 0.32173857
0003a0 ba b5 03 3e 63 b5 d6 bd af ce 1b be f3 fc 0b bd
       0.12862292 -0.104838155 -0.15215562 -0.034176778
0003b0 62 89 ce bd 3f 4d 0c be 6d 56 17 3d 62 cc 16 3e
       -0.100847974 -0.13701342 0.036947656 0.14726403
0003c0 26 f2 79 3d 7b c2 29 be 14 be 0f bd c2 df 20 be
       0.061021946 -0.16578095 -0.035093382 -0.15710357
0003d0 9f 08 65 3d 52 34 1b 3e 49 eb 43 bb dd 98 67 be
       0.055916425 0.15156677 -0.002989488 -0.22616906
0003e0 e5 19 b1 3c 12 23 bf 3b 13 b3 60 3d 7c 43 88 3e
       0.021618793 0.005833038 0.05485828 0.26613986
0003f0 37 bf 09 be 1e e3 b7 bd c6 39 1a 3e 67 c8 b6 be
       -0.13451849 -0.08978866 0.15061101 -0.3569977

module.net_ts.layer1.0.bn1.weight f4 [32]
000000 3c 34 55 3f c6 fd 71 3f 43 67 20 3f 9c 27 71 3f
       0.8328283 0.9452785 0.62657565 0.94201064
000010 a3 12 7a 3f cc 2f 6e 3f db 94 4d 3f 1c b3 37 3f
       0.9768469 0.9304168 0.8030526 0.71757674
000020 1f 39 68 3f 3e ce 68 3f 92 67 5c 3f d9 17 4d 3f
       0.9071216 0.909397 0.86095536 0.80114514
000030 77 21 33 3f 41 6a 67 3f 14 22 42 3f 3f e4 50 3f
       0.6997294 0.90396506 0.7583325 0.81598276
000040 99 45 5c 3f 2f 5f 45 3f 39 1f 6f 3f 7d 61 8c 3f
       0.860437 0.77098364 0.93407017 1.0967251
000050 28 6d 54 3f d1 8a 7c 3f f3 02 52 3f 48 54 75 3f
       0.8297906 0.9864932 0.8203575 0.9583173
000060 8b 25 44 3f 14 58 49 3f 01 ae 81 3f 46 44 5d 3f
       0.76619786 0.7865002 1.0131227 0.864323
000070 27 3e 6c 3f df 03 4e 3f 1b 7c 60 3f 07 08 61 3f
       0.92282337 0.80474657 0.8768937 0.87902874

module.net_ts.layer1.0.bn1.bias f4 [32]
000000 7e 42 93 bc 73 51 5f bd ad 76 95 bb a0 d3 41 be
       -0.017976042 -0.054521035 -0.0045612664 -0.18928385
000010 53 48 3c 3c 41 03 90 bc 60 ec 13 3e ce 54 79 bd
       0.011491853 -0.017579677 0.14445639 -0.06087189
000020 51 97 ae bc 7a 6b d0 3c 98 0b b6 bd 8b 54 ee bd
       -0.021312388 0.025441874 -0.0888893 -0.11637219
000030 d5 e0 03 be 9f 89 0e 3d 5d e8 b9 bd 9f 95 2c bd
       -0.12878735 0.034799214 -0.09077523 -0.042134877
000040 b3 b5 2b bd b0 a8 2d 3c c7 3b da bd 01 13 69 bc
       -0.04192133 0.0105993 -0.10655933 -0.014225722
000050 cf 68 06 3e fd d3 93 3d 4d dc 97 be 03 4c 53 3c
       0.13125919 0.07218168 -0.29660264 0.012896541
000060 92 81 e8 bd 46 8b 82 bd fc a7 ba bc c3 65 2d bc
       -0.113528386 -0.063742206 -0.02278518 -0.010583344
000070 9e 98 dd bd ae 91 7c bd bc d6 e2 3c f3 89 60 3c
       -0.10820125 -0.06166237 0.027690284 0.013704765

module.net_ts.layer1.0.bn1.running_mean f4 [32]
000000 e2 d7 d4 3e 90 fa cd be 0d b1 2e 3e d5 b9 a7 3e
       0.41570956 -0.40230227 0.17059727 0.32758966
000010 33 fe c3 bf 3a bf 37 3d 3d da 21 3f 03 fd cb 3f
       -1.531195 0.044860102 0.6322363 1.5936588
000020 56 d2 91 bf a8 31 45 bf 5c 00 91 3d 80 78 8e bd
       -1.1392314 -0.77028894 0.07080147 -0.06956577
000030 86 37 c9 3f 6a 14 f0 be de bc e1 3f f0 86 54 3e
       1.572007 -0.46890575 1.7635763 0.207546
000040 f9 ac bd bf 22 f0 4e 3d 39 50 ac 3e e9 88 77 be
       -1.4818412 0.050521977 0.33654955 -0.24173321
000050 d1 6a 87 bf 1b f6 c6 bf 01 b8 08 be 3c 1e b4 bf
       -1.0579473 -1.5543855 -0.13351442 -1.4071727
000060 ff b9 44 3f 85 97 a7 be 90 c2 12 bf da 61 64 bf
       0.7684631 -0.32732788 -0.5732813 -0.8921181
000070 a3 98 a1 bf 72 a6 d5 3f 9f a2 8f 3d bf ee 2e bf
       -1.2624706 1.669142 0.070134394 -0.6833305

module.net_ts.layer1.0.bn1.running_var f4 [32]
000000 d1 e9 8e 3f 6b 4e b8 3f f8 b8 67 3f d0 70 08 40
       1.1165105 1.4398931 0.90516615 2.1318855
000010 fe 6d 45 40 4d 50 97 3f 8c e1 3b 40 4b d0 1d 40
       3.0848384 1.1821381 2.9356413 2.4658382
000020 c1 e7 b0 3f d4 71 c3 3f 3a 32 aa 3f cc 75 93 3f
       1.3820726 1.5269113 1.3296578 1.1520324
000030 2a 6f 41 40 fe 16 e5 3f 49 40 1d 40 6b 87 8a 3f
       3.02241 1.7897642 2.4570487 1.0822576
000040 a1 a1 db 3f 57 d0 72 3f 16 a6 f5 3f e5 9d 0d 40
       1.71587 0.9484915 1.919131 2.212762
000050 9a 3d 39 40 97 76 43 40 75 be 73 3f 91 5a 0e 40
       2.8943849 3.0541131 0.9521249 2.2242777
000060 7b 37 94 3f 95 08 7b 3f d9 97 02 40 3a 35 07 40
       1.1579431 0.9805997 2.040518 2.1126237
000070 ba f2 15 40 a0 f5 15 40 75 2c ab 3f 9b 8f 9b 3f
       2.3429399 2.3431168 1.3372942 1.21532

module.net_ts.layer1.0.conv2.weight f4 [32, 32, 3]
000000 81 71 37 3e d3 a5 5b bd ba 5f 93 3d 03 a2 9b bd
       0.17914392 -0.05362494 0.07195993 -0.07599261
000010 00 8c 10 be b6 68 ec bd e3 03 8b bd ee fa 39 3e
       -0.14115906 -0.115434095 -0.06787851 0.18162128
000020 97 3c ee 3d 1e 52 24 be 7c f5 9d 3e e1 50 17 3d
       0.1163265 -0.1604695 0.30851352 0.036942367
000030 3d c6 c8 3d 99 ef cd 3b fe 7c b2 3d 4c 9f 35 3e
       0.09803436 0.006284666 0.087152466 0.17736548
000040 04 a3 23 3d 8e 6b 70 be 09 b3 12 be f8 b9 d3 3c
       0.039950386 -0.23478529 -0.14326109 0.025845513
000050 47 61 d6 bd 40 ec a7 be 3b ef 6e 3e 79 96 02 3e
       -0.10467773 -0.32797432 0.23333447 0.12752713
000060 9e 85 30 3d 4d 65 4a bd 03 b1 2e be df b4 25 be
       0.043096177 -0.049413014 -0.17059712 -0.16182278
000070 45 4a 22 3e 63 37 60 bd 6f 70 e5 bd 70 51 d5 3d
       0.15848644 -0.05474032 -0.11203086 0.104159236
000080 86 28 23 3e 03 7f b5 3d 83 c3 8c bd 78 69 ed 3d
       0.15933427 0.08862116 -0.068732284 0.11592382
000090 dd a3 3e 3e 18 54 48 bc 5d 31 a1 bd e2 d0 5d 3d
       0.18617196 -0.012227081 -0.078707434 0.054154284
0000a0 8a 40 f5 bd 11 0f a2 3d fc 93 33 be 8b ec 83 3e
       -0.119752005 0.0791303 -0.1753692 0.25766405
0000b0 a5 4a f6 3c 3e 9b 8b be 5c 09 3b 3d c3 a3 66 3d
       0.03006489 -0.27266878 0.045663223 0.05630852
0000c0 b0 7a 0a 3e 02 08 22 3e 85 47 e3 bd 12 41 50 3e
       0.13523364 0.15823367 -0.11097626 0.20337322
0000d0 17 3c 6f 3d 1d 19 05 be 19 48 85 be 82 bd 71 be
       0.058406916 -0.12997861 -0.2603157 -0.23607448
0000e0 d4 6d cf bc 42 aa bc bd 72 6a f2 b9 76 32 92 bd
       -0.025320925 -0.092121616 -0.00046237145 -0.07138531
0000f0 c4 04 2b be 30 1c b3 3d 49 fb f9 3d fa 29 5a bd
       -0.16701037 0.08745611 0.12206132 -0.05326269
000100 06 2b 07 3e e4 fe 0b 3d 62 72 3d 3e 3b ab b2 be
       0.13200006 0.03417863 0.18500665 -0.34896263
000110 ae 9c e0 3d 8f d1 c4 bd 3e 07 26 be 42 4b e4 3d
       0.10967384 -0.09610283 -0.162137 0.11147167
000120 76 db 8c bd 0c d5 b2 3d f4 9f 22 3e 0a 27 e2 bd
       -0.06877796 0.08732042 0.1588133 -0.11042602
000130 bf 50 82 3e a4 49 ce 3c 13 c5 8c 3d e6 c9 dd bd
       0.2545223 0.025181599 0.068735264 -0.10829525
000140 24 f5 cf bd fe 3f de bd 5a 7e 06 3e 38 ff 55 3d
       -0.10154179 -0.10852049 0.13134137 0.05224535
000150 9e 56 bb bd cc 52 34 3e 42 a2 7d bd ca 0f d3 3d
       -0.0914738 0.1760971 -0.06192232 0.10305746
000160 18 37 ed 3e f6 8e aa 3b 6e 98 04 bd 36 c8 a0 3d
       0.46331096 0.0052050306 -0.03237193 0.07850687
000170 d7 2c af bc 7b 6a 7e 3c e5 80 3e bc f1 4b 56 bd
       -0.021383686 0.015528317 -0.011627411 -0.052318517
000180 71 f8 82 bd 07 25 4f be 87 60 7e bd f9 c5 24 be
       -0.06395043 -0.20228969 -0.062103774 -0.16091146
000190 19 44 b9 bd f1 4f 63 3d f3 f1 29 3e a1 47 a3 bd
       -0.09046192 0.05549616 0.16596203 -0.079726465
0001a0 92 07 84 3d 66 93 df bd ef a1 96 3d 75 52 f3 bd
       0.064467564 -0.10916786 0.07355105 -0.11880962
0001b0 2d 7f 42 bd af 33 04 3e 61 97 e7 3d 45 59 ef 3d
       -0.047484566 0.1291034 0.1130817 0.11686949
0001c0 83 47 b4 3e 36 af 39 be a9 fc 8d be c3 9c 3b be
       0.3521081 -0.18133244 -0.27731827 -0.18321519
0001d0 02 9d be bd 9a 29 81 bd 19 87 3f 3e 24 c4 a1 be
       -0.093072906 -0.06306763 0.1870388 -0.31594956
0001e0 ee 09 e0 bd 2e 6d 63 3e d3 f6 ae bd 62 b3 6c 3d
       -0.10939394 0.22209617 -0.08543172 0.05778826
0001f0 44 e8 68 be cc 2b 2d 3e d2 fd 50 3d 92 60 21 3e
       -0.22744852 0.16911238 0.051023312 0.15759495
000200 ff eb 46 be 82 2e be 3d 23 56 d6 3d bc 43 01 be
       -0.19425963 0.092862144 0.10465648 -0.12623495
000210 ed e3 c1 3d d5 9e af 3c 34 9e 1b 3e 87 d7 af 3d
       0.094673015 0.021438042 0.15197068 0.085860305
000220 0b 6c 27 bd a9 e2 05 be 08 bd b1 be 25 b8 47 bc
       -0.040874522 -0.13074745 -0.34714532 -0.0121899
000230 41 ed 0e be ca de 2d bd b1 b6 b0 bd 2d f9 66 3d
       -0.13957693 -0.042448796 -0.086285956 0.056389976
000240 56 3f 10 3e 3a 05 f8 bd 56 e5 55 be a7 18 de bd
       0.1408666 -0.12110372 -0.20888266 -0.10844546
000250 b8 39 2b 3d 93 13 77 bd 12 f4 9c be bd de 66 bd
       0.04180309 -0.0603214 -0.3065496 -0.056364764
000260 4f 8b 86 bb b1 ec 16 be ab 48 84 3e 9c a8 de bd
       -0.0041059623 -0.14738728 0.2583669 -0.108720034
000270 fa 5d ce 3d 92 ee 08 3e a7 9d 48 bd 84 8e 22 be
       0.10076518 0.13372257 -0.048978474 -0.15874678
000280 e5 9b 80 be 3f d4 c4 3c 44 fd a6 bd 7d 53 02 be
       -0.25118938 0.024026988 -0.08153775 -0.12727161
000290 98 75 ac bd 17 14 80 be d5 83 33 3e 3e 84 c0 bd
       -0.08420867 -0.25015327 0.17530759 -0.09400223
0002a0 24 55 56 3e c5 58 8b bd 32 ce c4 3d a3 21 4a 3d
       0.20930916 -0.06804041 0.09609641 0.049348485
0002b0 5d 82 5d bc c4 48 e4 bc 53 fc c8 bd 42 05 f5 bd
       -0.013519851 -0.027866729 -0.09813752 -0.119638935
0002c0 f5 8c 0b be cc bc ea 3d 4b ac ea 3d b4 51 0b 3e
       -0.1362799 0.114617914 0.114586435 0.13605386
0002d0 29 d0 42 3c 6d ca a2 bd 66 58 db bd ad 4c 2e bd
       0.01189045 -0.07948766 -0.1071022 -0.042553592
0002e0 bc ef b3 be 4d 7f 14 3e aa 2e 97 bd 9d cf 28 bd
       -0.3514384 0.14501686 -0.07381947 -0.04121362
0002f0 63 ba 7a bd 27 7e 71 bc fb 85 85 bd f7 5a b4 b8
       -0.06121291 -0.01473955 -0.06519695 -8.6000124e-05
000300 b1 f2 89 be 49 d4 90 3c 93 60 00 be c4 2b aa bd
       -0.2694297 0.01767935 -0.1253684 -0.08309129
000310 0f 67 44 be 49 06 59 be 6b b4 99 3e a5 75 00 be
       -0.19179939 -0.21193804 0.3002046 -0.12544878
000320 9f e7 aa be e6 46 53 be 30 3d 77 3e 72 a0 87 3d
       -0.33379838 -0.20632514 0.24144435 0.066223994
000330 f7 02 c0 3d 93 c8 45 3e 80 5a 9e 3d 1b 6e 49 3d
       0.093755655 0.19314794 0.07732105 0.04917727
000340 a1 8a 2c bc be 22 cb bc 28 ac 30 be 36 12 67 bd
       -0.010531099 -0.02479684 -0.17253172 -0.05641385
000350 6e 03 ab bd 82 da 90 3d 9a 9e a8 3d c6 41 d5 bc
       -0.083502635 0.07072927 0.08233376 -0.02603234
000360 6d 25 02 3d 4e b5 08 3e c0 05 d0 bd 22 55 10 bd
       0.031773973 0.13350412 -0.10157347 -0.03523744
000370 3a cd 8b bd 82 f9 05 be 1f ef 30 be ac 59 57 3c
       -0.06826253 -0.13083461 -0.17278717 0.013143938
000380 9a aa 4a 3e 78 af 52 be 19 e5 c4 3d fc cb ad be
       0.19791642 -0.20574749 0.096140094 -0.3394469
000390 62 18 64 3e 58 82 25 3e b6 c2 ff 3c 8e 07 99 be
       0.22274926 0.16163003 0.031220775 -0.29888576
0003a0 eb fa d5 bd 7f 89 2c 3e 3c 94 e2 3d bb 2d e7 bb
       -0.104482494 0.16849326 0.1106343 -0.007055012
0003b0 68 c8 9e 3d 0f d2 05 bd 5f 65 24 3d 55 74 9c 3d
       0.07753068 -0.03267103 0.040135738 0.07639376
0003c0 7f e8 04 3e 45 e4 e3 bc 99 b4 8c 3d c4 f1 84 3d
       0.12979315 -0.027818808 0.06870384 0.06491426
0003d0 f2 83 54 be f9 36 e9 3d dc e3 3d be a7 1d 57 3e
       -0.20753458 0.11387438 -0.18543953 0.21007405
0003e0 c2 eb 07 bd 48 fb 2f bc f2 f8 0b 3e eb 4e 41 3d
       -0.03318382 -0.010741062 0.13669184 0.047194403
0003f0 03 7e 90 3d ba d9 a5 bd dc 5e 98 bd 5e 54 aa 3e
       0.07055285 -0.08098169 -0.07439968 0.33267492

module.net_ts.layer1.0.bn2.weight f4 [32]
000000 cb 03 47 3f 60 9a 78 3f 47 a3 18 3f 36 35 3d 3f
       0.7774016 0.9711056 0.5962414 0.7390932
000010 aa 51 46 3f 8d 52 65 3f d0 91 80 3f 54 31 6b 3f
       0.7746836 0.8957909 1.0044498 0.91872144
000020 f4 31 68 3f 1c 1f 40 3f a3 fc 3b 3f 2d d0 31 3f
       0.9070122 0.7504747 0.7343237 0.69458276
000030 21 68 31 3f 38 9b 6f 3f 22 b1 50 3f 44 6e 78 3f
       0.69299513 0.9359622 0.81520283 0.9704325
000040 10 8f 68 3f f7 45 53 3f 83 f8 81 3f 56 93 5b 3f
       0.90843296 0.8252863 1.0153965 0.8577169
000050 39 69 4e 3f 76 cc 53 3f 77 13 82 3f ef 97 71 3f
       0.8062931 0.8273386 1.016219 0.9437246
000060 b8 42 78 3f 51 c2 51 3f c5 69 70 3f 86 55 44 3f
       0.96976805 0.8193713 0.9391139 0.76693
000070 ae 0f 4e 3f 4a 2d 6d 3f 3a 58 7c 3f f0 86 3b 3f
       0.80492675 0.9264723 0.98572123 0.73252773

module.net_ts.layer1.0.bn2.bias f4 [32]
000000 03 71 f4 bd c8 66 82 bc fe f3 99 bd 6a 07 9f 3d
       -0.11935618 -0.01591815 -0.07517241 0.07765086
000010 0a 20 d4 bc f5 f6 24 bd d4 ac 16 be 01 ce 0c bd
       -0.025894184 -0.04027458 -0.14714366 -0.034376148
000020 ae 4d c2 bc c5 fc fa 3c 4d 33 06 be 16 a1 c1 bd
       -0.023718681 0.030638108 -0.13105507 -0.09454553
000030 36 a2 ea bc a7 fb 6d bc 8b 10 3c bc 95 d7 28 bd
       -0.028641801 -0.014525331 -0.0114785535 -0.04122122
000040 73 ca 88 3d 75 96 13 bd 41 59 11 bd 50 c0 82 bd
       0.06679239 -0.03603216 -0.03548551 -0.06384337
000050 27 d0 4d bc cf 8d 80 3c 84 f1 d3 bd 7a 33 1d be
       -0.012561834 0.01569262 -0.103488 -0.15351668
000060 00 14 27 bd 7c 9b 45 bd d0 db 12 3d 79 4d b7 bd
       -0.040790558 -0.048243985 0.03585416 -0.089503236
000070 0e e8 3f bd aa 2e bb 3c 6d 8c 29 3d 03 3d b4 bd
       -0.046852164 0.0228494 0.041393686 -0.088006996

module.net_ts.layer1.0.bn2.running_mean f4 [32]
000000 7c 7b 37 3e b4 8a 5f bf 6e 76 e3 3d 10 bc 72 3e
       0.179182 -0.8732102 0.11106573 0.23704553
000010 20 62 02 be 7e 33 61 ba b3 42 59 3e 99 68 c6 ba
       -0.12732744 -0.0008590742 0.2121685 -0.0015137374
000020 50 53 85 3f 1a fc 30 bf 61 8c 27 3e 15 de eb be
       1.041605 -0.69134676 0.16362144 -0.46067873
000030 a0 0e 35 3e 7f 9b f0 3c f6 f6 00 3e b3 fd 11 bf
       0.1768136 0.029371021 0.12594208 -0.5702774
000040 d2 00 aa 3e 5c 03 02 3f 88 64 3c bf 81 3f b6 be
       0.3320375 0.50786376 -0.735909 -0.35595325
000050 d3 e5 b8 3d 79 af 6a bc 75 0b 14 3f 2f ab 93 3e
       0.090282105 -0.0143240625 0.5782998 0.2884154
000060 1e f0 7c be 42 2f 8d 3b 40 8d 97 3d 4a 52 5a bf
       -0.24700972 0.004308612 0.07399988 -0.85281813
000070 40 91 44 3f 62 ef 1e bf ad 4a 26 be 35 e9 32 3f
       0.76784134 -0.6208402 -0.16239424 0.69887096

module.net_ts.layer1.0.bn2.running_var f4 [32]
000000 11 bd 20 3f 17 9a 5d 3f 79 fb 5b 3f 1c 40 49 3f
       0.6278849 0.8656325 0.8593059 0.7861345
000010 9b a3 4f 3f 3e e0 3b 3f 38 f6 fa 3e f7 81 dc 3f
       0.8110902 0.7338904 0.49015975 1.7227162
000020 48 dd 0b 3f 8b c0 7c 3f 2e 16 b7 3e eb 78 d2 3e
       0.54634523 0.987313 0.3575911 0.41107878
000030 ef 45 ff 3e de d3 81 3f d1 77 96 3f 89 a0 1e 3f
       0.49858043 1.0142782 1.1755315 0.6196371
000040 b5 a0 11 3f d7 08 de 3e 07 cf 0a 3f 86 96 23 3f
       0.56885844 0.4336612 0.5422215 0.63901556
000050 63 68 f9 3e 85 b0 ee 3e 01 f9 2f 3f 60 97 15 3f
       0.48712453 0.4661905 0.68739325 0.58434105
000060 22 b5 3e 3f 56 48 35 3f c3 1f 23 3f b9 50 87 3f
       0.74495137 0.708135 0.6372034 1.057151
000070 b8 93 f0 3e dd 53 72 3f df 52 55 3f 1b 15 ce 3e
       0.469877 0.94659215 0.83329576 0.40250477

module.net_ts.layer2.0.conv1.weight f4 [32, 32, 3]
000000 57 b6 85 bd 26 ab f1 3d 53 a0 a9 3c 14 92 14 3e
       -0.06528919 0.11800222 0.020706331 0.1450885
000010 ed 04 bc be f7 22 28 3e ac 2f 0f be 53 fc 16 3e
       -0.36722508 0.16419588 -0.13983029 0.14744692
000020 ff 6f 04 3e e5 41 7a 3e 69 5f 0d 3d 12 3d 39 bc
       0.12933348 0.244392 0.03451482 -0.011306064
000030 76 b0 40 bd 6c b8 46 3c 8f 42 de 3c a9 3f e5 3c
       -0.047043286 0.012128931 0.027131347 0.027984457
000040 e2 09 c0 bd ca bc 87 bc 66 a5 bc 3d 51 62 b1 bd
       -0.09376885 -0.016569514 0.09211235 -0.086613305
000050 6e 34 a8 be 05 45 0a 3e 8c 74 82 3d c5 2b 25 3e
       -0.328525 0.13502891 0.06369886 0.16129978
000060 a7 da b1 3d 0c 48 02 3e 09 6d ef 3d 6f 26 af 3e
       0.08684283 0.12722796 0.11690719 0.3420901
000070 2e e0 df 3c 2c 6c f7 bd 45 57 bb 3e d4 c9 aa bd
       0.027328577 -0.12081179 0.3659002 -0.08339277
000080 03 9c 97 3d 65 bd 62 be df d4 d2 bd 92 84 1c bd
       0.07402804 -0.22142561 -0.10294508 -0.038212366
000090 65 94 56 3c 57 1f 38 3e bb 1b 51 3e 64 82 08 3e
       0.013096903 0.17980705 0.20420735 0.1333099
0000a0 df 6a 08 3e b1 b6 d1 3c 31 56 1e 3c de 1e f5 bd
       0.13322018 0.02559981 0.009664104 -0.11968778
0000b0 8e ee 41 bd 57 32 82 bd 7f 1e 93 be 0a ae 2d be
       -0.047346644 -0.06357258 -0.28734204 -0.16960922
0000c0 a0 b1 50 3e ab e9 77 be d3 33 5f 3d 59 1f f4 3b
       0.20380259 -0.24210231 0.054492783 0.007450026
0000d0 37 bc 0b be 3d ee eb 3c d2 95 58 be 0a 72 0f 3d
       -0.13646017 0.028800124 -0.21150902 0.035020865
0000e0 32 b7 48 3e b0 bd 9d 3d d5 4c dc bd 2f 25 ec bd
       0.19601133 0.07702196 -0.10756842 -0.1153053
0000f0 e5 b1 0b 3e 25 32 0a bd 59 fb 9c be 71 77 72 3d
       0.1364208 -0.033739228 -0.30660513 0.05919594
000100 aa dc b7 bd b6 4f 0e 3e 9a 62 51 bd 01 d9 b8 3e
       -0.08977635 0.13897595 -0.051119424 0.3610306
000110 33 3a 67 3e 58 5c ce 3c 7f 30 83 bd 8d 03 3a be
       0.22580795 0.025190517 -0.06405734 -0.18165417
000120 e8 78 4e be 35 7d 05 3e c8 4e 0c 3d 2c ea a9 3d
       -0.2016331 0.13036044 0.03425482 0.08296618
000130 c7 ed 11 3e ee ce 80 3d 96 33 3d bc 02 c7 15 be
       0.14250861 0.06289469 -0.011547944 -0.14626697
000140 25 6e db bc cf e8 3e 3c aa 8b 3e 3c 82 2a 79 bc
       -0.02678592 0.011652186 0.011629978 -0.015207889
000150 88 a4 3b 3e 6d 71 d6 bd 3a fb a8 bd 5c e4 ec bc
       0.18324482 -0.10470853 -0.08251043 -0.028917484
000160 75 75 df 3c f5 60 b4 bd 92 f2 ca bd 43 c7 22 be
       0.027277688 -0.088075556 -0.09909548 -0.15896325
000170 a1 ca 8f 3c 75 0a 5e bb 4b 40 18 3e b7 07 11 be
       0.017552676 -0.0033880745 0.14868276 -0.14163099
000180 3d 12 b4 3d 3d 98 06 be d4 f1 80 be 46 c7 b3 3e
       0.08792541 -0.13144012 -0.251845 0.3511297
000190 a9 19 90 bd 2e d0 50 bd 57 66 d5 bc 7b fe 0f bf
       -0.07036144 -0.050979786 -0.026049776 -0.5624768
0001a0 37 c9 d3 be 1c 2d 09 3c cd 47 b7 bb 88 79 8a 3d
       -0.41364452 0.008372571 -0.005593276 0.067614615
0001b0 3f 51 47 3d e0 65 cf bd 75 e5 f0 ba d6 96 14 be
       0.048661467 -0.10126853 -0.001837893 -0.14510664
0001c0 db 8c f4 bd 80 6e 26 be 7a f4 2b 3e 5f 84 6c bd
       -0.119409285 -0.1625309 0.16792479 -0.057743426
0001d0 4b f1 91 3d 6f d0 ca 3d b7 f5 ca 3d d0 b1 16 bd
       0.07126101 0.09903037 0.09910148 -0.03679067
0001e0 91 35 3f bd 80 45 d2 bc c1 ae ef 3d 84 f7 38 3e
       -0.046681944 -0.025667906 0.117032535 0.1806317
0001f0 c4 6b 11 3d ed 12 88 bd 63 3e 36 bd 39 42 03 be
       0.035503164 -0.06644235 -0.04449309 -0.1281823
000200 fc cf 13 be 40 d2 ef 3d 62 da e2 bd 93 ed 8c bd
       -0.14434808 0.11710024 -0.110768095 -0.06881251
000210 26 09 b3 be c1 8b 0b 3e 0d ba 95 bd 65 c4 3e be
       -0.34967917 0.1362753 -0.07310877 -0.18629606
000220 05 c5 7c be 41 39 7b be df f1 ad bc 87 c2 80 bd
       -0.24684532 -0.2453356 -0.021233497 -0.06287103
000230 5f 68 44 3e be fa 01 bd ce d6 e3 bd 1c 27 07 3e
       0.1918044 -0.031733267 -0.11124955 0.13198513
000240 9a 52 94 bc 54 5a 29 3d 8d 54 37 bc 6a 5f 14 3a
       -0.018105794 0.04134591 -0.011189592 0.000565997
000250 a0 5f 0c be 8d c8 68 be 90 cf d4 3c a6 4c 48 3e
       -0.13708353 -0.22732754 0.02597788 0.19560489
000260 1f 51 d5 bc 8c 96 81 bd 0f 43 27 be 04 f0 5b 3e
       -0.026039658 -0.06327543 -0.16334175 0.21478277
000270 60 a1 53 3e 36 66 06 3e 8b 29 63 3c 6d c2 b2 3d
       0.20667028 0.13124928 0.013864885 0.0872849
000280 68 7e bd bd 93 e4 7b bd a4 d1 9e 3d 38 3e 83 be
       -0.09252626 -0.061497282 0.077548295 -0.25633407
000290 67 2d d4 3d 93 57 d1 bc 80 11 c4 bd 1b fd 44 bd
       0.10360222 -0.025554454 -0.0957365 -0.048092943
0002a0 12 be 9b bd 16 11 a0 bd 20 0d 85 3d 5f bd 92 bd
       -0.076046124 -0.07815759 0.06496644 -0.07165026
0002b0 6b c8 13 3e 27 31 1e bc e4 4d 9f 3e d0 a3 66 3d
       0.14431922 -0.0096552735 0.31114113 0.056308568
0002c0 c6 88 76 be 4f 5a 32 3e 37 01 0e 3e 19 53 cc 3a
       -0.24075612 0.17417262 0.13867651 0.001558873
0002d0 2a 69 a3 3d 98 11 f8 bd 43 61 84 3e b1 08 72 bd
       0.07979043 -0.12112731 0.25855455 -0.05909032
0002e0 75 e2 0d be 31 99 31 be 18 56 4b 3d 7b e3 68 bd
       -0.13855918 -0.17343594 0.049642652 -0.056857567
0002f0 ba b8 3e 3e d7 39 c0 3d 6e 14 99 bc 34 3a 0c be
       0.18625155 0.09386032 -0.0186865 -0.13694078
000300 06 d9 0c 3d ca f3 ab bd 84 05 f0 bd f2 a8 b5 bd
       0.034386657 -0.083961084 -0.11719802 -0.088701144
000310 85 99 b3 bd db 1a 26 3e cb d8 64 3e cf df 87 3c
       -0.08769516 0.16221182 0.22348325 0.016586212
000320 5a f4 67 be 19 58 cb 3d e8 3d f5 3d e8 8f 85 be
       -0.22651806 0.09928913 0.11974698 -0.26086354
000330 92 4b 25 3e 74 d4 83 bd 5e 42 21 3c 97 d6 3d 3d
       0.16142109 -0.064370066 0.009842483 0.046347227
000340 23 40 f0 3d 66 99 6b 3d 1e a9 bd 3d f0 c7 62 be
       0.11730983 0.05751934 0.09260772 -0.22146583
000350 6b f4 79 3e 3f 5f 68 bd 69 ca de be 7e 14 43 be
       0.24409644 -0.05673146 -0.43513802 -0.19050786
000360 3e 96 e4 bd 54 1c 7b 3d 50 ef 8f be 6a e4 d9 3d
       -0.11161469 0.061306313 -0.28112268 0.1063927
000370 73 be ce 3d c5 70 42 be 63 6f 0b bd 90 98 68 3d
       0.10094919 -0.1898833 -0.034041774 0.05678612
000380 bf 39 40 3e 96 bc 73 3d 6b 46 71 be f4 1d ef 3a
       0.18772028 0.05950602 -0.23562019 0.001824318
000390 65 08 91 3d 31 01 8f be e6 c7 1e 3e 0b f3 77 3d
       0.07081679 -0.27930596 0.15505943 0.06053452
0003a0 40 23 54 bd a1 f7 56 3e 5a 1b 0d bd 13 a8 0c bd
       -0.05179143 0.209929 -0.034449913 -0.034339976
0003b0 ec 64 11 be 71 98 53 3d d3 c4 80 bd 9b 60 66 3e
       -0.14198655 0.05165905 -0.06287541 0.2249779
0003c0 be e7 4c 3e a8 b9 06 be e8 c3 9a be d8 62 b2 3d
       0.20010278 -0.1315676 -0.3022759 0.08710259
0003d0 9b 4b 67 bd 9b d1 b4 bd a4 d7 27 3d a4 0b b3 3d
       -0.056468587 -0.088290416 0.040977135 0.08742455
0003e0 6c 57 87 bd f3 5e 24 3e 17 4b f0 bd ab ca b6 3d
       -0.06608471 0.16051845 -0.11733072 0.089253746
0003f0 b6 09 4b bd 99 a8 e2 3d 65 e4 77 3d 35 7c 45 be
       -0.049569808 0.11067314 0.06052055 -0.19285662

module.net_ts.layer2.0.bn1.weight f4 [32]
000000 dc 74 41 3f ca 93 80 3f 4a 26 70 3f b6 c1 67 3f
       0.7556894 1.0045102 0.93808424 0.90529954
000010 5d 04 4d 3f 22 60 5c 3f 27 20 5b 3f c3 37 5b 3f
       0.8008478 0.8608419 0.85595936 0.8563196
000020 c1 31 4e 3f 9c f2 63 3f ba ef 4d 3f a4 f3 5c 3f
       0.8054467 0.8904207 0.8044392 0.86309266
000030 61 6a 58 3f f4 e2 5b 3f 4a 51 67 3f e5 e8 54 3f
       0.8453732 0.8589318 0.9035841 0.8316787
000040 bf a0 6e 3f db 85 6c 3f b9 60 4d 3f 64 b1 4e 3f
       0.9321403 0.9239175 0.8022571 0.80739427
000050 a8 38 5d 3f e8 3f 75 3f e2 e6 60 3f 22 18 37 3f
       0.86414576 0.9580064 0.878523 0.715212
000060 72 a5 59 3f 08 00 7d 3f 7e c5 56 3f e0 bd 50 3f
       0.85018075 0.9882817 0.838951 0.81539726
000070 a2 98 69 3f b3 6b 5a 3f e5 c8 53 3f 18 bd 67 3f
       0.91248524 0.85320586 0.82728416 0.9052291

module.net_ts.layer2.0.bn1.bias f4 [32]
000000 39 a7 0d be 39 ee 36 3e b7 c7 c9 3d 04 07 8d bb
       -0.13833322 0.17864312 0.09852546 -0.004303815
000010 b5 e3 db 3d d1 d1 24 bd d9 3a 9f 3d 63 e5 51 3c
       0.10736791 -0.04023916 0.07774896 0.012811038
000020 2a f0 33 3d 5a db fc bc 29 f5 ea bb 41 b7 36 3d
       0.04393021 -0.030866314 -0.0071703386 0.04460836
000030 0e fb c4 bd a9 20 43 bd 20 7c c0 bc 46 09 27 3d
       -0.096181974 -0.04763857 -0.023496687 0.04078033
000040 d6 02 a1 bc f0 3d 95 bd 08 9e e5 3b 13 08 b9 bd
       -0.019654673 -0.07287204 0.007007364 -0.09034743
000050 82 31 d3 bc fc 19 95 3d c9 ef 85 bd 5c af 02 be
       -0.025780443 0.07280347 -0.06539876 -0.12762207
000060 46 26 05 3d ba b1 28 bd 56 5c 6e bd 53 38 1a 3d
       0.032507204 -0.04118512 -0.058193527 0.03765137
000070 15 0e ee 3c 69 b3 d6 bd de 9a a4 bd 0b e5 9d 3c
       0.02905945 -0.104834385 -0.08037351 0.019274255

module.net_ts.layer2.0.bn1.running_mean f4 [32]
000000 00 d8 17 3f 62 8e a9 bf 46 e7 82 bf 85 29 19 bf
       0.59313965 -1.3246577 -1.0226829 -0.5982898
000010 56 66 1a 3f da 7e 42 3f 63 a6 bf 3d 62 ff 3e 3f
       0.603124 0.7597481 0.093579076 0.74608433
000020 d7 69 b8 be 2a 03 dd 3f 30 2f 88 3f 08 9f 8a bf
       -0.3601825 1.726659 1.06394 -1.0829782
000030 7b e3 ac bf fb f6 08 c0 0f bc bc bf 1a 67 b3 3f
       -1.3506922 -2.1400745 -1.4744891 1.4015839
000040 72 b1 c7 bf 21 fd 9e bf 62 46 44 3e 72 5c d4 3d
       -1.5601027 -1.2420999 0.19167474 0.10369195
000050 80 83 90 be 9a e5 c1 bf 88 c8 d1 3e 5f 8a 8f 3f
       -0.28225327 -1.5148194 0.40973306 1.1214103
000060 5a 72 ed bf c9 8f 21 3f cb d4 aa bf af a9 d3 3f
       -1.8550522 0.63110024 -1.3346189 1.6536158
000070 f1 7e 66 be 63 46 08 bf 57 da d0 be fd 25 51 bf
       -0.22509362 -0.532324 -0.4079158 -0.8169859

module.net_ts.layer2.0.bn1.running_var f4 [32]
000000 fb e7 b0 3f 85 56 2f 40 75 f8 c9 3f d2 1d 0c 40
       1.3820795 2.7396557 1.5778948 2.18932
000010 b3 67 9f 3f 92 e6 b6 3f d4 c4 16 40 16 0d b9 3f
       1.2453521 1.4289114 2.3557634 1.4457119
000020 e3 36 16 40 66 0b 08 40 8b 25 e2 3f a5 e8 04 40
       2.3471 2.1256957 1.7667707 2.0766995
000030 45 18 15 40 7d 6b 1a 40 f9 6e 01 40 bc 7e e2 3f
       2.3296063 2.4128106 2.0223982 1.7694926
000040 df eb 09 40 1d d7 be 3f a9 47 fb 3f ed 78 dd 3f
       2.1550214 1.4909397 1.9631244 1.7302529
000050 59 a3 bc 3f f8 64 2d 40 35 0f a7 3f 58 1e ca 3f
       1.473735 2.7092876 1.3051516 1.579051
000060 9d 28 1b 40 80 a7 0f 40 a2 58 d9 3f 07 92 09 40
       2.4243538 2.2445984 1.6980174 2.1495378
000070 d5 b4 d7 3f 0b 86 ad 3f 26 87 b3 3f 7a 3a f2 3f
       1.685206 1.3556532 1.4025619 1.8924096

module.net_ts.layer2.0.conv2.weight f4 [32, 32, 3]
000000 16 69 ba bd 4b bc 8e bd 2f 35 82 3c c7 81 f8 3d
       -0.09102075 -0.06969508 0.0158945 0.12134128
000010 27 62 a0 3b 7f 53 d1 bd 9a 13 01 bc 7d f9 f3 3d
       0.004894513 -0.10221004 -0.0078782085 0.119128205
000020 60 eb 0c be 11 dd b7 3e 92 c6 af 3d 00 b4 1b 3d
       -0.13761663 0.35910848 0.08582796 0.03801346
000030 4d 32 85 bd bb 62 1b bd a3 54 84 bd d2 0e 5b 3e
       -0.06503735 -0.037935954 -0.06461456 0.21392372
000040 95 42 12 bd c9 45 83 3c 1b 11 b1 3e d6 67 ca 3d
       -0.03570803 0.016024487 0.34583363 0.098830864
000050 ec 90 8f ba 45 1c 50 3d cc 46 44 bd ed 3a 79 3d
       -0.0010953224 0.05080821 -0.04791908 0.06084721
000060 14 55 a5 3e 3c 3f 3d 3d 46 12 9f bd 3d b5 a9 be
       0.32291472 0.046202883 -0.07767157 -0.33146086
000070 5f 81 9c 3e 4f b5 35 be d8 d4 b1 3d 89 54 4f 3b
       0.30567452 -0.17744945 0.08683175 0.003163608
000080 a3 87 19 3e 43 6d b5 bd 39 8a 97 3e 1c d0 39 bd
       0.14993148 -0.08858731 0.29597643 -0.045364484
000090 bd 3b 31 3d 02 f4 0b be a5 07 b1 bc ec 4e f6 bc
       0.04326986 -0.136673 -0.02161009 -0.03006693
0000a0 38 db 59 3e 58 41 bd bd e7 c8 69 3d 31 82 77 be
       0.21275032 -0.09240979 0.05707636 -0.24170758
0000b0 c5 2b 62 3d 25 90 38 be bc 5e 25 be 96 c0 82 be
       0.055217523 -0.18023737 -0.1614942 -0.25537556
0000c0 76 6d 80 3d fe e0 66 3c 96 10 23 3e 68 88 ff 3a
       0.06270878 0.014091728 0.15924296 0.0019495608
0000d0 c2 b4 91 bb a6 ea 0f 3e 5d 85 22 3e ce 6e c9 bc
       -0.004446597 0.14054355 0.15871187 -0.024588969
0000e0 46 4c c3 bd 14 48 06 3d c0 69 52 3e 93 06 c3 bd
       -0.095360324 0.032783583 0.20548153 -0.09522738
0000f0 eb 94 85 3d 93 f0 a8 ba 25 cc a4 bd fc 6e 43 bc
       0.065225445 -0.001288908 -0.0804675 -0.011928316
000100 a4 bc 8e bc dc 70 8e 3d 51 21 b3 bd a0 a3 c0 bc
       -0.017423935 0.0695512 -0.08746589 -0.023515522
000110 0b e5 63 be e0 62 a0 3d 40 4c 72 be 6d 04 8d 3d
       -0.22255342 0.07831359 -0.236619 0.0688561
000120 ef 47 1c 3c 9d a3 38 be f4 49 c4 bd f7 24 87 bd
       0.009538635 -0.18031164 -0.09584418 -0.06598847
000130 db ad 80 3e d3 69 d9 bd 01 ba 05 be 46 b3 b2 bd
       0.2513264 -0.106158875 -0.13059236 -0.087256
000140 57 50 4e 3d d6 7b 28 be 6b db b8 bd c0 46 ae 3d
       0.050369587 -0.1645349 -0.09026226 0.08509588
000150 e2 8f bd bd de e1 9c bc 60 be 04 be b7 c4 c1 3d
       -0.09255959 -0.01915067 -0.12963247 0.094613485
000160 07 cd 3f 3e 05 6f de 3d 78 ce 0d 3d 6b 70 11 3e
       0.18730555 0.10861019 0.034620732 0.1420304
000170 d2 21 32 be e2 cc 2d 3c 9e a9 44 bd 50 da bc bc
       -0.17395714 0.01060793 -0.048013322 -0.023053318
000180 7f c4 38 be 2e 48 2f be ad 43 2a 3e 95 7c 90 3d
       -0.18043707 -0.17117378 0.16627379 0.07055012
000190 0b a6 8e 3d 8a 11 4d 3e 77 0e 0f be 4d 8b 78 bd
       0.06965264 0.20026222 -0.13970362 -0.060679723
0001a0 dc 3e 5a 3e f7 c4 79 bb f3 64 8d 3d 20 fa e8 3d
       0.21313041 -0.0038111785 0.0690402 0.113758326
0001b0 7c af 2a bc e6 04 c8 3c 04 9d db bc b1 9d 82 be
       -0.010417815 0.024416398 -0.02680827 -0.25510934
0001c0 ec ca b3 3d 9a 42 e6 3b 97 f2 94 bd cb 31 cc bd
       0.08778939 0.0070269825 -0.07272833 -0.09970435
0001d0 ca 31 65 bd 81 f5 62 be 24 46 1c bc 9f e4 67 3e
       -0.055955686 -0.22163965 -0.009538207 0.22645806
0001e0 dc a7 03 3e 56 fd 5d 3d 47 e0 1e be 94 b2 66 be
       0.12857002 0.054196678 -0.15515243 -0.2252906
0001f0 37 cd 23 3e 25 03 24 bd b4 a4 05 3d 4d 0d 15 3d
       0.15996252 -0.04004206 0.032627776 0.036389638
000200 63 c7 82 bc 9a 86 e1 bd c4 f5 0e bd 87 32 39 3c
       -0.015964216 -0.11012001 -0.03490235 0.011303551
000210 a0 12 99 3e 52 d2 16 3d 67 86 33 3e 2d 65 e0 3d
       0.29897022 0.03682167 0.17531739 0.10956798
000220 fc ad e4 bd 97 08 19 be 3f fb e4 3c ee 4b 7f 3d
       -0.111659974 -0.14944683 0.027951835 0.06232827
000230 37 02 d9 bd 19 52 3a be 6a 7a de bd e7 98 87 be
       -0.105961256 -0.1819538 -0.108631924 -0.26483843
000240 41 5d 5b be fb 2e 2a be b7 66 cd 3d e5 7b d8 3d
       -0.21422292 -0.16619484 0.10029357 0.10570506
000250 d0 c2 03 3e c8 38 37 be 33 8e 3f be d2 80 02 3e
       0.12867284 -0.17892754 -0.18706588 0.12744454
000260 db 34 d9 bd d6 63 49 3e 68 b7 ab 3d 2e 72 fb bd
       -0.106057845 0.1966699 0.08384591 -0.122776374
000270 d4 eb 68 3e 7a 3f fd 3c 2c 3b be 3c 74 5f 4a 3e
       0.22746211 0.030914057 0.023221575 0.19762975
000280 99 a5 43 3e c8 dc ed 3d 6f 5d ca be 31 fd e4 3d
       0.19106139 0.11614376 -0.3952441 0.11181105
000290 4e 9b ff bd 6d 1f 84 3d 0f 13 72 bd 8a 1a 26 3d
       -0.12480794 0.064513065 -0.059100207 0.040552653
0002a0 84 b3 15 be 3e 1e 07 3e 91 8d 04 3e a1 1a 2a 3d
       -0.14619261 0.1319513 0.12944628 0.0415293
0002b0 c0 ec ba bc 32 1f ef bc ec e5 6a bd 39 fb a2 3c
       -0.02281797 -0.02918968 -0.057348177 0.019895183
0002c0 d6 f7 89 bd 95 5b 73 ba 84 10 8c 3e dc 09 f5 bd
       -0.06736724 -0.0009283361 0.2735635 -0.11964771
0002d0 72 12 06 be 1d b6 ee bd 70 b4 18 be f4 7a 78 3e
       -0.13092974 -0.11655829 -0.14912581 0.24265653
0002e0 c5 0f 85 be 19 33 1a bd 6b 9d 5c be 74 f9 aa be
       -0.25988594 -0.037646387 -0.21544425 -0.33393443
0002f0 18 2d 57 3b 16 e2 b5 3e 82 a9 1f 3e 36 b6 0f be
       0.0032833274 0.35524052 0.15592006 -0.14034352
000300 99 3b e4 bd 34 0c b9 bd 02 d7 94 3c 2a c5 4f 3e
       -0.1114418 -0.09035531 0.01816893 0.20290056
000310 71 14 68 bd 62 66 b6 3e f0 e7 0c 3c 7f a4 4a be
       -0.05666012 0.35624987 0.00860022 -0.19789313
000320 67 dc 89 3c 09 71 db 3d c3 4a 17 bd 0d 47 48 3d
       0.016828729 0.10714919 -0.036936533 0.048895884
000330 1d c9 80 be 35 94 1e 3b 37 4d 36 3e 4a 57 37 be
       -0.25153437 0.0024197225 0.17802893 -0.17904392
000340 80 34 94 3e 20 3f aa 3d 92 23 ef bd 38 ba 8b 3d
       0.28946304 0.083128214 -0.116767064 0.06822628
000350 80 66 bb bd 26 43 55 be f1 c5 0d 3e 38 10 df bd
       -0.0915041 -0.20826396 0.1384504 -0.10891765
000360 84 04 0d 3e ee 15 b2 bd a1 88 c3 3c 5a 91 39 3e
       0.13771254 -0.08695589 0.02386886 0.18121853
000370 a5 6e f0 bd 0c a7 01 bc f5 45 38 3e 12 7c 37 be
       -0.11739854 -0.007913362 0.17995436 -0.17918423
000380 34 c9 37 3e dc 54 02 be 4a 66 68 be ed 0c 9c bd
       0.17947847 -0.12727684 -0.2269527 -0.07619653
000390 a1 b2 86 3d 7b 4e 19 3b 9c 0e a8 3c be 71 15 3e
       0.065770395 0.0023392725 0.020514779 0.1459417
0003a0 8e fc 28 be 5c 9e 2a be 6d c6 18 3d 37 b1 1d 3d
       -0.16502592 -0.16661972 0.03729861 0.038499083
0003b0 75 82 8a 3e fe a3 8d 3d ea b2 0a ba c1 b5 6e 3d
       0.27052656 0.06916045 -0.00052909425 0.058278803
0003c0 6f 06 de bd 42 92 7f bd 03 88 95 bc 69 dd 23 3e
       -0.10841071 -0.06239534 -0.018253332 0.1600243
0003d0 8d f7 32 bb b0 58 8b be c1 b8 dd bd ae 7f db bd
       -0.0027308196 -0.272161 -0.10826255 -0.10717712
0003e0 6d c3 93 3d 7a 74 1e 3d 5d f2 c4 bd 29 14 81 3e
       0.07215009 0.0386853 -0.096165396 0.25210693
0003f0 32 52 aa 3e 60 59 6c 3d 66 7d e5 3d 94 0b 36 be
       0.33265835 0.057702422 0.112055585 -0.17777854

module.net_ts.layer2.0.bn2.weight f4 [32]
000000 ec 9b 5a 3f be e3 72 3f 29 aa 55 3f ee 78 46 3f
       0.8539417 0.94878757 0.8346277 0.77528274
000010 d6 49 5f 3f ac 5c 44 3f 3f 2d 4f 3f 12 1e 7c 3f
       0.8722204 0.76703906 0.80928415 0.98483384
000020 55 8b 5a 3f c3 81 77 3f 27 f3 5d 3f b1 7e 5b 3f
       0.85368854 0.96682376 0.86699146 0.8574019
000030 4d 40 43 3f fa 1f 4d 3f 9c 3d 67 3f 50 c8 52 3f
       0.7626999 0.8012692 0.90328383 0.823369
000040 98 14 68 3f 66 fe 69 3f 49 9f 7b 3f 7e 42 48 3f
       0.90656424 0.91403806 0.98289925 0.7822646
000050 a2 0e 67 3f 2b 28 62 3f e4 be 72 3f 9d 29 6f 3f
       0.902567 0.8834254 0.94822526 0.9342287
000060 a3 9c 6f 3f fc c5 71 3f 09 99 73 3f e6 e7 7a 3f
       0.93598384 0.94442725 0.9515539 0.980101
000070 00 80 58 3f 8a d7 3b 3f 1d 9c 64 3f df 43 53 3f
       0.8457031 0.7337576 0.8930071 0.8252544

module.net_ts.layer2.0.bn2.bias f4 [32]
000000 ae 5b b9 3c bc 6c 1b bd 94 13 47 be 57 8e c8 3c
       0.022626724 -0.037945494 -0.19441062 0.024481935
000010 c6 a5 a9 bd bf 79 fe bc 05 83 03 3d cc 47 98 ba
       -0.08283572 -0.031063912 0.03210737 -0.0011618077
000020 6c 5e ac bd 60 e4 e7 bc 13 29 81 bd 79 0f a1 bd
       -0.08416447 -0.02830714 -0.063066624 -0.07864279
000030 f8 72 2e bd 68 53 44 bb f4 44 d9 bd ac 24 10 3d
       -0.04259011 -0.002995694 -0.10608855 0.035191223
000040 35 3c 47 bc a9 cd dc bd e5 87 24 bd 81 d7 ac bd
       -0.012160351 -0.10781414 -0.04016866 -0.084395416
000050 7e 20 c6 bc e7 8f 3f bc 57 10 ab 3c fc d7 e0 bd
       -0.024185415 -0.011692024 0.020881815 -0.10978696
000060 6c e7 8a bc 25 92 c2 bc 18 ee a6 bc ad d8 3c bc
       -0.016956054 -0.023751328 -0.020377204 -0.011526269
000070 70 d4 06 bc 27 d7 41 bd 1d 4d 9d bd ba 55 33 3d
       -0.00822936 -0.047324326 -0.07680724 0.043782927
