model/model_20201014151322/model_final_std_5_0300_ts.pth (torch_old, 136367 bytes, 68 tensors)

module.net_ts.conv1.weight f4 [32, 1, 7]
000000 dc a6 f0 be 7c c1 6f 3f 42 e8 8c be 6a 17 67 bd
       -0.47002304 0.9365461 -0.2752095 -0.056418814
000010 2f b9 91 3c 16 eb db be 7f b2 2f 3e 95 11 e9 be
       0.017788498 -0.42952794 0.17157935 -0.45521227
000020 eb 9a 29 3d 94 91 df 3e 56 2a 2a be 9d 4f 24 bf
       0.041407507 0.43665755 -0.16617712 -0.6418398
000030 15 2d 03 be 6d fd bb 3c 30 64 c1 bd 4b 24 62 3e
       -0.12810166 0.022947991 -0.094429374 0.22084157
000040 7b a7 1b 3e 6f 07 1d 3f 6f 5b 51 be ac 1a e6 3e
       0.15200607 0.6133947 -0.20445035 0.44942224
000050 c2 31 f3 be 68 33 65 be bc 12 ce be cd bf 42 be
       -0.474989 -0.22382891 -0.40248668 -0.19018479
000060 2e 25 4d 3f c6 fc 4a 3e d6 16 4f 3e 4e c5 b2 be
       0.80134857 0.19822988 0.20223555 -0.34916157
000070 a4 e5 de be ed 79 fa be c5 38 2c bd 78 36 13 be
       -0.43534577 -0.48921147 -0.042046327 -0.14376247
000080 5b cd 3b 3d 7f 76 80 3d 4e 19 3c 3f ac 1a 76 3e
       0.04585014 0.06272601 0.7347611 0.24033612
000090 2b c5 61 3d 00 8d bc 3e 66 bf c7 bd 20 ea e3 3e
       0.055119675 0.36826324 -0.09753303 0.4451456
0000a0 76 8b 0e 3f 19 a0 2d be c6 60 ae be 3c d8 22 bc
       0.5568155 -0.16955604 -0.34058207 -0.00993925
0000b0 7e 55 b9 3e 7a 07 29 bf a1 d8 1e 3f c3 2f 0d bf
       0.36198038 -0.66027033 0.620493 -0.55151004
0000c0 8a a5 0e 3e 17 69 93 be 14 9e 09 bf 90 76 5d be
       0.13930336 -0.28791115 -0.53756833 -0.21627259
0000d0 a4 a3 ab bd 0a 2d 23 3d f2 ae 21 3d 56 0e 8b be
       -0.08380821 0.039837874 0.03947348 -0.27159375
0000e0 81 f1 e7 be 79 c1 82 3e fe 1b e9 bd 04 f5 ac 3e
       -0.4530144 0.25538233 -0.11382292 0.33780682
0000f0 4d 66 39 bf 26 a3 d8 be 74 02 42 be fc 3d 32 3f
       -0.72421724 -0.42311972 -0.18946248 0.6962583
000100 75 b2 3c bd e7 6b 1b bc c5 53 0e 3f 88 2b 9c bd
       -0.046068627 -0.009486175 0.5559657 -0.076254904
000110 72 23 75 be ef 23 78 bd 8e cf a8 be 8f eb 1d bf
       -0.23939303 -0.060581144 -0.32970852 -0.6168756
000120 69 b8 49 be 4b 32 13 be 62 1e cd 3e 90 08 9e be
       -0.19699253 -0.14374654 0.40062243 -0.30865908
000130 5a dd c5 bd 21 50 a7 bd 01 3e f7 3d 24 c1 26 be
       -0.0966136 -0.0816958 0.12072373 -0.16284615
000140 d7 32 df bd 24 07 3d be b0 f6 3a bf 96 e4 27 be
       -0.10898369 -0.18459755 -0.73032665 -0.16395792
000150 4b b2 63 be 62 b8 f3 3b 97 e2 11 bf 5d 84 8b 3e
       -0.22235982 0.0074377516 -0.56986374 0.27249423
000160 da a0 7c be 8b 59 21 3f 85 cc 4c 3e 3f e8 7a be
       -0.24670735 0.63027257 0.19999893 -0.24502657
000170 be c5 09 be 8a a0 d7 be fc f2 2c bd 31 cf 0a be
       -0.13454339 -0.4211467 -0.042223915 -0.135556
000180 34 ca 95 be 59 b7 1e bf f1 21 5c 3e 0f f9 0d 3f
       -0.2925583 -0.61998516 0.21497323 0.5545816
000190 7e 3e c8 be d1 33 15 3d fe 9e a6 be 0b 89 bf be
       -0.39110178 0.03642637 -0.32543176 -0.37409243
0001a0 26 da ab 3d bb a7 1d bc 27 92 6f 3e 81 66 ba be
       0.08391218 -0.00962251 0.23395596 -0.3640633
0001b0 15 45 a6 3e 18 7a fc 3d 20 75 1b 3f 46 65 1f 3e
       0.3247458 0.12327975 0.60725594 0.15565977
0001c0 e4 3b b2 be a2 98 e7 3d e9 9d ab be 77 ea cc bd
       -0.34811318 0.11308409 -0.33518913 -0.10005658
0001d0 de da d7 3e 0d 7d 37 bf 67 ac e8 3e f7 b8 39 be
       0.4215917 -0.7167519 0.45444033 -0.18136965
0001e0 78 4d bf be 65 3d b8 3e 80 36 3b 3f 2b ad c9 3c
       -0.3736379 0.3598434 0.73130035 0.024618706
0001f0 ee b9 56 3d 84 f6 a4 be ae e5 98 bb 0c 8a 24 3f
       0.05242341 -0.32219326 -0.004666052 0.6427314
000200 10 59 33 3e 9c ff 08 3e 4d 26 86 be f6 ac 8e 3e
       0.17514443 0.13378757 -0.26201096 0.27866334
000210 82 cb a0 3b bc b9 8d 3d ce 84 ef 3e 11 24 ca be
       0.0049070725 0.06920192 0.4678101 -0.3948064
000220 4a 1e 12 bd 70 62 54 3d 0b d3 0a be c9 a2 36 bf
       -0.035673417 0.05185169 -0.13557069 -0.7134214
000230 64 56 3f be d7 19 8b be f4 6b 40 be 19 d7 df 3d
       -0.18685299 -0.27168152 -0.18791181 0.109296985
000240 8f 96 3e bf aa 1f ad 3e 8f 14 78 bd 57 7d 82 3e
       -0.74448484 0.3381322 -0.06056648 0.25486252
000250 77 ed f6 be 13 cc 9a be 73 04 38 bb 4e 97 19 be
       -0.48228046 -0.3023382 -0.0028078824 -0.14999124
000260 31 fa cc 3e c9 c9 26 3f 7c a9 de 3d 65 25 0f ba
       0.4003463 0.6515165 0.1087217 -0.00054605893
000270 28 2d c4 bd 9c 34 c1 be 30 49 03 bf 18 9b 9b be
       -0.09578925 -0.3773545 -0.5128355 -0.30391765
000280 d4 7a b3 bd c5 6f 6c bd 66 5e ab bd 13 22 34 3f
       -0.08763662 -0.05772378 -0.083676144 0.70364493
000290 25 0d 7a bd 10 6d 4f be e8 50 de be 46 31 db be
       -0.06104769 -0.20256448 -0.43421102 -0.4281103
0002a0 34 61 2d bf 1b d2 dd bc 25 48 76 3e 30 38 c3 3e
       -0.67726445 -0.027077725 0.24050958 0.38128805
0002b0 f1 bc 95 3d 51 9d 2f be 33 f7 97 3e d0 32 1a bf
       0.07311428 -0.17149855 0.29680786 -0.60233784
0002c0 18 de 89 3e 4a 1c db be 63 d7 de 3e bc 3e 2f 3d
       0.26927257 -0.4279502 0.43523702 0.042784438
0002d0 fd 83 30 3f 0d 3c dd bd 98 ca 47 3e 32 23 ec 3c
       0.689514 -0.108024694 0.19510877 0.028825376
0002e0 53 07 28 3e fd 3c 46 bf 1e 16 87 bc 79 59 20 be
       0.16409044 -0.7743681 -0.016490038 -0.15659131
0002f0 b6 34 03 3f fa 9c a6 3d 3c 5d 2f 3f 13 ca 4e be
       0.51252306 0.0813541 0.6850164 -0.20194273
000300 62 27 b2 3e 4d 2e bd be 10 ad 03 3d df aa 94 3e
       0.34795672 -0.36949387 0.032147467 0.29036614
000310 63 1b 09 3f e7 a1 05 be 9f 5b 54 3d 9a c4 96 3e
       0.53557414 -0.13050042 0.05184519 0.2944687
000320 9a d1 16 bf 57 f2 c1 3e d8 1a 6b 3e f7 42 3c 3f
       -0.58913577 0.37880203 0.22959459 0.7353968
000330 3a c6 ef be bf 05 0f 3e 8d 03 27 bf 48 0d 6a bd
       -0.46830922 0.13967036 -0.65239793 -0.057141572
000340 fe d7 2e bd 6f 19 0a 3d be fe 4c 3f ac 7e 7c 3d
       -0.042686455 0.03371566 0.80076206 0.06164424
000350 1a 28 68 3e 2a 1e 2c be bc 29 2b 3e 70 c7 0a be
       0.22671548 -0.16808382 0.16715139 -0.13552642
000360 18 5d cd be d3 f0 bc bd 69 8f 91 be 06 54 47 bf
       -0.40110087 -0.09225621 -0.28429726 -0.77862585
000370 37 70 d8 3e 8e a8 05 3e a0 00 23 be ce 48 8c 3d
       0.42273113 0.1305258 -0.15918207 0.06849824

module.net_ts.bn1.weight f4 [32]
000000 10 6f 67 3f 38 4d 73 3f d4 31 6e 3f 15 82 78 3f
       0.9040384 0.950397 0.9304478 0.9707349
000010 ec 46 78 3f 58 0b 7d 3f b1 f6 60 3f cc 20 38 3f
       0.9698322 0.98845434 0.8787642 0.71925044
000020 19 17 79 3f 31 f3 80 3f ce d6 6a 3f 19 9e 7c 3f
       0.9730087 1.0074216 0.91734016 0.9867874
000030 6b 59 6a 3f 6e e4 72 3f 76 55 61 3f 9d b7 82 3f
       0.9154269 0.94879806 0.8802103 1.0212284
000040 0f 8f 6f 3f f5 4a 52 3f 13 e1 53 3f 71 cf 75 3f
       0.93577665 0.82145625 0.8276531 0.96019655
000050 1e fa 70 3f c3 28 87 3f 7b da 62 3f f5 81 72 3f
       0.9413165 1.0559314 0.88614625 0.9472955
000060 b6 b0 6e 3f 7f 4e 83 3f a3 e7 86 3f 15 29 30 3f
       0.9323839 1.025833 1.053944 0.68812686
000070 5d ee 7b 3f a9 a5 84 3f df 46 66 3f 35 02 79 3f
       0.9841059 1.0363055 0.8995189 0.9726899

module.net_ts.bn1.bias f4 [32]
000000 13 82 33 bd 9a d9 ba bd 00 95 10 3e 63 48 07 3c
       -0.04382522 -0.091235355 0.14119339 0.008257004
000010 f1 9b 32 3e 1a 87 38 be b4 17 cc bd e4 e4 96 bd
       0.174423 -0.18020287 -0.099654585 -0.07367876
000020 9b d3 3c be 05 51 0a 3d b0 09 53 be d3 d1 2f bd
       -0.18440096 0.033768672 -0.20609164 -0.042924713
000030 e1 00 1d bd d5 f4 48 be f5 71 13 be 5f b6 c2 3d
       -0.038330916 -0.19624646 -0.1439894 0.09507441
000040 05 36 d6 bd 76 85 51 3c a8 04 0e 3d 53 15 35 bd
       -0.10459522 0.012788167 0.03467241 -0.04420979
000050 53 61 94 bd a1 cb 28 3e 17 24 89 bc 5e e7 9e 3e
       -0.072451256 0.16483928 -0.016740842 0.31035894
000060 d3 93 37 bc e5 3f a2 3e 2a 4a 91 3e 44 56 91 bd
       -0.011204678 0.31689373 0.28376895 -0.07096532
000070 00 f3 f9 bd 2b 59 68 3d 2e d4 c8 3d 52 c1 27 3d
       -0.12204552 0.056725662 0.09806095 0.04095585

module.net_ts.bn1.running_mean f4 [32]
000000 a0 06 86 3a 3b 38 00 3a 48 f1 1a 3b 1c 4c c9 3a
       0.0010225363 0.00048911915 0.002364235 0.0015357765
000010 9d 0e 75 ba c6 85 03 ba 44 14 2e bb 51 c2 6a 39
       -0.0009348186 -0.0005017187 -0.0026562372 0.00022388368
000020 7f 29 05 3b 1e 19 7c b9 32 22 89 ba 66 20 7d b9
       0.0020318923 -0.0002404195 -0.0010462462 -0.0002414003
000030 ce 9e 14 3b 9f 69 8f 3a ae 54 3d 3a de af d0 3a
       0.0022677663 0.0010941512 0.0007222396 0.0015921553
000040 4d be 9c ba 16 e0 45 3a 34 48 b1 3a 94 ba b5 3a
       -0.001195857 0.0007548345 0.0013525547 0.0013864809
000050 68 17 ef 3a a6 4d e1 b9 eb cc 01 b9 e9 50 4e ba
       0.0018241229 -0.00042973197 -0.00012378737 -0.0007870333
000060 02 3d af 39 08 43 48 3b 5f 93 0f bb 2e a5 cc 3a
       0.00033424055 0.0030557532 -0.0021907908 0.0015613192
000070 61 a3 1e 3a 39 78 1e bb fe 5b af ba 0e 4e 67 3a
       0.0006051567 -0.0024180545 -0.0013378856 0.0008823582

module.net_ts.bn1.running_var f4 [32]
000000 53 c3 b8 3d 5e c2 98 3d d0 da 96 3d da 14 b9 3d
       0.0902163 0.074589476 0.07365954 0.0903718
000010 8a 31 dc 3d 43 5b aa 3d ed 7b aa 3d 7b 7f 83 3d
       0.10751636 0.08318188 0.08324418 0.06420799
000020 d2 2b d2 3d 24 f8 a2 3d 5d 16 b1 3d 43 bd a5 3d
       0.10262264 0.07957485 0.086468436 0.080927394
000030 c5 2d 99 3d 4b 48 cc 3d d9 0a 87 3d bf 28 8e 3d
       0.07479433 0.09974726 0.06593866 0.069413655
000040 5a d9 9e 3d 48 4d a7 3d 33 b6 70 3d f1 30 a7 3d
       0.077563 0.08169037 0.05876751 0.08163632
000050 c5 7d 8f 3d c1 0d c1 3d d8 4d 9c 3d 12 b0 ae 3d
       0.070064105 0.094264515 0.07632035 0.085296765
000060 cf af 89 3d 7c 26 c8 3d 27 ec 8e 3d d9 b0 88 3d
       0.06722986 0.09772965 0.06978636 0.06674356
000070 2b 37 8b 3d af 07 b2 3d 20 ab b7 3d 25 25 9e 3d
       0.06797632 0.08692872 0.089681864 0.077219285

module.net_ts.layer1.0.conv1.weight f4 [32, 32, 3]
000000 36 5e ed 3d 88 26 7f 3e 74 c8 a1 bd a3 1b e7 3d
       0.11590235 0.24917042 -0.078995615 0.11284568
000010 2f 2a 9c be 6d 0e 75 be 9d 8e 9e bc 02 35 27 bc
       -0.30500934 -0.23931284 -0.019355113 -0.010205509
000020 c9 4d d2 3d 37 21 b8 3c 18 c8 04 3d 0b f9 91 bc
       0.102687426 0.022476776 0.032417387 -0.017818948
000030 6e 57 c5 3d d3 b0 19 3d 98 df f7 bd 6b eb e5 bd
       0.096358165 0.03752215 -0.12103194 -0.11226543
000040 6c 4a 2a 3e 50 aa 33 3e 94 bd 80 3d 10 c4 0b be
       0.16629952 0.17545438 0.06286159 -0.1364901
000050 8d 0b 13 bd 78 dd 97 3e 38 72 cf 3d c7 46 7e 3d
       -0.035899688 0.29661155 0.101292074 0.062079217
000060 5c 2b 8d 3c 2f ed 41 be 86 26 56 be b5 57 47 3d
       0.01723259 -0.18938135 -0.20913133 0.04866763
000070 c8 d9 5d bd 65 8b b0 3e 8c e6 09 3d 13 ff 9e 3d
       -0.05416277 0.3448135 0.033667132 0.07763495
000080 94 9e 38 3e 2b de 6e bd 44 79 01 be bf 56 ff 3d
       0.18029243 -0.058317345 -0.12643915 0.124677174
000090 35 7d d4 3d 57 74 89 3d 25 0d 20 be 33 53 db bd
       0.10375444 0.06711643 -0.15630014 -0.10709228
0000a0 08 53 40 3d 66 3a b4 bd 0f 3b 15 3e d6 dd fe bd
       0.046954185 -0.08800201 0.1457331 -0.124446556
0000b0 cd 49 96 3c 0e 06 1b 3b 65 33 08 3e fa 4e 80 bd
       0.018345738 0.0023654732 0.13300855 -0.062650636
0000c0 ee 0c 93 3e 09 01 69 3d 6c 02 06 bd d4 7d 3c be
       0.28720802 0.056885753 -0.032717153 -0.18407375
0000d0 e3 f6 82 bd 7e cb 9a 3b 8b 1c f6 bd 61 b1 1c be
       -0.06394746 0.004723965 -0.12017163 -0.1530204
0000e0 36 36 9e 3d d1 b3 dd bd 5e 30 19 3d fc 2f f3 bd
       0.07725184 -0.10825313 0.037399642 -0.11874387
0000f0 ff b6 1e 3d e4 a4 6e be 46 fd 46 be fe 74 b8 b9
       0.038748737 -0.23305088 -0.19432554 -0.0003518238
000100 a6 53 04 3c 13 7c 6b 3e 87 96 2a be b8 bf 69 be
       0.008076584 0.2299655 -0.16658984 -0.22827041
000110 c1 29 78 be 50 10 b1 bd f5 7a a3 be d0 86 9d bd
       -0.24234678 -0.086456895 -0.31929746 -0.07691729
000120 89 ec e4 3d ed a0 0d 3d bd 78 75 be 27 33 12 3e
       0.11177928 0.0345773 -0.23971839 0.14277326
000130 d8 37 1f 3e 19 ce 0d bd 2c 83 0f 3e ef 58 c1 be
       0.15548646 -0.03462038 0.14014882 -0.37763163
000140 c6 51 18 3e 2a c1 78 be 72 dc c6 bb 2b 52 0e 3e
       0.14874944 -0.24292436 -0.0060687596 0.13898532
000150 dd f3 45 be eb 24 07 be d3 f3 67 be 87 95 26 be
       -0.19331308 -0.13197677 -0.22651605 -0.16267978
000160 ba f4 78 3c 28 8e b1 3e 63 65 1e 3e f4 15 90 3d
       0.015195066 0.3467877 0.15468363 0.07035437
000170 3d 13 a2 3d ac 66 67 be d2 21 0d 3d fb 90 49 3c
       0.07913826 -0.2259776 0.03445608 0.012302632
000180 5e b8 8b be a1 59 11 3d bd a9 ce 3c 88 39 81 3e
       -0.27289099 0.035485867 0.025227422 0.25239205
000190 62 be fe bd 95 d8 33 bc 6c 2f bf be a7 78 a5 be
       -0.124386564 -0.01097693 -0.37340868 -0.32318613
0001a0 60 de 52 be ae e1 a9 be 98 f6 bb 3e 45 45 99 bd
       -0.20592642 -0.33179992 0.36711574 -0.07483915
0001b0 52 9f 96 3d ec b8 cf 3d 11 30 59 bd 4f 8a f5 bd
       0.07354607 0.10142693 -0.053024355 -0.11989271
0001c0 f0 77 7d 3e ad 04 00 3d 13 56 3a 3d 6e d9 a2 3e
       0.24752784 0.03125446 0.045492243 0.3180651
0001d0 8f 4f 1a 3e 30 57 92 3e a3 04 b3 bd 92 1f 00 3e
       0.15069412 0.28582144 -0.08741119 0.12512043
0001e0 5b 4b b5 bd 7e 64 fb 3d e8 ab fd bd 5d 85 9b 3d
       -0.088522635 0.12275027 -0.12386304 0.075937964
0001f0 2a 47 3b 3e fb 5d 76 bd 09 05 23 3e 91 94 40 bd
       0.18288866 -0.06014822 0.1591989 -0.047016684
000200 b0 a2 94 3d c9 82 1a 3e fc b5 87 bd f8 6c c2 3c
       0.07257593 0.15088953 -0.06626508 0.023733601
000210 e4 2e 68 be 36 08 8e be 2d af 99 bd 3d 0f f5 bc
       -0.22674137 -0.2774064 -0.07504115 -0.029914493
000220 fb fb 6e bd d0 bc e0 3d be e7 8c 3d e2 46 60 be
       -0.058345776 0.10973513 0.06880139 -0.2190204
000230 f8 e3 c1 3c eb c4 70 3d 93 2c 78 be 0d d0 81 3d
       0.023668274 0.058781546 -0.24235754 0.06338511
000240 c1 83 1d 3e b8 12 5f 3e a5 07 5d 3e fc c2 c4 bb
       0.15382291 0.21784484 0.21584947 -0.0060046893
000250 2b f7 81 3d d0 bf 3b 3d b5 4c 84 be a1 64 49 3e
       0.06345972 0.045837224 -0.25839773 0.19667293
000260 d0 f1 b4 bd c0 a2 84 be f1 37 d3 bd bb 73 f7 be
       -0.088351846 -0.25905418 -0.10313404 -0.48330483
000270 fc ce 94 be a8 f8 e8 bb 46 17 0d bc 70 33 a5 3e
       -0.29064167 -0.0071097203 -0.008611506 0.32265806
000280 fb 6f d8 3c 84 a3 ed bc 2b 16 a7 bc b1 75 2c be
       0.026420584 -0.029008634 -0.020396313 -0.1684177
000290 e4 39 d3 bd 13 ae 04 bc 34 dc 0d be 0a 3b c6 3e
       -0.10313776 -0.008098143 -0.13853532 0.38716918
0002a0 d1 13 80 bd 3e ca bc 3d 3c 1d b7 3e f0 87 9a bd
       -0.0625378 0.09218262 0.35764492 -0.07545459
0002b0 98 6a 04 be 64 98 1e be 1e c0 22 bc c5 e6 20 3e
       -0.12931287 -0.1548782 -0.0099335 0.15713032
0002c0 7d 53 31 3e c5 34 8e bd e5 57 cf 3b b7 fb b8 3d
       0.17317005 -0.06943659 0.0063276165 0.09032386
0002d0 68 9a 23 bd b3 c6 e8 bd 2f 78 1b 3d 81 40 08 be
       -0.039942175 -0.11366024 0.037956413 -0.13305856
0002e0 d1 3a 41 3e 6e 5e f3 3d 54 0f 15 be 56 d0 a4 3d
       0.18870093 0.118832454 -0.14556628 0.080475494
0002f0 ed 34 38 be 9b 54 c4 be 8f 5d 13 3d cc 89 88 bd
       -0.1798894 -0.383458 0.035977896 -0.06666908
000300 ca 60 a1 be 99 53 71 bd 4a 0b af be bd c3 d7 bd
       -0.31519157 -0.058917616 -0.341883 -0.10535381
000310 06 6f ff 3c ec 9c f5 bd a5 5a 3c be 02 00 69 bc
       0.03118087 -0.11992821 -0.18393953 -0.014221193
000320 5e 3f 89 be f6 68 ba 3e 22 a2 ac bd d6 2c 0d be
       -0.26806158 0.36408204 -0.08429362 -0.13786635
000330 bb 9e a8 3e d5 63 b6 3e 2d 28 41 be 25 5b 10 3e
       0.32933602 0.3562304 -0.18862982 0.14097269
000340 1a 26 ff 3d f5 73 35 be 7c 0d 4b be 38 9d 37 be
       0.12458439 -0.17720015 -0.19829363 -0.17931068
000350 fd 3a 28 3e b0 02 37 be f0 f8 93 bd b4 46 ae bc
       0.16428752 -0.17872119 -0.072252154 -0.021273948
000360 c0 d8 7e be db e9 77 be b2 1d bb be d8 35 3c 3d
       -0.24887371 -0.24210303 -0.36546093 0.045949787
000370 4a af f0 bd 1b c7 c3 bd ed df 60 3d 1a 36 63 be
       -0.11752184 -0.09559461 0.054901052 -0.22188607
000380 9f 99 6f 3e 1b 39 c6 bd 37 3a 1d bd b9 6b a4 3a
       0.23398446 -0.09678861 -0.038385596 0.0012544311
000390 4c 3b fe 3d e2 2f 04 3d 24 7d 12 3e 36 bb 54 3a
       0.12413654 0.032272227 0.1430555 0.0008115055
0003a0 79 6c f7 3d b9 16 3d bd c4 34 7b be 19 5e 67 bd
       0.120812364 -0.04616425 -0.24531847 -0.056486223
0003b0 ec ab ba 3d c1 97 87 3e 7f 8c fa bb 55 34 b1 be
       0.09114823 0.26482967 -0.007646143 -0.3461024
0003c0 c5 e2 62 3e 20 67 13 be 4d 00 84 bd 90 85 d2 3d
       0.22156818 -0.14394808 -0.0644537 0.10279381
0003d0 26 a7 a1 be 57 18 10 be 5a 9d 75 be 8e 3c e8 3d
       -0.31572837 -0.14071785 -0.23985806 0.11339675
0003e0 7c 74 a9 bc bc 17 96 3d 78 95 fd bd 3f 75 cf bd
       -0.020685427 0.07328746 -0.123820245 -0.10129785
0003f0 13 03 e1 be 41 1e 27 3d 14 fa 48 bd e6 76 5f 3e
       -0.43947658 0.040800337 -0.049066618 0.218227

module.net_ts.layer1.0.bn1.weight f4 [32]
000000 fa 1c 4a 3f 19 39 5d 3f 44 f3 7e 3f a8 dc 73 3f
       0.78950465 0.8641525 0.99589944 0.9525857
000010 8e 5b 77 3f ae e5 48 3f 8b 88 86 3f 0e a3 82 3f
       0.96624076 0.78475463 1.051042 1.020601
000020 b3 2b 4d 3f 9a a0 8a 3f 0c 8d 7c 3f 63 97 63 3f
       0.80144805 1.0830262 0.9865272 0.8890287
000030 1b 75 70 3f f0 e1 44 3f 50 8a 86 3f 2d 64 63 3f
       0.9392869 0.76907253 1.051096 0.8882473
000040 9f a3 50 3f ec 12 5c 3f d1 ee 7e 3f a5 9c 72 3f
       0.81499666 0.8596637 0.99583155 0.9477027
000050 68 72 5b 3f 19 03 85 3f 77 e1 4b 3f 3a 4b 5d 3f
       0.85721445 1.039157 0.7964091 0.8644291
000060 b3 23 64 3f 96 2b 81 3f 35 1f 8c 3f 4e be 69 3f
       0.8911697 1.0091426 1.0947024 0.91306007
000070 e3 9e 7e 3f 43 c8 7d 3f a6 6f 69 3f 73 5d 5f 3f
       0.9946119 0.991337 0.91185987 0.8725197

module.net_ts.layer1.0.bn1.bias f4 [32]
000000 7c a4 24 bc 04 c0 92 bd 22 27 52 3b 20 14 90 3a
       -0.010048982 -0.0716553 0.0032066782 0.0010992326
000010 fe 8f 27 be e5 27 3d 3e d0 a7 a0 be 60 37 6f 3d
       -0.16363522 0.1847225 -0.3137803 0.05840242
000020 d4 b6 5c bd f3 55 94 bd f5 3b 14 be ca be bd 3c
       -0.053885296 -0.07242956 -0.14475997 0.023162264
000030 40 4f f0 3d e0 80 3b be 59 ab 8c 3b 58 b0 f1 3c
       0.11733866 -0.1831088 0.004292887 0.029503033
000040 7a 73 c7 bd 3b 2e 41 be ea b0 4d 3e 14 30 c9 bd
       -0.09738822 -0.18865292 0.20087019 -0.09823623
000050 ba 34 0b 3e 13 db 10 be 6b a1 21 bc ea aa cf 3d
       0.13594332 -0.1414607 -0.009865145 0.10140021
000060 60 1c fe bd f6 b9 1e 3d 76 52 5d 3e 26 4f 0b bd
       -0.12407756 0.038751565 0.21613488 -0.03401103
000070 64 6d 9d 3d c2 58 11 be 5a 79 72 bb 2e 64 5c bd
       0.0768688 -0.14194015 -0.00369986 -0.053806476

module.net_ts.layer1.0.bn1.running_mean f4 [32]
000000 87 4a 47 bf 41 57 1b bf 59 75 59 bf ef cc cb bf
       -0.77848095 -0.60680014 -0.84944683 -1.5921916
000010 d2 d9 7b 3e 77 58 c8 bd 74 3b 80 bf fe d6 db bf
       0.2459481 -0.09782498 -1.0018144 -1.7174985
000020 33 90 02 3f 00 3f 23 3f ee df 20 bf 65 2f 00 c0
       0.5100128 0.63768005 -0.6284169 -2.0028927
000030 6b 62 02 c0 e9 e1 51 40 be 41 ba bf 01 cb eb bf
       -2.037257 3.2794135 -1.4551313 -1.8421327
000040 0d 7a 27 3e 83 64 00 40 1e 85 9e bf cc e4 9e be
       0.16355152 2.0061347 -1.2384374 -0.31033933
000050 93 7d 40 3f 3d 3e 5c bf 09 13 07 40 22 4e d8 bf
       0.7519161 -0.8603247 2.1105368 -1.6898844
000060 15 0a a6 3e 5d 34 9b bf 8b 17 1b bf 0a 00 0d c0
       0.32429567 -1.2125355 -0.605828 -2.2031274
000070 15 e2 51 bf 1c a7 1a 3f 50 d6 12 be f2 5c 1b bc
       -0.819856 0.6041124 -0.14339566 -0.009482609

module.net_ts.layer1.0.bn1.running_var f4 [32]
000000 c8 32 12 40 9c 77 2c 40 c8 17 3e 40 4f 89 f2 3f
       2.2843494 2.6948004 2.9702015 1.8948153
000010 53 1f d9 3f fb c2 10 40 ae 6e 31 40 5a 43 e0 3f
       1.6962684 2.2619007 2.7723804 1.7520554
000020 90 0d fa 3f 70 29 26 40 5d 5b 2d 40 73 ef db 3f
       1.9535389 2.5962791 2.7087014 1.7182449
000030 96 0a 3a 40 83 de 33 40 93 c5 14 40 06 c5 df 3f
       2.906896 2.810456 2.324559 1.7482002
000040 2b 30 ff 3f f5 d7 06 40 5e c1 28 40 5e a2 e7 3f
       1.9936575 2.106931 2.6368022 1.8096426
000050 19 d3 09 40 f0 ab 1e 40 76 b8 5d 40 e0 13 58 40
       2.1535094 2.4792442 3.4643836 3.376213
000060 c8 98 f3 3f 72 ae 8b 40 c9 9c 0c 40 7f 76 0b 40
       1.9031 4.3650446 2.1970694 2.1791074
000070 21 4f cc 3f 35 81 01 40 d8 0e f6 3f a1 29 3a 40
       1.5961648 2.0235112 1.922328 2.9087908

module.net_ts.layer1.0.conv2.weight f4 [32, 32, 3]
000000 5c a0 1e bf 62 ef 84 3e 79 29 61 3e 69 ca 91 3e
       -0.6196344 0.25963885 0.21988477 0.2847474
000010 a8 60 ad bd fb d8 bf 3d 78 10 dc 3d fc bd 11 3e
       -0.08465701 0.093675576 0.10745329 0.1423263
000020 02 5e ae bc 33 43 89 be d7 59 51 3e ec d3 d3 3e
       -0.02128506 -0.2680908 0.20444427 0.4137262
000030 28 7e 39 be f6 a0 2d bd 56 80 bc bd 15 1f 91 be
       -0.18114531 -0.042389832 -0.09204166 -0.28344026
000040 82 4f 28 bc ae 90 40 3c e6 ab 4d bd 08 28 c3 bd
       -0.010272862 0.011753244 -0.050212763 -0.0952912
000050 7d 67 76 3c e1 e1 7f 3e e7 6d ba 3d 13 6f a5 3e
       0.015039322 0.2498851 0.091029935 0.32311305
000060 ac 3a 2d 3d f7 d2 86 3c ea 0d 47 bd 83 72 28 3e
       0.042292282 0.016458018 -0.048597254 0.16449933
000070 4f 14 87 be 58 82 35 3d 64 06 5d be e1 9d 27 be
       -0.26382682 0.04431376 -0.21584469 -0.1636882
000080 73 5e 4b be 21 47 8f be ae 60 19 3e 23 02 72 be
       -0.19860248 -0.27983955 0.14978287 -0.23633628
000090 8b e6 c0 bd 71 a2 12 bd 55 f6 7a 3d e5 64 2f be
       -0.094189726 -0.035799447 0.061270077 -0.17128332
0000a0 43 ac e6 3c 6f 0e 27 3e 88 54 ca 3d 49 78 d5 3d
       0.028158313 0.163141 0.09879404 0.10423333
0000b0 d6 23 b0 bd b5 2b 97 3d 89 23 d1 bc 02 21 cc 3d
       -0.08600585 0.07381383 -0.02552964 0.09967233
0000c0 37 90 8f 3d 69 47 81 3e 75 64 41 3e fd ac cf bc
       0.07009929 0.25249794 0.18885978 -0.025351042
0000d0 a0 4b 68 3e 1a cf 97 be 41 90 21 3b 61 bf f7 3d
       0.22685099 -0.29650193 0.0024652632 0.120970495
0000e0 7b 36 e1 3d f1 93 c7 be 7e 53 3f 3c df eb a8 3d
       0.109967194 -0.38980058 0.011677621 0.08248114
0000f0 0a 90 41 3d 56 e3 7c be 6b 32 05 be 66 c6 df 3d
       0.047256507 -0.24696097 -0.13007514 0.109265134
000100 c9 2a 81 3e 6c 9d 4a 3d d5 19 52 bd ba 9f 0b 3c
       0.25227955 0.049466535 -0.051294167 0.0085219685
000110 2c 75 9d 3e e5 ad 0c 3e ea d7 0e 3e b2 cb 94 ba
       0.30753458 0.1373821 0.13949552 -0.001135221
000120 55 d5 22 be 1b eb 90 be 87 ba 1d 3d e7 36 e7 bc
       -0.15901692 -0.2830437 0.038507964 -0.028224422
000130 d8 3c 81 be 12 44 47 3d e6 9c 36 bd 86 05 1f 3e
       -0.25241733 0.0486489 -0.044583224 0.15529451
000140 df 06 d5 bd 57 7b 2d 3e c3 aa 5c 3e 39 9d cf 3d
       -0.10401701 0.16941582 0.21549515 0.1013741
000150 f1 88 a4 bd c4 55 40 3d a5 50 6e 3e 0b df cf 3a
       -0.08033932 0.046956792 0.23272951 0.0015859319
000160 c2 88 d5 3c 96 86 68 3e 83 e8 86 3e f1 1f 71 be
       0.026066188 0.2270759 0.26349267 -0.23547341
000170 43 8e 79 bd 97 18 58 bd 97 10 9f bd bf eb 03 3e
       -0.060926687 -0.052757826 -0.07766836 0.12882899
000180 66 40 50 3d 8f bf c3 3d 44 0d 14 3e ff da fb bd
       0.050842665 0.09558021 0.14458185 -0.122976296
000190 40 9b 99 3e e1 f0 90 be c5 66 58 be 4c f6 0b bd
       0.3000126 -0.28308776 -0.21132953 -0.034170434
0001a0 05 be 98 3e fe 90 8b bd 44 8d 23 bd 23 0a df bd
       0.29832473 -0.068147644 -0.039929643 -0.10890605
0001b0 7d 54 84 be 43 c6 e6 3c c3 be bf 3d 81 bc 7f bd
       -0.2584571 0.02817071 0.09362557 -0.06243563
0001c0 6f 65 30 be ab ad 13 be fd 8c fc bd 31 2f 15 be
       -0.17226194 -0.14421718 -0.12331579 -0.14568783
0001d0 ff 60 c5 bd b3 44 46 be 89 5c 43 3e 35 95 ad bc
       -0.09637641 -0.19362144 0.19078268 -0.021189312
0001e0 1f 83 22 be 01 51 36 bd 1d 51 de bd 1a 91 bc 3d
       -0.15870331 -0.044510845 -0.10855315 0.092073634
0001f0 fa 5d 1f bd 6b d6 97 3e a9 24 0c 3f 7b 04 1e bd
       -0.038907982 0.29655775 0.5474344 -0.03857849
000200 65 03 8b 3e 42 62 e1 bc 2b 73 c0 bd 21 65 28 3e
       0.27151027 -0.027512673 -0.093969665 0.16444828
000210 e2 f5 ee bd f2 27 44 3e 9d 69 e2 bc 39 bb 77 3e
       -0.11667992 0.19155863 -0.027638251 0.24192514
000220 08 41 e0 3d ad bf 71 3e 44 5c 2a ba 4e 61 af 3e
       0.10949904 0.23608275 -0.0006498734 0.34253925
000230 a7 da 26 3e aa 40 20 bd ea 23 5b bd 45 30 e0 bd
       0.16294347 -0.03912417 -0.053501047 -0.10946707
000240 d7 6e 63 3e 80 5b 82 be a5 23 06 bd 87 03 d0 bd
       0.22210251 -0.25460434 -0.032748837 -0.10156923
000250 86 05 c7 bd 3f a7 c1 bd c5 45 99 be b2 c8 83 3e
       -0.097178504 -0.09455728 -0.29936042 0.25739056
000260 6c 34 ee bc a0 8f 4c be ec a7 28 3e 48 cf bb be
       -0.029077731 -0.19976664 0.16470307 -0.3668158
000270 c7 01 de 3e 40 d1 01 be 61 10 d8 bb 6d 6e 9f 3d
       0.4336073 -0.12677479 -0.0065937494 0.07784734
000280 93 28 be bb 33 4c cb bc ae 34 a5 bd c4 ce e0 3d
       -0.0058031767 -0.024816608 -0.080666885 0.109769374
000290 72 c1 ec 3d 05 a0 72 bd e7 54 44 3a 78 2e e0 bd
       0.11560334 -0.059234638 0.0007489458 -0.10946363
0002a0 0a 1a 72 3d 6b f3 0c 3d b2 47 6f 3d d0 cc 1d be
       0.059106864 0.03441183 0.058417983 -0.15410161
0002b0 8e 78 62 be 47 4b ba 3d 91 d1 89 be 56 cf 1b be
       -0.221163 0.09096389 -0.269177 -0.15215811
0002c0 b2 d8 42 be 9d bc 19 3d 43 9a 8f 3d e2 b9 c0 bb
       -0.19027975 0.03753339 0.07011845 -0.005881534
0002d0 54 be 71 bd b3 0b 61 be 04 8a 4f 3e 03 83 c8 3b
       -0.0590194 -0.21977119 0.20267493 0.0061191334
0002e0 4a 54 ce 3d 4b 62 86 be 12 3c f3 3c b9 30 4c be
       0.100746706 -0.26246867 0.02969173 -0.19940461
0002f0 ca ea 0d bd 3d 5b 1e 3e d7 1d e3 bc de 1e 5d 3e
       -0.03464774 0.15464492 -0.02772419 0.21593806
000300 4d 21 c8 3c 57 2e 71 3e 2d 71 d7 bd d6 0b 35 3d
       0.024429942 0.23552833 -0.105196334 0.04420074
000310 38 ac 58 bd 86 92 9c bd f6 0d 1f 3e c2 98 5e 3e
       -0.052898616 -0.07645135 0.1553267 0.2173796
000320 53 93 3f be 3a e3 88 3d 62 b0 01 3c db 49 73 bd
       -0.18708543 0.06683965 0.007915588 -0.059396606
000330 4a 62 87 be 32 1d f0 bd 88 1f 59 be 69 c1 8c 3e
       -0.26442176 -0.117243186 -0.21203434 0.2749131
000340 b5 cb 22 3e 29 0b ee 3d 48 2c 80 be 18 37 8d bd
       0.1589802 0.116232224 -0.25033784 -0.06895274
000350 51 6f 7b be fc e0 13 be f1 1e 2c bd cf c9 7e be
       -0.24554183 -0.14441293 -0.042021696 -0.24881671
000360 fc e0 cb bd 9c df d2 3b 03 2a 09 be 6b d6 69 bd
       -0.09955022 0.0064353477 -0.13394932 -0.05708925
000370 28 07 8a 3d 27 ac a9 be 9e fe 89 be f6 d9 bf be
       0.06739646 -0.33139154 -0.2695207 -0.37470978
000380 6e 32 92 be b9 81 10 3e 19 0b 03 3e 92 07 86 3e
       -0.285541 0.14111985 0.12797202 0.2617765
000390 c1 b0 2b 3d 90 65 cc bd 5f 66 f5 bd b4 41 7c bd
       0.041916613 -0.09980309 -0.11982416 -0.061586097
0003a0 64 63 8d be fc 1c b8 3c 41 9f 1e be 7a 5c 04 3d
       -0.27614892 0.022474758 -0.15490438 0.032314755
0003b0 5e ce 48 bd 1d 58 13 be 9f 98 5c be d2 e9 4a 3e
       -0.049024932 -0.14389081 -0.21542595 0.19815758
0003c0 70 8b 3f bc 4a d0 a8 3d 83 f6 2f 3e 8d 13 1a 3e
       -0.011690959 0.08242853 0.1718388 0.1504652
0003d0 0c ae 60 3d 62 c8 18 be d2 f0 79 be fe ad 05 3e
       0.054853484 -0.1492019 -0.24408272 0.13054654
0003e0 07 5d 83 be d2 f1 d3 3e 70 9f 9f 3e 17 13 50 be
       -0.25656912 0.41395432 0.3117633 -0.20319782
0003f0 36 1b c2 bd 76 7a 31 3d 6a 77 2b be 3e 7b 18 be
       -0.09477846 0.04332968 -0.16744772 -0.14890763

module.net_ts.layer1.0.bn2.weight f4 [32]
000000 78 89 83 3f 0f b3 72 3f 60 b9 85 3f d4 84 90 3f
       1.0276327 0.9480447 1.0447197 1.1290536
000010 8e 87 74 3f b8 60 6b 3f 5e f4 87 3f 9e ab 6f 3f
       0.9551934 0.91944456 1.062145 0.9362124
000020 e5 70 82 3f 09 1d 5d 3f 32 b2 5c 3f c2 bc 6c 3f
       1.0190703 0.8637243 0.86209404 0.9247552
000030 c3 8b 73 3f fb f1 76 3f e4 7a 6c 3f e0 21 5a 3f
       0.95135134 0.9646298 0.92375016 0.8520794
000040 ab af 65 3f 21 12 80 3f ae e4 7b 3f cd 05 75 3f
       0.89721173 1.0005533 0.9839581 0.95711976
000050 d3 8e 35 3f 6b 72 82 3f b8 ef 62 3f d0 13 33 3f
       0.7092106 1.0191168 0.8864703 0.69952106
000060 26 e1 98 3f ba fc 66 3f b2 d0 4e 3f af 1e 77 3f
       1.194371 0.9022938 0.80787194 0.96531194
000070 a8 cb 4b 3f 51 33 45 3f e9 67 47 3f 4d b1 80 3f
       0.7960763 0.7703143 0.7789293 1.0054108

module.net_ts.layer1.0.bn2.bias f4 [32]
000000 49 e5 51 bd 36 0e 95 3c dc e0 ab bd c4 90 93 ba
       -0.051244054 0.018195253 -0.08392498 -0.0011258353
000010 17 1e 45 bd 01 eb 51 be 44 bf fe bd ef 20 2a bd
       -0.0481244 -0.20499803 -0.12438825 -0.041535314
000020 2f 41 06 be ab 26 06 3e 3f bf 81 3d b7 36 2a bc
       -0.13110803 0.13100688 0.063353054 -0.010389022
000030 75 2b 03 be c5 af 34 bd 46 1c 7b bd ff 75 46 3a
       -0.12809546 -0.04411294 -0.06130626 0.00075706834
000040 a8 33 3a bd 6d a0 79 3c f7 fa 69 bd d7 85 9f bd
       -0.04545942 0.015236002 -0.057124104 -0.077892
000050 e6 3c 21 3d df 01 f4 3c b9 d6 68 3c cc a8 75 3d
       0.039364718 0.029786048 0.01421135 0.05997543
000060 c7 63 cf bd a5 12 5b 3d 73 7a 36 3e 6a 80 e6 bd
       -0.10126453 0.053484578 0.17820148 -0.11254962
000070 de cc c4 bc 1d 74 68 bd 17 bf 44 bd e0 8c ce 3b
       -0.02402347 -0.05675136 -0.0480338 0.0063034147

module.net_ts.layer1.0.bn2.running_mean f4 [32]
000000 f3 89 fb 3e 53 e4 82 be de c4 90 bf 72 7e de 3e
       0.49128684 -0.25564823 -1.1310079 0.43455845
000010 30 d8 48 bf f1 e7 5c 3f 37 5a fb 3e ec 47 fc be
       -0.78454876 0.86291414 0.49092266 -0.49273622
000020 45 66 2e 3d ee a1 f5 3d bc 66 a8 be 5a f9 03 bd
       0.042578 0.11993776 -0.3289088 -0.032220222
000030 89 43 33 3e b7 06 4c 3f c2 ae 08 3f 2d 7e d9 3e
       0.17506231 0.79697746 0.5339166 0.42479077
000040 d3 66 6f 3f 70 0c 5a 3f 9d 83 79 3d 6f 14 a2 bf
       0.9351627 0.8517523 0.06091653 -1.2662486
000050 1c 8f 35 3f f6 3b bb be 2b e9 2d 3e 91 e6 08 3f
       0.7092149 -0.36569184 0.16983478 0.53476816
000060 b0 65 db be 31 a5 1f 3f d3 cf 9c bf d2 4b 2e 3f
       -0.4285102 0.6236144 -1.2250923 0.6808444
000070 a3 bc 3b 3f 32 a0 99 be cd 48 2a 3f 8d c2 a1 be
       0.7333471 -0.30005032 0.66517335 -0.31593743

module.net_ts.layer1.0.bn2.running_var f4 [32]
000000 e4 28 5c 3f 1f 01 71 3f b3 66 a2 3f 4a 38 c5 3f
       0.85999894 0.94142336 1.2687591 1.5407803
000010 82 b5 87 3f 63 7f 65 3f 0d 7e 93 3f 97 1b 96 3f
       1.0602267 0.896475 1.1522843 1.172717
000020 44 28 85 3f 9e 26 89 3f 86 c6 ab 3f af e2 8a 3f
       1.0402913 1.071491 1.341996 1.0850428
000030 50 6e 4c 3f 26 20 a3 3f a9 7c 41 3f 87 ad 99 3f
       0.79855824 1.2744186 0.7558084 1.2006081
000040 0a de 69 3f 86 83 04 40 ee f7 93 3f ad 29 96 3f
       0.9135443 2.0705276 1.1560037 1.1731468
000050 6c e9 94 3f ac e8 8d 3f 98 ba ad 3f 10 83 83 3f
       1.1633735 1.1086631 1.3572569 1.0274372
000060 43 50 92 3f c4 03 fe 3f 4e 63 33 3f 78 4b 43 3f
       1.1430744 1.9844899 0.700734 0.7628703
000070 a2 eb 59 3f 9e a4 95 3f 4c 74 40 3f 58 15 52 3f
       0.8512517 1.1690862 0.75177455 0.8206382

module.net_ts.layer2.0.conv1.weight f4 [32, 32, 3]
000000 6a f2 14 3e fe 6a e0 3d e4 ba f1 3e e7 20 0b be
       0.14545599 0.10957907 0.472129 -0.1358677
000010 49 8e 52 be 42 6f f3 be 81 30 1d 3e cc eb 3a 3e
       -0.2056209 -0.4754582 0.15350534 0.18254012
000020 74 46 36 bc 75 ae 1d 3d ef 45 b5 bd 0b 71 87 3d
       -0.011125196 0.038496453 -0.088512294 0.06613358
000030 2a e6 97 3d 54 0a 43 bc 20 96 75 3e d8 8b f9 3d
       0.07416947 -0.011904318 0.2398305 0.12184876
000040 77 51 94 3e b1 7c 74 be 73 14 80 bc ca 32 1d 3d
       0.28968403 -0.23875691 -0.015634751 0.038378514
000050 39 64 a2 bc 0d 3c d5 3d 87 46 fe 3d 8a a3 fb 3c
       -0.01982318 0.104118444 0.12415796 0.03071763
000060 fb c1 28 3e e3 8f d4 3d bb 7b e2 3d ef 0f 8a 3e
       0.16480248 0.10379007 0.11058756 0.2696528
000070 44 7d 02 3d 47 93 0f 3e bd 28 4f 3e 02 52 9c bc
       0.031857744 0.14021026 0.20230384 -0.019082073
000080 fb 92 10 3e 94 33 2d be bc a9 b7 be af 9b ef bd
       0.14118569 -0.16914207 -0.35871685 -0.11699616
000090 c6 ad 1b 3e 34 4c d8 bb c4 8f a1 bb 30 cc 7b be
       0.15203008 -0.006600881 -0.0049304683 -0.2458961
0000a0 21 f2 bd bd 3a 22 7d 3d cc b2 3f be d2 5a b4 3d
       -0.09274698 0.06180022 -0.1872055 0.08806385
0000b0 15 66 a6 3d 08 44 63 bd f7 74 bc bd d8 9d ff bd
       0.08124939 -0.0554848 -0.09201997 -0.12481278
0000c0 cc a9 23 3d ab 5a bd 3d d6 30 d7 bd 45 b5 9d be
       0.039956853 0.09245809 -0.105073616 -0.3080236
0000d0 e7 a0 a2 bd 74 01 35 3e fb 65 26 3d 91 31 2f 3e
       -0.07940846 0.17676336 0.0406246 0.17108752
0000e0 b7 39 c2 bd d2 73 c6 3d 52 90 ac bd 0c 80 1f 3e
       -0.094836645 0.0969006 -0.084259644 0.1557619
0000f0 d7 d9 04 3e 22 46 40 bd 20 59 64 3e ca c2 aa 3d
       0.12973724 -0.046941884 0.22299623 0.08337934
000100 6e e4 69 be d9 b7 f1 3d 3b bf 9a 3d 70 f0 ea bd
       -0.22841045 0.11802644 0.075560056 -0.11471641
000110 0c 77 b3 bb b5 a1 64 3d c2 c6 f2 bc 0b bf 60 bd
       -0.005476838 0.05581828 -0.02963579 -0.054869693
000120 82 a0 ee 3e 20 23 ce bd a7 19 dd bd b5 9f 30 bc
       0.46606833 -0.10065293 -0.107959084 -0.010780265
000130 9e 96 31 bd 58 a8 46 3e a7 a2 77 be 3c 5e e8 3d
       -0.04335653 0.19400156 -0.2418314 0.11346099
000140 95 cd 06 be 23 75 e2 bd d6 7c 63 3e c2 c9 87 be
       -0.13164361 -0.11057498 0.2221559 -0.26521116
000150 80 aa 29 3d ad dc 15 bd d1 7f b5 3c ce 85 ad bd
       0.041422367 -0.036587406 0.022155674 -0.08472787
000160 de 64 94 3c df be 2a be 2a 93 c9 3e 9b 1c 3d bd
       0.018114503 -0.16674374 0.3937009 -0.04616986
000170 44 3e 7a 3d 79 de 89 bd 10 83 56 3e 18 80 a3 be
       0.061094537 -0.067318864 0.20948434 -0.31933665
000180 6c 61 d5 3d f8 72 91 bd 08 13 68 bc bd a5 7d be
       0.104189724 -0.07102007 -0.014164694 -0.24770255
000190 18 37 a1 3e d8 68 82 3e d1 86 66 3d eb 54 7a be
       0.31487346 0.25470614 0.056280915 -0.24446456
0001a0 8f 50 13 be 41 16 63 be 78 58 08 be 83 ad e4 3d
       -0.143862 -0.22176458 -0.13314998 0.11165907
0001b0 12 ff d1 3d f2 b7 df 3d c0 d4 6d 3d b5 19 bf bd
       0.10253729 0.10923757 0.058064222 -0.09331075
0001c0 36 07 a0 bb 32 1f 66 3d ad c0 0a bd a8 a7 d7 bc
       -0.004883672 0.056182094 -0.033875156 -0.026325062
0001d0 ee df 9d 3e d1 f3 90 bc a4 98 1c 3d 6b 87 a0 bd
       0.30834907 -0.017694386 0.038231507 -0.07838329
0001e0 53 49 fe 3d 0e 28 fd bd 8d 1f 37 be 7f 89 0f be
       0.12416329 -0.123611555 -0.1788313 -0.14017294
0001f0 19 5c 0a 3e 07 1d 38 3d 31 98 3d 3e 1a 75 5d 3d
       0.13511695 0.044949558 0.18515088 0.054066755
000200 91 5a 46 3d 26 47 38 3d 4b 4d 79 3e 0b db a0 bd
       0.048426215 0.044989727 0.24345891 -0.07854279
000210 f0 18 81 bd fe a9 e1 3b ab 56 0b 3d a0 88 d8 bd
       -0.063035846 0.0068867197 0.0340182 -0.10572934
000220 40 17 c5 bc d3 fa 69 3e 13 e5 17 3e 3b 09 32 3e
       -0.024058938 0.22849588 0.14833479 0.17386334
000230 43 ed c8 bb ff f4 d9 bd 23 a9 93 3c d3 a6 83 3e
       -0.0061317994 -0.106424324 0.018024987 0.25713214
000240 97 df cb bd a7 98 93 3c c6 8d 2b 3d 62 fd ad 3d
       -0.09954756 0.018017126 0.041883253 0.084955946
000250 00 c2 b5 3d 3d d7 21 3e eb b2 47 3c ab d2 04 be
       0.08874893 0.15804763 0.012188653 -0.12970988
000260 ac 39 3d 3e ef b1 6d 3e 6a 2e 2e 3d aa 2e 0e 3e
       0.18479031 0.23212408 0.042524733 0.13884988
000270 25 35 54 3d 08 8f 33 3e 49 a7 02 bd 70 98 fd 3b
       0.051808495 0.17535031 -0.031897817 0.007739119
000280 45 9c 4b 3c be c2 06 3e de 9e cc 3d 29 39 22 bd
       0.012427394 0.13160226 0.09991239 -0.039605293
000290 fc 9d 20 3e fb 54 3f be 5b 15 1d 3d ad 6f fd 3d
       0.15685266 -0.18684761 0.038350444 0.12374816
0002a0 67 39 e4 bb 0f f4 45 bd 5c 2b 4c bd 8b bb 22 3e
       -0.0069648507 -0.048328456 -0.04984604 0.15891854
0002b0 f0 69 c2 3d f8 d7 41 3d b0 d2 70 3d f2 9e 1b 3d
       0.09492862 0.047325104 0.058794677 0.03799338
0002c0 2b 54 28 3e b4 0c 83 3e 8b 11 b7 bd 8e 9c 35 3e
       0.16438358 0.2559563 -0.08938893 0.17735502
0002d0 72 15 13 3e 62 69 0b 3e 9f d3 06 3e c9 7b 98 3e
       0.1436365 0.13614419 0.13166665 0.2978194
0002e0 23 e2 9e 3d 96 99 43 3d 08 d2 da 3c 90 e1 0e 3e
       0.07757976 0.047753893 0.026711479 0.13953233
0002f0 de 66 0b bd 0f ec 94 bd 16 81 ea 3d 7d b9 18 be
       -0.03403365 -0.07271587 0.114504024 -0.14914508
000300 7e f9 7e 3e d0 1a d2 bc d9 7e b1 3d a0 01 4e be
       0.24899861 -0.02564755 0.086667724 -0.20117807
000310 36 8f 8d 3d ef e0 b6 bd c6 01 b0 bd 98 55 ba 3d
       0.06912081 -0.089296214 -0.08594088 0.09098357
000320 7f 9d 51 3d d9 cb 19 3d 01 a9 86 3d cb 26 12 3d
       0.05117559 0.03754792 0.06575204 0.035681527
000330 cd f3 e5 3d 78 a2 7d be 9d df 91 3d 58 52 c5 be
       0.11228142 -0.24769008 0.07122729 -0.38539386
000340 7d 1c 92 bd f7 db 70 be 3b 96 51 3e e6 a6 ba be
       -0.0713434 -0.2352141 0.20467465 -0.36455458
000350 8f ed a9 bd a9 bb 79 bd 46 90 c9 bd bb 6e 76 bd
       -0.08297264 -0.060969982 -0.09841971 -0.060164195
000360 a5 19 22 be de 01 bd bd 09 74 08 3e 72 2a 09 3c
       -0.15830095 -0.09228872 0.13325514 0.008371936
000370 db bd e7 3d ca b7 4d bd 57 0b f9 3d 2d 97 93 bd
       0.11315509 -0.050224103 0.12160366 -0.07206569
000380 3b 0a a7 bb 19 53 0b 3e d9 6a 63 3b 4d 1d 27 3e
       -0.005097655 0.13605918 0.0034701137 0.16319771
000390 28 68 1f be ec 80 15 be cd b6 0d 3e 54 82 ff 3b
       -0.15567076 -0.14599961 0.13839264 0.0077975187
0003a0 b4 c4 22 3e c9 c5 14 be 64 e0 8d 3e ec db 05 bd
       0.15895349 -0.14528574 0.2771026 -0.032680437
0003b0 4b d4 2d 3e d6 22 96 3e 66 7d 15 3e 64 ec 94 be
       0.16975515 0.29323453 0.14598617 -0.29086602
0003c0 2e 83 eb 3d 35 11 4e be 8f 1a 40 3e 52 33 10 3e
       0.1149963 -0.20123751 0.18760131 0.14082077
0003d0 40 cf 4b bd 28 d6 4f 3e 8f 14 a4 3c db 29 0d be
       -0.049758196 0.20296538 0.020029334 -0.13785498
0003e0 7d 45 75 bd e7 59 d4 3c 32 04 57 3e 91 73 ef 3d
       -0.059880722 0.025921775 0.20997694 0.116919644
0003f0 79 73 f8 bd 17 f1 a9 3d b9 f7 b6 3e 11 47 3c bd
       -0.121314 0.08297937 0.35735872 -0.04596621

module.net_ts.layer2.0.bn1.weight f4 [32]
000000 42 df 69 3f 8e 5d 4a 3f 91 61 6c 3f 4a ec 68 3f
       0.9135629 0.79049003 0.92336375 0.9098555
000010 3f a1 75 3f 35 48 8e 3f 36 b7 53 3f 4a ee 81 3f
       0.95949167 1.1115786 0.8270143 1.0150845
000020 28 4c 65 3f 23 97 57 3f 33 27 64 3f d6 f3 76 3f
       0.8956933 0.8421499 0.89122313 0.96465814
000030 86 f3 64 3f f3 55 56 3f 99 06 7d 3f 27 29 69 3f
       0.8943409 0.837249 0.9883819 0.9107842
000040 0d d6 57 3f e3 45 5d 3f e1 7c 49 3f 10 a6 62 3f
       0.8431099 0.86434764 0.78706175 0.8853464
000050 c2 ca 4a 3f 83 57 5d 3f c7 49 75 3f 38 4f 69 3f
       0.79215634 0.8646166 0.958157 0.91136503
000060 2d 76 5c 3f 10 4d 77 3f 0a 6a 81 3f 75 d4 5e 3f
       0.8611782 0.96601963 1.0110486 0.87042934
000070 d7 5b 89 3f e6 79 6e 3f 6a f7 7f 3f 2f b2 79 3f
       1.0731152 0.9315475 0.999869 0.9753751

module.net_ts.layer2.0.bn1.bias f4 [32]
000000 93 97 25 be be 15 2c 3d d5 72 53 bc 6a b4 d1 3d
       -0.16171102 0.042012922 -0.012905796 0.102394894
000010 71 a4 45 bc eb 0f a8 bb 3d dc fe bc b3 d5 c0 3c
       -0.012063132 -0.0051288507 -0.031110877 0.0235394
000020 93 1b 83 3c 7d 2b 7d bd 8d 53 32 bd 8f fc bc 3d
       0.01600436 -0.06180905 -0.04353671 0.09227859
000030 84 94 a5 bd f0 cd 94 3d dd 1b dc bc 16 fa 2c be
       -0.08084968 0.07265842 -0.026868755 -0.16892275
000040 fe d0 44 3d e1 70 65 bd 99 78 24 be 0f e2 11 3d
       0.048050873 -0.056015853 -0.1606163 0.035615977
000050 40 ab 83 bd 7d a5 8a bd d7 1f 23 3d 50 fc bf 3d
       -0.06429148 -0.06769846 0.039825287 0.09374297
000060 de 97 05 be 1d 78 9d 3d c5 03 57 3d b3 f0 41 3d
       -0.13046214 0.076889254 0.05249383 0.04734869
000070 8f 2e 9e 3d 65 e1 f6 3c de 76 5b 3d dd 18 1b bd
       0.07723724 0.030136773 0.053580157 -0.03786551

module.net_ts.layer2.0.bn1.running_mean f4 [32]
000000 4b 69 71 3f 79 8e 6b 40 c3 64 e0 3f 6a 71 15 c0
       0.9430129 3.6805708 1.753075 -2.3350472
000010 ad 15 2e c0 42 d1 4f bf ac f2 ff 3e d0 09 a3 bf
       -2.720073 -0.8117868 0.4998983 -1.273737
000020 20 fe 11 bf e5 9c 1c c0 f5 2e ba 3e ae 15 59 c0
       -0.5702839 -2.447076 0.3636395 -3.3919482
000030 9e bf e5 bf 8e 0e 9a 3f 3a e0 9a bf 64 61 b9 bf
       -1.7949102 1.2035692 -1.2099679 -1.4482846
000040 ec d7 b2 bf ba 46 3a 3f f2 b9 5e 3f d6 74 0a c0
       -1.3972144 0.7276417 0.8700248 -2.163381
000050 7c 6a 25 bf 7c ce 56 bf 8c dd 2d c0 42 86 07 c0
       -0.6461561 -0.8390882 -2.7166471 -2.1175694
000060 31 1c 80 bd b7 08 0a c0 8c 7a e6 bf bb 50 29 c0
       -0.06255377 -2.156782 -1.8006148 -2.6455524
000070 c4 c6 41 c0 e3 af d5 bf 7d 28 56 40 3c a5 af 3f
       -3.0277567 -1.6694301 3.3462212 1.37223

module.net_ts.layer2.0.bn1.running_var f4 [32]
000000 e1 6e 24 40 ad e0 4a 40 1d a2 31 40 70 c1 41 40
       2.5692675 3.1699631 2.7755196 3.0274315
000010 f4 f8 8a 40 bb 18 74 40 4d 29 64 40 86 9a 10 40
       4.34289 3.8140094 3.5650208 2.2594314
000020 6c c1 1b 40 5a af 64 40 7d ab da 3f 2d 82 55 40
       2.4336805 3.5732026 1.7083584 3.3360703
000030 b2 17 56 40 33 fc 08 40 6f 85 3d 40 64 83 34 40
       3.3451962 2.140393 2.9612691 2.8205194
000040 8a 83 63 40 26 03 ba 40 43 03 55 40 be 3a 27 40
       3.5549035 5.8128843 3.328324 2.6129603
000050 47 50 76 40 61 fc 3d 40 58 9f 5b 40 54 15 a7 40
       3.8486497 2.968529 3.4316006 5.2213535
000060 d6 e2 54 40 50 ac 5d 40 40 c9 91 40 2c bc 1e 40
       3.326345 3.4636421 4.5558167 2.480235
000070 c0 c2 77 40 e8 aa 1d 40 24 24 9f 40 7a 62 39 40
       3.8712616 2.4635563 4.9731617 2.8966355

module.net_ts.layer2.0.conv2.weight f4 [32, 32, 3]
000000 a7 96 23 3d 73 3d ca bd a8 db 32 3e e2 b0 17 3e
       0.039938595 -0.09875002 0.17466605 0.14813569
000010 4f 76 22 bd 5c 7d 30 3e 9a 68 ad 3e 47 7c 3f be
       -0.03966361 0.17235321 0.33868867 -0.18699752
000020 55 71 d8 bb 8b 9c 88 be 82 17 b6 bd 3a 45 03 be
       -0.006605307 -0.26681933 -0.088912025 -0.12819377
000030 f4 0c 12 be b8 d1 de 3d f6 a8 84 be 86 7e 7c be
       -0.14262754 0.108798444 -0.25910157 -0.2465764
000040 29 a6 0e 3b e8 a0 4c be 8e 4c a0 bd 41 80 71 3c
       0.002176652 -0.19983256 -0.07827102 0.014740051
000050 90 a4 94 3d 63 f4 88 3d 42 cc 93 3d 7f d5 02 3d
       0.0725795 0.06687238 0.072166935 0.031941887
000060 ad dd 33 bd 1e 0e 45 be b8 0a 89 3c 63 1d 48 3e
       -0.04391258 -0.19243667 0.016728744 0.1954246
000070 c8 f3 29 bd ee 3b d3 bd 07 25 33 3e f1 7f df 3e
       -0.041492254 -0.10314165 0.17494594 0.436523
000080 40 69 5d be 8b b2 33 be b3 c8 8e 3e 65 28 12 be
       -0.21622181 -0.17548577 0.27887496 -0.14273222
000090 9d 55 c4 3b 17 79 56 3d 7d e5 16 3d 02 4e 77 bd
       0.005991651 0.052361574 0.03683995 -0.06037713
0000a0 a3 3e e3 3d 5c 2e 7c b9 f0 f7 1b 3e 68 03 b1 bc
       0.110959314 -0.00024049863 0.152313 -0.02160807
0000b0 79 1f fa 3d 33 ad ea 3d 0e 87 89 bd 91 6c f5 ba
       0.12213034 0.114588164 -0.06715213 -0.0018724372
0000c0 38 00 08 bc c7 6f 98 3e 53 10 5e bd 1a f0 b1 3d
       -0.008300833 0.2977278 -0.054214787 0.08688374
0000d0 c1 7a 82 be 4e b1 24 3e 96 31 9f bd 2d 31 be 3d
       -0.2548428 0.16083261 -0.0777313 0.09286723
0000e0 6a 6f 24 bc cc 5d 10 be 11 0e a9 bd 54 db 86 bd
       -0.010036329 -0.1409828 -0.08254636 -0.06584802
0000f0 b1 30 e9 3b c6 f8 ad 3d fd 36 8f 3e fe 05 d2 bd
       0.0071164 0.084947154 0.2797164 -0.10255049
000100 95 fa 54 bd 0c 23 7e bd 15 f3 76 bc 13 7e 3a be
       -0.051996786 -0.062045142 -0.015072604 -0.18212156
000110 ef 4f 69 bd 2c 1e c4 3e d5 7a 7f 3e 38 d3 9e 3e
       -0.056960996 0.3830427 0.249492 0.31020522
000120 24 26 8b 3d 6b f0 70 3d 3a 9a 3c be 4e 97 8f 3e
       0.06794384 0.05882303 -0.18418208 0.28045124
000130 93 5d fb bd b1 38 fe 3d 7e 23 a9 bd 8b 70 74 bd
       -0.12273707 0.12413157 -0.08258723 -0.05967764
000140 e4 9f c6 bc 54 62 19 3e 84 60 bc 3b 18 07 dd 3c
       -0.024246164 0.14978915 0.0057488102 0.026980922
000150 0e 4d 15 be 47 cd 13 3e 0f a6 09 bd 58 86 81 3d
       -0.14580175 0.14433776 -0.03360563 0.06324452
000160 68 d3 3e be 99 37 a1 bd 3e 19 1d bd 50 44 e5 3e
       -0.18635333 -0.078719325 -0.03835415 0.4477868
000170 d0 6e 70 bd c9 0f 1a be e6 9c 2b 3e 23 0b 21 3e
       -0.05869943 -0.15045084 0.16759071 0.15726905
000180 88 e2 82 be 90 20 93 be 1a 8c 0c be cb 7b e6 bd
       -0.25563455 -0.2873578 -0.1372532 -0.112540804
000190 b6 d2 b1 3d d1 ad 77 be d6 e0 67 3e b2 d8 73 be
       0.08682768 -0.241874 0.22644362 -0.23813131
0001a0 d4 f5 72 3d 8b 3b ff bd b5 ce 90 3c c0 8a 1d 3e
       0.05931647 -0.12462529 0.01767669 0.1538496
0001b0 79 9b 36 3c ae cf 69 bd 29 9b 9f 3e b2 22 c9 bd
       0.011145466 -0.057082824 0.31173065 -0.09821071
0001c0 26 0a d2 bd 26 10 74 bd f8 00 46 be dc c8 60 3e
       -0.10255842 -0.059585713 -0.19336307 0.21951622
0001d0 de 82 8b bd 5f 50 3a 3d 4b 5f 3c 3d 2a b4 3e 3e
       -0.0681207 0.045486804 0.045989316 0.18623415
0001e0 8e 14 bd 38 6a c1 00 be 8f 7d 3e bd 03 14 37 3e
       9.016051e-05 -0.12573782 -0.04650646 0.17878728
0001f0 b6 e9 e5 3d 1d c3 d3 3c c9 b7 a2 3d 64 17 05 3e
       0.112262174 0.025849873 0.079452105 0.12997204
000200 f2 08 3f 3d 83 84 0d 3e e7 e1 09 bd 48 08 55 3e
       0.04663939 0.1382008 -0.033662703 0.2080394
000210 b9 87 24 3d b4 30 cc 3d 67 4e 0b 3e b9 81 b4 bd
       0.040168498 0.09970227 0.13604127 -0.08813805
000220 67 36 19 be 13 c3 1d bd 50 4c 2f bd be da 8f 3d
       -0.14962159 -0.038516115 -0.042797387 0.07024144
000230 0f 1a f1 3d 85 b2 9c bd d8 ba 56 bd 52 78 c5 3d
       0.117725484 -0.076512374 -0.05242428 0.0964209
000240 0d 87 55 bc e6 bc 26 be de 7b 86 3d 49 13 b8 3d
       -0.013032687 -0.16282997 0.065665945 0.08988053
000250 1a d0 40 3d 0e 9d 11 be 9d d3 da bc 21 b5 1f 3d
       0.04707346 -0.14220068 -0.026712233 0.038991097
000260 f6 fc 19 be 04 92 63 3d d8 af 5f be 3f 8e a5 3c
       -0.15037903 0.055559173 -0.21844423 0.02020943
000270 18 f0 13 3e 23 5c 85 3c 40 6d 2b 3e 79 71 ae be
       0.14447057 0.016279286 0.16740894 -0.34070948
000280 cb 82 32 bd 05 2c fa bd 2a f5 24 3d d1 05 2b bc
       -0.043581765 -0.12215427 0.04027287 -0.010438398
000290 05 d2 2f 3e 20 25 40 3e 50 06 2e 3e 53 a2 57 bd
       0.1716996 0.18764162 0.16994596 -0.05264504
0002a0 29 be 15 3e d6 58 0e bd 49 87 39 bc b4 66 f9 3d
       0.14623322 -0.03475269 -0.011323758 0.12177792
0002b0 ec 11 ee 3d 8f 2c d4 3c 6d 61 ce 3c d8 36 62 bd
       0.11624512 0.025900153 0.02519294 -0.055228084
0002c0 79 72 ae 3c bf c1 1e 3e 24 3a e7 bd 65 c8 aa 3d
       0.02129482 0.15503596 -0.11290386 0.083390035
0002d0 e6 70 36 be 69 3a 0d be 20 f7 80 bc 97 a1 74 bd
       -0.17816505 -0.13791813 -0.015742838 -0.059724417
0002e0 d8 56 8b bd e8 54 83 3e 8f 7c 09 3e 5e 91 32 ba
       -0.068036735 0.25650716 0.13426422 -0.00068118225
0002f0 f4 98 a9 bd b8 9d dc bc 79 b9 05 3e 6f 2b 2c bd
       -0.082811266 -0.026930675 0.13059033 -0.04203361
000300 35 eb 4d bc ad 7b 43 3e 12 52 a0 3e 5b 9f 0c be
       -0.012568285 0.19090147 0.31312615 -0.13732664
000310 55 46 60 bd 80 ab 7e 3d 85 ec 94 3d ae 2a d4 be
       -0.054754574 0.062175274 0.07271675 -0.41438812
000320 1b d4 ba be d0 a4 d3 bd 01 55 30 be be 7c 14 be
       -0.3648995 -0.1033417 -0.17219926 -0.1450071
000330 be 85 81 3e c9 1a 18 3c 5b a2 6f 3c 59 0b 7e bd
       0.2529735 0.00928373 0.014626111 -0.06202254
000340 95 36 9e 3d d8 56 a0 3c 7e 50 2f 3e 07 87 92 3e
       0.077252544 0.01957266 0.17120549 0.28618643
000350 bc 43 9a bd 81 6b 71 3c 56 ad a3 3d 75 6c 91 be
       -0.075324506 0.014735104 0.079920456 -0.2840306
000360 f5 cf a2 3d 40 13 5a bd 01 80 22 3e 25 58 cd 3c
       0.07949821 -0.053241014 0.15869142 0.025066445
000370 06 38 9a be 8b a3 ef bd 8e 0f ba be 24 37 8b 3d
       -0.30120867 -0.11701115 -0.36339992 0.067976266
000380 69 ff cc bd 77 a3 58 be 81 53 de 3d 5d f2 f9 bc
       -0.10009653 -0.21156107 0.10855771 -0.030511076
000390 aa 2e 3f bd 82 96 97 be 4e d6 24 3e 8c ca 4d bd
       -0.04667536 -0.29607016 0.16097376 -0.050241992
0003a0 5b bd 05 be 8f 22 89 3e 22 b3 a9 3e 56 05 17 3d
       -0.13060515 0.2678418 0.3314448 0.036870323
0003b0 f9 bc 04 be 5b 7d d3 3d c6 31 d0 3c f1 17 dd b8
       -0.12962712 0.10326644 0.025414359 -0.000105425606
0003c0 95 81 07 3e e8 e4 68 3d f7 c4 45 3d 54 08 e1 bd
       0.13233025 0.056858927 0.048283543 -0.109879166
0003d0 0b 07 e9 3d 4c 6e 35 bd 31 7e 8b bd cc 11 61 bd
       0.113782965 -0.04429464 -0.068111785 -0.054948613
0003e0 1e 1c 12 3e 9b 59 38 be 3f d7 c1 bc c8 a0 0c be
       0.14268538 -0.18002932 -0.023662208 -0.13733208
0003f0 8d 10 c6 bc 96 3d de bd 53 4d 0a be 0b 5d 87 3d
       -0.024177814 -0.1085159 -0.1350606 0.066095434

module.net_ts.layer2.0.bn2.weight f4 [32]
000000 77 ef 62 3f ca 7a 71 3f 59 8c 41 3f 4b 20 4e 3f
       0.88646644 0.94327986 0.7560478 0.80518025
000010 5c 6c 5d 3f e1 16 5e 3f b8 45 3b 3f 31 06 61 3f
       0.8649347 0.8675366 0.7315326 0.8790007
000020 db b2 a1 3f d9 c4 4f 3f 68 ed 81 3f 41 e4 87 3f
       1.2632707 0.8115974 1.0150576 1.0616533
000030 7b c2 98 3f 82 42 8a 3f 78 5c 6a 3f e0 8e 55 3f
       1.1934351 1.0801547 0.91547346 0.83421135
000040 5c 34 70 3f 7a 82 47 3f 2c 94 39 3f b2 45 80 3f
       0.93829894 0.77933466 0.7249172 1.0021269
000050 7f b2 5b 3f 6d 75 60 3f 81 ce 49 3f 31 18 6a 3f
       0.8581924 0.8767918 0.78830725 0.91443163
000060 38 0e 78 3f 51 e3 84 3f 8a f0 81 3f 7c 29 6c 3f
       0.96896696 1.0381871 1.0151532 0.922508
000070 d4 d5 6d 3f 9b 75 40 3f 54 77 93 3f c3 ff 7f 3f
       0.929044 0.7517945 1.1520791 0.99999636

module.net_ts.layer2.0.bn2.bias f4 [32]
000000 29 f1 18 bd 90 3c 2e bc 1f da b2 bd ef c6 50 bd
       -0.037339363 -0.010634556 -0.087330095 -0.050970968
000010 cf e6 29 3c f2 7e 09 be 1b 7f 9d bc 55 04 0d b9
       0.01036997 -0.13427332 -0.019225648 -0.00013448422
000020 bd ef e7 3d ea de 0b bd 70 01 b2 bc 97 41 b2 3d
       0.11325023 -0.034148134 -0.021729201 0.087039165
000030 ce 7d 22 bd 01 bb 92 bd fb 81 8f bd 24 f6 34 bd
       -0.039670758 -0.071645744 -0.07007214 -0.04418005
000040 7e aa 2a 3d a0 17 aa bd fb 51 6b bd 7b 7c 8e 3c
       0.0416665 -0.08305287 -0.05745123 0.017393341
000050 cf 12 48 bd b2 5f 8d bd 39 f9 56 bd 8b 26 a3 3d
       -0.048846062 -0.06903018 -0.05248377 0.07966336
000060 cb 4f 60 be 0e b7 a1 3c d0 2c b7 3b 05 f7 4c bd
       -0.21905439 0.019740608 0.005590059 -0.050040264
000070 32 8f 85 bd f2 89 48 bd d8 f5 82 3d e8 af 6c 3c
       -0.06521453 -0.04895968 0.06394547 0.014446236
