model/model_20201014151312/model_final_mb6_3_0300_sm.pth (torch_old, 974091 bytes, 68 tensors)

module.net_sm.conv1.weight f4 [32, 1, 7, 7, 7]
0	0x3c63efb6	0.013912132
1	0xbcfdeb35	-0.030995945
2	0xbd30883a	-0.043098666
3	0xbc830800	-0.015995026
4	0x3acd9591	0.0015684833
5	0x3c5ac89c	0.013353493
6	0xbce92e32	-0.02846441
7	0xbc111804	-0.008855823
8	0xbc617bdb	-0.01376244
9	0xbc65096b	-0.013979296
10	0xbb27e355	-0.0025617678
11	0x3d1b80d7	0.037964668
12	0x3d1f6472	0.03891415
13	0xbb378b23	-0.0028006516
14	0xbcc069a9	-0.023487883
15	0x3cacbb55	0.02108542
16	0xbbaee08a	-0.0053368257
17	0x3a8ee50e	0.0010902004
18	0x3d1c4d94	0.03815992
19	0x3d8c8502	0.06861307
20	0xbb6462c9	-0.003484892
21	0x3c1d3e92	0.009597437
22	0x3cf1cc2c	0.029516302
23	0xbc6cb45b	-0.014447297
24	0x3b5c2241	0.0033589753
25	0x3d577ec8	0.052611142
26	0x3d27dba8	0.040980965
27	0xbd010155	-0.03149541
28	0x3c435f12	0.011924522
29	0x3ae01cba	0.0017098405
30	0x3bd1a1c0	0.006397456
31	0x3bc66ae0	0.006055221
32	0x3cc79ff7	0.02436827
33	0x3ce07aee	0.027402367
34	0xbcb52884	-0.022114046
35	0x3c814ee1	0.015784683
36	0xbd6ab265	-0.057299037
37	0xbcf37e23	-0.029723233
38	0xbb10212b	-0.0021992426
39	0x3c60f2f9	0.013729804
40	0xbbd34721	-0.006447688
41	0x3ceb19a9	0.02869876
42	0xbd92c3ff	-0.071662895
43	0xbd9109a3	-0.07081916
44	0xbd850e7b	-0.064969026
45	0xbcbd9577	-0.02314256
46	0xbb814253	-0.003944674
47	0x3c451e74	0.012031186
48	0x3d298011	0.0413819
49	0x3d6deab9	0.058085177
50	0xb9c1c5b7	-0.00036959138
51	0x3c9ad5ed	0.018900836
52	0x3d01a2fc	0.031649575
53	0xbcbe7d78	-0.023253188
54	0xbc1410c4	-0.0090372
55	0xbc3349f0	-0.010942921
56	0x3d52d94f	0.051476773
57	0xba82d50f	-0.0009981709
58	0x3bab763a	0.0052325996
59	0x3c25ef5e	0.01012787
60	0x3d0c6ba8	0.034282357
61	0x3d056970	0.032571256
62	0x3b4cd229	0.0031253195
63	0xbc15283b	-0.00910383
64	0x3d1c95a8	0.03822866
65	0xbc7b6e6a	-0.015346149
66	0x3cae0f1a	0.021247435
67	0x3cec0182	0.028809313
68	0x3d2d5465	0.042316813
69	0x3b596379	0.0033170863
70	0x3d3cf649	0.046133313
71	0x3d3ac56c	0.045598432
72	0x3d0672a1	0.032824162
73	0x3cd9f68b	0.026606819
74	0x3d9e4c3c	0.07729384
75	0x3d878853	0.06617799
76	0x3cf0ac76	0.02937911
77	0x3d86e6b5	0.065869726
78	0x3d97f63a	0.07420011
79	0x3d8aacc0	0.06771231
80	0x3d886310	0.0665952
81	0x3daab51b	0.083353244
82	0x3d8098b3	0.06279125
83	0x360e50b5	2.1206627e-06
84	0x3c3063e4	0.010766003
85	0xb7ccbcde	-2.4406643e-05
86	0x3b90675b	0.004406852
87	0x3ce48cc6	0.027899157
88	0x3d580ec6	0.052748464
89	0x3d4426d8	0.047888607
90	0x3c1d8bb4	0.009615827
91	0xbc97dd7f	-0.018538235
92	0xbd489b1b	-0.048976045
93	0xbd7ce7c6	-0.061744474
94	0xbc02b9f9	-0.00797891
95	0x3cadc252	0.021210823
96	0xbc4c6fbd	-0.012477812
97	0x3cd1bdd6	0.025603216
98	0x3d46a62d	0.04849832
99	0x3d9a61ca	0.07538183
100	0x3d3f958c	0.04677348
101	0x3cab75a3	0.020930117
102	0xbc68e30b	-0.0142142875
103	0xbb9d46dc	-0.004799707
104	0xbc562032	-0.013069199
105	0x3d859d09	0.06524093
106	0x3d0d805b	0.034546237
107	0x3cdc13f1	0.026864978
108	0xba3d6468	-0.00072247395
109	0xbd05e61b	-0.03269015
110	0xbc4830f4	-0.012218703
111	0xbc595074	-0.01326381
112	0x3ce8153f	0.028330443
113	0x3d2c7a8c	0.042109057
114	0x3a63f1f9	0.00086954195
115	0xbc84a337	-0.016191108
116	0x3b5fae94	0.0034131156
117	0x3b624494	0.003452574
118	0xbc25cc3f	-0.010119497
119	0x3d7093ec	0.05873482
120	0x3d3aaf9b	0.045577627
121	0x3c99ef55	0.01879088
122	0x3ce92dd6	0.02846424
123	0x3d0639f2	0.032770105
124	0x3d136dba	0.035993315
125	0x3d00754c	0.031361863
126	0x3d8ceb79	0.0688085
127	0x3d9086b4	0.070569426
128	0x3d7d1cdd	0.061795104
129	0x3d8afb38	0.067861974
130	0x3d56a53b	0.05240367
131	0x3d88cfa5	0.0668023
132	0x3d2b7ab9	0.041865084
133	0x3cd2156e	0.025644984
134	0x3d714bfb	0.05891035
135	0x3d92e057	0.07171696
136	0x3d3bba28	0.04583183
137	0x3d0988dc	0.033577785
138	0x3ce0a0a6	0.027420353
139	0x3d0175ed	0.031606603
140	0xbb45a6f6	-0.003015933
141	0x3d15bae8	0.0365552
142	0x3c9c1653	0.019053614
143	0x3d2789ca	0.04090289
144	0x3c467674	0.012113202
145	0xbc504062	-0.012710663
146	0x3ce0e867	0.027454568
147	0x3cac6c03	0.021047598
148	0x3d854ae3	0.06508424
149	0xb9b8c932	-0.00035245117
150	0xbc3c7de0	-0.01150462
151	0xbcbb1884	-0.022838838
152	0xbc0ba45e	-0.008523075
153	0xbc125285	-0.008930807
154	0xbc107161	-0.008816094
155	0x3d80bf7e	0.06286524
156	0x3c6b8436	0.014374783
157	0x3ada2000	0.0016641617
158	0x3ba8ab56	0.005147378
159	0xbc7b4dff	-0.01533842
160	0xbb46a76e	-0.0030312198
161	0x3d03c970	0.032174528
162	0x3d99e2a0	0.075139284
163	0x3d532d45	0.051556844
164	0x3b008f05	0.0019616496
165	0xbd1bc505	-0.03802969
166	0xbcd47aea	-0.025937516
167	0xbc953a57	-0.018216295
168	0x3d3a050d	0.045414973
169	0x3dc1605d	0.09442208
170	0x3d9f124f	0.07767164
171	0x3cc5183b	0.024059406
172	0xbcf3d2c3	-0.029763585
173	0xbcf98057	-0.030456705
174	0x3ca813e3	0.020517295
175	0x3d5c8fe0	0.053848147
176	0x3df42af1	0.11922253
177	0x3dc183ef	0.094489925
178	0x3c248656	0.010041794
179	0x3a8e0cc9	0.001083755
180	0x3c98731e	0.01860958
181	0x3d343c27	0.04400268
182	0x3b6d1d5c	0.003618083
183	0x3dcc4859	0.09974737
184	0x3db7b10b	0.08969315
185	0x3d625553	0.055257153
186	0x3cafa929	0.021442967
187	0xbcb31756	-0.021861713
188	0x3d5889e6	0.052865885
189	0xbbce8832	-0.006302857
190	0x3d9bb248	0.07602364
191	0x3d8e6e29	0.06954605
192	0x3d1d2bbf	0.038371798
193	0x3b9ddbb1	0.004817449
194	0xbbd7ad76	-0.0065819575
195	0x3b0bcba0	0.0021331087
196	0xbc9a1107	-0.018806947
197	0xbc866654	-0.016406216
198	0xbd01b158	-0.03166327
199	0xbd1087e7	-0.035285857
200	0xbc59c024	-0.013290439
201	0xbd66aa0a	-0.056314506
202	0xbc4f01ef	-0.012634738
203	0xbcf62fd0	-0.030052096
204	0xb7f3957b	-2.9037465e-05
205	0xbc24a5b6	-0.010049274
206	0x3bb414a1	0.005495623
207	0xbca46165	-0.020065973
208	0xbcaf57fc	-0.021404259
209	0xbc48c3b6	-0.012253692
210	0xbc4c37c1	-0.012464465
211	0xbcae2b0b	-0.021260759
212	0x3c609d53	0.013709384
213	0x3b6f9044	0.0036554495
214	0xbd45b381	-0.04826689
215	0xbd6b010b	-0.05737404
216	0xbcdae4bf	-0.026720403
217	0xbc814358	-0.015779182
218	0x3d368af3	0.044566106
219	0x3d5c1107	0.053727176
220	0xbc0d58dd	-0.008627144
221	0xbd4e7686	-0.050406
222	0xbd960ec4	-0.07327035
223	0xbc96cc6e	-0.018408027
224	0xbcbbbfe3	-0.022918647
225	0x3d953bf3	0.07286825
226	0x3da39278	0.07986921
227	0x3be2b0ba	0.00691804
228	0xbd54a2f5	-0.05191322
229	0xbce210c4	-0.027595885
230	0xbb67e48b	-0.0035384025
231	0x3c389a5f	0.011267274
232	0x3db2be9a	0.087277606
233	0x3d8862a1	0.06659437
234	0x3d1b0c87	0.037853744
235	0x3bba1575	0.0056788274
236	0xbc8db095	-0.017296115
237	0x3c7e952b	0.015538494
238	0x3c9ddeb5	0.019271234
239	0x3d1a1249	0.037615094
240	0x3d10d627	0.03536048
241	0x3d1b8244	0.037966028
242	0x3cd2918d	0.02570417
243	0xbd0998c9	-0.033592973
244	0x3bf77e48	0.0075528957
245	0xbc8acf09	-0.016944425
246	0x383f70d4	4.5643028e-05
247	0x3c960a1b	0.018315366
248	0x3baefa85	0.005339923
249	0xbc9d8a99	-0.019231128
250	0xbc85e21f	-0.016343175
251	0x3c04c80a	0.008104334
252	0xbd23e54e	-0.040013604
253	0xbd37420a	-0.044740714
254	0x3d22c369	0.03973714
255	0x3c0e071d	0.008668688

module.net_sm.bn1.weight f4 [32]
0	0x3f60fac7	0.87882656
1	0x3f4dc020	0.80371284
2	0x3f7a28c5	0.9771846
3	0x3f604c1c	0.87616134
4	0x3f746fcb	0.9548308
5	0x3f4c8908	0.79896593
6	0x3f609239	0.8772312
7	0x3f5d706f	0.86499685
8	0x3f5b24f4	0.8560326
9	0x3f6d03a6	0.9258369
10	0x3f543f79	0.8290935
11	0x3f6507a9	0.89464813
12	0x3f6877e8	0.9080796
13	0x3f80ab4e	1.0052278
14	0x3f6ea2ab	0.9321696
15	0x3f5d342d	0.8640774
16	0x3f6c831e	0.9238757
17	0x3f83c466	1.0294311
18	0x3f5f365c	0.8719232
19	0x3f54d2ee	0.83134353
20	0x3f4f81e8	0.81057596
21	0x3f5d17c1	0.8636437
22	0x3f678a65	0.9044555
23	0x3f6b8459	0.9199882
24	0x3f557f51	0.83397394
25	0x3f5b6b9f	0.8571109
26	0x3f642bc6	0.8912929
27	0x3f606f22	0.87669575
28	0x3f69f785	0.9139331
29	0x3f54771e	0.8299426
30	0x3f528510	0.8223429
31	0x3f68e492	0.9097377

module.net_sm.bn1.bias f4 [32]
0	0x3ce1bc21	0.027555527
1	0xbd43ee7c	-0.04783486
2	0x3c165b0f	0.0091769835
3	0x3bbba5be	0.005726545
4	0x3c3381c7	0.010956234
5	0xbc04a36c	-0.008095603
6	0xbc41cd9b	-0.011828805
7	0x3b9b2244	0.0047343094
8	0xbc41769f	-0.011808067
9	0x3be2f9da	0.0069267573
10	0x3c1ebcdc	0.009688582
11	0x3c16e121	0.009208948
12	0x3ccfccf7	0.02536629
13	0x3c8ecec5	0.01743258
14	0x3c0aafd7	0.008464775
15	0xbc0c6c67	-0.008570767
16	0x3b15d3e8	0.0022861902
17	0x3cd77690	0.026301652
18	0x3b7ccaee	0.0038573104
19	0x3bf12804	0.0073595066
20	0xbc9c143f	-0.019052623
21	0xbc8e4801	-0.017368319
22	0x3c61621f	0.013756304
23	0x3c26c265	0.010178183
24	0x3bbbdda1	0.0057332073
25	0x3bf28680	0.0074012876
26	0x3a845481	0.0010095985
27	0x3bb42971	0.0054981043
28	0x3d23627a	0.039888836
29	0x3c61b21f	0.0137753775
30	0xbc88f345	-0.016717562
31	0x3b9856b7	0.004649009

module.net_sm.bn1.running_mean f4 [32]
0	0x3794223a	1.7658913e-05
1	0x36af1554	5.2178893e-06
2	0x386f68b1	5.7079542e-05
3	0xb6879191	-4.0402597e-06
4	0xb88947ae	-6.5460204e-05
5	0x36d79598	6.4249143e-06
6	0x37b93297	2.2077276e-05
7	0xb80b13cd	-3.3158623e-05
8	0xb73a0841	-1.1088386e-05
9	0xb7f9b7b7	-2.9768662e-05
10	0x36108478	2.153478e-06
11	0xb806936d	-3.208539e-05
12	0xb8334cc4	-4.274842e-05
13	0x3779b054	1.4882611e-05
14	0xb5a74fe6	-1.2465723e-06
15	0xb82f6316	-4.1815532e-05
16	0xb6c82fb1	-5.9660165e-06
17	0xb829bd2e	-4.0468927e-05
18	0xb89eaaf9	-7.565873e-05
19	0xb7dff709	-2.6698706e-05
20	0xb7a34eb6	-1.9467767e-05
21	0xb705a39b	-7.96551e-06
22	0x380cbcb7	3.3554355e-05
23	0xb69f01a3	-4.73876e-06
24	0xb6b793f0	-5.471047e-06
25	0xb7f68c84	-2.9390918e-05
26	0xb83890e7	-4.400397e-05
27	0x37fd56f4	3.0200441e-05
28	0xb81ae69d	-3.6931237e-05
29	0x383bcecb	4.4776865e-05
30	0xb7bb4d2d	-2.2328075e-05
31	0xb8505eff	-4.9679536e-05

module.net_sm.bn1.running_var f4 [32]
0	0x3c0b8794	0.008516211
1	0x3bf49953	0.0074645667
2	0x3c3ba901	0.011453868
3	0x3be41704	0.0069607515
4	0x3beed083	0.00728804
5	0x3bc0d19f	0.005884364
6	0x3bb97827	0.005660075
7	0x3b92cdd1	0.0044801016
8	0x3ba439a5	0.0050117546
9	0x3bfa1807	0.007632259
10	0x3b9f3df3	0.00485968
11	0x3b604ddf	0.0034226102
12	0x3ba77ef5	0.00511157
13	0x3bd92ce0	0.006627664
14	0x3bfb38f8	0.0076667033
15	0x3c00212a	0.007820407
16	0x3bc71037	0.006074931
17	0x3c098cb0	0.008395359
18	0x3c819942	0.01582015
19	0x3bd09beb	0.006366243
20	0x3baa8b96	0.005204628
21	0x3bdbd62e	0.006708882
22	0x3bf1bbce	0.0073771244
23	0x3bc0196d	0.005862406
24	0x3b8fc4ba	0.0043874653
25	0x3ba39904	0.004992606
26	0x3c1a4927	0.009416855
27	0x3bdcd8e2	0.0067397216
28	0x3c023f85	0.007949715
29	0x3c0824b7	0.008309535
30	0x3bfbc48f	0.0076833437
31	0x3ba01167	0.004884887

module.net_sm.layer1.0.conv1.weight f4 [32, 32, 3, 3, 3]
0	0x3d1137f3	0.035453748
1	0xbc5b8ea0	-0.013400704
2	0xbb1aec8b	-0.0023639526
3	0x3c10fda5	0.008849536
4	0xbccc89ff	-0.024968145
5	0x3ce9fca3	0.02856285
6	0xbcf359ba	-0.02970587
7	0x3d81280d	0.06306467
8	0xbd21c216	-0.039491735
9	0x3b839574	0.004015619
10	0xbcefeda5	-0.029288122
11	0x3d106237	0.035249915
12	0xbc1c117a	-0.009525651
13	0xbd82bac0	-0.06383276
14	0x3c115b51	0.008871869
15	0xbd757ec2	-0.05993534
16	0xbc9bb1c8	-0.019005671
17	0xbd6cadf6	-0.05778309
18	0x3d14daab	0.03634135
19	0x3d774959	0.060372684
20	0x3d51277f	0.051063057
21	0x3d5b734d	0.053576756
22	0xbd190a69	-0.037363444
23	0x3d341b8a	0.043971576
24	0xbd4f557b	-0.05061863
25	0xbc468d43	-0.01211864
26	0xbc0a4003	-0.008438113
27	0x3c9e6467	0.019334985
28	0xbc81fccb	-0.015867611
29	0xbcffec25	-0.031240532
30	0xbd75dde0	-0.06002605
31	0xbacc1495	-0.0015570099
32	0x3c93dab4	0.018048622
33	0xbcebf801	-0.02880478
34	0x3d39cd7f	0.045361992
35	0x3d853d71	0.0650586
36	0x3cf42d84	0.02980686
37	0xbd6b45b9	-0.05743954
38	0x3beb524a	0.0071814405
39	0x3da62ec4	0.081143886
40	0x3d10992f	0.035302337
41	0x3ce82382	0.028337244
42	0x3d95463e	0.07288788
43	0xbc98d319	-0.018655347
44	0xbdb0e776	-0.08637898
45	0x3bc08edc	0.005876405
46	0x3c8c819c	0.017151646
47	0xbce1e4a7	-0.02757485
48	0xbc946800	-0.018115997
49	0xbd1c1322	-0.038104184
50	0xbcb918e9	-0.022594886
51	0xbbd55daf	-0.006511412
52	0xbc40deeb	-0.011771898
53	0x3b531614	0.0032209205
54	0x3d976120	0.07391572
55	0x3bd53ef9	0.006507751
56	0x3bddbba2	0.0067667523
57	0x3d34e9d7	0.04416832
58	0x3d252214	0.040315703
59	0x3d7cefa7	0.061751988
60	0xbc9e7976	-0.019345026
61	0xbd6c84c9	-0.05774382
62	0xbd320f70	-0.043471754
63	0x3bf93f02	0.007606388
64	0x3bc63ba4	0.00604959
65	0xbc50058b	-0.012696634
66	0x3ccfbd93	0.02535895
67	0x3cfe557a	0.031046618
68	0x3c8966d9	0.016772674
69	0x3d0ba4ab	0.034092586
70	0x3d71ce95	0.059034903
71	0x3c650d80	0.013980269
72	0xbcfa4db6	-0.030554634
73	0x3c2bdd9b	0.010489847
74	0x3ca119f6	0.0196657
75	0x3d6f900a	0.058486976
76	0xbcc37d4b	-0.023863455
77	0xbd167937	-0.036736693
78	0x3cb2e55e	0.021837886
79	0xbcf6b6e6	-0.03011651
80	0xbd6e988c	-0.05825095
81	0x3d87ba7c	0.06627366
82	0xbcaee081	-0.021347286
83	0xbd025244	-0.031816736
84	0xbd1761b0	-0.036958396
85	0x3d420561	0.04736841
86	0xbcb947c6	-0.022617232
87	0x3d4964d3	0.04916842
88	0xbc3113b9	-0.010807925
89	0x3d834f4b	0.06411608
90	0x3bb2487e	0.0054407706
91	0x3d296e38	0.04136488
92	0xbd5d5ed2	-0.054045506
93	0x3b238924	0.0024953568
94	0x3d5f5e9d	0.05453359
95	0x3d243776	0.040091954
96	0xbd6bcc68	-0.057567984
97	0x3d613a08	0.054986984
98	0xbcc7b30a	-0.024377365
99	0x3d99b537	0.07505267
100	0xbcbf77f1	-0.023372622
101	0xbc20b6dd	-0.009809223
102	0xbd15ec30	-0.0366022
103	0x3d053160	0.03251779
104	0xbd2bef0e	-0.041976027
105	0x3d46f621	0.04857457
106	0xbd26988a	-0.040672816
107	0xbd1c757f	-0.03819799
108	0x3cb8c70c	0.02255585
109	0xbd388dd6	-0.04505714
110	0x3c384c22	0.01124862
111	0x3d6b20bf	0.057404276
112	0x3df6d8d3	0.12053075
113	0x3ddcc3fa	0.10779567
114	0x3d9f45a9	0.077769585
115	0x3d156bba	0.03647969
116	0x3dc02524	0.09382084
117	0xbd5b61e8	-0.053560168
118	0xbd9265ef	-0.071483485
119	0x3dd9e4c2	0.10639335
120	0xbd865f3e	-0.06561135
121	0x3d9a2a50	0.07527602
122	0xbd0664e9	-0.03281108
123	0x3d116a9d	0.035502065
124	0x3d69f9a4	0.05712284
125	0x3d941f82	0.07232572
126	0x3ce23bff	0.027616499
127	0xbcfe8a9a	-0.03107195
128	0xbbe51204	-0.006990673
129	0xbc85bad3	-0.016324436
130	0xbc8bc831	-0.017063232
131	0x3ced786d	0.028988088
132	0x3bc8e122	0.0061303535
133	0xbc026b71	-0.007960186
134	0x3d975ea2	0.07391097
135	0x3c166a3b	0.009180601
136	0x3d0ce586	0.034398578
137	0xbceb1c0a	-0.028699894
138	0xbd89a4cd	-0.067208864
139	0xbc187201	-0.009304524
140	0x3aa1aa56	0.0012334089
141	0x3d01e110	0.031708777
142	0xbcd5823c	-0.026063077
143	0x3c33b4c8	0.010968395
144	0xbd861c13	-0.065483235
145	0xbcf8a5ae	-0.03035244
146	0x3c1a5c7e	0.009421466
147	0x3d7b9f9d	0.061431516
148	0xbcb8f33f	-0.022576926
149	0x3caf42d9	0.02139418
150	0xbbc24c44	-0.0059295017
151	0xbcc21479	-0.023691403
152	0x3ae29162	0.0017285759
153	0x3d861568	0.06547052
154	0xbdc51be5	-0.09624461
155	0xbc6b45aa	-0.014359871
156	0xbb511edf	-0.003190927
157	0x3d96becb	0.073606096
158	0xbc535d17	-0.012900612
159	0xbcffa165	-0.031204889
160	0xbd15c3eb	-0.036563795
161	0xb9a1dd67	-0.0003087327
162	0x3b91ecb2	0.004453265
163	0x3c713df7	0.014724246
164	0xbd3207e5	-0.04346456
165	0x3d50ad73	0.050946664
166	0xbd5db016	-0.054123007
167	0xbc6cb250	-0.01444681
168	0x3d539116	0.051652037
169	0xbca6a33a	-0.020341504
170	0x3d004f59	0.03132567
171	0x3d4d001a	0.050048925
172	0x3d02225c	0.03177105
173	0xbd677f71	-0.056518022
174	0xbbf6fe89	-0.007537667
175	0xbcbb0774	-0.022830702
176	0x3c9cc4fa	0.019136894
177	0xbce2bf2c	-0.027679048
178	0xbd2b8f55	-0.04188474
179	0xbc380f40	-0.011234105
180	0xbcc9c115	-0.024628201
181	0xbc6d3bf4	-0.014479626
182	0xbba2286b	-0.004948666
183	0xbba7af70	-0.0051173493
184	0x3d551221	0.052019242
185	0x3da5fd6e	0.081049785
186	0x3d0ade02	0.03390313
187	0xbc3d1473	-0.01154052
188	0xbe130aef	-0.1435964
189	0x3d289ec1	0.041167025
190	0x3ccf0ee2	0.025275651
191	0xbc05b599	-0.008160972
192	0x3cf7ef83	0.030265575
193	0xbda0213d	-0.0781884
194	0x3d5eba0c	0.054376647
195	0x3cf92317	0.03041224
196	0x3cf0f9a0	0.029415905
197	0x3d442402	0.047885902
198	0x3ceb30dd	0.028709823
199	0x3c692e45	0.014232223
200	0x3d5ec673	0.054388475
201	0x3cc8d8b2	0.02451739
202	0x3cf37f0e	0.02972367
203	0x3d07a76d	0.033118654
204	0xbd972c81	-0.07381535
205	0x3c907a01	0.017636301
206	0x3cd83ae7	0.026395274
207	0xbbb4761e	-0.0055072447
208	0xbc07a408	-0.008278854
209	0xbd766a59	-0.060160015
210	0xbd33a9ea	-0.043863215
211	0x3c6793ed	0.014134389
212	0x3bb052d8	0.0053809695
213	0x3c811b8f	0.015760211
214	0x3d11fa5c	0.035639152
215	0x3d8316f0	0.06400859
216	0x3af868f6	0.0018952179
217	0x3bc5dbde	0.006038173
218	0xbd641f65	-0.055694003
219	0x3d432f55	0.04765256
220	0xbc912dc7	-0.017722024
221	0x3b8e7515	0.0043474534
222	0x3c96e1fd	0.018418306
223	0xbac81553	-0.0015265144
224	0x3cc64547	0.024202956
225	0x3b6a491b	0.003574914
226	0x3cee2119	0.029068517
227	0x3a8577c2	0.0010182785
228	0xbcbb28aa	-0.022846539
229	0x3d5ca1b2	0.053865142
230	0x3cd32358	0.02577369
231	0xbc209b24	-0.009802613
232	0x3d4683c9	0.048465524
233	0xbc9172b4	-0.01775489
234	0x3d6eadbb	0.05827115
235	0x3dabe713	0.08393683
236	0xbccdc0c9	-0.025116341
237	0xbd9d2bc9	-0.07674367
238	0x3bb26343	0.005443962
239	0xbc48f948	-0.0122664645
240	0x3ca36b3f	0.0199486
241	0xbd3aaa5a	-0.045572616
242	0xbd38d870	-0.045128286
243	0x3bd7e0df	0.006588086
244	0xbc898561	-0.016787233
245	0xbd25e827	-0.0405046
246	0xbccd3686	-0.025050413
247	0xbd221b9f	-0.039577123
248	0x3bdb2b57	0.006688516
249	0x3c547a72	0.012968646
250	0x3d14c533	0.036320876
251	0x3baffcf8	0.0053707324
252	0xbc08da4c	-0.008352827
253	0xbc538720	-0.012910634
254	0x3b3256ed	0.0027212456
255	0xbb65b9f3	-0.0035053461

module.net_sm.layer1.0.bn1.weight f4 [32]
0	0x3f618697	0.8809599
1	0x3f607b2b	0.8768794
2	0x3f57f7c8	0.8436246
3	0x3f5a6a38	0.85318327
4	0x3f57f265	0.8435424
5	0x3f65ac8d	0.89716417
6	0x3f5c0dea	0.8595873
7	0x3f65e7ca	0.8980681
8	0x3f621077	0.88306373
9	0x3f56c196	0.8388914
10	0x3f5c95b0	0.86165905
11	0x3f517f10	0.81834507
12	0x3f58eef9	0.84739643
13	0x3f5c4743	0.86046237
14	0x3f58dfba	0.8471638
15	0x3f5ea419	0.86969143
16	0x3f66aac6	0.9010433
17	0x3f57c166	0.8427948
18	0x3f59d452	0.850896
19	0x3f5c8cf0	0.86152554
20	0x3f53bc84	0.82709527
21	0x3f549627	0.83041614
22	0x3f57d771	0.8431311
23	0x3f645f3b	0.8920781
24	0x3f57960e	0.8421334
25	0x3f5d41ed	0.8642872
26	0x3f6048a3	0.87610835
27	0x3f5bb3bd	0.85821134
28	0x3f5b7db9	0.8573871
29	0x3f5bf158	0.85915136
30	0x3f59f78d	0.8514336
31	0x3f5cc6c4	0.8624079

module.net_sm.layer1.0.bn1.bias f4 [32]
0	0x3d226b37	0.03965303
1	0x3d43628e	0.04770141
2	0xbce60050	-0.02807632
3	0xbcbc284f	-0.02296844
4	0xbd13ca5d	-0.03608166
5	0x3da6bf45	0.081419505
6	0x3c942161	0.018082323
7	0x3c9f948a	0.019480009
8	0x3d431cea	0.047634996
9	0xb831fa5c	-4.2433254e-05
10	0x3b4258ca	0.0029654973
11	0xbc83b55e	-0.016077694
12	0xbb84bcef	-0.004050843
13	0x3c718eb9	0.0147435
14	0xb92f87c5	-0.00016739879
15	0x3ca4157e	0.02002978
16	0x3c811c82	0.015760664
17	0x3ca34686	0.01993109
18	0xbbbef313	-0.0058273165
19	0xbc0e8270	-0.008698091
20	0xbba0b58c	-0.0049044546
21	0xbbf58752	-0.007492938
22	0xbc547960	-0.012968391
23	0x3d2e9e88	0.042631656
24	0x3d071e6c	0.032987997
25	0xbb897756	-0.004195134
26	0x3cb48d25	0.02203996
27	0x3b496f8c	0.0030736653
28	0x3cdf8f36	0.027289968
29	0xbceea12d	-0.029129589
30	0x3babe4b9	0.0052457717
31	0xbc80119e	-0.0156334

module.net_sm.layer1.0.bn1.running_mean f4 [32]
0	0x4087245e	4.2231894
1	0x403d8985	2.9615185
2	0x40457584	3.0852976
3	0xc0588c07	-3.3835466
4	0xc02704b7	-2.6096628
5	0x40fad68c	7.83869
6	0xbfe6f8c9	-1.8044673
7	0x40362084	2.8457346
8	0x40ccdbb7	6.4018207
9	0xbf22b431	-0.635562
10	0x3e5bdc00	0.21470642
11	0x401f909e	2.4932017
12	0xc02071be	-2.5069423
13	0x406e7a55	3.7262166
14	0xc015f8aa	-2.3433022
15	0x3eccf7a7	0.40032694
16	0xbf7206c0	-0.9454155
17	0x40c1d119	6.0567746
18	0xbff28c5c	-1.8949084
19	0xc08dcff0	-4.431633
20	0xbe8e4fd9	-0.27795294
21	0x3eb88d97	0.36045524
22	0xbfd1c11c	-1.6387057
23	0x40352e9c	2.8309698
24	0x40320d6f	2.78207
25	0xbf8b18ad	-1.0866905
26	0xbfe0bdac	-1.7557883
27	0x408bc03d	4.3672166
28	0xc053b830	-3.308117
29	0xc0277750	-2.6166573
30	0x40531666	3.298242
31	0x3f58cd74	0.84688497

module.net_sm.layer1.0.bn1.running_var f4 [32]
0	0x419a34b0	19.275726
1	0x4121887e	10.095823
2	0x412b670e	10.71266
3	0x4139a2f4	11.6022835
4	0x40f18859	7.547894
5	0x427eddc0	63.716553
6	0x40d966ce	6.7937994
7	0x4137ca0a	11.486826
8	0x422466ff	41.100582
9	0x40ad6115	5.418101
10	0x40745bee	3.818111
11	0x410d8e3f	8.847228
12	0x40deb139	6.9591336
13	0x4174a203	15.289554
14	0x4100ce84	8.050419
15	0x400ac5f5	2.1683323
16	0x410a3912	8.638933
17	0x421802c3	38.002697
18	0x40a7c13e	5.242339
19	0x41af8866	21.9416
20	0x402a38ab	2.6597087
21	0x4053a901	3.3071902
22	0x40bfb24d	5.990515
23	0x41211d89	10.069711
24	0x4118dc21	9.553742
25	0x40c7590b	6.2296195
26	0x4124354e	10.263014
27	0x41a72d8d	20.897242
28	0x416c81da	14.781702
29	0x4103eff2	8.24608
30	0x413b7425	11.715856
31	0x4047b962	3.1206899

module.net_sm.layer1.0.conv2.weight f4 [32, 32, 3, 3, 3]
0	0x3d771ebe	0.060332052
1	0x3d958b66	0.07301979
2	0x3d370e2a	0.044691242
3	0x3b562cd8	0.0032680538
4	0x3da64141	0.08117915
5	0x3d0516c4	0.032492414
6	0x3d77bd48	0.060483247
7	0xbd43d782	-0.047812946
8	0x3cf40a3b	0.029790035
9	0x3da6b2d4	0.081395775
10	0x3bfcb6ce	0.0077122217
11	0xbd228cb5	-0.03968497
12	0x3d41aae4	0.047282115
13	0xbd1338f0	-0.03594297
14	0x3dad80b5	0.084718145
15	0x3d454b98	0.048167795
16	0x3d76308b	0.060104888
17	0xbcf38121	-0.02972466
18	0x3d868d19	0.06569881
19	0x3c0d948d	0.008641374
20	0xbd219c4f	-0.039455708
21	0x3c2b050a	0.010438213
22	0x3d27e677	0.040991273
23	0x3ccdc0f1	0.025116416
24	0xbd0a7cd6	-0.03381046
25	0x3d017583	0.03160621
26	0xbc86893f	-0.016422866
27	0x3bacebc8	0.0052771308
28	0x3d66c351	0.056338612
29	0x3ce5bb8b	0.028043529
30	0x3d2a7cd9	0.04162297
31	0x3d40f5a0	0.047109246
32	0x3c207e69	0.0097957635
33	0xbcca8cae	-0.024725284
34	0xbc3c4cd9	-0.011492931
35	0xbd57f046	-0.052719377
36	0x3da5077e	0.0805807
37	0x3c8494fa	0.016184319
38	0xb8c0bca1	-9.190408e-05
39	0x3d855368	0.06510049
40	0x3c44baef	0.012007459
41	0xbc8dec73	-0.017324662
42	0xbd0207d2	-0.03174574
43	0x3c936fed	0.017997706
44	0x3b9fa507	0.0048719677
45	0xbc815377	-0.01578687
46	0xbd887ca5	-0.06664399
47	0x3d02c2b4	0.031923965
48	0xbc14a2df	-0.009072035
49	0x3dd99a75	0.106251635
50	0x3d1f0117	0.0388194
51	0x3dc732a6	0.09726457
52	0xbb69da68	-0.0035683159
53	0xbd4daa23	-0.050211083
54	0xbcd3c591	-0.025851043
55	0x3cde6cd4	0.027151503
56	0xbbd55ea0	-0.0065115243
57	0x3c5fbb23	0.013655457
58	0x3c4c01ac	0.0124515705
59	0xbd806782	-0.062697425
60	0xbd08396c	-0.033257887
61	0xbcddb6d6	-0.027064722
62	0x3d6876d2	0.05675394
63	0xbcde5b1e	-0.027143057
64	0xbd84c8cc	-0.064836115
65	0x3b3b8611	0.0028613845
66	0x3dc9710a	0.098360136
67	0x3c3683a5	0.011139785
68	0x3de7a2d2	0.113103524
69	0x39d2afe4	0.0004018537
70	0xbc1d333f	-0.009594738
71	0x3d5b78d4	0.053582028
72	0xbc8005ab	-0.015627703
73	0x3d1622f3	0.036654424
74	0x3cf52ba5	0.029928038
75	0x3d0a5190	0.03376919
76	0xbc81a3be	-0.015825149
77	0x3b734e4f	0.0037125533
78	0x3c3400b6	0.010986498
79	0xbc1c1f7a	-0.009528989
80	0xbd345fc3	-0.044036638
81	0x3da62cf7	0.08114045
82	0x3b803581	0.003912628
83	0x3cc2c124	0.023773737
84	0xbce4dc01	-0.027936937
85	0x3d6cf20c	0.05784802
86	0x3d053117	0.03251752
87	0xbd7e5c22	-0.062099583
88	0xbd741cb7	-0.059597697
89	0x3ba33b7d	0.004981457
90	0x3ceb8815	0.028751412
91	0x3b400b6e	0.0029303688
92	0x3c9c7608	0.01909925
93	0xbd2d533c	-0.042315707
94	0x3d144c85	0.036205787
95	0xbcc7a5bb	-0.024371019
96	0xbc814342	-0.015779141
97	0xbcb61343	-0.022225982
98	0xbd24d99e	-0.0402466
99	0x3bb6d93d	0.005580096
100	0xbd56c8d8	-0.052437633
101	0x3dbeff9f	0.093260996
102	0xbd910b14	-0.07082191
103	0x3d0ccd8d	0.034375716
104	0x3cc7f72a	0.02440985
105	0xbd978405	-0.073982276
106	0x3cdae46b	0.026720246
107	0xbd0fffa8	-0.035155922
108	0xbd2ce45b	-0.042209964
109	0xbd18b4a6	-0.037281655
110	0x3d371d69	0.044705782
111	0x3c9aced2	0.018897448
112	0xbd01bd32	-0.03167457
113	0x3c2d543f	0.010579168
114	0x3d32d919	0.04366407
115	0x3cd61828	0.026134565
116	0x3c31849d	0.01083484
117	0x3da99abb	0.082814656
118	0xbbd49bdf	-0.006488308
119	0xbd245525	-0.040120263
120	0x3d23d917	0.040001955
121	0xbd9ad741	-0.07560588
122	0x3d41f251	0.04735023
123	0xbdaeaca9	-0.08529026
124	0xbd28706a	-0.04112283
125	0xbd029738	-0.031882495
126	0xbba4987e	-0.0050230613
127	0xbdaf4a05	-0.0855904
128	0x3c9d7854	0.019222416
129	0x3d821dfe	0.06353377
130	0xbde75da4	-0.112971574
131	0xbbcfc86a	-0.00634103
132	0xbbd5f7c8	-0.006529782
133	0xbc95abe7	-0.018270446
134	0x3d4bc6d9	0.049750183
135	0x3d0c04d5	0.034184296
136	0x3d8a9ed9	0.06768579
137	0x3d262060	0.04055822
138	0xbcc398f7	-0.02387665
139	0x3bd0b562	0.0063692788
140	0x3c737ea8	0.01486174
141	0x3ce4f138	0.027947053
142	0x3d083426	0.033252858
143	0x3da60d23	0.081079744
144	0x3d7e7a95	0.062128622
145	0x3d7aa792	0.061194964
146	0x3cf1c900	0.02951479
147	0x3cc2408a	0.023712415
148	0x3c83bcde	0.01608127
149	0x3d3d6df7	0.04624745
150	0xbba23241	-0.0049498384
151	0x3cba78d1	0.022762688
152	0x3c25d8a6	0.010122454
153	0x3c65be33	0.014022398
154	0x3b4a2871	0.003084686
155	0xbc931192	-0.017952714
156	0x3d362175	0.0444655
157	0xbd0c4b4e	-0.034251504
158	0x3d722d97	0.05912551
159	0x3ca3ebef	0.020009963
160	0xbdaae7ec	-0.08345017
161	0xbd8c21fe	-0.06842421
162	0x3be6211c	0.00702299
163	0x3a80c5f6	0.0009824622
164	0xbc979551	-0.018503817
165	0xbd65abfa	-0.056072213
166	0xbd0613fd	-0.032733906
167	0x3a9c263d	0.0011913251
168	0x3c8e4f8d	0.017371917
169	0x3d014648	0.031561166
170	0x3ca88d23	0.020575112
171	0x3d547da3	0.05187763
172	0x3c1a8143	0.009430232
173	0x3c268469	0.010163405
174	0x3c4f4f14	0.012653131
175	0xbd0ecb55	-0.03486188
176	0x3e059cf3	0.13048153
177	0x3ce2cddb	0.02768605
178	0xbcc80106	-0.02441455
179	0x3ac2282e	0.0014813
180	0x3c9a8b31	0.0188652
181	0x3ce2ea0b	0.027699491
182	0xbdbc397c	-0.09190652
183	0x3cad543c	0.02115833
184	0xbda1c16d	-0.07898221
185	0x3d3acd07	0.045605686
186	0xbcc5b54f	-0.024134306
187	0xbd63a7f4	-0.055580094
188	0xbd4eacb5	-0.050457675
189	0x3cc287ab	0.023746332
190	0x3c3bc2e8	0.0114600435
191	0x3c84e906	0.016224395
192	0xbab30bbd	-0.0013660114
193	0xbc3f7e01	-0.0116877565
194	0xbc19208b	-0.009346138
195	0x3c9405d2	0.018069182
196	0x390e8004	0.00013589865
197	0x3beae829	0.007168789
198	0xbc20c0fa	-0.009811634
199	0x3bf76411	0.0075497706
200	0x3c82c831	0.0159646
201	0xbcf4ad9e	-0.029867943
202	0x3d1d9c48	0.03847912
203	0x3c042270	0.008064851
204	0x3c901407	0.017587675
205	0xbd3bbf9d	-0.045837034
206	0xbcfb387d	-0.030666584
207	0x3be112a5	0.0068686777
208	0x3c0789fd	0.008272645
209	0xbbf9ba8f	-0.0076211165
210	0x3caa8857	0.020816965
211	0xbdae0dc3	-0.084987186
212	0x3d3751f1	0.04475588
213	0xbc9be676	-0.01903079
214	0xbb31a957	-0.002710899
215	0xbccd99d7	-0.02509777
216	0x3d348fd5	0.04408248
217	0x3cf605b8	0.030032024
218	0xbcb26479	-0.021776425
219	0x3db27131	0.08712996
220	0xbd0866cc	-0.03330116
221	0xbc3c8e43	-0.011508527
222	0x3b83c3ef	0.00402116
223	0x3d0f6229	0.035005722
224	0x3cf63bcd	0.030057812
225	0x3d9057c6	0.070479915
226	0x3d2e3b5e	0.042537086
227	0x3c241fce	0.010017348
228	0x3d451029	0.048111115
229	0x3d0196de	0.03163802
230	0x3d722c5b	0.059124332
231	0x3dd4e1b3	0.10394611
232	0xbd1ac19e	-0.037782304
233	0x3cbc0290	0.02295044
234	0xbb96ba1f	-0.004599824
235	0x3c596460	0.01326856
236	0xbc335a2b	-0.010946791
237	0x3d676887	0.05649617
238	0x3d1e7755	0.038688023
239	0xbc713ea2	-0.0147244055
240	0x3d9d0973	0.07667818
241	0xbd4977c5	-0.049186487
242	0x3dca3cf3	0.098749064
243	0x3c175ef9	0.009238952
244	0x3cfd5bdd	0.030927593
245	0x3d075b02	0.033045776
246	0xbdb56e46	-0.088589236
247	0x3c00f1be	0.007870136
248	0xbdae16d8	-0.08500451
249	0xbdd9ee82	-0.10641195
250	0xbcabc7f6	-0.020969372
251	0x3c127cc2	0.008940877
252	0x3d2280bf	0.039673563
253	0xbd83fd1c	-0.06444761
254	0xbcf93cc6	-0.030424487
255	0x3d5eef7b	0.054427605

module.net_sm.layer1.0.bn2.weight f4 [32]
0	0x3f3cbfe3	0.73730296
1	0x3f4918f3	0.78553694
2	0x3f5a3ba4	0.85247254
3	0x3f61c4a3	0.8819067
4	0x3f4afb9a	0.79290164
5	0x3f5e1774	0.86754537
6	0x3f541928	0.82850885
7	0x3f53dca5	0.8275855
8	0x3f58897b	0.8458478
9	0x3f48a829	0.7838159
10	0x3f5e04aa	0.86725867
11	0x3f585628	0.84506464
12	0x3f583155	0.84450275
13	0x3f5dd4d2	0.86652863
14	0x3f5bfd73	0.8593361
15	0x3f4abc58	0.7919364
16	0x3f5a67da	0.85314715
17	0x3f5326ad	0.8248089
18	0x3f5ab9a8	0.8543954
19	0x3f5c84f5	0.86140376
20	0x3f5f4185	0.8720935
21	0x3f5f937d	0.87334424
22	0x3f585f74	0.8452065
23	0x3f4f722e	0.810336
24	0x3f4f2d42	0.8092843
25	0x3f56de24	0.8393271
26	0x3f5a85dd	0.8536051
27	0x3f5c6a01	0.8609925
28	0x3f5cc95d	0.86244756
29	0x3f47fc87	0.781197
30	0x3f47eafb	0.78092927
31	0x3f55ee68	0.83566904

module.net_sm.layer1.0.bn2.bias f4 [32]
0	0x3c17300b	0.009227763
1	0xbd2a9520	-0.041646123
2	0xbc929d39	-0.017897235
3	0xbc19ed93	-0.009395021
4	0xbcd75b06	-0.02628852
5	0xbc14ad70	-0.009074554
6	0xbb2e8dd3	-0.0026634827
7	0x3b2866e2	0.0025696089
8	0xbc05f4fd	-0.008176086
9	0xbc30a45e	-0.010781376
10	0x3bd7d0af	0.0065861563
11	0x3bb1f741	0.0054310863
12	0x3cbfb1c6	0.023400199
13	0x3c8b8c8d	0.017034793
14	0x3b9c699a	0.004773331
15	0xbc3dd1f1	-0.011585698
16	0x3b1df125	0.0024100032
17	0x3c891412	0.016733203
18	0xba2862ea	-0.0006423431
19	0xbbf442dd	-0.00745426
20	0xbbdefeae	-0.0068052625
21	0xbc4ef753	-0.012632209
22	0x3afe9414	0.0019422793
23	0x3bef02e3	0.0072940453
24	0xb8b4d0ee	-8.621985e-05
25	0xba76a8e0	-0.00094093196
26	0x3c624f43	0.013812843
27	0x3b439cf0	0.002984818
28	0x3cdf76f5	0.027278403
29	0x3b8c4a27	0.0042813006
30	0xbc9d3a11	-0.019192727
31	0xbbf6a7b0	-0.007527314

module.net_sm.layer1.0.bn2.running_mean f4 [32]
0	0x3f3d5d00	0.7397003
1	0x3fc72d06	1.5560615
2	0xbfdbc273	-1.7168716
3	0xbf9e29d3	-1.2356514
4	0xbddc9d90	-0.1077224
5	0xbf5c1313	-0.85966605
6	0xbf9d08e2	-1.2268336
7	0xc0005d1e	-2.0056834
8	0xbf985b79	-1.1902915
9	0xbff3f7f7	-1.9060048
10	0xbfc693d4	-1.5513864
11	0xbf9450d8	-1.1587172
12	0xbf95c10f	-1.1699542
13	0xbfcc7d02	-1.5975649
14	0xbfd6f20b	-1.6792616
15	0x3f5dde69	0.86667496
16	0xbf8358a8	-1.0261431
17	0xbfda258a	-1.7042706
18	0xbfad3c6a	-1.3534062
19	0xbf9694d6	-1.1764171
20	0xbf62aa80	-0.8854141
21	0xbf928d2c	-1.1449332
22	0xbf6b00e2	-0.9179822
23	0x3dc363af	0.095404975
24	0x3e974b12	0.29549462
25	0xbf84cae3	-1.0374416
26	0xbfa4262f	-1.2824153
27	0xbfc26944	-1.5188375
28	0xbf9a1789	-1.2038432
29	0x3e1e9c7c	0.15489382
30	0x3f8db8f7	1.1072072
31	0xbf780426	-0.9688133

module.net_sm.layer1.0.bn2.running_var f4 [32]
0	0x40d38c17	6.610851
1	0x3ff3a8ae	1.9035852
2	0x40429859	3.0405486
3	0x401b8cb6	2.4304633
4	0x401e5abf	2.4742887
5	0x40c7260c	6.2233944
6	0x409c1165	4.8771234
7	0x40f15877	7.542049
8	0x40913d48	4.5387306
9	0x40e030f9	7.005978
10	0x4051341b	3.2688053
11	0x3fc4ad03	1.5365299
12	0x3ffce970	1.975874
13	0x41006cc0	8.02655
14	0x40f96fcf	7.7948985
15	0x3f9da542	1.2316058
16	0x408c5200	4.38501
17	0x405b672d	3.4281723
18	0x40bf7665	5.9832025
19	0x3fc4d456	1.53773
20	0x40020792	2.031712
21	0x410085ed	8.032697
22	0x3fdfc828	1.7482958
23	0x40da6257	6.8245044
24	0x3ecee5f8	0.40409827
25	0x4079b58a	3.9017053
26	0x407e42ea	3.972834
27	0x4086c6b2	4.211755
28	0x40a19fd4	5.0507603
29	0x40950f4a	4.6581163
30	0x4036ebec	2.8581495
31	0x404b0985	3.172456

module.net_sm.layer2.0.conv1.weight f4 [32, 32, 3, 3, 3]
0	0xbc563b01	-0.013075591
1	0x3d38e56e	0.045140676
2	0x3d8a1e6c	0.06744084
3	0xbd07d515	-0.033162195
4	0xbdae53d0	-0.0851208
5	0x3d6a71b8	0.057237357
6	0x3dc014bb	0.09378954
7	0x359e558b	1.1796814e-06
8	0x3c6281ab	0.013824861
9	0xbc7a7f32	-0.015289115
10	0xbde87e56	-0.11352222
11	0xbd8765db	-0.06611224
12	0xbd22c849	-0.039741788
13	0x3c89a319	0.016801404
14	0xbcd004b3	-0.025392866
15	0xbd28578d	-0.04109912
16	0xbdac7ab8	-0.08421844
17	0x3d5041ed	0.05084412
18	0xbcf07e43	-0.029357081
19	0x3d464599	0.048406217
20	0xbac8f9a6	-0.001533319
21	0xbd96e827	-0.07368498
22	0x3cf5f5d0	0.03002444
23	0x3c1f4050	0.009719923
24	0xbd3bc27d	-0.045839775
25	0xbc938d9b	-0.018011859
26	0x3d3c99f9	0.046045277
27	0xba9be080	-0.0011892468
28	0xbdac7a1f	-0.0842173
29	0xbcbb0fc6	-0.02283467
30	0x3b2e32cb	0.0026580568
31	0x3d7c80ad	0.061646152
32	0x3d3c447a	0.04596374
33	0xbc4b8904	-0.012422804
34	0xbccba48c	-0.024858736
35	0x3cc1aa9f	0.023640929
36	0xbcbe2b59	-0.02321403
37	0x3cd4efdd	0.025993282
38	0x3d34d7cd	0.044151116
39	0xbcde0f7d	-0.027106995
40	0xbd02d3de	-0.031940334
41	0xbcb56799	-0.022144126
42	0xbbf0d43c	-0.007349519
43	0xbc3ff9a2	-0.011717232
44	0xba3ccff6	-0.00072026195
45	0xbd938c16	-0.07204454
46	0x3d2b7f8f	0.041869696
47	0xbc6dfacb	-0.014525126
48	0xbd7a64c9	-0.061131272
49	0x3ca5ebd6	0.020254057
50	0xbcbd21b5	-0.023087362
51	0xbcec6f6d	-0.028861726
52	0xbda8a0a5	-0.082337655
53	0x3c5f355f	0.0136235645
54	0xbd3fc2ee	-0.04681676
55	0xbcf69e70	-0.030104846
56	0x3b106064	0.002203011
57	0xbdae8aeb	-0.0852259
58	0x3d472557	0.048619594
59	0xbc9e295c	-0.019306831
60	0xbd2fc820	-0.042915463
61	0x3c8abae0	0.016934812
62	0x3cb684c7	0.02228011
63	0xbd89b9dd	-0.06724904
64	0x3d1f31ed	0.038865972
65	0xbce233da	-0.027612615
66	0xbc154528	-0.009110726
67	0xbc171098	-0.009220265
68	0xbd3ef57d	-0.046620835
69	0xbc921bfa	-0.017835606
70	0x3c7bdba2	0.015372189
71	0x3ce84b99	0.02835636
72	0xbdb7951f	-0.089639895
73	0xbd40eb20	-0.047099233
74	0x3d2f908c	0.04286246
75	0xbbfd438a	-0.0077289985
76	0x3cbe7084	0.023247011
77	0x3d7588f4	0.05994506
78	0xbd3cad53	-0.046063732
79	0x3de19c39	0.11016125
80	0xbc0b67fa	-0.008508677
81	0xbc3d7d78	-0.011565559
82	0xbd1453af	-0.03621262
83	0x3da6c8f4	0.081437975
84	0xbb1ef537	-0.0024255046
85	0xbce24037	-0.02761851
86	0xbd0781d3	-0.033082794
87	0x3c892293	0.01674012
88	0x3d958221	0.07300211
89	0xbd21ddbe	-0.03951811
90	0xbb8153b1	-0.0039467444
91	0x3d2f1f0c	0.042754218
92	0x3be2a2a5	0.0069163614
93	0xbd2333a3	-0.039844166
94	0xbc37dda3	-0.011222276
95	0x3ce4eae4	0.027944036
96	0xbd0e84bd	-0.034794558
97	0x3add9fd1	0.0016908591
98	0x3d2b799a	0.041864015
99	0xbc6f17ed	-0.014593107
100	0x3c31e49d	0.010857728
101	0x3d935c32	0.07195319
102	0x3c6f9f81	0.014625431
103	0xbd4ccc1c	-0.04999934
104	0xbd82bde0	-0.06383872
105	0xbd456317	-0.048190203
106	0xbd09b7d6	-0.033622585
107	0x3d25f438	0.04051611
108	0xbc3e4acf	-0.011614515
109	0xbe051c41	-0.1299906
110	0xbc73aec9	-0.014873215
111	0xbc5899c0	-0.013220251
112	0x3c2893fd	0.010289189
113	0xbd088369	-0.033328447
114	0xbd9adabe	-0.07561253
115	0xbd5453ff	-0.051837917
116	0xbc647615	-0.013944169
117	0x3c7a8a20	0.015291721
118	0x3c324e62	0.010882946
119	0xbc146d7a	-0.009059304
120	0xbbef670a	-0.0073059844
121	0xbd198409	-0.037479434
122	0x3b989e4c	0.0046575423
123	0xbd50e23b	-0.050997
124	0xbc8c7bb9	-0.01714884
125	0x3d5da83f	0.05411553
126	0xbd47dae9	-0.048792753
127	0xbd52889e	-0.05139982
128	0x3d47905f	0.048721667
129	0xbc951820	-0.01819998
130	0x3d36c4fc	0.044621453
131	0xbcf4d9ac	-0.02988895
132	0xbcee6cef	-0.029104678
133	0xbb8a08a0	-0.004212454
134	0xbccaaf71	-0.02474186
135	0x3d17becc	0.037047192
136	0xbbd5003e	-0.006500273
137	0x3d4e5cc4	0.050381437
138	0xbce797a5	-0.028270552
139	0xbc026145	-0.007957761
140	0x3ca60135	0.020264247
141	0xbd41482a	-0.04718796
142	0x3c26f97a	0.010191316
143	0xbc03cf88	-0.008045085
144	0xbc60fc1c	-0.013731983
145	0xbc896cb1	-0.01677546
146	0x3ccfccb5	0.025366167
147	0x3d9374f0	0.072000384
148	0xbd1bbe1a	-0.03802309
149	0xbd05a7b0	-0.032630622
150	0x3d3917dd	0.045188773
151	0x3d8f730b	0.070043646
152	0xbc992c04	-0.018697746
153	0x3ce56409	0.028001802
154	0x3c43c484	0.011948708
155	0x3c318c3e	0.010836659
156	0x3c5773cf	0.0131501695
157	0xbcd8552f	-0.026407806
158	0xbd6e0055	-0.058105785
159	0xbc59d9d5	-0.013296564
160	0x3d4e8e4a	0.050428666
161	0x3bc9611f	0.006145611
162	0xbb8ec137	-0.004356529
163	0x3dcc318f	0.0997039
164	0xbd07790f	-0.033074435
165	0x3d1f6e78	0.03892371
166	0x3bdbb6e5	0.0067051523
167	0xbd8c57b4	-0.068526655
168	0xbda4d52d	-0.080484726
169	0x3d6de5bd	0.058080424
170	0xbd036b33	-0.032084655
171	0x3dd71f78	0.10504049
172	0xbb52fa63	-0.00321927
173	0x3da9cf44	0.08291486
174	0x3d7033fe	0.058643334
175	0xbce7889b	-0.02826338
176	0xbc90e580	-0.01768756
177	0xbcafdcbe	-0.021467563
178	0xbc1a7398	-0.009426974
179	0x3d61829b	0.055056196
180	0x3d10c5a1	0.035344724
181	0x3c90f1e0	0.01769346
182	0xbc1d52fe	-0.009602306
183	0xbd724a04	-0.059152618
184	0xbd667bc3	-0.056270372
185	0x3b4d05ae	0.0031283903
186	0xbdb315f4	-0.087444216
187	0xb968d079	-0.00022202906
188	0x3db091f5	0.08621589
189	0xbb9440ce	-0.004524327
190	0xbc0f5fb6	-0.008750847
191	0xbd8d9105	-0.06912426
192	0xbc35a6dc	-0.011087146
193	0x39505759	0.00019868965
194	0x3cc4524b	0.023965022
195	0xb7fa34b2	-2.982686e-05
196	0xbca0415c	-0.019562416
197	0xbc271afd	-0.010199306
198	0xbd34cefa	-0.0441427
199	0x3c1f36a0	0.009717613
200	0xbd133efc	-0.03594874
201	0xbd914630	-0.07093465
202	0xbc5c02d2	-0.013428407
203	0x3d2dfb5a	0.042476036
204	0xbce68ded	-0.028143847
205	0xbc5db6c2	-0.013532342
206	0x3cfc044f	0.030763773
207	0xbd94d632	-0.07267417
208	0xbd17b7e9	-0.037040625
209	0xbc9d52f0	-0.019204587
210	0xbbb2bcc3	-0.005454631
211	0xbd841177	-0.06448644
212	0x3c922445	0.01783956
213	0x3cbffda4	0.023436375
214	0xbd40c328	-0.047061116
215	0xbd084648	-0.03327015
216	0x3c8f49b2	0.017491195
217	0x3d52a2e1	0.051424865
218	0x3beca3e3	0.0072216853
219	0x3ae09025	0.0017132802
220	0xbd33c660	-0.043890357
221	0xbb1f2b56	-0.0024287305
222	0x3dae4dac	0.085109085
223	0x3d5a33a9	0.053271923
224	0xbc775ade	-0.015097348
225	0x3b91b57c	0.0044466835
226	0x3d73b927	0.059502747
227	0x3d5e90c1	0.054337267
228	0x3c00e3a7	0.007866777
229	0x3d037168	0.032090575
230	0xbc0be521	-0.008538515
231	0x3d3ce56e	0.04611724
232	0xbdca8f74	-0.09890643
233	0xbb97c9ef	-0.0046322267
234	0xb9ff6135	-0.00048709815
235	0x3cbfe321	0.023423733
236	0xbb465b14	-0.003026669
237	0x3ba872f8	0.0051406585
238	0xbc909d52	-0.017653141
239	0x3d0aa15b	0.033845287
240	0xbd7203b3	-0.05908556
241	0x3d88372f	0.066511504
242	0xbd2cf607	-0.042226817
243	0x3d3f60d8	0.046723217
244	0x3bb4607d	0.0055046664
245	0xbd1ee55f	-0.038792964
246	0x3d80622d	0.062687255
247	0xbc87028b	-0.016480705
248	0xbd92caa0	-0.07167554
249	0xbd0a38cc	-0.033745572
250	0x3c5a29d0	0.013315633
251	0x3be4966b	0.006975939
252	0xbcc5ba90	-0.024136811
253	0xbd807bed	-0.06273637
254	0x3d2b7f26	0.041869305
255	0xbcf1ddac	-0.029524647

module.net_sm.layer2.0.bn1.weight f4 [32]
0	0x3f5864c3	0.8452875
1	0x3f48c434	0.7842438
2	0x3f618802	0.88098156
3	0x3f5e5a6a	0.8685671
4	0x3f5c9326	0.8616203
5	0x3f4f6534	0.810138
6	0x3f67392e	0.90321624
7	0x3f5a17a3	0.85192317
8	0x3f56b13c	0.8386419
9	0x3f5c2b61	0.8600369
10	0x3f5ac618	0.8545852
11	0x3f5ad899	0.8548675
12	0x3f570afa	0.84001124
13	0x3f5d5c8b	0.86469334
14	0x3f5f84d2	0.8731204
15	0x3f60d400	0.87823486
16	0x3f5d517d	0.86452466
17	0x3f64422c	0.8916347
18	0x3f5d112a	0.86354315
19	0x3f5dac62	0.8659116
20	0x3f5d4a09	0.86441094
21	0x3f5a8c4c	0.85370326
22	0x3f6647b1	0.8995314
23	0x3f5b7ddd	0.8573893
24	0x3f608c5b	0.87714165
25	0x3f5402ae	0.8281659
26	0x3f633a28	0.88760614
27	0x3f5cdd17	0.86274856
28	0x3f5e4f2d	0.8683956
29	0x3f5c6fa0	0.86107826
30	0x3f556073	0.83350295
31	0x3f5b4ac1	0.8566094

module.net_sm.layer2.0.bn1.bias f4 [32]
0	0xbbeb84ee	-0.0071874773
1	0xbcbf16b7	-0.023326261
2	0x3bbb92b3	0.005724275
3	0x3c2762da	0.010216439
4	0xbaf10615	-0.0018388653
5	0xbcabdc1c	-0.02097898
6	0xbc9bc16b	-0.019013127
7	0xbbf779d6	-0.007552366
8	0xbcc7fab2	-0.024411533
9	0x3c0de976	0.008661618
10	0xbb2b4f9d	-0.0026139983
11	0x3ba31b00	0.004977584
12	0xbc3872e9	-0.0112578655
13	0x3d3b6e69	0.045759592
14	0x3bfe3d2b	0.0077587566
15	0x3c07ae92	0.008281367
16	0xbc1305c8	-0.008973546
17	0x3c52499e	0.0128349345
18	0x3be795c2	0.007067413
19	0x3c1b6c86	0.009486323
20	0x3aee50b1	0.0018182007
21	0xbab3f078	-0.0013728281
22	0xbc37a3f1	-0.01120852
23	0xbbcc1539	-0.006228116
24	0x3ca5470a	0.020175476
25	0xba31b3cf	-0.0006778808
26	0x3c47d91c	0.012197759
27	0x3bdacb7a	0.0066770883
28	0x3ae98d5d	0.0017818619
29	0xbd21b650	-0.039480507
30	0xbc7986ef	-0.015229925
31	0xbbda60a0	-0.0066643506

module.net_sm.layer2.0.bn1.running_mean f4 [32]
0	0xc063f14c	-3.5616026
1	0x408f0c69	4.470265
2	0x40a26f4b	5.0760856
3	0x3e7d7e86	0.24755296
4	0x3fb1fee0	1.3905907
5	0x408b7718	4.358288
6	0x4031669f	2.7718885
7	0x3fe78e75	1.809035
8	0x3f4ffb95	0.8124326
9	0xc0112f68	-2.2685184
10	0xbf1265d6	-0.5718664
11	0x3f984763	1.1896785
12	0x3cae9412	0.02131084
13	0x4089ce52	4.3064356
14	0xc047d5e1	-3.1224291
15	0x406c8b01	3.6959841
16	0xc0a7bd56	-5.2418623
17	0x4010d106	2.2627578
18	0x4082bbbd	4.0854173
19	0xc0218714	-2.5238695
20	0xc058b863	-3.386254
21	0x408c9d05	4.3941674
22	0x400deabc	2.217452
23	0x40f3471a	7.6024294
24	0xc08b16fb	-4.346555
25	0x409f250d	4.973273
26	0x409c443e	4.8833303
27	0x40520c88	3.2820148
28	0xc004ecd4	-2.0769548
29	0x401be548	2.4358692
30	0xc007e6da	-2.123465
31	0xc09c6174	-4.886896

module.net_sm.layer2.0.bn1.running_var f4 [32]
0	0x410943d8	8.579063
1	0x40dc437e	6.883239
2	0x4103bd73	8.233752
3	0x404d653b	3.2093036
4	0x4060fab0	3.5153008
5	0x41206f6b	10.027202
6	0x40b92aa9	5.7864575
7	0x40b84167	5.7579837
8	0x4087b300	4.2406006
9	0x409f7754	4.9833164
10	0x4109e6c8	8.618843
11	0x403ef78c	2.983859
12	0x406a4ffa	3.6611314
13	0x4123b0dd	10.2306795
14	0x408e8784	4.4540424
15	0x409b7f50	4.859291
16	0x411406f6	9.251699
17	0x40a939c3	5.288301
18	0x418a893d	17.31701
19	0x40c0693b	6.0128455
20	0x41052463	8.321383
21	0x414f29ea	12.947733
22	0x40b664dd	5.6998124
23	0x4209eb92	34.48005
24	0x40d56334	6.6683598
25	0x41a95006	21.164074
26	0x414404e6	12.251196
27	0x4107ff6d	8.49986
28	0x40a112bc	5.033537
29	0x409bcadc	4.868513
30	0x411797ba	9.474543
31	0x414061ff	12.023925

module.net_sm.layer2.0.conv2.weight f4 [32, 32, 3, 3, 3]
0	0xbd6f6c82	-0.05845309
1	0xbd176c47	-0.036968496
2	0xbd5e4474	-0.0542645
3	0x3cd15f78	0.025558218
4	0xbcd1cfb7	-0.025611741
5	0xba730b0b	-0.000927136
6	0xbca69e19	-0.020339059
7	0x3d6569fb	0.056009274
8	0xbd0a3ef0	-0.033751428
9	0xbcb58f11	-0.022162946
10	0xbd103e10	-0.035215437
11	0x3d0a7ad4	0.033808544
12	0xbb6e0825	-0.0036320772
13	0x3d258638	0.040411204
14	0x3d801365	0.06253699
15	0x3d859fda	0.0652463
16	0xbc443b8a	-0.011977086
17	0x3bfa51bf	0.0076391394
18	0x3badc65a	0.0053031864
19	0x3d8e9da7	0.069636635
20	0xbd6f48c3	-0.058419
21	0x3cf89b74	0.030347563
22	0xbdd599aa	-0.104297
23	0x3cd1a57c	0.025591604
24	0xbc251974	-0.010076869
25	0x3cd4d27a	0.02597927
26	0x3bfc7d83	0.007705392
27	0x3d276121	0.040864114
28	0xbd2776d6	-0.040884815
29	0x3ba76d04	0.005109431
30	0xbd54f2fb	-0.051989537
31	0x3c523df2	0.012832152
32	0xba09ab21	-0.00052516354
33	0xbcbb43f7	-0.022859557
34	0xbc9f7889	-0.019466655
35	0x3ca447f4	0.020053841
36	0xbc91b258	-0.017785236
37	0x3d144e22	0.036207326
38	0x3d1d51df	0.038408156
39	0x3c816622	0.015795771
40	0xbda09493	-0.07840838
41	0xbc6e053e	-0.014527617
42	0xbc9426bc	-0.018084876
43	0xbd943acf	-0.07237779
44	0x3d02523d	0.03181671
45	0xbd08ccb0	-0.03339833
46	0xbcdaa635	-0.026690582
47	0x3bf0f230	0.0073530897
48	0xbcc78744	-0.024356492
49	0x3d286ffa	0.041122414
50	0xbd287690	-0.041128695
51	0x3c38539f	0.011250406
52	0x3a50f6e8	0.0007971362
53	0xbb9445e2	-0.0045249322
54	0x395830cd	0.00020617545
55	0xbc92c459	-0.017915891
56	0xbd028349	-0.031863485
57	0xba6f5bdb	-0.0009130814
58	0xbc3c221a	-0.01148274
59	0x3d9bec94	0.07613483
60	0xbdb42bd0	-0.08797419
61	0xbd2d898a	-0.042367496
62	0x3d00f02a	0.03147904
63	0xb9cbc78c	-0.0003886785
64	0xbc94fd10	-0.018187076
65	0x3cb19398	0.021676823
66	0xbd411f81	-0.047149185
67	0xbd55c92b	-0.0521938
68	0xbcf6a11a	-0.030106116
69	0x3ba6e363	0.0050930246
70	0x3c817bce	0.015806105
71	0xbc7ec3cf	-0.015549614
72	0xbbb3b36f	-0.0054840366
73	0xbc1e08b9	-0.009645634
74	0xbb83145d	-0.00400023
75	0x3d33a162	0.04385508
76	0x3d37bfb2	0.04486055
77	0xbd1e3d83	-0.03863288
78	0x3d311fcb	0.04324321
79	0x3c76f7c1	0.015073718
80	0xbd31b37d	-0.043384064
81	0xbd5d6c7c	-0.054058537
82	0x3ce3b5c0	0.027796626
83	0xbb334931	-0.0027356858
84	0xbd335bcd	-0.04378872
85	0xbb2b1762	-0.0026106467
86	0x3c823911	0.015896352
87	0x3d221c68	0.03957787
88	0x3dcda661	0.100415
89	0x3ced13a2	0.028940026
90	0x3ce901e3	0.028443282
91	0x3d7ee93f	0.06223416
92	0x3cd7ad6a	0.026327807
93	0x3d50bd34	0.05096169
94	0x3caa2b27	0.02077253
95	0xbbc8872d	-0.00611963
96	0xbda5965f	-0.08085322
97	0xbcae3ce6	-0.021269273
98	0x3c025085	0.007953768
99	0xbc4d29ee	-0.012522204
100	0xbd8b098e	-0.06788932
101	0x3beb0e11	0.0071733077
102	0xbd4d461d	-0.050115693
103	0xbb9c404c	-0.004768407
104	0xbd5ba555	-0.05362447
105	0x3d22ee3a	0.03977797
106	0xbd04579a	-0.032310106
107	0x3d6c0a6a	0.05762712
108	0xbc6e24f2	-0.014535176
109	0x3d0c6400	0.034275055
110	0x3c589dee	0.013221247
111	0xbda03fe8	-0.07824689
112	0x3c586a15	0.013208886
113	0x3d30dec2	0.04318119
114	0xbbf26c94	-0.0073981974
115	0x3cdcfca0	0.02697593
116	0xb97ac035	-0.0002391346
117	0xbc4ea904	-0.012613539
118	0xbd17668d	-0.036963034
119	0xbc1ecffe	-0.009693144
120	0x3ba37854	0.0049887095
121	0xbd140618	-0.036138624
122	0xbbc90107	-0.0061341557
123	0xbd95721f	-0.072971575
124	0xbd39c257	-0.045351353
125	0xbcfdfee0	-0.031005323
126	0x3d0d8204	0.03454782
127	0xbd7d713a	-0.06187556
128	0x3ce61208	0.02808477
129	0xbda7047e	-0.08155154
130	0x3cdb23ed	0.02675053
131	0xbd689a84	-0.056787983
132	0x3d295c02	0.04134751
133	0x3ce19537	0.027536971
134	0x3c82060e	0.015872028
135	0xbd013b54	-0.03155072
136	0xbd855570	-0.065104365
137	0x3aa0d57d	0.0012270656
138	0xbd1e025e	-0.038576476
139	0xbd81bc8b	-0.0633479
140	0xbd11782b	-0.03551499
141	0x3c30a3f0	0.010781273
142	0xbd901043	-0.07034352
143	0x3c32ab7e	0.010905145
144	0x3c8c8bf1	0.017156573
145	0xbcbaeae0	-0.022817075
146	0xbdbfed5a	-0.09371443
147	0xbcef78f2	-0.029232476
148	0xbc9df142	-0.01928008
149	0xbbe38a6f	-0.006943993
150	0xbc953c21	-0.018217148
151	0x3d761dd4	0.06008704
152	0x3cdd1deb	0.026991805
153	0x3c2847f1	0.010271058
154	0xbd83ef93	-0.064421795
155	0x3d8fff24	0.07031086
156	0x3cd8451a	0.026400138
157	0xbccb0da1	-0.024786772
158	0xbc3487cf	-0.011018707
159	0xbc3daf11	-0.011577384
160	0xbcbe8247	-0.02325548
161	0xbd8c170a	-0.06840332
162	0x3c604611	0.01368858
163	0xbc3a5140	-0.011371911
164	0x3d42720f	0.047472056
165	0xbd4b31af	-0.04960793
166	0xbcb5f5cf	-0.022211937
167	0x3da29f04	0.07940486
168	0xbd5f0999	-0.054452512
169	0x3c6a094c	0.014284443
170	0xbcfced4e	-0.030874874
171	0x3c923e7e	0.017852064
172	0xbc51eea1	-0.012813241
173	0x3ccfb803	0.025356298
174	0x3c658e96	0.014011046
175	0xbbe1bab9	-0.006888714
176	0x3c988d5b	0.018622091
177	0x3cfe1a24	0.031018324
178	0xbdd20d8b	-0.10256489
179	0xbd89b335	-0.06723634
180	0x3d9e38d0	0.0772568
181	0xbd4c7080	-0.049911976
182	0xbc20df68	-0.009818889
183	0x3b499907	0.0030761377
184	0x3ba81c7a	0.005130348
185	0xbc8034f1	-0.015650244
186	0xbc22de69	-0.009940722
187	0xbda7e05d	-0.08197091
188	0xbca50069	-0.020141797
189	0x3cde2354	0.027116455
190	0xbd9b6a99	-0.07588691
191	0xbcc7f5ad	-0.02440914
192	0x3ca70da4	0.020392247
193	0xbb77c1bb	-0.0037804681
194	0x3d299561	0.041402224
195	0x3d0a15ec	0.033712313
196	0x3c8409d5	0.01611797
197	0xbcce99e4	-0.025219865
198	0x3b98e768	0.0046662576
199	0xbb527c9d	-0.0032117732
200	0xbd262986	-0.040566944
201	0xbd0079f8	-0.03136632
202	0x3ca3f7a5	0.020015547
203	0xbd3b20bb	-0.04568551
204	0x3c000764	0.007814262
205	0x3c8a0dec	0.016852342
206	0xbdb6cfe5	-0.089263715
207	0xbd28a63f	-0.04117417
208	0xbd13830a	-0.03601364
209	0xbbec4efb	-0.0072115636
210	0x3c59179f	0.013250261
211	0x3cb200fc	0.021728985
212	0xbcd5a9b3	-0.026081895
213	0xbd6fd79f	-0.05855524
214	0x3d41517f	0.04719686
215	0xbbd00b0f	-0.0063489745
216	0xbd44bc55	-0.04803117
217	0xbd9071c6	-0.070529506
218	0xbafc2fba	-0.0019240298
219	0xbc4bb481	-0.012433172
220	0xbd9231f5	-0.07138435
221	0x3c87c42b	0.016573032
222	0x3bbf81be	0.005844324
223	0xbd908dff	-0.070583336
224	0xbc3747cb	-0.01118655
225	0xbd36bb2d	-0.0446121
226	0xbd40cec6	-0.047072195
227	0x3b3240bb	0.0027199227
228	0x3d8b6228	0.06805831
229	0xbd06ee2f	-0.032941993
230	0xbd9763ba	-0.07392068
231	0x3c473561	0.012158723
232	0x3bd11181	0.0063802605
233	0xbcc8ffb9	-0.024536
234	0x3d67f342	0.056628473
235	0xbd4b3e8b	-0.049620192
236	0x3d1666d6	0.036719166
237	0x3d2e0a78	0.042490453
238	0xbc8ad038	-0.01694499
239	0x3c644d75	0.013934483
240	0xbcb5977e	-0.022166964
241	0xbd339b4f	-0.043849286
242	0x3c0fb5fa	0.008771414
243	0xbd5ab8d9	-0.05339894
244	0x3caca43a	0.021074403
245	0xbd5f69eb	-0.05454437
246	0xbd500e3d	-0.05079483
247	0xbc355358	-0.011067234
248	0x3b0d2f7b	0.0021543193
249	0xbd7955aa	-0.06087271
250	0x3de0faf0	0.109853625
251	0x3cba8207	0.02276708
252	0xbd8ebe72	-0.06969918
253	0x3dcec70d	0.1009656
254	0x3c70aaf9	0.014689201
255	0xbc80331c	-0.01564937

module.net_sm.layer2.0.bn2.weight f4 [32]
0	0x3f5a7714	0.8533795
1	0x3f48fde7	0.78512424
2	0x3f5e1032	0.8674346
3	0x3f640227	0.89065784
4	0x3f4ca479	0.79938465
5	0x3f4c3d63	0.7978117
6	0x3f4dead9	0.80436474
7	0x3f48bf86	0.7841724
8	0x3f563b03	0.83683795
9	0x3f5b11bc	0.85573936
10	0x3f5638a1	0.8368016
11	0x3f491b33	0.7855713
12	0x3f42c14c	0.760762
13	0x3f70f9d6	0.9413122
14	0x3f50877f	0.8145675
15	0x3f519e1f	0.818819
16	0x3f589348	0.84599733
17	0x3f4572c2	0.7712823
18	0x3f63dfca	0.8901335
19	0x3f4d0bdc	0.8009622
20	0x3f5953f2	0.84893715
21	0x3f5a3aa9	0.8524576
22	0x3f3cfcfc	0.73823524
23	0x3f504790	0.81359196
24	0x3f5fce3f	0.8742408
25	0x3f59292b	0.8482844
26	0x3f5a068b	0.85166234
27	0x3f4e8357	0.8066916
28	0x3f596d14	0.84932065
29	0x3f50c4a3	0.81550044
30	0x3f55d38f	0.8352594
31	0x3f5b863a	0.8575169

module.net_sm.layer2.0.bn2.bias f4 [32]
0	0x3b8b83e3	0.0042576655
1	0x3c91734c	0.017755173
2	0x3c1f58ad	0.009725732
3	0x3c53e3b3	0.012932706
4	0xbc571b9e	-0.013129143
5	0xbb387cc7	-0.0028150545
6	0xbc2d3511	-0.010571734
7	0x3d60011a	0.05468855
8	0xbd073772	-0.03301186
9	0x3c078843	0.008272233
10	0xbcb51194	-0.022103108
11	0xbd3d2156	-0.04617437
12	0xbda6056d	-0.08106504
13	0x3c88b4fd	0.016687864
14	0x399fa076	0.00030446396
15	0xbd1af93c	-0.037835345
16	0x3a2a566c	0.0006497863
17	0x3bd86a1b	0.0066044456
18	0x3c024270	0.00795041
19	0xbc26aff9	-0.010173791
20	0x399ffd90	0.00030515762
21	0xbc9eb556	-0.019373577
22	0xbcfb9792	-0.030711923
23	0x3d001a85	0.03127529
24	0x3c5636ff	0.0130746355
25	0x3ca0b3d0	0.019616991
26	0x3c33a10e	0.010963691
27	0xbce35630	-0.027751058
28	0x3baec4f2	0.0053335363
29	0xbc9a15b7	-0.018809183
30	0x3c8f61af	0.017502634
31	0x3cca7bec	0.024717294

module.net_sm.layer2.0.bn2.running_mean f4 [32]
0	0xbf91f262	-1.1402094
1	0x3f9ced95	1.2260004
2	0x3f8903ed	1.0704323
3	0x3eeab160	0.4583845
4	0x3e9fbb4c	0.31197584
5	0x3f724103	0.9463045
6	0xbfd4acea	-1.6615269
7	0x3ed3169f	0.41228196
8	0x3ea8ada0	0.32944965
9	0xbf824337	-1.0176762
10	0x3fb305c4	1.3986135
11	0x3f7adf1d	0.97996694
12	0xbeb3e8c5	-0.35138527
13	0x3f3a9022	0.7287618
14	0xbdfb832c	-0.122808784
15	0x3f9ca0a0	1.2236519
16	0x3e2428c8	0.16031182
17	0xbec432d3	-0.38320026
18	0x3ef4116b	0.4766954
19	0x3f5f30d7	0.871839
20	0xbfb8f2f6	-1.4449146
21	0xbf221587	-0.633141
22	0x3fd95c7e	1.6981351
23	0xbf2df332	-0.6794921
24	0xbf306077	-0.68897194
25	0xbf8f826a	-1.1211674
26	0xbe079bab	-0.13242976
27	0xbf455132	-0.7707702
28	0xbfd09c3e	-1.6297681
29	0xbc81afb4	-0.015830852
30	0xbfe2b392	-1.771105
31	0xbda95d6a	-0.082697704
