model/model_20201014151312/model_final_mb6_1_0300_sm.pth (torch_old, 974091 bytes, 68 tensors)

module.net_sm.conv1.weight f4 [32, 1, 7, 7, 7]
0	0xbce21ce3	-0.027601665
1	0x3babebb6	0.005246605
2	0x3d7736f7	0.060355153
3	0x3c2c6cf8	0.010524027
4	0x3d1fd698	0.039023012
5	0x3d5606d9	0.052252624
6	0x3cd4f409	0.025995271
7	0xbc5dea09	-0.013544568
8	0xbc286575	-0.0102780955
9	0x3c967ee1	0.018371047
10	0x3d23649d	0.039890874
11	0x3cf411ac	0.029793583
12	0x3cc16afc	0.023610584
13	0x3c642528	0.013924874
14	0x3d1e028d	0.03857665
15	0xbd9fb43c	-0.07798049
16	0xbc2679e3	-0.010160896
17	0x3bfa1ac2	0.0076325843
18	0x3b234981	0.0024915638
19	0x3bbbe76b	0.0057343743
20	0xbc06c26d	-0.008225066
21	0x3c66a8e7	0.014078355
22	0xbc863339	-0.016381847
23	0xbc8e3a2c	-0.017361723
24	0x3cf29177	0.029610379
25	0x3b35dcdd	0.0027750053
26	0xbd244ba3	-0.040111195
27	0x3ca36e37	0.019950015
28	0xbca48384	-0.020082243
29	0x3cd2242a	0.02565201
30	0xbbcac516	-0.0061880453
31	0xbc020519	-0.007935786
32	0xbcf9548b	-0.030435821
33	0xbce85d68	-0.028364852
34	0xbb00cb7d	-0.0019652538
35	0xbab1845e	-0.0013543477
36	0xbc21ebd3	-0.009882885
37	0x3cda4e68	0.026648715
38	0xbb78d032	-0.003796589
39	0xbcc1f34a	-0.02367558
40	0x3c048609	0.008088597
41	0xbb821a69	-0.0039704335
42	0xbc03edc7	-0.008052296
43	0xbd979b18	-0.07402629
44	0xbd0f513b	-0.034989577
45	0xbcc76106	-0.024338257
46	0xbd11f233	-0.03563137
47	0xbd0e4fa0	-0.034743905
48	0xbd046d6d	-0.03233092
49	0xbcd2d965	-0.025738427
50	0xbd3fa20e	-0.046785407
51	0x3cf2ae20	0.029624045
52	0x3d225d26	0.039639615
53	0x3d87c170	0.06628692
54	0x3d8b1f5e	0.06793092
55	0x3cae2726	0.021258902
56	0x3ba068f2	0.004895323
57	0xbd690b6e	-0.056895666
58	0xbce0081f	-0.027347622
59	0x3bf4c26c	0.007469466
60	0x3d4ee7ee	0.050514154
61	0x3c96a80f	0.018390683
62	0xbc346ac3	-0.011011782
63	0x3d173674	0.036917165
64	0xbd813ad0	-0.06310046
65	0xbd2f8e4c	-0.042860314
66	0xbb4cd8ca	-0.0031257146
67	0x3c99614e	0.018723156
68	0x3c76bf95	0.015060325
69	0x3d000259	0.03125224
70	0x3c1db309	0.009625205
71	0xbcfbdaa7	-0.03074391
72	0x3bfb6bce	0.0076727634
73	0x3d892514	0.06696525
74	0x3c9b4866	0.01895542
75	0x3d09001f	0.03344738
76	0x3d157253	0.03648598
77	0x3ac9c2c1	0.0015393124
78	0xbcd714b4	-0.02625499
79	0xb9faf737	-0.00047867905
80	0x3cba49c8	0.02274026
81	0x3bd97259	0.0066359458
82	0x3d44a15d	0.04800545
83	0x3d53c42b	0.051700752
84	0xbbf0f17a	-0.007353005
85	0xbb8bc0f3	-0.0042649447
86	0xbd99750d	-0.07493029
87	0xbd45a966	-0.048257254
88	0xbacdaf8c	-0.0015692576
89	0xbb61d2cb	-0.0034457918
90	0x3bab2ce8	0.005223859
91	0x3befd295	0.0073188045
92	0x39f6d470	0.00047079055
93	0xbacd4a0d	-0.0015662328
94	0xbab4177c	-0.0013739909
95	0xbd060790	-0.032722056
96	0xbd15bb09	-0.036555324
97	0xbc3a4eba	-0.011371309
98	0xbcb117c7	-0.021617783
99	0x3a39ddf3	0.0007090263
100	0x3ce8c3ae	0.02841362
101	0x3cb38ce5	0.02191777
102	0x3c61cf34	0.013782311
103	0x3c880286	0.016602766
104	0x3cbbb7f7	0.02291487
105	0x3c4936b8	0.012281112
106	0x3c47c097	0.012191913
107	0xbd65801c	-0.056030378
108	0xbd653748	-0.055960923
109	0x3c6fb622	0.014630826
110	0x3d3114bc	0.043232664
111	0xbb380987	-0.002808185
112	0x3ccba8e7	0.024860812
113	0xbc16ca0d	-0.009203446
114	0xbd447cf6	-0.047970735
115	0xbd4a53f5	-0.049396474
116	0xbc6d80f4	-0.014496077
117	0x3ce406a8	0.027835205
118	0xbb630924	-0.00346429
119	0xb96b9ddb	-0.00022470152
120	0x3961900f	0.00021511338
121	0xbcf2e6c8	-0.02965106
122	0xbb4d3d80	-0.0031317174
123	0xbb3cb10f	-0.0028792059
124	0x3bd247c3	0.006417246
125	0x3d22bf12	0.039733
126	0xbc8fae47	-0.017539157
127	0x39a96981	0.00032312798
128	0x3b66ef1a	0.003523773
129	0x3d68a070	0.05679363
130	0x3cc94db4	0.024573185
131	0x3c28ca1f	0.010302096
132	0x3d6d308c	0.057907626
133	0xbce9d3f0	-0.028543442
134	0x3c4534b8	0.012036495
135	0xbbce2ecf	-0.006292201
136	0xbc4fe8f6	-0.01268982
137	0xbb6fea07	-0.0036607997
138	0x3c2c45f2	0.010514723
139	0x3d8cd2a1	0.06876112
140	0xbaec9009	-0.0018048297
141	0x3d03c7c7	0.032172944
142	0xbc9d776c	-0.019221984
143	0xbcaf3fc3	-0.021392709
144	0xbc46ed62	-0.012141557
145	0x3ab3b9da	0.0013712004
146	0x3c8a2b7a	0.016866434
147	0xbb4492ef	-0.0029994806
148	0xbcff64e7	-0.031176044
149	0xbdd476d6	-0.10374229
150	0xbd91666e	-0.07099615
151	0xbd1edfa9	-0.038787518
152	0xbbc44752	-0.0059899474
153	0xbcb724d7	-0.022356434
154	0x3d369e8b	0.044584792
155	0x3ce05ee4	0.027388997
156	0xbcbbd4af	-0.022928564
157	0xbcf1e1f8	-0.029526696
158	0xba22e32d	-0.00062136614
159	0x3d362916	0.044472776
160	0xbcd5abaf	-0.026082842
161	0x3cdb9786	0.02680565
162	0x3cafd6e2	0.021464769
163	0xbd1c2fdb	-0.038131576
164	0xbd495256	-0.049150787
165	0x3a955ba0	0.0011395104
166	0xbb6e72b6	-0.003638429
167	0xbb88b2f3	-0.004171723
168	0x3bb19856	0.005419771
169	0xbcc321cb	-0.023819825
170	0xbd5b0cd3	-0.053479027
171	0xbc60f50e	-0.013730301
172	0xbcbc1340	-0.022958398
173	0xbd61ea78	-0.055155247
174	0x3cc11444	0.023569234
175	0xbc84b7bd	-0.016200894
176	0xbd858007	-0.0651856
177	0xbcd06898	-0.0254405
178	0x3d062435	0.032749373
179	0x3ab3e838	0.0013725823
180	0xbd4f4b48	-0.050608903
181	0xba7ec3ba	-0.00097184966
182	0xbc73166e	-0.014836891
183	0xbcab82e0	-0.02093643
184	0xbbe53cf1	-0.00699579
185	0x3cfdc3d2	0.030977163
186	0x3c684acc	0.014177989
187	0xbc50db25	-0.012747561
188	0x3d471362	0.04860247
189	0x3ca1eb90	0.019765645
190	0x3d31f99a	0.04345093
191	0xbd841fd6	-0.06451385
192	0xbd2503e0	-0.0402869
193	0x393d3131	0.0001804277
194	0x3bc06de4	0.005872475
195	0xbc0a2161	-0.00843081
196	0x3c0f6e0d	0.0087542655
197	0xbcef2fbb	-0.029197564
198	0xbcc357c9	-0.02384557
199	0xbc517821	-0.012784989
200	0xbc4c7ac9	-0.012480446
201	0x3c8f15fd	0.01746654
202	0xbce38ddf	-0.02777761
203	0x3c9c2f8d	0.019065643
204	0xbc109f26	-0.008827006
205	0xbc37401c	-0.011184718
206	0x3b9c6cc2	0.004773707
207	0x3d36359f	0.04448473
208	0x3cd10d08	0.02551891
209	0x3c18ba45	0.009321754
210	0x3cf50b78	0.029912695
211	0xbd4de872	-0.050270505
212	0xbd3a7d0d	-0.045529414
213	0xbc6284a5	-0.01382557
214	0x3a5eefea	0.0008504378
215	0xbb6fef4a	-0.0036611133
216	0x3d40a5b9	0.047033045
217	0x3d34cd07	0.04414084
218	0xbd21e05b	-0.039520603
219	0xbd8e9f78	-0.0696401
220	0xbc02cf30	-0.007983968
221	0x38a01a89	7.634337e-05
222	0xbce42430	-0.027849287
223	0x3d9244d5	0.07142035
224	0x3ad2649f	0.0016051716
225	0xbd373819	-0.044731233
226	0xbbc6e0d9	-0.0060692844
227	0x3d9b3ef1	0.075803645
228	0x3d643c11	0.055721346
229	0xbcf5f731	-0.030025097
230	0x3d8a31a9	0.06747753
231	0x3ce0280a	0.027362842
232	0x3c9e5438	0.019327268
233	0x3d1513b2	0.036395736
234	0x3d6cc30e	0.057803206
235	0x3cd1307c	0.025535814
236	0xbc300fb6	-0.010745933
237	0x3cf4c509	0.02987911
238	0x3c601d9b	0.0136789335
239	0x3cc764e6	0.024340104
240	0xbd038073	-0.03210492
241	0x3c9628b2	0.018329952
242	0x3c9d00f4	0.019165494
243	0x3b834fd9	0.0040073213
244	0xbc95c534	-0.01828251
245	0xbcb283a1	-0.021791281
246	0xbc15a1f7	-0.009132854
247	0xbbb220fd	-0.0054360614
248	0xbc219ba2	-0.009863766
249	0xbc85a753	-0.016315138
250	0x3d2d54b2	0.0423171
251	0x3cfe6901	0.03105593
252	0xbccc7f92	-0.024963174
253	0xbbf9bf42	-0.0076216767
254	0xbc95a139	-0.018265354
255	0x3b6a092b	0.003571103

module.net_sm.bn1.weight f4 [32]
0	0x3f676c83	0.9039995
1	0x3f66e2da	0.901899
2	0x3f6f2a33	0.93423766
3	0x3f5c2774	0.859977
4	0x3f6c70d6	0.92359674
5	0x3f57a76f	0.8423986
6	0x3f586fad	0.84545404
7	0x3f59c62e	0.85068023
8	0x3f5aa740	0.85411453
9	0x3f63a366	0.889212
10	0x3f53ce32	0.82736504
11	0x3f6b5a28	0.9193444
12	0x3f6d4416	0.92682016
13	0x3f66e391	0.9019099
14	0x3f58244f	0.844304
15	0x3f68b817	0.909059
16	0x3f5eb6e6	0.8699783
17	0x3f629e0b	0.88522404
18	0x3f5d104b	0.86352986
19	0x3f604663	0.876074
20	0x3f67103a	0.90259135
21	0x3f59d24e	0.85086524
22	0x3f503654	0.813329
23	0x3f75cb46	0.96013296
24	0x3f55d925	0.8353446
25	0x3f58075a	0.8438622
26	0x3f6221a3	0.88332576
27	0x3f54c796	0.83117044
28	0x3f5bc35d	0.85844976
29	0x3f6c6ceb	0.92353696
30	0x3f5923e7	0.8482041
31	0x3f6b232c	0.91850543

module.net_sm.bn1.bias f4 [32]
0	0x3c03371e	0.008008746
1	0x3c358862	0.0110798795
2	0x3c962372	0.018327449
3	0x3c9edeef	0.019393412
4	0xbc679201	-0.014133931
5	0xbd7e2b37	-0.06205293
6	0x3a0754d3	0.0005162481
7	0x3c9a106f	0.018806664
8	0x3bdff3c0	0.006834477
9	0x3bb92010	0.005649574
10	0x3c31386e	0.010816677
11	0xbcdb6ace	-0.026784327
12	0x3ca9d562	0.020731632
13	0x3d0a5714	0.03377445
14	0x3c3bbe78	0.0114589855
15	0x3c5e6fbf	0.013576447
16	0x3ca5c827	0.020237042
17	0x3c722ceb	0.014781217
18	0x3b2eaed0	0.002665449
19	0x3c3f8799	0.011690044
20	0xbc9d7068	-0.019218639
21	0x3c2e2954	0.010629971
22	0xbaa28181	-0.0012398214
23	0x3be3d79e	0.006953194
24	0xbba9670f	-0.0051697562
25	0xbcb04a04	-0.021519668
26	0xbb55000b	-0.0032501246
27	0xbc32413a	-0.010879809
28	0xbd2a8549	-0.041631017
29	0x3b7ef940	0.0038905889
30	0xbbc28dff	-0.0059373374
31	0x3a2417bc	0.000625964

module.net_sm.bn1.running_mean f4 [32]
0	0x36352d79	2.699757e-06
1	0x36c85e79	5.9714625e-06
2	0xb826bd0d	-3.975355e-05
3	0xb783f8f7	-1.573235e-05
4	0xb8136fcd	-3.5151654e-05
5	0x37ab97df	2.0455509e-05
6	0x378c65bf	1.673668e-05
7	0xb7bf5ed9	-2.2813141e-05
8	0x36e96af1	6.9563907e-06
9	0xb6d8e4b3	-6.4639257e-06
10	0x370a6291	8.24839e-06
11	0xb82b685e	-4.0866777e-05
12	0xb8331292	-4.269422e-05
13	0xb7b55524	-2.1616528e-05
14	0xb795b526	-1.7846538e-05
15	0xb83c433e	-4.4885317e-05
16	0xb7c2c175	-2.3216688e-05
17	0x367b6bdb	3.7464695e-06
18	0xb72dfd6e	-1.037061e-05
19	0x369e4322	4.716582e-06
20	0x37801de8	1.5272715e-05
21	0x375a56dc	1.3014036e-05
22	0x3519ffc1	5.736911e-07
23	0x37b4d5c1	2.1557209e-05
24	0x37f5b899	2.9292236e-05
25	0x3727413d	9.969165e-06
26	0x3723ddb3	9.7671755e-06
27	0xb78356a5	-1.5656764e-05
28	0x3750e9b8	1.2452183e-05
29	0x36fbef5d	7.5082485e-06
30	0xb74a422a	-1.2055543e-05
31	0xb81256d4	-3.4889978e-05

module.net_sm.bn1.running_var f4 [32]
0	0x3b59475e	0.003315411
1	0x3b9ba881	0.004750312
2	0x3b7e5353	0.003880699
3	0x3b3733fb	0.0027954567
4	0x3bbe46dc	0.005806787
5	0x3bb8c7a8	0.0056390353
6	0x3b39cd7c	0.0028351238
7	0x3b2076f2	0.002448496
8	0x3b257d47	0.0025251673
9	0x3b46cfa8	0.0030336175
10	0x3b4bf604	0.0031121979
11	0x3b9e8966	0.0048381565
12	0x3bc8b6e5	0.0061253184
13	0x3b8133fc	0.0039429646
14	0x3b1f5c23	0.0024316392
15	0x3b3f7a9e	0.0029217373
16	0x3b421d15	0.0029619385
17	0x3b3e072b	0.0028995972
18	0x3b2b081f	0.002609737
19	0x3b86bb55	0.004111687
20	0x3b8ae4ca	0.0042386996
21	0x3b4e8826	0.0031514256
22	0x3b3cff62	0.0028838743
23	0x3b8a6a6d	0.0042241127
24	0x3b6d5b77	0.0036217847
25	0x3b855dfc	0.0040700417
26	0x3b2a49f9	0.0025984033
27	0x3b47240a	0.0030386471
28	0x3b701a13	0.0036636635
29	0x3b41c76b	0.0029568325
30	0x3b7875b9	0.0037911965
31	0x3b5ba253	0.00335135

module.net_sm.layer1.0.conv1.weight f4 [32, 32, 3, 3, 3]
0	0x3bf6fd64	0.0075375307
1	0xbd44b3e2	-0.048023112
2	0x3cce553d	0.02518713
3	0x3d8644fe	0.06556128
4	0x3d87dbfd	0.06633756
5	0x3b4b7a89	0.0031048378
6	0xbde578c5	-0.112046756
7	0xbc4e748d	-0.01260103
8	0x3cb02850	0.021503597
9	0x3d34d02a	0.044143833
10	0x3d5655d1	0.052327935
11	0x3cd333ce	0.025781538
12	0x3d9a9ca1	0.07549406
13	0xbd526f5f	-0.051375743
14	0x3d07d210	0.033159316
15	0xbcb63f16	-0.022246879
16	0xbca25101	-0.019814016
17	0x3d91fafb	0.07127949
18	0xbc4147b3	-0.01179688
19	0xbc5b5436	-0.013386777
20	0x3d793279	0.06083915
21	0xbccaef1a	-0.024772216
22	0xbbc61f33	-0.0060461997
23	0x3c48c5d7	0.0122542
24	0xbc9d95fb	-0.019236555
25	0xbcd15af1	-0.02555606
26	0xbd41443e	-0.04718422
27	0x3d99dc04	0.07512668
28	0xbd8d0c45	-0.06887106
29	0xbdb22e6f	-0.08700263
30	0xbd2e07dc	-0.042487964
31	0x3d0e2992	0.034707613
32	0xbc2a817f	-0.010406851
33	0xbd8a4e5d	-0.06753228
34	0x3d819246	0.063267276
35	0x3d0dbe1e	0.034605138
36	0x3c95d0e4	0.018288083
37	0x3af24ae4	0.0018485454
38	0x3d31e7bb	0.043433886
39	0x3d21275e	0.039344184
40	0x3c37b641	0.011212886
41	0xbd0daa39	-0.034586165
42	0xbcdddd7e	-0.027083155
43	0xbcfff98c	-0.031246923
44	0xbd3a2da8	-0.045453697
45	0xbd0d98df	-0.034569617
46	0x3d95910a	0.07303055
47	0x3c27e7bb	0.01024812
48	0xbcc4e0ed	-0.024033034
49	0x3d41cb35	0.047312934
50	0xbcd1f62b	-0.025630077
51	0xbc1ca32e	-0.009560389
52	0xbcc82880	-0.024433374
53	0xbdb8c289	-0.0902148
54	0xbbdc7d11	-0.0067287763
55	0xbdb483cd	-0.088142015
56	0x3ce7e182	0.028305773
57	0xbb4ff5a0	-0.0031732097
58	0x3d58e20e	0.052949958
59	0xbbdd443a	-0.006752518
60	0x3cdea2c7	0.027177228
61	0x3c10fbb8	0.008849077
62	0x3dbab95c	0.09117386
63	0xbd9b61c9	-0.075870104
64	0xbc08e115	-0.008354445
65	0xbc0e56d4	-0.008687694
66	0xbbb4b4f3	-0.005514735
67	0xbda34ab3	-0.07973232
68	0xbd6b7fb4	-0.057494834
69	0x38c506d3	9.394963e-05
70	0x3d109266	0.035295866
71	0x3d104e78	0.035231084
72	0xbc4ae16b	-0.012382845
73	0x3daf0b9b	0.085471354
74	0x3db91dd2	0.09038891
75	0xbd19736f	-0.0374636
76	0x3d3878ee	0.045037203
77	0xbcb8b6d4	-0.022548117
78	0xbd53d134	-0.051713184
79	0xbd449792	-0.04799611
80	0x3a5e6477	0.00084835984
81	0xbcb0ca53	-0.02158085
82	0xbdc0b5f5	-0.094097055
83	0x3be30304	0.0069278497
84	0xbd3bb94a	-0.045831002
85	0xbd3bfca8	-0.04589525
86	0xbcc150c6	-0.023598086
87	0xbb770116	-0.0037689856
88	0x39ba214e	0.00035501498
89	0x3aaf8329	0.0013390529
90	0x3c3420cc	0.0109941475
91	0x3d3ef16b	0.046616953
92	0x3db3d4f7	0.08780854
93	0xbcf001ca	-0.029297728
94	0x3c3821bd	0.011238513
95	0xbc1e6a93	-0.009668964
96	0x3d1d51d4	0.038408116
97	0x3e0084e5	0.12550695
98	0x3ca916aa	0.02064069
99	0xb9407bc1	-0.00018356649
100	0x3c531a67	0.012884713
101	0xbde645f9	-0.11243815
102	0x3d6e0218	0.058107466
103	0x3d0a7188	0.033799678
104	0x3da66b69	0.081259556
105	0x3c44b711	0.012006537
106	0x3d7e5669	0.062094126
107	0x3c034d29	0.008014002
108	0x3d0ae8a7	0.03391328
109	0xbc99ae7e	-0.018759962
110	0x3d74ae9a	0.059736826
111	0x3d3c002d	0.045898605
112	0x3d3dda97	0.04635104
113	0xbd79b08d	-0.060959388
114	0x3b93764b	0.0045001856
115	0xbd0dffd8	-0.03466782
116	0x3d0fcb52	0.03510601
117	0x3d3426b2	0.043982215
118	0x3d202207	0.03909495
119	0x3d218e2a	0.03944222
120	0x3d2a7914	0.041619375
121	0x3ce194fe	0.027536865
122	0x3d294cea	0.041333117
123	0xbd1a7aba	-0.037714697
124	0x3cbad052	0.022804413
125	0x3a688028	0.00088691944
126	0xbc6dea3d	-0.014521179
127	0x3c299484	0.01035035
128	0x3c4d35aa	0.012525002
129	0xbd1ee041	-0.038788084
130	0x3c1007e4	0.008790944
131	0xbce0b54e	-0.027430203
132	0x3bd4d5ab	0.006495198
133	0xbc94de4b	-0.018172404
134	0x3d8459ef	0.06462466
135	0xbc5de982	-0.013544442
136	0x3dad3d6c	0.08458981
137	0x3d94d4a4	0.072671205
138	0x3c7d215f	0.015449851
139	0xbd5b7134	-0.053574756
140	0xbd910eb1	-0.0708288
141	0xbd57d021	-0.05268872
142	0x3d5bad88	0.05363229
143	0x3d0bd3b4	0.034137443
144	0xbd478e4a	-0.04871968
145	0xbbd6e11c	-0.006557597
146	0xbcb08787	-0.021549
147	0x395d85e7	0.00021126085
148	0x3c1c71ff	0.009548663
149	0xbc610ab9	-0.013735467
150	0xbdb82e11	-0.089931615
151	0xbbfdf956	-0.0077506704
152	0xbcb718e0	-0.022350729
153	0x3c399f1e	0.01132944
154	0x3ce395c3	0.027781373
155	0xbd8c0ffe	-0.06838988
156	0x3c8c5ee0	0.017135084
157	0xbd60c640	-0.054876566
158	0xba894dc0	-0.0010475442
159	0xbd09eb3b	-0.0336716
160	0xbdd2fa46	-0.10301642
161	0x3d703d9a	0.058652498
162	0x3b21e574	0.0024703415
163	0xbc1115cc	-0.008855294
164	0xbb8a542a	-0.004221459
165	0xbb56174d	-0.0032667697
166	0xbcea8c56	-0.02863137
167	0xbcaa799d	-0.020809943
168	0xbb99112a	-0.0046712356
169	0xbd5af915	-0.0534602
170	0xbd3a3470	-0.045460165
171	0x3d378c5d	0.044811595
172	0xbd4bf91a	-0.04979811
173	0x3d17eeca	0.03709296
174	0xbd9182e3	-0.07105043
175	0x3ce2eaff	0.027699945
176	0xbc8ed490	-0.017435342
177	0x3cf554fd	0.029947752
178	0xbcd0fbea	-0.025510747
179	0x3d835175	0.06412021
180	0x3be7931b	0.007067097
181	0xbbf8a0aa	-0.007587512
182	0x3ce4c939	0.027927982
183	0xbd803605	-0.062603034
184	0x3d18662b	0.03720681
185	0xbc009e8d	-0.007850301
186	0xbd490b18	-0.049082845
187	0x3d0d4d7b	0.03449772
188	0x3d8c7e85	0.06860069
189	0xbbfc4cc4	-0.007699581
190	0xbd8fab7d	-0.07015131
191	0x3ccf6911	0.025318654
192	0x3d3cc6ae	0.046087913
193	0x3db9d08d	0.09072981
194	0x3c5c671c	0.013452318
195	0xbc9568b1	-0.018238397
196	0x3d6fcf10	0.05854708
197	0x3c98b7ef	0.018642394
198	0xbc36fd52	-0.011168795
199	0xbc0e8c9b	-0.008700515
200	0x3cd52ee0	0.026023328
201	0xbd6e04c4	-0.058110014
202	0x3d0d77f7	0.034538236
203	0xbbe8301e	-0.007085814
204	0xbc9a6ea2	-0.018851582
205	0x3d3de5df	0.0463618
206	0xbd40b4f3	-0.047047567
207	0xbcaea1bd	-0.021317357
208	0x3c35c829	0.011095085
209	0xbd8bdef1	-0.06829632
210	0x3ca63b06	0.020291816
211	0x3c271992	0.0101989675
212	0x3da81f02	0.08209039
213	0xbc2b808b	-0.010467659
214	0x3d4a08cb	0.049324792
215	0xbc7a2a14	-0.015268821
216	0xbceb7477	-0.028742058
217	0x3c9912d2	0.018685732
218	0x3d030ad0	0.031992733
219	0xbcb6e639	-0.022326576
220	0x3ccd18e9	0.025036292
221	0x3d72e274	0.059297994
222	0xbc27df90	-0.010246173
223	0x3cbd25e5	0.023089359
224	0xbd4dda60	-0.050257087
225	0x3d3e06b8	0.046393126
226	0x3c39d304	0.011341814
227	0x3d14438a	0.036197223
228	0xbd3dabb2	-0.04630632
229	0x3cf06b43	0.029348021
230	0x3bf9ee41	0.007627279
231	0xbda5f593	-0.0810348
232	0xbdbfe177	-0.09369176
233	0xbcf7644c	-0.030199192
234	0xbb96b1b9	-0.004598823
235	0x3c522faf	0.0128287515
236	0x3cbc3acf	0.02297726
237	0xbb0a304c	-0.0021085916
238	0x3da78600	0.08179855
239	0x3d242a41	0.04007936
240	0xbd84617d	-0.06463907
241	0xbc254d22	-0.010089191
242	0x3ccbbe19	0.024870919
243	0xbcb1ccaa	-0.021704037
244	0x3b0aa6a8	0.0021156464
245	0x3ce260a9	0.027633982
246	0x3ccf1c9f	0.025282202
247	0x3bbfc544	0.0058523733
248	0xbbdd5c04	-0.006755354
249	0x3d0c8a4f	0.03431159
250	0xba0b60ce	-0.0005316854
251	0x3b02e5b1	0.0019973333
252	0x3ab31102	0.0013661685
253	0xbc502e3c	-0.012706336
254	0xbdb5c024	-0.088745385
255	0xbb12c2ef	-0.0022394022

module.net_sm.layer1.0.bn1.weight f4 [32]
0	0x3f5d70ac	0.8650005
1	0x3f5e9af2	0.8695518
2	0x3f5e0d36	0.8673891
3	0x3f595718	0.8489852
4	0x3f58d63b	0.8470189
5	0x3f5a2978	0.85219526
6	0x3f59b4a0	0.85041237
7	0x3f612308	0.8794408
8	0x3f59eafe	0.85124195
9	0x3f5fccf5	0.87422115
10	0x3f5af18d	0.8552483
11	0x3f5b8e21	0.85763747
12	0x3f5777fc	0.84167457
13	0x3f5b2f90	0.8561945
14	0x3f5efd67	0.8710541
15	0x3f55e32c	0.8354976
16	0x3f5c2732	0.8599731
17	0x3f5e8691	0.8692408
18	0x3f598874	0.84973836
19	0x3f6031dd	0.87576085
20	0x3f65219d	0.89504415
21	0x3f5ce35b	0.86284417
22	0x3f599e8b	0.8500754
23	0x3f5a4de6	0.85275114
24	0x3f569e48	0.8383527
25	0x3f56b46d	0.8386906
26	0x3f58c4b1	0.8467513
27	0x3f5a26c2	0.8521539
28	0x3f595f1c	0.8491075
29	0x3f5d39de	0.86416423
30	0x3f5b5a29	0.8568445
31	0x3f5b6fb7	0.8571734

module.net_sm.layer1.0.bn1.bias f4 [32]
0	0x3c6b1dd1	0.0143503705
1	0xbca8dc4e	-0.020612862
2	0x3c54b417	0.01298239
3	0xbca09c97	-0.019605918
4	0xbc67ee53	-0.014155942
5	0xbd14a34f	-0.036288556
6	0xbc1252e3	-0.008930895
7	0x3c2d92b3	0.010594058
8	0x3c9a9068	0.018867686
9	0x3d343c89	0.044003043
10	0xbc278145	-0.010223691
11	0x3c5cfc39	0.013487869
12	0xbd0ebeb4	-0.034849837
13	0x3c5290df	0.012851923
14	0x3ce73431	0.028223129
15	0xbda70ac5	-0.08156351
16	0x3bd4eabf	0.0064977105
17	0x3bf48fdc	0.0074634384
18	0x3c1a56ed	0.009420139
19	0x3ccc54e3	0.02494282
20	0xbc3dcb91	-0.011584179
21	0xbc0e6b17	-0.008692524
22	0xbac62133	-0.0015116095
23	0x3ca9ef32	0.02074394
24	0xbd24ffa6	-0.040282868
25	0x3c8f7156	0.017510097
26	0x3d20d862	0.03926886
27	0x3c03b48d	0.008038652
28	0xbca77577	-0.020441754
29	0x3bfdba86	0.0077431826
30	0xbc89ca63	-0.016820138
31	0x38919b1e	6.9430316e-05

module.net_sm.layer1.0.bn1.running_mean f4 [32]
0	0xbf0193af	-0.5061597
1	0xbf1b2a53	-0.60611457
2	0xbfd8ad7b	-1.6927942
3	0xc05448e1	-3.3169482
4	0xc02062d0	-2.506031
5	0xbefc24c0	-0.49246788
6	0xbed3b854	-0.4135157
7	0xbd27a7a3	-0.040931355
8	0x3fe88c58	1.816783
9	0x3f1e6af6	0.6188196
10	0xbffb3fad	-1.9628807
11	0xc0040b77	-2.0631998
12	0xc0799a71	-3.9000514
13	0x40934eaf	4.603355
14	0xbfab9eca	-1.3407834
15	0xc0883fb9	-4.2577786
16	0xc027124b	-2.6104915
17	0x3f0477b7	0.5174517
18	0xbfef01df	-1.8672446
19	0x4086fa09	4.218022
20	0x400716bd	2.1107628
21	0xc0527a01	-3.2886965
22	0xbf58e37e	-0.84722126
23	0x4085232c	4.1605434
24	0xbf9f5ed2	-1.2450812
25	0x3f97d965	1.1863219
26	0x4012cd35	2.2937748
27	0x3e104304	0.14088064
28	0xc0741dd7	-3.8143213
29	0xc04ac25b	-3.1681125
30	0xbec77f08	-0.38964105
31	0xc0d127a7	-6.5360904

module.net_sm.layer1.0.bn1.running_var f4 [32]
0	0x403cda60	2.9508286
1	0x40967ab7	4.70248
2	0x40c1a684	6.0515766
3	0x4134c9b5	11.299245
4	0x40cb2105	6.3477807
5	0x40c9ce80	6.3064575
6	0x3fde0794	1.7346063
7	0x4047a1b4	3.1192446
8	0x40d66a24	6.7004566
9	0x404bae44	3.1825113
10	0x4091ba52	4.553994
11	0x40b4e779	5.653256
12	0x417c10f6	15.754141
13	0x41a88c54	21.06852
14	0x403862d7	2.8810327
15	0x41865873	16.793188
16	0x40fd37b3	7.913049
17	0x407abde7	3.9178407
18	0x4084b9aa	4.147664
19	0x418e8ed3	17.819738
20	0x41231742	10.193178
21	0x4129b268	10.606056
22	0x404a720f	3.1632116
23	0x418a5c75	17.295145
24	0x40393247	2.8936937
25	0x41265c90	10.397598
26	0x40b494bd	5.6431565
27	0x4094fd0e	4.6558905
28	0x415ca0cc	13.789257
29	0x4132c79a	11.173731
30	0x3ffe3d89	1.9862529
31	0x422002bb	40.002666

module.net_sm.layer1.0.conv2.weight f4 [32, 32, 3, 3, 3]
0	0xbc0f6551	-0.008752183
1	0xbd1cf173	-0.0383162
2	0x3ccbaebb	0.024863591
3	0xbc852e4f	-0.016257433
4	0xbd4d1dad	-0.05007713
5	0xbd28a75c	-0.04117523
6	0xbcecae5a	-0.028891731
7	0x3d589d36	0.052884303
8	0xbd00ba93	-0.03142793
9	0x3b93c8d3	0.004510024
10	0xbd99d4c0	-0.07511282
11	0xbc8ec4c1	-0.017427804
12	0x3c29b50f	0.010358109
13	0xbc7be275	-0.015373816
14	0xbbe6c13d	-0.0070420788
15	0xbcd9655e	-0.026537593
16	0x3cd55d08	0.026045337
17	0x3cad4384	0.021150358
18	0x3bd0f971	0.006377392
19	0xbc193f34	-0.009353448
20	0x3c384311	0.011246459
21	0xbc556285	-0.013023977
22	0xbc25ad7c	-0.010112163
23	0x3cdcdba0	0.026960194
24	0x3c2d4378	0.010575168
25	0xbc9e0a75	-0.019292096
26	0x3c6d409c	0.014480736
27	0xbd65ace7	-0.056073096
28	0x3cb27b7e	0.021787401
29	0x3c82cf59	0.015968012
30	0x3bc2844c	0.005936181
31	0xbb7a7fb5	-0.0038223092
32	0xbc24a869	-0.010049918
33	0x3ce51c02	0.027967457
34	0xbbe3e22b	-0.0069544516
35	0x3d90eb17	0.0707609
36	0x3b039cc0	0.0020082444
37	0xbc96e7ae	-0.01842102
38	0xbbf718f2	-0.0075408155
39	0x3d20ebfe	0.03928756
40	0x3db0b091	0.08627427
41	0xbd0a45b1	-0.03375787
42	0xbd351bc6	-0.04421594
43	0x3cd0b901	0.025478842
44	0x3ca6dc76	0.020368796
45	0xbbca6794	-0.0061768983
46	0xbcab8ea1	-0.020942034
47	0x3d903880	0.070420265
48	0xbd2bfcd9	-0.04198918
49	0xbc94b1eb	-0.018151244
50	0xbc0641a6	-0.008194363
51	0xbb02bbe1	-0.001994841
52	0x3d947aa1	0.07249952
53	0xbd3a1eb3	-0.045439433
54	0x3d54128b	0.051775496
55	0xbd8e7911	-0.06956685
56	0x3d07eeff	0.03318691
57	0x3b2ff206	0.0026847138
58	0x3d84f6f0	0.06492412
59	0xbce0d438	-0.027444944
60	0x3c8d7e57	0.017272158
61	0x3d9bddf3	0.07610693
62	0xbc8c40fb	-0.017120829
63	0x3d963692	0.07334627
64	0x3d109185	0.03529503
65	0x3da7b604	0.081890136
66	0x3c9d15ef	0.019175498
67	0x3d33f0ca	0.043930806
68	0x3c647b31	0.013945387
69	0xbd5a6da7	-0.05332723
70	0x3ddc81a4	0.107669145
71	0xba59edcb	-0.0008313327
72	0x3be8a63c	0.007099895
73	0x3b8436e1	0.0040348624
74	0xbd485580	-0.048909664
75	0x3d3afa48	0.045648843
76	0xbbc070e6	-0.0058728335
77	0x3c3001a7	0.010742581
78	0xbd26c681	-0.04071665
79	0x3d00487c	0.031319126
80	0x3da8e8b5	0.0824751
81	0xbd2c434d	-0.04205637
82	0xbd54eb4d	-0.051982213
83	0x3bca9c39	0.006183174
84	0xbc63d8d2	-0.013906674
85	0x3d97457d	0.07386301
86	0xbd288760	-0.04114473
87	0xbd0f8921	-0.035042886
88	0x3c3e1c52	0.011603432
89	0x3dcc3c99	0.099724956
90	0x3bd1712a	0.006391664
91	0xba3ef896	-0.0007284967
92	0x3c99f7c1	0.018794896
93	0xbd5bbbb8	-0.05364582
94	0xbc6758e7	-0.014120317
95	0xbcde83e2	-0.027162496
96	0xbc9125cf	-0.017718224
97	0xbbf7b844	-0.007559808
98	0x3baf1b61	0.00534384
99	0xbc5ac89c	-0.013353493
100	0x3c64aa89	0.013956674
101	0x3d63d775	0.055625398
102	0x3c42556d	0.011861187
103	0xbc4fa556	-0.0126736965
104	0x3cb52436	0.022111993
105	0x3d7c0aa3	0.06153358
106	0xbbb9416d	-0.0056535513
107	0x3d03fbfe	0.03222274
108	0x3bbb273f	0.0057114656
109	0x3caacef2	0.020850632
110	0xbd69efcf	-0.057113465
111	0x3c9bfe14	0.019042052
112	0xbd542e39	-0.051801894
113	0xbcb12351	-0.021623285
114	0xbc3e6e6f	-0.011623009
115	0x3d7da8bb	0.061928492
116	0xbbd717fc	-0.0065641385
117	0xbd516e06	-0.051130317
118	0x3c2f57a8	0.010702051
119	0x3bd38705	0.0064553046
120	0xbd99dff7	-0.07513421
121	0xbc8445b6	-0.016146522
122	0xbd3fb491	-0.04680306
123	0xbb805654	-0.003916541
124	0xbc9ce28f	-0.019151
125	0xbc8ca480	-0.017168283
126	0x3d103cfb	0.035214406
127	0x3dcac12b	0.09900125
128	0xbcbd8d7b	-0.023138752
129	0x3cda779c	0.026668362
130	0x3ca02134	0.019547082
131	0x3cdcc95c	0.026951484
132	0x3cde7383	0.02715469
133	0x3cfaa70e	0.030597236
134	0xbcb95533	-0.022623634
135	0xbbb60081	-0.0055542593
136	0x3d57a932	0.05265159
137	0xbd98a2ac	-0.07452902
138	0xbcde4387	-0.027131809
139	0xbc420dd2	-0.011844115
140	0x3c881ce7	0.016615344
141	0x3d3910b0	0.04518193
142	0xbd53f557	-0.051747646
143	0xbc42cc39	-0.011889511
144	0xbd04dfc7	-0.032439973
145	0xbd5fdf38	-0.054656237
146	0x3d123a47	0.03570011
147	0x3db13937	0.08653491
148	0xbd028169	-0.031861696
149	0xbd10a35f	-0.035312053
150	0xbd8d2d34	-0.068933874
151	0x3d1c73d6	0.038196407
152	0x3d3fe01a	0.04684458
153	0xbd7f0663	-0.06226195
154	0x3ba20c72	0.0049453313
155	0xbc34e2df	-0.011040418
156	0xbd3e5682	-0.04646922
157	0x3da0c5d1	0.078502305
158	0xbd2e25ad	-0.0425164
159	0x3ab4984a	0.0013778296
160	0xbddf4bbf	-0.10903119
161	0x3d449386	0.04799225
162	0xba319e96	-0.00067756453
163	0xbc8f5eb4	-0.017501213
164	0xbd4de06a	-0.050262846
165	0xbc4cea5a	-0.012507046
166	0x3d9d7711	0.07688726
167	0xbc4588d3	-0.012056547
168	0x3cd627c9	0.026142018
169	0xbbd5fdae	-0.006530485
170	0x3a07621a	0.00051644596
171	0xbc180513	-0.009278554
172	0x3c6a4dfa	0.014300818
173	0xbcb6d36b	-0.022317609
174	0x3d36d3e9	0.044635687
175	0x3c7e479e	0.015520005
176	0x3c9dd1fd	0.01926517
177	0xbd2d326a	-0.042284407
178	0x3b9faf81	0.0048732166
179	0x3b571b06	0.0032822504
180	0x3cb5b260	0.022179782
181	0xbb45bfd3	-0.003017415
182	0x3caf580e	0.021404292
183	0xbc59dde4	-0.013297532
184	0x3d3072ce	0.043078236
185	0xbc1be086	-0.00951398
186	0xbcd3ca17	-0.0258532
187	0x3d88980f	0.06669628
188	0xbd45cdd9	-0.048292015
189	0xbdc5c95b	-0.09657546
190	0xbd9257ba	-0.07145639
191	0x3b3da8cf	0.002893973
192	0x3cad10ea	0.02112623
193	0x3d298373	0.041385125
194	0xbd5a13d5	-0.05324157
195	0xbdb2efdb	-0.08737155
196	0x3c1e6525	0.009667669
197	0xbc1bb5a0	-0.009503752
198	0x3d03f35f	0.03221452
199	0x3c056d99	0.008143806
200	0x3d48ec66	0.049053572
201	0xbd71406c	-0.058899328
202	0x3b66b4af	0.003520291
203	0xbd1ab250	-0.03776771
204	0x3d2437e5	0.040092368
205	0x3d68071a	0.056647398
206	0xbd569ff9	-0.052398656
207	0xbbcc7984	-0.0062400717
208	0xbd5ae94d	-0.05344515
209	0xbb8b7354	-0.0042556915
210	0xbd37113d	-0.044694174
211	0x3d537b8f	0.051631507
212	0xbd3846bc	-0.044989333
213	0xbc646b0c	-0.013941538
214	0xbd927b78	-0.07152456
215	0x3cb81a6e	0.02247354
216	0x3d1eb947	0.038750913
217	0xbd8f1858	-0.06987065
218	0x3c96fad0	0.018430144
219	0xbc05ac65	-0.008158778
220	0x3cd699bf	0.026196359
221	0xbc66217b	-0.014046068
222	0xbc58dacf	-0.013235762
223	0xbd0b708c	-0.03404288
224	0x3db72e2d	0.08944354
225	0x3d842538	0.064524114
226	0x3d28d806	0.04122164
227	0xbcae7e15	-0.021300355
228	0xbcd4543a	-0.025919069
229	0xbd804b23	-0.06264331
230	0x3d4e1ceb	0.050320547
231	0x3ce356c1	0.027751328
232	0xbdab0c13	-0.08351912
233	0xbd15d1ec	-0.03657715
234	0x3b766edd	0.00376027
235	0x3aaa2bb2	0.0012982993
236	0x3d85ebf7	0.06539147
237	0xbd8dd3a2	-0.069251314
238	0xbc6ace1e	-0.014331369
239	0x3d17a417	0.037021723
240	0xbc900007	-0.017578138
241	0x3cc64e99	0.0242074
242	0x3bde5b24	0.006785767
243	0xbd1810fd	-0.037125576
244	0xbd878ba8	-0.06618434
245	0x3d11753d	0.035512198
246	0x3cb7aaed	0.022420371
247	0xbde1f87d	-0.110337235
248	0x3c47dd47	0.012198753
249	0xbc84a092	-0.016189847
250	0xbccab411	-0.024744065
251	0x3c8a1764	0.016856857
252	0xbd1bc075	-0.03802534
253	0xbbf4054c	-0.0074469205
254	0xbba06b7f	-0.004895627
255	0xbe042675	-0.12905295

module.net_sm.layer1.0.bn2.weight f4 [32]
0	0x3f5d450b	0.86433476
1	0x3f46ef78	0.7770915
2	0x3f4f87f5	0.8106683
3	0x3f53e64f	0.827733
4	0x3f546506	0.8296665
5	0x3f5dac18	0.8659072
6	0x3f5e5347	0.8684582
7	0x3f60f0d7	0.8786749
8	0x3f5e4615	0.86825687
9	0x3f5e5548	0.8684888
10	0x3f5e0e36	0.86740434
11	0x3f61cabe	0.88199985
12	0x3f51a108	0.8188634
13	0x3f434685	0.7627948
14	0x3f5734d6	0.84064996
15	0x3f549ae2	0.8304883
16	0x3f534b0f	0.82536405
17	0x3f5d53d2	0.86456025
18	0x3f5669dc	0.8375528
19	0x3f4f9af6	0.81095827
20	0x3f57b572	0.8426124
21	0x3f563e63	0.83688945
22	0x3f50e95c	0.8160608
23	0x3f5eb078	0.8698802
24	0x3f4fa0ee	0.81104934
25	0x3f4c5297	0.7981352
26	0x3f51766d	0.8182133
27	0x3f51ef86	0.8200611
28	0x3f5a2e8e	0.85227287
29	0x3f546236	0.8296236
30	0x3f580961	0.8438931
31	0x3f550408	0.83209276

module.net_sm.layer1.0.bn2.bias f4 [32]
0	0x3bc4424a	0.0059893476
1	0x3bd5b555	0.0065218606
2	0x3cb6f314	0.022332706
3	0x3c7bd469	0.015370467
4	0xbc16b8ca	-0.009199331
5	0xbd210cb1	-0.039318744
6	0x3a57883a	0.00082218985
7	0x3be273a4	0.006910758
8	0x3bcce26b	0.006252577
9	0x3b44df74	0.0030040415
10	0x3c27f31c	0.010250833
11	0x3b137d47	0.002250509
12	0x3c60a829	0.0137119675
13	0x3ccddb27	0.025128914
14	0x3c07ca3b	0.008287962
15	0x3c03170f	0.008001103
16	0x3c74f7f6	0.014951697
17	0x3bc0f114	0.0058881138
18	0xbb8107ba	-0.0039376887
19	0x3bd5636f	0.0065120975
20	0xba980429	-0.001159792
21	0xbb4cba29	-0.003123889
22	0xbc117cfb	-0.008879895
23	0x3c87ad33	0.01656208
24	0xba17811e	-0.0005779433
25	0xbc82de6e	-0.015975203
26	0xbc02d2fc	-0.007984873
27	0xbc0fe6b0	-0.0087830275
28	0xbb87d16a	-0.004144837
29	0xbb9c7650	-0.004774846
30	0xbacc026e	-0.0015564689
31	0xbbcd1385	-0.0062584304

module.net_sm.layer1.0.bn2.running_mean f4 [32]
0	0xbf2b49d3	-0.6690952
1	0x3f0f2ed9	0.5593086
2	0x3fa8a383	1.31749
3	0xbf2c4ce2	-0.67304814
4	0x3f9d32ea	1.2281163
5	0x3f08ec6b	0.53485745
6	0xbf923f4c	-1.1425567
7	0xbeb3c846	-0.35113734
8	0xbfc66b43	-1.5501484
9	0xbf1bca46	-0.6085552
10	0xbf71fe09	-0.9452825
11	0x3ed7f3a5	0.42178074
12	0x3f0322bf	0.51224893
13	0xbe70ead7	-0.23527084
14	0xbf02059e	-0.5078982
15	0x3e90e2ba	0.2829798
16	0xbf36baa9	-0.7137857
17	0x3e4a770c	0.19771975
18	0xbe12310a	-0.1427652
19	0x3ef4077a	0.47661954
20	0xbf1bb297	-0.6081938
21	0xbb915851	-0.004435577
22	0x3ed937e7	0.42425463
23	0xbf9daf04	-1.2319036
24	0x3d130ede	0.03590285
25	0x3f57eeeb	0.84348935
26	0x3e947203	0.28993234
27	0x3d56774c	0.052359864
28	0xbf2b3e78	-0.66892195
29	0x3e79f599	0.24410094
30	0xbfbc07fb	-1.4689935
31	0xbde538b3	-0.11192455

module.net_sm.layer1.0.bn2.running_var f4 [32]
0	0x4049595b	3.1460788
1	0x40048de4	2.0711603
2	0x40606411	3.5061076
3	0x3f893517	1.0719327
4	0x402db2a1	2.7140276
5	0x4007f11c	2.1240911
6	0x401f543f	2.489517
7	0x3f05220b	0.5200507
8	0x3f914509	1.1349193
9	0x4093695f	4.6066127
10	0x40148524	2.3206263
11	0x40135440	2.3020172
12	0x400af4ab	2.1711833
13	0x4053b911	3.3081706
14	0x4004a766	2.0727172
15	0x3fec1fd0	1.8447208
16	0x3f90715a	1.1284592
17	0x3fa0bbc8	1.2557306
18	0x3efe89cc	0.49714506
19	0x4051aacc	3.2760496
20	0x3fa47cd4	1.2850595
21	0x3f884980	1.064743
22	0x3fa42cd7	1.2826184
23	0x3f96e482	1.1788485
24	0x400981a7	2.1485384
25	0x3fc5929c	1.5435367
26	0x40105512	2.2551923
27	0x3f30bca0	0.6903782
28	0x3fcd9126	1.6059921
29	0x3ff06139	1.877967
30	0x401479c3	2.3199317
31	0x3f66d42c	0.901675

module.net_sm.layer2.0.conv1.weight f4 [32, 32, 3, 3, 3]
0	0x3ca42cb7	0.020040853
1	0x3b25ed47	0.002531843
2	0xbcabccd8	-0.0209717
3	0x3d3c4a16	0.04596909
4	0x3ba64938	0.0050746463
5	0xbd53c546	-0.051701806
6	0xbcac288e	-0.021015432
7	0xbdaf4b2e	-0.08559261
8	0x3d3ee4bc	0.046604857
9	0xbd6a7c7f	-0.057247635
10	0xbdbef26a	-0.093235806
11	0xbc5d0713	-0.013490456
12	0x3c655698	0.013997696
13	0x3d007055	0.03135713
14	0x3c0d1854	0.008611757
15	0xbd61713b	-0.055039626
16	0xbd01a8c8	-0.031655103
17	0x3d06e3c7	0.03293207
18	0xbc59cbff	-0.013293265
19	0xbd9a3496	-0.07529561
20	0x3d1fb6be	0.038992636
21	0xbd9d8286	-0.07690911
22	0xbb667ab1	-0.0035168345
23	0x3c847b7d	0.016172165
24	0x3c76bf77	0.015060297
25	0x3d1dac3f	0.038494345
26	0x3c954737	0.018222434
27	0x3d2f7800	0.04283905
28	0x3d38ca86	0.045115016
29	0x3d49a1e1	0.049226645
30	0xbcbb8536	-0.022890668
31	0xbd3f70ed	-0.046738554
32	0x3d891975	0.06694309
33	0xbd82a3c8	-0.06378895
34	0x3b226a74	0.002478269
35	0xbcf91ce7	-0.03040929
36	0xbbd60184	-0.0065309424
37	0x3ce753c9	0.028238194
38	0x3cb3e98d	0.021961952
39	0x39a09524	0.00030628697
40	0x3d026717	0.031836595
41	0x3d861f82	0.065489784
42	0xbb85eab3	-0.004086816
43	0x3d846bb3	0.064658545
44	0x3c82bc58	0.01595895
45	0x3d00f3a7	0.031482365
46	0xbcf8107f	-0.030281303
47	0xbd1535e0	-0.036428332
48	0xbd51f544	-0.051259294
49	0xbc81632e	-0.015794363
50	0xbd5ac523	-0.05341066
51	0x3c7f58c0	0.0155851245
52	0xbc9990cf	-0.018745808
53	0x3c981a26	0.018567156
54	0x3d3987af	0.045295414
55	0x3b3b3915	0.002856796
56	0xbb1aae76	-0.0023602522
57	0xbdaaf404	-0.083473235
58	0x3d27bc43	0.040951025
59	0x3d06051e	0.032719724
60	0xbd7f6e23	-0.062360894
61	0x3d122943	0.03568388
62	0xbd9160cb	-0.0709854
63	0x3d103874	0.035210088
64	0x3db89d31	0.09014357
65	0x3ba3ded5	0.005000929
66	0xbc9098cf	-0.01765099
67	0x3cf11c28	0.029432371
68	0x3c2873d8	0.010281526
69	0x3c967188	0.018364683
70	0xbb9659ff	-0.004588365
71	0xbd88b9a9	-0.06676037
72	0xbc858caf	-0.016302435
73	0x3d0d1f67	0.034453776
74	0xbd08d6d4	-0.033408
75	0x3d81deef	0.06341349
76	0xbcb1a8ad	-0.021686876
77	0x3d073890	0.033012927
78	0xbbb0c296	-0.00539429
79	0x3d8b0d61	0.06789661
80	0xba5f02c2	-0.0008507186
81	0xbd491d25	-0.04910006
82	0x3cfa2bde	0.030538496
83	0xbc943d40	-0.018095613
84	0x3c24b8ee	0.010053856
85	0xbc861ff5	-0.01637266
86	0xbd859b2f	-0.065237395
87	0xbc399e60	-0.011329263
88	0x3dad6f1f	0.0846846
89	0xbaf04fc6	-0.0018334321
90	0x3d9c03a7	0.07617884
91	0xbd3a5223	-0.045488488
92	0x3d337a3f	0.043817755
93	0xbca57aa0	-0.020200074
94	0x3cba45a0	0.022738278
95	0x3cb9f1e7	0.022698356
96	0x3d352e29	0.044233475
97	0x3c170e48	0.0092197135
98	0xbdd3dae0	-0.103444815
99	0x3d51d4a0	0.051228166
100	0x3dae05ba	0.08497186
101	0x3c4c3ab7	0.012465171
102	0x3acea28a	0.0015764993
103	0x3d3a232d	0.045443702
104	0xbaed5050	-0.00181056
105	0xbc1e1b8a	-0.0096501205
106	0xbd0eda91	-0.03487641
107	0xbc53176d	-0.012884003
108	0x3c821447	0.01587881
109	0x3ce568e1	0.028004112
110	0x3d92b14d	0.07162724
111	0xbbe61345	-0.00702134
112	0x3c769ebd	0.015052495
113	0xbd37665a	-0.044775344
114	0xbcc3bfaf	-0.023895113
115	0xbcc961a7	-0.024582697
116	0x3c55a6e7	0.013040281
117	0x3d9c91c2	0.076449886
118	0x3d58ff03	0.052977573
119	0x3cfd70bc	0.030937545
120	0xbd94b64a	-0.072613314
121	0xbb64eead	-0.00349323
122	0xbbd8106a	-0.0065937536
123	0x3d225da5	0.039640088
124	0xbd172820	-0.0369035
125	0xbc230992	-0.009951012
126	0x3dc5d312	0.09659399
127	0xbd42a46b	-0.047520082
128	0xbd669e69	-0.056303415
129	0xbc10e0e7	-0.008842683
130	0xbceb10e6	-0.028694581
131	0xbd2b5db6	-0.041837417
132	0xbd2d832c	-0.042361423
133	0xbb9e959b	-0.0048396117
134	0x3b8c1bf3	0.0042757927
135	0x3c5f817b	0.01364171
136	0x3cc90f51	0.024543436
137	0x3ca51d33	0.020155525
138	0xbd1f3a0d	-0.03887372
139	0x39993d88	0.00029228278
140	0xbd9fd0c0	-0.07803488
141	0xbdc59321	-0.09647203
142	0x3c8a8164	0.016907401
143	0x3ca82d6c	0.020529471
144	0xbc81c748	-0.015842095
145	0x3d91583c	0.070969075
146	0xbd5452dc	-0.051836833
147	0x3cc4302f	0.023948757
148	0xba738226	-0.0009289108
149	0xbd2755fc	-0.040853485
150	0x3ca92eeb	0.020652255
151	0xbc816e23	-0.015799588
152	0xbc84d039	-0.01621257
153	0xbc8e44f4	-0.017366864
154	0xbbabc798	-0.0052422993
155	0x3d1dac78	0.038494557
156	0xbdb99013	-0.09060683
157	0x3b5d5ee9	0.0033778495
158	0xbd55ed6e	-0.052228384
159	0x3cb5cea3	0.022193259
160	0xbcc8d39e	-0.02451497
161	0xbd636760	-0.055518508
162	0xbd7b7c2d	-0.06139772
163	0xbc8b0652	-0.016970787
164	0x3c3c6fd0	0.011501268
165	0xbd84bc63	-0.064812444
166	0xbdec2b0b	-0.11531647
167	0xbda41368	-0.08011514
168	0x3c0d9035	0.008640339
169	0xbc1ac5c3	-0.009446564
170	0xbddf002b	-0.10888704
171	0x3d63c22c	0.0556051
172	0xbccac3a6	-0.024751496
173	0x3c42f3dc	0.011898961
174	0xbcf26f6b	-0.029594144
175	0xbde97fcf	-0.11401331
176	0xbc4eca8e	-0.012621535
177	0xbbd9d7f6	-0.006648059
178	0xbcdde1eb	-0.027085265
179	0xbcdeefe3	-0.027213996
180	0x3cdc9d0f	0.02693036
181	0x39045499	0.00012620016
182	0xbc131712	-0.008977668
183	0xbd97909f	-0.07400631
184	0x3cf00118	0.029297397
185	0xbd6b227f	-0.057405945
186	0x3d54c63e	0.05194687
187	0x3bc80b42	0.0061048577
188	0x3bad80ae	0.005294881
189	0xbd6c5ff4	-0.057708696
190	0xbceec6fb	-0.029147616
191	0x3bd02cc4	0.0063529927
192	0x3c9c9f63	0.01911897
193	0x3c3fcc47	0.011706418
194	0x3d668af7	0.05628487
195	0xbc79749a	-0.015225554
196	0xbd9b99a9	-0.07597668
197	0xbcd8d0d9	-0.026466774
198	0xbd123a3c	-0.035700068
199	0x3cf97c46	0.030454766
200	0x3d469fa1	0.048492078
201	0xbd015951	-0.03157932
202	0x3cb575af	0.022150842
203	0xbd33b8ea	-0.04387752
204	0xbc614873	-0.013750183
205	0xbc7d678f	-0.015466585
206	0x3db72263	0.089421056
207	0x3c6c1ea0	0.014411598
208	0xbdd6184c	-0.10453853
209	0x3c9beb67	0.019033147
210	0xbd750d76	-0.05982729
211	0x3b89d697	0.0042064893
212	0xbcd0ccb5	-0.025488237
213	0xbc8ee09e	-0.01744109
214	0xbd3d3e81	-0.046202186
215	0xbc94bb88	-0.018155828
216	0xbc24df3d	-0.01006299
217	0x3db86fd5	0.09005705
218	0x3c203154	0.009777386
219	0xbd025e89	-0.031828437
220	0x3d19521d	0.037431825
221	0xbd4c81f9	-0.04992864
222	0xbc67ceee	-0.014148457
223	0xbd6cf7a9	-0.057853375
224	0x386c488e	5.6334356e-05
225	0xbbe92831	-0.007115387
226	0xbd04a699	-0.032385442
227	0xbcd23ada	-0.025662828
228	0xbc4876a8	-0.012235321
229	0xbd419652	-0.047262497
230	0xbb2e94c6	-0.002663897
231	0x3d834b33	0.064108275
232	0x3d44ddb7	0.048063006
233	0xbb5ee3f7	-0.003401039
234	0x3c72270c	0.014779817
235	0xbd05b695	-0.032644827
236	0xb9fd296b	-0.0004828678
237	0x3d0cb73e	0.03435444
238	0xbd3c95b5	-0.04604121
239	0xbc2379c6	-0.0099777635
240	0xbbd0641d	-0.0063595907
241	0x3d373b05	0.04473402
242	0xbcdd812b	-0.027039131
243	0x3c96b267	0.018395616
244	0x3d1cff82	0.03832961
245	0x3cd3a85d	0.025837118
246	0xbd0ae14e	-0.033906274
247	0x3c126b2b	0.008936684
248	0xbca7c97d	-0.02048182
249	0xbd8f852b	-0.07007822
250	0xbd7b8799	-0.061408613
251	0xbd28cbae	-0.04120987
252	0x3c05a3a2	0.008156689
253	0xbd3c7a9d	-0.04601537
254	0x3c4bc239	0.012436443
255	0x3b825411	0.0039773067

module.net_sm.layer2.0.bn1.weight f4 [32]
0	0x3f5aef35	0.8552125
1	0x3f5958c2	0.8490106
2	0x3f5c23b2	0.85991967
3	0x3f5b4b0a	0.85661376
4	0x3f5a2acb	0.85221547
5	0x3f57df7f	0.843254
6	0x3f60acef	0.87763876
7	0x3f5a5a35	0.85293895
8	0x3f5a4350	0.8525896
9	0x3f5845b8	0.8448138
10	0x3f53b3c5	0.8269618
11	0x3f6005ba	0.8750874
12	0x3f58fbf8	0.84759474
13	0x3f5821aa	0.8442637
14	0x3f5c4439	0.860416
15	0x3f5a2d5f	0.8522548
16	0x3f5bb061	0.8581601
17	0x3f556b90	0.8336725
18	0x3f5d81ef	0.8652639
19	0x3f5f9c21	0.8734761
20	0x3f5aad1f	0.8542041
21	0x3f5ce3f5	0.86285335
22	0x3f5c4b08	0.8605199
23	0x3f58acb4	0.84638524
24	0x3f652f7a	0.8952557
25	0x3f5951e4	0.8489058
26	0x3f60bfcc	0.8779266
27	0x3f5b5381	0.8567429
28	0x3f53a061	0.82666594
29	0x3f5a6f5c	0.8532617
30	0x3f5b46b2	0.8565475
31	0x3f6a3559	0.9148765

module.net_sm.layer2.0.bn1.bias f4 [32]
0	0xbc7112c4	-0.014713947
1	0xbb19bf11	-0.0023459832
2	0xba9b9dc2	-0.0011872577
3	0x398219bf	0.00024814715
4	0xbb4ee914	-0.003157203
5	0xbc6749aa	-0.014116684
6	0x3c876b33	0.016530609
7	0x3bee2a44	0.007268222
8	0xbce4d16d	-0.027931893
9	0xbce3e9e2	-0.027821485
10	0x3b5f01d8	0.0034028199
11	0x3c505ba6	0.012717163
12	0xbc9cd09f	-0.019142447
13	0xbc193ee8	-0.009353377
14	0xba19d217	-0.00058677926
15	0xbc3bebd7	-0.011469803
16	0x3ba5d937	0.0050612944
17	0x3c3223d9	0.010872805
18	0x3c20d6d1	0.009816841
19	0x3cabb44c	0.020959996
20	0x3a5afd09	0.0008353745
21	0x3cd943be	0.02652156
22	0x3c42c259	0.011887156
23	0xbbee90ed	-0.00728046
24	0x3d08f244	0.033434168
25	0xbcccace5	-0.024984786
26	0xbbbdf1f2	-0.0057966644
27	0xbc9d185b	-0.019176653
28	0xbb940000	-0.0045166016
29	0x3c86a305	0.016435156
30	0xbb218849	-0.0024647883
31	0xbc676b34	-0.01412468

module.net_sm.layer2.0.bn1.running_mean f4 [32]
0	0xc0b668f5	-5.700312
1	0xc0472b7b	-3.1120288
2	0xc0a268bc	-5.075285
3	0x4017ff27	2.3749483
4	0xc0bbaf98	-5.865185
5	0xc08419da	-4.1281557
6	0x3f774d21	0.96602064
7	0x406dd609	3.7161887
8	0x3f3de2e0	0.7417431
9	0xc031cd1e	-2.7781444
10	0x407d82ac	3.9611006
11	0x3f8ab165	1.0835387
12	0xbffe6759	-1.9875289
13	0x403cddd1	2.9510386
14	0xc03b0afb	-2.9225452
15	0xc07668c9	-3.8501456
16	0xbfecc99b	-1.8499025
17	0x4012f323	2.29609
18	0xc05cf5e9	-3.4525092
19	0x405fbaa2	3.4957662
20	0xc066a7ee	-3.6039996
21	0x408d67ba	4.418912
22	0x400d6bdd	2.2097085
23	0x3f9c13b0	1.2193508
24	0xbf29fe5a	-0.66403735
25	0x3fee518e	1.8618639
26	0x3e062a01	0.1310196
27	0xc04d2a60	-3.2057114
28	0x3fa70e65	1.3051268
29	0xc01e5936	-2.474195
30	0xc00f556e	-2.2395892
31	0x4060302e	3.5029407

module.net_sm.layer2.0.bn1.running_var f4 [32]
0	0x41b87875	23.058817
1	0x40e5f4cf	7.186134
2	0x416c3f1d	14.7654085
3	0x4117fdb3	9.499438
4	0x41eed48a	29.853779
5	0x411abba8	9.6708145
6	0x4050e2df	3.263847
7	0x415ddd35	13.866506
8	0x40a52e22	5.1618814
9	0x411d5048	9.8321
10	0x414912b3	12.567065
11	0x403806e3	2.8754203
12	0x407ddd9c	3.966651
13	0x410ec61e	8.923368
14	0x41014629	8.079629
15	0x41001eed	8.00755
16	0x40922b08	4.567753
17	0x4097b0b1	4.740319
18	0x41266ac6	10.401068
19	0x410b36a8	8.700844
20	0x41926c24	18.302803
21	0x411cf18a	9.8089695
22	0x407f0324	3.9845667
23	0x40671140	3.6104279
24	0x405717b7	3.3608224
25	0x40c76592	6.2311487
26	0x4093e9e4	4.622301
27	0x41172804	9.447269
28	0x409b670e	4.85633
29	0x4124a83f	10.291076
30	0x40a2a410	5.082527
31	0x40f2d683	7.5886855

module.net_sm.layer2.0.conv2.weight f4 [32, 32, 3, 3, 3]
0	0x3db313d8	0.08744019
1	0xbd2aab85	-0.04166748
2	0xbd2074cc	-0.039173886
3	0x3d2e8087	0.042603042
4	0xbca4f8a1	-0.020138087
5	0xbbe247d8	-0.006905537
6	0x3d21d839	0.039512847
7	0x3c2193d3	0.009861904
8	0x3d998bcd	0.07497368
9	0xbcf0cba0	-0.029393971
10	0x3c682e4d	0.014171195
11	0xbca1d55a	-0.019755054
12	0xbd8ccb2d	-0.0687469
13	0x3c808c85	0.015692005
14	0x3bde997f	0.0067932005
15	0xbd036cf6	-0.032086335
16	0xbd46b589	-0.04851297
17	0xbd8459b4	-0.06462422
18	0x3cb9dc13	0.022687947
19	0x3d3940c0	0.045227766
20	0x3cfc2487	0.030779136
21	0x3c79658c	0.015221965
22	0x3d61cded	0.055128027
23	0xbc9a8fe9	-0.01886745
24	0xbda7fbfd	-0.0820236
25	0x3c36c887	0.011156208
26	0x3bd619dd	0.006533845
27	0x3d083e14	0.033262327
28	0x3cbbf5c8	0.022944346
29	0x3d7cddbd	0.061734904
30	0xbab5265b	-0.0013820635
31	0x3d2f770a	0.042838134
32	0xbca604e6	-0.020266008
33	0xbd0d2a92	-0.034464426
34	0x3cac518d	0.02103498
35	0x3d5f584f	0.054527577
36	0xbd84de8a	-0.064877585
37	0x3cd30e56	0.025763672
38	0xbcb2aa8d	-0.02180984
39	0x3d2d8676	0.04236456
40	0xbd204f2e	-0.03913801
41	0x3d9df328	0.07712394
42	0xbcf7dc74	-0.030256487
43	0x3ca53c08	0.020170227
44	0xbd1f40b5	-0.03888007
45	0x3cf69b39	0.030103313
46	0xbc7e595e	-0.0155242365
47	0x3cfb3aeb	0.030667743
48	0xbc7e7f0a	-0.015533218
49	0xbcbe0e10	-0.023200065
50	0x3d1220e3	0.035675894
51	0x3c2ba894	0.010477204
52	0x3c774374	0.015091766
53	0x3cb10372	0.021608088
54	0xbd108bfa	-0.035289742
55	0x3d97708a	0.07394512
56	0x3d269fd1	0.040679757
57	0xbc94742e	-0.018121805
58	0x3ccb24c7	0.02479781
59	0xbd5bb6c4	-0.053641096
60	0x3d7e0b3b	0.06202243
61	0xbd00a337	-0.031405654
62	0x3cff053c	0.031130426
63	0xbdbbbd9b	-0.09167024
64	0xbc3353b0	-0.010945246
65	0xbba1122d	-0.004915497
66	0xbd3045f3	-0.04303546
67	0x3d361db3	0.044461917
68	0xba8e3ba6	-0.0010851517
69	0xbd627603	-0.055288326
70	0xbcd91b59	-0.026502298
71	0xbd2d1209	-0.042253528
72	0xbb6530e4	-0.0034971768
73	0x3cef6538	0.02922307
74	0xbb4fc426	-0.0031702607
75	0x3db723bb	0.08942362
76	0xbd3b19cc	-0.0456789
77	0xbce83f0d	-0.028350377
78	0xbd07b020	-0.03312695
79	0x3a878f6a	0.0010342423
80	0x3d8bc62f	0.0682491
81	0xbdb446f8	-0.08802599
82	0xbd10cbf0	-0.03535074
83	0xbcdec199	-0.027191924
84	0x3cb9e149	0.022690432
85	0x3b1edaf0	0.0024239384
86	0xbc588112	-0.0132143665
87	0x3b874203	0.0041277423
88	0xbd2562e8	-0.040377527
89	0x3d719631	0.058981124
90	0xbb32935a	-0.0027248473
91	0x3cf5aefb	0.029990664
92	0xbdb15979	-0.08659644
93	0xbbf77282	-0.007551492
94	0xbbb05ef4	-0.005382413
95	0x3d89e80b	0.06733712
96	0xbd0ed31b	-0.034869295
97	0xbd1d45da	-0.038396694
98	0x3ca9b00b	0.020713827
99	0x3c875004	0.016517647
100	0x3d96c7f0	0.07362354
101	0x3d007a32	0.031366535
102	0xbb84f938	-0.0040580295
103	0xbcbed76e	-0.023296084
104	0xbd8cde72	-0.068783656
105	0x3bb1d108	0.00542653
106	0xbc0b505c	-0.008503046
107	0xbd05cbb9	-0.03266499
108	0x3c65d901	0.014028789
109	0xbd1bce1e	-0.038038366
110	0xbcf1374e	-0.029445317
111	0x3b972600	0.0046126842
112	0xbd33908e	-0.04383903
113	0xbd83c610	-0.06434262
114	0x3d7f58b8	0.06234047
115	0xbd39f17f	-0.045396324
116	0x3cec7d4f	0.028868346
117	0xbd84f345	-0.064917125
118	0xbd5d4a01	-0.054025654
119	0xbd3094e5	-0.043110747
120	0x3d9e0c72	0.077172175
121	0x3d56b9c6	0.05242326
122	0x3d59b200	0.05314827
123	0xbd9487f6	-0.07252495
124	0x3dc5651d	0.096384265
125	0xbc6c54ca	-0.014424512
126	0x3c469f32	0.012122916
127	0x3c9d2662	0.019183341
128	0x3d9bf051	0.07614196
129	0x3cd6057b	0.02612566
130	0x3d867d6f	0.06566893
131	0xbb82f857	-0.0039968896
132	0x3bd7c40e	0.006584651
133	0x3d8657a4	0.06559685
134	0x3c92cd64	0.017920204
135	0xba8cd662	-0.0010745043
136	0xbb474cf4	-0.0030410858
137	0xbd933b97	-0.071891
138	0xbbbe9a12	-0.0058167065
139	0xbd41fd73	-0.04736085
140	0x3b252f0e	0.0025205049
141	0xbcb3c87f	-0.02194619
142	0x3d54c900	0.0519495
143	0x3d4bcc01	0.0497551
144	0x3d3c368f	0.04595047
145	0xbcacaee6	-0.021079492
146	0x3cff5bbf	0.031171678
147	0xbc68bee9	-0.014205673
148	0xbd8359c4	-0.06413606
149	0xbcd66e84	-0.026175745
150	0xbbab484a	-0.0052271234
151	0xbc9bf395	-0.019037047
152	0xbc7d851c	-0.01547363
153	0xba0e4f57	-0.00054286927
154	0x3c705778	0.014669292
155	0x3cb7c889	0.02243449
156	0x3d948f88	0.07253939
157	0xbc843185	-0.016136894
158	0xbd55e979	-0.05222461
159	0x3c81af4b	0.015830657
160	0xbcd21f42	-0.02564967
161	0x3ca7ffc9	0.02050771
162	0xbd895062	-0.06704785
163	0x3d056419	0.032566164
164	0xbd8d37f5	-0.068954386
165	0xbda30b89	-0.079611845
166	0x3d970e10	0.07375729
167	0xbd0e69dc	-0.034768924
168	0x3d04f1d0	0.032457173
169	0xbd98f463	-0.07468488
170	0x3cf093f7	0.02936743
171	0x3cc957fa	0.024578083
172	0xbcdb8d5a	-0.0268008
173	0xbcc1bf1e	-0.023650702
174	0x3c28cb69	0.010302403
175	0xbcb8f80f	-0.022579221
176	0xbd813177	-0.06308263
177	0x3d9b10ce	0.075715646
178	0xbe24e128	-0.16101515
179	0x3cb207f9	0.021732317
180	0xbd4ac5aa	-0.049504913
181	0xbd0b43ef	-0.034000333
182	0xbc701ee4	-0.014655802
183	0xbdb05e1e	-0.086117014
184	0xbd6d2878	-0.057899922
185	0x3a82532e	0.0009943002
186	0xbd709f5b	-0.058745723
187	0xbd289c57	-0.041164722
188	0x3d902803	0.07038882
189	0x3d4cc89d	0.049996007
190	0xbcc084b1	-0.023500772
191	0xbd252da3	-0.040326726
192	0xbc5a4b89	-0.013323673
193	0x3d21785e	0.03942143
194	0x3aa47068	0.0012545707
195	0xbd75aa4d	-0.059976865
196	0x3d2397c9	0.039939675
197	0xbc55b379	-0.013043278
198	0x3d45d936	0.04830285
199	0x3bac75a2	0.0052630464
200	0xbb461715	-0.003022616
201	0x3d28cc76	0.041210614
202	0xbd22e540	-0.03976941
203	0x3c7d0e4a	0.015445301
204	0xbd6d8417	-0.0579873
205	0x3aadc58e	0.0013257728
206	0xbd76a6a6	-0.060217522
207	0xbd25c701	-0.040472988
208	0x3c14503a	0.009052331
209	0x3bedc4ee	0.007256142
210	0xbd639b61	-0.055568103
211	0x3d0d71a4	0.034532204
212	0xbcec4be1	-0.028844776
213	0xbca0b87a	-0.019619215
214	0x3cf01af6	0.029309731
215	0xbb1c74ab	-0.002387325
216	0x3b8cc93f	0.0042964513
217	0x3d3e1b21	0.04641259
218	0x3ac88f1e	0.0015301441
219	0x3d55c195	0.052186567
220	0x3c9f011d	0.01940971
221	0xbbbdd525	-0.005793231
222	0xbd3ddc81	-0.046352867
223	0xbd355c72	-0.044277616
224	0x3c7b46b0	0.015336677
225	0x3cd0d83f	0.02549374
226	0xbbbf9827	-0.0058469954
227	0x3d9872ec	0.074437946
228	0xbd49d677	-0.049276795
229	0x3d1a30ad	0.037644077
230	0x3bd7d1b6	0.006586279
231	0xbd806c7f	-0.06270694
232	0xb9bdb5b8	-0.0003618428
233	0x3c05ed53	0.008174258
234	0x3d138741	0.03601766
235	0xbd3c9275	-0.04603811
236	0xba3d73ff	-0.00072270626
237	0xbc227aa3	-0.009916934
238	0xbd05a0c4	-0.03262402
239	0x3d1f128b	0.038836043
240	0x3d5edd9b	0.05441056
241	0xbbef1a29	-0.0072968197
242	0x3c1af092	0.0094567705
243	0xbbddafd6	-0.006765346
244	0xbc1a1e1f	-0.0094065955
245	0x3d87b23b	0.06625792
246	0x3cf47e48	0.029845372
247	0x3cc9232d	0.024552906
248	0x3d186107	0.037201907
249	0x3d3fcf17	0.046828356
250	0xbdc0733f	-0.093969814
251	0x3d228a89	0.0396829
252	0x3d086498	0.03329906
253	0x3c80c97d	0.015721077
254	0xbd6afa85	-0.05736782
255	0x3b25a601	0.0025275948

module.net_sm.layer2.0.bn2.weight f4 [32]
0	0x3f5ab2a1	0.85428816
1	0x3f5c24e5	0.85993797
2	0x3f551eeb	0.832503
3	0x3f52a62e	0.8228482
4	0x3f61e5db	0.88241357
5	0x3f570cd1	0.8400393
6	0x3f5b0975	0.85561305
7	0x3f627752	0.8846332
8	0x3f3958be	0.72401035
9	0x3f5a7b35	0.8534425
10	0x3f5fd425	0.8743308
11	0x3f5c06aa	0.8594767
12	0x3f618109	0.8808752
13	0x3f59267c	0.8482435
14	0x3f5dbe84	0.8661883
15	0x3f6463e8	0.89214945
16	0x3f616b02	0.88053906
17	0x3f4cb5b6	0.7996477
18	0x3f5cfb2a	0.86320746
19	0x3f613b9f	0.879816
20	0x3f5e6c62	0.8688413
21	0x3f5d8409	0.86529595
22	0x3f61f038	0.8825717
23	0x3f66c9e4	0.9015181
24	0x3f5d5c2b	0.8646876
25	0x3f5b62d7	0.8569769
26	0x3f5b14a2	0.8557836
27	0x3f47e87b	0.7808911
28	0x3f599ebf	0.8500785
29	0x3f5aed85	0.85518676
30	0x3f5c6466	0.86090696
31	0x3f59c112	0.85060227

module.net_sm.layer2.0.bn2.bias f4 [32]
0	0xbc8fd9a6	-0.017559838
1	0x3c528c2c	0.012850802
2	0x3c3e97dc	0.011632886
3	0xbc9e79e2	-0.019345228
4	0xbb99e42f	-0.004696391
5	0x3c2e4b62	0.01063809
6	0xbc19123f	-0.009342729
7	0x3b993ca6	0.0046764193
8	0xbd828130	-0.06372297
9	0x3ce86159	0.028366731
10	0x3cde540e	0.02713969
11	0x3cfdd9a4	0.030987568
12	0xbcafadc5	-0.021445164
13	0xbce0d5de	-0.02744573
14	0x3cfcd23e	0.03086197
15	0xbd6b4041	-0.057434324
16	0x3c8d247b	0.01722931
17	0xbc8ee86d	-0.017444814
18	0xbc9e0a74	-0.019292094
19	0xbb243450	-0.0025055595
20	0x3cb3c15d	0.021942789
21	0x3c39ecc3	0.011347952
22	0x3c96e410	0.018419296
23	0x3b149241	0.0022670182
24	0xbc32011b	-0.010864521
25	0x3b6b8823	0.0035939298
26	0xbd1c58ee	-0.038170747
27	0xbd5ea90d	-0.05436044
28	0x3ca0f2b2	0.019646976
29	0x3b3b9f61	0.0028628933
30	0xbcb74ea6	-0.02237637
31	0x398f2083	0.0002729931

module.net_sm.layer2.0.bn2.running_mean f4 [32]
0	0xbf65a609	-0.89706475
1	0xbf18207c	-0.5942457
2	0xbf5f49f9	-0.8722225
3	0xbf7ec9b4	-0.99526525
4	0xbdca41f7	-0.09875863
5	0xbf297d28	-0.662066
6	0xbe6947d7	-0.22781311
7	0xbec98f2e	-0.3936705
8	0xbd15b92a	-0.03655354
9	0xbe32bf6d	-0.17455836
10	0xbd0495b9	-0.03236935
11	0xbf88d459	-1.0689803
12	0x3f9c3162	1.220257
13	0xbeb004cc	-0.3437866
14	0xbf62e7f6	-0.88635194
15	0xbf655409	-0.8958135
16	0xbf90a3aa	-1.1299946
17	0x3f997507	1.1988839
18	0xbf4f4eb5	-0.8097947
19	0x3eaedcd0	0.34152842
20	0xbfac2b0a	-1.3450634
21	0xbf72f07f	-0.9489822
22	0xbf92432f	-1.1426753
23	0xbf285f0b	-0.65770024
24	0x3e9b5813	0.30340633
25	0xbebdcc8c	-0.3707012
26	0xbf1731eb	-0.59060544
27	0x3eb5c652	0.3550287
28	0xbf34d62a	-0.7063929
29	0x3b15c73f	0.0022854356
30	0xbf7ff7af	-0.9998731
31	0xbf159ce3	-0.58442515
