model/model_20201014151312/model_final_mb6_4_0300_sm.pth (torch_old, 974091 bytes, 68 tensors)

module.net_sm.conv1.weight f4 [32, 1, 7, 7, 7]
0.03169817 -0.0022312375 -0.01104143 0.024361884 0.058332447 -0.03968282 0.022863127 0.015820263
0.012934318 -0.019754304 -0.015657457 0.019220656 -0.018188652 -0.009299981 -0.019605258 0.013453548
-0.005733153 -0.042297583 -0.02209327 0.014864153 0.0195061 -0.043256205 -0.025481943 -0.004647815
-0.00011077816 0.0110489465 0.04248792 0.0638202 0.0009499138 0.0468735 0.03958627 0.0010363609
-0.006209252 0.0063603725 0.0566328 -0.015925806 0.035866864 0.043536235 -0.030550154 0.023869852
0.03681548 0.010290741 0.05027996 0.0491274 0.046620145 -0.036717854 0.0156865 0.0026780164
-0.023720821 0.048086893 0.005214261 -0.002033943 0.011659892 0.03726518 0.01251872 0.04337731
0.014828546 -0.016778018 -0.009352839 0.010639974 0.032806456 -0.010483436 -0.017858645 -0.04678274
-0.03141281 -0.017553475 -0.008027489 -0.027078616 -0.026845025 -0.00655298 0.02139535 -0.007177949
0.0134999985 -0.020276384 -0.013245362 0.016364576 0.011811551 -0.0062691825 0.020244386 0.03417959
0.017349184 -0.0173438 -0.013457223 0.017249655 -0.0034829394 0.0041448087 -0.006703027 -0.029999053
0.047501694 0.061532456 0.04447715 0.046465334 0.014190393 -0.011347562 -0.009194922 0.046966996
0.069554545 0.03595837 -0.017252615 -0.05555946 -0.060444083 -0.012781251 0.018517988 -0.009992261
0.0067231413 -0.026028283 -0.053504504 -0.048639223 -0.0014859204 0.027560234 -0.0017992606 0.02299376
-0.010382775 0.020265132 -0.004057329 0.005141191 0.02225613 -0.0006043817 0.038949315 0.0021322558
0.010307468 -0.014448369 -0.020863382 0.010480874 -0.01633166 0.002953387 0.008886457 0.0084250625
-0.041450415 -0.024824316 -0.018366912 -0.03699612 -0.023303295 -0.0017052933 -0.038001016 -0.038168114
-0.031723816 0.019989105 0.0070954636 -0.03880251 -0.001917436 -0.031215496 0.010952042 -0.008855108
0.051678963 0.07041739 0.020583343 0.013746138 -0.013594143 0.005786505 0.01218394 0.0038015554
-0.042616308 0.010797706 0.046072703 0.055193957 0.006132482 -0.012901224 0.011052198 -0.04982919
-0.02190747 0.051699717 0.06648954 0.044971682 0.023734143 0.023676982 -0.013047892 0.0145399645
-0.028484866 -0.0141655225 -0.007992889 0.02709837 0.027753582 0.0029683348 -0.0009753916 0.016260324
-0.058260612 -0.027850987 0.012793025 0.0087581845 0.014996828 -0.024068644 -0.011750202 -0.02232964
0.040148612 -0.019890126 -0.0059385723 0.016485922 -0.005698188 -0.051648725 -0.03585469 0.03287959
0.03667287 0.002977088 0.04543503 0.012523566 -0.009835226 -0.009571878 -0.0027214321 -0.016329138
0.011149902 0.0065843076 0.0429966 0.015150654 -0.02674367 -0.027405333 -0.041768413 -0.0028484801
0.01818855 -0.010668753 0.031265754 0.02469463 0.008431111 -0.011983774 -0.014321059 0.029365765
0.017234141 0.004291242 -0.0076974267 0.00028858276 0.010457008 0.018003691 0.011554934 0.008236302
-0.0034140418 -0.0060932785 -0.0030029186 -0.005451517 0.030022362 0.03831814 -0.0017967237 -0.00036947173
0.017614212 0.004221899 -0.028776607 0.02356061 0.013061358 -0.018209584 0.004494013 -0.009513422
0.030732615 0.011492938 0.009347041 0.04295297 0.03024779 0.04224111 -0.011578875 -0.018349404
-0.012021922 0.0071635256 -0.022040352 0.0050895456 0.00038867904 -0.021144869 -0.016251946 -0.026491161
00000000: f1d5 013d f439 12bb 1de7 34bc 9392 c73c
00000010: 01ee 6e3d 748a 22bd 744b bb3c 7f99 813c
00000020: 76ea 533c c7d3 a1bc 1144 80bc a374 9d3c
00000030: 5e00 95bc f35e 18bc 359b a0bc 456c 5c3c
00000040: 2cdd bbbb 3b40 2dbd f2fc b4bc c788 733c
00000050: 42cb 9f3c 6b2d 31bd 82bf d0bc b34c 98bb
00000060: 9251 e8b8 a406 353c d007 2e3d 2ab4 823d
00000070: a303 793a 6dfe 3f3d 3625 223d 80d6 873a
00000080: fb76 cbbb ac6a d03b cbf7 673d d676 82bc
00000090: 22e9 123d 0d53 323d 5144 fabc b58a c33c
000000a0: d4cb 163d 7f9a 283c 5cf2 4d3d d039 493d
000000b0: c4f4 3e3d 7665 16bd fa80 803c a981 2f3b
000000c0: 2b52 c2bc c3f6 443d 64dc aa3b e74b 05bb
000000d0: 2209 3f3c 60a3 183d 511b 4d3c 68ac 313d
000000e0: 6ef3 723c 0e72 89bc a63c 19bc 4953 2e3c
000000f0: 1060 063d b8c2 2bbc 4b4c 92bc 429f 3fbd
00000100: b8aa 00bd 4ecc 8fbc bb85 03bc f9d3 ddbc
00000110: 19ea dbbc 61ba d6bb 4d45 af3c 0035 ebbb
00000120: 192f 5d3c a91a a6bc 1303 59bc 010f 863c
00000130: 3c85 413c b76d cdbb 8ed7 a53c e6ff 0b3d
00000140: e01f 8e3c 9614 8ebc af7b 5cbc 264f 8d3c
00000150: 0742 64bb 2dd1 873b 11a5 dbbb 93c0 f5bc
00000160: 2391 423d 7509 7c3d ac2d 363d 6f52 3e3d
00000170: d27e 683c 20eb 39bc 4ca6 16bc 7760 403d
00000180: 9d72 8e3d 1549 133d 5b55 8dbc 5192 63bd
00000190: 3794 77bd 7468 51bc 09b3 973c 95b6 23bc
000001a0: cc4d dc3b 4439 d5bc 8a27 5bbd ec39 47bd
000001b0: 37c3 c2ba 00c6 e13c 2bd5 ebba 695d bc3c
000001c0: 841c 2abc 1003 a63c 58f3 84bb 7077 a83b
000001d0: 7d52 b63c 5f6f 1eba 5189 1f3d 51bd 0b3b
000001e0: a7e0 283c dab8 6cbc afe9 aabc f9b7 2b3c
000001f0: f9c9 85bc 9d8d 413b 8198 113c 4609 0a3c
00000200: e9c7 29bd 5d5c cbbc 3576 96bc 3e89 17bd
00000210: 8de6 bebc 2684 dfba f4a6 1bbd 2b56 1cbd
00000220: d5f0 01bd 31c0 a33c 1081 e83b 61ef 1ebd
00000230: 7a52 fbba a4b7 ffbc 3270 333c 0415 11bc
00000240: 52ad 533d fe36 903d 669e a83c 7b37 613c
00000250: f8b9 5ebc b99c bd3b 269f 473c 8423 793b
00000260: 708e 2ebd dde8 303c bbb6 3c3d 0f13 623d
00000270: fdf2 c83b a85f 53bc 4714 353c b119 4cbd
00000280: 4b77 b3bc 15c3 533d ab2b 883d 3a34 383d
00000290: 1b6e c23c 3bf6 c13c d3c6 55bc 0839 6e3c
000002a0: 1859 e9bc 8216 68bc 9bf4 02bc 67fd dd3c
000002b0: 7b5b e33c 6588 423b 6cb1 7fba 5f34 853c
000002c0: aea2 6ebd c127 e4bc d699 513c 7d7e 0f3c
000002d0: 41b5 753c 9b2b c5bc eb83 40bc a6ec b6bc
000002e0: df72 243d 9ef0 a2bc 5b98 c2bb 7c0d 873c
000002f0: deb7 babb 9d8d 53bd 5edc 12bd c0ac 063d
00000300: 4b36 163d 401b 433b 151a 3a3d a52f 4d3c
00000310: ee23 21bc 5ed3 1cbc 0e5a 32bb afc4 85bc
00000320: 14ae 363c 2dc1 d73b 341d 303d 733a 783c
00000330: 8b15 dbbc 2681 e0bc 5b15 2bbd 91ad 3abb
00000340: 2700 953c fecb 2ebc 8510 003d 654c ca3c
00000350: a522 0a3c 9757 44bc e0a2 6abc 7990 f03c
00000360: 9d2e 8d3c 8c9d 8c3b b23a fcbb ec4c 9739
00000370: df53 2b3c 7a7c 933c e850 3d3c 8ef1 063c
00000380: 1ebe 5fbb 20aa c7bb 9dcc 44bb a4a2 b2bb
00000390: 75f1 f53c 7bf3 1c3d 0b80 ebba a8b5 c1b9
000003a0: ae4b 903c db57 8a3b ebbc ebbc 2e02 c13c
000003b0: 4eff 553c 442c 95bc 8342 933b 2fde 1bbc
000003c0: f7c2 fb3c e04c 3c3c 5524 193c 74ef 2f3d
000003d0: 37ca f73c 0405 2d3d 52b5 3dbc 7d51 96bc
000003e0: 98f7 44bc 02bc ea3b f88d b4bc 34c6 a63b
000003f0: 9ec7 cb39 0138 adbc cd22 85bc fe03 d9bc

module.net_sm.bn1.weight f4 [32]
0.8378207 0.8182788 0.9435782 0.915377 0.87374115 0.8726266 0.8690821 0.8371174
0.87190187 0.8264891 0.9224154 0.84851336 0.8926323 0.8944704 0.88152874 0.88880223
0.80901814 0.883508 0.83318824 0.87369365 0.8545916 0.858427 0.9194342 0.90950495
0.8766029 0.9056108 0.86405116 0.8371229 0.8229045 0.845451 0.8817944 0.8593486
00000000: 6b7b 563f b87a 513f 578e 713f 2656 6a3f
00000010: 80ad 5f3f 7564 5f3f 2a7c 5e3f 534d 563f
00000020: f634 5f3f ca94 533f 6a23 6c3f 2c38 593f
00000030: 8d83 643f 03fc 643f deab 613f 8b88 633f
00000040: d01b 4f3f 952d 623f d34b 553f 63aa 5f3f
00000050: 84c6 5a3f dfc1 5b3f 0a60 6b3f 51d5 683f
00000060: 0c69 603f 1cd6 673f 7532 5d3f b04d 563f
00000070: dfa9 523f 7a6f 583f 47bd 613f 45fe 5b3f

module.net_sm.bn1.bias f4 [32]
-0.0031536568 -0.0090513695 0.03059009 -0.014077464 0.009582934 0.0030471396 -0.008187233 0.008171931
0.009615172 0.0035161078 0.009722162 0.006009822 0.0017901196 0.013716118 0.016328525 0.003647766
-0.024306467 0.0026992916 0.0057397303 0.002419757 0.002686329 -0.028515449 0.0011561449 -0.001185874
-0.018411024 0.003070234 0.0054063513 -0.024384998 0.0027849847 -0.008983738 0.013369892 -0.0012909718
00000000: 95ad 4ebb 324c 14bc 1298 fa3c 2aa5 66bc
00000010: bd01 1d3c 85b2 473b be23 06bc 90e3 053c
00000020: f488 1d3c 806e 663b b449 1f3c 0aee c43b
00000030: 72a2 ea3a 92b9 603c 66c3 853c 5c0f 6f3b
00000040: 5b1e c7bc 99e6 303b 5914 bc3b c994 1e3b
00000050: 1f0d 303b 3b99 e9bc c989 973a 546f 9bba
00000060: b7d2 96bc fb35 493b c327 b13b 0cc3 c7bc
00000070: 4a84 363b 8730 13bc 640d 5b3c d335 a9ba

module.net_sm.bn1.running_mean f4 [32]
-3.3916954e-06 -2.3497876e-05 -6.790956e-06 2.2923079e-05 -6.4350857e-06 -9.854992e-07 4.9063974e-06 -7.777536e-06
-1.0684961e-05 1.4690538e-05 -1.5190187e-07 7.85359e-06 -5.250601e-06 2.5119416e-06 3.1724453e-06 -1.9169127e-05
2.7607668e-05 9.027016e-06 -1.2839688e-05 -2.1901484e-05 -1.0158054e-05 9.277818e-06 2.167298e-05 6.7054866e-06
1.6818359e-06 -1.4025665e-06 -5.766963e-06 1.3304695e-05 -1.5593563e-05 -6.5088916e-06 -1.4662215e-05 3.459118e-06
00000000: e29c 63b6 4e1d c5b7 dedd e3b6 f04a c037
00000010: f7ec d7b6 7f45 84b5 a2a1 a436 437c 02b7
00000020: 8f43 33b7 6177 7637 781a 23b4 eac2 0337
00000030: 522e b0b6 d492 2836 32e6 5436 63cd a0b7
00000040: 0497 e737 bd72 1737 0a6a 57b7 14b9 b7b7
00000050: 826c 2ab7 eda7 1b37 5fce b537 b1ff e036
00000060: 71bb e135 d13f bcb5 d681 c1b6 3b37 5f37
00000070: ecce 82b7 f466 dab6 bcfd 75b7 3223 6836

module.net_sm.bn1.running_var f4 [32]
0.0017799021 0.0033490441 0.003788161 0.006781068 0.0029361502 0.0024871947 0.0028334805 0.0021028945
0.002655048 0.002251978 0.0038121126 0.0025971895 0.0018152047 0.0034421782 0.0035962742 0.0017285559
0.0033772814 0.0028796003 0.003534783 0.003317547 0.0024903596 0.0027515264 0.0030397181 0.002922655
0.004397384 0.0033397374 0.0021942232 0.0043894104 0.0018117584 0.002517005 0.0040286398 0.002007657
00000000: 9b4b e93a a37b 5b3b cc42 783b b933 de3b
00000010: 6d6c 403b 3400 233b eab1 393b b7d0 093b
00000020: 5000 2e3b ec95 133b a3d4 793b 9c35 2a3b
00000030: 2aec ed3a 2b96 613b 78af 6b3b b690 e23a
00000040: 6155 5d3b adb7 3c3b d1a7 673b 346b 593b
00000050: 4d35 233b f452 343b 0236 473b 048a 3f3b
00000060: ee17 903b 7fdf 5a3b f5cc 0f3b 0bd5 8f3b
00000070: 8678 ed3a 56f4 243b ae02 843b e592 033b

module.net_sm.layer1.0.conv1.weight f4 [32, 32, 3, 3, 3]
-0.018201256 -0.009678692 -0.027190015 0.0015322673 -0.0115922345 -0.05501516 0.0022539902 0.053260382
0.052272163 0.014659795 0.04187456 -0.013779585 -0.026156185 0.05940809 -0.06716166 -0.089375146
0.062881164 0.0122261625 0.023194281 0.07073088 -0.06489652 0.01862036 0.0006867569 -0.03129038
-0.039165597 -0.015184877 0.067853905 0.037677962 0.02191603 0.017240524 -0.03256844 -0.0115773585
-0.020581767 -0.075420514 -0.019215578 0.03393004 -0.06722393 -0.029763756 -0.014262904 -0.013852271
-0.05444367 -0.0073223487 0.025958966 0.035954975 0.002296244 0.074500516 -0.002309549 0.015116112
-0.03740484 -0.0187536 0.029975347 -0.035784632 -0.02589487 -0.02101191 -0.02183619 0.010299598
-0.009640407 0.0033185834 0.024146123 -0.022650646 0.04782082 0.081441596 0.015046951 0.026926033
-0.009964259 0.03343878 -0.028186653 -0.08511328 0.0042115035 0.024408782 0.05116127 0.093312316
0.079391025 0.014764091 -0.019840144 -0.042991873 0.06965342 0.008831914 -0.027703611 0.012907085
-0.02966396 -0.029133098 -0.06946514 0.005425571 0.026602201 -0.037911832 0.015948894 0.003998448
-0.020859253 0.07096467 0.009451756 0.01726803 0.0012426095 -0.016703274 -0.04433419 0.036345106
-0.04526787 -0.006207834 -0.043399964 0.07500703 0.053732783 -0.051843565 -0.04749561 -0.025510643
0.055353377 0.0063848924 0.008175233 -0.037653662 0.044940937 0.038292002 -0.01844119 -0.01652446
0.066684194 0.019194348 -0.0029652216 0.043705948 -0.022835022 -0.050204393 -0.043599244 0.025862202
-0.01406447 0.043232646 0.06617475 -9.8852885e-05 0.016412428 -0.016716296 -0.03765663 0.0065107387
-0.02485896 0.06986111 -0.050732482 -0.015056144 -0.046341337 0.012969683 -0.03030389 0.03709532
-0.0027710367 0.052722473 0.042791963 -0.033927076 0.004741825 0.050498523 -0.016247375 0.02901468
0.0021369003 0.041927088 -0.0071185213 -0.072910815 -0.034986056 0.021065906 0.010718974 -0.10190622
-0.06230807 -0.046106823 -0.07230429 0.011152649 0.0050609536 0.022513736 -0.018824747 0.010495407
0.024758654 -0.027568685 -0.08206736 -0.03687166 -0.04814077 -0.010256711 -0.027984612 -0.024090884
0.05178988 -0.022589043 -0.052076027 0.030637091 0.042437766 0.0043654386 0.0999995 0.06063745
-0.01918652 0.026612595 0.06603418 -0.04566679 -0.05570379 0.023957664 -0.010457545 -0.03527412
0.002557192 0.078379005 0.026350783 -0.055738747 0.060014788 -0.03934744 0.009400144 0.03463112
0.0011916094 0.046550125 0.00046755737 -0.07703822 0.0014247526 -0.023069218 -0.0061507365 -0.021513237
-0.02884928 0.03818988 0.06427314 0.009707126 -0.06357682 0.047525704 0.0014602713 -0.052469756
-0.06352732 0.008854545 0.017168703 0.001249522 -0.01953725 -0.07899096 -0.018820975 0.047018506
-0.018854747 -0.09252122 -0.03115231 -0.080464534 0.067515075 0.009362395 -0.021971567 0.038568277
-0.07650696 0.0032787565 0.032208797 -0.03352215 0.07262901 0.077544466 -0.019952165 0.05067275
0.036809172 -0.014335603 0.06570127 0.03502675 0.071028695 -0.008535522 0.051211018 0.036834683
0.009055843 0.07150969 -0.012385161 0.010420636 -0.048672166 0.038429245 -0.016000906 -0.026994102
-0.029512415 -0.013326124 0.049607586 -0.0007535188 -0.09775819 -0.016728837 0.041430496 -0.0052038413
00000000: cd1a 95bc 6093 1ebc 98bd debc 5cd6 c83a
00000010: 5bed 3dbc 9457 61bd aeb7 133b 8f27 5a3d
00000020: 561b 563d a32f 703c a984 2b3d c5c3 61bc
00000030: 7f45 d6bc e655 733d 0d8c 89bd 510a b7bd
00000040: d7c7 803d 3e50 483c ef01 be3c 5adb 903d
00000050: 77e8 84bd ba89 983c 7a07 343a 572a 00bd
00000060: 1b6c 20bd fec9 78bc fdf6 8a3d 3554 1a3d
00000070: 3f89 b33c 003c 8d3c 7c66 05bd f6ae 3dbc
00000080: 189b a8bc 1276 9abd fd69 9dbc 3afa 0a3d
00000090: b3ac 89bd 1fd3 f3bc f5ae 69bc a3f4 62bc
000000a0: 5300 5fbd 50f0 efbb e6a7 d43c 8645 133d
000000b0: 957c 163b ba93 983d cd5b 17bb 92a9 773c
000000c0: d135 19bd 26a1 99bc dc8e f53c e892 12bd
000000d0: 7a21 d4bc 2b21 acbc cfe1 b2bc a5bf 283c
000000e0: ccf2 1dbc 977c 593b 17ce c53c d98d b9bc
000000f0: c4df 433d daca a63d 7d87 763c fc93 dc3c
00000100: 2241 23bc 1af7 083d b2e7 e6bc df4f aebd
00000110: a700 8a3b edf4 c73c 7b8e 513d 871a bf3d
00000120: c397 a23d 16e5 713c cc87 a2bc 3f18 30bd
00000130: 74a6 8e3d bbb3 103c aff2 e2bc 3d78 533c
00000140: d501 f3bc 89a8 eebc bd43 8ebd fdc8 b13b
00000150: dcec d93c 7049 1bbd 41a7 823c 6a05 833b
00000160: 06e1 aabc ed55 913d 8adb 1a3c af75 8d3c
00000170: 0edf a23a 4ed5 88bc c597 35bd 9bde 143d
00000180: cd6a 39bd 166b cbbb 29c4 31bd 499d 993d
00000190: e816 5c3d eb59 54bd c28a 42bd b2fb d0bc
000001a0: 39ba 623d 5c38 d13b 6af1 053c ba3a 1abd
000001b0: fd13 383d 13d8 1c3d fa11 97bc 4e5e 87bc
000001c0: b991 883d 773d 9d3c 2a54 42bb 0205 333d
000001d0: 8310 bbbc 1fa3 4dbd 1f95 32bd f8dc d33c
000001e0: aa6e 66bc b714 313d a186 873d 3d4f cfb8
000001f0: 5b73 863c 9df0 88bc d73d 1abd 0958 d53b
00000200: 05a5 cbbc 5713 8f3d ddcc 4fbd 0cae 76bc
00000210: 6ad0 3dbd cb7e 543c dd3f f8bc 43f1 173d
00000220: 489a 35bb 85f3 573d a046 2f3d 1ef7 0abd
00000230: 5061 9b3b 8ad7 4e3d 3719 85bc 32b0 ed3c
00000240: 3d0b 0c3b bdbb 2b3d 7c42 e9bb 4452 95bd
00000250: 8a4d 0fbd 6892 ac3c a39e 2f3c 35b4 d0bd
00000260: bf36 7fbd 82da 3cbd 4614 94bd 9ab9 363c
00000270: 5bd6 a53b ba6e b83c 5b36 9abc edf4 2b3c
00000280: a9d2 ca3c b9d7 e1bc ef12 a8bd bd06 17bd
00000290: 422f 45bd c40b 28bc fc3f e5bc 3f5a c5bc
000002a0: a021 543d a80c b9bc ac4d 55bd a3fa fa3c
000002b0: 39d3 2d3d f40b 8f3b 8acc cc3d fa5e 783d
000002c0: 0c2d 9dbc a802 da3c ee3c 873d 1a0d 3bbd
000002d0: a829 64bd dd42 c43c 1f56 2bbc 987b 10bd
000002e0: 9096 273b 2c85 a03d 99dd d73c 504e 64bd
000002f0: 11d2 753d c82a 21bd 1003 1a3c 5cd9 0d3d
00000300: c72f 9c3a 58ab 3e3d 7d22 f539 37c6 9dbd
00000310: c4be ba3a a8fb bcbc 1e8c c9bb 873c b0bc
00000320: 5355 ecbc fe6c 1c3d a3a1 833d a30a 1f3c
00000330: 9034 82bd 50aa 423d 9366 bf3a 87ea 56bd
00000340: 9d1a 82bd a712 113c 61a5 8c3c 00c7 a33a
00000350: 950c a0bc 03c6 a1bd 722e 9abc 7a96 403d
00000360: 4575 9abc c47b bdbd 2133 ffbc 97ca a4bd
00000370: 5845 8a3d bb64 193c b7fd b3bc c5f9 1d3d
00000380: aeaf 9cbd 68e0 563b 5fed 033d 864e 09bd
00000390: 85be 943d a2cf 9e3d b972 a3bc 3b8e 4f3d
000003a0: 37c5 163d e1df 6abc 638e 863d 3678 0f3d
000003b0: 7e77 913d 93d8 0bbc a5c2 513d f7df 163d
000003c0: f55e 143c ac73 923d 21eb 4abc 51bb 2a3c
000003d0: 775c 47bd fc67 1d3d 5514 83bc bc22 ddbc
000003e0: 05c4 f1bc d155 5abc 5331 4b3d ca87 45ba
000003f0: 7235 c8bd ea0a 89bc 06b3 293d fc84 aabb

module.net_sm.layer1.0.bn1.weight f4 [32]
0.84532243 0.8559839 0.85230595 0.8418817 0.8457692 0.8764257 0.83154243 0.8985062
0.8705474 0.8635926 0.8352709 0.8428105 0.8518802 0.87197345 0.8678498 0.87737095
0.89607865 0.8583174 0.87120944 0.83044153 0.8329415 0.8584509 0.8495577 0.8442069
0.87054825 0.8353299 0.85100484 0.87608117 0.8633081 0.8563204 0.8719258 0.8639762
00000000: 0d67 583f c321 5b3f b930 5a3f 8f85 573f
00000010: 5584 583f 6f5d 603f f7df 543f 8104 663f
00000020: 32dc 5e3f 6814 5d3f 50d4 553f 6ec2 573f
00000030: d214 5a3f a739 5f3f 682b 5e3f 629b 603f
00000040: 6965 653f b0ba 5b3f 9507 5f3f d197 543f
00000050: a73b 553f 70c3 5b3f 9d7c 593f f21d 583f
00000060: 40dc 5e3f 2ed8 553f 74db 593f db46 603f
00000070: c201 5d3f d037 5b3f 8736 5f3f 8b2d 5d3f

module.net_sm.layer1.0.bn1.bias f4 [32]
-0.0195794 0.05298287 -0.0072414917 -0.016009932 -0.012475754 0.016379453 0.011830972 0.022558272
0.026618734 0.023238555 0.003243992 0.015693191 0.010352061 0.019128585 0.0068721417 0.03218976
-0.060663268 0.004043862 0.052568458 -0.0008546891 -0.02345393 0.053274363 -0.015965927 -0.009685656
0.02207337 -0.004071902 -0.022399452 0.008844412 0.0031136624 0.0033689006 0.04253538 -0.001262992
00000000: fa64 a0bc 9104 593d 094a edbb 4327 83bc
00000010: 1b67 4cbc 342e 863c b1d6 413c 20cc b83c
00000020: 880f da3c c85e be3c 2899 543b 028f 803c
00000030: b19b 293c 8db3 9c3c b42f e13b 69d9 033d
00000040: 0c7a 78bd 6082 843b 0652 573d 370d 60ba
00000050: 7522 c0bc 3836 5a3d faca 82bc 96b0 1ebc
00000060: 36d3 b43c 976d 85bb 0e7f b7bc 27e8 103c
00000070: 960e 4c3b c6c8 5c3b 9439 2e3d fb8a a5ba

module.net_sm.layer1.0.bn1.running_mean f4 [32]
-0.2205821 1.4539843 1.4140059 2.222208 -0.15543978 -2.8802242 2.2893896 1.0396041
1.2007288 2.2205935 3.9918177 2.5344186 1.2290497 1.7788352 2.484917 1.8543923
-4.374662 -2.0958648 2.9813454 1.0161369 1.7192024 3.0966415 -3.806014 -1.9735541
-1.3832339 2.049855 -1.7848889 1.5025597 -1.6020055 -0.97038317 -3.180187 1.2219567
00000000: 46e0 61be 281c ba3f 25fe b43f a838 0e40
00000010: 9b2b 1fbe 9855 38c0 5c85 1240 bf11 853f
00000020: 7bb1 993f 341e 0e40 f179 7f40 ea33 2240
00000030: 8051 9d3f dfb0 e33f e108 1f40 ba5c ed3f
00000040: 3bfd 8bc0 a622 06c0 5dce 3e40 c610 823f
00000050: d30e dc3f 602f 4640 bc95 73c0 6c9d fcbf
00000060: cf0d b1bf d330 0340 3d77 e4bf e053 c03f
00000070: 840e cdbf 086b 78bf 2f88 4bc0 1469 9c3f

module.net_sm.layer1.0.bn1.running_var f4 [32]
1.7100971 3.3010843 3.817289 6.706624 3.467817 10.453826 6.697747 4.163391
3.4674244 6.767834 16.1023 7.1687145 4.2103944 4.7354784 7.3118896 4.913017
24.524729 4.9299145 9.794279 3.4638762 3.6341588 10.415641 14.2958555 4.6056657
5.7661457 5.2343125 4.57949 3.5887718 3.0005536 1.8956814 11.1310425 5.836185
00000000: 76e4 da3f f744 5340 774e 7440 aa9c d640
00000010: b7f0 5d40 df42 2741 f253 d640 803a 8540
00000020: 48ea 5d40 1992 d840 83d1 8041 1c66 e540
00000030: 8dbb 8640 0a89 9740 00fb e940 6f37 9d40
00000040: a532 c441 dcc1 9d40 5eb5 1c41 26b0 5d40
00000050: 0f96 6840 77a6 2641 d3bb 6441 9d61 9340
00000060: 4484 b840 7d7f a740 2f8b 9240 70ae 6540
00000070: 1209 4040 b0a5 f23f c018 3241 07c2 ba40

module.net_sm.layer1.0.conv2.weight f4 [32, 32, 3, 3, 3]
0.030742522 0.02453421 -0.011650068 -0.006970708 0.11591496 0.0462594 0.0052467817 0.042071093
-0.007858662 -0.0266309 -0.027406259 -0.04292828 0.063941956 0.08113955 -0.008398203 -0.06402994
0.0036213305 0.01640366 -0.0012872181 -0.0065725823 -0.057722364 -0.062126566 0.018858263 0.025613261
0.028372392 0.052466374 -0.07675704 0.019691093 -0.03594788 -0.013435387 -0.1176325 -0.015216336
-0.022805106 0.0027293526 -0.008708826 -0.031642303 -0.032067273 -0.04318836 0.014608961 -0.014303946
-0.012425525 0.04650106 0.08775744 0.026092943 -0.010236435 -0.0060666157 -0.0869968 -0.06150271
0.042104237 -0.034283604 -0.021243023 -0.01725059 0.0021709881 -0.06310284 -0.013643765 0.015970841
0.03867126 -0.019917188 0.04939094 0.071832955 0.022019662 0.058752093 -0.005587086 -0.014626076
0.00015754171 0.060409985 0.014519312 0.031220151 -0.019703485 -0.084866285 -0.04564171 0.016071212
0.011374823 0.040835533 -0.0010356648 0.04905028 -0.035600517 0.0672525 -0.035826623 -0.108364
0.002370597 -0.0018652256 0.022862084 0.06920431 0.05663348 -0.010215512 0.048410878 -0.03665054
-0.009247488 0.032486837 0.008295565 0.008658062 -0.0136084715 0.025454875 0.047961805 0.043776255
0.047576346 -0.050792154 -0.008183181 -0.051039744 0.03106587 -0.0223198 0.019886049 -0.044321183
0.00029894116 0.040986966 0.03886657 0.06770593 -0.017348273 0.044213384 -0.041335445 -0.04036831
-0.009175608 0.037635427 0.0034726586 0.03527351 -0.01837826 0.04757943 -0.10212363 0.07489126
0.021629762 0.028878478 0.010792606 -0.008926981 0.0013944843 -0.014408069 -0.039424673 0.044235736
-0.01966036 -0.05360692 0.032255404 -0.0061592 0.013077168 0.024980396 0.04881373 -0.036417164
0.01152469 0.057683036 0.009507337 -0.028810648 0.03717069 -0.02148948 -0.06729577 0.038570054
0.005892452 -0.053837754 -0.009251131 -0.034318183 0.0089472765 -0.030265044 0.055455543 0.036560364
0.035250973 -0.0020495562 -0.023429666 -0.009046261 -0.067016125 -0.034624476 -0.045550484 -0.0066882605
-0.058401726 -0.086581655 -0.08322285 -0.06439416 0.023293348 -0.050053544 0.017568458 0.055779487
-0.012313735 0.07628457 -0.016879916 0.020057345 0.015406782 0.02530613 -0.0069565573 0.02618025
0.03563328 -0.04159673 -0.030625405 -0.06952775 0.011191445 0.00075425877 -0.07002443 0.025475184
0.055413768 0.036024597 -0.061927453 0.11759564 0.03762636 0.03977749 -0.018808808 -0.09606683
-0.054364514 0.061015796 -0.05161041 0.07569725 -0.03174036 0.06426172 -0.03157805 -0.029129734
0.060851105 -0.0016631383 0.012717067 -0.025421817 0.06543311 0.030034458 0.08441891 0.040767245
-0.018680284 -0.039574277 0.035977762 -0.0001576961 -0.05433375 -0.053555734 -0.014773618 -0.08746797
0.0047611203 -0.05433358 -0.06929227 -0.021572117 0.027078427 -0.017336372 0.011781201 0.056901928
-0.07893917 0.06797995 0.0317179 -0.024290439 0.039923687 0.021864016 0.016753476 -0.018597607
-0.03659338 0.0045647435 0.027320957 -0.030672139 -0.035159193 -0.04798496 0.012147207 0.06837071
-0.027894035 0.03126214 -0.022072071 -0.08245761 0.016507711 0.024254067 0.06473873 -0.06004071
0.044996936 0.017806806 -0.033383895 0.033903036 -0.03509171 -0.086471885 0.081164725 0.05947243
00000000: bed7 fb3c f8fb c83c eddf 3ebc 896a e4bb
00000010: d364 ed3d 7f7a 3d3d 32ed ab3b bd52 2c3d
00000020: 9ec1 00bc 0c29 dabc 1783 e0bc 90d5 2fbd
00000030: 00f4 823d 7e2c a63d 9e98 09bc 2122 83bd
00000040: d853 6d3b f860 863c dfb7 a8ba d15e d7bb
00000050: 496e 6cbd 6d78 7ebd a57c 9a3c e7d2 d13c
00000060: 386d e83c fbe6 563d cc32 9dbd 374f a13c
00000070: 163e 13bd 1920 5cbc 4fe9 f0bd f04d 79bc
00000080: c6d1 babc f0de 323b 77af 0ebc 5c9b 01bd
00000090: f958 03bd 47e6 30bd 6c5a 6f3c 195b 6abc
000000a0: 6e94 4bbc e577 3e3d 2cba b33d dec0 d53c
000000b0: b8b6 27bc 76ca c6bb 612b b2bd 44ea 7bbd
000000c0: 7e75 2c3d f76c 0cbd d905 aebc 1c51 8dbc
000000d0: 2347 0e3b 103c 81bd 198a 5fbc 48d5 823c
000000e0: c165 1e3d 5f29 a3bc 284e 4a3d 281d 933d
000000f0: 9462 b43c 09a6 703d e013 b7bb 36a2 6fbc
00000100: c831 2539 7670 773d 69e2 6d3c 67c1 ff3c
00000110: 3469 a1bc 60ce adbd cdf2 3abd c6a7 833c
00000120: 775d 3a3c 2943 273d 25bf 87ba f2e8 483d
00000130: d9d1 11bd aebb 893d f0be 12bd f2ed ddbd
00000140: 055c 1b3b 967a f4ba 4449 bb3c fdba 8d3d
00000150: 82f8 673d f65e 27bc 7c4a 463d e01e 16bd
00000160: c782 17bc eb10 053d 1fea 073c 8bda 0d3c
00000170: 11f6 5ebc be86 d03c 9973 443d bb4e 333d
00000180: 6adf 423d 6f0b 50bd c012 06bc 0d0f 51bd
00000190: da7d fe3c 03d8 b6bc 11e8 a23c 218a 35bd
000001a0: 34bb 9c39 f3e1 273d 8d32 1f3d 68a9 8a3d
000001b0: f71d 8ebc 1819 353d 5b4f 29bd 3e59 25bd
000001c0: 4a55 16bc 9b27 1a3d 8b95 633b f57a 103d
000001d0: 018e 96bc a6e2 423d 3226 d1bd 9760 993d
000001e0: e630 b13c 8f92 ec3c 78d3 303c 7942 12bc
000001f0: 21c7 b63a d20f 6cbc c47b 21bd 8830 353d
00000200: c30e a1bc ee92 5bbd 3e1e 043d 1dd3 c9bb
00000210: 9e41 563c b0a3 cc3c e8f0 473d 2a2a 15bd
00000220: 0ed2 3c3c 0c45 6c3d a9c4 1b3c 4f04 ecbc
00000230: 4b40 183d b50a b0bc 5dd2 89bd a2fb 1d3d
00000240: 7815 c13b fa84 5cbd 0e92 17bc 3991 0cbd
00000250: 9997 123c 66ee f7bc 5a25 633d 52c0 153d
00000260: 5363 103d d951 06bb 92ef bfbc c536 14bc
00000270: c03f 89bd 65d2 0dbd 2593 3abd 3229 dbbb
00000280: a636 6fbd b951 b1bd be70 aabd 16e1 83bd
00000290: b1d1 be3c f204 4dbd baeb 8f3c 0879 643d
000002a0: 8cbf 49bc 163b 9c3d c047 8abc 4d4f a43c
000002b0: ba6c 7c3c cd4e cf3c d5f3 e3bb f777 d63c
000002c0: 34f4 113d 5561 2abd 21e2 fabc 9164 8ebd
000002d0: 535c 373c 73b9 453a f868 8fbd 55b1 d03c
000002e0: 8cf9 623d 878e 133d a4a7 7dbd fcd5 f03d
000002f0: 191e 1a3d b9ed 223d ee14 9abc b0be c4bd
00000300: 53ad 5ebd b3eb 793d 7065 53bd 2907 9b3d
00000310: 2e02 02bd a69b 833d fc57 01bd 7ba1 eebc
00000320: 023f 793d a9fd d9ba 3f5b 503c 6a41 d0bc
00000330: cb01 863d d30a f63c d2e3 ac3d 8efb 263d
00000340: 6507 99bc a318 22bd 6b5d 133d 395b 25b9
00000350: 118d 5ebd 425d 5bbd 0c0d 72bc 6822 b3bd
00000360: 2c03 9c3b e38c 5ebd 1be9 8dbd 02b8 b0bc
00000370: 94d3 dd3c 0205 8ebc f005 413c ff11 693d
00000380: dcaa a1bd 1239 8b3d a1ea 013d befc c6bc
00000390: 0587 233d 2a1c b33c 963e 893c 025a 98bc
000003a0: f1e2 15bd d893 953b 33d0 df3c 2344 fbbc
000003b0: 1603 10bd e18b 44bd 1405 473c f105 8c3d
000003c0: 0882 e4bc bb0c 003d 7dd0 b4bc 89df a8bd
000003d0: 2e3b 873c 77b0 c63c bd95 843d 3fed 75bd
000003e0: b54e 383d 94df 913c 8dbd 08bd e9dd 0a3d
000003f0: 53bc 0fbd 2c18 b1bd b139 a63d 5d99 733d

module.net_sm.layer1.0.bn2.weight f4 [32]
0.84120727 0.7987475 0.81994885 0.8649067 0.835718 0.8926793 0.843554 0.8797671
0.8303672 0.8426618 0.85951006 0.85314643 0.8343177 0.85901415 0.83586013 0.854407
0.84943706 0.8444385 0.8702659 0.83333373 0.862472 0.8704335 0.8394475 0.8561727
0.85526156 0.8232168 0.8488783 0.85256577 0.86713815 0.85280734 0.81748766 0.8300163
00000000: 5c59 573f b77a 4c3f 2be8 513f 876a 5d3f
00000010: 9df1 553f a186 643f 28f3 573f 6b38 613f
00000020: f292 543f afb8 573f da08 5c3f ce67 5a3f
00000030: d895 553f 5ae8 5b3f eefa 553f 6bba 5a3f
00000040: b574 593f 1f2d 583f bfc9 5e3f 5c55 553f
00000050: f7ca 5c3f bbd4 5e3f 08e6 563f 222e 5b3f
00000060: 6cf2 5a3f 56be 523f 1750 593f c041 5a3f
00000070: c4fc 5d3f 9551 5a3f df46 513f f37b 543f

module.net_sm.layer1.0.bn2.bias f4 [32]
-0.0019379748 -0.007166698 0.0105558885 -0.008583681 0.0019903793 -0.0005596216 -0.008153128 0.001983217
-0.005715874 -0.0008146933 0.00020576779 -0.0007200403 -0.00366801 0.01397267 0.016179193 4.584732e-05
0.0009359292 -0.0016371423 0.0028088503 -0.011367854 0.005138834 -0.010450059 -0.0014147134 -0.00862054
-0.014578161 0.0021322565 0.0031803579 0.00038689608 0.0005152097 -0.005803972 0.006793093 -0.0043630484
00000000: a503 feba 9fd6 eabb 9bf2 2c3c 91a2 0cbc
00000010: 0671 023b 92b3 12ba b394 05bc dcf8 013b
00000020: 3a4c bbbb 2491 55ba 5fc3 5739 16c1 3cba
00000030: ff62 70bb a0ed 643c 3a8a 843c 2f4c 4038
00000040: 2559 753a 6195 d6ba b014 383b 3c40 3abc
00000050: aa63 a83b b936 2bbc e86d b9ba 2a3d 0dbc
00000060: 3dd9 6ebc 54bd 0b3b 8d6d 503b 50d8 ca39
00000070: 230f 073a 3f2f bebb 9898 de3b e7f7 8ebb

module.net_sm.layer1.0.bn2.running_mean f4 [32]
-0.49669296 0.08800222 0.1215795 -1.0717676 -0.418138 -1.5988684 -0.6594804 0.10806265
0.24111229 -0.8138644 -0.6271101 -0.8158938 -0.8607656 -1.1600206 0.16383542 -0.5185936
-0.6243784 -0.9437768 -0.8575761 0.066857815 -1.4276469 -0.8726158 -0.95439166 -0.9146294
-0.42243254 -1.1997013 -1.3674442 -0.12905589 -0.64976275 -0.49118137 -1.0764767 -0.8371322
00000000: 8a4e febe 823a b43d acfe f83d ae2f 89bf
00000010: 2f16 d6be b8a7 ccbf b5d3 28bf f34f dd3d
00000020: 24e6 763e 6b59 50bf 4a8a 20bf 6bde 50bf
00000030: 225b 5cbf 8e7b 94bf 79c4 273e 8dc2 04bf
00000040: 43d7 1fbf 5b9b 71bf 1b8a 5bbf c0ec 883d
00000050: 22bd b6bf c063 5fbf 0353 74bf 2725 6abf
00000060: 1449 d8be d08f 99bf 6908 afbf 3a27 04be
00000070: da56 26bf 207c fbbe fdc9 89bf 4c4e 56bf

module.net_sm.layer1.0.bn2.running_var f4 [32]
2.0777607 0.663552 0.65165126 3.0291193 1.6127439 5.281475 3.035152 1.4059712
0.7642385 3.5354173 1.2953721 2.8091338 1.1160284 3.7108345 1.3471285 2.4716668
2.6071239 0.6177897 4.909065 0.7706973 3.1551843 1.3366795 3.30068 0.96490914
3.4489062 2.5075436 3.4377568 1.0219895 2.1648216 1.2130786 2.811294 4.077394
00000000: 08fa 0440 8bde 293f 9ed2 263f 17dd 4140
00000010: 646e ce3f d801 a940 ee3f 4240 ddf6 b33f
00000020: 22a5 433f 4744 6240 c1ce a53f d9c8 3340
00000030: 05da 8e3f 507e 6d40 b56e ac3f ca2f 1e40
00000040: 1edb 2640 7727 1e3f 0f17 9d40 6b4c 453f
00000050: 8aee 4940 5018 ab3f 573e 5340 4904 773f
00000060: e1ba 5c40 987b 2040 3504 5c40 8dd0 823f
00000070: 708c 0a40 2946 9b3f 3eec 3340 037a 8240

module.net_sm.layer2.0.conv1.weight f4 [32, 32, 3, 3, 3]
0.11475022 -0.037375268 -0.036864456 -0.006853038 0.005968415 -0.012136285 -0.0018915326 -0.007279767
-0.076147124 0.0023221846 -0.03220927 -0.021773547 0.03867906 0.026237624 -0.09464488 0.09069758
-0.02279094 -0.0206239 0.009048476 -0.04422352 0.023695892 0.041433893 -0.011546653 -0.017402066
-0.04083442 0.0027704856 0.009675849 -0.056932345 0.07873476 -0.03013376 -0.005834461 -0.070170976
-0.010318416 -0.011921564 0.055444445 -0.0012586393 0.018549709 0.04419046 -0.069235444 0.042524107
-0.033542756 0.016089749 0.0120455045 0.048789587 -0.0046281163 0.02167868 -0.032145742 -0.04279047
-0.029156422 0.023334704 0.038214937 -0.014559427 -0.032365408 -0.025257941 -0.022976117 0.012940283
-0.042326655 -0.021924457 0.022037905 -0.032649536 -0.017554715 -0.11051525 -0.06030015 -0.06378489
-0.0023654478 -0.0023517157 -0.01006575 -0.025085691 -0.0041875443 0.020326003 0.056782257 -0.12699787
0.006646038 0.0908203 -0.017600128 -0.03146106 0.02423451 -0.003078968 -0.04580043 -0.027379293
0.01949163 -0.07129032 0.031212375 -0.0074267145 0.05053586 0.06370472 -0.07074415 -0.017633097
0.00133372 -0.043164477 0.05896281 -0.065923765 0.04661303 0.019983169 0.04429882 0.020116463
-0.016741415 -0.07877274 -0.006226894 -0.022610048 -0.01081476 -0.039649386 -0.06238727 0.02925015
0.046064127 0.014321374 0.014991624 0.03984699 -0.046131942 0.0037847003 0.0069638225 -0.028116548
0.021614656 -0.022387667 0.038416307 0.025457634 0.028652718 -0.050940223 -0.049728446 0.012519619
-0.024418266 0.0040106224 -0.0066860584 -0.04482638 -0.00527718 0.025031526 -0.060766462 0.050845318
-0.076465346 -0.021626413 0.002702355 -0.0971944 0.043184265 -0.039017573 -0.034249417 -0.08649783
0.02139975 0.024716502 0.017486088 -0.06485623 0.0068757394 -0.02056723 -0.017590523 0.05704481
0.02197993 -0.040282734 0.024673682 0.022654297 -0.028358951 0.013551196 0.11522062 0.012620078
0.07421134 -0.0022991353 0.0046443264 -0.04022357 -0.02529477 0.017517963 0.06834284 -0.033471044
0.032431427 0.034524567 0.029690634 0.0072344514 -0.072747536 -0.0031145108 -0.0033683758 -0.04279611
0.07087069 0.0004191188 0.02787472 -0.08123381 -0.07499751 -0.050124798 0.06421604 0.023410447
-0.04134167 -0.05916304 0.021076748 0.04681646 -0.031600714 -0.0019422435 -0.0062155654 0.04979586
0.029719967 0.012737597 0.041376702 -0.021391863 0.033768635 0.039784893 -0.0045240573 0.061118793
0.016510252 -0.022649722 0.024602717 0.103660926 -0.0032958488 -0.044928093 0.040799066 -0.00056479604
-0.023881925 0.036527272 -0.037600927 -0.022199092 0.029386388 -0.07719944 0.02159916 -0.04605482
-0.076683015 0.008083596 0.041507952 0.015433572 -0.012607607 0.036917012 -0.041410916 0.09359758
-0.023968108 0.031575624 -0.044483673 -0.015777664 -0.06515502 -0.044859443 -0.022102362 -0.034829583
0.051708687 -0.0055604507 0.018894427 -0.01963531 0.05365957 0.015950369 -0.10005626 -0.029087033
0.009620727 -0.074631 -0.022415744 0.01829395 -0.04146258 0.025138391 0.009900115 -0.03103427
0.041438412 0.04306587 0.0050913305 -0.03568121 0.017111216 -0.017617494 -0.0035400768 0.058278497
0.049195856 0.023361132 -0.0012958511 -0.017787587 -0.0048565553 0.024161119 0.0071888426 -0.016995708
00000000: 2a02 eb3d cf16 19bd 2fff 16bd 738f e0bb
00000010: b292 c33b 45d7 46bc 4ded f7ba 1d8b eebb
00000020: 06f3 9bbd cb2f 183b deed 03bd 705e b2bc
00000030: ef6d 1e3d 49f0 d63c 2dd5 c1bd a7bf b93d
00000040: 11b4 babc 74f3 a8bc 0f40 143c b923 35bd
00000050: e31d c23c 96b6 293d 2c2e 3dbc c78e 8ebc
00000060: fe41 27bd 0991 353b 7487 1e3c e431 69bd
00000070: b13f a13d 13db f6bc 022f bfbb cdb5 8fbd
00000080: 930e 29bc aa52 43bc b719 633d edf8 a4ba
00000090: 8ff5 973c 0e01 353d 50cb 8dbd c22d 2e3d
000000a0: 2164 09bd a6ce 833c 825a 453c 97d7 473d
000000b0: 74a7 97bb 7d97 b13c 41ab 03bd 0f45 2fbd
000000c0: 73d9 eebc 6c28 bf3c 4487 1c3d aa8a 6ebc
000000d0: 9791 04bd bee9 cebc 6938 bcbc 7b03 543c
000000e0: b75e 2dbd eb9a b3bc d688 b43c 85bb 05bd
000000f0: e8ce 8fbc d255 e2bd 4afd 76bd a7a1 82bd
00000100: a105 1bbb 3e1f 1abb d1ea 24bc 8280 cdbc
00000110: ab37 89bb b882 a63c 8394 683d bb0b 02be
00000120: 02c7 d93b feff b93d 252e 90bc 50dd 00bd
00000130: 7387 c63c 83c8 49bb 3b99 3bbd 8a4a e0bc
00000140: e9ac 9f3c a900 92bd 18b1 ff3c cc5b f3bb
00000150: b1fe 4e3d 9f77 823d 4fe2 90bd 4973 90bc
00000160: 38d0 ae3a 3ccd 30bd fd82 713d 0a03 87bd
00000170: 4eed 3e3d beb3 a33c ae72 353d 48cb a43c
00000180: 4b25 89bc 9a53 a1bd f90a ccbb b538 b9bc
00000190: 6430 31bc 6567 22bd cb89 7fbd 039e ef3c
000001a0: bdad 3c3d 32a4 6a3c 6e9f 753c 9936 233d
000001b0: d9f4 3cbd bc08 783b c730 e43b ad54 e6bc
000001c0: 3811 b13c 5766 b7bc 6b5a 1d3d 878c d03c
000001d0: 1bb9 ea3c b2a6 50bd 0eb0 4bbd 171f 4d3c
000001e0: d108 c8bc 8a6b 833b b916 dbbb de9b 37bd
000001f0: 32ec acbb ea0e cd3c 41e6 78bd 2e43 503d
00000200: dd99 9cbd e029 b1bc fe19 313b dc0d c7bd
00000210: fce1 303d e4d0 1fbd 1e49 0cbd c625 b1bd
00000220: 874e af3c 437a ca3c fc3e 8f3c 58d3 84bd
00000230: e24d e13b 9c7c a8bc 001a 90bc d2a7 693d
00000240: 410f b43c 82ff 24bd 7620 ca3c 8195 b93c
00000250: 0851 e8bc d605 5e3c caf8 eb3d 72c4 4e3c
00000260: 1dfc 973d 17ad 16bb 6f2f 983b 78c1 24bd
00000270: fa36 cfbc d581 8f3c 55f7 8b3d ef18 09bd
00000280: d1d6 043d a269 0d3d c639 f33c fa0e ed3b
00000290: a9fc 94bd d21c 4cbb f8bf 5cbb f94a 2fbd
000002a0: a724 913d 2cbd db39 8659 e43c e95d a6bd
000002b0: 4b98 99bd a94f 4dbd b383 833d 44c7 bf3c
000002c0: e255 29bd f254 72bd 25a9 ac3c 9ec2 3f3d
000002d0: c06f 01bd e192 feba f1ab cbbb bef6 4b3d
000002e0: 4a77 f33c 5bb1 503c 9e7a 293d fd3d afbc
000002f0: fb50 0a3d 7cf5 223d 8b3e 94bb b357 7a3d
00000300: 8240 873c e98b b9bc a38b c93c 2e4c d43d
00000310: 2bff 57bb 8506 38bd ec1c 273d d20e 14ba
00000320: 07a4 c3bc 9f9d 153d 6e03 1abd dfda b5bc
00000330: b9bb f03c bd1a 9ebd b9f0 b03c fba3 3cbd
00000340: fc0b 9dbd 0f71 043c 3e04 2a3d 18dd 7c3c
00000350: 2390 4ebc 4b36 173d 7e9e 29bd 17b0 bf3d
00000360: c458 c4bc 7155 013d 8334 36bd 2940 81bc
00000370: ff6f 85bd 89be 37bd 0310 b5bc 77a9 0ebd
00000380: 7dcc 533d 7134 b6bb 7cc8 9a3c 3bda a0bc
00000390: 23ca 5b3d 59aa 823c 4cea ccbd ee47 eebc
000003a0: 41a0 1d3c 23d8 98bd 39a1 b7bc 32dd 953c
000003b0: abd4 29bd 07ef cd3c 1834 223c 953b febc
000003c0: 53bb 293d d665 303d 2dd5 a63b 7626 12bd
000003d0: d22c 8c3c 9052 90bc a200 68bb 6fb5 6e3d
000003e0: 9881 493d d85f bf3c 8cd9 a9ba 46b7 91bc
000003f0: bd23 9fbb 8aed c53c 6290 eb3b 953a 8bbc

module.net_sm.layer2.0.bn1.weight f4 [32]
0.85831547 0.8969864 0.85286343 0.84216964 0.8499302 0.836421 0.84947175 0.85145515
0.8714947 0.8419735 0.8483281 0.8809184 0.86981106 0.85318875 0.8360313 0.87143785
0.86133194 0.86755383 0.89257365 0.85926026 0.86676407 0.8429465 0.85986716 0.85128295
0.8458739 0.8486241 0.8477125 0.8787822 0.8545429 0.8460655 0.8678595 0.8627623
00000000: 90ba 5b3f e7a0 653f 4255 5a3f 6e98 573f
00000010: 0795 593f b01f 563f fb76 593f f7f8 593f
00000020: 471a 5f3f 938b 573f 082c 593f de83 613f
00000030: f0ab 5e3f 946a 5a3f 2606 563f 8d16 5f3f
00000040: 4080 5c3f 0218 5e3f b57f 643f 7bf8 5b3f
00000050: 40e4 5d3f 58cb 573f 4120 5c3f aeed 593f
00000060: 318b 583f 6e3f 593f b003 593f dff7 603f
00000070: 53c3 5a3f c097 583f 0a2c 5e3f fddd 5c3f

module.net_sm.layer2.0.bn1.bias f4 [32]
-0.009795693 -0.04788903 -0.011906966 -0.007027353 -0.019596372 0.0033869029 -0.020719998 -0.019264141
0.0030487217 -0.012127024 -0.029219583 0.005705719 0.008347888 -0.010361336 -0.0102063 -0.007639912
-0.0050868657 0.0058474746 -0.010306385 0.012506073 0.0043442245 -0.0047182264 0.00014429071 -0.022347378
0.00709885 0.011756491 -0.009031686 -0.0028322218 -0.009343111 -0.019761471 0.0054855417 0.0024633117
00000000: 1d7e 20bc 4a27 44bd 6f15 43bc b645 e6bb
00000010: 9288 a0bc cdf6 5d3b fcbc a9bc d5cf 9dbc
00000020: 10cd 473b 6db0 46bc e85d efbc 0af7 ba3b
00000030: 94c5 083c 98c2 29bc 5338 27bc 3a58 fabb
00000040: b9af a6bb 2c9c bf3b 1ddc 28bc 46e6 4c3c
00000050: ff59 8e3b 5a9b 9abb be4c 1739 d911 b7bc
00000060: 789d e83b 4c9e 403c a3f9 13bc cc9c 39bb
00000070: d913 19bc cfe2 a1bc 0fc0 b33b 836f 213b

module.net_sm.layer2.0.bn1.running_mean f4 [32]
1.3263614 -3.3525493 -2.600002 0.24279602 -0.28422317 4.1014833 -2.438605 2.1207428
-1.2978785 2.7044134 -2.9431713 0.35913733 -1.4845564 -2.5887682 4.3237815 -1.8060205
-0.4841605 -1.5569677 0.8086276 -2.273963 0.83733225 2.5803165 0.73509127 -3.6838548
1.2858024 2.6161733 -1.1691625 -0.8739088 0.945693 -0.6205103 1.6390698 -2.164489
00000000: 36c6 a93f 2b90 56c0 6f66 26c0 859f 783e
00000010: b385 91be 5a3f 8340 1b12 1cc0 40ba 0740
00000020: e220 a6bf 1c15 2d40 eb5c 3cc0 d9e0 b73e
00000030: f205 bebf 61ae 25c0 6b5c 8a40 ae2b e7bf
00000040: e3e3 f7be b84a c7bf 3802 4f3f 9c88 11c0
00000050: 685b 563f e823 2540 f12e 3c3f 47c4 6bc0
00000060: 2c95 a43f 626f 2740 1ea7 95bf 7db8 5fbf
00000070: f018 723f c3d9 1ebf 0acd d13f fd86 0ac0

module.net_sm.layer2.0.bn1.running_var f4 [32]
2.8988204 5.5845857 3.2091038 1.9457453 1.2288657 7.7440915 3.6833456 4.5925603
2.3965852 2.9633696 3.8082867 1.6293715 2.838946 5.092434 6.7679105 2.0934541
1.4609249 1.766063 1.598034 4.5079255 2.6549578 6.114858 1.5679431 8.360174
3.6223288 3.7811997 2.5391028 3.9830623 2.4579809 2.0410838 2.4314 1.9548184
00000000: 4686 3940 edb4 b240 f561 4d40 2f0e f93f
00000010: 794b 9d3f 99cf f740 efbb 6b40 41f6 9240
00000020: a761 1940 d9a7 3d40 f8ba 7340 3f8f d03f
00000030: 4bb1 3540 38f5 a240 b992 d840 27fb 0540
00000040: 96ff ba3f 5a0e e23f 618c cc3f ed40 9040
00000050: d4ea 2940 ebac c340 5cb2 c83f 46c3 0541
00000060: 3cd4 6740 2dff 7140 a980 2240 7eea 7e40
00000070: 8f4f 1d40 1ea1 0240 0f9c 1b40 7d37 fa3f

module.net_sm.layer2.0.conv2.weight f4 [32, 32, 3, 3, 3]
-0.009980401 0.059252545 0.0070145023 -0.0072334986 0.01706958 0.024783628 -0.060117546 0.018281853
0.051637404 -0.016023451 0.038991876 0.05462896 -0.04548007 -0.018996468 0.02839775 0.0378977
0.050408766 0.017072426 -0.02616814 0.018512972 -0.017196702 -0.0010330498 -0.040843636 -0.049287073
-0.02453044 0.06657147 0.03875167 0.02760773 0.0011384707 0.10991129 0.039519325 -0.01714173
0.067729734 0.043378133 -0.0019472055 0.022948947 -0.027557636 0.035553534 0.009734308 -0.038156383
0.072776325 0.0572976 0.013113394 0.0029978475 0.029006127 -0.06514469 0.017575493 -0.0034262396
0.03322492 -0.051355142 0.016929984 -0.074023366 0.0005456274 0.041301776 -0.046271455 0.015940255
-0.03240022 0.028293129 0.025563434 0.03366575 -0.058843 0.057789095 -0.044805083 0.041245267
-0.008849573 -0.08900289 0.026205063 -0.043418605 0.0032448322 0.017256036 -0.038120225 -0.032944012
-0.005079182 0.04774411 0.05000791 -0.00457761 -0.04643923 -0.007371032 0.010442587 -0.058926903
0.018806383 0.035675347 -0.026306394 -0.008078286 -0.016460853 0.038848322 -0.012252312 0.023471562
0.033392232 -0.016969064 0.05765749 -0.027635664 0.06753051 -0.019643087 0.023165865 0.03191208
0.022797944 0.049999572 0.016499335 -0.035470087 0.043347225 0.11000482 0.03681232 0.0018344916
-0.029755874 0.053536784 -0.017252853 0.03323213 0.04043048 0.07017467 0.04502891 0.035437156
-0.06354733 -0.08531459 -0.00308947 0.0040602875 -0.030125022 -0.084885344 -0.0066649537 0.010582521
0.07646778 0.012577875 0.009278927 -0.025711445 0.09398355 -0.050675817 -0.09871165 -0.060833283
0.055281565 -0.14747033 0.088091694 -0.0014842988 -0.012061797 0.02056464 -0.0047242474 0.025424298
-0.013289878 1.5720923e-05 -0.036168646 -0.028711757 0.018430147 -0.08212561 0.0150508545 -0.017434359
-0.020526541 0.02393998 0.0062831105 -0.039903216 -0.03071798 0.03286591 -0.03288023 0.01674228
-0.03878509 -0.01582101 0.007649238 -0.067665376 -0.033534072 0.046911854 -0.030232385 -0.014578344
-0.008588502 -0.010960527 -0.0026428935 0.049006674 -0.060364358 -0.012511283 0.020258207 0.038826756
0.046772245 -0.06502072 0.036006957 0.009199826 -0.0025654284 0.07188365 0.008070645 0.0025802313
0.028066777 0.042930506 0.0599797 0.00432968 -0.01781693 -0.019396227 -0.040887922 -0.03551703
-0.012845267 0.029664995 -0.0047197975 -0.032725543 0.07971531 -0.043468967 -0.05189362 0.09433216
0.030291166 0.010029644 -0.01465981 -0.08513384 -0.016815104 0.02729864 -0.06020092 0.018043999
0.074036166 0.0105864 -0.054935396 0.10519282 -0.05329175 0.04928069 0.0076560006 -0.13296138
-0.0026576212 -0.043592125 0.08245046 -0.01971253 0.05108138 -0.013021539 0.03702283 0.035031103
-0.06321087 -0.05342463 0.015703198 0.038928743 -0.07649653 0.05969457 0.04968933 0.031293698
-0.046817504 0.038932614 0.027290791 -0.0013429752 0.004255238 -0.051771488 0.046879686 0.0029109013
0.08328045 -0.02309475 -0.009284267 -0.07588186 -0.03356601 0.0022335015 -0.09512619 0.048437767
-0.0012240475 -0.010717782 0.045319535 0.025189986 0.070908606 0.018692827 -0.007770188 0.009794214
0.053504385 -0.0013837181 0.010232245 -0.05694422 0.041512564 0.047659934 -0.09055195 0.0247626
00000000: d684 23bc ccb2 723d e9d9 e53b fc06 edbb
00000010: 81d5 8b3c 0907 cb3c d13d 76bd d3c3 953c
00000020: be81 533d 9d43 83bc f2b5 1f3d 9ec2 5f3d
00000030: 4f49 3abd 7b9e 9bbc 66a2 e83c 9e3a 1b3d
00000040: 6c79 4e3d 79db 8b3c 915e d6bc 84a8 973c
00000050: 19e0 8cbc 6667 87ba a84b 27bd 3ee1 49bd
00000060: 10f4 c8bc 9f56 883d 12ba 1e3d 9b29 e23c
00000070: bd38 953a 2c19 e13d 04df 213d d06c 8cbc
00000080: e3b5 8a3d 45ad 313d 6039 ffba 6eff bb3c
00000090: 8dc0 e1bc 95a0 113d a67c 1f3c de49 1cbd
000000a0: c10b 953d e3b0 6a3d 90d9 563c 8977 443b
000000b0: 429e ed3c 946a 85bd 7bfa 8f3c c38a 60bb
000000c0: db16 083d c559 52bd c0b0 8a3c 9099 97bd
000000d0: 6f08 0f3a 0d2c 293d 2387 3dbd 2395 823c
000000e0: 18b6 04bd fec6 e73c 686a d13c 19e5 093d
000000f0: 5c05 71bd 42b4 6c3d 8985 37bd ccf0 283d
00000100: cdfd 10bc 2647 b6bd 00ac d63c b5d7 31bd
00000110: 40a7 543b 885c 8d3c f423 1cbd 4df0 06bd
00000120: 446f a6bb 548f 433d 18d5 4c3d c7ff 95bb
00000130: 1037 3ebd b388 f1bb 6217 2b3c 565d 71bd
00000140: d80f 9a3c 5020 123d 8280 d7bc ca5a 04bc
00000150: e9d8 86bc 6b1f 1f3d ecbd 48bc 6f47 c03c
00000160: 4bc6 083d b502 8bbc 432a 6c3d 3064 e2bc
00000170: 704d 8a3d 8aea a0bc 57c6 bd3c 3eb6 023d
00000180: c1c2 ba3c 5acc 4c3d 9d29 873c 1549 11bd
00000190: dc8c 313d 354a e13d 84c8 163d 5373 f03a
000001a0: 97c2 f3bc 6349 5b3d db55 8dbc 6a1e 083d
000001b0: 6e9a 253d bdb7 8f3d 3c70 383d 8d26 113d
000001c0: 1a25 82bd 6ab9 aebd b578 4abb 290c 853b
000001d0: c0c8 f6bc 5ed8 adbd af65 dabb 4f62 2d3c
000001e0: 249b 9c3d 6e13 4e3c a406 183c cfa0 d2bc
000001f0: 737a c03d 7291 4fbd 5529 cabd 522c 79bd
00000200: ec6e 623d 7602 17be 6b69 b43d ce8c c2ba
00000210: d89e 45bc 2d77 a83c dccd 9abb 9e46 d03c
00000220: cabd 59bc 6de0 8337 9325 14bd eb34 ebbc
00000230: d2fa 963c 7931 a8bd dc97 763c 80d2 8ebc
00000240: 4727 a8bc c71d c43c 8de2 cd3b 8e71 23bd
00000250: 46a4 fbbc 689e 063d 6cad 06bd 1b27 893c
00000260: 1ddd 1ebd 109b 81bc 76a6 fa3b 2594 8abd
00000270: 065b 09bd a526 403d e8a9 f7bc 02da 6ebc
00000280: cab6 0cbc c893 33bc 6534 2dbb 39bb 483d
00000290: 9e40 77bd 20fc 4cbc 8af4 a53c ce08 1f3d
000002a0: 4194 3f3d 9529 85bd 087c 133d deba 163c
000002b0: bf20 28bb bc37 933d bd3a 043c 1919 293b
000002c0: 4cec e53c e6d7 2f3d 46ad 753d fddf 8d3b
000002d0: cff4 91bc d6e4 9ebc 187a 27bd 4e7a 11bd
000002e0: f474 52bc 0104 f33c 88a8 9abb 380b 06bd
000002f0: c841 a33d 840c 32bd 688e 54bd 3831 c13d
00000300: 2e25 f83c 6053 243c b32f 70bc a75a aebd
00000310: d4bf 89bc 66a1 df3c 3d95 76bd 02d1 933c
00000320: 46a0 973d 9472 2d3c f003 61bd 556f d73d
00000330: 7348 5abd 8cda 493d 30df fa3b 0727 08be
00000340: 7c2b 2ebb a88d 32bd c9db a83d 2c7c a1bc
00000350: b63a 513d 4b58 55bc 40a5 173d c67c 0f3d
00000360: b374 81bd c9d3 5abd fea3 803c bf73 1f3d
00000370: 36aa 9cbd 4b82 743d 0a87 4b3d d22d 003d
00000380: b6c3 3fbd ce77 1f3d f090 df3c c506 b0ba
00000390: 866f 8b3b 570e 54bd ea04 403d d2c4 3e3b
000003a0: f18e aa3d 3331 bdbc 0a1d 18bc f367 9bbd
000003b0: 837c 09bd f05f 123b 85d1 c2bd ae66 463d
000003c0: 3870 a0ba a399 2fbc faa0 393d 3b5b ce3c
000003d0: 8838 913d b321 993c 109d febb e977 203c
000003e0: 6a27 5b3d e05d b5ba 25a5 273c 583e 69bd
000003f0: 1409 2a3d 1037 433d 4d73 b9bd f0da ca3c

module.net_sm.layer2.0.bn2.weight f4 [32]
0.8733297 0.8632261 0.82956344 0.8585634 0.8625328 0.8418081 0.8558924 0.8762574
0.84105915 0.8603024 0.8279288 0.871977 0.8609556 0.8751998 0.79165125 0.8782038
0.85699594 0.85783654 0.90486926 0.8596946 0.8604318 0.8394857 0.8736798 0.86368394
0.85575944 0.82941294 0.86747634 0.88361394 0.8550934 0.86411965 0.8605604 0.856562
00000000: 8992 5f3f 63fc 5c3f 455e 543f d0ca 5b3f
00000010: f3ce 5c3f bc80 573f c41b 5b3f 6852 603f
00000020: a74f 573f c73c 5c3f 24f3 533f e239 5f3f
00000030: 9667 5c3f 180d 603f a8a9 4a3f f7d1 603f
00000040: 1664 5b3f 2d9b 5b3f 83a5 673f f214 5c3f
00000050: 4245 5c3f 89e8 563f 7ba9 5f3f 641a 5d3f
00000060: 0d13 5b3f 6854 543f ee12 5e3f 8634 623f
00000070: 67e7 5a3f f236 5d3f b04d 5c3f a647 5b3f

module.net_sm.layer2.0.bn2.bias f4 [32]
-0.018414654 -0.0111119365 -0.016758816 0.0014145904 0.002634794 0.0154792275 -0.01185806 -0.063273504
-0.040302545 0.0030857162 -0.01580264 0.01874716 0.0021191782 -0.012970239 0.010041162 0.033088025
-0.006402952 -0.01403091 -0.02295319 -0.0051332624 -0.019683434 -0.011163737 0.0290804 -0.015514133
-0.0045802146 -0.016135836 0.02536103 -0.016073762 -0.005260276 0.0044612926 0.014057113 -0.00082244846
00000000: 54da 96bc d70e 36bc c949 89bc c769 b93a
00000010: 82ac 2c3b 969c 7d3c 4f48 42bc 8a95 81bd
00000020: 4814 25bd ba39 4a3b 8a74 81bc a593 993c
00000030: e9e1 0a3b 2081 54bc b083 243c 4f87 073d
00000040: dbcf d1bb e7e1 65bc 5408 bcbc ed34 a8bb
00000050: 273f a1bc 1be8 36bc 053a ee3c fd2e 7ebc
00000060: a015 96bb 4d2f 84bc efc1 cf3c 1fad 83bc
00000070: 655e acbb 0930 923b ce4f 663c 9599 57ba

module.net_sm.layer2.0.bn2.running_mean f4 [32]
0.35941315 -0.16328894 -0.41977623 -0.003497417 -0.21530022 0.086129196 -0.8940185 -0.47091112
-0.7117212 0.37334272 -0.6308816 -0.056204855 0.009529413 -1.0764636 0.9110378 -0.93605345
0.15268034 -0.020021483 -0.90482295 0.097531274 -0.26997247 -0.29174146 -0.84378994 0.0893237
-0.018600259 0.40470025 -0.24611609 -0.24543351 -0.20055963 0.75339913 0.35388845 -0.6059353
00000000: 0005 b83e 3735 27be e9ec d6be ec34 65bb
00000010: a977 5cbe 8164 b03d 65de 64bf 431b f1be
00000020: 5c33 36bf c726 bf3e 7581 21bf 1037 66bd
00000030: 4121 1c3c 8fc9 89bf c639 693f 33a1 6fbf
00000040: 3c58 1c3e 1804 a4bc 7aa2 67bf 7abe c73d
00000050: d539 8abe 235f 95be 9e02 58bf 58ef b63d
00000060: 925f 98bc df34 cf3e db05 7cbe ec52 7bbe
00000070: 815f 4dbe c4de 403f de30 b53e 931e 1bbf

module.net_sm.layer2.0.bn2.running_var f4 [32]
0.83894044 0.6424314 0.39014786 0.22676317 0.3208461 0.45016414 1.1244072 1.8321396
0.6301772 0.31038862 1.02487 0.40460053 0.28501478 0.8703632 1.4378203 1.8849907
0.2692637 0.30594677 1.6874112 0.30543497 0.83143294 1.7593702 0.7164838 0.33080164
0.38050032 0.6549093 0.35756433 0.6415152 0.3326793 0.5015731 0.48540014 0.29654616
00000000: cdc4 563f 6276 243f 76c1 c73e 9b34 683e
00000010: f145 a43e ea7b e63e 93ec 8f3f 8d83 ea3f
00000020: 4b53 213f 42eb 9e3e f12e 833f cd27 cf3e
00000030: 75ed 913e 1fd0 5e3f 7f0a b83f 6047 f13f
00000040: efdc 893e 0ea5 9c3e 17fd d73f f961 9c3e
00000050: cad8 543f 0b33 e13f 7b6b 373f d55e a93e
00000060: f0d0 c23e 23a8 273f ac12 b73e 573a 243f
00000070: f154 aa3e 1867 003f 5e86 f83e e6d4 973e

module.net_sm.layer2.0.ca.fc1.weight f4 [2, 32, 1, 1, 1]
-0.45338482 -0.46748444 -0.51966244 -0.43488 1.2191414 -1.6377653 0.18613774 0.6982976
-0.8686624 -0.6988319 -0.61921906 0.51301 -0.8364882 -0.76331806 -0.768279 0.07335874
1.4351627 0.35213432 -0.67693436 -0.44134015 -0.60538805 0.52027744 -1.7257264 1.3620219
-1.003977 -1.0461649 -1.5547523 -1.2705864 1.5458062 -1.0990186 -0.20916554 0.015940132
-0.6603756 -0.41309208 0.13502741 0.5243714 0.25849155 1.0827466 0.047815904 0.2974772
0.7768161 0.65079534 1.5236168 -0.25484496 0.26764035 -0.37529477 0.80266976 -0.81247693
0.6581078 0.07836464 -0.38963142 0.25425875 1.095059 0.4543518 -1.6823736 -0.6927397
1.5756422 -0.6472208 0.8507837 1.4749371 0.5947497 -0.65173364 -0.1717824 0.6846732
00000000: 0e22 e8be 1f5a efbe 9908 05bf 97a8 debe
00000010: d30c 9c3f 4ba2 d1bf e49a 3e3e a2c3 323f
00000020: a960 5ebf a6e6 32bf 2485 1ebf a054 033f
00000030: 1724 56bf d068 43bf efad 44bf 1b3d 963d
00000040: 69b3 b73f f34a b43e 924b 2dbf 56f7 e1be
00000050: b6fa 1abf e730 053f 9ae4 dcbf bc56 ae3f
00000060: 5182 80bf bbe8 85bf 2002 c7bf 93a2 a2bf
00000070: fadc c53f a4ac 8cbf 7e2f 56be e194 823c
00000080: 600e 29bf ce80 d3be a044 0a3e 343d 063f
00000090: 0159 843e 7197 8a3f 9cda 433d ee4e 983e
000000a0: 6cdd 463f 869a 263f e005 c33f 0a7b 82be
000000b0: 2808 893e a326 c0be c47b 4d3f 7dfe 4fbf
000000c0: c179 283f a47d a03d c57d c7be 342e 823e
000000d0: e52a 8c3f cda0 e83e 0558 d7bf 6457 31bf
000000e0: a5ae c93f 43b0 25bf f6cc 593f bdca bc3f
000000f0: 8441 183f 04d8 26bf bae7 2fbe be46 2f3f

module.net_sm.layer2.0.ca.fc2.weight f4 [32, 2, 1, 1, 1]
0.15623325 0.12140507 0.06045453 0.27795422 0.11156427 0.10499775 -0.1148772 -0.20028116
0.24326682 -0.05643549 -0.13666672 -0.08378169 -0.098707505 0.1830135 -0.052231617 0.2361035
0.17826696 0.36804286 -0.14463688 -0.12564309 -0.12688662 0.15811591 -0.025377344 -0.06392205
-0.11092987 -0.24258284 0.12867463 0.39194474 -0.3613221 0.4356259 0.11020911 0.3470232
0.15654258 -0.07015486 -0.114184834 -0.06694544 0.08634959 0.13862798 0.27689692 -0.14157978
0.08992761 0.14421956 -0.101501405 0.27712256 -0.3639336 0.15441824 -0.031123068 -0.075250484
0.123584755 -0.16405138 0.31027275 0.11109531 -0.018749049 -0.06427596 -0.08394126 0.13397892
0.30387846 -0.16612567 -0.05426255 -0.106835485 -0.5008796 -0.0939461 -0.4207456 -0.2245485
00000000: 9cfb 1f3e 39a3 f83d 2b9f 773d 0450 8e3e
00000010: cf7b e43d 0f09 d73d bd44 ebbd 8116 4dbe
00000020: f01a 793e e628 67bd 5cf2 0bbe bc95 abbd
00000030: 2927 cabd e467 3b3e d2f0 55bd 1ec5 713e
00000040: 9d8b 363e 1d70 bc3e b11b 14be 95a8 00be
00000050: 91ee 01be 23e9 213e 26e4 cfbc 90e9 82bd
00000060: 332f e3bd a367 78be 48c3 033e fbac c83e
00000070: 36ff b8be 5c0a df3e 50b5 e13d 06ad b13e
00000080: b34c 203e 5aad 8fbd bdd9 e9bd b11a 89bd
00000090: 0ed8 b03d 7ef4 0d3e 6fc5 8d3e 4afa 10be
000000a0: f72b b83d 4bae 133e f8df cfbd 02e3 8d3e
000000b0: 8155 babe d11f 1e3e cef5 febc ed1c 9abd
000000c0: 011a fd3d 16fd 27be 12dc 9e3e f085 e33d
000000d0: 9b97 99bc 1da3 83bd 65e9 abbd c531 093e
000000e0: f595 9b3e d91c 2abe 6842 5ebd 90cc dabd
000000f0: a539 00bf d066 c0bd f86b d7be 0bf0 65be
