model/model_20201014151312/model_final_mb6_2_0300_sm.pth (torch_old, 974091 bytes, 68 tensors)

module.net_sm.conv1.weight f4 [32, 1, 7, 7, 7]
00000000: a885 38bc 5a69 133d df2c 0c3d e3a3 e53c
00000010: 8ed0 6d3c d706 9f3d e175 cf3b 0e6f d83b
00000020: cd5c 163b f363 25bc bf7c d8bc b097 db3c
00000030: e318 e73c fb2d 463c e988 823b 56f0 82bd
00000040: 1491 15bd 807c 7eba b05a 8a3c 4e48 aa3b
00000050: d833 113c f94c e53c e0bd 39bd fdca 50bb
00000060: 5566 6ebc a724 f6bc dad3 b4bc 2aab 7a3c
00000070: ff15 0b3d 8e5b 96bc 3a61 54bc c5b8 0f3d
00000080: aa71 ce3c db0c 41bc 7688 023b d5e8 483c
00000090: 909a 11bc cfef 32bc 12e9 5cba 2f51 793c
000000a0: aaaa 383b 7dac 8aba 1523 cd3c 99d7 5bbd
000000b0: 7aa2 12bd e6e2 c2bb c921 adbc b573 6cbc
000000c0: c179 e5bc ff65 f13c df6b 193d 09a3 c83c
000000d0: d513 fdb8 2797 8a3c 5be7 763c 2afe 973c
000000e0: aeca b33c c77d e1bb a585 693b b433 633c
000000f0: e794 93bb da0d 96bb ecbd ec3c 00ac a53c
00000100: 9eee 21bd cc0d de3c 9ff1 533d 1d2f 983c
00000110: a5fd 923a d351 bf3c 587c 0d3b ba70 02bd
00000120: 6dad 7cbc 8e15 e43b e0de 093c b461 813a
00000130: e572 4c3b 374d c139 a6a8 c7bc af60 22bd
00000140: 2fb8 9fbb 4fbe 153d 265b 1a3d cc9e 863c
00000150: dc9c 893d 347b 53bc 2470 cb3c a55f cebc
00000160: 1457 9bbb dc82 5f3d 6f89 ba3c cea5 533d
00000170: daca 60bc f0aa cdbc 19d9 2ebd b4c3 81bc
00000180: 97f3 503b 6384 ed3b 5ce1 c1bc e4cd af3c
00000190: 66cf 76bc 0cea d13b 80ac 753d 2084 1f3d
000001a0: 4a65 8c3c 4ac8 afbc 9f93 b1bc 4e27 cdbc
000001b0: 2c64 913b 905e e53b 3c82 e3ba b85c be3c
000001c0: b8d7 e6bc 3831 26bd 33be 0c3d 7cea d63b
000001d0: 50ce 73bc ac47 dabc 1447 c738 ef89 a7bc
000001e0: 7e49 e0ba bf6e f93b 33b6 bfbc 3db5 593c
000001f0: a52c adbb ea7d 2ebd f1ed 22bc 063b f8bb
00000200: 7634 5b3b 983a 86bb a8a0 b2bc e31f c83b
00000210: 4b98 dfbc ebf4 3f3a 28c6 d93c 5776 b9bc
00000220: cf29 7ebc 2668 33bd 224d 0a3d 77be 6abb
00000230: cf60 123d 1a58 c43c 5027 dfba 42c3 adbc
00000240: dd02 efbc c0f8 b9bb 6e24 1e3c 9a43 563c
00000250: 59a2 863c 9c1b debb 494a f8bb ec23 873d
00000260: 3426 9d3c f8ee 5e3d 3429 97bc cb48 1fbc
00000270: de69 123a 1b06 ed3a dece 583d 8cdb 1c3d
00000280: 5b06 0b3d e9b8 0b3c 2114 c83b d3ce e33c
00000290: 4eba 8ebb 8576 0bbb a5f2 82bc ba56 dcbb
000002a0: 8932 8a3c e7b5 073c 24d3 a9bc a534 5cbb
000002b0: 77d0 0dbc 084d 63ba b28a debb 6ee0 d8bc
000002c0: cbd1 febc 94e3 88bc dade d2ba 50ba 023d
000002d0: 8dcd 083d 855e a13c 038b 0fbd f826 a2ba
000002e0: e089 4d3c 8db9 b83c 3bf5 4fbb 8096 a43a
000002f0: 9e33 6f3c 41f1 713c 8d90 7c3c 07ae 8ebb
00000300: 6352 a2bc 7a15 89bc c01c 88bc 1c82 173d
00000310: 5b37 193d 9c41 b2bc 12d7 48bd 0cfc 25bc
00000320: a969 a43b d56b dc3c f872 483d 55e4 633d
00000330: f2d6 623c c766 4dbc 637d 9bbc 97b3 683c
00000340: 6afc 663d 124e 373d a7e6 893d 90c4 5e3d
00000350: 52b9 b63c 3abf 56bc f50e 4d3b 9ad3 4b3d
00000360: b723 133d 92ad 8d3d a753 c4bb 6398 483c
00000370: ba6d 16bc b4a3 1fbc a906 843b 6b5f 3d3b
00000380: 9a4e d33c 9568 32bb e961 2e3b 328b 473b
00000390: 4057 193d 6dde 0e3c 0317 b6ba b126 99bc
000003a0: 1e36 813c e8cf 163d eb91 c33a 6621 7a3d
000003b0: 815e 933c c11f 193d 025c 7c3c 3cb1 303d
000003c0: a31b 743d a9ca 2f3c b079 843b 90d4 babb
000003d0: a825 723d 2237 943c 7acd 35bd 3191 96bc
000003e0: 5fd6 e43b a5a3 183c 1541 bc3c 38a2 e83c
000003f0: edea 2a3d abb1 b0bc 62a9 293c 9352 683b
-0.011262335 0.035989143 0.03422248 0.028032249 0.014515055 0.077649765 0.006331191 0.0066050356
0.0022943497 -0.0100946305 -0.026426671 0.026805729 0.02821011 0.012095924 0.003983606 -0.06393497
-0.03651531 -0.0009707883 0.016888946 0.0051966077 0.008862458 0.027990805 -0.045347095 -0.0031859272
-0.014550765 -0.030046774 -0.022073675 0.015299598 0.033956524 -0.018354204 -0.012962634 0.03508832
0.025200684 -0.01178285 0.0019917763 0.012262543 -0.008886948 -0.010921433 -0.0008427064 0.01521711
0.0028177896 -0.001057997 0.025041142 -0.053672407 -0.03579948 -0.0059474586 -0.021134274 -0.014431884
-0.028012158 0.02946758 0.03745639 0.024491804 -0.00012067674 0.016917778 0.015069808 0.018553812
0.021947231 -0.006881449 0.0035632637 0.013867307 -0.0045038345 -0.004579288 0.028899156 0.020223618
-0.039534204 0.027106188 0.0517441 0.018577153 0.0011214508 0.023354447 0.0021589007 -0.031845786
-0.015422207 0.0069605773 0.008414954 0.0009871037 0.0031196412 0.00036869358 -0.02437241 -0.039642986
-0.0048742513 0.036558446 0.037684582 0.016433142 0.06719372 -0.012907792 0.024833746 -0.025192091
-0.004740605 0.054568157 0.022770612 0.051671796 -0.013720239 -0.025105923 -0.04268751 -0.015840389
0.0031883472 0.0072484477 -0.02366703 0.021460481 -0.015064096 0.0064060744 0.059978962 0.038944364
0.017138142 -0.02145781 -0.021676837 -0.025043156 0.0044369902 0.006999798 -0.0017357538 0.023237571
-0.028179035 -0.040574282 0.034361076 0.0065587144 -0.014880732 -0.026645504 9.502299e-05 -0.020451514
-0.0017111746 0.007612079 -0.023402309 0.0132878395 -0.005284863 -0.04260055 -0.009944425 -0.0075753955
0.0033448017 -0.0040963404 -0.021805122 0.006107317 -0.027294299 0.00073225674 0.026583746 -0.022639437
-0.015512898 -0.043800496 0.033764966 -0.0035819092 0.035736855 0.023967791 -0.0017025266 -0.02121127
-0.02917617 -0.0056754053 0.00965224 0.013077641 0.016434835 -0.0067781936 -0.007577215 0.065986484
0.019183256 0.054427117 -0.018452264 -0.009721945 0.00055852334 0.0018083485 0.05293166 0.038295314
0.033941608 0.008527973 0.006105915 0.027808582 -0.0043557053 -0.002128036 -0.015984843 -0.006724206
0.0168698 0.008283115 -0.020730563 -0.0033600715 -0.008655659 -0.00086708413 -0.006791436 -0.026474204
-0.031105896 -0.01671008 -0.0016088143 0.031915963 0.033399154 0.01969839 -0.03504468 -0.0012371233
0.012545079 0.022549415 -0.0031731862 0.001255706 0.014599709 0.014766992 0.015415323 -0.004354242
-0.019814676 -0.016733874 -0.016615272 0.036989316 0.037406307 -0.0217598 -0.049033232 -0.010130893
0.0050174785 0.026906887 0.048937768 0.055637676 0.013845192 -0.012536711 -0.018980687 0.014202974
0.056393065 0.044752188 0.067334466 0.054386675 0.022305164 -0.013107115 0.0031289433 0.049762346
0.035922732 0.069178715 -0.0059914174 0.012243363 -0.009181434 -0.00974362 0.0040291143 0.0028895985
0.025794316 -0.002722298 0.0026608652 0.0030447957 0.037436724 0.008720023 -0.0013892356 -0.018695207
0.015772875 0.03681937 0.0014920806 0.061067007 0.017989399 0.0373838 0.015402796 0.043137774
0.05959667 0.01072947 0.0040428266 -0.005701609 0.059117943 0.018092696 -0.04438541 -0.01837978
0.006983563 0.00931636 0.022980252 0.028397664 0.04172795 -0.021569094 0.010355325 0.0035449609

module.net_sm.bn1.weight f4 [32]
00000000: 4cba 5f3f 0611 733f 6c6f 643f 2cff 653f
00000010: 0fae 5b3f 5ceb 6e3f 71a1 5c3f 3d57 543f
00000020: 66a9 5e3f f819 543f 65af 723f 5594 643f
00000030: 3e13 5c3f efbf 553f 87dd 5a3f 7e7d 603f
00000040: ad4f 633f e20b 653f d7f9 5b3f c423 5f3f
00000050: 07bf 623f 44e0 533f 7f46 4e3f 097c 583f
00000060: 6081 793f 1795 5d3f b3dc 6f3f 2248 6c3f
00000070: a9d4 563f 9fd0 683f 1d80 5f3f 38f6 553f
0.8739364 0.9494785 0.89232516 0.89842486 0.8581247 0.9332788 0.8618384 0.82945615
0.8697723 0.82852125 0.9479888 0.89288837 0.8596686 0.8349599 0.85494274 0.87691486
0.8879345 0.89471257 0.859281 0.8716395 0.88572735 0.8276408 0.8057632 0.8456426
0.97463036 0.8655562 0.93696135 0.92297566 0.83918244 0.9094333 0.8730486 0.83578825

module.net_sm.bn1.bias f4 [32]
00000000: 0cfe ebb9 6590 2a3c 117a 553c 9a4f 483c
00000010: ce06 8b3b 5ee6 acbb f6c1 37bb dc4b b3bc
00000020: c863 31bc fc25 f13b 5545 093c cec6 363b
00000030: 4507 c13b 3249 143c eeca a4bc dc57 8c3b
00000040: 9e8e 503b 066b 873b 9985 363c c34a 793b
00000050: df40 1e3c 226a 483c e534 dcbb 3f6b a7bb
00000060: f391 e33b 73be f4bc a7a5 233c f980 6e3c
00000070: 5af9 873c 2a54 393b 1f80 3c3c 720b eb39
-0.00045011973 0.010410403 0.013029591 0.01222601 0.0042427545 -0.0052764853 -0.0028039194 -0.021886759
-0.010827012 0.0073592644 0.008378346 0.0027889493 0.005890759 0.009050654 -0.020116296 0.0042829346
0.0031823288 0.0041326312 0.011140251 0.0038038946 0.009659021 0.012232335 -0.0067201727 -0.0051092203
0.0069448887 -0.02987597 0.009988225 0.014557117 0.016598392 0.0028278925 0.011505156 0.0004483122

module.net_sm.bn1.running_mean f4 [32]
00000000: d7ec 2637 4ddc 0eb8 4714 dcb4 5e82 95b6
00000010: 97e9 8236 bd0f ea37 93a6 3437 1d6c f937
00000020: bc21 3e37 24c7 9335 0652 9bb7 da94 8236
00000030: 6070 afb7 c6c5 a637 9737 60b5 32b0 3c37
00000040: e367 abb7 a2d9 3f37 5f53 4a37 c8d6 7536
00000050: e191 95b7 2ab0 86b6 b320 0e37 1fd2 ce37
00000060: 20fa 07b8 e194 57b6 2f10 da37 2357 3bb8
00000070: 3b5f 6736 070f 1ab7 5c93 9fb7 67ee aeb6
9.949515e-06 -3.406061e-05 -4.0992947e-07 -4.455723e-06 3.9014953e-06 2.7902302e-05 1.076762e-05 2.9733457e-05
1.1332737e-05 1.1010311e-06 -1.8515635e-05 3.8916305e-06 -2.0913954e-05 1.9880837e-05 -8.3527397e-07 1.1246697e-05
-2.0433165e-05 1.1435159e-05 1.205955e-05 3.6632864e-06 -1.7830114e-05 -4.0140194e-06 8.471473e-06 2.4654959e-05
-3.2419455e-05 -3.2124155e-06 2.5995161e-05 -4.4665427e-05 3.4477114e-06 -9.182614e-06 -1.9022897e-05 -5.213358e-06

module.net_sm.bn1.running_var f4 [32]
00000000: 74c3 2a3b 2d90 b43b 486d 583b f208 813b
00000010: c8e7 a13b ffa0 d93b a494 573b c995 ad3b
00000020: 892b cb3b de9d 273b 0354 a23b a6a1 5c3b
00000030: a74e 773b 73b5 893b 4d8f 953b 32fe 433b
00000040: 871c 6e3b cc6c b93b 5b62 3e3b 22e0 313b
00000050: 91e0 7c3b b641 943b 65d6 4c3b 7cb6 543b
00000060: dfc4 a53b a947 563b 5ac4 c03b c554 973b
00000070: d025 523b 0b1d 753b 74ec 303b 9a2c 3b3b
0.002605644 0.005510351 0.003302412 0.003937834 0.0049409606 0.0066415067 0.0032894993 0.005297397
0.006200258 0.0025576274 0.0049538626 0.0033665686 0.003773609 0.0042025386 0.004564202 0.002990615
0.0036332922 0.0056587216 0.0029050324 0.002714165 0.0038586 0.004524435 0.0031255719 0.0032457402
0.0050588693 0.0032696521 0.005882782 0.0046182596 0.0032065995 0.0037401344 0.0026996406 0.002856052

module.net_sm.layer1.0.conv1.weight f4 [32, 32, 3, 3, 3]
00000000: cee3 ab3c 73a4 b0bc db88 d3bb b983 4b3c
00000010: 8529 8b3c 64d5 b3bd a0ad 6ebd 07b9 c13b
00000020: fdec 1e3c f835 b43c 8a5a c23c f157 a53d
00000030: d386 58bd 088c a53d 5cbf 08bd 22f9 f0bc
00000040: 08ca 3ebd 6a32 30bd 278a f138 f42e aa3d
00000050: 865d d63c 5c56 be3d a388 913c 9b34 a93c
00000060: a488 0fbd b107 fe3b dfaf 67bd 3e3f 67bd
00000070: 9fcf 85bd 3811 cebb bdc7 333d df41 cdbc
00000080: 781a d5bc 71e2 f0bc c077 a43c af47 113d
00000090: 733f 853c 2fa2 183c f0ed 4b3d 7c31 14bd
000000a0: f35d be3a e762 a93c b49e 8f3c 41ed 053d
000000b0: 50dc 3abd eb50 27bd 98f7 4ebd 776c 28bd
000000c0: ad39 a8bc 19fb 66bd 9de3 363d 89c7 a9bc
000000d0: 07fb e5bc ba23 1fbc 4dc7 82bc 04c0 8b3d
000000e0: 3864 b03c 9676 9f3c a784 c43c b9df 0d3e
000000f0: 102b bfbd c24e 603d 5869 b4bb 8058 54bd
00000100: 8614 d6bc efc6 12bd e1c1 51bd 6eb6 19bd
00000110: d40e 37bd b37b eb3d bc2e 503b 99ce 103c
00000120: de61 443c efdb 9d3d 637d 463d 12e6 c13d
00000130: 2fcd b13c b136 843d fd31 8b3c 60f1 173d
00000140: 6dbb ffbb 27af e0bc 3f14 50bd 589d b3bc
00000150: 61fc 9a3d bbe2 b23c d7c0 413a 483f 3bbd
00000160: c461 7e3c 761c 723c 7fc9 cfbc 412c e13c
00000170: 2792 2fbd 8adf 053d 6f27 1ebd 2c6e 763d
00000180: 5680 7fbb e109 3b3b f8a3 74bd eae0 4fbd
00000190: ed0f f33c 5cbd 2e3d 3d8e 9ebd 28a9 52bc
000001a0: 2a4a e83c 9a02 a0bd ff63 23bd 612a 36bd
000001b0: 1032 8d3d 57b6 8f3d 247b 9bbd 6f96 f0bc
000001c0: 5587 9b3c 3a02 d93b 4863 e7bb d3e3 17bd
000001d0: 988c 8e3d 1e96 8dbc 986a 30bc 9c77 5fbd
000001e0: 1b0b 3c3a 03c0 fc3b 086b e1bc 1001 853c
000001f0: 46eb 8c3d 73c4 d5ba d3f4 eebb fa2d 2ebb
00000200: c0b8 8f39 96d5 77bb dbdc 6cbc 2ce4 1ebc
00000210: 251d 8f3c 2fd4 34bb 5b2e 05ba c578 c43c
00000220: 7cab 9abb 4f8d acbc 274f 553d 8e53 0a3d
00000230: 50d5 5bbc 4fe0 91bb c98a 99bd ceba 3cba
00000240: 8ebf 64bb a59a b3bc d0f9 423c 8b48 babb
00000250: c2ae b23c cfd3 fd3c 97c1 213d e899 7a3c
00000260: fdb8 1abd 7c16 4d3c e7d3 a63b f71a 22bd
00000270: a0be 803d 9728 60bc 6ec0 24bd 654c fcbc
00000280: d465 803d 3a02 40bd 33da 1d3d 3a1e 4bbd
00000290: 7e3d 4dbd a394 42bd a8ce acbd 6054 a4bd
000002a0: 2417 c23d 5307 19bc 2d58 1bbe 4d87 f2bc
000002b0: 7308 5fbd 5aed f5bd 9cfe 64bd 49cc 87bd
000002c0: 52a9 5dbd a25f cf3b c89f d43d 0f28 7a3d
000002d0: b083 ae3d a7af 19bd 7fe3 863c eb11 0f3c
000002e0: 3819 943d 9f46 693d 4e7d 673d e17d 043d
000002f0: 264e cfbc f392 0a3d 810c 393d 182e 61bd
00000300: c56c 433d fb9d b9bc ff08 923c 979c 1b3c
00000310: b560 f2bc 418d ea3c de0a 13bd 75bb 3fbd
00000320: 54af a5bc 7d6a c6bb bec3 d63d 83a5 253d
00000330: 0bab 70bd 8dab bcbd f5b1 303d 6b0c 48bc
00000340: 9a63 1e3d 2060 083d 60d9 c03c e5c5 1b3d
00000350: 33fe c8bc 4849 df3c 85dc 17bb fada d93c
00000360: f632 f83c 63cb 46bc 6a8e eebb cd42 95bc
00000370: c8ff 1ebd dd8a 37bd 4ab2 fbbc 806c 923d
00000380: da2f 13bd 1bcd 543c c3c8 9c3d 3696 a7bd
00000390: 6602 183d 2ae1 bebd dd20 003d 1342 4fbd
000003a0: 7094 50bd 8ca7 89bc 5348 95bd 0cf7 0ebd
000003b0: 293c 853c 319a cf3b c86d 683a 2cc6 70bd
000003c0: 71ba 2f3c befb 023d 6de0 15bd 0334 ae3c
000003d0: 830d 833b 2680 a9bb 8605 613d 87ee 2a3c
000003e0: d2bd 11bd 7ac7 233d 9d4f 2c3c cde4 85bc
000003f0: aec3 a5bd 5b40 be3b a916 e4bc 3469 363d
0.02098265 -0.02156279 -0.0064555234 0.012421542 0.016987571 -0.087809354 -0.05827105 0.0059119496
0.009700057 0.02199839 0.023724813 0.08073414 -0.052862953 0.080833495 -0.03338562 -0.02941567
-0.04657939 -0.04301683 0.000115175084 0.08309737 0.026167642 0.092938155 0.017765349 0.020654967
-0.03504242 0.0077523817 -0.056564208 -0.056456797 -0.06533741 -0.0062886737 0.043891657 -0.025055824
-0.026013598 -0.02940485 0.020076632 0.035468753 0.016265607 0.009316011 0.04978746 -0.036180004
0.0014523849 0.020677043 0.01753173 0.032696966 -0.045620263 -0.040848654 -0.050529093 -0.041119065
-0.020535314 -0.05639181 0.044650663 -0.020725029 -0.0280738 -0.009713108 -0.015964175 0.068237334
0.021532163 0.019465726 0.023989035 0.13854875 -0.093343854 0.05476261 -0.005505722 -0.051842213
-0.026132833 -0.03583425 -0.051210288 -0.037527494 -0.044691876 0.11498203 0.0031766137 0.008838319
0.011986224 0.07707965 0.04845942 0.094677106 0.021704284 0.06455744 0.01699161 0.037095428
-0.0078043253 -0.02742727 -0.05080056 -0.021925613 0.07567669 0.02183663 0.0007391101 -0.045714647
0.015526239 0.014777293 -0.025364636 0.027486922 -0.04286399 0.032683887 -0.038611826 0.06016366
-0.0038986406 0.0028539824 -0.059726685 -0.050751604 0.02967068 0.042661056 -0.077419735 -0.012857713
0.028355677 -0.07812996 -0.039890286 -0.04447401 0.06894314 0.070172004 -0.075918466 -0.029368607
0.01898543 0.00662258 -0.007061396 -0.037082504 0.0696041 -0.017283496 -0.010767601 -0.054557428
0.00071732857 0.0077133193 -0.027516857 0.016235858 0.06880812 -0.0016309157 -0.007292369 -0.0026577697
0.00027412735 -0.0037816516 -0.014456953 -0.009697955 0.017469952 -0.0027592292 -0.0005080455 0.023983369
-0.0047201496 -0.021063475 0.05207744 0.03377109 -0.013417557 -0.0044517885 -0.07497174 -0.0007199467
-0.0034904215 -0.021924326 0.01190038 -0.0056849173 0.021811847 0.030984787 0.039491262 0.015295483
-0.037774075 0.012517568 0.0050911787 -0.039576497 0.06286359 -0.013681552 -0.040222578 -0.030798147
0.06269422 -0.046877123 0.03853817 -0.049589373 -0.05010747 -0.047505032 -0.08437854 -0.08023906
0.0947707 -0.009340125 -0.15170355 -0.029605532 -0.054451417 -0.12008162 -0.055906877 -0.06630761
-0.054116555 0.006328539 0.10382038 0.06107336 0.08521211 -0.03752103 0.0164659 0.008732299
0.072313726 0.056952115 0.056515984 0.03234661 -0.025305819 0.033831548 0.04517794 -0.0549756
0.047711153 -0.022658339 0.017826555 0.009497783 -0.02958713 0.028631808 -0.035899036 -0.046809632
-0.020225205 -0.006055175 0.104865536 0.040441047 -0.05875687 -0.09212408 0.043138463 -0.012209992
0.038669206 0.033294797 0.023541152 0.038030524 -0.024535274 0.027256623 -0.0023172211 0.026593674
0.030297738 -0.012133452 -0.0072801607 -0.01822033 -0.03881815 -0.044810165 -0.030724663 0.07149601
-0.035934307 0.012988354 0.0765548 -0.08182947 0.037111662 -0.093202904 0.03128134 -0.050600123
-0.05092281 -0.016803525 -0.072891854 -0.03490357 0.016264038 0.0063355197 0.00088664563 -0.05878274
0.010725603 0.03197836 -0.036590982 0.021265035 0.0039994135 -0.005172747 0.05493691 0.010432846
-0.035581417 0.039985158 0.010517028 -0.016344452 -0.080939636 0.0058060116 -0.027842836 0.044533923

module.net_sm.layer1.0.bn1.weight f4 [32]
00000000: bb83 593f a57f 593f b78d 5b3f bff8 5c3f
00000010: acf2 5e3f 93ce 5f3f b665 5e3f 28de 5f3f
00000020: b78a 553f 2e46 5e3f d738 5f3f 9f61 583f
00000030: 01ef 5c3f d5ec 5e3f 0c1e 5c3f 153a 5c3f
00000040: a540 633f ee64 5c3f d889 583f 0c70 593f
00000050: d4a4 633f 988c 573f 645e 643f 4188 5e3f
00000060: 94e0 5c3f bd30 633f 9830 5c3f 4a81 633f
00000070: d211 613f fb91 5e3f 88b0 573f 6fb5 5c3f
0.8496663 0.84960395 0.85763115 0.86317056 0.8708904 0.8742458 0.8687395 0.8744836
0.8341479 0.86825836 0.87196106 0.8452396 0.8630219 0.87080127 0.8598335 0.86026126
0.88770515 0.86091506 0.8458533 0.84936595 0.8892338 0.84198904 0.8920653 0.86926657
0.8628018 0.88746244 0.8601165 0.88869154 0.87917817 0.869415 0.8425374 0.86214346

module.net_sm.layer1.0.bn1.bias f4 [32]
00000000: 2696 eabc 881c 56bc 2694 483b 8ba6 243d
00000010: ea64 7e3c 87a2 4d3d 968d d3bc e6b4 803c
00000020: e6a6 09bc 74ea 483c 0f1f 053d 1c61 1ebd
00000030: 978f 3d3c 0fbb 313d a8af 6ebd 01ae 523b
00000040: 2c9c ac3d b8b3 1d3d cee3 ecbb eb98 91bc
00000050: a519 653c f068 d7bb 5d30 0c3d c6f9 bc3c
00000060: ae19 67bc 7725 d43c 953c b83c 321d ce3d
00000070: 5242 933b ace4 743c 4ccc d33c 9ff3 30bc
-0.02863605 -0.013068326 0.0030605881 0.04019789 0.0155269895 0.050203826 -0.02582435 0.01571126
-0.008401608 0.012262929 0.032500323 -0.03866683 0.011569879 0.043391284 -0.058272988 0.0032147171
0.08428225 0.03850147 -0.007229305 -0.017773112 0.013983165 -0.006573789 0.03422581 0.02306832
-0.014105244 0.02589677 0.022489825 0.10064162 0.00449399 0.014947098 0.025854252 -0.010800271

module.net_sm.layer1.0.bn1.running_mean f4 [32]
00000000: a323 ca3f 23b6 0a40 cc5a 5cc0 3df4 16c0
00000010: 3bc8 ddbf 9210 97c0 e1c0 c13f 22c8 a6bf
00000020: 7d51 3d40 0cf3 9340 505f 0e40 c44f 3840
00000030: 98bd 53bf 15b2 4240 200e 4ac0 ebea 2ac0
00000040: 2d74 8c40 15ef ea3f 1c7d 893f 9148 03c0
00000050: 2b0f 64bf 79fd 15c0 a1c6 b7bf 4ad6 243f
00000060: 4166 dd3f 3aa7 713f e69a 2740 8b64 7740
00000070: 9eb3 c8bf 39d7 f03f f454 1540 4ed9 43c0
1.5792125 2.1673667 -3.4430418 -2.3586571 -1.732673 -4.7207727 1.5136987 -1.3029826
2.9580986 4.623419 2.2245674 2.8798685 -0.8271117 3.0421193 -3.1571121 -2.6705883
4.3891816 1.8354212 1.0741305 -2.051304 -0.89085644 -2.3435957 -1.4357492 0.6438948
1.729683 0.9439579 2.6188293 3.8655117 -1.5679815 1.8815681 2.3333101 -3.0601382

module.net_sm.layer1.0.bn1.running_var f4 [32]
00000000: ef82 be40 62c3 c840 b78a 4241 a7e1 ff40
00000010: e254 8f40 869c b441 fbb1 6740 980f 5740
00000020: 1d8f 1f41 68af a741 05ba c040 1c79 2c41
00000030: 0374 3e40 d1a8 2641 6c9b 3841 9662 f040
00000040: a84d 9341 e3d3 da40 5dd7 3f40 87f3 8f40
00000050: 02f6 9040 e6ef 0241 b993 f940 6c2c e93f
00000060: 5860 7a40 9693 4740 c855 0341 dc28 8041
00000070: 0cae 6840 4144 ae40 b92b f740 4525 1841
5.953483 6.2738504 12.158866 7.9962955 4.4791117 22.576427 3.620238 3.3603268
9.97244 20.960648 6.0227075 10.779568 2.9758308 10.416215 11.537945 7.5120344
18.412918 6.838365 2.9975197 4.4984775 4.5300303 8.183569 7.7992826 1.8216681
3.9121304 3.118383 8.208443 16.01995 3.635623 5.445832 7.724087 9.509099

module.net_sm.layer1.0.conv2.weight f4 [32, 32, 3, 3, 3]
00000000: 8ce0 a2bd 9d0f 2f3d 0213 ba3c e6e5 8fbc
00000010: cba3 e5bc 3c2e 833c 6412 a03c 7dec d6bc
00000020: 6f72 eb3b 93ec d7bc 4cad 1fbb 1a2c 18bd
00000030: 0bfa be3c dca6 513b 27f4 13ba eaa8 a0bd
00000040: 10f7 0a3d c420 ee3d 3667 f3bb 7abc 9fbd
00000050: d419 8fbd 3538 653c ad04 44bb f95b c03c
00000060: 763d 2f3b 7b8a 753c a7ba 5cbc 2eff 8d3b
00000070: faeb 46bd f634 1ebd f65b 37ba 3aeb 673d
00000080: 7f0d 88bc 22d1 36bd 095d 2fbd 7bbf 20bd
00000090: adbb acba 2279 9ebc e127 513d 00f3 edbb
000000a0: 5794 ce3c da3a 8fbd b58a 22bd ca7c 113d
000000b0: 0ba7 81bc d97d 603d 2509 debc 2335 073d
000000c0: 8000 45bb b4e4 8cbd db10 1a3d 3c98 523c
000000d0: 7a5c 143d e677 8ebd ef94 353d 0b49 0fbd
000000e0: 1724 8d3d 52aa 05bb 829c 0a3d 8f67 353d
000000f0: 891c fc3c b7d6 8d3d 82f1 1c3d fb17 4abc
00000100: e02d b53c 40b2 77bc e125 9bbd 9d7a a0bc
00000110: 0cde 85bc 1f05 7abd 1d69 b63c c9fe eb3d
00000120: e9bc 5e3c 890b 67bc 3e1a 04bd d793 e1bc
00000130: 341d 4ebd 4ee9 263c 0870 303d 77ad d43c
00000140: 72a8 9fbb 8122 08bc cb5b 8fbc b516 7ebc
00000150: f0f8 293c c7cc ee3c 7c92 b4bd ede1 d2bd
00000160: df11 7cbd 2828 70bd 7c56 08bb 6582 9e3d
00000170: 4323 003d 574b 0a3c 4d21 d439 a269 493d
00000180: 6537 2cbd 5555 493b e9fa bdbb d23c ddbb
00000190: 2e35 febc 6a6c 23bd 8ccc 223d 2893 04bd
000001a0: f72c d3bd f6b9 a63d 9fb4 a9bd d5e3 b0bc
000001b0: 2ef5 a1bc b9ea 43bd 0d7f b13c 75c2 c63b
000001c0: 0453 1dbb b3c5 f63c fa69 5abc 8963 cfbd
000001d0: 58f1 ebbd 73de b5bc ca8e e6ba 1b87 cfbb
000001e0: cc48 f9bc 1315 0a3c 81ca 283d 6cca 1abd
000001f0: 0e42 f6bc b2c7 28bd ff92 96ba af53 473d
00000200: ef40 8ebd 1459 e43c ee02 753c ca16 943d
00000210: adf8 a03c d170 8bbd d49d 52bd d3ba 0cbd
00000220: 8acd 933c 6862 6a3d 647d c93b 62ee 7cbd
00000230: d575 50bd 4f41 fd3c 14c2 d33c 9265 8b3c
00000240: e12c b73c f30f 80bc 65ee 2f3d 69f9 b6bc
00000250: a883 e43c 7f0e 393d c405 123c 174b 393d
00000260: 4ad3 c93c 75a9 ddbc 4559 47bd 0834 ad3d
00000270: 283e 603d add6 22bc 6894 0b3d c597 853d
00000280: a207 33bd 4f04 013c 4de2 833d b008 efbc
00000290: 960c 443c f847 be39 a30f 733d 2400 7dbc
000002a0: 5c2d 6dbc 31f9 0b3c 8840 373d 7713 a23c
000002b0: fc80 873c 8276 0abd 80d3 543d 7277 333c
000002c0: 6fe4 21bd f5ba f6bc 4228 0b3a 31aa 1fbd
000002d0: 9250 0dbc 0c56 7b3c bc61 f93c 4bea 7a3c
000002e0: 13a5 673c 3a05 58bd 95cd cabc 57a7 6e3d
000002f0: 6afa 10bc 572e 67bb ea40 3ebd b03b a43d
00000300: f796 fd3b 12fb 74bd 3ff6 21bc 547c f73b
00000310: cbc7 a53c fc46 4abb fc68 f33c 056d b0bb
00000320: 2d18 d13d 6a6e ddbc dfc0 d93d 43ec 273d
00000330: 305a a73d 55f1 db3b 38ab c03c b3c1 bebc
00000340: dc2c dbbc 8762 52bc 5ebc a83d 4c64 c43c
00000350: 340d ae3c d93d 933d ea01 fe3c 6f84 b43b
00000360: 5bc2 87bc 3887 273d c0b3 46bd 20ee 5bbc
00000370: 53be 683d 775d 383c df4b 043d cb45 59bc
00000380: 4e25 08bc 8777 11bd 902f ce3c 170b a33c
00000390: cfba e63c 9be8 8abb e14e 143c 1f14 b53d
000003a0: 6249 613c 45a5 59bd aa97 82bd f51b 14bc
000003b0: fb6d 6c3d df87 573d 3ff2 41bd 666b 803c
000003c0: 829a 38bd 6370 6e3d 4623 31bd 6cfb b5bc
000003d0: ec9a 93ba 5327 79bc da5a 493c b0ca 1c3c
000003e0: 9096 6b3c 457e 4abd bd19 693d 5b87 ad3c
000003f0: 4618 3ebc 9ee3 96bd 6aa2 05bd 8027 a03d
-0.07952985 0.0427395 0.022714142 -0.017565679 -0.028032204 0.016013257 0.01954002 -0.026235813
0.0071852724 -0.026357925 -0.0024364768 -0.037151434 0.02331259 0.0031990325 -0.00056439865 -0.07844718
0.033927023 0.11627343 -0.007428075 -0.07799621 -0.06987348 0.013990452 -0.0029910014 0.023481356
0.0026739514 0.01498663 -0.013472236 0.0043333983 -0.04856489 -0.038624726 -0.0006994599 0.056620814
-0.016607998 -0.04463304 -0.042813335 -0.03924511 -0.001317849 -0.01934487 0.051063422 -0.007261634
0.025217218 -0.06993647 -0.039683063 0.0355194 -0.015826723 0.054807518 -0.02710397 0.03300966
-0.0030060112 -0.06879559 0.03761373 0.012853678 0.036221005 -0.069564626 0.044331487 -0.03498177
0.06891649 -0.0020395708 0.033840664 0.044288214 0.030775325 0.06925719 0.038316257 -0.012334819
0.022116601 -0.015118182 -0.07575584 -0.019589717 -0.016341232 -0.06104004 0.022266919 0.11523206
0.013594844 -0.014101871 -0.03225159 -0.027536316 -0.05032082 0.01018746 0.04307559 0.02596162
-0.004872375 -0.008309008 -0.017499825 -0.015508343 0.010374293 0.02915038 -0.08817002 -0.10296998
-0.06154048 -0.058632046 -0.0020803502 0.077397145 0.03128363 0.008440814 0.00040460602 0.049173005
-0.042045016 0.0030721028 -0.005797733 -0.006751635 -0.031031217 -0.039898314 0.039745852 -0.0323669
-0.10311311 0.08140938 -0.08286404 -0.021593014 -0.019770231 -0.04783127 0.021667028 0.0060656616
-0.002400578 0.030123567 -0.013330931 -0.10126407 -0.11520642 -0.022200799 -0.0017590162 -0.0063332445
-0.03043022 0.008427876 0.041208748 -0.0377907 -0.030060794 -0.04120607 -0.00114879 0.04866379
-0.06945979 0.027874507 0.014954312 0.07230909 0.019649828 -0.068086274 -0.051420048 -0.034357857
0.018042345 0.057222754 0.006148981 -0.061750777 -0.050893623 0.03091493 0.02584938 0.017016206
0.022360267 -0.015632605 0.04295196 -0.022335725 0.02789481 0.04517984 0.008912507 0.045237627
0.024636883 -0.027058342 -0.04866912 0.0845719 0.054746777 -0.009938878 0.034077078 0.06523088
-0.04370845 0.007874562 0.06439648 -0.029178947 0.011965891 0.00036293245 0.059341084 -0.015441928
-0.014476147 0.008543299 0.044739276 0.019784672 0.016540997 -0.033804424 0.051959515 0.010953771
-0.039524492 -0.030118445 0.0005308428 -0.038980667 -0.0086251665 0.015340339 0.030442111 0.015314649
0.014138478 -0.05273936 -0.024756232 0.058265056 -0.008848766 -0.0035275423 -0.046448626 0.08019197
0.0077389437 -0.05980975 -0.00988537 0.007552663 0.02023687 -0.0030865064 0.029713146 -0.00538409
0.10209689 -0.027030189 0.1063249 0.0409968 0.08171499 0.0067121186 0.023519143 -0.023285722
-0.026754789 -0.012840874 0.08239053 0.023973607 0.02124653 0.07189531 0.031006772 0.0055089514
-0.016572168 0.04090044 -0.048511267 -0.013423473 0.056822132 0.0112527525 0.03229892 -0.013261269
-0.008309675 -0.03551438 0.025169164 0.019902749 0.02816525 -0.0042391545 0.009052009 0.088417284
0.013750406 -0.05313613 -0.06376584 -0.009039869 0.057722073 0.05261981 -0.047350165 0.015676212
-0.045069225 0.05821265 -0.04324653 -0.022214614 -0.001126138 -0.0152071295 0.012289727 0.009569809
0.014379159 -0.049436826 0.05690931 0.021182707 -0.011602467 -0.07367633 -0.032625593 0.07820034

module.net_sm.layer1.0.bn2.weight f4 [32]
00000000: 437f 543f d26b 593f 2f5e 663f 7b79 603f
00000010: 177e 5d3f 1c56 623f 7252 4e3f e924 4d3f
00000020: e45e 4b3f a187 583f e878 5d3f 17f5 5b3f
00000030: a11e 5a3f 9c12 613f 8613 623f 6c56 5d3f
00000040: c890 503f c412 4b3f aa08 613f d092 623f
00000050: 78ce 5b3f 1b60 483f 01f7 4f3f f006 5b3f
00000060: 685f 573f 33ce 613f c13a 5d3f 1f3f 5c3f
00000070: d42e 673f fb88 5c3f 98dd 5e3f 70e8 5c3f
0.83006686 0.84930146 0.8998746 0.87685364 0.8652052 0.8841264 0.8059455 0.80134445
0.79441667 0.84581953 0.86512613 0.8592085 0.85202986 0.8791902 0.8831104 0.86459994
0.8147092 0.7932551 0.87903845 0.8850527 0.8586192 0.78271645 0.81236273 0.8555746
0.84129953 0.8820526 0.86417776 0.86033815 0.9030583 0.86146516 0.87056875 0.8629217

module.net_sm.layer1.0.bn2.bias f4 [32]
00000000: 7a13 84ba c130 21bc 9d00 223c b13d 9b3a
00000010: 4272 813b 7966 91bc e9ce e6ba 978b 3bbc
00000020: 526a cabc f066 ba3b c7fd a43b dd35 82bb
00000030: b7f5 b53b ee25 0e3c b125 0cbc 044c 9fbb
00000040: 0366 8bba 71a3 ea3a 5383 103c 8306 843b
00000050: 01c9 81bb 9a4d 333c 5f9a 74bb f513 adbb
00000060: 0f71 f7bb 6879 b8bc e616 4b3c cce1 923b
00000070: f9d8 f73b 548d 29bb b356 993a 312d a3bb
-0.0010076605 -0.009838284 0.0098878415 0.0011843947 0.003950388 -0.017749058 -0.0017609271 -0.011446855
-0.0247089 0.0056885406 0.0050351354 -0.003973706 0.005552973 0.008676035 -0.008553908 -0.0048613567
-0.001063526 0.0017901493 0.008820373 0.0040290966 -0.003960729 0.010943795 -0.0037323458 -0.00528192
-0.0075513194 -0.022518829 0.012395596 0.0044824835 0.007563707 -0.0025871592 0.0011698812 -0.0049797525

module.net_sm.layer1.0.bn2.running_mean f4 [32]
00000000: 0ec8 86be 27c1 9abf ad92 98bf 4120 64bf
00000010: 4b7c 52bf 1d4b 9bbf e13e 23bf f3d2 20bf
00000020: 96d1 c63e d64f 6cbf 7e75 91bf 71ab 0ebf
00000030: 0baf 76bf 7f0d 81bf 0a8e 7dbe 3191 73bf
00000040: 6d0a 62bf 8183 183f 67dd b6bf 4494 8abf
00000050: a3b5 8cbe 8067 d33e afe6 0f3f 18bf 93bf
00000060: 3252 febe 52a5 f8be dd84 26bf 51fd 85bf
00000070: e56d c6be 7159 ddbf d680 30bf 08fd b1be
-0.26324505 -1.2090195 -1.1919762 -0.89111716 -0.82220906 -1.2132298 -0.6376782 -0.6282188
0.38831776 -0.9230932 -1.1363981 -0.5573035 -0.96360844 -1.0082244 -0.24761215 -0.9514342
-0.8829716 0.5957566 -1.4286317 -1.0826497 -0.27482328 0.41289902 0.5621137 -1.1542692
-0.49672085 -0.4856363 -0.65046483 -1.0467931 -0.38755718 -1.729292 -0.6894659 -0.3476336

module.net_sm.layer1.0.bn2.running_var f4 [32]
00000000: 203c e03f 4160 1e40 17a5 6940 646d 0340
00000010: 7270 0640 b89a 0340 84d9 3c3f ce42 4540
00000020: 48e1 4e40 b8c7 0940 afb5 8240 b8a1 4140
00000030: afe4 1f40 934f 5e40 7951 3140 1f73 3e40
00000040: c040 313f 133c 6040 0306 8240 d52b 2c40
00000050: 5bc8 0b40 b5d2 e43f c973 b83f 4009 7340
00000060: 6d75 5340 41d1 fb3f ffe2 1640 6915 4440
00000070: b772 6440 88a2 ba40 f770 a63f 670d d83f
1.7518349 2.4746249 3.6507013 2.0535517 2.100613 2.0563183 0.737694 3.0822024
3.2325 2.1528149 4.084678 3.0254955 2.4983327 3.4736068 2.7705977 2.9757764
0.69239426 3.5036666 4.063234 2.6901753 2.1841037 1.7876803 1.4410335 3.7974396
3.304042 1.9673234 2.3576047 3.0638068 3.5695016 5.8323402 1.3003224 1.687909

module.net_sm.layer2.0.conv1.weight f4 [32, 32, 3, 3, 3]
00000000: 0aba 88bc 5e3a 08bd 7af2 e4bc 11b6 893b
00000010: 378b 333d 08e6 5a3d a8fd aabd 2c62 2e3d
00000020: 09c8 8d3c c7f4 69bb f609 54bc 4b73 fb3c
00000030: 01db 5d3d 934c 15bd 447c 053d 43d5 c8bc
00000040: 905c 863b 0995 f03c e0d5 1c3d 5b6f 2fbc
00000050: 8165 d93c 8138 3dbb 559c 403c 888b 3fbc
00000060: 725a bebc 260f 7cbd 0a57 b3bc 0bf3 1b3d
00000070: b715 0dbd 8a5b b1bc 5f71 f43c a9f7 3c3d
00000080: 2b91 193d 5c0c 99bb 91a8 c4bc 1dac 2fbc
00000090: 8213 8bba 4f44 913c 461c 40bd 1122 2d3d
000000a0: 0252 543c 6987 73bc 8a5c b3bc e471 bd3d
000000b0: 20cd d2bb 9d62 233d 0ea5 363d 360a 98bc
000000c0: 4def 4fbc bd8f 0a3d c491 11bc 9251 513c
000000d0: 0fc9 77bd 3270 813c 331c e3bb 6473 ecbb
000000e0: 8e8d a03b 8532 9fbd 5b8b 8b3c 3603 1d3d
000000f0: dd07 debc 53b5 98ba 1917 a4bd 41c6 43bd
00000100: 2fa4 a33d d449 dfbd 3137 983d fedc 843d
00000110: 2a3b f2bc 3793 86bd ecd5 05bd 1e94 b1bc
00000120: 9b7e 81bc bf72 6b3d d6f4 873c 1ff0 683c
00000130: 90cc 7d3d 1165 61bd 2a1b 223c c020 a13d
00000140: dc80 3bbd 92a5 c23d 75ad 833c bd6d 0c3d
00000150: 11f5 7d3d f02d 46bb 2a84 95bc 1d9f c63c
00000160: f6b1 843d f672 9bbd 95c4 d33c a7c3 89bd
00000170: ba67 5bbd 9376 1ebd e960 84bd 1301 123d
00000180: 26e8 413b 8987 a5bd cf2c aebd d749 133b
00000190: 83c0 0e3d a587 173d 4dce 73bb 6122 6fbc
000001a0: fdd5 22bd 4891 10bd d399 83bc 7e20 353d
000001b0: 48d6 123d 195a 743c 2c9a a8bc bded 1d3d
000001c0: 463c 01bd 9ef4 f23a a8d9 b1bd 5169 203b
000001d0: f9dd b93c 9b8a d43c 15f6 85bd 9795 8dbd
000001e0: 0ccc a33d a41e 7f3d 597d e53c fb43 793c
000001f0: fb50 ccbc f5c6 b9bb 4472 123d b39d 97bb
00000200: c3b1 1abc 2a7e 03bb e303 eebd b633 6cbc
00000210: 1656 8f3d e30d 91bd d441 153b 3948 953d
00000220: e567 843d 4152 c13b 5a55 173d a401 05ba
00000230: 64b3 123d 4ff4 78bd 26af 303d 5034 de3b
00000240: 8196 a4bd 17b0 b63b 6e8a 353b d390 19bd
00000250: dfb8 1d3d 8a72 27bd 5858 3e3d c6e8 8f3d
00000260: aefc 70bc ad89 16bd 5d39 bdbc 1bf1 ffbc
00000270: 4495 9c3d ea92 cabb cc26 70bd 1674 823a
00000280: d37e 143b 02fd a23d 8a13 f1bc 9f69 033c
00000290: 0142 01bd 3a8f 01bd 87f7 473c a90a 1abd
000002a0: e639 0e3b c32a 05bd a3df 113d 510a 79bd
000002b0: 356b 133d a2f1 2b3c 207f aa3d e5e1 cabc
000002c0: 7f7b afbd 4f96 433d ccb0 7fbc 7ff2 063d
000002d0: e8b2 28bc 41e7 4fbc 40ab 283c 2904 0cbc
000002e0: 08b7 663d f144 c5bc 371a c0bb 3724 623d
000002f0: a012 563d 5d89 843c 7348 91bc 0368 32bd
00000300: bcb9 003e 4b40 98bc 8653 3b3d fac4 393d
00000310: 7c7a 18bd 3d1d af3c bdc7 bebc 5661 96bc
00000320: 9d98 12bd 4e1d 093d 5d0d d8ba f867 263d
00000330: 36c7 09bd 1aea 123d 8859 c0bd 0bce 6cbb
00000340: 0977 74bd 4061 4f3b db6a 6c3c dd4a a23c
00000350: 7168 d43c 231a 1c3d 39f8 3fbd d64d c33c
00000360: 581c c53c b7ea bebd fb84 6d3c 8aeb 66bc
00000370: dc99 4b3d d659 bf3c c2a1 82bc 3bd6 f1bc
00000380: fc55 8c3d 3854 83bd 42d5 dcbc e8ed 413d
00000390: 53f4 02bd 1c47 933d 7ba1 db3c 87d8 973d
000003a0: 4b13 e83c 3a2f 703d 24f8 afbd 893c adbb
000003b0: bb34 b93c 6416 1e3d c27d f63c 4d70 68bb
000003c0: 12ac 9dbb 29b6 d1bc dee6 353d 0c41 cc3c
000003d0: ea13 72bd 72cb 923c 3710 8f3c 8ea0 443d
000003e0: 4e7f 5e3d 6a46 093e b4b1 c23c 2ba7 bbbb
000003f0: 5b52 033d 8e18 cdbc 3d3c a83c 00d6 41bb
-0.016690273 -0.03325879 -0.027947653 0.004202612 0.043833937 0.05344203 -0.08349162 0.042574093
0.017307298 -0.0035698877 -0.012941828 0.030694624 0.054163937 -0.03644998 0.032589212 -0.024515754
0.00410039 0.02936794 0.038289905 -0.010707702 0.026537659 -0.002887279 0.011756022 -0.011690982
-0.023236487 -0.061537884 -0.02189209 0.03807358 -0.034444537 -0.021650095 0.029839216 0.046134625
0.03749196 -0.004670663 -0.02400616 -0.010722187 -0.0010610672 0.017732767 -0.046901964 0.042268816
0.012959005 -0.014863827 -0.021894712 0.092502385 -0.006433144 0.039888967 0.044591002 -0.018559556
-0.012691331 0.033828486 -0.008884851 0.0127757955 -0.06049448 0.01580057 -0.006930852 -0.007215904
0.004899687 -0.07773308 0.017034223 0.03833314 -0.027103359 -0.0011650719 -0.08012218 -0.04779649
0.079903 -0.109027535 0.07432402 0.064874634 -0.029569227 -0.06571048 -0.032674715 -0.021677073
-0.01580744 0.057482477 0.016596239 0.014217406 0.061962664 -0.055028025 0.009894172 0.07867575
-0.045777187 0.09504236 0.016073922 0.034284342 0.06200129 -0.0030239783 -0.018251497 0.024245793
0.06479256 -0.075902864 0.025850574 -0.06726771 -0.05356572 -0.0386873 -0.06463797 0.035645556
0.0029587834 -0.08082492 -0.0850464 0.0022474432 0.034851562 0.036994595 -0.0037201822 -0.014595599
-0.039754856 -0.0352948 -0.01606456 0.04422044 0.035848886 0.014914059 -0.020581327 0.038556803
-0.03155162 0.0018536036 -0.08684093 0.0024476836 0.022688853 0.025944998 -0.06541077 -0.069132976
0.07997903 0.06228508 0.028013872 0.015213962 -0.024940958 -0.0056694695 0.035753503 -0.0046269535
-0.009441796 -0.0020064213 -0.11621835 -0.014416626 0.069988415 -0.07082727 0.0022774832 0.07289166
0.06465129 0.005899698 0.036946632 -0.0005073792 0.03581561 -0.060779866 0.043135785 0.0067811385
-0.08036519 0.0055751908 0.0027700919 -0.03749163 0.038506385 -0.040880717 0.04647097 0.0702682
-0.014708681 -0.03675239 -0.023098642 -0.031242898 0.07645658 -0.0061820643 -0.05863075 0.0009952809
0.00226586 0.07958414 -0.029428262 0.0080207875 -0.031557087 -0.031630732 0.012205011 -0.037607823
0.002170199 -0.032511484 0.035613667 -0.060800854 0.035990912 0.0104946215 0.083250284 -0.024765918
-0.08568477 0.047750767 -0.0156061165 0.032946106 -0.010296561 -0.012689413 0.010294735 -0.008545914
0.056326896 -0.024080725 -0.0058625 0.05521032 0.052263856 0.016178781 -0.017734742 -0.043556225
0.12570852 -0.018585345 0.04573395 0.045353867 -0.037226185 0.021376247 -0.023288602 -0.01835696
-0.035790075 0.033475213 -0.0016483475 0.040626496 -0.033637248 0.035867788 -0.09392077 -0.0036133553
-0.059683833 0.003164366 0.014429773 0.019811088 0.025928708 0.038110863 -0.046867583 0.023840826
0.024061367 -0.09322112 0.014497037 -0.014094243 0.04970728 0.023358267 -0.015946273 -0.029521098
0.06852338 -0.06412548 -0.026957158 0.047346026 -0.031971287 0.071912974 0.026810398 0.07414346
0.028329512 0.05863879 -0.08592251 -0.0052867574 0.022608152 0.038595572 0.030089263 -0.0035467327
-0.004811772 -0.025599556 0.044409625 0.02493336 -0.059101023 0.017919276 0.017463787 0.04800468
0.054320626 0.13405767 0.023766376 -0.005726715 0.032060962 -0.025036123 0.020536536 -0.0029577017

module.net_sm.layer2.0.bn1.weight f4 [32]
00000000: dc4d 613f 1860 5d3f cce1 5c3f 4535 5c3f
00000010: bc76 5b3f a1a0 5d3f aecd 5d3f e96d 5d3f
00000020: 88e3 5c3f 3f0c 5e3f 2a22 5d3f d453 623f
00000030: dd24 5e3f cd07 5f3f 1cce 5d3f 9214 5c3f
00000040: 30f9 5f3f a785 553f faf1 5e3f a346 5c3f
00000050: 3778 5b3f 8304 5d3f b708 5d3f 2da6 5d3f
00000060: bd54 5b3f b194 5b3f d99e 5d3f 506f 5e3f
00000070: 3e2e 5c3f 40a2 623f 7b4d 5f3f 0198 5b3f
0.8800943 0.8647475 0.8628204 0.8601878 0.8572805 0.86573225 0.8664197 0.86495835
0.86284685 0.86737436 0.86380255 0.8840916 0.86775 0.8712128 0.8664262 0.8596889
0.87489605 0.8340706 0.87087977 0.86045283 0.8573031 0.8633501 0.8634142 0.8658169
0.85676175 0.8577376 0.8657051 0.868886 0.8600806 0.88528824 0.872276 0.85778815

module.net_sm.layer2.0.bn1.bias f4 [32]
00000000: 1711 cc3b 3e5a 0bbc ad76 5f3b 9844 1d3c
00000010: 6786 8cbb 3909 57bc 4d44 4cbb e52d 32bb
00000020: 8f56 573b ce83 25bc 9653 20bb 0a8f 893b
00000030: edbe e63a d273 31bc c7c8 beba e007 9a3b
00000040: 526a 52bb 9fe8 4ebc fcc9 84bb 1bcf 483b
00000050: 7efc a6bc baae afbb 7ac5 09bc a285 1bbb
00000060: e130 12bc 9e21 1abc c40e 0dbc a2f8 ec3b
00000070: 2584 25bc 1458 27bb c436 d03a 9acb 58bb
0.006227623 -0.008505402 0.0034097836 0.009598874 -0.004288483 -0.013124757 -0.003116864 -0.0027188
0.003285799 -0.0101022255 -0.0024463884 0.00419796 0.0017604508 -0.010830836 -0.0014555686 0.004700646
-0.003210683 -0.012628703 -0.0040523987 0.0030641023 -0.02038407 -0.005361405 -0.0084088985 -0.0023730774
-0.008922786 -0.009407429 -0.008609477 0.007231788 -0.0101023065 -0.0025534676 0.0015885462 -0.003308034

module.net_sm.layer2.0.bn1.running_mean f4 [32]
00000000: 97eb 933f d709 18c0 cde7 103f 8528 8bbf
00000010: 73d7 93bf ac8b 9a3f 03fb edbe 33c0 51be
00000020: d10c fd3f f85b 6f40 5f30 1640 49c3 a1bf
00000030: 552b 0fc0 7694 b3bc 1ad5 403f a0f9 d3bf
00000040: f2b0 5dbe 02f8 833f 59ec fabf 3575 2dc0
00000050: 5bc5 d6bf 4b55 fbbf 5fcd 9cbf c2af de3f
00000060: 0b1a 9d3f fe25 29c0 8be0 d6bf 00d6 d23f
00000070: 0799 45c0 593b 3f3f 4e5b 9e3f a9ad 643e
1.1556271 -2.3756006 0.566037 -1.087174 -1.1550125 1.2073874 -0.4648057 -0.20483474
1.9769536 3.7399883 2.3467023 -1.2637721 -2.2370198 -0.021921378 0.7532517 -1.6560555
-0.2164953 1.0310061 -1.9603378 -2.7102787 -1.6778978 -1.9635404 -1.2250174 1.7397387
1.2273573 -2.6429439 -1.6787275 1.6471558 -3.087465 0.7469993 1.2371614 0.22331871

module.net_sm.layer2.0.bn1.running_var f4 [32]
00000000: c093 0f40 4297 4140 0dbb ed3f b761 1140
00000010: 8f51 5d40 c86f 0c40 4377 ce3f 4da1 0c40
00000020: 8113 2740 bbec a440 ce99 6840 3fc8 5640
00000030: f452 4640 3467 1440 6742 1a40 f956 4240
00000040: 3782 1b40 426e 8640 59b3 1b40 5025 c740
00000050: 23ff 1640 e740 4440 5fb8 3f40 91b2 1f40
00000060: bba9 2440 008c a540 f33c 0a40 f1e8 f83f
00000070: b12a b840 7307 1740 0246 3c40 30dd d23f
2.243393 3.024857 1.8572708 2.271589 3.458103 2.1943226 1.6130146 2.197345
2.6105654 5.153898 3.6343875 3.355972 3.098813 2.318799 2.4103029 3.0365584
2.4298227 4.200959 2.4328215 6.2233047 2.3593223 3.0664613 2.995628 2.4952738
2.5728595 5.17334 2.15997 1.9446088 5.7552114 2.3598297 2.941773 1.6473751

module.net_sm.layer2.0.conv2.weight f4 [32, 32, 3, 3, 3]
00000000: c073 8c3c 1d6e 2ebd f1b1 9bbd 5f5a 2e3d
00000010: 3aad f4bc 203a a3bd 8140 6bbd 0817 ebbd
00000020: 4ed7 40bc 46bd 2ebd 1f37 963c 62b6 fabc
00000030: 36b0 21bd 1329 8f3d d233 94bc 18c7 a2bc
00000040: 1eaf 65bc 91a7 c7bc a609 69bb 9d7c 50bc
00000050: 8744 3a3d 9d68 53bd a1c1 42bd c634 1fbd
00000060: 1d57 9fbd b838 053d 21ad 9dbb b904 5ebb
00000070: 04ac 643d c09c 40bc e304 40bd 7094 703c
00000080: 9b1d a0bc 7f32 ab3d e3c3 9a3d bf81 463c
00000090: 5bd6 413d 27e8 423d 4944 acbc 2ea7 a13c
000000a0: 0ed8 a33d d017 143c f7ae 45bd 5e58 5cbc
000000b0: af5d 313d 3c40 613d bfb1 02ba 1b34 7b39
000000c0: 3bfb 3bbd fc07 e8bc 4383 a0b9 ad6d 153d
000000d0: 24d7 e2bc 372c ef3a 1097 0a3d 7035 93bd
000000e0: 2db7 993c 2a8d 7fbc 8d36 353d 0c2e 32bd
000000f0: 61f2 8abd 66ef b63c ea92 823b 0478 4c3d
00000100: fbae b83c 72cc d6bd a473 3e3d 5ea8 a33d
00000110: a1fe a93d dbe8 bebb 7d76 05bd 763e 373d
00000120: cedc 803c 7127 313c f400 bfbd 1746 b53b
00000130: 41be 54bc 9deb 9e3c c068 85bb 5a58 573c
00000140: 58a7 e43c 0e7d 9cbb bfae a1bb 7500 f43c
00000150: 1c04 3c3d 4ca1 a53b 6f95 d6bc 053d 8c3c
00000160: 8ac9 d0bc a873 bebc d754 c43b 2509 cfbc
00000170: 8925 953d 90ac ffbc 2f07 393d 9b67 cfbd
00000180: d0b5 163d a785 083d b384 2fbb 5d3c 563d
00000190: cb60 c3bc 86d1 9abc 3734 643c b30e 5dbc
000001a0: bee5 4e3d 18e5 873d 91c9 d43b fb46 cdbc
000001b0: 1ad5 c73c fb5e 57bd 82d3 c6bc 737f 683d
000001c0: 8371 6abd 81f4 473c 1a68 a43c 47cb 57bc
000001d0: 62cf 95bc 25ee bf3c fb54 e7bd 0f96 293d
000001e0: 681e 79bd fb01 d53d eb98 cfbc ddf8 c4bc
000001f0: 0514 c93a ef72 01be c53f 0b3a 73e1 d03c
00000200: b1f7 ee3c 3630 3b3c 5b50 0fbb ff27 9b3c
00000210: 8821 16bd ca87 06bd cd81 063b 3eb1 0dbd
00000220: 776c fc3c 8b36 053a 497d 34ba 82f2 0abd
00000230: 1e67 8f3d 37c8 913c e91f 183d 1ebb 203b
00000240: 4202 893c 171a 283b 0a0d 9e3d 6f0e 403c
00000250: 878b 903d 07c9 683b 8f96 88bd 75eb 623d
00000260: 9eac 88bd 67c4 5abd 49c5 7dbc c323 c5bc
00000270: 5408 e93c 1a92 a5bd 19df 203d 17e2 1b3c
00000280: 2038 87bc c05a 813d 5900 103d 04da 283d
00000290: 43d2 e93d c9b3 24bd f62c 2fbd 1b58 463d
000002a0: 5ed5 a63c 2ad0 b63c a189 663d 3f07 ddbc
000002b0: 0c63 dbbb 5abf 29bc 2eed 79ba 5fec bebb
000002c0: d213 b53c ee4b 003c 0dc3 f8bc 86e0 653d
000002d0: 00f6 1cbc d2cc 213c e091 78bc db6e 823c
000002e0: 7d5f 883b 4582 3b3d 0317 e1bc dc0e e3bc
000002f0: 6fda 05bd f20f 1dbb c979 0bbd 0319 53bd
00000300: 94b6 45bc d009 43bc f454 a43c 8ec0 da3a
00000310: 8ad5 febc a879 80bc faf2 b9bd 2d8b 29bd
00000320: cbca 1cbd db95 9bba ffb0 10ba 9bb0 6f3d
00000330: dc4c b13c bb91 1dbc a57b d13c cbd5 adbc
00000340: e245 bebd 50f7 8ebd 74b9 ef3c bc69 34bb
00000350: c609 a03c f43b 1bbd c164 723d 455a b0bd
00000360: 5770 c0bc 8e70 9cbc 3d34 4abb 5597 543d
00000370: 6c84 d03b e787 21bc 52a8 acbc 9b59 4b3c
00000380: f46a 8cbc 02cd 44bd b46d 743d 4317 603d
00000390: 13ce 603c 4948 24bd 8855 29bd a06e 743c
000003a0: a67d e3bc d8ca 8f3d 0d4e febb c5b0 953d
000003b0: 4fcc 2d3c 74e5 b03a 4a13 413d 7dbb 103c
000003c0: a1c1 963d 32db 8e3c 03d4 a6bd 4518 3b3d
000003d0: a2b5 37bd 3655 02bb 7349 3dbd 53de 91bd
000003e0: 2227 ad3d 12ce a6bc ed2b eabd d14e 333c
000003f0: 1209 d1b9 5d01 3dbd 5b96 01bd 6e0f 90bb
0.017145038 -0.04258548 -0.07602299 0.042566653 -0.029867757 -0.07970071 -0.057434563 -0.11479002
-0.011770083 -0.042660974 0.01833683 -0.030604545 -0.03947469 0.06990256 -0.018091116 -0.019870326
-0.014018802 -0.024371894 -0.003555873 -0.012725023 0.04547551 -0.05161344 -0.04754794 -0.038868688
-0.077802874 0.032524794 -0.0048118983 -0.0033877327 0.05582811 -0.011756122 -0.04687966 0.014683828
-0.019545367 0.08359241 0.07556894 0.012115895 0.047323566 0.04758468 -0.021028655 0.019733038
0.080001935 0.0090388805 -0.048262563 -0.013448803 0.043302234 0.0549929 -0.00049855927 0.00023956636
-0.04589389 -0.02832412 -0.00030615376 0.036481548 -0.027690478 0.001824743 0.03383547 -0.07187927
0.018764103 -0.015597621 0.044241477 -0.043500945 -0.06784511 0.022330951 0.0039847987 0.049919143
0.022544375 -0.104882136 0.046497002 0.07991098 0.0830052 -0.0058260984 -0.032583702 0.0447373
0.015730288 0.010812626 -0.09326354 0.005532037 -0.012984813 0.019399459 -0.004071325 0.013143623
0.027911827 -0.00477565 -0.0049341614 0.029785374 0.045902357 0.0050546285 -0.026194302 0.01711894
-0.025486726 -0.023248509 0.005991559 -0.025272915 0.0728255 -0.031210214 0.045172866 -0.10127183
0.036794484 0.033330586 -0.0026781976 0.05230366 -0.023849865 -0.018898737 0.013928465 -0.013492274
0.050512068 0.06635493 0.006493755 -0.02505826 0.024393607 -0.052580815 -0.024270777 0.05676217
-0.05723716 0.01220429 0.02006917 -0.013171024 -0.018287364 0.023428986 -0.112955056 0.041402873
-0.060820013 0.10400768 -0.025341472 -0.024044449 0.0015341049 -0.126415 0.00053119316 0.025498128
0.029170843 0.011425069 -0.0021867964 0.01893997 -0.03665307 -0.032844342 0.0020524145 -0.03459286
0.030813439 0.0005081675 -0.0006885124 -0.03392268 0.0700209 0.017795665 0.037139807 0.0024525593
0.01672471 0.0025650316 0.07717331 0.011722191 0.07057863 0.0035520212 -0.06669342 0.05540033
-0.06673549 -0.05340996 -0.015488931 -0.024064904 0.028446354 -0.08084507 0.039275263 0.009514353
-0.016506255 0.06316137 0.03515658 0.04122354 0.11417057 -0.04021052 -0.042767487 0.048423868
0.020365413 0.022316057 0.056283597 -0.026980994 -0.006695157 -0.010360563 -0.0009533939 -0.0058265175
0.022104178 0.007830603 -0.030366445 0.056122325 -0.009580135 0.009875493 -0.015171498 0.015922
0.0041617737 0.04577853 -0.027476793 -0.027717046 -0.032679018 -0.0023965803 -0.03405169 -0.051537525
-0.012067456 -0.011904195 0.02006004 0.0016689466 -0.031107683 -0.01568301 -0.09079547 -0.041392494
-0.038279336 -0.0011870222 -0.00055195385 0.058518033 0.021643095 -0.009617264 0.025571654 -0.021220108
-0.09290673 -0.06980765 0.029263236 -0.0027528843 0.01953591 -0.037898973 0.059178118 -0.086109675
-0.023491068 -0.019096639 -0.003085389 0.051902134 0.006363442 -0.009859062 -0.021076355 0.0124115
-0.017140843 -0.048047073 0.059674934 0.054709684 0.013721007 -0.040108 -0.041341335 0.014918953
-0.027769875 0.07021111 -0.007760769 0.07309107 0.010607793 0.0013496117 0.047137536 0.008833763
0.073611505 0.017438505 -0.08145907 0.045677442 -0.044850953 -0.0019887215 -0.046212625 -0.07122483
0.084547296 -0.020361934 -0.114341594 0.010944084 -0.00039870344 -0.04614388 -0.03163753 -0.0043963706

module.net_sm.layer2.0.bn2.weight f4 [32]
00000000: 03ee 5d3f c393 583f b1d8 5e3f 3710 5d3f
00000010: 549e 5e3f cb65 693f abb5 5f3f 262f 623f
00000020: d14b 613f 374c 593f 1713 5c3f df13 5b3f
00000030: 6814 653f 16da 613f 2eaf 523f 4ae0 663f
00000040: 5492 603f c962 643f 9bc1 633f 5ec2 573f
00000050: e3f7 5b3f 9773 5b3f ea80 5c3f 0b83 5b3f
00000060: 934c 613f 681f 5b3f 801c 593f 90fb 5e3f
00000070: 2a14 5e3f 387b 5a3f 7765 5a3f b23f 593f
0.866913 0.84600466 0.87049395 0.86352867 0.8696034 0.9117095 0.8738658 0.8835319
0.8800631 0.8488192 0.8596663 0.85577196 0.8948426 0.882234 0.82298553 0.9018599
0.8772328 0.89213234 0.88967294 0.84280956 0.8592512 0.8572325 0.8613421 0.8574683
0.8800747 0.855948 0.8480911 0.87102604 0.8674952 0.85344267 0.85311073 0.84862816

module.net_sm.layer2.0.bn2.bias f4 [32]
00000000: bf3d ab3b 66cf 5bbb 7962 b23b f92b 5439
00000010: d529 f6bb 5875 533c 56bb c83c b75b 293b
00000020: 5535 cd3b a3b5 56bc 8fd4 2fbb 987a 4cbb
00000030: 7ee1 2dbb e92d 0c3c 3858 8f3c bcf5 353c
00000040: 0c90 61bb 20b4 df3b a6a0 bf3c 2069 2fbc
00000050: 947c 333c c564 8a3c 6ef3 ecbb c2bf 30ba
00000060: 3c0a b43b 1da6 083c b47a aebc 1a61 c83b
00000070: 6611 e5b9 598f 0ebb 33d6 88bb 67b1 8cbb
0.0052258666 -0.0033540367 0.0054438678 0.00020234277 -0.007512311 0.012906395 0.024503391 0.002584202
0.006262461 -0.013104829 -0.0026829576 -0.0031201001 -0.002653211 0.008555868 0.01749812 0.011105951
-0.0034418134 0.0068268925 0.023392033 -0.010706216 0.010954995 0.016893754 -0.0072311675 -0.00067424413
0.005494384 0.008340386 -0.021298744 0.006115091 -0.00043691247 -0.0021752922 -0.004175925 -0.004293609

module.net_sm.layer2.0.bn2.running_mean f4 [32]
00000000: 81d6 b7be 2592 6f3e 8c70 b1be ad16 84bc
00000010: 906c b0bd 5016 d13e 939f 61be af10 1cbd
00000020: e839 babb b8e4 7abe ceb9 f43b 23d5 e1be
00000030: fde8 013c c1f4 0e3f 83e7 38bf 846c 513e
00000040: 2b64 e53e 15e6 08be 6baa 35bf a1ff 0fbf
00000050: 7de2 8dbe 7754 943e 8b04 aebe 3599 0c3f
00000060: 2072 f23e dd24 3d3f 994a 1d3e 8710 cabb
00000070: 7638 203e bea5 c73e c712 d1be b38b 3f3e
-0.3590584 0.23395593 -0.3465618 -0.016124094 -0.08614457 0.40837336 -0.22033529 -0.03810185
-0.0056831725 -0.24501312 0.0074684387 -0.44107923 0.007929084 0.55842215 -0.7222826 0.20451552
0.44802985 -0.1336902 -0.7096316 -0.56249434 -0.2771186 0.28970692 -0.3398784 0.54921275
0.47352695 0.73884374 0.15360488 -0.006166521 0.15646538 0.3899364 -0.40834638 0.18705635

module.net_sm.layer2.0.bn2.running_var f4 [32]
00000000: eeb0 513f 19ed 203f 8530 d13e 81c3 233f
00000010: 56a6 243f 9319 cc3e 343f 073f e1e8 8e3e
00000020: d88a a33e 43eb dc3e 9bbe a73e fd0a 383f
00000030: 80d2 543f 3b69 b23e 546a 473f a58a e33e
00000040: 8bd2 243f 9577 993e b731 1f3f a785 dd3e
00000050: 1550 193f 97b4 1b3f 7134 853e 8c86 193f
00000060: 12a4 6b3f c2d3 053f 30c0 d13e 7583 a83e
00000070: a1c5 d73e daf4 173f 99e0 3d3f e599 b33e
0.819106 0.6286178 0.4085733 0.6397019 0.6431631 0.39863262 0.52830815 0.27912048
0.31941867 0.4314824 0.32762608 0.71891767 0.831337 0.3484591 0.7789662 0.44441715
0.64383763 0.29974046 0.62185234 0.4326603 0.5988782 0.60822433 0.26016572 0.5997093
0.92047226 0.5227624 0.4096694 0.32912794 0.42142966 0.5935799 0.74170834 0.3507835

module.net_sm.layer2.0.ca.fc1.weight f4 [2, 32, 1, 1, 1]
00000000: 4683 a9be adb9 863e 9181 413f e70d 843f
00000010: c1c0 e33f 3b3e a53c bd4a 033d 8706 a43f
00000020: aa63 8a3e 17ae ea3c a64f 8f3d ed42 833e
00000030: f255 b03f fdf3 4b3d 9f4a dc3d f656 cdbf
00000040: a40d dabe f0b8 e63f 42fc 1a3f 3023 83bf
00000050: 10d1 24bf 8814 713f f443 163d d274 993e
00000060: 92f5 28bf 569f 76bf 9113 843f c8d2 f73e
00000070: 34d2 88be 5f14 683e 5465 163d c2f8 07bf
00000080: b1fa b53e 04d4 bfbf 95a3 34bf a05b ca3d
00000090: 4190 353f a68b 443f 48de cabe de85 21be
000000a0: cbab 4abf 27f5 72bf 19f9 88bd a8e6 d33e
000000b0: df4a c2bd 4cfc 53bf e7e7 45be f487 a3be
000000c0: b01e 383f d7f8 3bbf 89c0 1fbd bef4 2a3f
000000d0: 3dfc 543f b521 af3f 94ec 4d3f 03a4 443e
000000e0: 0bfc 36be 36f4 abbf fed4 073d 8a07 bd3e
000000f0: 87f4 463f b31d 22be 42ea 2e3f 9df1 c5be
-0.33107966 0.26313534 0.7558833 1.0316743 1.7793199 0.020171275 0.032053698 1.2814492
0.27029163 0.028647466 0.069976136 0.25636998 1.3776228 0.049793232 0.1075642 -1.6042163
-0.42588532 1.8025188 0.60541165 -1.0245113 -0.64381504 0.94171953 0.0366859 0.2997194
-0.6599971 -0.9633688 1.0318471 0.48403 -0.26722872 0.22664021 0.036717728 -0.5311395
0.35542825 -1.4986577 -0.70562106 0.09880757 0.7092324 0.76775587 -0.39622712 -0.15773723
-0.79168385 -0.9490532 -0.066881366 0.41386914 -0.09486937 -0.8280685 -0.19326745 -0.31939662
0.71921825 -0.73426574 -0.039001975 0.66779697 0.83197385 1.3682162 0.80439115 0.1920319
-0.17869584 -1.3433902 0.03316211 0.36919814 0.7771687 -0.15831642 0.683262 -0.386609
