model/model_20201014151312/model_final_mb6_2_0300_ts.pth (torch_old, 136367 bytes, 68 tensors)

module.net_ts.conv1.weight f4 [32, 1, 7]
-0.014917683 0.44927254 0.02828834 0.3094922 -0.0906002 0.5033271 -0.4285429 0.4385637
-0.2874185 0.05845809 0.30106458 0.5021796 -0.3737578 0.22514197 0.38490102 0.33560252
0.23833944 -0.49380392 -0.056096308 0.2528397 0.1484482 -0.45377207 0.336326 -0.38585824
-0.09889939 -0.2806906 0.13328338 -0.008215978 -0.19686925 -0.5106808 0.07597698 -0.11971372
-0.12354954 -0.08313525 -0.32614452 -0.3716416 0.0036399348 0.26453248 -0.010578074 -0.057631023
-0.41415042 -0.3004157 0.23446618 -0.19048952 -0.402192 0.6039145 -0.59367967 0.36807552
-0.24949971 0.21900927 -0.70004237 -0.3762257 -0.34107953 0.5336284 -0.029137963 0.34794524
-0.35219598 0.7799386 -0.26967674 -0.36883634 0.3104994 0.46360558 -0.3130243 -0.48622558
-0.33898714 -0.2672668 0.25066045 0.36254552 -0.1237036 0.38070652 -0.04013183 -0.40007922
-0.20796077 0.19793552 0.42218682 -0.22762138 0.47024074 -0.50048846 0.3622518 -0.032306153
0.72072214 0.04294927 0.04706302 0.12889436 0.24492636 0.74819237 -0.42571038 -0.032351702
-0.13794814 0.028051581 -0.2168124 0.34376124 0.6378282 -0.2333416 0.14792812 0.257333
-0.44875923 0.08848161 0.52831316 0.06522274 0.24178079 0.4008318 -0.37296602 0.38773465
-0.099291064 0.35627618 -0.13499087 0.5589716 -0.41016486 -0.24328715 -0.30163568 -0.24413408
0.19940533 0.493293 -0.7287501 -0.027165852 0.020255055 0.126089 -0.28088465 -0.078329034
0.054710053 0.09786153 -0.14812705 -0.06495219 -0.684698 -0.08607272 0.14669392 0.07166018
-0.17944014 0.38267457 0.00058708235 -0.85316545 0.9068864 -0.28532723 0.0934278 0.5736434
0.21443148 -0.21171537 0.029522024 0.328167 -0.017122697 -0.2051559 0.06401172 -0.56607753
-0.5001738 0.5477142 0.0879492 -0.42125332 0.7639332 -0.18626042 0.008336199 0.34133294
0.22505064 -0.006123752 -0.40922096 0.3097664 -0.1131685 -0.2391736 0.1840628 -0.57829833
0.22131972 0.32073587 0.028305901 0.6041293 0.22915177 -0.38349918 0.1624952 -0.51042426
0.6239656 -0.26601878 0.18226826 0.16939512 -0.08807174 0.21721171 0.0012647143 -0.10075536
-0.1869687 -0.53990203 0.58470076 0.046280336 0.38781586 0.04773026 -0.34501073 -0.4292749
-0.10527493 0.24469544 -0.14420983 0.54943377 0.085162364 -0.36763301 -0.07626028 0.0386962
-0.31095523 0.2697602 -0.28691375 -0.09753608 -0.35237068 -0.22342767 -0.09881283 0.008219197
0.34407875 -0.215556 0.6390749 -0.31055942 -0.052808624 -0.14928707 -0.46883208 0.20128144
-0.14685503 -0.09541734 -0.32530937 -0.19068757 -0.40294367 -0.21618755 0.370049 0.22634998
-0.41838536 -0.1339712 -0.018547907 0.78274626 -0.112225614 -0.47903687 -0.47010905 0.25851622
00000000: 4c69 74bc 0d07 e63e f3bc e73c c375 9e3e
00000010: 998c b9bd 0bda 003f fa69 dbbe 6c8b e03e
00000020: 8528 93be c071 6f3d 2325 9a3e d88e 003f
00000030: 2f5d bfbe 9e8b 663e bf11 c53e 18d4 ab3e
00000040: 410f 743e ded3 fcbe 3ec5 65bd 3574 813e
00000050: ce02 183e d054 e8be ec32 ac3e 368f c5be
00000060: c38b cabd aeb6 8fbe 707b 083e 4f9c 06bc
00000070: 1898 49be fabb 02bf d299 9b3d 782c f5bd
00000080: 8b07 fdbd d042 aabd 6afc a6be cf47 bebe
00000090: f98b 6e3b cd70 873e a84f 2dbc 820e 6cbd
000000a0: 860b d4be 16d0 99be e717 703e af0f 43be
000000b0: 1cec cdbe 249a 1a3f 64fb 17bf 6574 bc3e
000000c0: da7c 7fbe f743 603e fa35 33bf a8a0 c0be
000000d0: faa1 aebe df9b 083f bdb2 eebc e125 b23e
000000e0: 0853 b4be 0eaa 473f 1213 8abe 1ed8 bcbe
000000f0: c7f9 9e3e b65d ed3e b944 a0be 8ff2 f8be
00000100: b98f adbe 32d7 88be 9156 803e 919f b93e
00000110: 5058 fdbd f7eb c23e 4661 24bd 2fd7 ccbe
00000120: abf3 54be 9caf 4a3e df28 d83e 9415 69be
00000130: 65c3 f03e 0320 00bf 1179 b93e 7553 04bd
00000140: 3f81 383f 93eb 2f3d 27c5 403d e2fc 033e
00000150: facd 7a3e 8989 3f3f b6f6 d9be 3883 04bd
00000160: 4742 0dbe 6ecc e53c 1204 5ebe 7901 b03e
00000170: b548 233f 1af1 6ebe 787a 173e 27c1 833e
00000180: c5c3 e5be d935 b53d 883f 073f 8093 853d
00000190: 6295 773e d339 cd3e 67f5 bebe 2885 c63e
000001a0: 1d59 cbbd d569 b63e 0c3b 0abe c318 0f3f
000001b0: 2101 d2be 4420 79be fe6f 9abe 49fe 79be
000001c0: e930 4c3e e690 fc3e 5e8f 3abf ec8a debc
000001d0: eeed a53c 7a1d 013e 1dd0 8fbe f96a a0bd
000001e0: a617 603d a06b c83d 9eae 17be a705 85bd
000001f0: 5e48 2fbf e546 b0bd ee36 163e 93c2 923d
00000200: 28bf 37be eced c33e 6ee6 193a 0d69 5abf
00000210: b529 683f 6916 92be 1357 bf3d 4bda 123f
00000220: ed93 5b3e eacb 58be 2cd8 f13c 8105 a83e
00000230: e644 8cbc 6314 52be 9418 833d 75ea 10bf
00000240: 640b 00bf ff36 0c3f b61e b43d 84ae d7be
00000250: 2091 433f 0dbb 3ebe 8e94 083c 31c3 ae3e
00000260: ad73 663e c1a9 c8bb 6985 d1be b499 9e3e
00000270: e3c4 e7bd ede9 74be f57a 3c3e 5c0b 14bf
00000280: a3a1 623e 7e37 a43e c7e1 e73c 38a8 1a3f
00000290: c3a6 6a3e 015a c4be 2465 263e 2aab 02bf
000002a0: 36bc 1f3f 9d33 88be 88a4 3a3e ea75 2d3e
000002b0: f55e b4bd bf6c 5e3e c5c4 a53a d458 cebd
000002c0: b974 3fbe 0537 0abf f3ae 153f 7390 3d3d
000002d0: cd8f c63e ce80 433d 3fa5 b0be ebc9 dbbe
000002e0: 629a d7bd 7191 7a3e beab 13be b1a7 0c3f
000002f0: 9b69 ae3d 653a bcbe 5a2e 9cbd e87f 1e3d
00000300: 8635 9fbe 021e 8a3e 5ce6 92be ffc0 c7bd
00000310: ee69 b4be 39ca 64be 625e cabd d0a9 063c
00000320: 172b b03e b6ba 5cbe 6a9a 233f a501 9fbe
00000330: db4d 58bd b6de 18be c20a f0be b91c 4e3e
00000340: 2a61 16be 2b6a c3bd f38e a6be 9a43 43be
00000350: a24e cebe 4560 5dbe 1077 bd3e 4ac8 673e
00000360: 9b36 d6be bf2f 09be c8f1 97bc 0f62 483f
00000370: 8bd6 e5bd 5244 f5be 22b2 f0be 3d5c 843e

module.net_ts.bn1.weight f4 [32]
0.88526833 1.000565 0.8798033 0.8240997 0.8043802 0.6283324 0.8468144 1.0738145
0.79132205 0.92877126 0.80976117 1.0127311 0.91328937 0.94839233 1.0292617 1.1421193
0.9947283 0.7718895 1.1183844 0.7331198 0.9375655 0.98436195 0.9794837 1.0503626
0.84289217 0.85695344 0.80789846 0.74522364 0.87201744 0.75314856 0.9534863 0.99635345
00000000: f2a0 623f 8412 803f ca3a 613f 33f8 523f
00000010: dceb 4d3f 64da 203f d4c8 583f c172 893f
00000020: 1594 4a3f f4c3 6d3f 824c 4f3f 2ca1 813f
00000030: 55cd 693f d7c9 723f d9be 833f f730 923f
00000040: 84a6 7e3f 8d9a 453f 3827 8f3f bdad 3b3f
00000050: 4b04 703f 25ff 7b3f 72bf 7a3f 4872 863f
00000060: c8c7 573f 4d61 5b3f 6fd2 4e3f fac6 3e3f
00000070: 893c 5f3f 58ce 403f ae17 743f 0511 7f3f

module.net_ts.bn1.bias f4 [32]
0.086508475 -0.123301476 -0.1079123 0.13499749 0.07481517 -0.16662644 0.01064278 0.11455694
0.061124954 -0.13478202 0.11717608 0.16764183 0.07188774 0.34103897 -0.06491319 -0.047756404
-0.04951007 0.026073553 0.1611071 0.03926533 -0.19169345 0.19921634 0.22228995 0.26787665
0.017500248 0.19717379 0.08570804 0.105814 0.10164293 -0.33079198 0.1696969 0.11518668
00000000: 5b2b b13d 7c85 fcbd 2001 ddbd c83c 0a3e
00000010: b238 993d 1fa0 2abe 0e5f 2e3c d49c ea3d
00000020: 295e 7a3d 4c04 0abe 03fa ef3d 4daa 2b3e
00000030: e139 933d a99c ae3e 35f1 84bd 389c 43bd
00000040: 12cb 4abd 3498 d53c 42f9 243e afd4 203d
00000050: 4a4b 44be 5eff 4b3e fa9f 633e 2127 893e
00000060: ae5c 8f3c ede7 493e b287 af3d 03b5 d83d
00000070: 2b2a d03d 915d a9be 06c5 2d3e fee6 eb3d

module.net_ts.bn1.running_mean f4 [32]
-3.748908e-05 2.3148817e-05 -4.4856217e-05 -4.829566e-06 2.9085868e-05 5.229788e-05 -1.6454833e-05 -1.8981667e-06
-3.9002174e-05 1.3724075e-05 1.3104248e-05 -3.027962e-06 -4.736599e-06 2.6349668e-05 -4.1519426e-05 2.6019994e-05
-4.343331e-06 6.629584e-05 4.9255163e-05 -1.5861982e-05 -5.2237658e-05 -2.5278909e-05 4.7815993e-05 -7.221901e-06
-2.7183489e-05 -2.493652e-05 -3.9732557e-05 3.4134697e-05 6.5388667e-06 2.1432275e-05 3.196201e-06 3.0190928e-05
00000000: 983d 1db8 b52f c237 ff23 3cb8 a80d a2b6
00000010: 6dfd f337 6c5a 5b38 7c08 8ab7 83c4 feb5
00000020: 4496 23b8 7440 6637 51da 5b37 fe33 4bb6
00000030: 13ef 9eb6 7b09 dd37 2525 2eb8 8345 da37
00000040: eebc 91b6 4f08 8b38 5497 4e38 590f 85b7
00000050: c219 5bb8 0b0e d4b7 088e 4838 a853 f2b6
00000060: 1908 e4b7 c52e d1b7 82a6 26b8 da2b 0f38
00000070: 7068 db36 76c9 b337 517e 5636 8642 fd37

module.net_ts.bn1.running_var f4 [32]
0.028759934 0.032780107 0.02681988 0.022907782 0.034174856 0.023376817 0.030243011 0.038634486
0.041315306 0.02925597 0.023322495 0.035036456 0.028052138 0.037473656 0.041106943 0.029166052
0.027548134 0.027222114 0.052992452 0.027717106 0.034376044 0.03533068 0.02538904 0.034879528
0.025288839 0.025792046 0.025797877 0.019912357 0.02621961 0.026353061 0.03375907 0.035420988
00000000: f499 eb3c 6f44 063d 5db5 db3c 1aa9 bb3c
00000010: effa 0b3d bd80 bf3c 31c0 f73c 323f 1e3d
00000020: 3d3a 293d 37aa ef3c d10e bf3c 6382 0f3d
00000030: 99cd e53c fa7d 193d c15f 283d a5ed ee3c
00000040: a0ac e13c e900 df3c 9d0e 593d fc0e e33c
00000050: e5cd 0c3d e7b6 103d adfc cf3c d6dd 0e3d
00000060: 8a2a cf3c d749 d33c 1256 d33c 3d1f a33c
00000070: 82ca d63c 60e2 d73c f346 0a3d 9915 113d

module.net_ts.layer1.0.conv1.weight f4 [32, 32, 3]
0.07888723 0.23082516 -0.18594062 0.19171911 -0.040964283 0.20201148 0.14080602 0.010942853
-0.2692519 -0.21573949 0.09186668 -0.18178385 -0.15367302 0.40023708 0.06651953 -0.15104157
-0.0024437148 -0.026405811 -0.25258356 0.040567975 -0.12167526 0.023105672 -0.22303171 -0.4147761
-0.0029943192 -0.023525106 -0.10671578 -0.17750737 0.089218244 0.11691328 0.010494704 -0.4007353
0.0073973574 -0.15383437 -0.26155213 0.105739 0.040417086 -0.26778945 -0.13041268 0.11563156
-0.11289903 -0.1590725 0.16882809 0.0021579617 0.13450196 0.17547745 -0.34478298 -0.031548157
0.058141068 -0.10398914 0.27502212 -0.05231374 0.05951815 -0.034134094 0.039410606 0.18176046
-0.31832588 0.030848652 0.06517191 0.03688512 -0.15088083 -0.18735234 -0.044998933 0.10161951
-0.088821135 0.08105038 0.07450008 0.075291775 -0.10324119 0.0053230138 -0.24528913 -0.016964728
0.008135077 0.20739518 0.097288676 -0.007142374 -0.049652793 0.051784456 0.0403102 -0.07405548
-0.087126344 -0.094906375 0.20707865 0.02355348 -0.017789587 0.018256772 -0.19086562 0.05587804
0.028382797 0.17786184 -0.049755346 0.049339406 -0.010206509 0.21630375 -0.14782366 0.0723515
-0.28895968 -0.07508684 -0.077988654 -0.080020905 0.09998917 -0.010909524 0.0045057843 -0.046676457
0.09274436 -0.19620472 0.120369144 0.34069568 0.055389915 0.04246726 0.016624087 -0.09622859
0.06285789 -0.15046284 -0.06434231 0.028176168 0.25686356 -0.2022122 0.33570412 0.16444704
-0.024803795 -0.13050535 0.11828198 -0.20619097 0.08302832 -0.017475616 0.18935998 0.30546016
0.06861091 -0.30997324 -0.03897803 -0.20487538 -0.2962422 -0.09580221 0.20173156 -0.21204221
-0.080577336 -0.04062097 -0.03320206 0.3284247 0.03814322 0.006176891 -0.1308667 0.0771323
-0.1542704 0.081110746 0.2526443 -0.008851771 0.017384084 0.33528715 0.21333562 0.0706864
-0.09838113 -0.22810331 0.05219433 0.2881394 -0.076436356 0.21211147 0.18267253 0.070770085
0.03905662 0.03598816 -0.021828853 -0.060710922 0.07694869 -0.21393588 -0.18288286 0.06558232
-0.051566944 0.14171591 0.12984215 -0.18410008 -0.034395024 -0.042951304 -0.09929694 -0.09316389
-0.042895284 0.09931449 0.09347629 -0.070374556 0.043903574 -0.16098937 0.038108513 -0.15978497
0.049861725 0.079779364 0.06363243 0.041821636 0.18004555 -0.091439955 0.12186621 0.095440656
-0.11906263 0.01326492 -0.27366322 0.1922369 0.12260462 -0.15058498 -0.059571058 -0.022945508
-0.4156607 0.013034041 -0.13907215 0.24616475 0.038275633 0.100633524 -0.10002089 -0.17569263
-0.3223429 0.14629261 -0.09530973 -0.20665745 0.2964896 0.044634018 0.16095625 -0.12527691
-0.2881041 0.019885594 -0.090664856 0.11841213 -0.033315446 -0.0833432 0.107113525 -0.08847212
-0.2960203 0.39461732 -0.037733577 -0.064797565 0.46964318 -0.059164584 0.18217058 0.21029745
-0.0412154 0.07257397 0.08842427 0.05536788 0.070306264 -0.028487382 -0.061284628 -0.058759026
-0.019552926 -0.020985685 0.33762032 0.24607828 -0.3002531 0.36349297 0.14585522 -0.09483616
-0.10643186 0.17715816 -0.049417056 -0.2550005 0.006265166 -0.1691122 0.22090475 0.19522922
00000000: a18f a13d 6e5d 6c3e 3867 3ebe 0452 443e
00000010: 2aca 27bd 19dc 4e3e 742f 103e a749 333c
00000020: 63db 89be d0ea 5cbe 9924 bc3d 8c25 3abe
00000030: 765c 1dbe e0eb cc3e 643b 883d a4aa 1abe
00000040: bb26 20bb 0051 d8bc a252 81be 9b2a 263d
00000050: e130 f9bd 1b48 bd3c 6d62 64be 885d d4be
00000060: 573c 44bb b9b7 c0bc ce8d dabd 7ec4 35be
00000070: 0eb8 b63d 3b70 ef3d fbf1 2b3c 2d2d cdbe
00000080: 8865 f23b c286 1dbe 29ea 85be b08d d83d
00000090: 638c 253d b31b 89be e78a 05be 3dd0 ec3d
000000a0: 9b37 e7bd e7e3 22be 45e1 2c3e 976c 0d3b
000000b0: e2ba 093e 5cb0 333e 6587 b0be a438 01bd
000000c0: 5425 6e3d 42f8 d4bd b3cf 8c3e ef46 56bd
000000d0: 4ec9 733d 31d0 0bbd 046d 213d 6a1f 3a3e
000000e0: 9cfb a2be 50b6 fc3c da78 853d da14 173d
000000f0: 8180 1abe 4bd9 3fbe cd50 38bd e41d d03d
00000100: dbe7 b5bd befd a53d 7f93 983d 9332 9a3d
00000110: 1e70 d3bd ad6c ae3b 132d 7bbe 9df9 8abc
00000120: fc48 053c 675f 543e 493f c73d 930a eabb
00000130: ba60 4bbd f01b 543d 4f1c 253d 66aa 97bd
00000140: 4c6f b2bd 465e c2bd 6d0c 543e 3af3 c03c
00000150: 78bb 91bc 3a8f 953c 4772 43be 5fe0 643d
00000160: 0a83 e83c 6a21 363e 43cc 4bbd 1e18 4a3d
00000170: 3439 27bc bb7e 5d3e 165f 17be 062d 943d
00000180: 86f2 93be 21c7 99bd 84b8 9fbd 00e2 a3bd
00000190: 1fc7 cc3d dcbd 32bc 42a5 933b d02f 3fbd
000001a0: c1f0 bd3d e4e9 48be 1984 f63d aa6f ae3e
000001b0: 89e0 623d 26f2 2d3d 3d2f 883c 7f13 c5bd
000001c0: a3bb 803d ee12 1abe e7c5 83bd b5d1 e63c
000001d0: 9f83 833e b710 4fbe 69e1 ab3e ce64 283e
000001e0: 5431 cbbc 32a3 05be d33d f23d ba23 53be
000001f0: c00a aa3d 0629 8fbc 95e7 413e 4665 9c3e
00000200: e083 8c3d d0b4 9ebe 6da7 1fbd daca 51be
00000210: 0fad 97be f333 c4bd b892 4e3e 9821 59be
00000220: bb05 a5bd 2d62 26bd e2fe 07bd 4827 a83e
00000230: 113c 1c3d 8467 ca3b ec01 06be 8af7 9d3d
00000240: 0ff9 1dbe 641d a63d 985a 813e 0507 11bc
00000250: 1169 8e3c c2aa ab3e a774 5a3e 08c4 903d
00000260: 0c7c c9bd ea93 69be b9c9 553d 0287 933e
00000270: aa8a 9cbd c033 593e 820e 3b3e e8ef 903d
00000280: d6f9 1f3d 5268 133d 6cd2 b2bc 04ac 78bd
00000290: 4697 9d3d 0212 5bbe a545 3bbe 0650 863d
000002a0: dc37 53bd fa1d 113e 57f5 043e bb84 3cbe
000002b0: cce1 0cbd b5ed 2fbd 325c cbbd b6cc bebd
000002c0: f7b2 2fbd 6565 cb3d 7f70 bf3d 8920 90bd
000002d0: 3cd4 333d 66da 24be ac17 1c3d ac9e 23be
000002e0: cf3b 4c3d 5d63 a33d b851 823d 2a4d 2b3d
000002f0: dc5d 383e df44 bbbd fe94 f93d 6476 c33d
00000300: 1cd7 f3bd 1b55 593c 961d 8cbe c0d9 443e
00000310: 2218 fb3d f332 1abe c800 74bd 38f8 bbbc
00000320: 7bd1 d4be bb8c 553c ee68 0ebe 9d12 7c3e
00000330: e9c6 1c3d f318 ce3d c1d7 ccbd c5e8 33be
00000340: 210a a5be bbcd 153e bf31 c3bd 039e 53be
00000350: 7ccd 973e 29d2 363d b7d1 243e 9748 00be
00000360: 6182 93be 1de7 a23c 7fae b9bd 0f82 f23d
00000370: c775 08bd d7af aabd 565e db3d df30 b5bd
00000380: f98f 97be 480b ca3e 868e 1abd 96b4 84bd
00000390: 1275 f03e 9056 72bd ed8a 3a3e 3758 573e
000003a0: 7bd1 28bd a9a1 943d c917 b53d 6ec9 623d
000003b0: bbfc 8f3d 5f5e e9bc 9705 7bbd 4ead 70bd
000003c0: 752d a0bc 2cea abbc 92dc ac3e f2fb 7b3e
000003d0: c6ba 99be c01b ba3e 125b 153e 7639 c2bd
000003e0: f2f8 d9bd f368 353e 8a69 4abd 6d8f 82be
000003f0: 064c cd3b c02b 2dbe db34 623e 2bea 473e

module.net_ts.layer1.0.bn1.weight f4 [32]
0.74235207 0.71444505 0.84260756 0.8871878 0.92639554 0.6779517 0.8938473 1.0992897
0.85386384 1.0260918 0.7819016 0.92967606 0.70077896 0.787165 0.9165581 0.9247134
0.91156936 0.98490155 0.7764874 0.8598322 0.87528414 1.1029382 0.88761204 0.70786315
0.85016274 0.99021745 0.8482585 0.97936136 0.93593025 0.8728219 0.9210555 0.8653674
00000000: c90a 3e3f dfe5 363f 21b5 573f bd1e 633f
00000010: 4228 6d3f 3e8e 2d3f 2dd3 643f 86b5 8c3f
00000020: d296 5a3f fa56 833f b42a 483f 40ff 6d3f
00000030: 4066 333f a583 493f 8da3 6a3f 04ba 6c3f
00000040: 9c5c 693f 8222 7c3f e1c7 463f f71d 5c3f
00000050: 9f12 603f 142d 8d3f 8b3a 633f 8536 353f
00000060: 44a4 593f e47e 7d3f 7827 593f 6db7 7a3f
00000070: 2099 6f3f 4271 5f3f 4bca 6b3f b888 5d3f

module.net_ts.layer1.0.bn1.bias f4 [32]
-0.08086398 0.03425125 -0.05680319 0.0627473 -0.05522015 -0.024616221 -0.0066405246 -0.06340359
0.14038004 -0.041475266 -0.06739168 -0.06089083 -0.019285372 -0.1596321 0.011281611 -0.22440824
0.079150155 -0.10919509 0.019515608 -0.10379933 -0.19634482 0.08458329 -0.04060134 -0.034373578
-0.022132568 0.0026863094 -0.059584197 0.13847455 -0.044587493 -0.101889215 -0.058019817 0.0051977704
00000000: 049c a5bd 0a4b 0c3d 76aa 68bd a881 803d
00000010: 862e 62bd f5a7 c9bc c298 d9bb bed9 81bd
00000020: c9bf 0f3e f8e1 29bd a604 8abd aa68 79bd
00000030: 5bfc 9dbc 9976 23be 82d6 383c 46cb 65be
00000040: 7a19 a23d ada1 dfbd 32df 9f3c be94 d4bd
00000050: 9e0e 49be 013a ad3d 974d 26bd 4fcb 0cbd
00000060: 5c4f b5bc cb0c 303b 8f0e 74bd 46cc 0d3e
00000070: 60a1 36bd 4bab d0bd 30a6 6dbd 0f52 aa3b

module.net_ts.layer1.0.bn1.running_mean f4 [32]
-1.3701733 0.39820406 0.85757554 -1.2963754 0.51302874 -1.0170726 0.66680247 -0.81603205
-0.6476319 0.298973 -0.898268 1.82687 1.0153167 -1.4556643 -0.05797792 0.007999654
-0.2524775 0.9861535 0.6738622 -0.6334592 0.8888811 -2.2503216 -1.5467913 -0.7181912
-0.49889994 0.42743397 -0.7237849 -0.447981 -1.9119952 -1.3135059 -0.5445993 -0.06900301
00000000: d761 afbf 67e1 cb3e 128a 5b3f a1ef a5bf
00000010: da55 033f 6f2f 82bf 91b3 2a3f 7ae7 50bf
00000020: 34cb 25bf fd12 993e e4f4 65bf e0d6 e93f
00000030: e6f5 813f 3553 babf 417a 6dbd fb10 033c
00000040: bb44 81be 8e74 7c3f 3c82 2c3f 622a 22bf
00000050: b68d 633f 4505 10c0 42fd c5bf 61db 37bf
00000060: d06f ffbe a0d8 da3e f849 39bf c45d e5be
00000070: 42bc f4bf f620 a8bf dc6a 0bbf 7351 8dbd

module.net_ts.layer1.0.bn1.running_var f4 [32]
1.9467578 2.0100584 1.6872557 1.9961681 1.8613268 2.1227973 2.3571703 2.2979984
2.1899219 2.7275243 1.138614 4.088535 2.2514453 1.8135407 1.8948883 1.9741154
1.9351606 2.0703032 1.9122403 1.7733428 2.73209 6.417822 3.6523502 1.8138198
1.8073947 1.9407295 2.4292703 2.393325 5.601031 2.3392324 1.5348096 1.2531052
00000000: 5c2f f93f cca4 0040 fff7 d73f 7082 ff3f
00000010: f53f ee3f e9db 0740 e1db 1640 6812 1340
00000020: ae27 0c40 c28f 2e40 1bbe 913f 47d5 8240
00000030: ae17 1040 1a22 e83f b38b f23f d0af fc3f
00000040: 58b3 f73f d97f 0440 4ac4 f43f e6fc e23f
00000050: 90da 2e40 cc5e cd40 1bc0 6940 3f2b e83f
00000060: b658 e73f d369 f83f 2a79 1b40 3d2c 1940
00000070: a53b b340 fcb5 1540 a474 c43f c065 a03f

module.net_ts.layer1.0.conv2.weight f4 [32, 32, 3]
0.105556354 -0.00041363543 -0.0074567166 0.12168875 0.05584017 -0.23868069 -0.16430436 -0.058413398
0.21295473 -0.07604651 0.21017206 0.0327495 0.05081125 0.21329318 0.020811027 0.117679745
0.25606135 -0.12566918 0.20522727 -0.12259199 0.22289559 -0.05213213 0.14922479 -0.10045253
0.106527396 -0.039721698 -0.06716108 -0.16947111 0.026228879 0.40082273 0.084261715 1.777813e-05
0.16368344 -0.10900603 -0.3287806 0.14400119 -0.11401553 -0.19909626 0.21155213 -0.26178995
-0.028092012 -0.11129475 -0.09211224 0.0045820256 -0.28124085 0.13529709 -0.32167712 0.22580202
0.06432332 -0.003177405 -0.22402759 -0.043608446 0.09513516 0.3774945 -0.053124215 -0.04696136
-0.0037217473 -0.08860723 -0.27241907 0.17949563 -0.14142764 0.21717231 0.06540294 0.16489157
-0.096755534 0.051500984 -0.07000352 0.046107844 0.0073996074 -0.014147811 0.058126863 0.13819414
-0.14497231 0.09749914 0.071007416 -0.26477134 -0.10711751 -0.17601363 -0.084042124 -0.07432417
-0.12568222 -0.091268234 0.31298792 -0.29375622 0.10758141 0.034901656 0.061866995 0.09482204
0.10283368 0.0048607658 0.07439453 -0.15439327 0.118921615 -0.20126943 -0.04034231 0.1282085
-0.058542904 -0.24755192 -0.022577677 -0.15917297 0.14428626 -0.1650082 0.07613689 -0.052185718
0.043882743 -0.047526512 -0.023781486 -0.031226136 -0.07578788 -0.14044437 -0.3332926 0.13221206
-0.06062791 -0.00996562 -0.05090903 0.039149918 -0.14068517 -0.11989016 0.0028101653 -0.31636265
-0.0153873665 0.14974959 -0.11341313 0.036812432 0.33911523 -0.12842628 -0.093563095 -0.09008887
-0.080827266 -0.10636303 -0.087062515 -0.24304685 -0.24480066 0.039141666 0.34609777 -0.070520274
-0.054427672 -0.15809475 0.0010980103 0.033890765 0.15008242 -0.19382624 -0.09152564 0.0070288708
0.067325786 -0.19261424 -0.23765601 0.0056458157 0.09511408 0.024605786 -0.27413505 -0.043976586
-0.12998164 -0.0601421 0.41182473 -0.23876026 -0.11527766 0.026441239 0.098230965 0.02376247
-0.10227004 0.019278275 -0.28097385 -0.2141726 0.027277675 0.16687118 0.033185504 -0.11445453
0.369658 -0.046222124 0.048063833 -0.15027003 0.04186195 -0.34860414 -0.011591271 0.021994743
0.13276245 -0.041213844 0.26045254 0.10804138 -0.1349028 0.17672011 -0.040077772 -0.054616462
0.17386124 -0.03820174 -0.2375022 -0.24836314 -0.21977204 -0.020201148 0.14107905 -0.039543908
0.09516678 -0.08270707 0.25681514 -0.070531026 -0.15420562 -0.07212062 0.024722852 0.1779957
0.33515483 0.06797465 0.120766714 0.06002351 -0.073963635 -0.034389023 0.30572993 0.028240211
-0.009185431 0.29681626 0.028567055 0.01941663 -0.15406802 -0.043097164 0.055436805 0.09782841
0.045828436 0.1334348 0.15808651 0.06581612 -0.23764712 -0.10314072 -0.025826622 0.15693435
-0.11842593 0.13372825 -0.03441781 -0.2863571 0.17193606 -0.0686789 0.12843554 0.09571993
-0.0064380425 0.08115075 0.1460567 -0.07408861 -0.06123467 0.03209669 0.015895292 -0.4979227
0.026944691 0.12535907 -0.18682146 -0.3907108 -0.11524468 0.051898018 0.18803853 -0.10194743
0.1075215 0.15853883 -0.023346601 -0.040520974 -0.21290636 -0.037548643 -0.03204042 -0.04937012
00000000: ee2d d83d 35dd d8b9 7957 f4bb f437 f93d
00000010: a9b8 643d b668 74be 673f 28be e342 6fbd
00000020: ce10 5a3e 46be 9bbd 5837 573e 5724 063d
00000030: 751f 503d 8769 5a3e e37b aa3c 1402 f13d
00000040: 791a 833e 6caf 00be 1927 523e 8211 fbbd
00000050: be3e 643e 8088 55bd 62ce 183e 0eba cdbd
00000060: 092b da3d 38b3 22bd c08b 89bd d689 2dbe
00000070: f2dd d63c a338 cd3e 6891 ac3d 3e22 9537
00000080: a29c 273e 8e3e dfbd ee55 a8be 0c75 133e
00000090: f980 e9bd e4df 4bbe 1fa1 583e 5509 86be
000000a0: 3821 e6bc 80ee e3bd 58a5 bcbd d124 963b
000000b0: cdfe 8fbe 528b 0a3e ddb2 a4be a538 673e
000000c0: f2bb 833d 033c 50bb 7d67 65be c59e 32bd
000000d0: 39d6 c23d f646 c13e c798 59bd 8e5a 40bd
000000e0: 8fe8 73bb b577 b5bd 837a 8bbe b4cd 373e
000000f0: 68d2 10be 6b62 5e3e faf1 853d 56d9 283e
00000100: c427 c6bd b2f2 523d 015e 8fbd 94db 3c3d
00000110: 6878 f23b 38cc 67bc 6f16 6e3d c482 0d3e
00000120: 9f73 14be a1ad c73d 566c 913d 1c90 87be
00000130: 6d60 dbbd eb3c 34be 471e acbd 4537 98bd
00000140: d7b2 00be d7ea babd f43f a03e 3767 96be
00000150: a453 dc3d 0af5 0e3d 3f68 7d3d 0f32 c23d
00000160: 779a d23d 0f47 9f3b 295c 983d 4519 1ebe
00000170: 2d8d f33d 9319 4ebe fa3d 25bd 1749 033e
00000180: afca 6fbd 407e 7dbe d2f4 b8bc 3dfe 22be
00000190: c7bf 133e e9f7 28be a8ed 9b3d b1c0 55bd
000001a0: 64be 333d 29ab 42bd 64d1 c2bc f4cd ffbc
000001b0: ad36 9bbd a6d0 0fbe 54a5 aabe 9962 073e
000001c0: f954 78bd d746 23bc fd85 50bd aa5b 203d
000001d0: c60f 10be f988 f5bd c02a 383b 49fa a1be
000001e0: 4b1b 7cbc f557 193e 2545 e8bd a2c8 163d
000001f0: 83a0 ad3e 2e82 03be 029e bfbd 8380 b8bd
00000200: c488 a5bd dcd4 d9bd d54d b2bd 46e1 78be
00000210: 06ad 7abe 0353 203d ba33 b13e ef6c 90bd
00000220: 8def 5ebd 97e3 21be 1deb 8f3a 0bd1 0a3d
00000230: 35af 193e 637a 46be cb71 bbbd 7152 e63b
00000240: 1ae2 893d ab3c 45be 195c 73be 8900 b93b
00000250: 2ccb c23d 1392 c93c 6e5b 8cbe cb20 34bd
00000260: e819 05be 9057 76bd b1da d23e 927d 74be
00000270: b216 ecbd 4c9b d83c 512d c93d 83a9 c23c
00000280: f472 d1bd 79ed 9d3c cedb 8fbe 1050 5bbe
00000290: 6e75 df3c 47e0 2a3e 86ed 073d 2367 eabd
000002a0: d043 bd3e 6953 3dbd 95de 443d 63e0 19be
000002b0: 7077 2b3d 3e7c b2be 50e9 3dbc 522e b43c
000002c0: e1f2 073e d9cf 28bd 095a 853e cd44 dd3d
000002d0: f623 0abe 1ef6 343e 9728 24bd 83b5 5fbd
000002e0: ae08 323e 6d79 1cbd c733 73be e852 7ebe
000002f0: ec0b 61be e17c a5bc 0777 103e cbf8 21bd
00000300: cde6 c23d 5362 a9bd 467d 833e 9272 90bd
00000310: 14e8 1dbe fab3 93bd 9487 ca3c 8144 363e
00000320: 6a99 ab3e 4b36 8b3d 8a54 f73d 36db 753d
00000330: 3f7a 97bd 81db 0cbd a288 9c3e 0458 e73c
00000340: 7d7e 16bc 4df8 973e 7505 ea3c a00f 9f3c
00000350: 02c4 1dbe a786 30bd b411 633d 435a c83d
00000360: 99b6 3b3d 22a3 083e 6ee1 213e 9aca 863d
00000370: c459 73be 713b d3bd 5a92 d3bc 66b3 203e
00000380: 4b89 f2bd 0ff0 083e b1f9 0cbd 669d 92be
00000390: 0210 303e 86a7 8cbd 9b84 033e d008 c43d
000003a0: 37f6 d2bb 5d32 a63d e38f 153e c5bb 97bd
000003b0: 35d1 7abd d277 033d d836 823c b9ef febe
000003c0: 1dbb dc3c 215e 003e 204e 3fbe 3f0b c8be
000003d0: 6705 ecbd 0493 543d 2c8d 403e d0c9 d0bd
000003e0: 3b34 dc3d 0158 223e 5f41 bfbc 52f9 25bd
000003f0: 2004 5abe 9bcc 19bd d13c 03bd 5338 4abd

module.net_ts.layer1.0.bn2.weight f4 [32]
0.8351639 0.7927461 0.83287674 0.89586866 0.76958114 1.1386632 1.0060699 0.9151526
0.84693265 0.5312405 0.73494154 0.7756391 1.0092237 1.0468278 0.6395521 0.7181987
0.93000764 0.84337217 1.0646269 0.6715493 0.76161075 0.9137617 0.82817805 0.89984304
0.8303697 0.5799227 0.95653385 0.8330244 0.8342862 0.84022903 0.94116056 0.99649996
00000000: 4dcd 553f 69f1 4a3f 6937 553f a657 653f
00000010: 4503 453f b7bf 913f e6c6 803f 7147 6a3f
00000020: 94d0 583f 61ff 073f 2125 3c3f 4990 463f
00000030: 3e2e 813f 74fe 853f b0b9 233f dfdb 373f
00000040: fb14 6e3f 3de7 573f b245 883f a8ea 2b3f
00000050: ecf8 423f 49ec 693f 7a03 543f 1d5c 663f
00000060: 1c93 543f d075 143f 67df 743f 1641 553f
00000070: c893 553f 4019 573f e6ef 703f 9f1a 7f3f

module.net_ts.layer1.0.bn2.bias f4 [32]
-0.068793 -0.056398943 0.053048044 -0.0535917 -0.05499287 -0.032471746 -0.16128276 -0.0019395183
-0.094945185 -0.20656356 -0.09404109 -0.011564731 0.0035232315 0.051567364 -0.019845817 -0.0851878
0.12407413 -0.1099086 -0.03180603 -0.11092742 -0.21179907 0.045289524 0.037595656 0.08588559
0.07246441 0.13239306 0.023095453 0.0003379941 0.0048976503 0.030459836 0.083520874 0.14457381
00000000: 58e3 8cbd 9402 67bd e848 593d f882 5bbd
00000010: 3440 61bd 1801 05bd 4f27 25be 6f37 feba
00000020: 9f72 c2bd 6685 53be 9d98 c0bd ff79 3dbc
00000030: 04e6 663b 4d38 533d b293 a2bc f176 aebd
00000040: 941a fe3d c317 e1bd 0a47 02bd ea2d e3bd
00000050: dbe1 58be 8281 393d e7fd 193d c9e4 af3d
00000060: 3868 943d 0c92 073e ad32 bd3c cd34 b139
00000070: 787c a03b e886 f93c fe0c ab3d 280b 143e

module.net_ts.layer1.0.bn2.running_mean f4 [32]
0.103349574 -1.0282758 -0.013851607 -0.58080846 -0.08918859 -0.6581055 -0.7660415 -0.7691667
-0.2261349 0.046392255 0.13393329 -1.1185987 -0.2954492 -1.5509568 0.94500875 0.44954753
-1.3389493 -0.23379467 -0.5770331 0.01860228 0.26334542 -1.2015544 -0.60877293 -0.5066432
0.13563542 -0.004938361 -0.46951458 -0.23297004 -0.34451357 -0.08615295 -0.10935876 0.30462214
00000000: f1a8 d33d 8b9e 83bf daf1 62bc ddaf 14bf
00000010: 82a8 b6bd 9a79 28bf 4c1b 44bf 1ce8 44bf
00000020: e88f 67be ce05 3e3d cf25 093e 3e2e 8fbf
00000030: 1e45 97be c185 c6bf 18ec 713f 182b e63e
00000040: b162 abbf df67 6fbe 71b8 13bf cf63 983c
00000050: 36d5 863e 89cc 99bf 8bd8 1bbf 5eb3 01bf
00000060: 03e4 0a3e f9d1 a1bb 3764 f0be b38f 6ebe
00000070: 1564 b0be f570 b0bd 7cf7 dfbd 6ff7 9b3e

module.net_ts.layer1.0.bn2.running_var f4 [32]
0.7251226 0.6438083 0.79267347 1.2214481 0.47842416 1.1207161 1.2530035 0.8260273
0.83058435 0.5533878 0.56536436 0.80760556 0.63592935 1.5059493 1.2314613 0.7114442
0.99354947 0.83223397 2.0702198 0.52605504 1.3000058 1.3614305 0.6499907 1.2243701
1.1069068 0.6439998 0.8145959 0.7408821 0.92843527 0.8006065 0.94553167 1.0526124
00000000: a2a1 393f 9fd0 243f a6ec 4a3f 6958 9c3f
00000010: 03f4 f43e a073 8f3f 6b62 a03f 8676 533f
00000020: 2da1 543f d3aa 0d3f b8bb 103f 3dbf 4e3f
00000030: 44cc 223f f2c2 c03f 86a0 9d3f 3521 363f
00000040: 4259 7e3f 490d 553f 7b7e 0440 8bab 063f
00000050: 9766 a63f 5b43 ae3f ca65 263f 29b8 9c3f
00000060: 1faf 8d3f 2cdd 243f 5b89 503f 73aa 3d3f
00000070: efad 6d3f 8cf4 4c3f 5d0e 723f 01bc 863f

module.net_ts.layer2.0.conv1.weight f4 [32, 32, 3]
-0.089096464 -0.08453116 0.3112779 0.018107258 0.09240713 -0.10989243 -0.049232297 0.20061536
0.27481472 -0.07018694 0.11584065 -0.05515234 0.004163239 -0.15715587 -0.27401978 0.033224333
0.08469751 0.146512 -0.0702751 0.13988441 0.1011757 0.09278703 -0.08012499 0.008459576
0.24038216 0.074299246 0.1936791 -0.26616648 0.047892164 -0.124122635 0.08305632 -0.07686876
-0.120874934 -0.058082998 -0.18528913 0.03523692 0.20781733 -0.00060140615 0.108815685 -0.2167059
0.019043284 -0.3151216 -0.144551 -0.07481737 0.008723425 0.043695923 -0.075470924 -0.24320184
0.113328524 0.20113757 -0.11467828 0.05163305 -0.010094977 -0.0768804 0.24399637 -0.48551336
0.077516004 -0.030759625 0.060797907 -0.12799583 0.09727945 -0.13017224 0.18051213 0.17625354
0.0764582 0.032098692 -0.15012734 -0.035043433 -0.011614473 -0.13037024 0.07825892 0.0777069
0.028053295 -0.2122611 -0.31620008 -0.20630728 0.10967844 0.07653932 -0.19199726 -0.2319163
-0.026998155 0.06466775 0.14543368 -0.16995071 0.24072784 -0.11157022 -0.19939813 -0.012063298
-0.04450993 0.15326853 0.16877526 -0.026623946 0.089805536 -0.020515777 0.033658076 0.002587752
0.1891115 -0.080347 0.09812504 -0.1593074 -0.1552116 0.08089727 -0.28584346 -0.12897812
0.00032040363 0.21027072 0.08760335 -0.13428481 -0.09494475 0.011242881 -0.07829811 0.033281244
-0.08868422 0.13792832 -0.0012636688 0.10353122 0.17299514 0.00355355 0.087291986 -0.042809494
-0.18036532 -0.08785029 0.24008025 0.05816478 -0.067254156 -0.018926335 -0.17973725 -0.14449805
-0.04538831 -0.08173292 0.008638821 -0.21999887 -0.104006656 -0.14068 0.26434946 0.0060787043
-0.029741444 -0.4230566 -0.073591016 0.036584977 0.13098001 -0.041765064 -0.15514803 -0.08720227
0.19034079 -0.13795799 0.05290892 0.01726403 0.05472555 -0.08446923 -0.36729032 0.08209797
-0.0312313 -0.20389596 -0.29656884 -0.13556492 -0.049888924 0.067666866 0.4056104 0.14383595
-0.054098997 0.009793608 -0.047273204 0.12897672 -0.12039542 -0.08901163 0.08287787 -0.09356673
0.008098808 0.11243216 -0.0071153925 -0.047616728 -0.049616586 -0.0439387 -0.025150964 -0.076988645
0.16799395 -0.037128005 0.08427022 -0.25688174 0.07308191 0.09730691 0.0666541 -0.0883599
0.06924189 0.0044941525 -0.05935992 0.018943364 -0.23166037 -0.043392293 -0.08889575 0.3201719
-0.04967288 0.17743298 -0.15578645 0.24956532 0.07318511 -0.056335263 0.025407229 0.07766618
0.09578901 -0.025790852 0.23858373 0.06938498 0.024356332 -0.022896156 -0.19293247 -0.12976849
0.01585149 0.03515795 -0.013581295 -0.042491306 -0.13740997 0.063721776 -0.085585885 0.03489909
0.06313078 -0.06579058 -0.12869082 -0.0055018812 -0.1988402 0.16343781 0.036485042 -0.25672626
-0.3376108 0.22097632 0.16478293 -0.056245543 0.010407027 0.18139856 0.11032295 0.19154164
-0.06250417 -0.06556269 0.2561128 0.1529607 0.11348391 0.05212682 -0.43373272 -0.024797134
0.19661461 0.1809387 0.12666576 0.03359717 -0.063032165 -0.03873453 -0.07908032 0.1472099
0.1641833 0.117620915 0.025795387 -0.14299686 -0.17949249 -0.026215116 -0.07734738 -0.09144509
00000000: 3578 b6bd ac1e adbd d15f 9f3e ac55 943c
00000010: f33f bd3d 480f e1bd cea7 49bd 1d6e 4d3e
00000020: 84b4 8c3e 2cbe 8fbd dd3d ed3d 6ce7 61bd
00000030: c86b 883b 78ed 20be 524c 8cbe 3d16 083d
00000040: e375 ad3d 3e07 163e 64ec 8fbd dc3d 0f3e
00000050: 3535 cf3d 2007 be3d 9218 a4bd 099a 0a3c
00000060: be26 763e 342a 983d d053 463e f946 88be
00000070: 932a 443d 0234 febd 6f19 aa3d 5e6d 9dbd
00000080: 478d f7bd 70e8 6dbd 6fbc 3dbe 9754 103d
00000090: 11ce 543e afa7 1dba c2da de3d 27e8 5dbe
000000a0: a900 9c3c 9e57 a1be 2d05 14be d939 99bd
000000b0: b2ec 0e3c 7ffa 323d 8090 9abd e709 79be
000000c0: c918 e83d 02f7 4d3e 72dc eabd 2d7d 533d
000000d0: 6765 25bc 7973 9dbd 2fda 793e 3595 f8be
000000e0: b6c0 9e3d 9cfb fbbc 3a07 793d 5711 03be
000000f0: 733a c73d df4b 05be 2cd8 383e cf7b 343e
00000100: 1e96 9c3d eb79 033d fbba 19be b489 0fbd
00000110: a14a 3ebc c77f 05be 3646 a03d cc24 9f3d
00000120: 06d0 e53c f95a 59be fae4 a1be 3742 53be
00000130: 179f e03d a6c0 9c3d ee9a 44be 777b 6dbe
00000140: 3c2b ddbc 8670 843d 91ec 143e 8f07 2ebe
00000150: 5c81 763e ed7e e4bd 062f 4cbe 24a5 45bc
00000160: 0b50 36bd 6df2 1c3e 6cd3 2c3e 761a dabc
00000170: f7eb b73d b410 a8bc 0ddd 093d 4697 293b
00000180: 72a6 413e f88c a4bd c8f5 c83d 7b21 23be
00000190: caef 1ebe 78ad a53d 135a 92be d712 04be
000001a0: d9fb a739 3551 573e 6369 b33d f581 09be
000001b0: 6572 c2bd 1034 383c c25a a0bd ea51 083d
000001c0: 13a0 b5bd 153d 0d3e b0a1 a5ba 2d08 d43d
000001d0: a325 313e ade2 683b 24c6 b23d 0259 2fbd
000001e0: b0b1 38be daea b3bd 99d7 753e 313e 6e3d
000001f0: 8cbc 89bd 670b 9bbc 0b0d 38be 4cf7 13be
00000200: 18e9 39bd 9763 a7bd d789 0d3c 6247 61be
00000210: 7101 d5bd 6b0e 10be d058 873e de2f c73b
00000220: 54a4 f3bc e09a d8be e3b6 96bd 21da 153d
00000230: a01f 063e d811 2bbd 20df 1ebe 1b97 b2bd
00000240: b2e8 423e dc44 0dbe 06b7 583d 4c6d 8d3c
00000250: e627 603d 34fe acbd 7a0d bcbe fb22 a83d
00000260: c9d8 ffbc 1aca 50be dfd7 97be 88d1 0abe
00000270: 5458 4cbd ed94 8a3d 2bac cf3e bb49 133e
00000280: e996 5dbd 5f75 203c 8ca1 41bd 7912 043e
00000290: e091 f6bd bb4b b6bd dfbb a93d ea9f bfbd
000002a0: ddb0 043c d542 e63d 3d28 e9bb c209 43bd
000002b0: c33a 4bbd 11f9 33bd 6509 cebc 39ac 9dbd
000002c0: 9b06 2c3e 8913 18bd dd95 ac3d 0186 83be
000002d0: f8ab 953d d848 c73d f281 883d 09f6 b4bd
000002e0: b1ce 8d3d af43 933b 6323 73bd 1d2f 9b3c
000002f0: 6038 6dbe 1ebc 31bd fa0e b6bd 92ed a33e
00000300: ca75 4bbd feb0 353e 7c86 1fbe 0d8e 7f3e
00000310: 13e2 953d cebf 66bd d222 d03c 720f 9f3d
00000320: 072d c43d 5647 d3bc 4b4f 743e b619 8e3d
00000330: ee86 c73c b890 bbbc 1790 45be 08e2 04be
00000340: fcda 813c c801 103d 1484 5ebc 5d0b 2ebd
00000350: 33b5 0cbe 9080 823d a747 afbd 59f2 0e3d
00000360: b64a 813d 36bd 86bd 87c7 03be 2049 b4bb
00000370: c49c 4bbe 3e5c 273e 5771 153d a071 83be
00000380: 53db acbe 9e47 623e dbbc 283e ba61 66bd
00000390: 3c82 2a3c 8bc0 393e 00f1 e13d 7e23 443e
000003a0: 3002 80bd bb45 86bd 3821 833e bba1 1c3e
000003b0: 416a e83d ef82 553d 3712 debe 5c23 cbbc
000003c0: 5755 493e ff47 393e abb4 013e 309d 093d
000003d0: 0217 81bd 19a8 1ebd ddf4 a1bd 31be 163e
000003e0: ab1f 283e 3ce3 f03d d950 d33c c56d 12be
000003f0: e1cc 37be 15c1 d6bc 4e68 9ebd 9047 bbbd

module.net_ts.layer2.0.bn1.weight f4 [32]
0.9753766 0.8550908 0.7884154 0.85296905 0.91502905 0.8858101 0.8440478 0.814271
0.9259152 0.89030516 0.9272219 0.79100305 0.86958116 0.8207752 0.8904267 0.96990657
0.7763833 0.7698557 0.87126225 0.8514261 0.9425246 1.007884 0.8722873 0.8415203
0.89809316 0.8202353 0.7861411 0.7094342 0.87089175 0.94098806 0.870726 0.949716
00000000: 48b2 793f 3be7 5a3f 97d5 493f 2e5c 5a3f
00000010: 583f 6a3f 73c4 623f 8413 583f 1074 503f
00000020: c708 6d3f 0aeb 633f 6a5e 6d3f 2d7f 4a3f
00000030: df9c 5e3f 531e 523f 01f3 633f cc4b 783f
00000040: 0ec1 463f 4315 453f 0b0b 5f3f 10f7 593f
00000050: 4b49 713f 5802 813f 384e 5f3f e06d 573f
00000060: 6fe9 653f f1fa 513f 8b40 493f 7b9d 353f
00000070: c3f2 5e3f 98e4 703f e6e7 5e3f 9620 733f

module.net_ts.layer2.0.bn1.bias f4 [32]
-0.024012597 -0.004888557 -0.017270172 -0.07624425 0.07642883 -0.030620499 0.09895703 -0.09549739
0.067498244 -0.011116181 0.049520962 -0.035659585 0.0036570688 -0.0640153 -0.046591204 -0.014422782
-0.06530861 -0.04968952 0.0031333591 0.005068383 0.018120162 0.02022242 -0.08613157 -0.03652013
0.045865834 0.0286761 -0.015248903 -0.05861349 0.071068496 0.037708577 -0.02655749 0.0699461
00000000: 11b6 c4bc 3030 a0bb 2d7a 8dbc f225 9cbd
00000010: b886 9c3d d7d7 fabc fca9 ca3d 2394 c3bd
00000020: 853c 8a3d a420 36bc 7ed6 4a3d c90f 12bd
00000030: 6fab 6f3b 741a 83bd 6bd6 3ebd 884d 6cbc
00000040: 85c0 85bd 3d87 4bbd 0b59 4d3b ae14 a63b
00000050: bc70 943c 7da9 a53c c065 b0bd 2296 15bd
00000060: d0dd 3b3d 24ea ea3c 89d6 79bc b314 70bd
00000070: 5c8c 913d 4f74 1a3d 188f d9bc e73f 8f3d

module.net_ts.layer2.0.bn1.running_mean f4 [32]
-0.73133683 -1.5185536 0.22266826 0.62757266 -0.26510844 -0.13498126 1.5353312 1.2686659
-1.6682135 1.1735078 1.129 -0.2884894 -1.2652845 -1.7057753 0.088672146 0.4240252
0.6604165 1.487605 -0.5232578 1.6503061 0.58494383 -0.5724252 0.1743413 -0.642628
-0.7040022 -1.112395 0.688659 0.5790038 -1.8633344 -0.9067617 -2.5375783 -0.40282494
00000000: e438 3bbf f75f c2bf 2603 643e 9aa8 203f
00000010: 4bbc 87be 8738 0abe bc85 c43f a563 a23f
00000020: 0588 d5bf 8135 963f 1283 903f e2b4 93be
00000030: d8f4 a1bf d856 dabf be99 b53d d519 d93e
00000040: 0e11 293f d769 be3f 39f4 05bf 3b3d d33f
00000050: e1be 153f 758a 12bf 8786 323e 4583 24bf
00000060: 7d39 34bf f662 8ebf f54b 303f 9839 143f
00000070: be81 eebf 8921 68bf af67 22c0 123f cebe

module.net_ts.layer2.0.bn1.running_var f4 [32]
2.3216748 2.697559 2.7844696 2.9465308 1.8124439 1.9267957 1.8335557 2.3502913
1.8249081 1.5411379 2.2276397 1.6401286 1.9478219 2.4031658 1.2972642 2.3895328
1.6775365 2.1746008 1.2583706 2.339448 1.3685086 1.7777978 2.1499321 1.5775596
1.8006505 2.2424474 1.9478834 1.528446 2.6718338 1.20678 1.8940954 1.5727341
00000000: 5296 1440 cfa4 2c40 c034 3240 f693 3c40
00000010: 29fe e73f 3ea1 f63f f4b1 ea3f 2c6b 1640
00000020: 9796 e93f 0244 c53f a691 0e40 bcef d13f
00000030: 3a52 f93f 78cd 1940 c10c a63f 1bee 1840
00000040: 84b9 d63f a92c 0b40 4a12 a13f 84b9 1540
00000050: 4a2b af3f e18e e33f 7d98 0940 79ed c93f
00000060: b77b e63f 4284 0f40 3e54 f93f 1ea4 c33f
00000070: 53ff 2a40 c477 9a3f b871 f23f 5a4f c93f

module.net_ts.layer2.0.conv2.weight f4 [32, 32, 3]
0.06299097 0.07533182 -0.27512485 0.12614064 -0.06897588 -0.13221234 0.07167536 0.11678618
0.06591031 -0.14877003 -0.07813073 -0.10540817 -0.20758861 0.007857611 0.29085597 -0.008355697
-0.1534634 -0.0652743 0.012774601 -0.06934526 -0.12961139 0.023648743 -0.09922228 -0.24374208
0.08877773 -0.080030695 -0.0010007707 -0.08225374 -0.1107962 -0.08165128 0.05880801 -0.10932783
-0.24354395 0.06871588 -0.0817982 -0.18779232 0.03430312 -0.06677826 0.17809781 -0.026933832
-0.26192197 -0.20408116 -0.17285909 -0.035106573 -0.14247759 -0.19125283 0.018388335 0.30125287
-0.06079096 -0.22198647 -0.15438734 0.009363558 -0.18026753 0.10154454 0.12134305 -0.007041211
0.099629 -0.056460686 0.13712032 -0.1426874 0.0010561708 0.12530169 0.2512095 0.20695849
0.017950004 -0.06485835 -0.04784457 0.019435113 -0.17355256 -0.01480183 0.006587265 0.04283501
0.05968167 0.14963882 0.03360955 -0.005129305 0.21919145 -0.14530317 0.009956104 -0.07823262
0.038479403 0.050386414 0.03337657 -0.048675843 0.10981164 0.05269825 -0.118339464 0.03290228
0.21289635 0.04816682 -0.027159527 -0.05052895 -0.23072796 -0.15808442 -0.18250321 0.011770238
0.062011875 -0.09535527 -0.12897773 -0.20295055 0.1377186 -0.05661077 -0.079529345 0.0065111076
-0.007653725 -0.11178867 -0.015260245 -0.023530032 0.019366557 0.27883828 -0.052234586 0.08413532
-0.020829204 -0.07893094 -0.22407807 -0.19278935 0.15462205 0.096488565 -0.17053269 0.15761895
0.029460168 -0.24994722 -0.07910964 -0.2233108 -0.2559333 -0.00067385484 -0.019943751 -0.034337636
0.0511961 0.045862712 -0.14479089 0.07592646 0.24702552 -0.0024493511 0.08873025 -0.071739435
-0.22142562 0.054698844 -0.11459364 0.014916681 0.2610333 -0.070560075 0.018315902 0.15169626
-0.0771287 -0.26703516 -0.04907364 -0.008136556 -0.07448978 0.0850162 -0.119085595 0.3041889
0.16360465 0.05349399 -0.058404487 -0.029047875 0.008360063 0.046537414 0.0071090157 -0.14632927
-0.10189438 -0.09240338 0.05461026 -0.03385423 -0.097538106 -0.0020228142 -0.16087869 -0.06882153
0.001152572 -0.032419585 0.10798544 0.021001942 0.07496239 0.031581093 -0.017721582 -0.056485966
-0.00012378985 -0.020959657 0.2790123 -0.27990347 -0.13852552 -0.14750883 -0.09434939 -0.06813327
-0.08938224 0.107426025 -0.0001395369 0.04248392 -0.15949684 -0.28944662 0.21482922 -0.07516075
0.2006069 0.04864651 0.15345177 0.029687745 0.0001659185 -0.025876096 -0.18490802 0.1477099
-0.11721339 0.18356942 -0.06326402 -0.25377482 0.24652801 0.100732155 -0.19370264 0.13122289
-0.066523425 -0.10322923 0.19249368 -0.045313552 -0.16185027 -0.029492034 0.03874962 -0.05545695
-0.012750364 -0.021672133 0.07273236 0.013882344 0.11679782 -0.059456144 -0.05119297 -0.17235394
0.30105373 0.29522347 0.15648934 -0.19801939 0.11045921 -0.04456236 -0.17335205 0.23320593
-0.19286093 0.043868903 -0.09331674 -0.0009712252 -0.08364217 -0.15203418 -0.07640952 0.0074006347
0.08253504 0.20398101 0.06242873 0.11398389 0.04671936 -0.08143006 0.17704354 0.088090666
-0.07762059 -0.36020938 -0.119971894 -0.08963141 -0.08261146 0.057266213 -0.3361248 -0.19677569
00000000: 6901 813d 9247 9a3d 2add 8cbe 032b 013e
00000010: 3a43 8dbd ac62 07be 88ca 923d 982d ef3d
00000020: fcfb 863d 2c57 18be 0103 a0bd 3de0 d7bd
00000030: 1c92 54be 36bd 003c 13eb 943e 55e6 08bc
00000040: 8225 1dbe 88ae 85bd 8f4c 513c e304 8ebd
00000050: d9b8 04be 02bb c13c 0d35 cbbd 8697 79be
00000060: 19d1 b53d 22e7 a3bd 4b2c 83ba a674 a8bd
00000070: 1ee9 e2bd c938 a7bd abe0 703d 45e7 dfbd
00000080: 9663 79be e9ba 8c3d d185 a7bd a14c 40be
00000090: 6e81 0c3d 0ac3 88bd 465f 363e 57a4 dcbc
000000a0: a31a 86be a7fa 50be f901 31be e9cb 0fbd
000000b0: a5e5 11be c8d7 43be 22a3 963c d13d 9a3e
000000c0: f1ff 78bd 6c50 63be b717 1ebe 9c69 193c
000000d0: 0d98 38be 95f6 cf3d b482 f83d f5b9 e6bb
000000e0: 4a0a cc3d 5243 67bd 4569 0c3e a51c 12be
000000f0: 366f 8a3a 164f 003e 889e 803e edec 533e
00000100: e30b 933c 74d4 84bd abf8 43bd 6336 9f3c
00000110: c3b7 31be 6083 72bc fcd9 d73b c373 2f3d
00000120: c474 743d eb3a 193e 2baa 093d bb13 a8bb
00000130: b973 603e 5bca 14be ed1e 233c 6d38 a0bd
00000140: 949c 1d3d fc61 4e3d dfb5 083d 5260 47bd
00000150: ede4 e03d 1fda 573d f65b f2bd 8bc4 063d
00000160: 8001 5a3e 924a 453d a87d debc 72f7 4ebd
00000170: f343 6cbe e2e0 21be 1fe2 3abe f5d7 403c
00000180: 2a00 7e3d a049 c3bd bd12 04be 45d2 4fbe
00000190: 1b06 0d3e b2e0 67bd 48e0 a2bd 215b d53b
000001a0: 19cc fabb 75f1 e4bd 1b06 7abc 0ec2 c0bc
000001b0: 9da6 9e3c e4c3 8e3e eff3 55bd 234f ac3d
000001c0: 02a2 aabc 8ba6 a1bd b974 65be 926a 45be
000001d0: 3e55 1e3e cc9b c53d 1fa0 2ebe dd66 213e
000001e0: 7356 f13c 2af2 7fbe 3c04 a2bd 96ab 64be
000001f0: b109 83be a2a5 30ba 1461 a3bc 9fa5 0cbd
00000200: 00b3 513d 8ada 3b3d 1044 14be 557f 9b3d
00000210: 42f4 7c3e 4b85 20bb 35b8 b53d 20ec 92bd
00000220: 66bd 62be e50b 603d 12b0 eabd 1865 743c
00000230: 28a6 853e cd81 90bd 3b0b 963c 4456 1b3e
00000240: a7f5 9dbd d5b8 88be 7101 49bd 304f 05bc
00000250: 198e 98bd f91c ae3d 26e3 f3bd a6be 9b3e
00000260: fa87 273e 841c 5b3d 8b39 6fbd cff5 edbc
00000270: a5f8 083c 049e 3e3d bff2 e83b 57d7 15be
00000280: 00ae d0bd fc3d bdbd 02af 5f3d bcaa 0abd
00000290: 0fc2 c7bd 3191 04bb 62bd 24be 4df2 8cbd
000002a0: e611 973a 66ca 04bd 7827 dd3d 440c ac3c
000002b0: e285 993d 2d5b 013d da2c 91bc d45d 67bd
000002c0: 96cd 01b9 96b3 abbc b3da 8e3e 824f 8fbe
000002d0: a2d9 0dbe 8e0c 17be 413a c1bd 7589 8bbd
000002e0: 090e b7bd 2d02 dc3d a750 12b9 9e03 2e3d
000002f0: 2453 23be 5932 94be 31fc 5b3e e1ed 99bd
00000300: e56b 4d3e 9041 473d 7622 1d3e b733 f33c
00000310: 69fa 2d39 1bfa d3bc 8758 3dbe 4441 173e
00000320: 930d f0bd 9ff9 3b3e 9190 81bd c6ee 81be
00000330: d771 7c3e a94c ce3d fc59 46be 4b5f 063e
00000340: 6f3d 88bd d969 d3bd 101d 453e b49a 39bd
00000350: 14bc 25be 4799 f1bc ecb7 1e3d d426 63bd
00000360: e7e6 50bc c289 b1bc b4f4 943d c572 633c
00000370: b233 ef3d 4988 73bd b8af 51bd 8d7d 30be
00000380: b723 9a3e 8827 973e be3e 203e 98c5 4abe
00000390: 7038 e23d 0587 36bd 3383 31be 89cd 6e3e
000003a0: 567d 45be e1af 333d d91c bfbd d299 7eba
000003b0: 964c abbd d9ae 1bbe 987c 9cbd 0681 f23b
000003c0: 2208 a93d 66e0 503e 45b5 7f3d 6370 e93d
000003d0: cd5c 3f3d cec4 a6bd e74a 353e e168 b43d
000003e0: 8bf7 9ebd 5d6d b8be d3b3 f5bd ac90 b7bd
000003f0: 3230 a9bd fa8f 6a3d 8d18 acbe 917f 49be

module.net_ts.layer2.0.bn2.weight f4 [32]
0.8202621 0.7684644 0.8336026 1.1278292 0.85735416 1.0217559 0.82982945 0.7460993
0.87141716 0.92439175 0.9197231 0.77271837 0.8486546 0.7661086 0.7577152 0.8238214
0.91110295 0.9519211 0.91460156 1.0787627 1.0664935 0.81629974 0.805184 1.0280762
0.95156544 0.8733276 0.86280596 0.85260546 1.0487285 0.80696183 0.895245 0.68128026
00000000: b2fc 513f 15ba 443f fb66 553f b55c 903f
00000010: 907b 5b3f e6c8 823f b46f 543f 5d00 3f3f
00000020: 3215 5f3f f0a4 6c3f f972 6b3f dfd0 453f
00000030: 6e41 593f b11f 443f a0f9 413f f6e5 523f
00000040: 0b3e 693f 1ab1 733f 5423 6a3f e514 8a3f
00000050: dc82 883f 05f9 503f 8a20 4e3f 0098 833f
00000060: cb99 733f 6692 5f3f dae0 5c3f 5a44 5a3f
00000070: bc3c 863f 0d95 4e3f c72e 653f 6268 2e3f

module.net_ts.layer2.0.bn2.bias f4 [32]
-0.063697815 -0.11841935 -0.093126796 0.015791008 0.08713462 0.1589724 -0.16861 0.04811079
0.04106485 0.03288237 -0.051534094 -0.041473262 -0.1821811 -0.19316415 0.081589855 -0.049845826
-0.06802508 0.13739485 0.016382096 0.19362389 -0.035034023 -0.016054003 -0.11811181 0.033332225
0.1917665 -0.0029862456 0.067953296 0.00066010957 0.18296872 0.070338435 0.15194526 -0.0539031
00000000: 0074 82bd d885 f2bd 43b9 bebd 255c 813c
00000010: a373 b23d a9c9 223e 1aa8 2cbe d20f 453d
00000020: 9e33 283d aaaf 063d 6a15 53bd dedf 29bd
00000030: af8d 3abe d3cc 45be 9518 a73d 232b 4cbd
00000040: bc50 8bbd 3cb1 0c3e bf33 863c 5745 463e
00000050: d67f 0fbd af83 83bc 9be4 f1bd 5f87 083d
00000060: 705e 443e e3b4 43bb 192b 8b3d 340b 2d3a
00000070: 275c 3b3e 990d 903d 8a97 1b3e 7fc9 5cbd

module.net_ts.layer2.0.bn2.running_mean f4 [32]
-0.57089376 -0.6608842 -0.20144375 -0.20764962 -0.45346385 0.006344169 -0.8847806 0.7338205
0.3521799 -1.3003281 0.2935293 0.5937783 0.19540603 0.4104488 0.8688311 -0.045174997
-0.8205904 -0.53571707 -0.44034022 0.9667074 0.10251948 0.17716795 0.58362 -0.40588334
-0.43772492 -0.26891798 -0.014332624 0.4351942 0.94207466 -0.6642576 -0.8222819 0.7876944
00000000: 1826 12bf b52f 29bf 4547 4ebe 1aa2 54be
00000010: 6a2c e8be bfe2 cf3b fb80 62bf a9db 3b3f
00000020: ed50 b43e 2771 a6bf 7949 963e db01 183f
00000030: 8518 483e 5826 d23e b76b 5e3f 6b09 39bd
00000040: 3612 52bf c124 09bf 4674 e1be 237a 773f
00000050: bcf5 d13d 846b 353e 1f68 153f f1cf cfbe
00000060: 7b1d e0be 9eaf 89be 62d3 6abc c6d1 de3e
00000070: ce2b 713f c90c 2abf 1181 52bf 57a6 493f

module.net_ts.layer2.0.bn2.running_var f4 [32]
0.6556331 0.6645648 0.49649188 0.4765475 0.9881647 0.889069 0.6260133 1.0315591
0.6722089 0.7868269 0.46397948 0.56608206 1.0226498 0.9258496 1.49994 0.46357864
0.6533935 1.2746423 0.66014445 0.7761764 1.0088152 0.41271853 0.6192733 0.33008495
0.89274156 0.507365 0.5501366 0.40736148 0.6812248 0.47307995 0.6715408 1.010822
00000000: 92d7 273f eb20 2a3f 2f34 fe3e 09fe f33e
00000010: 5df8 7c3f 079a 633f 6842 203f 210a 843f
00000020: e215 2c3f 7d6d 493f b88e ed3e c1ea 103f
00000030: 30e6 823f 7b04 6d3f 09fe bf3f 2e5a ed3e
00000040: cc44 273f 7b27 a33f 3aff 283f 7fb3 463f
00000050: db20 813f d84f d33e b288 1e3f e500 a93e
00000060: b68a 643f ace2 013f c1d5 0c3f af91 d03e
00000070: c064 2e3f 8937 f23e 19ea 2b3f 9e62 813f

module.net_ts.layer2.0.ca.fc1.weight f4 [2, 32, 1]
-0.33243528 0.019008132 1.3585383 1.8231611 0.16412963 -0.72396976 -0.6140845 -1.7871923
-0.4158098 -1.5576457 -0.25386214 -0.56365025 -0.39522976 -0.7692242 -0.5696614 1.5198243
1.2585784 -2.3825183 -1.1550435 -0.0050285687 -0.09602815 -0.5140419 0.7235178 0.892847
-0.23991536 -2.1587605 -0.44798544 0.74005413 -0.35851198 0.05229121 0.045660246 1.801566
1.2471194 1.2575868 1.0106715 0.56528515 1.4027966 -0.5303213 2.0416212 1.5703833
-0.56307197 0.10452857 -0.3457047 0.36883613 2.6326962 -1.1023359 -1.4334184 0.6241473
-0.096412644 0.77652675 0.109790884 -1.3343638 0.09966354 0.39151582 -0.42379418 0.25618908
0.41690496 -0.79726833 -0.5079689 0.04273665 -1.280309 0.1914966 -0.54164106 -1.7195684
00000000: f534 aabe f1b6 9b3c 95e4 ad3f 585d e93f
00000010: 9911 283e 1556 39bf a434 1dbf b8c2 e4bf
00000020: 06e5 d4be ef60 c7bf 38fa 81be 624b 10bf
00000030: 8e5b cabe e1eb 44bf 54d5 11bf 9a89 c23f
00000040: 1919 a13f 2e7b 18c0 77d8 93bf b1c6 a4bb
00000050: 68aa c4bd 4098 03bf 7638 393f 9f91 643f
00000060: 5fac 75be 2229 0ac0 595e e5be 3074 3d3f
00000070: e28e b7be 4f2f 563d 3d06 3b3d b799 e63f
00000080: 9ca1 9f3f 9bf8 a03f af5d 813f 87b6 103f
00000090: d78e b33f 23c3 07bf eca9 0240 5202 c93f
000000a0: 7c25 10bf 1313 d63d 3500 b1be 17d8 bc3e
000000b0: 187e 2840 5819 8dbf 417a b7bf 1ec8 1f3f
000000c0: fe73 c5bd 75ca 463f 0bda e03d 6fcc aabf
000000d0: 661c cc3d c374 c83e 8dfb d8be 372b 833e
000000e0: 9174 d53e c719 4cbf 400a 02bf a00c 2f3d
000000f0: 2ae1 a3bf af17 443e fda8 0abf d11a dcbf

module.net_ts.layer2.0.ca.fc2.weight f4 [32, 2, 1]
-0.020964576 -0.24204098 0.030994918 -0.10977765 0.2777793 0.19302854 0.258049 -0.15333454
0.009895896 0.17318591 -0.04061671 0.17356715 -0.059199817 -0.18358079 -0.131015 0.52416754
-0.08181929 0.2053891 -0.57152754 0.14938977 0.12579502 -0.11596751 -0.20990303 -0.13979988
-0.22155963 -0.17053203 -0.03629789 0.09530571 -0.0453789 0.12506485 -0.21324642 -0.47710237
-0.14133461 0.37954566 0.37466383 -0.16467106 -0.10813337 -0.40434286 -0.03304622 -0.24751508
0.13744277 0.5433888 -0.18529096 -0.2245791 -0.48702112 -0.18157168 -0.053179048 -0.32773563
-0.060975097 0.1660368 -0.45597914 -0.30148533 0.038773388 -0.26371875 0.21967256 -0.23421973
-0.31391218 -0.17532395 -0.08010086 0.16745602 -0.0477786 0.15628366 -0.05833926 0.27266324
00000000: e7bd abbc 97d9 77be 0ee9 fd3c 1bd3 e0bd
00000010: 1739 8e3e 46a9 453e 001f 843e bb03 1dbe
00000020: 6522 223c a657 313e b55d 26bd 96bb 313e
00000030: 827b 72bd 9afc 3bbe cc28 06be d82f 063f
00000040: df90 a7bd 8551 523e a14f 12bf a2f9 183e
00000050: 69d0 003e 6080 edbd d2f0 56be b327 0fbe
00000060: 87e0 62be f39f 2ebe 19ad 14bd a42f c33d
00000070: 3adf 39bd 0011 003e 455d 5abe c346 f4be
00000080: 05ba 10be cf53 c23e f0d3 bf3e 889f 28be
00000090: 0775 ddbd 0706 cfbe 795b 07bd 9874 7dbe
000000a0: ccbd 0c3e 871b 0b3f eabc 3dbe 10f8 65be
000000b0: d55a f9be eded 39be 46d2 59bd f7cc a7be
000000c0: 06c1 79bd 8d05 2a3e 1976 e9be 495c 9abe
000000d0: d8d0 1e3d 2506 87be d8f1 603e 4cd7 6fbe
000000e0: 19b9 a0be 1f88 33be eb0b a4bd 9779 2b3e
000000f0: 7eb3 43bd d308 203e 26f5 6ebd 849a 8b3e

module.net_ts.layer2.0.sa.conv1.weight f4 [1, 2, 7]
0.53711605 0.1821445 -0.2798332 0.26153058 -0.040181648 0.16096222 0.270536 -0.69463336
0.33697394 0.07855895 -0.6150553 1.0752593 0.29512498 -0.08556109
00000000: 7080 093f 1684 3a3e 4c46 8fbe 56e7 853e
00000010: 8395 24bd 48d3 243e b283 8a3e 7ed3 31bf
00000020: d987 ac3e 84e3 a03d 4474 1dbf 19a2 893f
00000030: 9f1a 973e a73a afbd
