model/model_20200914183005/model_final_std_2_0300_ts.pth (torch_old, 131256 bytes, 59 tensors)

module.net_ts.conv1.weight f4 [32, 1, 7]
0	0x3cfdfd16	0.03100447
1	0x3e9c9cb8	0.30588317
2	0x3ec2f177	0.38074848
3	0x3ed448d7	0.41461822
4	0xbd56db14	-0.052455023
5	0xbe30baf6	-0.1725882
6	0x3d36e571	0.044652406
7	0x3edc988a	0.43085128
8	0x3ca08de1	0.019598903
9	0xbe57dd28	-0.21080458
10	0x3daa0c40	0.08303118
11	0xbea7a404	-0.32742321
12	0x3eecd2d6	0.46254605
13	0x3eb811be	0.35951036
14	0xbe6f5c78	-0.23375118
15	0xbcb671ff	-0.022271154
16	0x3de1b3a5	0.110205926
17	0x3de898fc	0.113573045
18	0xbf147256	-0.5798696
19	0xbeaa1d32	-0.332254
20	0xbe6609f8	-0.2246474
21	0xbe8e8c1a	-0.27841264
22	0x3e894a2d	0.26814404
23	0xbdc7a851	-0.09748901
24	0x3e5189a4	0.20462662
25	0x3d8aab40	0.067709446
26	0xbf0b8660	-0.54501915
27	0xbdcdb3d9	-0.10044069
28	0x3ec75784	0.38933957
29	0xbee25a22	-0.4420939
30	0x3e726eef	0.2367513
31	0x3e08e763	0.13369517
32	0xbe2b66d5	-0.16738446
33	0xbe8da819	-0.2766731
34	0x3e272e84	0.16326338
35	0xbe961b9e	-0.29317945
36	0x3e4b7ea8	0.19872534
37	0x3f03d778	0.51500654
38	0x3df9e00c	0.12200937
39	0xbe47f185	-0.19525726
40	0xbd2d7d72	-0.042355962
41	0xbee86dae	-0.4539618
42	0x3f0f4037	0.5595736
43	0x3e26b0f6	0.16278443
44	0xbcb723be	-0.02235591
45	0xbc0e1c9e	-0.008673815
46	0xbebfab6d	-0.37435475
47	0x3e11aab1	0.1422527
48	0xbe3263e6	-0.1742092
49	0x3ee6d919	0.45087507
50	0x3d99d5bf	0.07511472
51	0x3d0eb6b2	0.0348422
52	0xbdaf13c8	-0.08548695
53	0xbed2aeb2	-0.41148907
54	0xbd74472d	-0.05963819
55	0x3d2acb10	0.04169756
56	0x3de6531c	0.112463206
57	0xbf29e93c	-0.6637151
58	0x3efab11c	0.4896325
59	0xbe2a3ae0	-0.16624022
60	0x3e4007b6	0.18752941
61	0xbd37ab5b	-0.04484115
62	0xbdb5d5f1	-0.08878697
63	0x3e5e8df5	0.2173384
64	0xbe59f1e0	-0.21283674
65	0x3ef5ef9e	0.48034376
66	0x3e468e6b	0.19390266
67	0x3e2a64e5	0.1664005
68	0x3d13f916	0.03612622
69	0x3d6da5f1	0.058019582
70	0xbeaeb6ac	-0.34123743
71	0xbe87e0a5	-0.26538578
72	0x3ee490a5	0.44641605
73	0xbe788898	-0.24270856
74	0xbe71eb69	-0.23624958
75	0x3e2d369a	0.1691536
76	0xbe3d18f9	-0.18466558
77	0x3ee41008	0.4454348
78	0xbf123402	-0.5711061
79	0x3ee70bd9	0.45126227
80	0xbe00e513	-0.12587385
81	0x3e0edc9c	0.13951343
82	0x3e87f01d	0.2655038
83	0xbec7408b	-0.3891643
84	0xbe90cab5	-0.28279653
85	0x3f08266f	0.53183645
86	0xbd336b25	-0.043803353
87	0xbe9baa84	-0.3040353
88	0x3e98bd84	0.2983209
89	0xbd93d6ba	-0.0721869
90	0x3eca299d	0.39484873
91	0xbecbb3a3	-0.3978549
92	0xbe8c1a8a	-0.27363998
93	0xbda1f891	-0.079087384
94	0xbe0a8586	-0.13527498
95	0x3e65f5c5	0.22457035
96	0x3f0d1a8c	0.5511863
97	0xbe058229	-0.13037933
98	0x3eb2b39a	0.3490265
99	0x3eaf02be	0.3418178
100	0xbdc56fd8	-0.09640473
101	0xbe93384f	-0.28753898
102	0x3e71e4f5	0.23622496
103	0x3d986922	0.074419275
104	0xbf1e6c28	-0.61883783
105	0xbcdc9a61	-0.026929082
106	0xbe54672f	-0.20742486
107	0xbdffdfc0	-0.12493849
108	0x3f114935	0.5675233
109	0x3e9c8e16	0.30577153
110	0xbd0999e3	-0.033594023
111	0x3e22335f	0.15839909
112	0xbe20e69d	-0.15712972
113	0x3e1bcf24	0.15215737
114	0x3e878870	0.2647128
115	0x3eb6646d	0.35623494
116	0x3eab6bd0	0.33480692
117	0x3e2a0adb	0.16605704
118	0xbdf4f11e	-0.11960052
119	0xbbdecaf9	-0.0067990986
120	0xbe1c0642	-0.15236762
121	0x3f026355	0.5093282
122	0x3ed30cb8	0.4122064
123	0xbd9e370c	-0.07725343
124	0x3d7d0a19	0.061777208
125	0x3c812ce3	0.015768474
126	0x3e92dc67	0.2868378
127	0x3e8885f8	0.2666471
128	0x3da3f4a4	0.08005646
129	0x3e73ba90	0.23801637
130	0x3d78df49	0.060759816
131	0xbe1dcd55	-0.15410359
132	0x3e8da1b3	0.2766243
133	0xbd6faeeb	-0.058516424
134	0x3ee008d4	0.43756735
135	0xbf281087	-0.6565022
136	0x3e92e91b	0.2869347
137	0x3dcd7c4c	0.10033473
138	0xbd5dc6bc	-0.054144606
139	0xbd43dc1e	-0.047817342
140	0x3ea95b93	0.33077678
141	0x3f0378be	0.5135611
142	0x3d4e0359	0.05029616
143	0xbe1a48e5	-0.1506687
144	0xbda5626a	-0.080754116
145	0xbe9447ec	-0.28961122
146	0xbe064c02	-0.13114932
147	0xbf05b2ee	-0.5222615
148	0xbe4b34c5	-0.19844349
149	0xbe7cff2e	-0.24706718
150	0xbdec9432	-0.115517035
151	0x3e19a86f	0.15005659
152	0xbccded71	-0.025137635
153	0x3d81627e	0.06317614
154	0x3ec5b7f9	0.38616922
155	0x3ea573c4	0.32314885
156	0x3c02bc14	0.007979412
157	0x3e02d24e	0.12775537
158	0xbe0581c1	-0.13037778
159	0x3ec0caba	0.37654668
160	0x3e0a6d21	0.13518192
161	0xbe636762	-0.22207406
162	0x3d9bc233	0.076054
163	0xbdea39ae	-0.11436783
164	0xbc906cbb	-0.017629972
165	0xbef5685f	-0.4793119
166	0xbeb6bcbf	-0.35690877
167	0xbe2856af	-0.16439317
168	0xbecb58a1	-0.39716056
169	0xbe84c7cf	-0.25933692
170	0x3dc99b97	0.098441295
171	0x3abed499	0.0014559209
172	0x3ec49e8b	0.3840221
173	0xbec7f23c	-0.39051998
174	0x3d922162	0.071352735
175	0xbdeec279	-0.116581865
176	0xbc4b0009	-0.012390145
177	0x3d3db78b	0.04631762
178	0xbefc50c4	-0.4928037
179	0xbea6d0bd	-0.3258113
180	0xbd89c00f	-0.067260854
181	0x3e58c16f	0.21167539
182	0xbdd20d66	-0.10256462
183	0xbd9710a4	-0.07376221
184	0x3f079b0e	0.5297097
185	0xbe8e8a47	-0.27839872
186	0x3e82abb9	0.2552164
187	0x3e3dd825	0.18539484
188	0xbe1f5b3f	-0.15562151
189	0xbe86f935	-0.26362005
190	0x3f12cb91	0.5734187
191	0x3e707e2d	0.23485632
192	0xbe8ab53b	-0.27091393
193	0xbe83d59f	-0.25748917
194	0xbc74ee67	-0.014949418
195	0x3d6dafe1	0.05802906
196	0xbdd8debf	-0.105893604
197	0x3c23904a	0.009983132
198	0x3dc45f7f	0.09588527
199	0x3e8826aa	0.26591998
200	0xbcd71b52	-0.026258145
201	0x3dca3cae	0.09874855
202	0x3f0b63c6	0.5444912
203	0xbf16bb41	-0.58879477
204	0x3ede793f	0.43451878
205	0x3c80a618	0.0157042
206	0xbe8bc968	-0.27302098
207	0x3e041a5b	0.12900679
208	0x3e5bc994	0.21463615
209	0xbe93b8be	-0.28851885
210	0x3e8f05d0	0.27934122
211	0xbe606c7f	-0.21916388
212	0xbe480271	-0.19532181
213	0x3eff05d2	0.49809128
214	0xbc591aaa	-0.013250986
215	0xbeadb8f0	-0.3393016
216	0xbe916730	-0.28399038
217	0xbecbf5ab	-0.39835867
218	0xbd85e1ee	-0.06537233
219	0xbe99a667	-0.30009767
220	0x3e9c7993	0.30561504
221	0xbe22999c	-0.1587891
222	0xbdd5b701	-0.10435296
223	0xbe98824d	-0.29786912

module.net_ts.bn1.weight f4 [32]
0	0x3f619cc4	0.8812983
1	0x3f820827	1.0158738
2	0x3f712a90	0.9420557
3	0x3f674b44	0.9034922
4	0x3f5ccab1	0.8624678
5	0x3f6a2980	0.91469574
6	0x3f5b0751	0.8555804
7	0x3f590aaa	0.847819
8	0x3f7ac2b3	0.9795334
9	0x3f46ceb7	0.7765917
10	0x3f7e2c1b	0.9928605
11	0x3f7c07a5	0.98449165
12	0x3f736c5d	0.95087224
13	0x3f712c11	0.94207865
14	0x3f89775d	1.0739552
15	0x3f740871	0.9532538
16	0x3f57f264	0.84354234
17	0x3f605fa0	0.8764591
18	0x3f43535b	0.76299065
19	0x3f702f12	0.93821824
20	0x3f5c496d	0.8604954
21	0x3f7000a8	0.93751
22	0x3f5ffae3	0.874922
23	0x3f4cbc42	0.7997476
24	0x3f8447db	1.0334429
25	0x3f61bea4	0.8818152
26	0x3f5e88c4	0.8692744
27	0x3f81c4a7	1.0138139
28	0x3f53513b	0.8254582
29	0x3f86d20b	1.053285
30	0x3f6c351b	0.9226853
31	0x3f72e570	0.94881344

module.net_ts.bn1.bias f4 [32]
0	0xbd47517b	-0.04866169
1	0x3df64f8d	0.12026892
2	0x3d516c99	0.051128957
3	0xbcb708d9	-0.022343086
4	0xbddf64d5	-0.10907904
5	0xbd700201	-0.05859566
6	0x3d37bdef	0.04485887
7	0x3daf3251	0.08554519
8	0xbe04cbfd	-0.1296844
9	0xbd02b305	-0.031909008
10	0x3cefdc91	0.029279979
11	0xbe5cf239	-0.21576776
12	0xbd7b27b0	-0.061317146
13	0x3acf82b3	0.0015831798
14	0xbb62c161	-0.0034600126
15	0x3d8a689d	0.06758235
16	0x3d581d53	0.05276234
17	0xbcb4658f	-0.022021083
18	0xbd0ae71c	-0.03391181
19	0xbe063caf	-0.13109086
20	0xbd23a3d8	-0.039951175
21	0x3db0c617	0.08631533
22	0xbce57f01	-0.028014662
23	0xbd15ae87	-0.036543395
24	0xbdbf2de2	-0.09334923
25	0xbe75c042	-0.23999122
26	0xbe2946d5	-0.16530927
27	0x3d57f764	0.052726164
28	0xbe3c32c2	-0.18378738
29	0x3db49fe7	0.088195615
30	0xbd63a3a0	-0.055575967
31	0xbd5e50f0	-0.054276407

module.net_ts.bn1.running_mean f4 [32]
0	0x38f078b3	0.00011466574
1	0xb7f32aee	-2.8987848e-05
2	0x39b78c38	0.0003500895
3	0x39920313	0.0002784958
4	0xb9ac60ce	-0.00032878522
5	0x3996c651	0.00028757987
6	0x39017eaf	0.00012349592
7	0xb7739aa8	-1.4519937e-05
8	0xba0c313e	-0.0005347914
9	0xb9a66600	-0.00031737983
10	0xb892b118	-6.994809e-05
11	0xb9d49889	-0.0004054944
12	0xb8ce62e6	-9.841267e-05
13	0xb72e85d6	-1.0402369e-05
14	0x39177846	0.00014445288
15	0xb631b538	-2.6480539e-06
16	0x38a0f71d	7.675423e-05
17	0xb86fcae3	-5.7170993e-05
18	0xb8971093	-7.203328e-05
19	0x39ffaaa4	0.00048764527
20	0x38cec43c	9.859397e-05
21	0x380e6282	3.394718e-05
22	0x3879cdfc	5.9558064e-05
23	0x39b761df	0.000349774
24	0xb9557a18	-0.00020358746
25	0xb914db4e	-0.00014196077
26	0xb99ab377	-0.0002950688
27	0x3937dbcb	0.00017534119
28	0xb90371d9	-0.00012535545
29	0x39a2f55e	0.0003108186
30	0x394f6341	0.00019778033
31	0x39fbd5a8	0.00048033637

module.net_ts.bn1.running_var f4 [32]
0	0x3d584988	0.0528045
1	0x3d62f337	0.05540773
2	0x3d7e160b	0.06203274
3	0x3d222fdf	0.039596435
4	0x3d14fb86	0.036372684
5	0x3d5ef894	0.05443628
6	0x3d405f35	0.046965797
7	0x3d11eb2a	0.03562466
8	0x3d44c3b0	0.048038185
9	0x3d252d82	0.040326603
10	0x3d2ffcc5	0.04296567
11	0x3d829505	0.063760795
12	0x3d4f684f	0.050636586
13	0x3d739ed7	0.059477653
14	0x3d85f1b7	0.06540244
15	0x3d4249c4	0.04743363
16	0x3d528423	0.051395547
17	0x3d38717e	0.04503011
18	0x3d1993fa	0.037494637
19	0x3d398d80	0.04530096
20	0x3d5ce7ef	0.053932127
21	0x3d44b623	0.04802526
22	0x3d49cd06	0.04926779
23	0x3d69c141	0.057069067
24	0x3d29925a	0.041399337
25	0x3d2e45de	0.0425471
26	0x3d131484	0.035908237
27	0x3d3316aa	0.043722786
28	0x3d2d1e11	0.042265
29	0x3d513091	0.051071707
30	0x3d3ef74d	0.046622563
31	0x3d2d8399	0.04236183

module.net_ts.layer1.0.conv1.weight f4 [32, 32, 3]
0	0x3e451e72	0.19249895
1	0x3b098c05	0.0020988
2	0xbe5b2b58	-0.21403253
3	0xbe71919d	-0.23590703
4	0xbeedd58b	-0.46451983
5	0xbd17b3fe	-0.03703689
6	0xbde9fc41	-0.11425067
7	0xbe23e2bd	-0.16004463
8	0x3e1378fb	0.14401619
9	0xbd6afac3	-0.05736805
10	0xbe4d2980	-0.20035362
11	0xbe0ce446	-0.13758954
12	0xbe01a8fe	-0.12662122
13	0xbdb541aa	-0.08850415
14	0xbbb37b51	-0.005477347
15	0x3e1a0ea2	0.15044644
16	0xbcae26cd	-0.021258736
17	0xbe001403	-0.12507634
18	0x3dc69bcf	0.09697687
19	0xbc91e4e3	-0.017809337
20	0xbe7b98ae	-0.24569961
21	0x3e62bc75	0.22142203
22	0xbeabffa5	-0.3359348
23	0x3d0cecbd	0.03440546
24	0xbe2eaa8c	-0.17057246
25	0x3cb3dd07	0.02195598
26	0x3e1f8128	0.15576613
27	0xbe6975fc	-0.22798914
28	0x3d622b90	0.055217326
29	0x3d394c3d	0.045238722
30	0x3de883fc	0.11353299
31	0xbe001a6c	-0.12510079
32	0x3de1cc5c	0.110253066
33	0xbe3ceccc	-0.18449706
34	0x3e1063b6	0.14100537
35	0x3ce17a72	0.027524207
36	0xbe80b4f2	-0.2513805
37	0x3c553349	0.013012716
38	0xbd057a64	-0.032587424
39	0x3cd5e1cb	0.026108643
40	0x3dcee553	0.10102334
41	0x3e210ddd	0.15727945
42	0x3d67fbbc	0.056636557
43	0x3e3ac3d7	0.1823877
44	0x3e5affab	0.21386592
45	0xbbb1d610	-0.0054271296
46	0x3e28f0db	0.16498129
47	0x3d606d1a	0.054791547
48	0xbd62c1eb	-0.055360716
49	0xbd778a43	-0.06043459
50	0xbd9b190b	-0.07573136
51	0xbe842fb6	-0.2581765
52	0x3cee06cd	0.029055977
53	0xba201154	-0.0006106098
54	0x3d59ae13	0.053144526
55	0xbd80223f	-0.06256532
56	0xbd97a57c	-0.074046105
57	0xbd40fd5b	-0.04711662
58	0x3d020151	0.031739537
59	0x3c0a82fe	0.0084540825
60	0x3dea5f1f	0.11443924
61	0x3d68fb86	0.056880496
62	0x3e13ae6e	0.14422008
63	0x3da4be71	0.08044136
64	0x3e465434	0.19368058
65	0xbedc781b	-0.43060383
66	0x3c636b22	0.013880523
67	0x3da38781	0.0798483
68	0xbdb34bd1	-0.08754695
69	0xbcecd476	-0.028909903
70	0xbcc9b915	-0.024624387
71	0x3e1168a0	0.14200068
72	0x3d99b23e	0.075047
73	0xbe8197bc	-0.25311077
74	0xbd599609	-0.0531216
75	0x3d86ffb9	0.06591744
76	0xbd7fa1ec	-0.06241028
77	0xbd9d1254	-0.076695114
78	0x3e040778	0.12893474
79	0xbd8e43c4	-0.06946519
80	0xbcd14aa1	-0.025548281
81	0x3d83c879	0.064347215
82	0xbe5f9fc5	-0.21838291
83	0xbdd25099	-0.10269279
84	0xbd334266	-0.043764494
85	0xbc000faa	-0.007816235
86	0x3d010e37	0.031507697
87	0xbe32804a	-0.17431751
88	0x3b79a327	0.003809163
89	0xbd8653e0	-0.06558967
90	0xbe63f461	-0.22261192
91	0x3e479d90	0.19493699
92	0x3dab8e5a	0.08376761
93	0x3dde4c62	0.108544126
94	0xbde5414a	-0.111940935
95	0x3dc6ba67	0.09703522
96	0xbd6ddc28	-0.058071285
97	0xbcaf950d	-0.021433378
98	0xbd66dab5	-0.05636092
99	0xbd240ff7	-0.040054288
100	0x3d86a026	0.06573515
101	0xbe022073	-0.12707691
102	0x3cca5cc4	0.024702437
103	0xbee68d9e	-0.4502992
104	0x3ec0ea36	0.3767869
105	0x3d0de597	0.034642782
106	0x3cc608e6	0.024174165
107	0xbd6f2e5f	-0.058393832
108	0x3d87c9f9	0.0663032
109	0xbdcb3caf	-0.09923684
110	0x3e1f0005	0.15527351
111	0x3c510004	0.012756351
112	0xbdf3fad2	-0.119130746
113	0x3cc3eb89	0.023916023
114	0xbd9d4533	-0.07679214
115	0xbd939961	-0.07206989
116	0xbe7128f1	-0.23550774
117	0x3da0ad38	0.07845539
118	0xbdc2292c	-0.09480509
119	0x3d6095bc	0.054830298
120	0xbec200a1	-0.37891105
121	0xbe227aa8	-0.15867102
122	0x3e807d54	0.25095618
123	0x3d9aa891	0.07551683
124	0x3e41cc6c	0.18925637
125	0x3e6897b3	0.22714119
126	0xbc85070a	-0.016238708
127	0x3de369ab	0.11104139
128	0x3e82abde	0.2552175
129	0xbd7253bb	-0.059161883
130	0x3d32eefa	0.043684937
131	0xbd5955f4	-0.053060487
132	0xbd329b8c	-0.043605372
133	0x3db634b9	0.08896775
134	0xbdb0e29d	-0.08636973
135	0x3cacaac1	0.021077516
136	0xbe87b4aa	-0.26505023
137	0xbd8ba768	-0.068190396
138	0xbc4b2235	-0.012398292
139	0xbe1c1694	-0.15242988
140	0xbd77bbae	-0.06048172
141	0xbe5341b2	-0.2063053
142	0xbce8e47b	-0.02842926
143	0xbb3f3b6e	-0.002917971
144	0x3dd9ef50	0.10641348
145	0xbe750562	-0.23927835
146	0xbb85d513	-0.0040842383
147	0xbe0c6dc2	-0.13713744
148	0xbe3186ac	-0.1733653
149	0x3d8089af	0.06276261
150	0x3de7020d	0.11279688
151	0xbe3d9513	-0.18513899
152	0x3e65fbe4	0.2245937
153	0x3e4fc3e9	0.20289578
154	0xbd9f92d3	-0.07791676
155	0x3e2e22cf	0.17005466
156	0xbe211e2d	-0.15734167
157	0xbe43caf0	-0.19120383
158	0xbe16dd22	-0.14732793
159	0xbe0171b5	-0.12641032
160	0xbdfdf0b0	-0.12399423
161	0x3d300a07	0.042978313
162	0x3cac5775	0.021037797
163	0xbd3baa50	-0.04581672
164	0xbd98e2f8	-0.07465166
165	0x3de182d7	0.11011284
166	0x3de60de4	0.11233118
167	0x3e691ff9	0.22766103
168	0xbe14e528	-0.14540541
169	0x3e1e6cf4	0.1547125
170	0xbed7cc72	-0.42148167
171	0x3d1c633e	0.038180582
172	0xbe35f645	-0.17769726
173	0x3de8bcf7	0.11364167
174	0xbe18bd53	-0.14915971
175	0xbd681487	-0.0566602
176	0xbdea74f0	-0.11448085
177	0xbe1f670c	-0.15566653
178	0xbd8e676e	-0.069533214
179	0x3d1d438c	0.038394496
180	0xbdf8fec7	-0.1215797
181	0xbc9d20d1	-0.019180687
182	0x3d845d61	0.06463123
183	0x3e2ededc	0.17077202
184	0x3d5550b4	0.052078918
185	0x3e0f4681	0.13991739
186	0x3d818670	0.0632447
187	0xbe6d8576	-0.23195443
188	0x3e845d7f	0.25852582
189	0x3d0ecfe4	0.03486623
190	0xbe806b34	-0.2508179
191	0x3d70411c	0.058655843
192	0xbdd2950f	-0.10282337
193	0x3c8344e5	0.016024062
194	0x3d77a2f3	0.060458135
195	0x3e258cc1	0.16166975
196	0xbcb5ae22	-0.02217776
197	0xbe137b35	-0.14402469
198	0x3e907540	0.28214455
199	0x3e4b29bb	0.19840138
200	0x3cd3ebdc	0.025869302
201	0xbe662a2e	-0.22477028
202	0x3e0f60ad	0.14001723
203	0x3dfa762d	0.122295715
204	0x3d3b4c57	0.0457271
205	0xbe3e042b	-0.18556277
206	0x3d996e47	0.07491737
207	0xbe03cd81	-0.12871362
208	0xbe30d71d	-0.17269559
209	0xbe7d381f	-0.2472844
210	0x3d1f53f6	0.03889843
211	0xbd65746b	-0.056019228
212	0xbc4a2bb2	-0.012339519
213	0x3dd84c82	0.10561468
214	0x3dfd23d1	0.12360347
215	0xbe5689fb	-0.20951073
216	0xbe388503	-0.1801949
217	0xbe3e3ddc	-0.18578285
218	0xbc30c172	-0.010788308
219	0xbe01f821	-0.1269231
220	0xbdc2b238	-0.09506649
221	0x3d9c913d	0.076448895
222	0xbbbea8e9	-0.0058184755
223	0xbe23a3dc	-0.15980476
224	0xbe820fd2	-0.25402695
225	0xbe23d661	-0.15999748
226	0x3dc20e11	0.09475339
227	0xbe1b07e1	-0.15139724
228	0x3e02020d	0.12696095
229	0xbd90770d	-0.07053957
230	0x3d542fcf	0.051803406
231	0x3d09cba2	0.033641465
232	0xbe08b879	-0.1335162
233	0xbd34ef17	-0.044173326
234	0x3d784eb3	0.06062193
235	0xbee56959	-0.44806936
236	0xbd3df8f3	-0.046379995
237	0xbd54bb4e	-0.05193644
238	0xbdcfecc2	-0.1015258
239	0xbddbe9c9	-0.1073795
240	0x3e980599	0.2969177
241	0xbe839cfd	-0.2570571
242	0x3e7232fc	0.23652261
243	0xbdf771e6	-0.12082271
244	0x3d81ca46	0.06337409
245	0xbcfa31e4	-0.030541368
246	0x3d0e3e90	0.034727633
247	0xbc3319f1	-0.010931478
248	0xbd880b29	-0.06642754
249	0x3e02c61d	0.12770887
250	0x3e41bf19	0.18920554
251	0xbd8810d5	-0.066438355
252	0xbd9f56f3	-0.07780256
253	0x3d5bbf0d	0.053648997
254	0xbdfd146e	-0.12357412
255	0xbea2a64c	-0.317675

module.net_ts.layer1.0.bn1.weight f4 [32]
0	0x3f758901	0.95912176
1	0x3f799a44	0.97501016
2	0x3f763c0b	0.9618537
3	0x3f5f68cc	0.8726928
4	0x3f587b8c	0.8456352
5	0x3f587199	0.84548336
6	0x3f6bba3b	0.9208104
7	0x3f4bbd1e	0.79585445
8	0x3f5ab3dd	0.854307
9	0x3f8135a9	1.0094501
10	0x3f6abceb	0.91694516
11	0x3f516690	0.8179712
12	0x3f596e8c	0.84934306
13	0x3f6d1bcc	0.9262054
14	0x3f733dbb	0.9501607
15	0x3f642d8e	0.8913201
16	0x3f79533b	0.97392625
17	0x3f59cf91	0.85082346
18	0x3f834bc2	1.0257494
19	0x3f719951	0.9437457
20	0x3f7d96a8	0.9905801
21	0x3f6b75fb	0.919769
22	0x3f530b43	0.8243906
23	0x3f763a50	0.9618273
24	0x3f534de3	0.8254072
25	0x3f77e6d5	0.96836597
26	0x3f4c2b82	0.7975389
27	0x3f5be8e9	0.8590227
28	0x3f7a920d	0.97879106
29	0x3f606637	0.8765597
30	0x3f7ca9d0	0.98696613
31	0x3f7a9b3e	0.9789313

module.net_ts.layer1.0.bn1.bias f4 [32]
0	0xbb3eb66b	-0.0029100429
1	0xbd717bac	-0.058955833
2	0x3e2ac34e	0.16676065
3	0xbd592042	-0.05300928
4	0xbde33137	-0.11093371
5	0xbd401b9c	-0.04690133
6	0xbde4c716	-0.11170785
7	0xbdfbbf5a	-0.12292357
8	0xbc3b473b	-0.011430557
9	0x3cd1b169	0.025597291
10	0x3ba19b46	0.00493184
11	0xbd673b0e	-0.056452803
12	0xbd1d91d2	-0.038469143
13	0xbe0ce382	-0.13758662
14	0x3dd23bce	0.10265313
15	0xbe0d7fff	-0.13818358
16	0xbcde5fb0	-0.027145237
17	0xbd052763	-0.032508265
18	0xbcc80b9a	-0.024419595
19	0x3ce10812	0.027469669
20	0x3d3c8f16	0.046034895
21	0x3c7c8041	0.0154114375
22	0xbe422a9c	-0.18961567
23	0x3c8db1b1	0.017296644
24	0xbcedb93e	-0.029018994
25	0xbd689899	-0.056786153
26	0xbd469131	-0.04847831
27	0xbd0d3c5f	-0.034481402
28	0x3deef798	0.116683185
29	0xbcdc1f6e	-0.026870456
30	0xbd8574f7	-0.0651645
31	0x3ddf1cf4	0.10894194

module.net_ts.layer1.0.bn1.running_mean f4 [32]
0	0xbfc7fa73	-1.5623306
1	0xbfc01f82	-1.5009615
2	0xbfc42436	-1.5323551
3	0xc01ece04	-2.4813242
4	0x3da8795a	0.08226271
5	0xbfad88df	-1.3557395
6	0xbf958e49	-1.1684047
7	0xbfc1c838	-1.5139227
8	0x3f4c8339	0.7988773
9	0xc005393e	-2.0816188
10	0xbf3cdf79	-0.7377849
11	0x3f8d78f4	1.1052537
12	0x3f9c6a74	1.2219987
13	0x3eb536e1	0.35393432
14	0xbf8c884d	-1.0979096
15	0x3e0162d8	0.12635362
16	0xbefe64c2	-0.49686247
17	0x3d972f07	0.07382017
18	0xbf8c7254	-1.097239
19	0xbfb94578	-1.4474325
20	0xbeae72f5	-0.3407208
21	0xbf9e0a9d	-1.2346989
22	0x3f87958e	1.0592515
23	0xbfc4b69c	-1.5368228
24	0xbd8a225f	-0.06744837
25	0xbe986562	-0.2976485
26	0xbf71e40b	-0.9448859
27	0xbe82c79f	-0.25542924
28	0xbeb4ba3f	-0.35298344
29	0xbf893c2e	-1.072149
30	0x3e07b467	0.13252412
31	0xbf893585	-1.0719458

module.net_ts.layer1.0.bn1.running_var f4 [32]
0	0x3f9da43e	1.2315748
1	0x3fb88fb5	1.4418856
2	0x3fe0ccfc	1.7562556
3	0x400e85b2	2.22691
4	0x3ff33377	1.9000081
5	0x3f72c052	0.9482471
6	0x3fa6873a	1.3010018
7	0x3f9e0c20	1.234745
8	0x3f84c268	1.0371828
9	0x4005616c	2.0840712
10	0x3f71a2ab	0.94388837
11	0x3f9093ba	1.1295083
12	0x3fa66aca	1.300134
13	0x3fc3bf87	1.5292825
14	0x3fb16614	1.3859277
15	0x3f81e828	1.0148973
16	0x3f9838a4	1.1892285
17	0x3f997252	1.1988013
18	0x3fb78355	1.4336954
19	0x3fa1e468	1.2647829
20	0x3fe18350	1.7618198
21	0x3faf62a2	1.3701975
22	0x3fa6735c	1.3003955
23	0x40119c04	2.2751474
24	0x3f9ebe83	1.240189
25	0x3f8ee41a	1.1163361
26	0x3fd517d5	1.6647898
27	0x3f9c5614	1.2213769
28	0x3fc3dd6a	1.5301945
29	0x40019e95	2.025304
30	0x3f969898	1.1765318
31	0x3fd2b870	1.6462536

module.net_ts.layer1.0.conv2.weight f4 [32, 32, 3]
0	0xbd731d22	-0.059353955
1	0xbe0653c8	-0.13117898
2	0x3e0ce9fd	0.13761134
3	0xbea872c1	-0.3290005
4	0x3dceda02	0.101001754
5	0x3db8a27a	0.09015365
6	0xbdd386d1	-0.103284486
7	0x3d85305f	0.06503367
8	0xbdbe78d9	-0.093003936
9	0xbc24720f	-0.010036959
10	0xbd45145d	-0.048115123
11	0xbe03de12	-0.12877682
12	0x3ce2638f	0.027635364
13	0x3e08094c	0.13284796
14	0xbe569ee8	-0.20959055
15	0x3d0329be	0.03202223
16	0xbcb11f90	-0.021621495
17	0xbe0fcaec	-0.14042252
18	0x3e36e01a	0.17858925
19	0x3e8c0203	0.27345285
20	0x3b97cede	0.004632815
21	0x3d625189	0.05525354
22	0x3cb5a65a	0.02217405
23	0x3c1d2c75	0.009593119
24	0xbe5d417e	-0.21607015
25	0x3e51d17b	0.20490067
26	0xbd0ec6c5	-0.03485753
27	0xbe8adf9a	-0.2712372
28	0x3e63200a	0.2218019
29	0xbdaf5b8f	-0.08562385
30	0xbe4e5d9b	-0.20152895
31	0x3e84104e	0.2579369
32	0xbe2a9e75	-0.16662009
33	0x3ce8dee2	0.028426591
34	0xbe8bc702	-0.27300268
35	0x3e44f3b2	0.19233587
36	0xbe867c62	-0.26266772
37	0x3e1c95be	0.15291497
38	0x3d10f8e7	0.03539362
39	0xbea81b08	-0.32833123
40	0xbe5d0b26	-0.21586284
41	0xbdacd840	-0.08439684
42	0xbccf6f7b	-0.025321713
43	0xbda2df2a	-0.079527214
44	0x3eaa971a	0.33318406
45	0xbdc2c10d	-0.09509478
46	0xbe32d8a6	-0.17465457
47	0xbe94b29e	-0.29042524
48	0x3c155a8e	0.009115828
49	0xbcae50f6	-0.02127884
50	0xbe80d248	-0.25160432
51	0xbd9b16e8	-0.075727284
52	0x3d9f892a	0.07789834
53	0x3cad10d6	0.021126192
54	0x3e1f2678	0.15542018
55	0x3d2ef2ff	0.042712208
56	0x3d3c14d1	0.04591829
57	0xbe41fde2	-0.18944505
58	0xbcd87b28	-0.026425913
59	0xbe697c68	-0.22801363
60	0x3d1e5fe5	0.03866567
61	0xbcca02f7	-0.024659617
62	0xbe4e81d2	-0.2016671
63	0xbdaccd6d	-0.08437619
64	0xbbf9e5d9	-0.007626277
65	0x3e961836	0.29315346
66	0xbdc6d5e6	-0.09708767
67	0x3d861850	0.06547606
68	0x3e4bd6d2	0.19906166
69	0x3d9e4801	0.077285774
70	0x3dde99f2	0.108692065
71	0xbe0d0dfe	-0.13774869
72	0xbe25890b	-0.16165559
73	0x3e20e10c	0.15710849
74	0x3e58a46f	0.21156476
75	0x3e859fdc	0.26098526
76	0xbddc9636	-0.10770838
77	0x3e0d7ca5	0.1381708
78	0x3e5a01c0	0.2128973
79	0xbde01243	-0.10940983
80	0xbdc93add	-0.098256804
81	0xbd2d43d9	-0.042301033
82	0x3de465c4	0.11152223
83	0x3e2ee36d	0.17078944
84	0x3d3bc438	0.045841426
85	0x3e106d1f	0.14104126
86	0xbd05aa1b	-0.03263293
87	0x3d656ea9	0.056013737
88	0xbcd9dab6	-0.026593547
89	0x3ca4d45a	0.020120788
90	0xbe68e39d	-0.22743078
91	0xbe296c46	-0.1654521
92	0xbc97e0a2	-0.01853973
93	0x3e09c715	0.1345485
94	0xbe50fa38	-0.20407951
95	0x3b538daa	0.0032280483
96	0xbb637f85	-0.0034713459
97	0x3de378d4	0.111070305
98	0x3e12190f	0.14267372
99	0xbde0ce28	-0.10976821
100	0xbc41ccf6	-0.011828652
101	0xbc965388	-0.018350378
102	0x3daf932c	0.08572993
103	0xbd7bd78a	-0.06148485
104	0x3e47d791	0.19515826
105	0x3d4dd8cd	0.050255585
106	0x3d4ebf5b	0.05047546
107	0x3e71ccc2	0.23613265
108	0x3e2fe592	0.17177418
109	0xbada4b0d	-0.0016654447
110	0xbcccc3c8	-0.0249957
111	0xbd843762	-0.06455876
112	0xbe1f3861	-0.1554885
113	0x3db1c884	0.086808234
114	0x3df17037	0.117889814
115	0x3ca240c0	0.019806266
116	0x3bbc4a6e	0.0057461774
117	0x3d336dd2	0.043805905
118	0xbdc4e221	-0.09613443
119	0x3d76dea4	0.06027092
120	0xbd934f5b	-0.0719287
121	0xbe1768da	-0.14786091
122	0xbe412c24	-0.18864495
123	0x3ea7fe33	0.32811126
124	0x3d9ab56b	0.07554134
125	0x3e709b09	0.23496641
126	0x3d1e271d	0.03861152
127	0xbd03f8b8	-0.03221962
128	0x3e44c613	0.19216184
129	0x3ca3e611	0.020007165
130	0x3d868fd2	0.065704
131	0x3b85ec84	0.0040870328
132	0xbc0a1f3e	-0.0084303
133	0x3dd1810f	0.10229694
134	0xbddee8b1	-0.10884226
135	0xbe0bf6bf	-0.13668345
136	0x3e7dcc33	0.24784927
137	0x3c284609	0.010270604
138	0x3d29d823	0.04146589
139	0x3ea4ea3d	0.3220996
140	0xbdf127a0	-0.11775136
141	0x3ce3ba58	0.027798817
142	0xbe41d2dc	-0.18928093
143	0x3e4cddac	0.20006436
144	0x3e05410e	0.13013098
145	0x3dee66f4	0.116407305
146	0x3dd125e0	0.10212302
147	0x3e2b01fc	0.16699976
148	0xbe9b25f1	-0.30302384
149	0xbdaeeee4	-0.085416585
150	0xbe8aeb40	-0.27132607
151	0x3e878739	0.26470354
152	0x3c990d08	0.018682972
153	0xbe9941fe	-0.2993316
154	0x3e264fba	0.16241351
155	0x3d4ca4b5	0.049961764
156	0x3e06dbd0	0.1316979
157	0xbe4a70e7	-0.19769631
158	0xbe2b8e32	-0.16753462
159	0xbe1cd226	-0.1531454
160	0xbce2b681	-0.027674915
161	0xbccf5b14	-0.025311984
162	0xbdc6e5d8	-0.09711808
163	0xbe12e537	-0.14345251
164	0xbe178672	-0.1479738
165	0xbd4df54d	-0.050282765
166	0x3dbb28d1	0.091386445
167	0x3e9672de	0.29384512
168	0x3dc41bfc	0.0957565
169	0x3c856afa	0.016286362
170	0x3a8e631c	0.0010863277
171	0x3e4d0f3b	0.20025341
172	0xbd46c699	-0.04852924
173	0xbd89104b	-0.06692561
174	0xbd28a213	-0.04117019
175	0x3d51924c	0.05116491
176	0x3d0b88f8	0.03406617
177	0x3e05445f	0.13014363
178	0xbc802911	-0.015644582
179	0x3decc05c	0.11560127
180	0x3d53faa6	0.05175271
181	0xbdab5b06	-0.08366971
182	0xbe233f48	-0.15942109
183	0xbdc8f41a	-0.09812184
184	0xbdc1a8a7	-0.09455996
185	0xbe2b3301	-0.16718675
186	0x3db32333	0.08746948
187	0x3d89cf1b	0.06728955
188	0x3d42b9e7	0.04754057
189	0xbe287361	-0.16450264
190	0x3e79347d	0.24336429
191	0xbd4ba14b	-0.049714368
192	0x3e2cc591	0.1687224
193	0x3dca7275	0.09885112
194	0xbddf4ab7	-0.109029226
195	0xbd295111	-0.041337077
196	0x3e1c7b65	0.15281446
197	0x3e44d5c7	0.19222175
198	0x3c944f5c	0.018104248
199	0xbd969941	-0.073534496
200	0x3e129077	0.14312921
201	0x3c9b2e6a	0.01894303
202	0xbd40429c	-0.046938524
203	0xbd2c4869	-0.042061243
204	0xbeb4f43a	-0.3534258
205	0xbeded34f	-0.4352059
206	0xbe7cb9f6	-0.24680313
207	0x3e1d2f06	0.1534997
208	0x3e3e3685	0.18575485
209	0xbdce0750	-0.100599885
210	0xbe66c1d3	-0.22534876
211	0xbdaeebe7	-0.085410886
212	0xbe66120d	-0.22467823
213	0xbcc66669	-0.024218755
214	0x3ddf4bf6	0.1090316
215	0xbe28bba3	-0.16477828
216	0x3e19edde	0.15032145
217	0xbe599a38	-0.21250236
218	0xbd4f872b	-0.050666016
219	0xbd6b12cc	-0.057390973
220	0xbd8754e1	-0.06607986
221	0xbe06f20d	-0.13178273
222	0xbe89b853	-0.2689844
223	0x3de678de	0.11253522
224	0x3dace8fb	0.08442875
225	0x3df92772	0.12165727
226	0xbd43d7fe	-0.047813408
227	0xbb62da4d	-0.003461498
228	0xbd99fee2	-0.07519318
229	0x3e65393e	0.22385117
230	0x3df00b4b	0.11720904
231	0x3d1c76c2	0.038199194
232	0xbe3d0330	-0.18458247
233	0x3d15bffe	0.03656005
234	0xbe43db20	-0.19126558
235	0xbd155b39	-0.03646395
236	0xbd68fc1f	-0.056881066
237	0xbd8c64ed	-0.068551876
238	0xbcf799d6	-0.030224722
239	0xbebc3239	-0.36757067
240	0xbdb44b95	-0.08803479
241	0x3e8f0908	0.27936578
242	0x3e59ec7a	0.21281615
243	0x3d8ccdaf	0.068751685
244	0x3dba6767	0.09101754
245	0x3b35e584	0.002775521
246	0xbd3e3cde	-0.046444766
247	0xbea6eab8	-0.3260095
248	0xbe256760	-0.16152716
249	0xbd723870	-0.059135854
250	0x3dd0bac2	0.10191871
251	0x3d33db4d	0.043910313
252	0x3d8b8678	0.06812757
253	0xbda266b7	-0.079297476
254	0x3e178bd4	0.14799434
255	0x3e1f890f	0.15579627

module.net_ts.layer1.0.bn2.weight f4 [32]
0	0x3f6e5848	0.93103456
1	0x3f7284e7	0.9473404
2	0x3f8794c2	1.0592272
3	0x3f7b0dd8	0.98068
4	0x3f761b8c	0.96135783
5	0x3f84d5b9	1.0377723
6	0x3f3c7268	0.7361207
7	0x3f519a3b	0.8187596
8	0x3f6dfc19	0.92962795
9	0x3f6b75b1	0.9197646
10	0x3f7b3741	0.98131186
11	0x3f5c05a3	0.859461
12	0x3f6a8ca3	0.91620845
13	0x3f508f5e	0.8146876
14	0x3f6229bd	0.8834494
15	0x3f8272ca	1.0191281
16	0x3f6444a7	0.89167255
17	0x3f674914	0.90345883
18	0x3f5d3286	0.8640522
19	0x3f69b28e	0.9128808
20	0x3f4f30a0	0.8093357
21	0x3f75e5f3	0.96054
22	0x3f5b9ec0	0.8578911
23	0x3f50ae6e	0.8151616
24	0x3f3c44b5	0.7354234
25	0x3f7a5e7e	0.97800434
26	0x3f628f77	0.8850016
27	0x3f492bf0	0.7858267
28	0x3f791e22	0.97311604
29	0x3f6bf09c	0.92164016
30	0x3f75a9c3	0.9596216
31	0x3f7b3359	0.98125225

module.net_ts.layer1.0.bn2.bias f4 [32]
0	0x3d3d3f3f	0.046202894
1	0x3d367ffd	0.044555653
2	0xbd7914f5	-0.060811
3	0x3c2c1e3d	0.010505256
4	0xbd986cf7	-0.074426584
5	0xbe05cf4f	-0.13067363
6	0x3cf76e41	0.03020394
7	0xbcf19e41	-0.029494407
8	0xbcf220d7	-0.029556675
9	0xbc28f795	-0.010312934
10	0xbde6f4a7	-0.112771325
11	0xbd682431	-0.05667514
12	0xbd0252f6	-0.0318174
13	0x3d24ed02	0.04026509
14	0xbded8c95	-0.115990795
15	0xbcee42cb	-0.029084584
16	0x3c4a7888	0.012357838
17	0xbbf0946f	-0.0073419134
18	0xbd27d3af	-0.04097336
19	0xbd876ccf	-0.066125505
20	0xbdb5afad	-0.08871398
21	0x3d022dc9	0.031781945
22	0x3c15dca6	0.009146845
23	0xbd624e83	-0.055250656
24	0xbd0bed76	-0.034162007
25	0xbb5006cc	-0.0031742333
26	0xbd7c9f37	-0.061675277
27	0x3d3429a3	0.04398502
28	0xbce8251f	-0.028338013
29	0xbd289358	-0.041156143
30	0x3c861db4	0.016371585
31	0xbdc420d5	-0.09576575

module.net_ts.layer1.0.bn2.running_mean f4 [32]
0	0xbed2d318	-0.41176677
1	0x3f0edb79	0.5580364
2	0xbf2ff351	-0.68730646
3	0xbecfead4	-0.40608847
4	0x3eb8fc89	0.3613017
5	0x3d60e050	0.05490142
6	0xbe8b0676	-0.27153367
7	0x3edf9e82	0.4367562
8	0x3e99bbd6	0.3002612
9	0x3f085306	0.53251684
10	0x3e6160d7	0.22009598
11	0x3f1856d3	0.59507483
12	0xbf340042	-0.70312893
13	0x3ecd4b7f	0.4009666
14	0xbec92397	-0.39284965
15	0xbebb8419	-0.3662422
16	0xbe92ae40	-0.28648567
17	0xbee84b7c	-0.4537009
18	0xbe76269d	-0.24038167
19	0x3e4b2171	0.19836976
20	0x3eba0d26	0.36338156
21	0xbef6eb59	-0.4822643
22	0x3d0cfc23	0.034420144
23	0xbf439e79	-0.76413685
24	0x3ed02c86	0.4065897
25	0xbf1c25ee	-0.60995376
26	0x3f8dd9b7	1.1082066
27	0x3cae79d5	0.021298328
28	0xbf716d11	-0.9430705
29	0x3f371609	0.71518
30	0xbebf608a	-0.3737834
31	0x3eb1891f	0.34674928

module.net_ts.layer1.0.bn2.running_var f4 [32]
0	0x3ee592c9	0.4483855
1	0x3f1fbe2d	0.6239956
2	0x3f5d4a76	0.86441743
3	0x3f1b22a6	0.60599744
4	0x3f193578	0.5984721
5	0x3f50cd19	0.81562954
6	0x3eb51c4d	0.35373154
7	0x3f181fb7	0.59423393
8	0x3f3bf211	0.7341624
9	0x3f56870f	0.83799833
10	0x3f661f78	0.8989177
11	0x3f3fb85e	0.74890697
12	0x3f0f89e1	0.5606976
13	0x3f27bf15	0.65525943
14	0x3f42c2d5	0.7607854
15	0x3f06a052	0.5258838
16	0x3f31df4b	0.69481343
17	0x3ed50da3	0.41611966
18	0x3f036b6f	0.51335806
19	0x3f1d772d	0.6150997
20	0x3f125e83	0.57175463
21	0x3eec9ff8	0.46215796
22	0x3f34df4b	0.7065322
23	0x3f0d7a8e	0.5526513
24	0x3f4abc25	0.79193336
25	0x3f26d75e	0.65172374
26	0x3f124e1a	0.57150424
27	0x3f60a972	0.87758553
28	0x3f2b3951	0.6688433
29	0x3f0bb2b0	0.5456953
30	0x3f2b11c8	0.6682401
31	0x3f4153d3	0.7551853

module.net_ts.layer2.0.conv1.weight f4 [32, 32, 3]
0	0xbe274481	-0.16334726
1	0x3d0f5dc2	0.035001524
2	0x3e850873	0.2598301
3	0x3e842fc8	0.25817704
4	0x3e405234	0.18781358
5	0xbcce496a	-0.02518149
6	0xbd0374f6	-0.032093965
7	0x3e21ca2e	0.15799782
8	0xbcc3a4fe	-0.023882385
9	0x3e2ee717	0.17080341
10	0x3e16b883	0.14718823
11	0x3d415199	0.04719696
12	0x3cbdeaed	0.02318331
13	0x3dade5d9	0.084911056
14	0xbd86b78f	-0.0657798
15	0x3e274ceb	0.16337936
16	0x3c27a9d9	0.010233366
17	0xbe3fc035	-0.18725665
18	0xbec24f38	-0.37951064
19	0xbd952508	-0.07282454
20	0xbddcbd93	-0.10778346
21	0x3e164d17	0.14677845
22	0xbd7b5ba0	-0.061366677
23	0x3cbcacd0	0.023031622
24	0xbe009cd4	-0.12559825
25	0x3e0e2c44	0.13884073
26	0x3d80eddb	0.06295367
27	0x3e06d76c	0.13168114
28	0x3e198e34	0.14995652
29	0xbe3ee46b	-0.18641822
30	0xbd19bdc0	-0.037534475
31	0xbc732b14	-0.014841814
32	0xbdc29764	-0.09501532
33	0x3db9cdaa	0.090724304
34	0xbdcac7e0	-0.099014044
35	0xbe404d90	-0.18779588
36	0x3daa4e5a	0.083157256
37	0x3e5ffb4d	0.21873207
38	0x3d59b4f0	0.05315107
39	0xbdef6c5f	-0.11690592
40	0xbdc88961	-0.09791828
41	0xbd34e1ee	-0.044160776
42	0xbe75aa27	-0.23990689
43	0xbdd2cab6	-0.1029257
44	0x3ddc096f	0.10743987
45	0xbe067454	-0.13130313
46	0x3dbc3af7	0.09190934
47	0x3e5f1776	0.21786293
48	0x3ed02b43	0.40658006
49	0x3df8d482	0.12149908
50	0x3e1dc895	0.15408547
51	0xbe0832f5	-0.13300689
52	0x3e101e37	0.14074026
53	0xbe311d40	-0.17296314
54	0x3d697bcd	0.05700283
55	0xbdfaee64	-0.12252501
56	0x3db99c1b	0.09062978
57	0x3d01bb1b	0.03167258
58	0x3e003db3	0.12523536
59	0x3e558f95	0.20855553
60	0xbd0e0eab	-0.034681957
61	0x3e3ea8e2	0.18619111
62	0x3df494a3	0.11942413
63	0xbe2793e5	-0.16365011
64	0x3dfea20c	0.12433252
65	0x3e33ee70	0.17571425
66	0x3e413acc	0.18870085
67	0xbe1c2201	-0.15247346
68	0xbdd5bad7	-0.104360275
69	0xbe496228	-0.1966635
70	0x3cf2eac6	0.029652964
71	0x3dbf5dcf	0.093440644
72	0x3ddd080d	0.10792551
73	0x3da0d6f8	0.07853502
74	0xbe4a593c	-0.19760603
75	0x3dd4add1	0.10384715
76	0xbe25a70b	-0.16177003
77	0x3e2ed9a8	0.17075217
78	0x3d990454	0.07471529
79	0x3d476c52	0.048687287
80	0xbcb8e4a7	-0.022569967
81	0xbdb07b74	-0.08617297
82	0x3b8968a2	0.0041933814
83	0xbc858cf5	-0.016302565
84	0x3de6122a	0.11233933
85	0xbd18db91	-0.03731877
86	0xbd79a31e	-0.060946576
87	0x3d7b9cb5	0.061428744
88	0xbdb587db	-0.08863803
89	0xbc3e9e83	-0.011634472
90	0x3cc63cb0	0.02419886
91	0x3e1b4ed3	0.15166788
92	0x3e184f1d	0.1487393
93	0x3c4d581a	0.012533212
94	0xbb5d64b1	-0.003378194
95	0x3e595f8e	0.21227857
96	0x3b58f527	0.0033105107
97	0xbd9f4318	-0.07776469
98	0xbdc3a336	-0.095526144
99	0x3e0d6cd6	0.13811049
100	0x3e89aa54	0.26887763
101	0x3df996ad	0.12186942
102	0xbe1482a7	-0.14502965
103	0xbe5243d8	-0.20533693
104	0x3e12db92	0.14341572
105	0xbbd48283	-0.006485285
106	0xbda857da	-0.08219881
107	0x3db3cbaa	0.0877908
108	0x3e324253	0.17408113
109	0xbe69d452	-0.228349
110	0x398bf7f0	0.00026696874
111	0x3e15026c	0.14551705
112	0x3e46490f	0.19363807
113	0x3eda7641	0.42668346
114	0x3e8dd938	0.27704787
115	0x3da872d3	0.08225026
116	0xbc02185a	-0.007940376
117	0x3e5855cf	0.21126483
118	0x3dfcd192	0.1234466
119	0xbd7f8665	-0.062384028
120	0xbc3f6f3c	-0.011684235
121	0x3dbe0974	0.09279147
122	0xbe0a2ccd	-0.13493653
123	0xbe216067	-0.15759431
124	0xbe5cdf1b	-0.21569483
125	0xbd3f5eff	-0.046721455
126	0xbda84ed8	-0.08218163
127	0x3dcbd5e1	0.099529035
128	0xbde66db1	-0.11251391
129	0x3e29cc05	0.16581734
130	0x3e17ff5f	0.1484351
131	0x3e7fcd21	0.24980594
132	0x3e3488df	0.17630337
133	0x3cf6f729	0.030147152
134	0x3d90edd4	0.07076612
135	0x3db4e9f5	0.08833686
136	0xbe4cb27a	-0.19989958
137	0x3c9253db	0.017862251
138	0x3a608e7f	0.00085661554
139	0x3cad29d2	0.021138106
140	0x3d06b3fa	0.032886483
141	0xbec76da7	-0.38950846
142	0x3dcbc9a7	0.099505715
143	0xbcc696d2	-0.024241839
144	0xbe05d7b5	-0.13070567
145	0x3e07e580	0.13271141
146	0xbd864f5a	-0.06558104
147	0x3cd18ecb	0.025580784
148	0x3c0f1d58	0.008735023
149	0x3e0fc84b	0.1404125
150	0x3c7636ee	0.015027745
151	0xbe26a8dc	-0.16275352
152	0xbdda201a	-0.10650654
153	0xbd5ab4bb	-0.053395014
154	0x3d52a4b1	0.051426593
155	0x3e27a98a	0.16373268
156	0xbd2601a9	-0.040528927
157	0x3e15ed75	0.14641364
158	0xbd448c7e	-0.047985546
159	0x3e764fa3	0.24053816
160	0x3c72aebb	0.014812167
161	0x3eb5d9a4	0.3551761
162	0x3e87c316	0.26516026
163	0xbd785ac7	-0.060633447
164	0x3e22beef	0.15893148
165	0x3e457cff	0.19285963
166	0xbd88bc92	-0.06676592
167	0x3d59ed20	0.053204656
168	0x3deb3665	0.11484984
169	0x3d25b98b	0.04046015
170	0x3de8de4a	0.11370523
171	0x3b6b87a2	0.0035938998
172	0xbd917922	-0.071031824
173	0xbd7b8755	-0.06140836
174	0xbd148067	-0.036255267
175	0x3ccc2b68	0.024923041
176	0xbe39696e	-0.18106624
177	0x3d1e916a	0.038712896
178	0x3e10cae5	0.14139898
179	0x3d62a2fe	0.055331223
180	0xbe7c650b	-0.2464792
181	0x3c352737	0.011056713
182	0x3e3503eb	0.17677276
183	0x3e479347	0.19489776
184	0x3d2e11c8	0.042497426
185	0xbdf54c30	-0.11977422
186	0xbc291942	-0.010320963
187	0x3d591eb7	0.053007808
188	0x3d232225	0.039827485
189	0xbd80f32b	-0.062963806
190	0x3c6e5599	0.014546775
191	0xbdc1545f	-0.09439921
192	0x3d9131a2	0.07089545
193	0xbc57ca72	-0.013170825
194	0xbe821559	-0.25406912
195	0x3e6c9e82	0.23107341
196	0xbe85bd01	-0.2612076
197	0x3eaf1bbc	0.34200847
198	0x3e8c6976	0.2742421
199	0x3e240642	0.16018012
200	0x3dafbdd6	0.0858113
201	0x3e00ef02	0.12591174
202	0x3c57a5e4	0.01316211
203	0xbe1f5305	-0.15559013
204	0x3cf76e7f	0.030204056
205	0x3e0fdf2c	0.14049977
206	0xbdf1a8d2	-0.11799778
207	0x3d9f69ff	0.07783889
208	0x3e9529d5	0.29133478
209	0x3e3c1c74	0.18370229
210	0xbd251c10	-0.040309966
211	0x3d7f1e79	0.06228492
212	0xbcdcb117	-0.026939912
213	0xbe191fab	-0.14953487
214	0x3e3973be	0.18110558
215	0x3d00d698	0.031454653
216	0xbe4bc4ba	-0.19899264
217	0xbdbdc402	-0.09265901
218	0xbe0e185b	-0.13876478
219	0xbe62305d	-0.22088762
220	0x3da627c6	0.08113055
221	0xbe98eaba	-0.29866582
222	0x3e62d221	0.2215047
223	0x3cc12b44	0.023580201
224	0x3eb1fb6b	0.3476213
225	0x3d9a2992	0.0752746
226	0x3e1f453b	0.15553753
227	0xbce4db16	-0.0279365
228	0x3da1654a	0.078806475
229	0xbe470293	-0.19434576
230	0x3c36fa78	0.011168115
231	0xbe1cde10	-0.15319085
232	0xbcf5120c	-0.029915832
233	0xbe105e56	-0.14098486
234	0x3e2f94e0	0.17146635
235	0x3e3867c0	0.18008327
236	0x3e0645b4	0.13112527
237	0x3dae8f47	0.08523422
238	0xbd0e46d3	-0.034735512
239	0x3d0a579c	0.033774957
240	0x3e41aefe	0.1891441
241	0x3d8f625d	0.07001183
242	0xbe85cc2c	-0.26132333
243	0xbd1d22ff	-0.038363453
244	0x3d442faf	0.047897037
245	0xbe1d37e6	-0.15353355
246	0x3d80480e	0.06263743
247	0xbdb4ed9b	-0.08834382
248	0xbcd7e201	-0.026352884
249	0xbc4973fe	-0.012295721
250	0xbda6671b	-0.081251346
251	0xbb923b5e	-0.0044626435
252	0xbe49a5b4	-0.19692117
253	0xbe0bdb23	-0.13657813
254	0xbe1e9f8a	-0.15490547
255	0xbe3981d7	-0.18115936

module.net_ts.layer2.0.bn1.weight f4 [32]
0	0x3f57c5d9	0.84286267
1	0x3f53daeb	0.8275592
2	0x3f63f51a	0.8904587
3	0x3f7c14da	0.98469317
4	0x3f64145d	0.8909357
5	0x3f783e1c	0.9696977
6	0x3f6bf2c5	0.9216731
7	0x3f666e64	0.9001219
8	0x3f632dd5	0.8874181
9	0x3f60451a	0.8760544
10	0x3f6bac65	0.9205993
11	0x3f648bce	0.89275825
12	0x3f62573f	0.88414377
13	0x3f627e20	0.884737
14	0x3f6d27de	0.9263896
15	0x3f659737	0.8968386
16	0x3f6f4055	0.9345754
17	0x3f5402ae	0.8281659
18	0x3f79ca64	0.9757445
19	0x3f627ea2	0.88474476
20	0x3f67d26f	0.9055547
21	0x3f563e3c	0.8368871
22	0x3f7eb61a	0.99496615
23	0x3f793dbd	0.9735983
24	0x3f74a668	0.95566416
25	0x3f6605cc	0.89852595
26	0x3f7d6752	0.9898578
27	0x3f58b3ec	0.8464954
28	0x3f844ce2	1.0335963
29	0x3f750d5e	0.9572352
30	0x3f6d0a47	0.92593807
31	0x3f4d9ebf	0.8032035

module.net_ts.layer2.0.bn1.bias f4 [32]
0	0xbc8dfcfa	-0.017332543
1	0xbd826dcf	-0.063686006
2	0xbcf054fc	-0.029337399
3	0x3cd87ca6	0.026426625
4	0xbdde094a	-0.108416155
5	0x3c7694da	0.015050137
6	0x3c529cc3	0.012854758
7	0x3c8d394f	0.01723924
8	0xbc7b8bb3	-0.015353131
9	0xbd4d09bf	-0.050058123
10	0xbd4bb0ab	-0.04972903
11	0xbd5dca12	-0.054147787
12	0xbdb78dd2	-0.08962597
13	0xbd228d5e	-0.0396856
14	0x3d18dd2f	0.037320312
15	0x3c18d2f5	0.00932764
16	0xbbf0c813	-0.0073480695
17	0xbe41ee05	-0.18938453
18	0x3d2c0da8	0.04200521
19	0xbd938f57	-0.07205074
20	0x3b6ed8f9	0.0036445244
21	0xbd241746	-0.040061258
22	0xbbfeb587	-0.0077731046
23	0x3d18e46e	0.037327223
24	0xbd184fe8	-0.03718558
25	0xbd4b0130	-0.04956168
26	0xbc7584b5	-0.014985253
27	0xbce6d570	-0.028177947
28	0xbd69be5e	-0.057066314
29	0xbe14d4de	-0.14534327
30	0xbd01d797	-0.031699743
31	0xbd9e9170	-0.07742584

module.net_ts.layer2.0.bn1.running_mean f4 [32]
0	0x3feeb70b	1.864961
1	0x402dcde8	2.7156925
2	0x3ec3b8db	0.3822697
3	0x3f4a2d27	0.78975147
4	0x3f440600	0.76571655
5	0x3f2620b9	0.6489368
6	0x3fe98d36	1.8246219
7	0xbfefd50a	-1.8736889
8	0xbea0fcb2	-0.3144279
9	0xc01a87f2	-2.4145474
10	0xc00a3fa6	-2.1601348
11	0x3f7178c6	0.9432491
12	0xc00677ca	-2.1010613
13	0xbfd7dd22	-1.6864359
14	0xc0361975	-2.8453038
15	0xc0147861	-2.3198473
16	0xbfaedc4b	-1.3660978
17	0x3f7c8e70	0.9865484
18	0xbf3dcc09	-0.7413946
19	0x3f8662f0	1.0498943
20	0xbec87bb5	-0.3915688
21	0xbddbb291	-0.10727418
22	0xbf2fc5e2	-0.6866132
23	0xbe37297d	-0.1788692
24	0x3f01deaf	0.50730413
25	0xbfa90443	-1.3204426
26	0x3dea59bb	0.11442896
27	0x3feb793c	1.8396373
28	0xbebb6011	-0.3659673
29	0x3f9423b7	1.1573399
30	0xbf7f3056	-0.9968313
31	0xc03e1a2d	-2.9703476

module.net_ts.layer2.0.bn1.running_var f4 [32]
0	0x3ff39d12	1.9032309
1	0x402d0b1a	2.7038026
2	0x400fe7f1	2.2485316
3	0x4002e9f1	2.0455287
4	0x3ff5ff30	1.9218502
5	0x40031e97	2.048742
6	0x4016c566	2.3557982
7	0x3fd2a6cd	1.6457154
8	0x3fae668d	1.3625046
9	0x3ff72130	1.9307003
10	0x40252abc	2.5807333
11	0x40354a4f	2.8326604
12	0x3fe73a5d	1.8064686
13	0x400dd188	2.2159138
14	0x4021c04d	2.527362
15	0x402fb345	2.7453167
16	0x401b32fa	2.4249864
17	0x403e11d2	2.9698377
18	0x4010d6cc	2.2631102
19	0x3fd7a6f5	1.6847826
20	0x400ce534	2.2014894
21	0x401998d4	2.399953
22	0x3ff6458a	1.9239972
23	0x40170a0a	2.3599877
24	0x4025b4b7	2.589155
25	0x4000e7ce	2.0141482
26	0x40256429	2.5842383
27	0x4019b9fc	2.4019766
28	0x4010a991	2.2603495
29	0x403ec80c	2.98096
30	0x40012f67	2.0185182
31	0x40253215	2.5811818

module.net_ts.layer2.0.conv2.weight f4 [32, 32, 3]
0	0xbdff73ac	-0.124732345
1	0xbd3a6503	-0.04550649
2	0x3cdf1510	0.027231723
3	0xbe20e74d	-0.15713234
4	0xbe9a1bdd	-0.30099383
5	0x3ca422b4	0.020036079
6	0x3e1a3fdc	0.15063423
7	0x3e64355f	0.22285984
8	0x3d1cd217	0.038286295
9	0xbd979225	-0.07400922
10	0x3e5d6f99	0.21624602
11	0x3d9b8615	0.075939335
12	0xbe7c1d09	-0.24620451
13	0xbdc6cd5b	-0.09707137
14	0xbe4cedfb	-0.20012657
15	0x3da07a64	0.07835844
16	0x3e86785b	0.262637
17	0x3d841ced	0.0645083
18	0x3d9c1b76	0.07622425
19	0xbe85c259	-0.26124838
20	0xbd8ebc6a	-0.06969531
21	0xbda40e07	-0.08010488
22	0xbe365302	-0.17805102
23	0xbe09ec1c	-0.13468975
24	0xbe51469e	-0.20437095
25	0xbd78c3ce	-0.06073361
26	0x3e7c0e2f	0.24614786
27	0x3be61cc5	0.0070224726
28	0x3d9a21ec	0.07526001
29	0x3df82123	0.12115695
30	0xbc52f212	-0.012875097
31	0x3cb2d721	0.021831097
32	0xbd48fcdb	-0.049069267
33	0xbe42456e	-0.18971798
34	0x3e1e1d4d	0.15440865
35	0xbe114d4a	-0.1418964
36	0x3ea28044	0.31738484
37	0x3d050805	0.03247835
38	0xbc7433ae	-0.0149048995
39	0xbe001ddc	-0.1251139
40	0xbd183e32	-0.03716869
41	0xbd5a08c5	-0.05323102
42	0xbdf7e50f	-0.12104236
43	0xbd9d5192	-0.07681574
44	0x3e8914f9	0.26773813
45	0xbe566b33	-0.20939331
46	0xbe1879f2	-0.14890268
47	0xbd2771cd	-0.040880013
48	0xbe1be0c4	-0.1522246
49	0x3d328cd6	0.043591343
50	0x3df5ff22	0.12011553
51	0x3e67a77f	0.22622488
52	0x3d97e442	0.074165836
53	0x3e86e892	0.26349312
54	0x3de3c579	0.11121649
55	0xbe2a07ea	-0.16604581
56	0xbc9f9cc2	-0.019483928
57	0x3d9273a7	0.07150965
58	0xbdcbdc0b	-0.09954079
59	0xbdeea217	-0.1165201
60	0xbdd84582	-0.105601326
61	0x3d049d2b	0.03237645
62	0x3e4aed08	0.19816983
63	0x3de37bb9	0.111075826
64	0xbdd34067	-0.10315018
65	0x3e17bdc9	0.14818491
66	0x3d18f6d5	0.037344772
67	0x3e20433f	0.15650652
68	0xbe286790	-0.16445756
69	0x3e044a35	0.12918933
70	0xbccdfb1e	-0.025144156
71	0xbb4bcf53	-0.0031098917
72	0xbdc1f4f6	-0.09470551
73	0xbeb0d6ea	-0.34538966
74	0x3da38e3e	0.07986115
75	0x3e6fcdfa	0.23418418
76	0xbe23e3b0	-0.16004825
77	0xbe086ee1	-0.13323547
78	0x3c971a25	0.018445084
79	0xbe2dbd3a	-0.16966715
80	0x3c84640f	0.016160993
81	0xbdabdd78	-0.08391851
82	0x3d27d01d	0.040969957
83	0x3de5aff6	0.112152025
84	0x3d94e17b	0.072695695
85	0xbdebe96a	-0.115191296
86	0x3d3e989f	0.04653227
87	0xbdcb395f	-0.09923052
88	0x3e2a9186	0.16657075
89	0x3e3ee0a3	0.1864038
90	0x3de4610e	0.11151324
91	0xbcd9520e	-0.026528385
92	0xbdf0ef23	-0.11764362
93	0xbc8f747b	-0.017511597
94	0xbe6c29f7	-0.23062883
95	0xbe19c052	-0.1501477
96	0xbdb343bf	-0.08753156
97	0x3e300956	0.17191061
98	0xbc787961	-0.015165658
99	0x3b045167	0.002019012
100	0xbd86d123	-0.065828584
101	0xbe84a260	-0.25905132
102	0xbda20082	-0.07910253
103	0xbe3a9891	-0.18222262
104	0xbe56fa67	-0.20993958
105	0xbe3e9c3c	-0.18614286
106	0x3d870c52	0.06594147
107	0x3db94859	0.09047002
108	0x3cfa2d9d	0.030539328
109	0xbdd87559	-0.10569257
110	0x3e5d0014	0.21582061
111	0xbe19ed78	-0.15031993
112	0x3d47f01c	0.04881297
113	0x3dbf34a9	0.09336216
114	0xbd5c4937	-0.05378076
115	0x3de2f08b	0.11081036
116	0xbb556d6b	-0.003256644
117	0x3968ac90	0.00022189529
118	0xbb053971	-0.0020328427
119	0x3e6a9853	0.2290967
120	0xbd5f2db3	-0.05448694
121	0x3e08e9da	0.13370457
122	0xbc3243a4	-0.010880385
123	0xbd453958	-0.04815039
124	0x3e01668f	0.12636779
125	0x3d57e83f	0.05271172
126	0x3ddfb141	0.109224804
127	0x3da3375f	0.079695456
128	0xbd0bbdc8	-0.034116536
129	0xbe75132c	-0.23933095
130	0x3deddcba	0.11614366
131	0xbe338b96	-0.17533717
132	0xbd839077	-0.06424039
133	0xbd8e36c2	-0.06944038
134	0xbde9f06b	-0.11422809
135	0x3d5ef9f0	0.054437578
136	0xbdcdd524	-0.10050419
137	0xbdba8ed3	-0.09109273
138	0x3df19dbd	0.11797664
139	0xbdb556e5	-0.088544644
140	0x3b9919b7	0.004672255
141	0x3b0d2dde	0.0021542232
142	0x3d00ea41	0.031473402
143	0x3e5f0393	0.21778707
144	0xbe72b5fc	-0.23702234
145	0x3d8cf9e2	0.06883599
146	0xbcf28e72	-0.029608939
147	0x3e000065	0.1250015
148	0x3ece7ccf	0.40329596
149	0xbc893af7	-0.01675175
150	0xbe6cf1f3	-0.23139171
151	0x3d22c9cd	0.039743233
152	0x3e0f98f5	0.14023192
153	0xbda31a6a	-0.079640225
154	0xbd1f31e2	-0.03886593
155	0xbdc94cc5	-0.09829096
156	0xbadcb69c	-0.001683909
157	0xbea3969e	-0.3195085
158	0xbdbf2416	-0.09333055
159	0x3e1bd7b4	0.15219003
160	0xbe3bb2c2	-0.1832991
161	0xbe8d2b52	-0.27572113
162	0xbe7a09e1	-0.24417831
163	0xbdb2d5c3	-0.08732178
164	0xbdb06d8b	-0.08614644
165	0x3d2e3180	0.042527676
166	0x3e363e8f	0.17797302
167	0xbe11c477	-0.14235102
168	0x3d3a98c7	0.045555856
169	0xbcc1221b	-0.023575833
170	0xbd27a4c4	-0.040928617
171	0x3e74a3da	0.2389063
172	0xbd0047f4	-0.03131862
173	0xbe4065f2	-0.18788889
174	0xbe4b6ebe	-0.19866464
175	0xbabfd9d8	-0.0014637066
176	0x3e070e14	0.13188964
177	0x3ea173f1	0.3153377
178	0x3ded0ed9	0.115750976
179	0x3c70ced1	0.014697746
180	0xbddb62d4	-0.10712209
181	0xbdb89901	-0.09013558
182	0xbdcfd7b9	-0.10148568
183	0x3df11f4c	0.117735475
184	0xbe7ab7b3	-0.24484138
185	0xbd56081a	-0.05225382
186	0x3e2d041f	0.16896103
187	0xbd5c0480	-0.05371523
188	0xbcfdb68b	-0.030970832
189	0xbe1bd492	-0.15217808
190	0xbcf26e68	-0.029593661
191	0x3dae4da9	0.08510906
192	0xbd02dec2	-0.03195072
193	0x3ca346a0	0.019931138
194	0xbd752a9a	-0.05985508
195	0xbdd550dd	-0.10415814
196	0x3b35a1e1	0.0027714896
197	0xbd224e17	-0.039625254
198	0xbbf03c48	-0.007331405
199	0xbd43c2d2	-0.047793217
200	0xbda44821	-0.0802157
201	0xbe43f4c2	-0.19136336
202	0xbeb08fd5	-0.34484735
203	0x3d80bfba	0.06286569
204	0x3e4fc9e0	0.20291853
205	0x3e53e599	0.20693053
206	0x3c84d4ef	0.016214816
207	0x3ecc7a94	0.3993727
208	0xbd855b91	-0.065116055
209	0x3d8fec52	0.070274964
210	0xbe356d9d	-0.17717595
211	0xbdcf5d48	-0.10125214
212	0xbe0f39d9	-0.13986911
213	0xbd5e7f0a	-0.054320373
214	0xbd5821b4	-0.052766517
215	0x3e106484	0.14100844
216	0x3e415e5e	0.18883654
217	0xbd9e0bc1	-0.07717086
218	0xbe26f3aa	-0.16303888
219	0xbe26c3b3	-0.16285591
220	0x3e154c83	0.14579968
221	0x3c11ad14	0.008891363
222	0x3e05509d	0.13019033
223	0x3d39af98	0.045333475
224	0x3dfc1d75	0.12310306
225	0x3d7f9c60	0.06240499
226	0x3e1628de	0.14664027
227	0x3dae65aa	0.08515485
228	0x3dd59d92	0.10430445
229	0xbe582218	-0.21106756
230	0x3da023b1	0.078193076
231	0xbd340ba6	-0.04395642
232	0x3d81e74b	0.06342944
233	0xbe30bf54	-0.17260486
234	0x3e62b775	0.22140296
235	0xbe6cf15e	-0.2313895
236	0xbe695be4	-0.2278896
237	0xbc831707	-0.016002191
238	0x3d644fb3	0.05574007
239	0xbd31f2c8	-0.043444425
240	0xbbdbbf4d	-0.0067061544
241	0xbb877148	-0.004133377
242	0x3c2f9fea	0.010719279
243	0xbe3a2bb1	-0.1818073
244	0x3c5d677e	0.013513444
245	0x3e4c2ad0	0.19938207
246	0x3e10550b	0.14094941
247	0xbd099c34	-0.033596233
248	0x3e7552ce	0.23957369
249	0x3cfeb7f8	0.031093583
250	0x3dabca91	0.08388246
251	0xbdb32ccc	-0.08748779
252	0xbd8626c4	-0.06550363
253	0xbdb90054	-0.09033266
254	0x3d6e8eb2	0.058241554
255	0xbde5367a	-0.11192031

module.net_ts.layer2.0.bn2.weight f4 [32]
0	0x3f756327	0.9585442
1	0x3f6e07fd	0.9298094
2	0x3f7da6c7	0.9908261
3	0x3f65beca	0.89744246
4	0x3f584d26	0.8449272
5	0x3f67fa31	0.90616137
6	0x3f606ae3	0.87663096
7	0x3f79177b	0.97301453
8	0x3f608b19	0.87712246
9	0x3f693459	0.910955
10	0x3f6269ec	0.88442874
11	0x3f60cb8b	0.8781058
12	0x3f77761c	0.96664596
13	0x3f5f95eb	0.8733813
14	0x3f6d075d	0.9258936
15	0x3f5ff914	0.8748944
16	0x3f68efd7	0.90990967
17	0x3f61695f	0.8805141
18	0x3f64cae2	0.89372075
19	0x3f782e9c	0.9694612
20	0x3f721646	0.94565237
21	0x3f6323b1	0.88726336
22	0x3f5e3364	0.86797166
23	0x3f6851f0	0.90750027
24	0x3f71aa2f	0.94400305
25	0x3f639b62	0.8890897
26	0x3f59c4b2	0.8506576
27	0x3f7e391a	0.9930588
28	0x3f564e37	0.83713096
29	0x3f7c3889	0.98523766
30	0x3f6cdcd7	0.92524475
31	0x3f551e4c	0.83249354

module.net_ts.layer2.0.bn2.bias f4 [32]
0	0x3c9e87ea	0.019351918
1	0x3d13f4ce	0.036122136
2	0xbdb6dee8	-0.08929235
3	0xbd96c17e	-0.073611245
4	0xbdbe6b57	-0.09297817
5	0xbd7994e2	-0.060933
6	0xbd3a7406	-0.045520805
7	0x3bb749a4	0.0055934954
8	0xbd9c0678	-0.07618421
9	0x3ce3f8a8	0.02782853
10	0xbd918cea	-0.07106955
11	0xbc1c82a7	-0.009552634
12	0x3d983fb5	0.07434026
13	0x3d129d3a	0.035794474
14	0xbcc275b0	-0.023737758
15	0xbbbd650e	-0.005779869
16	0xbd5dda72	-0.054163404
17	0xbd850081	-0.06494237
18	0xbba615e1	-0.005068526
19	0xbd339e9b	-0.04385243
20	0x3d845b25	0.06462697
21	0xbe07cd23	-0.13261847
22	0x3d1afea8	0.037840515
23	0x3c4fb18d	0.012676609
24	0xbd571989	-0.052514587
25	0xbd986f8c	-0.07443151
26	0xbcb44ce8	-0.022009328
27	0x3d4d146d	0.050068308
28	0x3b38b76a	0.0028185495
29	0x3be8572d	0.0070904703
30	0x3d420450	0.047367394
31	0xbd3c7ad7	-0.046015587

module.net_ts.layer2.0.bn2.running_mean f4 [32]
0	0xbe96273d	-0.2932681
1	0xbf0ed634	-0.557956
2	0x3e89561c	0.2682351
3	0xbd9e709d	-0.07736323
4	0x3db0a229	0.086246796
5	0xbed66fbc	-0.41882122
6	0x3df58318	0.11987895
7	0x3e8cd964	0.27509606
8	0x3f30bf5c	0.6904199
9	0xbe8bcf47	-0.27306578
10	0x3e688cca	0.22709957
11	0x3ee3d7b6	0.44500512
12	0xbef9eadc	-0.48811996
13	0x3e020bdb	0.12699835
14	0x3d82cf6b	0.06387218
15	0x3ded3870	0.1158303
16	0x3fb4846b	1.4102911
17	0xbe4b862a	-0.19875398
18	0x3e255a50	0.16147733
19	0xbdbcfd70	-0.09228027
20	0xbe21adf2	-0.15789011
21	0x3f212507	0.62947124
22	0x3ea26abc	0.31722057
23	0xbe5a835a	-0.21339169
24	0x3e97be76	0.29637498
25	0xbf815845	-1.0105063
26	0xbeff71bc	-0.4989146
27	0xbf085490	-0.5325403
28	0x3e7acdf5	0.24492629
29	0xbe1d1b68	-0.15342486
30	0xbfb6ff99	-1.4296752
31	0x3f8cab32	1.0989745

module.net_ts.layer2.0.bn2.running_var f4 [32]
0	0x3f02b072	0.51050484
1	0x3ef849c1	0.4849377
2	0x3f493ad6	0.786054
3	0x3f0cd595	0.550134
4	0x3f1a4291	0.6025782
5	0x3f061a53	0.5238392
6	0x3f0907b8	0.535274
7	0x3f21bac8	0.6317563
8	0x3f53df41	0.82762533
9	0x3f1f4a5b	0.6222283
10	0x3f33dca3	0.7025854
11	0x3f163cdd	0.5868662
12	0x3eff2ab7	0.49837276
13	0x3f075a5a	0.5287224
14	0x3f34f1ac	0.7068126
15	0x3f0b1727	0.543322
16	0x3f6af972	0.91786873
17	0x3f2198e3	0.6312391
18	0x3f1b0b58	0.60564184
19	0x3ece94a8	0.4034779
20	0x3f6ace84	0.9172137
21	0x3f043e5f	0.5165767
22	0x3f07ca3a	0.5304295
23	0x3ecb1fc9	0.39672688
24	0x3f464683	0.7745134
25	0x3f164665	0.58701164
26	0x3f088150	0.53322315
27	0x3f2aadab	0.66671246
28	0x3f0b55cd	0.54427797
29	0x3f28b2d1	0.6589785
30	0x3f131656	0.57455957
31	0x3f226e1d	0.6344927
