model/model_20200914183005/model_final_std_3_0300_sm.pth (torch_old, 960817 bytes, 59 tensors)

module.net_sm.conv1.weight f4 [32, 1, 7, 7, 7]
0	0xbaa802d1	-0.0012818222
1	0x3d0096d7	0.031393852
2	0x3cb36fbd	0.021903867
3	0x3d151cc5	0.03640439
4	0x3d4be453	0.049778294
5	0x3b912108	0.0044289865
6	0x3bfff1ac	0.007810792
7	0xbcdb66f0	-0.026782483
8	0x3c8219a4	0.015881367
9	0x3c9f57eb	0.019451102
10	0x3c60a299	0.013710641
11	0x3cfd696e	0.030934062
12	0x3d23f73b	0.0400307
13	0x3be45a1d	0.00696875
14	0xbbe80176	-0.0070802523
15	0xbba7aa56	-0.005116741
16	0x3b496a04	0.0030733356
17	0x3c822cab	0.01589044
18	0x3d343fb2	0.044006057
19	0xbb86996d	-0.0041076452
20	0x3d07c1d8	0.03314385
21	0x3b882995	0.0041553476
22	0xba8fd230	-0.0010972675
23	0xbae2618c	-0.0017271503
24	0xbb2cebe2	-0.0026385714
25	0x3c83b176	0.01607583
26	0xbb951ac1	-0.0045503085
27	0x3d2ed6e3	0.0426854
28	0x3cfdf5be	0.031000968
29	0x3c828023	0.015930241
30	0xbccf3fa2	-0.025298897
31	0x3ce9a7c5	0.028522382
32	0x3c4ace9a	0.012378359
33	0x3cb8c042	0.022552613
34	0x3d2a7b8f	0.04162174
35	0x3bf390f7	0.0074330526
36	0x3caa6868	0.020801738
37	0x3c836c4a	0.016042847
38	0x3d11427f	0.035463806
39	0xbc27f30d	-0.010250819
40	0x3d5d1a16	0.053979956
41	0x3d127a97	0.035761442
42	0xbc483a47	-0.012220926
43	0x3bd654b6	0.00654086
44	0x3c535dff	0.012900828
45	0x3c5e4610	0.013566509
46	0x3c9b47d9	0.018955158
47	0x3d10a52a	0.035313763
48	0x3c863c26	0.016386103
49	0x3d0b1e41	0.0339644
50	0x3c18a77f	0.009317278
51	0x3c16d3d5	0.009205778
52	0x3c565a51	0.013083057
53	0x3c64a549	0.013955423
54	0x3c975803	0.018474584
55	0x3d006599	0.03134689
56	0x3c994c96	0.018713277
57	0x39f5e9f4	0.0004690435
58	0xbc935133	-0.017983055
59	0x3bd11bc1	0.0063814824
60	0x3bb3eb7d	0.005490719
61	0x3b42535d	0.002965174
62	0x3cf96633	0.03044424
63	0x3c85104b	0.01624312
64	0xba90408c	-0.0011005565
65	0xbcad8233	-0.021180248
66	0x3b96f1ea	0.004606475
67	0xbcbd1acd	-0.023084069
68	0x3c7b1c9a	0.015326643
69	0x3d3bd274	0.045855
70	0x3cac6d54	0.021048225
71	0x3839f286	4.4333305e-05
72	0xbcc5cd36	-0.024145704
73	0x3bdca1fe	0.006733178
74	0xbb21e03b	-0.0024700302
75	0x3a5110b7	0.0007975208
76	0x3d32d5ba	0.043660857
77	0x3d665e51	0.05624229
78	0x3c97cd61	0.01853055
79	0x3c2cf335	0.010556032
80	0xbc50fff7	-0.012756339
81	0xbcc4d5ce	-0.024027731
82	0x3c9a2f0c	0.018821262
83	0x3d85621d	0.06512854
84	0x3d3d22cb	0.04617576
85	0x3cc372cc	0.02385845
86	0x3b26b1ac	0.002543549
87	0xbbd5360a	-0.006506686
88	0x3a133a1c	0.0005616264
89	0x3cc2d885	0.023784885
90	0x3d435811	0.04769141
91	0x3d09e429	0.033664856
92	0x3cb65e38	0.022261724
93	0x3d24848f	0.04016548
94	0x3c249a48	0.010046549
95	0x3ae3e926	0.0017388209
96	0x3d06d79f	0.032920476
97	0x3cd52445	0.026018271
98	0x3ca4efa0	0.020133793
99	0x3c0cf5b3	0.008603501
100	0x3b232ec1	0.0024899694
101	0x3ba535e4	0.0050418247
102	0x3cc47658	0.023982212
103	0x3cc1c6fa	0.02365445
104	0x3c46c519	0.012131953
105	0x3caccadd	0.021092827
106	0x3c93cdf3	0.01804254
107	0x3ba3f6f2	0.0050038034
108	0x3bd3035a	0.0064396085
109	0xbc9b6309	-0.018968122
110	0xbc9c2309	-0.019059675
111	0x3bc79c8c	0.00609166
112	0x3d4a6256	0.049410187
113	0x3c97673b	0.018481841
114	0xba87c736	-0.0010359052
115	0x3b25ab50	0.0025279112
116	0x3b782670	0.0037864707
117	0xbc5641e5	-0.013077234
118	0x3d32d3dd	0.04365908
119	0x3cc6bc1f	0.024259625
120	0x3ca2b5ff	0.019862173
121	0x3c088447	0.008332319
122	0x3ba33702	0.0049809227
123	0x3a41d506	0.00073941087
124	0x3c8f67a6	0.017505478
125	0x3d3ce04e	0.04611235
126	0x3d175cf7	0.036953893
127	0x3cd26052	0.025680695
128	0x3bfb06b8	0.007660713
129	0x3cde862e	0.027163591
130	0x3ca2b8bb	0.019863477
131	0x3cb8c1ad	0.02255329
132	0x3d1a307e	0.037643902
133	0x3b6d7f48	0.0036239196
134	0xba9891e6	-0.0011640161
135	0x3cd74d6b	0.026282033
136	0x3c811bc3	0.015760308
137	0x3c86cd53	0.016455328
138	0x3d1f62c6	0.038912557
139	0x3d4bd644	0.049764886
140	0x3bdab631	0.006674551
141	0x3c081cad	0.008307618
142	0x3cdb3781	0.026759865
143	0x3d276967	0.040872004
144	0x3cf26814	0.029590644
145	0x3c9befc4	0.019035228
146	0x3cafb761	0.021449747
147	0x3a2568a6	0.00063098443
148	0x3c604786	0.0136889275
149	0xbaef497a	-0.0018256151
150	0xbc646e3f	-0.0139423
151	0xbc504cc8	-0.012713619
152	0x3c7bb234	0.015362311
153	0xbab51042	-0.0013814049
154	0x3c46aa06	0.012125498
155	0x3c5cccee	0.013476593
156	0x3b849cdf	0.004047021
157	0x3c5ff50d	0.0136692645
158	0x3b669886	0.0035186126
159	0x3c2a3923	0.010389599
160	0x3c65ddb5	0.01402991
161	0x3ca7da3e	0.020489808
162	0x3ba56cd1	0.0050483723
163	0xbc7c30c7	-0.015392489
164	0x3c140921	0.00903538
165	0x3cfca54d	0.03084054
166	0xbc1f0633	-0.009706068
167	0x3ca42ca3	0.020040816
168	0x3d12445f	0.035709735
169	0x3ca69a74	0.02033732
170	0x3ccacb4b	0.02475514
171	0x3cf3426d	0.02969476
172	0x3d02ad04	0.03190328
173	0x3c06071a	0.008180404
174	0x3c3a189b	0.011358405
175	0x3d25f0eb	0.04051296
176	0x3ad0b680	0.001592353
177	0x3bfe0d9a	0.0077530863
178	0x3d168af0	0.036753595
179	0x3c16678c	0.009179961
180	0x3aecb618	0.0018059639
181	0x3b8f7430	0.0043778643
182	0x3bf1853c	0.007370619
183	0x3b0f0c18	0.0021827277
184	0x3b033480	0.0020020306
185	0x3d410f2a	0.047133602
186	0xbc83fcb0	-0.016111702
187	0x3b96db91	0.004603811
188	0xbb4c6e27	-0.0031193586
189	0x3c288277	0.0102850115
190	0xbcc15dfa	-0.023604382
191	0x3c9715e2	0.018443052
192	0x3c9a74d7	0.018854542
193	0xbc967da5	-0.018370459
194	0xbc7c220a	-0.015388975
195	0xbc0c9273	-0.008579838
196	0xbd2c87b7	-0.042121615
197	0x3c12cef4	0.008960474
198	0xbbe40cfa	-0.0069595547
199	0xbd046496	-0.03232249
200	0xb9209bf3	-0.00015316885
201	0xb99d184a	-0.0002996347
202	0x3bc745bd	0.0060813115
203	0xbb60c72a	-0.0034298399
204	0x3c8052a3	0.015664404
205	0x3c03b343	0.008038345
206	0x3ca45d18	0.020063922
207	0xbb54c865	-0.0032468077
208	0x3b7ff9e7	0.0039058866
209	0x3c877656	0.01653592
210	0xba245cb7	-0.0006269919
211	0xbca58805	-0.02020646
212	0xbafa7ff6	-0.0019111622
213	0x3bd98c65	0.006639051
214	0x3cf665c3	0.03007782
215	0x3c2a4964	0.010393474
216	0x3cf9ac93	0.030477798
217	0x3c5f276b	0.013620238
218	0xbc3d2e0a	-0.011546621
219	0xbbf1b451	-0.0073762317
220	0x3d409d52	0.047025032
221	0x3cc5c1ae	0.024140205
222	0x3b892a1b	0.0041859276
223	0xbc4585d4	-0.012055833
224	0x3cc5f021	0.024162354
225	0x3ca27805	0.01983262
226	0x3bf0c663	0.0073478683
227	0x3ce817c2	0.028331641
228	0x3ccfd58e	0.025370385
229	0xbcfc2c7e	-0.030782934
230	0x3ad72885	0.0016415274
231	0x3bb371c8	0.0054762103
232	0x3a446e55	0.00074932474
233	0xbcefec54	-0.029287495
234	0x3b971364	0.004610466
235	0xbc2cde83	-0.010551098
236	0xbb2340d5	-0.002491047
237	0x3cfb8490	0.03070286
238	0x3d31c160	0.043397307
239	0x3cd57e4a	0.026061196
240	0xbc8d23ad	-0.017228926
241	0x3c36f2ab	0.011166255
242	0x3ce36a25	0.027760575
243	0x3caef4f9	0.021357046
244	0x3cac343d	0.021021003
245	0xbca1093b	-0.019657722
246	0x3cf5fe7a	0.03002857
247	0x3bd2f273	0.0064375936
248	0xbd1f2801	-0.03885651
249	0xbc3deaf7	-0.0115916645
250	0x3ccec11c	0.025238566
251	0x3cd78713	0.026309526
252	0xbb8b8778	-0.0042580925
253	0x3cb29d3d	0.021803493
254	0x3a57251e	0.000820713
255	0xbb705b26	-0.0036675422

module.net_sm.bn1.weight f4 [32]
0	0x3f67c7cb	0.90539235
1	0x3f6a39fb	0.9149472
2	0x3f68b957	0.90907806
3	0x3f6c11f3	0.9221489
4	0x3f6e199d	0.9300783
5	0x3f68eb9a	0.909845
6	0x3f646141	0.892109
7	0x3f6d37cb	0.9266326
8	0x3f645d45	0.8920482
9	0x3f68e288	0.9097066
10	0x3f5fba02	0.873932
11	0x3f772eb7	0.96555656
12	0x3f6d32ea	0.92655814
13	0x3f6b4b7d	0.9191206
14	0x3f680852	0.90637696
15	0x3f726208	0.94680834
16	0x3f71c386	0.9443897
17	0x3f75f5d5	0.96078235
18	0x3f7311c7	0.94949
19	0x3f679472	0.90460885
20	0x3f6d7908	0.92762804
21	0x3f77c2d6	0.9678167
22	0x3f665c87	0.89984936
23	0x3f676adb	0.90397424
24	0x3f745379	0.9543987
25	0x3f7efab1	0.99601275
26	0x3f6cae9a	0.9245392
27	0x3f698b83	0.91228503
28	0x3f65b2ed	0.89726144
29	0x3f71e197	0.9448485
30	0x3f732df1	0.94991976
31	0x3f6fbaad	0.9364422

module.net_sm.bn1.bias f4 [32]
0	0x3c1a21bc	0.009407457
1	0x3c56f908	0.013120897
2	0xbc10e7a0	-0.008844286
3	0xbc928100	-0.017883778
4	0x3b27bb26	0.0025593727
5	0xbc438d32	-0.011935519
6	0xbb5c463d	-0.0033611201
7	0x3baf2864	0.005345391
8	0xbc2fa3bb	-0.010720189
9	0x3a684706	0.0008860681
10	0x3b5b7829	0.003348837
11	0xbab20092	-0.0013580492
12	0xb9c86aed	-0.0003822664
13	0x3ae15028	0.0017190026
14	0xbc9abe5f	-0.018889604
15	0xbb914a01	-0.004433871
16	0x3b8769d9	0.004132491
17	0x39af320a	0.00033415883
18	0x3ab7ab62	0.0014012868
19	0xbbcd68be	-0.0062685898
20	0x3a1fb2b2	0.00060919963
21	0x3ba35f65	0.004985737
22	0xbcabe871	-0.02098486
23	0xbc9b0c0b	-0.018926641
24	0x3bc28374	0.0059360806
25	0x3c68413d	0.01417571
26	0xbbfdf18e	-0.007749743
27	0x3aff1330	0.0019460674
28	0x39dd20aa	0.0004217674
29	0x3b3f7e0c	0.0029219417
30	0xb9b9f993	-0.00035471897
31	0x3ba8f029	0.0051555824

module.net_sm.bn1.running_mean f4 [32]
0	0x3925d2d3	0.00015814164
1	0xb8c30bce	-9.3005234e-05
2	0x38e36701	0.000108433895
3	0x3846bb15	4.7381112e-05
4	0x383f929c	4.567449e-05
5	0x38c8108b	9.5398245e-05
6	0x388ec597	6.8078916e-05
7	0x38bf4335	9.120108e-05
8	0x38e83978	0.000110733265
9	0xb812f2b6	-3.5035155e-05
10	0xb8866610	-6.4086285e-05
11	0x38e694e7	0.0001099499
12	0x38b78250	8.7503926e-05
13	0x388a1d8d	6.585857e-05
14	0x3922c7e7	0.00015523993
15	0x3890411e	6.878584e-05
16	0x38c10d90	9.2054834e-05
17	0x38632422	5.415467e-05
18	0x36bbb3b1	5.593953e-06
19	0xb80408f5	-3.1479594e-05
20	0x382c86ac	4.113342e-05
21	0x38af8b12	8.370554e-05
22	0x37a87593	2.008191e-05
23	0x36735d4b	3.6264125e-06
24	0xb896966b	-7.180575e-05
25	0xb722f70b	-9.713472e-06
26	0x36e2b883	6.756805e-06
27	0x38aa6a51	8.126035e-05
28	0xb8e4fea7	-0.0001091932
29	0xb856a162	-5.1171875e-05
30	0x38518072	4.9949107e-05
31	0x3828ff4a	4.0292078e-05

module.net_sm.bn1.running_var f4 [32]
0	0x3c0e7e6b	0.008697133
1	0x3b90f07a	0.0044231983
2	0x3bae13c8	0.0053124167
3	0x3b85dc23	0.00408508
4	0x3b618312	0.00344104
5	0x3bc337b1	0.0059575667
6	0x3ba88d5b	0.005143804
7	0x3bb2317e	0.005438029
8	0x3b8c66de	0.0042847237
9	0x3b92f838	0.0044851564
10	0x3bd9dc9d	0.0066486136
11	0x3bdaf62d	0.0066821785
12	0x3ba64d49	0.005075131
13	0x3b9d991b	0.0048095114
14	0x3c50de4a	0.01274831
15	0x3b831ddd	0.0040013627
16	0x3bb99075	0.0056629726
17	0x3bad12d4	0.0052817855
18	0x3bbbeadf	0.005734786
19	0x3b9ff686	0.004881683
20	0x3b74de07	0.0037363784
21	0x3c15efe2	0.009151431
22	0x3b88d0f1	0.0041752984
23	0x3bbae6ec	0.0057037976
24	0x3ba85ae7	0.0051377895
25	0x3bb1f578	0.0054308735
26	0x3b9fb197	0.0048734653
27	0x3ba51816	0.0050382717
28	0x3baa7ae1	0.0052026366
29	0x3b96427c	0.0045855623
30	0x3b9b687d	0.0047426806
31	0x3b914603	0.004433395

module.net_sm.layer1.0.conv1.weight f4 [32, 32, 3, 3, 3]
0	0xbd55f657	-0.05223688
1	0xbcd94a61	-0.026524724
2	0xbd06cc8f	-0.032909926
3	0x3c6960e8	0.014244296
4	0x3b0ad351	0.0021183083
5	0xbdadc284	-0.084843665
6	0x3b7f3a91	0.003894482
7	0x3d496727	0.04917064
8	0x3cbb0004	0.022827156
9	0x3cfc8b13	0.030828035
10	0x3d0d7a26	0.034540318
11	0x3ccbbb46	0.024869572
12	0x3c5155a1	0.012776763
13	0x3c7b8e22	0.015353711
14	0xbdac2424	-0.08405331
15	0x3c667caa	0.014067808
16	0xbd3d9225	-0.046281952
17	0xbc9d0413	-0.019166982
18	0x3cdcbba4	0.026944943
19	0xbd81797a	-0.06321998
20	0xbd0e6a2e	-0.03476923
21	0xbaf8a9ec	-0.0018971539
22	0x3d731ac4	0.059351698
23	0xbdbd9306	-0.09256558
24	0x3c23267c	0.009957906
25	0x3d25d19a	0.040483095
26	0xbd244d75	-0.04011293
27	0x3d350c67	0.04420128
28	0x38a47914	7.842682e-05
29	0x3cdd3a4d	0.027005339
30	0x3cec57a4	0.028850384
31	0xbc0d7b70	-0.008635387
32	0x3d3785bd	0.044805277
33	0x3bc444b5	0.005989636
34	0x3c11ad78	0.008891456
35	0x3ce0e618	0.027453467
36	0x3be3c537	0.006951
37	0x3d183a36	0.03716489
38	0x3ca4dc37	0.020124538
39	0xbd88bf7d	-0.066771485
40	0xbd6054d2	-0.05476839
41	0x3cda0a89	0.026616352
42	0xbd13883f	-0.036018606
43	0xbcce8d49	-0.025213854
44	0x3d9b41f2	0.075809374
45	0x3c3317da	0.01093098
46	0xbd8c590c	-0.06852922
47	0xbdb7435d	-0.089483954
48	0xbd19d951	-0.037560765
49	0xbd17bd35	-0.037045676
50	0xbce5dc23	-0.02805907
51	0x3c965653	0.01835171
52	0x3d024f22	0.03181375
53	0xbd4cb0ba	-0.049973227
54	0x3c270290	0.010193482
55	0x3d06d886	0.032921337
56	0xbde9fd85	-0.11425308
57	0xbcf7d961	-0.030255022
58	0x3d7647df	0.060127135
59	0x3d09f527	0.03368106
60	0xbcdab571	-0.026697846
61	0x3d82a26c	0.06378636
62	0xbc9d3344	-0.019189484
63	0xbd22b03e	-0.03971886
64	0xbbc38b0a	-0.0059675025
65	0x3d5d9456	0.054096542
66	0xbd0d8b89	-0.0345569
67	0xbcf2fb9d	-0.029660994
68	0x3d93c3e2	0.07215096
69	0xbd644259	-0.055727337
70	0x3d54afb4	0.051925376
71	0xbd456d45	-0.04819991
72	0xbcbbb2b6	-0.022912364
73	0xbd03096c	-0.031991407
74	0xbc0c875f	-0.008577197
75	0xbb7cdf4b	-0.0038585241
76	0x3c70e73a	0.014703566
77	0x3d13f8d6	0.03612598
78	0x3cdc69dc	0.026905946
79	0xbc3669f4	-0.01113366
80	0xbd1cb917	-0.038262453
81	0x3a9ae592	0.0011817685
82	0xbcdf9504	-0.027292736
83	0x3c53f60c	0.01293708
84	0x3c8c6f66	0.017142963
85	0xbc9fbc79	-0.01949905
86	0x3d0106a9	0.031500492
87	0xbd085b07	-0.033289935
88	0xbc8a18b6	-0.016857486
89	0xbd187feb	-0.037231367
90	0xbcdf009b	-0.027221968
91	0xbcf81dbc	-0.030287616
92	0xbbf0c7be	-0.00734803
93	0xbb972cfd	-0.0046135173
94	0x3c6b5fe6	0.014366126
95	0x3d2a056a	0.04150907
96	0xbc20427e	-0.009781478
97	0x3d28a251	0.041170422
98	0xbcbb911b	-0.02289634
99	0xbd210afb	-0.039317112
100	0xbc44b6f0	-0.012006506
101	0x3cdb2da7	0.026755167
102	0xbd15617a	-0.036469914
103	0x3cd0aa27	0.02547176
104	0x3cecd725	0.028911183
105	0x3c81bc25	0.015836785
106	0xbd04f8bd	-0.032463778
107	0x3c33fa11	0.010984913
108	0x3a7e4568	0.00096996734
109	0xbc429a22	-0.011877568
110	0x3d5ef3ab	0.0544316
111	0x3ce03758	0.02737014
112	0xbd26ec98	-0.040752977
113	0xbd72a734	-0.05924149
114	0x3b705b1c	0.00366754
115	0xbc0fdba1	-0.008780391
116	0x3c99958b	0.018748065
117	0x3d2c3dce	0.04205113
118	0x3bd54811	0.006508835
119	0xbb5f4b34	-0.0034071924
120	0x3d533360	0.051562667
121	0x3d459eb1	0.048247043
122	0x3c3187ae	0.010835571
123	0xbd65dfff	-0.056121822
124	0x3a482086	0.0007634241
125	0x3de6dcf2	0.11272611
126	0xbd049a54	-0.03237374
127	0xbd30c9a9	-0.043161068
128	0x3d6dc813	0.058052134
129	0xbc028011	-0.007965104
130	0xbcf45559	-0.029825853
131	0x3da11b95	0.07866589
132	0x3d248e4e	0.040174775
133	0x3d343751	0.043998066
134	0x3c8c27ad	0.017108763
135	0x3cb6295e	0.022236522
136	0x3de75a52	0.11296524
137	0xbcc2c0be	-0.023773547
138	0xbc9c258f	-0.019060878
139	0x3d4fa47a	0.050693966
140	0xbc8cdf61	-0.01719636
141	0xbd9092b8	-0.070592344
142	0xbc69c01e	-0.014266996
143	0xbdf63e60	-0.12023616
144	0x3d98d447	0.07462364
145	0x3d81aa0f	0.06331264
146	0x3d13ec92	0.036114283
147	0x3c132218	0.008980297
148	0xba465112	-0.0007565181
149	0xbc269bb0	-0.010168955
150	0x3cf2ecaf	0.029653875
151	0xbbbd0bd1	-0.005769231
152	0xbd522ea5	-0.051314015
153	0xbc659b86	-0.01401413
154	0xbbdd5a54	-0.0067551527
155	0xbd240904	-0.04004766
156	0x3d40abde	0.047038905
157	0xbddff36d	-0.10935102
158	0xbc046b25	-0.008082186
159	0x3c27eedd	0.010249821
160	0xbd3269ea	-0.04355804
161	0xbc815808	-0.015789047
162	0xb92d266a	-0.00016512876
163	0xbc858d9c	-0.016302876
164	0x3cf976c5	0.030452142
165	0xbc9bc1ae	-0.019013252
166	0xbc176299	-0.009239816
167	0xbcd6cfff	-0.026222227
168	0x3aecd5af	0.0018069054
169	0xbb698e07	-0.0035637633
170	0xbb823289	-0.0039733094
171	0xbce9243f	-0.028459666
172	0xbc874931	-0.016514393
173	0xbd664d88	-0.056226283
174	0xbbe53440	-0.006994754
175	0x3ce51bb3	0.02796731
176	0x3d47f1eb	0.048814695
177	0x3d2699da	0.040674068
178	0x3c5fa0be	0.013649164
179	0xbc9f264b	-0.01942744
180	0xbd93c16c	-0.07214627
181	0xbd3e3425	-0.046436448
182	0x3d2ccc73	0.042187165
183	0x3d3b68c9	0.045754228
184	0xbd134b38	-0.035960406
185	0xbcf11887	-0.02943064
186	0xbc627a5e	-0.01382312
187	0x3ca64f8c	0.020301603
188	0x3cbd1ecf	0.02308598
189	0x3c820884	0.015873201
190	0xbd436b80	-0.047709942
191	0xbb9ab497	-0.004721235
192	0xba5cb290	-0.0008418942
193	0xbd9a1d33	-0.075251006
194	0x3b7f5b10	0.003896419
195	0x3d198f26	0.037490033
196	0xbc27fbe1	-0.010252924
197	0xbc022d74	-0.007945407
198	0x3cac0784	0.020999677
199	0x3bd0f068	0.006376315
200	0xbcf291d9	-0.029610561
201	0xbd599aed	-0.053126264
202	0x3cd87c5d	0.026426489
203	0xbc2fc4de	-0.010728089
204	0x3ccfcacd	0.025365258
205	0x3d08f703	0.033438694
206	0xb98a34a3	-0.00026360629
207	0xbc904dd5	-0.017615238
208	0x3d91016a	0.07080348
209	0xbb64e20f	-0.003492478
210	0xbc880c99	-0.01660757
211	0x3d034e90	0.032057345
212	0xbdaf751b	-0.08567258
213	0x3d00ce83	0.031446945
214	0x3cbd68fc	0.02312135
215	0xbd03d631	-0.03218669
216	0x3ce690df	0.028145252
217	0x3d180a38	0.03711912
218	0xbb03a750	-0.002008874
219	0xbcbac4d1	-0.022798928
220	0x3d85953a	0.06522603
221	0xbd44fe42	-0.04809404
222	0xbbd40343	-0.0064701154
223	0xbd412f59	-0.047164295
224	0xbb449675	-0.0029996906
225	0xba4a6dc8	-0.0007722047
226	0x3d4d3e2f	0.05010813
227	0xbde40202	-0.111331955
228	0xbd1f88d8	-0.038948864
229	0xbd8e07cd	-0.06935082
230	0xbcd7b883	-0.0263331
231	0xbd34b5bf	-0.04411864
232	0x3bca084e	0.006165541
233	0xbd57cac3	-0.052683603
234	0xbbc5c047	-0.006034884
235	0x3d55f2cc	0.052233502
236	0xbda6ec49	-0.081505366
237	0xbd6b9ac1	-0.05752063
238	0xbd8763ce	-0.06610833
239	0x3ddf5c71	0.10906304
240	0xbdffa4ba	-0.12482591
241	0x3d7794c6	0.060444616
242	0x3d9541e8	0.07287961
243	0xbd20457b	-0.03912876
244	0xbd83fc27	-0.064445786
245	0xbcd8c125	-0.026459286
246	0x3d8c280a	0.06843574
247	0xbd8ca503	-0.06867411
248	0x3bbe2057	0.005802195
249	0x3da79292	0.08182253
250	0x3cf78aea	0.030217607
251	0x3ccc5c66	0.024946403
252	0xbd42c03b	-0.047546607
253	0xbcf14c84	-0.02945543
254	0xbc6135c6	-0.013745731
255	0x3c874da4	0.016516514

module.net_sm.layer1.0.bn1.weight f4 [32]
0	0x3f6444ae	0.89167297
1	0x3f6a56c2	0.9153863
2	0x3f60559a	0.8763062
3	0x3f6b3680	0.91880035
4	0x3f6b087a	0.9180981
5	0x3f69b1ea	0.912871
6	0x3f6dd017	0.92895645
7	0x3f6960b9	0.9116321
8	0x3f69898b	0.912255
9	0x3f6b1ac2	0.91837704
10	0x3f61f56f	0.88265127
11	0x3f6b098f	0.9181146
12	0x3f65be89	0.8974386
13	0x3f69a853	0.9127247
14	0x3f696dd3	0.91183203
15	0x3f64fa64	0.89444566
16	0x3f6cd13c	0.92506766
17	0x3f6b01d5	0.9179967
18	0x3f66ed90	0.9020624
19	0x3f7177e0	0.9432354
20	0x3f74fe88	0.95700884
21	0x3f6a16ef	0.91441244
22	0x3f661658	0.89877844
23	0x3f63b286	0.8894428
24	0x3f6de8f4	0.92933583
25	0x3f67bccc	0.90522456
26	0x3f691130	0.9104185
27	0x3f6e2eac	0.93039966
28	0x3f635c32	0.88812554
29	0x3f641152	0.8908893
30	0x3f6a3ad2	0.91496
31	0x3f69a6aa	0.91269934

module.net_sm.layer1.0.bn1.bias f4 [32]
0	0xbb66b628	-0.0035203788
1	0x3b66bfa4	0.0035209442
2	0xbcf56bff	-0.029958723
3	0xbcac3679	-0.021022068
4	0x3c2396a3	0.009984645
5	0x3b64d1be	0.0034915055
6	0x3c4c0a17	0.0124535775
7	0x3c624d47	0.01381237
8	0x3bf03d0a	0.007331495
9	0x3c8ede87	0.017440094
10	0x3c29d7a5	0.010366355
11	0xbb7b80f4	-0.0038376423
12	0x3c030c0e	0.0079984795
13	0x3c1b0fdd	0.009464231
14	0x3b1a3407	0.0023529546
15	0xbc712781	-0.014718891
16	0xbc7430fe	-0.014904259
17	0xbbfabd65	-0.007651972
18	0xbb22a2c9	-0.0024816266
19	0x3c9642f8	0.01834248
20	0x3bbe797b	0.0058128214
21	0x3cda7d85	0.02667118
22	0xbbdec329	-0.0067981672
23	0xbbc23fb6	-0.005928005
24	0x3c67f4d5	0.014157494
25	0xbbe09a3b	-0.006854323
26	0xbc1856b3	-0.009298014
27	0xbcf4d768	-0.02988787
28	0xbab5411e	-0.001382861
29	0x3c8146c0	0.015780807
30	0xbc5b8610	-0.013398662
31	0xbbb72d2c	-0.0055901017

module.net_sm.layer1.0.bn1.running_mean f4 [32]
0	0xbfee9ea5	-1.8642164
1	0xbf96479f	-1.1740607
2	0x40062b75	2.0964024
3	0xbfa7311d	-1.3061863
4	0xbf9d981f	-1.2312049
5	0x403cb065	2.9482663
6	0xbef4624f	-0.47731254
7	0x403b6da2	2.9285665
8	0xbff668b2	-1.92507
9	0xbfb92e49	-1.446725
10	0x402d6e25	2.7098477
11	0xc017e56e	-2.3733783
12	0xbf54eb1c	-0.8317125
13	0xbea83bed	-0.3285822
14	0xc0622b6d	-3.5339005
15	0x3dc5263f	0.096264355
16	0x40273ab0	2.612957
17	0xc022cae8	-2.5436344
18	0x3f6d470d	0.9268654
19	0x40b3826a	5.6096697
20	0x3fe5e28b	1.795976
21	0xc03b021b	-2.9220035
22	0x3f544559	0.82918316
23	0x4014d5ab	2.3255413
24	0xbf7151f9	-0.94265705
25	0xc01e967e	-2.4779353
26	0xc01cad6e	-2.4480853
27	0xc0c8a23d	-6.2698045
28	0x401fc05c	2.4961157
29	0x3ec48927	0.3838589
30	0xbf4cf325	-0.8005851
31	0xc020626c	-2.5060072

module.net_sm.layer1.0.bn1.running_var f4 [32]
0	0x40aac45d	5.33647
1	0x401f036e	2.4845843
2	0x4148a1d3	12.539508
3	0x4052afda	3.2919831
4	0x4046e571	3.107754
5	0x4148e80c	12.556652
6	0x40a79862	5.2373514
7	0x411964ee	9.587141
8	0x409bde86	4.8709135
9	0x409d1f8d	4.9101014
10	0x411edbab	9.92863
11	0x40ded152	6.963052
12	0x40a9b2e6	5.303088
13	0x3f985d9b	1.1903566
14	0x4167441e	14.45413
15	0x402ff706	2.749452
16	0x412ec0c3	10.922061
17	0x40ea968b	7.330877
18	0x40086b80	2.1315613
19	0x41eb215e	29.391293
20	0x40b0cda9	5.525105
21	0x41133a87	9.201789
22	0x3fedc6d4	1.8576303
23	0x410f032e	8.938276
24	0x40973e88	4.726383
25	0x4111b32e	9.106245
26	0x40c6c649	6.2117047
27	0x42151f35	37.280476
28	0x411cc253	9.797442
29	0x40745d35	3.818189
30	0x403ef30d	2.9835846
31	0x40d7ef8e	6.7479925

module.net_sm.layer1.0.conv2.weight f4 [32, 32, 3, 3, 3]
0	0xbd0c8d7a	-0.03431461
1	0x3bbdf2e4	0.005796777
2	0x3bfeac09	0.007771973
3	0x3b9dbf9e	0.0048141023
4	0xba991c3b	-0.0011681387
5	0x3d54456b	0.051824015
6	0xbd2247a0	-0.03961909
7	0xbd6423d1	-0.05569822
8	0xbd08b54c	-0.033376023
9	0xbcb9df65	-0.02268953
10	0xbc93ac22	-0.018026415
11	0xbd2ff009	-0.042953525
12	0x3d04fb9e	0.032466523
13	0x3d6323e2	0.055454142
14	0xbdb81282	-0.08987905
15	0xbd5b3385	-0.05351593
16	0xbd95bcd6	-0.07311408
17	0xbd79f5fe	-0.061025612
18	0x3d799794	0.06093557
19	0x3c992eab	0.01869901
20	0xbd52459e	-0.051335923
21	0x3d457602	0.048208244
22	0xbdaa41b6	-0.083133146
23	0xbd09947f	-0.033588883
24	0x3c03fe3b	0.008056219
25	0x3c8fdd61	0.017561616
26	0xbd121886	-0.03566792
27	0xbbdfbafc	-0.00682771
28	0x3d824913	0.06361594
29	0xbd238731	-0.03992385
30	0xbc1c1560	-0.009526581
31	0x3cf436b1	0.029811235
32	0xbc4013a5	-0.011723434
33	0x3d58ec9d	0.052960027
34	0x3c1d4b28	0.009600438
35	0x3dc79ee4	0.09747103
36	0xbc5f3c5e	-0.0136252325
37	0x3bbaffb7	0.005706753
38	0x3d81c64e	0.06336652
39	0x3d937810	0.072006345
40	0xbd570412	-0.052494116
41	0xb92868df	-0.00016060796
42	0xbd0520aa	-0.032501854
43	0x3d5cf42f	0.05394381
44	0xbd66af5e	-0.056319587
45	0x3d42b67d	0.047537316
46	0x3c71cd93	0.014758485
47	0xbd21bf70	-0.03948921
48	0xbd8b26fd	-0.06794546
49	0xbd01b8dc	-0.031670436
50	0xbc4698a8	-0.012121357
51	0x3ce4f735	0.027949909
52	0xbbaa07b8	-0.0051889084
53	0xba6607e7	-0.0008774981
54	0x3da2b3ea	0.07944472
55	0xbd2ec15a	-0.042664863
56	0xbc7c49c2	-0.015398445
57	0xbd508a6f	-0.05091327
58	0x3c25a2d3	0.010109621
59	0x3d2540d8	0.040345043
60	0xbd006a6b	-0.031351488
61	0x3c8b1c44	0.016981252
62	0xbd7e069a	-0.062018014
63	0xbcaead0b	-0.021322748
64	0x3c8b618f	0.017014293
65	0xbd87ae91	-0.06625093
66	0xbd93ff12	-0.07226385
67	0x3d239959	0.039941166
68	0xbd9ec86b	-0.077530704
69	0x3cf4f650	0.029902607
70	0xbd66232f	-0.056185897
71	0xbd8189ab	-0.06325086
72	0xbc4f08ea	-0.012636403
73	0xbd8ac04f	-0.06774961
74	0x3c7ca7b4	0.015420843
75	0x3ce8a016	0.028396647
76	0x3ca81b78	0.02052091
77	0xbc5ead10	-0.013591066
78	0x3d00b302	0.031420715
79	0x3cff59d0	0.031170756
80	0xbcbc0a64	-0.022954173
81	0xbc017fb2	-0.00790398
82	0x3cf36db8	0.029715404
83	0x3c8057bd	0.015666837
84	0xbd895416	-0.06705491
85	0x3e006bdb	0.12541144
86	0xbb5016fd	-0.0031751983
87	0xb9c88605	-0.00038246825
88	0x3c79b8bf	0.015241801
89	0xbd9cdeed	-0.07659707
90	0x3c7d603c	0.015464839
91	0xbc02ebb1	-0.0079907635
92	0x3cf8b414	0.030359305
93	0x3db1a108	0.086732924
94	0xbcd1b372	-0.025598262
95	0x3d454c01	0.048168186
96	0x3d60c198	0.054872125
97	0xbc226adf	-0.009913175
98	0xbd98030c	-0.07422456
99	0x3d5b04e2	0.053471453
100	0xbda1db17	-0.07903116
101	0xbce5201f	-0.027969418
102	0xbda3b85e	-0.079941496
103	0xbd75e47d	-0.060032357
104	0xbc376260	-0.011192888
105	0xbd72b979	-0.05925891
106	0xbdf705ec	-0.120616764
107	0x3d0cfe0b	0.03442196
108	0xbc1c7fb3	-0.00955193
109	0x3d113394	0.03544958
110	0x3d017e6b	0.031614702
111	0x3cce64af	0.025194494
112	0xbc97e6a3	-0.018542593
113	0x3cbed8f0	0.023296803
114	0xbe0cd272	-0.13752154
115	0x3d092b2e	0.033488445
116	0x3b6520bb	0.0034962136
117	0xbcc7ca24	-0.02438838
118	0x3ba23921	0.004950658
119	0x3cdab4a4	0.026697464
120	0x3d806988	0.062701285
121	0xbd703631	-0.05864543
122	0xbd9c093a	-0.07618947
123	0xbd356e33	-0.044294547
124	0x3d3709c4	0.044687048
125	0xbd00d44f	-0.031452473
126	0xbc8f2e38	-0.017478094
127	0xbd2d9545	-0.042378683
128	0x3906364b	0.00012799462
129	0x3d080b41	0.033213858
130	0x3c9a6e6e	0.018851485
131	0xbd92815b	-0.07153579
132	0x3cf8bda9	0.030363875
133	0xbc932d7e	-0.017966028
134	0x3b689dc8	0.0035494436
135	0x3c2e2300	0.010628462
136	0xbc52eed9	-0.0128743285
137	0xbb5dd574	-0.0033849152
138	0x3d05b29a	0.03264103
139	0xbd161476	-0.036640607
140	0xbcedb6c0	-0.029017806
141	0xbbc4024b	-0.0059817187
142	0xbdf93fc8	-0.121703684
143	0xbcfe4255	-0.031037489
144	0xbb60a399	-0.00342772
145	0x3ccab8db	0.02474635
146	0xbd6be168	-0.05758801
147	0x3d5862d8	0.05282864
148	0xbd121877	-0.035667863
149	0xbdaa9008	-0.08328253
150	0x3d3aa215	0.04556473
151	0x3bcac65b	0.0061881966
152	0xbc94afe1	-0.018150272
153	0x3bcd188d	0.00625903
154	0x3c4ba596	0.0124296155
155	0xbcd7dec5	-0.026351342
156	0xbd3ae84b	-0.045631688
157	0x3bcf811c	0.0063325297
158	0xbddf9f6b	-0.109190784
159	0xbd0b49d6	-0.034005962
160	0x3ce1343e	0.027490731
161	0xbbb65f33	-0.005565548
162	0xbd112b91	-0.03544194
163	0xbd136b18	-0.035990804
164	0xbd161b75	-0.03664728
165	0x3d7ba783	0.06143905
166	0xbd011b7a	-0.031520344
167	0xbda31e33	-0.079647444
168	0x3cbf3cfe	0.023344513
169	0xbda424fd	-0.080148675
170	0xbbcbe326	-0.0062221466
171	0xbd243c6b	-0.04009668
172	0xbc973f0a	-0.018462677
173	0xba274e8b	-0.0006382248
174	0xbd2509c3	-0.040292513
175	0x3d01c032	0.031677432
176	0x3ba890a6	0.0051441966
177	0xbca481c2	-0.020081405
178	0xbdb6a3ad	-0.089179374
179	0xbc8a8bf6	-0.016912442
180	0xbc42f309	-0.011898764
181	0x3cfe5b55	0.03104941
182	0x3ce0b943	0.02743209
183	0x3cea0cbf	0.028570531
184	0xbc91bd89	-0.017790573
185	0xbdbc158e	-0.09183799
186	0xbda7c695	-0.081921734
187	0x3c8553dc	0.016275339
188	0xbd10500a	-0.03523258
189	0xbcd26be1	-0.025686206
190	0x3c61aa7e	0.013773559
191	0xbd50c5fe	-0.05097007
192	0xbc93e34e	-0.018052723
193	0x3cc3e957	0.023914976
194	0x3b179a66	0.00231328
195	0x3c32eebd	0.010921177
196	0x3d79f39c	0.06102334
197	0xbdc02bab	-0.09383329
198	0xbda1b3f7	-0.07895654
199	0xbc63f7c7	-0.013914055
200	0xbdade148	-0.084902346
201	0xbd04d956	-0.03243383
202	0x3cd55045	0.026039252
203	0x3d1f6212	0.038911887
204	0x3caba176	0.020951014
205	0x3d5e997f	0.054345604
206	0xbd9eb20a	-0.07748802
207	0xbd00087e	-0.0312581
208	0xbcbff5fb	-0.023432722
209	0xbd344908	-0.04401496
210	0xbd7fda77	-0.062464204
211	0x3daaaf22	0.08334185
212	0xbd3c3c90	-0.045956194
213	0xbdee643f	-0.11640214
214	0xbdc7f0f2	-0.097627535
215	0xbd18badd	-0.03728758
216	0xbd0aee78	-0.033918828
217	0x3d1050c9	0.035233293
218	0x3d1ac11e	0.037781827
219	0xbb93582b	-0.0044965944
220	0x3e1df599	0.1542572
221	0xbb2d7975	-0.00264701
222	0xbd898f3a	-0.067167714
223	0xbcc6b11b	-0.024254372
224	0x3d6cce63	0.057814013
225	0x3d8fc739	0.070204206
226	0xbd373a00	-0.044733047
227	0x3d60a5ff	0.054845806
228	0x3c332ad3	0.010935503
229	0x3d51977d	0.05116986
230	0xbd7a5f38	-0.061125964
231	0xbbf7c83d	-0.007561712
232	0xbd0e527e	-0.03474664
233	0xbcdeebc3	-0.02721203
234	0x3da6a42a	0.081367806
235	0x3d956abc	0.072957486
236	0xbd2dd3ec	-0.042438433
237	0xbcc8ab1d	-0.024495656
238	0x3ca4c157	0.020111723
239	0xbc3d4e1f	-0.01155427
240	0xbc437564	-0.011929844
241	0xbd049abc	-0.03237413
242	0x3ca07bb4	0.019590236
243	0xbc0aa013	-0.008461016
244	0xbd5029c3	-0.050821077
245	0x3d23cbb1	0.039989177
246	0xbdd06b88	-0.1017676
247	0xbce430a7	-0.02785523
248	0x3c0b66ca	0.008508394
249	0xbc8e4cf0	-0.017370671
250	0x3d395244	0.04524447
251	0xbdc1e34b	-0.09467181
252	0xbca69b87	-0.020337833
253	0xb9beb5fd	-0.00036375216
254	0xbd547f47	-0.051879194
255	0x3d48118a	0.04884485

module.net_sm.layer1.0.bn2.weight f4 [32]
0	0x3f692106	0.91066015
1	0x3f6c657f	0.9234237
2	0x3f5c5395	0.86065036
3	0x3f691fa4	0.91063905
4	0x3f645565	0.891928
5	0x3f628a1e	0.88492
6	0x3f5d170a	0.8636328
7	0x3f6199b3	0.8812515
8	0x3f6e12bb	0.9299733
9	0x3f6d7e7f	0.9277114
10	0x3f7123f5	0.9419549
11	0x3f67b92e	0.90516937
12	0x3f65b6f7	0.8973231
13	0x3f68f171	0.9099341
14	0x3f571ede	0.84031475
15	0x3f6e6c94	0.9313443
16	0x3f61605d	0.88037664
17	0x3f6ab69a	0.9168488
18	0x3f663866	0.8992981
19	0x3f62b7eb	0.88561887
20	0x3f667f42	0.9003793
21	0x3f5d72a8	0.86503077
22	0x3f6fd7fe	0.9368895
23	0x3f5c26cc	0.859967
24	0x3f65c3af	0.89751714
25	0x3f59edf5	0.8512872
26	0x3f6614a7	0.8987526
27	0x3f6397d3	0.8890354
28	0x3f66d4e9	0.90168625
29	0x3f68b093	0.9089443
30	0x3f652fe0	0.89526176
31	0x3f63607b	0.8881909

module.net_sm.layer1.0.bn2.bias f4 [32]
0	0x3bd932bb	0.006628362
1	0x3bdf9bfd	0.006824015
2	0xbaec0f74	-0.0018009976
3	0xb9fd5f97	-0.0004832714
4	0xbb4d0fa7	-0.0031289847
5	0xbc663493	-0.014050621
6	0xbbb4c205	-0.005516293
7	0x3b52a158	0.0032139625
8	0x3a71723f	0.00092104444
9	0x3b26b5aa	0.002543787
10	0xbb435346	-0.0029804274
11	0xbaa3df2f	-0.0012502427
12	0xbb299479	-0.002587585
13	0xbb1d5c25	-0.0024011221
14	0xbc760e6a	-0.015018085
15	0xbb7b4a2b	-0.0038343768
16	0xbbb0e0fc	-0.005397914
17	0xbbe8b7e0	-0.0071019977
18	0xbaeed957	-0.0018222731
19	0xbb556511	-0.003256146
20	0xbbc8f097	-0.006132196
21	0x3a661adc	0.0008777806
22	0xbc79d848	-0.015249319
23	0xbc558b92	-0.013033764
24	0x3b803405	0.003912451
25	0x3c467cc0	0.012114704
26	0xbbb1be31	-0.005424284
27	0x3bd794ec	0.006579032
28	0x3b6f2bc1	0.0036494585
29	0xb9a51792	-0.00031488814
30	0xbaecf2e9	-0.0018077764
31	0xbaaeac9c	-0.0013326588

module.net_sm.layer1.0.bn2.running_mean f4 [32]
0	0xbf7ebc81	-0.99506384
1	0xbf5ee357	-0.87065643
2	0x3ca0d520	0.019632876
3	0x3dc9291d	0.09822295
4	0xbe761784	-0.24032408
5	0x3f8aba6d	1.0838143
6	0x3ead9249	0.3390067
7	0xbf314f23	-0.6926138
8	0xbf81aec6	-1.0131462
9	0xbebbce53	-0.3668085
10	0xbf47f82e	-0.7811307
11	0xbf246ec4	-0.64231515
12	0x3dbbf128	0.09176856
13	0xbeef283d	-0.46710387
14	0x3f931668	1.1491213
15	0xbef16945	-0.47150627
16	0x3d8717f2	0.06596364
17	0xbf4428e6	-0.76624906
18	0xbfb242b0	-1.3926601
19	0x3e4c8e88	0.19976246
20	0xbf0004a8	-0.50007105
21	0x3f4032f5	0.75077754
22	0x3f6150f2	0.8801414
23	0x3f574f9e	0.8410586
24	0x3ee1dbd2	0.44113022
25	0xbeda2f20	-0.4261408
26	0x3f249e50	0.64304066
27	0xbd1ba25a	-0.037996627
28	0xbec2a9d4	-0.38020194
29	0xbf0882f7	-0.53324836
30	0xbf036046	-0.51318777
31	0x3d962902	0.0733204

module.net_sm.layer1.0.bn2.running_var f4 [32]
0	0x4067fd8a	3.6248498
1	0x3f785fad	0.9702099
2	0x3fef62d8	1.870204
3	0x3f77f06a	0.9685122
4	0x3f4e2313	0.8052227
5	0x400c0021	2.1875079
6	0x3fb48635	1.4103457
7	0x4001bc74	2.0271273
8	0x40000862	2.0005116
9	0x3f27d75d	0.65562993
10	0x40284279	2.6290572
11	0x4021d27c	2.528472
12	0x3f7d5574	0.98958516
13	0x3f912af6	1.1341236
14	0x4037af5a	2.8700776
15	0x3f9e4e59	1.236766
16	0x4034061a	2.8128724
17	0x3fe48da4	1.7855725
18	0x3f4ef681	0.80844885
19	0x3f5a8fbc	0.8537557
20	0x3fb3278c	1.3996444
21	0x3fbd418d	1.478563
22	0x3ff55c44	1.9168782
23	0x3fdfe04d	1.7490326
24	0x3f4389d4	0.76382184
25	0x40181b75	2.3766758
26	0x3f247782	0.64244854
27	0x3f33d60e	0.70248497
28	0x3fd41621	1.6569253
29	0x3f3a0f2b	0.72679394
30	0x3ffd1197	1.9770993
31	0x3fa32680	1.2746124

module.net_sm.layer2.0.conv1.weight f4 [32, 32, 3, 3, 3]
0	0xbc689d63	-0.01419768
1	0xbd443e0d	-0.04791074
2	0x3c9acbba	0.018895973
3	0xbd4507b3	-0.048103046
4	0x3d5236cf	0.0513218
5	0x3c94b872	0.018154357
6	0x3cc72f61	0.024314584
7	0xbc28623b	-0.010277326
8	0x3de54e7f	0.111966126
9	0x3d78f3dc	0.060779437
10	0xbcb36d96	-0.02190284
11	0x3bc501c5	0.006012174
12	0xbbe3bdda	-0.0069501223
13	0xbc0a9483	-0.0084582595
14	0xbbf3d3ca	-0.0074410187
15	0xbb9af756	-0.004729192
16	0xbd85a537	-0.06525653
17	0x3d0484b3	0.032353114
18	0xbdd95add	-0.10613034
19	0x3d0e7a7a	0.03478477
20	0xbb4072c2	-0.0029365276
21	0x3bb327e4	0.005467402
22	0xbc06b7e4	-0.008222554
23	0xbd18370a	-0.037161864
24	0x3ab8af75	0.0014090376
25	0xbcafcbb9	-0.021459447
26	0xbce84a57	-0.02835576
27	0xbd8f5412	-0.06998457
28	0x3ccffc92	0.02538899
29	0x3d53df51	0.051726643
30	0x3d5e968d	0.054342795
31	0x3c07f984	0.008299235
32	0xbd910e63	-0.07082822
33	0x3c5f7a11	0.013639943
34	0xbd93c473	-0.07215204
35	0xbc8a54fd	-0.016886229
36	0x3dedbc4d	0.11608181
37	0x3d6697b4	0.05629702
38	0xbc8d8cc3	-0.017279034
39	0x3d4d203a	0.05007956
40	0xbd240c9f	-0.0400511
41	0x3cf48ede	0.02985328
42	0xbcfba4f0	-0.030718297
43	0x3d692495	0.056919653
44	0x3d942912	0.07234396
45	0x3c1bb8a3	0.00950447
46	0x3d86ab3d	0.0657563
47	0x3cb78389	0.022401588
48	0x3c7bc768	0.015367366
49	0x3cbf5141	0.023354175
50	0x3d968864	0.07350233
51	0xbd39474f	-0.04523402
52	0xbc0b4742	-0.008500876
53	0x3d3ce49b	0.046116453
54	0xbd3524e6	-0.044224642
55	0xbc4c85bc	-0.012483057
56	0x3d1c8b3f	0.038218733
57	0x3d07ee53	0.033186268
58	0xbd3d3e35	-0.046201903
59	0x3d26a02d	0.0406801
60	0xbddc85a8	-0.107676804
61	0x3d86dc64	0.06585005
62	0x3b057b7e	0.0020367797
63	0x3d141446	0.036152147
64	0x3ab41fab	0.0013742348
65	0x3dfc74af	0.12326943
66	0x3c876889	0.016529338
67	0x3c87301b	0.01650243
68	0xbb4d501b	-0.0031328264
69	0x3d09b0d0	0.033615887
70	0x3bde7222	0.006788508
71	0xba92f7fa	-0.0011212819
72	0xbce4768c	-0.027888559
73	0x3d163532	0.036671825
74	0x3bf375ba	0.0074298056
75	0xbd788416	-0.060672842
76	0xbcc0dbaf	-0.023542253
77	0x3d1799ab	0.037011784
78	0x3d0b7e63	0.03405608
79	0xbd43bd7f	-0.04778814
80	0x3c02ac91	0.007975713
81	0x3d1af6d4	0.03783305
82	0x3d038487	0.03210881
83	0xbd256751	-0.040381733
84	0x3da9866b	0.08277591
85	0xbd8bbdd7	-0.068233185
86	0xbc8f3adc	-0.017484121
87	0x3baa21a0	0.0051919967
88	0x3c38936b	0.011265616
89	0x3b937b4c	0.004500782
90	0xbc2cad22	-0.010539325
91	0xbc8b8ab5	-0.017033914
92	0x3cc656e1	0.024211349
93	0xbbf8b475	-0.0075898715
94	0xbd9cd463	-0.07657697
95	0xbd5cbb9b	-0.053889852
96	0x3d03aa55	0.032144863
97	0x3d13b551	0.03606159
98	0xbd23626d	-0.039888788
99	0xbcb964a5	-0.022630999
100	0x3d0bc1ca	0.03412036
101	0xbd133cc2	-0.035946615
102	0x3c9168f7	0.017750246
103	0x3d3a7187	0.045518424
104	0xbd943fc0	-0.07238722
105	0xbd566847	-0.05234554
106	0xbcf1723a	-0.029473413
107	0xbd9a414a	-0.07531984
108	0x3cff8482	0.031191114
109	0x3c84f6cd	0.016230965
110	0x3cd772e5	0.026299903
111	0xbc9a8ac0	-0.01886499
112	0xbd5f2d0b	-0.054486316
113	0x3c002cef	0.007823213
114	0x3c6cfbcf	0.014464333
115	0xbc7bb2a8	-0.015362419
116	0xbd25cb17	-0.040476885
117	0x3cb41b46	0.021985661
118	0x3d4dca6f	0.050241884
119	0x3d888327	0.0666564
120	0x3d4952e1	0.049151305
121	0xbcc0bbdd	-0.02352708
122	0xbc8c00f0	-0.01709029
123	0xbd9b0959	-0.07570142
124	0x3d63d343	0.055621397
125	0xbd0ca36d	-0.034335542
126	0x3ccfdac1	0.025372865
127	0x3bcc3ab8	0.0062325858
128	0x3c4b6300	0.01241374
129	0xbce7e84b	-0.028309008
130	0xbbf63226	-0.0075133024
131	0x3d11e6e8	0.0356206
132	0xbd094b68	-0.03351918
133	0xbdb13720	-0.086530924
134	0x3cfd1467	0.030893518
135	0x3d18bb01	0.037287716
136	0xbd78733d	-0.060656775
137	0xbca51e07	-0.02015592
138	0xbc9826de	-0.01857322
139	0xbd5a3e7b	-0.053282242
140	0xbd9cba6a	-0.07652743
141	0x3d2e1a09	0.042505298
142	0xbc0af2a2	-0.0084807
143	0x3b01fa0a	0.0019832873
144	0xbc3f8bf1	-0.0116910795
145	0xbe10870b	-0.14114015
146	0xbd936c0e	-0.07198344
147	0xbdaf52ec	-0.08560738
148	0xbc6228cd	-0.013803673
149	0xbdbabf88	-0.09118563
150	0xbc2930ee	-0.010326607
151	0xbd27cf8a	-0.04096941
152	0x3d39566a	0.045248426
153	0xbd4df2fa	-0.05028055
154	0xbd0352d5	-0.032061417
155	0x3d4434c5	0.047901887
156	0x3d0d367a	0.03447578
157	0x3d04d4c6	0.03242948
158	0x3d52197c	0.051293835
159	0x3b6e6509	0.003637614
160	0xbd709e91	-0.05874497
161	0x3b4840ee	0.003055628
162	0xbd645728	-0.05574718
163	0xbd203a52	-0.03911812
164	0xbc6673b2	-0.01406567
165	0x3c051821	0.008123429
166	0x3c1fd55d	0.00975546
167	0xbd6e56c2	-0.058188207
168	0x3c8f79c9	0.017514126
169	0x3d45e05c	0.04830967
170	0xbbf24830	-0.0073938593
171	0xbc60d3a6	-0.013722336
172	0xbd1211df	-0.035661574
173	0x3b76f181	0.0037680569
174	0xbc74a637	-0.014932207
175	0x3daae84c	0.08345088
176	0xbc795dbb	-0.015220101
177	0x3d394d58	0.045239776
178	0xbd877022	-0.066131845
179	0x3cc25603	0.023722654
180	0x3c0074c7	0.007840342
181	0xbcd6e8d8	-0.026234075
182	0x3d3b3fdc	0.045715198
183	0x3c8bce15	0.017066041
184	0x3cd792b9	0.02631508
185	0x3da07afa	0.07835956
186	0xbc195c34	-0.009360362
187	0xbb4f95e6	-0.003167504
188	0xbd09be5f	-0.033628818
189	0x3c8d1fa6	0.017227005
190	0x3c5935b5	0.013257434
191	0x3c30cabb	0.010790522
192	0x3ccba6e8	0.02485986
193	0xbcb7f15f	-0.022453962
194	0x3cc7f49c	0.024408631
195	0x3d34e09a	0.04415951
196	0x3d17593c	0.036950335
197	0x3cc74534	0.02432499
198	0x3da82f05	0.08212093
199	0xbc157b16	-0.009123584
200	0x3d1e4601	0.03864098
201	0xbc28f665	-0.010312651
202	0xbde2a23d	-0.11066101
203	0xbcca7f58	-0.024718925
204	0xbca11b37	-0.019666297
205	0xbc798c60	-0.015231222
206	0xbd326200	-0.04355049
207	0x3cbe7d7f	0.0232532
208	0x39ee91a1	0.000455034
209	0x3d7f9a1c	0.06240283
210	0x3d17fa7f	0.037104126
211	0xbd585f94	-0.052825525
212	0x3d2337e2	0.039848216
213	0xbbb3f41d	-0.005491747
214	0x3d24d204	0.04023935
215	0x3ceab3fd	0.028650278
216	0x3dadf09f	0.084931605
217	0x3bd02ec4	0.006353231
218	0xbc2fb734	-0.010724831
219	0x3cc7bfed	0.02438351
220	0xbd878f67	-0.06619149
221	0x3d7165ea	0.058935083
222	0x3d519748	0.051169664
223	0x3a000965	0.00048842124
224	0xbc006609	-0.007836827
225	0x3d2d2f7c	0.042281613
226	0xbb48ce98	-0.0030640718
227	0x3d1d7723	0.038443696
228	0xbd5705d0	-0.052495778
229	0xbd0face2	-0.035076983
230	0xbc95efde	-0.018302854
231	0x3d105214	0.035234526
232	0xbd2bf924	-0.041985646
233	0xb74108a3	-1.1505707e-05
234	0x3c39331c	0.011303689
235	0xbc28fdab	-0.010314385
236	0xbc9257ca	-0.017864127
237	0x3d004f28	0.03132549
238	0xbca39cf0	-0.019972295
239	0x3c572c7b	0.013133164
240	0xbb1e76c6	-0.0024179681
241	0xbd47cd1f	-0.048779603
242	0xbd187655	-0.037222225
243	0x3d9f1beb	0.07768997
244	0x3d6bb099	0.057541464
245	0x3d526aca	0.051371373
246	0xbd3d2395	-0.04617651
247	0x3d441063	0.04786719
248	0xbbaed4c0	-0.0053354204
249	0x3d55dbed	0.05221169
250	0x3d6e6893	0.0582052
251	0xbd70efa5	-0.058822293
252	0xbc60aa63	-0.013712498
253	0xbce9d968	-0.02854605
254	0x3e039269	0.1284882
255	0x3d822c33	0.063560866

module.net_sm.layer2.0.bn1.weight f4 [32]
0	0x3f6c390c	0.92274547
1	0x3f630274	0.8867562
2	0x3f66e9bc	0.902004
3	0x3f657c99	0.89643246
4	0x3f6b36c6	0.9188045
5	0x3f690339	0.9102054
6	0x3f6a81b7	0.9160418
7	0x3f6d85ea	0.9278246
8	0x3f666118	0.89991903
9	0x3f6d695d	0.92738897
10	0x3f6aff78	0.91796064
11	0x3f668b9a	0.90056765
12	0x3f6725f4	0.90292287
13	0x3f5d2f8b	0.8640067
14	0x3f6a9b0b	0.91642827
15	0x3f698ffb	0.9123532
16	0x3f6ba01b	0.92041177
17	0x3f69fde6	0.91403043
18	0x3f697f4f	0.9120988
19	0x3f6dd75b	0.9290673
20	0x3f6344ed	0.8877705
21	0x3f69fc7c	0.91400886
22	0x3f6b1562	0.918295
23	0x3f6f4be8	0.934752
24	0x3f691633	0.910495
25	0x3f68ce66	0.9093994
26	0x3f679422	0.9046041
27	0x3f6c8f79	0.9240642
28	0x3f6cb395	0.9246152
29	0x3f67ed9b	0.9059693
30	0x3f69d36d	0.91338235
31	0x3f67de9a	0.9057404

module.net_sm.layer2.0.bn1.bias f4 [32]
0	0xbbce5db4	-0.0062977914
1	0xbb799d4f	-0.0038088148
2	0xbbf45f8f	-0.0074576805
3	0xbc08dbf1	-0.008353219
4	0xbc6a1a81	-0.014288546
5	0x3b5580f7	0.003257809
6	0xbce0d56b	-0.027445516
7	0xbb874800	-0.004128456
8	0xbd04b503	-0.03239919
9	0xbc54b2df	-0.012982099
10	0xbc85b46f	-0.016321389
11	0xbbf57adc	-0.0074914526
12	0xbbcf093f	-0.006318241
13	0xbc8ebb4b	-0.017423293
14	0x3c1fe4b1	0.009759114
15	0x3bc9f14f	0.0061627994
16	0x39cc1e12	0.00038932316
17	0x3ca7df98	0.02049236
18	0xb994675e	-0.00028305774
19	0x3b9fac54	0.004872838
20	0xbcf08c47	-0.029363764
21	0xbbe56fd0	-0.0070018545
22	0x3bce53a2	0.006296591
23	0x3c188093	0.009307998
24	0x3beb34d7	0.00717793
25	0xbcd7c235	-0.026337722
26	0xbbaa7475	-0.005201871
27	0x3c6de7d1	0.014520601
28	0x3ca1b07b	0.019737473
29	0xbc8e4609	-0.01736738
30	0x3b078b71	0.0020682479
31	0xbcd80c06	-0.02637292

module.net_sm.layer2.0.bn1.running_mean f4 [32]
0	0xbf5fd71e	-0.8743762
1	0x3e1846ff	0.14870833
2	0xc0471beb	-3.111079
3	0x400b262b	2.1742046
4	0xc0066af3	-2.1002777
5	0x3f83e979	1.0305625
6	0x3dd986cb	0.10621413
7	0x3fdab74a	1.7087185
8	0x3fecedf4	1.8510118
9	0xbd8f2524	-0.06989506
10	0x3fea0fbf	1.8286055
11	0xbdd6847b	-0.104744874
12	0xbf89bd9c	-1.0760989
13	0x3fc43525	1.5328718
14	0xbf4d0217	-0.80081314
15	0xc037f3bd	-2.8742516
16	0xbfbe6de0	-1.4877281
17	0xbf0b7d85	-0.544884
18	0xc02da9d3	-2.7134902
19	0xbf43565c	-0.7630365
20	0xc002687c	-2.0376272
21	0x3f937a7a	1.1521752
22	0xc00b93d9	-2.180899
23	0x3f2c1b51	0.6722918
24	0xbfc9b567	-1.5758485
25	0x3f084069	0.5322328
26	0xc04e9415	-3.2277882
27	0xbf3e193a	-0.7425724
28	0xbea33844	-0.31878865
29	0x4053ac37	3.3073862
30	0xbfc387ac	-1.5275779
31	0xbfd4e2db	-1.6631731

module.net_sm.layer2.0.bn1.running_var f4 [32]
0	0x40be4034	5.9453373
1	0x40447671	3.069729
2	0x40d2a7e2	6.5829935
3	0x40cd74bb	6.4204993
4	0x40959d6f	4.675468
5	0x3fdf9570	1.746748
6	0x40a12b54	5.036539
7	0x408ffad7	4.49937
8	0x401e98a1	2.4780657
9	0x408de00e	4.4336004
10	0x4070891a	3.758368
11	0x3ffaec66	1.9603393
12	0x401cd278	2.450346
13	0x40d2f099	6.59187
14	0x404f7a71	3.2418482
15	0x40fece1a	7.962659
16	0x4072aa16	3.7916312
17	0x403c0593	2.9378402
18	0x4093267e	4.5984488
19	0x40b2b0cd	5.584082
20	0x40c48090	6.1406937
21	0x40409210	3.008915
22	0x40a8d713	5.276254
23	0x40400ef8	3.0009136
24	0x40768c00	3.852295
25	0x408f6fc8	4.482395
26	0x40f2ffc7	7.593723
27	0x40bea81c	5.958021
28	0x4029e98d	2.6548798
29	0x40b54238	5.6643333
30	0x40258ca3	2.5867088
31	0x40b8b080	5.7715454

module.net_sm.layer2.0.conv2.weight f4 [32, 32, 3, 3, 3]
0	0xbd21f9f5	-0.03954502
1	0xbae9e6e3	-0.0017845299
2	0x3dc78fc9	0.09744222
3	0x3be15afc	0.0068773013
4	0x3dc13560	0.094340086
5	0xbc908027	-0.017639233
6	0x3c3a8c15	0.011385937
7	0x3d2c52ca	0.04207114
8	0x3cda0b24	0.02661664
9	0x3d4d3f53	0.05010922
10	0xbcf5ed28	-0.030020311
11	0x3c997ea6	0.018737148
12	0xbd0384ea	-0.03210918
13	0xbc227836	-0.009916356
14	0x3d5af36c	0.0534548
15	0x3b46e172	0.0030346778
16	0xba5c96fa	-0.0008414831
17	0xbb7139eb	-0.0036808203
18	0xbc90411b	-0.01760917
19	0xbd1eebfe	-0.03879928
20	0xba3e342d	-0.00072556996
21	0xbbefa863	-0.0073137744
22	0x3cab002e	0.02087411
23	0xbd1c8b07	-0.038218524
24	0x3daabb42	0.08336498
25	0x3d1fc1f6	0.039003335
26	0x3d0f7f71	0.035033647
27	0x3d40081d	0.046882737
28	0xbd7cdc57	-0.06173357
29	0xbd0694bd	-0.03285669
30	0x3b1c08ae	0.0023808884
31	0xbd11e6e4	-0.035620585
32	0x3cf09660	0.02936858
33	0xbbc3e30a	-0.005977993
34	0x3b1f504f	0.0024309342
35	0xbd19f4d4	-0.037587002
36	0x3d29c07c	0.041443333
37	0xbceb8972	-0.028752062
38	0xbc43a3fe	-0.011940954
39	0xbc98a92a	-0.018635351
40	0x3d16b75f	0.03679597
41	0x3d412286	0.047152065
42	0xbd3e98bb	-0.046532374
43	0x3c2b81ef	0.01046799
44	0xbd8f02af	-0.06982934
45	0x3d01d37c	0.031695828
46	0xbcaa6f04	-0.02080489
47	0xbcebb43b	-0.028772464
48	0xbd05cebb	-0.032667857
49	0x3cafef37	0.021476371
50	0x3ddbe9b7	0.10737937
51	0xbc17794a	-0.009245226
52	0x3d49f35b	0.049304347
53	0xbd0f5ed6	-0.035002552
54	0x3b72276b	0.0036949764
55	0xbd40c08a	-0.04705862
56	0xbd69105f	-0.05690038
57	0x3ca99b4a	0.02070393
58	0xbcf92a54	-0.030415691
59	0xbcb2ba13	-0.021817243
60	0x3b035c65	0.0020044085
61	0xbd66cf0f	-0.05634981
62	0x3d0b8f31	0.034072105
63	0x3cc8d26b	0.024514398
64	0xbda9f8c5	-0.08299402
65	0xbda12dde	-0.078700766
66	0xbdb59293	-0.088658474
67	0x3ca94e94	0.020667352
68	0x3d015370	0.031573713
69	0x3c1fc7e1	0.009752245
70	0xbd8184e7	-0.06324177
71	0xbc10878f	-0.008821382
72	0xbbdc6ace	-0.0067265993
73	0x3d2622aa	0.040560402
74	0xbcfca22d	-0.03083905
75	0xbc82b137	-0.015953643
76	0x3da15e0b	0.078792654
77	0xbc3a29a2	-0.011362465
78	0x3cc18c53	0.023626482
79	0x3c45ffc6	0.012084907
80	0x3c5a1bd1	0.013312296
81	0x3ca9c262	0.020722572
82	0xbd8bd237	-0.06827205
83	0x3cb8e47e	0.022569891
84	0xbd940bde	-0.07228826
85	0xbcfa9574	-0.030588843
86	0xbdf2ec95	-0.11861531
87	0x3c0522f2	0.008126007
88	0xbc6b8145	-0.014374082
89	0x3c66d06b	0.014087777
90	0x3c9a6c34	0.018850423
91	0xbd0ef731	-0.03490371
92	0x3d8850e9	0.066560574
93	0x3b587ddc	0.0033034002
94	0x3d5fa485	0.054600257
95	0xbd0a342b	-0.033741158
96	0x3d427c06	0.04748156
97	0xbc17c16e	-0.009262426
98	0x3d74ba0a	0.059747733
99	0x3d5b611b	0.053559404
100	0x3cc28d08	0.02374889
101	0x3d6cd197	0.057817068
102	0xbc18fba1	-0.009337337
103	0x3d84bb6b	0.0648106
104	0x3b9ac76c	0.00472348
105	0x3d93002a	0.07177766
106	0x3c762e47	0.015025682
107	0x3d7d3e5c	0.06182705
108	0x3c757ebf	0.014983832
109	0xbd2a2538	-0.0415394
110	0xbca8fd30	-0.020628542
111	0xbdbe7eba	-0.09301515
112	0x3cf8bdb2	0.030363891
113	0x3b2529cd	0.0025201917
114	0x3d136647	0.03598621
115	0xbd211752	-0.03932888
116	0xbc1f43ce	-0.009720756
117	0xbca4fce2	-0.020140115
118	0xbc6253f3	-0.01381396
119	0x3d46f094	0.048569277
120	0xbb289b5c	-0.0025727367
121	0x3db97737	0.090559416
122	0x3d98f3d0	0.074683785
123	0xbcb22f58	-0.02175109
124	0xbd0754d7	-0.033039894
125	0xbdbea6dd	-0.093091704
126	0x3d45be24	0.048277035
127	0xbd84a8a4	-0.06477478
128	0x3d0c59f8	0.03426549
129	0x3b1ff0e6	0.0024405061
130	0xbd86928a	-0.06570919
131	0x3d87b947	0.06627136
132	0x3dedba89	0.116078444
133	0xbc9bde66	-0.019026946
134	0x3ce02d2b	0.027365288
135	0x3d09ed4b	0.033673566
136	0xbba7a830	-0.005116485
137	0xbd2cac04	-0.042156234
138	0xbc8e9e27	-0.017409397
139	0x3d1dd112	0.038529463
140	0x3d9e5ed9	0.077329345
141	0xbca483b1	-0.020082327
142	0xbbd4a648	-0.006489549
143	0x3c2ad3f6	0.010426512
144	0x3cffbc5e	0.03121775
145	0xbca4074f	-0.020023016
146	0xbd321094	-0.04347284
147	0x3bcc5f3c	0.0062369388
148	0xbd2994e8	-0.041401774
149	0x3d11990f	0.03554636
150	0xbdb1cb22	-0.08681323
151	0xbdb61c8e	-0.08892165
152	0x3d1db4ec	0.03850262
153	0xbcf4e48e	-0.02989414
154	0xbd001acc	-0.031275555
155	0x3dba46bf	0.09095525
156	0xbb63b6ef	-0.0034746488
157	0x3d163a7f	0.03667688
158	0xbbf7e915	-0.0075656273
159	0x3e09e154	0.13464862
160	0xbd46b4bf	-0.048512217
161	0x3cae8d64	0.021307655
162	0xbd157bb5	-0.03649493
163	0xbc79b9db	-0.015242065
164	0x3d4f1587	0.05055764
165	0x3d1ecbf2	0.038768716
166	0xbc9ac641	-0.018893363
167	0x3bf525d1	0.0074813147
168	0x3bc39dc0	0.005969733
169	0x3d4ad837	0.049522605
170	0xbd5a3bd8	-0.053279728
171	0xbb587f4c	-0.003303486
172	0xbd6c64e2	-0.057713397
173	0xbb6e3ff4	-0.0036354037
174	0x3c1dfaa5	0.009642278
175	0xbb109701	-0.0022062662
176	0x3c65e459	0.014031493
177	0xbd035b5c	-0.03206955
178	0xbc814e62	-0.015784446
179	0xbc6535da	-0.01398989
180	0xbd451702	-0.048117645
181	0xbd9697ed	-0.07353196
182	0x3c9a6306	0.018846046
183	0x3c09f828	0.0084209815
184	0x3cdb5ffd	0.02677917
185	0x3e14e6c6	0.14541158
186	0xbcb73077	-0.022361977
187	0xbd47e0f7	-0.048798528
188	0x3c966bbb	0.018361917
189	0xbd19305e	-0.037399642
190	0xbbfd7324	-0.007734673
191	0xbd3fbb03	-0.046809208
192	0x3cf745b5	0.030184606
193	0x3da95f33	0.08270111
194	0x3cf434f4	0.029810406
195	0x3b027a67	0.0019909383
196	0x3db708a5	0.08937196
197	0xbdceb8fc	-0.10093877
198	0x3c30a9d5	0.010782679
199	0xbc62fc90	-0.013854161
200	0xbcf31e65	-0.02967758
201	0xbd913c99	-0.07091636
202	0x3c9cbe73	0.019133782
203	0xbd8a07a3	-0.06739738
204	0xbdf250a6	-0.11831789
205	0x3d154395	0.036441404
206	0xbc829045	-0.015937934
207	0xbd646c89	-0.05576757
208	0x3ce4df34	0.027938463
209	0xbd126895	-0.03574427
210	0xbd735d41	-0.059415106
211	0x3d0da3bb	0.034579974
212	0x3d392de4	0.04520978
213	0xbc8f3789	-0.017482536
214	0x3dc0000b	0.09375008
215	0x3cfa451a	0.030550528
216	0x3d2605a0	0.04053271
217	0xbc4e6e7f	-0.0125995865
218	0x3c2b270d	0.010446322
219	0xbdaf6e1a	-0.08565922
220	0xbc9f745a	-0.01946466
221	0xbc442563	-0.011971804
222	0xbceb3ed9	-0.028716492
223	0xbd91b073	-0.07113733
224	0x3b4528fc	0.0030084243
225	0x3c322293	0.010872501
226	0x3cf7e384	0.030259855
227	0x3c4c0179	0.012451523
228	0x3c0486fd	0.008088824
229	0x3d86882e	0.06568943
230	0xbbd96ce5	-0.0066352957
231	0x3b850126	0.004058975
232	0x3d08f7e8	0.033439547
233	0x3ccb325e	0.02480429
234	0xbd0d2e82	-0.03446818
235	0x3c5d4bd4	0.013506848
236	0xbd1b6f9a	-0.03794823
237	0x3d7285d1	0.05920965
238	0x3c6aa207	0.014320857
239	0x3cdaefba	0.026725639
240	0x3d0b06a3	0.033941876
241	0xbdaeee62	-0.08541562
242	0xbdb84b42	-0.08998729
243	0xbcccb32c	-0.02498778
244	0xbcbbbdfb	-0.022917738
245	0xbd15eb35	-0.036601264
246	0x3c2e4573	0.010636675
247	0xbd89d619	-0.06730289
248	0x3cd17fd5	0.02557365
249	0x3d9b5741	0.07585002
250	0xbd18d392	-0.037311144
251	0x3d2717a9	0.04079405
252	0x3c7b1d68	0.015326835
253	0x3d049742	0.032370813
254	0xbcbe6493	-0.023241317
255	0x3d81629f	0.063176386

module.net_sm.layer2.0.bn2.weight f4 [32]
0	0x3f5aa462	0.8540708
1	0x3f6ac68e	0.9170922
2	0x3f64e4fe	0.89411914
3	0x3f62836a	0.8848177
4	0x3f61b371	0.8816443
5	0x3f6f7359	0.9353538
6	0x3f6b2f1e	0.9186877
7	0x3f6d2a9c	0.9264314
8	0x3f61fc54	0.8827565
9	0x3f660d69	0.8986421
10	0x3f5e45e4	0.86825395
11	0x3f5e15d2	0.86752045
12	0x3f69ed8b	0.91378087
13	0x3f66766d	0.90024453
14	0x3f7061ec	0.93899417
15	0x3f654f4b	0.89574116
16	0x3f6f0784	0.9337084
17	0x3f65e5a7	0.89803547
18	0x3f6aaf85	0.9167407
19	0x3f69764d	0.9119614
20	0x3f68c69e	0.90928066
21	0x3f6364c8	0.88825655
22	0x3f664a4c	0.8995712
23	0x3f5fd887	0.8743977
24	0x3f683768	0.90709543
25	0x3f6c87f2	0.92394936
26	0x3f6dc7cd	0.92882997
27	0x3f5fe4b1	0.8745833
28	0x3f680072	0.9062568
29	0x3f6d7be7	0.92767185
30	0x3f6b8437	0.9199862
31	0x3f68f639	0.91000706

module.net_sm.layer2.0.bn2.bias f4 [32]
0	0xbccaa980	-0.024739027
1	0x3a7714ae	0.0009425384
2	0xbbc205e8	-0.0059211142
3	0xbc0144ed	-0.007889968
4	0xbc23d4ee	-0.009999497
5	0x3c2c1b1f	0.010504513
6	0xbcada788	-0.02119805
7	0xbc1d5270	-0.009602174
8	0x3a84493d	0.0010092627
9	0xbd053c2b	-0.032528084
10	0xbcc5c131	-0.024139972
11	0xbcf3acff	-0.029745577
12	0xbc31075f	-0.01080498
13	0xbae7f046	-0.0017695508
14	0xbc1816e3	-0.0092828
15	0xbc6e8845	-0.014558856
16	0x3b918737	0.0044411677
17	0xbc7e3791	-0.015516178
18	0xbcc84fe5	-0.02445216
19	0x3a90e035	0.0011053147
20	0xbb1b0341	-0.0023653063
21	0xbc651e2c	-0.013984244
22	0x3b370099	0.002792394
23	0xbd42ce76	-0.047560178
24	0xbb647970	-0.0034862421
25	0xba45e92e	-0.00075497
26	0x3c2ef4ef	0.010678514
27	0xbccd3b2d	-0.025052631
28	0x3c84f855	0.016231695
29	0x3999a2b6	0.00029303663
30	0xbb605248	-0.003422873
31	0x3aabeb3c	0.001311637

module.net_sm.layer2.0.bn2.running_mean f4 [32]
0	0x3c2ec9ba	0.010668213
1	0xbf5f170e	-0.87144554
2	0xbed6da9d	-0.41963664
3	0xbf230518	-0.6367965
4	0x3f144a18	0.5792556
5	0xbeb699e0	-0.35664272
6	0xbf016180	-0.505394
7	0xbebaa26e	-0.3645205
8	0x3f926a6d	1.1438729
9	0xbf5b74d8	-0.85725164
10	0x3e48626a	0.19568792
11	0x3f1e4066	0.61817014
12	0xbed2a54d	-0.4114174
13	0x3e9e74e1	0.30948547
14	0xbf892b8e	-1.0716417
15	0xbe0c25d4	-0.13686305
16	0x3ef9b0fe	0.48767847
17	0x3df279dd	0.1183965
18	0x3d5840de	0.052796237
19	0xbee3a644	-0.44462788
20	0xbe5119b6	-0.20419964
21	0xbee29187	-0.44251654
22	0xbf2538ee	-0.6453999
23	0x3ed76935	0.42072454
24	0xbf2131e6	-0.62966764
25	0xbecefdeb	-0.404281
26	0x3cffc3a8	0.031221226
27	0x3e583c30	0.2111671
28	0xbdc1a585	-0.094553985
29	0xbf48d77a	-0.7845379
30	0xbf676d8a	-0.9040152
31	0xbf07933b	-0.5295903
