model/model_20200914183005/model_final_std_4_0300_sm.pth (torch_old, 960817 bytes, 59 tensors)

module.net_sm.conv1.weight f4 [32, 1, 7, 7, 7]
0	0x3dcc5197	0.099764995
1	0x3db2739b	0.08713456
2	0x3d21ed20	0.03953278
3	0xbb27ff24	-0.0025634253
4	0x3d17b086	0.03703358
5	0x3d20a349	0.03921822
6	0x3b44eec1	0.0030049535
7	0x3de07f27	0.109617524
8	0x3db20236	0.08691828
9	0x3d2998c7	0.041405465
10	0xbc02cbb1	-0.007983134
11	0x3c6576be	0.014005361
12	0x3bb0d073	0.005395943
13	0xbbb63815	-0.0055608847
14	0x3d0b78e1	0.034050826
15	0x3bc669aa	0.0060550766
16	0x3bf1e178	0.0073816143
17	0x3a682e15	0.00088569644
18	0xbb5214e8	-0.0032055918
19	0x3c024dca	0.007953117
20	0xbd2485d2	-0.040166683
21	0xbc37e791	-0.011224643
22	0xbd25bef9	-0.04046533
23	0xbcc60c25	-0.024175713
24	0xbb94bade	-0.004538878
25	0xbc4b228e	-0.012398375
26	0x3c86a973	0.016438222
27	0xbd2ee40c	-0.04269795
28	0xbc8e0e6d	-0.017340863
29	0xbcf44cc7	-0.029821767
30	0x3aa5e8a5	0.0012657834
31	0x3b270a61	0.0025488364
32	0xba913c02	-0.0011080506
33	0x3ca6084f	0.020267634
34	0xbca9df8a	-0.020736475
35	0xbcd15d01	-0.025557043
36	0x3c9811ca	0.01856317
37	0xbb882286	-0.004154506
38	0xbc810238	-0.015748128
39	0x3c8e48d4	0.017368712
40	0x3c6a515e	0.014301626
41	0xbd09abe8	-0.03361121
42	0x3c90cbd2	0.017675314
43	0x3c8f3e8a	0.017485876
44	0x3cae9837	0.021312816
45	0xbcd9d679	-0.026591526
46	0xba870ff8	-0.0010304442
47	0x3d706d9a	0.058698274
48	0x3c983503	0.018579965
49	0x3d09d37f	0.033648964
50	0x3d5c0ae0	0.05372131
51	0x3d19a218	0.0375081
52	0x3d0dc699	0.034613226
53	0x3d82f984	0.063952476
54	0x3d50a307	0.050936725
55	0xbc762421	-0.015023262
56	0x3d06d2d9	0.032915924
57	0x3d3ea8fc	0.046547875
58	0x3c8aa850	0.01692596
59	0x3d10b361	0.03532732
60	0x3cebabc3	0.028768426
61	0x3d099d09	0.033597026
62	0xbb28333b	-0.0025665301
63	0x3d214155	0.039368946
64	0xbc9b4329	-0.018952923
65	0xbc061b9a	-0.008185292
66	0xbbde0083	-0.0067749633
67	0xbba8c9bd	-0.005151002
68	0x3c99bb0c	0.018765949
69	0xbc949dcb	-0.018141648
70	0xbb4e0784	-0.0031437585
71	0xbc943d5b	-0.018095663
72	0xbd3f97b2	-0.046775527
73	0xbcb52b26	-0.022115301
74	0x3a8cf111	0.0010752996
75	0x3c9f0b41	0.019414546
76	0xbd24d768	-0.04024449
77	0xbc42d827	-0.011892355
78	0xbc8f4d73	-0.017492985
79	0x3b84a0b8	0.0040474795
80	0xbb851397	-0.004061173
81	0x3b47079d	0.0030369528
82	0xbae4ab6a	-0.0017446105
83	0xbd1bb793	-0.038016867
84	0x3bb395c4	0.0054805
85	0xbb8b3e66	-0.004249382
86	0x3c6d62ee	0.014488919
87	0x3c3b704e	0.01144035
88	0x3c79f68d	0.015256536
89	0x3d2146df	0.03937423
90	0xbc9a90a8	-0.018867806
91	0x3c32f2db	0.010922159
92	0x3b98bf20	0.0046614558
93	0x3cbfd623	0.023417538
94	0x3b7949ad	0.00380383
95	0x3c76e349	0.015068837
96	0x3d4b827a	0.04968498
97	0x3ca3fa56	0.02001683
98	0xbb956a33	-0.004559779
99	0xbbab43ae	-0.005226574
100	0x3c4696dd	0.01212093
101	0x3b69eee4	0.0035695368
102	0x3d7a774f	0.061148938
103	0x3a320182	0.0006790386
104	0xbbc3fcfc	-0.005981086
105	0xbb485c17	-0.0030572468
106	0xbcd21b0a	-0.025647659
107	0xbc66f025	-0.014095341
108	0x38133745	3.5099005e-05
109	0x3c96ab98	0.01839237
110	0x3c9fd04d	0.019508505
111	0x3c86cbe5	0.016454646
112	0x3cadfdf3	0.021239256
113	0x3acaca2a	0.0015471627
114	0xbcceb42f	-0.025232403
115	0xbc8c11de	-0.017098363
116	0x3c45cf9f	0.0120734265
117	0x3c93e7e6	0.018054914
118	0xbb43f292	-0.0029899222
119	0xbc1c7171	-0.009548531
120	0xbcc4e7e0	-0.024036348
121	0xbd5bdda7	-0.05367818
122	0xbd57c511	-0.05267817
123	0xbc673182	-0.014110925
124	0x3cbf69af	0.023365824
125	0xbcd6a8b6	-0.026203495
126	0xbd19fa0f	-0.03759199
127	0xbd15047e	-0.036381237
128	0xbb5d6d9a	-0.0033787251
129	0xbce45484	-0.027872331
130	0xbceb632e	-0.028733816
131	0x3c458a27	0.012056864
132	0xbcb9b430	-0.022668928
133	0xbc448866	-0.011995411
134	0x3cebded2	0.028792772
135	0x3d21f0bf	0.039536234
136	0x3c3c5532	0.0114949215
137	0xbbc3454d	-0.005959189
138	0x3d691723	0.05690683
139	0xbc230f25	-0.009952341
140	0x3b2b5e12	0.00261486
141	0x3ce41aa9	0.027844744
142	0x3d043a3a	0.03228209
143	0xbb958ebf	-0.004564136
144	0x3c060896	0.008180758
145	0x3d8fb8b2	0.0701765
146	0x3c4c8c8d	0.012484682
147	0x3cbf80ce	0.023376849
148	0x3c9420d8	0.018082067
149	0xbb622611	-0.0034507553
150	0xbc7692b5	-0.015049626
151	0xbcb26d4c	-0.021780632
152	0x3b86b9db	0.004111511
153	0xbc1f0f88	-0.009708293
154	0x3b4e61fb	0.0031491506
155	0x3bc75c38	0.0060839914
156	0x3c8c0dc6	0.017096411
157	0xbc3be803	-0.01146889
158	0xbc12d92c	-0.008962911
159	0xbcb0ac58	-0.021566555
160	0x3ba83765	0.0051335567
161	0x3ca392bf	0.019967435
162	0xbaccb274	-0.0015617148
163	0x3c89bb5f	0.016812978
164	0xbaac6895	-0.0013153726
165	0xbb4eaedc	-0.003153733
166	0xbc0bf34a	-0.008541891
167	0xbce27f06	-0.02764846
168	0x3c4b4a8d	0.012407911
169	0xbbd201d6	-0.0064089103
170	0x3afb096d	0.0019152589
171	0xbcc21bf5	-0.023694972
172	0x39663932	0.00021955816
173	0xbce37fc1	-0.027770879
174	0xbcf38832	-0.029728029
175	0xbd0edb1d	-0.03487693
176	0xbc42d30b	-0.011891137
177	0x3b45dc6d	0.0030191198
178	0x3c349883	0.01102269
179	0x3bd30a4a	0.0064404355
180	0xbb359db5	-0.002771241
181	0xbc5b9509	-0.013402232
182	0xbd698b6d	-0.057017732
183	0xbc05994b	-0.008154224
184	0x3d8777a0	0.066146135
185	0x3c11e759	0.008905255
186	0xbc666826	-0.014062917
187	0x3bb1aafd	0.0054219947
188	0xbd1836ba	-0.037161566
189	0xb98dc6bd	-0.00027041687
190	0x3cb32a1f	0.02187067
191	0x3d8186f8	0.06324571
192	0xbca681ee	-0.020325627
193	0xbd28167c	-0.041037068
194	0x3b7c8a79	0.0038534685
195	0xbcb23106	-0.021751892
196	0x3cc27c56	0.023740929
197	0x3d68be59	0.056822155
198	0x3d583721	0.05278695
199	0xbcfdbadf	-0.030972896
200	0xbd7273f4	-0.059192613
201	0xbc59ec17	-0.013300917
202	0x3c4e239a	0.01258173
203	0xbb817718	-0.0039509647
204	0x3ca6340b	0.020288488
205	0x3c681da2	0.014167221
206	0xbc8308de	-0.01599544
207	0xbbcd8dd0	-0.006273009
208	0xbc7a3f52	-0.015273886
209	0xbc211e64	-0.009833906
210	0x3cd8fea1	0.026488604
211	0xbcaf2cc3	-0.021383649
212	0xbd090eb9	-0.033461306
213	0xbca38327	-0.01996
214	0xbc8f456a	-0.017489154
215	0xbd1d3ab8	-0.038386077
216	0xbcc8c81b	-0.02450948
217	0xb9820ba3	-0.00024804202
218	0x3b253c02	0.002521277
219	0xbca9ae83	-0.020713096
220	0xbb4e10a0	-0.0031443015
221	0x3c78440a	0.0151529405
222	0xbd297530	-0.041371524
223	0xbc9efc13	-0.019407308
224	0xbce95d90	-0.028486997
225	0xbc678a34	-0.014132071
226	0xbc4ac57d	-0.012376186
227	0x3ceab4f2	0.028650735
228	0x3bd12ddb	0.00638364
229	0x3934b18f	0.00017232283
230	0x3c84eb01	0.01622534
231	0xbd062d0e	-0.03275781
232	0xbc47cc71	-0.012194739
233	0x3c9c54af	0.019083349
234	0xbbaab592	-0.005209633
235	0x3a1c7bec	0.00059693935
236	0x3c144dfc	0.009051796
237	0xbcf76808	-0.030200973
238	0xbd21695b	-0.039407115
239	0xbba1f406	-0.00494242
240	0x3ca47a83	0.02007795
241	0x3b9ae0c7	0.0047265026
242	0xbd3181a0	-0.04333651
243	0xbc6651c2	-0.0140575785
244	0xbd20773e	-0.03917622
245	0x3cf75643	0.0301925
246	0x3d94bdbf	0.07262754
247	0x3d8fc5f2	0.07020177
248	0xbc1bb4a2	-0.009503515
249	0xbbdde141	-0.006771237
250	0xbbf2be1e	-0.0074079176
251	0x3bfec9aa	0.007775505
252	0xbc9f22ed	-0.019425834
253	0x3d141a87	0.03615811
254	0x3cb38519	0.021914052
255	0xbd0d89db	-0.034555297

module.net_sm.bn1.weight f4 [32]
0	0x3f70f8e2	0.94129765
1	0x3f61f3de	0.88262737
2	0x3f6f0770	0.93370724
3	0x3f704825	0.93860084
4	0x3f6510d7	0.8947882
5	0x3f6fc32d	0.9365719
6	0x3f6f0b66	0.9337677
7	0x3f6b03ed	0.91802865
8	0x3f68b1a8	0.9089608
9	0x3f6731c1	0.90310293
10	0x3f71d573	0.9446632
11	0x3f5b855a	0.85750353
12	0x3f7e95f6	0.9944757
13	0x3f6764be	0.90388095
14	0x3f6f0bf2	0.933776
15	0x3f864695	1.049029
16	0x3f748af1	0.9552451
17	0x3f703bc2	0.93841183
18	0x3f710230	0.9414396
19	0x3f74a07c	0.9555738
20	0x3f68258f	0.9068231
21	0x3f708cc7	0.9396481
22	0x3f707d46	0.9394115
23	0x3f63abff	0.8893432
24	0x3f733d14	0.9501507
25	0x3f68375e	0.90709484
26	0x3f675e30	0.90378094
27	0x3f72a9ae	0.9479016
28	0x3f66419d	0.8994387
29	0x3f745fc1	0.9545861
30	0x3f6ae8ad	0.91761285
31	0x3f6b5557	0.91927093

module.net_sm.bn1.bias f4 [32]
0	0x3b4cd6cf	0.0031255966
1	0xbc748319	-0.014923834
2	0x3babdccc	0.005244827
3	0x3b750b5c	0.0037390804
4	0x3bb39155	0.0054799714
5	0xbc72066e	-0.014772041
6	0x3c9aaa09	0.018879907
7	0xbbb5d914	-0.0055495594
8	0x3c133466	0.008984661
9	0xbc2f40f7	-0.010696641
10	0x3c157bdd	0.00912377
11	0xbc248df1	-0.010043607
12	0xbc98068f	-0.018557815
13	0x3c0506c1	0.008119286
14	0x3aa4925e	0.0012555828
15	0x3bd848e4	0.006600486
16	0x3c34a2cd	0.011025143
17	0xbd0e30af	-0.034714397
18	0x3c392635	0.011300613
19	0xbb87fd15	-0.004150043
20	0x3b25e005	0.0025310528
21	0x3b9ffcbe	0.004882424
22	0x3bbdaf1a	0.005788696
23	0xbcb544b3	-0.022127485
24	0xbd30b58e	-0.043141894
25	0xbcbd3daf	-0.023100702
26	0xbad5230a	-0.0016261053
27	0xbd1caeb0	-0.038252532
28	0x399ed0f8	0.00030291802
29	0x3ba0423d	0.0048907087
30	0xbc81278f	-0.015765933
31	0x3955bb26	0.00020382981

module.net_sm.bn1.running_mean f4 [32]
0	0x38e38145	0.00010848282
1	0x384e2271	4.9146303e-05
2	0xb8778679	-5.9014626e-05
3	0x38ba9bf5	8.8982204e-05
4	0xb888a6ff	-6.516091e-05
5	0xb844b401	-4.6897683e-05
6	0xb8e5f9b9	-0.000109660854
7	0xb89f0bec	-7.5839314e-05
8	0x38918100	6.938167e-05
9	0xb858470d	-5.1564584e-05
10	0x384d2bfa	4.8916765e-05
11	0xb87807eb	-5.913518e-05
12	0x3840d05f	4.5970428e-05
13	0xb814b4f3	-3.545447e-05
14	0x373571e3	1.0814957e-05
15	0x386e01d7	5.6745335e-05
16	0x36e65773	6.8647146e-06
17	0x388f9799	6.8470086e-05
18	0xb8a9e2bf	-8.100783e-05
19	0x38c91aab	9.589394e-05
20	0x3886ddda	6.430941e-05
21	0x384dc92e	4.9063172e-05
22	0x39267bcf	0.00015877116
23	0xb8e74f6e	-0.00011029733
24	0x386e03b9	5.674709e-05
25	0x37e5e113	2.7403736e-05
26	0xb8682a11	-5.5352288e-05
27	0x38d7c161	0.000102880185
28	0xb8f7c8dd	-0.000118152915
29	0x37a90532	2.014879e-05
30	0x38bf00d8	9.107747e-05
31	0xb8dc12e5	-0.00010493937

module.net_sm.bn1.running_var f4 [32]
0	0x3b8368cf	0.004010297
1	0x3ba169c0	0.0049259365
2	0x3b947b15	0.004531274
3	0x3bcc4f7c	0.006235061
4	0x3bb9b2bd	0.005667059
5	0x3bc019ab	0.005862435
6	0x3bf8500b	0.0075779012
7	0x3beb9db3	0.00719043
8	0x3b8a1c77	0.004214819
9	0x3baf5614	0.0053508375
10	0x3b9b0123	0.00473036
11	0x3b50a8b7	0.0031838843
12	0x3c173f29	0.009231367
13	0x3bdbc17f	0.006706416
14	0x3bd8717d	0.0066053257
15	0x3c27afff	0.010234832
16	0x3bca386a	0.006171276
17	0x3c2901bc	0.010315355
18	0x3ba688fd	0.0050822482
19	0x3be856fa	0.0070904465
20	0x3bc17983	0.005904378
21	0x3bd7d9e5	0.0065872543
22	0x3bbc3d61	0.0057446216
23	0x3baebee6	0.0053328155
24	0x3c47f8d6	0.012205323
25	0x3be3ea24	0.006955402
26	0x3b82cae1	0.00399147
27	0x3c2cf175	0.010555615
28	0x3ba364b1	0.0049863686
29	0x3bd432b9	0.006475773
30	0x3bef7de4	0.0073087085
31	0x3bfb253f	0.007664352

module.net_sm.layer1.0.conv1.weight f4 [32, 32, 3, 3, 3]
0	0x3d30679c	0.04306756
1	0x3c856de0	0.016287744
2	0xbb05a28b	-0.0020391073
3	0x3bc77549	0.0060869795
4	0x3c2b1791	0.01044263
5	0xbd738295	-0.059450705
6	0x3a7d733c	0.00096683553
7	0xbc77a87b	-0.0151158525
8	0x3b6f99d2	0.003656019
9	0x3df09f38	0.117491186
10	0xbc9c3621	-0.01906878
11	0x3d84b665	0.064801015
12	0xbd99c0bc	-0.07507464
13	0xbd4debc2	-0.050273664
14	0x3b6f99cd	0.0036560178
15	0xbd682c28	-0.056682736
16	0xbd8b58e6	-0.068040654
17	0x3d171e33	0.036894035
18	0x3d3382d4	0.04382594
19	0x3d7d4dab	0.061841648
20	0x3dd9120a	0.10599144
21	0xbb0888f1	-0.0020833577
22	0x3ceec3a0	0.029146016
23	0xbb17a138	-0.0023136865
24	0x3da2c57a	0.07947822
25	0x3c32a65d	0.010903922
26	0xbc6251a6	-0.013813412
27	0xbc909ba6	-0.017652344
28	0xbd1bfc8b	-0.03808264
29	0x3d4b22f4	0.04959388
30	0xbbe9ddb1	-0.0071370234
31	0x3d64952d	0.055806328
32	0x3c26d28e	0.010182036
33	0xbb40f353	-0.0029441908
34	0xbd083c35	-0.033260543
35	0xbc895df7	-0.016768439
36	0xbc913701	-0.017726423
37	0x3d3f6f15	0.046736795
38	0x3c9cde2d	0.01914891
39	0xba03b472	-0.0005024142
40	0x3d786a13	0.060648035
41	0xbcd31651	-0.025767477
42	0x3d49c8ca	0.049263753
43	0xbd2aec10	-0.041729033
44	0xbcc1b95a	-0.023647953
45	0x3c3200a1	0.010864408
46	0xbd53ddcf	-0.051725205
47	0xbd576a98	-0.05259189
48	0xbcb0efb7	-0.02159868
49	0xbcefb464	-0.029260822
50	0x3c1c6633	0.009545851
51	0x3da654d6	0.0812165
52	0xbc8c4435	-0.017122367
53	0xbcabf661	-0.020991506
54	0x3d0144af	0.031559642
55	0xbd4ad3d0	-0.049518406
56	0x3c96f299	0.018426226
57	0xbc66ec7f	-0.014094471
58	0x3d8ce2c6	0.06879191
59	0xbd046605	-0.032323856
60	0xbda495d6	-0.080363914
61	0xbc30f503	-0.010800603
62	0xbd766174	-0.060151532
63	0x3d55bb82	0.052180775
64	0x3d5b3051	0.053512875
65	0xbd784255	-0.060610134
66	0xbd759af0	-0.059962213
67	0xbd3ca888	-0.04605916
68	0xbc08f181	-0.00835836
69	0x3c0fbd86	0.008773213
70	0xbd530299	-0.05151615
71	0xbc83ee5e	-0.016104873
72	0x3b0774f7	0.0020669082
73	0xbd9a898b	-0.075457655
74	0x3c0eee91	0.008723871
75	0xbd622cd1	-0.05521852
76	0x3cf1f180	0.029534101
77	0x3cfbf4f0	0.030756444
78	0xbd4204f6	-0.047368012
79	0x3c025876	0.007955661
80	0xbbdade0e	-0.006679303
81	0x3d3bb9e4	0.045831576
82	0x3ba1853f	0.0049292143
83	0xbc8db61d	-0.017298752
84	0xbd3964cb	-0.04526214
85	0x3cb7944c	0.02240958
86	0xbca9e5c5	-0.020739445
87	0xbd083a4d	-0.033258725
88	0x3d823474	0.06357661
89	0x3d439d46	0.04775741
90	0xbcae6c67	-0.021291925
91	0xbd23dad6	-0.04000362
92	0xbd570ad0	-0.052500546
93	0x3cb46d64	0.022024818
94	0xbb1eb9c5	-0.0024219614
95	0x3d7a1a22	0.06106008
96	0x3d56166a	0.05226747
97	0x3d97fd22	0.07421328
98	0x3c797aa3	0.015226993
99	0xbcac434c	-0.021028183
100	0x3c2f9ea6	0.010718977
101	0x3d4c4cee	0.049878053
102	0x3ca767bb	0.020435205
103	0xbca8d2af	-0.020608274
104	0xbd11a8fc	-0.035561547
105	0x3d53e954	0.05173619
106	0x3dcbe2fc	0.09955403
107	0xbd5979cd	-0.053094674
108	0xbda92f51	-0.08260978
109	0x3c392f89	0.011302837
110	0x3b646bb5	0.0034854237
111	0xbca7bad5	-0.02047483
112	0xbd77e821	-0.06052411
113	0x3d6cf42a	0.05785004
114	0xbd69603e	-0.05697655
115	0x3cb3c24b	0.021943232
116	0x3d919632	0.071087256
117	0xbbc7b0d4	-0.0060940776
118	0x3d3fc479	0.04681823
119	0xbd31e378	-0.04342982
120	0xbccd39c2	-0.025051955
121	0xbca3d708	-0.019999996
122	0x3cc76437	0.024339778
123	0x3cf4e8a8	0.029896095
124	0xbbc8cde6	-0.0061280606
125	0x3c4efb23	0.012633118
126	0xbc9d65a9	-0.019213514
127	0x3d0222c4	0.031771436
128	0x3ccab283	0.024743324
129	0x3dc4cbbe	0.09609173
130	0xbc8b3323	-0.016992157
131	0xbd2b4093	-0.04180963
132	0xbd8e8437	-0.06958812
133	0x3c9ba17d	0.018997902
134	0x3c69c5a5	0.014268314
135	0xbdd3c019	-0.10339374
136	0xbd0c09b9	-0.03418896
137	0xbc8f352f	-0.017481415
138	0xbda0ea40	-0.0785718
139	0xbc51f115	-0.012813826
140	0x3daa473f	0.0831437
141	0xbaf646e2	-0.0018789435
142	0xbd2d431b	-0.042300325
143	0xbcc00832	-0.023441408
144	0xbd359a83	-0.044336807
145	0x3d716340	0.058932543
146	0x3bae7ef6	0.0053251935
147	0xbd80c866	-0.06288223
148	0xbbdb1323	-0.006685631
149	0x3da088ab	0.07838567
150	0x3d82fab7	0.06395476
151	0xbd321f50	-0.043486893
152	0xbcbdf771	-0.023189278
153	0x3ca4d5a8	0.02012141
154	0xb9bddd87	-0.0003621394
155	0x3d27cc63	0.040966403
156	0xbd52c5ff	-0.051458355
157	0x3de383a4	0.11109093
158	0xbd19d2e7	-0.037554648
159	0xbd0ded36	-0.03465005
160	0xbc2f897e	-0.010713933
161	0xbaf64047	-0.0018787467
162	0xbd7fd9cf	-0.062463578
163	0x3c559c3e	0.013037739
164	0x3d8b9957	0.06816357
165	0x3d656f5b	0.0560144
166	0xbe012ae6	-0.1261402
167	0x3bed23ab	0.007236918
168	0x3d157b98	0.03649482
169	0xbd8ccb92	-0.068747655
170	0xbc5885d2	-0.013215499
171	0x3d302e2b	0.04301278
172	0x3a688b5d	0.00088708644
173	0xbd328932	-0.04358787
174	0x3c9d0489	0.019167202
175	0xbb356b70	-0.0027682446
176	0x3d8763aa	0.06610806
177	0xbd63d523	-0.055623185
178	0x3ca2d99a	0.019879151
179	0x3d8cbc9c	0.06871912
180	0x3d12dc8b	0.035854857
181	0xbcd244de	-0.025667604
182	0x3cb90e0f	0.022589711
183	0xbd99bcbc	-0.07506701
184	0xbd02c2f6	-0.03192421
185	0x3b80134a	0.0039085494
186	0x3d200e17	0.039075937
187	0x3d9e856e	0.077402934
188	0x3d8e4099	0.06945915
189	0xbd5036aa	-0.05083338
190	0x3cc7ce7f	0.024390457
191	0x3db46c6e	0.08809744
192	0xbdad9b8f	-0.08476936
193	0x3b996401	0.004681111
194	0xbcf7d80d	-0.030254388
195	0xbca23cb5	-0.019804338
196	0xbdcdc052	-0.10046448
197	0x3d12700e	0.035751395
198	0x3a9d9d08	0.0012024948
199	0xbd2d3d8b	-0.04229502
200	0xbd89305e	-0.066986784
201	0xbd26c853	-0.040718388
202	0x3dcfaafd	0.10140035
203	0x3c67e62c	0.014153998
204	0x3c49f239	0.012325817
205	0xbc3fd7f1	-0.011709199
206	0xbd63154b	-0.05544023
207	0xbdbea71e	-0.09309219
208	0xbc2a043e	-0.010376988
209	0xbc8ddc51	-0.01731697
210	0xbdb770ff	-0.08957099
211	0xbcd6c123	-0.026215142
212	0x3cd7fea2	0.026366536
213	0xbca08485	-0.01959444
214	0x3c8d7990	0.01726988
215	0x3d3181c2	0.043336637
216	0xbd9e1de6	-0.077205464
217	0xbcb6356f	-0.022242276
218	0xbbe45712	-0.0069683874
219	0xbc959ff8	-0.018264756
220	0x3adaa0f6	0.001668005
221	0xbc581f57	-0.013191066
222	0x3cafbe7d	0.021453137
223	0x3d62ced7	0.05537304
224	0x3d6be1cc	0.057588384
225	0x3d1528a5	0.036415715
226	0x3d1dd08d	0.038528968
227	0x3ceddb8d	0.029035354
228	0xbce1f627	-0.027583195
229	0x3c8b2f53	0.01699034
230	0x3d2a2954	0.04154332
231	0x3c515697	0.012776992
232	0x3bb4e287	0.005520168
233	0x3d6478ba	0.055779196
234	0x3bdcc03a	0.0067367824
235	0xbabaa3d9	-0.0014239504
236	0x3c8b8caf	0.017034857
237	0x3c90637d	0.017625565
238	0x3df36184	0.11883834
239	0x3c51b217	0.012798808
240	0xbc121d96	-0.008918187
241	0x3d46ee60	0.048567176
242	0xbb45d1ae	-0.0030184793
243	0x3d9d2597	0.07673185
244	0xbd37b4e7	-0.044850256
245	0xbafc6e06	-0.0019258864
246	0xbc1709f8	-0.009218685
247	0xbbd88230	-0.0066073164
248	0xbd1a1d73	-0.03762574
249	0x3b3cc573	0.0028804212
250	0x3e0157e2	0.12631181
251	0xbd9a4f98	-0.075347126
252	0x3d291f3d	0.041289557
253	0xbd80f462	-0.06296612
254	0xbcdd0a3c	-0.02698242
255	0xbd8057be	-0.062667355

module.net_sm.layer1.0.bn1.weight f4 [32]
0	0x3f676cd3	0.9040043
1	0x3f6877fd	0.9080809
2	0x3f6b2f25	0.9186881
3	0x3f6cc18a	0.9248282
4	0x3f68e27e	0.909706
5	0x3f69fb8c	0.91399455
6	0x3f690f33	0.9103882
7	0x3f68081a	0.9063736
8	0x3f6a7a93	0.91593283
9	0x3f64d4d3	0.89387244
10	0x3f663c1c	0.8993547
11	0x3f695e7f	0.91159815
12	0x3f66ebbc	0.9020345
13	0x3f676d7c	0.90401435
14	0x3f6bfc60	0.9218197
15	0x3f667c86	0.9003376
16	0x3f685943	0.907612
17	0x3f68d625	0.9095176
18	0x3f682203	0.906769
19	0x3f60cbcd	0.87810975
20	0x3f762ba4	0.9616034
21	0x3f6afc5a	0.9179131
22	0x3f6867c8	0.9078336
23	0x3f6d9167	0.9279999
24	0x3f69670d	0.9117287
25	0x3f6cd1ff	0.9250793
26	0x3f66b741	0.90123373
27	0x3f654fc7	0.89574856
28	0x3f69e2d1	0.9136172
29	0x3f67f9fa	0.9061581
30	0x3f67c424	0.9053366
31	0x3f665b52	0.89983094

module.net_sm.layer1.0.bn1.bias f4 [32]
0	0x3ca37f52	0.019958172
1	0x3b647107	0.0034857409
2	0xbc49350e	-0.012280716
3	0xbb074412	-0.0020639938
4	0xbbf9885e	-0.007615133
5	0xbb9e21b6	-0.004825796
6	0x3bc8cfa0	0.0061282665
7	0x3af4bdd9	0.0018672302
8	0x382eba1a	4.1658153e-05
9	0xbc67405e	-0.014114467
10	0xbb6c99e7	-0.0036102475
11	0xbc9cd0ba	-0.019142497
12	0xbc0e5d38	-0.008689217
13	0xbbf101ce	-0.0073549515
14	0x3cb078d7	0.021541996
15	0xbc7a172b	-0.015264313
16	0x3c921c6b	0.017835816
17	0xbc6eca97	-0.014574668
18	0xbbe0ca66	-0.0068600653
19	0xbcacae1e	-0.02107912
20	0x3d4f1774	0.050559476
21	0x3ba9cdfe	0.005182027
22	0xbc5fa2d8	-0.013649665
23	0xbb4eac77	-0.0031535903
24	0xbca552ce	-0.020181086
25	0x3cab3d27	0.020903183
26	0xbc8cc151	-0.017182024
27	0xbca9fe3d	-0.020751113
28	0xbc3b546a	-0.0114337
29	0xbbc886e7	-0.0061195972
30	0xbcec0265	-0.028809736
31	0x3cea3e5f	0.028594194

module.net_sm.layer1.0.bn1.running_mean f4 [32]
0	0x3f644a0e	0.891755
1	0x3f20815d	0.6269739
2	0x3dafd721	0.085859545
3	0xbfece26f	-1.8506602
4	0xbe7d15c3	-0.24715333
5	0x40030c92	2.0476422
6	0xbed91d4f	-0.42405173
7	0xbe749d90	-0.2388823
8	0xc016475d	-2.3481057
9	0x3f04ef35	0.519275
10	0xbfd47fa5	-1.6601454
11	0xbdd07339	-0.10178227
12	0xc00b0ca6	-2.172647
13	0x3fb34256	1.4004619
14	0xbec7c09f	-0.39014146
15	0x3fff8343	1.9961933
16	0x3fab12d3	1.336512
17	0x4031ee89	2.780184
18	0x3f2dfb39	0.6796146
19	0x403dac24	2.9636316
20	0x3fd83fb6	1.6894443
21	0x3fa38dd3	1.2777656
22	0xc04047df	-3.0043867
23	0x3d9eecfe	0.077600464
24	0x3ee73862	0.45160204
25	0xc032bab4	-2.7926455
26	0x401b1f12	2.4237714
27	0xbf7328ae	-0.9498395
28	0x3f073138	0.52809477
29	0xbf947549	-1.1598293
30	0xbf462238	-0.77395964
31	0x404d4136	3.2071052

module.net_sm.layer1.0.bn1.running_var f4 [32]
0	0x403bdca8	2.9353428
1	0x406d7989	3.710543
2	0x40579bbf	3.368881
3	0x40a69220	5.2053375
4	0x40373663	2.8626945
5	0x40aa3879	5.3193936
6	0x3fd3dc46	1.6551597
7	0x40cdb6be	6.4285574
8	0x40e675d7	7.2018847
9	0x40605366	3.5050902
10	0x40a41b24	5.128313
11	0x406ae2c7	3.6700914
12	0x40f6d6e2	7.713731
13	0x404d852a	3.2112527
14	0x405560eb	3.3340404
15	0x40ee1f01	7.4412847
16	0x40927b1b	4.5775275
17	0x4100ec85	8.057744
18	0x402179ac	2.5230513
19	0x4161eb82	14.119997
20	0x40804357	4.00822
21	0x40769546	3.852861
22	0x410968b0	8.588058
23	0x4008ae41	2.1356356
24	0x4044aa17	3.0728815
25	0x411376d7	9.216514
26	0x410c5580	8.770874
27	0x406d3ef0	3.7069664
28	0x3fdfcafc	1.7483821
29	0x40982f25	4.755755
30	0x40abb80b	5.366216
31	0x412bf659	10.747643

module.net_sm.layer1.0.conv2.weight f4 [32, 32, 3, 3, 3]
0	0xbcfb170b	-0.030650636
1	0x3c9a9a3f	0.018872378
2	0xbdc5d971	-0.09660614
3	0xbdcb461e	-0.09925483
4	0x3d62f846	0.055412553
5	0x3ae38763	0.0017359074
6	0xbdad4eed	-0.084623195
7	0xbd50cc67	-0.050976183
8	0xbcc31e27	-0.023818089
9	0x3cd20bab	0.02564033
10	0x3d20036e	0.03906577
11	0xbccef44c	-0.025262974
12	0xbd5bb2bc	-0.05363725
13	0x3d30ce4d	0.043165494
14	0x3b0bdca1	0.0021341222
15	0xbd9afc25	-0.07567624
16	0xbd8405bf	-0.064464085
17	0xbd8ce057	-0.06878727
18	0x3c4f93d3	0.012669521
19	0x3d749c69	0.059719477
20	0xbceacea0	-0.02866298
21	0x3bc011d9	0.0058615026
22	0x3c9c1c52	0.019056473
23	0xbb9b30c3	-0.0047360375
24	0xbcf46ac0	-0.029836059
25	0x3b28618a	0.0025692903
26	0xbcb94938	-0.022617921
27	0x3c7d668a	0.015466342
28	0x3a94b282	0.0011344703
29	0xbd75ae71	-0.059980813
30	0x3d8622eb	0.06549629
31	0xbc821c80	-0.01588273
32	0xbd0fdd9f	-0.035123464
33	0x3d04c08f	0.0324102
34	0x3bf1c511	0.0073782285
35	0xbd01e85a	-0.03171573
36	0x3c837151	0.016045244
37	0xbd4aba1f	-0.049493905
38	0x3ced8d03	0.028997904
39	0x3b15e2a0	0.0022870675
40	0x3d5a657c	0.05331944
41	0x3c91bb7f	0.0177896
42	0x3c0e7642	0.008695187
43	0x3ba37af3	0.004989022
44	0xbd785bcb	-0.060634416
45	0x3dc26795	0.09492413
46	0xbd1b28f0	-0.037880838
47	0x3c367a26	0.011137521
48	0xbd2a3cd1	-0.041561905
49	0xbd5cb397	-0.053882208
50	0x3cee17bf	0.029064057
51	0x3ce4a0b3	0.027908659
52	0xb971c4e2	-0.00023056896
53	0x3d721d8e	0.059110217
54	0x3da40729	0.08009178
55	0x3af51b0c	0.0018700077
56	0xbcc471e2	-0.023980085
57	0x3d422eda	0.047407962
58	0xbd8b25bd	-0.067943074
59	0x3c480744	0.0122087635
60	0x3deed4a5	0.116616525
61	0xbd7fa53e	-0.062413447
62	0xbd2b4bf5	-0.041820485
63	0x3da7e1b3	0.081973456
64	0xbdb23223	-0.08700969
65	0xba9a2dbb	-0.0011762896
66	0x3ca0cf1b	0.019630006
67	0xbd02412e	-0.03180044
68	0xbce992b5	-0.028512338
69	0x3d1b914c	0.037980363
70	0xbd85f2c1	-0.06540442
71	0xbc64df8e	-0.013969315
72	0xbbb680aa	-0.005569537
73	0x3b0317e8	0.0020003263
74	0xbc924d2f	-0.01785907
75	0x3bd3d3b9	0.0064644483
76	0x3d7509a2	0.05982364
77	0x3cbb55b3	0.022868013
78	0xbd118eee	-0.0355367
79	0x3d0dbc92	0.034603663
80	0xbd5f3bda	-0.05450044
81	0xbca445a4	-0.020052738
82	0xbb075ed7	-0.0020655894
83	0x3ac49119	0.0014996856
84	0xbcc76476	-0.024339896
85	0xbd238449	-0.03992108
86	0x3d13b2b8	0.03605911
87	0xbd2f7f97	-0.04284629
88	0x3d7f7307	0.062365558
89	0xbc7249cd	-0.014788103
90	0x3c542d61	0.012950272
91	0x3d8e2664	0.06940916
92	0xbda1e48b	-0.07904919
93	0x3d47560c	0.048666045
94	0x3d97a52c	0.07404551
95	0x3d3de004	0.046356216
96	0xbc62468e	-0.013810767
97	0xbd1ca1d3	-0.038240265
98	0xbce98ff7	-0.02851103
99	0xba93135d	-0.0011220981
100	0xbb33ac2a	-0.002741585
101	0x3c212625	0.0098357545
102	0xbd2eba90	-0.04265839
103	0xbd27d158	-0.04097113
104	0x3d7c3ce5	0.06158151
105	0x3ccbdf38	0.024886712
106	0xbdc4032f	-0.0957092
107	0x3afd1c07	0.0019310721
108	0x3d629c13	0.055324625
109	0x3d34c662	0.044134505
110	0xbcbd07cb	-0.023075005
111	0xbce95174	-0.028481223
112	0xbb96a31c	-0.004597081
113	0xbd8c45a3	-0.0684922
114	0x3d9b9b78	0.07598013
115	0x3c6a15db	0.014287437
116	0x3d888b4c	0.06667194
117	0xbd181fed	-0.03713982
118	0xbca32006	-0.01991273
119	0x3be09de9	0.006854762
120	0x3b7d6260	0.0038663372
121	0xbc684231	-0.0141759375
122	0x3cdeafdf	0.027183471
123	0xbd12d8bf	-0.035851236
124	0x3a018cd6	0.00049419457
125	0xbd71dc85	-0.059048194
126	0x3c994db3	0.018713808
127	0xbc295e35	-0.010337402
128	0x3db70beb	0.0893782
129	0x3c1e8d53	0.009677249
130	0x3c4178fb	0.011808629
131	0x3d5243bb	0.051334124
132	0x3d05ff4d	0.032714177
133	0xbcfd8259	-0.030945944
134	0xbd64b92b	-0.055840652
135	0xbd86787e	-0.06565951
136	0x3cccee3e	0.025015946
137	0xbd66e375	-0.056369264
138	0xbd1c2c55	-0.038128216
139	0x3c58f20c	0.013241302
140	0xbd68efec	-0.056869432
141	0x3d467ac4	0.048456922
142	0x3d0b42a9	0.03399912
143	0xbe0a0bb1	-0.13481022
144	0x3d7b9eda	0.06143079
145	0xbd03b473	-0.03215451
146	0x3de0ae3c	0.109707326
147	0xbd4c5841	-0.049888853
148	0xbb09cb56	-0.0021025739
149	0xbc2590d1	-0.010105328
150	0xbca046e5	-0.019565055
151	0xbc1fac08	-0.009745605
152	0x3d5bf62b	0.05370156
153	0x3cec342d	0.028833473
154	0xbd2b4e7a	-0.041822888
155	0xbcf870f3	-0.030327296
156	0xbd8d8515	-0.06910149
157	0x3d540dfe	0.051771156
158	0xbd051b2d	-0.03249662
159	0xbbb70ce4	-0.0055862535
160	0x3a711854	0.00091970456
161	0xbc6b9344	-0.014378373
162	0xbce3abc8	-0.027791873
163	0x3bf7e3bd	0.0075649903
164	0xbd225afb	-0.039637547
165	0xbc7ec197	-0.015549085
166	0x3d3d5680	0.04622507
167	0x3b871b87	0.0041231546
168	0x3d8d475f	0.068983786
169	0x3d5530da	0.05204854
170	0x3cf12361	0.029435815
171	0x3c773174	0.015087474
172	0x3cf2c0fd	0.02963304
173	0xbd0cd8d5	-0.034386475
174	0xbca1386d	-0.019680226
175	0x3a5a5d40	0.00083299354
176	0x3be90b1f	0.0071119214
177	0xbce100a7	-0.027466131
178	0x3d0ed44f	0.034870442
179	0x3d427074	0.047470525
180	0x3d4f66ec	0.050635263
181	0xbcd244ac	-0.02566751
182	0xbd160e66	-0.036634825
183	0xbcf8a406	-0.03035165
184	0x3cee1e48	0.029067174
185	0xbd473877	-0.048637833
186	0x3d0895c9	0.03334597
187	0xbcf76268	-0.030198291
188	0x3d3d2074	0.046173528
189	0x3d3e8482	0.046513088
190	0x3d49ad19	0.049237344
191	0x3c08f32b	0.008358757
192	0x3d85950c	0.06522569
193	0x3d4b3e8e	0.049620204
194	0xbd7f3523	-0.062306534
195	0xbd4cbe8d	-0.04998641
196	0xbcbcf719	-0.023067044
197	0xbdcbc416	-0.0994951
198	0xbcf8d7c1	-0.030376317
199	0xbd94ba3d	-0.07262085
200	0xbd833208	-0.06406027
201	0xbc18d36b	-0.00932775
202	0x3b6969f7	0.0035616138
203	0xbc93a598	-0.018023297
204	0x3c92eb23	0.017934388
205	0xbd08447b	-0.033268433
206	0xbd1d9900	-0.03847599
207	0x3d855863	0.06510999
208	0x3d0ce72d	0.034400154
209	0x3a842747	0.0010082506
210	0xbd8b036d	-0.06787763
211	0x3bd1ac87	0.0063987407
212	0xbb206197	-0.002447223
213	0xbc7f51cb	-0.015583466
214	0xbc7a0e35	-0.015262176
215	0xbdd8076e	-0.10548292
216	0x3cb01781	0.021495583
217	0xbd93d5ca	-0.072185114
218	0x3d1408f5	0.036141355
219	0x3d06d4cf	0.032917794
220	0x3b9c6e4f	0.004773892
221	0x3dafde48	0.08587319
222	0xbd8442a5	-0.06458024
223	0xbe0511a2	-0.12995008
224	0x3cb2c282	0.021821264
225	0x3c61d67e	0.013784049
226	0x3c91b666	0.01778717
227	0x3cf8a342	0.030351285
228	0x3d5b93e3	0.053607833
229	0x3d2180a2	0.039429314
230	0x3d63c00a	0.055603065
231	0xbd874162	-0.06604268
232	0xbd93e046	-0.07220511
233	0x3cd34083	0.025787598
234	0xbd917266	-0.07101898
235	0xbd34ebb8	-0.04417011
236	0x3bf99919	0.0076171276
237	0x3aff78da	0.0019490973
238	0x3c696306	0.0142448
239	0xbc975a40	-0.018475652
240	0xbdc648c3	-0.09681847
241	0x3df21a64	0.1182144
242	0x3cf38c8b	0.029730102
243	0x3b721f6c	0.0036944998
244	0xbd05a2eb	-0.032626074
245	0x3d1ed156	0.038773857
246	0xba59b435	-0.0008304746
247	0x3d06bc20	0.032894254
248	0x3cd1be6e	0.0256035
249	0x3d24ef4a	0.040267266
250	0x3d82aabb	0.063802205
251	0x3d86b089	0.0657664
252	0x3d1c2d83	0.03812934
253	0xbc2eb44d	-0.010663104
254	0xbc475ca9	-0.012168088
255	0xbd4f44af	-0.05060261

module.net_sm.layer1.0.bn2.weight f4 [32]
0	0x3f6e1a2c	0.93008685
1	0x3f608ce6	0.87714994
2	0x3f686005	0.90771514
3	0x3f660890	0.89856815
4	0x3f69d3ab	0.91338605
5	0x3f5d2361	0.8638211
6	0x3f5eca49	0.8702741
7	0x3f66cd69	0.9015718
8	0x3f6af1af	0.9177503
9	0x3f5eea6e	0.8707646
10	0x3f695a47	0.9115338
11	0x3f5c2751	0.8599749
12	0x3f675b10	0.90373325
13	0x3f5c40b5	0.86036235
14	0x3f69ccc0	0.9132805
15	0x3f6179f9	0.8807674
16	0x3f6d3e0b	0.92672795
17	0x3f58a764	0.8463042
18	0x3f5fbcc4	0.8739741
19	0x3f654f9b	0.89574593
20	0x3f560e25	0.8361533
21	0x3f54ae70	0.8307867
22	0x3f6c1b21	0.92228895
23	0x3f669324	0.9006827
24	0x3f6ae866	0.9176086
25	0x3f580dfb	0.8439633
26	0x3f69626d	0.9116581
27	0x3f6a3f4e	0.91502845
28	0x3f6bd8b5	0.92127544
29	0x3f5fab19	0.8737045
30	0x3f671c5b	0.9027764
31	0x3f67a8eb	0.90492123

module.net_sm.layer1.0.bn2.bias f4 [32]
0	0x3b253f0a	0.0025214576
1	0xbc985b7b	-0.018598309
2	0xba807db1	-0.0009803084
3	0xbb0452a6	-0.0020190864
4	0xbc3abf54	-0.011398155
5	0xbbe8be7f	-0.007102787
6	0x3be4c721	0.006981746
7	0xbc2d5616	-0.0105796065
8	0x3b98f872	0.004668289
9	0xbc47ab1b	-0.012186791
10	0x3bdf35cd	0.0068118335
11	0xbc8762c7	-0.016526593
12	0xbc3878db	-0.011259283
13	0x3a941086	0.0011296428
14	0xbb948967	-0.004532981
15	0x3be65de7	0.007030237
16	0x3c7aec40	0.015315115
17	0xbd01c1ce	-0.031678967
18	0x3c41fd85	0.011840229
19	0xbb51352a	-0.0031922557
20	0x39fcf8f2	0.00048250664
21	0x3b8a4533	0.004219675
22	0xb9c0547d	-0.00036684042
23	0xbc1a2d87	-0.009410269
24	0xbce5ba4d	-0.028042937
25	0xbc6631b1	-0.014049933
26	0xbb29a32a	-0.0025884607
27	0xbc8c9e88	-0.017165437
28	0x3bc2851c	0.005936278
29	0x3b22a21e	0.0024815868
30	0xb9d69539	-0.0004092844
31	0x3945f87d	0.00018879953

module.net_sm.layer1.0.bn2.running_mean f4 [32]
0	0xbfa122d1	-1.258875
1	0x3f446f08	0.7673192
2	0xbf2075b0	-0.62679577
3	0xbf58358c	-0.84456706
4	0xbe955530	-0.29166555
5	0xbedb75f0	-0.42863417
6	0x3f260390	0.64849186
7	0xbf6c0170	-0.92189693
8	0xbf9aaa30	-1.2083187
9	0x3eabbb3a	0.3354128
10	0xbf3134f2	-0.69221413
11	0x3f209f11	0.62742716
12	0xbfaa4f19	-1.3305389
13	0x3f258b1f	0.64665407
14	0xbf0fdfeb	-0.56201047
15	0xbfd6f62b	-1.6793875
16	0xbfda74a1	-1.7066842
17	0x3f8fdf0b	1.1239942
18	0xbf04f396	-0.5193418
19	0xbf3ac234	-0.7295258
20	0xbddd109d	-0.10794184
21	0x3e9eb8a9	0.3100026
22	0xbfc64896	-1.5490901
23	0x3e950bbd	0.29110518
24	0xbfc2c5d7	-1.5216626
25	0xbe248c50	-0.1606915
26	0xbf5dc42f	-0.8662748
27	0xbf4756a1	-0.7786656
28	0xbf727821	-0.9471455
29	0xbf6ec27e	-0.9326552
30	0xbe4bae3c	-0.19890684
31	0xbf52a610	-0.8228464

module.net_sm.layer1.0.bn2.running_var f4 [32]
0	0x4014c013	2.3242233
1	0x3fc82979	1.5637656
2	0x3fa751ec	1.3071876
3	0x40746764	3.8188105
4	0x3ffcfb18	1.9764128
5	0x3f8d95a1	1.1061288
6	0x403e2c44	2.9714518
7	0x4007ad2d	2.1199448
8	0x3fe727f0	1.8059063
9	0x3f6254a8	0.88410425
10	0x3fdd202d	1.7275444
11	0x40231af5	2.5485203
12	0x408a258f	4.317085
13	0x3fc4c264	1.5371823
14	0x403be327	2.9357393
15	0x40c89352	6.2679834
16	0x403c9ae9	2.946955
17	0x40352cd0	2.8308601
18	0x3fdbfd17	1.7186612
19	0x4009beb1	2.1522639
20	0x3f97cbd9	1.1859084
21	0x3f90759a	1.1285889
22	0x40105a9a	2.2555299
23	0x3f3866f5	0.720321
24	0x405303b7	3.2971017
25	0x3f7dc9aa	0.9913584
26	0x3fb82343	1.4385761
27	0x40175c90	2.3650246
28	0x3fc09a6f	1.5047129
29	0x40473604	3.1126719
30	0x3fe752a2	1.8072093
31	0x401bb503	2.432923

module.net_sm.layer2.0.conv1.weight f4 [32, 32, 3, 3, 3]
0	0xbcbcc172	-0.02304146
1	0xbcb29d33	-0.021803474
2	0x3c95efe5	0.018302867
3	0xbd8b55c7	-0.0680347
4	0xbd49a355	-0.04922803
5	0x3b64acde	0.0034893076
6	0xbd904f84	-0.070464164
7	0x3cc63d37	0.024199111
8	0x3ce16646	0.027514588
9	0xbd29eff0	-0.041488588
10	0xbc14f3b3	-0.009091306
11	0x3d681b39	0.056666587
12	0xbc377d4c	-0.011199307
13	0xbc531fbb	-0.012885983
14	0xbc00584e	-0.0078335535
15	0xbd9e2794	-0.07722393
16	0xbbc1252b	-0.0058943233
17	0x3a53425c	0.00080588995
18	0xbd29e900	-0.04148197
19	0x3d161684	0.036642566
20	0x3d090b45	0.033458013
21	0xbd4fceef	-0.050734457
22	0xbc65701d	-0.014003781
23	0xba9f1c74	-0.0012139217
24	0x3d749681	0.059713844
25	0x3c9f4ecd	0.019446755
26	0xbceafe35	-0.028685668
27	0xbceb53da	-0.028726507
28	0xbb9e3957	-0.004828613
29	0x3daf5849	0.08561761
30	0x3bc55f4b	0.0060233227
31	0x3d5405c7	0.051763322
32	0xbb85546c	-0.0040689018
33	0x39458d55	0.00018840034
34	0x3d003831	0.03130359
35	0x3decc68c	0.11561307
36	0x3d855b6b	0.06511577
37	0x3c9c7cd3	0.01910249
38	0xbc59a7f6	-0.013284674
39	0x3c3e8dac	0.011630457
40	0xbc677667	-0.01412735
41	0xbbc7fd4e	-0.0061031943
42	0xbbe55f72	-0.0069999034
43	0xbc6686af	-0.014070197
44	0x3dba83f8	0.09107202
45	0x3cb4e510	0.022081882
46	0x3d27832d	0.040896583
47	0xbdd9f648	-0.106426775
48	0xbb864e2c	-0.0040986743
49	0xbda023f9	-0.07819361
50	0x3d45de28	0.048307568
51	0xbcef7d57	-0.029234571
52	0x3d70417d	0.058656204
53	0x3df46e34	0.11935082
54	0x3c3cd6b6	0.0115258
55	0xbd5923fe	-0.05301284
56	0xbda231fa	-0.079196885
57	0x3d046e09	0.0323315
58	0x3d244b5c	0.04011093
59	0xbd35c126	-0.044373654
60	0xbd338d3c	-0.043835863
61	0x3b46b594	0.0030320631
62	0x3cdd8bfd	0.02704429
63	0x3dc9cb1d	0.09853194
64	0xbe03ec43	-0.12883095
65	0xbcba2b09	-0.022725599
66	0x3d014428	0.03155914
67	0x3d923269	0.07138521
68	0x3d18dacf	0.037318047
69	0x3d6963ca	0.056979932
70	0x3b934fa6	0.004495579
71	0xbd11844f	-0.03552657
72	0xbce83587	-0.028345836
73	0xbca504eb	-0.020143947
74	0xbd0eef56	-0.034896217
75	0x3c2ae316	0.010430118
76	0xbd65346b	-0.055958193
77	0x3d1ee905	0.038796443
78	0xbd52f6ea	-0.051505007
79	0x3c1be09a	0.009513998
80	0x3cacbcfb	0.021086207
81	0x3d54e9ba	0.05198071
82	0xbc6c96b3	-0.014440226
83	0x3d22044e	0.039554887
84	0x3dd625ae	0.104564056
85	0x3cc90826	0.024540018
86	0x3d094b86	0.03351929
87	0x3da03145	0.078218974
88	0x3d964816	0.07337968
89	0x3daa6c85	0.0832148
90	0x3d61c57c	0.055119976
91	0xbd5125c4	-0.051061407
92	0xbd268315	-0.040652353
93	0x3cde794f	0.027157454
94	0xbd9cbc93	-0.07653155
95	0x3c967ba3	0.018369501
96	0x3da6acd4	0.08138433
97	0xbdb91f31	-0.090391524
98	0xbcdb8ca8	-0.026800469
99	0xbb2d149f	-0.0026409996
100	0xb9e55429	-0.00043740988
101	0xbcf5dd63	-0.030012792
102	0xbbc2dd77	-0.005946811
103	0x3bc33810	0.005957611
104	0x3d5bf02f	0.053695854
105	0xbd743168	-0.05961743
106	0x3e0ffc02	0.14060977
107	0xbd8a34f7	-0.067483835
108	0xbc374f95	-0.011188407
109	0x3b738045	0.0037155312
110	0x3c8aaaa6	0.016927075
111	0xbd58ac54	-0.05289872
112	0x3c8af14a	0.016960759
113	0x3d0c4b9d	0.034251798
114	0xbd865ef1	-0.065610774
115	0x3b192cf5	0.0023372744
116	0xbd16464f	-0.036688145
117	0x3ca41227	0.020028187
118	0x3d17ee82	0.037092693
119	0x3ccc681b	0.024951985
120	0x3d0b5f38	0.034026355
121	0x3b35a462	0.0027716388
122	0x3df8135e	0.12113069
123	0x3caf3899	0.021389293
124	0x3ba164fc	0.0049253684
125	0x3b9142bf	0.0044330056
126	0xbbe136bc	-0.00687298
127	0x3d65f18e	0.056138568
128	0x3d2f7135	0.042832572
129	0x3dbae31a	0.091253474
130	0xbbbc20d3	-0.0057412176
131	0x3c4549ba	0.012041504
132	0xbdd5464a	-0.10413797
133	0xbc2bc4ee	-0.010483963
134	0x3d664406	0.056217216
135	0x3cdc06d8	0.026858732
136	0x3d7d7850	0.061882317
137	0x3d53ac80	0.05167818
138	0xbd823553	-0.06357827
139	0xbd7c9060	-0.061661124
140	0xbd022641	-0.031774763
141	0xbd9c702d	-0.07638583
142	0xbd798fec	-0.06092827
143	0x3d1c2d06	0.038128875
144	0x3aaa3c35	0.0012987914
145	0x3ccfe92c	0.02537974
146	0x3cbe93e1	0.023263874
147	0x3cefe27b	0.029282799
148	0xbb043c90	-0.00201777
149	0x3da55f2c	0.08074793
150	0xbd1b77bc	-0.037955984
151	0xbd03e1f8	-0.032197922
152	0xbd46b688	-0.04851392
153	0x3d2ab15a	0.041673042
154	0xbc034f2c	-0.0080144815
155	0x3dac29a6	0.08406381
156	0xbcc92f14	-0.024558581
157	0xbd325df2	-0.043546624
158	0x3c8806a2	0.016604725
159	0xbd17c25f	-0.0370506
160	0x3d43db3e	0.047816508
161	0x3bd82372	0.0065960223
162	0xbc3cd13a	-0.011524493
163	0xbc838588	-0.016054884
164	0x3ccebee7	0.025237514
165	0x3ca7c81f	0.020481167
166	0x3c4554c7	0.012044138
167	0x3d14b225	0.036302704
168	0xbc9e6d64	-0.01933927
169	0x3ce5e98d	0.028065467
170	0xbc46b99a	-0.012129212
171	0xbd7723e3	-0.06033696
172	0xbc1bc6b9	-0.009507828
173	0xbc53ba5f	-0.012922852
174	0x3c82d7f8	0.015972123
175	0x3dc65841	0.09684802
176	0xbc37a8ac	-0.011209648
177	0x3bb1d8cd	0.005427456
178	0x3c101e4d	0.008796287
179	0x3d1ef7ad	0.03881042
180	0x3db75f0a	0.08953674
181	0x3d3402be	0.043947928
182	0xbbcb6ac2	-0.006207795
183	0xbc98ea25	-0.018666336
184	0x3d1d4529	0.038396034
185	0xbc9c24bb	-0.019060483
186	0x3dc26323	0.09491565
187	0x3cbc896d	0.023014748
188	0x3d0e9f6b	0.03482
189	0x3d712cca	0.058880605
190	0x3d1fb4d9	0.03899083
191	0x3d957cc3	0.07299187
192	0x3d66c644	0.056341425
193	0xbcf45068	-0.029823497
194	0x3cf7bc4c	0.030241154
195	0xbcc2c104	-0.023773678
196	0x3baf5c46	0.005351576
197	0x3c7f72f0	0.015591368
198	0x3debe275	0.115178026
199	0xbcb0c2d2	-0.021577273
200	0x3bd41641	0.0064723794
201	0x3c5a1fbc	0.01331323
202	0xbde74be9	-0.112937756
203	0xbdd494a9	-0.10379917
204	0x3c1a8cfc	0.009433027
205	0xbd93846e	-0.07202993
206	0x3cbc605e	0.02299517
207	0x3cd51146	0.026009213
208	0x3d823a8e	0.06358825
209	0x3d364c4a	0.04450635
210	0xbdfef7bc	-0.12449595
211	0xbd12de5e	-0.035856597
212	0xbdb3853d	-0.087656476
213	0xbd8fd4a8	-0.07022983
214	0x3c9a7dc4	0.018858798
215	0x3dde4018	0.10852069
216	0xbd25a1b1	-0.040437404
217	0xbcefc788	-0.029269949
218	0xbd293338	-0.04130861
219	0xbceb97a4	-0.028758831
220	0x3c778859	0.015108191
221	0xbbc77982	-0.006087483
222	0x3ba4d8af	0.0050307135
223	0x3d1ef39e	0.03880655
224	0xbb2e4604	-0.0026592026
225	0xbd0e27e5	-0.034706015
226	0x3d0515be	0.032491438
227	0xbdbecf87	-0.093169264
228	0xbcf31577	-0.029673321
229	0x3d9bd7c8	0.076095164
230	0xbc0fcbac	-0.0087765865
231	0x3c5b4b19	0.013384604
232	0x3d738c48	0.059459955
233	0x3d8db35c	0.06918976
234	0xbd7aa29a	-0.061190225
235	0xbbe9fe4f	-0.0071409116
236	0x3dd5e6c0	0.10444403
237	0xbd191dc5	-0.037381906
238	0x3cc00bea	0.023443181
239	0xbd621d11	-0.0552035
240	0xbca73430	-0.020410627
241	0xbccb68bb	-0.024830213
242	0xbc1316eb	-0.008977632
243	0x3c17c837	0.0092640435
244	0x3bd8352d	0.006598136
245	0x3cf6f370	0.030145377
246	0xbd8bd825	-0.06828336
247	0xbd645f15	-0.05575474
248	0x3cf593e8	0.029977754
249	0xbd08e708	-0.033423454
250	0x3c0c1cd3	0.008551794
251	0x39dbc6b9	0.00041918995
252	0xbc9fbf29	-0.019500332
253	0x3d2b1208	0.041765243
254	0x3d306786	0.043067478
255	0x3d15ef1c	0.036604986

module.net_sm.layer2.0.bn1.weight f4 [32]
0	0x3f5b0bba	0.8556477
1	0x3f685eac	0.9076946
2	0x3f676f39	0.9040409
3	0x3f69f2b5	0.91385967
4	0x3f5d1263	0.8635618
5	0x3f741826	0.9534935
6	0x3f685f0c	0.9077003
7	0x3f6ea9ae	0.9322766
8	0x3f6a90db	0.9162728
9	0x3f728ce3	0.94746226
10	0x3f67ccec	0.9054706
11	0x3f6b7a33	0.91983336
12	0x3f66eae4	0.90202165
13	0x3f6e47e8	0.9307847
14	0x3f6939e2	0.9110395
15	0x3f68f0ba	0.9099232
16	0x3f6f650e	0.9351357
17	0x3f6b775f	0.9197902
18	0x3f65a733	0.8970825
19	0x3f6ad9ea	0.9173876
20	0x3f66a808	0.90100145
21	0x3f688c5b	0.90839165
22	0x3f6eaf8e	0.93236625
23	0x3f6d1782	0.92613995
24	0x3f6b8d03	0.9201204
25	0x3f5eb375	0.8699258
26	0x3f6a07ee	0.9141835
27	0x3f66761b	0.90023965
28	0x3f65fa5d	0.8983515
29	0x3f6bc15e	0.9209193
30	0x3f5faa52	0.87369263
31	0x3f667ca1	0.9003392

module.net_sm.layer2.0.bn1.bias f4 [32]
0	0xbd80264b	-0.06257304
1	0xbd0bee7e	-0.03416299
2	0x3a50d1fc	0.00079658604
3	0xbc975b0d	-0.018476034
4	0xbd6242b9	-0.055239413
5	0x3b530310	0.003219787
6	0xbc9027b4	-0.017597057
7	0x3bd12d55	0.006383578
8	0xbc94fd9d	-0.018187338
9	0x3c04000b	0.008056651
10	0xbc1d3109	-0.00959421
11	0xbc367408	-0.011136062
12	0xbc243321	-0.010021956
13	0x3a60c6e1	0.0008574557
14	0x39bbb16b	0.00035799606
15	0xb997e502	-0.00028971588
16	0x3c181297	0.009281776
17	0xbaaebd32	-0.0013331531
18	0xbd01c6f5	-0.03168388
19	0xbc36e108	-0.01116205
20	0xbc3739e1	-0.011183233
21	0xbb0d8a16	-0.0021597198
22	0xbbb1d7c5	-0.005427333
23	0x3c1b206c	0.009468179
24	0xbc7c9e3b	-0.015418584
25	0xbc81cff3	-0.015846228
26	0xbbfd8b2a	-0.007737537
27	0xbc9a91ff	-0.018868444
28	0xbc92dbec	-0.017927133
29	0x3a80195c	0.0009773183
30	0xbb263d9b	-0.002536631
31	0xbc1cb7b1	-0.00956528

module.net_sm.layer2.0.bn1.running_mean f4 [32]
0	0x406b2d70	3.6746483
1	0x3d8d7278	0.06906599
2	0x3f6856ea	0.9075762
3	0x3ff8f560	1.9449883
4	0x401ff8d3	2.499562
5	0x4004275e	2.0649028
6	0xbf75c80d	-0.9600838
7	0x40089d09	2.1345847
8	0xc08ee8c2	-4.465913
9	0xbc7478c4	-0.014921371
10	0xc05212ff	-3.2824094
11	0xc0876397	-4.230907
12	0xc07ed652	-3.981831
13	0x3f954153	1.166056
14	0xc0525321	-3.2863238
15	0x3fe3efe6	1.7807586
16	0xbfa00800	-1.2502441
17	0xc033df6a	-2.810511
18	0xbff0b81a	-1.8806183
19	0x3fea8f67	1.8325013
20	0xc0161153	-2.3448074
21	0xbff4ff7e	-1.914047
22	0x3f42aea9	0.7604776
23	0xbfc59f6e	-1.5439279
24	0x3f9b3e96	1.2128475
25	0x3fad3cad	1.3534142
26	0xc00d4a34	-2.207654
27	0xbfe87ddd	-1.816341
28	0xbfa70cc2	-1.3050768
29	0x3ef7accf	0.4837403
30	0x3f04bd98	0.518518
31	0xbf4ef915	-0.8084882

module.net_sm.layer2.0.bn1.running_var f4 [32]
0	0x41070082	8.437624
1	0x400168ae	2.0220141
2	0x402ad4c5	2.6692364
3	0x401bbb0f	2.4332922
4	0x4118ec69	9.557717
5	0x408f4bc1	4.4779973
6	0x404da8d1	3.2134287
7	0x40585b1f	3.3805616
8	0x411033e1	9.012666
9	0x40aa3636	5.3191175
10	0x410706bf	8.439147
11	0x4108b179	8.543328
12	0x40ca2d82	6.318055
13	0x402c7b52	2.6950269
14	0x40c3cf72	6.119073
15	0x405c6ead	3.444255
16	0x407b02fa	3.9220567
17	0x4029b42c	2.6516218
18	0x406f8324	3.7423792
19	0x406f2a5a	3.73696
20	0x40c54e0a	6.1657763
21	0x409e6ac5	4.9505334
22	0x40955aef	4.6673503
23	0x4054bd03	3.3240364
24	0x409e28a4	4.942461
25	0x4077227f	3.8614805
26	0x4095955f	4.674484
27	0x40ac9eb3	5.3943725
28	0x40a7c2b1	5.242516
29	0x405e24d4	3.4709978
30	0x40e66561	7.1998754
31	0x4051cac8	3.2780018

module.net_sm.layer2.0.conv2.weight f4 [32, 32, 3, 3, 3]
0	0x3d564c10	0.052318633
1	0x3d2250b3	0.039627742
2	0x3dbbfc7a	0.091790155
3	0x3c592d27	0.013255394
4	0xbd1d6584	-0.03842689
5	0x3c33c737	0.0109727895
6	0xbd3da245	-0.04629733
7	0xba6440a1	-0.000870714
8	0xbdbbfc72	-0.091790095
9	0xbc7623de	-0.0150232
10	0x3c9bb2ea	0.019006211
11	0xbcfbda3c	-0.03074371
12	0xbd2165b4	-0.039403632
13	0xbcfd7046	-0.030937325
14	0xbd94f236	-0.072727606
15	0xbcacc500	-0.02109003
16	0x3cc3c78e	0.023898866
17	0xbce57e45	-0.028014312
18	0x3db87e6c	0.09008488
19	0xbd0a805a	-0.03381381
20	0xbc706220	-0.014671832
21	0xbd0bf321	-0.034167413
22	0x3da59ccb	0.080865465
23	0xbc16ca07	-0.0092034405
24	0xbd3f246d	-0.046665598
25	0x3d962ea6	0.07333116
26	0x3d22df4f	0.039763745
27	0xbc9d80cf	-0.01922646
28	0xbca4f0fd	-0.020134443
29	0xbd35f33a	-0.044421412
30	0x3d17bce2	0.037045367
31	0x3ce170fa	0.027519692
32	0xbb83ae4d	-0.004018581
33	0xbcbe8f41	-0.023261668
34	0xbd1706d8	-0.03687176
35	0xbc92d5a1	-0.017924132
36	0xbda4e4ba	-0.08051439
37	0x3d3881a1	0.0450455
38	0xbd6c4137	-0.05767938
39	0x3d8ef856	0.0698096
40	0x3d19cde0	0.037549853
41	0xbcc01e7c	-0.023452036
42	0x3c10688f	0.008813991
43	0x3c352785	0.0110567855
44	0x3da37846	0.07981925
45	0xbd5b3aa4	-0.05352272
46	0xbd63a103	-0.055573475
47	0xbc4f29ff	-0.01264429
48	0x3cef8c30	0.029241651
49	0xbc20d060	-0.0098153055
50	0x3d633140	0.05546689
51	0xbdabb472	-0.083840266
52	0x3c7d9fbd	0.015479979
53	0xbd3ef6c8	-0.046622068
54	0xbd40c28c	-0.047060534
55	0xbca6c572	-0.020357821
56	0x3c1a4107	0.009414918
57	0x3bb67998	0.0055686943
58	0x3d8c48f0	0.06849849
59	0xbda630d9	-0.08114786
60	0xbd174322	-0.036929257
61	0xbd6ecb09	-0.0582991
62	0xbca03e4b	-0.019560954
63	0xbcf91f10	-0.03041032
64	0xbbe05c6d	-0.0068469555
65	0xbd051c14	-0.03249748
66	0xbb793dfd	-0.0038031333
67	0xbd99d874	-0.07511988
68	0xb90db777	-0.00013515154
69	0x3cc042fe	0.023469444
70	0x3c350b84	0.011050109
71	0xbc3d4795	-0.011552711
72	0xbcd54263	-0.026032632
73	0xbd40fdcc	-0.04711704
74	0x3d0c8394	0.03430517
75	0xbb2e83d8	-0.0026628878
76	0xbbd64341	-0.006538779
77	0x3db9c605	0.09070972
78	0x3ce1d3ea	0.027566869
79	0x3c2e0c02	0.01062298
80	0xbcb5d617	-0.022196813
81	0x3a81656c	0.0009872145
82	0xbd364467	-0.044498827
83	0xbd5ecc2d	-0.054393936
84	0xbd941365	-0.07230262
85	0x3da883c3	0.082282566
86	0xbd27f293	-0.04100282
87	0xbc935913	-0.01798681
88	0xbc165526	-0.009175574
89	0x3cec5e52	0.02885357
90	0x3c566617	0.013085864
91	0xbd3a231a	-0.04544363
92	0x3b209057	0.0024500096
93	0xbb473b2c	-0.003040026
94	0xb95f2e17	-0.00021284107
95	0xbd0db6a3	-0.034598004
96	0xbc578e91	-0.013156549
97	0xbccd4865	-0.025058934
98	0x3cd81dfb	0.026381483
99	0xbd4b3290	-0.049608767
100	0x3d5f2876	0.054481946
101	0x3c7529fd	0.014963624
102	0xbb8f67ff	-0.004376411
103	0x3d81cab8	0.06337494
104	0xbde456a1	-0.11149336
105	0xbd0e3220	-0.03471577
106	0x3d3dea4f	0.046366032
107	0x3d8b57f5	0.06803886
108	0xbc7651f1	-0.015034185
109	0x3bc338fb	0.0059577203
110	0x3d2b616d	0.04184096
111	0xbbddafe4	-0.0067653526
112	0xbc3b92d6	-0.011448583
113	0xbca2e2ed	-0.019883597
114	0xbd4d54cf	-0.050129708
115	0x3c094260	0.008377641
116	0xbcc15182	-0.023598436
117	0x3d489ca3	0.048977505
118	0xbd20336b	-0.039111536
119	0x3d633ce8	0.055478007
120	0xbd92f2d5	-0.07175223
121	0xbc4059b7	-0.01174014
122	0xbd1e462c	-0.03864114
123	0x3da56e9b	0.08077737
124	0xbb0aacca	-0.002116012
125	0xb9f02475	-0.0004580353
126	0xbd0a5b27	-0.033778336
127	0x3b8e5ad5	0.004344324
128	0x3db4de4f	0.088314645
129	0xbd3f5849	-0.046715055
130	0xbdadedcd	-0.084926225
131	0xbd606a39	-0.0547888
132	0x3d09e868	0.033668905
133	0xbd291c7f	-0.04128694
134	0xbd37ab82	-0.044841297
135	0x3d131730	0.035910785
136	0x3ca81d47	0.020521773
137	0xbcdcc87d	-0.026951069
138	0x3cf4e470	0.029894084
139	0x3d6b192b	0.05739705
140	0x3c402d24	0.011729512
141	0x3bbb0f0d	0.0057085813
142	0x3d185516	0.03719052
143	0xbbf0386c	-0.0073309448
144	0xbcb9c202	-0.022675518
145	0x3d5a1b6c	0.053248808
146	0xbdcfb500	-0.10141945
147	0x3d12c8e8	0.03583613
148	0xbcc33939	-0.023830997
149	0x394caf44	0.00019520248
150	0x3ddab3b6	0.106788084
151	0x3a76b5a8	0.0009411224
152	0xbc83e16c	-0.0160987
153	0x3d37659a	0.04477463
154	0x3cc222a3	0.023698157
155	0xbd9cb4db	-0.07651683
156	0x3b886171	0.0041620065
157	0xbc5b688e	-0.013391627
158	0x3d41428b	0.0471826
159	0x3da68acd	0.08131943
160	0xbd4af6d9	-0.04955182
161	0xbc6425ba	-0.01392501
162	0x3cc93152	0.02455965
163	0xbcb176d8	-0.021663114
164	0x3d99667b	0.0749025
165	0xbd9a5787	-0.07536226
166	0x3d40cdf8	0.047071427
167	0x3b1b61b3	0.0023709356
168	0xbc49599a	-0.012289429
169	0x3ca97e33	0.02069006
170	0xbda6123e	-0.08108948
171	0x3d43ea92	0.047831126
172	0x3cdbc491	0.026827129
173	0xbd41f499	-0.047352407
174	0x3ca368b9	0.019947397
175	0xbd117fbb	-0.035522204
176	0x3c492726	0.0122774
177	0x3d6ab96d	0.057305742
178	0xbd404f33	-0.04695053
179	0xbcc9c3e2	-0.024629537
180	0xbca0a61e	-0.01961046
181	0x3d8a518d	0.06753836
182	0x3d4e0c54	0.050304726
183	0xbca7d9b4	-0.020489551
184	0x3b87095c	0.004120989
185	0x3cd504a9	0.026003199
186	0x3ca01709	0.019542234
187	0xbd67db3f	-0.056605574
188	0xbd1bb04e	-0.038009934
189	0x3c6ea2d9	0.014565193
190	0xbca8841a	-0.020570803
191	0x3c2604ae	0.010132952
192	0xbdd4296a	-0.103594616
193	0xbd912fea	-0.07089217
194	0xbd6ec32e	-0.058291607
195	0x3c0be0dc	0.008537497
196	0xbd0a540c	-0.03377156
197	0xbca408f3	-0.020023799
198	0x3c6ab9e0	0.014326543
199	0x3c7500e1	0.014953823
200	0x3bc4811a	0.0059968354
201	0xbce29ff8	-0.02766417
202	0xbc833adf	-0.016019283
203	0xbd645f74	-0.055755094
204	0x3ce95b45	0.028485904
205	0xbd942a92	-0.07234682
206	0xbcfd9cc6	-0.030958544
207	0xbdaa7481	-0.083230026
208	0xbd91c6a6	-0.07117967
209	0xbd6ec98a	-0.05829767
210	0xbcebe05d	-0.028793508
211	0x3c718c1b	0.014742876
212	0xbd22dd30	-0.039761722
213	0x3d964181	0.07336713
214	0x3c59aaf3	0.013285386
215	0x3ca9f69a	0.020747472
216	0xbc50a100	-0.012733698
217	0x3d35ce90	0.044386446
218	0xbda9d0fc	-0.08291814
219	0x3d8603a0	0.0654366
220	0x3d8d7888	0.06907755
221	0x3d2eaabb	0.04264329
222	0x3d51c978	0.051217526
223	0xbcf7b176	-0.030235987
224	0xbcf357a6	-0.02970488
225	0x3cbbe9d9	0.022938656
226	0xbc18ea07	-0.00933314
227	0xbd9d7358	-0.07688016
228	0x3cd0417c	0.02542185
229	0xbc1d71d5	-0.009609659
230	0x3d607a08	0.054803878
231	0xbda83b95	-0.08214489
232	0x3d1b0212	0.03784377
233	0x3c84a2d5	0.016190926
234	0xbce36f03	-0.027762895
235	0x3d474b0c	0.048655555
236	0x3ce3c341	0.027803065
237	0xbbe627bf	-0.007023781
238	0x3d09e667	0.033666994
239	0x3d927c70	0.07152641
240	0x3dbbaf83	0.091643356
241	0x3ce9902b	0.028511127
242	0xbd86c9c3	-0.06581452
243	0x3bcffc69	0.0063472283
244	0x3afa5497	0.0019098696
245	0x3c2c661e	0.0105223935
246	0xbd08bc3d	-0.033382643
247	0x3babca99	0.0052426574
248	0x3c4538d3	0.012037474
249	0xbd77a9a2	-0.06046451
250	0x3cbb0177	0.022827847
251	0xbb90530e	-0.004404432
252	0x3b6863f5	0.003545997
253	0xbcb2ec2e	-0.021841135
254	0x3da07154	0.078341156
255	0x3d461bc7	0.048366334

module.net_sm.layer2.0.bn2.weight f4 [32]
0	0x3f64c979	0.8936992
1	0x3f6c0512	0.92195237
2	0x3f6b13e1	0.9182721
3	0x3f65a9ee	0.8971242
4	0x3f6bbb35	0.9208253
5	0x3f61e07b	0.88233155
6	0x3f6d3437	0.926578
7	0x3f64f167	0.8943085
8	0x3f65316c	0.89528537
9	0x3f5f1080	0.8713455
10	0x3f65ff59	0.89842755
11	0x3f66463a	0.8995091
12	0x3f57f7ec	0.84362674
13	0x3f5a9a2d	0.85391504
14	0x3f5d7063	0.86499614
15	0x3f6ebec6	0.9325985
16	0x3f6bf363	0.92168254
17	0x3f62f8f5	0.8866113
18	0x3f6b5258	0.9192252
19	0x3f5f6682	0.8726579
20	0x3f5bb994	0.85830045
21	0x3f6a70df	0.9157848
22	0x3f67ae4c	0.9050033
23	0x3f614272	0.8799201
24	0x3f5b349e	0.8562716
25	0x3f5a07cf	0.85168165
26	0x3f5a61a0	0.85305214
27	0x3f62031e	0.88286006
28	0x3f69e76a	0.91368735
29	0x3f5fb15c	0.87380004
30	0x3f68a428	0.9087548
31	0x3f6654eb	0.89973325

module.net_sm.layer2.0.bn2.bias f4 [32]
0	0xbced599f	-0.028973399
1	0xbb47d9eb	-0.003049488
2	0x3ac1f48b	0.0014797611
3	0x3bbe4713	0.0058068126
4	0xbc71e770	-0.014764652
5	0xbc8a91b3	-0.016915178
6	0xbcdaf5dd	-0.026728565
7	0xbc5af875	-0.013364901
8	0xbb8466dd	-0.0040405826
9	0xbcb245fd	-0.021761889
10	0xbb71aa3a	-0.0036875145
11	0xbc1bcc52	-0.009509163
12	0xbd2713ef	-0.040790495
13	0xbd2060f3	-0.039154958
14	0x3be2c3a7	0.0069202962
15	0xbbb2aded	-0.0054528625
16	0xbc41c1ee	-0.011826022
17	0xbd01cc84	-0.031689182
18	0xbd70cc1b	-0.0587884
19	0xbbf0bcd6	-0.0073467297
20	0xbcfc9828	-0.030834273
21	0xbc5a63e9	-0.0133294845
22	0x39a2c705	0.0003104733
23	0xbd0f16be	-0.034933798
24	0xbccc6c35	-0.02495394
25	0xbd171bd3	-0.03689177
26	0xbd1731ba	-0.036912657
27	0xbb226726	-0.002478072
28	0xbc8628a8	-0.016376808
29	0xbbe0f994	-0.0068656895
30	0xbc302ac4	-0.010752384
31	0xbd0eb6c9	-0.034842286

module.net_sm.layer2.0.bn2.running_mean f4 [32]
0	0x3ced1529	0.028940754
1	0x3eb60f8d	0.3555874
2	0xbeb329a6	-0.34992713
3	0xbf0199a9	-0.5062509
4	0xbcf2828c	-0.029603265
5	0x3f1f42bd	0.6221121
6	0xbf442cfa	-0.7663113
7	0xbf3632a7	-0.7117104
8	0xbf316fbc	-0.6931112
9	0xbd9daa69	-0.07698519
10	0xbed98bce	-0.42489475
11	0xbf7fe05f	-0.9995174
12	0x3f455b79	0.770927
13	0xbed9f2d0	-0.42568064
14	0xbe598948	-0.21243775
15	0xbd353e2d	-0.04424875
16	0xbe7d9c61	-0.24766685
17	0xbe99c764	-0.30034935
18	0x3ea5d099	0.3238571
19	0xbd462e33	-0.048383903
20	0xbfb6ea5e	-1.4290273
21	0xbdfc9ecd	-0.12334976
22	0x3f0970a5	0.53687507
23	0x3d90bdfe	0.07067488
24	0xbdeb1f48	-0.11480576
25	0x3d436943	0.047707807
26	0x3f5fbedf	0.8740062
27	0x3dcedd14	0.10100761
28	0x3ea05d41	0.31321147
29	0xbeec9038	-0.4620378
30	0xbf3b07bb	-0.7305867
31	0xbecd39c5	-0.40083137
