model/model_20200914183005/model_final_std_1_0300_sm.pth (torch_old, 960817 bytes, 59 tensors)

module.net_sm.conv1.weight f4 [32, 1, 7, 7, 7]
00000000: c8d7 8b3c 0882 273d a32f 0a3b 2d07 31bc
00000010: 76d1 7039 bf9f b1bc 902d 823b f2f8 74bb
00000020: 1183 69bc 3e0f 91bc eab7 cebc 0c8c 07bd
00000030: 61d9 c2bc 5e41 0ebd 5e2c b33c b8a1 4fbc
00000040: 1388 1abd 0aaf d9bc 4daa 53bc ef02 50bd
00000050: 6043 eebc 384e 3f3d e37f b8bb baa6 9fbc
00000060: 423d edbc 1614 86bc 61b6 b53b 7329 69bc
00000070: 0c8e a53c ef4f 893b c2dc b6bc 73bb 5e3c
00000080: b761 4e3b 5c9b 053c 1c90 5538 3e86 303b
00000090: 9b31 be3c eb0a 3fbb 4404 753d 528e 0a3d
000000a0: e50b 693b 81e8 5cbc 6508 16bd 3596 f3bc
000000b0: 4e4a 6a3c 9a92 a23c a2bb d63c cb14 da3c
000000c0: 1c8b 69bd 9b21 00bb 9f31 2a3c 8b30 47bc
000000d0: fe2e d2bc 0743 17bd 37e6 68bc ffc2 8abb
000000e0: 43f8 f2bc dd10 fbbc 7606 8bbc 8d72 26bd
000000f0: 36fe 1dbd fe3b b6bc 5099 4cbc fca8 56bc
00000100: 5dcd c9bc 06a5 8ebd a21b 21bd 9541 02bd
00000110: 07e9 53bc 2498 9abb 9e1e 0cbc 7902 38bc
00000120: 5c43 e6bc a72a b7bc 821b 9dbc 6c0d b1b9
00000130: 6cde 84bb 229e 703c 996a e7bc a5e4 61bc
00000140: 555f 4f3c 959d 2ebc ef9d 893b 302b bb3c
00000150: 0efe a3bc 9474 e1bc 7470 dc3b 61c7 083d
00000160: a835 173d fa90 123d 1e91 74bb 9f32 32bd
00000170: 36ad 04bd 1539 513c 6bc7 a23c c92d 143d
00000180: 3f65 793c a57a 0abc aa1d f6bb 6298 633b
00000190: 0837 b2bb 1840 b2bb 6405 bbbc 58af 603a
000001a0: 4c2c 68bc ad5b 8fba c4c2 31bb fd61 e93b
000001b0: c4dd 11bd fb3d 20bd 599b b8bc 4b88 643b
000001c0: f2a4 a83c f2f9 4c3c 6d26 41ba 05df 36bc
000001d0: e3b6 9c3b eada c5ba 5b13 803b 5a1c 213d
000001e0: e6c2 8c3c f851 74bd d0e5 79bd 6466 29bd
000001f0: 05e5 75bc a5d2 953c 0b73 1e3d 8b51 87bb
00000200: 523f fcbb b667 05bc e448 15bc d58c 183b
00000210: 37d3 a73c 7dc8 063c 7e4e bbbc 5c92 1bbd
00000220: a447 9b3c aa0c 2a3c c337 ba3b 1a40 58bc
00000230: bb83 783c fac8 a7bc 55f1 1abc 58d0 243d
00000240: e082 c13c 4e2d cc3c 864f 8bba 3077 17bd
00000250: 2cca 12bd 3aa2 9ebb e481 9fba 9c6a 193b
00000260: c3de 5e3c fb7f 3fbc 91e7 a9bb 90d3 273c
00000270: 5439 6ebc f9fc f03b edd1 56bb 22d8 5ebc
00000280: c3dc 04bd f4e8 1d3d ddb6 f83c e957 b2bb
00000290: 3613 8e3c 9ef8 1d3d f0e9 fc3b f627 81bc
000002a0: 6a0f 2c3d 21f3 823c d722 97bc c419 46bc
000002b0: dfbb 9c3c 7783 f7bb f817 d6bb d60a 363c
000002c0: 67e8 17bc b97d 32bd 93bc bdbc 4f1a 46bd
000002d0: fe33 97bc 7255 3e3b 8807 353d bee7 a93b
000002e0: dc67 0bbd 287d d2bc 188c 1fbd ecdc 0ebd
000002f0: 04c5 34bc 0fd2 163d e5d1 e7bb 69da aebc
00000300: 5319 fdbc 8a5c fc3b 6e79 953c 6340 21bd
00000310: 0319 13bd 2c91 0a3d 3c0b 633c e62c 45bc
00000320: 53fe c23c 40f5 263b 7b9c acbb b587 e4bc
00000330: 4947 5c3c e0d5 81bc eadf 07bc 9848 63ba
00000340: 73cb 97bc d96c 03bd e761 0fbd b917 b03c
00000350: edcb 79bc b0fd 2dbb 0407 c43c 0789 7d3c
00000360: 085b 58bb 15ea 0abc 5c7a 9f3c 7d50 c3b9
00000370: 1a48 02bc 4c7a 073d 46f2 bdbc 6b38 19bc
00000380: ab3f 503c d196 1bbc 50c7 8dbc c62d 17bd
00000390: f5d7 fbbc 4635 eebc 38d5 62bc 6615 c33c
000003a0: 607b 01bc c53d debc cd00 05bd 4f42 19bd
000003b0: 1930 4bbd 834b 23bd 76d6 013d e1d5 b83c
000003c0: 78a9 193c 79c2 2cbd 5cfb d4bc a29b dfbc
000003d0: 6321 0fbd a271 6abc 36ce ef3c acb0 cf3c
000003e0: 4616 fc3c ca64 4a3c 6c18 32bb 2448 a53b
000003f0: 2104 1fbd 3470 8cbb 6bcc d93c 9c5b 5dbc
0.017070666 0.04089549 0.0021085523 -0.0108049335 0.00022966214 -0.021682618 0.0039727166 -0.0037379828
-0.01425244 -0.017707463 -0.025234181 -0.033092543 -0.023785295 -0.034730308 0.021871742 -0.012672834
-0.037727427 -0.026572723 -0.012919021 -0.050784048 -0.029084861 0.046705455 -0.0056304797 -0.019488681
-0.028959874 -0.016367 0.005545423 -0.014231074 0.020209335 0.004190437 -0.022322062 0.013594496
0.0031491348 0.008154716 5.091737e-05 0.0026935483 0.023217013 -0.0029150795 0.05981852 0.033827133
0.0035560068 -0.013483168 -0.0366291 -0.02973471 0.014299942 0.019845296 0.026212517 0.026621243
-0.05701743 -0.001955128 0.010387807 -0.01215757 -0.025657173 -0.036929157 -0.014215044 -0.004234671
-0.029659396 -0.03064769 -0.016970854 -0.040636588 -0.038572513 -0.022245403 -0.012487724 -0.013101812
-0.024634058 -0.069650695 -0.039332993 -0.031800825 -0.012933976 -0.0047178436 -0.008552222 -0.011231058
-0.028108291 -0.022359205 -0.019178156 -0.0003377007 -0.004054835 0.014686139 -0.028249072 -0.013787423
0.012657006 -0.010657688 0.0041997354 0.022847742 -0.020018604 -0.02752141 0.0067272726 0.033393268
0.036916405 0.03578279 -0.0037317942 -0.043505307 -0.03239175 0.012769957 0.01987048 0.036176477
0.015221893 -0.008452092 -0.0075108605 0.0034728278 -0.005438689 -0.0054397695 -0.022829719 0.000857105
-0.014170717 -0.0010937356 -0.0027124146 0.007122277 -0.035611883 -0.03912161 -0.022535013 0.0034871276
0.020586465 0.0125107635 -0.00073680916 -0.01116157 0.004782544 -0.0015095149 0.0039085574 0.03933368
0.017182779 -0.059648484 -0.061010182 -0.041357413 -0.015008216 0.01828892 0.038683932 -0.0041295937
-0.007697978 -0.008142402 -0.009111617 0.0023277302 0.020486457 0.008226511 -0.022864576 -0.037981376
0.01895506 0.010378996 0.005682917 -0.013198877 0.015168126 -0.020481575 -0.009456952 0.040237755
0.023621976 0.024923947 -0.0010628558 -0.0369789 -0.035837337 -0.0048411163 -0.0012169448 0.0023409491
0.013602915 -0.011688228 -0.0051850756 0.0102433115 -0.014540035 0.0073543754 -0.0032778934 -0.013601335
-0.032437097 0.03855224 0.030360634 -0.0054426086 0.017343145 0.038567178 0.007718317 -0.015766125
0.042006887 0.015985074 -0.01844923 -0.012091104 0.019132553 -0.0075535136 -0.006533619 0.011110982
-0.009271718 -0.04357693 -0.023161208 -0.048364934 -0.018457409 0.0029042629 0.044196635 0.0051850965
-0.034034595 -0.025694445 -0.038951963 -0.034878656 -0.0110333 0.03682142 -0.007074582 -0.02134438
-0.030895865 0.007701461 0.018246379 -0.039368045 -0.035912525 0.033829853 0.013857659 -0.01203463
0.023802912 0.002547577 -0.0052676774 -0.027896741 0.01344473 -0.015849054 -0.008293131 -0.000867018
-0.01852963 -0.032086227 -0.035005476 0.021495687 -0.015246374 -0.0026548915 0.023929127 0.015474564
-0.0033013243 -0.008478661 0.019467525 -0.00037253267 -0.007951761 0.033075616 -0.023186814 -0.00935183
0.012710492 -0.009496407 -0.017306954 -0.036908887 -0.030742625 -0.029078137 -0.013844781 0.023813915
-0.00790295 -0.027129063 -0.032471467 -0.037416752 -0.049606416 -0.039866935 0.031698667 0.022562923
0.009378783 -0.04217765 -0.025998764 -0.027295891 -0.03494395 -0.014309319 0.029273134 0.025352798
0.03077234 0.012353132 -0.00271752 0.005044 -0.038822297 -0.0042858366 0.026586732 -0.013510611

module.net_sm.bn1.weight f4 [32]
00000000: 765f 5d3f bb27 5c3f 0d54 703f f564 783f
00000010: 1e66 6f3f 535f 783f f7cd 763f 005b 703f
00000020: c2cd 703f 93a9 6d3f 82af 5f3f 34a9 633f
00000030: dd9d 723f 09e4 6a3f 8597 7d3f c1b7 5b3f
00000040: bf3f 663f a990 653f f99a 643f 41f1 633f
00000050: 1664 6d3f a20a 703f 2d34 7b3f 109c 783f
00000060: 7c1f 6f3f 416f 5c3f a7a2 743f c5d5 623f
00000070: 66e6 683f 13f2 5a3f a068 603f f96e 733f
0.86473787 0.85998124 0.9387825 0.9702905 0.93515193 0.97020453 0.9640803 0.93888855
0.9406396 0.92836875 0.8737718 0.8893006 0.9477213 0.91754204 0.99059325 0.8582726
0.8994102 0.8967386 0.8929897 0.8904 0.92730844 0.93766224 0.9812649 0.9711313
0.93407416 0.8610726 0.9556069 0.88607436 0.9097656 0.85525626 0.87659645 0.95091206

module.net_sm.bn1.bias f4 [32]
00000000: eaec 863b 4eef 3ebc 3b04 df3b 1527 873b
00000010: bebe 78bb 00ec 893c 175d 873b 9766 c43a
00000020: 6b3b 0ebc 7e68 4d3c 3c50 aabc fa5d 73b9
00000030: 13d3 a3bc 26ba 13bc 6add 48bc 1e48 edbc
00000040: bd71 88bb 53fd 9abb be11 58bc dbff 6c3b
00000050: 8f8b 61bb b381 d73c 6b45 143b 17be 003b
00000060: 2507 a4bc e312 8cbc b04c a53b 0632 99bc
00000070: ca19 61bc 58c9 00bd 50bf efbb 0ccc 1cbc
0.004117598 -0.011653734 0.0068059242 0.004124532 -0.0037955488 0.016836166 0.00413097 0.0014984187
-0.008681159 0.01253712 -0.020790212 -0.00023209295 -0.019998109 -0.009016549 -0.0122598205 -0.028965052
-0.0041639493 -0.0047299056 -0.013187824 0.0036163244 -0.0034415459 0.026306963 0.0022624384 0.0019644552
-0.020022938 -0.01709885 0.0050445423 -0.01870061 -0.013739059 -0.031442016 -0.0073165074 -0.009570133

module.net_sm.bn1.running_mean f4 [32]
00000000: 1ec7 9bb8 e832 e338 ad03 7d38 9e64 dc38
00000010: 0342 2136 34e0 5138 cfab f838 6da1 a137
00000020: b191 9438 b6cb 5338 3a44 04b8 d652 17b8
00000030: 03b5 5738 92e6 d538 1c5a ad37 4f83 92b6
00000040: 0802 9eb8 2b4a 8038 70fb d6b8 9f92 d5b7
00000050: ce2e 5038 6af5 8bb8 1769 8a38 9c58 da38
00000060: 2db8 8738 a1d4 c338 f874 aab8 b716 b9b8
00000070: 2c45 2938 e4fd 42b8 cb4a 31b8 bc5b c6b6
-7.4280644e-05 0.000108336855 6.0323324e-05 0.00010509159 2.4029293e-06 5.003829e-05 0.000118575634 1.9267865e-05
7.084327e-05 5.049604e-05 -3.1534793e-05 -3.6078352e-05 5.1428575e-05 0.000101995785 2.0665168e-05 -4.3664254e-06
-7.5344054e-05 6.1173305e-05 -0.00010251149 -2.5459854e-05 4.9634655e-05 -6.6737484e-05 6.599927e-05 0.00010411555
6.471607e-05 9.33793e-05 -8.128019e-05 -8.8257184e-05 4.035716e-05 -4.648966e-05 -4.2269745e-05 -5.911539e-06

module.net_sm.bn1.running_var f4 [32]
00000000: a8a3 a73b 8be2 123c be0b ee3b eb1c f93b
00000010: 6a07 c83b af4b ec3b 3af1 d53b dac8 013c
00000020: abb4 013c 33cf a33b 7efa aa3b 20e5 973b
00000030: 081f 353c 4c76 be3b 65c7 013c 5dc0 a53b
00000040: 6e19 ae3b 76cb a43b 8a75 993b 43b1 a33b
00000050: e714 f33b 6fe2 f53b eda6 db3b 869d df3b
00000060: 84ec dc3b 7af2 183c af5c 033c 30a4 863b
00000070: c0c5 af3b d841 943b 489b 943b a45c 033c
0.005115945 0.008965145 0.0072645834 0.0076023242 0.0061043995 0.0072111706 0.0065290006 0.007921422
0.00791661 0.0049990653 0.0052178493 0.004635468 0.011054762 0.005812442 0.0079210745 0.005058332
0.00531309 0.0050291372 0.004683201 0.0049954965 0.0074182632 0.0075037996 0.0067032487 0.006824198
0.006742062 0.009335155 0.008017703 0.004108928 0.00536415 0.0045244507 0.0045351125 0.008017693

module.net_sm.layer1.0.conv1.weight f4 [32, 32, 3, 3, 3]
00000000: 6292 713d c568 373c bec9 853d 23c0 39bd
00000010: 6b96 8a3d c6e0 1f3d 3d7b a33c 8e1e 7a3d
00000020: fa05 85bd 55c1 aabc 1558 2d3c a2ec 3c3d
00000030: 7ff5 c63b 4027 49bd 4f56 683d 3815 863d
00000040: cddb bc3d 6ec6 303c 98cf a5bd adbc c6bc
00000050: 3b74 a03d 74c1 653c 588a f03c 9029 35bd
00000060: a9f5 ac3c 4386 95bc 6f46 b93d dbd9 863d
00000070: 9c5b 2e3c 5992 9b3d b496 37bd 816f 213d
00000080: 0d7e 5a3d bb7c f83a 3b83 99bc aece 6c3d
00000090: e075 f63c a80d 613c a837 833c d530 1d3d
000000a0: 7233 14bd fbd5 3e3d a494 103d b7f5 363d
000000b0: ddcb b23d 1ba2 75bd 36ae 01bd da0f d03c
000000c0: 1227 08bd d907 82bd 5331 c2bd 5c93 c0bc
000000d0: 35dc f4bc e368 9cbd 3683 53bc ffdc 673c
000000e0: c439 f33b f7fd ac3c adc0 4d3c 531f 2dbd
000000f0: 6ce8 423a 2c7e 9abb 055b 0d3d ff48 23bc
00000100: 50ac 623d 2f93 33bd 0ddb c73c ae2a 183d
00000110: d3ae 36bd 9d88 44bd ae30 0dbe 123a 2a3d
00000120: 82ea 93bd 1dc3 e73d 1076 e2bb a587 a03d
00000130: 27ca 953d cf6e bebc 0622 c3bd abdc 74bd
00000140: c59c 433d 5996 17bd 119b aabd c4d5 17bd
00000150: f4b5 43bc 7f32 47bd ba37 b83d 6d76 2fbd
00000160: 18e7 343d f0e8 bf3c 1c5e 7ebc 27e3 823c
00000170: a501 313c e4cc d1bc f3a0 f9bc ad94 bf3c
00000180: ce14 8b3d 4f5d 46bd 004f d83c ff85 31bd
00000190: ef8c f8bc 6f68 133d cc52 a2bd db4f a93c
000001a0: 26ef 4a3d 7567 c9bc a0a6 f1bc 601d b6bd
000001b0: 5bbe 66bd d254 b3bc f619 0a3c ae6a 90bd
000001c0: 7360 bbbd fc92 21bd 746f 3d3d ff67 a7bc
000001d0: 7206 2fbb 95f4 83bd 82f4 043d 157b 0d3d
000001e0: bed5 8d3c 659b 86bd f77e 943c 0da9 3abd
000001f0: 954d 263a 1306 933d ede7 b4ba fc20 eb3b
00000200: 0c69 e7bd 8fc7 ebbc 7829 efbc d989 6e3c
00000210: 9fd8 06bd 45e9 09bb e902 5d3d 32fb fcbc
00000220: 3846 2fbd 001f 3abd 6a9a 973d 2d07 ad3d
00000230: 74b4 06bd 542f c13b 4cea ce3c b58b 3e3c
00000240: 6f5b edbc d0cc 7e3c 0c06 7abc 483b f1bc
00000250: 009e 83bd 3d5d 14bb c07b d1ba 80af 66bd
00000260: 279c 473d 06aa 753b ede9 5bbc 4f89 20bb
00000270: 5fb7 e4bc 3e6a 9c3c 982c 8c3c 7184 9bbd
00000280: 9d71 b7bb e916 5e3d 9ab2 38bd 1b66 50bd
00000290: c826 273d fc6d df3c a486 023c 4b95 4b3d
000002a0: be04 aabc 1cd3 3a3d 2a32 9a3d e9a4 5dbd
000002b0: 59a1 323c 7f96 9a3a 6f4a c8bc 7a46 d13d
000002c0: 8044 9dbc 3b52 18bc 9741 663d d2d7 e03d
000002d0: 0812 013d 5259 12bd 09e3 b5bd 706d 493d
000002e0: 7b91 10bd 0fed 123c 3183 a1bd 4b90 3abd
000002f0: fe89 2d3c 0b3e 37bc 8b51 06bd b940 10bc
00000300: 6d6d c4bb dbd0 3f3d 419e 223d 1513 88bc
00000310: 7bcd 81bd 98fc 05bd 8f82 abba 2025 d83d
00000320: 78ea 4fbc 4529 03bd 29bd 27bd 1849 463d
00000330: b26e 0cbe 3a4f ebbc be79 85bd 42bc 91bc
00000340: 5ef9 253c f8e4 5d3d 8a46 b73c cb6e 9bbc
00000350: 2387 14bd d1f3 58bc da05 a4bd 2de0 2abc
00000360: 27b9 8dbd 0dbd 98bd 98d1 0a3d 9ac3 843c
00000370: bccc 16bc 524f 50ba f796 e5bb 3430 533c
00000380: ca7a f43c 6b4f d1bc fab9 1a3d aeae 3dbc
00000390: 45b6 93bd 8c35 153d e5cd 0c3d b89b 303d
000003a0: 03ee a23d 43f2 033d 34c7 27bc 35a8 ad3c
000003b0: 8a7d 8a3d 7351 2b3d 9ca2 71bc fc4d 91bd
000003c0: b0b0 5fbd 950d 04bd 730c e43c 8322 9b3b
000003d0: 3676 a03d 3304 a43c 7e0f 81bb 07ef 57bd
000003e0: 3ca6 aabb 56c7 cd3c 81c7 0a3e 341e 6d3d
000003f0: ed3a 11bc a580 943c 9ba0 0a3d bf5a 63bd
0.058977492 0.011194413 0.0653262 -0.04534925 0.06766971 0.03903272 0.019956226 0.061064295
-0.064952806 -0.020844141 0.010580082 0.046124108 0.006071746 -0.049109697 0.056722935 0.06547016
0.09221611 0.010789497 -0.08096236 -0.02425989 0.07834669 0.014023174 0.029362842 -0.04422909
0.021113234 -0.018252498 0.09046637 0.065845214 0.010641959 0.07596273 -0.044821456 0.03941298
0.053342868 0.0018958071 -0.018739333 0.057814293 0.030085504 0.013736166 0.01601775 0.038376648
-0.036181875 0.046590786 0.035298005 0.044667926 0.0873029 -0.05996905 -0.03166028 0.025398184
-0.033240385 -0.06349153 -0.09482064 -0.023507766 -0.02989016 -0.07637193 -0.012909701 0.014151811
0.0074226577 0.021117194 0.0125581445 -0.0422662 0.0007435146 -0.004714748 0.03451063 -0.009966134
0.05534011 -0.043841537 0.024396444 0.037150078 -0.04460032 -0.047981847 -0.13788101 0.041559286
-0.07222463 0.11316512 -0.006911047 0.07838372 0.07313948 -0.023246197 -0.09527974 -0.059780758
0.04775693 -0.037008617 -0.08330358 -0.037069097 -0.0119452365 -0.04863214 0.08995004 -0.04283755
0.0441657 0.023426503 -0.015525367 0.015977455 0.010803615 -0.025610395 -0.030472254 0.023386324
0.067910776 -0.04842883 0.026404858 -0.04334068 -0.03034064 0.035988268 -0.079259485 0.02066796
0.049544476 -0.024585465 -0.029498398 -0.088923216 -0.05633388 -0.021891031 0.008429041 -0.070515975
-0.091492556 -0.039446816 0.046248868 -0.020435331 -0.0026706723 -0.06443135 0.032459743 0.03454121
0.017313834 -0.06572608 0.018126948 -0.045571376 0.0006343958 0.07178893 -0.001380203 0.007175563
-0.11299333 -0.02878168 -0.029194579 0.014559233 -0.03292143 -0.002104358 0.053957853 -0.030881498
-0.042791575 -0.04543972 0.07402499 0.08448634 -0.032886937 0.0058955345 0.025258206 0.011629988
-0.028974263 0.015551761 -0.015260231 -0.029447213 -0.064266205 -0.0022638582 -0.0015982315 -0.056319714
0.048732903 0.0037485375 -0.0134224715 -0.0024495905 -0.02791947 0.019093629 0.017111108 -0.075936206
-0.0055982606 0.054221068 -0.045092203 -0.050878625 0.04080847 0.027274124 0.007966671 0.049702924
-0.020754214 0.045611486 0.07529099 -0.05411235 0.010902726 0.0011794119 -0.024449555 0.102185205
-0.019197702 -0.009296949 0.056214895 0.109786645 0.031511337 -0.035729714 -0.08881194 0.049176633
-0.03529499 0.008967652 -0.07886351 -0.045547765 0.010591982 -0.011184226 -0.03279261 -0.008804494
-0.00599449 0.04683004 0.039701704 -0.016610662 -0.063380204 -0.032711595 -0.0013085174 0.10553956
-0.012690179 -0.03202178 -0.04095188 0.04840955 -0.13714102 -0.028724302 -0.06517361 -0.017789964
0.010130255 0.05417344 0.022372503 -0.018973729 -0.03626169 -0.013241724 -0.080089286 -0.010429424
-0.06920081 -0.074579336 0.03389129 0.016206551 -0.009204086 -0.000794639 -0.007006522 0.0128899105
0.029843707 -0.025550565 0.037775017 -0.011577291 -0.072124995 0.03642802 0.034376044 0.043117255
0.079555534 0.03221346 -0.010240365 0.021198371 0.06762226 0.041825723 -0.014748242 -0.070949525
-0.05461186 -0.032239515 0.027837968 0.0047343387 0.07835047 0.020021534 -0.0039386144 -0.05271819
-0.005207805 0.025119465 0.13552667 0.057890132 -0.008864147 0.018127749 0.03384457 -0.055506464

module.net_sm.layer1.0.bn1.weight f4 [32]
00000000: 4958 683f 0adb 6b3f 320f 693f 2637 673f
00000010: 88fd 6e3f f9e3 633f 24df 683f 2306 693f
00000020: b1f5 643f 821d 6c3f fbc2 673f e442 683f
00000030: cb45 6c3f 6cf3 6a3f fea5 6c3f c9a0 6a3f
00000040: 4b7f 673f f83e 643f 5217 5d3f ed52 6a3f
00000050: 3c07 683f 9107 6a3f b5fd 6e3f e330 693f
00000060: 3e1c 633f 67ba 6d3f 2647 663f c5b4 653f
00000070: 2074 633f c86a 6a3f d1bc 673f 92d5 653f
0.9075971 0.921311 0.9103881 0.90318525 0.9335561 0.89019734 0.90965486 0.9102499
0.89437395 0.92232525 0.9053189 0.90727067 0.92293996 0.9177768 0.92440784 0.9165159
0.9042861 0.8915858 0.8636371 0.91532785 0.9063604 0.91417795 0.93355876 0.9109022
0.8871497 0.9286255 0.89952314 0.8972896 0.8884907 0.91569185 0.90522486 0.8977901

module.net_sm.layer1.0.bn1.bias f4 [32]
00000000: 95cb bbbb 791c 0d3c 65d5 88bb 4e1d 133c
00000010: 91a5 c9ba 29e1 93bc e1b8 7fbb 9107 8cbc
00000020: 0f0f 9ebc 4489 8e3c 29a6 59bc f8b9 c3bb
00000030: 23f8 f3bb f49e b83c 881c 433d 6d4a 8e3c
00000040: 439b daba 8793 483c 566e 0dbc 0a2a 063c
00000050: 864d be3b 81f5 4ebc a820 b43c 4694 b1bc
00000060: 8710 6ebc 6278 2f3c 616f 3fbb 6d65 983c
00000070: a195 3fbc 330a 9bba ddb1 d6bb bc10 68bc
-0.005731056 0.008612745 -0.0041758292 0.008979155 -0.0015384426 -0.0180517 -0.0039020109 -0.017093452
-0.01929429 0.017399438 -0.013284245 -0.005973097 -0.0074453517 0.022536732 0.04763463 0.017369473
-0.0016678352 0.0122422045 -0.008632263 0.008188734 0.0058075814 -0.012631775 0.021988228 -0.021677148
-0.014530308 0.010709854 -0.0029210674 0.018603051 -0.011693389 -0.0011828601 -0.0065519647 -0.014164146

module.net_sm.layer1.0.bn1.running_mean f4 [32]
00000000: 8319 02c0 4d9e 3540 8bd0 04c0 c307 a13e
00000010: 8a81 88bf c947 383f 624f 4c40 d8ed 9fbf
00000020: 7c6d 25c0 4134 3bc0 cef7 80c0 ead0 54c0
00000030: f0af 7340 51bf 18bf 2937 9d40 28bc b7bf
00000040: 362d 0940 472b 3140 2801 1340 cc45 acbf
00000050: d073 11c0 43e7 c2c0 54a7 c7be 00d4 d3c0
00000060: d467 0d3f 3c11 023f 0a63 1a40 d47d 8d3f
00000070: 03ae 5640 426a 8e3f 798c 56bf 5cfc a33e
-2.032807 2.837787 -2.0752285 0.31451234 -1.0664532 0.71984535 3.1923451 -1.2494459
-2.5848074 -2.9250643 -4.0302496 -3.325251 3.8076134 -0.59666926 4.9129834 -1.4354296
2.1433845 2.7682664 2.2969456 -1.34588 -2.2726936 -6.09073 -0.3899485 -6.619629
0.55236554 0.5080755 2.4122949 1.1054025 3.3543708 1.1126177 -0.83808094 0.32028472

module.net_sm.layer1.0.bn1.running_var f4 [32]
00000000: a4c6 2941 beb8 1541 7831 af40 e21f 3240
00000010: 1973 1d41 acf9 1041 e927 2741 d3ef bd40
00000020: 0aaf 1241 47bb 0841 1bc3 8b41 68c4 3d41
00000030: 8527 ba41 1c9b 8a40 80ae c341 653f 9540
00000040: 0601 b440 33f1 0541 8a04 0741 ae3b d340
00000050: ddea aa40 dec7 0242 5ca4 5840 1960 2042
00000060: 43d4 4e40 f28c 8e40 c963 cc40 4187 8c40
00000070: ff1d 8641 f2ab 8440 9542 f240 2711 5c40
10.610996 9.357603 5.4747887 2.783196 9.8406 9.060955 10.447244 5.9355254
9.167734 8.545722 17.470266 11.860451 23.269297 4.3314342 24.460205 4.6639886
5.625125 8.371387 8.438608 6.601035 5.34117 32.695183 3.3850317 40.093845
3.2317054 4.454705 6.387181 4.3915105 16.764647 4.1459894 7.5706277 3.438547

module.net_sm.layer1.0.conv2.weight f4 [32, 32, 3, 3, 3]
00000000: 69cd 683d dff9 143d 920c b5bd 23fb d73c
00000010: 74fa 123d 7641 0fbd 1201 1bbc d763 50bc
00000020: 2e3b 11bb aa94 ab3b f675 f13b 12f3 d5bc
00000030: eeea 573c f54c bb3c eb02 7ebd 93c2 ac3d
00000040: 16c7 c53d f2e2 dc3c 4332 823d 133a a13d
00000050: 16e1 35bd 597d eb3c fdc7 b23c 2cfa 1bbd
00000060: 84ed 86bc 3e72 c7bc bace e73a 6f73 913b
00000070: 053a 883c 78fb 8f3c 5149 20bd 4050 b3bd
00000080: 6391 6bbd 2ef9 013d 767c d337 2325 7e3d
00000090: 5328 a3bc 58da 7b3d 07f1 013d 8445 b63d
000000a0: 7659 4dbc b1f4 64bb 098b 8c3d 96b4 823d
000000b0: 41cd ba3c eadf 963d 093b 633d 0aba 0c3d
000000c0: e324 343d c6ef afbc c3f5 8dbb 9ed7 0c3d
000000d0: 95c7 353d ce56 fabc d78f 963d 722a 983d
000000e0: 3958 10be 12ed 20bc 6598 1fbd f80f b139
000000f0: 4bf7 35bd dd30 ebbd 6a32 083d 20b2 4bbd
00000100: bd75 523d 6d0e 833c 37f5 833d 5b71 913b
00000110: f8cf b7bc 33fd 163d 9d8b 843d ca24 303d
00000120: 67cd 603c 5211 30bc 7611 9ebc 382e 2fbd
00000130: 6bd8 813b d442 fdbb 87f5 c93c 83a0 82bd
00000140: 2411 8fbc a674 9a3d 9f16 993b ce12 a33d
00000150: 776b 10bd 68f0 2fbd ce7f c23b aa86 2fbd
00000160: 02c6 02bd a59e d63c 4ae2 f7bb ee7a 12bc
00000170: f04e debc 90d3 09bd d27a 30bc 8292 1ebc
00000180: c095 0cbd f7c4 dcbd ede2 7ebc 0531 acbc
00000190: 98c0 083d e2ff ae3c fb29 663d 3f7a d8bc
000001a0: 7642 3c3d ea3f 4d3d b23d 3b3d 328c 97bc
000001b0: 4f3b c6bc fc09 0b3d 2021 013d fac9 a13c
000001c0: cfa8 213c df0f 233d b354 383c c81d 083d
000001d0: 1c63 bf3d 0228 a43d d55a 623d ca3e e63c
000001e0: 227d 22bd 1bb2 47bc 4805 e23d 315a 84bc
000001f0: 605f cd3d a3b5 cdbd 8fce 363d 5841 15bd
00000200: df33 8bbc ff50 18bd 0b74 693d 6864 f93b
00000210: a8e9 81bc b31e 8b3d 9b83 7a3c d9e2 28bd
00000220: 3f17 2e3d 37ed 563d d46f fabc df90 b5bc
00000230: 2806 e63c f498 1b3d ba97 883c 0159 b4bc
00000240: 3dca b53c f216 a2bb 83ba 80bc 8937 663d
00000250: c7be 833d 365d 60bd 1fe0 9ebc 034c 253b
00000260: 9d63 48bd 3269 b13c 89da 0f3d 5011 b5bd
00000270: 9802 a33c 8d82 273d ebc8 403c 4224 f8bc
00000280: 234e 853d 9d8b 85bd cab6 df39 eefa 9f3d
00000290: b9f1 4b3d b94c 2d3d 6817 17bd 0939 3dbd
000002a0: 1617 01bd c100 dfbc c1fd e13c c1d7 8bbc
000002b0: e7b7 043c ea2a 98bc 882a bbbb b91a 203d
000002c0: e827 3d3b 2082 e23b 7ff6 c63c 570e dabc
000002d0: efde 0b3d 4d95 e8bc f0b0 4bbd 1cbc 7ebd
000002e0: f91c e3bc fe7f 90bc 6938 8dbd ec5e 5cbd
000002f0: dc4e 0b3d b338 70bd 77bd 71bd 8fde bebd
00000300: e057 b83d 26df 03bd a2b1 2d3d 6e29 8dbc
00000310: 174f a23d 49b2 41bd a4c4 293d 219a aa3b
00000320: 55af a5bd a0c8 633c 9fb7 d9bc f52a c7bd
00000330: fcac 7f3c a5a7 8dbc 8047 b0bc df36 f13c
00000340: 1b2a a9bb 066d 283c 4fc6 18bd 2c93 bd3c
00000350: 1e49 bb3b eb65 fcbb 8684 1cbb 9eb8 7f3d
00000360: 8b18 26bd 6e8d e3ba 1945 86bc b34b 6bbd
00000370: dcc0 febc 114e 73bc 4a0a 99bd 691d 88bd
00000380: 6c18 55bb 4369 02bd 3f3e f03b 732a 743c
00000390: fa01 14bd fa9e bf3a d745 d63c e622 103d
000003a0: 31f7 9d3c 59ed c6bc cdb7 30bd 2b82 a03c
000003b0: d24e adbc 554f a1bd fb2c 49bd eb2f 7a3c
000003c0: e574 09bc 3de2 1bbd 6198 55bc 39d5 d53d
000003d0: 9a79 a73c e78a dcbc 2387 d9bc 7c0f b5bd
000003e0: 6cf4 c0bc a641 21bd 839b 363c c76e 28bc
000003f0: 5056 463d 1dd7 573c 5b0b 78bd 02cd 0a3d
0.05683652 0.03637111 -0.08840288 0.026364869 0.035883382 -0.034974538 -0.009460704 -0.012719116
-0.0022160518 0.005236228 0.0073687984 -0.026116882 0.01317857 0.022863844 -0.0620145 0.084355496
0.09657113 0.026963685 0.06357243 0.07872405 -0.04440411 0.028746294 0.021823877 -0.03808038
-0.016470678 -0.024346467 0.0017685511 0.0044388096 0.016629228 0.017575964 -0.03913242 -0.08755541
-0.0575117 0.031731777 2.5211117e-05 0.062047135 -0.019916689 0.061487526 0.031724002 0.08899978
-0.012533536 -0.0034935887 0.06862456 0.063821 0.02280295 0.07366927 0.055476222 0.03435711
0.04398049 -0.021476638 -0.0043322756 0.034385316 0.04437979 -0.03055897 0.07351654 0.07429971
-0.14096154 -0.009822147 -0.038963694 0.00033771968 -0.04442529 -0.11483929 0.033251204 -0.04973042
0.051381815 0.01599809 0.064432554 0.004438562 -0.022438034 0.036862563 0.064719416 0.043003835
0.013720847 -0.010746317 -0.019295435 -0.042768687 0.0039625666 -0.007728914 0.02465321 -0.063782714
-0.017464228 0.0754178 0.004671886 0.07962571 -0.035258736 -0.04295388 0.0059356457 -0.042853035
-0.031927116 0.026198694 -0.0075648176 -0.0089404415 -0.02713725 -0.033649027 -0.01077147 -0.009678485
-0.0343225 -0.107797556 -0.015557033 -0.021019468 0.033386797 0.021362249 0.05619238 -0.026425479
0.04596182 0.05010978 0.045713134 -0.018499468 -0.024198202 0.03394507 0.03152573 0.01974963
0.009866907 0.039810058 0.011250663 0.033231527 0.093450755 0.080154434 0.055262405 0.028106112
-0.039670117 -0.01218846 0.110361636 -0.016156288 0.10027957 -0.1004441 0.044630583 -0.03643927
-0.016992508 -0.03718662 0.056995433 0.0076108463 -0.015858486 0.06792965 0.015290166 -0.041231964
0.042502638 0.05247232 -0.030570902 -0.022163806 0.028079107 0.037987664 0.016673911 -0.022015097
0.022191161 -0.004946583 -0.015713936 0.056205306 0.06432872 -0.054776393 -0.019393979 0.0025222308
-0.048923124 0.021656606 0.03512052 -0.08841193 0.019898698 0.040895987 0.011766653 -0.030290727
0.06509044 -0.0652077 0.00042670063 0.07811533 0.04979107 0.042309497 -0.036887556 -0.04619697
-0.031516157 -0.02722204 0.02758682 -0.017070653 0.008100486 -0.01857515 -0.005711857 0.039087985
0.0028862897 0.0069124848 0.02428746 -0.026618166 0.034148153 -0.028391505 -0.049729288 -0.062191114
-0.027723776 -0.017639156 -0.06895525 -0.053801462 0.034010753 -0.058647823 -0.05901858 -0.093197934
0.09001136 -0.032195233 0.042405732 -0.01723167 0.079252414 -0.047289167 0.041447297 0.005206362
-0.080900826 0.013902813 -0.026576815 -0.0972499 0.0156052075 -0.017291853 -0.021518469 0.02944511
-0.00516249 0.010279899 -0.037298497 0.023141466 0.0057155034 -0.0077025793 -0.00238827 0.062431924
-0.04055075 -0.0017360875 -0.01639037 -0.05744524 -0.031097822 -0.014850155 -0.074726656 -0.066462345
-0.0032515777 -0.031838667 0.007331639 0.014902699 -0.036134697 0.0014619522 0.02615635 0.03518953
0.01928291 -0.024283098 -0.043144036 0.019593319 -0.021155749 -0.078764595 -0.049115162 0.015270214
-0.008389686 -0.038057555 -0.013036818 0.104410596 0.020443726 -0.026921703 -0.026553696 -0.08840844
-0.02355405 -0.039369248 0.011145475 -0.010280318 0.048422158 0.013173846 -0.060557704 0.033886917

module.net_sm.layer1.0.bn2.weight f4 [32]
00000000: 38d8 583f 45c7 523f 24ee 6c3f d442 6a3f
00000010: 215d 6d3f fdec 683f fd03 6b3f ea67 6b3f
00000020: c129 623f 42fc 653f 37bd 713f f65a 663f
00000030: 95c3 673f d554 6b3f 674e 713f aac6 5c3f
00000040: f533 6a3f ff5a 593f f162 603f 490d 673f
00000050: 7cf5 653f 5884 6c3f 5561 633f 8d68 623f
00000060: a72e 683f 89a9 553f c30b 603f dc65 603f
00000070: 255e 6c3f 123a 603f 571e 693f b331 6a3f
0.84704924 0.8233531 0.92550874 0.9150822 0.9272023 0.90986615 0.9180296 0.91955435
0.8834496 0.8983804 0.94429344 0.89982545 0.9053281 0.9192632 0.9426026 0.8624064
0.9148553 0.84904474 0.8765097 0.90254647 0.89827704 0.9238944 0.8882039 0.8844078
0.90696186 0.83461815 0.87517947 0.87655425 0.92331153 0.8758861 0.9106192 0.91482085

module.net_sm.layer1.0.bn2.bias f4 [32]
00000000: 03d4 15bb b4ec 11bc 820e 7abb 6a2a 23bb
00000010: 5483 a73a a3af 393c 92a6 e5bb f84b dbbb
00000020: e014 7dbb 728f 333c 6b09 5dbc ce23 01bc
00000030: b7dd a3bc 53b7 5d3a a659 45bc d528 c2bc
00000040: 36f4 bcbb 2a49 8fbb 5ede 28bc 04cf 1e3b
00000050: 98a9 5ebc a2a7 613c 9ed6 f339 25bd 433b
00000060: 4bee efbb e28f a7bc e42d 3dbb f67a 4dbc
00000070: 24dd bbbb 83fa cfbc cc30 bdbb 4290 fc3b
-0.0022861965 -0.008906532 -0.003815562 -0.0024897107 0.0012780228 0.011333379 -0.007008382 -0.006692406
-0.0038617179 0.010959493 -0.013491015 -0.007882072 -0.020003183 0.00084577984 -0.0120453 -0.02370111
-0.005766417 -0.0043727355 -0.010306923 0.0024232278 -0.013590239 0.013772877 0.00046508474 0.0029867378
-0.007322108 -0.02045435 -0.0028866464 -0.012541523 -0.005733149 -0.025388008 -0.0057736393 0.0077076266

module.net_sm.layer1.0.bn2.running_mean f4 [32]
00000000: cf14 6a3f 3b6f 8d3e 5da1 81bf 0abb 56bf
00000010: 5472 bc3d 4848 fdbe 61e0 84bf 2594 a9be
00000020: d814 203d d727 bfbe e2eb 19be 0dc5 c8be
00000030: 615e 6abf b0a9 aabd f8fc 27bf c3b7 d93e
00000040: b3f4 4abe 9774 a63e 99bf 3dbf b8aa 23bf
00000050: 26d3 7cbf fc2e 2ebe ff74 6abf d76f 68bf
00000060: c0ff 3dbf d980 e3be 7014 6fbd 18f0 63bf
00000070: d23f c7be b2df 4abf 037c 95bf 607d 95bf
0.91438 0.27623925 -1.0127369 -0.8387915 0.09201494 -0.4946921 -1.0380975 -0.33120838
0.03908238 -0.37335083 -0.15031388 -0.39212838 -0.9155026 -0.083331466 -0.65620375 0.42523012
-0.19819908 0.32510826 -0.7412048 -0.6393237 -0.98759687 -0.1701011 -0.9158477 -0.90795654
-0.7421837 -0.4443424 -0.0583691 -0.8903823 -0.3891588 -0.7924758 -1.167847 -1.1678886

module.net_sm.layer1.0.bn2.running_var f4 [32]
00000000: ed41 bb3f 14fa 923f 86ed 5640 5dd3 8a40
00000010: 28a5 823f 683a 2940 9ae2 9e40 39d6 813f
00000020: ca4e 0c40 4ca1 e23f 6ea6 2e40 2ad8 913f
00000030: 783a 3640 2ba8 e63f 658c 5940 5ea0 cd3f
00000040: d899 353f 0a23 603f f82f 4f3f a304 1040
00000050: 2add a73f cf83 0840 5940 8040 d69f 8940
00000060: ec9b 0640 e46f 873f 530f 7f3f 0eff 9b3f
00000070: 06dd b33f 2a46 0540 34e8 c33f a954 3a40
1.4629494 1.1482568 3.3582473 4.338301 1.0206652 2.6441898 4.9651613 1.01435
2.192309 1.7705474 2.728908 1.1394093 2.8473186 1.8020071 3.399194 1.6064565
0.7093787 0.87553465 0.8093257 2.250283 1.3114369 2.133045 4.007855 4.300761
2.1032667 1.0581021 0.9963276 1.2187212 1.4051826 2.0824075 1.5305238 2.9114172

module.net_sm.layer2.0.conv1.weight f4 [32, 32, 3, 3, 3]
00000000: d4f5 ea3c 729a 7e3d 178c 5abc 698b 41bc
00000010: d712 843d 1db0 63bd 8272 3dbc 0a94 733c
00000020: cbc8 2a3d 7dc1 92bd 5cf0 95bc 32ae 333b
00000030: b88d 14bb 3b50 46bd 68bc a0bc 72d3 33bd
00000040: 26eb a0bc d6e2 333d 33ea c8bc a7ba 46bc
00000050: 2f0f d7bc 6f66 cc3b 20c8 f9bc b308 873d
00000060: 8610 1bbd 384f d63c f54f acbc 07bc 783d
00000070: 9a63 c9bb 161e b1bd c5f4 c03c 28cb c3bc
00000080: 8077 1b3d b032 aa3d 3008 b3ba 0dab abbc
00000090: 0506 8c3d 27e5 0a3d 5f82 3f3d 1fda d03c
000000a0: f774 833d 5f71 dfbb 2933 8a3b a594 0a3d
000000b0: 9fc0 9b3c c831 383d f3a8 e43d 88ab b23c
000000c0: bf77 e13c ec66 aebb b9ac 4bbd 6c9d 25bc
000000d0: 1d01 96ba b809 12bc 1f03 c1bb 5a40 353d
000000e0: b67f fdbc 0bad eebc dabe 82bd 7601 323d
000000f0: 6401 4ebd 90e5 783d e430 f43c 0e1f ef3d
00000100: a887 6abb adb7 fc3b d0c0 0b3d 448b ca3b
00000110: 1561 6b3d 3800 94bc 0a42 303d cf1f cf3c
00000120: 880f 1a3c 85e9 02bd 7b18 823d b270 12bc
00000130: 9ee8 0e3d 2c42 6a3d 5973 68bd 077b 68bd
00000140: e3ac 10bd fe21 3ebd 653a e3bc 276e 06bd
00000150: 0569 063d 49c2 debd 2c9e 17bc 5833 263c
00000160: 6f8c 193d def8 ae3c 0cc6 2ebc 8fe8 523d
00000170: 7424 41bb a04f 3e3d 202f 4f3d a88b 163c
00000180: 80bf afbc b2f2 25bd 69ae ba3b e517 6f3d
00000190: c465 72bd ffbe 89bd 148b 1fbc 19ca a93c
000001a0: 69fe 4a3c f68b aabc 9995 85bc 89a0 383d
000001b0: e601 1e3d 6e5a 0c3c 3bed 49bd b0d5 4438
000001c0: 635c 28bd fd10 793c 3ae2 ed3c 222e 1e3d
000001d0: 24a2 753b 4ce9 fb3c 7fbc 87bd 4865 e53b
000001e0: 96ff 24bd ec14 5abc 414a a53d 0802 903c
000001f0: d56d 343c 7074 fcbc f378 3a3c cf7c b3bd
00000200: 6a17 c33a b465 893c 887c 0dbd 6ab5 8a3b
00000210: d750 cebc 8f65 75bc 9d65 713d 91d0 cb3d
00000220: 2c5d c2bd 4077 0abc e1eb 993a 7617 503a
00000230: 461e 683c 0356 ecbc 5762 273c 613a 04bd
00000240: db05 4a3d 6414 53bc d6e5 bcbb 7344 913d
00000250: d7a7 483c b0c7 3e3d 9675 c5bd 5968 a43d
00000260: c65d 85bb ad64 603d 54c8 2d3d ec29 753d
00000270: d4c8 2cbd 8ff2 8f3d e9de 08bd 1bea 97ba
00000280: 2413 23bd 4550 313c 782e 79bd 2b3a d63c
00000290: 7143 073d 5d93 fe3b 4ebf 7b3c e207 463d
000002a0: 1d67 22bd f84a 07bd fb0a 153c 7eaa fdbc
000002b0: fa87 7d3d 2103 9dbc 88c1 923d 95dc 833c
000002c0: b5c5 9e3c 5996 493d 79c0 663d 1f1f e6bc
000002d0: c777 083d 0d8c dcbb 588d 93bd 023d 943c
000002e0: 5e9a 033d 8856 59bd 387b fabc 99da fabb
000002f0: ce28 39bd f7da d23c 25ac 5d3c 10e1 613c
00000300: c4d7 6c3c 8b80 82bd 5b9f 313d a425 0d3d
00000310: a476 85bd 5a2e 18bd ba89 b13d 1653 7e3d
00000320: acd8 a4bb f162 e63d f54e b8bd 89dd 87bb
00000330: cfc3 66bd bffc 54bd c841 9a3d 918b ab3b
00000340: 841a 45bd 3bc7 0c3d 3bc9 6ebd 19f5 2cbd
00000350: 9eda b63c c2b1 843d b74a fd3c 7d3f 513d
00000360: 0923 b23d c7ad a5bc 5963 21bd 49e3 e7b9
00000370: b877 96bd e69b 96bc db46 44bd e9f4 8abc
00000380: f893 90bd c645 c43d 9d99 b0bc 4ae1 b33d
00000390: 8e87 4f3d 7160 6d3d 653b 7cbd 52ab e23c
000003a0: a643 e2bc 593f fc3c 6c65 813d 77eb 823d
000003b0: 0329 e9bb 5e5e 813d 816e 97bc 7acb 843c
000003c0: 3142 ccbd 73c5 cb3a e134 3a3d b49e ffbb
000003d0: c886 7539 ceec 14bd 839f 633d 0244 acbd
000003e0: d479 38bc 8a16 57bd 3d4c 39bb 7c2f 75bd
000003f0: 5ea5 30bd 90ce 103c 6d1f 923b 6757 85bc
0.028681673 0.06215901 -0.013339064 -0.011813023 0.06448906 -0.055587877 -0.011562945 0.014866838
0.041695397 -0.07165811 -0.018303089 0.002741706 -0.0022667479 -0.048416357 -0.01962109 -0.04390282
-0.019643378 0.0439175 -0.024525737 -0.012129462 -0.026252357 0.006237797 -0.030490935 0.06593456
-0.037857555 0.026160821 -0.02103422 0.06072619 -0.0061459066 -0.086483166 0.023554215 -0.023900583
0.03795576 0.08310449 -0.0013659056 -0.020955587 0.06837086 0.033909943 0.04675519 0.025494633
0.06418794 -0.006818935 0.0042175245 0.033833165 0.019012747 0.04496935 0.11165037 0.021810308
0.02752292 -0.005322328 -0.049725268 -0.010108333 -0.0011444424 -0.00891345 -0.0058902646 0.044250824
-0.030944686 -0.029135248 -0.06384058 0.043458425 -0.050294295 0.060765803 0.02980847 0.11675845
-0.0035786424 0.0077123255 0.034119427 0.0061811525 0.05746563 -0.01806651 0.04303173 0.025283722
0.009403117 -0.031960983 0.063523255 -0.0089380015 0.03488981 0.057192013 -0.05675063 -0.056757953
-0.035321128 -0.046419136 -0.027737806 -0.032819893 0.032815 -0.10876901 -0.00925402 0.010144077
0.037487444 0.021358903 -0.010667335 0.051491316 -0.002947119 0.046462655 0.05058205 0.00918857
-0.021453619 -0.040514655 0.005697061 0.058372397 -0.059179083 -0.06725883 -0.009737749 0.02072625
0.012389758 -0.020818692 -0.016306685 0.045074973 0.03857603 0.008566482 -0.049298506 4.6929053e-05
-0.04110373 0.015201804 0.029038537 0.038618214 0.0037480677 0.030750893 -0.0662775 0.007000599
-0.04028281 -0.013310652 0.080708034 0.017579094 0.011012514 -0.03081724 0.011381376 -0.0876404
0.0014884297 0.016772129 -0.03454259 0.004233052 -0.025185032 -0.014977827 0.058934797 0.0995189
-0.094904274 -0.008451283 0.0011743271 0.0007938066 0.014167374 -0.028849607 0.010216317 -0.032282237
0.04932199 -0.0128832795 -0.0057647033 0.07093134 0.012247047 0.046577156 -0.09641568 0.08027715
-0.0040700166 0.054783512 0.042427376 0.059854433 -0.042183712 0.07028686 -0.03341571 -0.0011590155
-0.039813176 0.01082236 -0.06083533 0.026150784 0.0330233 0.007769032 0.015365435 0.04834736
-0.039649118 -0.03303048 0.009096856 -0.030965086 0.061897255 -0.019166531 0.071658194 0.016096393
0.019381383 0.04921565 0.0563359 -0.028091012 0.033317354 -0.0067305625 -0.072046936 0.018095497
0.032129638 -0.05306104 -0.030576333 -0.0076554534 -0.04520493 0.025739176 0.013529812 0.013786569
0.014455739 -0.06372174 0.043364864 0.034459725 -0.065167695 -0.03715358 0.086688474 0.062090956
-0.005030712 0.1124934 -0.08999435 -0.004146282 -0.05633908 -0.05199885 0.07532078 0.0052351435
-0.04812099 0.03436969 -0.058297377 -0.04222593 0.022321042 0.06479217 0.030919416 0.051085938
0.08698089 -0.020224465 -0.039401386 -0.00044229094 -0.07347053 -0.018384885 -0.047919136 -0.016962485
-0.07059473 0.09583621 -0.021557624 0.08783205 0.050666384 0.0579533 -0.06158008 0.027669583
-0.027620148 0.030791925 0.06318173 0.063925676 -0.0071154847 0.06316827 -0.01848531 0.016210306
-0.099735625 0.0015546515 0.045460586 -0.0078009013 0.0002341523 -0.036358647 0.055572044 -0.08411409
-0.011259515 -0.05251173 -0.0028274201 -0.059859738 -0.043126456 0.008838311 0.0044593127 -0.016277028

module.net_sm.layer2.0.bn1.weight f4 [32]
00000000: 7933 653f b3ee 703f ea78 663f 4433 663f
00000010: 42a1 683f 4ded 663f 592f 6a3f e35d 6b3f
00000020: 2a37 683f fac2 613f 635c 653f 608a 6b3f
00000030: 980a 653f 7789 6a3f 8dbd 663f 1836 6c3f
00000040: e4b5 6b3f 8cb8 613f a86b 653f ac89 7a3f
00000050: 00cb 6c3f 1c16 673f d09c 5b3f 28c6 633f
00000060: 1a3c 6a3f 4913 6b3f 9668 683f 0d18 6a3f
00000070: 3932 6b3f 23a8 6a3f 132e 623f dcf8 663f
0.89531666 0.94114226 0.9002825 0.89921975 0.9087106 0.9020584 0.91478497 0.91940135
0.90709174 0.88188136 0.89594096 0.9200802 0.8946929 0.91616005 0.9013298 0.9227004
0.9207442 0.8817222 0.89617395 0.9786632 0.92497253 0.9026811 0.8578615 0.8897424
0.9149796 0.918263 0.90784585 0.9144295 0.9187351 0.91662806 0.88351554 0.9022348

module.net_sm.layer2.0.bn1.bias f4 [32]
00000000: 0318 c5bc 039c eb3c 6793 d1bc 9335 21bc
00000010: ee79 d5bc fb99 43bc a6d3 153a cbc1 003c
00000020: 4e65 08bd de7b abbc c680 9ebc bcce 653b
00000030: a014 2fbd 7873 743c 3ecf 4bbc 3f9b 523c
00000040: 0fde a13b 0ad8 3bbd 1807 3ebc dd4c a53c
00000050: 3818 aa3c 06f5 5f3b 4f77 5ebd 2dd6 f8bc
00000060: d13d 08bc 1268 b3bb 0993 b1b9 825e acbc
00000070: 38e2 dc3c c734 3b3c 7eb6 dbbc 3366 dfbc
-0.024059301 0.028760916 -0.025582982 -0.009839433 -0.026059117 -0.011938567 0.0005715437 0.007858704
-0.033299737 -0.020933088 -0.019348513 0.003506585 -0.04274428 0.014920108 -0.012439547 0.012854396
0.0049398015 -0.045860328 -0.011598371 0.020178253 0.020763502 0.0034173145 -0.054313 -0.030375564
-0.008315519 -0.0054750526 -0.0003386962 -0.021041159 0.026963338 0.011426157 -0.026820417 -0.027270412

module.net_sm.layer2.0.bn1.running_mean f4 [32]
00000000: 8f7d 3040 752e b3bf bfa6 19bf b4ae 1f3f
00000010: d4e2 0340 d567 08c0 3d83 29c0 7b7d 75bf
00000020: 52cf 553f b175 833f 42d4 4e3f 0cae 4c40
00000030: 7f97 4340 7db3 4e3f 5b7a 91be f45f 9cbf
00000040: 5149 df3f 0158 213c c6cf 453f aa38 42bf
00000050: 49b9 adbf 5303 37c0 356a df3e 6039 2140
00000060: bb10 36be d6bf 1740 a4c0 17bf 5b43 f03f
00000070: cd52 66bf 2ef4 c7bf 1f7e 983e 32aa 883e
2.7576635 -1.3998553 -0.6002006 0.6237595 2.0607195 -2.1313374 -2.6486351 -0.95894593
0.8351947 1.0270292 0.8079263 3.198123 3.0561216 0.8074263 -0.28413662 -1.2216783
1.7444249 0.009847642 0.7727016 -0.7586771 -1.357217 -2.859578 0.43635717 2.519127
-0.1777982 2.3710837 -0.5927832 1.8770555 -0.89970094 -1.5621393 0.29783723 0.2669235

module.net_sm.layer2.0.bn1.running_var f4 [32]
00000000: 307f 0441 e65f 1940 0b84 4240 bfaf 2c40
00000010: 36e6 9540 2aa4 8e40 6002 9440 a96f 3140
00000020: a116 7a40 e792 3340 f237 6440 9e6d 8840
00000030: 4e40 b340 0418 6540 b8d7 aa40 d561 4a40
00000040: 458e 3c40 47f6 ca40 4f65 3140 e98e 8b40
00000050: 9e50 0340 d8e5 a540 5510 1b40 52a9 5540
00000060: 9a55 2940 b399 8b40 ab6a 2840 731b 0940
00000070: 1b79 1040 4f58 8a40 3834 5540 c4f3 3640
8.281052 2.3964782 3.0393093 2.6982267 4.684352 4.4575396 4.62529 2.7724402
3.9076312 2.8058412 3.5659146 4.263381 5.6015997 3.5795908 5.338833 3.1622212
2.9461834 6.342563 2.7718084 4.361195 2.0517955 5.184307 2.4228718 3.3384595
2.6458497 4.362512 2.6315105 2.1423004 2.2573917 4.32328 3.3313122 2.8586283

module.net_sm.layer2.0.conv2.weight f4 [32, 32, 3, 3, 3]
00000000: 54d4 dcbd c64d e5bc 258d f73c 7946 56bd
00000010: f087 5abd e271 9c3d c25b 3bba 10e5 923d
00000020: 01bb 00bb 6e67 3c3d 0acf 4abd 9f0e 893d
00000030: 87fc 953d 75f0 1d3c 1f68 913d 7a96 bf3d
00000040: 9297 7a3d 705e 093d 3065 50bd 58f7 873d
00000050: d6b8 c93c c1df b23c 2744 e53c 32f2 a1bc
00000060: 2ee6 6f3d 6a47 dd3d af68 a9bc d561 333d
00000070: e407 893d 7154 bc3c c144 73bd c01f 99bd
00000080: c61e b53d cc38 4bbd 203f fbbd 54cb 0bbd
00000090: 140c 193d c513 82bd df44 233d d44e 6ebc
000000a0: f446 d33c 7a72 5ebd b33f 0bbd dbfa 213d
000000b0: ae63 953d edf1 ebbd 5964 403d d2c7 753d
000000c0: 5a56 85bd c15c a23c 68eb f93b be88 9a3c
000000d0: 7f26 833d f13e f6bc 57e0 e23a 7299 6b3d
000000e0: 9cb3 03bc 8300 923d f70b 85ba 3172 d9bc
000000f0: fcb1 893d 4494 dbbd 0227 cd3d 096c 1f3d
00000100: 5837 3b3d 5602 d23d 50b6 7abb 4cba e1bc
00000110: 4c20 8d3b 0b96 2cbb 3f75 513d 6554 3bbd
00000120: 854a d4bc 028c 2a3d a550 79bc 8c45 c43c
00000130: fad2 78bc eb5e 513d 6a44 ae3d 8773 933b
00000140: b5ab 6d3c 4313 d4b9 33b3 a1bd 3b1c 95bd
00000150: 75c3 93bc 8310 1f3c 5c66 e6bb 124a 763c
00000160: f769 e5bc 3de5 52bd 8754 e2bc 042d 5fbd
00000170: 27f5 bb3b b868 76bd 2326 323e 1988 09bd
00000180: 3fdd ccbc f584 a03c cb6e 81bd 90a6 963d
00000190: 8606 8dbd 148b 8cbd 689b 943c 9b6f 94bd
000001a0: 293d 05bd ee99 97bb 59e7 533c b9c8 90bd
000001b0: 674c 12bc 51cd 893b 9788 973c c09c b0bb
000001c0: ec03 9b3b bb62 893d dce1 5d3d 21e8 09bc
000001d0: 5f99 a33c 26c5 c23c 4237 d33d 9738 863b
000001e0: 2e1a 1dbb e92f 6ebc 02de 31bd 66ce 8f3d
000001f0: f3e3 5abd 6e69 cd3c 7b75 2a3d dbdd 76bc
00000200: 18a7 8abd e9e2 6a3c 251e ca3b 71f7 d9bc
00000210: b108 b8b9 3cdb 6c3d 0e4f 983d 0554 53bd
00000220: 8135 2bba 9741 b73d e41e 04bd 5308 863d
00000230: bfdf 663c 1e8f b2bc f552 ad3d cb5a 6c3d
00000240: e24f 033a ac79 efbc 3340 7bbd 791d 433c
00000250: 1f33 b43d 448a 733d d2dc 4e3d f0c3 713b
00000260: 4f88 72bd 3085 24bd 6e58 053d fc24 a93a
00000270: e86b 8e3d d397 87bc 291d 57bc 328d 1e3d
00000280: 5ecb 763c bc28 27bd d1de 1a3d 00f8 693c
00000290: cb5d 103d caf6 c2bd 06f2 ac3c e620 dd3c
000002a0: 5cad aebc 1cbb abb8 0605 febb 19c4 b0bc
000002b0: 710d 0abc 4090 c53c ac8d bf3c d51d 28bd
000002c0: b1c9 f83c 4fb2 98bd d888 183d 4264 fe3c
000002d0: 8301 913d aa29 6c3d 18d2 32bc f4d4 99bb
000002e0: 7db5 55bc 4a83 f13c 7fe1 233c 23f5 14bd
000002f0: 2b01 d93b 3ede 5f3b 8126 083d 70d9 75bc
00000300: 45de 483d 95b3 3c3c e140 4a3c 71aa 4ebd
00000310: 316e 2a3d 9e73 2c3c 436e a6bc 7294 c73d
00000320: 6594 7b3c 2eac b83c b81b 5c3d 4917 ad3d
00000330: bce8 afbb 8b89 5ebd 162f 513c 3cf9 0a3d
00000340: a00f d73d a7a6 023d 9357 dabc 49a4 813c
00000350: a397 323c cfa0 243d 4112 24bd 6dbd 933c
00000360: 737d 01bd 157a b2bc efc6 f3bc fb9e eebd
00000370: b920 943c 0c42 5ebd dfa7 29bd 5a37 e63a
00000380: 6172 dabc d2bf ccbc 93e9 6dbd 8273 2e3d
00000390: db7d 11bd d3de cc3c 2f96 03bd 659e a83d
000003a0: 0cff ac3d 7810 0abd 7fc6 50bc 568c 24bb
000003b0: d6ea 8c3d 8471 16bd 0744 983d e286 273d
000003c0: b8d5 643d 070f 273c 7aba e4bb eb3d 673d
000003d0: 4b98 d43d 9a36 95bc 537e 7b3d 802f b5bd
000003e0: d09a 29bc 0e23 d3bd 2506 41bd db53 36bc
000003f0: 0124 77bd ed03 33bc b345 b33d 844d b6bd
-0.10782686 -0.027991187 0.03021867 -0.0523133 -0.053352296 0.07638909 -0.0007147157 0.071725965
-0.0019642713 0.045997076 -0.049513854 0.06692242 0.073235564 0.009639849 0.07099938 0.09354873
0.061179705 0.03353733 -0.05087775 0.06638974 0.02462427 0.02183521 0.0279866 -0.019768808
0.058569126 0.10804637 -0.0206798 0.04379447 0.06690958 0.022989484 -0.05939174 -0.07476759
0.0884376 -0.049614713 -0.122678995 -0.034129456 0.037365034 -0.06351427 0.039860602 -0.014545161
0.025790669 -0.054308392 -0.033996295 0.039545875 0.07294403 -0.11520753 0.0469707 0.060005017
-0.06510611 0.01981962 0.0076269396 0.018864032 0.06403827 -0.03005931 0.001730929 0.057519384
-0.008038428 0.07129004 -0.001015066 -0.026543709 0.06723401 -0.10721639 0.10017206 0.03892139
0.045707077 0.10254352 -0.003825564 -0.027554654 0.0043068286 -0.002633455 0.051137205 -0.04573478
-0.02591444 0.041637428 -0.015216981 0.023958944 -0.0151870195 0.05111591 0.08509143 0.004499856
0.01450627 -0.00040450142 -0.07895508 -0.07280775 -0.018037537 0.009708527 -0.007031245 0.015032308
-0.02800463 -0.05148815 -0.027628196 -0.05448629 0.0057360115 -0.06015846 0.1739736 -0.03357706
-0.025007842 0.019594649 -0.0631996 0.07355988 -0.0688601 -0.068624645 0.01814051 -0.072478496
-0.03252903 -0.004626504 0.012933576 -0.07069535 -0.008929349 0.004205384 0.018497748 -0.00538978
0.004730692 0.067082845 0.054170474 -0.00841716 0.019970594 0.023775648 0.10313274 0.0040961015
-0.0023971903 -0.01453779 -0.043424614 0.07021789 -0.053440046 0.025074687 0.041615944 -0.015067543
-0.06770152 0.014336326 0.0061681443 -0.026607247 -0.0003510169 0.057826266 0.074369535 -0.0515938
-0.0006531105 0.08948057 -0.032256022 0.065445565 0.014091431 -0.02179676 0.084630884 0.057703774
0.0005009157 -0.029232822 -0.061340522 0.011908882 0.08798813 0.059458032 0.05050356 0.003689047
-0.059212025 -0.04016608 0.032555036 0.0012904699 0.06954175 -0.016551888 -0.013129511 0.038708873
0.015063135 -0.04081033 0.03781015 0.014280319 0.035245698 -0.095197275 0.0211115 0.026993226
-0.021322899 -8.188767e-05 -0.0077520637 -0.021577882 -0.008426056 0.024116635 0.023382984 -0.041044075
0.030369611 -0.07455885 0.03723988 0.031053666 0.070803665 0.05765692 -0.010914348 -0.0046945754
-0.013043758 0.029481549 0.010002493 -0.036366593 0.0066224537 0.0034159566 0.033239845 -0.015005454
0.049040098 0.011517425 0.01234457 -0.050455514 0.041608993 0.010525612 -0.020316249 0.097451106
0.015355204 0.02254304 0.053737372 0.08451707 -0.0053683203 -0.05433039 0.012767574 0.033929095
0.10501027 0.031897213 -0.026653087 0.015825408 0.010900411 0.04019242 -0.04005647 0.018034661
-0.03161378 -0.021786729 -0.029757945 -0.11651417 0.01808201 -0.054262206 -0.04141986 0.0017564103
-0.026665868 -0.02499381 -0.05808408 0.042590626 -0.035520416 0.025008595 -0.032125648 0.08233336
0.08447084 -0.033707112 -0.012742638 -0.002510806 0.06880729 -0.03672935 0.0743485 0.04090012
0.05586788 0.010196454 -0.0069802376 0.056455534 0.1038061 -0.018214513 0.06139977 -0.088469505
-0.010351852 -0.103094205 -0.047125 -0.011128391 -0.06033707 -0.010926229 0.087535284 -0.08901504

module.net_sm.layer2.0.bn2.weight f4 [32]
00000000: 602b 5a3f c3ef 6d3f da8c 693f 14f1 6b3f
00000010: 68d2 643f 87aa 673f 4946 6d3f 47ef 5d3f
00000020: cc13 643f f4fd 4b3f 4901 703f 1e7c 653f
00000030: fca5 683f 90ea 693f 6d53 653f 0dfe 703f
00000040: afe8 5b3f eb9b 663f b5a2 673f df06 603f
00000050: 6ce8 673f 3363 6b3f 0d5e 653f 06ff 673f
00000060: 5d10 663f afa1 693f b886 663f 282e 603f
00000070: c406 6b3f 351f 6d3f acb5 6e3f c32c 663f
0.85222435 0.9294397 0.9123055 0.9216473 0.89383554 0.9049458 0.9268537 0.86693233
0.8909271 0.79684377 0.9375196 0.8964251 0.9087827 0.9137354 0.8958042 0.9413765
0.8590192 0.9008166 0.90482646 0.87510484 0.9058902 0.9194824 0.89596635 0.9062351
0.8986872 0.91262335 0.90049314 0.8757043 0.918072 0.92625743 0.9324596 0.8991205

module.net_sm.layer2.0.bn2.bias f4 [32]
00000000: 4403 82bd b075 83bc f031 4c3c e432 883c
00000010: bf59 c3bb de63 093c 03b8 a03c bab5 bfbb
00000020: 881f bfbc 7b63 b7bd 6fe4 6b3c 90fa 96bc
00000030: 026f 5bbc 80f1 88bb a3a6 07bc d0ad 3fbd
00000040: a1a7 26bd 60d3 553c 79cc 66bc 5eb6 5bbd
00000050: 181a bfbb 794e 09bc e51d 9dbc c060 15bc
00000060: b83f 9fbc 2000 61bc e457 de3b ef59 bdbc
00000070: e7e7 5a3b 5cb7 dfb9 2c81 5cba 2ec8 d7bb
-0.06348279 -0.016047329 0.012463078 0.016625829 -0.0059616263 0.008385627 0.019618994 -0.005850521
-0.023330465 -0.08954521 0.0143977245 -0.018430024 -0.013393166 -0.0041791797 -0.008279475 -0.04679662
-0.040687207 0.013050884 -0.014086836 -0.053640716 -0.005831968 -0.008380526 -0.019179294 -0.009117305
-0.019439563 -0.01373294 0.0067853797 -0.023114173 0.0033402385 -0.00042670488 -0.0008411582 -0.0065851426

module.net_sm.layer2.0.bn2.running_mean f4 [32]
00000000: 569d 083f e1f5 b7be 9375 84be 8cb1 22bf
00000010: 8f23 44bf b6fd 52bf 6eea 61bf 3461 e8bd
00000020: 1a49 35be 74e1 673f e50c 21bf f974 e6be
00000030: dfbc 43be 7054 e93d 4984 36bf dd52 83bf
00000040: 6185 2c3e cf06 9fbc a513 7f3c 2070 673f
00000050: 2c58 acbe a8a0 a43c 19e8 9cbf 8de6 f4bd
00000060: cdad d6be 21cb 7cbe 1d51 993e 005e e73d
00000070: a788 79be 5ebd 93bf 0b83 0b3f f960 873e
0.53365076 -0.35929778 -0.25870952 -0.63552165 -0.7661676 -0.8241838 -0.88248336 -0.11346665
-0.17703667 0.9057839 -0.629103 -0.45011118 -0.19115017 0.11393058 -0.712956 -1.0259663
0.16847755 -0.019412426 0.015568648 0.90405464 -0.3366102 0.020096138 -1.225833 -0.119580366
-0.41929474 -0.24686863 0.29944697 0.11297226 -0.24368535 -1.1542165 0.5449683 0.26441172

module.net_sm.layer2.0.bn2.running_var f4 [32]
00000000: 6370 d63f a14c d53f 3ddd 233f 99fd 363f
00000010: fe81 123f 70d0 333f a881 653f 947d 163f
00000020: 56c3 443f 228e 9f3f 55d5 3c3f 278d 0a3f
00000030: 035a 1e3f 98d1 613f d66b 293f 8050 db3f
00000040: 7160 a23f 5ee6 2e3f c7af 563f c78c bf3f
00000050: de0f 613f e63d 713f 021b 663f 48a3 4d3f
00000060: 7bc2 8c3f df44 2a3f f578 2e3f e896 e73e
00000070: 9962 3d3f 1e41 a43f c2aa 233f 1181 3f3f
1.6753048 1.666401 0.6400946 0.7148071 0.572296 0.70239925 0.89650965 0.58785367
0.7686056 1.246525 0.7376302 0.5412163 0.61856097 0.8821044 0.6618017 1.7133942
1.2685682 0.6832026 0.83861965 1.4964837 0.87914836 0.94235075 0.8988496 0.8032727
1.0996851 0.6651134 0.68153316 0.4523232 0.73978573 1.2832372 0.6393243 0.74806315
