model/model_20201020112412/model_final_bcp_4_0300_ts.pth (torch_old, 136209 bytes, 68 tensors)

module.net_ts.conv1.weight f4 [32, 1, 7]
0	0x3dd06b68	0.10176736
1	0x3f236f9a	0.63842165
2	0x3f2fac30	0.6862211
3	0x3c3162aa	0.010826746
4	0xbf38a170	-0.72121334
5	0xbe80a792	-0.25127846
6	0x3e0a2345	0.13490017
7	0xbeb48d9d	-0.35264292
8	0xbe0216d7	-0.12704025
9	0xbea17b57	-0.31539413
10	0xbe3e4594	-0.1858123
11	0xbe61bfd7	-0.22045837
12	0xbe975d08	-0.29563165
13	0x3bce9449	0.006304298
14	0x3ee52d14	0.44760954
15	0x3e891d89	0.26780346
16	0x3d40e9f7	0.047098126
17	0x3f2969d9	0.66177136
18	0xbe9b85c5	-0.30375496
19	0x3db86494	0.09003559
20	0xbef442c0	-0.47707176
21	0xbd40439a	-0.04693947
22	0xbdcd4815	-0.10023514
23	0x3e7ee8c6	0.24893484
24	0xbe967286	-0.2938425
25	0x3f257c6e	0.6464299
26	0xbe834557	-0.2563884
27	0x3f00f3fc	0.5037229
28	0xbee67f5e	-0.45019048
29	0x3e83357f	0.25626752
30	0x3f40f978	0.7538066
31	0xbdf57473	-0.119851016
32	0x3ed3b16a	0.41346294
33	0x3dcf83e7	0.1013258
34	0x3e123d3e	0.14281175
35	0xbed76fef	-0.42077586
36	0xbe1ac80f	-0.15115379
37	0x3e9cd3db	0.30630383
38	0xbdb240b2	-0.08703746
39	0xbdeefab3	-0.11668911
40	0xbee82156	-0.45337933
41	0x3f37b688	0.71762896
42	0x3d3c0b86	0.045909427
43	0x3f045f40	0.5170784
44	0x3e9ff572	0.31241947
45	0xbe6d3f9d	-0.23168798
46	0x3c90ee67	0.017691804
47	0x3f0b013d	0.54298764
48	0x3d2bcc95	0.04194315
49	0x3dca7bfa	0.09886928
50	0xba2f296a	-0.00066818914
51	0xbe97e55e	-0.2966718
52	0xbf50d761	-0.8157864
53	0xbea5786a	-0.3231843
54	0x3f05976a	0.52184165
55	0x3f13b74c	0.57701564
56	0xbd83c453	-0.0643393
57	0xbe3b9352	-0.18317917
58	0x3f1a4781	0.60265356
59	0x3ed1ae33	0.40953216
60	0xbe3f675e	-0.18691775
61	0xbce506b0	-0.02795729
62	0xbf30c372	-0.69048226
63	0x3ea39e4a	0.31956702
64	0x3eb7d52d	0.35904828
65	0xbe76bf82	-0.24096492
66	0xbd77dd80	-0.060513973
67	0x3f1e8d3e	0.6193427
68	0xbc1e2d61	-0.009654374
69	0xbca4d799	-0.020122336
70	0x3e10b299	0.1413063
71	0x3ece60a2	0.403081
72	0x3f047f17	0.51756424
73	0xbf27b654	-0.65512586
74	0xbe4237c7	-0.1896659
75	0xbdb18af4	-0.08669081
76	0xbee33fff	-0.44384763
77	0x3d45d2e9	0.048296843
78	0xbee78476	-0.45218247
79	0x3ebfe148	0.37476563
80	0xbf3c6119	-0.7358566
81	0xbb03961e	-0.002007849
82	0xbeb0343d	-0.34414855
83	0xbeb2db31	-0.34932855
84	0x3f30d339	0.690723
85	0xbf2c1d08	-0.672318
86	0x3c1d18ab	0.009588401
87	0x3b9bc3cc	0.0047535654
88	0x3e6d0777	0.23147379
89	0x3db16c0a	0.08663185
90	0x3e5cf6ad	0.21578474
91	0xbe068321	-0.13135959
92	0x3daf3300	0.08554649
93	0xbd5575a9	-0.052114163
94	0x3f390c8e	0.7228478
95	0xbf18a95b	-0.59633416
96	0xbec97711	-0.39348653
97	0xbdc542d7	-0.09631889
98	0xbeee5c6f	-0.46554896
99	0xbe2fce97	-0.17168652
100	0x3f062ad0	0.52409077
101	0x3eadbb46	0.3393194
102	0x3eb16e60	0.34654522
103	0x3cfdc4cb	0.030977627
104	0xbe7c41dd	-0.246345
105	0x3ebbdfd9	0.3669422
106	0xbf266a5b	-0.65006036
107	0xbeb65e2f	-0.3561873
108	0xbeceaf59	-0.40368155
109	0x3d88f488	0.06687266
110	0xbe8e3597	-0.2777526
111	0xbe23833b	-0.15968029
112	0xbd9d8e31	-0.076931365
113	0x3eb9a256	0.36256665
114	0xbc6c0422	-0.014405282
115	0xbf6ae7ea	-0.9176012
116	0x3f2a5295	0.6653226
117	0x3d281535	0.04103585
118	0xbe939a44	-0.28828633
119	0xbe189b2c	-0.14902943
120	0xbef72edd	-0.4827794
121	0xbde0781b	-0.10960408
122	0x3cc2d16c	0.0237815
123	0x3d9c3c8a	0.076287344
124	0xbf5c192e	-0.8597592
125	0x3e81cf83	0.2535363
126	0x3d8ce3f7	0.06879418
127	0xbf07af0d	-0.5300148
128	0x3dc26a0d	0.09492884
129	0xbf208c9e	-0.62714565
130	0x3eb55463	0.35415944
131	0x3ef1498d	0.47126427
132	0x3e8509c9	0.25984028
133	0x3e6f415b	0.23364775
134	0x3ecb0809	0.39654568
135	0x3deea5f8	0.1165275
136	0x3f02137d	0.50810987
137	0x3ec8501c	0.3912362
138	0xbe9d55a2	-0.30729395
139	0x3f12479a	0.57140505
140	0xbe557ac3	-0.20847611
141	0xbe7ec94c	-0.24881476
142	0xbe197a85	-0.14988144
143	0x3dd202c0	0.10254431
144	0xbf662a54	-0.8990834
145	0xbbb3f0d0	-0.0054913536
146	0xbef3ac21	-0.4759226
147	0xbf62e319	-0.88627774
148	0x3d9bc00d	0.0760499
149	0xbee1e333	-0.44118652
150	0x3eb68268	0.35646367
151	0x3df69bb2	0.12041415
152	0xbcba277e	-0.02272391
153	0xbdcfc48e	-0.10144912
154	0xbf4c9b5e	-0.7992457
155	0x3f3ffb36	0.7499269
156	0xbe3aea3f	-0.1825342
157	0x3e818b80	0.25301743
158	0xbf013461	-0.5047055
159	0xbcac1f41	-0.021010997
160	0x3ed3fc78	0.41403556
161	0x3df46493	0.119332455
162	0xbf044670	-0.5166998
163	0xbd4a85cc	-0.049444005
164	0xbf3b53ab	-0.7317454
165	0x3e24febf	0.16112803
166	0xbe84baba	-0.2592371
167	0xbe936066	-0.28784484
168	0x3eac1954	0.33613074
169	0xbe83b70a	-0.25725585
170	0xbe26efa4	-0.16302353
171	0xbe6f8642	-0.23391059
172	0x3f5be87b	0.8590161
173	0xbedb79d9	-0.428664
174	0xbe94d828	-0.29071164
175	0x3de2db25	0.11076955
176	0x3ed7d56b	0.42155012
177	0xbf0c0c35	-0.54706126
178	0xbd21d1cc	-0.03950672
179	0x3f232a39	0.637363
180	0x3e9a23ac	0.3010534
181	0x3e8e0b73	0.2774311
182	0xbe9c8855	-0.30572763
183	0x3e9d4aa4	0.3072101
184	0xbea62b1b	-0.32454762
185	0xbdeaa9de	-0.11458181
186	0x3f3542d7	0.70805115
187	0xbf54cb83	-0.83123034
188	0x3ec29a7c	0.38008487
189	0xbedc4b91	-0.43026403
190	0x3d85896a	0.0652035
191	0xbe56cb39	-0.20975961
192	0xbec300dc	-0.38086593
193	0xbe134944	-0.14383417
194	0x3e41931b	0.18903773
195	0xbf21abf5	-0.6315301
196	0xbec49c59	-0.38400534
197	0x3f37c2e6	0.71781766
198	0x3cacdbb9	0.021100866
199	0xbf3823ad	-0.71929437
200	0x3f108f44	0.56468606
201	0xbf19aad8	-0.6002631
202	0x3d7c0067	0.06152382
203	0xbf83acc6	-1.0287101
204	0x3c067bd2	0.008208232
205	0x3e726289	0.236704
206	0xbea7370f	-0.32659194
207	0x3e4f5e69	0.20250858
208	0xbcedb983	-0.029019123
209	0x3e55d084	0.20880324
210	0xbe12a8a2	-0.14322141
211	0xbeac7078	-0.33679557
212	0xbe3dcc27	-0.18534909
213	0x3f865a06	1.0496223
214	0xbe770538	-0.24123085
215	0xbee735fb	-0.4515837
216	0x3e88b7cd	0.2670273
217	0xbf48b511	-0.78401285
218	0xbe05e36e	-0.13075039
219	0xbe804ca4	-0.25058472
220	0x3e83faf8	0.2577741
221	0x3e6380e8	0.22217143
222	0x3e821434	0.2540604
223	0x3ed906e0	0.42388058

module.net_ts.bn1.weight f4 [32]
0	0x3f82e5a9	1.0226337
1	0x3f18998b	0.5960929
2	0x3f5657b9	0.83727604
3	0x3f3f4c43	0.7472574
4	0x3f405e5d	0.75143987
5	0x3f351aaf	0.7074384
6	0x3f37636d	0.71636087
7	0x3f7b40f8	0.9814601
8	0x3f21e9eb	0.63247555
9	0x3f1062a4	0.56400514
10	0x3f5a37cc	0.8524139
11	0x3f5508a1	0.8321629
12	0x3f3409b9	0.70327336
13	0x3f3b529c	0.73172927
14	0x3f3c5f15	0.73582584
15	0x3f546f34	0.8298218
16	0x3f57e798	0.8433776
17	0x3f55f860	0.83582115
18	0x3f4be73d	0.79649717
19	0x3f5ea0ce	0.8696412
20	0x3f8383bc	1.0274577
21	0x3f4518a5	0.7699073
22	0x3f75f558	0.9607749
23	0x3f4ae467	0.79254764
24	0x3f367676	0.7127451
25	0x3f5b9fe9	0.8579088
26	0x3f4537e2	0.77038395
27	0x3f3f47fa	0.747192
28	0x3f527853	0.8221485
29	0x3f553c70	0.83295345
30	0x3f513266	0.81717527
31	0x3f3ef404	0.7459109

module.net_ts.bn1.bias f4 [32]
0	0x3df0655f	0.11738085
1	0xbd6d7547	-0.057973173
2	0xbd4877a5	-0.048942227
3	0x3e54f884	0.20797926
4	0x3ce8812a	0.028381903
5	0x3deb45f8	0.11487955
6	0xbdc666db	-0.09687587
7	0x3dbdbaa9	0.09264118
8	0xbc814c87	-0.015783561
9	0x3e132303	0.14368825
10	0x3e84bfe9	0.25927666
11	0xbcdc09aa	-0.026860077
12	0x3dcfb33d	0.10141609
13	0xbdba60e9	-0.091005154
14	0x3d81673a	0.06318517
15	0xbe0e6250	-0.1390469
16	0x3de18526	0.11011724
17	0xbdfab1e3	-0.122409604
18	0x3ce269b6	0.027638298
19	0xbde2ce4b	-0.110745035
20	0xbe0be385	-0.1366101
21	0x3d38d316	0.045123182
22	0xbe0f3843	-0.13986306
23	0xbdffa908	-0.12483412
24	0x3d2a7a3a	0.04162047
25	0x3e2fbf53	0.17162828
26	0x3d72ea36	0.059305392
27	0xbd0b5ee7	-0.034026053
28	0x3e888798	0.2666595
29	0x3e3be23d	0.18348022
30	0x3e1bd7bd	0.15219016
31	0x3e222649	0.15834917

module.net_ts.bn1.running_mean f4 [32]
0	0x38fb6903	0.000119881726
1	0x3a048373	0.0005054988
2	0x3a63faf3	0.0008696757
3	0xbaa5ffb2	-0.0012664704
4	0xba12a5a6	-0.00055941415
5	0xba294e02	-0.00064584624
6	0xb9b0aba3	-0.00033697215
7	0xba7d296e	-0.00096573576
8	0x3a3cdd38	0.0007204595
9	0xb99fc56d	-0.00030473937
10	0xb7bd4bae	-2.2565797e-05
11	0xb9f4093d	-0.0004654619
12	0xbaa3d284	-0.0012498652
13	0x3a9c1793	0.0011908881
14	0x39473fa6	0.0001900183
15	0xb9c7cd39	-0.0003810914
16	0xb9d9d5c4	-0.00041548733
17	0xb91c1a79	-0.00014887181
18	0xbab4a77e	-0.0013782827
19	0xba166b89	-0.000573807
20	0x3aaa832e	0.0013009065
21	0x3aa6185f	0.0012672058
22	0x3a8cecc4	0.0010751714
23	0xb9ee270c	-0.0004542399
24	0xba02ca73	-0.0004989274
25	0xb9ab7e5d	-0.0003270981
26	0xb9145e52	-0.00014149517
27	0x3a864df7	0.0010246624
28	0xb8ce03cb	-9.823552e-05
29	0x388e235f	6.777676e-05
30	0x3a30a98b	0.0006739131
31	0x39378a8c	0.00017503853

module.net_ts.bn1.running_var f4 [32]
0	0x3e0356c6	0.1282607
1	0x3da27f47	0.079344325
2	0x3dc2b17b	0.09506508
3	0x3d851b86	0.0649939
4	0x3dd0a368	0.10187417
5	0x3d885a93	0.06657901
6	0x3da1a7df	0.07893347
7	0x3df56257	0.119816475
8	0x3da81b71	0.08208359
9	0x3d8063f2	0.06269063
10	0x3dbe656e	0.0929669
11	0x3df4b489	0.11948497
12	0x3d8bc18a	0.06824024
13	0x3d960f5d	0.07327149
14	0x3d8c6464	0.068550855
15	0x3de6c03a	0.11267133
16	0x3db98e16	0.09060304
17	0x3dcc8692	0.09986605
18	0x3dad7032	0.08468665
19	0x3e18f760	0.14938116
20	0x3e1c8e22	0.15288594
21	0x3dc18817	0.09449785
22	0x3dcd83fb	0.10034939
23	0x3df777e9	0.12083418
24	0x3d9ad5de	0.07560323
25	0x3dcbb049	0.09945733
26	0x3dc48dee	0.095973834
27	0x3dcf0a70	0.10109413
28	0x3dea72b3	0.114476584
29	0x3dd6c559	0.1048686
30	0x3dc8605c	0.09784004
31	0x3dcf9dba	0.10137506

module.net_ts.layer1.0.conv1.weight f4 [32, 32, 3]
0	0xbde20b2e	-0.110372886
1	0xbe9637d8	-0.2933948
2	0x3e087629	0.13326325
3	0xbe840338	-0.25783706
4	0x3dc4a999	0.09602661
5	0x3d22eaa4	0.039774552
6	0x3b13dce9	0.0022562093
7	0xbe80d436	-0.25161904
8	0xbe17ceda	-0.14825001
9	0xbe1a05a1	-0.1504121
10	0x3ea86123	0.3288661
11	0x3d829b82	0.06377317
12	0xbcf64dbe	-0.030066367
13	0x3e7fdf04	0.24987417
14	0x3d26b886	0.04070332
15	0xbc08e0d1	-0.008354382
16	0x3db17b17	0.08666056
17	0x3e816bfa	0.25277692
18	0x3e01b157	0.12665306
19	0xbe131efa	-0.14367285
20	0xbcdb4b24	-0.026769228
21	0xbe034ccd	-0.12822266
22	0x3e0f73ac	0.14008969
23	0xbdfb6af5	-0.1227626
24	0xbdfec9d2	-0.12440838
25	0xbda15bc0	-0.07878828
26	0xbdd52723	-0.10407855
27	0xbd8a14c8	-0.06742245
28	0x3e2e7f16	0.17040667
29	0x3e4e59b5	0.20151408
30	0xbd391dde	-0.0451945
31	0x3cac122f	0.021004764
32	0xbe1c7017	-0.15277134
33	0xbdc1b772	-0.094588175
34	0xbbc6a79d	-0.0060624615
35	0xbe245b7d	-0.16050525
36	0xbe40457b	-0.18776505
37	0xbd2c9af6	-0.04213997
38	0x3e8c9833	0.2745987
39	0x3cffcfe5	0.031227062
40	0xbe43d596	-0.19124445
41	0xbd52ae7e	-0.05143594
42	0xbd72ff70	-0.059325635
43	0xbe1e82ed	-0.15479632
44	0x3c4d3a7c	0.012526151
45	0x3d2baade	0.041911
46	0xbe09f000	-0.13470459
47	0xbe32006c	-0.17382973
48	0x3d3fbad7	0.046809044
49	0x3cdaa06a	0.02668782
50	0x3c87e0b8	0.016586646
51	0xbe14afe6	-0.14520225
52	0xbd050737	-0.032477584
53	0xbe813b62	-0.25240618
54	0xbe8e978b	-0.27849993
55	0x3d935a2b	0.071949326
56	0x3e08ff5e	0.13378665
57	0x3d2b4105	0.041810054
58	0x3d81d4f0	0.06339443
59	0xbcd4ae88	-0.02596213
60	0xbe5c3095	-0.21502908
61	0x3d1ef89e	0.03881132
62	0xbcd73b73	-0.026273465
63	0x3e0ecce9	0.13945355
64	0xbd31f2a8	-0.043444306
65	0xbe2a8c0b	-0.16654985
66	0x3ee6cff4	0.4508053
67	0x3e776fc6	0.24163732
68	0x3c0f91f4	0.008762825
69	0xbe46a401	-0.193985
70	0xbe12acc3	-0.14323716
71	0xbdb25df3	-0.08709326
72	0x3d05f8e8	0.03270808
73	0xbe133887	-0.14377032
74	0xbd693aa5	-0.056940693
75	0x3a9f2ee1	0.0012144708
76	0x3d478e23	0.048719537
77	0x3cdeaf33	0.02718315
78	0x3b95d0af	0.004571996
79	0x3ea7b638	0.3275621
80	0xbdbcac42	-0.09212543
81	0xbc20103e	-0.009769497
82	0xbd77ac27	-0.06046691
83	0xbdffd9fb	-0.12492748
84	0x3d9a1850	0.075241685
85	0xbbde5bd7	-0.0067858505
86	0xbdc01f47	-0.09380966
87	0xbdad52ce	-0.08463059
88	0xbd925329	-0.07144768
89	0xbde68c76	-0.112572595
90	0x3c395e28	0.0113139525
91	0x3d88dc1a	0.06682606
92	0xbee38398	-0.44436336
93	0xbd96b51b	-0.07358762
94	0xbd9a676b	-0.07539257
95	0xbe09c263	-0.13453059
96	0xbdda9cc0	-0.10674429
97	0x3cd958d4	0.026531614
98	0xbde68706	-0.112562224
99	0xbe419b95	-0.18907006
100	0xbd29fe8c	-0.04150252
101	0xbd14182a	-0.036155857
102	0x3e1facbb	0.15593235
103	0x3d9d5b0f	0.07683384
104	0x3da9e1f0	0.08295047
105	0x3d361a52	0.044458695
106	0x3ea5101e	0.3223886
107	0x3e1b9f0f	0.15197395
108	0xbd3f39fc	-0.046686158
109	0x3e5dffa4	0.2167955
110	0x3e9a83e6	0.30178756
111	0xbe0ddf9c	-0.13854831
112	0x3d7f44f9	0.062321637
113	0xbd057c68	-0.032589346
114	0x3c81ada0	0.015829861
115	0x3cf026e0	0.029315412
116	0xbe0432ff	-0.12910078
117	0xbe81ee37	-0.25377056
118	0xbe3de408	-0.18544018
119	0x3e87839b	0.26467595
120	0xbdfdf2c6	-0.12399821
121	0xbd4d9745	-0.05019309
122	0xbb2bdc03	-0.0026223667
123	0x3d76ecca	0.060284413
124	0xbe06c645	-0.13161571
125	0x3e14dfc7	0.1453849
126	0x3d912aa9	0.07088215
127	0xbe77db2a	-0.24204698
128	0x3d2c7c99	0.042111013
129	0xbdbe1166	-0.09280662
130	0x3de5cce9	0.11220724
131	0xbd994a89	-0.074849196
132	0x3dec2659	0.11530752
133	0xbe00e593	-0.12587576
134	0x3e86d4ad	0.26334134
135	0xbde7df58	-0.11321896
136	0xbdb48be9	-0.08815748
137	0xbe57fa13	-0.2109149
138	0xbe0b55e0	-0.13606977
139	0x3d0ea1ec	0.03482239
140	0xbe83894d	-0.2569069
141	0x3db69a25	0.089161195
142	0xbcf224d0	-0.02955857
143	0x3dee286b	0.11628803
144	0x3d5daefc	0.054121956
145	0xbc1c67e5	-0.009546255
146	0x3da515ed	0.08060823
147	0xbe148417	-0.14503513
148	0x3d7fc391	0.062442366
149	0xbdca8ca5	-0.09890107
150	0xbd95680e	-0.072952375
151	0x3d750d61	0.059827212
152	0x3dfcd21f	0.12344765
153	0x3ba53fae	0.0050429916
154	0x3e8ab035	0.2708756
155	0x3d9e19fa	0.077197984
156	0x3e1177fa	0.14205924
157	0xbdbf1b77	-0.093314104
158	0xbcea3482	-0.02858949
159	0xbe88b9ad	-0.2670416
160	0x3ca7fb5c	0.0205056
161	0xbe5a93b0	-0.21345401
162	0xbe60008e	-0.21875212
163	0x3e223452	0.15840271
164	0xbf06100d	-0.5236824
165	0x3e04282d	0.12905951
166	0xbdeef727	-0.11668234
167	0xbde485e1	-0.11158348
168	0x3d55b65a	0.052175857
169	0x3cf0c9e3	0.029393142
170	0x3e1517e0	0.14559889
171	0x3db3c0b9	0.08776993
172	0x3e3cf22a	0.18451753
173	0x3d5271b8	0.051377982
174	0xbe5cf395	-0.21577294
175	0xbd2b4726	-0.0418159
176	0xbd236770	-0.039893568
177	0xbe3ce86c	-0.18448037
178	0xbe030e11	-0.12798335
179	0xbe89cc4f	-0.26913688
180	0xbd160a1b	-0.03663073
181	0x3d5d7323	0.05406488
182	0xbd6cffd6	-0.05786117
183	0xbe2a4a13	-0.1662982
184	0xbe1f7a66	-0.15574035
185	0xbdeecdee	-0.11660372
186	0x3cc72dda	0.024313856
187	0xbe2112f7	-0.15729891
188	0xbe87ffab	-0.26562247
189	0x3e663d8f	0.2248442
190	0xbdafac74	-0.08577815
191	0xbdc9be7a	-0.09850784
192	0xbea8ecb0	-0.32993078
193	0x3cc216cf	0.023692517
194	0x3f2055ce	0.6263093
195	0x3ddb6af1	0.10713757
196	0x3df112e7	0.117711835
197	0xbdcb5bfb	-0.09929653
198	0xbdc697d9	-0.096969314
199	0x3e38889f	0.18020867
200	0xbd2f6eb0	-0.04283017
201	0xbc93a9f3	-0.018025374
202	0x3e36878b	0.17825143
203	0x3e14c090	0.14526582
204	0xbcdaa3d0	-0.02668944
205	0x3dbb74ed	0.09153161
206	0xbd5744f3	-0.05255599
207	0xbd8380c4	-0.064210445
208	0x3eb27968	0.3485825
209	0x3dd62bb9	0.10457558
210	0xbe8055a3	-0.25065336
211	0x3cb09271	0.021554204
212	0xbdda83e9	-0.10669691
213	0xbe4ed9f0	-0.20200324
214	0x3e480b04	0.19535452
215	0x3d0ff75e	0.035148017
216	0xbd7a098a	-0.061044253
217	0x3baa9235	0.0052054175
218	0x3e5b91a2	0.21442273
219	0xbdea3172	-0.11435212
220	0xbdd0bb57	-0.10191982
221	0xbdba5c83	-0.090996765
222	0xbde3fc52	-0.11132111
223	0xbe42c3f9	-0.1902007
224	0xbccc9e23	-0.02497775
225	0xbe7609c1	-0.24027158
226	0xbd5fe79f	-0.05466425
227	0xbddb586d	-0.10710225
228	0x3d982c34	0.07430306
229	0xbb4d14fa	-0.003129302
230	0x3e92d312	0.2867666
231	0xbe70e066	-0.23523101
232	0xbe1d99c6	-0.15390691
233	0x3d88da81	0.06682301
234	0xbe03bd81	-0.12865259
235	0x3e0ab47d	0.13545413
236	0x3bde6bf8	0.006787773
237	0xbe63ee44	-0.2225886
238	0xbe85b243	-0.26112565
239	0xbd01bf05	-0.03167631
240	0x3cd29bae	0.025709
241	0x3d892941	0.06697322
242	0x3df04797	0.11732405
243	0x3e102b77	0.1407908
244	0x3c5e63b8	0.0135735795
245	0xbe361520	-0.17781496
246	0xbe6e71e7	-0.23285638
247	0x3e0d1440	0.13777256
248	0xbe030cfd	-0.12797923
249	0xbe4435bd	-0.19161125
250	0xbde1ea55	-0.110310234
251	0xbdf51af7	-0.11968034
252	0xbde4475d	-0.11146424
253	0xbe486a89	-0.1957189
254	0xbd0e2d8e	-0.034711413
255	0x3d6dd0f9	0.05806062

module.net_ts.layer1.0.bn1.weight f4 [32]
0	0x3f5a057a	0.85164607
1	0x3f535e30	0.82565594
2	0x3f5aba29	0.8544031
3	0x3f51464f	0.8174791
4	0x3f3873d0	0.72051716
5	0x3f53cacd	0.82731324
6	0x3f272a61	0.6529904
7	0x3f5b029c	0.85550857
8	0x3f18e13d	0.59718686
9	0x3f5c2075	0.85987025
10	0x3f5237da	0.8211647
11	0x3f5b6084	0.85694146
12	0x3f1259e7	0.5716843
13	0x3f4470f1	0.76734835
14	0x3f2ed89a	0.6829926
15	0x3f37dc95	0.71820956
16	0x3f64d30e	0.89384544
17	0x3f587da2	0.845667
18	0x3f282ca0	0.6569309
19	0x3f1b9e08	0.6078801
20	0x3f5800fe	0.84376514
21	0x3f3fffce	0.749997
22	0x3f364d4a	0.71211684
23	0x3f38fcc2	0.7226068
24	0x3f279062	0.65454686
25	0x3f3d5147	0.73952144
26	0x3f4b8f79	0.79515797
27	0x3f6b66f1	0.9195395
28	0x3f46eeea	0.77708304
29	0x3f2062d9	0.6265083
30	0x3f35fb19	0.7108627
31	0x3f3d3d86	0.73922

module.net_ts.layer1.0.bn1.bias f4 [32]
0	0xbe55a3df	-0.20863293
1	0xbe25d2f7	-0.16193758
2	0xbe62fcd3	-0.22166757
3	0x3e65a77c	0.22427171
4	0xbe55fd6b	-0.20897453
5	0xbe6ca805	-0.2311097
6	0xbe49f57f	-0.19722556
7	0xbdb26ca5	-0.087121285
8	0xbcf268db	-0.029591015
9	0xbe4ad7cf	-0.19808887
10	0xbcb091dd	-0.021553928
11	0xbe9018e3	-0.28143987
12	0x3d942198	0.0723297
13	0xbe409527	-0.18806897
14	0xbe0c6062	-0.13708642
15	0xbde3bab2	-0.11119594
16	0xbe2e5908	-0.1702615
17	0xbae7bf3c	-0.0017680894
18	0xbd749908	-0.059716254
19	0x3c64e597	0.013970754
20	0xbe3b7453	-0.18306093
21	0x398549ce	0.00025422726
22	0xbe1345ce	-0.14382097
23	0xbdcbd9a2	-0.099536195
24	0x3dd0f100	0.10202217
25	0xbe267933	-0.16257171
26	0xbe920faa	-0.28527576
27	0xbe0ae9fe	-0.13565823
28	0xbe9dbbea	-0.3080743
29	0x3dc609a5	0.09669808
30	0xbe5dd1d8	-0.2166208
31	0xbea5fa7f	-0.32417676

module.net_ts.layer1.0.bn1.running_mean f4 [32]
0	0xbfc84968	-1.5647402
1	0xbfae0b71	-1.3597242
2	0xbf029f47	-0.5102429
3	0xbf9e0125	-1.2344099
4	0x3fe63247	1.7984093
5	0xbf5f165a	-0.8714348
6	0xbe75bd17	-0.23997913
7	0xbf83de4d	-1.0302216
8	0x3fed7d64	1.8553891
9	0xbdafa194	-0.085757405
10	0xbf4c4ee5	-0.79807884
11	0xc0115055	-2.270528
12	0xbebdd5ea	-0.37077266
13	0xbf66a6a7	-0.9009804
14	0xbf3ab1be	-0.72927463
15	0x3f384440	0.7197914
16	0xbff199eb	-1.8875097
17	0xc00e123b	-2.2198627
18	0xbfcf7584	-1.6207738
19	0x3f0ef392	0.5584041
20	0xbf32df01	-0.69871527
21	0xbfa19f5e	-1.262676
22	0xbfaa6cf8	-1.3314505
23	0xbf484850	-0.7823534
24	0xbedf4d8c	-0.4361385
25	0xbff88ce9	-1.9418002
26	0xbf24619d	-0.64211446
27	0xbffca875	-1.9738909
28	0x3e7962ab	0.24354045
29	0x3cc5cb2c	0.024144731
30	0xbee223ed	-0.44168034
31	0xbe7c687c	-0.24649233

module.net_ts.layer1.0.bn1.running_var f4 [32]
0	0x40070dcd	2.1102173
1	0x40279fc7	2.619127
2	0x3fed4711	1.8537313
3	0x3ffb2e3d	1.9623486
4	0x3fe2d201	1.7720338
5	0x3f8179bc	1.0115275
6	0x3f93aeb8	1.1537695
7	0x3fec8bc3	1.8480152
8	0x3fbf5d00	1.4950256
9	0x3fcf4507	1.619294
10	0x3fef4c82	1.8695223
11	0x3fe2cd36	1.7718875
12	0x3fce72da	1.61288
13	0x3fb78ba4	1.433949
14	0x401ca2ed	2.4474442
15	0x3fe840d9	1.814479
16	0x4004b0e7	2.0732973
17	0x400b7333	2.1789062
18	0x3fbd5706	1.4792182
19	0x3f9c3b3d	1.2205578
20	0x3fe8958a	1.8170636
21	0x402accd5	2.668752
22	0x3fd4f731	1.6637937
23	0x3f94d1fc	1.1626582
24	0x3f9a8f29	1.2074939
25	0x3ff47e66	1.9101074
26	0x3fbaeed4	1.4604135
27	0x40249bbe	2.5720057
28	0x3fc5b51c	1.5445895
29	0x3fabaee4	1.3412747
30	0x3fce69ba	1.6126015
31	0x3fc588ae	1.5432336

module.net_ts.layer1.0.conv2.weight f4 [32, 32, 3]
0	0x3ef8e434	0.48611605
1	0xbcdd6b04	-0.027028568
2	0x3e030dfe	0.12798306
3	0x3d89571c	0.06706068
4	0xbe7062a8	-0.23475134
5	0xbe31a39e	-0.17347571
6	0xbdd34605	-0.103160895
7	0xbe23ddba	-0.1600255
8	0x3d0ecd25	0.03486361
9	0x3d7e0aff	0.062022205
10	0x3d587fe3	0.052856337
11	0xbdfc950a	-0.123331144
12	0xbd7a7bae	-0.061153106
13	0xbd98f590	-0.07468712
14	0xbdfe2341	-0.12409068
15	0x3cb1e09a	0.021713544
16	0x3c8a2de6	0.01686759
17	0xbe3a746e	-0.18208477
18	0xbe927ce7	-0.28610918
19	0x3eb09784	0.34490597
20	0x3e2aa939	0.16666116
21	0x3c970123	0.01843316
22	0xbe364ee7	-0.17803536
23	0xbda5333b	-0.08066412
24	0xbd84cfc0	-0.06484938
25	0x3dd3c727	0.1034072
26	0xbe164841	-0.14676
27	0x3e5bc246	0.21460828
28	0xbd9c5b29	-0.07634575
29	0xbe08eabd	-0.13370796
30	0xbd1544cc	-0.036442563
31	0x3ddf02f3	0.108892344
32	0xbd1a86b6	-0.037726127
33	0xbbc5b905	-0.006034019
34	0x3efcc7e0	0.49371243
35	0x3b70d0e6	0.0036745607
36	0x3de15115	0.11001793
37	0x3d630220	0.05542195
38	0xbd4f14f6	-0.0505571
39	0xbe60168c	-0.21883601
40	0x3db3f19c	0.08786318
41	0x3e116dc9	0.14202036
42	0x3ebda491	0.37039617
43	0xbde4f332	-0.11179198
44	0x3e00c427	0.12574826
45	0xbd100cad	-0.03516834
46	0x3daa3feb	0.08312973
47	0xbae7b488	-0.0017677704
48	0x3da39be1	0.07988716
49	0xbe72feeb	-0.23730056
50	0xbe01d659	-0.12679423
51	0x3dc100c7	0.094239764
52	0x39d4c59d	0.00040583024
53	0xbcf6ba84	-0.030118234
54	0xbda358c1	-0.07975913
55	0x3e5a2ebc	0.2130689
56	0x3da5b665	0.080914296
57	0x3d898250	0.06714308
58	0xbe2c03c0	-0.16798306
59	0x3db7209b	0.08941766
60	0xbdf72e3f	-0.120693676
61	0xbdd05927	-0.101732545
62	0x3e35e05c	0.17761368
63	0xbdeff7eb	-0.117172085
64	0xbe901856	-0.28143567
65	0x3e176af9	0.147869
66	0x3dd76b2b	0.105184875
67	0xbe7a9a1c	-0.2447285
68	0xbdbd30e7	-0.09237843
69	0xbdad0e91	-0.08450044
70	0xbdf11d6f	-0.11773192
71	0xbe19ffcf	-0.1503899
72	0x3de852f6	0.113439485
73	0x3e5698d1	0.20956732
74	0xbe30a095	-0.17248757
75	0x3dfa2f17	0.12216013
76	0xbe2d4882	-0.16922191
77	0x3d86afde	0.06576513
78	0xbd1892cf	-0.037249383
79	0xbd17869f	-0.03699362
80	0x3d659083	0.05604602
81	0xbd3a3255	-0.045458157
82	0xbdbb48ae	-0.09144722
83	0xbd5db665	-0.054129023
84	0x3e9aaa1e	0.30207914
85	0xbd4c8a5c	-0.049936637
86	0x3cd6f8f5	0.026241759
87	0x3e46477c	0.19363207
88	0xbba4be3f	-0.005027562
89	0xbe8cf4ca	-0.2753051
90	0x3d1909a9	0.03736273
91	0x3e1c0976	0.15237984
92	0x3ec98a0f	0.39363143
93	0xbe298b72	-0.165571
94	0xbe071d36	-0.13194737
95	0xbe8445a4	-0.25834382
96	0x3e3a9a3b	0.18222897
97	0xbde68674	-0.11256114
98	0xbd4ce93d	-0.05002712
99	0xbe03cd30	-0.12871242
100	0xbd00c62a	-0.031438984
101	0xbe14e529	-0.14540543
102	0x3df6143a	0.12015577
103	0xbccf7c99	-0.025327967
104	0x3d1bc9e1	0.038034324
105	0x3d3d3bad	0.04619949
106	0x3d16d7a9	0.036826763
107	0x3d4701e8	0.048585802
108	0xbe5b0d90	-0.21391892
109	0xbe4619fe	-0.19345853
110	0xbe791366	-0.24323806
111	0x3e2ce3de	0.168838
112	0xbdac7895	-0.08421437
113	0x3d6edfd4	0.058318928
114	0x3bb00b15	0.005372415
115	0xbe4304ee	-0.1904485
116	0xbd400ce9	-0.046887312
117	0xbd64068b	-0.055670302
118	0x3baca0c3	0.0052681877
119	0xbe89ffb6	-0.26952904
120	0xbda8d821	-0.08244348
121	0xbe0685a4	-0.13136917
122	0xbd5e9edd	-0.054350723
123	0x3da99884	0.08281043
124	0x3e25600f	0.16149925
125	0xbd1bb34a	-0.03801278
126	0xbe47a012	-0.19494656
127	0x3d3f36c9	0.046683107
128	0x3c2bd61b	0.010488058
129	0xbe494012	-0.19653347
130	0xbe0fca59	-0.14042033
131	0x3e782604	0.24233252
132	0x3e107b59	0.14109553
133	0x3e44cb71	0.19218232
134	0x3e3f73f5	0.18696578
135	0xbdd4dd6f	-0.103937976
136	0xbde0f727	-0.109846406
137	0x3d08c7e4	0.033393756
138	0xbdf39cbd	-0.1189513
139	0x3ded5cf3	0.11589994
140	0x3ce2aa17	0.027668996
141	0x3d8bd9e0	0.06828666
142	0x3cda2580	0.02662921
143	0xbc84580a	-0.016155262
144	0xbd8edcb0	-0.069756866
145	0x3e747454	0.238725
146	0xbe3d4c03	-0.18486027
147	0x3e3ac296	0.18238291
148	0x3dd11732	0.10209502
149	0xbdf7e705	-0.1210461
150	0xbe73d9e8	-0.23813593
151	0x3e3b26b3	0.18276481
152	0x3ecffb8d	0.40621606
153	0x3d464f17	0.04841527
154	0x3d915702	0.070966735
155	0x3d9f2867	0.07771378
156	0xbe2be83c	-0.16787809
157	0x3cc67766	0.024226855
158	0x3e5a8ff3	0.21343975
159	0x3db6dcb8	0.089288175
160	0xbdd63231	-0.10458792
161	0xbe97ea3a	-0.29670888
162	0x3e92fae8	0.2870705
163	0x3c8afe2c	0.016966902
164	0xbe8f7058	-0.280154
165	0xbe2d48cd	-0.16922303
166	0x3e6101b6	0.21973309
167	0xbe2adaaf	-0.16684984
168	0xbe3b8763	-0.18313365
169	0x3e46ebc3	0.19425873
170	0x3e22ffda	0.15917912
171	0x3dcb32a9	0.09921772
172	0x3b89e0e2	0.0042077163
173	0xbd45553e	-0.048176996
174	0xbe419667	-0.1890503
175	0xbce48ec6	-0.02790011
176	0x3e6a3f32	0.2287567
177	0x3c887e6a	0.016661841
178	0x3eb2c239	0.34913805
179	0x3db38a77	0.087666444
180	0xbccddf9f	-0.025131045
181	0xbdfda3c1	-0.12384749
182	0x3da8238a	0.082099035
183	0x3e563ddc	0.20922035
184	0xbda11fc9	-0.07867391
185	0x3dfdd40c	0.1239396
186	0xbdf00528	-0.117197335
187	0x3dd22638	0.10261196
188	0x3da0148b	0.07816418
189	0xbdb10e22	-0.08645274
190	0xbd989586	-0.07450394
191	0x3ea4cba9	0.3218663
192	0xbdc3c64c	-0.095593065
193	0x3d2fa64d	0.042883206
194	0x3e4c1700	0.19930649
195	0xbe2141e8	-0.15747797
196	0x3de5c293	0.11218753
197	0x3e7192c8	0.23591149
198	0xbd467f63	-0.04846133
199	0xbd73379f	-0.059379216
200	0x3d240242	0.040041216
201	0x3ea2926a	0.3175233
202	0xbe8efd56	-0.27927655
203	0xbe89942c	-0.2687086
204	0xbe059e35	-0.13048632
205	0x3dacbe9e	0.08434795
206	0xbba104b3	-0.0049138903
207	0xbdcd1dbb	-0.10015436
208	0x3dce28ac	0.10066351
209	0x3c9c4fef	0.019081084
210	0xbe07e2b1	-0.1327007
211	0xbd3b4ca7	-0.0457274
212	0x3e1a9b93	0.1509841
213	0x3e2f0513	0.1709178
214	0x3ea41e00	0.32054138
215	0x3db369f3	0.087604426
216	0x3cf1cc04	0.029516228
217	0x3e23b0f4	0.15985471
218	0xbdc29392	-0.09500803
219	0xbe71c843	-0.2361155
220	0x3d538274	0.05163808
221	0xbdae53d7	-0.08512085
222	0xbe4fc825	-0.20291193
223	0xbdf18661	-0.11793209
224	0xbd9f960a	-0.077922896
225	0x3e9285f4	0.28617823
226	0x3dbb6ae0	0.09151244
227	0x3d49db3e	0.04928135
228	0x3ccc95a8	0.024973705
229	0xbe18e095	-0.14929421
230	0xbd6be287	-0.05758908
231	0xbdeb310d	-0.11483965
232	0xbe0c2050	-0.13684201
233	0xbdd3e4d6	-0.10346381
234	0xbe1ff94e	-0.15622446
235	0xbcc71d16	-0.024305861
236	0xbbc49769	-0.005999495
237	0x3da89bdc	0.08232853
238	0xbddabd21	-0.10680605
239	0x3c39a7e1	0.011331529
240	0xbea1a927	-0.31574365
241	0x3de3dab7	0.11125701
242	0x3eaa8cb0	0.3331046
243	0x3de4cc79	0.111718126
244	0x3d57d3d4	0.05269225
245	0x3dd715f8	0.10502237
246	0xbde9bc39	-0.11412854
247	0x3de90988	0.11378771
248	0x3e79b3da	0.24385014
249	0xbe472201	-0.19446565
250	0xbdcf567e	-0.10123919
251	0xbe968986	-0.29401797
252	0xbec17d76	-0.37791032
253	0x3c0fab27	0.008768833
254	0x3e931bc4	0.2873212
255	0x3c8a3a84	0.016873606

module.net_ts.layer1.0.bn2.weight f4 [32]
0	0x3f03dd89	0.5150991
1	0x3f4a6f94	0.79076505
2	0x3f548719	0.8301864
3	0x3f222ba6	0.6334785
4	0x3f5bc61b	0.8584916
5	0x3f229605	0.6351016
6	0x3f27d6f4	0.6556237
7	0x3f23d6a9	0.6399942
8	0x3f579831	0.842166
9	0x3f7548a6	0.9581398
10	0x3f495282	0.7864152
11	0x3f45df06	0.7729343
12	0x3f4d8fbc	0.80297446
13	0x3f483111	0.7819987
14	0x3f3380cc	0.70118403
15	0x3f4918c3	0.7855341
16	0x3f06495c	0.5245569
17	0x3f35a070	0.70947933
18	0x3f10204b	0.56299275
19	0x3f2d8d49	0.6779371
20	0x3f48f03f	0.78491586
21	0x3f3dc2d0	0.74125385
22	0x3f7190f3	0.943618
23	0x3f39fe86	0.72653997
24	0x3f488c2e	0.783389
25	0x3f27bdd8	0.65524054
26	0x3f2d487f	0.67688745
27	0x3f583f1d	0.84471303
28	0x3f4bbcf7	0.7958521
29	0x3f5411d0	0.8283968
30	0x3f30c657	0.6905264
31	0x3f4c7dab	0.79879254

module.net_ts.layer1.0.bn2.bias f4 [32]
0	0xbb8445ef	-0.004036657
1	0xbddf6900	-0.10908699
2	0xbbdd7c67	-0.0067592147
3	0xbe498792	-0.19680622
4	0xbdb7aab4	-0.08968106
5	0xbcc4621b	-0.023972562
6	0xbdea8e20	-0.114528894
7	0xbe59314b	-0.2121021
8	0xbe3a3bd1	-0.1818688
9	0xbd717643	-0.058950674
10	0xbd40bba9	-0.047053967
11	0xbcdb84d8	-0.026796743
12	0x3d3ca531	0.046055976
13	0xbe00567f	-0.12532996
14	0xbe4d71bc	-0.20062917
15	0xbdd0cdde	-0.10195516
16	0xbd46b7a6	-0.048514985
17	0xbe80d01c	-0.25158775
18	0xbd82c48b	-0.06385144
19	0x3c5578e9	0.0130293155
20	0x3d2e6bf4	0.04258342
21	0xbd8279e4	-0.06370905
22	0xbeb05fbf	-0.34448048
23	0xbda0c817	-0.07850664
24	0xbdcddefd	-0.10052297
25	0xbc63334c	-0.013867211
26	0xbe99ab9b	-0.30013737
27	0x3cbbeabc	0.022939079
28	0x3df6a72a	0.12043603
29	0xbb7aa7c4	-0.0038246969
30	0xbe4ce930	-0.20010829
31	0xbd3594c6	-0.044331335

module.net_ts.layer1.0.bn2.running_mean f4 [32]
0	0xbdbbbe68	-0.091671765
1	0x3e55698f	0.20841049
2	0x3e27d29c	0.16388935
3	0xbe36709c	-0.17816395
4	0xbe907960	-0.28217602
5	0xbe2dfc67	-0.16990815
6	0xbefd40ee	-0.494636
7	0xbf1c13ca	-0.60967696
8	0xbf768dbc	-0.9631002
9	0xbe7dcfdf	-0.24786328
10	0xbf036c03	-0.5133669
11	0xbe65c719	-0.22439231
12	0xbf03b1b2	-0.51443017
13	0xbe19b544	-0.15010554
14	0x3f352037	0.7075228
15	0xbf5967a5	-0.84923774
16	0xbcc69ef4	-0.024245717
17	0xbdf60b3c	-0.120138615
18	0x3f26011c	0.6484544
19	0x3e6fcc33	0.2341774
20	0x3f05d4f0	0.5227804
21	0xbf51349e	-0.8172091
22	0xbf28d549	-0.6595045
23	0x3da79a83	0.08183768
24	0xbf49d3f7	-0.7883906
25	0xbec9bc9c	-0.3940171
26	0xbeb430a8	-0.35193372
27	0x3e59ef6b	0.21282737
28	0xbf1165b4	-0.5679581
29	0xbe56029d	-0.20899434
30	0xbf2a5414	-0.66534543
31	0xbe23a58d	-0.15981121

module.net_ts.layer1.0.bn2.running_var f4 [32]
0	0x3efa30cd	0.48865357
1	0x3ee5bd63	0.44871053
2	0x3f6856ba	0.90757334
3	0x3edd3827	0.43206903
4	0x3f0b3a53	0.5438587
5	0x3ef3915b	0.47571835
6	0x3eae5972	0.34052616
7	0x3f26db35	0.65178233
8	0x3f15eac9	0.5856138
9	0x3f1df1d8	0.6169715
10	0x3f07ffc4	0.5312464
11	0x3f2fe800	0.6871338
12	0x3f3ca841	0.73694235
13	0x3f1817c6	0.59411275
14	0x3f11b36c	0.569144
15	0x3f34a659	0.70566326
16	0x3e882ff5	0.26599088
17	0x3f166240	0.5874367
18	0x3ee9d6ff	0.45671842
19	0x3ef9c9d4	0.48786795
20	0x3f2bc956	0.6710409
21	0x3f0e940f	0.5569467
22	0x3f22b417	0.63556045
23	0x3f640a9a	0.89078677
24	0x3f49a3c5	0.7876552
25	0x3ec93435	0.39297643
26	0x3eb75a1f	0.35810944
27	0x3f225101	0.6340485
28	0x3f6587e2	0.89660466
29	0x3f34ef31	0.7067748
30	0x3ebe3504	0.37149823
31	0x3f119191	0.5686274

module.net_ts.layer2.0.conv1.weight f4 [32, 32, 3]
0	0x3c99bfd1	0.018768223
1	0x3e097126	0.13422069
2	0xbdf09931	-0.11747969
3	0xbdcc1468	-0.0996483
4	0x3e4c0fe4	0.19927937
5	0xbc29cc21	-0.0103636095
6	0xbd514c7c	-0.05109833
7	0xbd383706	-0.04497435
8	0xbb2bc4e5	-0.0026209888
9	0x3e05897e	0.1304073
10	0xbd05ae70	-0.03263706
11	0x3d479098	0.04872188
12	0xbe56515e	-0.20929477
13	0xbd02e14a	-0.031953134
14	0xbd9cfaec	-0.07665047
15	0x3d0d3f49	0.03448418
16	0x3dfcf00a	0.12350471
17	0xbe2f7f94	-0.17138511
18	0x3d8a00f2	0.067384616
19	0xbe3ab596	-0.18233332
20	0x3d20f716	0.03929814
21	0x3c82caa0	0.01596576
22	0x3cac3f5a	0.021026302
23	0x3d08450d	0.033268977
24	0xbdded75b	-0.108809195
25	0x3c641468	0.013920881
26	0x3de7d76b	0.113203846
27	0xbd158282	-0.036501415
28	0x3cc6cab4	0.024266578
29	0xbc35ffbc	-0.011108335
30	0x3e10d823	0.1414495
31	0x3cbb6549	0.022875445
32	0xbe9815b7	-0.29704067
33	0xbca89044	-0.020576604
34	0x3dba4978	0.09096044
35	0xbe1f4a1c	-0.15555614
36	0x3d8632f7	0.065526895
37	0x3c4833e7	0.012219406
38	0xba2624a2	-0.0006337856
39	0x3d3bc612	0.04584319
40	0x3dbf5c99	0.093438335
41	0x3e0b7fdd	0.13622995
42	0xbe277472	-0.16353014
43	0xbdb3a605	-0.087719
44	0xbda57066	-0.08078079
45	0xbe24f039	-0.16107263
46	0x3b7d3955	0.003863891
47	0x3d149ad4	0.036280468
48	0xbd82ddfa	-0.06389995
49	0xbe2320ad	-0.15930434
50	0x3cca0370	0.024659842
51	0x3e22f4f5	0.15913756
52	0xbc642bce	-0.0139264595
53	0x3e1a459d	0.15065618
54	0x3dcdfcef	0.10058009
55	0x3dbd20fc	0.09234807
56	0x3e2f9d7b	0.17149918
57	0x3bd1f3e0	0.006407246
58	0xbdb949f0	-0.090473056
59	0xbcd256a4	-0.02567608
60	0xbd8670c5	-0.06564478
61	0x3dd8e187	0.10589891
62	0x3e13c243	0.14429574
63	0xbda0989e	-0.078416094
64	0x3c0dfb65	0.008665894
65	0x3e5dc6c3	0.21657853
66	0xbd282534	-0.041051105
67	0x3c1b8745	0.0094927
68	0x3d18ead5	0.03733333
69	0x3d101db7	0.03518459
70	0xbc422d13	-0.011851567
71	0x3dbc06c1	0.09180976
72	0x39b8df31	0.00035261505
73	0xbd2452ac	-0.040117905
74	0xbd9cbd91	-0.076533444
75	0x3c8dc04d	0.01730361
76	0xbe38b542	-0.18037894
77	0x3d3d0dd8	0.04615578
78	0xbc1a5b82	-0.009421231
79	0xbd6edc74	-0.05831571
80	0xbde5a988	-0.11213976
81	0x3c89966a	0.016795356
82	0xbd0ec1f9	-0.034852955
83	0xbe27873e	-0.16360185
84	0xbdc275b6	-0.09495108
85	0xbd9da827	-0.07698088
86	0xbd3f174f	-0.04665309
87	0x3b65c2d0	0.0035058744
88	0xbd065d59	-0.032803867
89	0xbd19c9e0	-0.03754604
90	0xbdc0b3a5	-0.094092645
91	0x3c6acbd6	0.014330825
92	0xbdee12fc	-0.11624715
93	0x3d1fc15d	0.039002765
94	0xbd03c32b	-0.03216855
95	0x3bbf47d8	0.005837422
96	0x39806b3e	0.00024493964
97	0xbdf56549	-0.11982209
98	0xbd7a4462	-0.06110037
99	0xbd141590	-0.036153376
100	0x3d3be79f	0.045875188
101	0x3db7e1fc	0.0897865
102	0x3de18014	0.11010757
103	0xbe649b65	-0.22324903
104	0x3d434d97	0.047681417
105	0x3d8e4195	0.069461025
106	0xbda0fad1	-0.078603394
107	0x3debe009	0.11517341
108	0xbc90d833	-0.017681217
109	0xbd0a5067	-0.033768084
110	0x3caaa685	0.020831356
111	0xbbbfadb5	-0.005849565
112	0x3cfbf3f5	0.030755976
113	0x3caf6214	0.021409072
114	0xbe2d6768	-0.16933978
115	0xbe525235	-0.20539172
116	0x3e06dafd	0.13169475
117	0xbd681f21	-0.05667031
118	0xbe4d0fd3	-0.20025568
119	0xbe1fb5cb	-0.15596692
120	0x3d724638	0.059148997
121	0xbdc45c43	-0.0958791
122	0xbd3653f0	-0.044513643
123	0xbdcf87e7	-0.10133343
124	0xbd35ca49	-0.044382367
125	0xbe21bbba	-0.15794268
126	0xbca37176	-0.019951563
127	0xbdd6e2bd	-0.10492466
128	0x3d94b277	0.07260602
129	0x3baa5e41	0.005199224
130	0xbe0f4e8a	-0.13994804
131	0xbda57824	-0.08079556
132	0x3e414e32	0.18877485
133	0x3d5829d4	0.052774265
134	0x3de8c6fa	0.11366077
135	0x3de0b29a	0.109715655
136	0xbd241e69	-0.040068064
137	0xbd1c3282	-0.038134106
138	0x3d9c3985	0.076281585
139	0x3e5902e3	0.21192507
140	0x3e668a72	0.2251375
141	0xbe06aeb0	-0.13152575
142	0x3ddd1bd1	0.10796321
143	0xbe0a0965	-0.13480146
144	0x3dd2a0b9	0.10284562
145	0x3e39d421	0.18147327
146	0xbd6abe1a	-0.0573102
147	0x3e31d7c8	0.1736747
148	0x3e034fde	0.12823436
149	0xbdc7a33f	-0.097479336
150	0xbd741479	-0.059589837
151	0x3cc5a572	0.024126742
152	0x3db65cc2	0.08904411
153	0xbd88a4ca	-0.06672056
154	0x3c5deaef	0.013544782
155	0xbda491e9	-0.08035643
156	0x3da47897	0.08030813
157	0x3e00e35e	0.12586734
158	0xbdc09a26	-0.094044015
159	0x3c48da09	0.012259015
160	0xbdd92326	-0.10602407
161	0xbd7c931b	-0.06166373
162	0x3e2cf012	0.16888455
163	0xbe18e208	-0.14929974
164	0xbdd17489	-0.102273054
165	0x3e0f9934	0.14023286
166	0xbe5fda67	-0.21860658
167	0xbdb3cd6f	-0.08779418
168	0x3cf62fb9	0.030052053
169	0x3df243fc	0.11829373
170	0x3deaa67f	0.11457538
171	0xbe06dcdc	-0.13170189
172	0xbdad98f8	-0.08476442
173	0xbdaa3667	-0.08311158
174	0xbd2202dc	-0.03955351
175	0x3e58c566	0.21169052
176	0x3993c45d	0.00028184327
177	0xbd43266a	-0.047644056
178	0xbd8cf10f	-0.06881916
179	0xbddab20c	-0.10678491
180	0xbe44978b	-0.19198434
181	0x3d930c34	0.07180062
182	0xbd8d7bf6	-0.06908409
183	0x3d7d1b5d	0.061793674
184	0x3e00396a	0.12521902
185	0xbd90a13a	-0.070620015
186	0x3d325108	0.04353431
187	0xbc4ad0e6	-0.012378907
188	0x3d77ec60	0.06052816
189	0xbd6cb8bf	-0.057793375
190	0xbd8f6900	-0.07002449
191	0x3c92c61b	0.01791673
192	0xbe430d72	-0.19048098
193	0xbd9b3907	-0.075792365
194	0xbc16158c	-0.009160411
195	0xbc053e6e	-0.00813256
196	0xbd865d72	-0.06560792
197	0xbc646cb5	-0.013941933
198	0x3e77cb57	0.24198662
199	0xbe0ab924	-0.13547188
200	0x3bdf64e8	0.006817449
201	0xbc8946ac	-0.016757332
202	0x3dbe4118	0.092897594
203	0xbbfc0da8	-0.0076920576
204	0xbd9602fb	-0.07324787
205	0x3e036425	0.12831171
206	0xbe3ff34f	-0.18745159
207	0x3dfa0e74	0.12209788
208	0xbdd9971e	-0.106245264
209	0x3c962f3c	0.01833307
210	0xbda5af59	-0.080900855
211	0x3a8f0731	0.0010912177
212	0x3d2d7df5	0.04235645
213	0xbd1f063c	-0.038824305
214	0x3d98cba3	0.074607156
215	0xbbc9ee35	-0.0061624297
216	0x3dbc4c3c	0.09194228
217	0xbe41b6f0	-0.18917441
218	0x3d084c38	0.033275813
219	0xbd0f7158	-0.035020202
220	0xbcec8fb0	-0.02887711
221	0x3da3b780	0.07993984
222	0x3dd4e86b	0.10395893
223	0x3c9bc2c6	0.019013774
224	0xbd63ebca	-0.055644788
225	0xbd8f07f1	-0.069839366
226	0xbd95d260	-0.073155165
227	0x3e0399a6	0.12851581
228	0x3ddcaea2	0.10775496
229	0x3e75e7cc	0.24014205
230	0xbcec6e1e	-0.028861102
231	0xbdb46e83	-0.08810141
232	0xbbf8c876	-0.007592256
233	0x3c0b9cd2	0.008521276
234	0xbc1880eb	-0.00930808
235	0x3e296a21	0.16544391
236	0x3dde2e95	0.108487286
237	0x3e7a7874	0.24460012
238	0xbccb2116	-0.02479605
239	0x3e108159	0.14111842
240	0xbdc7f547	-0.0976358
241	0xbda27cce	-0.07933961
242	0xbcf82414	-0.03029064
243	0xbd50bced	-0.050961424
244	0xbe706817	-0.23477207
245	0xbe1816ac	-0.14852399
246	0xbdc8c0a9	-0.09802372
247	0xbe05731c	-0.13032192
248	0xbdc62e5f	-0.09676813
249	0x3e325b2b	0.1741759
250	0x3e1368f6	0.14395508
251	0x3d5e38c9	0.054253373
252	0xbc300fdf	-0.010745971
253	0xbd3164a4	-0.04330887
254	0xbde2471e	-0.11048721
255	0xbba5eea8	-0.0050638504

module.net_ts.layer2.0.bn1.weight f4 [32]
0	0x3f2eb08c	0.6823814
1	0x3f2a6415	0.66558963
2	0x3f2aaec5	0.6667293
3	0x3f2f3bf4	0.68450856
4	0x3f30ebab	0.691096
5	0x3f315573	0.6927101
6	0x3f2cc74a	0.6749159
7	0x3f2b09df	0.6681194
8	0x3f34f1a1	0.70681196
9	0x3f264843	0.6495401
10	0x3f3b740d	0.73223954
11	0x3f38e8d1	0.7223025
12	0x3f2b314a	0.66872084
13	0x3f3dd856	0.7415823
14	0x3f325fa5	0.6967719
15	0x3f38d507	0.72200054
16	0x3f2a8269	0.6660524
17	0x3f2caa02	0.6744691
18	0x3f2a949d	0.66633016
19	0x3f45c4f3	0.77253646
20	0x3f2fd1e7	0.6867966
21	0x3f302075	0.68799525
22	0x3f2bd199	0.67116696
23	0x3f2b799c	0.66982436
24	0x3f232e13	0.6374218
25	0x3f264c9a	0.64960635
26	0x3f40546f	0.75128835
27	0x3f3afa1d	0.7303789
28	0x3f319485	0.6936725
29	0x3f338ce1	0.7013684
30	0x3f2a2092	0.6645595
31	0x3f2fa235	0.68606883

module.net_ts.layer2.0.bn1.bias f4 [32]
0	0x3b3d0945	0.0028844636
1	0xba9982b1	-0.0011711923
2	0xbbc20122	-0.005920545
3	0x3ad3df80	0.0016164631
4	0x3cfb8053	0.030700838
5	0x3d22b0b6	0.039719306
6	0x3c1e75a2	0.009671601
7	0xbc7b0c9f	-0.015322833
8	0xbcd3c895	-0.02585248
9	0xbd1e9650	-0.038717568
10	0x3d02cbc1	0.031932596
11	0x3c84ad75	0.016195992
12	0xbc0acf7c	-0.00847232
13	0xbc45267b	-0.0120331
14	0xbd3f2d53	-0.046674084
15	0xbc3dae43	-0.011577192
16	0xbd13aa6a	-0.03605119
17	0xbc9d045d	-0.01916712
18	0xbd1940c2	-0.037415273
19	0x3d79c806	0.060981773
20	0xbcfc2f7a	-0.030784357
21	0x3a8332a3	0.0010009598
22	0xbd113339	-0.03544924
23	0x3bb0a73a	0.0053910287
24	0xbd1f2dc7	-0.038862016
25	0xbd730242	-0.059328325
26	0xbceef7c7	-0.029170884
27	0x3c6cd150	0.014454201
28	0xbd004b84	-0.031322017
29	0xbc8a779e	-0.016902741
30	0xbcf62f27	-0.03005178
31	0x3cc7b413	0.024377858

module.net_ts.layer2.0.bn1.running_mean f4 [32]
0	0xbf419d55	-0.75630695
1	0xbf2e9fe4	-0.68212724
2	0x3ea4a959	0.32160452
3	0x3efa6d65	0.48911586
4	0xbe9b64a7	-0.3035023
5	0xbf1cd1d9	-0.612577
6	0xbf084d89	-0.5324331
7	0xbed51751	-0.41619352
8	0xbef306c3	-0.47466096
9	0x3ecc2ec1	0.3987942
10	0xbf855d77	-1.0419148
11	0x3ec8fed0	0.39256907
12	0xbee03564	-0.43790734
13	0x3e33d5dc	0.1756205
14	0x3dd60c65	0.10451583
15	0x3e98eab0	0.29866552
16	0x3f1a3215	0.6023267
17	0x3feb60d1	1.8388921
18	0xbf1e84a5	-0.6192115
19	0xbf2dff48	-0.67967653
20	0x3f4bf0c8	0.7966428
21	0x3f5fac32	0.87372124
22	0xbea90cfd	-0.33017722
23	0x3fb52064	1.415051
24	0xbe3e22d5	-0.18567975
25	0x3e333398	0.1750015
26	0x3f0b394d	0.5438431
27	0xbca3b2e5	-0.019982764
28	0xbf14de5e	-0.58151805
29	0x3f842a9c	1.0325503
30	0x3f583811	0.8446055
31	0x3f7d129c	0.9885652

module.net_ts.layer2.0.bn1.running_var f4 [32]
0	0x3f1d074e	0.6133927
1	0x3f6badd0	0.9206209
2	0x3f10a088	0.5649495
3	0x3f288b73	0.6583778
4	0x3f1cd191	0.6125727
5	0x3f1153f6	0.5676874
6	0x3f11dc33	0.5697662
7	0x3ef3ef63	0.47643575
8	0x3f094013	0.53613394
9	0x3f140629	0.578219
10	0x3f35bfea	0.7099596
11	0x3ee580f1	0.44824937
12	0x3ef8f4c0	0.4862423
13	0x3ee74a3c	0.45173824
14	0x3ef8bf6f	0.48583552
15	0x3f341b1e	0.7035388
16	0x3f39e01b	0.7260758
17	0x3f265dfe	0.6498717
18	0x3f1c926f	0.6116094
19	0x3f1a1b6a	0.6019808
20	0x3f1a7b09	0.60343987
21	0x3f081a6d	0.5316532
22	0x3f0aed0e	0.54267967
23	0x3eedbbdf	0.46432397
24	0x3f1fef90	0.6247492
25	0x3f3e14f9	0.7425075
26	0x3eb9e48a	0.36307174
27	0x3f252474	0.6450875
28	0x3f2dd1fe	0.6789855
29	0x3f0dea73	0.55435866
30	0x3f2dbfb2	0.6787063
31	0x3f163fc1	0.5869103

module.net_ts.layer2.0.conv2.weight f4 [32, 32, 3]
0	0xbd57b944	-0.052666917
1	0xbeb70908	-0.35749078
2	0x3da199b4	0.07890645
3	0xbd431c43	-0.047634374
4	0xbb345dd8	-0.0027521756
5	0xbd84dea6	-0.06487779
6	0xbdd6d2b3	-0.104894064
7	0x3d800219	0.062504
8	0x39e4799c	0.00043578155
9	0xbcc0e429	-0.023546295
10	0x3d2f2557	0.04276022
11	0x3cf43143	0.029808646
12	0xbdc8458b	-0.09778889
13	0xbdedd933	-0.11613693
14	0xbe1df773	-0.15426426
15	0x3e3458bc	0.17611974
16	0x3dc11c67	0.094292454
17	0xbcb8d354	-0.022561707
18	0xbd8a7d7c	-0.067622155
19	0xbe86767e	-0.26262277
20	0xbd73881f	-0.059455987
21	0xbd77f1d8	-0.060533375
22	0xbcb39f8d	-0.021926666
23	0x3cdcd50f	0.026957063
24	0xbd0f62d4	-0.03500636
25	0x3de4f417	0.11179369
26	0xbdc432a2	-0.0957997
27	0x3cddc170	0.027069777
28	0xbcd9aa9a	-0.026570607
29	0x3e28fde6	0.16503105
30	0x3e20b485	0.15693863
31	0xbe04c8a3	-0.12967162
32	0x3de23450	0.11045134
33	0x3d8ffef2	0.07031049
34	0xbcf23712	-0.029567275
35	0x3d93817e	0.07202433
36	0xbd92ebad	-0.07173858
37	0xbe0bf1de	-0.13666484
38	0x3e420e58	0.18950784
39	0x3d8b54be	0.06803273
40	0x3b89abc7	0.0042013857
41	0xbde5a85a	-0.11213751
42	0xbd80d6ef	-0.06290995
43	0xbd8f92f5	-0.07010452
44	0x3d44f6b9	0.048086856
45	0x3d0adae1	0.033900145
46	0xbd575274	-0.052568868
47	0x3de27334	0.110571295
48	0x3dc5f914	0.096666485
49	0xbc5a688c	-0.01333059
50	0xbd44f9dd	-0.04808985
51	0x3bc790ff	0.006090283
52	0xbc1f73cc	-0.009732198
53	0xba9f7281	-0.0012164862
54	0xbea39b39	-0.31954363
55	0xbe3219cc	-0.17392653
56	0xbcc465e3	-0.023974365
57	0xbc5fec0d	-0.013667119
58	0xbe62720e	-0.22113821
59	0x3e77fc4a	0.24217334
60	0xbd2b0189	-0.04174951
61	0x3e474a77	0.19462
62	0x3ce2cd78	0.027685866
63	0xbd435168	-0.047685057
64	0xbe4af368	-0.19819415
65	0xbd5d5665	-0.05403747
66	0x3e0967df	0.1341853
67	0xbdf371f0	-0.11886966
68	0xbd95e043	-0.07318165
69	0x3bc9638a	0.006145899
70	0xbd6d9d0b	-0.058011096
71	0x3d2a9e20	0.041654706
72	0xbdbada73	-0.09123697
73	0x3dc4a8eb	0.09602531
74	0xbd2dbfbf	-0.04241919
75	0x3d09d59b	0.033650976
76	0x3dab7f57	0.083738975
77	0x3c22f564	0.009946201
78	0xbea14e99	-0.31505278
79	0xbd0699b6	-0.032861434
80	0x3d9b77d0	0.07591212
81	0xbd592f4f	-0.053023633
82	0x3bc53a85	0.006018939
83	0xbdeb4e5d	-0.11489556
84	0xbe2c9a06	-0.1685563
85	0x3e2ad59f	0.16683052
86	0xbd9cc711	-0.076551564
87	0x3d39b66d	0.04533999
88	0x3d3863eb	0.045017164
89	0x3d8a2612	0.067455426
90	0x3d484f5a	0.0489038
91	0xbda0ccf8	-0.07851595
92	0xbd4c3c84	-0.0498624
93	0x3c4555f3	0.012044418
94	0xbdfa71dd	-0.12228749
95	0x3e497495	0.19673379
96	0x3e10f62b	0.14156406
97	0x3d2cf918	0.04222974
98	0x3e2bf97e	0.16794392
99	0xbc463fcc	-0.012100171
100	0xbe05d0ce	-0.13067934
101	0xbc88118e	-0.016609933
102	0x3dcad393	0.09903636
103	0x3d81288b	0.06306561
104	0xbdf271f2	-0.118381396
105	0xbde2b995	-0.11070553
106	0x3e82a60a	0.25517303
107	0x3da3c61a	0.07996769
108	0x3db9ae9f	0.090665095
109	0x3dce4530	0.1007179
110	0xbd762edb	-0.06010328
111	0xbd8b1ba1	-0.06792379
112	0x3e346aa2	0.17618802
113	0x3e2a788b	0.16647546
114	0x3e1ddd4b	0.15416448
115	0xbc86202a	-0.016372759
116	0xbe25b53d	-0.16182418
117	0x3dc0cf9c	0.09414598
118	0xbe4afcf5	-0.19823058
119	0x3e0dba50	0.13840604
120	0xbdae9e48	-0.085262835
121	0x3e15818d	0.14600201
122	0xbe5dd53d	-0.21663375
123	0x3de675d6	0.11252944
124	0x3d4e1a82	0.05031825
125	0x3de1ef8f	0.1103202
126	0xbe42555e	-0.18977877
127	0x3df563d9	0.11981935
128	0x3dcee545	0.101023234
129	0x3d01179c	0.031516656
130	0xbd51e22e	-0.051241092
131	0xbb105a61	-0.0022026526
132	0x3d9f5f3f	0.077818386
133	0x3da1ba09	0.078968115
134	0xbe662457	-0.224748
135	0xbe09703c	-0.1342172
136	0xbcf6cd33	-0.030127143
137	0x3c8a32cb	0.016869923
138	0x3e8f9ac5	0.28047767
139	0x3ae061b8	0.0017118966
140	0x3dbf975a	0.0935504
141	0xbdab7eeb	-0.08373817
142	0x3d84ed9b	0.06490632
143	0x3daec5fa	0.08533855
144	0x3be8375b	0.007086677
145	0xbc951b6b	-0.01820155
146	0xbd9091ba	-0.07059045
147	0xbd963d82	-0.073359504
148	0x3ca164ea	0.01970144
149	0x3dd97cf8	0.10619539
150	0xbda83c6f	-0.08214652
151	0x3ae58bca	0.0017512974
152	0xbcb2d4b3	-0.021829939
153	0xbe078ff0	-0.13238502
154	0x3e808c7d	0.25107184
155	0x3de2d232	0.11075248
156	0xbde92a64	-0.113850385
157	0xbc76d9a9	-0.015066543
158	0xbd2f19b7	-0.042749133
159	0xbe0eff27	-0.1396452
160	0x3d3f2247	0.04666355
161	0xbd5c9915	-0.053856928
162	0x3b81138a	0.003939097
163	0x3d3f78c6	0.046746038
164	0x3da36d2a	0.07979806
165	0xbc63b92b	-0.013899128
166	0xbd9f862e	-0.077892646
167	0x3c9dcf7b	0.019263973
168	0xbe038714	-0.12844497
169	0x3d49ca83	0.049265396
170	0x3c883a35	0.016629318
171	0x3c0382fe	0.008026836
172	0xbc9a3455	-0.018823782
173	0xbe2ca8ba	-0.16861239
174	0x3d7c0bc6	0.061534666
175	0xbe10ad3f	-0.14128588
176	0x3e0b1397	0.13581692
177	0x3b0fbe32	0.0021933434
178	0x3dffbb83	0.12486937
179	0xbc972c01	-0.0184536
180	0x3d88109b	0.06643792
181	0xbcc46236	-0.023972612
182	0xbd97e0f8	-0.07415956
183	0x3de5a7f8	0.11213678
184	0xbe1343f3	-0.1438139
185	0x3dabb7c6	0.083846614
186	0x3e1a68cb	0.15079038
187	0xbc119f60	-0.008888096
188	0x3ddda271	0.10821999
189	0x3dfa5632	0.12223472
190	0x3d8eb07c	0.069672555
191	0x3da4ffce	0.08056603
192	0x3e46f061	0.19427635
193	0xbd18fa2b	-0.037347954
194	0x3c76bfbb	0.015060361
195	0xbe122fb8	-0.14276016
196	0x3c8adee1	0.01695198
197	0xbd3da41b	-0.04629908
198	0x3d9a2271	0.075261004
199	0xbe2dbb5b	-0.16966002
200	0x3d15a0f3	0.036530446
201	0x3d12ff91	0.03588826
202	0xbc713c6d	-0.014723879
203	0xbb3cd8b0	-0.002881568
204	0xbd85f4ff	-0.0654087
205	0x3df8fde6	0.12157802
206	0xbc525843	-0.012838426
207	0xbd9000bd	-0.07031391
208	0x3df37187	0.11886888
209	0x3c7650c6	0.015033906
210	0x3d140bfb	0.036144238
211	0xbb01d006	-0.001980783
212	0x3d1cdeaa	0.038298286
213	0x3d8924b5	0.066964544
214	0xbb501c9f	-0.003175534
215	0x3d8c0554	0.06836954
216	0xbdadcfa3	-0.08486869
217	0x3dbee4f9	0.09321017
218	0xbd7a8756	-0.061164223
219	0xbd5fb63b	-0.054617148
220	0x3e0a4eee	0.13506672
221	0x3e5a30f9	0.21307744
222	0xbda716f2	-0.08158673
223	0xbd28fdde	-0.04125773
224	0x3d12a2c2	0.03579975
225	0x3e5d3b4e	0.21604654
226	0x3dda98d4	0.10673681
227	0x3e298a4a	0.1655666
228	0x3c1f1400	0.009709358
229	0x3d5f4894	0.054512575
230	0x3c8ed75e	0.01743668
231	0x3d20ec34	0.03928776
232	0xbd6db307	-0.058032062
233	0xbb472344	-0.003038601
234	0x3e2b1f2e	0.16711113
235	0xbe083d50	-0.13304639
236	0x3e3418a4	0.17587525
237	0x3e2b937f	0.16755484
238	0xbd14a07a	-0.036285855
239	0x3e05f6cd	0.13082428
240	0xbcac4037	-0.021026714
241	0xbd0e401d	-0.034729112
242	0xbe8c250f	-0.27372023
243	0xbd68cced	-0.056836057
244	0x3cfbb922	0.030727927
245	0xbdb6951e	-0.089151606
246	0xbd333bbb	-0.043758135
247	0x3d884491	0.06653703
248	0x3d025485	0.031818885
249	0x3e19d256	0.15021643
250	0xbdf71d87	-0.12066179
251	0x3dd42c62	0.10360028
252	0xbc940b77	-0.018071873
253	0xbd25c8b7	-0.04047462
254	0xbe530425	-0.2060705
255	0xbd03d649	-0.03218678

module.net_ts.layer2.0.bn2.weight f4 [32]
0	0x3f361184	0.71120477
1	0x3f361dc0	0.71139145
2	0x3f2cc4cf	0.67487806
3	0x3f3f311c	0.7468431
4	0x3f1d1b77	0.61370033
5	0x3f2a35bf	0.6648826
6	0x3f3553b4	0.70830846
7	0x3f1be694	0.6089871
8	0x3f55252d	0.8325985
9	0x3f3abea8	0.7294717
10	0x3f37f798	0.71862173
11	0x3f47eed7	0.78098816
12	0x3f37f31b	0.71855325
13	0x3f306745	0.68907577
14	0x3f502a74	0.8131478
15	0x3f3a9819	0.7288833
16	0x3f325eaf	0.69675726
17	0x3f31e9e1	0.69497496
18	0x3f40ef39	0.75365025
19	0x3f23dd8d	0.64009935
20	0x3f32c04f	0.6982469
21	0x3f2ca1f5	0.67434627
22	0x3f308d9e	0.6896609
23	0x3f302c6c	0.6881778
24	0x3f2ea6f4	0.682235
25	0x3f2d373b	0.676624
26	0x3f341e2d	0.70358545
27	0x3f47eba5	0.7809394
28	0x3f3534e0	0.70783806
29	0x3f3e98f9	0.7445217
30	0x3f27adbf	0.6549949
31	0x3f2b1781	0.6683274

module.net_ts.layer2.0.bn2.bias f4 [32]
0	0x3cc090f7	0.023506625
1	0xbda7654d	-0.081736185
2	0xbd23c172	-0.039979406
3	0x3d37b04b	0.04484586
4	0xbc8b6bb6	-0.017019134
5	0xbd8d3d22	-0.06896426
6	0x3cd2d5c3	0.025736695
7	0xbc3a582c	-0.011373561
8	0x3d78da9f	0.06075537
9	0x3c59fa78	0.013304345
10	0xbdb18305	-0.08667568
11	0x3dbca6c5	0.09211496
12	0xbc9cd75a	-0.019145656
13	0xbcfe3327	-0.03103025
14	0x3d6f5428	0.058429867
15	0xbce2065b	-0.027590921
16	0x3c65f57f	0.014035582
17	0x3c5bdc1a	0.0134191755
18	0x3cad73db	0.021173408
19	0xbc6fbc0a	-0.014632234
20	0xbcd5a36d	-0.026078904
21	0x3cca9c6f	0.024732796
22	0xbd1456a4	-0.03621544
23	0x3d3614ed	0.04445355
24	0xbd308da5	-0.043103833
25	0x3b80fa95	0.0039361217
26	0xbc586f02	-0.01321006
27	0x3d93b7c8	0.07212788
28	0x3d71ed44	0.059064165
29	0x3d6da427	0.058017876
30	0xbc618552	-0.013764696
31	0x3bbe348b	0.0058046035

module.net_ts.layer2.0.bn2.running_mean f4 [32]
0	0xbecd6e95	-0.4012343
1	0x3edcc9a8	0.43122602
2	0x3e75fd5d	0.24022432
3	0xbdadb998	-0.08482665
4	0x3ddfdf36	0.10931246
5	0x3d8cc07f	0.06872653
6	0xbe69c2ce	-0.22828218
7	0xbefb407c	-0.49072635
8	0xbe810ffd	-0.2520751
9	0xbbb36067	-0.0054741385
10	0x3f25b02a	0.6472193
11	0xbec4b1d7	-0.3841693
12	0x3dcdf206	0.10055928
13	0x3e255b39	0.1614808
14	0xbd73e571	-0.059544984
15	0xbece57bd	-0.40301314
16	0xbe7b957d	-0.24568744
17	0x3e72bdd1	0.23705222
18	0x3ece1af9	0.40254954
19	0xbdcb9872	-0.09941186
20	0x3c8d48d6	0.017246645
21	0xbdcc1557	-0.09965008
22	0xbe466976	-0.19376168
23	0xbef04404	-0.46926892
24	0xbe22d8cb	-0.15903012
25	0x3e2e5eb4	0.17028314
26	0xbb6b1bd1	-0.0035874734
27	0x3e98c162	0.2983504
28	0x3ec4391f	0.3832483
29	0xbde9fb16	-0.11424844
30	0x3dbc37c8	0.09190327
31	0xbe8c7392	-0.27431923

module.net_ts.layer2.0.bn2.running_var f4 [32]
0	0x3e88b32f	0.26699206
1	0x3e5063b4	0.20350534
2	0x3e3f6d90	0.18694139
3	0x3e3110f3	0.17291622
4	0x3e374802	0.17898563
5	0x3e4e1a1f	0.20127152
6	0x3e082fa8	0.1329943
7	0x3e500ced	0.20317431
8	0x3e28231d	0.16419645
9	0x3dd6feae	0.10497795
10	0x3e2bc66c	0.1677491
11	0x3dfab5a9	0.1224168
12	0x3e2ab455	0.16670354
13	0x3e30107b	0.17193787
14	0x3e643d91	0.2228911
15	0x3e260d13	0.16215925
16	0x3dc79390	0.09744942
17	0x3deb408c	0.11486921
18	0x3e0d1d80	0.13780785
19	0x3de9c391	0.114142545
20	0x3e313f05	0.17309196
21	0x3e923a4e	0.28560108
22	0x3e07b0e1	0.13251068
23	0x3e3ab41d	0.1823277
24	0x3e34d3ff	0.17658995
25	0x3e304ffb	0.1721801
26	0x3e041662	0.12899163
27	0x3e11d371	0.14240815
28	0x3e4620d0	0.19348454
29	0x3e2be824	0.16787773
30	0x3e50259d	0.20326848
31	0x3e218a27	0.15775357
