model/model_20201020112412/model_final_bcp_1_0300_ts.pth (torch_old, 136209 bytes, 68 tensors)

module.net_ts.conv1.weight f4 [32, 1, 7]
-0.3314366 0.65431863 0.34885842 -0.055518974 0.20578843 0.14973946 0.026602343 -0.25930467
-0.6063846 -0.34549302 -0.01676993 0.5428759 0.42745796 0.3680182 -0.14193587 0.11314885
0.28525406 -0.39897725 0.70933795 0.24297448 0.12052549 0.10897262 0.7717423 -0.24049132
-0.6509899 0.30052516 0.3229324 -0.19083868 -0.13780083 -0.58888376 -0.030965403 0.09178166
-0.23389691 0.7196367 -0.41533732 -0.3061477 -0.594478 0.46977788 0.14040847 -0.52923864
0.27308017 0.05900692 -0.543664 -0.5000014 0.12890783 -0.2731971 -0.0653854 -0.27362877
-0.019125463 -0.2906325 0.5779004 -0.866095 0.44712728 -0.471165 -0.26318708 0.033655114
0.09108033 -0.11407968 0.5535003 -0.23283973 0.5734664 -0.37307864 0.33735248 0.26791704
-0.19027926 0.2976269 -0.6641465 -0.6123921 0.047402717 0.13168135 -0.39631534 0.27488357
-0.06044509 0.24441752 -0.10326549 0.08338514 0.82945716 -0.60921556 0.7132374 -0.026234724
-0.49080017 0.5243238 -0.6470856 0.35389748 -0.17744596 0.60187715 -0.16655275 0.42482522
0.23232482 0.07431817 0.1471746 -0.13895842 -0.35901234 -0.1513888 0.0037214723 -0.7026129
0.2497345 -0.31846112 -0.2518453 0.47391114 0.25143662 -0.121966265 -0.547905 0.29999524
0.42593575 0.18027602 -0.13980265 0.2932369 0.030731158 -0.21829231 0.4918507 0.5133558
-0.48544875 0.011478029 0.7613329 -0.05597646 -0.6103024 -0.24567442 0.57465255 -0.63789237
-0.018715523 -0.020698406 -0.056307808 -0.17800942 -0.3097677 -0.12756312 0.06829987 -0.21910317
0.18043946 -0.64684933 -0.20475292 -0.88983047 0.6214637 -0.056709513 0.32886416 -0.27613422
0.6009537 -0.097310394 0.1917408 0.44852144 0.099241614 0.18138666 0.29632285 -0.48413962
-0.052869875 0.8339388 -0.45505023 0.42258906 0.08153681 -0.1317272 0.6260232 0.07520004
0.55295855 -0.38998836 0.19700842 -0.61560637 0.84115815 -0.8633857 0.46684697 -0.11989925
-0.13497858 0.2485408 -0.024263263 -0.33505887 -0.50543386 -0.31396663 -0.05797225 0.58813995
0.30136916 -0.06650001 -0.3709413 -0.28367725 -0.31986597 -0.16466859 -0.08263627 0.07046898
0.16177955 0.13239343 0.20732208 0.18196075 0.35627663 0.28131416 0.11121779 -0.02567811
0.06775107 0.11858956 0.8570291 -0.029445661 -0.3895311 -0.06376105 0.35428983 0.6549668
0.13531314 -0.3848287 0.2405687 0.12982275 -0.017860167 0.011616055 -0.8057752 -0.13954394
-0.2979705 -0.18481281 0.4240055 0.012517142 0.06496013 0.16154231 -0.5657471 0.22351003
0.69876957 0.155871 0.3489134 -0.059306633 0.057762016 -0.08179528 0.33127242 -0.18322957
0.8648833 -0.48720416 -0.09333178 0.014026705 0.09080395 -0.33225185 -0.023461541 -0.40581766
00000000: 0fb2 a9be 6d81 273f 929d b23e dd67 63bd
00000010: 34ba 523e 4d55 193e 28ed d93c 95c3 84be
00000020: 053c 1bbf 76e4 b0be 1861 89bc eaf9 0a3f
00000030: c5db da3e e26c bc3e a357 11be 96ba e73d
00000040: d20c 923e bf46 ccbe 2c97 353f 4dce 783e
00000050: 11d6 f63d 092d df3d e790 453f 5b43 76be
00000060: 46a7 26bf 6fde 993e 6557 a53e 376b 43be
00000070: a91b 0dbe 16c1 16bf 28ab fdbc 06f8 bb3d
00000080: ac82 6fbe 1c3a 383f 18a7 d4be 64bf 9cbe
00000090: b62f 18bf ba86 f03e 3dc7 0f3e 2f7c 07bf
000000a0: 2ad1 8b3e 3db1 713d 902d 0bbf 1700 00bf
000000b0: 6a00 043e 7ee0 8bbe c8e8 85bd 1219 8cbe
000000c0: 01ad 9cbc c8cd 94be 48f1 133f 67b8 5dbf
000000d0: deed e43e 8a3c f1be 75c0 86be f2d9 093d
000000e0: 5388 ba3d 9ba2 e9bd 32b2 0d3f 8a6d 6ebe
000000f0: b2ce 123f 2a04 bfbe 77b9 ac3e 6c2c 893e
00000100: 91d8 42be 8e62 983e 8105 2abf bbc5 1cbf
00000110: 5a29 423d 7ad7 063e d8e9 cabe 8abd 8c3e
00000120: 4595 77bd 9648 7a3e db7c d3bd d4c5 aa3d
00000130: 4e57 543f 8df5 1bbf ba96 363f 34ea d6bc
00000140: 294a fbbe 163a 063f 67a7 25bf 0d32 b53e
00000150: 65b4 35be 9f14 1a3f ce8c 2abe b182 d93e
00000160: 8fe6 6d3e 2034 983d f0b4 163e 1e4b 0ebe
00000170: 77d0 b7be aa05 1bbe f2e3 733b 70de 33bf
00000180: 67ba 7f3e 560d a3be def1 80be 7ba4 f23e
00000190: 4dbc 803e 73c9 f9bd 8143 0cbf fa98 993e
000001a0: 4014 da3e 479a 383e 6d28 0fbe 2623 963e
000001b0: e9bf fb3c 0588 5fbe dbd3 fb3e 496b 033f
000001c0: bd8c f8be 580e 3c3c b7e6 423f 9347 65bd
000001d0: c73c 1cbf 1392 7bbe 6e1c 133f ea4c 23bf
000001e0: 4c51 99bc b48f a9bc 04a3 66bd 1a48 36be
000001f0: df99 9ebe e89f 02be cde0 8b3d 955c 60be
00000200: 1fc5 383e eb97 25bf c0aa 51be eecb 63bf
00000210: 3f18 1f3f 3c48 68bd e260 a83e 7761 8dbe
00000220: 1ad8 193f ac4a c7bd b357 443e 9aa4 e53e
00000230: 303f cb3d 6dbd 393e a1b7 973e 26e1 f7be
00000240: 158e 58bd 037d 553f 58fc e8be 985d d83e
00000250: c5fc a63d 7fe3 06be 0e43 203f 7b02 9a3d
00000260: b18e 0d3f 8eac c7be 93bc 493e 6198 1dbf
00000270: 2456 573f d806 5dbf 9106 ef3e bd8d f5bd
00000280: d337 0abe 7b81 7e3e c0c3 c6bc d68c abbe
00000290: 1d64 01bf 3cc0 a0be 4f74 6dbd 5790 163f
000002a0: 0f4d 9a3e 2831 88bd 05ec bdbe 253e 91be
000002b0: 79c5 a3be e29e 28be 343d a9bd 0a52 903d
000002c0: 8aa9 253e 2592 073e 3d4c 543e eb53 3a3e
000002d0: e469 b63e 6908 903e 27c6 e33d e65a d2bc
000002e0: 13c1 8a3d 15df f23d 4266 5b3f 0738 f1bc
000002f0: 9f70 c7be 2795 82bd 7a65 b53e e7ab 273f
00000300: 878f 0a3e 4408 c5be a457 763e 41f0 043e
00000310: 7c4f 92bc 4451 3e3c 4947 4ebf 9be4 0ebe
00000320: 978f 98be 923f 3dbe 4017 d93e b314 4d3c
00000330: d109 853d 596b 253e cdd4 10bf d0df 643e
00000340: 90e2 323f a69c 1f3e c7a4 b23e 83eb 72bd
00000350: dd97 6c3d 4984 a7bd 8a9c a93e 88a0 3bbe
00000360: fe68 5d3f d372 f9be bb24 bfbd 44d0 653c
00000370: 6cf7 b93d ea1c aabe 6b32 c0bc 55c7 cfbe

module.net_ts.bn1.weight f4 [32]
0.6508823 0.8535121 0.6988565 0.78167474 0.74203235 0.6601662 0.7519779 0.8807907
0.7631206 0.7114367 0.7884489 0.81190586 0.6217207 0.7068151 0.62592095 0.7093938
0.8349379 0.5669217 1.015588 0.70145017 0.7142882 0.9197409 0.9446562 0.6772788
0.5964498 0.5345899 0.74101067 0.69819814 0.7215624 0.6767789 0.854257 0.6207294
00000000: 39a0 263f c57f 5a3f 42e8 323f d61b 483f
00000010: d5f5 3d3f a700 293f a081 403f 807b 613f
00000020: df5b 433f b720 363f cad7 493f 10d9 4f3f
00000030: 1629 1f3f d6f1 343f 5b3c 203f d59a 353f
00000040: 7dbe 553f c821 113f cafe 813f 3d92 333f
00000050: 97db 363f 2474 6b3f fdd4 713f 2562 2d3f
00000060: efb0 183f e2da 083f e0b2 3d3f 1dbd 323f
00000070: 50b8 383f 6241 2d3f 96b0 5a3f 1fe8 1e3f

module.net_ts.bn1.bias f4 [32]
-0.11016754 0.03447277 0.15644343 0.075426824 0.116007574 0.09926943 -0.14325002 0.0038092374
0.17627671 -0.071967565 0.104255535 0.18198644 0.03806844 0.06162715 -0.087691404 -0.044222336
0.07202986 -0.07718565 -0.075963415 -0.12696019 0.24350315 0.027938832 0.08793647 0.03132659
-0.054277703 -0.1837248 -0.08662953 -0.026266465 0.052823495 -0.0101775285 -0.14926845 -0.1282066
00000000: 859f e1bd 5233 0d3d b532 203e 6179 9a3d
00000010: 6195 ed3d c54d cb3d 22b0 12be 66a4 793b
00000020: e281 343e bb63 93bd ed83 d53d a75a 3a3e
00000030: a7ed 1b3d c06c 7c3d 8d97 b3bd 7b22 35bd
00000040: 6484 933d 8313 9ebd b592 9bbd da01 02be
00000050: e458 793e fadf e43c 0918 b43d 4f50 003d
00000060: 4c52 5ebd 5b22 3cbe d36a b1bd c52c d7bc
00000070: 735d 583d a6bf 26bc d4d9 18be 9748 03be

module.net_ts.bn1.running_mean f4 [32]
-0.00017151989 -0.00060532964 -0.00012282417 -0.00019365508 -0.0006403636 -0.0003406092 0.00022895916 -0.0001576803
0.0005156974 5.1762076e-05 -0.00056632113 0.0004723476 -0.00026821226 -0.00028499588 -0.0005573578 -0.0006100712
1.6965456e-06 0.00017995588 0.0008099071 -0.0005466417 -0.00054834946 -0.00042149003 0.00061570253 -0.00013740863
0.00019531114 -0.00043328654 0.00031888165 -0.00025980175 -0.00016568176 -0.00063052005 3.133325e-05 -2.11115e-06
00000000: 05da 33b9 fcae 1eba 5dca 00b9 e40f 4bb9
00000010: 13de 27ba cb93 b2b9 c214 7039 fc56 25b9
00000020: de2f 073a 1b1b 5938 2b75 14ba 6ca5 f739
00000030: d79e 8cb9 806b 95b9 a61b 12ba 2fed 1fba
00000040: ddb4 e335 8ab2 3c39 f24f 543a 814c 0fba
00000050: 1cbf 0fba 6ffb dcb9 1967 213a 5915 10b9
00000060: 6fcc 4c39 bc2a e3b9 922f a739 0036 88b9
00000070: dcba 2db9 7c49 25ba d26b 0338 48ad 0db6

module.net_ts.bn1.running_var f4 [32]
0.07015476 0.11935341 0.073966116 0.09074238 0.07779393 0.07445822 0.09302157 0.10529031
0.06524269 0.08632019 0.08488617 0.10960685 0.06851187 0.089318804 0.06383595 0.07142444
0.10210473 0.06692996 0.13657804 0.07288884 0.08169674 0.096689634 0.1122737 0.074083425
0.058689732 0.061570548 0.07595864 0.07753828 0.09580752 0.0738347 0.09111816 0.05881079
00000000: 4cad 8f3d 906f f43d 8c7b 973d 24d7 b93d
00000010: 6d52 9f3d 8d7d 983d 1882 be3d 72a2 d73d
00000020: f69d 853d a4c8 b03d cdd8 ad3d 8e79 e03d
00000030: f44f 8c3d c7ec b63d 6cbc 823d fa46 923d
00000040: 491c d13d 9312 893d 1ddb 0b3e bf46 953d
00000050: 9f50 a73d 3705 c63d c1ef e53d 0db9 973d
00000060: a564 703d 6631 7c3d 3490 9b3d 64cc 9e3d
00000070: bc36 c43d a636 973d 289c ba3d 95e3 703d

module.net_ts.layer1.0.conv1.weight f4 [32, 32, 3]
-0.08245859 -0.22580634 -0.112901725 -0.28850308 0.11341908 0.05581217 -0.17250948 0.098794386
0.024404196 -0.0061874758 -0.11009136 -0.32022765 -0.037088975 0.18464641 -0.0017159659 -0.18035269
-0.036451865 0.20982264 -0.315401 -0.022567581 0.030766357 0.18140832 0.008922545 0.14103027
-0.14590488 0.06271624 -0.07731517 0.054659378 0.07099653 0.13802478 -0.17001005 0.07709665
0.09917033 -0.11115636 0.013910364 -0.35671023 -0.057674512 0.0050454456 0.042566635 0.033138394
0.04491274 -0.034574036 -0.16274068 -0.027700545 -0.092797436 -0.09736067 0.06441946 0.00054118846
0.055715237 -0.050891995 -0.17117086 -0.13524431 0.20196654 -0.14533404 -0.10840018 0.081182264
-0.07566295 -0.06503901 0.22470027 0.034220114 -0.086714484 -0.34473842 0.039620552 0.27652952
0.118945375 0.3369123 -0.13033272 0.23166718 0.12302838 0.05914058 0.18955295 -0.109282054
0.033834033 -0.057194855 0.0045383642 -0.13701275 0.05358175 -0.07658869 0.08495237 -0.03701727
-0.057251923 -0.27077046 -0.12937696 -0.04254734 0.30350944 0.05154139 -0.20145415 -0.24470416
0.017128052 -0.177798 -0.081693366 -0.02158478 -0.16002694 -0.033406515 -0.014031374 0.25499618
0.17461102 0.024564425 0.11554458 0.15716943 0.1607677 0.059026662 0.030593622 -0.15573378
0.05578127 -0.02872204 0.004820745 -0.14836138 0.013269776 0.037894607 -0.038184676 0.19422068
0.068572275 -0.22050397 0.053868588 0.06986906 0.0943532 -0.45445037 0.09469076 0.13508901
-0.037820254 0.07651446 -0.034540854 0.16410157 -0.0040935897 -0.26478714 -0.07521421 -0.04382653
-0.15210785 0.5100797 0.12933132 -0.036575183 0.048199717 -0.13056965 -0.124532364 -0.06963891
0.059507437 0.18510717 0.1374027 -0.04226071 -0.11172713 0.021482332 0.121156715 -0.0012687014
0.022123402 -0.007177362 0.00983133 0.21221937 -0.082505226 -0.08130702 0.1529996 -0.31056747
-0.24289808 0.020749303 -0.073820725 -0.1376632 0.19116779 0.0725329 -0.058322057 -0.3240851
-0.12375961 -0.17123684 0.29527143 0.058536734 -0.32587495 -0.06992868 -0.13887739 -0.20674145
-0.053428285 0.060204554 0.042152718 0.13670146 -0.08488084 0.009509222 -0.13125439 -0.122797534
-0.3328603 0.0885901 -0.00030462508 -0.17600298 -0.089827694 -0.0974083 0.037397552 0.30557683
-0.022877684 0.08222513 -0.12707232 -0.07095318 -0.34135836 -0.06780212 -0.03703233 -0.07400685
-0.05503541 0.124466166 -0.019416418 -0.2804515 0.20014913 -0.4706995 0.01732106 0.04967849
-0.09536054 -0.021275863 0.05324548 -0.07675181 -0.15015101 -0.15472671 -0.35009 -0.047285076
0.029904451 0.16227125 -0.2410655 0.07937578 -0.19106002 0.28398752 -0.11600542 -0.18086328
-0.18593036 -0.1392633 -0.006182785 0.04131285 -0.18000707 -0.11774054 -0.015805915 0.008368979
0.10562891 0.014099742 0.0143071655 0.041384354 -0.099114046 -0.016432673 0.39971638 -0.09426713
-0.34167185 0.14500491 0.25528395 -0.24298188 0.06836423 0.02749258 0.027423106 0.38031095
0.05570816 0.19259684 0.017667944 0.1552525 -0.17471421 -0.3253208 0.079328 -0.11778885
-0.20629388 -0.0057216273 0.021644294 0.022972684 0.19274575 0.07136781 -0.05378442 0.00030658062
00000000: 0de0 a8bd c739 67be 0539 e7bd adb6 93be
00000010: 4348 e83d 4d9b 643d 53a6 30be b654 ca3d
00000020: 4feb c73c 4fc0 cabb 9477 e1bd e1f4 a3be
00000030: 9cea 17bd f313 3d3e 43ea e0ba 60ae 38be
00000040: 8d4e 15bd bfdb 563e 3d7c a1be a6df b8bc
00000050: ba09 fc3c 1ac3 393e de2f 123c 3d6a 103e
00000060: 1768 15be 5f71 803d 6a57 9ebd 83e2 5f3d
00000070: a166 913d 5e56 0d3e 1d17 2ebe d9e4 9d3d
00000080: d019 cb3d f2a5 e3bd 4ce8 633c b9a2 b6be
00000090: 1c3c 6cbd 4454 a53b 5a5a 2e3d 20bc 073d
000000a0: 6cf6 373d 819d 0dbd 7ea5 26be 41ec e2bc
000000b0: 950c bebd 0865 c7bd 5aee 833d 8bde 0d3a
000000c0: a935 643d 2074 50bd 6a47 2fbe 7c7d 0abe
000000d0: 51d0 4e3e 72d2 14be ea00 debd e342 a63d
000000e0: 2df5 9abd 2c33 85bd d417 663e 642a 0c3d
000000f0: 5d97 b1bd 8e81 b0be 2949 223d 4795 8d3e
00000100: a299 f33d c57f ac3e f175 05be 293a 6d3e
00000110: 4ef6 fb3d 653d 723d 2b1a 423e 45cf dfbd
00000120: 8e95 0a3d 2745 6abd 8fb6 943b 124d 0cbe
00000130: 8978 5b3d 88da 9cbd 82fb ad3d 6c9f 17bd
00000140: fe80 6abd 6da2 8abe 657b 04be 1f46 2ebd
00000150: 9765 9b3e 111d 533d ff49 4ebe ba93 7abe
00000160: 2150 8c3c ae10 36be da4e a7bd 91d2 b0bc
00000170: 1ade 23be 45d5 08bd d9e3 65bc dc8e 823e
00000180: 3bcd 323e 553b c93c a3a2 ec3d 06f1 203e
00000190: 4aa0 243e f1c5 713d 7a9f fa3c ad78 1fbe
000001a0: e77a 643d 7c4a ebbc 57f7 9d3b 0cec 17be
000001b0: 7969 593c 6037 1b3d 8967 1cbd c9e1 463e
000001c0: 9f6f 8c3d cbcb 61be 4fa5 5c3d 8217 8f3d
000001d0: 403c c13d b8ad e8be 3bed c13d c654 0a3e
000001e0: 69e9 1abd 9db3 9c3d b67a 0dbd 3e0a 283e
000001f0: 8523 86bb 2e92 87be e809 9abd 7383 33bd
00000200: 29c2 1bbe 9594 023f 6e6f 043e dccf 15bd
00000210: 116d 453d 0db4 05be d30a ffbd d89e 8ebd
00000220: 12be 733d bc8c 3d3e 4bb3 0c3e 9119 2dbd
00000230: 32d1 e4bd b7fb af3c 0321 f83d 8e4a a6ba
00000240: 233c b53c 1430 ebbb 9613 213c 0950 593e
00000250: 80f8 a8bd 4b84 a6bd edab 1c3e b302 9fbe
00000260: 46ba 78be 71fa a93c 522f 97bd 95f7 0cbe
00000270: 7dc1 433e 218c 943d 1ce3 6ebd 7bee a5be
00000280: ae75 fdbd b658 2fbe d12d 973e 37c4 6f3d
00000290: 15d9 a6be c536 8fbd e035 0ebe 08b4 53be
000002a0: 9ed7 5abd 0d99 763d 54a8 2c3d 78fb 0b3e
000002b0: 01d6 adbd 91cc 1b3c 8d67 06be 467d fbbd
000002c0: aa6c aabe ba6e b53d 16b6 9fb9 203a 34be
000002d0: 95f7 b7bd 017e c7bd 2d2e 193d 9174 9c3e
000002e0: fb69 bbbc a665 a83d 3f1f 02be e74f 91bd
000002f0: 86c6 aebe d6db 8abd 36af 17bd e790 97bd
00000300: cf6c 61bd 1ee8 fe3d 2e0f 9fbc 5797 8fbe
00000310: e5f3 4c3e 86ff f0be e5e4 8d3c ac7b 4b3d
00000320: 634c c3bd b84a aebc ef17 5a3d 0e30 9dbd
00000330: 30c1 19be ae70 1ebe ff3e b3be ffad 41bd
00000340: 2efa f43c 6f2a 263e e0d9 76be c58f a23d
00000350: 3da5 43be d066 913e 4094 edbd 3934 39be
00000360: 8764 3ebe 0a9b 0ebe f698 cabb aa37 293d
00000370: c653 38be f421 f1bd 687b 81bc 0b1e 093c
00000380: f853 d83d 9b02 673c 9a68 6a3c a482 293d
00000390: 4efc cabd d09d 86bc a0a7 cc3e 200f c1bd
000003a0: 9def aebe 2b7c 143e 94b4 823e 3ed0 78be
000003b0: 8c02 8c3d 1e38 e13c 6ca6 e03c 1eb8 c23e
000003c0: 3d2e 643d 1b38 453e 5dbc 903c 83fa 1e3e
000003d0: 48e8 32be 7390 a6be b876 a23d 483b f1bd
000003e0: b43e 53be 7d7c bbbb 604f b13c 3631 bc3c
000003f0: 245f 453e 4929 923d 0d4d 5cbd 8ebc a039

module.net_ts.layer1.0.bn1.weight f4 [32]
0.6712536 0.7158957 0.8052204 0.7357313 0.70922005 0.75067806 0.8687466 0.66485757
0.6728403 0.58209574 0.90271837 0.76272136 0.7444536 0.82190144 0.5897547 0.7290161
0.66098166 0.8035681 0.78101903 0.9032192 0.6968563 0.82334375 0.67812026 0.56022775
0.7814237 0.5505752 0.7681417 0.81318784 0.6789506 0.587936 0.5808536 0.63940185
00000000: 47d7 2b3f f144 373f ed22 4e3f e358 3c3f
00000010: 728f 353f 702c 403f 2d66 5e3f 1b34 2a3f
00000020: 433f 2c3f 3a04 153f 8d18 673f b541 433f
00000030: 8394 3e3f 2268 523f 2afa 163f cda0 3a3f
00000040: 1836 293f a4b6 4d3f ddf0 473f 6039 673f
00000050: 2d65 323f a8c6 523f 4a99 2d3f 166b 0f3f
00000060: 620b 483f 7ff2 0c3f efa4 443f 142d 503f
00000070: b5cf 2d3f f982 163f d2b2 143f d7af 233f

module.net_ts.layer1.0.bn1.bias f4 [32]
-0.17980221 -0.18539327 -0.09766325 -0.20678778 -0.026946058 -0.10959736 -0.2509665 -0.18299435
-0.16351241 -0.029029543 -0.20545106 -0.19508176 -0.12299162 -0.11620303 0.03138734 -0.11201148
-0.036165845 -0.29196778 -0.095439725 -0.24811636 0.0153079545 -0.25005752 -0.10636494 -0.14600623
0.010210162 0.022658896 -0.27089882 -0.31984946 -0.17578542 -0.052312408 -0.14918476 -0.11802853
00000000: 121e 38be bcd7 3dbe ac03 c8bd 2dc0 53be
00000010: fbbd dcbc 9574 e0bd ae7e 80be df62 3bbe
00000020: cc6f 27be 5dcf edbc c361 52be 83c3 47be
00000030: 08e3 fbbd dbfb edbd 0390 003d 4666 e5bd
00000040: a322 14bd cd7c 95be e775 c3bd 3712 7ebe
00000050: 37ce 7a3c 8a07 80be ddd5 d9bd a882 15be
00000060: 8648 273c 269f b93c 40b3 8abe 4fc3 a3be
00000070: 1801 34be 8945 56bd e4c3 18be f1b8 f1bd

module.net_ts.layer1.0.bn1.running_mean f4 [32]
-1.1042948 -0.8156402 -0.9474723 -0.4973136 -1.2547702 -1.5663911 -0.8170861 -0.06657185
-0.82679665 -0.48440185 -1.8480744 -0.68798864 1.4883378 -1.4886 0.67741674 -1.688763
-0.87988853 -0.9982062 0.47378644 1.1321582 -0.9539276 -1.5707071 0.08304714 0.18856536
0.011869906 -0.64330125 0.8818057 -1.5382847 0.12689067 -0.4290842 0.64035106 0.27730727
00000000: 8859 8dbf cccd 50bf 8b8d 72bf e39f febe
00000010: 4f9c a0bf 817f c8bf 8e2c 51bf d256 88bd
00000020: f2a8 53bf 8503 f8be b48d ecbf 0620 30bf
00000030: da81 be3f 728a bebf 2f6b 2d3f 6329 d8bf
00000040: 6040 61bf 718a 7fbf 2394 f23e 8fea 903f
00000050: 9934 74bf ee0c c9bf 9e14 aa3d 4717 413e
00000060: ff79 423c 64af 24bf 05be 613f 83e6 c4bf
00000070: a1ef 013e edb0 dbbe 0cee 233f 38fb 8d3e

module.net_ts.layer1.0.bn1.running_var f4 [32]
1.1523345 1.2627139 1.30199 1.5471023 1.4426577 1.9168036 1.6390942 0.83622473
1.0251935 0.87057656 2.6536756 1.417351 1.3396993 1.589917 0.78390217 1.610078
1.1597842 1.1991497 1.439377 1.9337751 1.1741343 1.3992558 0.9360105 1.1724018
1.161386 0.8938255 1.236129 1.2854137 1.1987286 0.69515866 0.89463407 0.8624258
00000000: b27f 933f 9ca0 a13f 9ca7 a63f 7307 c63f
00000010: 02a9 b83f d259 f53f d7cd d13f d312 563f
00000020: 8a39 833f 1bde 5e3f d2d5 2940 c26b b53f
00000030: 447b ab3f 6682 cb3f d0ad 483f 0917 ce3f
00000040: cf73 943f bd7d 993f 813d b83f f185 f73f
00000050: 084a 963f d01a b33f 629e 6f3f 4311 963f
00000060: 4ca8 943f bfd1 643f 7a39 9e3f 7088 a43f
00000070: f06f 993f ebf5 313f bd06 653f f0c7 5c3f

module.net_ts.layer1.0.conv2.weight f4 [32, 32, 3]
-0.16245888 -0.045048513 -0.2275874 0.10370911 -0.10161428 -0.1355149 0.10248279 0.11518105
0.03268928 -0.023078315 -0.13047482 -0.19082682 0.00026384759 -0.14631347 0.10371231 -0.26274
-0.12087711 -0.1310857 -0.18129289 0.21240051 0.15234101 -0.3459725 0.07029722 0.011676147
-0.01929392 0.22128515 0.041929953 0.12393344 0.21435086 -0.22516717 -0.15536603 0.007043798
0.0242138 0.29149824 -0.019447422 -0.13547197 0.18795861 -0.21474457 0.082917765 -0.025278982
0.08118568 0.28709903 0.021443311 0.100779526 -0.005940302 0.04961989 0.02622117 -0.09167886
-0.15358938 -0.16096348 -0.22399403 0.11916661 0.05664077 -0.073506035 0.17347945 -0.055327777
-0.37262824 -0.4260043 -0.1790273 -0.06405532 -0.08755828 0.04501633 -0.16796383 0.059018444
-0.13513848 0.011028316 -0.079108596 -0.013164621 -0.024028325 0.1847122 -0.18760982 -0.22123964
0.13575685 -0.26410222 -0.12441863 0.17420316 -0.063337505 -0.30897948 -0.055264 -0.067505546
-0.09542488 -0.033856843 0.08748988 -0.081100084 0.10690917 0.06623842 0.056100417 -0.11478939
-0.13652624 0.015521861 -0.13657357 0.02537424 0.0684443 -0.34109864 -0.048885066 -0.23122348
0.08481688 0.24581587 0.016555356 -0.044756923 0.050880767 0.1214455 -0.12840591 0.031243678
0.29247504 -0.04662851 -0.16019762 -0.078796044 0.05966733 -0.12615904 -0.0060010166 -0.0932083
-0.05824173 -0.011536141 0.008229908 0.032272384 0.44087106 0.040226433 -0.047853984 -0.15887275
0.03807098 0.08575697 0.14661619 0.03116385 0.15648499 -0.021165784 0.29295692 0.09061045
-0.25021315 -0.011896199 0.2848965 0.28594494 -0.041684944 -0.08486123 0.22335035 -0.31477755
-0.033944637 0.024469879 0.057280146 0.028151328 0.029204862 -0.025201285 0.059284993 0.06561004
0.08305288 0.14522673 0.110409096 -0.14123791 0.090795964 0.053948514 -0.08211788 0.12911585
0.4300621 0.20167075 -0.008398064 0.010982615 0.0915889 0.13764171 0.36420554 0.14641209
0.08707203 0.086760625 -0.25716248 0.073976256 0.11828383 0.21719952 -0.1544624 0.106977746
-0.15621175 -0.18955056 0.10069984 0.112893485 0.04911053 0.027164027 -0.056662768 0.14345346
-0.21469769 0.08989956 0.07983294 -0.0180802 0.14857243 -0.09388261 0.12060302 0.0072481525
0.08273441 0.0021574001 -0.10654847 0.067850426 -0.0018171831 0.16848588 -0.14549923 -0.1633888
0.06251681 -0.120190054 0.15924235 -0.120076105 0.1337287 -0.1067637 -0.23903793 -0.018958295
0.021441331 -0.0024897093 -0.07631437 -0.17889541 0.18984479 -0.05139889 0.04221941 0.02483357
-0.051570486 -0.17721611 0.22231074 -0.073654845 -0.030273195 0.06575602 -0.108549185 0.19425707
0.012083021 -0.0027907717 0.06983867 0.010571246 0.057277348 0.16044435 -0.05545907 -0.1682123
0.096052684 0.050197028 -0.06222934 -0.1663515 -0.02944172 -0.25193116 -0.18857491 0.38004375
-0.12440283 -0.59979886 -0.3783563 0.1749305 0.019164179 -0.2548259 0.11304271 -0.30528706
0.015179063 -0.05270009 -0.04341139 -0.21337155 0.16225943 0.21983401 -0.07193184 -0.16762139
-0.19023113 -0.24147321 0.26735172 0.18179882 -0.045569155 -0.027709533 0.10194812 -0.0951451
00000000: 9f5b 26be ca84 38bd ac0c 69be 7165 d43d
00000010: 261b d0bd 6bc4 0abe 7fe2 d13d 0be4 eb3d
00000020: 32e5 053d bc0e bdbc 319b 05be 1b68 43be
00000030: 0655 8a39 33d3 15be 1f67 d43d db85 86be
00000040: 6b8e f7bd 543b 06be d8a4 39be 857f 593e
00000050: 48ff 1b3e 4f23 b1be fdf7 8f3d 4f4d 3f3c
00000060: 480e 9ebc 9398 623e bebe 2b3d d1d0 fd3d
00000070: cb7e 5b3e 3992 66be 4618 1fbe a9cf e63b
00000080: 055c c63c 423f 953e 3350 9fbc 2ab9 0abe
00000090: 3978 403e 00e6 5bbe cad0 a93d de15 cfbc
000000a0: ae44 a63d a5fe 923e e2a9 af3c 7f65 ce3d
000000b0: dda6 c2bb 3a3e 4b3d c7cd d63c 20c2 bbbd
000000c0: 8946 1dbe 9cd3 24be b15e 65be a00d f43d
000000d0: 2700 683d 558a 96bd 99a4 313e 619f 62bd
000000e0: 21c9 bebe 3c1d dabe ef52 37be 702f 83bd
000000f0: c151 b3bd 0b63 383d b6fe 2bbe 53bd 713d
00000100: be61 0abe 1cb0 343c b003 a2bd 6cb0 57bc
00000110: 0dd7 c4bc 3225 3d3e ca1c 40be a58c 62be
00000120: d803 0b3e 6838 87be 32cf febd 5062 323e
00000130: 18b7 81bd 8f32 9ebe 815c 62bd 5940 8abd
00000140: 1f6e c3bd 79ad 0abd e52d b33d cd17 a6bd
00000150: 32f3 da3d 02a8 873d 8dc9 653d b316 ebbd
00000160: 89cd 0bbe 674f 7e3c f1d9 0bbe a3dd cf3c
00000170: 862c 8c3d 7ba4 aebe b53b 48bd d9c5 6cbe
00000180: 79b4 ad3d 28b7 7b3e 199f 873c 0953 37bd
00000190: 5a68 503d 6bb8 f83d d77c 03be bef2 ff3c
000001a0: 4abf 953e 89fd 3ebd d80a 24be d25f a1bd
000001b0: bb65 743d d62f 01be 2da4 c4bb fee3 bebd
000001c0: e18e 6ebd 1502 3dbc bcd6 063c 0c30 043d
000001d0: dab9 e13e 79c4 243d 8a02 44bd 8aaf 22be
000001e0: 51f0 1b3d 5aa1 af3d 8e22 163e 554b ff3c
000001f0: 9a3d 203e de63 adbc 73fe 953e f991 b93d
00000200: f01b 80be 46e8 42bc f4dd 913e 6067 923e
00000210: d5bd 2abd b9cb adbd f4b5 643e 862a a1be
00000220: 8809 0bbd 0e75 c83c 969e 6a3d 9d9d e63c
00000230: 093f ef3c ed72 cebc d2d4 723d 8f5e 863d
00000240: a117 aa3d 51b6 143e 2a1e e23d aca0 10be
00000250: 3cf3 b93d 1ef9 5c3d 6b2d a8bd f236 043e
00000260: 1931 dc3e c782 4e3e 0998 09bc 6df0 333c
00000270: f692 bb3d f3f1 0c3e 2679 ba3e 0ded 153e
00000280: d252 b23d 8eaf b13d cdaa 83be dd80 973d
00000290: cb3e f23d 8d69 5e3e 642b 1ebe 2617 db3d
000002a0: f9f5 1fbe 8b19 42be b83b ce3d b334 e73d
000002b0: 2028 493d 1887 de3c 3817 68bd 77e5 123e
000002c0: b6d9 5bbe 431d b83d 747f a33d ed1c 94bc
000002d0: 5f23 183e 8745 c0bd b7fe f63d e981 ed3b
000002e0: a970 a93d 2b63 0d3b 1636 dabd 2af5 8a3d
000002f0: 8c2e eeba 9087 2c3e c0fd 14be 654f 27be
00000300: d008 803d 3426 f6bd 6d10 233e 76ea f5bd
00000310: 2df0 083e eda6 dabd 5cc6 74be 6d4e 9bbc
00000320: bba5 af3c 642a 23bb b54a 9cbd 5c30 37be
00000330: ac66 423e a487 52bd 43ee 2c3d c56f cb3c
00000340: 933b 53bd 2478 35be 6da5 633e 5ad8 96bd
00000350: 7eff f7bc 18ab 863d 094f debd 53eb 463e
00000360: ddf7 453c 61e5 36bb 9407 8f3d 0533 2d3c
00000370: a79b 6a3d 864b 243e 0d29 63bd d83f 2cbe
00000380: 45b7 c43d 669b 4d3d 31e4 7ebd 0c58 2abe
00000390: c32f f1bc 1ffd 80be c819 41be 1895 c23e
000003a0: e9c6 febd 6b8c 19bf ebb7 c1be fb20 333e
000003b0: 32fe 9c3c 8a78 82be f082 e73d 964e 9cbe
000003c0: 9bb1 783c 0ddc 57bd 24d0 31bd 127e 5abe
000003d0: 5627 263e 2b1c 613e 0051 93bd f1a4 2bbe
000003e0: f3cb 42be c144 77be 53e2 883e 7829 3a3e
000003f0: b9a6 3abd 1aff e2bc 2dca d03d 6fdb c2bd

module.net_ts.layer1.0.bn2.weight f4 [32]
0.82969075 0.5611332 0.7982841 0.6136898 0.7661961 0.78621936 0.6378058 0.5687608
0.6785108 0.80600065 0.65435857 0.5571456 0.73381233 0.65133184 0.69788253 0.66993046
0.65444225 0.82038176 0.55785 0.8116165 0.92050743 0.7403973 0.7505551 0.7601371
0.783824 0.6839672 0.68092793 0.67707527 0.68610585 0.7361703 0.72633725 0.87895817
00000000: 9d66 543f 6da6 0f3f 595c 4c3f c61a 1d3f
00000010: 6d25 443f ac45 493f 3e47 233f 4f9a 113f
00000020: e2b2 2d3f 0f56 4e3f 0b84 273f 18a1 0e3f
00000030: 20db 3b3f afbd 263f 6ea8 323f 9080 2b3f
00000040: 8789 273f 8a04 523f 42cf 0e3f 19c6 4f3f
00000050: 60a6 6b3f ad8a 3d3f 6124 403f 5898 423f
00000060: b1a8 483f 7918 2f3f 4b51 2e3f ce54 2d3f
00000070: a2a4 2f3f a875 3c3f 3df1 393f 6703 613f

module.net_ts.layer1.0.bn2.bias f4 [32]
-0.25484186 -0.3030147 -0.13874885 -0.10253457 -0.112863526 -0.1953716 -0.054027747 -0.2000174
-0.036804117 -0.13045503 -0.0031270634 -0.22787254 -0.034266505 -0.28592607 -0.08865056 -0.1335504
-0.10349331 -0.022752121 -0.114285 -0.072731994 -0.15185829 0.027940094 -0.20625123 -0.11189985
-0.06401975 -0.036417145 0.033844836 -0.08052592 -0.015249416 -0.26521608 -0.075065985 -0.14534348
00000000: a27a 82be be24 9bbe 2e14 0ebe a5fd d1bd
00000010: fe24 e7bd 7e0f 48be 334c 5dbd 5cd1 4cbe
00000020: eabf 16bd 0196 05be 6bef 4cbb 6b57 69be
00000030: 095b 0cbd e764 92be 6d8e b5bd 70c1 08be
00000040: 4df4 d3bd a862 babc 410e eabd 83f4 94bd
00000050: bd80 1bbe a0e2 e43c 8633 53be c02b e5bd
00000060: c91c 83bd 252a 15bd e2a0 0a3d c6ea a4bd
00000070: b0d8 79bc 67ca 87be 32bc 99bd ecd4 14be

module.net_ts.layer1.0.bn2.running_mean f4 [32]
-0.8111028 0.79929477 -0.5191422 0.021113556 -0.88616097 -0.4097027 -0.41656646 0.069118164
0.2502531 -0.6351791 -0.19117188 0.89758605 -0.73703533 -0.28079432 -0.0854785 0.34455863
-0.11957848 -0.0045500416 -0.48578143 -0.8540124 -0.53805244 -0.35259977 -0.73602676 0.17707856
0.04604315 0.51723915 -0.29624504 0.46008328 -0.010058971 -0.052953616 -0.07247898 -0.22915183
00000000: 6fa4 4fbf 959e 4c3f 81e6 04bf 56f6 ac3c
00000010: 72db 62bf 8dc4 d1be 3348 d5be d38d 8d3d
00000020: 2d21 803e 199b 22bf 90c2 43be 33c8 653f
00000030: 59ae 3cbf 46c4 8fbe 5a0f afbd fd69 b03e
00000040: 90e5 f4bd 8418 95bb 58b8 f8be 8fa0 5abf
00000050: cebd 09bf f587 b4be 406c 3cbf 1554 353e
00000060: be97 3c3d c969 043f 6ead 97be 0990 eb3e
00000070: 62ce 24bc e4e5 58bd dc6f 94bd c7a6 6abe

module.net_ts.layer1.0.bn2.running_var f4 [32]
0.49241066 0.5228364 0.4431691 0.3635922 0.42268178 0.5758521 0.38224033 0.36205983
0.36215666 0.50983644 0.45290673 0.42697915 0.40283072 0.34432852 0.46118495 0.4415319
0.5016896 0.53911424 0.4077784 0.46784285 0.70202845 0.37222797 0.5984468 0.41500813
0.41308525 0.23673543 0.37997213 0.33522335 0.3888835 0.37668172 0.37049964 0.5518517
00000000: 401d fc3e 9bd8 053f 0fe7 e23e c228 ba3e
00000010: bf69 d83e 0b6b 133f 01b5 c33e e85f b93e
00000020: 996c b93e a484 023f 64e3 e73e 039d da3e
00000030: d43f ce3e d44b b03e 6f20 ec3e 7810 e23e
00000040: bb6e 003f 6403 0a3f 55c8 d03e 1989 ef3e
00000050: 23b8 333f aa94 be3e cf33 193f f27b d43e
00000060: e97f d33e c66a 723e b58b c23e 65a2 ab3e
00000070: bd1b c73e 6ddc c03e 21b2 bd3e 2746 0d3f

module.net_ts.layer2.0.conv1.weight f4 [32, 32, 3]
0.027292075 -0.1635106 0.25436896 0.27786696 -0.11107458 -0.015860217 -0.12870629 0.06896987
0.07324014 -0.14911082 -0.047058854 -0.102703474 -0.14550301 -0.0987486 -0.021013407 -0.18602741
-0.08188202 0.106775776 0.25509483 -0.096555434 0.0595802 -0.28230125 0.13008256 0.12922134
0.2579732 0.30540404 -0.15140936 0.07766908 0.16414572 0.17791392 0.11959917 0.011733006
-0.21438068 -0.039068546 -0.05198472 0.32542944 -0.00403935 -0.31871998 0.19280647 -0.11254973
-0.079804875 0.013962499 0.11111028 0.05088049 -0.119790815 0.16981538 0.017062828 -0.11172437
-0.17624317 0.06356317 -0.25113702 0.20870855 0.02495663 -0.1561289 -0.033392344 -0.035844136
-0.2823332 0.06599738 0.09556394 0.16934462 -0.079444215 0.25280672 -0.15710112 0.039717507
0.13413756 -0.09922112 -0.107053064 -0.024656191 -0.044940297 0.008385493 0.11909468 -0.040800758
-0.031580035 -0.0923076 0.124432735 -0.15209697 -0.16192625 0.16368307 0.12737133 0.009401819
-0.10768091 -0.16552429 -0.10309513 -0.0044232537 0.11480646 -0.012759395 -0.16090965 0.13686039
0.1983356 -0.32427913 -0.09981117 0.06367871 0.065779254 -0.13361801 -0.013713669 -0.18175882
-0.048137568 -0.019220846 -0.009983123 -0.011662998 0.12322804 -0.10865788 0.18758313 0.07061814
-0.26559228 -0.04003575 -0.10433933 -0.05725471 0.15459658 0.06458941 0.06700181 0.006140648
-0.06078518 0.04478693 0.03722655 -0.16962236 -0.09281089 -0.013488776 0.17465103 0.0078897355
0.054068077 0.058228962 0.032855563 -0.0830401 -0.07034103 0.0031581174 0.21523906 -0.026771132
-0.15719968 -0.18799008 -0.016280666 -0.04669395 -0.005219468 -0.06789203 0.036895104 0.26100165
-0.04643447 -0.2527046 0.065588504 -0.03563727 0.017564053 -0.087518945 0.13269411 0.013896142
0.08974087 0.11507081 0.13077585 0.07698476 -0.13941532 0.12080103 -0.036302976 -0.029986741
-0.13366763 -0.04915859 -0.13974054 0.12195546 0.0219517 -0.033204682 -0.0041154097 0.006755635
0.07087142 -0.30150914 0.22249562 0.15961985 -0.13018854 0.015576778 0.1604991 -0.17289823
-0.0749999 -0.25808927 0.08198655 0.037278593 -0.15384243 -0.06034389 0.08972865 -0.043890305
-0.4451131 -0.0850276 0.02699326 0.0972559 -0.038864527 0.14091024 -0.21891475 -0.031925682
0.048235644 -0.21207428 0.06317927 -0.038413476 -0.11533155 0.17067331 -0.0014502973 0.06400535
-0.21189542 0.112533696 0.13624355 0.252183 0.17930497 -0.34997284 -0.011971194 -0.062313378
-0.007987264 -0.08267863 -0.18633145 -0.07472941 0.2526222 -0.044948105 0.011374719 0.10670816
0.07478093 0.156017 -0.05189571 0.0090812 0.23052856 -0.034915406 -0.17908849 -0.027867163
-0.18085647 -0.11754977 0.14981876 -0.15806441 0.026446478 0.02511625 -0.06398378 -0.18686025
-0.04658007 0.0056935665 -0.11314696 -0.17307831 0.17239179 0.05929189 0.1008668 0.121537484
0.102193534 0.029543754 -0.1612875 0.05703249 -0.34591073 -0.040550113 0.10407345 -0.16499372
-0.011811664 0.17438804 0.10927895 -0.08829897 0.07323858 -0.31547338 0.42849064 -0.09673941
0.09004744 -0.23682229 -0.26717883 0.11718815 0.16889884 -0.05067914 0.057454012 0.02399413
00000000: a193 df3c 536f 27be a63c 823e 9444 8e3e
00000010: 127b e3bd 49ed 81bc 95cb 03be 1340 8d3d
00000020: edfe 953d 82b0 18be c9c0 40bd 3356 d2bd
00000030: befe 14be b53c cabd 4f24 acbc f87d 3ebe
00000040: c3b1 a7bd 42ad da3d ca9b 823e dbbe c5bd
00000050: 5e0a 743d ca89 90be 5d34 053e 9952 043e
00000060: 1015 843e eb5d 9c3e 0e0b 1bbe f710 9f3d
00000070: d115 283e 112f 363e 69f0 f43d cb3b 403c
00000080: 9c86 5bbe 5706 20bd eeed 54bd b09e a63e
00000090: 865c 84bb 442f a3be 0f6f 453e 7980 e6bd
000000a0: bd70 a3bd f7c2 643c c98d e33d 1068 503d
000000b0: e354 f5bd 15e4 2d3e 58c7 8b3c bfcf e4bd
000000c0: 1779 34be 682d 823d 0895 80be b2b7 553e
000000d0: d971 cc3c 41e0 1fbe 69c6 08bd 4dd1 12bd
000000e0: fa8d 90be a229 873d 07b7 c33d ad68 2d3e
000000f0: a6b3 a2bd e26f 813e 1edf 20be d3ae 223d
00000100: 5b5b 093e 7134 cbbd a33e dbbd c8fb c9bc
00000110: 5113 38bd 4f63 093c e9e7 f33d b21e 27bd
00000120: 115a 01bd c40b bdbd 97d6 fe3d 4fbf 1bbe
00000130: ffcf 25be 899c 273e a16d 023e 160a 1a3c
00000140: cf87 dcbd 337f 29be 8a23 d3bd f1f0 90bb
00000150: a61f eb3d c80c 51bc 80c5 24be 2125 0c3e
00000160: 7d18 4b3e ea07 a6be cc69 ccbd fc69 823d
00000170: 46b7 863d 29d3 08be 4caf 60bc fc1e 3abe
00000180: e62b 45bd 0975 9dbc 4190 23bc 2916 3fbc
00000190: fc5e fc3d 0688 debd cb15 403e 3ea0 903d
000001a0: b6fb 87be 87fc 23bd dcaf d5bd ea83 6abd
000001b0: 914e 1e3e 7447 843d 3f38 893d 7d37 c93b
000001c0: e2f9 78bd 8072 373d de7a 183d 7cb1 2dbe
000001d0: a313 bebd 0700 5dbc b8d7 323e f343 013c
000001e0: 7d76 5d3d 7e81 6e3d 8e93 063d ee10 aabd
000001f0: f50e 90bd 6bf8 4e3b a167 5c3e 224f dbbc
00000200: f4f8 20be 7980 40be 085f 85bc 2842 3fbd
00000210: 1208 abbb fa0a 8bbd 521f 173d 02a2 853e
00000220: 1232 3ebd 7f62 81be 4453 863d 63f8 11bd
00000230: 7de2 8f3c 223d b3bd f7e0 073e a5ac 633c
00000240: 10ca b73d 3faa eb3d 1bea 053e 30aa 9d3d
00000250: e4c2 0ebe 8866 f73d 6eb2 14bd c1a6 f5bc
00000260: 2be0 08be 855a 49bd 2518 0fbe c9c3 f93d
00000270: 0dd4 b33c a201 08bd 8fda 86bb 605e dd3b
00000280: 0925 913d 685f 9abe e4d5 633e 6373 233e
00000290: 2550 05be be35 7f3c e059 243e 3c0c 31be
000002a0: 8c99 99bd 4724 84be 90e8 a73d 70b1 183d
000002b0: df88 1dbe 282b 77bd a8c3 b73d 52c6 33bd
000002c0: dde5 e3be f322 aebd f820 dd3c 1a2e c73d
000002d0: 6930 1fbd c64a 103e 302b 60be 81c4 02bd
000002e0: bd92 453d 002a 59be 2264 813d 7357 1dbd
000002f0: f332 ecbd fcc4 2e3e e717 beba 3d15 833d
00000300: 1dfb 58be 1178 e63d 6e83 0b3e 211e 813e
00000310: b99b 373e a42f b3be d422 44bc 503c 7fbd
00000320: 03dd 02bc 6a53 a9bd accd 3ebe bc0b 99bd
00000330: b257 813e 811b 38bd 085d 3a3c cf89 da3d
00000340: bf26 993d ecc2 1f3e 9990 54bd 50c9 143c
00000350: ae0f 6c3e 7503 0fbd f962 37be ad49 e4bc
00000360: 7032 39be efbd f0bd 176a 193e a3db 21be
00000370: 49a6 d83c 98c0 cd3c ee09 83bd 4b58 3fbe
00000380: beca 3ebd 1991 ba3b 98b9 e7bd 713b 31be
00000390: 7987 303e 0edc 723d 4193 ce3d a5e8 f83d
000003a0: d84a d13d be05 f23c 8d28 25be e69a 693d
000003b0: 361b b1be e017 26bd 7624 d53d 1df4 28be
000003c0: b685 41bc c792 323e a4cd df3d 17d6 b4bd
000003d0: 1cfe 953d ba85 a1be 2063 db3e 501f c6bd
000003e0: cb6a b83d 8b81 72be aacb 88be 5700 f03d
000003f0: d1f3 2c3e ee94 4fbd e654 6b3d 568f c43c

module.net_ts.layer2.0.bn1.weight f4 [32]
0.74281794 0.62166643 0.6958179 0.78056216 0.509209 0.75249314 0.8429084 0.71916527
0.59618986 0.7258409 0.6069633 0.73316073 0.7305621 0.77058756 0.67155063 0.7062357
0.56666833 0.66999876 0.7413162 0.68799126 0.7909699 0.67279005 0.603008 0.6822313
0.6443248 0.7078464 0.5819434 0.6391777 0.6506779 0.69301707 0.66976947 0.64031494
00000000: 5129 3e3f 8825 1f3f 1f21 323f ecd2 473f
00000010: 855b 023f 64a3 403f d8c8 573f 371b 383f
00000020: e69f 183f b6d0 393f f261 1b3f 6cb0 3b3f
00000030: 1e06 3b3f 3a45 453f beea 2b3f ddcb 343f
00000040: 2d11 113f 0a85 2b3f e6c6 3d3f 3220 303f
00000050: 017d 4a3f f83b 2c3f bb5e 1a3f b6a6 2e3f
00000060: 78f2 243f 6c35 353f 3efa 143f 26a1 233f
00000070: d492 263f 9169 313f 0376 2b3f aeeb 233f

module.net_ts.layer2.0.bn1.bias f4 [32]
-0.013657323 -0.1774177 0.06988255 -0.03765317 -0.0068140067 -0.081715286 -0.05369486 0.04286033
-0.16893421 0.006418343 0.1121554 -0.09761007 -0.22387835 -0.09836565 -0.086557046 -0.0135226
0.16743624 0.032988194 -0.004697545 0.003633818 -0.117069885 -0.21687186 -0.024818812 0.06966931
-0.057214618 -0.048136033 -0.016645005 -0.16059925 -0.0058586206 0.080003165 -0.1394431 0.051831424
00000000: f7c2 5fbc fcac 35be 951e 8f3d 363a 1abd
00000010: 0848 dfbb 585a a7bd 24ef 5bbd 508e 2f3d
00000020: 17fd 2cbe f750 d23b bbb1 e53d cae7 c7bd
00000030: 5e40 65be ee73 c9bd d244 b1bd e58d 5dbc
00000040: 6874 2b3e a11e 073d dded 99bb 5925 6e3b
00000050: 56c2 efbd a813 5ebe d250 cbbc c8ae 8e3d
00000060: e059 6abd 4a2a 45bd 1b5b 88bc 2174 24be
00000070: acf9 bfbb b3d8 a33d 2cca 0ebe 304d 543d

module.net_ts.layer2.0.bn1.running_mean f4 [32]
-0.41556206 -0.5617322 -0.14211291 -1.9870346 0.53337723 -2.0692465 -2.359875 -0.20818916
0.7168327 -1.0645896 1.0801413 -1.3958256 1.5474899 0.010679795 0.7780732 -1.7080647
-0.3956885 0.66276085 -1.2677809 -0.88609535 0.94704175 0.676589 -0.17118368 -2.048488
-0.13623005 -0.6167636 0.9067693 -0.036494143 0.43843144 -1.2620091 -0.14458862 -0.942547
00000000: 8dc4 d4be aecd 0fbf 0c86 11be 2657 febf
00000010: 698b 083f 896e 04c0 3108 17c0 8a2f 55be
00000020: 5982 373f 7944 88bf 1242 8a3f 6aaa b2bf
00000030: 2614 c63f 4ffa 2e3c ce2f 473f dda1 dabf
00000040: af97 cabe b2aa 293f a546 a2bf 25d7 62bf
00000050: 5471 723f f034 2d3f c64a 2fbe 6d1a 03c0
00000060: e47f 0bbe 38e4 1dbf 0822 683f e27a 15bd
00000070: 167a e03e 8489 a1bf 0a0f 14be c34a 71bf

module.net_ts.layer2.0.bn1.running_var f4 [32]
1.2069851 0.74222714 1.2401824 1.2892759 0.76285136 1.5266547 1.3048114 1.1526927
1.2471437 1.0315506 1.4873699 1.3238289 1.085671 1.0428993 1.0447904 1.155964
1.0880164 1.3385249 1.2623359 1.0112656 1.1760935 0.91898584 1.0546247 1.5445712
1.0455667 0.9607301 0.9751281 1.340872 1.1519343 1.593454 0.8982649 1.229831
00000000: 7d7e 9a3f 9902 3e3f 4cbe 9e3f fe06 a53f
00000010: 3a4a 433f 6c69 c33f 0f04 a73f 6f8b 933f
00000020: 68a2 9f3f da09 843f 2362 be3f 3a73 a93f
00000030: 44f7 8a3f b97d 853f b1bb 853f a1f6 933f
00000040: 1f44 8b3f c954 ab3f 3994 a13f 2771 813f
00000050: 3b8a 963f a842 6b3f f1fd 863f 82b4 c53f
00000060: 21d5 853f 68f2 753f ffa1 793f b2a1 ab3f
00000070: 9572 933f 4df6 cb3f b0f4 653f 1a6b 9d3f

module.net_ts.layer2.0.conv2.weight f4 [32, 32, 3]
-0.0558898 0.030950539 0.09774659 0.02439892 0.18759793 0.081987396 -0.036039524 -0.12036128
-0.09186368 -0.13377887 -0.35533473 -0.038653754 0.14713036 -0.03053549 -0.024256537 0.51361
-0.20209621 -0.17643595 -0.01894732 -0.18569456 0.018730812 -0.13568588 0.09902486 0.060658805
-0.021233069 0.11075764 0.101163335 -0.029886946 -0.06820582 0.074470535 0.058231868 0.056125935
0.2503849 0.003581275 -0.074970245 0.30768052 -0.18033803 0.012287617 -0.046209875 -0.0957469
-0.04823783 -0.15191624 -0.07560435 0.18680136 -0.13702703 0.03518081 0.06928135 0.0685892
0.33279744 -0.10536518 0.107149996 -0.16749354 -0.06496536 0.24645822 0.12500459 -0.014965011
-0.14745942 0.01893307 -0.083481885 -0.16315874 -0.007839896 0.058731556 -0.05598914 0.13502342
-0.10487501 -0.10873745 -0.054585394 -0.016971692 0.19423196 0.061028045 0.07030228 0.047655493
-0.010634328 -0.05351494 0.047918987 -0.04101828 -0.045084517 0.011976084 0.14500582 0.07232013
0.15541758 -0.1996971 0.08822431 0.11161692 -0.049164314 -0.06139432 0.17985341 -0.06463142
0.17320897 -0.07958604 0.03369748 -0.11030324 -0.014895717 0.027891487 0.23149583 0.13760199
-0.15220138 -0.0028823598 0.014176659 -0.012960325 -0.09377132 -0.085468926 -0.08525528 0.01186091
-0.047579587 -0.07275118 -0.10472537 0.17779864 0.050491948 0.053991552 0.1373788 -0.057253998
-0.09376749 0.13991165 -0.1053669 -0.15938064 -0.13733362 0.036121376 -0.047373407 -0.053453065
-0.22532055 0.0042197364 -0.016503563 0.36227134 0.13093668 -0.09559461 -0.013413969 0.036418088
0.09098298 -0.10110942 0.031069098 0.033379074 0.15110281 0.025743026 0.1041837 0.08522331
0.04561505 0.060167335 -0.041636556 -0.026918953 0.0063477703 -0.12719628 -0.20484391 -0.062178954
0.02254647 0.14645222 -0.1470294 -0.07893253 -0.0615902 0.18392545 0.0036717316 0.08356967
0.03373666 -0.07409121 0.051247153 -0.0042194603 0.036547314 -0.086011365 -0.21856914 -0.050636597
-0.044045936 -0.1095412 -0.016966255 0.048033524 -0.07515061 -0.20378748 0.07133265 -0.10858561
-0.04385007 0.053268477 0.020405812 -0.14711039 -0.15015337 0.12292601 0.1528155 0.17109935
-0.013731186 -0.09416064 0.33744344 0.14673093 0.116712414 -0.10318195 -0.0271889 -0.06887256
-0.22235169 -0.049189135 0.053319983 -0.08712388 -0.06798462 -0.013812575 0.15237965 -0.010250433
-0.1503489 -0.026424628 0.14034782 0.0353109 0.09240368 -0.0057538357 -0.005577521 -0.079772204
0.12646598 -0.042856503 -0.011175327 0.12530291 -0.29211923 -0.014118548 -0.05364125 0.22190596
-0.06428787 -0.03896809 -0.1433245 0.18020734 -0.23283023 -0.037198417 -0.026917871 -0.2111319
0.049770415 0.20122075 0.1725048 -0.1029469 0.10959936 0.010575165 0.10432197 -0.06126008
0.1461223 0.12492945 -0.10473007 -0.20352913 -0.09979451 -0.05629968 -0.048366155 -0.15176153
-0.14585693 0.014525961 0.23891169 -0.2857227 -0.003844931 0.07687601 0.12513173 -0.18839037
-0.17736028 -0.17095117 0.18085705 0.090378135 -0.14193302 -0.15588573 -0.022333236 0.1022681
-0.13864109 0.11779077 -0.09896676 -0.2023593 0.26100877 0.037277453 -0.09247787 -0.076403305
00000000: b4ec 64bd fc8b fd3c 5d2f c83d 3ee0 c73c
00000010: ac19 403e 02e9 a73d 2e9e 13bd fa7f f6bd
00000020: 0623 bcbd 54fd 08be 6fee b5be 6653 1ebd
00000030: 57a9 163e 9025 fabc a5b5 c6bc f27b 033f
00000040: 4ff2 4ebe a0ab 34be 6937 9bbc b726 3ebe
00000050: 5c71 993c 3df1 0abe 8ccd ca3d 5e75 783d
00000060: f9f0 adbc e7d4 e23d b92e cf3d 78d5 f4bc
00000070: 7eaf 8bbd 0284 983d 8a84 6e3d 4fe4 653d
00000080: 7332 803e d3b3 6a3b 008a 99bd 4d88 9d3e
00000090: 88aa 38be 0052 493c 9146 3dbd f316 c4bd
000000a0: 0895 45bd ee8f 1bbe 74d6 9abd db48 3f3e
000000b0: d050 0cbe c119 103d 61e3 8d3d 7f78 8c3d
000000c0: 6d64 aa3e b3c9 d7bd 7571 db3d 6d83 2bbe
000000d0: 8f0c 85bd 8b5f 7c3e 3401 003e ce2f 75bc
000000e0: 9aff 16be 8719 9b3c 8df8 aabd 1613 27be
000000f0: e872 00bc 8090 703d de54 65bd 9443 0a3e
00000100: b6c8 d6bd bdb1 debd ef94 5fbd 3808 8bbc
00000110: bee4 463e 8bf8 793d a4fa 8f3d 6832 433d
00000120: 9b3b 2ebc 7b32 5bbd b346 443d c902 28bd
00000130: 8baa 38bd 5637 443c 687c 143e 941c 943d
00000140: c925 1f3e 667d 4cbe f2ae b43d 6997 e43d
00000150: 8560 49bd 9c78 7bbd 7e2b 383e 7a5d 84bd
00000160: b15d 313e 01fe a2bd 5e06 0a3d aae6 e1bd
00000170: 2a0d 74bc b07c e43c 3e0d 6d3e 89e7 0c3e
00000180: aeda 1bbe f9e5 3cbb 3845 683c 8b57 54bc
00000190: 2e0b c0bd 550a afbd 529a aebd 4354 423c
000001a0: d0e2 42bd 92fe 94bd 417a d6bd d910 363e
000001b0: a5d0 4e3d 3f26 5d3d 07ad 0c3e 2b83 6abd
000001c0: 2b09 c0bd 0045 0f3e 9aca d7bd ae34 23be
000001d0: 2fa1 0cbe 02f4 133d 9e0a 42bd 9af1 5abd
000001e0: 6eba 66be b745 8a3b 7b32 87bc a17b b93e
000001f0: 4414 063e 1bc7 c3bd 44c6 5bbc 222b 153d
00000200: 4955 ba3d 7512 cfbd 9f84 fe3c 7fb8 083d
00000210: b2ba 1a3e 0ae3 d23c 445e d53d 8f89 ae3d
00000220: d9d6 3a3d 0672 763d 188b 2abd 2385 dcbc
00000230: f500 d03b be3f 02be 9ac2 51be 5caf 7ebd
00000240: 60b3 b83c 92f7 153e e08e 16be 61a7 a1bd
00000250: 0146 7cbd f456 3c3e 6fa1 703b 9326 ab3d
00000260: 742f 0a3d 22bd 97bd 89e8 513d 6643 8abb
00000270: a3b2 153d ba26 b0bd 97d0 5fbe 5268 4fbd
00000280: 8369 34bd 2357 e0bd d1fc 8abc cdbe 443d
00000290: 90e8 99bd aaad 50be da16 923d 2262 debd
000002a0: 229c 33bd 0c30 5a3d 172a a73c 1ba4 16be
000002b0: cec1 19be a2c0 fb3d ab7b 1c3e ab34 2f3e
000002c0: c5f8 60bc 4bd7 c0bd 63c5 ac3e a240 163e
000002d0: eb06 ef3d 0f51 d3bd 42bb debc 0f0d 8dbd
000002e0: 29b0 63be 8c7a 49bd 0e66 5a3d 016e b2bd
000002f0: 853b 8bbd 234e 62bc 6909 1c3e 6ff1 27bc
00000300: 10f5 19be 7678 d8bc 57b7 0f3e 2aa2 103d
00000310: 243e bd3d ac8a bcbb a3c3 b6bb 9c5f a3bd
00000320: 4c80 013e 4d8a 2fbd b818 37bc 684f 003e
00000330: a790 95be 7b51 67bc edb6 5bbd 513b 633e
00000340: 5ca9 83bd 019d 1fbd a8c3 12be 4688 383e
00000350: 0c6b 6ebe 5e5d 18bd de82 dcbc f632 58be
00000360: 10dc 4b3d d00c 4e3e 19a5 303e d3d5 d2bd
00000370: a175 e03d 7543 2d3c c2a6 d53d daeb 7abd
00000380: 16a1 153e 03db ff3d b87c d6bd f169 50be
00000390: 1061 ccbd 7e9a 66bd 971b 46bd 6067 1bbe
000003a0: 855b 15be 4cfe 6d3c 44a5 743e 3f4a 92be
000003b0: 3dfb 7bbb 2b71 9d3d 8822 003e 68e9 40be
000003c0: ef9d 35be d30d 2fbe 9732 393e 2c18 b93d
000003d0: e456 11be 82a0 1fbe 31f4 b6bc f071 d13d
000003e0: eef7 0dbe 4a3c f13d 16af cabd 4737 4fbe
000003f0: f1a2 853e 3eb0 183d 0a65 bdbd 5679 9cbd

module.net_ts.layer2.0.bn2.weight f4 [32]
0.7252473 0.69785446 0.7117385 0.7245469 0.7252676 0.90607554 0.7601433 0.72039807
0.7605579 0.81940144 0.6659436 0.80715775 0.68965054 0.92789143 0.7468304 0.7422802
0.74575144 0.73875344 0.7440359 0.93609536 0.7014038 0.6385931 0.75389814 0.82176095
0.86324763 0.6450202 0.7301017 0.6447768 0.8944162 0.67052454 0.76143366 0.7568829
00000000: cfa9 393f 97a6 323f 7f34 363f e87b 393f
00000010: 23ab 393f 91f4 673f c098 423f 026c 383f
00000020: ecb3 423f 4bc4 513f 487b 2a3f e4a1 4e3f
00000030: f08c 303f 4b8a 6d3f 4730 3f3f 1306 3e3f
00000040: 91e9 3e3f f21e 3d3f 2379 3e3f f2a3 6f3f
00000050: 338f 333f d67a 233f 78ff 403f ed5e 523f
00000060: ccfd 5c3f 0b20 253f f2e7 3a3f 1810 253f
00000070: 76f8 643f 7fa7 2b3f 51ed 423f 14c3 413f

module.net_ts.layer2.0.bn2.bias f4 [32]
0.04921338 -0.059530802 0.011301004 -0.00031793673 0.11872858 0.1375981 -0.014056054 -0.17998445
-0.28257027 0.2549901 -0.0874024 -0.11262497 0.005611457 0.18639028 0.09803045 0.01505485
0.16058698 -0.004451589 -0.068477 -0.031232938 -0.16242902 -0.062256485 0.18143457 0.08263999
0.095045306 0.04104338 -0.060631976 -0.05878797 0.1347669 -0.19292161 0.049593035 -0.0972321
00000000: f893 493d 92d6 73bd d927 393c bfb0 a6b9
00000010: f827 f33d 84e6 0c3e 5d4b 66bc d84d 38be
00000020: 0dad 90be 108e 823e 0800 b3bd eca7 e6bd
00000030: 50e0 b73b 18dd 3e3e 30c4 c83d 9ea8 763c
00000040: ea70 243e a3de 91bb ab3d 8cbd 38dc ffbc
00000050: cb53 26be a800 7fbd fcc9 393e 283f a93d
00000060: 1da7 c23d 1a1d 283d 3c59 78bd a8cb 70bd
00000070: 5600 0a3e 3e8d 45be 1122 4b3d a021 c7bd

module.net_ts.layer2.0.bn2.running_mean f4 [32]
0.23484783 -0.24750948 0.04002812 -0.13873583 -0.007124756 -0.8871604 -0.7541169 -0.82318664
0.058397368 0.2567843 0.07476853 -0.27359396 0.47056878 -0.11187807 -0.090553395 -0.12694654
-0.8967083 0.38499182 -0.2651336 -0.7616596 -0.2096313 -0.4280727 0.32707557 -0.13540006
0.34518436 0.12178639 0.4964737 0.29406986 -0.48437157 0.7333424 -0.4797235 0.4171389
00000000: f37b 703e 2073 7dbe 87f4 233d c410 0ebe
00000010: c976 e9bb f21c 63bf ce0d 41bf 5cbc 52bf
00000020: 1432 6f3d 3b79 833e 3e20 993d 8214 8cbe
00000030: 64ee f03e 5420 e5bd 0f74 b9bd 46fe 01be
00000040: ad8e 65bf a61d c53e 97bf 87be 20fc 42bf
00000050: 96a9 56be 582c dbbe 7376 a73e 50a6 0abe
00000060: 01bc b03e 256b f93d cd31 fe3e 5390 963e
00000070: 8dff f7be 54bc 3b3f 529e f5be 3b93 d53e

module.net_ts.layer2.0.bn2.running_var f4 [32]
0.30758572 0.20112209 0.27401972 0.39381194 0.24148214 0.55419147 0.37220398 0.29235002
0.41148093 0.79465044 0.31337944 0.5237981 0.5323562 0.30586275 0.46996132 0.6958262
0.5907979 0.28383484 0.376489 0.44954664 0.57000685 0.50352097 0.26360354 0.24932086
0.19870175 0.4752269 0.22661725 0.37284407 0.22212893 0.3202926 0.3123095 0.343688
00000000: e07b 9d3e f3f2 4d3e 504c 8c3e b8a1 c93e
00000010: 1847 773e 7edf 0d3f 8591 be3e e7ae 953e
00000020: a1ad d23e 366e 4b3f 4573 a03e a217 063f
00000030: 7f48 083f 0b9a 9c3e c59e f03e aa21 323f
00000040: 883e 173f cd52 913e 2bc3 c03e fa2a e63e
00000050: f8eb 113f c0e6 003f 0bf7 863e f84d 7f3e
00000060: 7978 4b3e f150 f33e 5a0e 683e 6be5 be3e
00000070: c475 633e 64fd a33e 08e7 9f3e e0f7 af3e

module.net_ts.layer2.0.ca.fc1.weight f4 [2, 32, 1]
-0.11453801 0.21955396 0.23299119 0.0735194 -0.91898817 -0.55036277 0.28833863 -0.5276855
0.22364432 -0.3849841 -0.84419554 0.6682296 -0.2027735 0.022903472 -1.9237691 -0.67947036
0.914723 -0.5207248 0.17620453 0.84719306 -0.0712712 0.66571975 0.14576724 0.24236076
-0.13084337 -1.0835608 -0.43317246 0.33631155 0.17493731 0.2530687 0.7753193 -0.9651701
-0.28509206 -0.120675005 -0.4358634 -0.8982772 -0.08163004 -0.9550852 0.87393755 0.46567622
0.6521738 -1.0738561 0.4347362 -0.89611804 -0.8488785 0.41347936 0.9737826 1.547035
1.0990804 -0.7259755 0.638546 0.8032041 -1.0468407 1.1459461 0.3120877 0.24707668
-0.07630468 -0.95022523 -0.045511667 -0.65580565 0.25185603 0.3222461 -0.51671386 0.71148837
00000000: e792 eabd c1d2 603e 3e95 6e3e 5791 963d
00000010: cf42 6bbf 93e4 0cbf 1fa1 933e 6616 07bf
00000020: 0403 653e a31c c5be 331d 58bf 1811 2b3f
00000030: dba3 4fbe 10a0 bb3c 113e f6bf c5f1 2dbf
00000040: 492b 6a3f 384e 05bf f66e 343e a5e1 583f
00000050: a3f6 91bd 9c6c 2a3f 0244 153e 6b2d 783e
00000060: cefb 05be 1fb2 8abf c8c8 ddbe 0731 ac3e
00000070: c422 333e 3892 813e 537b 463f 6315 77bf
00000080: 96f7 91be 7524 f7bd 7d29 dfbe 7ff5 65bf
00000090: a72d a7bd 7780 74bf 5fba 5f3f 1d6d ee3e
000000a0: ddf4 263f 1e74 89bf be95 de3e fe67 65bf
000000b0: 1a50 59bf 91b3 d33e d149 793f 3e05 c63f
000000c0: abae 8c3f 88d9 39bf c077 233f c99e 4d3f
000000d0: e0fe 85bf 5dae 923f f6c9 9f3e ab01 7d3e
000000e0: a145 9cbd f641 73bf 716a 3abd e1e2 27bf
000000f0: 46f3 803e 71fd a43e 5c47 04bf 1a24 363f

module.net_ts.layer2.0.ca.fc2.weight f4 [32, 2, 1]
-0.11194226 0.16823344 0.05153137 -0.307571 -0.015394533 0.15750708 -0.069661774 -0.171944
-0.25388554 -0.1672048 0.10174269 0.29174098 0.07004849 -0.27268088 0.18520868 0.07882932
-0.20792307 -0.27912614 -0.29898676 0.23432966 0.02912032 0.12684721 -0.06385592 -0.094862446
-0.22587335 -0.1534939 -0.13794942 -0.19301444 0.35256824 0.18116786 -0.2597168 -0.15594962
0.183549 0.17836744 -0.10483826 -0.22190431 -0.29760727 0.03883136 0.10684719 -0.29743138
0.07663095 -0.21795829 0.0055535105 0.24692166 -0.121932425 -0.16822001 -0.014096855 -0.31780294
0.21320552 -0.19004694 0.23745354 -0.49269894 0.027275536 -0.15112379 -0.14103791 -0.029697783
-0.10693509 -0.23795488 0.042429335 0.32835627 0.028459055 -0.1815283 -0.09533654 -0.2480884
00000000: fc41 e5bd 6345 2c3e 8f12 533d f279 9dbe
00000010: 5a39 7cbc 8949 213e d5aa 8ebd 1712 30be
00000020: 49fd 81be bc37 2bbe 795e d03d 135f 953e
00000030: 9575 8f3d d49c 8bbe 58a7 3d3e 4471 a13d
00000040: c9e9 54be 9fe9 8ebe cb14 99be 1df4 6f3e
00000050: bd8d ee3c 3ce4 013e e5c6 82bd 3e47 c2bd
00000060: 584b 67be 812d 1dbe 9d42 0dbe 94a5 45be
00000070: d383 b43e 1184 393e 9af9 84be 42b1 1fbe
00000080: 45f4 3b3e f4a5 363e 71b5 d6bd e23a 63be
00000090: fb5f 98be a20d 1f3d b3d2 da3d ed48 98be
000000a0: b0f0 9c3d 7530 5fbe 39fa b53b 08d9 7c3e
000000b0: b5b7 f9bd de41 2cbe 7ff6 66bc 11b7 a2be
000000c0: 8c52 5a3e aa9b 42be 0527 733e 0943 fcbe
000000d0: f270 df3c 32c0 1abe 3e6c 10be c448 f3bc
000000e0: c900 dbbd 72aa 73be 62ca 2d3d 501e a83e
000000f0: f722 e93c 8ee2 39be ce3f c3bd e30a 7ebe

module.net_ts.layer2.0.sa.conv1.weight f4 [1, 2, 7]
-0.3721911 -0.21047528 0.14523946 -0.5756914 -0.4439076 0.22898367 -0.19965945 -0.105801634
0.35927567 0.58188903 -0.10214838 0.56024116 0.50146115 -0.030864144
00000000: d58f bebe d586 57be a7b9 143e 8360 13bf
00000010: db47 e3be b27a 6a3e 8773 4cbe 87ae d8bd
00000020: fbf2 b73e aef6 143f 2b33 d1bd f76b 0f3f
00000030: c25f 003f cdd6 fcbc
