model/model_20201020112412/model_final_bcp_3_0300_sm.pth (torch_old, 973933 bytes, 68 tensors)

module.net_sm.conv1.weight f4 [32, 1, 7, 7, 7]
0	0xbc9896bd	-0.018626565
1	0xbd6b9d09	-0.057522807
2	0xbd0b418e	-0.033998065
3	0x3d007cfb	0.03136919
4	0x3d9008dd	0.070329405
5	0x3c96475e	0.018344577
6	0x3c0501ad	0.008118075
7	0xbd4b2d35	-0.04960366
8	0xbd11ff11	-0.03564364
9	0x3bebaf3d	0.007192521
10	0x3c7dbabd	0.015486416
11	0x3b89d22d	0.004205963
12	0x3d033c1e	0.032039754
13	0x3c802fb9	0.015647756
14	0xbcf77043	-0.030204898
15	0xbc967f8c	-0.018371366
16	0xbd371f6d	-0.044707704
17	0xbd1f63cc	-0.038913533
18	0xbd78dd98	-0.060758203
19	0xbd0782c3	-0.03308369
20	0x3d131ef2	0.035918184
21	0x3c55024d	0.013001037
22	0xbd143f83	-0.036193382
23	0xbd2e29d6	-0.042520367
24	0xbd4533fb	-0.048145276
25	0xbd9f8922	-0.07789828
26	0xbcfd4762	-0.030917827
27	0x3c8e52b0	0.017373413
28	0x3cd1064c	0.025515698
29	0xbce1bd28	-0.027556017
30	0xbb0ed76d	-0.0021795884
31	0xbc23402d	-0.009964031
32	0xbd671bf7	-0.056423154
33	0xbda8002a	-0.08203156
34	0x3c1392a6	0.009007132
35	0xbcc8f87a	-0.024532545
36	0x3cb0c648	0.021578923
37	0x3c1ad4c1	0.009450139
38	0x3c87bf64	0.016570754
39	0xbdd201ef	-0.10254275
40	0xbda335da	-0.07969256
41	0x3d508634	0.050909236
42	0xbcafed29	-0.021475391
43	0xbdb06578	-0.08613104
44	0xbd3efc34	-0.04662724
45	0x3b4d4eb8	0.0031327438
46	0xbbbff653	-0.0058582216
47	0xbd357052	-0.04429657
48	0x3c8d4e11	0.017249139
49	0x3cdd7ada	0.02703612
50	0x3cbd013c	0.023071878
51	0x3d0febff	0.035137173
52	0x3db0d730	0.08634794
53	0x3d94c0fa	0.0726337
54	0x3d0a73f4	0.033801988
55	0x3d5bebec	0.05369179
56	0x3d8469c2	0.06465484
57	0x3cafc9e9	0.021458583
58	0x3c7e2875	0.015512575
59	0x3d77e6da	0.06052289
60	0x3d122216	0.035677038
61	0xbc34858f	-0.011018171
62	0x3d0079b1	0.031366054
63	0x3d2f57cf	0.04280835
64	0xbd0fab41	-0.03507543
65	0xbd50977f	-0.050925728
66	0x3cb1e053	0.021713411
67	0x39a37441	0.000311764
68	0x3d24efd8	0.040267795
69	0x3cdeff9b	0.027221492
70	0x3cfbafe0	0.030723512
71	0xbd565dc8	-0.05233553
72	0xbc676123	-0.01412228
73	0xbca105d4	-0.0196561
74	0x3ca2433f	0.019807456
75	0xbc64e31e	-0.013970165
76	0xbc33d18f	-0.010975256
77	0x3b82ea67	0.003995228
78	0xbbdcdd0f	-0.0067402194
79	0x3cd71c38	0.026258573
80	0xbcbc0d81	-0.022955658
81	0x3c8ace43	0.016944056
82	0xbdcaed0d	-0.09908495
83	0xbd27854c	-0.040898606
84	0x3ccd13c0	0.025033832
85	0x3cbe23a1	0.023210349
86	0x3cc2989a	0.023754407
87	0xbc526236	-0.012840798
88	0x3aedc7ab	0.0018141171
89	0xbd5433c3	-0.051807176
90	0x3c8879bf	0.016659616
91	0x3a2ba2f7	0.0006547416
92	0xbd361ff0	-0.04446405
93	0x3b9adbd2	0.0047259117
94	0xbaf0fa03	-0.0018385056
95	0xba65c7a2	-0.00087654043
96	0xbcf8c7d6	-0.030368727
97	0xbcdf8941	-0.027287127
98	0x3dd4598c	0.10368642
99	0x3d92bacb	0.07164534
100	0x3d4b79ae	0.04967659
101	0x3dda35ff	0.1065483
102	0x3cc5e749	0.024158137
103	0x3c91828f	0.01776245
104	0x3cd5aca2	0.026083294
105	0x3d347208	0.04405406
106	0xbc70dcc4	-0.014701072
107	0x3c2bf189	0.010494598
108	0x3ddab6a4	0.10679367
109	0xbbb2bab7	-0.005454387
110	0xbbafd633	-0.0053661107
111	0x3cff234f	0.031144766
112	0xbbfc3131	-0.0076962938
113	0xbd6124d4	-0.054966763
114	0xbc961bbc	-0.018323772
115	0x3cea83c1	0.028627278
116	0x3ca7b0e9	0.0204701
117	0x3c020b51	0.007937268
118	0x3c5ee6ec	0.013604861
119	0xbce6bd30	-0.028166384
120	0xbd09d9ce	-0.03365498
121	0xbcd8c8b5	-0.026462892
122	0xbd8913de	-0.066932425
123	0xbaf50f93	-0.0018696658
124	0xbd2f9cca	-0.042874135
125	0xbc49f3f1	-0.012326227
126	0xbd99985a	-0.07499762
127	0xbd3a2ce1	-0.045452956
128	0xbd276f5d	-0.04087769
129	0xbd31a9f8	-0.043374985
130	0x3ca38228	0.019959524
131	0xbd26815e	-0.040650718
132	0x3ae6e352	0.0017615354
133	0xbc702046	-0.014656132
134	0xbcb8ed93	-0.022574222
135	0xbd51da79	-0.051233742
136	0xbd7c8ead	-0.061659504
137	0x3ca7561d	0.020426804
138	0xbae85f4d	-0.0017728597
139	0x3c99ffb6	0.01879869
140	0x3be951fa	0.007120368
141	0xbbf1158c	-0.007357305
142	0xbd8aadcc	-0.067714304
143	0xbc99e389	-0.018785255
144	0x3be382cf	0.006943084
145	0xbb259090	-0.0025263168
146	0x3c4cc4bd	0.012498078
147	0x3e09ed71	0.13469483
148	0x3d6b757e	0.057485096
149	0x3d18158a	0.037129916
150	0x3dd8bd03	0.10582926
151	0x3d82ffea	0.06396468
152	0x3d6512db	0.055926185
153	0xbc8659f0	-0.016400307
154	0xbb939726	-0.0045041023
155	0x3c968486	0.018373739
156	0x3d8d0edd	0.068876006
157	0x3e06fda1	0.13182689
158	0x3d81a41b	0.06330129
159	0x3d4a4f29	0.0493919
160	0xbca6373c	-0.02029001
161	0xbc8d7851	-0.017269285
162	0x3d00dcd7	0.03146061
163	0x3d47be04	0.048765197
164	0x3c399b65	0.011328553
165	0x3c130230	0.0089726895
166	0x3bae6cb5	0.0053230175
167	0x3c23b0f9	0.009990924
168	0x3b309027	0.002694139
169	0x3d256845	0.040382642
170	0x3b8f7c60	0.0043788403
171	0xbd7e75b2	-0.06212396
172	0xbcc8e61d	-0.024523789
173	0xbd56b828	-0.05242172
174	0x3ce69cde	0.028150972
175	0xbd216f76	-0.039412938
176	0x3cb52a34	0.02211485
177	0x3cc35e24	0.0238486
178	0xbd55a621	-0.052160386
179	0xbca1ed66	-0.01976652
180	0xbca1e987	-0.019764675
181	0x3cb4ac15	0.022054711
182	0xbc83ad33	-0.016073799
183	0xbd700ffa	-0.058608986
184	0xbbd6d2d3	-0.006555894
185	0x3b86a6e6	0.0041092513
186	0x3cc3cf4c	0.023902558
187	0x3d5fe925	0.054665703
188	0x3d657a1f	0.056024667
189	0x3d74a3e0	0.059726596
190	0xbc17fb08	-0.009276159
191	0xbbad3b85	-0.0052866363
192	0x3d8e319a	0.069430545
193	0x3da0cc90	0.07851517
194	0x3d98333c	0.07431647
195	0x3ca8b035	0.020591835
196	0x3e1cecd2	0.15324715
197	0x3dcff2aa	0.10153706
198	0x3ce0fc09	0.02746393
199	0x3d9fe564	0.07807425
200	0x3d4a0177	0.049317803
201	0x3d6099ad	0.054834057
202	0xbd807bfb	-0.062736474
203	0x3d27a52b	0.040929
204	0x3dce9160	0.10086322
205	0x3d996b5a	0.07491179
206	0x3dbf610a	0.093446806
207	0x3d87d609	0.06632621
208	0x3d2213bc	0.0395696
209	0xbd2a8a47	-0.041635778
210	0xbc49355f	-0.012280791
211	0x3dea2989	0.114337035
212	0x3dcc04a2	0.09961821
213	0x3d10a4e9	0.03531352
214	0x3cfc523a	0.030800927
215	0x3c90c448	0.01767172
216	0xbc1adf28	-0.009452619
217	0xbd743b13	-0.05962665
218	0x3b266197	0.0025387758
219	0xbb49c2b3	-0.0030786216
220	0xbd0db777	-0.034598794
221	0x3d178528	0.036992222
222	0xbc499704	-0.012304071
223	0x3cf4f914	0.029903926
224	0xbd9cf018	-0.07662982
225	0xbc705efe	-0.014671085
226	0xbd5f848b	-0.054569762
227	0xbd45cf62	-0.04829348
228	0xbd21b2e8	-0.03947726
229	0xbd854ae9	-0.065084286
230	0x3c9eac37	0.019369228
231	0x3c7939e2	0.015211554
232	0xbc8b5e42	-0.017012719
233	0xbc683635	-0.01417308
234	0x3ca141f6	0.019684773
235	0x3b4388e2	0.0029836227
236	0x3bdebfb4	0.006797755
237	0xbcad44b6	-0.021150928
238	0x3cecd0ac	0.028908096
239	0x3d32903b	0.04359458
240	0x3d1f68a8	0.038918167
241	0x3d846a6c	0.06465611
242	0xbc8287b4	-0.015933849
243	0xbba51eb4	-0.0050390605
244	0xbc59023b	-0.013245161
245	0x3d1c48c7	0.038155343
246	0x3da26f23	0.07931354
247	0x3cdcea76	0.026967268
248	0x3d9e73dc	0.07736942
249	0x3d1ae236	0.037813388
250	0xbb371afc	-0.0027939668
251	0xbd6f474a	-0.058417596
252	0x3c6841ac	0.014175814
253	0x3df449c8	0.11928135
254	0x3e16fe0f	0.14745353
255	0x3dc74329	0.09729607

module.net_sm.bn1.weight f4 [32]
0	0x3f077672	0.5291511
1	0x3f480222	0.78128254
2	0x3f362f25	0.71165687
3	0x3f38470a	0.71983397
4	0x3f4663e8	0.77496195
5	0x3f393867	0.7235169
6	0x3f3aa290	0.729043
7	0x3f373776	0.71569
8	0x3f47dfd5	0.78075916
9	0x3f25c29a	0.64750063
10	0x3f0bcaa5	0.54606086
11	0x3f3a6952	0.72816956
12	0x3f386cf9	0.7204128
13	0x3f4e843a	0.8067051
14	0x3f538e69	0.82639176
15	0x3f44cb75	0.7687295
16	0x3f39408b	0.7236411
17	0x3f5c58ce	0.86073005
18	0x3f26e17d	0.6518782
19	0x3f345f6e	0.70458114
20	0x3f381ac3	0.71915835
21	0x3f3a9b8d	0.728936
22	0x3f58ad50	0.84639454
23	0x3f2b539a	0.6692444
24	0x3f009c3a	0.5023838
25	0x3f399f5b	0.7250878
26	0x3f3e0484	0.7422564
27	0x3f491635	0.7854951
28	0x3f3e02d5	0.7422307
29	0x3f4e5db9	0.8061176
30	0x3f4c7ede	0.79881084
31	0x3f4e889f	0.8067722

module.net_sm.bn1.bias f4 [32]
0	0xbcf522d9	-0.029923843
1	0x3c5c67bf	0.013452469
2	0xbd6effbc	-0.058349356
3	0xbd745927	-0.059655335
4	0xbe30d573	-0.17268924
5	0x3c262151	0.010139779
6	0xbcc9ec09	-0.024648683
7	0xbd0742dd	-0.03302275
8	0xbd6a34ff	-0.057179447
9	0x3b12539b	0.0022327665
10	0x3d886b9d	0.066611506
11	0xbcde27da	-0.027118612
12	0x3ce3546e	0.02775022
13	0xbdc75331	-0.097326644
14	0x3b95e719	0.004574668
15	0xbdc1f7ae	-0.09471069
16	0xbcda4b4b	-0.02664723
17	0x3c4bb18d	0.012432468
18	0xbcc33c15	-0.02383236
19	0xbdf0ba60	-0.11754298
20	0x3d454ef3	0.048170995
21	0x3baee31d	0.0053371326
22	0x3c88f94d	0.016720438
23	0xbd2df305	-0.04246809
24	0xbd5bb6f5	-0.05364128
25	0xbc992818	-0.018695876
26	0xbae064a2	-0.0017119835
27	0xbc645686	-0.013936644
28	0x3cc7d4aa	0.024393398
29	0x3bf423b7	0.0074505466
30	0xbcdb4bad	-0.026769483
31	0xbdd851ad	-0.105624534

module.net_sm.bn1.running_mean f4 [32]
0	0x376dce1c	1.4174289e-05
1	0xb693a251	-4.3998375e-06
2	0xb7381966	-1.0973168e-05
3	0xb7a260d1	-1.9356989e-05
4	0xb7faeca8	-2.9912524e-05
5	0xb7d1d3f3	-2.5013438e-05
6	0x373f808a	1.1414415e-05
7	0xb4f62678	-4.584906e-07
8	0x36f66c83	7.3440037e-06
9	0xb5eb6669	-1.753867e-06
10	0xb71aa0ec	-9.216583e-06
11	0xb75a0b12	-1.299639e-05
12	0x36bb00f7	5.5731466e-06
13	0x35d1673c	1.5601759e-06
14	0xb6d4cfb5	-6.3422726e-06
15	0xb7520cdc	-1.25199695e-05
16	0xb72591dd	-9.868728e-06
17	0x34b54db3	3.377041e-07
18	0x35967ac5	1.1211602e-06
19	0xb68abd57	-4.1347625e-06
20	0xb7b49b36	-2.1529948e-05
21	0x370ac0a6	8.270295e-06
22	0x361a7846	2.3017797e-06
23	0x35e23bd8	1.6855729e-06
24	0xb73277d9	-1.0637531e-05
25	0xb7332717	-1.0678333e-05
26	0x36909bd9	4.3096775e-06
27	0xb7a696b8	-1.9858926e-05
28	0xb4882005	-2.535527e-07
29	0xb784e48d	-1.5842053e-05
30	0xb70c2179	-8.352444e-06
31	0xb780c441	-1.5350177e-05

module.net_sm.bn1.running_var f4 [32]
0	0x3c66d868	0.014089681
1	0x3c89253d	0.01674139
2	0x3c557f3d	0.013030824
3	0x3c67a54a	0.014138529
4	0x3cd4dbdc	0.025983743
5	0x3c9d39e1	0.019192638
6	0x3c5c74c1	0.013455571
7	0x3c5c738d	0.013455284
8	0x3c852009	0.016250627
9	0x3c866036	0.016403299
10	0x3c9ad3ff	0.018899916
11	0x3c410097	0.011779926
12	0x3cfbda00	0.030743599
13	0x3c922c26	0.017843317
14	0x3cb016e0	0.021495283
15	0x3c7e4f36	0.015521815
16	0x3c7f9f56	0.0156019535
17	0x3cf3711d	0.029717023
18	0x3c77df46	0.015128916
19	0x3cb347c4	0.021884806
20	0x3ca476cc	0.020076178
21	0x3c779649	0.015111514
22	0x3ca9ef78	0.02074407
23	0x3c8fd54c	0.017557763
24	0x3c0e5a8e	0.008688582
25	0x3c95d867	0.018291665
26	0x3c620072	0.0137940515
27	0x3cb2fbbd	0.021848554
28	0x3c8d0709	0.017215269
29	0x3c8cdb8c	0.017194532
30	0x3cc2c9c5	0.023777852
31	0x3ca69077	0.020332558

module.net_sm.layer1.0.conv1.weight f4 [32, 32, 3, 3, 3]
0	0x39c48ce7	0.00037489014
1	0x3c7b5ced	0.015341979
2	0xbcc40ebf	-0.023932813
3	0x3d0e6916	0.034768187
4	0x3cca7d27	0.02471788
5	0x3c5c24b9	0.01343649
6	0x3ccd7950	0.02508226
7	0x3d4d5277	0.050127473
8	0xbcd05c6e	-0.025434699
9	0xbc0d2096	-0.008613726
10	0x3d66faa0	0.05639136
11	0xbc7cfda6	-0.015441334
12	0x3d71685a	0.058937408
13	0x3da8969a	0.0823185
14	0x3b9e629d	0.004833533
15	0xbd05429a	-0.03253422
16	0x3ba644d0	0.005074121
17	0x3d18fe23	0.03735174
18	0x3c98290c	0.01857426
19	0x3c966fa1	0.018363776
20	0x3d0a891c	0.033822164
21	0xbbc747b3	-0.0060815453
22	0xbcb47d3e	-0.022032376
23	0x3bf2f7cd	0.007414794
24	0x3d791e0b	0.060819667
25	0x3d528f15	0.051405985
26	0x3c8d8b26	0.017278265
27	0x3c234fd2	0.009967761
28	0xbdbede67	-0.09319764
29	0xbbbaaffd	-0.005697249
30	0x3d53d286	0.051714443
31	0x3d3868e2	0.0450219
32	0x3d35bc42	0.04436899
33	0x3d1da179	0.03848407
34	0x3c43aa43	0.011942449
35	0xbbc18c30	-0.005906604
36	0xbd18e0c2	-0.03732372
37	0xbca304c5	-0.019899735
38	0xbd1d2c9b	-0.038372617
39	0xbbc5dc65	-0.006038236
40	0x3c8fcd9e	0.0175541
41	0x3c9f0beb	0.019414863
42	0xbccc7231	-0.024956794
43	0xbcfb16d9	-0.030650543
44	0x3bcf8176	0.0063325716
45	0xbd4106db	-0.04712568
46	0x3a9a1d04	0.0011757915
47	0x3cfa246f	0.030534951
48	0x3bc7169a	0.0060756924
49	0x3d47dc11	0.048793856
50	0x3dbd70c4	0.09250024
51	0x3c18b547	0.009320564
52	0xbc81ae10	-0.01583007
53	0xbd4ad2f1	-0.049517576
54	0xbc62d490	-0.013844624
55	0xbd06f9ba	-0.032953
56	0xbb131e21	-0.0022448378
57	0xbd029db6	-0.031888686
58	0xbd1e47f2	-0.03864283
59	0xbb10322c	-0.002200256
60	0x3c165047	0.009174413
61	0x3c018292	0.007904666
62	0xbbf1e35d	-0.00738184
63	0x3c89aabe	0.016805049
64	0xbd0b9376	-0.034076177
65	0xbbf072a5	-0.0073378854
66	0xbdb42140	-0.087954044
67	0x3d11a192	0.035554476
68	0xbcc3b37f	-0.023889301
69	0x3ceb62d8	0.028733656
70	0xbb9aaad3	-0.004720071
71	0x3c629ee7	0.013831831
72	0xbcc74b78	-0.024327978
73	0x3cd94575	0.026522378
74	0x3ce9845f	0.028505502
75	0xbd0353aa	-0.03206221
76	0xbb881b14	-0.0041536186
77	0x3c83f619	0.01610856
78	0x3cc31460	0.023813426
79	0xbcf86d2b	-0.030325493
80	0x3d5800ae	0.052735023
81	0x3c9de048	0.019271985
82	0x3d90455a	0.07044478
83	0x3d21d914	0.039513662
84	0x3cad9985	0.021191368
85	0x3d4af309	0.049548183
86	0xbd0eaf02	-0.03483487
87	0x3bd5807c	0.0065155607
88	0xbc372915	-0.011179228
89	0xbd375810	-0.044761717
90	0x3ae4dcad	0.0017460786
91	0xbcb5bfd8	-0.022186205
92	0xbd9c6988	-0.07637316
93	0xbc902407	-0.017595304
94	0xbc89c131	-0.016815754
95	0x3ce3213d	0.02772581
96	0x3ca3ebc5	0.020009885
97	0xba861042	-0.0010228234
98	0xbd715934	-0.05892296
99	0xbc1d6140	-0.009605706
100	0x3d7af469	0.061268244
101	0x3caedee2	0.021346513
102	0xbd384d34	-0.0449955
103	0xbd043cf0	-0.032284677
104	0x3da9cd51	0.08291114
105	0x3c8891e3	0.016671127
106	0x3ce458a4	0.027874298
107	0x3dbf9283	0.09354117
108	0xbd2676e2	-0.04064072
109	0xbaf9f567	-0.0019070328
110	0xbd0dc349	-0.034610067
111	0xbcae97ee	-0.02131268
112	0xbcb6dce9	-0.022322135
113	0x39d4a511	0.00040558775
114	0x3b513894	0.0031924592
115	0xbc6442cb	-0.01393194
116	0x3d1fa254	0.038973168
117	0xbd17fa25	-0.03710379
118	0x3cd51e0d	0.026015306
119	0xbb5ab13f	-0.0033369807
120	0x3baba0f3	0.0052376925
121	0xbb8c3198	-0.004278373
122	0x3c3636f1	0.0111214975
123	0xbd79cd55	-0.060986836
124	0x3d76a26c	0.06021349
125	0xbd4adcc4	-0.049526945
126	0x3da05e07	0.07830434
127	0x3c196529	0.009362497
128	0x3cb11e88	0.021621004
129	0x3c3e30f5	0.011608352
130	0x3d1b0945	0.037850637
131	0x3d089fba	0.033355452
132	0x3cdb2b15	0.026753942
133	0xbda0e8a8	-0.07856876
134	0x3d882286	0.0664721
135	0x3af25175	0.0018487411
136	0x3d8bb3b6	0.068213865
137	0x3c143f7b	0.009048338
138	0xbd8cd203	-0.06875994
139	0xbc9616b7	-0.018321378
140	0xbd3e219b	-0.046418767
141	0xbc0f5118	-0.008747362
142	0x3a48904b	0.0007650896
143	0x3d32832f	0.043582138
144	0x3bf76401	0.007549763
145	0xbc961a89	-0.0183232
146	0x3da9f986	0.08299546
147	0xbcda930d	-0.026681447
148	0x3cc42df4	0.023947693
149	0x3d49325f	0.049120303
150	0xbd38d8c8	-0.045128614
151	0xbc893003	-0.016746527
152	0x3cdd5d74	0.027022101
153	0x3cb7dd98	0.022444531
154	0x3d44f30c	0.04808335
155	0x3d389aef	0.04506963
156	0x3ba335d4	0.004980782
157	0x3acc2014	0.0015573525
158	0x3cee97c1	0.029125096
159	0xbcb1cdb7	-0.021704538
160	0x3d1d3cdb	0.038388114
161	0x3d3c4fe6	0.045974635
162	0xbcd78c02	-0.026311878
163	0xbc0f653b	-0.008752163
164	0x3bc1870b	0.005905991
165	0xbbd6ce1c	-0.006555332
166	0x3c99369e	0.018702801
167	0x3b5f1889	0.0034041724
168	0xbc94ff23	-0.018188065
169	0x3bb9e712	0.0056732977
170	0x3ce3b258	0.027795002
171	0x3c9fc14e	0.019501355
172	0xbd35f152	-0.044419594
173	0xbd01ddcf	-0.031705674
174	0xbacc5a59	-0.001559089
175	0xbbf515fa	-0.0074794265
176	0xbc2ef2c2	-0.010677995
177	0xbcfbcf0f	-0.030738382
178	0x3d4f0143	0.050538313
179	0x3c19efad	0.009395522
180	0xbbea197e	-0.007144152
181	0xbc9d9e9e	-0.019240674
182	0xbca943bf	-0.020662187
183	0xbd08841e	-0.03332912
184	0xbd2ad43a	-0.0417063
185	0x3c36bddb	0.0111536635
186	0xbcb702a7	-0.022340132
187	0xbd0b2537	-0.033971038
188	0xbcb985f0	-0.022646874
189	0x3d2e8321	0.042605523
190	0x3c8062f8	0.015672192
191	0x3c17f292	0.009274142
192	0xbc1e0404	-0.009644512
193	0xbcc43271	-0.023949834
194	0xbc2c0e08	-0.010501392
195	0x3cc8df36	0.024520498
196	0xbd1fa426	-0.038974904
197	0xbcd7ccf2	-0.026342843
198	0x3e129498	0.14314497
199	0x3ce4ffac	0.027953945
200	0xbd2112c3	-0.039324533
201	0xbb9e914f	-0.0048390995
202	0xbc52df13	-0.012870568
203	0xbbd046b1	-0.0063560833
204	0xbc275158	-0.010212265
205	0x3d63d23a	0.05562041
206	0x3d37536e	0.0447573
207	0xbde003b9	-0.1093821
208	0x3d5c3487	0.05376103
209	0x3ca687de	0.020328458
210	0xbd061c65	-0.032741923
211	0xbd116c10	-0.035503447
212	0x3d881bb3	0.06645908
213	0x3d7cf8a4	0.06176056
214	0xbd04243f	-0.03226113
215	0x3d135c45	0.035976667
216	0xbd83e8a4	-0.06440857
217	0x3d2bfa7b	0.041986924
218	0xba9cc881	-0.001196161
219	0xbd6fec79	-0.058575127
220	0xbcaad693	-0.02085427
221	0xbaa87750	-0.0012852941
222	0x3c943ff8	0.018096909
223	0xbc9f7285	-0.019463787
224	0xbd252941	-0.040322546
225	0xbc945a91	-0.018109592
226	0xbcb53590	-0.022120267
227	0xb9ba4d5d	-0.00035534325
228	0xbd0f92ff	-0.035052296
229	0x3c80b13f	0.015709518
230	0xbc25d453	-0.010121423
231	0x3d43eafb	0.047831517
232	0x3d05b407	0.03264239
233	0x3c477313	0.012173432
234	0x3bad7805	0.0052938485
235	0x3a8ef167	0.0010905684
236	0x3cfae498	0.03062658
237	0x3d6bf45c	0.057606086
238	0x3d2187e4	0.039436236
239	0xbd560c0a	-0.052257575
240	0x3cb7ce06	0.022437107
241	0x3cce5049	0.025184767
242	0x3c4981c0	0.012299001
243	0x3ce7ed0f	0.02831128
244	0x3a921dfa	0.001114785
245	0xbd13d78d	-0.036094237
246	0xbcdac8d7	-0.026707096
247	0xbc5d8ee9	-0.013522842
248	0xbd2bce9f	-0.041945096
249	0xbb681488	-0.0035412628
250	0xbb158b93	-0.0022818788
251	0xbb630008	-0.003463747
252	0xbafd0e5c	-0.0019306648
253	0x3c0890ee	0.008335335
254	0xbb3033ea	-0.0026886412
255	0xbd8f66fc	-0.070020646

module.net_sm.layer1.0.bn1.weight f4 [32]
0	0x3f277ba3	0.6542303
1	0x3f22fbb8	0.6366534
2	0x3f2e6542	0.6812326
3	0x3f3dda31	0.7416106
4	0x3f32d2f2	0.69853127
5	0x3f142ce7	0.57881016
6	0x3f16cfa9	0.58910614
7	0x3f232d5d	0.63741094
8	0x3f290b51	0.6603289
9	0x3f3b6ac7	0.73209804
10	0x3f3a49b2	0.727687
11	0x3f2fbf67	0.6865143
12	0x3f370683	0.7149431
13	0x3f2c77b5	0.6737016
14	0x3f1be833	0.6090118
15	0x3f26db0f	0.65178007
16	0x3f376d44	0.716511
17	0x3f298351	0.66216
18	0x3f17df4e	0.5932511
19	0x3f179bd7	0.5922217
20	0x3f256127	0.6460137
21	0x3f3fafc1	0.74877554
22	0x3f294dff	0.6613464
23	0x3f28f1ab	0.65993756
24	0x3f1af50a	0.6053015
25	0x3f2067bc	0.62658286
26	0x3f25c7df	0.64758104
27	0x3f272ab0	0.6529951
28	0x3f296304	0.6616671
29	0x3f2abced	0.6669453
30	0x3f28a19a	0.65871584
31	0x3f335937	0.70058006

module.net_sm.layer1.0.bn1.bias f4 [32]
0	0x3d4ef3d0	0.050525486
1	0x3d929bf0	0.07158649
2	0xbd0172e8	-0.031603724
3	0x3d01bbd5	0.03167327
4	0x3e859012	0.2608648
5	0xbd007277	-0.031359162
6	0x3c8f025d	0.017457182
7	0x3da6b87e	0.08140658
8	0x3c148f90	0.009067431
9	0x3def7b90	0.116934896
10	0xbd4b83b9	-0.049686167
11	0x3d85697e	0.06514262
12	0x3e354295	0.1770118
13	0x3df39fc6	0.11895709
14	0xbba37d90	-0.0049893335
15	0x3c5743a6	0.013138687
16	0x3c27c798	0.010240458
17	0xbc59b3a8	-0.013287462
18	0x3de3c140	0.11120844
19	0xbcaf1a45	-0.021374831
20	0x3d0eee89	0.034895454
21	0x3e209075	0.15680106
22	0x3c0e733a	0.008694464
23	0xbd8746ae	-0.06605278
24	0x3c4a9b7f	0.012366175
25	0xbc4f47d7	-0.012651405
26	0x3bf8757e	0.0075823655
27	0xbd038149	-0.032105718
28	0x3bd56b23	0.006513016
29	0x3cd5ed34	0.026114084
30	0x3d38e116	0.045136534
31	0x3cb34706	0.021884453

module.net_sm.layer1.0.bn1.running_mean f4 [32]
0	0x3f95f9a8	1.1716814
1	0xbfefa9e7	-1.8723725
2	0xbfd8d927	-1.694127
3	0x402a05d7	2.6566064
4	0x3f3947cc	0.7237518
5	0xc002defd	-2.0448601
6	0x3e51383b	0.20431606
7	0xc054fa4b	-3.3277767
8	0x401637e5	2.3471615
9	0x4018e1b1	2.388775
10	0xc000d747	-2.0131395
11	0xbfc93cc2	-1.5721667
12	0x4040bca7	3.0115144
13	0x3fe829c9	1.8137752
14	0x3fdc9287	1.7232217
15	0xc07bd41e	-3.9348216
16	0xc00bcf14	-2.184514
17	0xc0274e52	-2.6141553
18	0x3fb1f1c2	1.3901904
19	0xbf284313	-0.6572735
20	0x3fc16895	1.5110041
21	0x404b9ed7	3.1815698
22	0x400a6ce6	2.1628966
23	0xc02f8d85	-2.7430127
24	0xbffcbfb0	-1.9745998
25	0xbff42812	-1.9074728
26	0xbfd26756	-1.6437786
27	0x3fd15b35	1.6355959
28	0xbf51c20d	-0.81936723
29	0xbdb038a7	-0.086045556
30	0xbfcc6c46	-1.5970542
31	0x4083b12b	4.115377

module.net_sm.layer1.0.bn1.running_var f4 [32]
0	0x409e6782	4.950135
1	0x40c55199	6.1662107
2	0x40b1e63c	5.559355
3	0x41375d96	11.460348
4	0x40f1b3d6	7.5532026
5	0x40de3990	6.9445267
6	0x401d3d8c	2.4568815
7	0x417bf94f	15.748366
8	0x410cd0d3	8.800982
9	0x41084988	8.517952
10	0x40d6fcc5	6.7183557
11	0x409a37fd	4.8193345
12	0x41605efe	14.023191
13	0x40c2889d	6.0791764
14	0x40aed860	5.463913
15	0x41a747ac	20.909996
16	0x40f3aed9	7.6150937
17	0x41297ef0	10.593491
18	0x4076d894	3.8569689
19	0x3fb5dab1	1.4207364
20	0x407a36a2	3.9095845
21	0x416b0e27	14.690955
22	0x40f8d0a1	7.7754674
23	0x412b42eb	10.703837
24	0x40bf1cc7	5.972263
25	0x40d6791c	6.702284
26	0x40be3615	5.944102
27	0x40913eec	4.538931
28	0x3fe1851d	1.7618748
29	0x405acbc5	3.418687
30	0x4091453b	4.539701
31	0x41bf8c51	23.943514

module.net_sm.layer1.0.conv2.weight f4 [32, 32, 3, 3, 3]
0	0x3df5131c	0.119665354
1	0x3c06acfa	0.008219952
2	0xbce3af20	-0.027793467
3	0xbd92ee3d	-0.071743466
4	0x3c9a19e5	0.018811176
5	0xbd1e4a47	-0.038645055
6	0x3bbc5b8a	0.005748217
7	0xbd28a788	-0.041175395
8	0x3cecb9a4	0.028897114
9	0x3cfd3355	0.030908266
10	0x3d0c987b	0.034325104
11	0x3d315fd0	0.043304265
12	0xbd1cd128	-0.038285404
13	0x3c05a565	0.008157109
14	0x3d02f36e	0.031970434
15	0xbc23c62f	-0.009995981
16	0xbc2d9571	-0.010594712
17	0xbb961490	-0.004580088
18	0x3d37c174	0.044862226
19	0x3cdfbdb6	0.02731214
20	0x3d895423	0.06705501
21	0xbaf3b6c4	-0.0018593897
22	0xbca47128	-0.020073488
23	0x3d37a577	0.044835534
24	0xbd14a5fd	-0.03629111
25	0x3c79ec5e	0.015254108
26	0xbcd5527b	-0.026040306
27	0x3c441d6e	0.011969907
28	0xbd216484	-0.0394025
29	0x3cf6be38	0.03012
30	0x3af7fb71	0.001891954
31	0xbc928969	-0.017887788
32	0x3ca841e1	0.020539226
33	0x3d0edaf5	0.034876782
34	0xbc5f56c5	-0.013631527
35	0x3c2be231	0.01049094
36	0x3ade9be5	0.0016983716
37	0xbcc71850	-0.024303585
38	0xbbb2d6b3	-0.005457723
39	0x3d570c0d	0.052501727
40	0xbd049581	-0.03236914
41	0xbcff307a	-0.031151045
42	0xbd2261d8	-0.039644092
43	0xbd6cbfb2	-0.057800002
44	0xbd5b682a	-0.053566135
45	0xbbad8922	-0.0052958885
46	0x3a005d99	0.00048967596
47	0x3aa1e459	0.0012351378
48	0xbc13f5f2	-0.009030806
49	0x3d4028ac	0.046913788
50	0xbad947ea	-0.0016577218
51	0xbd0101b6	-0.031495772
52	0x3bc362d6	0.00596271
53	0x3bb80fb7	0.0056171077
54	0xbd2e1a5a	-0.0425056
55	0xbc164804	-0.009172443
56	0x3a9a3bcd	0.001176709
57	0xbba8c128	-0.005149979
58	0x3c905609	0.01761915
59	0x3d4d8bdc	0.05018221
60	0xbd048b34	-0.032359317
61	0xbabc74f1	-0.0014378113
62	0x3d1c0cb0	0.038098037
63	0xbca3a88d	-0.019977832
64	0xbcc8aadc	-0.024495535
65	0xbc7df26a	-0.015499691
66	0x3c4205e8	0.0118422285
67	0x3b47fc2d	0.0030515299
68	0xbbeab9d5	-0.007163266
69	0xbc61b712	-0.0137765575
70	0xbcf6d567	-0.030131055
71	0xbaadeb37	-0.0013268952
72	0x3cebebdb	0.028798988
73	0xbced2c5f	-0.028951822
74	0xbd121e92	-0.035673685
75	0x3cfc48eb	0.030796489
76	0xbb65d6ca	-0.0035070651
77	0x3bacfa24	0.0052788425
78	0x3d3f92b3	0.046770763
79	0xbda7003c	-0.081543416
80	0xbcac1ea6	-0.021010708
81	0xbccecdd9	-0.02524464
82	0x3ba68ccc	0.0050827023
83	0x3d0f55e1	0.03499401
84	0xbd09a510	-0.03360468
85	0xbd1bc65f	-0.03803098
86	0x3c3344de	0.010941712
87	0x3c90634c	0.017625473
88	0xbd1e7c1d	-0.038692582
89	0xbcfb67f5	-0.030689219
90	0x3a76113c	0.00093867234
91	0x3a858ada	0.0010188476
92	0xbd428bec	-0.04749672
93	0x3c54f6c3	0.012998286
94	0x3d26e832	0.040748782
95	0x3cafe58e	0.021471765
96	0x3d15d9bb	0.036584597
97	0x3d342c4e	0.043987565
98	0x3c05016f	0.008118018
99	0xbc7f0377	-0.015564791
100	0x3c007044	0.007839266
101	0x3d3b8bd3	0.045787644
102	0xbb42652b	-0.0029662352
103	0x3d157348	0.036486894
104	0x3cb5a109	0.022171514
105	0xbc9cb0ba	-0.019127239
106	0x3d2fedd5	0.042951424
107	0x3be7d957	0.0070754695
108	0xbd38be37	-0.045103278
109	0xbcc3999a	-0.023876954
110	0xbdaeee90	-0.08541596
111	0xbc1eb8ea	-0.009687642
112	0xbcf93a20	-0.030423224
113	0x3cdef54a	0.027216572
114	0xbc37b648	-0.011212893
115	0xbbb178c1	-0.0054160063
116	0xbd72bc40	-0.05926156
117	0xbd01d839	-0.031700347
118	0xbc33ac27	-0.010966337
119	0xbbd737ef	-0.006567947
120	0x3c1404ef	0.009034379
121	0x3c9abcef	0.018888919
122	0xbcff9d46	-0.031202924
123	0x3c6be1dc	0.014397111
124	0xbd9f77b9	-0.07786507
125	0x3c9d4698	0.0191987
126	0x3c34e720	0.011041433
127	0x3b204307	0.0024454014
128	0x3b6b13de	0.0035869996
129	0x3d55aa5c	0.05216442
130	0x3d0247f8	0.031806916
131	0xbcd32d5a	-0.025778461
132	0xbd2f0a52	-0.04273445
133	0xbcb17c83	-0.021665817
134	0xbce9a769	-0.02852221
135	0x3ca4cf97	0.020118518
136	0xbd084d16	-0.03327664
137	0x3d83c2f5	0.064336695
138	0xbc9f9f94	-0.019485272
139	0xbb3b4086	-0.0028572395
140	0xbd12b198	-0.035813898
141	0xbdbc9c66	-0.09209518
142	0x3cf50417	0.029909177
143	0x3be99295	0.0071280696
144	0x3b0a78ad	0.0021129057
145	0x3d24976a	0.040183462
146	0xbc17088a	-0.009218344
147	0xbbbdea6e	-0.0057957685
148	0xbd415163	-0.047196757
149	0xbd98d9d6	-0.07463424
150	0xbbdcd374	-0.0067390744
151	0xbcb80a25	-0.022465775
152	0x3d0831ce	0.033250622
153	0x3bb3c181	0.005485714
154	0xbcbdcf73	-0.023170209
155	0xbc222f24	-0.0098989345
156	0x3d247c14	0.040157393
157	0xbca5809f	-0.020202933
158	0xbd1aabd1	-0.037761513
159	0xbd2868cc	-0.041115567
160	0xbd883095	-0.06649891
161	0xbcf4b876	-0.029873114
162	0xbbc7a7fd	-0.006093024
163	0xbd19beba	-0.037535407
164	0xbc48ac01	-0.01224804
165	0xbd381d26	-0.044949673
166	0x3c40f588	0.011777289
167	0xbc6784b9	-0.014130765
168	0x3d361760	0.044455886
169	0xbc87a14a	-0.0165564
170	0x3c829529	0.015940266
171	0x3d088edc	0.033339366
172	0xbda650d8	-0.081208885
173	0x3c51d31b	0.012806679
174	0xbd239ef1	-0.0399465
175	0x3d2843c4	0.04108025
176	0xbc86c325	-0.016450474
177	0x3c77ce07	0.015124804
178	0x3c07074f	0.008241489
179	0xbd6761fd	-0.056489933
180	0x3caa2578	0.02076982
181	0x3cdabc5e	0.026701149
182	0xbd3432d4	-0.043993786
183	0xbd7f02be	-0.062258475
184	0x3c26961f	0.010167628
185	0xbcedc711	-0.029025586
186	0x3ccdbe23	0.025115078
187	0x3ca50206	0.020142566
188	0x3b30f862	0.0027003516
189	0xbc06c099	-0.00822463
190	0xbcb9bff3	-0.022674536
191	0x3d882dbe	0.0664935
192	0x3ca4ff38	0.020141229
193	0x3b85101b	0.004060758
194	0xbd5fdabb	-0.054651957
195	0x3c4c85bb	0.012483056
196	0x3bb699d0	0.005572535
197	0x3d978c26	0.07399778
198	0x3bd310b9	0.0064412025
199	0x3c428a9d	0.011873868
200	0xbb536616	-0.0032256893
201	0xbc4e8038	-0.012603812
202	0x3d1d1e6d	0.038359094
203	0x3d840549	0.064463206
204	0xbcb772a4	-0.022393532
205	0xbb83782c	-0.0040121283
206	0x3c9552b2	0.018227909
207	0xbadf6080	-0.0017042309
208	0x3c1dd649	0.009633609
209	0x3cdee4e0	0.027208745
210	0x3ccb0932	0.024784658
211	0x3d5a19f4	0.053247407
212	0x3c9c0723	0.019046372
213	0x3d0bb7ae	0.034110717
214	0x3d0c6c48	0.034282953
215	0xbcf85cd6	-0.030317705
216	0xbc84a7f2	-0.016193364
217	0xbd04895e	-0.032357566
218	0x3c23b534	0.009991933
219	0x3d84b05d	0.06478951
220	0x3d702c46	0.058635972
221	0xbd16a754	-0.03678067
222	0x3c385573	0.011250841
223	0xbc06e4b1	-0.008233235
224	0xbca010d4	-0.019539274
225	0xbd223a16	-0.039606176
226	0xbd2394e3	-0.03993691
227	0xbccdeb2c	-0.025136553
228	0x3b59d315	0.0033237387
229	0x3ccdc6d2	0.025119219
230	0x3d59db50	0.05318767
231	0x3ba8400f	0.0051345895
232	0xbd5cf61c	-0.053945646
233	0xbcc0c5c6	-0.023531806
234	0x3d0373f2	0.032092996
235	0xbc74b0a9	-0.014934697
236	0x3be2ef34	0.006925488
237	0x3cc829b5	0.02443395
238	0xbc3638ca	-0.011121938
239	0x3d620221	0.05517781
240	0xbb9a95f6	-0.004717584
241	0x3cf377f2	0.02972028
242	0xbce7fdce	-0.028319266
243	0xbd4c68e8	-0.049904734
244	0x3c8efd4e	0.01745477
245	0x381eacf6	3.7831218e-05
246	0x3bbc7088	0.0057507195
247	0x3ca2da8e	0.019879606
248	0x3c1f119d	0.009708789
249	0x3ceb8fc5	0.028755078
250	0x3c016a4e	0.00789888
251	0x3d66ed5b	0.056378704
252	0x3d1573e6	0.036487482
253	0x3d71e10a	0.059052505
254	0x3d7ace24	0.061231747
255	0xbcc4b1ce	-0.024010565

module.net_sm.layer1.0.bn2.weight f4 [32]
0	0x3e8a003c	0.26953304
1	0x3f428ec0	0.7599907
2	0x3f3cf7cc	0.7381561
3	0x3f33fd14	0.7030804
4	0x3ed3f433	0.41397247
5	0x3f3edbf9	0.745544
6	0x3f3723fe	0.71539295
7	0x3f165db2	0.5873672
8	0x3f3944b6	0.7237047
9	0x3e8bfdcd	0.27342072
10	0x3ea2773e	0.317316
11	0x3f431bb5	0.7621415
12	0x3f361c45	0.71136886
13	0x3f36b67c	0.713722
14	0x3f3e8399	0.7441955
15	0x3f31bbb4	0.6942704
16	0x3f34e413	0.70660514
17	0x3f32f39e	0.6990298
18	0x3ea7bbc7	0.3276045
19	0x3eef628c	0.46754873
20	0x3e97e877	0.29669544
21	0x3f36d229	0.7141443
22	0x3f35359c	0.70784926
23	0x3e7dc50d	0.247822
24	0x3ebe5271	0.37172273
25	0x3f1afca1	0.6054173
26	0x3f356a5d	0.7086542
27	0x3f31e67e	0.6949233
28	0x3f3c1fd9	0.73486096
29	0x3f38b33f	0.7214851
30	0x3f38a393	0.72124594
31	0x3f49f7aa	0.7889353

module.net_sm.layer1.0.bn2.bias f4 [32]
0	0xbd0540c5	-0.032532472
1	0xbc95e2f9	-0.018296706
2	0xbc1b1b3b	-0.0094669415
3	0xbcc4eb3e	-0.024037953
4	0xbdeeb6e4	-0.11655977
5	0xbd9ab528	-0.07554084
6	0xbaff4539	-0.0019475586
7	0xbd20e147	-0.03927734
8	0xbc55cc53	-0.013049203
9	0xbd529280	-0.051409245
10	0x3d35daac	0.044397995
11	0xbc763c02	-0.015028955
12	0xb910b3f6	-0.00013799951
13	0xbd2bdafb	-0.041956883
14	0xbd25da42	-0.04049135
15	0xbced0875	-0.028934697
16	0xbc24f4fd	-0.010068175
17	0x3c71cc9c	0.014758255
18	0xbd7c5023	-0.06159986
19	0xbdd35ecd	-0.10320816
20	0x3be78cb1	0.0070663323
21	0xbbadfac7	-0.005309436
22	0xbb17c83d	-0.0023160123
23	0xbcfa5de3	-0.030562347
24	0xbda6ace0	-0.08138442
25	0xbc8767e5	-0.016529033
26	0xbcc2aa54	-0.02376286
27	0xbd547cdd	-0.05187689
28	0x3b11de11	0.0022257606
29	0xbc24608c	-0.010032784
30	0xbd8c970d	-0.06864748
31	0xbd17757d	-0.03697728

module.net_sm.layer1.0.bn2.running_mean f4 [32]
0	0xbd367878	-0.04454848
1	0xbf790203	-0.97268695
2	0xbf9ea731	-1.2394773
3	0xbf2fa93a	-0.68617594
4	0x3fc0ecab	1.5072225
5	0xbfaf00c6	-1.3672111
6	0xbf38b0b6	-0.7214464
7	0xbf900225	-1.1250654
8	0xbf913c0c	-1.134645
9	0x3ec30e00	0.3809662
10	0x3eab6f29	0.33483246
11	0xbf93c5d3	-1.1544746
12	0xbfbbf2ba	-1.4683449
13	0xbfc0d12e	-1.5063837
14	0xbf99f5de	-1.2028158
15	0xbf00bd64	-0.5028899
16	0xbf0168ee	-0.50550735
17	0xbf80ab93	-1.005236
18	0xbf95947c	-1.1685939
19	0xbfe5a22f	-1.794012
20	0xbe3714b4	-0.17878991
21	0xbfda3bc9	-1.7049495
22	0xbfcfc077	-1.6230611
23	0x3e5f3887	0.21798907
24	0x3d840791	0.06446756
25	0xbfe01482	-1.7506258
26	0xbf954bf9	-1.166381
27	0xbfc3c93f	-1.529579
28	0xc00e1db9	-2.2205641
29	0xbf4abb4d	-0.7919205
30	0xbf4998d5	-0.7874883
31	0xbf74171d	-0.9534777

module.net_sm.layer1.0.bn2.running_var f4 [32]
0	0x3fb36aa7	1.4016923
1	0x4068fd80	3.6404724
2	0x4067e75e	3.6234965
3	0x40435db3	3.052594
4	0x3fadae5c	1.3568835
5	0x4062ec17	3.5456598
6	0x3ff4b90a	1.911897
7	0x3fc009c9	1.5002986
8	0x402982e8	2.648615
9	0x3fa1fb6c	1.2654853
10	0x3f181b4f	0.5941667
11	0x400cb052	2.1982617
12	0x4102dcca	8.178904
13	0x4023790f	2.5542638
14	0x40851c65	4.159716
15	0x3fff4329	1.9942371
16	0x401222c8	2.2833729
17	0x4093be31	4.6169667
18	0x3fccd0ff	1.600128
19	0x4042260c	3.0335722
20	0x3fd97ddb	1.6991533
21	0x406438b7	3.5659616
22	0x404da9b8	3.2134838
23	0x3f790158	0.97267675
24	0x3f67233b	0.9028813
25	0x406a8b36	3.6647468
26	0x402fa3a4	2.7443628
27	0x40c25904	6.073366
28	0x408d1913	4.409311
29	0x40961f77	4.691341
30	0x40676eb8	3.6161327
31	0x4075a601	3.838257

module.net_sm.layer2.0.conv1.weight f4 [32, 32, 3, 3, 3]
0	0xbd72d7a5	-0.059287686
1	0xbc412fc2	-0.0117911715
2	0xbd243af8	-0.0400953
3	0x3c9287a0	0.017886937
4	0x3da71922	0.081590906
5	0x3c8f944f	0.017526774
6	0x3ce1340a	0.027490634
7	0x3d8363cd	0.0641552
8	0x3d35dd80	0.044400692
9	0xbd59d80f	-0.053184565
10	0x3c4415fe	0.011968134
11	0xbd515313	-0.051104616
12	0xbc5e1444	-0.013554636
13	0xbd13367f	-0.035940643
14	0x3d8c5e10	0.068538785
15	0x3ce2644c	0.027635716
16	0xbc92cb53	-0.017919218
17	0xbda4aa76	-0.08040325
18	0x3c9c0895	0.019047061
19	0xbd5cb58a	-0.053884067
20	0xbd8eb532	-0.06968154
21	0x3d168e62	0.03675688
22	0x3b776895	0.0037751545
23	0x3cbd6744	0.02312053
24	0x3d918ce6	0.07106952
25	0x3d92873b	0.071546994
26	0x3cf7b6d9	0.030238556
27	0xbb753227	-0.0037413926
28	0xbc79ca9b	-0.015246059
29	0xba4ed446	-0.00078899076
30	0xbc52cedb	-0.012866701
31	0x3c213ccd	0.009841156
32	0xbc532f2d	-0.012889666
33	0x3dac7362	0.08420445
34	0x3d0a8e36	0.03382703
35	0x3d22d2a0	0.03975165
36	0xbd056c81	-0.03257418
37	0x3cdf58f3	0.027264094
38	0x3d0b3681	0.033987526
39	0xbc5fb07c	-0.013652917
40	0x3c49a539	0.012307459
41	0xbd197d84	-0.037473217
42	0x3b84d0e6	0.004053223
43	0x3d5bdc35	0.053676803
44	0xbe00875c	-0.12551636
45	0x3b169192	0.002297495
46	0xbd23d262	-0.03999556
47	0x3d306fc9	0.043075357
48	0xbcb09e72	-0.021559928
49	0x3bccd302	0.00625074
50	0x3d3ef062	0.046615966
51	0x3d051721	0.03249276
52	0xbd3b4549	-0.045720372
53	0xbce8a17d	-0.028397316
54	0xbb1bd468	-0.0023777727
55	0x3d018d80	0.031629086
56	0x3cc93d04	0.024565227
57	0xbc0b2ce2	-0.008494588
58	0xbbfe63b8	-0.0077633522
59	0x3d098b05	0.033579845
60	0xbd0104c2	-0.031498678
61	0x3cbd9c56	0.023145836
62	0x3d9fad35	0.077967085
63	0xbcff7413	-0.031183278
64	0x3db6ed07	0.08931928
65	0xbca9c4ed	-0.020723784
66	0xbd782999	-0.060586546
67	0xbcbe193a	-0.023205388
68	0x3bb1673e	0.0054139188
69	0xbd040b91	-0.032237593
70	0x3c7d7d74	0.015471805
71	0x3d6d1f37	0.057891097
72	0x3d3a8f21	0.045546655
73	0x3d43e24e	0.047823243
74	0xbd4bc4aa	-0.0497481
75	0x3d3f6599	0.04672775
76	0xbbb74934	-0.0055934433
77	0x3b9a8abf	0.004716247
78	0xbda6f307	-0.081518225
79	0x3d64f194	0.05589445
80	0xbd043487	-0.032276656
81	0xbccaa691	-0.024737628
82	0x3b373b5c	0.0027958965
83	0xbcdb126b	-0.02674218
84	0xbcc2dc87	-0.023786796
85	0xbce267af	-0.02763733
86	0x3dbc86d7	0.09205406
87	0xbc5155d7	-0.0127768135
88	0xbcc5444a	-0.024080414
89	0x3c3097cd	0.01077838
90	0xbc24d3b8	-0.010060243
91	0xbc3584cb	-0.011079024
92	0x3a4ebd8e	0.0007886522
93	0xbc8ff149	-0.017571108
94	0x3c60257e	0.013680814
95	0x3cad3c04	0.021146782
96	0xbd0ec488	-0.034855396
97	0x3d523796	0.051322542
98	0xbcc0a6d1	-0.023517044
99	0x3b180e98	0.0023202058
100	0x3c529a65	0.012854193
101	0xbb5deab4	-0.0033861818
102	0xbd2243d7	-0.03961548
103	0x3b8d556e	0.0043131625
104	0xbcb5a8d3	-0.022175228
105	0xbd701dd8	-0.05862221
106	0xbd839082	-0.06424047
107	0xbc07f695	-0.008298536
108	0xbc614e48	-0.013751574
109	0x3d437398	0.04771766
110	0x3d1ed959	0.038781498
111	0xbcb7d6ee	-0.022441354
112	0xbc57c300	-0.01316905
113	0x3c8e1f60	0.017348945
114	0xbc09965b	-0.008397664
115	0x3de39515	0.111124195
116	0x3d26dcdc	0.04073797
117	0x3dcca6d0	0.099927545
118	0xbd1eef4a	-0.038802423
119	0xbc9935db	-0.018702438
120	0x3d812bb5	0.063071646
121	0x3caaaf4b	0.02083554
122	0x3d94a9d8	0.072589576
123	0xbd7471d9	-0.059678886
124	0x3c81c8b8	0.01584278
125	0x3b31f5b1	0.00271545
126	0x3c90862a	0.0176421
127	0x3c82c933	0.01596508
128	0xbd9ca216	-0.07648103
129	0x3c05cf5d	0.008167115
130	0x3ca64dbc	0.020300739
131	0x3aa42dae	0.0012525821
132	0xbc481c4f	-0.012213781
133	0xbd34f785	-0.044181366
134	0xbd98e162	-0.07464863
135	0xbcb0a0e9	-0.021561103
136	0x3b93bfd4	0.0045089517
137	0x3c903e7c	0.01760792
138	0x3ce92651	0.028460653
139	0x3c1ec254	0.009689886
140	0x3d16f8ca	0.036858357
141	0x3d83137a	0.06400199
142	0x3d942a84	0.07234672
143	0xbc120734	-0.00891285
144	0xbd46a7f4	-0.048500016
145	0x3b53b938	0.0032306444
146	0x3cd499db	0.02595227
147	0x3c089617	0.008336565
148	0xbc363334	-0.011120606
149	0xbade31d7	-0.0016952109
150	0xbc0b69b4	-0.008509088
151	0xbce79c06	-0.02827264
152	0xbd4e9e14	-0.050443724
153	0x3c761773	0.015020239
154	0x3d2a3cfe	0.041562073
155	0xbce0c738	-0.027438745
156	0xbb3e399c	-0.0029026037
157	0x3c7ac8fd	0.015306708
158	0xbd233973	-0.03984971
159	0x3ca9a286	0.02070738
160	0x3c91763c	0.017756574
161	0x3ccc446e	0.024934974
162	0xbd320216	-0.04345902
163	0xbd2bfc41	-0.041988615
164	0x3c7a7008	0.015285499
165	0xbccc7271	-0.024956914
166	0xbb4d4250	-0.0031320043
167	0xbd84f16d	-0.06491361
168	0x3cde49c4	0.027134784
169	0xbbf70b46	-0.0075391857
170	0x3bac3416	0.0052552326
171	0xbd1ebd91	-0.038755003
172	0xbd90b094	-0.070649296
173	0x3cd6eba9	0.026235418
174	0x3d5937dd	0.05303179
175	0x3c3ce92c	0.011530202
176	0xbc09fe4b	-0.008422445
177	0x3c87d821	0.01658255
178	0xbd048b70	-0.03235954
179	0xbcd9c5ac	-0.026583515
180	0xbd2c8faa	-0.042129196
181	0xbd5511ec	-0.052019045
182	0x3d1b22ae	0.03787487
183	0xbd231c23	-0.039821755
184	0xbd531da9	-0.051541958
185	0x3cae4958	0.021275207
186	0x3cd0a209	0.02546789
187	0xbd56f81b	-0.052482706
188	0xbd325584	-0.043538585
189	0x3d88350d	0.06650744
190	0xbbbe4322	-0.0058063427
191	0xb9be698b	-0.0003631826
192	0xbd430f0b	-0.047621768
193	0xbde6a403	-0.112617515
194	0x3d37e429	0.044895325
195	0x3d1de657	0.038549747
196	0x3aa2450e	0.0012380199
197	0x3c36c41c	0.011155155
198	0xbc26ae5f	-0.010173409
199	0x3ccd4c40	0.025060773
200	0x3d91fcfc	0.07128331
201	0xbd6cde77	-0.057829347
202	0x3cc629a4	0.024189778
203	0xbd8272ab	-0.063695274
204	0x3d060876	0.032722913
205	0xbd845451	-0.064613946
206	0x3d1c2e4e	0.038130097
207	0x3b494f57	0.0030717456
208	0xbcdb6a3e	-0.026784059
209	0xbd14f82c	-0.036369488
210	0x3d92edb1	0.07174242
211	0xbd140cae	-0.036144905
212	0xbdacf85a	-0.08445807
213	0x3d5f6631	0.054540817
214	0x3d0d5a3a	0.034509875
215	0xbd514e28	-0.051099926
216	0x3bc57618	0.0060260408
217	0x3c7af6a3	0.015317592
218	0xbd1751c7	-0.036943223
219	0x3abb13be	0.0014272851
220	0xbd289ea4	-0.041166916
221	0x3c36d144	0.011158291
222	0xbd2a6d05	-0.041607875
223	0x3c8a2159	0.016861605
224	0x3aac133a	0.0013128289
225	0xbaf68db0	-0.0018810537
226	0x3dfe83cd	0.12427483
227	0xbd4de51b	-0.05026732
228	0xbd71a327	-0.058993485
229	0xbc53424d	-0.012894225
230	0xbdc99962	-0.098437086
231	0x3c0c10bf	0.008548914
232	0xbdb9eb07	-0.09078031
233	0xbd8c586b	-0.06852802
234	0xbc26c8a6	-0.010179674
235	0xbc749c02	-0.014929773
236	0x3d0fbd10	0.035092413
237	0x3ccf9ec2	0.025344256
238	0x3c4d40a3	0.012527618
239	0xbd123e5e	-0.03570401
240	0x3d403afa	0.046931244
241	0xbc014812	-0.007890718
242	0xbc8efab0	-0.017453521
243	0xbd43cb0a	-0.047801055
244	0xbd66e36a	-0.056369223
245	0x38be7bb3	9.082947e-05
246	0xbd8c5aec	-0.068532795
247	0xbd9af24c	-0.07565746
248	0x3d1fe82d	0.03903978
249	0xbd95315a	-0.07284804
250	0xbc9ee307	-0.019395364
251	0x3d9681f1	0.07349003
252	0x3c60b412	0.013714807
253	0xbc16d595	-0.009206195
254	0xbd503f4b	-0.05084161
255	0xbd4d8186	-0.05017235

module.net_sm.layer2.0.bn1.weight f4 [32]
0	0x3f0e977a	0.55699885
1	0x3f3aba2a	0.72940314
2	0x3f17c362	0.59282506
3	0x3f262bc4	0.6491053
4	0x3f26ded8	0.6518378
5	0x3f21c74f	0.63194746
6	0x3f32d7a9	0.6986032
7	0x3f22a01e	0.6352557
8	0x3f3f7e65	0.7480224
9	0x3f177912	0.59169114
10	0x3f3c6485	0.7359088
11	0x3f3b32e9	0.7312456
12	0x3f2d1ba3	0.67620295
13	0x3f60b05a	0.8776909
14	0x3f282491	0.65680796
15	0x3f06ed6d	0.52706033
16	0x3f3daf53	0.7409565
17	0x3f191ee7	0.5981278
18	0x3f0fbcc3	0.561474
19	0x3f209eb6	0.62742174
20	0x3f1b39d3	0.6063511
21	0x3eec92a4	0.46205628
22	0x3f38e9db	0.72231835
23	0x3f3900ef	0.7226705
24	0x3f326f0a	0.6970068
25	0x3f24d34c	0.64384913
26	0x3f21a026	0.6313499
27	0x3f413000	0.7546387
28	0x3f3d0ab7	0.73844475
29	0x3f2fd65e	0.68686473
30	0x3f32e4c7	0.69880337
31	0x3f3d1fc3	0.7387659

module.net_sm.layer2.0.bn1.bias f4 [32]
0	0xbdbab612	-0.091167584
1	0x3cbf2956	0.02333514
2	0xbc2d9186	-0.0105937775
3	0x3d02e764	0.031958953
4	0x3c7a501d	0.01527789
5	0x3d861cfa	0.065484956
6	0x3d43f348	0.047839433
7	0x38b4210f	8.5892265e-05
8	0x3d0adeff	0.033904072
9	0xbd1685fa	-0.036748864
10	0x3d621d74	0.05520387
11	0x3d296ffa	0.041366555
12	0xbccb3d46	-0.02480949
13	0xbd8d72a5	-0.06906632
14	0xbca5e6d8	-0.020251676
15	0xbdb50167	-0.08838158
16	0x3d464d29	0.04841343
17	0xbcb1a10c	-0.021683238
18	0x3cbebc46	0.023283135
19	0xbd80d97d	-0.062914826
20	0xbc19e8e9	-0.009393909
21	0xbcff1fe7	-0.031143142
22	0xbc9bd6b6	-0.01902328
23	0x3d3ff49b	0.046864133
24	0xbd0854d0	-0.03328401
25	0x3d16389d	0.036675084
26	0xbd2b0de5	-0.041761298
27	0x3d9bd67d	0.0760927
28	0x3d47c9bf	0.048776384
29	0xbc2408cf	-0.010011866
30	0x3b464493	0.0030253276
31	0x3dafcdc6	0.0858417

module.net_sm.layer2.0.bn1.running_mean f4 [32]
0	0xbf954dc9	-1.1664363
1	0x4004b7e2	2.0737233
2	0x3fbd43c1	1.4786302
3	0xbf721069	-0.9455629
4	0xbf8489a7	-1.0354508
5	0x3fc1d661	1.5143548
6	0xc001a2a4	-2.0255518
7	0xbfd4a86a	-1.6613896
8	0xc07f61db	-3.9903476
9	0x402ce711	2.7016032
10	0xbf85c6b2	-1.0451262
11	0xc053ef35	-3.311475
12	0x403d6314	2.9591722
13	0x3ec00aee	0.3750834
14	0x404a3e52	3.1600537
15	0x3fc22085	1.5166174
16	0x3f6b5122	0.91920674
17	0xbf938644	-1.152535
18	0xbfbbe6be	-1.4679792
19	0x3f7a8a7b	0.97867554
20	0x40636657	3.5531213
21	0xbf408dcf	-0.7521638
22	0x3fa69183	1.3013157
23	0xc00164aa	-2.021769
24	0x40120226	2.2813811
25	0xbfdbcc16	-1.7171657
26	0x3fef1717	1.8678921
27	0xc021c39e	-2.5275645
28	0xc00fb306	-2.2453017
29	0x3f9f4c3d	1.2445141
30	0xc05d14dc	-3.4543982
31	0xbe3d8f46	-0.18511686

module.net_sm.layer2.0.bn1.running_var f4 [32]
0	0x400c3c37	2.1911752
1	0x4095f8a8	4.6866035
2	0x3ffde787	1.9836282
3	0x404ac305	3.168153
4	0x40652beb	3.5808055
5	0x407e60e5	3.974664
6	0x40ba10d4	5.814554
7	0x40660440	3.5940094
8	0x414e8c25	12.909215
9	0x40d7f550	6.7486954
10	0x40972c30	4.724144
11	0x410ec1da	8.922327
12	0x4094d935	4.6515145
13	0x40877654	4.2331944
14	0x40a3d4c2	5.1197214
15	0x40912134	4.535303
16	0x40478384	3.117402
17	0x408b0422	4.3442545
18	0x403aa9ba	2.9166093
19	0x406ed4c6	3.7317367
20	0x40fa4d65	7.8219476
21	0x401266b4	2.2875185
22	0x40577ec2	3.3671117
23	0x407b41af	3.925884
24	0x40c73e2c	6.2263393
25	0x40937989	4.608586
26	0x4013cc1a	2.3093324
27	0x40b4cef8	5.6502647
28	0x40a5dfba	5.1835604
29	0x4027c18c	2.6211882
30	0x40e5017c	7.156431
31	0x40982738	4.7547874

module.net_sm.layer2.0.conv2.weight f4 [32, 32, 3, 3, 3]
0	0x3c3368f2	0.010950314
1	0xbdb063cf	-0.08612787
2	0x3c6e9e92	0.014564173
3	0xbd7bc402	-0.061466224
4	0x3c040b1f	0.008059292
5	0x3c9c0b84	0.01904846
6	0xbb9184f8	-0.0044409
7	0xbabb13bc	-0.0014272849
8	0x3d255f56	0.040374123
9	0x3b3be335	0.0028669361
10	0x3dc7582d	0.09733615
11	0xbd20ebfc	-0.039287552
12	0xbdcc7339	-0.099829145
13	0x3d12e353	0.035861325
14	0x3da43498	0.08017844
15	0xbd33f134	-0.0439312
16	0xbd816f85	-0.06320099
17	0x3d99995f	0.07499956
18	0x3b922d61	0.004460976
19	0x3c40ab60	0.011759609
20	0x3d88f3cd	0.06687126
21	0x3d2d7ccc	0.042355344
22	0x3d7cc6a1	0.061712865
23	0x3cb8bbf0	0.022550553
24	0x3d51f608	0.051260024
25	0x3d6cab2a	0.057780422
26	0xbb967746	-0.004591855
27	0xbd3c2216	-0.045930944
28	0x3d8d80cd	0.069093324
29	0x3e16ae6d	0.14714976
30	0xbd004d55	-0.03132375
31	0x3d100d50	0.035168946
32	0x3e39c008	0.1813966
33	0xbb5d3b46	-0.0033757254
34	0x3dd4a81d	0.103836276
35	0xbd964385	-0.07337097
36	0x3ca79e52	0.020461235
37	0x3d0b8b81	0.03406859
38	0x3e042046	0.12902936
39	0x3b8b1f2c	0.0042456593
40	0xbcb9aac8	-0.022664443
41	0x3d6283c9	0.05530146
42	0xbd8c3621	-0.06846262
43	0x3d8a3d74	0.067500025
44	0x3dd51aed	0.10405526
45	0xbdad2b3a	-0.084555104
46	0xbd01ab1d	-0.031657327
47	0x3b97e242	0.0046351263
48	0x3ccf85a0	0.025332272
49	0x3e142761	0.14468147
50	0x3db6d1c2	0.08926727
51	0x3d3436a6	0.04399743
52	0x3ac00e65	0.0014652727
53	0xbcc46d5a	-0.023977924
54	0x3c0ba05c	0.008522119
55	0x3bc59ffd	0.006031035
56	0x3c5365a4	0.012902651
57	0xbd204778	-0.039130658
58	0x3b7b556c	0.0038350476
59	0xbc1f4b13	-0.009722489
60	0xbd077206	-0.033067726
61	0xbd3d0312	-0.046145506
62	0xbcdc30c1	-0.026878716
63	0xbc16c625	-0.009202515
64	0x3c9b578e	0.018962648
65	0xbd5fb6df	-0.05461776
66	0x3bca9996	0.0061828597
67	0xbdb4f6f8	-0.08836168
68	0xbd4fe025	-0.05075087
69	0x38c023a4	9.161912e-05
70	0x3dacc689	0.08436305
71	0x3b49bf5b	0.0030784223
72	0x3c518dcc	0.012790155
73	0x3d6fecbc	0.058575377
74	0x3d66b454	0.056324318
75	0x3b36b8fb	0.0027881253
76	0x3cb40ff4	0.021980263
77	0x3c51a0dd	0.0127947
78	0xbd4d038b	-0.050052207
79	0xbaad298c	-0.0013211234
80	0x3d8492e3	0.06473329
81	0xbd0b9a39	-0.034082625
82	0xbd0160e5	-0.031586546
83	0x3c9ccc92	0.019140515
84	0x3d6a60e2	0.0572213
85	0x3d654ae0	0.05597961
86	0xbd8a7885	-0.067612685
87	0xbcc08fb6	-0.023506027
88	0x3cc64ca2	0.024206463
89	0xbd30dc11	-0.04317862
90	0x3b8f385d	0.0043707327
91	0xbd139d33	-0.03603859
92	0xba5a0f3c	-0.000831831
93	0xbd253e3f	-0.040342566
94	0x3cf737c7	0.030177964
95	0x3d173b7c	0.036921963
96	0x3d11b0ce	0.035569005
97	0xbdc5f5b0	-0.09666002
98	0x3be66e2c	0.0070321765
99	0x3c493913	0.012281674
100	0xbd1d7ae2	-0.03844727
101	0x3d84ff3c	0.064939946
102	0xbcf0a51a	-0.029375602
103	0x3d746b76	0.059672795
104	0xbd5eb9d0	-0.054376423
105	0x3d0870fe	0.033310883
106	0x3c72b3fe	0.014813421
107	0x3cc2979e	0.023753937
108	0xbda950da	-0.08267374
109	0x3d8fb024	0.07016018
110	0x3d8180b4	0.06323376
111	0x3e2c13a7	0.16804372
112	0xbcfd5adf	-0.03092712
113	0x3d379d5c	0.044827804
114	0xbd12b486	-0.03581669
115	0xbd4d2cb8	-0.050091475
116	0xbd0617e2	-0.03273762
117	0x3c8dead9	0.017323898
118	0x3ce1c194	0.027558126
119	0x3cf537af	0.029933779
120	0xbc1eafc6	-0.009685462
121	0xbd80eef9	-0.062955804
122	0xbd47eca4	-0.048809662
123	0x3d2fb04b	0.042892735
124	0x3b9b5cdf	0.0047412957
125	0x3c8bfb54	0.017087616
126	0xbddc78f1	-0.10765255
127	0x3e00acd5	0.1256593
128	0x3cfcd631	0.030863853
129	0x3c68b1dd	0.014202562
130	0xbce3997c	-0.027783148
131	0x3d330bf0	0.043712556
132	0xbdbce0e2	-0.092225805
133	0x3cd3eed4	0.025870718
134	0xbce658e0	-0.02811855
135	0xbd7d17fd	-0.061790455
136	0x3c5b64ce	0.013390733
137	0x3ca3f81c	0.020015769
138	0x3b82ca9d	0.0039914385
139	0x3d6b3d3a	0.057431437
140	0x3dbac211	0.091190465
141	0xbbfdf4e6	-0.0077501414
142	0xbd3d4360	-0.046206832
143	0x3db0252c	0.0860084
144	0x3ddefd22	0.10888125
145	0xbd42c758	-0.04755339
146	0x3d845983	0.064623855
147	0x3c1ec040	0.009689391
148	0x3d9ad359	0.075598426
149	0x3d970946	0.07374816
150	0xbbf1bac0	-0.0073769987
151	0xbd0a3619	-0.033742998
152	0x3ddf238f	0.10895454
153	0xbd9ff984	-0.07811263
154	0xbde1731c	-0.110082835
155	0xbd0c5e08	-0.034269363
156	0x3c4d8387	0.012543566
157	0x3cf6cd3d	0.030127162
158	0x3d11b559	0.035573337
159	0xbd682ca6	-0.056683205
160	0xbd87651d	-0.06611083
161	0x3c2a91d6	0.010410747
162	0x3c4d4b3c	0.012530144
163	0xbd7f372e	-0.062308483
164	0x3d0f21a2	0.034944184
165	0xbbd725d4	-0.0065657888
166	0x3ca12edf	0.01967567
167	0xbca51132	-0.0201498
168	0xbbe09f76	-0.0068549467
169	0xbd96eb39	-0.07369084
170	0x3b7225d6	0.0036948822
171	0x3b4aed73	0.0030964285
172	0xbca51e31	-0.020155998
173	0x3c2a70d1	0.010402874
174	0x3d198fc9	0.03749064
175	0xbce74a94	-0.028233804
176	0x3bc23835	0.0059271106
177	0x3d474fc9	0.048660073
178	0x3d0976cf	0.03356057
179	0xbd8e7336	-0.069555685
180	0x3d03e567	0.032201197
181	0x3a673b81	0.00088208175
182	0xbdf855f2	-0.12125768
183	0xbd93b995	-0.07213131
184	0xbcccf428	-0.025018767
185	0xbd915ea4	-0.070981294
186	0xbd1bab44	-0.03800513
187	0x3daf16af	0.085492484
188	0x3b96034b	0.0045780293
189	0xbe0587bc	-0.1304006
190	0x3b96aebc	0.0045984667
191	0xbd797992	-0.060906954
192	0x3c1ce9d2	0.0095772315
193	0x3d43d0b3	0.047806453
194	0x3ba05df7	0.004894014
195	0x3d6bd62a	0.05757729
196	0x3dba516a	0.0909756
197	0x3d71faf3	0.059077214
198	0xbd24d6ee	-0.040244035
199	0x3e08cc20	0.13359118
200	0xbd4c27d5	-0.049842674
201	0x3cfa91a8	0.030587032
202	0x3cbba88b	0.022907516
203	0xbccc5994	-0.024945058
204	0x3caefd0f	0.021360902
205	0xbd5f881d	-0.054573167
206	0xbc64243f	-0.013924657
207	0xbda16248	-0.07880074
208	0x3dad830c	0.08472261
209	0x3d87080b	0.06593331
210	0xbd1bd811	-0.038047854
211	0x3d44f1a7	0.04808202
212	0xbcbd6cb4	-0.023123123
213	0x3d0c9417	0.034320917
214	0xbd7b7892	-0.06139428
215	0x3dc756d9	0.09733362
216	0xbdc6390f	-0.09678852
217	0xbd326004	-0.0435486
218	0x3bf98b7a	0.007615504
219	0xbce5a1a3	-0.028031176
220	0x3c7844fb	0.015153165
221	0xbdaab0d5	-0.08334509
222	0x3d260869	0.040535364
223	0xbd2ecb27	-0.04267421
224	0x3cae2b3f	0.021260856
225	0x3dadafd8	0.08480805
226	0xbdb2e936	-0.08735888
227	0x3d1ebdae	0.03875511
228	0x3d02a0b9	0.03189156
229	0xbc47527d	-0.012165663
230	0x3cadd785	0.021220932
231	0x3c728e18	0.014804386
232	0xbc4ec136	-0.012619307
233	0xbdb9e815	-0.09077469
234	0x3d025877	0.031822648
235	0x3da74295	0.081669964
236	0x3d444510	0.047917426
237	0xbd5a21ec	-0.053255007
238	0xbc12a716	-0.008950969
239	0x3cd1ebf8	0.025625214
240	0x3d907b0b	0.070547186
241	0xbdab1017	-0.08352678
242	0x3bafef01	0.0053690677
243	0x3d31367c	0.04326485
244	0xbd6ca655	-0.057775814
245	0x3d83f869	0.06443865
246	0x3da4710f	0.08029377
247	0xbd50f042	-0.051010378
248	0x3e056a1b	0.13028757
249	0x3ca5a76a	0.02022143
250	0xbb359f46	-0.0027713343
251	0xbdcb30fc	-0.099214524
252	0xbd7335e2	-0.05937756
253	0x3a66a233	0.0008797973
254	0x3ca6049b	0.020265868
255	0x3ce1e0aa	0.027572948

module.net_sm.layer2.0.bn2.weight f4 [32]
0	0x3f0009ec	0.5001514
1	0x3f309149	0.6897169
2	0x3f4b51d5	0.7942174
3	0x3f36e729	0.7144647
4	0x3f28855f	0.6582851
5	0x3f390355	0.7227071
6	0x3f242eda	0.6413399
7	0x3f30b97b	0.6903302
8	0x3f1aa5e2	0.6040937
9	0x3f2ca9ec	0.6744678
10	0x3f19b067	0.60034794
11	0x3f270e14	0.65255857
12	0x3f46eb8d	0.7770317
13	0x3f28063c	0.6563451
14	0x3f346422	0.7046529
15	0x3f3158cf	0.69276136
16	0x3f233333	0.6375
17	0x3f2030ee	0.6257466
18	0x3f11e61a	0.5699173
19	0x3f3e372b	0.7430293
20	0x3f2cb935	0.67470104
21	0x3f1b877e	0.6075362
22	0x3f2064ec	0.62653995
23	0x3f461b80	0.7738571
24	0x3f395b74	0.7240517
25	0x3f0f2259	0.55911785
26	0x3f21c154	0.6318562
27	0x3f488d87	0.78340954
28	0x3f38cd89	0.7218862
29	0x3f354d89	0.70821434
30	0x3f24ce48	0.6437726
31	0x3f29ab26	0.66276777

module.net_sm.layer2.0.bn2.bias f4 [32]
0	0xbea4bc8b	-0.32175097
1	0x3e24d18e	0.16095564
2	0xbc2783d5	-0.010224302
3	0xbe1519fd	-0.14560695
4	0xbd89afc5	-0.067229785
5	0x3db2e680	0.08735371
6	0xbd6f97be	-0.058494322
7	0x3da99de0	0.082820654
8	0xbd368496	-0.044560038
9	0xbda1697e	-0.07881449
10	0xbdbe6d4d	-0.09298191
11	0xbdd5b430	-0.10434759
12	0x3e16d1e1	0.147285
13	0x3d830ee9	0.06399328
14	0x3d99dcac	0.07512793
15	0x3d13713b	0.035996657
16	0x3d961f04	0.073301345
17	0x3cbb6dbf	0.02287948
18	0x3ba90756	0.005158345
19	0x3e8d8ef2	0.2764812
20	0x3d14da02	0.03634072
21	0xbc9116de	-0.0177111
22	0xbca3f2ab	-0.020013174
23	0xbe20f072	-0.15716723
24	0x3cafdb2f	0.02146682
25	0xbb387136	-0.002814365
26	0x3df7d588	0.12101275
27	0xbd5c7fb0	-0.05383271
28	0x3d04e835	0.032448012
29	0xbbc7564b	-0.006083285
30	0x3df6a94e	0.12044011
31	0xbceb6817	-0.028736157

module.net_sm.layer2.0.bn2.running_mean f4 [32]
0	0x3fabef2f	1.3432368
1	0xbf5ad10c	-0.8547523
2	0x3f9d7322	1.2300761
3	0xbfd23f46	-1.642556
4	0xbf63e3c4	-0.8901942
5	0xbf835fbf	-1.0263594
6	0xbfb0938a	-1.3795025
7	0xbf8d5646	-1.1041954
8	0x3dc344dc	0.09534618
9	0x3f449e99	0.768045
10	0xbed57a2b	-0.4169477
11	0x3ef8b4b0	0.48575354
12	0xbf933daf	-1.1503199
13	0xbf73bf6d	-0.9521397
14	0xbf68dff3	-0.9096672
15	0x3f3a6884	0.7281573
16	0xbfe9eae5	-1.8274809
17	0xbf65debe	-0.89793
18	0xbf34e795	-0.70665866
19	0xbff510da	-1.9145768
20	0xbf5509fd	-0.83218366
21	0xbee0fa86	-0.43941134
22	0xbfa14815	-1.2600123
23	0xbe94fea5	-0.29100528
24	0x3f90dbc5	1.1317068
25	0xbf5bfa07	-0.85928386
26	0xbf3605f2	-0.7110282
27	0x3eccc0a9	0.39990738
28	0xbe0efbd3	-0.13963251
29	0xbf98f43c	-1.1949534
30	0xbfa5d3c4	-1.2955251
31	0xbf5ce407	-0.8628544
