model/model_20200907110637/model_final_bcp_1_0300_ts.pth (torch_old, 131256 bytes, 59 tensors)

module.net_ts.conv1.weight f4 [32, 1, 7]
0	0xbe99ef7d	-0.30065528
1	0xbe7f8091	-0.24951388
2	0xbef90702	-0.4863816
3	0x3dee12dd	0.11624692
4	0x3e9722f6	0.2951886
5	0x3f1455f4	0.57943654
6	0x3e8b3b84	0.27193844
7	0xbee5efeb	-0.44909605
8	0x3f0b9c75	0.5453561
9	0x3d2bda54	0.04195626
10	0xbf03ed22	-0.5153371
11	0xbe7aecaf	-0.2450435
12	0xbeaeb6ff	-0.3412399
13	0x3eb1a131	0.34693292
14	0x3e7a21ad	0.24426909
15	0xbee1b8bd	-0.44086257
16	0x3f2d6c60	0.6774349
17	0xbf374fad	-0.7160595
18	0x3ef2d456	0.47427624
19	0x3d5d9056	0.054092728
20	0xbe2d69f2	-0.16934946
21	0xbe58246f	-0.21107648
22	0x3f274712	0.6534282
23	0x3e13bb3c	0.14426893
24	0xbf504bb2	-0.813655
25	0x3f16d386	0.5891651
26	0x3dccb4b9	0.099954076
27	0xbe28b764	-0.16476208
28	0xbf058df1	-0.5216971
29	0x3f26c144	0.6513865
30	0x3e41c799	0.18923797
31	0x3ece824e	0.4033379
32	0xbef68dff	-0.4815521
33	0xbe56f219	-0.2099079
34	0xbeb3d667	-0.35124514
35	0xbdc906af	-0.09815728
36	0xbec22b25	-0.37923542
37	0xbe58ce6d	-0.21172495
38	0x3ddc578b	0.10758885
39	0xbddd361f	-0.108013384
40	0x3eae2558	0.34012866
41	0xbf4ba86c	-0.79553866
42	0x3ed4fdf9	0.41600016
43	0x3ee21684	0.44157803
44	0xbe36174a	-0.17782322
45	0x3e89fa37	0.2694871
46	0x3f3d73bc	0.7400472
47	0xbecf2a4d	-0.4046196
48	0x3d50fb85	0.051021118
49	0xbe763218	-0.24042547
50	0x3ea6ffa9	0.32616928
51	0x3e0b9feb	0.13635223
52	0xbebcf8ef	-0.3690867
53	0xbe4d8c19	-0.20072974
54	0xbf12d25d	-0.5735224
55	0x3e6904f3	0.22755794
56	0xbf11d922	-0.56971943
57	0x3ec94565	0.39310756
58	0x3e04af37	0.12957464
59	0x3d191078	0.03736922
60	0x3e6d2f53	0.23162584
61	0xbf6a55ce	-0.9153718
62	0x3f1fb8bf	0.62391275
63	0x3e4fe73e	0.20303056
64	0x3e4b6c92	0.19865635
65	0x3ee1080a	0.43951446
66	0x3efb0c92	0.49033028
67	0x3e304be3	0.17216448
68	0xbcf2e574	-0.029650427
69	0xbda5a683	-0.080884
70	0x3ca1209d	0.019668872
71	0xbe1b9751	-0.15194441
72	0x3f33d6fb	0.7024991
73	0xbf15dc75	-0.58539516
74	0xbe007271	-0.12543656
75	0x3f3045d1	0.6885653
76	0xbe987d6c	-0.2978319
77	0xbea25525	-0.31705585
78	0xbe3ba85e	-0.18325946
79	0x3f633264	0.88748765
80	0xbe87d62e	-0.26530594
81	0xbe9edcdf	-0.31027886
82	0xbeed8546	-0.46390742
83	0x3e7d93df	0.2476344
84	0x3e0ed1cc	0.13947219
85	0x3f028498	0.5098357
86	0xbf500890	-0.81263065
87	0xbcbd5b07	-0.023114694
88	0x3e33b1fe	0.17548367
89	0x3eb2aef3	0.348991
90	0xbee09505	-0.43863693
91	0xbf074c4b	-0.5285079
92	0x3de64acb	0.112447344
93	0xbe68b3b5	-0.22724803
94	0xbed68164	-0.41895592
95	0x3ce5c53e	0.028048154
96	0xbee3b72c	-0.44475687
97	0x3e802ae8	0.25032735
98	0xbefd9838	-0.49530196
99	0xbe10628b	-0.14100091
100	0x3e91d6a0	0.28484058
101	0xbf44b1dc	-0.7683389
102	0xbe6bd247	-0.23029433
103	0xbdbcfca4	-0.09227875
104	0xbe9b31df	-0.30311486
105	0x3e4ee271	0.20203568
106	0xbeb78781	-0.3584557
107	0x3e20c4e8	0.15700114
108	0xbf14b89f	-0.5809421
109	0xbde8a3c2	-0.11359359
110	0xbf22f84a	-0.6366011
111	0x3f008007	0.50195354
112	0xbeb294f9	-0.34879282
113	0xbeee9b9b	-0.46603093
114	0x3f0879b1	0.53310686
115	0x3e8970d8	0.26843905
116	0xbd1dc9cb	-0.038522523
117	0xbed1453b	-0.4087313
118	0xbe9e7fe0	-0.30956936
119	0xbf5279ef	-0.82217306
120	0x3f36aa64	0.71353745
121	0xbde04b98	-0.10951918
122	0xbe1b5928	-0.15170729
123	0xbd369f80	-0.044585705
124	0xbdecabf3	-0.11556234
125	0x3ef68355	0.48147073
126	0x3b80d045	0.0039310777
127	0x3f388d33	0.7209045
128	0x3dcb054c	0.0991312
129	0x3d26500f	0.040603694
130	0x3f1f9e35	0.6235078
131	0xbe597a0f	-0.21237968
132	0x3db99673	0.09061899
133	0xbdb0918d	-0.086215116
134	0x3f253aa4	0.64542603
135	0xbeb1e43b	-0.3474444
136	0x3eb12e28	0.34605527
137	0xbe9890ac	-0.29797876
138	0x3f092340	0.5356941
139	0x3e87fd28	0.2656033
140	0x3c9fe9c8	0.019520655
141	0xbe5dcd56	-0.2166036
142	0xbd009daf	-0.03140038
143	0xbed32a17	-0.4124305
144	0xbf128f28	-0.5724969
145	0x3e3fa816	0.18716463
146	0xbbf68211	-0.0075228293
147	0xbf2b5f56	-0.66942346
148	0x3efa68d1	0.48908094
149	0x3d96dbc8	0.07366139
150	0x3c909d90	0.017653257
151	0x3e464127	0.19360791
152	0x3eb51660	0.35368633
153	0x3c003b13	0.007826584
154	0x3e3b8566	0.18312606
155	0xbdd9ed37	-0.10640948
156	0xbf31e804	-0.6949465
157	0xbe27e3f8	-0.16395557
158	0x3e5d6f1c	0.21624416
159	0x3e7a633f	0.24451922
160	0xbe117003	-0.14202885
161	0xbd97511f	-0.073885195
162	0x3ec9f49b	0.39444432
163	0x3ea7833e	0.32717317
164	0x3eb391b6	0.35072106
165	0xbe662440	-0.22474766
166	0x3f34e020	0.7065449
167	0xbeac5a2e	-0.33662552
168	0x3e947d27	0.29001734
169	0xbeb17336	-0.3465821
170	0xbe96e8b9	-0.29474428
171	0x3f619209	0.88113457
172	0xbf2914ca	-0.66047347
173	0xbd1c0a9c	-0.038096055
174	0x3e88d563	0.267253
175	0x3e10a3a8	0.1412493
176	0x3dbd945a	0.092568114
177	0xbeac5f72	-0.3366657
178	0x3f142b4e	0.5787858
179	0x3cab301a	0.02089696
180	0x3f03c75b	0.5147607
181	0xbd878da6	-0.06618814
182	0x3ed65193	0.4185911
183	0x3efc53cf	0.4928269
184	0x3e87444a	0.26419288
185	0xbe1fd989	-0.15610327
186	0xbf33c83d	-0.70227414
187	0xbeec3955	-0.4613749
188	0x3e9d8c76	0.30771226
189	0xbdc620f0	-0.09674251
190	0x3ca65415	0.020303765
191	0xbf07b84f	-0.5301561
192	0x3e720387	0.23634158
193	0xbefad1a4	-0.48988068
194	0xbea4e48c	-0.32205617
195	0x3dbff0ab	0.09372076
196	0x3ea5eb29	0.32405975
197	0xbddbaaad	-0.10725913
198	0xbe5d9b48	-0.21641266
199	0x3e4c4b1a	0.19950524
200	0x3d00ac87	0.031414535
201	0x3eba2b58	0.36361194
202	0x3f1f7821	0.6229268
203	0xbd95d19b	-0.0731537
204	0xbd0bd862	-0.034141906
205	0xbefb08f6	-0.49030274
206	0x3e30ccfc	0.17265695
207	0xbf271574	-0.6526711
208	0xbea97372	-0.3309589
209	0x3ed4c2cd	0.4155487
210	0x3ed93cd3	0.42429218
211	0x3ea0a13a	0.31373006
212	0xbe14a19e	-0.14514777
213	0xbeb84713	-0.35991725
214	0xbea3f58c	-0.32023275
215	0xbe4ff683	-0.2030888
216	0xbe4129fe	-0.18863675
217	0x3cab7ec1	0.020934464
218	0xbecb2a18	-0.39680552
219	0x3ee51e19	0.44749525
220	0xbdc94ee9	-0.09829504
221	0x3f2ac445	0.66705734
222	0xbdcbbc14	-0.099479824
223	0x3f290100	0.6601715

module.net_ts.bn1.weight f4 [32]
0	0x3f416a69	0.75552994
1	0x3f2ab513	0.6668255
2	0x3f2a88ba	0.6661488
3	0x3f4f35ef	0.8094167
4	0x3f64978d	0.8929375
5	0x3f4b521e	0.79422176
6	0x3f7185ad	0.943446
7	0x3f0067fc	0.5015867
8	0x3f4cc35e	0.79985607
9	0x3f424f40	0.75902176
10	0x3f5a9484	0.85382867
11	0x3f5dff0c	0.86717296
12	0x3f37ded1	0.71824366
13	0x3f3c1fa0	0.73485756
14	0x3f5b4fd5	0.8566869
15	0x3f52385b	0.8211724
16	0x3f37ca5e	0.7179316
17	0x3f43711d	0.7634447
18	0x3f3c9290	0.73661137
19	0x3f60bf14	0.8779156
20	0x3f20b80e	0.62780845
21	0x3f219db8	0.63131285
22	0x3f16043d	0.5860022
23	0x3f581f05	0.8442233
24	0x3f432468	0.76227427
25	0x3f22afe2	0.63549626
26	0x3f56d8b8	0.83924437
27	0x3f37d68f	0.71811765
28	0x3f4de9fb	0.8043515
29	0x3f52d4d2	0.8235599
30	0x3f20ca8e	0.62809074
31	0x3f5611ad	0.8362072

module.net_ts.bn1.bias f4 [32]
0	0x3d694d69	0.05695859
1	0x3e1a9853	0.1509717
2	0x3e269a3c	0.16269773
3	0x3e0b8fc2	0.13629058
4	0xbdc93134	-0.09823838
5	0xbe01943f	-0.12654208
6	0xbdcfa1bd	-0.10138271
7	0x3dffabc4	0.124839336
8	0x3d987ef6	0.07446091
9	0xbdbfedc7	-0.09371524
10	0x3dd6f531	0.10495985
11	0xbd75c87e	-0.060005657
12	0x3c894494	0.016756333
13	0xbcabb0ce	-0.02095833
14	0xbd2d0f02	-0.04225064
15	0x3cb5ade2	0.02217764
16	0x3d87c605	0.06629566
17	0x3e3af4dd	0.1825747
18	0xbe2d4ac0	-0.16923046
19	0x3d7b9e96	0.061430536
20	0xbe83bb7d	-0.2572898
21	0xbd43bd18	-0.047787756
22	0x3db567eb	0.088577114
23	0xbe418baf	-0.18900941
24	0x3da515e5	0.08060817
25	0x3dd37990	0.103259206
26	0x3e2571d8	0.16156709
27	0x3d6d467a	0.05792854
28	0x3d7aba3b	0.06121276
29	0xbd047576	-0.032338582
30	0x3e1a2231	0.15052105
31	0x3d9533db	0.07285281

module.net_ts.bn1.running_mean f4 [32]
0	0xb9bcbc14	-0.00035998283
1	0x391d044c	0.00014974287
2	0xba62302c	-0.0008628394
3	0xb92936a2	-0.00016137448
4	0x3a8e2372	0.0010844304
5	0x39f7972b	0.0004722414
6	0x38874f4e	6.452073e-05
7	0x393c597b	0.00017962411
8	0x39242bf5	0.00015656634
9	0x388d86df	6.7485256e-05
10	0xba11fe0a	-0.0005569166
11	0xb9831ea3	-0.00025009093
12	0x3a119c5e	0.00055546116
13	0x390297bc	0.00012454292
14	0x387428c7	5.821211e-05
15	0xba140c8d	-0.0005647622
16	0x39837471	0.00025073023
17	0x398b2544	0.0002653991
18	0x3899ba8c	7.3303556e-05
19	0x3986b9f1	0.0002569701
20	0xb8d218ac	-0.00010018176
21	0x3941793a	0.00018451075
22	0xb77e8ebe	-1.51728145e-05
23	0x398a863c	0.00026421424
24	0x398ed64a	0.00027244008
25	0x39278f48	0.00015979738
26	0x392db664	0.00016566511
27	0x3a151a0b	0.00056877796
28	0xba24f2aa	-0.0006292263
29	0x39ab581a	0.00032681302
30	0x3986f48f	0.00025740682
31	0xba8d8b70	-0.0010799002

module.net_ts.bn1.running_var f4 [32]
0	0x3daee95d	0.08540604
1	0x3d97a8d1	0.07405246
2	0x3da570d7	0.08078163
3	0x3dcb3feb	0.09924301
4	0x3db24094	0.087037235
5	0x3da5211c	0.08062956
6	0x3df48649	0.11939675
7	0x3d6c6e13	0.057722162
8	0x3dcbb226	0.099460885
9	0x3db2b495	0.087258495
10	0x3db50d80	0.088404655
11	0x3db31455	0.087441124
12	0x3da44dcb	0.0802265
13	0x3da5032e	0.08057247
14	0x3e07078b	0.13186471
15	0x3dbde3f4	0.09271994
16	0x3d8f876c	0.070082515
17	0x3db516a3	0.08842208
18	0x3dd744ae	0.105111465
19	0x3dadc279	0.08484358
20	0x3d864dbb	0.06557795
21	0x3d853174	0.06503573
22	0x3d537bf8	0.051631898
23	0x3dc6a81e	0.097000346
24	0x3dc62505	0.0967503
25	0x3d82fc94	0.06395832
26	0x3dd65029	0.10464508
27	0x3d8f7696	0.0700504
28	0x3da20b7d	0.079123475
29	0x3db5591f	0.08854889
30	0x3d7afd47	0.0612767
31	0x3de74e6e	0.11294256

module.net_ts.layer1.0.conv1.weight f4 [32, 32, 3]
0	0xbe4f3ca1	-0.20237972
1	0xbb57438a	-0.0032846653
2	0x3eae4f07	0.34044668
3	0xbe31138a	-0.1729261
4	0x3e15eafc	0.1464042
5	0x3d032998	0.03202209
6	0xbe4c96cd	-0.19979401
7	0xbc8ee675	-0.017443875
8	0x3d9b22c3	0.0757499
9	0xbe810a0c	-0.25202978
10	0x3e05d666	0.13070068
11	0xbdf395e6	-0.11893825
12	0xbe86f611	-0.2635961
13	0xbd9835ca	-0.074321344
14	0x3e220351	0.15821578
15	0x3c325083	0.010883453
16	0x3d3b2cad	0.045696903
17	0xbd5224ac	-0.051304504
18	0xbdee15e2	-0.116252676
19	0x3df4d0ed	0.11953912
20	0xbd721435	-0.059101302
21	0xbe2ae881	-0.16690256
22	0x3e2e3f5e	0.1701636
23	0x3ce262f6	0.027635079
24	0xbe7b9d9c	-0.24571842
25	0xbe48db4d	-0.19614907
26	0xbe1f391e	-0.15549132
27	0x3e58d614	0.21175414
28	0x3d3291c6	0.04359605
29	0xbcb845bb	-0.022494188
30	0xbe361ad4	-0.17783672
31	0xbe318064	-0.17334133
32	0xbd9059c6	-0.07048373
33	0xbe8ed059	-0.27893332
34	0x3e27efdd	0.16400094
35	0xbb40fd70	-0.0029447936
36	0x3d951759	0.07279844
37	0x3dc0df0b	0.09417542
38	0x3d81e4f8	0.063425004
39	0xbda67dff	-0.081295006
40	0x3da3f701	0.08006097
41	0x3d16112b	0.036637466
42	0xbe043316	-0.12910113
43	0xbd082d14	-0.033246115
44	0x3dee0286	0.11621575
45	0xbe7a50c5	-0.24444874
46	0xbe88418f	-0.26612517
47	0x3cee2495	0.029070178
48	0xbeb7c7ed	-0.3589472
49	0xbe473348	-0.19453156
50	0x3e80020c	0.25001562
51	0xbd46c784	-0.048530117
52	0x3d89c986	0.06727891
53	0x3cc46c0a	0.023977298
54	0x3c18fb0f	0.009337201
55	0x3dfaede8	0.12252408
56	0xbe6ec168	-0.23315966
57	0x3e1361a8	0.14392722
58	0xbe236965	-0.15958174
59	0xbd873989	-0.06602771
60	0xbd1b2268	-0.03787461
61	0x3e3945f7	0.18093096
62	0x3c194ebc	0.009357151
63	0x3dfe4d23	0.124170564
64	0x3d191c91	0.03738076
65	0xbd5ca975	-0.053872544
66	0xbec887be	-0.39166063
67	0x3e3f771b	0.18697779
68	0x3e023b45	0.12717922
69	0x3d24ea13	0.040262293
70	0x3d295824	0.041343823
71	0xbd41b65a	-0.047293045
72	0x3e786f67	0.24261247
73	0x3cb67a59	0.022275137
74	0xbe91c6a1	-0.28471854
75	0x3dcb2557	0.099192314
76	0xbc730931	-0.014833734
77	0x3c5bb5b0	0.013410017
78	0xbe71d093	-0.23614721
79	0x3e9dad59	0.30796316
80	0x3e8908c7	0.2676451
81	0x3d436a3c	0.047708735
82	0x3e10c990	0.1413939
83	0x3dc0c023	0.09411647
84	0xbdd88a3e	-0.105732426
85	0xbdec22d5	-0.11530081
86	0x3d0559cc	0.03255634
87	0x3e2f4d1b	0.17119257
88	0xbd9807f3	-0.07423391
89	0xbcc80914	-0.024418391
90	0x3e1d3fd4	0.1535638
91	0x3d638726	0.05554881
92	0x3e9cedd3	0.30650195
93	0xbe6c85a3	-0.23097853
94	0xbd8bfc77	-0.06835263
95	0xbe15af64	-0.14617687
96	0xbe862c11	-0.26205495
97	0xbd81dabf	-0.06340551
98	0xbdc2e113	-0.09515586
99	0xbc35f6b5	-0.011106183
100	0x3e3b34ac	0.18281811
101	0xbe0f2806	-0.13980111
102	0xbc81589f	-0.015789328
103	0x3ddc4e99	0.10757179
104	0xbc2334b0	-0.009961292
105	0x3deabadf	0.11461424
106	0xbd8507a5	-0.06495599
107	0xbe4a6ffa	-0.19769278
108	0x3ca0e9bc	0.019642703
109	0xbd945ef8	-0.07244676
110	0xbea6e3a3	-0.32595548
111	0xbe312ea6	-0.17302951
112	0x3b85a67d	0.004078685
113	0xbd9bc656	-0.07606189
114	0x3ecc1e98	0.3986709
115	0x3da51efa	0.08062549
116	0x3ddb10bf	0.106965534
117	0xbe05216a	-0.13001028
118	0xbd5ecd3e	-0.054394953
119	0xbd463b28	-0.04839626
120	0x3d9ad811	0.07560743
121	0xbe3b6e5d	-0.18303819
122	0xbd91ead8	-0.07124871
123	0x3e1e4031	0.15454175
124	0x3e7e4b00	0.24833298
125	0x3e075292	0.13215092
126	0x3da7eeb4	0.08199826
127	0xbea58de6	-0.32334822
128	0xbe385d1e	-0.18004271
129	0x3dd95b0f	0.10613071
130	0xbd2c1454	-0.042011574
131	0xbca758e5	-0.02042813
132	0xbdb70302	-0.089361206
133	0xbd5c9361	-0.05385149
134	0x3e1cbacc	0.15305632
135	0xbd36901c	-0.044571027
136	0x3e25fa90	0.16208863
137	0xbdc67357	-0.09689968
138	0x3e3d2ae6	0.18473396
139	0x3ddf2b2c	0.10896906
140	0xbdd6bef2	-0.10485639
141	0xbda0a269	-0.07843477
142	0x3e9aa87d	0.3020667
143	0x3e4b7582	0.19869044
144	0xbe76dbb9	-0.24107255
145	0x3e0e2759	0.13882197
146	0x3a966030	0.0011472758
147	0x3e716791	0.23574664
148	0xbe11193e	-0.14169785
149	0xbd18890c	-0.037240073
150	0x3eb6727f	0.3563423
151	0x3e777cd9	0.2416872
152	0xbe20a1a3	-0.1568666
153	0x3dfb9284	0.12283805
154	0xbe2126ae	-0.15737411
155	0xbd42186e	-0.04738658
156	0xbd8af9e9	-0.06785948
157	0x3e2b9d91	0.16759326
158	0x3d31b8cb	0.043389123
159	0x3dd2940e	0.102821454
160	0xbe30913d	-0.17242904
161	0xbe0b786c	-0.13620156
162	0xbe1a9762	-0.1509681
163	0x3c594637	0.013261369
164	0xbbccaf41	-0.006246478
165	0x3dddc56f	0.10828673
166	0x3bd1cbd2	0.006402471
167	0xbde6416d	-0.11242948
168	0x3d744b36	0.05964204
169	0xbe59d34c	-0.2127201
170	0x3dd6bb5b	0.10484954
171	0xbaf28bab	-0.0018504759
172	0x3d658f8b	0.056045096
173	0xbc0707c2	-0.008241596
174	0xbed9f3be	-0.42568773
175	0xbe6cae3b	-0.23113339
176	0xbe43ad17	-0.19108997
177	0x3d80e1be	0.06293057
178	0xbe54ec27	-0.2079321
179	0xbc8a68e4	-0.016895719
180	0x3d9d6f8f	0.07687294
181	0xbdc080d0	-0.09399569
182	0xbdb2d3d4	-0.08731809
183	0xbdc9c082	-0.09851171
184	0xbe931a06	-0.28730792
185	0x3e8fd370	0.28091002
186	0xbdcd1b41	-0.10014964
187	0x3d7cd49f	0.06172621
188	0x3d0fd9c5	0.03511979
189	0x3e073198	0.13202512
190	0x3e0f3890	0.1398642
191	0xbe206f7e	-0.15667531
192	0x3d35b49c	0.044361696
193	0xbd84dde3	-0.06487634
194	0xbdb287b2	-0.08717288
195	0x3d88238c	0.06647405
196	0x3e3adbb9	0.1824788
197	0x3d538881	0.051643852
198	0xbe5b8236	-0.2143639
199	0x3d6ed84b	0.05831174
200	0x3dda4c2d	0.106590606
201	0x3de37a36	0.11107294
202	0xbda3021f	-0.07959389
203	0xbea41ab3	-0.3205162
204	0x3ca722a1	0.020402255
205	0x3d628f70	0.055312574
206	0xbe243765	-0.16036756
207	0x3dce48d0	0.10072482
208	0xbda264a8	-0.07929355
209	0x3e0d68bd	0.13809486
210	0xbd2e5747	-0.042563703
211	0x3e905b5b	0.281947
212	0xbe4efd5f	-0.20213841
213	0x3d1e115e	0.03859078
214	0xbc0e460d	-0.008683694
215	0xbcf87d21	-0.030333104
216	0xbe02b46c	-0.12764138
217	0xbe0a464a	-0.13503376
218	0x3e75c863	0.24002223
219	0x3cd96eb2	0.026542041
220	0x3e43869a	0.19094315
221	0xbe57125d	-0.21003099
222	0xbd6a70ad	-0.057236362
223	0x3c30c0ac	0.010788124
224	0x3d5684a4	0.05237259
225	0x3e0dbd8b	0.13841836
226	0xbd9f4d83	-0.07778456
227	0x3e035ba2	0.12827924
228	0x3e1bbfbf	0.15209864
229	0xbdb1950d	-0.08671007
230	0xbd896606	-0.067089126
231	0x3d8ae126	0.06781225
232	0xbe19b3f4	-0.15010053
233	0xbda202b3	-0.07910671
234	0xbd10f8f1	-0.03539366
235	0x3e155e6e	0.14586803
236	0x3dae8993	0.08522334
237	0x3dacc091	0.084351666
238	0x3d7c1b07	0.061549213
239	0x3d856560	0.06513476
240	0xbe1d1b1a	-0.1534237
241	0x3e2dedbc	0.1698522
242	0x3d28f1cf	0.04124623
243	0xbdb546a0	-0.08851361
244	0xbe5ec197	-0.21753536
245	0x3eb0a1e5	0.34498516
246	0xbe3b8b8f	-0.18314956
247	0x3dc67f6d	0.09692273
248	0xbe5cb048	-0.21551621
249	0x3cc912ca	0.024545092
250	0xbd427e7b	-0.047483902
251	0xbe6f8322	-0.23389867
252	0xbd9fa896	-0.07795827
253	0x3e57f652	0.21090057
254	0xbd86206e	-0.06549154
255	0x3e49d30e	0.19709417

module.net_ts.layer1.0.bn1.weight f4 [32]
0	0x3f30d634	0.6907685
1	0x3f38c178	0.7217021
2	0x3efa7d9b	0.48923954
3	0x3f3e8cab	0.7443339
4	0x3f46a7d9	0.77599865
5	0x3f1279f7	0.57217354
6	0x3f296c73	0.66181105
7	0x3f4b2f9c	0.7936952
8	0x3f4e8788	0.80675554
9	0x3f5151db	0.81765527
10	0x3f4710c1	0.7775994
11	0x3f438cee	0.76386917
12	0x3f4e2af3	0.80534285
13	0x3f3dbdd8	0.74117804
14	0x3f41b7d8	0.7567115
15	0x3f02e985	0.5113757
16	0x3f2b5a0e	0.6693429
17	0x3f316c2f	0.693057
18	0x3f55811c	0.8340013
19	0x3f20b7a7	0.6278023
20	0x3f47b9cf	0.78017896
21	0x3f486023	0.78271693
22	0x3f1e142b	0.61749524
23	0x3f47db10	0.7806864
24	0x3f491e02	0.78561413
25	0x3f36d3ad	0.7141674
26	0x3f22ffb7	0.6367144
27	0x3f4acb7a	0.7921673
28	0x3f344aeb	0.70426816
29	0x3f4b345d	0.79376775
30	0x3f22be30	0.63571453
31	0x3f320b1a	0.6954819

module.net_ts.layer1.0.bn1.bias f4 [32]
0	0xbde726f7	-0.11286729
1	0xbe3fc8ca	-0.18728939
2	0xbd5a03c7	-0.05322626
3	0xbd8147f5	-0.06312553
4	0xbe4c86f1	-0.19973351
5	0x3e07216c	0.13196343
6	0xbdc0f2c3	-0.09421303
7	0xbe50404d	-0.20337029
8	0xbea682bb	-0.32521614
9	0xbe1d8060	-0.15381002
10	0xbe2a1576	-0.16609749
11	0xbe31f0bb	-0.17376988
12	0xbe501061	-0.20318748
13	0xbda670fe	-0.0812702
14	0xbdcc9435	-0.09989206
15	0xbc0c478e	-0.008561982
16	0xbd8a830c	-0.067632765
17	0xbe29fce9	-0.16600384
18	0xbdd3030b	-0.10303315
19	0x3d440724	0.047858372
20	0xbc9809e4	-0.018559404
21	0xbddb086a	-0.10694964
22	0x3c292f9f	0.010326295
23	0xbdfcd96f	-0.1234616
24	0xbddae242	-0.106876865
25	0xbe800ca6	-0.2500965
26	0xbdc66591	-0.09687341
27	0xbe6b025a	-0.22950116
28	0xbe469add	-0.19395013
29	0xbeba6772	-0.36407048
30	0xbdf41cc7	-0.11919551
31	0xbe1732a5	-0.14765413

module.net_ts.layer1.0.bn1.running_mean f4 [32]
0	0xbf6f58e1	-0.93494993
1	0xbf984420	-1.189579
2	0xbeb4a22e	-0.35279983
3	0x3f3b6845	0.7320598
4	0xbe750caf	-0.2393062
5	0x401f8dd4	2.4930315
6	0xbf24cea5	-0.64377815
7	0xbfbf7484	-1.4957433
8	0xc0070e7f	-2.1102598
9	0xbf8aeb02	-1.0852969
10	0xbffe5ffa	-1.987304
11	0xbf929077	-1.1450337
12	0xbfb24ab0	-1.3929043
13	0xbfdd031b	-1.7266573
14	0xbf209762	-0.6273099
15	0x3fb003d3	1.3751167
16	0xbf3d1092	-0.7385341
17	0xbfb68dd4	-1.4262033
18	0xbf949886	-1.1609046
19	0xbec12e1c	-0.3773049
20	0xbe715acb	-0.23569791
21	0xbf52bf12	-0.823228
22	0xbfafc2e6	-1.3731353
23	0xbdf485b3	-0.119395636
24	0xbeae16f5	-0.3400189
25	0x3fa9ba21	1.3259927
26	0xbf6141b9	-0.8799091
27	0xbf63a8e4	-0.8892958
28	0xbea09406	-0.31362933
29	0x3e8c06a9	0.2734883
30	0x3faf5ad1	1.369959
31	0x3f57fd34	0.8437073

module.net_ts.layer1.0.bn1.running_var f4 [32]
0	0x3fe42ad4	1.782557
1	0x3fd6fc34	1.6795716
2	0x3f423dab	0.7587535
3	0x3f855b68	1.041852
4	0x3f90ba53	1.1306862
5	0x3fe7780a	1.8083508
6	0x3fc4a0f7	1.5361623
7	0x3fdbedf9	1.7181998
8	0x40017473	2.0227325
9	0x3fb33d18	1.4003019
10	0x3fdd45b1	1.7286893
11	0x3fc0accc	1.5052733
12	0x3fdcf334	1.726172
13	0x3fcf6f8f	1.620592
14	0x3fdc6931	1.7219602
15	0x3f9503f1	1.1641828
16	0x3f8d2e0f	1.1029681
17	0x3fabc7e6	1.3420379
18	0x400170c4	2.0225077
19	0x4006433d	2.097854
20	0x3fd4b7c9	1.6618587
21	0x3fdd6d52	1.7298987
22	0x3f704cbb	0.9386708
23	0x3f83d024	1.0297894
24	0x3f92c767	1.1467103
25	0x3fd72a5c	1.6809802
26	0x3faeda2f	1.3660334
27	0x3f73189d	0.9495943
28	0x3f8a7840	1.0817947
29	0x3f810df9	1.0082389
30	0x3fcca85d	1.598888
31	0x3fb20597	1.3907956

module.net_ts.layer1.0.conv2.weight f4 [32, 32, 3]
0	0x3e03270f	0.12807868
1	0xbe3046c2	-0.17214492
2	0x3e0750f2	0.13214472
3	0x3df2339e	0.118262514
4	0x3d73451f	0.05939209
5	0x3df12f70	0.11776626
6	0xbda7a67d	-0.08186052
7	0x3e0a4714	0.13503677
8	0x3da79300	0.08182335
9	0xbe561f5b	-0.20910399
10	0xbe407bc8	-0.18797219
11	0xbd52076c	-0.05127661
12	0xbe5b1e04	-0.21398169
13	0x3dc51b4d	0.09624348
14	0xbe6635d3	-0.2248147
15	0xbd38c32c	-0.045108005
16	0xbe5e2241	-0.21692754
17	0x3c6bd7c3	0.014394703
18	0x3ea3f65f	0.32023904
19	0xbe283c3c	-0.16429228
20	0xbd31f1a3	-0.043443333
21	0x3ea5e3e0	0.32400417
22	0xbed43b03	-0.41451272
23	0xbe83d19c	-0.25745857
24	0x3daec8ee	0.08534418
25	0xbdd4b4df	-0.10386061
26	0x3e930795	0.28716722
27	0xbe907812	-0.28216606
28	0x3b1b05a2	0.002365448
29	0xbcaf7bfd	-0.021421427
30	0x3e0f063c	0.13967222
31	0xbe0c7df7	-0.13719927
32	0x3e1025bf	0.14076899
33	0x3e27e4e4	0.16395909
34	0xbcb35516	-0.021891158
35	0xbd43424c	-0.047670648
36	0xbd9a79f8	-0.07542795
37	0x3d9079be	0.070544705
38	0x3d8d8438	0.06909984
39	0x3d825d0b	0.06365403
40	0x3e131503	0.14363484
41	0x3c3b34a3	0.011426124
42	0xbe86b453	-0.2630945
43	0x3e02bae2	0.12766603
44	0xbea933ed	-0.3304743
45	0x3e5d5ea9	0.21618141
46	0x3e0fb462	0.14033654
47	0x3e5f175d	0.21786256
48	0xbe8531a3	-0.26014432
49	0x3e02da1d	0.12778516
50	0x3d1aba10	0.0377751
51	0x3e696cff	0.22795485
52	0xbe09162f	-0.13387369
53	0x3e1effe9	0.1552731
54	0x3e0469c5	0.12930973
55	0x3e3a8c60	0.18217611
56	0x3dee8f11	0.116483815
57	0xbe90e9b5	-0.28303304
58	0x3ddf461b	0.109020434
59	0x3dbbc5ca	0.09168585
60	0x3e8d241a	0.27566606
61	0x3d201401	0.039081577
62	0x3e537063	0.20648341
63	0xbcf1ca60	-0.029515445
64	0x3d8fe59a	0.07026215
65	0xbe19436e	-0.14967129
66	0x3dcb5839	0.099289365
67	0x3e0633cc	0.13105696
68	0x3d2f1a5f	0.04274976
69	0xbd9c3e11	-0.07629026
70	0x3d43167b	0.04762886
71	0xbd2bc618	-0.041936964
72	0x3e3f004b	0.18652456
73	0xbdc95a06	-0.09831624
74	0xbd6f51e8	-0.05842772
75	0xbd828a9c	-0.06374094
76	0xbdd6a3bb	-0.10480448
77	0xbdf860a4	-0.12127808
78	0x3d944560	0.07239795
79	0xbbb8de8f	-0.0056417654
80	0x3d05bbff	0.03264999
81	0x3ab9e05e	0.0014181247
82	0xbe3b101b	-0.18267862
83	0x3dc6b7b4	0.09703007
84	0xbe5a8bf7	-0.21342455
85	0xbeb68bee	-0.35653633
86	0x3d31eaf2	0.043436952
87	0xbe3316d7	-0.17489181
88	0xbcd314fd	-0.025766844
89	0xbe4d486b	-0.20047157
90	0xbe4ed0ea	-0.20196882
91	0xbbd5e6c4	-0.0065277535
92	0xbe0edca3	-0.13951354
93	0xbc2a5a99	-0.010397577
94	0xbc44f58f	-0.012021436
95	0x3e37faf2	0.17966822
96	0x3dac42cc	0.08411178
97	0x3de92e8d	0.11385832
98	0xbe266065	-0.16247709
99	0x3d754eaf	0.05988949
100	0x3e49ac9d	0.19694753
101	0xbd3b180e	-0.045677237
102	0xbe95de72	-0.29271275
103	0x3dbd483e	0.09242295
104	0xbe12134a	-0.1426517
105	0xbe5beb3e	-0.21476457
106	0xbe4f9e3f	-0.2027521
107	0x3e2b7ce9	0.16746868
108	0x3e1547e1	0.14578201
109	0xbecbf090	-0.39831972
110	0xbce76f40	-0.02825129
111	0x3e03da70	0.12876296
112	0x3e84c06a	0.2592805
113	0xbe5608b5	-0.20901759
114	0xbe8391f7	-0.256973
115	0xbc0c14d7	-0.0085498905
116	0xbc900252	-0.017579231
117	0xbd0cf9e4	-0.034418
118	0xbd339543	-0.04384352
119	0xbbfd688f	-0.0077334116
120	0x3d2980f4	0.041382745
121	0xbda327b6	-0.07966559
122	0x3e2df429	0.16987671
123	0xbdba9edf	-0.091123335
124	0x3c4eb00e	0.012615217
125	0xbe57bdef	-0.21068548
126	0xbe25fd0f	-0.16209815
127	0xbb9e791a	-0.004836214
128	0xbdc1ac98	-0.09456748
129	0xbe3cb451	-0.1842816
130	0x3d7dc8a2	0.061958916
131	0xbe6dc6de	-0.23220393
132	0xbe94556e	-0.28971428
133	0xbdc2ed01	-0.09517861
134	0x3d34b2ed	0.04411595
135	0x3e713671	0.23555924
136	0xbdd4e231	-0.10394705
137	0x3b77e856	0.0037827692
138	0xbe8e530c	-0.27797735
139	0x3e68a03b	0.22717373
140	0xbde08a67	-0.10963898
141	0xbe723d4b	-0.23656194
142	0xbe269304	-0.1626702
143	0xbde4e48d	-0.11176405
144	0x3daa90f5	0.083284296
145	0x3d54f8a1	0.051994924
146	0xbd771e95	-0.0603319
147	0x3da4fd97	0.08056181
148	0xbe45952c	-0.19295186
149	0x3d7a8973	0.061166238
150	0xbe273988	-0.1633054
151	0x3e68131d	0.22663541
152	0xbddd551d	-0.1080725
153	0xbe005984	-0.12534148
154	0x3e3aecf8	0.18254459
155	0x3d7ffaad	0.062494922
156	0xbdafe61e	-0.08588813
157	0xbeb723a8	-0.3576939
158	0xbe34d115	-0.17657883
159	0x3c3ac56f	0.011399611
160	0x3dc396a8	0.0955022
161	0xbcc82dee	-0.024435963
162	0x3e95d2d0	0.292624
163	0xbe352706	-0.17690668
164	0x3df1f9d7	0.11815231
165	0xbd7b0ff0	-0.061294496
166	0xbd7e26b0	-0.062048614
167	0xbd9566b2	-0.07294978
168	0xbc9b2bdc	-0.018941812
169	0x3dd3f808	0.103500426
170	0xbd83acd2	-0.06429447
171	0x3d2fa7e2	0.042884715
172	0x3d71768d	0.05895095
173	0xbe8d4bfa	-0.27597028
174	0xbe5e0aa1	-0.21683742
175	0xbddd27f9	-0.1079864
176	0xbdbe3b3c	-0.09288642
177	0x3ce6b4b4	0.028162338
178	0x3cb73a2a	0.022366602
179	0xbd956bc9	-0.07295949
180	0x3e3095de	0.1724467
181	0x3df89936	0.12138598
182	0xbe6e14ae	-0.23250076
183	0x3daec8b7	0.08534377
184	0xbe5803b7	-0.21095167
185	0xbdf7d750	-0.121016145
186	0xbd713ce5	-0.058895964
187	0xbd56cdf1	-0.052442495
188	0xbdbbd26f	-0.091709964
189	0xbd3346fc	-0.043768868
190	0xbd88b6c2	-0.06675483
191	0x3d492734	0.049109653
192	0xbeb839b5	-0.35981527
193	0xbe5726d5	-0.21010907
194	0xbd53a2f0	-0.05166906
195	0x3e1aaf2a	0.15105882
196	0xbcb04986	-0.021519434
197	0x3ed86d50	0.422709
198	0xbd6ea204	-0.05825998
199	0xbd8db705	-0.06919674
200	0xbdb7a0b3	-0.08966198
201	0x3bfc0d5e	0.007692023
202	0x3e08c062	0.13354638
203	0x3c2ba927	0.010477341
204	0xbe8accdd	-0.27109423
205	0xbeafae64	-0.34312737
206	0xbe8d364d	-0.2758049
207	0x3e743f5a	0.23852292
208	0xbd9bc0cf	-0.07605135
209	0xbddea89f	-0.10872006
210	0x3d9e8192	0.07739557
211	0x3daecee5	0.08535556
212	0x3d407830	0.04698962
213	0x3e01227a	0.12610808
214	0x3d039fd8	0.03213486
215	0xbd2cdb88	-0.04220155
216	0x3df4192b	0.11918863
217	0xbbc9c007	-0.0061569246
218	0xbd19cffa	-0.037551858
219	0xbdd3b3fb	-0.10337063
220	0x3d0d8a88	0.03455594
221	0x3c14af2a	0.0090749655
222	0xbd0b1bde	-0.033962123
223	0x3dd9061d	0.10596869
224	0x3e74c111	0.23901774
225	0x3d80dcfc	0.062921494
226	0x3d7b845b	0.06140552
227	0x3becb531	0.007223748
228	0xbc88ba37	-0.016690357
229	0x3d942b1b	0.07234784
230	0xbd1aae68	-0.037763983
231	0xbe023501	-0.12715532
232	0x3bdfb659	0.0068271575
233	0x3e2784ba	0.16359225
234	0x3e4abf00	0.19799423
235	0x3e35e553	0.17763261
236	0x3dae85dd	0.08521626
237	0x3d350978	0.044198483
238	0xbdaa982e	-0.08329807
239	0x3dbac609	0.091198035
240	0x3d05a8c3	0.032631647
241	0xbd60fbf3	-0.054927777
242	0x3ea659ea	0.32490474
243	0x3e2eb0db	0.17059653
244	0x3da9aca6	0.08284883
245	0x3cd6b117	0.02620749
246	0x3e08a145	0.1334277
247	0x3e371151	0.178777
248	0xbdc7c1e9	-0.09753782
249	0x3e96d5ab	0.2945989
250	0x3e8b76a3	0.2723895
251	0x3e213e5a	0.15746441
252	0x3d8da903	0.06917002
253	0xbda7f0e2	-0.082002416
254	0xbe8c6b92	-0.2742582
255	0xbe5eb540	-0.21748829

module.net_ts.layer1.0.bn2.weight f4 [32]
0	0x3f41fd88	0.75777483
1	0x3f33a817	0.7017836
2	0x3f1ec85c	0.62024474
3	0x3f2770d4	0.6540654
4	0x3f22851a	0.63484347
5	0x3f297e62	0.6620847
6	0x3f34e0f6	0.70655763
7	0x3f235d68	0.638144
8	0x3f2742d3	0.6533634
9	0x3f490b6f	0.7853307
10	0x3f1cd828	0.6126733
11	0x3f229136	0.63502824
12	0x3f36bdbd	0.7138327
13	0x3edbaf8b	0.42907366
14	0x3f4007be	0.75011814
15	0x3f218c18	0.6310439
16	0x3f30274a	0.6880995
17	0x3f362b47	0.71159786
18	0x3f429374	0.76006246
19	0x3f502977	0.8131327
20	0x3f3dc3f3	0.7412712
21	0x3f102119	0.56300503
22	0x3f09f0ed	0.5388325
23	0x3f2241dd	0.6338175
24	0x3f68d87b	0.90955323
25	0x3f43df28	0.76512384
26	0x3f3b7995	0.73232394
27	0x3f3898a3	0.72107905
28	0x3f269df2	0.65084755
29	0x3f1dbe3e	0.6161841
30	0x3f48af33	0.7839233
31	0x3f0d8540	0.5528145

module.net_ts.layer1.0.bn2.bias f4 [32]
0	0xbe87bd60	-0.2651167
1	0xbdc8e417	-0.0980913
2	0xbe0ec816	-0.13943514
3	0xbe4a7322	-0.19770482
4	0x3d997fac	0.074950546
5	0xbe88ad56	-0.26694745
6	0xbea4f306	-0.32216662
7	0xbdc6eb11	-0.09712804
8	0xbebc018c	-0.3671993
9	0x3a8add79	0.0010594568
10	0xbda0cc38	-0.07851452
11	0xbc5585ec	-0.013032418
12	0xbe9b7c7c	-0.30368412
13	0xbe6481b0	-0.22315097
14	0x3cc68519	0.024233388
15	0xbab64efc	-0.0013909037
16	0x3d178497	0.036991682
17	0x3de72839	0.11286969
18	0xbe007cb8	-0.12547576
19	0x3d1de878	0.038551778
20	0xbd936c06	-0.07198338
21	0xbdc27bed	-0.09496293
22	0xbe252ddc	-0.16130775
23	0xbe13b4d2	-0.14424446
24	0xbd367597	-0.044545736
25	0x3d667d5b	0.056271892
26	0xbd89bf07	-0.06725889
27	0x3cd69b3a	0.026197065
28	0xbe0c8fe7	-0.1372677
29	0xbe1a04cb	-0.15040891
30	0xbdf3b9c4	-0.11900666
31	0x3dc6d4a2	0.09708525

module.net_ts.layer1.0.bn2.running_mean f4 [32]
0	0xbd5f2557	-0.05447897
1	0xbf4e649b	-0.8062226
2	0x3eb0b0af	0.345098
3	0xbd9fe2b8	-0.07806915
4	0x3e9a6950	0.30158472
5	0x3ee78d42	0.4522496
6	0xbe5e51e8	-0.21710932
7	0xbd955372	-0.072913066
8	0x3e4d1816	0.2002872
9	0x3ef620f3	0.48072013
10	0x3e871f99	0.26391295
11	0xbc92fdfa	-0.017943371
12	0xbe051ea5	-0.12999971
13	0x3f13ae0e	0.5768746
14	0xbe2bbd96	-0.1677154
15	0xbe25018a	-0.16113868
16	0xbe2004bd	-0.15626808
17	0xbd5a6346	-0.05331733
18	0x3e9d42f7	0.30715153
19	0xbe02577c	-0.12728685
20	0xbeb88cf9	-0.36045054
21	0xbe2a3b60	-0.16624212
22	0xbeb8be79	-0.3608282
23	0xbe0cca42	-0.1374903
24	0xbec27155	-0.3797709
25	0xbf3a7f5b	-0.7285058
26	0xbe2847c1	-0.16433622
27	0x3d30e9d8	0.04319176
28	0xbef2dbae	-0.47433227
29	0xbce470e1	-0.027885856
30	0xbf0aa5bb	-0.54159135
31	0x3e72f8b2	0.23727682

module.net_ts.layer1.0.bn2.running_var f4 [32]
0	0x3edabea0	0.4272356
1	0x3ec3bf44	0.38231862
2	0x3ef84828	0.4849255
3	0x3ef047eb	0.4692987
4	0x3efaef81	0.49010852
5	0x3ed568ef	0.4168162
6	0x3ec477b6	0.38372582
7	0x3ec06077	0.37573597
8	0x3ec8165a	0.39079553
9	0x3ec85480	0.39126968
10	0x3ebe6398	0.3718536
11	0x3f2f93f4	0.68585134
12	0x3ebe70d5	0.3719546
13	0x3e9aa122	0.3020106
14	0x3ed578a9	0.4169362
15	0x3e9ceac8	0.30647874
16	0x3eefd5cf	0.4684281
17	0x3ee036fe	0.43791956
18	0x3eec5354	0.46157324
19	0x3ed0dfb4	0.40795672
20	0x3ee76f54	0.45202124
21	0x3ea50bcd	0.32235566
22	0x3eab44ee	0.33451027
23	0x3ef2d1c0	0.47425652
24	0x3f178b94	0.59197354
25	0x3ece9303	0.40346536
26	0x3ef28036	0.47363442
27	0x3ea39b1e	0.31954283
28	0x3ec1fd62	0.37888628
29	0x3ea4cb0c	0.32186162
30	0x3ef8a5fb	0.48564133
31	0x3edda83a	0.4329241

module.net_ts.layer2.0.conv1.weight f4 [32, 32, 3]
0	0x3e025c45	0.1273051
1	0xbe3dbe60	-0.18529654
2	0xbe3f46f6	-0.18679413
3	0x3e45ea39	0.1932763
4	0xbd81025e	-0.0629928
5	0x3ea1cc0c	0.31600988
6	0x3e08096f	0.13284849
7	0xbddfc789	-0.1092673
8	0x3d48d479	0.049030755
9	0x3d8f3181	0.06991864
10	0xbe5a813c	-0.21338362
11	0x3e9cddb6	0.30637902
12	0xbd980ac8	-0.07423931
13	0xbd4ed8cf	-0.050499734
14	0xbe349156	-0.17633566
15	0xbe1dc34f	-0.15406536
16	0xbde251db	-0.11050769
17	0x3e1aca7e	0.15116307
18	0x3ea17fbf	0.31542775
19	0x3c48214c	0.01221497
20	0x3e5daa82	0.21647075
21	0x3c62a79d	0.013833907
22	0x3d4af68c	0.04955153
23	0xbc4ef2f2	-0.012631165
24	0x3d4e1fa2	0.050323136
25	0x3b414de8	0.0029495899
26	0x3e318b58	0.17338312
27	0xbadb5eaa	-0.0016736586
28	0xbd87c08b	-0.066285215
29	0x3e2a8995	0.16654046
30	0x3d46271d	0.048377145
31	0x3d45b28a	0.04826597
32	0xbd95229f	-0.07281994
33	0x3ed076a5	0.4071552
34	0xbdc32434	-0.095283896
35	0x3d5a731e	0.05333244
36	0xbe31f365	-0.17378004
37	0xbbbd7d57	-0.005782764
38	0xbdd53562	-0.104105726
39	0xbe3554ec	-0.17708176
40	0x3e2eb674	0.17061788
41	0xbe500989	-0.20316137
42	0xbdbd278b	-0.09236058
43	0xbe74be38	-0.23900688
44	0xbe82fd64	-0.25583947
45	0x3dff5a25	0.124683656
46	0x3d7df668	0.06200257
47	0x3e312c03	0.17301945
48	0x3dd33a24	0.10313824
49	0x3e4b1eb1	0.19835927
50	0x3c5e6e4c	0.0135761015
51	0xbdd120a8	-0.10211307
52	0x3e4fbb95	0.202864
53	0x3d8dbf21	0.069212206
54	0x3cc7d469	0.024393277
55	0xbd844911	-0.06459249
56	0x3e40e5bb	0.18837635
57	0xbe2a4cb4	-0.16630822
58	0xbd3792e4	-0.04481782
59	0x3eba2bbe	0.36361498
60	0x3c1c297b	0.009531374
61	0x3dfbeb1f	0.12300705
62	0xbd6feea7	-0.058577206
63	0xbb8e1db2	-0.004337036
64	0x3e4aed5b	0.19817106
65	0x3d594452	0.05304367
66	0x3d141bdc	0.03615938
67	0xbcd30eda	-0.025763918
68	0xbdfc610e	-0.12323199
69	0xbc9d8f11	-0.019233258
70	0xbd611d60	-0.054959655
71	0x3dd70a8e	0.1050006
72	0x3e244bde	0.16044566
73	0xbe2c2c42	-0.16813758
74	0x3d5f5b85	0.05453064
75	0xbe511235	-0.20417102
76	0xbe62c023	-0.22143607
77	0x3d225433	0.03963108
78	0x3e52385a	0.20529309
79	0x3c93d7d2	0.018047247
80	0xbd98d465	-0.07462386
81	0xbe37289c	-0.17886585
82	0x3db6dcae	0.0892881
83	0xbe3a9494	-0.1822074
84	0xbdb1be7f	-0.08678912
85	0xbc0bca2c	-0.008532088
86	0x3e93d31a	0.28871995
87	0x3de1fac9	0.110341616
88	0xbdfcde1d	-0.12347052
89	0xbdef47ea	-0.116836384
90	0x3cfd4e73	0.030921197
91	0x3b915e04	0.0044362564
92	0x3dc748fc	0.097307175
93	0xbea4e583	-0.32206354
94	0x3db6189f	0.08891415
95	0xbe05def8	-0.13073337
96	0xbc80eb29	-0.015737133
97	0xbe64d790	-0.22347856
98	0x3e03602f	0.1282966
99	0x3d40813c	0.046998248
100	0x3e2e6a98	0.1703285
101	0x3d0222b4	0.031771377
102	0xbdaf644b	-0.08564051
103	0xbc453054	-0.012035448
104	0x3cbad5f9	0.022807108
105	0xbdf18923	-0.11793735
106	0xbe5d01ce	-0.2158272
107	0xbe14f64a	-0.14547077
108	0x3e1d8675	0.15383323
109	0x3d8a209a	0.067444995
110	0xbd12391b	-0.03569899
111	0xbdf55c65	-0.119805135
112	0x3aff4fc7	0.0019478732
113	0xbe3f50dd	-0.1868319
114	0x3d807035	0.06271402
115	0x3c1e0aad	0.0096461
116	0xbd5dbb00	-0.054133415
117	0x3eb1dca4	0.34738648
118	0x3e11fd55	0.14256795
119	0xbe08f279	-0.13373746
120	0xbd20d84f	-0.039268788
121	0xbdf5db61	-0.12004734
122	0x3ded28b8	0.11580032
123	0x3e1be637	0.15224539
124	0xbd191ef6	-0.037383042
125	0x3cd3973c	0.02582895
126	0xbd3dd119	-0.04634199
127	0xbe04f29c	-0.12983173
128	0x3da343bd	0.079719044
129	0x3d8b2bde	0.067954764
130	0xbd046442	-0.032322176
131	0x3ded0443	0.115730785
132	0x3db2a43c	0.087227315
133	0xbe3efe14	-0.1865161
134	0xbe79d594	-0.2439788
135	0x3e0d6be5	0.1381069
136	0x3d4738aa	0.048638023
137	0xbc8ab423	-0.016931599
138	0x3dd68d78	0.10476202
139	0xbe3473ad	-0.17622252
140	0xbd9d4f35	-0.07681123
141	0xbe3b7545	-0.18306454
142	0x3e1f2cdb	0.15544455
143	0x3dcceef1	0.10006512
144	0xbdc774f5	-0.09739105
145	0xbc2c4c10	-0.010516182
146	0x3e295539	0.16536416
147	0xbe80d25a	-0.25160486
148	0x3d3b8c46	0.045788072
149	0x3d818982	0.06325056
150	0xbe807abb	-0.25093636
151	0xbe368079	-0.17822446
152	0x3dfea4fb	0.12433811
153	0x3dcbda73	0.09953775
154	0xbe408b35	-0.18803103
155	0xbdccb1c3	-0.09994843
156	0xbddeb5c0	-0.1087451
157	0x3db9b46b	0.09067615
158	0x3e3f9b5a	0.18711606
159	0x3da23583	0.07920363
160	0xbe255259	-0.16144694
161	0xbe462db9	-0.1935338
162	0xbd99e774	-0.07514849
163	0xbe030cf6	-0.12797913
164	0xbed1defa	-0.4099043
165	0xbe04d152	-0.12970474
166	0x3dfe53b6	0.1241831
167	0xbd9e73f2	-0.077369586
168	0xbd077e08	-0.033079177
169	0xbeb0d9a7	-0.34541056
170	0x3dd60e4e	0.10451947
171	0x3dd5beb1	0.10436762
172	0xbbc8cd11	-0.0061279614
173	0xbdd38e10	-0.10329831
174	0x3e21a04a	0.15783802
175	0xbe4dbdcd	-0.20091935
176	0x3d59428b	0.053041976
177	0x3b87729c	0.0041335355
178	0xbe31f113	-0.17377119
179	0xbdec528b	-0.11539181
180	0x3c87a326	0.016557287
181	0xbe609f66	-0.21935806
182	0xbdad71a7	-0.08468943
183	0xbe0e0537	-0.13869177
184	0x3cde04ba	0.027101863
185	0xbdb96456	-0.09052341
186	0x3d190fdc	0.03736864
187	0xbd2c3341	-0.042041067
188	0x3d88a2e1	0.06671692
189	0x3c71ac86	0.014750605
190	0xbd721016	-0.059097372
191	0xbe4d1812	-0.20028713
192	0xbc3123a5	-0.010811721
193	0x38b0772f	8.414534e-05
194	0xbccf37b3	-0.025295114
195	0xbded741f	-0.11594414
196	0xbb1ffdc9	-0.0024412742
197	0x3db0750b	0.08616074
198	0x3e4b30ff	0.1984291
199	0xbe48bccd	-0.19603272
200	0xbc4f7cff	-0.012664079
201	0xbd4d0f36	-0.050063334
202	0xbd0d39af	-0.03447884
203	0xbdb04933	-0.08607712
204	0xbd31db32	-0.04342193
205	0x3d922f1a	0.0713789
206	0xbdc2a83e	-0.09504746
207	0x3deee996	0.11665647
208	0xbe656b97	-0.22404324
209	0x3ef623b3	0.4807411
210	0xbe568248	-0.20948136
211	0xbdcc270b	-0.09968384
212	0xbe631ebd	-0.22179694
213	0xbca50426	-0.02014358
214	0x3e130736	0.1435822
215	0xbd8d4358	-0.068976104
216	0xbdd53eef	-0.10412394
217	0x3d26a0cb	0.040680688
218	0x3d9c63c6	0.07636218
219	0xbe064893	-0.13113622
220	0xbd967968	-0.07347375
221	0x3e97a891	0.29620793
222	0x3e05d357	0.13068901
223	0xbe37a95d	-0.179357
224	0x3dabfc54	0.08397737
225	0x3dbad380	0.09122372
226	0xbe695244	-0.22785288
227	0xbe6f3d64	-0.23363262
228	0xbda92868	-0.0825966
229	0x3df22aa0	0.11824536
230	0xbe395b10	-0.18101144
231	0xbe0717c6	-0.13192663
232	0xbcfa70ec	-0.030571423
233	0x3e049212	0.12946346
234	0xbe835c20	-0.25656223
235	0x3e214a8b	0.15751092
236	0x3c9139e0	0.017727792
237	0xbd82ef3d	-0.06393287
238	0xbd85bb56	-0.06529872
239	0x3e54264c	0.20717734
240	0x3db84640	0.08997774
241	0x3df6dcd2	0.12053837
242	0x3ca5f2e5	0.020257423
243	0x3d4c6632	0.04990215
244	0xbaa6d852	-0.0012729263
245	0x3deea0f9	0.11651797
246	0xbdf5da0f	-0.12004482
247	0xbda147be	-0.07875012
248	0x39afe69b	0.00033550416
249	0xbe95dde8	-0.29270864
250	0xbe0649b6	-0.13114056
251	0x3e16e789	0.14736761
252	0xbe3f0305	-0.18653496
253	0x3e0432fb	0.12910073
254	0xbe396c37	-0.18107687
255	0x3cc4385e	0.02395266

module.net_ts.layer2.0.bn1.weight f4 [32]
0	0x3f304c9d	0.688669
1	0x3f241e9a	0.64109194
2	0x3f432ff3	0.7624504
3	0x3f47886d	0.77942544
4	0x3f18e2ba	0.5972096
5	0x3f299c61	0.6625424
6	0x3f311b6c	0.6918247
7	0x3f45f2c0	0.7732353
8	0x3f371110	0.7151041
9	0x3f0f6460	0.56012535
10	0x3f418f0a	0.75608885
11	0x3f4353b5	0.762996
12	0x3f2531f1	0.6452933
13	0x3f250569	0.6446138
14	0x3f141ef4	0.5785973
15	0x3f1aa224	0.60403657
16	0x3f3690c2	0.7131463
17	0x3f243656	0.6414541
18	0x3f349970	0.7054663
19	0x3f4c5069	0.79810196
20	0x3f4362b2	0.7632247
21	0x3f3ba4af	0.7329816
22	0x3f30e608	0.69101
23	0x3f3feebe	0.74973667
24	0x3f1e4e0f	0.6183786
25	0x3f535283	0.8254778
26	0x3f2a1869	0.66443497
27	0x3f171ae4	0.59025407
28	0x3f326df9	0.69699055
29	0x3f51ce7d	0.819557
30	0x3f530334	0.8242676
31	0x3f2e32e3	0.68046397

module.net_ts.layer2.0.bn1.bias f4 [32]
0	0xbdf7d967	-0.12102013
1	0x3c9e3116	0.019310515
2	0xbd664df5	-0.05622669
3	0xbe07f093	-0.13275366
4	0xbd6408a0	-0.055672288
5	0xbd7f5040	-0.06233239
6	0xbe26c204	-0.16284949
7	0xbda6579f	-0.08122181
8	0x3daf36e1	0.08555389
9	0xbe15676a	-0.1459023
10	0xbe2418ce	-0.16025087
11	0xbdb2d7e0	-0.08732581
12	0xbd432aff	-0.047648426
13	0xbda0e83b	-0.078567944
14	0xbe1b32b4	-0.1515606
15	0xbdbf5f4a	-0.09344347
16	0xbc0739bc	-0.008253511
17	0x3daa2022	0.0830691
18	0xbe308ddd	-0.17241617
19	0xbdd4fe16	-0.104000255
20	0xbd263035	-0.040573318
21	0xbd3f8afe	-0.046763413
22	0xbe9b4a4b	-0.3033012
23	0xbd466afe	-0.04844188
24	0xbe47158d	-0.19441815
25	0xbe1ffce9	-0.15623821
26	0xbe108933	-0.14114837
27	0xbe0f731c	-0.14008754
28	0xbe7d5a1f	-0.2474141
29	0xbdbd8e75	-0.09255687
30	0xbe20a1bb	-0.15686695
31	0xbd3dedd1	-0.046369378

module.net_ts.layer2.0.bn1.running_mean f4 [32]
0	0x3f46e13f	0.7768745
1	0xbfeb83f0	-1.8399639
2	0xbff5d1b2	-1.9204619
3	0xbfcb0895	-1.5861994
4	0x3ead8e82	0.33897787
5	0xbf934c54	-1.1507668
6	0x3e29d088	0.16583455
7	0xbfe2b8e9	-1.771268
8	0xbfa0be23	-1.2558025
9	0x3f87ba12	1.0603659
10	0xbe889a7f	-0.2668037
11	0x3dcc5429	0.0997699
12	0x3f2741b2	0.6533462
13	0x3f77bc8e	0.96772087
14	0x3f9642d4	1.1739144
15	0xbf09ef48	-0.5388074
16	0xbf5d7c7b	-0.8651807
17	0xbe3e5f34	-0.18591005
18	0xbfc2fb94	-1.5233026
19	0xbff0b93e	-1.8806531
20	0xbf5ec2a1	-0.8701573
21	0xbfc5be0f	-1.5448626
22	0x400c9584	2.1966257
23	0xc024053f	-2.5628202
24	0x3fa6a758	1.3019819
25	0xc001fbea	-2.0310006
26	0x3fc319e2	1.5242274
27	0xbe6864b6	-0.22694668
28	0x3dd79a3e	0.10527466
29	0x3f32ade0	0.6979656
30	0xbe72b0aa	-0.23700204
31	0xbed7630e	-0.4206776

module.net_ts.layer2.0.bn1.running_var f4 [32]
0	0x3fa245d6	1.2677562
1	0x3fd2edf3	1.6478866
2	0x3fd34a33	1.6507019
3	0x3fa63738	1.2985601
4	0x3fa2145a	1.2662461
5	0x3fd6013f	1.671913
6	0x3faa6ea8	1.331502
7	0x4001e011	2.029301
8	0x3fbac6a0	1.4591866
9	0x3fc239de	1.517391
10	0x3f9aa86c	1.2082648
11	0x3fdca291	1.7237111
12	0x3fbf1b98	1.4930296
13	0x3fd85ddc	1.6903644
14	0x3f4a6dc6	0.7907375
15	0x3fc59217	1.5435208
16	0x3fd1c5ae	1.6388452
17	0x3fc0bc79	1.5057517
18	0x4000af6e	2.0107074
19	0x3fcd3bcc	1.6033874
20	0x3fcfb609	1.6227428
21	0x3fc0f38a	1.5074322
22	0x3fdfbfe6	1.7480438
23	0x3fc3a502	1.5284731
24	0x3f85e7b9	1.0461341
25	0x3fb1412e	1.3848016
26	0x3fd674a1	1.6754342
27	0x3fa2c0fd	1.2715145
28	0x3fc52e9a	1.5404847
29	0x3ff07082	1.8784335
30	0x3fbca3f9	1.473754
31	0x3ffc868e	1.9728563

module.net_ts.layer2.0.conv2.weight f4 [32, 32, 3]
0	0x3d75c321	0.060000543
1	0xbddbffcd	-0.107421495
2	0xbe6d7c65	-0.23191984
3	0x3c5a3f8b	0.013320814
4	0x3ddaee29	0.10689957
5	0xbdb52c37	-0.08846324
6	0xbc763a83	-0.015028599
7	0x3dac8784	0.08424285
8	0xbd69763b	-0.05699752
9	0xbe166cf2	-0.14689997
10	0x3e5b06df	0.2138934
11	0x3ed8f031	0.42370752
12	0x3c0f8809	0.008760461
13	0xbd54562f	-0.051840004
14	0xbdb2b821	-0.08726526
15	0x3d2e7ecc	0.04260139
16	0x3ea3bb92	0.31979042
17	0x3e7497af	0.23885988
18	0x3d5a0f41	0.053237204
19	0xbd91ca72	-0.071186915
20	0x3d2b695c	0.041848525
21	0xbe377662	-0.17916253
22	0x3e00b94c	0.12570685
23	0xbdd05717	-0.10172861
24	0xbd9c954d	-0.07645664
25	0xbded67b0	-0.115920424
26	0xbc2642a4	-0.010147724
27	0x3d32e618	0.043676466
28	0x3d3826f6	0.04495903
29	0xbd532af2	-0.051554628
30	0xbd576d6f	-0.0525946
31	0x3d4df8ed	0.050286222
32	0x3d752300	0.05984783
33	0x3d83b0a5	0.06430177
34	0xbcfd39e1	-0.030911388
35	0xbe8e688c	-0.27814138
36	0xbd8c9513	-0.06864371
37	0x3b5913b8	0.0033123326
38	0xbdf01574	-0.11722842
39	0xbdacb48f	-0.08432876
40	0x3b335554	0.0027364092
41	0x3da33ef9	0.079709955
42	0x3e3cf32d	0.18452139
43	0x3da15793	0.078780316
44	0x3e80b428	0.25137448
45	0x3cf6d5a3	0.030131167
46	0x3d6da415	0.05801781
47	0xbdf0b9c3	-0.11754181
48	0xbe2b28b9	-0.16714753
49	0xbcfe4c76	-0.031042319
50	0xbdb1a295	-0.08673588
51	0xbd6af2ce	-0.057360463
52	0x3c8dfdb0	0.017332882
53	0x3cdb27bf	0.02675235
54	0x3d46961a	0.04848299
55	0x3dc9a9cd	0.0984684
56	0xbd7d5868	-0.06185189
57	0xbcea7a7f	-0.028622864
58	0x3e6cb87c	0.2311725
59	0xbb9fb21d	-0.0048735277
60	0x3d4c8bf9	0.049938176
61	0x3d939694	0.07206455
62	0x3dadae87	0.08480554
63	0xbd299d64	-0.041409865
64	0xbcd611b8	-0.026131496
65	0x3d5c9f8c	0.053863093
66	0x3d0dcb3c	0.034617648
67	0x3e2d787d	0.16940494
68	0x3e6b42ea	0.22974744
69	0xbea24165	-0.31690517
70	0xbe8e19e3	-0.27754125
71	0xbdf4dda1	-0.11956335
72	0x3d120f0f	0.035658892
73	0x3e1ed656	0.1551145
74	0x3d1c95c0	0.03822875
75	0xbda913b1	-0.08255709
76	0x3d859413	0.065223835
77	0x3d8b4dfc	0.06801984
78	0x3e2fe63e	0.17177674
79	0xbe059398	-0.13044584
80	0xbc170996	-0.009218594
81	0x3dfa6cf4	0.122278124
82	0xbcc561d5	-0.024094502
83	0xbe52f861	-0.20602562
84	0x3d5b3d97	0.053525534
85	0xbd0f5e2d	-0.035001922
86	0xbe7a19a4	-0.24423844
87	0xbd35ad6d	-0.044354845
88	0x3bcdfc2c	0.0062861647
89	0xbe9cd2f6	-0.306297
90	0xbe8712b1	-0.26381448
91	0x3e00858c	0.12550944
92	0xbd71beac	-0.05901973
93	0xbe8c809f	-0.2744188
94	0x3d100f65	0.03517093
95	0xbc0c9ee0	-0.008582801
96	0xbdf51b93	-0.1196815
97	0x3e1f5c95	0.15562661
98	0xbe3b98e0	-0.18320036
99	0xbe8e561f	-0.2780008
100	0xbbee931a	-0.0072807195
101	0x3dd04509	0.101694174
102	0xbe166dd9	-0.14690341
103	0xbcec00fb	-0.028809061
104	0xbe43842b	-0.19093387
105	0x3cb6757a	0.022272814
106	0xbd8648b5	-0.065568365
107	0xbea4fc01	-0.32223514
108	0x3d30304b	0.043014806
109	0xbde4001b	-0.111328326
110	0xbe3da455	-0.18519719
111	0x3d958f2e	0.073027
112	0x3d4592cd	0.048235703
113	0xbde466b7	-0.11152404
114	0xbe0e6973	-0.13907413
115	0xbe95eebd	-0.29283705
116	0x3d02d6d5	0.03194316
117	0xbc9aa876	-0.018879157
118	0x3e90ac2a	0.2825635
119	0x3b8fa448	0.0043835975
120	0x3de4fed8	0.1118142
121	0x3cb3b1d6	0.021935385
122	0xbe24a63d	-0.1607904
123	0x3e58843f	0.21144198
124	0xbe839efa	-0.25707227
125	0xbe92deb0	-0.28685522
126	0xbd8025c3	-0.062572025
127	0x3d18f595	0.03734358
128	0x3cd3850a	0.025820274
129	0xbe27d6f1	-0.16390587
130	0xbd2a2dc2	-0.041547544
131	0x3db01f08	0.08599669
132	0x3e439d46	0.19102964
133	0x3de267fe	0.11054991
134	0xbd232ac9	-0.039835725
135	0x3d9b591c	0.07585356
136	0xbda91635	-0.08256189
137	0x3d1665f4	0.036718324
138	0x3e247582	0.1606045
139	0x3e0d55d5	0.13802274
140	0xbd0fe237	-0.035127845
141	0xbdf2155c	-0.1182048
142	0x3e170d32	0.14751127
143	0xbd86fe75	-0.065915026
144	0x3da10490	0.07862198
145	0xbc36c38d	-0.011155021
146	0x3dcebfdd	0.10095189
147	0x3dfb69a7	0.12276011
148	0x3dcad76d	0.099043705
149	0x3d4e9ca1	0.05044234
150	0xbe44e944	-0.19229609
151	0xbe036dc9	-0.12834848
152	0xbd3378b7	-0.043816295
153	0xbe59014b	-0.211919
154	0xbe29837e	-0.16554067
155	0x3d429543	0.04750563
156	0xbd2157ae	-0.03939026
157	0x3c56e8d2	0.013117032
158	0xbcb5a665	-0.02217407
159	0xbdbd6eb7	-0.09249633
160	0xbd82d877	-0.06388944
161	0x3ccc2d88	0.024924055
162	0xbe275704	-0.16341788
163	0x3e74f16c	0.2392022
164	0xbdebf9e8	-0.11522275
165	0xbe89bbc3	-0.26901063
166	0xbcd2dbab	-0.025739511
167	0xbd8fc70e	-0.070203885
168	0x3e203f4c	0.15649146
169	0x3c39ad95	0.011332889
170	0xbde6f396	-0.11276929
171	0xbd17eed5	-0.037093002
172	0x3e788371	0.24268891
173	0xbf0a1e2f	-0.53952307
174	0x3e15f31a	0.14643517
175	0xbe72b616	-0.23702273
176	0xbc2211cd	-0.009891939
177	0x3e1efe53	0.15526704
178	0x3db49fdb	0.088195525
179	0xbdea3b11	-0.11437047
180	0x3e2aeefc	0.16692728
181	0x3e6e74a3	0.23286681
182	0xbe7692d3	-0.24079446
183	0x3b3ce5a7	0.0028823407
184	0x3cb0b87d	0.021572346
185	0xbe119eea	-0.14220777
186	0x3ccad6e0	0.024760664
187	0x3cd7e00a	0.026351947
188	0x3e1a0aef	0.15043233
189	0x3e15f70f	0.14645027
190	0xbdf135ad	-0.11777816
191	0x3e787817	0.2426456
192	0xbe1d11c2	-0.15338805
193	0xbe58edff	-0.21184538
194	0xbe1655ea	-0.14681211
195	0xbe14b6c4	-0.14522845
196	0xbe231a0c	-0.15927905
197	0xbdca06da	-0.09864588
198	0xbe542b53	-0.20719652
199	0xbdc29736	-0.095014974
200	0x3e646a66	0.22306213
201	0x3d1f9f0c	0.03897004
202	0x3ca9946e	0.02070066
203	0x3dd45383	0.10367491
204	0x3d2fb5cd	0.042897988
205	0x3d7a42b3	0.061098766
206	0x3d805b65	0.06267432
207	0xbd6bd194	-0.057572916
208	0xbcf4cb40	-0.029882073
209	0xbe82392b	-0.2543424
210	0x3c96b666	0.018397521
211	0x3da0a489	0.078438826
212	0xbc533774	-0.012891639
213	0xbd96a0b8	-0.073548734
214	0xbe68d593	-0.22737722
215	0xbe0bb8d9	-0.13644733
216	0x3dfe2941	0.12410212
217	0xbdf7f2a9	-0.121068306
218	0x3e6d5a6e	0.23179027
219	0x3e007f73	0.12548618
220	0x3d928e80	0.07156086
221	0xbd3a2d10	-0.04545313
222	0xbe09497c	-0.13406938
223	0xbdd2f586	-0.10300736
224	0xbec1bfc4	-0.37841618
225	0x3e8ca675	0.27470747
226	0xbdd6b0c8	-0.10482937
227	0x3e0afdb0	0.13573337
228	0xbd72abf9	-0.059246037
229	0x3c4152b5	0.011799504
230	0xbc5bc1a3	-0.013412866
231	0x3d95b243	0.07309391
232	0xbda43474	-0.08017817
233	0xbcbafbf3	-0.022825217
234	0xbd086ade	-0.03330504
235	0x3d2d7d36	0.04235574
236	0x3e5705fe	0.2099838
237	0x383dc22d	4.524195e-05
238	0x3dadbcad	0.08483253
239	0x3d6b8337	0.057498183
240	0x3dd057c0	0.10172987
241	0xbe86f06d	-0.26355305
242	0xbc954474	-0.018221118
243	0xbd81b24c	-0.063328356
244	0x3dcf7f22	0.101316705
245	0xbdd26037	-0.10272258
246	0xbdc300fe	-0.095216736
247	0xbdb21757	-0.08695858
248	0xbd9329b7	-0.07185691
249	0xbdc82618	-0.09772891
250	0xbc43d96b	-0.011953692
251	0x3e16eabe	0.14737985
252	0x3eac1c56	0.3361537
253	0x3e3bbb08	0.18333066
254	0x3e905ff1	0.28198197
255	0x3da99154	0.08279672

module.net_ts.layer2.0.bn2.weight f4 [32]
0	0x3f31c60e	0.6944283
1	0x3f3e5038	0.74341154
2	0x3f356f16	0.7087263
3	0x3f20aad7	0.6276068
4	0x3f48511f	0.7824878
5	0x3f416bb2	0.75554955
6	0x3f2a0645	0.66415817
7	0x3f2b86fc	0.67002845
8	0x3f2f26eb	0.6841876
9	0x3f130e0b	0.574433
10	0x3f3432d5	0.70390064
11	0x3f182e6d	0.5944584
12	0x3f19b975	0.6004861
13	0x3f43a9db	0.76431054
14	0x3f2aa8f4	0.6666405
15	0x3f4b57e0	0.7943096
16	0x3f3a867b	0.7286145
17	0x3f40a102	0.7524568
18	0x3f30bff7	0.69042915
19	0x3f3195cb	0.6936919
20	0x3f28a641	0.65878683
21	0x3f396656	0.7242178
22	0x3f469b47	0.77580684
23	0x3f48a14e	0.7837113
24	0x3f5291df	0.8225383
25	0x3f2fa44d	0.6861008
26	0x3f454e46	0.7707256
27	0x3f2d5acd	0.67716676
28	0x3f41cd51	0.7570391
29	0x3f1d9f44	0.61571145
30	0x3f184c7c	0.59491706
31	0x3f32f36b	0.69902676

module.net_ts.layer2.0.bn2.bias f4 [32]
0	0xbe08ed5f	-0.133718
1	0xbce42db8	-0.027853832
2	0xbd1b3cd5	-0.03789981
3	0x3b674b4b	0.003529268
4	0xbe095577	-0.13411509
5	0xbd9a2868	-0.07527238
6	0xbd724778	-0.05915019
7	0xbd66eb48	-0.056376725
8	0xbd8ee543	-0.06977322
9	0x3d05d4b1	0.03267354
10	0xbd8828e7	-0.066484265
11	0xbd6bc9eb	-0.05756561
12	0xbcd7a6d4	-0.026324667
13	0xbd80e003	-0.06292727
14	0x3d1a436d	0.03766196
15	0xbd679a4f	-0.056543645
16	0xbe29482b	-0.16531436
17	0xbd9582f9	-0.07300372
18	0xbc2be448	-0.010491438
19	0xbd76f4d6	-0.060292087
20	0xbdcdbca9	-0.1004575
21	0xbd994095	-0.07483021
22	0xbc8d4244	-0.017243512
23	0xbd3e384a	-0.0464404
24	0xbbc03280	-0.005865395
25	0x3c5f11a5	0.013615047
26	0xbe6f330f	-0.23359321
27	0xbd868284	-0.06567863
28	0xbdeb8c36	-0.115013525
29	0x3ce4fa97	0.027951522
30	0xbdff5b9c	-0.12468645
31	0xbe18e6a4	-0.14931732

module.net_ts.layer2.0.bn2.running_mean f4 [32]
0	0xbe589c02	-0.21153262
1	0xbee1bb20	-0.44088078
2	0xbea254dc	-0.31705368
3	0xbeb54b20	-0.35408878
4	0x3cd3272c	0.025775515
5	0xbefededa	-0.49779397
6	0xbee6811b	-0.45020375
7	0xbe47d2e0	-0.19514036
8	0x3d92a376	0.07160084
9	0x3ecbc787	0.39800665
10	0x3f169e90	0.588357
11	0x3e88123c	0.26576412
12	0xbd966b9d	-0.07344744
13	0xbe0cc96d	-0.13748713
14	0xbe96f38d	-0.2948269
15	0x3db3ddec	0.087825626
16	0x3f318dbd	0.693569
17	0x3e47f372	0.19526461
18	0x3e34372b	0.1759917
19	0xbdd66a86	-0.104695365
20	0x3e6ba2d4	0.23011333
21	0x3ec81d77	0.3908498
22	0xbde04df3	-0.10952368
23	0xbe5c5b45	-0.21519192
24	0xbdcc032f	-0.09961545
25	0xbebb8aed	-0.3662943
26	0xbd71864a	-0.05896596
27	0x3ef1ccb2	0.47226483
28	0x3f1f6e19	0.6227737
29	0xbda1f356	-0.07907741
30	0xbd00a504	-0.03140737
31	0xbca9fcf9	-0.02075051

module.net_ts.layer2.0.bn2.running_var f4 [32]
0	0x3eaea58c	0.34110677
1	0x3ee519c5	0.44746223
2	0x3ebfcfee	0.37463325
3	0x3eb23297	0.34804222
4	0x3edccf99	0.43127134
5	0x3f0abcc6	0.54194295
6	0x3e9984b0	0.29984045
7	0x3eddb3b4	0.43301165
8	0x3e8a598f	0.27021453
9	0x3ea1a90b	0.31574282
10	0x3eed34fe	0.46329492
11	0x3e9d6855	0.30743662
12	0x3eb32cc2	0.34995085
13	0x3ee78414	0.45217955
14	0x3ed429c6	0.4143812
15	0x3ee327be	0.44366258
16	0x3ec2fefe	0.3808517
17	0x3ec79a38	0.38984847
18	0x3ea71c9e	0.3263902
19	0x3e99e036	0.30053872
20	0x3e9ee339	0.31032732
21	0x3ec6c710	0.38823748
22	0x3ec6b808	0.3881228
23	0x3e9d6012	0.30737358
24	0x3ed4c15f	0.4155378
25	0x3f0334b0	0.5125227
26	0x3edeeeb8	0.43541503
27	0x3ea98f5f	0.33117196
28	0x3eb6a572	0.356731
29	0x3ea5eef2	0.32408863
30	0x3e8d54ea	0.27603847
31	0x3ef96cb4	0.48715746
