model/model_20200907110637/model_final_bcp_4_0300_ts.pth (torch_old, 131256 bytes, 59 tensors)

module.net_ts.conv1.weight f4 [32, 1, 7]
000000 f3 2a 4c 3e 63 8d 7f 3d 7f b1 e5 3e cf f7 18 bf
       0.19938259 0.062390696 0.4486198 -0.59753126
000010 69 13 8a be 1b 64 19 bf 7d 24 c4 3e 48 b2 af be
       -0.26967934 -0.59918374 0.38309088 -0.34315705
000020 95 2a 86 be ad 53 79 bc 33 36 bd be 2c 58 82 be
       -0.26204363 -0.015217704 -0.36955413 -0.25457895
000030 41 94 9f 3d f7 d4 b7 be 97 81 2c 3f 5f a6 de be
       0.07791949 -0.35904667 0.6738524 -0.43486306
000040 b7 0d 50 3d dc 93 aa be 7a 68 3c 3e af 56 6c 3e
       0.05079433 -0.33315933 0.1839923 0.23079942
000050 54 1d 8f be dd 9e 1a bf 7a 32 16 3f 39 29 63 3e
       -0.27952063 -0.60398656 0.5867077 0.22183694
000060 cf 2c 39 bf 4e 33 df 3e 73 ed 83 be f1 c6 d1 3d
       -0.72334 0.4359383 -0.25767097 0.10243023
000070 40 29 15 3f 49 4e f3 bd fd 32 2f be 72 3a d0 3e
       0.5826607 -0.11880166 -0.17109294 0.4066959
000080 00 00 20 3e 1d b9 1e bf 22 2f 03 be 53 73 80 be
       0.15625 -0.6200121 -0.12810948 -0.25087985
000090 c6 c3 0a 3f f1 38 11 3d d8 da 05 3e 48 0e 3e be
       0.54204977 0.035454694 0.13071764 -0.18560135
0000a0 1f 02 07 3f a6 b9 1a 3e 80 a7 cc be 57 af 1b 3f
       0.5273761 0.15109882 -0.39971542 0.6081442
0000b0 9d 8e 4d be 28 68 a1 3d 6e 6b cc 3d 4d d2 09 bf
       -0.20073934 0.07881194 0.09981428 -0.5383652
0000c0 dd e0 96 3e 19 25 30 3e f1 7c 01 bf c1 7f ad 3e
       0.29468432 0.17201652 -0.5058127 0.3388653
0000d0 8e 70 d7 3e 47 05 98 3e 7e d1 02 be 6d 5d 51 bf
       0.4207806 0.29691526 -0.12775227 -0.8178318
0000e0 0a e6 7f 3d a1 4c d3 3d 90 5f 96 3d 03 b5 1a be
       0.06247524 0.1031735 0.07342446 -0.15108113
0000f0 6d 4d 04 3f f6 f8 e3 bd 38 e1 31 bf 5e 70 b3 be
       0.5168064 -0.1113147 -0.6948428 -0.35046667
000100 00 61 43 3f 23 8e 3c be b1 5b 49 3e 7a 7a 49 3e
       0.76319885 -0.18413596 0.19663884 0.19675627
000110 d2 d5 d1 3e 71 ae ed 3d 2d a5 d0 3e c5 ad 08 bd
       0.40983444 0.11605538 0.4075102 -0.033368845
000120 99 26 d5 be ee e5 f3 3d 82 c0 5b be 9d 6b 06 3f
       -0.4163101 0.1190909 -0.21460155 0.52507955
000130 38 06 2a bf bc 0b 12 bf 00 30 d7 3c 56 84 88 be
       -0.6641574 -0.57049155 0.026268005 -0.26663464
000140 8a 14 cf bc 91 ab 24 be c5 86 a9 bd 2e 6a b2 bd
       -0.025278348 -0.16081072 -0.082776584 -0.087116584
000150 fa fe 3b 3e b9 68 28 bf 48 ba 92 bd 3c 26 d3 be
       0.18358985 -0.65784794 -0.071644366 -0.41240108
000160 db de d4 3c a5 69 18 bf 0d 25 3e 3e 7b 86 13 bf
       0.025985172 -0.595362 0.18568821 -0.57627076
000170 90 4f 9d bd 1e 47 8e bc 17 ec bd 3e 61 e2 37 be
       -0.07681191 -0.017367896 0.37094185 -0.1795745
000180 86 9a e4 be 89 37 f1 3e d3 3a c1 3d 01 df 82 3e
       -0.44649142 0.47112682 0.09435048 0.25560763
000190 f1 48 af 3e 94 a3 88 3e 08 c1 27 3e ba 13 43 3d
       0.34235337 0.266873 0.1638223 0.047626235
0001a0 93 67 95 3e 96 4e 99 3e 18 05 66 be bb ff 51 be
       0.29180583 0.2994277 -0.2246288 -0.2050771
0001b0 6e bb 84 3f 00 12 9c be 19 59 69 be f0 ad 42 be
       1.0369699 -0.30482483 -0.22787894 -0.19011664
0001c0 33 fe 49 be 19 7a 56 be c2 fe 48 be 7c f3 c8 be
       -0.19725876 -0.20945014 -0.19628432 -0.39248264
0001d0 f8 d0 25 bf a4 56 12 3f 17 c0 a9 be 61 9f 34 bd
       -0.64771986 0.57163453 -0.33154365 -0.044097308
0001e0 32 4a a1 3e 43 a6 a8 3e 76 5d 59 3e 1b 74 5a be
       0.3150192 0.32939348 0.21227059 -0.21333353
0001f0 fe 11 70 be 86 90 d1 be cc 1a 32 3e 35 87 9a 3e
       -0.23444363 -0.40930575 0.17393035 0.3018128
000200 b4 92 12 bb 22 60 5e 3f f6 17 30 3d 27 a7 ac be
       -0.0022365274 0.8686544 0.0429916 -0.33721277
000210 9f 0a 9d bd 77 20 f1 3e ab 40 14 bd 3d dd 6c 3f
       -0.076680414 0.4709508 -0.036194485 0.9252508
000220 04 8b 82 3c ad e9 8f be a7 37 0d 3e 14 82 ea bd
       0.015935428 -0.28107968 0.13790761 -0.11450592
000230 37 95 51 3f 68 84 bf be 26 49 83 bd 57 a2 55 3c
       0.8186831 -0.37405705 -0.06410436 0.013039193
000240 83 f4 39 bd bc 6d 01 3f af 03 ba 3c d5 0d 83 be
       -0.0453992 0.50558066 0.022706835 -0.2559649
000250 52 2c e1 be 64 80 64 3f e9 b3 1b 3d bb f9 03 bf
       -0.43979126 0.8925841 0.038013373 -0.51552933
000260 5f e7 23 be d8 a0 c9 3d 3f 6b 21 bf 6d 2c 47 3c
       -0.1600623 0.09845132 -0.6305427 0.012156588
000270 63 ae 09 3e 74 c9 fa be 5b e2 c9 3e 55 ab df be
       0.1344543 -0.48981822 0.39430508 -0.43685403
000280 c5 58 9c 3e 39 bd e9 be 55 0f b6 be 7f c7 0a be
       0.30536476 -0.45652178 -0.35558572 -0.13552664
000290 02 ca 1e 3f e4 cc 68 be fe 20 b0 3e 83 08 8b 3d
       0.6202699 -0.2273441 0.3440017 0.06788733
0002a0 93 5b a4 3d c4 75 0c bf 98 a1 86 be 63 85 85 bd
       0.08025279 -0.54867196 -0.2629516 -0.06519582
0002b0 b8 60 32 3f f7 f1 6e 3d a6 3f 82 3d d5 db 89 be
       0.6967883 0.058336224 0.06359796 -0.2692553
0002c0 90 30 26 3f a8 68 73 be 3a 4a 15 3f 5e b2 46 3e
       0.6491785 -0.23770392 0.58316386 0.19403979
0002d0 11 01 24 3e 09 b8 04 3d ab d9 3f be 71 3d c1 be
       0.16016032 0.032402072 -0.18735377 -0.3774219
0002e0 a1 21 eb be 71 1d 35 be ea 0d 59 3e fd 2b bc 3e
       -0.45924094 -0.17687012 0.21196714 0.3675231
0002f0 60 f7 10 3f cb 0f 0f be 8f de 48 be cb 56 46 3f
       0.56627464 -0.13970868 -0.1961615 0.77476186
000300 80 86 ec bc b3 ee 38 3e b9 8c 20 3e 56 4f d4 3e
       -0.028872728 0.18059807 0.15678681 0.4146678
000310 03 4e e7 3e 4d f9 27 3f f7 7d ae be 81 aa 85 3e
       0.45176706 0.6561478 -0.3408048 0.26106647
000320 73 8b 14 bf 78 81 a7 bd 9f bd d4 bd fc b4 04 bd
       -0.5802528 -0.08178991 -0.1038773 -0.032399163
000330 af 53 02 bf 0f 15 90 3e b9 b0 23 3c aa c6 28 3f
       -0.5090894 0.28141066 0.009990864 0.6592814
000340 e1 83 d0 bd 2b 8b 0a 3d af ef 17 be 89 e5 18 bf
       -0.10181404 0.033824127 -0.14837526 -0.5972524
000350 be 6b be 3e 28 fc 68 be af 27 da 3b 6e d5 f5 be
       0.37191576 -0.2275244 0.0066575627 -0.48014396
000360 c4 74 4e be 99 8a 9a 3c be 4e 19 3f 1f bc 15 bf
       -0.2016173 0.018864917 0.59885776 -0.58490175
000370 59 f4 b5 be d1 28 4a 3f b8 d9 d6 be 5b e4 4e 3d
       -0.35537985 0.7896853 -0.4196298 0.050510745

module.net_ts.bn1.weight f4 [32]
000000 75 ca 37 3f 65 fe 17 3f e9 b3 37 3f 95 45 5e 3f
       0.717933 0.5937255 0.71758896 0.86824924
000010 47 dd 21 3f dd dd 44 3f b0 14 37 3f d7 1f 44 3f
       0.6322827 0.76901037 0.7151594 0.76611084
000020 a1 d9 44 3f df b6 57 3f 01 a0 23 3f 4c a4 1b 3f
       0.76894575 0.84263414 0.6391602 0.6079757
000030 9d 78 55 3f da 8b 22 3f 2b fd 1e 3f 53 dc 63 3f
       0.83387166 0.63494647 0.62105054 0.89008063
000040 41 75 73 3f 46 99 0b 3f 9e 22 61 3f 28 3f 5e 3f
       0.9510079 0.5453075 0.87943447 0.8681512
000050 fe a2 6a 3f 44 fe 4d 3f 78 24 3f 3f af 20 41 3f
       0.91654956 0.80466104 0.7466502 0.75440496
000060 a5 71 4d 3f f5 a8 3b 3f 0a 08 41 3f 84 81 3c 3f
       0.8025153 0.7330468 0.7540289 0.73635125
000070 af 3e 52 3f 52 69 2a 3f fa ca 32 3f 44 99 62 3f
       0.821269 0.66566956 0.6984097 0.88515115

module.net_ts.bn1.bias f4 [32]
000000 3e 18 b9 3d b1 cb 09 be e0 d8 0a be 3b 68 e6 3c
       0.09037827 -0.13456608 -0.13559294 0.028125873
000010 b0 be 0e 3e ff bd 93 bd ac de 32 3c 43 2b 23 3d
       0.13939929 -0.07213973 0.010917347 0.03983618
000020 62 61 fb bc c5 95 a0 bd 1a c8 92 3e 79 a2 06 be
       -0.030686084 -0.07841066 0.2866829 -0.13147916
000030 c2 eb 8c bd 5c 56 c3 3d 21 af a5 bd 61 25 0f be
       -0.06880905 0.09537956 -0.08090044 -0.13979103
000040 55 8b 6c bd 98 12 9d bd 9a b2 03 be 3e e4 85 3d
       -0.057750065 -0.07669562 -0.128611 0.06537674
000050 a8 cc bb 3b 94 da 71 3d 62 cd 2a 3e e7 6c 03 be
       0.005731184 0.059046343 0.1667991 -0.12834512
000060 39 0c 95 bc a0 b0 ad 3d 18 07 ab 3e 6a 09 d0 bd
       -0.018194305 0.08480954 0.3340385 -0.101580456
000070 2f 9f 45 3d e7 92 92 3e 6d 99 e3 3d 43 96 22 3d
       0.048247512 0.28627703 0.11113248 0.039694082

module.net_ts.bn1.running_mean f4 [32]
000000 7e 73 a3 ba 38 1e d8 39 d3 86 8a ba 73 60 6c b9
       -0.0012470332 0.00041221245 -0.0010568745 -0.00022542644
000010 f6 4d 3e b9 f6 16 51 3a b1 91 1f 3a af e7 4b 39
       -0.00018148855 0.0007976139 0.00060870784 0.00019445897
000020 b4 71 83 39 d0 03 86 3a 2f e2 8a 3a 18 f0 70 3a
       0.00025070983 0.0010224525 0.0010595972 0.000919105
000030 01 b3 ac ba 25 93 8f 39 da 60 c6 b9 a4 70 81 3a
       -0.0013175906 0.00027384717 -0.00037837663 0.0009875488
000040 4c 99 50 3a 68 e5 60 3a 80 c7 5b 3a 6c a6 48 ba
       0.00079574133 0.0008579106 0.0008383915 -0.00076541933
000050 c2 d9 6b ba e0 96 11 ba 9e e7 31 ba 1e 24 57 3a
       -0.0008996987 -0.0005553793 -0.0006786528 0.0008206981
000060 13 ce 86 ba af b6 a7 3a 60 21 46 ba 39 66 aa ba
       -0.0010284804 0.0012795533 -0.0007558074 -0.0013000435
000070 70 07 a4 3a 2a 36 9f ba 48 f9 35 ba 04 66 77 b8
       0.0012514424 -0.001214688 -0.0006941748 -5.89844e-05

module.net_ts.bn1.running_var f4 [32]
000000 cc 25 ab 3d 6c 8d a2 3d 56 59 5b 3d 7b 25 b3 3d
       0.083568186 0.0793713 0.053551994 0.08747383
000010 29 46 8d 3d 1e 83 77 3d a4 b5 58 3d 9e c6 c3 3d
       0.068981476 0.060427777 0.0529076 0.095593676
000020 59 19 6a 3d 7c 93 b2 3d 11 f8 87 3d 93 15 5d 3d
       0.05715308 0.08719537 0.06639112 0.053975653
000030 1b e6 d1 3d 8f 71 83 3d e5 de 90 3d e0 df b6 3d
       0.10248967 0.06418144 0.07073764 0.089294195
000040 6e e0 e3 3d 1a 03 49 3d 64 08 bf 3d db eb dd 3d
       0.11126791 0.049075224 0.09327772 0.108360015
000050 6f cb 9d 3d da 1a b0 3d 6b 94 98 3d d0 3c 8a 3d
       0.077048175 0.085988715 0.074501835 0.0674988
000060 31 f9 86 3d 00 78 ac 3d f4 46 c2 3d bf e8 b0 3d
       0.06590498 0.08421326 0.094861895 0.08638143
000070 0e 29 b7 3d 1c e4 5d 3d 74 72 a4 3d 2d 59 bf 3d
       0.089433774 0.05417262 0.08029643 0.09343181

module.net_ts.layer1.0.conv1.weight f4 [32, 32, 3]
000000 7b ae 1c be 2e 49 bf 3d 54 c1 8d 3c a8 62 87 bd
       -0.15300934 0.0934013 0.0173041 -0.06610614
000010 d4 d3 76 be 23 c9 2b 3e 3d 79 0c bd 36 1d 99 bc
       -0.24104244 0.16775946 -0.03429531 -0.018690687
000020 af 5f 42 be 06 9c c5 bc b6 65 bf be d6 5e 8b 3d
       -0.18981813 -0.02412225 -0.37382287 0.06805198
000030 8a ea 04 3e 28 85 47 3e c7 63 1a bd 63 84 81 be
       0.12980095 0.19484389 -0.03769281 -0.25296316
000040 bb 51 e5 bc 45 ee 09 bd e2 4c a1 bd 9f 45 10 be
       -0.027993074 -0.033674497 -0.07875992 -0.14089058
000050 db 11 cf 3d ca 41 b6 bd cc e1 0e 3d 83 45 66 3d
       0.101108275 -0.08899267 0.034883305 0.056218635
000060 72 c5 44 3e fe ff 83 bb 3c a7 b8 bb d1 ad b0 bd
       0.19215944 -0.0040283194 -0.0056351703 -0.08626903
000070 5c d6 69 bd 1a 98 b2 bb fc 7b 70 bd 7c 4b 3f 3e
       -0.057089195 -0.005450261 -0.05871199 0.18681139
000080 c4 94 17 3e 6d df 14 be 92 07 2c 3d 08 4a 40 3e
       0.14802843 -0.14538355 0.041999407 0.1877824
000090 42 a4 12 bc e8 d9 8d 3e a5 e3 23 3d a7 ea ff bc
       -0.008950295 0.27705312 0.04001202 -0.03123982
0000a0 f4 f7 cd be 04 97 3d 3d 87 f5 53 be 98 34 d9 bd
       -0.40228236 0.046286598 -0.2069913 -0.106057346
0000b0 64 9c 13 3e 7d 4f 88 bd 74 23 76 3c ad 59 b1 bd
       0.14415127 -0.06655786 0.015023101 -0.086596824
0000c0 bf 9a 97 be cc 81 e4 3d eb e6 60 bc 91 c1 2a 3d
       -0.2961025 0.11157569 -0.01372693 0.041688506
0000d0 c9 f9 0f bd f1 b5 0c 3e 2b 0f 3b 3e 83 1d 46 be
       -0.035150323 0.1374128 0.18267505 -0.19347195
0000e0 d5 8f eb 3d 7d 72 45 be 6c 99 28 be 9b 31 1a be
       0.11502043 -0.19281955 -0.16464776 -0.15057985
0000f0 86 15 b2 be f4 81 75 3b 4e 83 4b 3b 9c 48 c6 3d
       -0.34782046 0.0037461491 0.0031053605 0.09681818
000100 59 ab e6 3c aa 50 9b be 5d 7f 7f be 0c c5 b6 be
       0.028157877 -0.3033498 -0.24950929 -0.3569721
000110 65 3e d9 3d d9 e0 48 bd b9 6b 1c bd f6 c0 33 3d
       0.10607604 -0.049042556 -0.03818867 0.043885194
000120 70 de 40 bd ce 57 86 3e c7 4c a0 3d 1d 77 82 be
       -0.047087133 0.26238865 0.07827144 -0.254815
000130 44 92 2f bd 11 1e 62 3e 98 3b 9b 3c 94 52 0d be
       -0.0428641 0.22081782 0.018949315 -0.13801032
000140 44 70 c4 3c 6c b7 32 be e5 3e 8f 3d 5a 12 63 3d
       0.023979314 -0.17452782 0.06994418 0.055437423
000150 d3 ff 4d 3d df b5 01 3e 28 62 66 3e bf 91 12 3e
       0.0502928 0.12667035 0.22498381 0.1431341
000160 4c 7a 18 3e 2e a4 b7 bd c5 b7 66 bc 69 64 2d 3d
       0.14890403 -0.08966862 -0.0140819 0.042332087
000170 8b cf 61 bd ee 36 1d 3e 54 d3 09 bf c9 ca a3 bd
       -0.05512957 0.15352985 -0.53838086 -0.079976626
000180 79 68 54 be f7 90 90 3b d7 ca 2d 3e 2d 60 68 be
       -0.20742978 0.0044118124 0.16971909 -0.22692938
000190 fd a3 ce bd 93 20 0f be 64 12 a1 be 1d 53 3a bd
       -0.10089872 -0.1397727 -0.31459343 -0.04548942
0001a0 2f 0d ee 3d 20 f1 46 be 1e eb c5 bd 4d af 31 3d
       0.11623608 -0.1942792 -0.09663986 0.04338007
0001b0 fe 53 33 be dd ac 8a 3d 54 18 37 3d 0f e1 e3 3d
       -0.17512509 0.06771252 0.044700935 0.11126911
0001c0 b4 93 25 bd e8 3f 8a 3c 99 7a 83 bd 53 9e dd 3d
       -0.040424064 0.016876176 -0.06419868 0.108212136
0001d0 e6 ce 64 bd b3 0f 99 bc 90 e6 cc bd 1a 0c 8c 3d
       -0.055861376 -0.018684244 -0.10004914 0.06838246
0001e0 3f 17 f1 bd 47 60 31 bb 2f 9a 86 3d 36 f1 bc bd
       -0.11772012 -0.0027065442 0.06572377 -0.09225695
0001f0 8f 07 7e 3d d1 18 1c bd 57 14 a1 bd 0d d3 21 be
       0.062018927 -0.038109604 -0.07865208 -0.15803166
000200 fb 09 75 3d c7 a2 da bd dd 58 24 be 30 4c 21 bd
       0.05982397 -0.106755786 -0.16049524 -0.0393793
000210 4a 23 92 be 7a 65 21 be 09 a8 05 be 66 25 fc 3d
       -0.28542548 -0.15761366 -0.13052382 0.12311821
000220 b1 19 09 bd 57 75 23 3e 20 49 f9 bc db 36 61 3d
       -0.033471767 0.1596273 -0.030430377 0.054983955
000230 c3 43 8d bc 45 d0 32 be f6 45 4d be ca 99 3e 3d
       -0.017244225 -0.17462261 -0.20046219 0.046533383
000240 e8 58 96 3d 8f e2 3b 3d 56 c2 33 be 57 52 0f 3e
       0.07341176 0.04587036 -0.17554602 0.13996254
000250 0c 0e c0 3d 46 1a 00 be c1 e2 04 be 40 30 9a 3e
       0.09377679 -0.12510023 -0.12977125 0.30114937
000260 63 34 ff bd a7 ef c3 3d e2 11 cf 3d 90 33 c1 3d
       -0.12461164 0.095671944 0.10110833 0.09433663
000270 a3 1c 86 3d e5 a8 94 be e4 d2 0f 3d 1e 50 3e 3e
       0.06548431 -0.29035106 0.03511323 0.1858525
000280 e1 0c 0b be 0c b9 90 3a d7 a2 82 be 49 85 50 3e
       -0.13579132 0.0011041476 -0.25514862 0.20363344
000290 03 00 73 bc b3 1e 85 3e e8 b8 8a bd 42 cc 27 bb
       -0.014831546 0.25999984 -0.06773549 -0.0025603925
0002a0 59 6e b1 bd eb a9 7f bc 18 9f 0d 3e 4e 4c b6 3d
       -0.08663625 -0.015604476 0.1383022 0.08901273
0002b0 ca 3b 85 bd a5 7c ef bd 7e 62 72 3e c7 0f 40 3d
       -0.065055445 -0.11693696 0.23670384 0.046890046
0002c0 7b 8c 7b be aa f0 09 be 73 10 ea 3d bd 2e ac 3e
       -0.24565308 -0.13470712 0.11428919 0.33629408
0002d0 48 cc d9 3c e6 3f a8 3d e8 34 4a bd b3 55 0b be
       0.026586667 0.08215313 -0.04936686 -0.1360691
0002e0 91 5d 94 be 93 0d cd bd 23 96 0d bd ac ba b9 3b
       -0.28977636 -0.10012355 -0.03456701 0.005668005
0002f0 77 66 f7 3d 9f c2 62 bd 37 b7 01 be a4 43 89 be
       0.120800905 -0.055361386 -0.12667547 -0.26809418
000300 b6 4d 26 3e 6e f5 da bd 5e dd 07 be 1f 4a 2f be
       0.16240582 -0.10691343 -0.13268039 -0.17118119
000310 37 d6 90 be 0d c3 ea bd 6c 17 58 3e 12 ce 1b bd
       -0.28288433 -0.11462984 0.21102685 -0.03803832
000320 30 b3 d5 ba dc fd bb 3c 5e 88 90 3d dd a1 11 bd
       -0.0016304012 0.022948198 0.0705726 -0.035554755
000330 27 96 83 3c 5a 76 4c bc 1a b8 a0 3d a6 e3 6f bc
       0.01606281 -0.012479389 0.078476146 -0.014641678
000340 9a f8 82 3e 85 55 dd 3c 43 38 a9 be ba 71 41 be
       0.25580293 0.027018318 -0.33050737 -0.1889104
000350 91 77 ec bd 96 84 2f 3d b9 27 25 bd 58 e2 b2 be
       -0.11546243 0.042851053 -0.040321086 -0.34938312
000360 e6 57 e1 bd f5 75 2a 3e 9f 76 57 3d f8 1e f5 bd
       -0.110030934 0.1664656 0.05260336 -0.119687974
000370 d1 2d d1 3d fe 80 03 be c0 68 a1 3d 9f f5 41 be
       0.10213817 -0.12842175 0.078813076 -0.18941353
000380 49 89 5d 3e 67 87 a2 be 7b a4 d5 bd aa 17 50 be
       0.21634401 -0.3174393 -0.10431763 -0.20321527
000390 ee f5 d8 bd 88 58 a5 3d e2 dd ff bd 82 fd 38 be
       -0.10593782 0.080735266 -0.12493493 -0.18065456
0003a0 a4 85 79 bb 7d ed 4a be 96 aa 4e 3e b5 81 37 be
       -0.003807404 -0.19817157 0.20182261 -0.17920573
0003b0 6e a9 cd bd 89 c9 a4 bd fc e5 9d bd d4 c0 a5 3d
       -0.10042082 -0.08046252 -0.07709882 0.0809342
0003c0 2d 6d 88 3c ea ed 9f 3d c8 e7 0c 3e 66 af de bd
       0.016653622 0.078090504 0.13760293 -0.10873298
0003d0 8d 31 8e 3c 75 d7 81 bd e7 f0 ec 3d d5 f6 44 3e
       0.017357612 -0.06339923 0.11569386 0.19234784
0003e0 e3 d2 9f 3c db 92 5c 3e cd 89 56 bd 69 cc 2a 3e
       0.019509738 0.21540396 -0.05237751 0.16679539
0003f0 a0 67 a3 3e 83 de 9c be b3 5e 12 bb 00 a1 31 3e
       0.31914997 -0.30638513 -0.0022334277 0.17346573

module.net_ts.layer1.0.bn1.weight f4 [32]
000000 89 26 3a 3f b9 de 30 3f c4 37 3b 3f f9 86 49 3f
       0.7271505 0.6908985 0.73131967 0.78721577
000010 76 f6 29 3f b0 23 5c 3f 8f 60 52 3f e3 30 1c 3f
       0.66391695 0.85991955 0.82178587 0.61012095
000020 8c b3 04 3f 95 17 5b 3f ea f0 5c 3f 20 30 2f 3f
       0.51836467 0.8558286 0.86305106 0.6843281
000030 3b 86 2b 3f 83 7b 40 3f 6a 31 2a 3f db eb 2c 3f
       0.67001694 0.75188464 0.6648165 0.67547387
000040 2a 17 2b 3f bb 54 58 3f 58 8e 26 3f 5e fd 29 3f
       0.6683222 0.8450429 0.6506095 0.6640223
000050 aa 6a 3e 3f be 7b 2a 3f 83 bb 11 3f b0 22 33 3f
       0.74381506 0.66595066 0.56926745 0.69974804
000060 6f 65 45 3f 25 bf 6f 3f 21 bb 5f 3f 93 e5 49 3f
       0.771079 0.9365104 0.8739491 0.7886593
000070 95 b1 48 3f 62 60 49 3f 41 03 49 3f 6c 08 3a 3f
       0.7839597 0.78662694 0.7852059 0.726691

module.net_ts.layer1.0.bn1.bias f4 [32]
000000 76 34 83 bd 91 d3 0f be 53 a5 92 bd a0 05 af be
       -0.064064905 -0.1404555 -0.07160439 -0.3418398
000010 ce fc 10 be b7 83 a3 be e8 82 38 be 0b 11 06 be
       -0.14158937 -0.31936428 -0.18018687 -0.13092439
000020 f6 f3 21 bd d4 88 65 be a6 b2 99 be 3d ca 03 be
       -0.0395393 -0.22415477 -0.3001911 -0.12870117
000030 de 88 87 be 27 40 3b be 94 ff 13 3d 9f 9a 25 bc
       -0.2647161 -0.18286191 0.03613241 -0.010107665
000040 aa 6e b4 bd 24 0f a3 bd 06 6a c8 bd 04 66 41 be
       -0.0881017 -0.07961872 -0.09785847 -0.18886572
000050 57 fa fc bd bf db 86 bd e1 f0 a2 3d 6f ad 13 be
       -0.12352436 -0.06584882 0.079561 -0.14421628
000060 b1 7d 22 be ae 56 a3 be c5 c0 99 be f8 4a ee bd
       -0.1586826 -0.3190207 -0.30029884 -0.11635393
000070 cb 34 d3 bd 47 9a c8 bd c4 c1 87 be 4e fb da bd
       -0.10312804 -0.09795051 -0.2651502 -0.10692464

module.net_ts.layer1.0.bn1.running_mean f4 [32]
000000 f3 b5 ba bf 7e e2 bc bf 0d 30 04 bf 69 8a ab be
       -1.4586776 -1.475662 -0.5163582 -0.33504036
000010 ab 04 ff 3f 63 d6 5c bf 13 bd ac bf 43 42 97 bf
       1.99233 -0.8626463 -1.3495201 -1.1817096
000020 c4 b7 41 3f c2 38 b5 bf e9 80 a1 3e 67 7b 49 bf
       0.7567103 -1.4157946 0.31543663 -0.7870392
000030 cc 4c 21 be 64 a0 01 40 f2 5d 22 bf c0 a9 82 be
       -0.15751952 2.0254145 -0.634246 -0.25520134
000040 06 d4 59 bf ed 52 a3 bf 69 61 c6 bf a9 80 c5 bf
       -0.8508915 -1.2759682 -1.5498477 -1.5429889
000050 d7 39 7e 3d e9 94 c3 be 32 9a 87 bd d8 55 41 bf
       0.06206688 -0.38199547 -0.06621207 -0.7552161
000060 a0 de ba bf 54 60 bf bf aa 27 58 bf 5f e0 4a bf
       -1.459919 -1.4951272 -0.8443552 -0.79248613
000070 22 4d 65 be d9 99 9e bd 7f dd 44 bf 2b b5 e5 3f
       -0.22392705 -0.07744188 -0.76900476 1.7945913

module.net_ts.layer1.0.bn1.running_var f4 [32]
000000 80 67 d5 3f 94 b7 9f 3f a7 70 8b 3f 71 3d 8a 3f
       1.6672211 1.2477899 1.0893754 1.08
000010 2f 5d e4 3f 40 50 d0 3f 8d 42 c9 3f 08 57 8a 3f
       1.7840937 1.627449 1.5723435 1.080781
000020 8a 66 70 3f d2 76 c8 3f 22 f4 db 3f 9f 31 98 3f
       0.9390646 1.5661261 1.7183878 1.1890143
000030 9a a4 93 3f 9b 9b e5 3f b4 4a 89 3f 4e 99 8a 3f
       1.1534607 1.7938112 1.0725923 1.0828035
000040 b4 44 60 3f 85 5a ac 3f 56 1b 85 3f 07 85 8c 3f
       0.8760483 1.3465124 1.0398967 1.0978097
000050 c3 cc bb 3f d7 50 ad 3f c9 ad a6 3f 24 19 b5 3f
       1.4671863 1.3540295 1.3021785 1.4148297
000060 d6 07 a1 3f c1 96 f5 3f c0 37 98 3f 9a 83 e5 3f
       1.2580516 1.9186631 1.1892014 1.7930787
000070 c3 42 e3 3f d1 92 a1 3f 50 0c bb 3f 1f b5 db 3f
       1.7754749 1.262293 1.4613132 1.7164649

module.net_ts.layer1.0.conv2.weight f4 [32, 32, 3]
000000 36 ff 38 3e 2d e9 a0 3d 78 3d 10 3c 11 71 84 3d
       0.18066105 0.07856975 0.008803718 0.06466878
000010 0e 2f f0 bc 2e c1 20 3d 10 bb cf 3d be 9b 7d be
       -0.029319312 0.03924673 0.10143101 -0.24766442
000020 ac 10 9b 3d ed 29 70 be 37 30 a2 3e da d9 05 be
       0.07571539 -0.23453493 0.3167741 -0.13071385
000030 40 d1 49 3e 57 98 54 bd ef 6a 5e be 71 84 c9 3d
       0.19708729 -0.051903095 -0.2172048 0.09839714
000040 cc 39 bc be cb 0f 30 3d 51 46 b1 3e 6f 96 7d be
       -0.36762846 0.04298381 0.3462396 -0.24764417
000050 d8 5b d8 3c 0d 46 17 bc 04 1b 4a bc c9 59 09 be
       0.026410982 -0.00923301 -0.012335543 -0.13413157
000060 8f 35 ac bb 03 21 00 be 19 74 34 be 4f ad a3 3d
       -0.005255408 -0.12512593 -0.17622413 0.0799204
000070 dc 02 02 3c a9 05 44 3d 0a 3d f1 3d 87 65 22 3d
       0.007935252 0.04785696 0.117792204 0.039647605
000080 18 fa c9 ba a8 59 c2 bb 0b 87 90 be a8 b1 05 3e
       -0.0015409617 -0.005931098 -0.2822803 0.13056052
000090 98 e0 9b 3d dc ed cf bd 3c bf ea 3d bc 4c 64 bc
       0.07611197 -0.1015279 0.11462256 -0.0139343105
0000a0 c5 b1 d8 3c fb 81 bf bd ab 72 95 3e 8c 82 3f 3d
       0.026451955 -0.09350964 0.29189047 0.04675536
0000b0 42 0b 1c 3c ee 20 13 3e 13 8b 92 be fe 77 15 3e
       0.009524168 0.1436803 -0.2862173 0.14596555
0000c0 c9 19 70 bd da e3 4a 3e 7d 99 c3 3c f8 b3 ef bd
       -0.05861834 0.19813481 0.0238769 -0.11704248
0000d0 b1 8d 7b 3d 74 60 f6 3d 3f 91 04 be 13 c1 87 3d
       0.061414424 0.12030116 -0.12946032 0.06628623
0000e0 a9 64 8a be f8 32 29 3d 88 29 40 3e 67 85 84 3d
       -0.27029923 0.041308373 0.18765843 0.06470757
0000f0 b5 fb 1f 3d 76 b7 14 3e fd da 0f be 9e 82 58 3e
       0.039058406 0.1452311 -0.14048381 0.21143577
000100 28 06 02 be 53 59 38 3c 75 92 a7 3d cc 58 4d be
       -0.12697661 0.011251765 0.08182231 -0.20053405
000110 35 97 34 be cb 6b b6 3d 56 5f 31 3e 70 70 23 3d
       -0.17635806 0.089072786 0.17321524 0.03990215
000120 39 81 e9 bd 62 57 5d 3d 66 39 19 be bf 33 3d be
       -0.114016004 0.054038413 -0.14963302 -0.18476771
000130 2d 78 5e bd d5 49 de bb ab a9 42 3e 00 9d 0f 3d
       -0.054313827 -0.006783704 0.19010036 0.035061836
000140 fe 49 88 be 37 78 6f bc 0e 5c 34 bd 96 ab f7 3c
       -0.26618952 -0.014616064 -0.044033103 0.030233186
000150 46 21 e4 3d 33 5f cd be f0 a4 b4 be d9 16 82 3d
       0.11139159 -0.40111694 -0.35282087 0.06352014
000160 e5 63 e2 bd 37 91 a4 3d 4b a3 ff 3d 47 e2 81 be
       -0.110542096 0.0803551 0.124823175 -0.25367948
000170 78 30 a1 be 5d 52 ea bd a0 75 9b bd c5 9a 20 be
       -0.3148229 -0.11441491 -0.075907946 -0.1568404
000180 49 e3 0c 3e ce 2b d1 bd df 1b d3 bd 66 31 aa 3d
       0.13758577 -0.10213433 -0.1030805 0.08310203
000190 24 ee b5 bd f5 fa 9a bd f0 b4 ff bd 69 36 8e be
       -0.08883312 -0.075673975 -0.12485683 -0.27775887
0001a0 1e a9 14 bc 0f ad b8 bc 61 e9 5d bc ad ea 27 be
       -0.009073524 -0.022543458 -0.013544411 -0.16398115
0001b0 1e f5 81 3e 0a 75 a0 bc ef 81 4a bc b7 7d 71 be
       0.25382322 -0.019587059 -0.01236008 -0.23583113
0001c0 c4 14 8a 3d 64 f5 10 be be 18 1f bd ae 15 23 be
       0.06742242 -0.14156109 -0.038841955 -0.15926239
0001d0 af 65 8f bd b0 ee c2 bd 0d c1 f0 bc 56 8b 99 3d
       -0.070018165 -0.09518182 -0.029388929 0.07497279
0001e0 e2 83 e3 bc 3c eb 0b 3e ec 3b d7 3c 1d 96 45 3e
       -0.027772848 0.13663954 0.02627369 0.19295545
0001f0 8e 27 f4 bc af 08 53 3c 08 ea cf 3d b5 c7 53 3d
       -0.029804017 0.012880488 0.1015206 0.051704127
000200 9b dc 7b 3e ab f1 44 3d 3b e1 4e 3e af f2 5f 3c
       0.24595873 0.048082035 0.20203106 0.0136687
000210 36 38 c2 3c e3 aa 9a 3d 6d 90 40 bc 6f 8d 06 bd
       0.023708444 0.07552125 -0.011753184 -0.032849725
000220 85 0a b8 bd 43 75 5f 3d aa 6b 8f bd 48 83 32 3d
       -0.089863814 0.05455519 -0.07002957 0.04358223
000230 e1 23 8a bd dd a9 25 3e 82 46 8d 3d 3c 5f 65 be
       -0.067451246 0.16178079 0.06898214 -0.2239961
000240 a9 30 27 3e 5a 96 53 bd 0d 84 68 3c 61 a9 9d be
       0.16327156 -0.05165706 0.01419164 -0.30793288
000250 76 d2 7a 3b a6 34 62 be 0e bc ae 3c 96 d1 18 be
       0.0038272417 -0.22090396 0.021329906 -0.149237
000260 e7 05 84 be cc 55 0c be dd 8a c8 3d ff e2 42 3c
       -0.25785753 -0.13704604 0.09792111 0.01189494
000270 07 ca ad bd 5d ef 67 3e cb cb 7b 3e 96 3a d6 bc
       -0.08485799 0.22649904 0.2458946 -0.026150983
000280 3f f1 05 be d7 d9 c4 bd 88 d8 62 be f8 bf a8 bd
       -0.1308031 -0.09611862 -0.22152913 -0.0823974
000290 f1 3b c4 bc ed 37 3e be cd c6 99 be 83 f8 d5 bc
       -0.023954364 -0.18576021 -0.30034485 -0.026119476
0002a0 cc 45 be bd b1 d4 4e 3e 64 3d 37 3e ee c7 38 3e
       -0.092906564 0.20198323 0.17894512 0.18045017
0002b0 9f a2 99 3d 5d dd 0b bc ea b1 5d 3d 18 f6 45 be
       0.07501721 -0.008536664 0.05412475 -0.19332159
0002c0 2a 2e 55 3d 04 c0 9c be 17 62 7b bd 84 22 24 be
       0.05204598 -0.30615246 -0.061372843 -0.16028792
0002d0 ed df 5b 3d e7 00 0a be a2 38 e4 bd 52 1d 30 bd
       0.05368035 -0.13476907 -0.11143614 -0.042996712
0002e0 5f 2f 26 3d bb b5 8d bc a7 fe 0e be df 65 8e 3d
       0.04057252 -0.01729857 -0.1396433 0.06953024
0002f0 21 71 eb 3c 84 d2 26 be 09 ef 38 be 55 e9 7e bd
       0.028740468 -0.16291243 -0.18059935 -0.06223424
000300 f8 c7 24 3e 8b 8b 1a 3d 09 cf 21 3e 27 ca 8c 3e
       0.16091907 0.037730735 0.15801634 0.2749798
000310 4e 73 12 3e 08 47 08 3d 33 36 59 be 04 0e 80 3d
       0.14301798 0.033270866 -0.21212082 0.06252673
000320 ca c7 ef bd b4 6c a3 3d 86 77 c5 3c ad 73 36 3e
       -0.117080286 0.07979718 0.024104845 0.17817564
000330 42 c4 e7 bd 0e b9 d8 bd e9 f0 11 bd 86 e3 ce 3c
       -0.1131673 -0.105821714 -0.03563014 0.025254976
000340 23 ce 2f 3e f1 28 d3 3d 08 23 63 3e b1 f1 45 be
       0.17168479 0.10310543 0.22181332 -0.19330479
000350 69 ab d5 bc 61 97 26 3e 4a 88 77 3d d8 1b 9f 3d
       -0.026082711 0.16268684 0.06043271 0.07768983
000360 09 ca a4 bd c7 1b 09 3e 5b 8c 64 bc 41 ca 1c 3e
       -0.08046348 0.13389502 -0.013949479 0.15311529
000370 a0 ba 13 be af f9 1d 3e 74 18 0b 3e 1a e1 37 be
       -0.1442666 0.15427278 0.13583547 -0.17956963
000380 73 b1 29 bc 36 76 aa be 09 ce 3e be db 29 6b 3e
       -0.010357249 -0.33293313 -0.18633284 0.22965185
000390 a6 72 99 3d 9d 27 fc bd a4 d1 ad 3d f5 e3 65 bc
       0.074925706 -0.12312243 0.084872514 -0.0140314
0003a0 0b 8b 00 bc 3e de 67 3d 82 02 bd bd bf 1c 36 3e
       -0.00784565 0.05660843 -0.09228994 0.17784403
0003b0 41 d0 95 3c d4 01 ea 3c 2a 92 0c 3e 24 cb 49 be
       0.01828778 0.028565325 0.13727632 -0.19706398
0003c0 bc 46 d7 bd 42 cc 4d 3e ef da 1a 3e 5e cb 17 3e
       -0.105115384 0.2009745 0.15122579 0.14823672
0003d0 9c 7d 60 be 85 43 c7 bd 24 7c 79 3b 42 4a 1c 3e
       -0.21922916 -0.09729675 0.0038068378 0.15262702
0003e0 5d 2d 8a bd 4a bb a4 3e 59 46 42 3e 9b 77 3b 3e
       -0.067469336 0.3217414 0.18972148 0.18307345
0003f0 e2 d0 08 3e d0 bd c4 bc 38 89 65 3e b9 b6 93 be
       0.13360932 -0.02401629 0.22415626 -0.28850344

module.net_ts.layer1.0.bn2.weight f4 [32]
000000 a5 52 3e 3f 0a 2f 27 3f df 35 5a 3f d7 8f 57 3f
       0.74344856 0.6530615 0.8523845 0.8420386
000010 ba b6 48 3f 95 0a 35 3f a0 11 51 3f 9a 5d 37 3f
       0.7840382 0.7071927 0.8166752 0.716272
000020 9a 58 44 3f 28 e1 23 3f 3d 19 10 3f 3c 05 26 3f
       0.76697695 0.64015436 0.5628851 0.6485174
000030 7e 2d 2a 3f 4a 87 2f 3f b8 e7 53 3f 8e 21 2a 3f
       0.66475666 0.6856581 0.8277545 0.6645745
000040 ba 95 26 3f 27 ca 33 3f a1 5e 29 3f 6c 57 22 3f
       0.65072215 0.70230335 0.6616002 0.63414645
000050 92 4f 13 3f 90 c3 61 3f 9f 0c 2c 3f 30 ff 4a 3f
       0.5754329 0.8818903 0.6720676 0.79295635
000060 ad f7 12 3f e0 62 56 3f 3f 60 3d 3f 1c 51 72 3f
       0.57409173 0.8374462 0.73974985 0.94655013
000070 08 3f 3e 3f d9 d7 25 3f f2 74 59 3f 20 c4 1f 3f
       0.7431493 0.6478248 0.8494407 0.6240864

module.net_ts.layer1.0.bn2.bias f4 [32]
000000 36 5c 02 3d 1d f5 c3 be aa ee 29 be be 48 7a be
       0.03182622 -0.38272944 -0.1659495 -0.24441811
000010 31 ca 4b be ab 8e 88 3d 2c e3 40 be 4a 42 91 bc
       -0.19901349 0.06667837 -0.18836659 -0.017731804
000020 d2 b2 c7 bd 29 07 9e be 58 28 e6 3d f8 17 6a 3d
       -0.09750904 -0.30864838 0.11238164 0.057151765
000030 cc 6a 0c be bb 3a 96 3c 2f 35 dd bd c5 ba 8d bd
       -0.13712615 0.018338552 -0.108011596 -0.06920389
000040 7e 7e 6d be 71 91 4d 3d 85 46 0d be 3d 6a c6 be
       -0.23192784 0.05018753 -0.13796432 -0.38752928
000050 a5 d1 cd bd 3f 88 39 be 28 b5 33 be 67 5b a3 3c
       -0.10049752 -0.1811838 -0.17549574 0.019941045
000060 2b 88 02 bd 2d 8d 09 be 04 52 cf bc 4c d5 cd bd
       -0.03186814 -0.1343276 -0.025307663 -0.10050449
000070 f0 1d 95 bd 12 13 90 bd f3 d6 24 be be dd a0 be
       -0.07281101 -0.070348874 -0.16097622 -0.31419176

module.net_ts.layer1.0.bn2.running_mean f4 [32]
000000 11 7f a3 be 74 9e 23 bf 5e 5d 04 3f 63 01 10 be
       -0.3193288 -0.63913655 0.5170497 -0.14063029
000010 25 72 9b be 01 91 d1 3d eb 54 b3 3b a4 3e 8a bb
       -0.30360523 0.102327354 0.0054727695 -0.004218893
000020 fa c7 ca be fd e4 10 be 8d 24 29 bd fd 52 1b be
       -0.39605695 -0.14149852 -0.041294623 -0.15168376
000030 62 46 f9 bd 84 d3 cf be f5 e5 36 3c 36 69 3d 3e
       -0.121716276 -0.4059106 0.0111632245 0.18497166
000040 e9 ff 71 be 36 15 a6 be 05 14 13 3e 45 22 db bd
       -0.23632778 -0.32438058 0.14363106 -0.10699896
000050 32 7f f4 be 09 bf 79 bb 43 5b 2d be 9a d9 ad be
       -0.47753292 -0.003810825 -0.16929345 -0.3395508
000060 dc 06 87 3e 54 cd 11 bf 80 d0 46 be dd e1 18 bf
       0.2637242 -0.5695393 -0.19415474 -0.5971964
000070 71 65 70 bf 00 74 3f 3f 54 f4 a4 3e 20 94 a6 be
       -0.9390479 0.74786377 0.32217658 -0.32534885

module.net_ts.layer1.0.bn2.running_var f4 [32]
000000 d8 dd fb 3e 98 51 8a 3e ad b5 b9 3e 03 34 16 3f
       0.4919269 0.27015376 0.3627142 0.58673114
000010 42 60 c8 3e 5c 9d b5 3e 9d 07 d9 3e f5 ea e0 3e
       0.3913594 0.35471618 0.4238862 0.43929258
000020 9f e3 0a 3f 39 da e0 3e b5 17 92 3e 8d e8 a6 3e
       0.5425357 0.4391649 0.28533712 0.32599297
000030 f9 db 03 3f 04 d5 e9 3e f2 d2 e0 3e 55 5a e3 3e
       0.51507527 0.4567033 0.43910939 0.44404855
000040 82 c5 fd 3e 99 34 d3 3e d1 c2 94 3e e4 f6 0f 3f
       0.4956475 0.41251066 0.29054883 0.562361
000050 fe b2 f6 3e c1 4d 02 3f 39 85 dd 3e 60 2e f9 3e
       0.48183435 0.50899893 0.43265703 0.48668194
000060 ec 14 00 3f f5 4d 0d 3f 3f 66 04 3f 81 d2 0e 3f
       0.50031924 0.5519708 0.51718515 0.55789953
000070 6d 1f 15 3f 95 2c e0 3e 73 7f 04 3f bb e4 ee 3e
       0.58251077 0.43784013 0.5175697 0.46658882

module.net_ts.layer2.0.conv1.weight f4 [32, 32, 3]
000000 21 3f 57 3e a9 3b 6f bd 16 e7 56 bc e8 a9 0e 3e
       0.21020176 -0.058406506 -0.013116619 0.13932002
000010 1f f2 1d bd b4 38 2f be de ca de bd 37 d9 f0 3d
       -0.038560983 -0.17111474 -0.108785376 0.117601804
000020 f4 ec 75 be 85 11 17 be c8 73 40 3e f7 16 28 3d
       -0.24016172 -0.14752777 0.18794167 0.041037526
000030 99 07 23 be f9 a2 5e 3d 02 9a c9 3d 67 a7 83 3d
       -0.15920867 0.05435464 0.09843828 0.06428414
000040 fb 86 7c be 33 27 fb 3c 27 1e a8 bd 47 ea 8a 3d
       -0.24660866 0.03065834 -0.08208876 0.06782966
000050 c7 74 01 be 11 fe 04 be f1 ed 4c 3e b8 34 b8 3e
       -0.12642203 -0.12987544 0.20012642 0.3597772
000060 8e 00 e6 3d 28 50 f0 3d a9 7a 64 3d 9b 3f e4 bc
       0.112305745 0.117340386 0.05578104 -0.02786236
000070 f3 22 18 3e e9 08 a3 be b4 1f 96 3c c4 fd 5e 3e
       0.14857082 -0.31842735 0.018325664 0.21776491
000080 1d 79 e4 bc e0 0d eb bd 7c 4a 41 3d 23 87 1d be
       -0.027889783 -0.11477256 0.047190174 -0.15383582
000090 8f 7a 3a be 57 de 38 3b 8d 84 91 bd 95 16 64 bc
       -0.18210815 0.0028208697 -0.0710536 -0.0139214
0000a0 f2 2b 09 be 86 83 24 be 4b 57 1f bd 11 d6 87 3e
       -0.1339567 -0.16065797 -0.03890161 0.26530507
0000b0 29 7b d5 bd b3 c6 50 be e9 48 08 be 4a 1a a6 3d
       -0.104238816 -0.20388298 -0.13309063 0.08110483
0000c0 73 a3 a9 be dc 35 3f 3d ca 88 1a bd 3f cb 51 bd
       -0.33132514 0.046682224 -0.03772811 -0.05121922
0000d0 3b 11 66 be 28 22 21 3d b7 82 54 be ee 80 7a bd
       -0.2246751 0.039339215 -0.20752989 -0.061158113
0000e0 68 f2 0c be f5 55 ca bd 51 13 64 3c 62 90 a9 3c
       -0.13764346 -0.09879676 0.013920621 0.02069873
0000f0 de 78 30 3e c4 fd e4 3d 22 61 94 3e 45 0e 6c 3e
       0.17233607 0.111812145 0.28980356 0.23052318
000100 be 94 4f be ce 2e a7 bd ff 7e 9a bc fb 13 06 3d
       -0.20271584 -0.08163224 -0.018859385 0.0327339
000110 b1 19 1c 39 1e fb 5d be e4 c9 f9 bd 68 59 5c 3d
       0.0001488689 -0.21677825 -0.12196711 0.053796202
000120 ea eb f3 bc f4 5e 51 3e d3 9e 3a 3d 38 49 83 3e
       -0.029775579 0.20446378 0.045561623 0.256418
000130 4a 4d 12 3d f6 9b 06 3d 78 85 c8 3e 83 d0 2e bd
       0.03571824 0.03286358 0.3916433 -0.04267932
000140 75 31 81 3e 9c c9 56 be c1 07 b5 3d b1 01 3d be
       0.25233045 -0.20975345 0.088393696 -0.18457676
000150 22 8a 2c 3b 7e f1 66 bd 71 0c 11 bc 3a ee 94 bd
       0.002632745 -0.05638265 -0.008853064 -0.072720006
000160 03 f9 9b 3d 8c a7 2f 3e 8d 7f dd bc fd 41 e6 3d
       0.076158546 0.17153758 -0.02703836 0.11243055
000170 17 2f 37 3e 2b 2a ff bd 2d f8 8d be 9a 02 00 bd
       0.17889057 -0.12459215 -0.27728406 -0.03125248
000180 47 e3 60 be a9 46 40 bd c1 bb 36 3e b1 1b 84 3d
       -0.219617 -0.046942387 0.1784506 0.06450594
000190 3f a2 07 bd dc 4f 9e bb b9 c2 c3 3d 6c 49 42 be
       -0.033113714 -0.0048312973 0.09558625 -0.1897332
0001a0 10 3c 51 3e da e5 de 3b e9 8b 5c 3e b1 a4 1a 3e
       0.20433068 0.006802303 0.21537746 0.15101887
0001b0 3d f4 52 3e 8a 69 52 bd 20 4d 9e 3d 55 61 2a be
       0.20600982 -0.05137018 0.07729554 -0.16638692
0001c0 84 a0 7c bc fa f1 c6 3d b6 81 03 be d8 19 9c be
       -0.015419129 0.09714122 -0.1284245 -0.30488467
0001d0 61 58 13 be b3 a1 eb bd bb 49 a1 be ae cc 8e 3d
       -0.14389183 -0.11505451 -0.31501564 0.06972633
0001e0 c2 55 45 bd c8 22 7e 3d a1 d7 c5 3c a1 2b 1a 3e
       -0.04817749 0.06204489 0.024150671 0.15055706
0001f0 46 55 c1 bd ba a7 e0 bc 2d 78 09 be 0f 3d 8d be
       -0.09440093 -0.027423728 -0.1342475 -0.27585647
000200 08 74 21 bd e5 0c 5a be 06 f5 16 be 51 89 b8 bd
       -0.039417297 -0.21293981 -0.14741907 -0.09010566
000210 b0 91 d9 bd 64 c9 18 be b5 a2 b2 3d 51 a1 a7 bb
       -0.10623491 -0.14920574 0.0872244 -0.005115666
000220 71 60 38 bd 8a 4b 74 be ae 94 59 be 94 6c d4 3d
       -0.04501385 -0.23856941 -0.21248123 0.10372272
000230 39 6f 9b 3e 67 98 52 be 67 d0 34 be 35 2a 10 bd
       0.30358294 -0.2056595 -0.17657624 -0.0351965
000240 34 71 4a 3d de 53 62 be 75 d9 84 ba cb a8 4a bd
       0.049424365 -0.22102305 -0.0010135608 -0.04947738
000250 31 f7 a3 bd da 52 94 be af ea 5f bd 16 ba 9d 3d
       -0.080061324 -0.2896946 -0.05466717 0.07701509
000260 f2 df 02 be 40 38 97 3e 03 35 9a bc 40 18 2d 3e
       -0.12780741 0.29535103 -0.018824106 0.16903782
000270 4b 75 97 be fa db 08 be df d1 ad bd 62 b3 0d be
       -0.29581675 -0.13365164 -0.08487295 -0.1383796
000280 90 e7 f6 bd d8 55 1a bc 03 fd 2d be b0 12 37 be
       -0.12055886 -0.009419881 -0.16991048 -0.17878222
000290 b6 3c f4 b9 ff 2d 31 bd 8b fe 35 3e e2 7e 8d 3d
       -0.0004658454 -0.043256756 0.17772882 0.069089666
0002a0 ba 13 15 be 81 17 82 3d 2a 53 5b bb d9 14 af bc
       -0.14558306 0.06352139 -0.0033466318 -0.021372246
0002b0 33 d7 13 3e da 83 4c be 18 20 65 3e fd f8 08 bd
       0.1443756 -0.19972172 0.22375524 -0.03344058
0002c0 72 89 84 be f5 85 90 3d a9 cf 6d bc 1c b6 84 bd
       -0.25886112 0.070568 -0.014514842 -0.06480047
0002d0 3c 71 0f 3e 61 4e 99 3d de f3 36 be d2 73 4c 3e
       0.14008039 0.07485653 -0.17866465 0.19966057
0002e0 b4 45 eb bd a1 9c 95 bb 2c a3 6d 3d ea 6a f9 bd
       -0.11487904 -0.0045657908 0.05801694 -0.12178595
0002f0 ab 3b ba 3d c3 9e 1a 3e c6 69 bf 3d a3 bc 08 3e
       0.09093412 0.15099625 0.093463466 0.13353209
000300 03 ae 03 3f 6c 0d 7e 3d 9b 63 3d 3e 24 45 90 3e
       0.51437396 0.06202452 0.18495028 0.2817775
000310 d6 62 ce bd ee ce 0d be f0 a0 93 bc 1a 2d eb 3c
       -0.10077445 -0.13848469 -0.018021077 0.02870803
000320 cd 24 8d 3c c4 e6 0a 3e 2d a3 56 bd 36 71 e9 3d
       0.017229462 0.13564593 -0.05240171 0.113985464
000330 06 6c a1 bd 4d 60 df 3d 1c d8 72 be de 55 e0 3d
       -0.07881932 0.1090704 -0.23715252 0.10953878
000340 8f 0b d1 bd 98 04 15 3e 5a 79 cf bd a9 e7 1e 3d
       -0.10207283 0.14552534 -0.10130568 0.038795147
000350 97 5a 8e 3d 5e 65 40 bd 98 0b 6b 3d e3 05 dc be
       0.069508724 -0.04697167 0.057384104 -0.4297324
000360 6b 1e 67 be 6a dd d4 3c 1c 80 82 bd c6 96 22 be
       -0.22570197 0.025984485 -0.06372091 -0.15877828
000370 a5 fc b9 bd 3f 04 32 bc 47 43 c0 3d ad 05 d9 bd
       -0.09081391 -0.01086527 0.09387832 -0.10596786
000380 f0 64 b7 3e 1b 47 3f 3e bf 4f 64 be 6e e2 b2 bc
       0.35819197 0.18679468 -0.22296046 -0.021836486
000390 8e 78 94 3e 6a 14 ef 3d 8b e9 9d 3d 13 8b c9 bd
       0.28998226 0.116738155 0.077105604 -0.098409794
0003a0 cd a8 5c 3d ba 81 b1 3c da 42 46 3d a9 12 31 3d
       0.05387192 0.021668304 0.0484036 0.043230686
0003b0 3a 25 30 3e d7 39 32 3d 9b d7 0e be 99 37 93 be
       0.17201701 0.04351219 -0.13949434 -0.28753355
0003c0 a7 96 27 3e 3c 57 07 be 49 01 58 3e 49 c1 2e 3e
       0.16366063 -0.13216871 0.2109424 0.1706592
0003d0 c3 91 98 3d ec df 56 be 24 d1 02 3d c8 2e 24 bd
       0.07449677 -0.20983857 0.031937733 -0.040083677
0003e0 a1 f3 87 bd ae a7 b0 3d 4d 9c 73 bc f3 61 38 3d
       -0.066382654 0.08625732 -0.014868808 0.045015287
0003f0 25 6e b7 3c 01 01 ba 3c 7c bf 15 3e 40 8c 0d bb
       0.022391388 0.022705557 0.14623827 -0.0021598488

module.net_ts.layer2.0.bn1.weight f4 [32]
000000 99 34 39 3f f4 11 3b 3f e6 92 4a 3f 2c 24 2e 3f
       0.7234588 0.7307427 0.791304 0.68023944
000010 23 b7 5a 3f 4b ca 32 3f a2 93 3e 3f 00 a8 30 3f
       0.85435694 0.69839925 0.7444402 0.6900635
000020 eb 78 25 3f b6 2a 52 3f 1b 65 50 3f ab de 3d 3f
       0.6463763 0.8209642 0.81404275 0.7416789
000030 f5 91 2d 3f ca ab 22 3f 6b 0f 49 3f 78 9c 1b 3f
       0.6780084 0.6354338 0.7853915 0.6078563
000040 d3 dc 2a 3f 6a 9e 45 3f a6 90 16 3f 75 ec 3d 3f
       0.667432 0.77194846 0.58814466 0.7418893
000050 a2 39 2d 3f 89 20 4b 3f 0b d6 41 3f 45 51 40 3f
       0.67666066 0.7934652 0.7571723 0.7512401
000060 bc 85 42 3f 1a a3 20 3f 61 db 39 3f 25 0a 38 3f
       0.7598531 0.62748873 0.7260037 0.7189048
000070 35 63 4a 3f 9b eb 28 3f fc 44 3e 3f 89 2d 3f 3f
       0.7905763 0.65984505 0.7432401 0.74678856

module.net_ts.layer2.0.bn1.bias f4 [32]
000000 44 b3 8f bc e8 18 c2 bc 82 74 0a be c6 33 aa bc
       -0.017541535 -0.023693517 -0.13521007 -0.02077664
000010 e4 ed 50 bd 19 39 22 be c5 2b a7 bc 63 94 ea bd
       -0.05100812 -0.15842094 -0.020406613 -0.11454084
000020 2c c2 d1 bd 74 22 07 3b 58 c4 e0 bd 29 e0 25 be
       -0.102421135 0.00206199 -0.109749496 -0.16198792
000030 b2 6b d5 bd 90 ec ca bd 22 dd 62 bd d8 e2 82 be
       -0.10420932 -0.09908402 -0.05538667 -0.25563693
000040 79 31 39 be 9d 6b 63 3c 7c df 3f bd 41 34 06 be
       -0.18085279 0.0138806375 -0.04684399 -0.13105871
000050 8a ad 0e 3d 25 90 85 be 48 46 d1 bd 95 5e e9 3d
       0.03483347 -0.26086536 -0.10218483 0.11394993
000060 64 70 4d be 3d ad d6 bd 7d 03 c4 bd 65 34 ff bd
       -0.20062405 -0.10482261 -0.09570978 -0.12461165
000070 52 b0 80 bc c1 ab 51 be 03 ea c9 bd c9 8d 94 be
       -0.015709076 -0.20475675 -0.09859087 -0.29014423

module.net_ts.layer2.0.bn1.running_mean f4 [32]
000000 0b 10 42 3e 84 47 00 c0 3c b3 15 3e e4 05 25 c0
       0.18951432 -2.004365 0.14619154 -2.5784845
000010 04 4a 25 c0 32 36 22 3e 36 e2 24 bf 87 f4 ca 3f
       -2.5826426 0.15840986 -0.6440767 1.5855874
000020 e2 40 db bf de c2 0e c0 36 b3 d9 bf 25 81 97 3f
       -1.7129176 -2.2306437 -1.7007816 1.1836287
000030 44 d2 4d 3e d1 ac 02 40 b9 40 36 bf 6b 19 63 3f
       0.20099741 2.0417979 -0.7119251 0.8871066
000040 f0 41 a4 3f e6 14 11 c0 f7 f6 b6 3f 52 1d cc 3f
       1.2832623 -2.2669005 1.4294118 1.5946448
000050 a8 af 03 bf 42 c4 81 3d 76 01 28 bf 6b 1e 6e bf
       -0.51439905 0.06336261 -0.6562723 -0.93015164
000060 5d b3 63 be b8 fc 8b 3f 3c af e8 bf 01 e2 26 3f
       -0.2223639 1.0936499 -1.8178477 0.65188605
000070 9c e4 3c bf 30 08 b8 3f 01 4f 3b bf 93 a4 86 3f
       -0.7378633 1.4377499 -0.73167425 1.0518974

module.net_ts.layer2.0.bn1.running_var f4 [32]
000000 6d 0b a6 3f a0 68 ea 3f b3 db b8 3f ef 55 d5 3f
       1.2972237 1.8313179 1.4442047 1.666685
000010 39 89 0a 40 e9 64 ad 3f 87 0f d2 3f 0b 5a e1 3f
       2.1646254 1.354642 1.6410989 1.7605604
000020 e5 cb a4 3f 11 67 b5 3f d0 34 c9 3f c5 07 fa 3f
       1.2874724 1.4172078 1.5719242 1.9533621
000030 3d d8 e9 3f 7a 28 ba 3f 74 d0 a6 3f 7f 59 ab 3f
       1.8269116 1.4543602 1.3032365 1.3386687
000040 92 54 d2 3f 03 11 c8 3f ca 76 86 3f ad f2 9d 3f
       1.6432059 1.5630192 1.0505002 1.2339684
000050 3b 5f b6 3f ba 9d 9d 3f a9 58 e4 3f e7 a0 d5 3f
       1.4247812 1.2313759 1.7839557 1.6689728
000060 19 ec b3 3f 41 92 d2 3f 17 37 92 3f 14 bc a2 3f
       1.4056426 1.6450883 1.1423062 1.2713647
000070 bb 3e d9 3f f4 74 b4 3f 10 d7 02 40 cb 6f b0 3f
       1.6972269 1.4098191 2.0443764 1.3784117

module.net_ts.layer2.0.conv2.weight f4 [32, 32, 3]
000000 12 3e 93 bd 6b 97 cf 3d 58 59 82 bd e8 2a df bd
       -0.07189573 0.101363026 -0.06364697 -0.108968556
000010 2e b8 dd 3d 6b 7a 53 3e 8c b4 8a bc 73 fd 05 bd
       0.10826145 0.20652167 -0.016931795 -0.03271241
000020 15 a3 34 bd 44 6a 9a be 89 07 8f 3e c5 13 05 3e
       -0.04410084 -0.301592 0.27935436 0.12995823
000030 42 36 12 be 88 36 84 3d 3d c6 37 3e d1 0d 38 bd
       -0.1427851 0.064557135 0.17946716 -0.04493505
000040 95 d7 ab 3d 0c e6 e9 bd c0 e3 65 bd 31 0f 2c 3d
       0.083907284 -0.11420831 -0.056125402 0.042006675
000050 0d f1 23 be ac 31 8c be e1 51 f4 bd d1 12 9c be
       -0.16009922 -0.27381647 -0.1192968 -0.30483106
000060 a2 c9 a1 bd 6c e9 36 bd fd 14 4f be ba 21 36 be
       -0.078997865 -0.044656202 -0.2022285 -0.17786303
000070 cd d0 5c 3e 61 6c 2f 3c 45 54 05 be 2f 79 c0 bd
       0.21564026 0.010706992 -0.13020428 -0.09398114
000080 1f 8d d9 3d 2d 6f 21 3c ae d1 21 be 54 bd 8e be
       0.1062262 0.0098531665 -0.15802643 -0.2787882
000090 82 55 12 3e b9 ca 7d 3d df 98 74 3d ad ed 22 be
       0.14290431 0.06196091 0.0597161 -0.15910979
0000a0 b1 3c 03 bd ff a5 2b be 06 0d 43 bd bd ea 68 3d
       -0.0320403 -0.16762541 -0.047619842 0.05686449
0000b0 f3 da 12 be 2d 5e a3 bd 07 ab 42 bc 43 99 20 be
       -0.14341335 -0.07976947 -0.011881596 -0.15683465
0000c0 80 a3 94 3e 31 f3 f3 3d 95 3c f5 bc dd ab 45 be
       0.2903099 0.119116195 -0.029936114 -0.19303842
0000d0 db 34 81 3d c6 87 d1 bd cd dd 14 3d 42 ef 48 bd
       0.063089095 -0.10230975 0.03634434 -0.0490563
0000e0 f9 52 08 be 80 b3 11 3e 4d 6c e1 3d 08 15 c0 3d
       -0.13312902 0.1422863 0.11006985 0.093790114
0000f0 62 72 26 3e fa e8 81 3d 99 51 81 3e b4 4d cb 3e
       0.16254571 0.06343265 0.25257567 0.3970772
000100 29 6a 18 be 3b 0f ca be 68 f0 7f be 1e 7e 76 3d
       -0.14884247 -0.39464745 -0.24994051 0.06017887
000110 2d d8 3c 3e a0 40 b3 3d a9 45 63 3e 41 f9 b2 3c
       0.1844184 0.087525606 0.22194542 0.02184737
000120 63 1c 53 be 63 5e b7 3e 87 88 fd 3d 91 d4 ab bd
       -0.20616297 0.358142 0.12379556 -0.08390153
000130 7c 49 e5 3d 7d 5e a1 bd 26 ed 64 be d9 0a 0b 3e
       0.11195657 -0.0787935 -0.2235609 0.13578357
000140 66 00 c1 bd 8a 8a a1 bd 14 f3 b6 3d d5 94 e2 3c
       -0.09423904 -0.07887752 0.08933082 0.02765886
000150 c5 a1 19 3d 8e 16 94 3d 52 31 b8 bd 2c 18 bb 3d
       0.03750779 0.072308645 -0.08993782 0.0913547
000160 71 f1 00 be 0c 78 81 3e 30 f0 64 bc 13 1e 4d 3e
       -0.12592103 0.252869 -0.013973281 0.20031004
000170 c7 b4 a9 be 86 20 53 3e f6 51 0d 3d 67 d6 2b bd
       -0.33145735 0.20617875 0.034501992 -0.041952517
000180 df 18 8b bd 11 6d 8c be 00 8b cc be 91 06 8e be
       -0.06791853 -0.2742696 -0.399498 -0.27739385
000190 bd 4f a6 3e 5f fb 6c 3b e5 9e a3 3d 8f 1c 41 3d
       0.3248271 0.003616057 0.07989291 0.047146376
0001a0 35 af be bd e3 9b 57 3c 21 ad 17 3e 4f 78 7f bd
       -0.09310762 0.013159725 0.14812137 -0.062370595
0001b0 0f 3e 0e be 5b 22 10 be ba 15 f5 3d 83 c1 0d be
       -0.13890861 -0.14075606 0.11967035 -0.1384335
0001c0 02 14 49 be 95 ca 87 be df 81 5e be 88 5b f6 3d
       -0.19636539 -0.26521745 -0.2172923 0.12029177
0001d0 5b 1c f3 3d f3 0c b8 be 49 ec a5 bd 03 48 1c 3d
       0.11870643 -0.3594738 -0.081017084 0.038154613
0001e0 8d 5f 6f 3e e4 91 15 3e c3 cd b1 bd bd e1 b2 bd
       0.23376293 0.14606434 -0.08681824 -0.087344624
0001f0 1f 8f b1 3d 68 b6 97 be 0d cd 43 3d 46 ec 97 3c
       0.08669876 -0.29631352 0.047802974 0.018545281
000200 f3 79 eb 3c e1 1e ac 3c 6c ec 73 3e 93 08 13 be
       0.028744673 0.021010818 0.23820657 -0.1435874
000210 cb 7f 45 be be a6 18 be 7a a8 86 3e ac 7f d8 3d
       -0.1928703 -0.14907357 0.26300412 0.105712265
000220 72 29 c2 bc 8d ab d2 bc 5c 09 1f 3e d1 7e 63 be
       -0.023701403 -0.025716567 0.15530914 -0.22216345
000230 4d 3f 58 3e 76 74 57 bd ce 27 76 3d 41 d6 c6 bd
       0.21117897 -0.0526013 0.060096554 -0.097088344
000240 03 81 b1 bd e5 fe b5 3d 71 71 47 3e b4 76 5a 3d
       -0.08667185 0.08886508 0.19476868 0.05333586
000250 b0 45 95 3d bd 16 64 bc 31 47 9d 3e e7 f1 e6 3d
       0.072886825 -0.013921437 0.30718377 0.11276608
000260 1d cf c5 3d cf 28 a9 bd 63 5d 79 be 2f e7 5a be
       0.09658644 -0.08259737 -0.2435203 -0.21377252
000270 44 f7 09 bd a2 39 db bd 7c 73 67 be 73 43 da ba
       -0.033683077 -0.10704352 -0.22602648 -0.0016652182
000280 c9 0d b2 3d cd ae b5 bd ce b2 a2 bd 2d 01 c0 3d
       0.086940356 -0.08871231 -0.079442605 0.09375224
000290 87 5f 5e 3c 4e 44 35 b9 97 9e 24 3e 51 21 6d 3e
       0.01357258 -0.0001728695 0.16076122 0.2315724
0002a0 3b b1 1b be cc ba a8 bd 99 14 83 3d 82 3a a1 3b
       -0.15204327 -0.08238754 0.06400413 0.0049203048
0002b0 f5 81 9e 3c 45 2e 48 bd 77 f0 be 3c e6 e2 03 bd
       0.019349078 -0.04887225 0.023308022 -0.03219881
0002c0 dd 47 f7 bd df af 81 bd 4f 08 bb be d9 84 80 3d
       -0.12074254 -0.06332373 -0.36529776 0.06275339
0002d0 29 26 f3 bd 2e cf 19 3d 2a f4 ea 3d 9d 24 a3 3d
       -0.11872513 0.037551098 0.11472352 0.07965968
0002e0 f9 cc 95 bd 45 b6 d8 bd 53 fc 52 bd 6c 99 2b 3e
       -0.07314486 -0.1058164 -0.051510166 0.16757745
0002f0 6f 19 5b bc 3f e2 2c be a0 dc 31 bd 16 97 d2 3d
       -0.013372763 -0.16883181 -0.043423295 0.102827236
000300 5f d1 4c bc 6d c4 31 be 38 e3 95 3d db 1a 47 be
       -0.01250109 -0.17360087 0.07318729 -0.19443838
000310 90 8e ce 3c 59 a4 19 bd a9 89 97 bd 98 8a 1a bb
       0.025214463 -0.03751025 -0.073993035 -0.0023581143
000320 fd bf 0e 3e 6e 6d bd bd e5 83 b0 3d b1 9d af 3d
       0.13940425 -0.09249388 0.08618907 0.08574999
000330 3c ac fd bc a4 bd 8d 3e a2 dd db bd eb 17 5f be
       -0.030965917 0.27683747 -0.107356325 -0.21786468
000340 4b ba 31 bd 41 74 6a 3d 72 f6 dc bd 5b fb c0 3d
       -0.043390553 0.057239775 -0.10789193 0.09422942
000350 40 ea 6e 3a 5b 64 98 bd d2 5b 15 3c be 79 f1 bc
       0.00091138855 -0.07441016 0.00911613 -0.029476997
000360 73 ae d9 3c 28 36 29 3e d8 d8 aa bc b6 bc 6b 3e
       0.026572442 0.16524565 -0.020855352 0.23021206
000370 0c c8 4f 3e 30 74 4d 3d 9b 70 5d bd 17 35 63 bd
       0.20291156 0.050159633 -0.054062467 -0.055470552
000380 e9 59 5a bd 53 7b 77 be 39 f6 d5 bc 74 5d 3b 3d
       -0.0533084 -0.24168138 -0.026118385 0.04574342
000390 bf 94 92 3d ac 9c 2c 3e ec 40 d9 bd d8 36 d4 3d
       0.07157277 0.1685664 -0.10608086 0.10362023
0003a0 6c 91 19 3e 77 52 35 be ac 11 85 3d b7 89 f4 bc
       0.1499688 -0.17707239 0.06497511 -0.029850824
0003b0 ed d4 59 3d 97 1c 29 bc 16 3d 81 bd 0a 0a 13 be
       0.053181577 -0.010321758 -0.06310479 -0.14359298
0003c0 37 b3 c5 3c 44 5c 6f bd 94 6f 5d be e5 75 9b bd
       0.024133308 -0.0584376 -0.21624595 -0.07590846
0003d0 bb 7f 42 bd 7b 52 c9 bd 5c 82 2d be d3 06 3f 3e
       -0.047485095 -0.09830185 -0.1694426 0.18654947
0003e0 c0 be 9b bd 2a 27 ed bd 5a c8 2d 3e fd 7a ee 3d
       -0.07604742 -0.115797356 0.1697096 0.11644552
0003f0 14 4a 18 3e 1f 41 a9 3d b3 59 9d 3c c3 b8 a3 3d
       0.14872009 0.08264374 0.019207811 0.07994225

module.net_ts.layer2.0.bn2.weight f4 [32]
000000 91 ca 51 3f 74 74 40 3f 27 f6 1e 3f 94 26 0c 3f
       0.81949717 0.75177693 0.6209435 0.54746366
000010 73 c8 31 3f c3 b4 39 3f 9d 44 2b 3f 52 28 44 3f
       0.69446486 0.72541445 0.6690157 0.76624024
000020 a3 cd 5d 3f ed 81 1e 3f 4a 60 36 3f 88 9c 38 3f
       0.866419 0.61917 0.71240675 0.7211385
000030 c2 64 31 3f b4 f6 3a 3f 7a 4a 51 3f 5b 41 4a 3f
       0.6929437 0.7303269 0.8175427 0.79005975
000040 6a 4d 52 3f 06 7c 5e 3f e2 2e 23 3f 7a cd 16 3f
       0.82149374 0.86907995 0.6374341 0.5890728
000050 be 8e 45 3f 17 ed 37 3f 86 ae 08 3f c6 b9 39 3f
       0.7717093 0.71846145 0.533913 0.7254909
000060 c0 da 38 3f 67 3c 55 3f 2c bf 39 3f a8 09 3c 3f
       0.72208786 0.8329529 0.7255733 0.73452234
000070 ac 31 46 3f 48 6c 4f 3f aa e2 30 3f 9c 1a 25 3f
       0.77419543 0.810246 0.6909586 0.6449373

module.net_ts.layer2.0.bn2.bias f4 [32]
000000 2d 72 6d 3d b6 1d 07 be fb cf 20 bc d6 65 f0 bd
       0.057970215 -0.13194928 -0.009815211 -0.11738174
000010 a5 80 c9 bd 6d 79 6b bd 54 64 72 be 6f 14 c3 bd
       -0.0983899 -0.057488848 -0.23671085 -0.09525382
000020 fe a0 8d bd 44 51 1e bd 72 c9 06 bd 90 70 cf bc
       -0.069154724 -0.03865172 -0.032906957 -0.025322229
000030 7e 8d 97 bd 4a d7 af bd 73 10 24 be 54 de 04 be
       -0.07400034 -0.08585985 -0.160219 -0.12975436
000040 b8 93 a9 bd d8 85 a3 bd f3 39 fd bc a0 b6 d4 3c
       -0.08280128 -0.07984513 -0.030911421 0.025965989
000050 ec 9d b2 3b 5a 99 9d bd 00 15 38 3c 16 ac 51 bc
       0.0054509547 -0.07695265 0.011235476 -0.012797376
000060 83 89 7b bd bb 06 30 3d 20 a1 1d bd 63 df 35 be
       -0.06141044 0.04297517 -0.03848374 -0.17760997
000070 02 9b 2e 3b 6a 54 f6 bd 9e 9d 92 bc 9e 0d 1b be
       0.0026642685 -0.120278195 -0.017897423 -0.15141913
