model/model_20200907110637/model_final_bcp_1_0300_sm.pth (torch_old, 960817 bytes, 59 tensors)

module.net_sm.conv1.weight f4 [32, 1, 7, 7, 7]
0.013226397 -0.027787186 -0.043914773 0.0014663802 -0.020811932 0.05189364 0.039877366 0.03064022
-0.008037997 -0.051974937 -0.015232207 -0.0023746272 0.0010062726 -0.049444567 -0.050072685 -0.12399799
-0.049405422 0.019537091 -0.03383932 -0.13688664 -0.073208325 0.03611391 0.0062516434 0.0008021331
-0.025591837 -0.06900864 -0.091691285 0.033270802 0.030751603 0.012987593 0.008611051 -0.027629701
0.037079062 -0.031231482 -0.006854211 -0.010427062 -0.015192287 -0.004512831 0.023539523 0.043413147
-0.0546593 -0.029078534 -0.08489708 -0.033460867 -0.036514632 -0.03371789 -0.08978438 -0.11669193
-0.0008186539 -0.07472645 0.0073124026 0.028311 0.02309131 -0.040587682 0.017303763 -0.020682292
-0.05120651 -0.022884866 0.028159069 0.014525562 -0.020347271 -0.015027708 -0.060371 -0.14052357
-0.08757308 -0.00091651455 -0.009360903 -0.061824735 -0.07654466 -0.029338213 -0.044827394 -0.07205153
0.02422723 -0.04732517 0.03380318 0.055778444 0.05982471 0.00042852783 -0.045614645 -0.07146628
-0.05566992 0.08376627 0.060890965 0.07704084 -0.028342936 0.024619373 -0.03611526 -0.006650321
0.046173066 -0.025443455 -0.018529493 -0.057936747 0.00035626933 -0.046144757 -0.07113026 -0.079535656
-0.062110554 -0.029210588 -0.08029254 0.020277912 -0.0071903663 -0.048161693 0.051124446 0.1008493
0.04540714 0.043484554 0.030948346 0.027348205 0.023248577 0.04440663 0.022470932 -0.0017170578
-0.048970565 0.019252518 0.017674956 -0.009323026 -0.05299449 -0.029211825 0.03913419 -0.029531416
0.030317489 0.05966865 -0.005701089 -0.005039885 0.04001972 0.038312193 -0.024623327 -0.04957857
-0.023712818 0.016307712 0.039672747 0.010717836 0.03044371 -0.046207134 -0.08613855 -0.06854063
-0.071834534 -0.015672438 -0.02874802 -0.018210417 -0.09658239 -0.05260515 -0.050259195 -0.09695844
-0.07441206 -0.053834442 -0.028498245 -0.059086625 -0.027278531 0.010829902 -0.072565176 0.016751472
0.020756675 0.038666513 0.05462879 -0.039256424 -0.046025027 -0.092889085 0.0069658104 0.009970795
0.10029013 0.0030645942 0.014160465 -0.062414937 -0.09921747 -0.013000989 -0.039771084 0.045830548
-0.013430464 0.04391607 -0.016088571 -0.027589861 -0.029444898 -0.05697952 -0.07674934 -0.018189631
-0.033949662 -0.0074866535 -0.004864878 -0.03738554 -0.080762714 -0.08049233 -0.043710064 -0.09608251
-0.032876953 -0.052047342 0.0055345385 -0.014872834 -0.009824573 -0.11066243 -0.0041145477 -0.060105897
-0.090075 -0.02165592 -0.039286744 0.1454313 -0.07948171 -0.07188701 0.012489352 -0.09443738
-0.041278068 0.008538875 0.021914747 -0.0042455127 -0.04664974 0.03135055 -0.048843887 0.054640267
0.038890988 0.0372336 -0.016974395 0.003908837 0.010360121 0.005943442 0.056020815 -0.0063212356
-0.004622709 -0.032686308 0.0139692295 -0.0038721026 -0.066230305 -0.05395691 -0.048318908 -0.0977575
0.027078442 0.009720102 -0.030967925 -0.050434172 -0.03287704 0.009833575 -0.037482023 0.015720017
-0.023335129 0.07354463 0.0061774915 0.020138498 0.009123524 0.039063822 0.054640107 0.08673234
0.031092767 -0.07189967 -0.0013810667 -0.07756831 0.04309218 -0.0443805 -0.08579127 -0.015322223
-0.02156562 -0.060457073 -0.05298213 0.021130016 -0.03758263 -0.0036681967 0.043906335 0.017310876
00000000: 88b3 583c f4a1 e3bc fadf 33bd 8e33 c03a
00000010: c97d aabc 6d8e 543d 7356 233d 3301 fb3c
00000020: ceb1 03bc ace3 54bd 8290 79bc a29f 1bbb
00000030: e8e4 833a 6386 4abd 0419 4dbd a8f2 fdbd
00000040: 575d 4abd 400c a03c 199b 0abd 032c 0cbe
00000050: 3fee 95bd 2eec 133d 96da cc3b 3e46 523a
00000060: f9a5 d1bc 6754 8dbd a4c8 bbbd f746 083d
00000070: c9ea fb3c eac9 543c 5e15 0d3c af57 e2bc
00000080: 37e0 173d 2ad9 ffbc 4a99 e0bb 45d6 2abc
00000090: 12e9 78bc 5fe0 93bb f5d5 c03c fcd1 313d
000000a0: 6ee2 5fbd 1b36 eebc 85de adbd 430e 09bd
000000b0: 5e90 15bd c51b 0abd dfe0 b7bd 2efc eebd
000000c0: ef9a 56ba 2e0a 99bd e19c ef3b 78ec e73c
000000d0: fd29 bd3c 453f 26bd 9fc0 8d3c e96d a9bc
000000e0: ebbd 51bd 0b79 bbbc d9ad e63c 9ffc 6d3c
000000f0: 52af a6bc c736 76bc 9547 77bd 69e5 0fbe
00000100: 8459 b3bd 4042 70ba 795e 19bc ef3b 7dbd
00000110: 72c3 9cbd b156 f0bc ee9c 37bd c18f 93bd
00000120: 2f78 c63c 0ad8 41bd 3475 0a3d f077 643d
00000130: c10a 753d 08ac e039 6cd6 3abd ea5c 92bd
00000140: 2406 64bd a68d ab3d ce68 793d 97c7 9d3d
00000150: 722f e8bc 91ae c93c 98ed 13bd f0ea d9bb
00000160: f81f 3d3d cb6e d0bc 2acb 97bc 154f 6dbd
00000170: a9c9 ba39 4902 3dbd beac 91bd 97e3 a2bd
00000180: a367 7ebd 0b4b efbc 6a70 a4bd dd1d a63c
00000190: 2a9d ebbb 3245 45bd de67 513d 148a ce3d
000001a0: d6fc 393d dc1c 323d 6387 fd3c 5809 e03c
000001b0: cd73 be3c bae3 353d f614 b83c e60e e1ba
000001c0: 5c95 48bd 75b7 9d3c 12cb 903c 9bbf 18bc
000001d0: c010 59bd a34d efbc 2c4b 203d deeb f1bc
000001e0: 625c f83c 1d67 743d 33d0 babb 9f25 a5bb
000001f0: b8eb 233d 3fed 1c3d dcb6 c9bc e612 4bbd
00000200: 6241 c2bc c097 853c e47f 223d dd99 2f3c
00000210: 1665 f93c b143 3dbd 6869 b0bd 085f 8cbd
00000220: fc1d 93bd 7c63 80bc f880 ebbc 032e 95bc
00000230: fdcc c5bd 7f78 57bd 96dc 4dbd 2692 c6bd
00000240: 5a65 98bd 8181 5cbd 2775 e9bc d104 72bd
00000250: 3a77 dfbc e76f 313c 0d9d 94bd 623a 893c
00000260: e709 aa3c c760 1e3d 70c2 5f3d 58cb 20bd
00000270: bd84 3cbd a23c bebd 7441 e43b 8c5c 233c
00000280: e964 cd3d 5cd7 483b 4c01 683c cea6 7fbd
00000290: 8732 cbbd 1a02 55bc 01e7 22bd d0b8 3b3d
000002a0: 730b 5cbc 56e1 333d 2ecc 83bc 2204 e2bc
000002b0: 6d36 f1bc 5b63 69bd c22e 9dbd 6c02 95bc
000002c0: cd0e 0bbd 9a52 f5bb 8e69 9fbb 9421 19bd
000002d0: ec66 a5bd 2ad9 a4bd 5309 33bd e8c6 c4bd
000002e0: fca9 06bd 982f 55bd 135b b53b 30ad 73bc
000002f0: 3ff7 20bc fca2 e2bd 54d3 86bb 9a31 76bd
00000300: 3e79 b8bd c267 b1bc 23eb 20bd f1eb 143e
00000310: 4fc7 a2bd 7f39 93bd 24a0 4c3c 6368 c1bd
00000320: 3113 29bd a3e6 0b3c 8e86 b33c f11d 8bbb
00000330: cc13 3fbd 6f69 003d 8710 48bd 79ce 5f3d
00000340: 284c 1f3d 4282 183d e30d 8bbc b415 803b
00000350: 7fbd 293c 35c1 c23b 1576 653d 5e22 cfbb
00000360: 187a 97bb 14e2 05bd 32df 643c 1ac3 7dbb
00000370: c1a3 87bd ec01 5dbd 0cea 45bd 1635 c8bd
00000380: 9cd3 dd3c 1041 1f3c 72b0 fdbc 1094 4ebd
00000390: 13aa 06bd 011d 213c c086 19bd 44c7 803c
000003a0: 5029 bfbc 919e 963d 8e6c ca3b 7ef9 a43c
000003b0: d57a 153c 6301 203d 4ece 5f3d baa0 b13d
000003c0: 42b6 fe3c 2240 93bd e904 b5ba 22dc 9ebd
000003d0: 6d81 303d 54c8 35bd 55b3 afbd 100a 7bbc
000003e0: 62aa b0bc d6a1 77bd ca03 59bd db18 ad3c
000003f0: 3ef0 19bd 2166 70bb 21d7 333d 8acf 8d3c

module.net_sm.bn1.weight f4 [32]
0.80919665 0.73247385 0.70281386 0.7091583 0.84679496 0.6321999 0.6793798 0.77801263
0.6771857 0.63161373 0.8798624 0.67581457 0.7090356 0.76712006 0.62588525 0.8279336
0.61306024 0.66560876 0.7035442 0.81552756 0.7252295 0.86477077 0.6483064 0.74870205
0.62384325 0.6923406 0.72995776 0.5700164 0.74223566 0.75107324 0.77033305 0.76981574
00000000: 8327 4f3f 6883 3b3f 9ceb 333f 668b 353f
00000010: 8ec7 583f dad7 213f d6eb 2d3f d62b 473f
00000020: 0b5c 2d3f 70b1 213f aa3e 613f 2f02 2d3f
00000030: 5b83 353f fb61 443f 043a 203f 75f3 533f
00000040: 84f1 1c3f 5665 2a3f 791b 343f 6ac6 503f
00000050: a4a8 393f 9e61 5d3f 69f7 253f f0aa 3f3f
00000060: 31b4 1f3f 3c3d 313f 83de 3a3f 98ec 113f
00000070: 2803 3e3f 5646 403f 8c34 453f a512 453f

module.net_sm.bn1.bias f4 [32]
0.029476816 -0.014027081 0.012076874 -0.09259998 0.021883063 0.01163165 0.01893322 0.008192829
-0.10155826 0.0023623216 0.030081054 -0.030444985 -0.003066197 0.012211466 0.012028509 -0.039002936
0.013695934 0.0022439212 0.016882138 -0.04039859 0.0077485116 0.019991048 0.01035842 -0.054890282
-0.072239265 0.043167524 0.014543058 -0.060392078 -0.025716413 0.0045211418 0.015426964 0.021694837
00000000: 5d79 f13c d8d1 65bc 15de 453c 0fa5 bdbd
00000010: 1c44 b33c ad92 3e3c d719 9b3c 373b 063c
00000020: c7fd cfbd 2ed1 1a3b 8b6c f63c c367 f9bc
00000030: 40f2 48bb 9a12 483c 3913 453c 8bc1 1fbd
00000040: e964 603c c00e 133b 694c 8a3c fe78 25bd
00000050: 3ae7 fd3b 44c4 a33c 5db6 293c a2d4 60bd
00000060: 2ef2 93bd 6ed0 303d 0246 6e3c af5d 77bd
00000070: 3aab d2bc 1626 943b 60c1 7c3c 5fb9 b13c

module.net_sm.bn1.running_mean f4 [32]
-2.083898e-05 4.070732e-06 2.4712915e-06 1.7938819e-05 -2.2449009e-05 1.8394405e-06 -5.970371e-06 -9.488427e-08
-1.252168e-05 -1.9280633e-05 -4.247007e-05 -4.1287212e-06 -3.5251592e-06 7.273591e-06 1.2043326e-05 1.390332e-05
-4.2197357e-06 1.2525001e-05 -1.996153e-06 3.971032e-06 6.592377e-06 -4.0929925e-05 -1.3905751e-05 -1.7703826e-05
-4.411033e-06 -3.1379145e-06 -8.4280255e-06 1.9549118e-06 -9.1733045e-06 1.0124694e-05 1.3071148e-05 -2.9393786e-05
00000000: 5ecf aeb7 5297 8836 77d8 2536 527b 9637
00000010: e150 bcb7 b2e2 f635 1955 c8b6 2ec3 cbb3
00000020: 3514 52b7 d8bc a1b7 e421 32b8 7289 8ab6
00000030: c691 6cb6 ac0f f436 b10d 4a37 4e42 6937
00000040: 4197 8db6 7822 5237 a6f5 05b6 e83e 8536
00000050: 1634 dd36 2cac 2bb8 bf4c 69b7 ad82 94b7
00000060: 7c02 94b6 f694 52b6 1866 0db7 2131 0336
00000070: 0be7 19b7 3bdd 2937 274c 5b37 ad92 f6b7

module.net_sm.bn1.running_var f4 [32]
0.015685294 0.011732656 0.011620886 0.020216424 0.023032764 0.0144832535 0.018969843 0.016847754
0.013383998 0.014388888 0.018434225 0.013484188 0.013112019 0.011963292 0.016208481 0.021166934
0.012893088 0.010807622 0.014045547 0.017104989 0.012485272 0.019676216 0.013046028 0.023345467
0.00953163 0.012145144 0.01476242 0.008067823 0.013273645 0.010850956 0.01657161 0.015483591
00000000: 727e 803c 533a 403c 8765 3e3c ea9c a53c
00000010: 35af bc3c 2b4b 6d3c a566 9b3c 4d04 8a3c
00000020: 8e48 5b3c 5fbf 6b3c 5f03 973c c9ec 5c3c
00000030: cbd3 563c af01 443c a6c7 843c 4766 ad3c
00000040: 883d 533c 7412 313c 4b1f 663c c31f 8c3c
00000050: 078f 4c3c 0430 a13c 02bf 553c fe3e bf3c
00000060: 8e2a 1c3c 6dfc 463c 14de 713c e72e 043c
00000070: b479 593c 35c8 313c 2fc1 873c e3ae 7d3c

module.net_sm.layer1.0.conv1.weight f4 [32, 32, 3, 3, 3]
0.030436393 0.04468353 0.0293388 0.012670971 0.063554235 0.026030246 -0.023318384 0.011926146
0.07846244 0.03852381 -0.032328438 0.032112718 0.049543347 0.013989999 0.0178253 -0.011452954
0.03309309 0.033594497 -0.006996178 0.025036935 0.07919547 0.045712154 -0.0041177594 0.052142654
0.06333869 0.02308019 0.012129175 0.0346237 -0.029172376 0.026112968 -0.06062846 0.019368611
0.040351804 0.054020107 0.018504266 -0.013164368 -0.00063642114 -0.0007088442 0.005546236 -0.04040536
-0.030045232 -0.025194332 0.051386874 0.060540184 0.030617936 -0.030210044 -0.07081785 0.020448003
-0.05659474 -0.017658798 -0.047450237 -0.050311718 0.027935285 0.01062274 -0.02504795 -0.03624363
0.02870609 0.023345845 -0.062346224 -0.03937059 0.007419649 -0.007294029 -0.04416218 0.020048555
0.074503906 -0.007607744 -0.00011688067 0.061064824 0.034137852 -0.029393181 0.028297774 0.023645004
0.06167809 0.009259302 0.006303565 0.056739967 0.013882658 0.07345943 0.04214045 0.041426208
0.025784817 -0.019668657 0.004239713 0.018716933 -0.049077503 -0.02607246 0.053807493 0.025655113
0.061285615 0.023214906 -0.020740125 0.063398175 -0.0057240846 0.012722436 0.037282187 0.004857715
-0.0074509988 0.03586544 -0.009074583 -0.011783488 0.07523994 0.07338751 -0.041828196 0.007206077
-0.0082022995 0.04817533 0.014718785 0.019606167 0.03141527 0.033265885 0.034446385 0.024063902
-0.031447757 0.07358568 -0.01818408 0.010546491 0.037523817 -0.033910487 0.022660946 0.024823753
0.003542858 0.027749939 -0.059395097 0.0060610184 0.019942699 -0.020661334 0.0025643338 0.012127614
0.049502842 0.018184908 0.078352414 0.05215255 0.011848298 0.043589365 0.012017753 -0.0009349966
0.02159794 0.037152503 -0.007096667 -0.010821029 -0.026902828 0.09145163 0.014205924 -0.019836754
0.021499023 0.07444855 0.076221496 -0.0025914789 -0.004355212 -0.007171829 -0.014215239 -0.0012449268
0.052335747 0.030443186 -0.010857022 0.0577255 0.033302903 -0.0049210126 -0.0028291557 0.052532945
-0.017629616 0.05269914 -0.011236747 -0.0040529133 -0.03239442 0.009008441 0.015981033 -0.0009260155
-0.027713755 -0.008197251 0.02274052 0.0027415764 -0.0056455 -0.024700938 -0.0020632348 -0.031223781
0.021296337 0.017773526 0.009682566 -0.02661154 0.004213444 -0.0012553174 0.011585884 -0.042413305
0.004438993 0.037475977 0.022012493 0.037442043 -0.00067506894 0.0134109445 -0.0003672739 0.0019330026
-0.048555434 -0.022759639 -0.054586515 0.06357769 -0.0047183638 -0.029763332 0.019826517 0.054115478
0.0017147128 0.0022885944 -0.053482518 0.030269008 0.015475642 -0.036086943 -0.041549943 0.015477038
-0.00053214433 0.022362385 0.0130834915 0.008353388 0.07345125 0.008233395 0.0043313224 0.015140508
-0.029863294 0.023393704 -0.020558989 -0.054322127 0.022173546 4.216726e-05 0.016136687 0.06858019
-0.008122488 -0.07037272 0.0043504164 0.02906077 -0.010109526 0.010328164 0.030033257 -0.013269056
-0.03129539 -0.01897085 -0.035356645 -0.051384456 0.023334317 0.019128483 0.02364329 0.009187707
0.012831752 -0.010239429 -0.013082218 -0.01270666 0.036799382 0.007979705 0.0069419034 -0.02484143
-0.004460765 -0.038711082 -0.009714652 0.003031919 0.021697603 -0.029704127 -0.069111 -0.014921716
00000000: be55 f93c 1406 373d ec57 f03c e899 4f3c
00000010: b928 823d 623d d53c 3206 bfbc e265 433c
00000020: eab0 a03d 25cb 1d3d d36a 04bd a088 033d
00000030: f7ed 4a3d 4f36 653c 5d06 923c 2ca5 3bbc
00000040: 9f8c 073d 629a 093d 3240 e5bb 421a cd3c
00000050: 3c31 a23d ab3c 3b3d 45ee 86bb 8993 553d
00000060: b7b7 813d ab12 bd3c 72b9 463c 95d1 0d3d
00000070: e8fa eebc ddea d53c 8c55 78bd ecaa 9e3c
00000080: ef47 253d 3044 5d3d 4296 973c 5daf 57bc
00000090: 80d5 26ba bbd1 39ba 33bd b53b 1780 25bd
000000a0: 6b21 f6bc 5864 cebc 0b7b 523d fcf8 773d
000000b0: 77d2 fa3c 0e7b f7bc f308 91bd 9282 a73c
000000c0: e3cf 67bd 2fa9 90bc 2e5b 42bd a913 4ebd
000000d0: 8ad8 e43c 000b 2e3c 5c31 cdbc 3374 14bd
000000e0: 0929 eb3c c93f bf3c c15e 7fbd 0e43 21bd
000000f0: 8720 f33b c002 efbb 67e3 34bd de3c a43c
00000100: 8195 983d 624a f9bb d51d f5b8 1c1f 7a3d
00000110: 22d4 0b3d f8c9 f0bc bcd0 e73c 2bb3 c13c
00000120: 2aa2 7c3d 54b4 173c 238e ce3b 2b68 683d
00000130: 1774 633c e671 963d 779b 2c3d 87ae 293d
00000140: ae3a d33c 2a20 a1bc 4aed 8a3b 4154 993c
00000150: 7e05 49bd e995 d5bc 3f65 5c3d ac2a d23c
00000160: a006 7b3d 302d be3c 32e7 a9bc e7d6 813d
00000170: 1a91 bbbb c471 503c 35b5 183d 782d 9f3b
00000180: 8227 f4bb a4e7 123d 8fad 14bc 880f 41bc
00000190: 6617 9a3d 314c 963d 0b54 2bbd f520 ec3b
000001a0: f062 06bc 7f53 453d 0f27 713c 1d9d a03c
000001b0: 4cad 003d cf41 083d a717 0d3d a921 c53c
000001c0: 5dcf 00bd 17b4 963d c8f6 94bc 30cb 2c3c
000001d0: 93b2 193d b9e5 0abd 73a3 b93c 2f5b cb3c
000001e0: 4b2f 683b d753 e33c 4648 73bd 829b c63b
000001f0: df5e a33c f541 a9bc 620e 283b e6b2 463c
00000200: 7ec3 4a3d 84f8 943c 3b77 a03d ea9d 553d
00000210: 5d1f 423c c38a 323d 1ce6 443c 8f1a 75ba
00000220: 2aee b03c 392d 183d 288b e8bb af4a 31bc
00000230: 5263 dcbc fe4a bb3d f7bf 683c b080 a2bc
00000240: b81e b03c 7b78 983d 041a 9c3d cdd5 29bb
00000250: 2bb6 8ebb aa01 ebbb 09e7 68bc d02c a3ba
00000260: 025e 563d fd63 f93c a7e1 31bc 9371 6c3d
00000270: a068 083d 7240 a1bb 5b69 39bb c92c 573d
00000280: fc6b 90bc 0edb 573d 551a 38bc 4dce 84bb
00000290: 03b0 04bd 2498 133c a8ea 823c d9bf 72ba
000002a0: f507 e3bc c34d 06bc 544a ba3c 05ac 333b
000002b0: e3fd b8bb 9f59 cabc 5637 07bb 04c9 ffbc
000002c0: a875 ae3c c999 913c a0a3 1e3c 7200 dabc
000002d0: ee10 8a3b 7689 a4ba b8d2 3d3c 93b9 2dbd
000002e0: f974 913b 6980 193d 8b53 b43c d45c 193d
000002f0: 1cf7 30ba 94b9 5b3c ab8e c0b9 ce5c fd3a
00000300: 10e2 46bd 6c72 babc 1c96 5fbd 0535 823d
00000310: 819c 9abb 3bd2 f3bc 386b a23c 31a8 5d3d
00000320: 37c0 e03a 3efc 153b 7c10 5bbd b6f6 f73c
00000330: 8c8d 7d3c e7cf 13bd 4630 2abd 6793 7d3c
00000340: 9a7f 0bba 5231 b73c 245c 563c a6dc 083c
00000350: 9c6d 963d 5de5 063c c4ed 8d3b e50f 783c
00000360: dea3 f4bc 27a4 bf3c 536b a8bc e180 5ebd
00000370: 4ca5 b53c c0dc 3038 1631 843c c573 8c3d
00000380: 2f14 05bc 931f 90bd f08d 8e3b da10 ee3c
00000390: 6da2 25bc 7637 293c 4e08 f63c 7466 59bc
000003a0: 982f 00bd c268 9bbc 21d2 10bd 8278 52bd
000003b0: 9c27 bf3c 56b3 9c3c 93af c13c 0988 163c
000003c0: 453c 523c 47c3 27bc cd56 56bc 982f 50bc
000003d0: f3ba 163d 4fbd 023c e878 e33b 4180 cbbc
000003e0: 9c2b 92bb 838f 1ebd 342a 1fbc 29b3 463b
000003f0: 2cbf b13c 1256 f3bc 118a 8dbd 377a 74bc

module.net_sm.layer1.0.bn1.weight f4 [32]
0.7010803 0.5919959 0.5603813 0.6142441 0.6689202 0.6882253 0.64838505 0.58257455
0.62616855 0.5710995 0.6428763 0.61840916 0.7314567 0.671875 0.64527416 0.63650113
0.63314205 0.629027 0.58574843 0.5819697 0.6443214 0.71253043 0.7249092 0.626641
0.61841196 0.55752873 0.6446748 0.64954996 0.71518785 0.61852485 0.65130615 0.75868905
00000000: 007a 333f 0b8d 173f 2675 0f3f 1a3f 1d3f
00000010: 5b3e 2b3f 892f 303f 90fc 253f 9b23 153f
00000020: 954c 203f 9433 123f 8b93 243f 1050 1e3f
00000030: bf40 3b3f 0000 2c3f b030 253f bdf1 223f
00000040: 9915 223f ea07 213f 9cf3 153f f7fb 143f
00000050: 3ff2 243f 6568 363f a693 393f 8b6b 203f
00000060: 3f50 1e3f 34ba 0e3f 6809 253f e848 263f
00000070: 8d16 373f a557 1e3f 00bc 263f 7239 423f

module.net_sm.layer1.0.bn1.bias f4 [32]
0.2016518 0.025489932 0.12689812 -0.013227518 0.001307532 0.14454985 0.17652144 0.050830018
0.071332134 -0.05704375 0.04274789 0.063611366 0.056006197 0.097767495 -0.013333634 0.19162813
0.12488689 0.021621201 -0.012942861 0.1659228 0.018535553 -0.012909744 0.060570218 0.10742233
0.00628559 -0.0006833751 -0.010746413 -0.013040913 0.060380306 0.04710918 0.15165423 0.12958209
00000000: cf7d 4e3e 43d0 d03c 95f1 013e 3bb8 58bc
00000010: 7e61 ab3a e004 143e 09c2 343e 2333 503d
00000020: 9516 923d b5a6 69bd 6918 2f3d ad46 823d
00000030: c166 653d 533a c83d 5075 5abc 2a3a 443e
00000040: b3c4 ff3d f21e b13c 4b0e 54bc abe7 293e
00000050: dfd7 973c 6483 53bc 7a18 783d 3d00 dc3d
00000060: 5af7 cd3b 8724 33ba b911 30bc 8ea9 55bc
00000070: 5751 773d 8ef5 403d 3f4b 1b3e 2bb1 043e

module.net_sm.layer1.0.bn1.running_mean f4 [32]
3.2542932 1.7335227 -0.9153277 -1.0634599 1.2104776 2.1771545 0.35878465 -1.1758912
0.30702704 1.0293689 -0.75754046 -0.14486194 -2.3925254 2.817028 -1.464597 2.7243266
0.55180913 1.4787753 0.8333163 -0.0917088 -1.0748382 -1.5405196 -2.0551074 -0.106403686
0.21552613 -2.3880522 -0.20646416 -1.4292928 2.3318396 -0.4154246 1.2958599 0.6783102
00000000: 5746 5040 12e4 dd3f eb52 6abf 741f 88bf
00000010: eef0 9a3f 8056 0b40 9fb2 b73e 9a83 96bf
00000020: a632 9d3e 5cc2 833f 2cee 41bf b056 14be
00000030: 231f 19c0 304a 3440 ea77 bbbf 5e5b 2e40
00000040: 5d43 0d3f 8248 bd3f 3854 553f d3d1 bbbd
00000050: 4c94 89bf bf2f c5bf e186 03c0 2dea d9bd
00000060: e2b2 5c3e d9d5 18c0 576b 53be 11f3 b6bf
00000070: dc3c 1540 88b2 d4be bdde a53f bda5 2d3f

module.net_sm.layer1.0.bn1.running_var f4 [32]
12.726352 4.6257396 3.2800457 3.6294184 7.0541067 9.665355 5.5757318 2.9657636
1.7499461 2.4314866 1.4050689 1.0447332 9.228506 9.8186865 4.657287 11.504367
2.0006883 5.1867056 1.7932702 3.2101316 4.9790044 5.0605087 5.6366053 2.7092752
0.97942394 8.281936 3.5664907 3.8063285 7.6006155 2.2060637 6.1604667 3.3051524
00000000: 239f 4b41 0f06 9440 45ec 5140 6448 6840
00000010: 3ebb e140 4ba5 1a41 656c b240 12cf 3d40
00000020: 3cfe df3f 7a9d 1b40 4cd9 b33f d1b9 853f
00000030: f6a7 1341 5719 1d41 7f08 9540 e311 3841
00000040: 470b 0040 7ef9 a540 e189 e53f cc72 4d40
00000050: 0154 9f40 b0ef a140 125f b440 c464 2d40
00000060: 87bb 7a3f cf82 0441 6241 6440 e39a 7340
00000070: 3e38 f340 2630 0d40 8b22 c540 9e87 5340

module.net_sm.layer1.0.conv2.weight f4 [32, 32, 3, 3, 3]
0.032475177 0.022161765 0.010043662 0.019772552 -0.067133345 -0.07223297 -0.010107522 -0.018832076
-0.01155857 0.021562712 -0.049623597 -0.044263165 0.047448456 0.023151588 0.039591704 -0.0068503777
-0.018083105 -0.0020129099 0.024451554 0.02425066 -0.020452468 0.013104101 0.04008022 0.02719804
-0.030721625 -0.053609107 0.024714483 0.018019615 0.033061255 -0.023292758 -0.022499964 -0.025965385
0.029025732 -0.0067128204 0.034319673 0.026313478 -0.045249738 -0.031756874 -0.03319444 -0.0023019123
-0.009683797 0.0077135446 0.016891258 0.0034981254 0.01460688 -0.0061880182 0.04090598 -0.07434946
0.028327439 0.02970836 -0.0020303833 0.028396757 -0.018441036 -0.03145072 -0.020448655 0.00292104
-0.090642475 -0.030558622 0.0018849631 0.0342035 -0.018598601 -0.043486405 -0.041666236 -0.027135277
0.026770707 -0.037905436 -0.018501136 0.021829162 0.012027141 -0.012046601 -0.030887296 -0.0048473864
-0.040320765 -0.0446751 -0.08640916 -0.056123212 -0.004767507 -0.014723551 -0.0075157247 -0.032919854
-0.0004890187 0.01536383 0.009196368 0.016058357 0.014886415 0.048537932 -0.029771505 -0.04005135
-0.03513414 0.07017541 0.04620365 -0.018890472 -0.019455956 0.02300708 0.010023246 -0.014966159
0.029973622 0.0379797 -0.032562263 0.013593765 -0.0107315015 -0.027744554 0.040038455 -0.010835919
-0.045817133 0.021657541 0.03431927 -0.0009944742 -0.012817406 0.02477805 0.013474031 -0.002059354
-0.010968936 -0.019858962 0.048033115 0.055083916 -0.0015046636 0.014002856 0.042138733 0.0106841875
-0.024377046 0.044166498 -0.008194556 -0.050228607 0.007586631 0.0030975274 -0.0080926735 -0.03395436
-0.016419534 -0.021682998 0.024873653 0.0035713818 -0.043138083 -0.06142723 -0.04535369 0.01756766
-0.0014653368 0.0011243743 0.029550107 -0.018065311 0.0135848215 -0.050599772 -0.016357085 -0.022376375
-0.03621138 0.020794066 0.00506659 -0.022898136 -0.0490431 -0.0099662375 0.039315164 0.022448786
-0.103364035 -0.014196307 -0.0017930808 0.0040898644 -0.017450271 -0.006807684 -0.06553988 -0.0066804388
0.08153374 -0.030961728 -0.012753363 -0.05294752 0.02670865 -0.019807843 -0.002316273 0.022491273
-0.0043721925 -0.011401 -0.005607106 -0.03589646 -0.0013466792 0.008233449 0.01462164 0.005857833
0.025614636 -0.023886632 0.00047693765 0.0032206557 -0.016570358 -0.025856439 0.018807368 0.020062532
0.021685317 0.026693065 0.032911193 0.009971997 0.0054895016 -0.0007240781 -0.03211336 0.025812428
0.016374623 0.018119669 -0.008983347 -0.0072421567 0.036309045 -0.005244989 -0.0056336443 -0.0067546526
-0.033541027 -0.017161017 -0.042970303 -0.023204084 0.00044535138 0.033843193 -0.028897176 0.008219424
-0.056789637 -0.0064973366 -0.0029429747 0.00449492 -0.0044931932 -0.01998699 -0.03844552 0.008058148
0.05309632 -0.04931404 -0.0044996166 0.06133005 0.03219862 -0.04530707 -0.008663964 0.026163172
-0.027672946 0.027079955 -0.008061296 -0.004807067 -0.049827054 -0.05325796 -0.045186758 0.02028198
-0.011470695 -0.027058087 -0.054233454 0.0067941104 0.031529482 -0.003889177 -0.033439424 -0.03447581
-0.022366589 -0.00665406 0.03159054 0.003885063 0.022988608 -0.015819095 0.02646238 -0.036327325
-0.0037957174 0.046785444 -0.042150386 -0.012351795 -0.026009612 0.0074355123 -0.047511168 0.06657762
00000000: b104 053d 978c b53c 2c8e 243c 0cfa a13c
00000010: 357d 89bd e1ee 93bd 059a 25bc ba45 9abc
00000020: 2860 3dbc 49a4 b03c 1d42 4bbd 4b4d 35bd
00000030: 5059 423d 66a8 bd3c e92a 223d 2279 e0bb
00000040: 0523 94bc 06eb 03bb a04e c83c 52a9 c63c
00000050: ef8b a7bc 95b2 563c 282b 243d 6dce de3c
00000060: ebab fbbc 3995 5bbd 0776 ca3c df9d 933c
00000070: 3d6b 073d 74d0 bebc d851 b8bc 5cb5 d4bc
00000080: 5fc7 ed3c 38f7 dbbb c992 0c3d 5d8f d73c
00000090: ca57 39bd 7f13 02bd e5f6 07bd aedb 16bb
000000a0: caa8 1ebc e7c1 fc3b 895f 8a3c ce40 653b
000000b0: b251 6f3c dcc4 cabb 078d 273d 8844 98bd
000000c0: f20e e83c f25e f33c 2e10 05bb 51a0 e83c
000000d0: a811 97bc 78d2 00bd f083 a7bc eb6e 3f3b
000000e0: c3a2 b9bd 1356 fabc de10 f73a f818 0c3d
000000f0: 185c 98bc cd1e 32bd 37aa 2abd cd4a debc
00000100: 3e4e db3c bb42 1bbd b28f 97bc 12d3 b23c
00000110: 7c0d 453c 1b5f 45bc 5b07 fdbc d3d6 9ebb
00000120: 6327 25bd 3dfd 36bd 49f7 b0bd 74e1 65bd
00000130: bf38 9cbb 0d3b 71bc 7846 f6bb f8d6 06bd
00000140: 7d31 00ba 93b8 7b3c 5dac 163c d18c 833c
00000150: 26e6 733c b6cf 463d 5fe3 f3bc e20c 24bd
00000160: d1e8 0fbd 20b8 8f3d 0a40 3d3d 31c0 9abc
00000170: 1962 9fbc 5879 bc3c 8a38 243c 9f34 75bc
00000180: 3e8b f53c 9a90 1b3d 0260 05bd 62b8 5e3c
00000190: 2ed3 2fbc 8c48 e3bc 5dff 233d 2389 31bc
000001a0: bfaa 3bbd 286b b13c 5d92 0c3d 0459 82ba
000001b0: 1900 52bc 56fb ca3c 2fc2 5c3c 3af6 06bb
000001c0: 0db7 33bc 43af a2bc 5fbe 443d ac9f 613d
000001d0: 2238 c5ba 3c6c 653c aa99 2c3d bb0c 2f3c
000001e0: 5fb2 c7bc eee7 343d 7642 06bc 83bc 4dbd
000001f0: 4699 f83b e3ff 4a3b 2297 04bc ba13 0bbd
00000200: 4282 86bc 8ba0 b1bc d5c3 cb3c d80d 6a3b
00000210: 8fb1 30bd 1e9b 7bbd cac4 39bd 0eea 8f3c
00000220: 8b10 c0ba be5f 933a 1113 f23c b4fd 93bc
00000230: df92 5e3c b541 4fbd 4bff 85bc a94e b7bc
00000240: 6252 14bd 5158 aa3c a305 a63b df94 bbbc
00000250: 6be1 48bd 6e49 23bc f008 213d 84e6 b73c
00000260: 86b0 d3bd a197 68bc cf05 ebba 4504 863b
00000270: dff3 8ebc fe12 dfbb c639 86bd 95e7 dabb
00000280: 29fb a63d 73a3 fdbc 7bf3 50bc 80df 58bd
00000290: 19cc da3c 0f44 a2bc 9dcc 17bb 9e3f b83c
000002a0: 9c44 8fbb 43cb 3abc d0bb b7bb 2b08 13bd
000002b0: 0e83 b0ba 97e5 063c 9a8f 6f3c 11f3 bf3b
000002c0: c9d5 d13c e6ad c3bc 7d0d fa39 a311 533b
000002d0: 8fbe 87bc e2d0 d3bc e911 9a3c 2e5a a43c
000002e0: 68a5 b13c 6aab da3c e3cd 063d 9661 233c
000002f0: 47e1 b33b 0fd0 3dba 4c89 03bd 9674 d33c
00000300: 1324 863c b36f 943c e32e 13bc 9d4f edbb
00000310: cbb8 143d 28de abbb 6f9a b8bb 2256 ddbb
00000320: 5162 09bd 4395 8cbc a101 30bd 7e16 bebc
00000330: 0d7e e939 299f 0a3d c5b9 ecbc c3aa 063c
00000340: 409c 68bd 9ce7 d4bb ecde 40bb 1f4a 933b
00000350: a33b 93bb c2bb a3bc 0d79 1dbd 5306 043c
00000360: 877b 593d 85fd 49bd 8571 93bb 3835 7b3d
00000370: b3e2 033d e893 39bd 4df3 0dbc 2654 d63c
00000380: 60b2 e2bc c8d6 dd3c 8713 04bc 9a84 9dbb
00000390: 7417 4cbd 0525 5abd c015 39bd 6526 a63c
000003a0: 95ef 3bbc eca8 ddbc e623 5ebd 21a1 de3b
000003b0: 0f25 013d 90e1 7ebb c7f7 08bd 8236 0dbd
000003c0: 233a b7bc 4d0a dabb 1565 013d 8b9c 7e3b
000003d0: 9b52 bc3c 0c97 81bc a2c7 d83c f6cb 14bd
000003e0: 92c1 78bb 18a2 3f3d e2a5 2cbd 2f5f 4abc
000003f0: 1c12 d5bc 99a5 f33b 129b 42bd d959 883d

module.net_sm.layer1.0.bn2.weight f4 [32]
0.72079915 0.6782893 0.6368727 0.5087893 0.66436386 0.43735275 0.32340315 0.67639625
0.6284369 0.38004798 0.64898413 0.6958408 0.6830651 0.66000044 0.40647087 0.6476283
0.43646958 0.48665422 0.66595757 0.6395249 0.66706365 0.4100762 0.39735198 0.6590849
0.6919303 0.35330257 0.61483836 0.45283717 0.610067 0.67126137 0.65342164 0.48464268
00000000: 4b86 383f 5ea4 2d3f 170a 233f 0440 023f
00000010: c013 2a3f b3ec df3e 1995 a53e 4e28 2d3f
00000020: 3ee1 203f a695 c23e d323 263f 9f22 323f
00000030: 5bdd 2e3f caf5 283f f31c d03e f8ca 253f
00000040: f178 df3e be2a f93e 327c 2a3f e7b7 233f
00000050: afc4 2a3f 82f5 d13e b871 cb3e cab9 283f
00000060: 5822 313f 13e4 b43e 0c66 1d3f 46da e73e
00000070: 5a2d 1c3f c9d7 2b3f a446 273f 1623 f83e

module.net_sm.layer1.0.bn2.bias f4 [32]
-0.005346928 -0.020049362 -0.011835126 -0.05799833 -0.008064863 -0.030991776 -0.016286436 -0.010730628
-0.03425272 -0.040610656 -0.079359464 -0.03384608 -0.036890738 -0.0050628358 -0.0041855443 -0.025915861
0.020322356 -0.019794924 -0.05370818 -0.020947872 -0.010834031 0.008640955 -0.009904882 -0.049307175
-0.024613313 0.042382844 -0.025571562 -0.050355878 -0.046727113 -0.053742085 -0.021394156 -0.064580366
00000000: 4835 afbb 8f3e a4bc 1ee8 41bc a88f 6dbd
00000010: 7d22 04bc 77e2 fdbc 226b 85bc 84cf 2fbc
00000020: 954c 0cbd 5c57 26bd 3787 a2bd 30a2 0abd
00000030: be1a 17bd 25e6 a5bb e426 89bb 804d d4bc
00000040: 127b a63c f728 a2bc 1cfd 5bbd df9a abbc
00000050: 3881 31bc cb92 0d3c 1648 22bc 52f6 49bd
00000060: dca1 c9bc a299 2d3d 747b d1bc f741 4ebd
00000070: ee64 3fbd a920 5cbd cc42 afbc b642 84bd

module.net_sm.layer1.0.bn2.running_mean f4 [32]
-1.1034942 -0.9746316 -1.1176071 -0.08893155 -1.2392423 0.575025 -0.087501585 -1.1323059
-1.0893316 0.41496345 -0.9465275 -1.2074265 -0.50187474 -0.96858954 0.2845002 -1.2690898
0.8831937 -1.0229547 -1.7053335 -0.6754443 -1.181886 0.3026396 0.85947496 -0.5057502
-0.6164462 -0.23086953 -0.7934961 0.01370019 -1.109344 -0.81035846 -0.48685 1.1788214
00000000: 4c3f 8dbf 7581 79bf c00d 8fbf bf21 b6bd
00000010: 7e9f 9ebf d734 133f 0834 b3bd 66ef 90bf
00000020: 386f 8bbf 1776 d43e a04f 72bf f48c 9abf
00000030: dd7a 00bf 7cf5 77bf 03aa 913e 8971 a2bf
00000040: fb18 623f 2ef0 82bf 5e48 dabf ebe9 2cbf
00000050: 0a48 97bf 94f3 9a3e 8d06 5c3f d878 01bf
00000060: 6bcf 1dbf 1069 6cbe 8f22 4bbf c376 603c
00000070: fcfe 8dbf a773 4fbf 6744 f9be 9fe3 963f

module.net_sm.layer1.0.bn2.running_var f4 [32]
3.9513419 3.222936 5.6104646 1.1447874 5.6235194 1.2720872 1.0139011 5.107307
3.5380177 1.2514279 3.6773045 5.1223197 3.0159268 4.8947926 1.4359713 3.1740148
1.4703478 2.1570554 1.7329282 3.3243155 5.681904 3.4550395 1.7867274 2.5904903
2.964443 0.4628769 2.6184535 1.9629911 3.6718795 4.3664603 3.3607457 4.046416
00000000: c9e2 7c40 9544 4e40 ed88 b340 6588 923f
00000010: dff3 b340 c1d3 a23f 83c7 813f 0f6f a340
00000020: e26e 6240 ca2e a03f f558 6b40 0bea a340
00000030: f204 4140 24a2 9c40 e8cd b73f 0f23 4b40
00000040: 5b34 bc3f 320d 0a40 97d0 dd3f 96c1 5440
00000050: 28d2 b540 5e1f 5d40 7cb3 e43f 98ca 2540
00000060: 6fb9 3d40 33fe ec3e be94 2740 4b43 fb3f
00000070: 1300 6b40 0bba 8b40 7516 5740 3d7c 8140

module.net_sm.layer2.0.conv1.weight f4 [32, 32, 3, 3, 3]
0.02885372 -0.038142975 -0.056455895 0.051056318 -0.041200757 0.0055350354 -0.03187081 0.028973578
0.06414762 0.018394709 -0.0068532806 0.0040158625 -0.067039 -0.041268703 -0.0056329872 -0.016312202
0.021022223 -0.015879724 -0.0532379 -0.012595229 -0.0345606 -0.013574966 0.05552923 -0.015949162
-0.013957022 0.026342373 -0.0041914335 -0.022974797 0.014550469 -0.032474425 -0.075697586 -0.0025177859
0.017935053 -0.026892088 -0.013642454 -0.0019282537 0.014131104 -0.016530981 -0.038924124 -0.022698274
-0.026635922 0.033949915 0.024911705 -0.065227814 0.019213414 -0.016162407 -0.027624523 0.037669197
0.04950817 0.059881352 -0.050941736 0.04329682 0.03451797 -0.018260134 -0.0047795638 0.0064669126
-0.023133859 0.020943994 -0.01920416 0.008196306 -0.050145976 0.02249171 -0.009692502 -0.0082411105
-0.002071206 0.002890952 -0.0015805936 0.010807073 -0.0038164763 -0.0031269987 -0.045612182 -0.00911054
0.020660661 0.004135299 -0.022608962 -0.022424197 -0.029391771 -0.012954296 -0.04482754 -0.08846496
-0.039612744 -0.008118582 -0.018961342 0.013370003 -0.0033103453 -0.0073283208 -0.017698735 -0.0600786
-0.011613746 0.013185734 -0.009460437 -0.045451645 0.007823065 -0.035787087 0.015230485 -0.033974286
0.019939605 -0.041696012 -0.018539991 0.02751556 0.013655603 -0.013302454 0.019061279 0.0050958567
-0.03679514 -0.0025183507 0.041504864 0.009029396 0.0014405206 -0.010061588 0.014085169 -0.017721033
-0.022000544 -0.030396098 -0.02046414 0.027809696 0.017451359 -0.021580752 0.0035501134 -0.007010348
-0.022009464 -0.05812478 -0.039052032 0.029578216 -0.011493011 -0.016137976 0.028230572 0.026786579
-0.04657682 0.042017564 0.004711488 -0.0045919106 -0.01985022 -0.039327845 -0.03388709 0.06686775
-0.027350873 -0.036069788 0.018390752 0.083168685 -0.05029129 0.01017599 -0.015710553 0.022249037
-0.021125665 0.0070513706 -0.022512514 0.024484988 -0.01472402 0.02527287 -0.050400738 0.02050358
-0.11240581 -0.030071007 -0.01491525 -0.040133234 0.05805596 0.041194476 3.4607823e-05 -0.044329192
-0.045522794 -0.008758422 -0.041990872 0.02517679 -0.0030293257 0.0158805 -0.0058278996 0.011736043
-0.0061839665 0.022352934 -0.010898941 0.09227082 -0.0106787095 -0.036488958 -0.032038182 0.016050251
-0.017553123 0.030474233 0.03223246 -0.04770565 0.070135646 0.0043121316 0.047959946 0.0006995052
0.0013825822 0.0071552456 -0.042446952 0.016201962 -0.055576444 0.008718783 -0.0316043 0.041618675
-0.014571589 -0.049859185 0.00048506312 0.014873596 -0.02856504 -0.004662255 0.035096895 -0.022686306
0.022279408 0.042772327 -0.022212578 -0.014927548 -0.025329644 0.050641995 -0.043176867 -0.011087289
-0.06999164 0.004473474 0.02084506 0.00534055 -0.04321182 -0.023095604 -0.05715672 0.017439606
-0.03073823 -0.01884739 -0.010525302 0.009915584 -0.0111798635 -0.02252215 0.032636248 -0.004632035
0.031007595 8.4416184e-05 -0.037048418 -0.028221937 -0.06193432 -0.014476383 0.04911455 0.009011654
-0.035612304 -0.030415496 -0.03785314 0.0075768065 0.0033603515 0.048898447 0.043952342 -0.033546768
0.03104739 0.013546238 0.002648168 0.02693439 -0.034761928 -0.005092566 0.054365247 0.05489212
0.050625395 0.00028581623 0.0089131715 -0.006945662 0.032019503 -0.018342286 0.034172244 0.011272085
00000000: a35e ec3c cf3b 1cbd 4c3e 67bd 6e20 513d
00000010: 20c2 28bd 3e5f b53b f78a 02bd ff59 ed3c
00000020: d45f 833d 80b0 963c 7c91 e0bb 7f97 833b
00000030: be4b 89bd 5f09 29bd ec94 b8bb 2ba1 85bc
00000040: cc36 ac3c 3216 82bc fc0f 5abd 385c 4ebc
00000050: 6a8f 0dbd 8969 5ebc 9e72 633d d1a7 82bc
00000060: feab 64bc f6cb d73c 4b58 89bb a435 bcbc
00000070: 1765 6e3c e703 05bd 5607 9bbd 7001 25bb
00000080: 88ec 923c cc4c dcbc 9984 5fbc 75bd fcba
00000090: 2586 673c fb6b 87bc e76e 1fbd bbf1 b9bc
000000a0: 9433 dabc 110f 0b3d a213 cc3c 2996 85bd
000000b0: 7365 9d3c 0667 84bc d34c e2bc 044b 1a3d
000000c0: 14c9 4a3d 2646 753d 48a8 50bd 0258 313d
000000d0: b762 0d3d 4796 95bc e39d 9cbb 65e8 d33b
000000e0: 3883 bdbc bd92 ab3c 0b52 9dbc cd49 063c
000000f0: de65 4dbd 8940 b83c 4dcd 1ebc b905 07bc
00000100: 12bd 07bb 2076 3d3b ec2b cfba 2610 313c
00000110: d91d 7abb 55ee 4cbb d7d3 3abd 6044 15bc
00000120: 8c40 a93c 6781 873b 6e36 b9bc f3b2 b7bc
00000130: 03c7 f0bc 413e 54bc 159d 37bd 1e2d b5bd
00000140: f940 22bd cd03 05bc d154 9bbc db0d 5b3c
00000150: 61f2 58bb 6922 f0bb f0fc 90bc fa14 76bd
00000160: 9547 3ebc fa08 583c f3ff 1abc 812b 3abd
00000170: 502c 003c 7b95 12bd 4989 793c 9f28 0bbd
00000180: 6258 a33c 70c9 2abd 2ee1 97bc 5068 e13c
00000190: c0bb 5f3c 89f2 59bc 6626 9c3c 25fb a63b
000001a0: 80b6 16bd ea0a 25bb 0101 2a3d 08f0 133c
000001b0: dacf bc3a 5cd9 24bc 7bc5 663c b32b 91bc
000001c0: 7c3a b4bc 3d01 f9bc 6aa4 a7bc 29d1 e33c
000001d0: 27f6 8e3c 1eca b0bc 05a9 683b 10b7 e5bb
000001e0: 314d b4bc 4014 6ebd 06f5 1fbd 044e f23c
000001f0: 2f4d 3cbc ca33 84bc cd43 e73c 876f db3c
00000200: 56c7 3ebd 9c1a 2c3d d362 9a3b bd77 96bb
00000210: ee9c a2bc 3c16 21bd 30cd 0abd f5f1 883d
00000220: f00e e0bc eabd 13bd 34a8 963c 5854 aa3d
00000230: 3dfe 4dbd 32b9 263c 6bb3 80bc 9d43 b63c
00000240: bb0f adbc 2f0f e73b 2a6c b8bc be94 c83c
00000250: 043d 71bc 0d09 cf3c 0171 4ebd 20f7 a73c
00000260: 0435 e6bd 7957 f6bc 185f 74bc bf62 24bd
00000270: 16cc 6d3d 8abb 283d de27 1138 8792 35bd
00000280: 1c76 3abd 7c7f 0fbc 9ffe 2bbd 8e3f ce3c
00000290: a787 46bb d317 823c f7f7 bebb 8848 403c
000002a0: dfa2 cabb 801d b73c 7991 32bc 7cf8 bc3d
000002b0: c1f5 2ebc 7275 15bd 783a 03bd d17b 833c
000002c0: 91cb 8fbc 19a5 f93c 2f06 043d 0067 43bd
000002d0: 47a3 8f3d c84c 8d3b a671 443d 005f 373a
000002e0: c337 b53a 8d76 ea3b dbdc 2dbd fab9 843c
000002f0: 20a4 63bd 3ad9 0e3c 8373 01bd 5878 2a3d
00000300: adbd 6ebc 2539 4cbd 1250 fe39 62b0 733c
00000310: 3b01 eabc d4c5 98bb c3c1 0f3d a2d8 b9bc
00000320: 4e83 b63c 0932 2f3d 27f7 b5bc ad92 74bc
00000330: 1d80 cfbc fb6d 4f3d 3ada 30bd 76a7 35bc
00000340: c757 8fbd 3896 923b 42c3 aa3c c8ff ae3b
00000350: e1fe 30bd fe32 bdbc 2a1d 6abd 81dd 8e3c
00000360: bece fbbc d765 9abc 5172 2cbc f974 223c
00000370: bf2b 37bc 5f80 b8bc 96ad 053d 53c8 97bb
00000380: a403 fe3c 9808 b138 15c0 17bd b131 e7bc
00000390: d7ae 7dbd 5a2e 6dbc 572c 493d 9ea5 133c
000003a0: 35de 11bd eb29 f9bc e50b 1bbd dc46 f83b
000003b0: 5839 5c3b bd49 483d 5f07 343d 5668 09bd
000003c0: 1957 fe3c 0af1 5d3c e38c 2d3b 83a5 dc3c
000003d0: 8662 0ebd 8adf a6bb 18ae 5e3d 8fd6 603d
000003e0: 935c 4f3d 9bd9 9539 8d08 123c 7098 e3bb
000003f0: e226 033d 9042 96bc 32f8 0b3d 8dae 383c

module.net_sm.layer2.0.bn1.weight f4 [32]
0.63026106 0.6387753 0.6559422 0.6347055 0.57515305 0.66408914 0.7041361 0.78949386
0.6898822 0.64192444 0.64771426 0.772702 0.74584335 0.6624361 0.6793043 0.5895365
0.5082887 0.7298466 0.61486584 0.6365368 0.6370024 0.6026871 0.676213 0.6723134
0.59416837 0.67617065 0.57666445 0.5753898 0.6074598 0.6267554 0.52011085 0.615692
00000000: ca58 213f c786 233f d4eb 273f 0f7c 223f
00000010: 3b3d 133f bf01 2a3f 4342 343f 451c 4a3f
00000020: 1f9c 303f 2955 243f 9ad0 253f cccf 453f
00000030: 97ef 3e3f 6a95 293f e3e6 2d3f ddeb 163f
00000040: 351f 023f 3ad7 3a3f d967 1d3f 13f4 223f
00000050: 9712 233f b449 1a3f 4c1c 2d3f bb1c 2c3f
00000060: 6b1b 183f 8519 2d3f 48a0 133f bf4c 133f
00000070: 7c82 1b3f 0b73 203f fc25 053f fe9d 1d3f

module.net_sm.layer2.0.bn1.bias f4 [32]
-0.07864601 0.024091326 -0.023344465 -0.0471073 -0.059107743 0.03615041 0.021737963 0.08717067
-0.065048516 -0.03913403 0.0070806737 0.0610242 0.02508946 -0.012506897 -0.014391854 -0.006829612
-0.04626857 0.0071690814 0.040835004 0.0023571935 0.01936413 0.07139752 -0.09123349 -0.016016642
-0.016231144 -0.03768155 -0.05847082 -0.13225017 -0.024045063 0.04601622 -0.11155722 -0.03431029
00000000: 2911 a1bd 2c5b c53c e43c bfbc 96f3 40bd
00000010: f61a 72bd 7412 143d d013 b23c 8986 b23d
00000020: 2838 85bd 014b 20bd ff04 e83b 83f4 793d
00000030: 6988 cd3c bae9 4cbc d0cb 6bbc f0ca dfbb
00000040: 1d84 3dbd 9dea ea3b 9b42 273d 257b 1a3b
00000050: 86a1 9e3c dd38 923d a0d8 babd 5535 83bc
00000060: 2df7 84bc f857 1abd 197f 6fbd 976c 07be
00000070: 27fa c4bc 817b 3c3d 1d78 e4bd f288 0cbd

module.net_sm.layer2.0.bn1.running_mean f4 [32]
-2.7108607 0.9323839 -1.9395648 0.58490866 -0.2704825 -1.3986921 -0.16166218 0.1090888
0.05447104 -1.0761715 -3.2139378 0.7343309 1.1157931 -0.58554333 1.0360601 0.9779733
0.522499 1.3569773 2.521247 -0.9839482 -1.660032 2.7022939 -0.27754614 0.12575945
-0.43618476 0.26054293 0.6992043 -1.5094523 -0.87832046 2.8887544 0.9678414 1.236532
00000000: be7e 2dc0 b6b0 6e3f a943 f8bf 93bc 153f
00000010: af7c 8abe 5808 b3bf c58a 25be f369 df3d
00000020: 061d 5f3d fdbf 89bf 28b1 4dc0 1cfd 3b3f
00000030: 4fd2 8e3f 2be6 15bf 9e9d 843f 755c 7a3f
00000040: 7fc2 053f 6fb1 ad3f 1c5c 2140 07e4 7bbf
00000050: ee7b d4bf 62f2 2c40 871a 8ebe 16c7 003e
00000060: 9c53 dfbe e265 853e 0eff 323f bc35 c1bf
00000070: 9cd9 60bf 5ae1 3840 74c4 773f ae46 9e3f

module.net_sm.layer2.0.bn1.running_var f4 [32]
2.665975 3.3285453 4.1899323 1.4249271 1.2608056 2.301112 1.6904252 3.0858798
1.2411306 3.3365185 10.479447 1.4991355 2.3548892 2.6503923 1.7758794 3.0616817
1.2179575 1.9113569 4.0614796 2.0950036 4.752682 5.7478085 1.421265 2.0362012
2.9039884 1.7423104 4.2700515 2.223577 1.8904918 7.887705 2.1991382 1.7917349
00000000: 569f 2a40 e306 5540 ed13 8640 0364 b63f
00000010: 1462 a13f 6b45 1340 da5f d83f 0e7f 4540
00000020: 5edd 9e3f 8589 5540 d1ab 2741 ace3 bf3f
00000030: 81b6 1640 07a0 2940 0450 e33f 98f2 4340
00000040: 08e6 9b3f 58a7 f43f a4f7 8140 8a14 0640
00000050: f915 9840 0cee b740 03ec b53f 1f51 0240
00000060: f2da 3940 0704 df3f 43a4 8840 164f 0e40
00000070: a3fb f13f 1468 fc40 aebe 0c40 9257 e53f

module.net_sm.layer2.0.conv2.weight f4 [32, 32, 3, 3, 3]
0.06300818 0.038995296 -0.022349337 0.0055236043 0.009494976 0.010464809 -0.053209927 -0.0041097854
-0.019951373 0.03231757 0.043557186 0.0033545662 -0.0055185566 -0.025117332 0.017232401 -0.009016406
0.037109856 0.04009231 -0.0049302713 0.02289307 -0.047380622 0.020675944 0.03701149 -0.03201532
0.015150614 0.024906434 0.025126703 -0.06610436 -0.03729197 0.0047992696 -0.07358839 -0.029808078
-0.0051968764 0.0490072 -0.03452775 -0.060968354 -0.054694727 -0.0711022 0.032277364 -0.005830864
-0.07639025 0.0032079802 -0.013936792 -0.027996937 -0.049824387 -0.03496858 -0.037726156 -0.023948679
-0.045115586 -0.010151374 -0.0037264486 -0.03495436 0.037875444 -0.037171256 0.015628105 0.022555754
-0.022840844 -0.03355601 0.014230434 0.024825152 0.014681924 -0.010235654 0.05163664 0.059037678
0.03259019 -0.01390059 0.035863224 0.04084003 -0.021873944 0.0039683697 0.03293245 -0.018300068
-0.040049493 -0.068237536 0.011994937 0.04049884 0.026223887 0.021412311 0.013937554 0.07171265
0.027140213 0.019329933 0.015559281 -0.018546542 0.011891344 0.05465486 -0.011086097 -0.027524337
-0.025743572 -0.016737716 -0.010956932 -0.04441611 -0.02293009 0.0010053696 0.040146276 -0.030236142
-0.010739565 0.025712961 0.051763307 0.016254991 -0.026253851 -0.019894183 -0.018192519 0.0486249
-0.056351803 -0.016312357 -0.022241969 -0.0035045738 0.01092218 -0.047297623 0.03500939 -0.05502991
-0.0074641537 0.017590707 -0.01247531 0.014633467 0.067551926 -0.02060888 -0.013549938 -0.0062368014
-0.034628566 -0.007637863 -0.01691837 -0.043981638 0.049437962 0.022263654 -0.030819144 -0.032593925
-0.028494341 -0.06441386 -0.017210172 -0.009572145 -0.020783193 0.044663884 -0.0022478483 0.016979083
0.02737929 -0.0009982749 -0.042964593 -0.015805645 -0.013563214 0.05259603 -0.026567755 0.011892569
0.062048875 -0.0128131155 -0.011984325 -0.023841392 -0.021666592 0.0051085637 -0.07471554 -0.025649203
0.0076896106 -0.01962339 0.026642973 0.028509317 -0.0006082109 -0.0017587194 -0.027573023 -0.017661434
0.07394618 0.022663156 -0.023577737 0.005811746 0.0007702729 0.033965055 0.049341768 -0.024200296
-0.014015106 -0.05705029 0.009698943 -0.034195866 0.047661744 0.029747542 0.03678616 0.042340588
-0.035278536 -0.033793896 0.038384836 -0.006792544 0.0045383107 -0.022047723 -0.05803289 0.005173797
-0.053177424 0.0009089185 -0.0024301508 0.0737501 -0.08288688 0.026405998 -0.023487676 -0.01852289
0.015099892 0.010026718 -0.010722272 -0.037093706 -0.025954043 -0.019095952 -0.033192277 -0.0031752065
-0.01943621 0.010721077 -0.010737289 -0.028827548 -0.023731682 0.014869964 0.038100194 -0.010292477
-0.003908729 -0.017661909 0.055435527 -0.044801135 -0.04643637 -0.019563593 0.00044874425 -0.017609147
-0.0010732565 -0.04068597 -0.02386021 -0.010277152 0.031503096 0.05501086 0.03726784 -0.005785547
-0.008405445 -0.0013758417 0.02861012 -0.053302817 -0.021955807 -0.04578593 -0.0417493 -0.026941
-0.028977664 -0.060738433 -0.0044458723 -0.00993018 -0.0071409033 -0.05119935 -0.03972786 -0.013953972
-0.009751267 -0.046035532 -0.016479958 0.12839499 -0.042792823 -0.030626018 0.04817127 -0.039331008
0.013671816 -0.02608939 -0.053650558 -0.003007827 -0.009732078 0.03336629 -0.030864269 -0.037308052
00000000: 6f0a 813d 88b9 1f3d f515 b7bc 5aff b43b
00000010: d190 1b3c 9774 2b3c a7f2 59bd 61ab 86bb
00000020: 1071 a3bc 6e5f 043d 0569 323d 48d8 5b3b
00000030: 02d5 b4bb ddc2 cdbc f72a 8d3c 8cb9 13bc
00000040: 8100 183d d637 243d 1d8e a1bb 3f8a bb3c
00000050: 2f12 42bd 9960 a93c 5c99 173d 7f22 03bd
00000060: 483a 783c 9408 cc3c 84d6 cd3c b961 87bd
00000070: 77bf 18bd 3143 9d3b 83b5 96bd 1230 f4bc
00000080: 8f4a aabb c6bb 483d f86c 0dbd f4b9 79bd
00000090: 9407 60bd 089e 91bd 4535 043d d510 bfbb
000000a0: 7e72 9cbd fa3c 523b 2457 64bc d559 e5bc
000000b0: a814 4cbd 373b 0fbd be86 1abd 0530 c4bc
000000c0: 1fcb 38bd f351 26bc 6f37 74bb 4e2c 0fbd
000000d0: 4823 1b3d e340 18bd 8306 803c d8c6 b83c
000000e0: b91c bbbc 0772 09bd c426 693c 1e5e cb3c
000000f0: 748c 703c 72b3 27bc f180 533d 7ed1 713d
00000100: 4b7d 053d 4dbf 63bc 51e5 123d e047 273d
00000110: fc30 b3bc 1909 823b 2de4 063d 06ea 95bc
00000120: f00a 24bd 1fc0 8bbd 6a86 443c 1de2 253d
00000130: 7ad3 d63c df68 af3c 575a 643c 15de 923d
00000140: 2755 de3c cf59 9e3c 5bec 7e3c ebee 97bc
00000150: e9d3 423c c6dd 5f3d 76a2 35bc b87a e1bc
00000160: 2fe4 d2bc 891d 89bc b484 33bc abed 35bd
00000170: e2d7 bbbc 9bc6 833a 6c70 243d c9b1 f7bc
00000180: 00f5 2fbc fda3 d23c c305 543d 3029 853c
00000190: 5112 d7bc 20f9 a2bc 7a08 95bc e72a 473d
000001a0: 26d1 66bd 7ea1 85bc ca34 b6bc feac 65bb
000001b0: f1f2 323c 27bb 41bd 0266 0f3d 0b67 61bd
000001c0: dc95 f4bb 631a 903c 3e65 4cbc 36c1 6f3c
000001d0: aa58 8a3d f4d3 a8bc 8f00 5ebc 155e ccbb
000001e0: afd6 0dbd 0a47 fabb 6598 8abc 1726 34bd
000001f0: 767f 4a3d 4462 b63c 6e78 fcbc 3581 05bd
00000200: f76c e9bc 6aeb 83bd 59fc 8cbc 7cd4 1cbc
00000210: 8441 aabc 7af1 363d a350 13bb b817 8b3c
00000220: 884a e03c 8cd8 82ba a4fb 2fbd d77a 81bc
00000230: 3e38 5ebc ef6e 573d 9fa4 d9bc 0dd9 423c
00000240: f626 7e3d 1aee 51bc e759 44bc 064f c3bc
00000250: 237e b1bc bd65 a73b 7604 99bd 471e d2bc
00000260: 21f9 fb3b 3bc1 a0bc 5d42 da3c 5f8c e93c
00000270: 5870 1fba d584 e6ba d2e0 e1bc b6ae 90bc
00000280: 1871 973d 15a8 b93c 1926 c1bc 7670 be3b
00000290: 24ec 493a f11e 0b3d 981a 4a3d b33f c6bc
000002a0: 9d9f 65bc 91ad 69bd 51e8 1e3c f710 0cbd
000002b0: f638 433d 1eb1 f33c 16ad 163d 536d 2d3d
000002c0: 3a80 10bd 786b 0abd 6b39 1d3d fd93 debb
000002d0: 1cb6 943b 6d9d b4bc e5b3 6dbd f488 a93b
000002e0: 92d0 59bd 7d44 6e3a 2a43 1fbb 4b0a 973d
000002f0: 99c0 a9bd 6451 d83c 3a69 c0bc 51bd 97bc
00000300: 8a65 773c 1a47 243c 78ac 2fbc 92ef 17bd
00000310: 939d d4bc 1d6f 9cbc a0f4 07bd 2017 50bb
00000320: b038 9fbc 75a7 2f3c 74eb 2fbc c027 ecbc
00000330: f268 c2bc 26a1 733c f30e 1c3d c7a1 28bc
00000340: cc14 80bb b5af 90bc 5d10 633d 6581 37bd
00000350: 1034 3ebd d443 a0bc 6f45 eb39 0f41 90bc
00000360: 83ac 8cba 55a6 26bd 7d76 c3bc 8061 28bc
00000370: 6409 013d 1153 613d 2aa6 183d b094 bdbb
00000380: feb6 09bc 9655 b4ba c55f ea3c 0e54 5abd
00000390: aadc b3bc 078a 3bbd 5001 2bbd 5fb3 dcbc
000003a0: 9162 edbc ddc8 78bd aeae 91bb 32b2 22bc
000003b0: 3dfe e9bb 69b6 51bd aeb9 22bd 339f 64bc
000003c0: c7c3 1fbc c18f 3cbd fa00 87bc fa79 033e
000003d0: 8747 2fbd 6ae3 fabc 3d4f 453d 8d19 21bd
000003e0: c1ff 5f3c 6bb9 d5bc b0c0 5bbd f71e 45bb
000003f0: 4b73 1fbc 17ab 083d 10d7 fcbc 54d0 18bd

module.net_sm.layer2.0.bn2.weight f4 [32]
0.58704054 0.5526373 0.54811466 0.61396 0.6284574 0.6210647 0.57746804 0.5464307
0.5512759 0.6093807 0.6439516 0.4752151 0.69400185 0.49673814 0.6624884 0.6490141
0.65776473 0.64865535 0.57538086 0.40091902 0.5922553 0.5543516 0.5771527 0.73040545
0.6994061 0.669504 0.5788975 0.71509653 0.65683466 0.5980844 0.6546364 0.47835103
00000000: 4a48 163f a379 0d3f 3e51 0c3f 7c2c 1d3f
00000010: 96e2 203f 19fe 1e3f f2d4 133f e2e2 0b3f
00000020: 6b20 0d3f 6000 1c3f 03da 243f 654f f33e
00000030: 1baa 313f 7654 fe3e d798 293f ca25 263f
00000040: 4563 283f 470e 263f 294c 133f 4245 cd3e
00000050: 0b9e 173f fde9 0d3f 48c0 133f dafb 3a3f
00000060: 470c 333f 9d64 2b3f a032 143f 9110 373f
00000070: 5126 283f 0f1c 193f 4096 273f 6dea f43e

module.net_sm.layer2.0.bn2.bias f4 [32]
-0.07352059 -0.02229388 -0.04313617 -0.069378495 -0.084854774 -0.014743711 -0.08395367 -0.022017762
-0.06078051 -0.057002388 -0.047632743 -0.06278221 -0.066653766 -0.019121127 -0.11804108 -0.06367927
-0.09355112 -0.05496915 -0.006696347 -0.14831834 -0.06857584 -0.07428413 -0.08925765 -0.105374366
-0.09335339 -0.12121136 -0.08630728 -0.052391082 -0.050767556 -0.059649106 -0.030513195 -0.18160081
00000000: f791 96bd a8a1 b6bc 8daf 30bd 5016 8ebd
00000010: 57c8 adbd 9b8f 71bc e7ef abbd 985e b4bc
00000020: fcf4 78bd 567b 69bd 8d1a 43bd f693 80bd
00000030: c581 88bd e9a3 9cbc 86bf f1bd 476a 82bd
00000040: bb97 bfbd 5527 61bd 086d dbbb c3e0 17be
00000050: 7d71 8cbd 4722 98bd b7cc b6bd 84ce d7bd
00000060: 1030 bfbd a93d f8bd dfc1 b0bd 0898 56bd
00000070: a4f1 4fbd 9f52 74bd cff6 f9bc 90f5 39be

module.net_sm.layer2.0.bn2.running_mean f4 [32]
-0.87168384 -0.20974383 0.43980613 0.21401715 -0.70533603 -1.3295046 -0.4465596 0.71063393
0.27950493 -0.025631037 -0.7583538 -0.05146349 -1.169472 0.22200592 -0.07922902 -0.13421717
-0.35362342 -0.8025411 -0.24932055 0.25426018 0.08383039 0.04972964 0.40542912 -0.16778907
-0.8645131 -0.62182343 -0.5479198 -1.199459 -1.0266228 -0.58079916 -0.4067089 0.7969274
00000000: ac26 5fbf 16c7 56be 452e e13e 5027 5b3e
00000010: e790 34bf 352d aabf 76a3 e4be 1bec 353f
00000020: 451b 8f3e 2ef8 d1bc 7a23 42bf 61cb 52bd
00000030: 42b1 95bf 8555 633e d342 a2bd 3a70 09be
00000040: 210e b5be 5573 4dbf e34d 7fbe 642e 823e
00000050: 44af ab3d 4fb1 4b3d 6894 cf3e e6d0 2bbe
00000060: bb50 5dbf d22f 1fbf 7944 0cbf df87 99bf
00000070: 6068 83bf 41af 14bf 263c d0be 6f03 4c3f

module.net_sm.layer2.0.bn2.running_var f4 [32]
2.1728086 0.5898801 0.6163068 0.859339 1.5356679 2.2950208 1.1363443 0.70697796
0.45134076 0.7612295 1.2073172 1.1045723 1.6852134 0.52675277 0.5291758 0.33634934
0.80945235 1.5990524 0.53997636 0.46370643 0.47548467 0.29156214 0.36736473 0.8579116
1.4844121 1.1189095 0.55010706 2.413331 1.2821686 0.6367839 0.32157347 0.89838606
00000000: 4c0f 0b40 6202 173f 48c6 1d3f a4fd 5b3f
00000010: c490 c43f 9fe1 1240 bb73 913f 82fc 343f
00000020: 2316 e73e f0df 423f 5f89 9a3f a062 8d3f
00000030: 13b5 d73f 45d9 063f 1178 073f fb35 ac3e
00000040: 4538 4f3f c0ad cc3f e43b 0a3f ee6a ed3e
00000050: ba72 f33e a247 953e 3b17 bc3e 18a0 5b3f
00000060: 3701 be3f 6d38 8f3f d1d3 0c3f 0474 1a40
00000070: 1a1e a43f 4504 233f 47a5 a43e a1fc 653f
