model/model_20200907110637/model_final_bcp_4_0300_sm.pth (torch_old, 960817 bytes, 59 tensors)

module.net_sm.conv1.weight f4 [32, 1, 7, 7, 7]
00000000: a200 30bc 4aa7 a6bd 23e1 6fbd 409f 5a3c
00000010: 88d9 83bd 7306 43bd 61de 6fbd c8c0 e1bc
00000020: 6ca4 30bd d78b f3bc 9e85 243d 1e75 463c
00000030: 27cf e9ba 652c a1bd e2ce 6a3d 32ee 4d3d
00000040: fb3c c93c 2bc7 32bd 0b05 3c3b 652b 2a3c
00000050: f41b aeba 23a1 933d 9c18 1b3d b5d4 96bc
00000060: 3b0f 5dbd 6cba 3fbd 73c6 a6bc e673 5e3d
00000070: 99c2 98bb d742 3a3d c50e 15bd ed95 23bd
00000080: e801 40bd bdbc 6dbd 947c 20bc 0e21 aebb
00000090: 8e16 c03c 61ee a0bb d498 35bc ee91 7e3b
000000a0: a0e8 d4bc 0f71 39bd 90c7 0b3b e89c 69bd
000000b0: 8fef c1bc d406 75bd 03fa bd3b 45b1 3fbd
000000c0: 3737 eabd 5dfc c3bd bac2 06be 9fe0 a1bc
000000d0: 91f2 35bd fef4 27bd f853 a4bc 1919 87bd
000000e0: e28a 3bbd d2c2 a6ba c3a2 de3c 35c4 073d
000000f0: 1ce9 9d3b 7b29 553c b7d3 4f3c 483a 203d
00000100: d2de 0ebd 0af9 2ebd 6fa0 e43b 66c6 5e3c
00000110: 7282 fe3c f068 55bc a3d8 383d f214 04be
00000120: adab afbd 39aa 9cbd 1c01 04bd c6be 3bbc
00000130: 38e7 bb3c 0838 acbc b367 09bd 384f 9fbd
00000140: 1b23 d2bd 9dd2 44bd 0698 a7bd 37a3 3f3d
00000150: 62ea a8bc ad5f 8fba ae38 18bd e2c2 9abc
00000160: b1cd 7a3b 1da5 943c fa5b 883d d6c8 2f3c
00000170: ada5 443b e643 11bd cf0d 743c 2b02 9e3d
00000180: aad8 3d3d 193a bf3c 0486 a6bd af26 55bd
00000190: 2985 8abc b438 74bb 10a2 433d 4c69 5f3d
000001a0: f90f c8bd 576c adbd ec13 3dbc 8f6c a63c
000001b0: 5f8f c2bb 858d cb3d 28b2 5c3d 39e2 9dbd
000001c0: 182d 3ebd 371f d2bd 50e0 89bd 162e 90bd
000001d0: 60a6 3abd b0a9 f4bb 8566 4abd d84e 0f3c
000001e0: bf32 f6bd d3de d1bd c2c3 8bbd 75ed 52bd
000001f0: 46c6 7dbb c543 76bd 6d8e 8b3c 3f10 0d3d
00000200: 2af9 6f3c bb6d 67bd b708 a3bc 8fc1 c3bd
00000210: 3588 54bc d752 caba 14ce f83c 3dba 03bd
00000220: 7848 8cbc a0c6 1fbd 0d85 8cbd 263f af3d
00000230: a2c8 dabc 800f 3fbb 77fe aabd 9965 24bd
00000240: 1d94 e3bb 561c 093d 2804 8a3d 6a8d a2bd
00000250: dbdb 9ebd f067 c5bc 6c28 13bc 72fa 3fbc
00000260: 087b c5bd 0924 84bd 0f7f 74bc ade2 e9bb
00000270: 55d4 9d3b 8d08 e43c 02dc e53b 07a0 6ebc
00000280: d253 043b 6c3a a33c d8ee 4fbc d618 f8bc
00000290: bc06 4bbd b4b8 003c 956a a7bb a21d 8abc
000002a0: 4cdc 69bd 0f40 0dbd 23a1 6b3c cd5f 19b9
000002b0: 95c6 873d 6232 303c 6529 92bd 324f 0dbe
000002c0: 1695 a23c d6c2 263d 87c1 9b3c 564d 53bb
000002d0: ca77 7fbd e6e2 18bd dc6a 29bc 6263 323d
000002e0: 7cb0 153d 7500 033b 523b 07bd 2894 79bd
000002f0: 038d 103d 462a 40bd dc7a 1fbd 535e ddbb
00000300: 5a5d 41bd 127a 86bd 74db 14bd 53de 313c
00000310: 9d61 83bd a391 92bd 0ff6 a5bd 4e6b 96bd
00000320: c96b d93c fe72 40bd 5131 9abd 039f babc
00000330: db66 f1bb 93c7 e63b 9912 16bd 176e c4bc
00000340: 49a6 28bd e533 17bd b908 a1bc c148 3a3c
00000350: 50a3 293d 0308 c3bc baad 1b3d bd1b 58bc
00000360: cfc3 9fbb 36b7 a0bd 8b1d bdbc efba 283d
00000370: 154b 10bd deb9 533d dc9b 5bbc a7ca edbc
00000380: 06ea cfbd 7e41 823d 5b94 973d 4788 abbb
00000390: 45f6 4e3b cdba 3d3d 1478 933c 368e 4ebd
000003a0: 4418 b83d 0830 3b3d c2f3 6fbd 2412 d63c
000003b0: 3255 883d 7d90 9c3d e02a a6ba fda2 e43c
000003c0: ab16 55bc 43f5 89bd b447 77bd d1d5 233c
000003d0: a704 d83d 4da9 30bd 184e 893d 319c 23bc
000003e0: e919 11bd b811 f53c 51e4 823c c4fd 8bbd
000003f0: 3eff 06bd 1dee b4bc cbcf 01bd cd6d 38bd
-0.010742338 -0.081373766 -0.058564316 0.013343632 -0.06437975 -0.047613572 -0.058561686 -0.027557746
-0.043125555 -0.029729767 0.04016649 0.012112884 -0.0017838225 -0.07869796 0.057326205 0.05027599
0.02456521 -0.043646973 0.002868953 0.010386323 -0.0013283477 0.07208469 0.037865266 -0.018411973
-0.053969603 -0.046808645 -0.0203583 0.054309748 -0.0046618697 0.0454739 -0.03639104 -0.039937902
-0.046876818 -0.058041323 -0.009795327 -0.005313999 0.023448255 -0.0049112295 -0.0110838 0.0038844305
-0.02598983 -0.045273837 0.0021328665 -0.057034403 -0.0236738 -0.059820965 0.005797626 -0.046799917
-0.11436313 -0.09569619 -0.1316022 -0.019760428 -0.044420782 -0.041005127 -0.02005957 -0.06596584
-0.045786746 -0.0012722856 0.02717722 0.033146102 0.0048190486 0.013010378 0.012684754 0.03911808
-0.034880467 -0.04271797 0.006977133 0.013597107 0.03106806 -0.013025507 0.045128476 -0.12898615
-0.085776664 -0.07649655 -0.03222762 -0.011459058 0.022937402 -0.021022812 -0.03354616 -0.07778782
-0.10260602 -0.04805242 -0.08183293 0.046786513 -0.020619575 -0.0010938548 -0.03716343 -0.018891755
0.0038269574 0.018145138 0.06658168 0.010729035 0.0030005977 -0.035465144 0.01489587 0.07715257
0.046349205 0.023343133 -0.0813103 -0.052038845 -0.016909199 -0.0037265243 0.047761977 0.05454378
-0.097686715 -0.0846793 -0.011540394 0.020315437 -0.0059375013 0.09939102 0.05388084 -0.07709164
-0.046429724 -0.1025986 -0.06732237 -0.0704004 -0.045568824 -0.0074665174 -0.049414176 0.008746825
-0.12021398 -0.102475785 -0.06824447 -0.051495988 -0.0038722917 -0.060123224 0.017035687 0.03443932
0.014646808 -0.05650113 -0.019901616 -0.09558403 -0.012971927 -0.0015436065 0.030371703 -0.032160033
-0.0171244 -0.039007783 -0.06861315 0.085569665 -0.026706997 -0.0029153526 -0.083493166 -0.040135954
-0.0069451467 0.03347429 0.06739074 -0.07937129 -0.07756778 -0.024097413 -0.008981805 -0.011717426
-0.09642607 -0.06452186 -0.014922871 -0.0071376176 0.0048165717 0.027836109 0.0070147524 -0.014564521
0.0020191562 0.019925319 -0.012691222 -0.03028528 -0.04956697 0.007856537 -0.005109141 -0.016859833
-0.057094857 -0.03448492 0.01438168 -0.00014626906 0.066296734 0.0107542 -0.07136802 -0.13799742
0.01984648 0.040713154 0.01901318 -0.003224214 -0.0623701 -0.037325762 -0.010340419 0.04355181
0.03654526 0.0019989286 -0.033015557 -0.06093231 0.03529073 -0.046915315 -0.038935527 -0.006755629
-0.047208168 -0.06566252 -0.0363421 0.010856229 -0.06415103 -0.07156684 -0.081035726 -0.073446855
0.026540654 -0.046984665 -0.075289376 -0.0227809 -0.0073669977 0.007042834 -0.03663883 -0.023978276
-0.041174207 -0.036914725 -0.01965748 0.011369885 0.041415513 -0.023807531 0.038007475 -0.013190207
-0.004875637 -0.07847445 -0.023085376 0.0411939 -0.035227854 0.05169093 -0.013403859 -0.029027296
-0.10152058 0.06360148 0.074013434 -0.0052347514 0.0031579894 0.046320725 0.018001594 -0.05042859
0.08989003 0.045700103 -0.058582075 0.026131697 0.06656875 0.076447465 -0.0012677573 0.02790975
-0.013005893 -0.06736233 -0.060371116 0.009999708 0.10547762 -0.043130208 0.06704348 -0.009985969
-0.0354251 0.029915676 0.01597801 -0.06835511 -0.03295826 -0.022086198 -0.031692307 -0.04502659

module.net_sm.bn1.weight f4 [32]
00000000: f700 233f 7f07 5a3f 9380 5b3f 8615 503f
00000010: 4b76 483f be0d 2b3f 730b 463f d0d5 5f3f
00000020: c525 3e3f 5c5e 603f 9e04 6f3f 888b 503f
00000030: 57e6 473f d22e 363f 8ddf 513f 7cec 683f
00000040: 66b5 583f dc6f 573f 7416 2a3f 3793 343f
00000050: 02fd 293f c17d 293f b668 533f 46ce 6b3f
00000060: 6014 333f 5e13 2d3f 45ed 483f be19 4a3f
00000070: 2e33 373f 5e01 343f b4cb 283f 4142 5c3f
0.6367335 0.8516769 0.85743064 0.8128284 0.783055 0.66817844 0.7736122 0.87435627
0.7427638 0.8764398 0.9336642 0.8146291 0.78085846 0.7116519 0.81981736 0.90985847
0.8465179 0.8415506 0.6644051 0.7053713 0.66401684 0.6620751 0.8258165 0.92111623
0.69952965 0.67607677 0.78487045 0.7894553 0.7156247 0.70314586 0.65935826 0.86038595

module.net_sm.bn1.bias f4 [32]
00000000: 99ad 893b 2553 3abc a3ac 96bd 745a 6f3b
00000010: ec87 8f3c 7ea7 e639 3414 a93c 1616 753c
00000020: 6ce0 8bbd 21d1 bebd 04f7 493c cb25 143c
00000030: ea10 a0ba 0717 e73c 547e 21bd deeb dd3c
00000040: 251e 9ebd 41e6 ddba f078 373d 46e0 603d
00000050: fa2c 02bb a29c 043d 86ad 163c 0066 03be
00000060: 8e13 e7bd 5a76 a83b 4e66 223c 9b25 cb3b
00000070: 2bf3 ee3c 6197 80bc 420f 21bd cc87 cc3a
0.0042016027 -0.011372362 -0.073571466 0.003652242 0.017520867 0.0004399381 0.020639516 0.014958879
-0.068299145 -0.09317232 0.0123269595 0.009042214 -0.0012212072 0.028209222 -0.039427117 0.02709001
-0.07720593 -0.0016929583 0.04479307 0.054901384 -0.0019863234 0.03237594 0.009196645 -0.12831879
-0.11283027 0.0051410617 0.009912087 0.0061995513 0.029168686 -0.015697183 -0.03932119 0.0015604435

module.net_sm.bn1.running_mean f4 [32]
00000000: 3282 87b7 982c d9b7 1180 7b37 9263 2a36
00000010: 2685 6eb6 2073 7f35 d776 2e35 9254 a9b7
00000020: a070 5736 c274 cdb7 3bd5 8535 86a7 28b7
00000030: e7b3 7bb7 72e4 cab7 2b2f 7637 144f 0db8
00000040: f6b2 75b7 94a2 2eb4 d027 d6b6 2f3d e0b7
00000050: 1f41 7fb6 e829 92b7 7e1c efb6 b822 b437
00000060: 6aae 8fb7 09d6 73b7 303f 3136 9877 d636
00000070: ecb4 a4b7 7690 e9b5 c753 3db7 99ff 3b37
-1.6153881e-05 -2.5889181e-05 1.4990584e-05 2.5389932e-06 -3.5542266e-06 9.516243e-07 6.4992986e-07 -2.0185751e-05
3.2103053e-06 -2.4492274e-05 9.97133e-07 -1.0052585e-05 -1.5002653e-05 -2.4186655e-05 1.4673725e-05 -3.3690667e-05
-1.4644806e-05 -1.6264158e-07 -6.382332e-06 -2.6731372e-05 -3.8035867e-06 -1.742407e-05 -7.126072e-06 2.147384e-05
-1.7128146e-05 -1.4533763e-05 2.6411835e-06 6.3916195e-06 -1.9634572e-05 -1.7401896e-06 -1.1284784e-05 1.12055795e-05

module.net_sm.bn1.running_var f4 [32]
00000000: f18b 623c 437c 0b3d 1202 973c 982a 883c
00000010: a830 6c3c 3d76 883c 5acd a03c d642 893c
00000020: e64e 653c 4859 de3c 8489 e83c b12a 6a3c
00000030: 6fb9 933c c5f4 5a3c 3fa3 863c f1ec cd3c
00000040: d256 813c 1b2c 823c 0cba 673c ca0d cf3c
00000050: 8f51 763c 846d 9b3c c89a 953c 2a07 043d
00000060: 00e4 783c e1f6 8c3c 58f4 ac3c 142b a83c
00000070: 5f10 a83c be08 5e3c 62e3 533c 6956 c73c
0.01382731 0.034054052 0.018433604 0.016621873 0.014415897 0.016657943 0.01962917 0.016755503
0.013995862 0.027142182 0.028385885 0.014292405 0.018032758 0.013364022 0.016435264 0.025137397
0.01578847 0.015890172 0.014143478 0.02527513 0.0150340935 0.01897312 0.018262282 0.032233395
0.015191078 0.017207565 0.021112606 0.020528354 0.020515619 0.013551889 0.01293263 0.024333196

module.net_sm.layer1.0.conv1.weight f4 [32, 32, 3, 3, 3]
00000000: 06a4 163d 3fe3 71bc 53eb dd3a 3ba3 88bc
00000010: 0ab3 b8bc 4dcd 8a3c c448 5e3d 789b 1c3d
00000020: c46a f03b 24c2 b73c 88a5 22bb abaf a8bc
00000030: 175e 24ba 2bca 50bc a565 253d a760 cdbb
00000040: 8ac2 363d 7a6f 38bd 459a 943d 9ec1 ae3c
00000050: b2f7 f9bb 04af 9e3c f65b 503d 60be a03b
00000060: 9440 08bd 7f70 8d3d e50c 793d 2f02 e53c
00000070: 717e 8c3d dbb0 d93c dcfc 293d d840 363d
00000080: 3399 4e3c 6c65 903c b5d8 b03c 42b6 2ebc
00000090: 1895 a33c 754e ab3c c567 15bc 65ab 313a
000000a0: 1894 4f3d 56c0 1d3d 3571 293d ade3 6b3c
000000b0: c68b 893d b17c 6a3d a953 b33d 9b7a 523c
000000c0: 383a 133d b61d 5d3d ca9c 5f3c e5c2 413c
000000d0: 7358 dfbc f2da a83c ad64 77bc 1f33 8ebc
000000e0: 4567 ba3c 62a2 27bd 9677 4ebd 8239 96bd
000000f0: 594e f2bc 29f6 d5bc 5ede abbd 17fe d63c
00000100: 0513 613c 7cd9 d1bd 6af5 46bd 0c8d b0bc
00000110: 819a 6abd bd55 353d a3f5 6d3d bd04 31bd
00000120: 4345 91bd 2a4a fc3c 35db 8abc 37a5 933b
00000130: bfc8 77bc 031e 853c 1211 9ebd 046c c2bc
00000140: e72b 853d cebd 77bd fb6d 3fbc 22a9 d0bb
00000150: 6f18 2dbd d8a0 383d 20c3 f8bb 431a a5bd
00000160: 3c0a ba3c c937 ffbd 74a5 40bd bf2d 90bd
00000170: c482 bc3b 3c78 92bc b392 a4bc 228e c83c
00000180: 5957 50bd ba38 21bd 74fd 03bc 8df0 4e3c
00000190: 923d 4f3b 3f7f cd3b e449 113b 193c 0ebd
000001a0: 9e26 cebb b8fb d13c 8557 6bbd cd30 abbc
000001b0: 4668 3ebd b1e7 313c 4784 2b3d af5e 80bc
000001c0: c19e 7f3c ab54 37bd 78a3 d53c 478b 16bc
000001d0: 0e2c 943c f0a8 973c f25d 893d 7164 2bbd
000001e0: 8f47 0e3d 46c8 83bd aed8 533d 7015 25bd
000001f0: 727a 36bc 0027 883c 5e38 04bd 575b 6bbd
00000200: a1d1 eb3b a614 40bd 5741 36bd d446 02bd
00000210: d23c c5bb f70d 83bd d0e8 36bd 7efd 8b3d
00000220: f9af 14bc 5030 87bd fc87 c1ba 9472 64bd
00000230: f251 85bd 038a ccbc faa6 233c 3fcc 2dbc
00000240: 4dad 8d3c 9c8b acbd e0e1 403d f634 54bd
00000250: 12df 82bd a16f 753c c5d5 b6bb fe3a 7b3c
00000260: 02eb e5ba 120d 5f3c 6c30 2abd b9cf 36bd
00000270: decc 493d 7fbd 00bd 285e 763c 2781 a83c
00000280: 9c94 513c 8e7b d73b 125e dabc 7d8e 653c
00000290: 546e 74bb faf9 d9bc 0662 85bc d0d6 85bc
000002a0: a1fa b9bb a9a6 dfbb 1edf 33bc 5d0a b93a
000002b0: 11e3 99bc 6b21 49bd fdce 19bb 8112 20bd
000002c0: 3ef8 2fbc 53b7 4bbc 7275 8bbc 3960 29bd
000002d0: 4669 a73d 979a 893c 369a 06bd 8096 dfbb
000002e0: 469b e53a 2767 2ebd d12d 21bd ab24 0cbc
000002f0: dc92 55bd 1e50 373d 4308 383c 6b8c c5bc
00000300: b744 d33c 490e 0abc 24f0 743c a007 e93c
00000310: fb43 843d fa66 123d 92fd 8e3d 940b 9bbc
00000320: a613 0f3d 3268 eabb 49aa 67bc 1d69 c93d
00000330: 9648 d5bb d679 013c 381c 7339 2b7a 933c
00000340: e9c2 323d d7d5 f4bc 3158 7c3d 02ad 153d
00000350: b9a6 673d 4ff9 633d ed64 f03b 34b1 823d
00000360: 2593 f33c e209 2ebc 1736 32bd 8e3d 303d
00000370: ad06 e5bc 5821 273d f40b 7a3d c827 e93a
00000380: 2eb8 91bc 1d7d af3c 4ebc 3cbc a67f d43c
00000390: 680a e7bc c37e d1bc 3ecb a13c 94e1 b23c
000003a0: 26db 183d 499d 883c 371e 683c 8a2e 6abc
000003b0: d569 e93c 397e ddbc db62 37bd 2116 913d
000003c0: bd6c 39bc 36c4 ebbb dc51 e73b ad96 c0bc
000003d0: 7b48 39bc 3cf7 e13c 7032 3d3d 2010 c03c
000003e0: 0648 2a3c 2371 2abc 1691 a1bc 51f0 51b9
000003f0: 1df2 f83c b391 afbc 01c4 423d 7cef 8abc
0.03677752 -0.014763652 0.0016931094 -0.016679397 -0.02254631 0.016943598 0.054268613 0.038234204
0.007336946 0.02243144 -0.0024817903 -0.020591578 -0.0006270124 -0.012743513 0.04038014 -0.0062676254
0.04461912 -0.045028187 0.07255987 0.021332558 -0.0076284045 0.019370563 0.05086895 0.004905507
-0.03326471 0.069062226 0.060803313 0.027955143 0.06860054 0.02657359 0.04150091 0.044495434
0.012609768 0.017626487 0.021587709 -0.010663571 0.019968554 0.020911435 -0.009118979 0.0006777554
0.050678343 0.038513504 0.04136773 0.014397544 0.06716113 0.05724782 0.08756191 0.012846614
0.035944194 0.053983413 0.013648221 0.011826252 -0.027263856 0.020612214 -0.015099687 -0.01735836
0.02275432 -0.040926345 -0.050407015 -0.073351875 -0.029578375 -0.026118355 -0.083920226 0.026244206
0.013737445 -0.1024656 -0.04857389 -0.021551631 -0.057276253 0.04427122 0.058095586 -0.04321741
-0.07093289 0.030797083 -0.01695023 0.004505779 -0.015123545 0.016249662 -0.077181 -0.023733146
0.06502514 -0.060483746 -0.011683936 -0.0063678185 -0.04225963 0.045075268 -0.00759162 -0.0806165
0.022709958 -0.12461812 -0.04703279 -0.070399754 0.005752893 -0.017879598 -0.020089483 0.024481837
-0.05086455 -0.03936074 -0.008056033 0.012630594 0.0031622392 0.0062712724 0.0022169286 -0.034725282
-0.0062912246 0.025632724 -0.057456512 -0.020897293 -0.04648616 0.010858462 0.041874196 -0.015670149
0.015601815 -0.04475848 0.026078925 -0.00918848 0.018087413 0.018513173 0.06707372 -0.041843835
0.034736212 -0.064346835 0.051720314 -0.040303648 -0.011137592 0.01662016 -0.03228032 -0.057460155
0.0071966206 -0.046894692 -0.044495907 -0.03180583 -0.0060192132 -0.06399148 -0.04465562 0.06835459
-0.009075158 -0.06601012 -0.0014765258 -0.055773333 -0.065097705 -0.024968153 0.009988541 -0.010607778
0.01729455 -0.08425066 0.04709041 -0.05180832 -0.063902035 0.014980228 -0.0055796825 0.015333889
-0.0017541351 0.013613956 -0.041550085 -0.044631694 0.049267642 -0.031430718 0.015037097 0.020569397
0.012791779 0.006576008 -0.026656184 0.014011023 -0.0037297206 -0.026608456 -0.016282093 -0.016337782
-0.0056756292 -0.0068252874 -0.010978488 0.0014117468 -0.018785032 -0.049104135 -0.0023469322 -0.039080147
-0.010740338 -0.012433845 -0.017023776 -0.04135153 0.08174376 0.016797347 -0.03286191 -0.006823361
0.0017517589 -0.042578842 -0.039350335 -0.008553664 -0.05214201 0.04475414 0.0112324385 -0.024114808
0.025789602 -0.008426257 0.014949832 0.028446019 0.06458279 0.035742737 0.069819584 -0.01892642
0.034930848 -0.0071535343 -0.01413972 0.09834502 -0.006508897 0.007902583 0.00023184798 0.01800259
0.043642912 -0.029887123 0.061607543 0.036541946 0.056555483 0.05565768 0.00733625 0.06381455
0.02973325 -0.010622473 -0.043508615 0.043027453 -0.027957285 0.040803283 0.061046556 0.0017788345
-0.017788019 0.021421963 -0.011519505 0.025939774 -0.028203204 -0.02557314 0.019750234 0.02183608
0.03731837 0.016676562 0.01416736 -0.014293322 0.028492847 -0.027037727 -0.04477201 0.07084299
-0.011317429 -0.007195021 0.007059319 -0.023509348 -0.011308785 0.02758371 0.04619068 0.023445189
0.010393148 -0.01040295 -0.019722503 -0.00020021318 0.030388886 -0.02143178 0.047550205 -0.016959898

module.net_sm.layer1.0.bn1.weight f4 [32]
00000000: 5894 3e3f b08b 2e3f 7aff 373f a95d 273f
00000010: 79db 293f eb7a 343f 6516 453f 66fa 333f
00000020: baaf 373f 6ed0 323f c56e 373f 0bab 303f
00000030: 5aa1 3c3f 8c6c 2e3f 6e83 1f3f bc26 343f
00000040: 2792 233f 7cf8 423f 0080 3a3f d06d 373f
00000050: 2405 2f3f e0c7 293f 09b8 2b3f 7cca 223f
00000060: 4824 223f 39d2 1e3f b0d8 2d3f c1d4 2f3f
00000070: 5f5b 273f 4623 283f b648 393f cb18 2c3f
0.74445105 0.68181896 0.718742 0.6537729 0.66350514 0.7050006 0.76987296 0.7030395
0.7175251 0.6984929 0.71653396 0.6901099 0.736837 0.6813438 0.6230992 0.70371604
0.63894886 0.7616041 0.7285156 0.71651936 0.6836722 0.6632061 0.6707769 0.63590217
0.6333661 0.62039524 0.67908764 0.6868401 0.65373796 0.65678823 0.72376573 0.6722533

module.net_sm.layer1.0.bn1.bias f4 [32]
00000000: dbef 9a3e f060 cdbc 8a5d 7cbb ca03 4cbd
00000010: 1a63 cd3c 776f b53d 2c95 f4bc 7fe9 9f3d
00000020: 884f 39bd cea4 3abc c6cd c03d 73e7 233d
00000030: 9e2f f2bd ad2d ea3d ce95 0fbd c1e6 a23d
00000040: b632 91bb afcb 0a3d bf83 603e fc18 653c
00000050: 48be 8a3d 0faa a8bc ca19 873d 8b0d e93d
00000060: a20b e83c 7267 783d 6017 283d 72ae ff3c
00000070: b215 db3c 7570 353a add7 fa3c 2eac fa3d
0.3026112 -0.025070637 -0.0038507902 -0.0498083 0.02507167 0.08859151 -0.029856287 0.07808208
-0.045241863 -0.011391832 0.09414248 0.04001565 -0.118254885 0.11434493 -0.035054974 0.07954169
-0.004431094 0.033885654 0.21925257 0.0139830075 0.067745745 -0.020588903 0.06596716 0.11379536
0.02832586 0.06064553 0.041037917 0.031211112 0.026743744 0.00069213595 0.03062042 0.12239872

module.net_sm.layer1.0.bn1.running_mean f4 [32]
00000000: 3cb3 3b40 2436 b0bf f346 2dc0 8a88 8ebf
00000010: 2e35 453e d364 bf3f 82af 29c0 bfba 1940
00000020: e48c dfbf 23d3 20c0 0a00 1b40 2f82 cc3e
00000030: 2608 45c0 2744 653f 8708 c63e 7e49 2c40
00000040: 9ed1 dc3a e010 90c0 f0ed 2040 c487 0b40
00000050: 8d70 313f 5f76 cdbf f6ec 0140 18fb 1e3f
00000060: 04e7 cebf dcde e5be 13eb e53f 22ac 5240
00000070: dad9 5fbf 554e d9bf 4898 9abf b63a a33e
2.9328146 -1.3766522 -2.7074554 -1.1135418 0.19258568 1.4952644 -2.6513371 2.402023
-1.7464871 -2.5128868 2.4218774 0.39943072 -3.0786223 0.8955712 0.3867838 2.6919856
0.0016847139 -4.50206 2.5145226 2.1801615 0.69312364 -1.6051749 2.030088 0.6210189
-1.616425 -0.4489659 1.7962364 3.2917562 -0.8744179 -1.697703 -1.2077723 0.3188073

module.net_sm.layer1.0.bn1.running_var f4 [32]
00000000: 829f 3841 f71e 8440 e9b3 2d41 2f3d 4f40
00000010: 950c c53f f30b 9440 16bc 2b41 2d7a 2141
00000020: ebf5 d540 a3e8 0d41 e739 ff40 27e5 ae3f
00000030: ed45 6241 e2d3 2441 40d5 7540 f79b 1441
00000040: 2907 3a40 98bb d741 b04e 0641 29a6 1241
00000050: 940e 1440 cc7a 9f40 c297 bf40 985b 8240
00000060: 4bda a640 b804 3c40 8ab9 8e40 cd9a 6a41
00000070: d209 0240 d665 ac40 c8a4 9d40 6ede 0441
11.538942 4.12878 10.856423 3.2381094 1.5394465 4.6264586 10.733419 10.092328
6.6862693 8.869296 7.975818 1.3663682 14.142072 10.301729 3.8411407 9.288077
2.906687 26.966599 8.394211 9.165566 2.3133898 4.98374 5.987275 4.073681
5.214147 2.937788 4.460149 14.662793 2.0318494 5.387431 4.926365 8.304304

module.net_sm.layer1.0.conv2.weight f4 [32, 32, 3, 3, 3]
00000000: ebc3 153c 2a24 1f3d 1266 3fbd ac44 4bbd
00000010: 2557 1ebd c099 01bd 7252 0d3d 65d9 963c
00000020: 6250 06bb 18dd 13bd 0692 b0bc 27dc 07bb
00000030: bb73 6fbd 45d4 05bd ee75 9e3c 1d74 30bc
00000040: 70b3 353a d6b6 2a3d ff30 e03c 9515 1a3c
00000050: d2e4 123c 4455 43bd cd37 723c cbaa 3abc
00000060: 47c6 f4bc 9a87 afbd 5570 0b3d d753 673d
00000070: dd01 85bc ebb2 423d b2f1 6a3d 2cb6 883c
00000080: 8e35 62bc 29e1 b83c 65c9 b53d c29d 34bd
00000090: 29e2 4a3c 497f 2e3d 17a1 4e3d 89f3 95bb
000000a0: 8c7d c73d 6725 933c 5884 91bd cb43 903b
000000b0: 8d88 a6bc cb18 babb 041c 083d 6f13 47bd
000000c0: 3f77 923c c133 f23c 035b 9bbd 24d5 8bbb
000000d0: bf77 e5bc 3c56 aabd cce4 1ebd 8cba b0bc
000000e0: 7225 4ebb 8be5 f7bc b469 3c3d 4e75 52bd
000000f0: c851 113b 4368 8cbc 36eb 02bc 4b2f e03b
00000100: 6b34 14bd 9e4c bcbc 199a 0e3b 43ec 5c3b
00000110: c4da 9bbc 3a1b ff3a fd26 23bb 1918 c93c
00000120: 82b8 df3c e571 533d 53f9 2cbd 3e8d 713c
00000130: 2685 9ebc fcbd 3b3d ad67 91bc 38dc 6dbc
00000140: 7a1b 91bc dd83 d43b dfaa 853c 5f9c 79bc
00000150: 6047 9e3c f718 db3b 634f 523c 1c1e dfba
00000160: 851b 0d3c e5f7 32bd 139c 3c3d 5fb3 a8bb
00000170: c04b aab9 d2d8 41bd 4614 8d3c 707e 203d
00000180: 9a23 d6bc ebc4 3bba 5e46 a4bc 91c0 c2bb
00000190: f679 0d3d 0b5e 6a3d 28f8 bbba 45b0 193d
000001a0: c4e5 16bd c0ef b3bc 0891 36bc cb1b 40bb
000001b0: db9b 9c3c b2db 463d 7a31 68bc 364d 0c3d
000001c0: 2507 81bd 3d24 8bbc a37f bcbb 9458 ccbd
000001d0: 4327 3bbc fc0c de3d f0a4 7dbc 663c 67bd
000001e0: f9e7 42bd 1563 163d b9fc de3c 2347 3f3c
000001f0: cc23 8d3c e55f 363d 653c adbd cc90 073d
00000200: bbe9 943a cbad 88bd ed92 68bc 289a 8d3c
00000210: 5e47 bdbd efd9 74ba 2020 e03b 4bef e63b
00000220: 91ae ac3d 77db b63c 3fd1 5d3d caae ca3c
00000230: 9670 583d 0164 203c e4fe a0bd c263 44bd
00000240: 8eba 3b3d b231 45bd caec 4f3d 3662 c93c
00000250: 2b6a 04bd c22c be3c 23f2 69bd 5b0c 93bd
00000260: dd1c 98bc b9e1 be3d 0b90 393d 858b cabb
00000270: 39aa 533d 3001 80bb b2ca 043d 5007 6bbc
00000280: d26f 2b3b 50d5 bcbb 3cd2 f13c 8927 173d
00000290: 557a 723c 8190 223d 6868 ccbc 28f1 bd3c
000002a0: c2d2 853b ecb1 b93b ed07 ea3c bf1a 7f3d
000002b0: 23a2 82bd 66bf 383d 0825 d83c cc2c f1bb
000002c0: 915f 8e3c a204 d5bc ca32 02bc acf0 293d
000002d0: 8a72 423c aae2 e7bb 13b6 893d 8316 073d
000002e0: 00f2 9fbc d040 d73b 338f fabc 5573 49bd
000002f0: 0750 55bd 97b0 ccbc 6c4b 95bd cd75 06bb
00000300: 0bd0 00bc 5ea1 61bc 9186 64bd 8d4a 513c
00000310: 4b67 0dbd 5085 9a3d 0ffa 183c ed40 22bd
00000320: 47d0 fc3c 8982 3a3d af92 d1bc a72b ad3c
00000330: bf30 3ebd 0b57 27bd 05d2 37bd 3b6b 293d
00000340: 7e30 2dbd bac7 f03c bf30 e0bc d78d 63bd
00000350: b364 963c 79ca 8ebd e0f1 6fbd 43b0 5abd
00000360: 580e 9ebd 1026 a13c 6816 333d c5b2 dbbc
00000370: 5067 05bd 2497 70bc 469d 34bd 2e03 443c
00000380: e356 423c 1021 adbc a8b0 d9bc 8507 b7b9
00000390: 5085 0dbc f23b 05bd 8d33 4c3d 781f 4a3c
000003a0: a010 393c 264c 9bba 7221 6ebd fce2 393c
000003b0: 4c8f 02bd 7a04 95bb 2e86 a4bd 0423 513c
000003c0: 1961 55bd af25 82bc 648e 6b3c d800 383d
000003d0: 41bc c6bc bf57 253d f1f1 0e3d 7126 863d
000003e0: f590 313a 2503 06bd c5f2 e7bc 8cba 223d
000003f0: b143 2f3d b51d 84bb 908b c8bc 2cd6 95bc
0.009140949 0.038852848 -0.0467282 -0.049626037 -0.038657326 -0.031640768 0.034502454 0.018414209
-0.002049469 -0.036099523 -0.021554004 -0.0020730586 -0.05845998 -0.03267314 0.019343343 -0.010769871
0.00069313403 0.041678272 0.027367113 0.00940456 0.008965688 -0.047688738 0.014783812 -0.011393259
-0.029879702 -0.08570786 0.034042675 0.05647644 -0.01623624 0.04753391 0.057359405 0.016688429
-0.013806714 0.022568302 0.088763036 -0.044095762 0.012383022 0.042601857 0.050446596 -0.004576151
0.09740743 0.01796217 -0.07105321 0.004402613 -0.020328784 -0.005679225 0.033229843 -0.048602518
0.017879127 0.029565694 -0.075857185 -0.0042673517 -0.028011201 -0.08317229 -0.038792416 -0.021573327
-0.0031455425 -0.030260822 0.045999244 -0.0513814 0.002217399 -0.01713956 -0.007990649 0.0068415753
-0.036182802 -0.022985753 0.002175933 0.003371016 -0.019025214 0.001946307 -0.0024895065 0.024547623
0.02730966 0.05162229 -0.04222996 0.014743147 -0.0193506 0.04583548 -0.017749632 -0.014517836
-0.017713297 0.006485446 0.01631683 -0.015235036 0.019321144 0.0066863257 0.01283631 -0.0017022523
0.008612518 -0.043693442 0.04604728 -0.005148336 -0.00032481365 -0.047325917 0.017221581 0.03918308
-0.026140023 -0.0007162827 -0.020053085 -0.005943366 0.03454014 0.057218593 -0.0014340924 0.03752162
-0.036840215 -0.021964908 -0.011142977 -0.002931344 0.019117286 0.04854936 -0.014171952 0.03425332
-0.06300191 -0.016985053 -0.00575252 -0.099778324 -0.011422935 0.1084232 -0.015481219 -0.056454085
-0.047584508 0.036715586 0.027220117 0.011674675 0.017228983 0.044525046 -0.08458785 0.033097073
0.0011361161 -0.066737734 -0.014195186 0.017285421 -0.09242128 -0.0009340336 0.006839767 0.007047569
0.084317334 0.022321446 0.05415463 0.024741549 0.052841745 0.009789468 -0.078611165 -0.0479467
0.04583221 -0.048143096 0.05076293 0.024582963 -0.032327812 0.023214702 -0.057115685 -0.07180091
-0.01856845 0.09320397 0.045303386 -0.006181183 0.05167601 -0.0039063916 0.032419868 -0.014345005
0.002615918 -0.0057627335 0.029519193 0.036902938 0.014799674 0.03968859 -0.024952129 0.023186281
0.004083962 0.005666962 0.028568232 0.062281366 -0.063785814 0.045104407 0.026384845 -0.0073600765
0.017379554 -0.026003186 -0.007946679 0.04148929 0.011868129 -0.007076581 0.06724181 0.032980453
-0.019524574 0.0065690055 -0.03058586 -0.049182255 -0.052078273 -0.024986548 -0.07289776 -0.0020516992
-0.007862101 -0.013771383 -0.055792395 0.012774122 -0.034522336 0.075449586 0.009336962 -0.0396127
0.030861033 0.045534644 -0.02558264 0.02113898 -0.046433207 -0.040854495 -0.044878025 0.04136203
-0.042282574 0.029392112 -0.027366994 -0.05555519 0.018358564 -0.06972212 -0.05858028 -0.053390753
-0.077175796 0.01967147 0.04372254 -0.026818642 -0.03256923 -0.014684472 -0.0440953 0.011963649
0.011861536 -0.02113393 -0.026573494 -0.00034910082 -0.008637741 -0.03252787 0.04985385 0.012336604
0.011295468 -0.0011848256 -0.058137365 0.011345621 -0.03187494 -0.004547653 -0.08033405 0.012764696
-0.052094553 -0.01588711 0.01437721 0.04492268 -0.024259688 0.040366884 0.034898702 0.06550301
0.00067736144 -0.032717843 -0.028314004 0.039728686 0.042789165 -0.0040318617 -0.024480611 -0.018290602

module.net_sm.layer1.0.bn2.weight f4 [32]
00000000: 86d0 eb3e b241 3b3f 2c4e 473f 3498 3d3f
00000010: c6b2 343f cef1 c83e 7cd3 2a3f 5cf5 2f3f
00000020: 74d7 283f 2c39 393f 425b 373f 4149 2e3f
00000030: 6803 403f a262 e93e 295c 3c3f 6be3 393f
00000040: 735e 213f 62d5 363f 9ce6 d73e ce82 e93e
00000050: aa01 f03e ed25 dd3e 7d60 2b3f b5cd ed3e
00000060: 1fe7 f13e b552 bd3e 2ceb 433f bd3e e33e
00000070: 9f04 bf3e c7a6 ec3e 1335 403f 69dc 443f
0.46057528 0.7314712 0.77853656 0.7406037 0.70585287 0.39246982 0.6672895 0.68733764
0.65953755 0.7235286 0.71623623 0.68080527 0.750052 0.45583063 0.73578125 0.7261264
0.63034743 0.71419346 0.42168128 0.4560761 0.4687627 0.43192998 0.66944104 0.46446005
0.47246644 0.36977163 0.7653072 0.44383803 0.37308213 0.4622099 0.75080985 0.7689882

module.net_sm.layer1.0.bn2.bias f4 [32]
00000000: f35c 82bd 4f34 f2bd 351a 5dbc eff9 e3bc
00000010: c560 1ebd 34d0 dcbc 6148 c2bc 9ecf 02bd
00000020: ad2a 2cbd 5a54 85bd 260d eabc 2206 74bc
00000030: fe0f 94bd 3cf9 ccbc 9ddb 0dbd 5194 703b
00000040: 1912 2abd b2fa e8bc 649d ed3c 5a6b 713d
00000050: 8fd2 cfbc 47ab ea3c f57a ebbc 07d4 7dbe
00000060: 5f6c c6bd c5fc 55ba 9b9e 06bd 64e2 33bd
00000070: b6f2 943b ec65 2bbd afea 02bd 622a 4bbc
-0.06365385 -0.11826383 -0.013495018 -0.027829139 -0.038666505 -0.026954748 -0.023716154 -0.03193628
-0.042032886 -0.065102294 -0.028570723 -0.01489404 -0.07229613 -0.025021188 -0.034633268 0.0036709497
-0.041521166 -0.028439853 0.029005714 0.05894027 -0.025368957 0.028646125 -0.028745154 -0.24787913
-0.09688639 -0.0008162971 -0.0328661 -0.043917075 0.004545535 -0.041845247 -0.031962093 -0.012400242

module.net_sm.layer1.0.bn2.running_mean f4 [32]
00000000: 7db8 50be 1283 afbe f646 76bf 7411 8abf
00000010: 9c5e 01c0 05be ad3f ea60 49bf accc 98bf
00000020: 2c5c 19bf 1d1f 83be 5833 babf 6a86 80bf
00000030: f18b 51bc 613c cb3e ea37 96bf 10f7 ccbe
00000040: 3ce2 20bf 1e40 6fbf 2ff6 8e3f ec49 f4be
00000050: 4686 633f 4503 0e3f 698f 59bf 046b d13f
00000060: 0896 213f a325 803f 8ccb 60bf 00f1 d43e
00000070: 407f af3d 56a7 32bd 1223 91bf f25d 89bf
-0.20382877 -0.34279686 -0.9620203 -1.0786576 -2.0213995 1.3573614 -0.78663504 -1.1937461
-0.5990627 -0.25609675 -1.4546919 -1.004102 -0.012789712 0.39694503 -1.1735814 -0.40032244
-0.62845206 -0.9345721 1.1168879 -0.47712648 0.8887676 0.5547374 -0.8498445 1.6360784
0.63119555 1.0011486 -0.8781059 0.41590118 0.08569193 -0.043616615 -1.1338828 -1.0731795

module.net_sm.layer1.0.bn2.running_var f4 [32]
00000000: 2c32 443f 9b5c 3840 7ece 7e40 9cdd d540
00000010: 3a8c ad40 19ac 1340 6483 c740 bc0e a440
00000020: 9dce 5c40 199b 9340 2243 0241 15be cf40
00000030: 7cdb e03f 3108 0240 fda0 9f40 559c 6940
00000040: 6229 a140 29c3 8840 ac7b 3f40 1774 b43f
00000050: 7aec d63f ff84 e73f c3bd b240 4a94 a440
00000060: ad9a 7040 654a 7c40 c3be f440 e93d 5d40
00000070: b396 3340 56d1 5c3f 2cf6 9c40 9325 4940
0.76639056 2.8806522 3.9813533 6.683302 5.4233675 2.307379 6.234789 5.1267986
3.4501107 4.612683 8.14139 6.4919534 1.7566981 2.03175 4.988402 3.6501667
5.0363016 4.2738233 2.9919233 1.4097928 1.6790917 1.8087462 5.5856643 5.1431017
3.7594407 3.9420407 7.6482863 3.4569037 2.806073 0.8625692 4.9050503 3.1429183

module.net_sm.layer2.0.conv1.weight f4 [32, 32, 3, 3, 3]
00000000: 3b99 2dbb d7e9 36bd 122e ed3c 1cb6 82bb
00000010: cc9d 58bc b9c0 343d fd07 753a f41f 83bb
00000020: 3f76 f83c 764e cf3a 8359 0b3d 5901 0ebc
00000030: 2e1c b1bc ad3c 3c3b f1e7 edbc 0618 d5bb
00000040: 8d6d 27bc 6478 00bd 9553 153c 0493 e1bc
00000050: dd6b 883d f31b 073d 8ec4 623d aa86 673d
00000060: 3464 303d 0dc2 4c3c 4cea cdbc 0b45 d33a
00000070: 1a75 073d feaf 7eba 614c 0c3b b2d8 acbb
00000080: ab0d 69bc 9c7e c33c 3003 a4bc 7023 22bd
00000090: 964d 0fbc 7727 c2bb 3c3f cebc b9de eb3c
000000a0: cf91 dabc 4812 88bd 3883 33bb 95de 86bc
000000b0: 37f8 b9bb bafc d4bc e53e 9dbc d0b5 683d
000000c0: fbe5 bb3a fe5d cfbb c5e4 cd3c c8ee 2dbd
000000d0: a322 513d ab6c c7bc 0455 643d 70eb ad3c
000000e0: 5ea3 613c 5763 ccbc fba5 4abd 892c 453d
000000f0: a301 bd3c 8a5e 8cbd ab18 88bd fb31 a73d
00000100: f079 55bd ba9b e5bc c5a7 4a3d 12e2 3cbd
00000110: 0abc 613b a417 12bd c81f 64bc f879 49bd
00000120: cc68 1abd f00b 0cbd 100b f53c 4bec 9bbc
00000130: dce2 6e3a e6dd 113d af2e 883c 721a bdbd
00000140: db5f acbc e039 973d 3ab5 bd3c 6cf0 2dbc
00000150: f237 fdbc 218c 193d 259f a4bc 185e da3a
00000160: 17f3 fe3a 4771 7c3c d7c4 43bd 921a 43bd
00000170: e5a4 68bd 2de6 b63c d578 77bd 80b3 ccba
00000180: c490 103d 6226 ebbc 5c8a 31bd 635a 91bc
00000190: a076 83bb fdb0 28bd 7401 933c 9702 1cbd
000001a0: 23b6 f8bc 7d1e 08bd 12b0 29bd 6472 45bc
000001b0: acf3 b53b 5adb 903d 84e4 acbc 3471 38bd
000001c0: cb4f c3bd a4a2 8abd 5e46 1e3b bcc9 6cbc
000001d0: 83f2 a2bd 58e6 62bb 894e 95bd 5cc2 76bd
000001e0: c931 0cbd d4b9 cfbd 3643 51bd 6954 333d
000001f0: 7a89 57bc d127 33bd 02f4 3fbd e992 69bb
00000200: d7c7 dc3c 291c abbc b3e4 433c 1372 083c
00000210: 0102 ffbc cd8d a33c 8120 a93d b6ed 823a
00000220: 42a9 ebbb c39f 803d b941 0c3d 86bf 9cbd
00000230: 6a93 babb aca0 b23d 760c 4dbd c665 1abd
00000240: 982d 78bd 920a 7f3c 80f6 dfbb 0e23 ab3d
00000250: ce85 3dbd 6aa2 463d b6af 8c3b 6413 20bd
00000260: 4b0b 423d 5746 833c f2bc a8bd 7ae5 0bbd
00000270: da3d 233d 272f 2cbd 161f 703d fbde 3d3d
00000280: 07c1 063b 533a 033d 8e9f 863d 6da7 583d
00000290: f6fa bb3b 8c15 a9bc 368b ebbc 3f4e 3fbd
000002a0: e1c7 c4bc 933d d8bc 4266 d03c 4bb8 a73c
000002b0: 2527 b33c e919 aa3d b4f7 1dbd 6fa1 e2bb
000002c0: 5ce2 f0bc b760 1cbc d4f1 27bd 9ac8 1f3d
000002d0: 1a42 393d 86f4 353b dabf 28bc d53d 453a
000002e0: 08de 2abd cc5b 3bbc 5bd9 7bbb 5f50 7cbc
000002f0: a2fb e23c 1ce6 673a 7a7d 9cbb 38df 76bb
00000300: e9e6 f23c 34fd d4bb 9fd6 19bc 567e 773d
00000310: fb83 2bb9 ac39 01bd 3c6f 5b3c f87d 15bc
00000320: 561d 713c 2daf f6bc fcde 83bb 2fc7 fdbc
00000330: bd6e 963c 5731 083d 68f2 e6bc ef71 f13c
00000340: 4a2c 4f3d 7ee0 143d 33bb 223d 1e1c 863a
00000350: 44ec 00bd 4823 b13d ba35 26bd c5e0 8a3c
00000360: 8713 90bd b111 b03c b361 9dbd ca02 04bd
00000370: 04c8 fcbc f6a5 603d 8681 be3c 7ed8 80bb
00000380: 719d f63b 311e 843c 405c 453d 4fcf a3bd
00000390: 4151 1c3d 6987 f9bc 5663 84bd 9ecc e63c
000003a0: d035 f53c 4719 823d bb51 263c b301 063c
000003b0: 7e98 dc3c 86fe bd3c 617e 92bb 0972 80bd
000003c0: c8b1 653d bdab 93bd 5dc5 803c d354 f6bc
000003d0: 529f b83b 2b63 903d 2901 46bc bfb6 09bc
000003e0: a09a 0c3d 7c66 983c 3fe7 16bc d5a4 c2bc
000003f0: 74a0 aebd c552 403c 8a9e a33b b2c3 ed3b
-0.0026489038 -0.0446566 0.028952632 -0.0039889943 -0.013221215 0.044129107 0.00093471986 -0.004001612
0.030329822 0.001581623 0.034020912 -0.0086673135 -0.021619882 0.002872269 -0.029041262 -0.006503108
-0.01021899 -0.031364813 0.009114166 -0.027535923 0.06661198 0.03298564 0.05536323 0.05652491
0.04306431 0.012497437 -0.025136136 0.0016118599 0.03307066 -0.0009715556 0.002140783 -0.0052748555
-0.01422445 0.023864083 -0.020021051 -0.039584577 -0.008746525 -0.0059251147 -0.025176637 0.028792726
-0.026680855 -0.06644112 -0.0027391445 -0.016463557 -0.0056753415 -0.025999416 -0.01919503 0.056814015
0.0014335507 -0.0063283434 0.0251335 -0.042464048 0.051058423 -0.02434381 0.05574514 0.02123043
0.01377186 -0.024949713 -0.049474698 0.048138175 0.02307207 -0.068539694 -0.0664533 0.0816383
-0.05211824 -0.028028358 0.049476404 -0.046114035 0.0034444355 -0.035667077 -0.013923593 -0.049188584
-0.0376976 -0.034191072 0.029912502 -0.019033572 0.0009112784 0.03561201 0.016623823 -0.0923356
-0.021041801 0.07384086 0.023157705 -0.010616403 -0.030910466 0.037487153 -0.020095417 0.0016660122
0.0019451109 0.015407867 -0.047795143 -0.04763276 -0.05679788 0.022326553 -0.06041797 -0.001561746
0.03529431 -0.028704826 -0.04334484 -0.017743295 -0.004011944 -0.041184414 0.017945029 -0.038088407
-0.030360287 -0.0332322 -0.04142768 -0.012051199 0.0055527296 0.07073088 -0.021105058 -0.045029834
-0.09536704 -0.067693025 0.0024150829 -0.014452394 -0.07956412 -0.003462216 -0.0729037 -0.06024395
-0.034227166 -0.10142866 -0.051089488 0.04378167 -0.013155336 -0.043739144 -0.046863563 -0.0035640544
0.02695076 -0.020887451 0.011956382 0.008327979 -0.031128885 0.019965077 0.08258153 0.0009989056
-0.007191808 0.06280472 0.034242366 -0.07653718 -0.0056938427 0.08722052 -0.05006071 -0.037694715
-0.060590357 0.015566485 -0.006834805 0.083562955 -0.046270184 0.048494734 0.0042934073 -0.039080992
0.04737405 0.016024752 -0.082391635 -0.034154393 0.039853908 -0.042037155 0.058623396 0.04635523
0.002056183 0.032038044 0.065734014 0.052894045 0.005736704 -0.020640157 -0.028752904 -0.04670548
-0.024021091 -0.026396548 0.025439385 0.02047362 0.021869252 0.08305723 -0.038566306 -0.006916217
-0.029404812 -0.009544543 -0.04100211 0.039009668 0.045229055 0.0027764156 -0.010299647 0.00075241673
-0.04171565 -0.01143546 -0.0038429115 -0.015400021 0.027707879 0.00088462397 -0.0047757 -0.003766967
0.029651122 -0.0064999107 -0.009389549 0.060423218 -0.00016356997 -0.03154914 0.01339322 -0.009124272
0.014716467 -0.030112827 -0.0040243845 -0.030978767 0.018363351 0.03325018 -0.02819176 0.029473273
0.050579347 0.036346905 0.03972931 0.0010231768 -0.03147532 0.086493075 -0.04057858 0.016952882
-0.070349745 0.02149281 -0.0768465 -0.032229222 -0.030857094 0.054845773 0.023255121 -0.003932058
0.0075260927 0.016127678 0.04818368 -0.07998525 0.038163427 -0.030460076 -0.06464259 0.028173741
0.029932886 0.063524775 0.010151322 0.008179116 0.026928183 0.023192655 -0.004470632 -0.062717505
0.05607775 -0.07210491 0.01571911 -0.030069744 0.005634227 0.07050165 -0.012085238 -0.0084053865
0.03432715 0.018603556 -0.009210407 -0.023760239 -0.08526698 0.011738484 0.0049932646 0.0072559947

module.net_sm.layer2.0.bn1.weight f4 [32]
00000000: 28b4 263f 0470 303f 96e2 2d3f a874 333f
00000010: ad05 3d3f a3c3 303f 3098 1c3f 8547 2c3f
00000020: 4aad 2b3f 2813 393f d70b 313f f4c7 213f
00000030: 79bd 303f 347a 353f 9926 3a3f b84d 323f
00000040: 63b0 393f f1e6 273f cf72 303f e27e 213f
00000050: cbc2 313f 13e4 443f 94e0 383f 9919 383f
00000060: 0d7a 173f 3444 253f 7120 3a3f 9956 393f
00000070: 72cb 3b3f 2fdc 273f edea 3c3f ce65 343f
0.65118647 0.6892092 0.6792387 0.7009988 0.73836786 0.6904852 0.6116972 0.6729663
0.67061293 0.72294855 0.6915869 0.6319573 0.6903911 0.7088959 0.72715145 0.6964984
0.7253477 0.65586764 0.68925184 0.6308423 0.69437855 0.76910514 0.7221768 0.7191406
0.5917061 0.64557195 0.7270575 0.7239776 0.7335731 0.6557035 0.7379597 0.7046784

module.net_sm.layer2.0.bn1.bias f4 [32]
00000000: c531 81bd c205 04bd 0014 5cbc 03df 87bd
00000010: 2493 28bd dabe e43c da46 b5bd ad93 b33c
00000020: 08b8 173d d840 48bd f526 3fbb 1a0e fabc
00000030: c1ec abbd 01de 923d 58f2 533c 3a8e b9bc
00000040: 832d 9c3d ed23 94bd 502d ce3c 23f6 41bd
00000050: 1200 56bc 3647 7cbc 8039 9b3d 1050 493c
00000060: 7c47 5ebd d892 d73d 459c 7dbb 6c5c 82bd
00000070: dba2 ba3c a035 3abd c2ae 8d3d ea53 a0bd
-0.06308321 -0.032232054 -0.013432503 -0.06634333 -0.04115595 0.027923036 -0.088514045 0.021921003
0.03704074 -0.048889965 -0.0029167507 -0.030524302 -0.083947666 0.0717125 0.012936197 -0.022650827
0.07625868 -0.07233415 0.025168091 -0.047353875 -0.01306154 -0.015397837 0.07579327 0.012287155
-0.05426739 0.10526055 -0.003869788 -0.06365284 0.022782734 -0.045461297 0.06918098 -0.07828505

module.net_sm.layer2.0.bn1.running_mean f4 [32]
00000000: 4597 0bbd 4794 e9bf 280e dcbf 56f6 793e
00000010: 4a18 4f3f 0282 f7bf cf2e 2c3f 7240 063f
00000020: 4e14 fa3f 2f49 7bbf 788a 1240 ded0 0440
00000030: 5cbe 273f e83c f73f a952 2e3f f25f 033f
00000040: 2edf c0bf 7605 8c3f 9770 b53f 5fff 0a40
00000050: b9ea 14c0 ab93 923f a0fd b3bf fefe 2040
00000060: c174 e83f eef6 6340 bb6f afbf 3ad2 08be
00000070: bb94 24c0 f9a7 a13e 785c 00c0 e2bb 583f
-0.03407981 -1.8248376 -1.719182 0.24410376 0.8089644 -1.933655 0.67258924 0.52442086
1.9537446 -0.98158544 2.2897015 2.0752482 0.6552484 1.9315462 0.6809488 0.51318276
-1.5068109 1.0939167 1.4174985 2.1718366 -2.3268263 1.1451315 -1.4061775 2.5155635
1.816063 3.5619464 -1.3705972 -0.13361445 -2.5715778 0.31573465 -2.0056438 0.84661686

module.net_sm.layer2.0.bn1.running_var f4 [32]
00000000: 30f0 4540 a4bd 8f40 522f 8f40 4d16 a640
00000010: eb0b 2040 1b13 0e41 8b48 dc3f 492a 0a40
00000020: 9a45 4940 7c39 8240 480f 2741 7753 8f40
00000030: 08f3 5e41 50a3 c540 b8fb 3740 272d 6540
00000040: e88b 8d40 93f2 9540 f822 8d40 1c15 e040
00000050: 6f54 a140 1e6f 3040 fcff b140 efec a340
00000060: 2cfe d540 306d 4241 2527 6740 f09f 5440
00000070: 8c3a 3a41 6d92 0e40 62a6 0341 bf12 4240
3.092785 4.4918995 4.4745264 5.1902223 2.5007274 8.879664 1.7209638 2.158831
3.1448731 4.069517 10.441231 4.4789386 13.934334 6.1761856 2.8747387 3.5808809
4.4233284 4.685861 4.4105186 7.002577 5.041557 2.756782 5.562498 5.1226726
6.687277 12.151657 3.6117642 3.3222618 11.639294 2.2276871 8.228121 3.0323942

module.net_sm.layer2.0.conv2.weight f4 [32, 32, 3, 3, 3]
00000000: de4f 4b3d c8b7 58bd d607 b23c 59c7 51bc
00000010: d154 45bd 682d 4abd dbde 523d 0acb dabc
00000020: 40ec 383a c3ed d8bc 6da8 59bc 464a 9fbc
00000030: cfe4 debc 8ca1 b4bb 6afb 3e3d 0f98 a1bd
00000040: a729 19bc 2abc a4bc 6207 403c 5ec3 9fbc
00000050: 6e27 db3b 379e a73c f67f 583c bca8 2ebd
00000060: 30cb b3bb 0528 61bc 4193 093d f830 363d
00000070: abd8 1ebd f917 a3bc 203d 56bd 3734 10bd
00000080: 426e 81bd 1b49 be3b a2ae 5f3d 9f4d 08bd
00000090: 4b75 a73c 0af5 f63c c1ea bc3b 00d9 66bd
000000a0: 11bc 2d3d badd 2ebd f1d1 ce3c 4428 423c
000000b0: 292e 88bc 516c 613d 9121 f1bd 66ee 2e3c
000000c0: ee3d ab3c c506 86bd 4b6e 06bd 92dd 4b3c
000000d0: f3f9 5a3d b820 9cbd 12e0 73bb 96de c63c
000000e0: d4fc 9f3c cd71 bbbc c7ac bcbc 4d9b 7fbb
000000f0: f3f6 6cb5 3389 293d aacd 003c c56b 9dbd
00000100: 8461 abbb 8d55 993c b192 223d 4ba6 603d
00000110: 3e2e 923d 1abd d83c 1a2d d33b 01c5 923b
00000120: 5433 96bd a96b 7c3c d6a1 1c3d 7698 8bbd
00000130: e243 43bd 545a aebc 0db7 61bc 4fc9 d13c
00000140: f472 f33c c977 e73c 5909 26bd 5e29 85bd
00000150: 7e2b 783d 8cb4 d4bc c934 da3c cbe9 26bc
00000160: 6cc0 3b3b 8fee 8cbc af90 c8bb 4543 61bd
00000170: 92a3 4bb8 722f 1f3c 0f71 dd3c 7cc1 63bd
00000180: 7607 e7bc 3ce1 95bc c7ae 343d 36e0 583c
00000190: 159b b7bc a7a0 9b3c 856a 0f3b d39f cdbd
000001a0: 18e3 07bd 9286 823d fea4 883c 377b 01bc
000001b0: 5ec9 bfbb ef05 813b 9967 9d3c 2577 26bc
000001c0: 698d 823c daa9 903b 1c60 9abc 3455 95bb
000001d0: eeec fd3a 47a0 afbd 6d2d 953c 3495 5bbc
000001e0: dcb6 4b3d b9b3 1dbd bec8 503d 9d0a acbd
000001f0: 8b0d a7bc 1917 10bd 2845 423d 21a2 623c
00000200: cee7 413d 1e7a b5bd ec2d b53c 8454 4fbc
00000210: b878 c6bc 7676 203d 5af1 c8bd 838b 82bb
00000220: c7b5 163c b00a 62bc 6c3f ba3c d82d 0ebc
00000230: e6b6 49bd fc33 803c 52ac 94bc b56c 0dbd
00000240: a77a e0bc 3b4b 26bd 7410 45bb 3040 023d
00000250: a7aa 183a dd70 63bc c3d4 ad3c 6451 e83c
00000260: e112 a33c 809b 23bd 7414 70bd 582b 8dbb
00000270: 7d87 d23b 80fd 88bb bd2e 75bc a19a 4e3c
00000280: 9424 2fbd 16f9 d2bc c2d6 cf3c d784 00bd
00000290: 4a56 9c3c c8bd 513c 9324 e6bd 6ae2 c43c
000002a0: a4fc 933c 841b ed3c 997f ac3c 4db2 c03d
000002b0: 8256 b0bb 5f05 883c d20a 313d 7841 31bd
000002c0: 3dd8 3c3d 7213 fabb fe39 72bd 4444 0bbd
000002d0: 2e09 3c3d d5d0 1bbc f2b6 9a3d 0464 853c
000002e0: d422 32ba 270b e0bc 9d21 29bb 450b c7bc
000002f0: 1c85 e93c 8329 20bd 5171 bdbc d50b 503d
00000300: 3a98 c83b 45a7 38bd cf0c 7a3c f776 633b
00000310: 7358 cc3d 1274 bb3d 3ac5 56bb b7c4 803d
00000320: 3f85 fd3b 7d22 853d 9370 d6bb 88dc b4bb
00000330: 257d 82bd 0faa 953c ad29 b3bd 7612 82bc
00000340: 4bcd a9bd 3080 ba3c a8b3 5a3d 0c39 b7bc
00000350: 43f5 2e3d 4c20 c23d f023 973b e5b4 82bc
00000360: f0c4 b53c 24be 5fbd 11a4 893d a4bf dcbc
00000370: bb31 7c3d 4962 bdbc b135 1a3c d558 833c
00000380: 0249 17bd 0d17 a23c 2429 633d 850e 913c
00000390: 09f6 0bbd 5ca5 54bc 2280 9dbc 5ada 4abc
000003a0: 8fb8 49bc 52a8 0a3d 2af5 a23d e9c7 1b3b
000003b0: 34ae b0bb 73ae 32bc 2f8b fb3c 4bc5 5d3b
000003c0: db8f 8cbc 320f 133c af17 423d d133 563d
000003d0: 76e2 0dbd 7b36 0c3d fd19 843c d986 5bbc
000003e0: 6549 abbc e9b5 23bd 2618 9dbc 859e 0d3d
000003f0: 4f3f 2c3b 9cf4 a5bb 557a 4e3b 1523 7bbd
0.049636714 -0.052909642 0.021732252 -0.012803876 -0.04817659 -0.04935971 0.051482063 -0.026708145
0.0007054247 -0.026480561 -0.013284785 -0.019444596 -0.027208714 -0.005512422 0.046626486 -0.07890331
-0.00934831 -0.020109255 0.01172051 -0.019502338 0.00668805 0.020461185 0.013214102 -0.042641386
-0.0054868683 -0.013742452 0.033587698 0.044480294 -0.03878085 -0.019908892 -0.052304387 -0.035206046
-0.06319858 0.0058070547 0.054609902 -0.03327715 0.020441672 0.03014614 0.0057652895 -0.05635929
0.042415682 -0.042691924 0.025246592 0.01185042 -0.016623573 0.05503494 -0.117739804 0.010676956
0.020903554 -0.0654426 -0.032820027 0.012442963 0.053461026 -0.07623428 -0.0037212414 0.02427606
0.019529738 -0.022881413 -0.023031605 -0.0039002479 -8.827621e-07 0.04139061 0.007861534 -0.07686571
-0.0052301306 0.018717552 0.039690677 0.05484609 0.07137726 0.026457358 0.0064445855 0.004479051
-0.07334009 0.015406528 0.038240276 -0.06816189 -0.04767216 -0.021283306 -0.013776553 0.025608687
0.0297179 0.02825536 -0.04053626 -0.06502031 0.060588352 -0.025964998 0.026636498 -0.0101875765
0.0028648628 -0.017203597 -0.0061207633 -0.054995794 -4.855131e-05 0.009715902 0.02703145 -0.055604443
-0.0282018 -0.018295877 0.044111993 0.01323705 -0.022412816 0.018997503 0.002188356 -0.1004025
-0.033175558 0.063733235 0.016680237 -0.007902912 -0.0058528623 0.003937475 0.019214438 -0.010160242
0.01593657 0.004414779 -0.018844657 -0.004557276 0.0019372979 -0.08575492 0.018210137 -0.013402272
0.049734935 -0.038501475 0.050972693 -0.08400462 -0.0203922 -0.035178278 0.047429234 0.0138326
0.047340207 -0.08861183 0.022116624 -0.012654427 -0.024227485 0.039175473 -0.09811659 -0.0039839162
0.0091986125 -0.013796493 0.02273532 -0.008677922 -0.04924669 0.015649788 -0.018148575 -0.0345275
-0.027402235 -0.04059909 -0.0030069621 0.031799495 0.0005823769 -0.013881889 0.021219617 0.028359123
0.019906463 -0.03994322 -0.058613256 -0.0043081455 0.006424843 -0.00418061 -0.014964757 0.012610109
-0.042759493 -0.025753539 0.02537096 -0.031376686 0.019084115 0.012801595 -0.11237445 0.024033744
0.018064804 0.028943785 0.021056937 0.09409008 -0.0053814063 0.016604124 0.04322321 -0.043275326
0.04610466 -0.0076317126 -0.059137337 -0.03400065 0.045907192 -0.009510239 0.07554425 0.016283043
-0.0006795351 -0.027349068 -0.0025807389 -0.024297366 0.028505854 -0.03910209 -0.023125323 0.050792534
0.0061216624 -0.045081396 0.015261843 0.003470836 0.09977808 0.09152998 -0.0032771365 0.062875204
0.0077368314 0.06500719 -0.0065441816 -0.0055194534 -0.06371526 0.018269567 -0.087481834 -0.015877943
-0.0829111 0.022766203 0.05339399 -0.02236607 0.04271437 0.094788164 0.0046124384 -0.015955398
0.022188634 -0.05462469 0.06720746 -0.02694685 0.061570864 -0.023118155 0.009412215 0.01603357
-0.03693486 0.019786382 0.055459157 0.017707119 -0.034170184 -0.012978878 -0.019226138 -0.012381161
-0.012312069 0.03385193 0.079569176 0.0023770279 -0.0053918604 -0.01090585 0.030706016 0.003383952
-0.01715844 0.008975791 0.047385868 0.05229551 -0.034639798 0.034231644 0.016125673 -0.013398849
-0.02090902 -0.039968405 -0.019176554 0.034575004 0.0026282852 -0.00506456 0.003150602 -0.061312754

module.net_sm.layer2.0.bn2.weight f4 [32]
00000000: ef0e 1c3f cbcc 103f 61fc 0b3f 264b 103f
00000010: d51b 433f f2ed 263f 3f45 303f 52ca 3b3f
00000020: 6856 1c3f bf26 183f 48c6 103f 1ac6 3a3f
00000030: 10d4 263f d44a 2b3f 9075 3f3f 40df 283f
00000040: 9564 173f 4471 2e3f 81a4 143f 8381 043f
00000050: b42b 2f3f 6458 3a3f 2561 3a3f 43b2 2e3f
00000060: b7bb 2b3f 94b4 243f 1759 3c3f 7fdf 1b3f
00000070: edc9 403f 2a83 0c3f dc2b 2f3f b52d 163f
0.60960287 0.5656249 0.54681975 0.5636467 0.76214343 0.65206826 0.6885566 0.7335559
0.61069345 0.5943412 0.56552553 0.7295853 0.6516733 0.66911054 0.7478876 0.6596565
0.5913785 0.6814158 0.58063513 0.5176012 0.6842606 0.72791123 0.7280448 0.68240756
0.67083305 0.6433804 0.7357344 0.608879 0.75308114 0.5488764 0.684263 0.58663493

module.net_sm.layer2.0.bn2.bias f4 [32]
00000000: 2a48 a8bc 45ca 0cbe f9f9 91bd 9972 43bd
00000010: 7961 61bd 75d3 813d 648e 80bd 4a83 85bd
00000020: 1cae 13be 0578 92bd 312f 22bd fda5 c8bd
00000030: 993e 34bd 6a4a d8bd 6287 95bd c671 dabd
00000040: 9437 8abd 7501 97bd b723 c63c f556 81bd
00000050: cfd4 cb3a ef0d 44bd 5808 87bd 04fd d0bd
00000060: 7673 25bd b330 5abc 8eb1 613d 2f8b 48bd
00000070: 4eef ccbc 2a6f 86bd 5ec9 abbd cbf0 86be
-0.020542223 -0.13749035 -0.071277566 -0.04771671 -0.055024598 0.0633916 -0.06277159 -0.06519182
-0.14421886 -0.07151798 -0.039595786 -0.09797285 -0.04400501 -0.10561068 -0.07301213 -0.10666232
-0.06748882 -0.07373325 0.024186952 -0.06315414 0.0015551093 -0.04786485 -0.06593388 -0.10204509
-0.040393315 -0.013317275 0.05510097 -0.04896086 -0.025016453 -0.065641716 -0.08388017 -0.26355585

module.net_sm.layer2.0.bn2.running_mean f4 [32]
00000000: d0b9 16bc be46 52bf afc9 af3e 8865 36bf
00000010: 9edb 5cbf 4271 463f d1e3 31bf ee84 a1bf
00000020: 11a0 19bf 5dd3 6bbf d405 a8bd baf0 29bf
00000030: 2360 83bf 5f13 533e 2935 c6bf 70aa 3dbf
00000040: ebe6 9dbd d74e 64bf 5f7d 873e 1540 8cbe
00000050: 7030 d13d dce4 c9bf 92df 05bf a656 a0be
00000060: b27d 24bf a9b8 26bf 0e35 61bf 2c2c 19bf
00000070: e8a9 07bf 8228 003f 0f5b 94bf 8daa a8bf
-0.009199575 -0.82139194 0.3433356 -0.71248674 -0.8627261 0.7751657 -0.69488245 -1.2618692
-0.60009867 -0.9211939 -0.082042366 -0.66382945 -1.0263714 0.20612858 -1.5484973 -0.7408819
-0.0771006 -0.891828 0.26462838 -0.2739264 0.10214317 -1.5772967 -0.52294266 -0.31316108
-0.64254296 -0.6512552 -0.8797158 -0.59833026 -0.5299363 0.5006181 -1.1590289 -1.3177048

module.net_sm.layer2.0.bn2.running_var f4 [32]
00000000: 37e8 c43e a5d5 e43f ed23 883f fb1f 3e3f
00000010: c21e fe3f 7976 0240 fd2c d93f 9314 cf3f
00000020: 9897 9d3f 1d8e cb3f 31a6 aa3f eb95 b13f
00000030: 41df 4140 c940 c43f 28d6 2e40 43e7 0440
00000040: d9a3 ee3e 21fd 8040 6927 823f e14f ca3f
00000050: 7171 403f 250f 9a40 3b65 5740 de71 8e3f
00000060: aa14 bd3f 9c09 2a40 c3a7 eb3f db75 b53f
00000070: 4004 0b40 8e65 b43f 979e 5c40 17d2 4b40
0.38458416 1.7877699 1.0635964 0.7426755 1.9853137 2.038481 1.6966854 1.6178154
1.2311888 1.5902745 1.3331968 1.3873876 3.0292513 1.5332271 2.731821 2.076615
0.4660938 4.0308995 1.0168277 1.5805627 0.751731 4.8143487 3.3655536 1.11285
1.4771931 2.6568365 1.8410572 1.4176592 2.1721344 1.4093492 3.4471796 3.1846979
