model/model_20200907110637/model_final_bcp_3_0300_ts.pth (torch_old, 131256 bytes, 59 tensors)

module.net_ts.conv1.weight f4 [32, 1, 7]
0	0xbf014fce	-0.505124
1	0xbe62e8d9	-0.22159137
2	0x3db0ff19	0.08642406
3	0xbea98a44	-0.331133
4	0xbf056825	-0.52112037
5	0x3d8b2275	0.067936815
6	0xbeac9f6f	-0.33715388
7	0x3e9236de	0.28557485
8	0xbef75dff	-0.483139
9	0x3ea5e7d4	0.32403433
10	0x3deda1c8	0.11603123
11	0x3efbf6e1	0.4921179
12	0x3e3fe11f	0.1873822
13	0x3c9d0794	0.019168653
14	0x3ec5255c	0.38505065
15	0x3cdcda60	0.026959598
16	0x3eace0bb	0.33765206
17	0xbedce024	-0.43139756
18	0xbef775f2	-0.48332173
19	0xbf06a9f6	-0.5260309
20	0x3e8d2364	0.27566063
21	0xbe4f678c	-0.20254344
22	0xbee766e2	-0.4519568
23	0xbdee650b	-0.11640366
24	0x3eec42f1	0.46144822
25	0x3f129c4a	0.5726973
26	0xbe927cbb	-0.28610787
27	0xbf2f8419	-0.6856094
28	0xbe0fa4c8	-0.14027703
29	0x3f3fdf8a	0.7495047
30	0xbf40360d	-0.75082475
31	0xbdda7159	-0.106661506
32	0x3f3a458d	0.72762376
33	0xbebcbfc4	-0.36865056
34	0x3d3ef449	0.046619687
35	0x3e2d580a	0.16928115
36	0xbe034f43	-0.12823205
37	0x3ea886cd	0.32915345
38	0x3eba6c8c	0.3641094
39	0x3f234676	0.6377939
40	0xbf215ff7	-0.63037056
41	0xbca637fb	-0.020290365
42	0x3e87b2f6	0.26503724
43	0x3d4e7ea1	0.05041373
44	0x3ed3dc99	0.4137924
45	0xbda473d1	-0.08029903
46	0x3f00c155	0.50295
47	0xbe8f8110	-0.28028154
48	0x3ed1975b	0.40935788
49	0xbe1ff51b	-0.15620844
50	0x3f12f2ad	0.57401544
51	0x3e89e023	0.26928815
52	0x3be10c69	0.0068679345
53	0xbed00be4	-0.40634072
54	0x3e16c9ff	0.14725493
55	0xbeeac8e9	-0.45856407
56	0xbec9f716	-0.39446324
57	0xbeeb6aad	-0.45979825
58	0x3f65bb10	0.8973856
59	0xbe8cf3b6	-0.27529687
60	0xbeada4e2	-0.33914858
61	0xbe63edb7	-0.2225865
62	0x3e3cc0e0	0.18432951
63	0x3f120242	0.57034695
64	0xbe80f505	-0.25186935
65	0xbe989c1b	-0.298066
66	0xbddd5cd2	-0.1080872
67	0xbdd77f15	-0.10522286
68	0x3c851a54	0.016247906
69	0xbf314466	-0.6924499
70	0x3e9915ff	0.29899594
71	0xbf32998a	-0.6976553
72	0x3e24a7dc	0.16079658
73	0xbebd8b7a	-0.37020475
74	0xbde97b4c	-0.1140047
75	0x3f0b690f	0.5445718
76	0x3c96e5b7	0.018420083
77	0x3f3bd927	0.73378223
78	0xbe46407d	-0.19360538
79	0x3da79b2c	0.081838936
80	0x3e6360fe	0.22204968
81	0xbe18da31	-0.14926983
82	0x3f2914f6	0.6604761
83	0xbededddd	-0.43528643
84	0xbeb8a4ea	-0.3606332
85	0x3f0c550d	0.5481728
86	0xbf232ffe	-0.63745105
87	0x3ced1871	0.028942319
88	0xbe75e0aa	-0.24011484
89	0xbece75e3	-0.40324315
90	0x3e1476be	0.14498422
91	0xbf1b29e7	-0.6061081
92	0x3f1a15b9	0.60189396
93	0xbe452c7a	-0.19255248
94	0x3ed7b9fc	0.42134082
95	0xbd7a261a	-0.061071493
96	0xbead36dd	-0.3383092
97	0x3f481a62	0.78165257
98	0x3eea3b4a	0.4574836
99	0x3f2f4ffa	0.6848141
100	0xbefd86ef	-0.4951701
101	0x3e05d50d	0.13069554
102	0x3e5507b4	0.2080372
103	0x3b8fcb32	0.0043882364
104	0x3ed2d777	0.41180012
105	0x3e36c4f1	0.17848565
106	0x3e5cb245	0.2155238
107	0xbf05304a	-0.5202681
108	0x3f23b36a	0.6394564
109	0x3ed9bb0e	0.42525524
110	0x3d20158e	0.039083056
111	0x3e837b5a	0.25680047
112	0xbe8437a3	-0.25823697
113	0x3ed946f2	0.4243694
114	0x3e8d4332	0.27590328
115	0x3ec68a1f	0.38777253
116	0xbf01565a	-0.5052239
117	0xbe21cfae	-0.1580188
118	0xbda1320e	-0.07870875
119	0xbeac84ba	-0.33695012
120	0xbf4a95c8	-0.791348
121	0x3e56a765	0.20962293
122	0xbb7a40bb	-0.0038185555
123	0x3f26c338	0.6514163
124	0xbdcbfb33	-0.09960022
125	0x3ec1104a	0.3770774
126	0x3f32461b	0.6963822
127	0xbf53ab15	-0.82682925
128	0xbe2f7a79	-0.17136563
129	0x3e277d0d	0.16356297
130	0x3e8722ed	0.26393834
131	0xbd918000	-0.07104492
132	0xbf000957	-0.5001425
133	0xbdcce8fa	-0.10005374
134	0x3d39d88f	0.045372542
135	0xbdacc810	-0.084365964
136	0xbe8f9531	-0.28043512
137	0xbf0ea957	-0.5572714
138	0x3ec89a8f	0.3918042
139	0x3f11216a	0.5669161
140	0xbdbe37b4	-0.09287968
141	0xbe1dcdda	-0.15410557
142	0xbf0adfc6	-0.542477
143	0xbf14d3e1	-0.581358
144	0xbd58f80f	-0.052970942
145	0x3f262f29	0.6491571
146	0x3d30c985	0.043160934
147	0xbeefd9ea	-0.46845943
148	0x3ed95138	0.42444777
149	0x3ea7ee3f	0.32798955
150	0xbe02fd50	-0.12791944
151	0x3ec1be5e	0.3784055
152	0x3e3cfcfb	0.1845588
153	0x3dcb6b2d	0.099325515
154	0xbf0a2768	-0.5396638
155	0x3e368126	0.17822704
156	0xbd853ee0	-0.06506133
157	0xbeaca4c1	-0.33719447
158	0xbebad836	-0.3649308
159	0xbc030e89	-0.007999071
160	0x3dc3571e	0.09538101
161	0x3e8f8e8e	0.28038448
162	0xbed2e37f	-0.4118919
163	0x3f1cc92d	0.6124447
164	0xbf423039	-0.7585483
165	0x3f12fe44	0.5741923
166	0x3cff1685	0.031138668
167	0xbe9e8765	-0.30962673
168	0xbf21f444	-0.63263345
169	0xbde22615	-0.1104242
170	0x3ed7f12d	0.4217619
171	0x3ed96d88	0.42466378
172	0xbdeb5af3	-0.114919566
173	0xbf4a7de5	-0.7909835
174	0xbdbdd536	-0.092691824
175	0xbd60c26a	-0.054872908
176	0x3ea89792	0.3292814
177	0x3de7d139	0.11319203
178	0x3e85f30d	0.26161996
179	0x3e470717	0.19436298
180	0x3f14098f	0.57827085
181	0xbeb7283d	-0.35772887
182	0xbcb81902	-0.022472862
183	0x3d26d93b	0.04073451
184	0x3ed76a19	0.42073134
185	0x3ef85409	0.48501614
186	0x3e292bd4	0.16520625
187	0xbe5c0f02	-0.214901
188	0x3dcff19b	0.101535045
189	0x3eabc8ee	0.33551735
190	0x3f1b94e6	0.60774076
191	0x3e56f929	0.20993485
192	0xbf16700b	-0.58764714
193	0xbeb083c7	-0.34475538
194	0xbc9e91e7	-0.019356681
195	0x3e7f7a55	0.2494901
196	0x3e77dcd0	0.24205327
197	0x3da00257	0.07812946
198	0x3e3a3913	0.18185835
199	0xbf165ec0	-0.5873833
200	0x3dde82f4	0.10864821
201	0x3f3360a3	0.7006933
202	0xbe738645	-0.23781689
203	0x3dc1fc5c	0.09471962
204	0xbf21eb20	-0.632494
205	0x3ec567c0	0.38555717
206	0x3e343acd	0.17600556
207	0xbf05c9cc	-0.5226104
208	0x3e56b4ed	0.20967455
209	0x3ecdeca9	0.4021962
210	0x3e9f8f87	0.3116419
211	0x3f3142b9	0.69242436
212	0xbd060ad5	-0.032725174
213	0x3e7d7e24	0.2475515
214	0x3e0644a8	0.13112128
215	0xbe91bd73	-0.2846485
216	0xbdd3e182	-0.103457466
217	0x3d09a3f1	0.033603612
218	0xbe98f603	-0.29875192
219	0x3ee0aaf4	0.43880427
220	0xbc475ecd	-0.012168598
221	0x3e5e4a95	0.21708138
222	0x3e52d6f8	0.20589817
223	0x3eeac660	0.45854473

module.net_ts.bn1.weight f4 [32]
0	0x3f571497	0.8401579
1	0x3f38b1e0	0.72146416
2	0x3f2dd0d6	0.67896783
3	0x3f5e3cf2	0.86811745
4	0x3f78703c	0.97046256
5	0x3f50890b	0.8145911
6	0x3f5f61ab	0.87258404
7	0x3f2f2634	0.6841767
8	0x3f5742c4	0.8408625
9	0x3f51844e	0.81842506
10	0x3f371358	0.7151389
11	0x3f603e56	0.8759512
12	0x3f5ce10c	0.86280894
13	0x3f6d1a8a	0.9261862
14	0x3f63f5e3	0.8904707
15	0x3f632c55	0.8873952
16	0x3f174c2c	0.59100604
17	0x3f5ebfef	0.8701162
18	0x3f4a47ce	0.79015815
19	0x3f328f7f	0.6975021
20	0x3f464d1d	0.77461416
21	0x3f31688d	0.69300157
22	0x3f24b55f	0.6433925
23	0x3f49f3bb	0.7888753
24	0x3f688667	0.9083008
25	0x3f355855	0.7083791
26	0x3f092a7d	0.53580457
27	0x3f40a10a	0.75245726
28	0x3f257489	0.64630944
29	0x3f39eea0	0.7262974
30	0x3f353c47	0.707951
31	0x3f215c90	0.63031864

module.net_ts.bn1.bias f4 [32]
0	0xbe536f8f	-0.20648025
1	0xbcd5178a	-0.0260122
2	0x3d06f28a	0.032946147
3	0x3d8cdeec	0.068784565
4	0x3dd26a4f	0.10274183
5	0x3db3c1f3	0.08777227
6	0xbdd6e735	-0.10493318
7	0x3e05917a	0.13043776
8	0x3e345d00	0.17613602
9	0x3d4011b0	0.046891868
10	0x3dbfb69f	0.09361004
11	0x3dfeb163	0.124361776
12	0xbd936b05	-0.07198147
13	0x3e47820a	0.194832
14	0xbe17c50b	-0.1482126
15	0x3d3b67ba	0.04575322
16	0x3c4f40a6	0.012649691
17	0x3d14ca8e	0.036325984
18	0x3e0bd087	0.13653766
19	0x3dfd75b4	0.12375966
20	0xbd9517ac	-0.07279906
21	0x3d883b6c	0.06651959
22	0x3cad5a79	0.021161305
23	0x3d9a331b	0.07529279
24	0x3cd4cfd0	0.025977999
25	0xbe0daf99	-0.13836516
26	0xbc461c51	-0.012091712
27	0x3ab806cd	0.0014040113
28	0x3da0bc7a	0.07848449
29	0x3e087c18	0.13328588
30	0x3db7db82	0.08977415
31	0xbdd75b8f	-0.1051551

module.net_ts.bn1.running_mean f4 [32]
0	0x3984413c	0.00025225605
1	0xb9ed6b22	-0.00045283983
2	0xb7f73249	-2.946811e-05
3	0x3a0a3cb7	0.00052733294
4	0x39c7d7b6	0.00038116955
5	0x391c3966	0.00014898702
6	0xb9c712ef	-0.00037970344
7	0x39a16c14	0.00030788837
8	0xb9591e2d	-0.00020705974
9	0x3990ab33	0.00027593374
10	0xba2243bc	-0.0006189903
11	0xb99c8b3c	-0.00029858376
12	0x3a1a5424	0.0005887172
13	0x3943d291	0.00018675091
14	0xb8cce353	-9.7698205e-05
15	0x381636a4	3.5813675e-05
16	0x39cad314	0.00038685708
17	0xb9d44678	-0.00040488294
18	0x381b0b42	3.6965364e-05
19	0xb9d8f007	-0.00041377565
20	0xb9ba34f3	-0.00035516135
21	0xb949e86c	-0.00019255438
22	0x39151a67	0.00014219583
23	0xb9facd7f	-0.00047836822
24	0x3a286c47	0.0006424826
25	0xb8c152bc	-9.2183676e-05
26	0x37d57126	2.5444268e-05
27	0xb97282f6	-0.00023127705
28	0xba0d31a6	-0.00053861213
29	0xb9ddc923	-0.00042302263
30	0x39985582	0.00029055408
31	0xba20713f	-0.00061203906

module.net_ts.bn1.running_var f4 [32]
0	0x3de63bb8	0.11241859
1	0x3d856c11	0.06514753
2	0x3db5a3b9	0.08869118
3	0x3dcbe4ff	0.09955787
4	0x3df48370	0.11939132
5	0x3db4d385	0.08829407
6	0x3d99b005	0.07504276
7	0x3d86904f	0.065704934
8	0x3dcd82d5	0.1003472
9	0x3db4381d	0.08799765
10	0x3d961fbd	0.07330272
11	0x3dc52bd1	0.09627498
12	0x3dac20a2	0.08404662
13	0x3de6aef5	0.11263839
14	0x3ddef64a	0.1088682
15	0x3dca49e6	0.09877376
16	0x3d61f726	0.05516734
17	0x3de821cb	0.113345705
18	0x3dcf8bd7	0.10134094
19	0x3d8df777	0.06931966
20	0x3dd3d31b	0.103429995
21	0x3d89469e	0.06702922
22	0x3d7b298c	0.06131892
23	0x3dc33ade	0.095327124
24	0x3ddbd45d	0.107338645
25	0x3d984538	0.074350774
26	0x3d7236dd	0.059134353
27	0x3dac87f0	0.084243655
28	0x3d8e70a8	0.06955081
29	0x3d9ddc75	0.077080645
30	0x3dae0b55	0.08498255
31	0x3d83d4b5	0.06437055

module.net_ts.layer1.0.conv1.weight f4 [32, 32, 3]
0	0xbbef41b2	-0.0073015327
1	0x3dbcc0de	0.09216474
2	0xbd9b72ab	-0.075902306
3	0x3d372a01	0.044717792
4	0x3c6cdefe	0.014457462
5	0x3d836e74	0.06417552
6	0x3d5847f3	0.05280299
7	0xbe6b461e	-0.22975966
8	0xbd571e49	-0.052519117
9	0xbe0e582c	-0.13900822
10	0x3b730de4	0.0037087137
11	0xbe4030fa	-0.18768683
12	0x3dd32360	0.103094816
13	0x3ddf678d	0.109084226
14	0x3e0a7ae8	0.13523448
15	0xbd2f87f1	-0.042854253
16	0x3ddba3e2	0.107246175
17	0xbe5a734e	-0.21333048
18	0xbd7f6bdf	-0.062358733
19	0x3e684d0c	0.22685641
20	0x3c64646f	0.013939961
21	0xbd6aa710	-0.05728823
22	0x3dd67f4f	0.10473501
23	0xbde86039	-0.11346478
24	0x3e5249b0	0.20535922
25	0xbe3c3672	-0.18380144
26	0xbd0aa22d	-0.03384607
27	0x3ec6c759	0.38823965
28	0x3d40e727	0.047095444
29	0x3e2e573a	0.17025462
30	0x3e4f8147	0.20264159
31	0xbd902613	-0.07038512
32	0xbe90f7c2	-0.28314024
33	0xbc27b521	-0.010236056
34	0xbe33c50e	-0.17555639
35	0x3de0c62a	0.10975297
36	0x3e153280	0.14570045
37	0x3d96b632	0.0735897
38	0x3e5126aa	0.20424905
39	0xbca37e02	-0.019957546
40	0x3e8ef1b7	0.2791879
41	0x3a92f68c	0.0011212393
42	0x3e86c15e	0.26319402
43	0xbd8b2149	-0.06793458
44	0x3d91fe05	0.071285285
45	0xbd8b955c	-0.068155974
46	0x3c55e7e0	0.013055772
47	0xbdeeb179	-0.11654944
48	0xbc451532	-0.012028979
49	0xbc7cdfd0	-0.01543422
50	0xbc89eeb3	-0.016837453
51	0x3d05d660	0.032675147
52	0x3e651c9f	0.223742
53	0xbdc2ac3a	-0.09505506
54	0x3e08237b	0.13294785
55	0xbe2ccee6	-0.168758
56	0xbdc3b07a	-0.095551446
57	0x3d9c5362	0.076330915
58	0xbe5ed8eb	-0.21762435
59	0xbe611d24	-0.21983773
60	0x3dbe4fa7	0.09292536
61	0xbe3a1229	-0.1817099
62	0xbda730e5	-0.08163623
63	0xbe2f62bb	-0.17127506
64	0x3df8c737	0.12147372
65	0xbccfb60f	-0.025355367
66	0xbccf8db6	-0.025336128
67	0x3d04b796	0.032401644
68	0x3d7ff49a	0.06248913
69	0xbed22a77	-0.41048023
70	0x3d6f1e3a	0.058378436
71	0x3e3cb43f	0.18428133
72	0x3dbd4b63	0.092428945
73	0x3c5c4646	0.013444489
74	0xbdd8d172	-0.105868235
75	0xbbc07fbc	-0.005874602
76	0x3e2f9ab6	0.17148861
77	0xbdabadbb	-0.08382746
78	0x3e404401	0.18775941
79	0x3e1dd5be	0.15413567
80	0xbdb50d94	-0.088404804
81	0x3d0ae3ac	0.03390853
82	0xbe12fac5	-0.14353473
83	0x3dc9f5b7	0.098613195
84	0x3c35d48f	0.011098041
85	0xbd912594	-0.070872456
86	0xbdf6602a	-0.120300606
87	0x3e94998b	0.29023394
88	0xbddfea9b	-0.10933419
89	0xbe009a87	-0.12558948
90	0x3e0d2cae	0.13786575
91	0xbb63a206	-0.0034734025
92	0xbe8fb6c0	-0.28069115
93	0x3d771061	0.060318355
94	0xbd4e2b93	-0.050334524
95	0xbc870803	-0.016483312
96	0x3ad65d75	0.0016354757
97	0xbe79feb4	-0.24413568
98	0xbe96b3cd	-0.29434052
99	0xbd99aa70	-0.075032115
100	0xbe1974dc	-0.14985985
101	0xbd581cb3	-0.052761745
102	0xbdb2ce9d	-0.087308146
103	0xbce75dd2	-0.02824298
104	0xbd9bb4c9	-0.076028414
105	0xbdd4292a	-0.10359414
106	0x3c79f06b	0.015255074
107	0xbdeae43a	-0.11469312
108	0x3e166f75	0.14690955
109	0xbe982f21	-0.29723457
110	0x3d5927ee	0.053016596
111	0x3d497c19	0.049190614
112	0x3d15ad0d	0.036541987
113	0x3e3fe19d	0.18738408
114	0xbe37dfb7	-0.17956434
115	0xbdb651b1	-0.089023
116	0x3d2a30e4	0.041550532
117	0x3d8439f3	0.064563654
118	0x3cfdfe2e	0.031004991
119	0xbe2ced9c	-0.16887516
120	0xbd2f01fe	-0.04272651
121	0xbdce9d07	-0.10088544
122	0xbdf6b443	-0.12046101
123	0xbd64c580	-0.055852413
124	0xbde028bf	-0.10945272
125	0x3e067b13	0.13132887
126	0xbe2ce9fa	-0.1688613
127	0xbda21ce0	-0.07915664
128	0xbc6f9dee	-0.014625056
129	0x3bc9405c	0.0061417054
130	0xbe157951	-0.1459706
131	0xbe48f6fa	-0.19625464
132	0x3e7b7135	0.24554904
133	0xbc3ffb8f	-0.011717691
134	0xbeb5ab7d	-0.35482398
135	0xbdeef416	-0.116676494
136	0xbbc34870	-0.005959563
137	0x3c9d613b	0.019211402
138	0xbbdb2e86	-0.0066888956
139	0xbcffdeda	-0.031234194
140	0x3ce0b3f5	0.02742956
141	0xbe187e61	-0.1489196
142	0x3d9c96e0	0.076459646
143	0x3c886d43	0.016653663
144	0xbc04c56e	-0.0081037115
145	0xbe620543	-0.2207232
146	0x3cf639d1	0.030056866
147	0x3d1bafe7	0.03800955
148	0xbdab03b1	-0.083503135
149	0x3e120827	0.14260922
150	0xbe89d608	-0.26921105
151	0x3bb97d6f	0.005660705
152	0x3cef4a10	0.02921012
153	0x3dc539d6	0.09630172
154	0x3d72416d	0.059144426
155	0xbd2469c3	-0.040139925
156	0xbde41d30	-0.111383796
157	0x3d065edf	0.03280532
158	0xbd876e2a	-0.06612809
159	0x3bd092b3	0.006365144
160	0x3d82eebe	0.06393193
161	0x3e52d05d	0.20587297
162	0xbbdf2ded	-0.0068108947
163	0xbdc0e9c7	-0.094195895
164	0xbe9a07d3	-0.30084094
165	0xbebf2901	-0.3733597
166	0xbddd702d	-0.108124115
167	0x3ce5456c	0.027987204
168	0x3dd5b0d8	0.10434121
169	0x3df42b53	0.11922326
170	0xbdbc0d71	-0.09182251
171	0x3deeda43	0.11662724
172	0x3d60c926	0.05487933
173	0x3ddf3e6b	0.10900577
174	0x3db87ab8	0.09007782
175	0xbd9dc3bb	-0.07703348
176	0x3e1d8bc9	0.15385355
177	0x3d35df1e	0.044402234
178	0x3b4860e7	0.0030575336
179	0xbe9ea205	-0.30982986
180	0xbd8d4ca7	-0.06899386
181	0xbd5d3eac	-0.054014847
182	0x3e4f1498	0.202227
183	0xbd7e0cc5	-0.062023897
184	0x3e29b4aa	0.16572824
185	0x3dfe1e43	0.12408116
186	0x3ca3bc79	0.019987332
187	0xbe60c5ab	-0.21950404
188	0x3cd54e3b	0.02603828
189	0xbe87c3f0	-0.26516676
190	0x3e306e15	0.17229493
191	0xbd18ba61	-0.03728712
192	0xbd8ab6d8	-0.06773156
193	0xbeb8ce4d	-0.36094895
194	0xbe58d6b2	-0.2117565
195	0xbeb0c438	-0.34524703
196	0xbe191f05	-0.1495324
197	0xbe8c1f2c	-0.27367532
198	0xbe728fc3	-0.23687653
199	0xbe833480	-0.25625992
200	0x3c68ee3a	0.014216954
201	0x3d1bf29a	0.03807316
202	0x3ed0e09a	0.40796357
203	0x3e323116	0.17401537
204	0x3e9bf3d1	0.30459455
205	0x3e9fa033	0.3117691
206	0x3c5406bc	0.012941059
207	0xbde541f7	-0.111942224
208	0xbd74f632	-0.059805103
209	0x3e11d6ee	0.14242145
210	0xbe8d76cc	-0.27629697
211	0xbde52f3e	-0.11190651
212	0xbdc00552	-0.09376015
213	0xbd5d48c5	-0.054024477
214	0x3c92befd	0.017913336
215	0x3d6269ff	0.055276867
216	0xbe52deaa	-0.20592752
217	0x3db2ce40	0.08730745
218	0x3eabf9aa	0.33588916
219	0xbe02d3d3	-0.12776117
220	0x3d59c56c	0.05316679
221	0xbe8041a1	-0.2505007
222	0xbe500ec3	-0.20318131
223	0xbe905e0a	-0.28196746
224	0xbc87c2b3	-0.016572332
225	0x3d9ef3b2	0.07761325
226	0x3d029135	0.03187676
227	0x3dcfec5b	0.10152503
228	0x3e134aab	0.14383952
229	0x3dac18ef	0.08403193
230	0xbe2e892d	-0.17044516
231	0x3e08443c	0.1330728
232	0x3ec202f5	0.3789288
233	0x3cfbfe42	0.030760888
234	0xbe92d6e0	-0.28679562
235	0xbe5bcb31	-0.2146423
236	0x3d6eabe2	0.05826939
237	0xbe1c1b4b	-0.15244786
238	0x3d8b8f8b	0.06814488
239	0x3c443e69	0.01197777
240	0x3ca9d3e3	0.020730918
241	0x3deea7e0	0.11653113
242	0x3e6e1984	0.23251921
243	0xbe356e8a	-0.17717949
244	0x3a810ad5	0.0009845147
245	0x3c1500da	0.009094441
246	0xbe7fb666	-0.24971923
247	0x3db0c661	0.08631588
248	0xbd989ffc	-0.074523896
249	0x3e392df1	0.18083932
250	0x3cb06d8f	0.021536617
251	0xbd713c68	-0.0588955
252	0xbdb1d63e	-0.086834416
253	0xbe18d2e7	-0.14924203
254	0x3e35a953	0.17740373
255	0xbe30ef60	-0.17278814

module.net_ts.layer1.0.bn1.weight f4 [32]
0	0x3f0c516d	0.54811746
1	0x3f555971	0.833396
2	0x3f678735	0.90440685
3	0x3f54c9bd	0.8312033
4	0x3f483739	0.78209263
5	0x3f29356e	0.6609715
6	0x3f23e393	0.64019126
7	0x3f3a7c7d	0.72846204
8	0x3f26c14d	0.65138704
9	0x3f1fa7c9	0.62365395
10	0x3f37fef2	0.7187339
11	0x3f50e6d7	0.81602234
12	0x3f2d1469	0.6760927
13	0x3f2a0b12	0.6642314
14	0x3f3d1412	0.7385875
15	0x3f1687ab	0.5880076
16	0x3f46489e	0.77454555
17	0x3f3ac945	0.7296336
18	0x3f1afcab	0.6054179
19	0x3f52d317	0.8235335
20	0x3f2301a9	0.6367441
21	0x3f1a5f5e	0.6030177
22	0x3f3ca9c8	0.73696566
23	0x3f2545f0	0.6455984
24	0x3f2f65e9	0.6851488
25	0x3f5f9855	0.87341815
26	0x3f4159f0	0.7552786
27	0x3f22b25e	0.63553417
28	0x3f648e4d	0.89279634
29	0x3f41170c	0.7542579
30	0x3f42247a	0.7583691
31	0x3f1f7c71	0.6229926

module.net_ts.layer1.0.bn1.bias f4 [32]
0	0xbd44dafd	-0.048060406
1	0xbe9651fd	-0.29359427
2	0xbeaa16b8	-0.33220458
3	0xbdd56d9d	-0.10421298
4	0xbd8ab5ee	-0.067729816
5	0x3da3fe95	0.08007542
6	0xbdecf168	-0.11569482
7	0xbdec6842	-0.11543323
8	0xbc5d9b09	-0.013525733
9	0x3dc5ccec	0.09658226
10	0xbdad54a7	-0.08463412
11	0xbe5515cc	-0.20809096
12	0xbe67549f	-0.22590874
13	0x3d3f6686	0.046728633
14	0xbea34e72	-0.31895787
15	0xbde79093	-0.11306872
16	0xbe072a7f	-0.13199805
17	0xbe19b229	-0.15009369
18	0xbd9c95a6	-0.07645731
19	0xbe582432	-0.21107557
20	0xbe2335dd	-0.15938516
21	0xbdd9368c	-0.10606107
22	0xbe2948d1	-0.16531684
23	0xbe019c31	-0.12657239
24	0xbda3736d	-0.07981
25	0xbe589de0	-0.21153975
26	0xbe41b942	-0.18918326
27	0xbd9f9a39	-0.077930875
28	0xbe8aa8bb	-0.27081856
29	0xbe28e49f	-0.16493462
30	0xbd458995	-0.04822691
31	0xbe237bf8	-0.15965259

module.net_ts.layer1.0.bn1.running_mean f4 [32]
0	0x3e02661a	0.12734261
1	0xbff86b82	-1.9407809
2	0xbded8902	-0.11598398
3	0xbfe51bff	-1.7899169
4	0xbf40f7f2	-0.75378335
5	0xbf9bd95d	-1.2175709
6	0x3e3e48be	0.18582436
7	0xbee0a8f6	-0.43878907
8	0xbf2c155b	-0.67220086
9	0x3f8be902	1.0930483
10	0xbfad6837	-1.3547429
11	0xbeb78e2b	-0.35850653
12	0x3e6320a8	0.22180426
13	0xbf3d9290	-0.7405176
14	0xc011037b	-2.2658374
15	0xbf827935	-1.019324
16	0xbe832210	-0.25611925
17	0xbf295f2f	-0.66160864
18	0xbf720a96	-0.945474
19	0x3eeeada0	0.4661684
20	0x3e73b3d1	0.23799063
21	0xbf3919ca	-0.72304976
22	0xbedbaa3e	-0.42903322
23	0xbfeb527c	-1.8384547
24	0xbda50f4a	-0.08059557
25	0xbf9dcafd	-1.2327572
26	0x3dd7e45d	0.10541604
27	0xbf570350	-0.8398943
28	0xbfca1539	-1.5787727
29	0xbf8e45a9	-1.1115009
30	0xbfb21a3c	-1.3914256
31	0x3e0861ad	0.1331851

module.net_ts.layer1.0.bn1.running_var f4 [32]
0	0x3f4267d2	0.7593967
1	0x3fc9f427	1.5777634
2	0x3fe04ea5	1.7524
3	0x400e0801	2.2192385
4	0x3fe9220a	1.8213513
5	0x3fc33222	1.5249674
6	0x3fa1a9f0	1.2629986
7	0x3fc2bbc6	1.5213554
8	0x3fae2c23	1.360722
9	0x3f889b68	1.0672426
10	0x3fba3ad8	1.4549208
11	0x3f977c55	1.1834818
12	0x3f7c7553	0.9861652
13	0x3fc8201d	1.56348
14	0x3fdcaa35	1.7239443
15	0x3fa19f98	1.2626829
16	0x3f9e4cb6	1.236716
17	0x3f7817c2	0.9691125
18	0x3f8d05ed	1.1017433
19	0x3f9c8916	1.2229335
20	0x3f6fb570	0.93636227
21	0x3f632f55	0.887441
22	0x3f81bd67	1.0135926
23	0x3fb97794	1.4489617
24	0x3fae8bbe	1.3636396
25	0x40029c12	2.0407758
26	0x3f9698c0	1.1765366
27	0x3f933984	1.1501927
28	0x3fe0f258	1.7573957
29	0x3fdb8fb5	1.7153231
30	0x3ff5cefe	1.9203794
31	0x3f862550	1.0480137

module.net_ts.layer1.0.conv2.weight f4 [32, 32, 3]
0	0xbda5a6b2	-0.08088435
1	0x3cb9d646	0.022685181
2	0x3deaa908	0.114580214
3	0x3e015fa2	0.12634137
4	0xbd5a9924	-0.053368703
5	0x3e4734b6	0.19453701
6	0xbe84f45b	-0.25967678
7	0x3e5b835a	0.21436825
8	0x3d785189	0.060624633
9	0xbdd7879a	-0.10523911
10	0xbe7e6e67	-0.24846803
11	0x3dcc02e5	0.099614896
12	0xbe27ed9c	-0.16399235
13	0x3e9a4c56	0.30136365
14	0xbea73c23	-0.32663068
15	0xbd9b0669	-0.07569582
16	0x3e9f2b19	0.31087568
17	0x3db322b9	0.08746857
18	0x3e387f45	0.180173
19	0x3de78f83	0.113066696
20	0x3e26ccbc	0.16289037
21	0xbe5277e8	-0.20553553
22	0xbe18a71f	-0.14907502
23	0xbda02214	-0.07819
24	0xbd7a841a	-0.061161138
25	0x3e73bdba	0.23802844
26	0x3d6f2c0d	0.05839162
27	0x3cdb288f	0.026752738
28	0xbbee233a	-0.007267383
29	0xbdc7dc9f	-0.09758877
30	0xbd09ba50	-0.033624947
31	0x3d9af816	0.0756685
32	0xbd4be182	-0.049775608
33	0x3e8652e6	0.2623512
34	0xbe1bc5bf	-0.15212153
35	0xbdaca283	-0.08429434
36	0xbd5bbdcc	-0.0536478
37	0x3df82834	0.12117043
38	0xbe96be35	-0.2944199
39	0xbe0ef744	-0.13961512
40	0x3dbdf15a	0.0927455
41	0x3d8d47da	0.0689847
42	0xbd95104f	-0.07278501
43	0x3e53960c	0.20662707
44	0x3e51f387	0.20503055
45	0x3e37a7e7	0.17935143
46	0x3e072fd3	0.13201837
47	0xbe2e631e	-0.17029998
48	0x3d681024	0.056656018
49	0x3d105d81	0.035245422
50	0x3e7a74cc	0.24458617
51	0x3e1d826f	0.15381788
52	0xbe32760b	-0.17427842
53	0xbe2a1746	-0.1661044
54	0x3d32211f	0.043488618
55	0xbe0109af	-0.1260135
56	0xbe79576e	-0.24349758
57	0xbe3d7307	-0.1850091
58	0x3ea75efa	0.3268965
59	0xbdf6407f	-0.120240204
60	0x3d41f422	0.047351964
61	0xbe16b220	-0.14716387
62	0xbc4ce446	-0.0125055965
63	0xbe46ea6a	-0.1942536
64	0x3eca30ab	0.39490256
65	0x3d7cc73d	0.061713446
66	0xbe45bb10	-0.1930964
67	0xbd7acdd1	-0.061231438
68	0xbe21b310	-0.15790963
69	0x3c4b5753	0.012410956
70	0x3e308dd0	0.17241597
71	0xbe0f6e03	-0.1400681
72	0xbdd0d72c	-0.10197291
73	0xbe10136e	-0.14069912
74	0x3d950505	0.07276348
75	0xbd353c6f	-0.044247087
76	0x3eb62477	0.35574695
77	0xbe20796e	-0.15671322
78	0xbe45e408	-0.19325268
79	0x3d4b7218	0.049669355
80	0x3e1670bf	0.14691447
81	0x3dfaa965	0.12239341
82	0xbd4000af	-0.046875652
83	0x3bc235b0	0.00592681
84	0xbcc4fb01	-0.02404547
85	0x3e536930	0.20645595
86	0x3e16530a	0.14680114
87	0x3d32c4ea	0.043644823
88	0x3eb6b84b	0.3568748
89	0xbe495dbb	-0.19664662
90	0xbe3ea70e	-0.18618414
91	0x3e3d351a	0.18477288
92	0xbd458a73	-0.04822774
93	0x3c1bfeb8	0.009521179
94	0xbe28ba9f	-0.1647744
95	0x3e2b83d2	0.16749504
96	0xbe415e0f	-0.18883537
97	0xbd9ce046	-0.07659964
98	0xbcacebc0	-0.021108508
99	0x3e8126e7	0.25224993
100	0x3c85c763	0.016330427
101	0x3e32d391	0.17463519
102	0x3e547844	0.20749003
103	0x3e82474f	0.2544503
104	0xbc2300d9	-0.009948933
105	0x3c123ed0	0.0089261085
106	0x3d934de6	0.07192592
107	0x3ccb5d4e	0.024824765
108	0xbd64e303	-0.055880558
109	0xbe469859	-0.19394054
110	0x3d9599bf	0.07304715
111	0xbcfca80f	-0.030841855
112	0x3df31599	0.11869354
113	0xbd238eda	-0.039931156
114	0xbed48824	-0.41510117
115	0xbd59a29b	-0.05313359
116	0xbe0697d6	-0.13143858
117	0x3c7e5995	0.015524288
118	0x3de2596c	0.11052212
119	0xbda58931	-0.08082808
120	0x3e3fb57a	0.18721572
121	0x3e17d4a9	0.14827217
122	0xbe6c7d70	-0.23094726
123	0xbe16d8e2	-0.14731172
124	0xbccff132	-0.025383566
125	0x3e391d65	0.1807762
126	0x3e6f3597	0.23360287
127	0xbe12cc78	-0.14335811
128	0x3dda4c2d	0.106590606
129	0x3d98c750	0.07459891
130	0x3dd795fa	0.10526653
131	0xbd40cab7	-0.047068324
132	0xbe05fe46	-0.13085279
133	0xbcce3012	-0.025169406
134	0x3e94121d	0.2892007
135	0xbe86d536	-0.26334542
136	0xbdde4b3c	-0.108541936
137	0x3e4def2e	0.20110771
138	0x3dd7efeb	0.105438076
139	0x3e45e031	0.19323803
140	0xbd96c62a	-0.073620155
141	0x3cc1a5f8	0.02363871
142	0xbd9730e5	-0.07382373
143	0xbdf3593a	-0.11882253
144	0x3e0257ad	0.12728758
145	0x3d15e9e8	0.036600024
146	0xbd0c8833	-0.034309577
147	0x3d998238	0.074955404
148	0x3d8a29e9	0.06746275
149	0xbd52e539	-0.051488135
150	0xbdba9282	-0.091099754
151	0xbd3697db	-0.044578414
152	0xbd72f565	-0.059316058
153	0x3e83aca0	0.2571764
154	0x3e2752a8	0.16340125
155	0x3c859de6	0.016310643
156	0xbd8f3d26	-0.06994085
157	0xbbd85c25	-0.0066027814
158	0x3ded57d8	0.115890205
159	0xbe1d386c	-0.15353554
160	0x3c2120f9	0.009834521
161	0xbd199c26	-0.03750243
162	0x3c55c51e	0.013047485
163	0xbe2473a5	-0.1605974
164	0xbe15c856	-0.14627203
165	0x3d3febee	0.04685586
166	0xbe1af932	-0.15134123
167	0x3d8896ca	0.06669386
168	0x3d1fdf52	0.039031334
169	0xbe27875b	-0.16360228
170	0x3abdf489	0.0014492433
171	0x3e576104	0.21033102
172	0xbd2b3c45	-0.041805524
173	0x3d219e72	0.039457746
174	0xbe1afec1	-0.15136243
175	0xbcb03cc4	-0.02151335
176	0x3e3a8d38	0.18217933
177	0xbbebcffa	-0.0071964236
178	0x3dd16938	0.10225147
179	0x3e061b55	0.13096364
180	0x3e5587bf	0.20852564
181	0xb9b52c69	-0.00034556098
182	0x3cf8a422	0.030351702
183	0xbd57d8a5	-0.052696843
184	0x3de54e11	0.111965306
185	0xbce5e020	-0.028060973
186	0xbe7fb27a	-0.24970427
187	0x3e01c430	0.12672496
188	0x3debbfd1	0.115111955
189	0xbea27d12	-0.31736046
190	0xbe0ed62d	-0.13948889
191	0x3e16383a	0.14669886
192	0x3bc762e2	0.006084786
193	0xbc8e15e3	-0.01734442
194	0xbdff1c89	-0.124566145
195	0xbe2ef617	-0.17086063
196	0x3cb0390e	0.02151158
197	0x3dcef42d	0.101051666
198	0xbd30eef6	-0.04319664
199	0x3d87481b	0.0660555
200	0xbdae8df8	-0.08523172
201	0x3dd6bc5f	0.10485148
202	0xbc7bd73f	-0.015371143
203	0x3c2580a8	0.010101475
204	0xbd83ee33	-0.06441917
205	0xbbfa454f	-0.0076376568
206	0x3c0044fd	0.007828948
207	0x3d9109e1	0.070819624
208	0x3e8aaf11	0.2708669
209	0x3d80a980	0.062823296
210	0x3d762953	0.060098004
211	0xbe72bb92	-0.23704365
212	0xbcf58023	-0.029968327
213	0x3cebe6b8	0.028796539
214	0xbddb7d89	-0.10717303
215	0xbe547494	-0.20747596
216	0x3e416f80	0.1889019
217	0x3d2d01e2	0.042238124
218	0xbd36500b	-0.04450993
219	0xbe52ffc1	-0.20605375
220	0xbe38be84	-0.18041426
221	0x3e17e1b6	0.14832196
222	0xbd47ffcc	-0.04882793
223	0x3e7b040e	0.24513265
224	0xbe137d51	-0.14403273
225	0xbd38a758	-0.045081466
226	0x3d104d95	0.035230238
227	0x3ce6de4b	0.02818217
228	0xbe8504c7	-0.25980207
229	0xbda68a7d	-0.08131883
230	0x3e892111	0.2678304
231	0x3dc9742a	0.0983661
232	0xbc7358e7	-0.014852739
233	0xbe6e2f9c	-0.23260349
234	0x3e1c16df	0.152431
235	0xbde7696a	-0.11299403
236	0xbe471535	-0.19441684
237	0x3e33a436	0.1754311
238	0x3e877283	0.26454553
239	0xbe33f7d8	-0.17575014
240	0x3e0f61b4	0.14002115
241	0xbea34b25	-0.31893268
242	0x3e25de81	0.1619816
243	0xbcbdd95c	-0.023174934
244	0xbe26ca74	-0.16288167
245	0xbdca703e	-0.0988469
246	0xbbe574a5	-0.0070024305
247	0xbddc1fb2	-0.10748233
248	0xbe3d7d18	-0.1850475
249	0xbddcc487	-0.10779672
250	0x3d8f88ce	0.07008515
251	0x3debaa2e	0.115070686
252	0xbdb3b17e	-0.08774088
253	0xbe181518	-0.14851797
254	0xbce2c1f1	-0.02768037
255	0x3da090dd	0.078401305

module.net_ts.layer1.0.bn2.weight f4 [32]
0	0x3f22273c	0.63341117
1	0x3f385e31	0.72018725
2	0x3ef3dcba	0.47629339
3	0x3f3cfaad	0.7382
4	0x3f19fad2	0.60148346
5	0x3f26832d	0.6504391
6	0x3f3e672b	0.7437617
7	0x3f398ecb	0.7248351
8	0x3f2fc623	0.6866171
9	0x3f36a4c5	0.7134517
10	0x3f335b41	0.7006112
11	0x3f1cc664	0.6124022
12	0x3f3983aa	0.7246653
13	0x3f356a83	0.7086565
14	0x3f30a9a1	0.69008833
15	0x3f3b372e	0.7313107
16	0x3f559ea7	0.8344521
17	0x3f08eea1	0.5348912
18	0x3f17bca2	0.59272206
19	0x3f1a141e	0.60186946
20	0x3f28fe4e	0.6601304
21	0x3f124891	0.5714198
22	0x3f411ae4	0.75431657
23	0x3f2986b1	0.6622115
24	0x3f4ada5f	0.7923946
25	0x3f4baaaf	0.7955732
26	0x3f29da08	0.66348314
27	0x3f1e015d	0.6172083
28	0x3f3c30bc	0.7351186
29	0x3f468217	0.7754225
30	0x3f403b00	0.75090027
31	0x3f4517de	0.76989543

module.net_ts.layer1.0.bn2.bias f4 [32]
0	0xbd6f8c97	-0.058483686
1	0xbc3c4057	-0.011489949
2	0xbde4676f	-0.11152541
3	0xbd9d6a3d	-0.07686279
4	0xbde9af06	-0.11410336
5	0xbe0b4539	-0.13600625
6	0x3d38f567	0.04515591
7	0xbdb80def	-0.089870326
8	0xbd4eb0d5	-0.05046161
9	0xbde81af3	-0.11333265
10	0x3dbd8281	0.09253407
11	0xbe540766	-0.20705947
12	0xbdcd10af	-0.10012948
13	0x3d1b2460	0.037876487
14	0xbe131e19	-0.1436695
15	0x3d8f44b4	0.06995526
16	0xbe20f883	-0.157198
17	0x39c89842	0.00038260414
18	0xbcb6df9b	-0.02232342
19	0xbe32307c	-0.17401308
20	0xbd474a95	-0.04865511
21	0x3d831179	0.06399817
22	0x3d7c1ad8	0.061549038
23	0xbe4f9212	-0.20270565
24	0xbd956c2f	-0.07296025
25	0xbe90be4b	-0.28270182
26	0xbd8e9572	-0.06962098
27	0xbe931300	-0.28725433
28	0xbddd746c	-0.10813221
29	0xbd835ada	-0.06413813
30	0x3ce01092	0.027351651
31	0xbdd43fa3	-0.103637

module.net_ts.layer1.0.bn2.running_mean f4 [32]
0	0x3e2ae9d5	0.16690762
1	0x3e3a56b7	0.18197142
2	0xbd8dd532	-0.069254294
3	0x3df2ab98	0.11849135
4	0xbec18159	-0.37793997
5	0xbd59dfc3	-0.05319191
6	0xbea334a5	-0.31876102
7	0x3e1ef914	0.15524703
8	0xbec5bf87	-0.38622686
9	0xbe65b488	-0.22432148
10	0xbf0ce5cf	-0.5503816
11	0xbf032e75	-0.5124276
12	0x3e812765	0.25225368
13	0xbf01bf9d	-0.50683004
14	0x3e6cb3e0	0.23115492
15	0xbeacb69c	-0.3373307
16	0xbe549446	-0.20759687
17	0xbe890197	-0.26759025
18	0x3e4f72f4	0.20258695
19	0xbeacf413	-0.33779964
20	0xbedcd4dd	-0.43131152
21	0xbe0b28c9	-0.13589777
22	0x3d11b1e8	0.035570055
23	0xbdbf7fc5	-0.09350542
24	0xbd868fb2	-0.065703765
25	0xbe9faeab	-0.3118795
26	0xbe3c4cbf	-0.18388651
27	0xbdb2594a	-0.08708437
28	0xbf1059fd	-0.5638731
29	0xbe80dc6c	-0.2516817
30	0xbf3fe64f	-0.749608
31	0xbef83e49	-0.4848502

module.net_ts.layer1.0.bn2.running_var f4 [32]
0	0x3ed1b76e	0.40960258
1	0x3f04a0b4	0.51807714
2	0x3eb40fb3	0.35168228
3	0x3eb35a39	0.35029772
4	0x3ef5853b	0.4795321
5	0x3eee1261	0.46498397
6	0x3ebb8b81	0.3662987
7	0x3ec99f55	0.39379373
8	0x3ebd74ff	0.37003323
9	0x3ec28e7f	0.3799934
10	0x3f207920	0.6268482
11	0x3ea33e2e	0.31883377
12	0x3ec15d2a	0.3776639
13	0x3ed553df	0.4166555
14	0x3ec66a55	0.38753
15	0x3efca8ca	0.49347526
16	0x3ee3de7f	0.4450569
17	0x3f05c27a	0.5224987
18	0x3ec2624f	0.37965629
19	0x3eb667a7	0.35625955
20	0x3f0bd9bb	0.54629105
21	0x3ec02fe5	0.3753654
22	0x3ed7c97e	0.42145914
23	0x3ec3bac0	0.38228416
24	0x3ed1e409	0.4099429
25	0x3eeda694	0.46416152
26	0x3f0437df	0.5164775
27	0x3ec34697	0.38139793
28	0x3f118258	0.56839514
29	0x3eccf633	0.40031585
30	0x3ee1a0eb	0.44068083
31	0x3ec3043e	0.38089174

module.net_ts.layer2.0.conv1.weight f4 [32, 32, 3]
0	0xbd935975	-0.07194797
1	0x3cad7d0c	0.021177791
2	0x3dcdbc77	0.100457124
3	0xbe319951	-0.17343642
4	0x3e3c50de	0.18390223
5	0xbe335577	-0.17513071
6	0xbd24b8b9	-0.040215228
7	0xbd486903	-0.048928272
8	0xbe29d7fe	-0.165863
9	0xbe61f81e	-0.22067305
10	0xbe830c13	-0.2559515
11	0x3e1eb513	0.15498762
12	0x3e089081	0.13336374
13	0xbcccccf9	-0.025000082
14	0xbd059c7c	-0.03261994
15	0xbeb3672a	-0.35039645
16	0x3b8a29ce	0.0042164093
17	0x3ea47f5c	0.32128417
18	0xbea68381	-0.32522205
19	0x3b1583b2	0.0022814092
20	0x3e38c173	0.18042545
21	0xbc07a79b	-0.008279706
22	0xbcea250e	-0.028582122
23	0x3ce70040	0.028198361
24	0x3c56b6fe	0.013105152
25	0x3ddffefe	0.10937308
26	0x3ebe60dc	0.37183273
27	0x3e42afc4	0.19012362
28	0x3b830d7b	0.0039994097
29	0x3e481724	0.19540077
30	0xbcaff9b0	-0.021481365
31	0xbe0c073c	-0.13674635
32	0x3c318caf	0.010836764
33	0xbe73b130	-0.2379806
34	0xbe07ee3e	-0.13274476
35	0x3e04280b	0.129059
36	0xbcb5c490	-0.022188455
37	0xbe48f618	-0.19625127
38	0x3dfc523b	0.12320372
39	0xbde92125	-0.11383275
40	0x3e120522	0.1425977
41	0x3d83cf86	0.06436066
42	0xbe0382fd	-0.12842937
43	0x3c3dfa1d	0.011595276
44	0x3d64e7f5	0.055885274
45	0xbd910655	-0.07081286
46	0xbdb42067	-0.08795243
47	0xbcdc8f65	-0.026923845
48	0xbe0f30e1	-0.1398349
49	0xbe3128df	-0.17300747
50	0xbcaa7145	-0.020805964
51	0x3e405760	0.18783331
52	0x3eb50934	0.35358584
53	0xbd55fbb2	-0.05224199
54	0xbe0813c8	-0.13288796
55	0x3d69b265	0.057054896
56	0xbd474ee3	-0.048659217
57	0x3c7e7f9a	0.015533352
58	0xbdff8923	-0.12477329
59	0xbd54e246	-0.051973604
60	0xbe5f0242	-0.21778205
61	0xbd085d23	-0.033291947
62	0xbe3e9463	-0.18611293
63	0x3e2280c3	0.15869431
64	0xbe0876dc	-0.13326591
65	0x3c252f9d	0.010082153
66	0xbe5530ef	-0.20819448
67	0xbdc10597	-0.09424894
68	0xbc9eff0a	-0.019408721
69	0xbe483889	-0.19552816
70	0x3e82b5cc	0.25529325
71	0x3e0e0260	0.13868093
72	0xbda63dd1	-0.08117259
73	0x3cdc65e3	0.026904052
74	0xbd833db8	-0.06408256
75	0xbe635039	-0.22198571
76	0xbe263006	-0.16229257
77	0xbdee3e0b	-0.116329275
78	0xbe4690eb	-0.1939122
79	0x3b071b28	0.0020615552
80	0x3dbd9102	0.09256174
81	0xbe329211	-0.17438532
82	0xbdb87608	-0.09006888
83	0xbe82be8e	-0.25536007
84	0xbdb7086f	-0.089371555
85	0xbe6ba571	-0.2301233
86	0xbbd9d6f8	-0.0066479407
87	0xbe0576d1	-0.13033606
88	0xbd5570bc	-0.052109465
89	0xbe389106	-0.18024072
90	0xbe5d3847	-0.216035
91	0x3db06abf	0.0861411
92	0x3d07df81	0.033172134
93	0xbdd949d2	-0.10609783
94	0x3e0c7c6f	0.13719343
95	0xbe062c45	-0.13102825
96	0xbe6f68ff	-0.23379897
97	0xbe447acd	-0.1918747
98	0xb9f546d3	-0.0004678281
99	0x3c519fc5	0.01279444
100	0xbe03a6c0	-0.12856579
101	0x3df96275	0.12176982
102	0x3dc979cf	0.09837686
103	0x3db38904	0.08766368
104	0xbd86b0a9	-0.06576664
105	0xbded7727	-0.11594992
106	0x3d1661d4	0.03671439
107	0x3e4ff887	0.2030965
108	0x3e5e0e79	0.21685208
109	0xbdfa73eb	-0.12229141
110	0xbde1de94	-0.110287815
111	0xbe033133	-0.12811737
112	0x3e1eecd0	0.15520024
113	0xbdac7cd5	-0.08422247
114	0x3e2cb9e7	0.16867791
115	0xbd4d3a77	-0.050104585
116	0xbd784be8	-0.060619265
117	0x3df8299a	0.1211731
118	0xbc932335	-0.017961124
119	0x3e3f7dd2	0.1870034
120	0xbda3e9f2	-0.08003606
121	0x3ca0f3aa	0.019647438
122	0xbc947331	-0.018121334
123	0xbd29674e	-0.041358285
124	0xbd41c01a	-0.047302343
125	0xbe4494f4	-0.19197446
126	0xbe5cf7a8	-0.21578848
127	0x3e6548db	0.22391073
128	0x3df8c280	0.12146473
129	0xbcd53a4f	-0.02602878
130	0x3cd88af2	0.026433442
131	0xbd96c454	-0.07361665
132	0xbdf6dd69	-0.120539494
133	0xbe98f667	-0.2987549
134	0xbd56a12b	-0.052399796
135	0x3ea45f7d	0.32104102
136	0xbe20f778	-0.15719402
137	0x3d54cc29	0.051952515
138	0xbd0185ea	-0.03162185
139	0xbe8b5d3c	-0.2721957
140	0xbe0b4d11	-0.13603617
141	0xbe7c50f2	-0.24640253
142	0x3cf1caaf	0.029515592
143	0xbc51ea09	-0.012812146
144	0x3e54c859	0.20779552
145	0xbe9fbb1e	-0.31197447
146	0xbc8f8853	-0.01752106
147	0x3df48f4e	0.11941396
148	0xbeb24bc0	-0.34823418
149	0x3e8a75f1	0.27043107
150	0x3e5ce338	0.21571052
151	0xbeafa590	-0.34306002
152	0xbdaa395b	-0.08311721
153	0xbd112d3b	-0.035443526
154	0xbcb9b722	-0.022670332
155	0xbe146154	-0.14490253
156	0xbd5e32da	-0.054247715
157	0xbe2acaa3	-0.16678862
158	0x3e819e06	0.25315875
159	0xbe4d9e9c	-0.20080036
160	0x3d4cf838	0.050041407
161	0xb80b096b	-3.3148954e-05
162	0x3dea5297	0.11441534
163	0xbd1be14a	-0.03805665
164	0x3e1b1788	0.15145695
165	0x3da521b2	0.080630675
166	0x3e40d7d8	0.18832338
167	0xbe605a18	-0.21909368
168	0x3e36ac03	0.17839055
169	0xbe211c80	-0.15733528
170	0xbb2a54dd	-0.0025990524
171	0xbe0da4f9	-0.13832463
172	0xbbc3d2a1	-0.0059760367
173	0xbd42f4b5	-0.047596652
174	0xbe338654	-0.17531711
175	0xbdc90cc4	-0.09816888
176	0x3d6cd2bd	0.057818163
177	0x3e0bcfd9	0.13653506
178	0xbe60e9d7	-0.21964203
179	0x3d18b3b0	0.03728074
180	0x3d17fce8	0.037106425
181	0x3df9bc17	0.121940784
182	0xbda92bfe	-0.08260344
183	0xbe017fce	-0.1264641
184	0xbd8cda4f	-0.068775766
185	0xbd84f32c	-0.06491694
186	0x3ddec814	0.108780056
187	0xbd58ceba	-0.052931525
188	0x3e2c77c5	0.16842563
189	0xbe01c02e	-0.12670967
190	0x3cdd3316	0.027001899
191	0xbe0352e3	-0.12824588
192	0x3e04ae51	0.12957121
193	0x3e039051	0.12848021
194	0x3d853b57	0.06505459
195	0x3c8129d9	0.015767025
196	0xbdcaa390	-0.09894478
197	0x3e5bb712	0.21456555
198	0xbcd794f6	-0.026316147
199	0x3dd70039	0.10498089
200	0x3e2be4aa	0.16786447
201	0xbcf32b8b	-0.029683849
202	0x3db12cc1	0.08651114
203	0xbc75fdec	-0.015014153
204	0x3b762b77	0.0037562528
205	0xbd8ee900	-0.06978035
206	0x3e8ca17a	0.27466947
207	0x3e8642d9	0.26222876
208	0x3e614267	0.21997987
209	0xbc20fa58	-0.009825312
210	0x3dcd0018	0.100097835
211	0xbcabcb8c	-0.020971082
212	0xbe2d89c8	-0.1694709
213	0xbb8f233e	-0.004368215
214	0x3d2485ba	0.040166594
215	0x3e82bec0	0.25536156
216	0xbe8ac598	-0.27103877
217	0x3e4b1e06	0.19835672
218	0x3deb7aa3	0.114980005
219	0x3ca40d6c	0.020025931
220	0x3d0ae527	0.033909943
221	0x3d4fadc3	0.05070282
222	0x3da2e743	0.07954266
223	0x3deecec5	0.11660532
224	0xbdf54a59	-0.11977071
225	0xbde8ac9e	-0.11361049
226	0xbe27df93	-0.1639388
227	0xbd127d72	-0.035764165
228	0x3e466c83	0.19377331
229	0xbe0e7614	-0.1391223
230	0x3cfff869	0.03124638
231	0x3d636512	0.05551631
232	0xbd91975b	-0.07108947
233	0x3e10469f	0.1408944
234	0xbd82aef4	-0.06381026
235	0x3d5fa7bc	0.054603323
236	0x3e08f126	0.13373241
237	0xbc907886	-0.017635595
238	0x3da138ad	0.07872138
239	0x3e779961	0.24179603
240	0xbe60ec1a	-0.21965066
241	0x3cc18ed4	0.023627676
242	0xbaa61955	-0.0012672344
243	0xbe665b0b	-0.22495668
244	0x3dd13a57	0.102162056
245	0xbebce3aa	-0.36892444
246	0xbe18488a	-0.14871421
247	0x3e76f6ce	0.24117586
248	0x3eab0cd1	0.33408216
249	0x3d38bec1	0.045103792
250	0x3dfabe47	0.12243324
251	0x3e0544d2	0.13014534
252	0xbe651599	-0.2237152
253	0x3d82d33c	0.06387946
254	0xbdf9772b	-0.121809326
255	0x3d4606ee	0.048346452

module.net_ts.layer2.0.bn1.weight f4 [32]
0	0x3f425e95	0.7592557
1	0x3f2e0c25	0.6798728
2	0x3f25ee01	0.6481629
3	0x3f239e2f	0.63913244
4	0x3f1ff274	0.6247933
5	0x3f5bab2e	0.85808074
6	0x3f4174e7	0.75569004
7	0x3f27d80c	0.65564036
8	0x3f4bbd58	0.7958579
9	0x3f1e97f0	0.6195059
10	0x3f3ff46b	0.7498233
11	0x3ee766c6	0.45195597
12	0x3f391530	0.72297955
13	0x3f2ca4a0	0.674387
14	0x3f33fcaf	0.7030744
15	0x3f512bd9	0.8170753
16	0x3f42d66a	0.7610842
17	0x3f0f50f9	0.5598293
18	0x3f2dc250	0.6787462
19	0x3f3534b3	0.7078354
20	0x3f374712	0.7159282
21	0x3f24ea65	0.6442016
22	0x3f348c6e	0.7052678
23	0x3f4d682c	0.8023708
24	0x3f3b335b	0.7312524
25	0x3f3f9592	0.748376
26	0x3f1f377b	0.6219403
27	0x3f4ddeba	0.8041798
28	0x3f38ad88	0.7213979
29	0x3f428dcb	0.7599761
30	0x3f34696a	0.7047335
31	0x3f3381c0	0.7011986

module.net_ts.layer2.0.bn1.bias f4 [32]
0	0xbc108764	-0.008821342
1	0xbdfaeb88	-0.12251955
2	0xbe4ad5ed	-0.19808169
3	0xbe1ce402	-0.15321353
4	0xbe3a3bf8	-0.18186939
5	0xbe68379b	-0.22677462
6	0xbe264631	-0.16237713
7	0xbd952a9d	-0.072835185
8	0xbd457a22	-0.048212178
9	0xbd5d2bcb	-0.053996842
10	0xbe351a3a	-0.17685786
11	0xbe23370b	-0.15938966
12	0x3c0ecc3a	0.008715684
13	0xbe22ebcb	-0.1591026
14	0xbdf72fc6	-0.12069659
15	0xbe390db8	-0.1807164
16	0xbe5e0ee6	-0.21685371
17	0xbdce86a6	-0.10084276
18	0x3ba6ca95	0.0050900676
19	0xbd46d88d	-0.048546363
20	0xbe2a7a17	-0.16648136
21	0xbe012142	-0.12610343
22	0xbe0a0b13	-0.13480787
23	0xbe3fba18	-0.18723333
24	0xbe807599	-0.2508972
25	0x3d5ca231	0.053865615
26	0x3c07ca45	0.008287971
27	0xbe115da1	-0.14195873
28	0xbd05c222	-0.032655843
29	0xbd93642f	-0.07196843
30	0xbd43bee7	-0.04778948
31	0xbdcad3d9	-0.09903688

module.net_ts.layer2.0.bn1.running_mean f4 [32]
0	0xbff41058	-1.9067488
1	0xbf95efce	-1.1713808
2	0x3f5f7105	0.8728183
3	0x40206fa2	2.5068135
4	0xbf755d7f	-0.9584579
5	0xbf9ba0b9	-1.2158424
6	0xbf180fb7	-0.5939898
7	0x3f0e933a	0.556934
8	0xbfa1a050	-1.2627048
9	0xbf8916b5	-1.0710055
10	0x3ebf1543	0.3732091
11	0x3ee69047	0.4503195
12	0xbfc5e16c	-1.5459418
13	0xbf938b8b	-1.152696
14	0xbedbc398	-0.42922664
15	0xbe6704db	-0.22560446
16	0xbed03b07	-0.40670034
17	0xbf1554da	-0.583326
18	0x3dace65c	0.08442375
19	0x3fa14956	1.2600505
20	0x407b332b	3.924998
21	0xbf0e559b	-0.55599374
22	0x3f72aadc	0.9479196
23	0x3e8fe084	0.2810098
24	0xbf8562ea	-1.0420811
25	0x3e8f5549	0.27994755
26	0xbfa62b36	-1.2981937
27	0x3e1b509c	0.15167469
28	0xc01afe12	-2.4217572
29	0xbcd79f2d	-0.026321018
30	0xbf09adc7	-0.5378079
31	0xbfbfbe04	-1.4979863

module.net_ts.layer2.0.bn1.running_var f4 [32]
0	0x3ff76f7b	1.9330896
1	0x3f9c23ed	1.2198464
2	0x3fbe32ec	1.485929
3	0x3fe311d3	1.7739815
4	0x3f9f0b18	1.242526
5	0x3ff31930	1.8992062
6	0x3f5fb068	0.8737855
7	0x3fced908	1.6159983
8	0x3fbf00f4	1.4922166
9	0x3f85da43	1.0457233
10	0x3fd4791d	1.6599461
11	0x3f4780b2	0.7793075
12	0x4005cb0e	2.0905185
13	0x3f8b4641	1.0880815
14	0x3ff52577	1.9152058
15	0x40099805	2.1499035
16	0x40011d02	2.0173955
17	0x3f75a34c	0.95952296
18	0x3fab51b9	1.3384315
19	0x3fa58306	1.293061
20	0x3fd4d18d	1.662645
21	0x3fa56ea3	1.2924389
22	0x3fc38fcd	1.527826
23	0x40118cff	2.2742307
24	0x3fc0712c	1.5034537
25	0x3fcee95f	1.6164969
26	0x3fb92e15	1.4467188
27	0x3fdcdcdb	1.72549
28	0x3fc073d4	1.5035348
29	0x3fd2cd58	1.6468916
30	0x3fd4a1b8	1.6611853
31	0x3fbb5425	1.4635054

module.net_ts.layer2.0.conv2.weight f4 [32, 32, 3]
0	0x3c0b4a57	0.008501611
1	0xbd6efca4	-0.058346406
2	0x3c8911c1	0.016732099
3	0xbd20d5ac	-0.039266273
4	0x3dd2af18	0.10287303
5	0x3d44220a	0.047884025
6	0xbc893a70	-0.016751498
7	0xbc89e344	-0.016832002
8	0x3e014a86	0.12626085
9	0xbe6ad4ad	-0.22932692
10	0x3d3f4b5d	0.04670273
11	0xbc7fa6aa	-0.015603701
12	0xbec86eb0	-0.39146948
13	0xbc9e5ab6	-0.019330364
14	0xbd073199	-0.033006284
15	0x3e106ae8	0.14103281
16	0xbe8b8115	-0.2724692
17	0xbe673379	-0.22578229
18	0x3e5b5844	0.2142039
19	0xbc940f49	-0.018073695
20	0xbe01541f	-0.12629746
21	0xbc01b303	-0.007916215
22	0x3d413fbd	0.047179926
23	0xbdac23ff	-0.08405303
24	0x3d96e945	0.073687114
25	0x3ae2f32d	0.0017314904
26	0xbe64ca65	-0.22342832
27	0x3e2c13bd	0.16804405
28	0x3e320cbc	0.1738767
29	0xbd6eabae	-0.058269195
30	0x3e0e1c2e	0.13877937
31	0xbde3e712	-0.111280575
32	0x3df8dd34	0.12151566
33	0xbd52abb1	-0.05143327
34	0xbd01a512	-0.031651564
35	0x3e0a8cc3	0.13530259
36	0xbdb0af54	-0.08627191
37	0xbde8b79d	-0.113631465
38	0x3eb2841b	0.34866413
39	0xbdfdc71c	-0.12391493
40	0xbb647f4e	-0.0034865919
41	0xbe00f9ad	-0.12595244
42	0x3be7bf32	0.007072353
43	0xbdf45e9c	-0.11932108
44	0x3be63a5e	0.007026001
45	0x3e06f232	0.13178328
46	0x3dc53f10	0.09631169
47	0x3eb4f941	0.35346416
48	0x3dcfee55	0.1015288
49	0xbe01bfe0	-0.12670851
50	0xbd23c444	-0.039982095
51	0xbe7648ed	-0.24051256
52	0xbe08372d	-0.13302298
53	0xbe642e27	-0.2228323
54	0xbcb68f07	-0.022284998
55	0xbd969941	-0.073534496
56	0x3e444383	0.19166379
57	0xbe299277	-0.16559778
58	0x3db1410a	0.08654983
59	0x3e22652c	0.15858907
60	0xbed3a2e6	-0.4133522
61	0xbd8635b0	-0.06553209
62	0xbe821d2a	-0.25412875
63	0xbe3669ad	-0.1781375
64	0x3c6d5164	0.014484737
65	0xbdd98b8b	-0.10622319
66	0xbd83c6dd	-0.064344145
67	0x3de94db2	0.11391772
68	0xbdecb897	-0.11558645
69	0x3e11136b	0.14167564
70	0xbdf9b6bf	-0.12193059
71	0xbdefed84	-0.117152244
72	0x3e081b8c	0.13291758
73	0x3dd367e9	0.10322554
74	0x3e1bc558	0.15212
75	0xbe06276e	-0.13100979
76	0x3e8fc906	0.28083056
77	0x3eb249f4	0.34822047
78	0x3e34f766	0.176725
79	0xbe872be0	-0.2640066
80	0x3dbcfeef	0.09228312
81	0xbe8535d7	-0.2601764
82	0xbe4aecfc	-0.19816965
83	0x3d45da7a	0.04830406
84	0x3d49d43f	0.04927468
85	0x3e38b042	0.18035987
86	0xbd9dcb83	-0.077048324
87	0xbd35a1a4	-0.044343606
88	0xbd7c0691	-0.0615297
89	0xbe3bc4da	-0.18336812
90	0xbd9bf3be	-0.076148495
91	0xbdd71e92	-0.10503878
92	0xbe85778c	-0.2606777
93	0xbdf7beb1	-0.120969184
94	0xbd06d7cc	-0.032920644
95	0xbdc1b250	-0.094578385
96	0xbd83150b	-0.06400498
97	0x3e1a000c	0.1503908
98	0x3ce1a333	0.02754364
99	0x3c57b3f6	0.013165465
100	0xbd7ecf10	-0.06220919
101	0x3e9bf34b	0.30459055
102	0x3bcb7165	0.006208586
103	0xbcb40deb	-0.021979293
104	0x3e6b6e12	0.22991207
105	0x3e93e2c6	0.28883952
106	0xbe15deea	-0.14635816
107	0xbe95e4eb	-0.29276213
108	0xbe347eef	-0.17626546
109	0x3dd6114e	0.10452519
110	0xbd37f7fd	-0.044914234
111	0xbd285914	-0.041100577
112	0x3da22984	0.07918075
113	0x3e1a1120	0.15045595
114	0xbdd61253	-0.10452714
115	0xbcf705ec	-0.030154191
116	0x3e0bd36c	0.1365487
117	0x3d61cd09	0.055127177
118	0xbe09dd6a	-0.13463369
119	0xbd9c34d3	-0.07627263
120	0x3e1e4463	0.15455775
121	0xbca5f5f8	-0.020258889
122	0x3df9cf2d	0.12197719
123	0xbe380c27	-0.17973386
124	0x3e6bfb5a	0.23045102
125	0xbd294dfa	-0.04133413
126	0x3dff0c3c	0.124535054
127	0xbe2e8097	-0.1704124
128	0xbe4b94ce	-0.19880983
129	0x3cc2b639	0.023768531
130	0xbe03d32a	-0.12873521
131	0x3da67fbd	0.08129833
132	0x3d93003f	0.07177781
133	0xbb4019ac	-0.0029312177
134	0x3c073fe1	0.008254976
135	0xbde81def	-0.113338344
136	0x3d9f1648	0.07767922
137	0x3de301f1	0.11084355
138	0xbca346df	-0.019931255
139	0xbd38b692	-0.045095988
140	0xbccaa42d	-0.024736488
141	0x3d8f90b2	0.0701002
142	0x3d5c48d5	0.053780396
143	0xbd995c07	-0.07488256
144	0x3c184540	0.009293854
145	0xbc974b0b	-0.0184684
146	0x3c9a0164	0.018799491
147	0xbc721c2d	-0.014777225
148	0x3d241b78	0.04006526
149	0xbd8d9920	-0.06913972
150	0x3e98b5cf	0.2982621
151	0xbda86295	-0.08221928
152	0xbdb58291	-0.08862794
153	0xbbfb688e	-0.007672376
154	0x3d9f0c19	0.07765979
155	0xbe4950bc	-0.19659704
156	0x3cf810f4	0.030281521
157	0x3e19f46b	0.15034644
158	0xbc91b41c	-0.017786078
159	0xbdc16818	-0.094436824
160	0x3d03d8c0	0.03218913
161	0x3e547cbd	0.20750709
162	0x3e387e73	0.18016987
163	0x3cdbacb6	0.026815753
164	0xbd45744f	-0.048206624
165	0xbdf94bf4	-0.1217269
166	0xbea673d7	-0.32510254
167	0xbe2e14e1	-0.17000152
168	0xbe96a1a0	-0.29420185
169	0x3e9ebf2d	0.3100523
170	0xbe034586	-0.1281949
171	0x3dcf481d	0.101211764
172	0x3d14ede2	0.036359675
173	0xbe61ddf5	-0.22057326
174	0x3bcf6760	0.006329462
175	0xbdcab48b	-0.09897717
176	0xba597668	-0.0008295537
177	0xbd64729d	-0.055773366
178	0x3ea46931	0.32111505
179	0xbd1744a7	-0.036930706
180	0x3d7c747b	0.061634522
181	0x3d0655bd	0.03279661
182	0xbcaed9ef	-0.021344153
183	0xbe4ae189	-0.19812597
184	0x3d05ca5f	0.0326637
185	0x3d96b70c	0.07359132
186	0xbebc28cb	-0.36749873
187	0xbe3f1768	-0.18661273
188	0x3e0e7aa7	0.13913976
189	0xbdaabbcd	-0.083366014
190	0xbca2b594	-0.019861974
191	0xbcafbbf7	-0.021451933
192	0xbe3c436a	-0.18385091
193	0x3e8b98bc	0.27264965
194	0x3e79c2b4	0.2439068
195	0xbd6deb51	-0.058085743
196	0xbd75265b	-0.05985103
197	0x3e837b35	0.25679937
198	0x3e2bbb24	0.16770607
199	0x3e53ab39	0.20670785
200	0x3d527521	0.051381234
201	0xbcc0f163	-0.023552602
202	0xbd8b772d	-0.0680984
203	0x3e578cb2	0.21049765
204	0x3d96aa28	0.073566735
205	0xbcbd08ea	-0.02307554
206	0x3db78b84	0.08962157
207	0x3d6579b3	0.056024265
208	0x3e91ce78	0.28477836
209	0xbd3db8ee	-0.04631894
210	0x3d904ce1	0.070459135
211	0x3e1f1c83	0.1553822
212	0x3e735ddf	0.23766278
213	0xbd901ea6	-0.07037096
214	0x3deb09cb	0.11476477
215	0x3dbf9183	0.09353926
216	0xbca02950	-0.01955095
217	0xbe127679	-0.14303006
218	0xbdcd8023	-0.10034206
219	0xbd4b4699	-0.049627874
220	0x3d2e1fab	0.04251067
221	0xbe0acd1c	-0.13554806
222	0x3e39c0ce	0.18139955
223	0xbe942112	-0.2893148
224	0xbe71196d	-0.23544855
225	0x3da2d962	0.07951619
226	0x3dc90f68	0.09817392
227	0xbca871af	-0.020562021
228	0x38f0f9fd	0.00011490656
229	0x3d857dae	0.06518112
230	0xbded1b6a	-0.115774944
231	0x3dff3678	0.12461561
232	0x3c95a328	0.018266276
233	0xbe74e316	-0.23914751
234	0xbdaf1ebc	-0.08550784
235	0x3c0c5b9a	0.008566761
236	0x3c88ff52	0.016723309
237	0x3cb4b330	0.0220581
238	0xbd0db90b	-0.0346003
239	0xbb770030	-0.003768932
240	0x3d203f60	0.03912294
241	0xbdc655ec	-0.09684357
242	0x3db288a7	0.087174706
243	0x3e66d616	0.22542605
244	0xbbdf1032	-0.0068073506
245	0xbe5e36f6	-0.21700653
246	0x3d261b70	0.04055351
247	0xbdf749e2	-0.12074639
248	0xbd008287	-0.03137448
249	0xbe08f41f	-0.13374375
250	0xbbbc1c1e	-0.0057406565
251	0x3e86fb7d	0.26363745
252	0x3e02a49e	0.12758109
253	0xbd264743	-0.040595304
254	0x3c5d3564	0.013501499
255	0x3e6d1aac	0.23154706

module.net_ts.layer2.0.bn2.weight f4 [32]
0	0x3f388f87	0.72094005
1	0x3f3ae886	0.7301105
2	0x3f3bd613	0.73373526
3	0x3f43599b	0.763086
4	0x3f383c36	0.71966875
5	0x3f488bc3	0.7833826
6	0x3f24a5f3	0.6431572
7	0x3f303e9c	0.68845534
8	0x3f243a6f	0.6415166
9	0x3f1d9a49	0.61563545
10	0x3f11318a	0.56716216
11	0x3f4e01c9	0.80471474
12	0x3f23610e	0.6381997
13	0x3f0ea5a5	0.55721503
14	0x3f4bcadf	0.7960643
15	0x3f23760e	0.6385201
16	0x3f2cb1d8	0.6745887
17	0x3f3d0504	0.7383578
18	0x3f49d98d	0.7884758
19	0x3f305e7a	0.6889416
20	0x3f286959	0.6578575
21	0x3f3f2783	0.74669665
22	0x3f41a5f9	0.7564388
23	0x3f16650b	0.5874793
24	0x3f59dc60	0.8510189
25	0x3f538d62	0.8263761
26	0x3f2f10a5	0.6838477
27	0x3f41e59d	0.7574099
28	0x3f17a1ee	0.5923146
29	0x3f3cc358	0.7373557
30	0x3f31193b	0.69179124
31	0x3f42524e	0.75906837

module.net_ts.layer2.0.bn2.bias f4 [32]
0	0xbe1e6bb7	-0.15470777
1	0xbd5cc0a9	-0.053894673
2	0xbd65d95b	-0.05611549
3	0xbde61aec	-0.11235604
4	0xbde824ef	-0.113351695
5	0xbb4f423b	-0.003162517
6	0x3d4157dd	0.047202934
7	0xbda53603	-0.080669425
8	0x3d1423dd	0.036167014
9	0x3c480bea	0.012209872
10	0xbd39768a	-0.045279063
11	0xbe0e1a7a	-0.13877288
12	0xbd07e218	-0.033174604
13	0xbd480811	-0.048835818
14	0xbdefdfba	-0.11712594
15	0xbe049a54	-0.12949497
16	0xbdf413a8	-0.11917812
17	0xbdff5718	-0.12467784
18	0xbd58c821	-0.052925233
19	0x3d3ede5e	0.046598785
20	0xbc11d547	-0.008900947
21	0xbe4bdec1	-0.19909193
22	0xbcbc69e9	-0.02299972
23	0x3c81db85	0.015851745
24	0xbdec1edd	-0.11529324
25	0x3d669759	0.05629668
26	0xbd47ca0b	-0.048776668
27	0xbd954895	-0.072892345
28	0x3c41fbc5	0.011839812
29	0xbe8956e7	-0.26824114
30	0x3d7d9319	0.06190786
31	0xbdf0ab96	-0.117514774

module.net_ts.layer2.0.bn2.running_mean f4 [32]
0	0xbec6c319	-0.38820723
1	0xbd947184	-0.07248214
2	0x3e825c7b	0.25461182
3	0xbecfd6d7	-0.40593597
4	0x3d9e3abc	0.077260464
5	0xbef77e1a	-0.48338395
6	0xbf11522c	-0.5676601
7	0xbcd4ca41	-0.025975348
8	0xbe921595	-0.2853209
9	0xbf360941	-0.7110787
10	0xbeb93a84	-0.36177456
11	0x3e7c461d	0.24636121
12	0xbe1d8cf0	-0.15385795
13	0x3e4a7135	0.19769748
14	0xbee01dc7	-0.43772718
15	0xbe408bab	-0.18803279
16	0x3f09f465	0.5388854
17	0x3e7dca14	0.24784118
18	0x3ed7fa32	0.4218307
19	0xbe71b626	-0.2360464
20	0xbe4b5d31	-0.19859768
21	0x3d7c85e2	0.061651118
22	0xbf9b8379	-1.2149497
23	0x3ee4e41a	0.44705278
24	0xbe786371	-0.24256684
25	0xbef74a78	-0.48299003
26	0x3e987c9a	0.29782563
27	0xbe149390	-0.14509416
28	0xbe17e092	-0.1483176
29	0x3dfe5723	0.12418964
30	0xbf055b2d	-0.5209225
31	0x3d450f4e	0.0481103

module.net_ts.layer2.0.bn2.running_var f4 [32]
0	0x3ecb37fc	0.3969115
1	0x3eade49f	0.33963487
2	0x3eaafe52	0.33397156
3	0x3ed8928a	0.422993
4	0x3eae6e46	0.34068507
5	0x3eb10b89	0.34579113
6	0x3ebfc4e1	0.37454894
7	0x3ec10caa	0.37704974
8	0x3ea5147a	0.32242185
9	0x3eb94fdb	0.36193737
10	0x3eab134d	0.33413163
11	0x3ee0359a	0.43790895
12	0x3e9723cb	0.29519495
13	0x3e87be48	0.2651236
14	0x3eac09c7	0.3360121
15	0x3eacc7ea	0.33746272
16	0x3ea0b592	0.31388527
17	0x3f0cd9a1	0.55019575
18	0x3f4e8100	0.8066559
19	0x3ec23dec	0.37937868
20	0x3ec14d50	0.37754297
21	0x3ec0b184	0.37635434
22	0x3ee1df0f	0.44115493
23	0x3e81deb4	0.25365222
24	0x3ee4105f	0.4454374
25	0x3ee02cfc	0.4378432
26	0x3eb766a8	0.35820508
27	0x3eb39c07	0.35079977
28	0x3ec6afd8	0.38806033
29	0x3ecc38cf	0.39887092
30	0x3ecaad57	0.39585373
31	0x3e992e62	0.299182
